…
      sampler {
        min_scale: 0.3
        max_scale: 1
        min_aspect_ratio: 0.5
        max_aspect_ratio: 2
      }
      sample_constraint {
        min_jaccard_overlap: 0.9
      }
      max_sample: 1
      max_trials: 50
    }
    batch_sampler {
      sampler {
        min_scale: 0.3
        max_scale: 1
        min_aspect_ratio: 0.5
        max_aspect_ratio: 2
      }
      sample_constraint {
        max_jaccard_overlap: 1
      }
      max_sample: 1
      max_trials: 50
    }
    label_map_file: "data/VOC0712/labelmap_voc.prototxt"
  }
}
layer {
  name: "conv1_1"
  type: "Convolution"
  bottom: "data"
  top: "conv1_1"
  param {
    lr_mult: 1
    decay_mult: 1
  }
  param {
    lr_mult: 2
    decay_mult: 0
  }
  convolution_param {
    num_output: 64
    pad: 1
    kernel_size: 3
    weight_filler {
      type: "xavier"
    }
    bias_filler {
      type: "constant"
      value: 0
    }
  }
}
layer {
  name: "relu1_1"
  type: "ReLU"
  bottom: "conv1_1"
  top: "conv1_1"
}
layer {
  name: "conv1_2"
  type: "Convolution"
  bottom: "conv1_1"
  top: "conv1_2"
  param {
    lr_mult: 1
    decay_mult: 1
  }
  param {
    lr_mult: 2
    decay_mult: 0
  }
  convolution_param {
    num_output: 64
    pad: 1
    kernel_size: 3
    weight_filler {
      type: "xavier"
    }
    bias_filler {
      type: "constant"
      value: 0
    }
  }
}
layer {
  name: "relu1_2"
  type: "ReLU"
  bottom: "conv1_2"
  top: "conv1_2"
}
layer {
  name: "pool1"
  type: "Pooling"
  bottom: "conv1_2"
  top: "pool1"
  pooling_param {
    pool: MAX
    kernel_size: 2
    stride: 2
  }
}
layer {
  name: "conv2_1"
  type: "Convolution"
  bottom: "pool1"
  top: "conv2_1"
  param {
    lr_mult: 1
    decay_mult: 1
  }
  param {
    lr_mult: 2
    decay_mult: 0
  }
  convolution_param {
    num_output: 128
    pad: 1
    kernel_size: 3
    weight_filler {
      type: "xavier"
    }
    bias_filler {
      type: "constant"
      value: 0
    }
  }
}
layer {
  name: "relu2_1"
  type: "ReLU"
  bottom: "conv2_1"
  top: "conv2_1"
}
layer {
  name: "conv2_2"
  type: "Convolution"
  bottom: "conv2_1"
  top: "conv2_2"
  param {
    lr_mult: 1
    decay_mult: 1
  }
  param {
    lr_mult: 2
    decay_mult: 0
  }
  convolution_param {
    num_output: 128
    pad: 1
    kernel_size: 3
    weight_filler {
      type: "xavier"
    }
    bias_filler {
      type: "constant"
      value: 0
    }
  }
}
layer {
  name: "relu2_2"
  type: "ReLU"
  bottom: "conv2_2"
  top: "conv2_2"
}
layer {
  name: "pool2"
  type: "Pooling"
  bottom: "conv2_2"
  top: "pool2"
  pooling_param {
    pool: MAX
    kernel_size: 2
    stride: 2
  }
}
layer {
  name: "conv3_1"
  type: "Convolution"
  bottom: "pool2"
  top: "conv3_1"
  param {
    lr_mult: 1
    decay_mult: 1
  }
  param {
    lr_mult: 2
    decay_mult: 0
  }
  convolution_param {
    num_output: 256
    pad: 1
    kernel_size: 3
    weight_filler {
      type: "xavier"
    }
    bias_filler {
      type: "constant"
      value: 0
    }
  }
}
layer {
  name: "relu3_1"
  type: "ReLU"
  bottom: "conv3_1"
  top: "conv3_1"
}
layer {
  name: "conv3_2"
  type: "Convolution"
  bottom: "conv3_1"
  top: "conv3_2"
  param {
    lr_mult: 1
    decay_mult: 1
  }
  param {
    lr_mult: 2
    decay_mult: 0
  }
  convolution_param {
    num_output: 256
    pad: 1
    kernel_size: 3
    weight_filler {
      type: "xavier"
    }
    bias_filler {
      type: "constant"
      value: 0
    }
  }
}
layer {
  name: "relu3_2"
  type: "ReLU"
  bottom: "conv3_2"
  top: "conv3_2"
}
layer {
  name: "conv3_3"
  type: "Convolution"
  bottom: "conv3_2"
  top: "conv3_3"
  param {
    lr_mult: 1
    decay_mult: 1
  }
  param {
    lr_mult: 2
    decay_mult: 0
  }
  convolution_param {
    num_output: 256
    pad: 1
    kernel_size: 3
    weight_filler {
      type: "xavier"
    }
    bias_filler {
      type: "constant"
      value: 0
    }
  }
}
layer {
  name: "relu3_3"
  type: "ReLU"
  bottom: "conv3_3"
  top: "conv3_3"
}
layer {
  name: "pool3"
  type: "Pooling"
  bottom: "conv3_3"
  top: "pool3"
  pooling_param {
    pool: MAX
    kernel_size: 2
    stride: 2
  }
}
layer {
  name: "conv4_1"
  type: "Convolution"
  bottom: "pool3"
  top: "conv4_1"
  param {
    lr_mult: 1
    decay_mult: 1
  }
  param {
    lr_mult: 2
    decay_mult: 0
  }
  convolution_param {
    num_output: 512
    pad: 1
    kernel_size: 3
    weight_filler {
      type: "xavier"
    }
    bias_filler {
      type: "constant"
      value: 0
    }
  }
}
layer {
  name: "relu4_1"
  type: "ReLU"
  bottom: "conv4_1"
  top: "conv4_1"
}
layer {
  name: "conv4_2"
  type: "Convolution"
  bottom: "conv4_1"
  top: "conv4_2"
  param {
    lr_mult: 1
    decay_mult: 1
  }
  param {
    lr_mult: 2
    decay_mult: 0
  }
  convolution_param {
    num_output: 512
    pad: 1
    kernel_size: 3
    weight_filler {
      type: "xavier"
    }
    bias_filler {
      type: "constant"
      value: 0
    }
  }
}
layer {
  name: "relu4_2"
  type: "ReLU"
  bottom: "conv4_2"
  top: "conv4_2"
}
layer {
  name: "conv4_3"
  type: "Convolution"
  bottom: "conv4_2"
  top: "conv4_3_ori"
  param {
    lr_mult: 1
    decay_mult: 1
  }
  param {
    lr_mult: 2
    decay_mult: 0
  }
  convolution_param {
    num_output: 512
    pad: 1
    kernel_size: 3
    weight_filler {
      type: "xavier"
    }
    bias_filler {
      type: "constant"
      value: 0
    }
  }
}
layer {
  name: "relu4_3"
  type: "ReLU"
  bottom: "conv4_3_ori"
  top: "conv4_3_ori"
}
layer {
  name: "seg_pool4"
  type: "Pooling"
  bottom: "conv4_3_ori"
  top: "seg_pool4"
  pooling_param {
    pool: MAX
    kernel_size: 3
    stride: 1
    pad: 1
  }
}
layer {
  name: "seg5_1"
  type: "Convolution"
  bottom: "seg_pool4"
  top: "seg5_1"
  param {
    lr_mult: 1
    decay_mult: 1
  }
  param {
    lr_mult: 2
    decay_mult: 0
  }
  convolution_param {
    num_output: 512
    pad: 2
    kernel_size: 3
    weight_filler {
      type: "xavier"
    }
    bias_filler {
      type: "constant"
      value: 0
    }
    dilation: 2
  }
}
layer {
  name: "seg_relu5_1"
  type: "ReLU"
  bottom: "seg5_1"
  top: "seg5_1"
}
layer {
  name: "seg5_2"
  type: "Convolution"
  bottom: "seg5_1"
  top: "seg5_2"
  param {
    lr_mult: 1
    decay_mult: 1
  }
  param {
    lr_mult: 2
    decay_mult: 0
  }
  convolution_param {
    num_output: 512
    pad: 2
    kernel_size: 3
    weight_filler {
      type: "xavier"
    }
    bias_filler {
      type: "constant"
      value: 0
    }
    dilation: 2
  }
}
layer {
  name: "seg_relu5_2"
  type: "ReLU"
  bottom: "seg5_2"
  top: "seg5_2"
}
layer {
  name: "seg5_3"
  type: "Convolution"
  bottom: "seg5_2"
  top: "seg5_3"
  param {
    lr_mult: 1
    decay_mult: 1
  }
  param {
    lr_mult: 2
    decay_mult: 0
  }
  convolution_param {
    num_output: 512
    pad: 2
    kernel_size: 3
    weight_filler {
      type: "xavier"
    }
    bias_filler {
      type: "constant"
      value: 0
    }
    dilation: 2
  }
}
layer {
  name: "seg_relu5_3"
  type: "ReLU"
  bottom: "seg5_3"
  top: "seg5_3"
}
layer {
  name: "seg_pool5"
  type: "Pooling"
  bottom: "seg5_3"
  top: "seg_pool5"
  pooling_param {
    pool: MAX
    kernel_size: 3
    stride: 1
    pad: 1
  }
}
layer {
  name: "seg6"
  type: "Convolution"
  bottom: "seg_pool5"
  top: "seg6"
  param {
    lr_mult: 1
    decay_mult: 1
  }
  param {
    lr_mult: 2
    decay_mult: 0
  }
  convolution_param {
    num_output: 1024
    pad: 4
    kernel_size: 3
    weight_filler {
      type: "xavier"
    }
    bias_filler {
      type: "constant"
      value: 0
    }
    dilation: 4
  }
}
layer {
  name: "seg_relu6"
  type: "ReLU"
  bottom: "seg6"
  top: "seg6"
}
layer {
  name: "seg_drop6"
  type: "Dropout"
  bottom: "seg6"
  top: "seg6"
  dropout_param {
    dropout_ratio: 0.5
  }
}
layer {
  name: "seg7"
  type: "Convolution"
  bottom: "seg6"
  top: "seg7"
  param {
    lr_mult: 1
    decay_mult: 1
  }
  param {
    lr_mult: 2
    decay_mult: 0
  }
  convolution_param {
    num_output: 1024
    kernel_size: 1
    weight_filler {
      type: "xavier"
    }
    bias_filler {
      type: "constant"
      value: 0
    }
  }
}
layer {
  name: "seg_relu7"
  type: "ReLU"
  bottom: "seg7"
  top: "seg7"
}
layer {
  name: "seg_drop7"
  type: "Dropout"
  bottom: "seg7"
  top: "seg7d"
  dropout_param {
    dropout_ratio: 0.5
  }
}
layer {
  name: "seg_new"
  type: "Convolution"
  bottom: "seg7d"
  top: "seg"
  param {
    lr_mult: 10
    decay_mult: 1
  }
  param {
    lr_mult: 20
    decay_mult: 0
  }
  convolution_param {
    num_output: 21
    kernel_size: 1
    weight_filler {
      type: "gaussian"
      std: 0.01
    }
    bias_filler {
      type: "constant"
      value: 0
    }
  }
}
layer {
  name: "seg_gt"
  type: "SegGt"
  bottom: "label"
  bottom: "seg"
  top: "seg_gt"
  seggt_param {
    background_label_id: 0
    use_difficult_gt: true
  }
}
layer {
  name: "seg_loss"
  type: "SoftmaxWithLoss"
  bottom: "seg"
  bottom: "seg_gt"
  top: "seg_loss"
  loss_weight: 0.1
  propagate_down: true
  propagate_down: false
  softmax_param {
    axis: 1
  }
}
layer {
  name: "seg_to_det_conv"
  type: "Convolution"
  bottom: "seg7"
  top: "seg_to_det_conv"
  param {
    lr_mult: 1
    decay_mult: 1
  }
  param {
    lr_mult: 2
    decay_mult: 0
  }
  convolution_param {
    num_output: 512
    pad: 0
    kernel_size: 1
    stride: 1
    weight_filler {
      type: "xavier"
    }
    bias_filler {
      type: "constant"
      value: 0
    }
  }
}
layer {
  name: "mult_conv4_3"
  type: "Eltwise"
  bottom: "conv4_3_ori"
  bottom: "seg_to_det_conv"
  top: "conv4_3_t"
  eltwise_param {
    operation: PROD
  }
}
layer {
  name: "conv4_3_s"
  type: "Pooling"
  bottom: "conv4_3_t"
  top: "conv4_3_s"
  pooling_param {
    pool: AVE
    global_pooling: true
  }
}
layer {
  name: "conv4_3_fc1"
  type: "Convolution"
  bottom: "conv4_3_s"
  top: "conv4_3_fc1"
  param {
    lr_mult: 1
    decay_mult: 1
  }
  param {
    lr_mult: 2
    decay_mult: 0
  }
  convolution_param {
    num_output: 128
    kernel_size: 1
    stride: 1
    weight_filler {
      type: "xavier"
    }
    bias_filler {
      type: "constant"
      value: 0
    }
  }
}
layer {
  name: "conv4_3_relu"
  type: "ReLU"
  bottom: "conv4_3_fc1"
  top: "conv4_3_fc1"
}
layer {
  name: "conv4_3_fc2"
  type: "Convolution"
  bottom: "conv4_3_fc1"
  top: "conv4_3_fc2"
  param {
    lr_mult: 1
    decay_mult: 1
  }
  param {
    lr_mult: 2
    decay_mult: 0
  }
  convolution_param {
    num_output: 512
    kernel_size: 1
    stride: 1
    weight_filler {
      type: "xavier"
    }
    bias_filler {
      type: "constant"
      value: 0
    }
  }
}
layer {
  name: "conv4_3_sig"
  type: "Sigmoid"
  bottom: "conv4_3_fc2"
  top: "conv4_3_fc2"
}
layer {
  name: "conv4_3_reshape"
  type: "Reshape"
  bottom: "conv4_3_fc2"
  top: "conv4_3_reshape"
  reshape_param {
    shape {
      dim: 0
      dim: 0
    }
  }
}
layer {
  name: "conv4_3_scale"
  type: "Scale"
  bottom: "conv4_3_t"
  bottom: "conv4_3_reshape"
  top: "conv4_3"
  scale_param {
    axis: 0
    bias_term: false
  }
}
layer {
  name: "pool4"
  type: "Pooling"
  bottom: "conv4_3"
  top: "pool4"
  pooling_param {
    pool: MAX
    kernel_size: 2
    stride: 2
  }
}
layer {
  name: "conv5_1"
  type: "Convolution"
  bottom: "pool4"
  top: "conv5_1"
  param {
    lr_mult: 1
    decay_mult: 1
  }
  param {
    lr_mult: 2
    decay_mult: 0
  }
  convolution_param {
    num_output: 512
    pad: 1
    kernel_size: 3
    weight_filler {
      type: "xavier"
    }
    bias_filler {
      type: "constant"
      value: 0
    }
    dilation: 1
  }
}
layer {
  name: "relu5_1"
  type: "ReLU"
  bottom: "conv5_1"
  top: "conv5_1"
}
layer {
  name: "conv5_2"
  type: "Convolution"
  bottom: "conv5_1"
  top: "conv5_2"
  param {
    lr_mult: 1
    decay_mult: 1
  }
  param {
    lr_mult: 2
    decay_mult: 0
  }
  convolution_param {
    num_output: 512
    pad: 1
    kernel_size: 3
    weight_filler {
      type: "xavier"
    }
    bias_filler {
      type: "constant"
      value: 0
    }
    dilation: 1
  }
}
layer {
  name: "relu5_2"
  type: "ReLU"
  bottom: "conv5_2"
  top: "conv5_2"
}
layer {
  name: "conv5_3"
  type: "Convolution"
  bottom: "conv5_2"
  top: "conv5_3"
  param {
    lr_mult: 1
    decay_mult: 1
  }
  param {
    lr_mult: 2
    decay_mult: 0
  }
  convolution_param {
    num_output: 512
    pad: 1
    kernel_size: 3
    weight_filler {
      type: "xavier"
    }
    bias_filler {
      type: "constant"
      value: 0
    }
    dilation: 1
  }
}
layer {
  name: "relu5_3"
  type: "ReLU"
  bottom: "conv5_3"
  top: "conv5_3"
}
layer {
  name: "pool5"
  type: "Pooling"
  bottom: "conv5_3"
  top: "pool5"
  pooling_param {
    pool: MAX
    kernel_size: 3
    stride: 1
    pad: 1
  }
}
layer {
  name: "fc6"
  type: "Convolution"
  bottom: "pool5"
  top: "fc6"
  param {
    lr_mult: 1
    decay_mult: 1
  }
  param {
    lr_mult: 2
    decay_mult: 0
  }
  convolution_param {
    num_output: 1024
    pad: 6
    kernel_size: 3
    weight_filler {
      type: "xavier"
    }
    bias_filler {
      type: "constant"
      value: 0
    }
    dilation: 6
  }
}
layer {
  name: "relu6"
  type: "ReLU"
  bottom: "fc6"
  top: "fc6"
}
layer {
  name: "fc7"
  type: "Convolution"
  bottom: "fc6"
  top: "fc7_t"
  param {
    lr_mult: 1
    decay_mult: 1
  }
  param {
    lr_mult: 2
    decay_mult: 0
  }
  convolution_param {
    num_output: 1024
    kernel_size: 1
    weight_filler {
      type: "xavier"
    }
    bias_filler {
      type: "constant"
      value: 0
    }
  }
}
layer {
  name: "relu7"
  type: "ReLU"
  bottom: "fc7_t"
  top: "fc7_t"
}
layer {
  name: "fc7_s"
  type: "Pooling"
  bottom: "fc7_t"
  top: "fc7_s"
  pooling_param {
    pool: AVE
    global_pooling: true
  }
}
layer {
  name: "fc7_fc1"
  type: "Convolution"
  bottom: "fc7_s"
  top: "fc7_fc1"
  param {
    lr_mult: 1
    decay_mult: 1
  }
  param {
    lr_mult: 2
    decay_mult: 0
  }
  convolution_param {
    num_output: 256
    kernel_size: 1
    stride: 1
    weight_filler {
      type: "xavier"
    }
    bias_filler {
      type: "constant"
      value: 0
    }
  }
}
layer {
  name: "fc7_relu"
  type: "ReLU"
  bottom: "fc7_fc1"
  top: "fc7_fc1"
}
layer {
  name: "fc7_fc2"
  type: "Convolution"
  bottom: "fc7_fc1"
  top: "fc7_fc2"
  param {
    lr_mult: 1
    decay_mult: 1
  }
  param {
    lr_mult: 2
    decay_mult: 0
  }
  convolution_param {
    num_output: 1024
    kernel_size: 1
    stride: 1
    weight_filler {
      type: "xavier"
    }
    bias_filler {
      type: "constant"
      value: 0
    }
  }
}
layer {
  name: "fc7_sig"
  type: "Sigmoid"
  bottom: "fc7_fc2"
  top: "fc7_fc2"
}
layer {
  name: "fc7_reshape"
  type: "Reshape"
  bottom: "fc7_fc2"
  top: "fc7_reshape"
  reshape_param {
    shape {
      dim: 0
      dim: 0
    }
  }
}
layer {
  name: "fc7_scale"
  type: "Scale"
  bottom: "fc7_t"
  bottom: "fc7_reshape"
  top: "fc7"
  scale_param {
    axis: 0
    bias_term: false
  }
}
layer {
  name: "conv6_1"
  type: "Convolution"
  bottom: "fc7"
  top: "conv6_1"
  param {
    lr_mult: 1
    decay_mult: 1
  }
  param {
    lr_mult: 2
    decay_mult: 0
  }
  convolution_param {
    num_output: 256
    pad: 0
    kernel_size: 1
    stride: 1
    weight_filler {
      type: "xavier"
    }
    bias_filler {
      type: "constant"
      value: 0
    }
  }
}
layer {
  name: "conv6_1_relu"
  type: "ReLU"
  bottom: "conv6_1"
  top: "conv6_1"
}
layer {
  name: "conv6_2"
  type: "Convolution"
  bottom: "conv6_1"
  top: "conv6_2_t"
  param {
    lr_mult: 1
    decay_mult: 1
  }
  param {
    lr_mult: 2
    decay_mult: 0
  }
  convolution_param {
    num_output: 512
    pad: 1
    kernel_size: 3
    stride: 2
    weight_filler {
      type: "xavier"
    }
    bias_filler {
      type: "constant"
      value: 0
    }
  }
}
layer {
  name: "conv6_2_relu"
  type: "ReLU"
  bottom: "conv6_2_t"
  top: "conv6_2_t"
}
layer {
  name: "conv6_2_s"
  type: "Pooling"
  bottom: "conv6_2_t"
  top: "conv6_2_s"
  pooling_param {
    pool: AVE
    global_pooling: true
  }
}
layer {
  name: "conv6_2_fc1"
  type: "Convolution"
  bottom: "conv6_2_s"
  top: "conv6_2_fc1"
  param {
    lr_mult: 1
    decay_mult: 1
  }
  param {
    lr_mult: 2
    decay_mult: 0
  }
  convolution_param {
    num_output: 128
    kernel_size: 1
    stride: 1
    weight_filler {
      type: "xavier"
    }
    bias_filler {
      type: "constant"
      value: 0
    }
  }
}
layer {
  name: "conv6_2_relu"
  type: "ReLU"
  bottom: "conv6_2_fc1"
  top: "conv6_2_fc1"
}
layer {
  name: "conv6_2_fc2"
  type: "Convolution"
  bottom: "conv6_2_fc1"
  top: "conv6_2_fc2"
  param {
    lr_mult: 1
    decay_mult: 1
  }
  param {
    lr_mult: 2
    decay_mult: 0
  }
  convolution_param {
    num_output: 512
    kernel_size: 1
    stride: 1
    weight_filler {
      type: "xavier"
    }
    bias_filler {
      type: "constant"
      value: 0
    }
  }
}
layer {
  name: "conv6_2_sig"
  type: "Sigmoid"
  bottom: "conv6_2_fc2"
  top: "conv6_2_fc2"
}
layer {
  name: "conv6_2_reshape"
  type: "Reshape"
  bottom: "conv6_2_fc2"
  top: "conv6_2_reshape"
  reshape_param {
    shape {
      dim: 0
      dim: 0
    }
  }
}
layer {
  name: "conv6_2_scale"
  type: "Scale"
  bottom: "conv6_2_t"
  bottom: "conv6_2_reshape"
  top: "conv6_2"
  scale_param {
    axis: 0
    bias_term: false
  }
}
layer {
  name: "conv7_1"
  type: "Convolution"
  bottom: "conv6_2"
  top: "conv7_1"
  param {
    lr_mult: 1
    decay_mult: 1
  }
  param {
    lr_mult: 2
    decay_mult: 0
  }
  convolution_param {
    num_output: 128
    pad: 0
    kernel_size: 1
    stride: 1
    weight_filler {
      type: "xavier"
    }
    bias_filler {
      type: "constant"
      value: 0
    }
  }
}
layer {
  name: "conv7_1_relu"
  type: "ReLU"
  bottom: "conv7_1"
  top: "conv7_1"
}
layer {
  name: "conv7_2"
  type: "Convolution"
  bottom: "conv7_1"
  top: "conv7_2_t"
  param {
    lr_mult: 1
    decay_mult: 1
  }
  param {
    lr_mult: 2
    decay_mult: 0
  }
  convolution_param {
    num_output: 256
    pad: 1
    kernel_size: 3
    stride: 2
    weight_filler {
      type: "xavier"
    }
    bias_filler {
      type: "constant"
      value: 0
    }
  }
}
layer {
  name: "conv7_2_relu"
  type: "ReLU"
  bottom: "conv7_2_t"
  top: "conv7_2_t"
}
layer {
  name: "conv7_2_s"
  type: "Pooling"
  bottom: "conv7_2_t"
  top: "conv7_2_s"
  pooling_param {
    pool: AVE
    global_pooling: true
  }
}
layer {
  name: "conv7_2_fc1"
  type: "Convolution"
  bottom: "conv7_2_s"
  top: "conv7_2_fc1"
  param {
    lr_mult: 1
    decay_mult: 1
  }
  param {
    lr_mult: 2
    decay_mult: 0
  }
  convolution_param {
    num_output: 64
    kernel_size: 1
    stride: 1
    weight_filler {
      type: "xavier"
    }
    bias_filler {
      type: "constant"
      value: 0
    }
  }
}
layer {
  name: "conv7_2_relu"
  type: "ReLU"
  bottom: "conv7_2_fc1"
  top: "conv7_2_fc1"
}
layer {
  name: "conv7_2_fc2"
  type: "Convolution"
  bottom: "conv7_2_fc1"
  top: "conv7_2_fc2"
  param {
    lr_mult: 1
    decay_mult: 1
  }
  param {
    lr_mult: 2
    decay_mult: 0
  }
  convolution_param {
    num_output: 256
    kernel_size: 1
    stride: 1
    weight_filler {
      type: "xavier"
    }
    bias_filler {
      type: "constant"
      value: 0
    }
  }
}
layer {
  name: "conv7_2_sig"
  type: "Sigmoid"
  bottom: "conv7_2_fc2"
  top: "conv7_2_fc2"
}
layer {
  name: "conv7_2_reshape"
  type: "Reshape"
  bottom: "conv7_2_fc2"
  top: "conv7_2_reshape"
  reshape_param {
    shape {
      dim: 0
      dim: 0
    }
  }
}
layer {
  name: "conv7_2_scale"
  type: "Scale"
  bottom: "conv7_2_t"
  bottom: "conv7_2_reshape"
  top: "conv7_2"
  scale_param {
    axis: 0
    bias_term: false
  }
}
layer {
  name: "conv8_1"
  type: "Convolution"
  bottom: "conv7_2"
  top: "conv8_1"
  param {
    lr_mult: 1
    decay_mult: 1
  }
  param {
    lr_mult: 2
    decay_mult: 0
  }
  convolution_param {
    num_output: 128
    pad: 0
    kernel_size: 1
    stride: 1
    weight_filler {
      type: "xavier"
    }
    bias_filler {
      type: "constant"
      value: 0
    }
  }
}
layer {
  name: "conv8_1_relu"
  type: "ReLU"
  bottom: "conv8_1"
  top: "conv8_1"
}
layer {
  name: "conv8_2"
  type: "Convolution"
  bottom: "conv8_1"
  top: "conv8_2_t"
  param {
    lr_mult: 1
    decay_mult: 1
  }
  param {
    lr_mult: 2
    decay_mult: 0
  }
  convolution_param {
    num_output: 256
    pad: 1
    kernel_size: 3
    stride: 2
    weight_filler {
      type: "xavier"
    }
    bias_filler {
      type: "constant"
      value: 0
    }
  }
}
layer {
  name: "conv8_2_relu"
  type: "ReLU"
  bottom: "conv8_2_t"
  top: "conv8_2_t"
}
layer {
  name: "conv8_2_s"
  type: "Pooling"
  bottom: "conv8_2_t"
  top: "conv8_2_s"
  pooling_param {
    pool: AVE
    global_pooling: true
  }
}
layer {
  name: "conv8_2_fc1"
  type: "Convolution"
  bottom: "conv8_2_s"
  top: "conv8_2_fc1"
  param {
    lr_mult: 1
    decay_mult: 1
  }
  param {
    lr_mult: 2
    decay_mult: 0
  }
  convolution_param {
    num_output: 64
    kernel_size: 1
    stride: 1
    weight_filler {
      type: "xavier"
    }
    bias_filler {
      type: "constant"
      value: 0
    }
  }
}
layer {
  name: "conv8_2_relu"
  type: "ReLU"
  bottom: "conv8_2_fc1"
  top: "conv8_2_fc1"
}
layer {
  name: "conv8_2_fc2"
  type: "Convolution"
  bottom: "conv8_2_fc1"
  top: "conv8_2_fc2"
  param {
    lr_mult: 1
    decay_mult: 1
  }
  param {
    lr_mult: 2
    decay_mult: 0
  }
  convolution_param {
    num_output: 256
    kernel_size: 1
    stride: 1
    weight_filler {
      type: "xavier"
    }
    bias_filler {
      type: "constant"
      value: 0
    }
  }
}
layer {
  name: "conv8_2_sig"
  type: "Sigmoid"
  bottom: "conv8_2_fc2"
  top: "conv8_2_fc2"
}
layer {
  name: "conv8_2_reshape"
  type: "Reshape"
  bottom: "conv8_2_fc2"
  top: "conv8_2_reshape"
  reshape_param {
    shape {
      dim: 0
      dim: 0
    }
  }
}
layer {
  name: "conv8_2_scale"
  type: "Scale"
  bottom: "conv8_2_t"
  bottom: "conv8_2_reshape"
  top: "conv8_2"
  scale_param {
    axis: 0
    bias_term: false
  }
}
layer {
  name: "conv9_1"
  type: "Convolution"
  bottom: "conv8_2"
  top: "conv9_1"
  param {
    lr_mult: 1
    decay_mult: 1
  }
  param {
    lr_mult: 2
    decay_mult: 0
  }
  convolution_param {
    num_output: 128
    pad: 0
    kernel_size: 1
    stride: 1
    weight_filler {
      type: "xavier"
    }
    bias_filler {
      type: "constant"
      value: 0
    }
  }
}
layer {
  name: "conv9_1_relu"
  type: "ReLU"
  bottom: "conv9_1"
  top: "conv9_1"
}
layer {
  name: "conv9_2"
  type: "Convolution"
  bottom: "conv9_1"
  top: "conv9_2_t"
  param {
    lr_mult: 1
    decay_mult: 1
  }
  param {
    lr_mult: 2
    decay_mult: 0
  }
  convolution_param {
    num_output: 256
    pad: 1
    kernel_size: 3
    stride: 2
    weight_filler {
      type: "xavier"
    }
    bias_filler {
      type: "constant"
      value: 0
    }
  }
}
layer {
  name: "conv9_2_relu"
  type: "ReLU"
  bottom: "conv9_2_t"
  top: "conv9_2_t"
}
layer {
  name: "conv9_2_s"
  type: "Pooling"
  bottom: "conv9_2_t"
  top: "conv9_2_s"
  pooling_param {
    pool: AVE
    global_pooling: true
  }
}
layer {
  name: "conv9_2_fc1"
  type: "Convolution"
  bottom: "conv9_2_s"
  top: "conv9_2_fc1"
  param {
    lr_mult: 1
    decay_mult: 1
  }
  param {
    lr_mult: 2
    decay_mult: 0
  }
  convolution_param {
    num_output: 64
    kernel_size: 1
    stride: 1
    weight_filler {
      type: "xavier"
    }
    bias_filler {
      type: "constant"
      value: 0
    }
  }
}
layer {
  name: "conv9_2_relu"
  type: "ReLU"
  bottom: "conv9_2_fc1"
  top: "conv9_2_fc1"
}
layer {
  name: "conv9_2_fc2"
  type: "Convolution"
  bottom: "conv9_2_fc1"
  top: "conv9_2_fc2"
  param {
    lr_mult: 1
    decay_mult: 1
  }
  param {
    lr_mult: 2
    decay_mult: 0
  }
  convolution_param {
    num_output: 256
    kernel_size: 1
    stride: 1
    weight_filler {
      type: "xavier"
    }
    bias_filler {
      type: "constant"
      value: 0
    }
  }
}
layer {
  name: "conv9_2_sig"
  type: "Sigmoid"
  bottom: "conv9_2_fc2"
  top: "conv9_2_fc2"
}
layer {
  name: "conv9_2_reshape"
  type: "Reshape"
  bottom: "conv9_2_fc2"
  top: "conv9_2_reshape"
  reshape_param {
    shape {
      dim: 0
      dim: 0
    }
  }
}
layer {
  name: "conv9_2_scale"
  type: "Scale"
  bottom: "conv9_2_t"
  bottom: "conv9_2_reshape"
  top: "conv9_2"
  scale_param {
    axis: 0
    bias_term: false
  }
}
layer {
  name: "conv10_1"
  type: "Convolution"
  bottom: "conv9_2"
  top: "conv10_1"
  param {
    lr_mult: 1
    decay_mult: 1
  }
  param {
    lr_mult: 2
    decay_mult: 0
  }
  convolution_param {
    num_output: 128
    pad: 0
    kernel_size: 1
    stride: 1
    weight_filler {
      type: "xavier"
    }
    bias_filler {
      type: "constant"
      value: 0
    }
  }
}
layer {
  name: "conv10_1_relu"
  type: "ReLU"
  bottom: "conv10_1"
  top: "conv10_1"
}
layer {
  name: "conv10_2"
  type: "Convolution"
  bottom: "conv10_1"
  top: "conv10_2_t"
  param {
    lr_mult: 1
    decay_mult: 1
  }
  param {
    lr_mult: 2
    decay_mult: 0
  }
  convolution_param {
    num_output: 256
    pad: 1
    kernel_size: 4
    stride: 1
    weight_filler {
      type: "xavier"
    }
    bias_filler {
      type: "constant"
      value: 0
    }
  }
}
layer {
  name: "conv10_2_relu"
  type: "ReLU"
  bottom: "conv10_2_t"
  top: "conv10_2_t"
}
layer {
  name: "conv10_2_s"
  type: "Pooling"
  bottom: "conv10_2_t"
  top: "conv10_2_s"
  pooling_param {
    pool: AVE
    global_pooling: true
  }
}
layer {
  name: "conv10_2_fc1"
  type: "Convolution"
  bottom: "conv10_2_s"
  top: "conv10_2_fc1"
  param {
    lr_mult: 1
    decay_mult: 1
  }
  param {
    lr_mult: 2
    decay_mult: 0
  }
  convolution_param {
    num_output: 64
    kernel_size: 1
    stride: 1
    weight_filler {
      type: "xavier"
    }
    bias_filler {
      type: "constant"
      value: 0
    }
  }
}
layer {
  name: "conv10_2_relu"
  type: "ReLU"
  bottom: "conv10_2_fc1"
  top: "conv10_2_fc1"
}
layer {
  name: "conv10_2_fc2"
  type: "Convolution"
  bottom: "conv10_2_fc1"
  top: "conv10_2_fc2"
  param {
    lr_mult: 1
    decay_mult: 1
  }
  param {
    lr_mult: 2
    decay_mult: 0
  }
  convolution_param {
    num_output: 256
    kernel_size: 1
    stride: 1
    weight_filler {
      type: "xavier"
    }
    bias_filler {
      type: "constant"
      value: 0
    }
  }
}
layer {
  name: "conv10_2_sig"
  type: "Sigmoid"
  bottom: "conv10_2_fc2"
  top: "conv10_2_fc2"
}
layer {
  name: "conv10_2_reshape"
  type: "Reshape"
  bottom: "conv10_2_fc2"
  top: "conv10_2_reshape"
  reshape_param {
    shape {
      dim: 0
      dim: 0
    }
  }
}
layer {
  name: "conv10_2_scale"
  type: "Scale"
  bottom: "conv10_2_t"
  bottom: "conv10_2_reshape"
  top: "conv10_2"
  scale_param {
    axis: 0
    bias_term: false
  }
}
layer {
  name: "conv4_3_norm"
  type: "Normalize"
  bottom: "conv4_3"
  top: "conv4_3_norm"
  norm_param {
    across_spatial: false
    scale_filler {
      type: "constant"
      value: 20
    }
    channel_shared: false
  }
}
layer {
  name: "conv4_3_norm_mbox_loc"
  type: "Convolution"
  bottom: "conv4_3_norm"
  top: "conv4_3_norm_mbox_loc"
  param {
    lr_mult: 1
    decay_mult: 1
  }
  param {
    lr_mult: 2
    decay_mult: 0
  }
  convolution_param {
    num_output: 16
    pad: 1
    kernel_size: 3
    stride: 1
    weight_filler {
      type: "xavier"
    }
    bias_filler {
      type: "constant"
      value: 0
    }
  }
}
layer {
  name: "conv4_3_norm_mbox_loc_perm"
  type: "Permute"
  bottom: "conv4_3_norm_mbox_loc"
  top: "conv4_3_norm_mbox_loc_perm"
  permute_param {
    order: 0
    order: 2
    order: 3
    order: 1
  }
}
layer {
  nam
I0315 11:58:14.941416 15573 layer_factory.hpp:77] Creating layer data
I0315 11:58:14.941814 15573 net.cpp:100] Creating Layer data
I0315 11:58:14.941848 15573 net.cpp:408] data -> data
I0315 11:58:14.941884 15573 net.cpp:408] data -> label
I0315 11:58:14.944138 15579 db_lmdb.cpp:35] Opened lmdb examples/VOC0712/VOC0712_trainval_lmdb
I0315 11:58:14.956302 15573 annotated_data_layer.cpp:62] output data size: 8,3,512,512
I0315 11:58:14.987839 15573 net.cpp:150] Setting up data
I0315 11:58:14.987866 15573 net.cpp:157] Top shape: 8 3 512 512 (6291456)
I0315 11:58:14.987871 15573 net.cpp:157] Top shape: 1 1 22 8 (176)
I0315 11:58:14.987875 15573 net.cpp:165] Memory required for data: 25166528
I0315 11:58:14.987886 15573 layer_factory.hpp:77] Creating layer data_data_0_split
I0315 11:58:14.987901 15573 net.cpp:100] Creating Layer data_data_0_split
I0315 11:58:14.987907 15573 net.cpp:434] data_data_0_split <- data
I0315 11:58:14.987924 15573 net.cpp:408] data_data_0_split -> data_data_0_split_0
I0315 11:58:14.987942 15573 net.cpp:408] data_data_0_split -> data_data_0_split_1
I0315 11:58:14.987957 15573 net.cpp:408] data_data_0_split -> data_data_0_split_2
I0315 11:58:14.987964 15573 net.cpp:408] data_data_0_split -> data_data_0_split_3
I0315 11:58:14.987969 15573 net.cpp:408] data_data_0_split -> data_data_0_split_4
I0315 11:58:14.987975 15573 net.cpp:408] data_data_0_split -> data_data_0_split_5
I0315 11:58:14.987982 15573 net.cpp:408] data_data_0_split -> data_data_0_split_6
I0315 11:58:14.987989 15573 net.cpp:408] data_data_0_split -> data_data_0_split_7
I0315 11:58:14.988131 15573 net.cpp:150] Setting up data_data_0_split
I0315 11:58:14.988140 15573 net.cpp:157] Top shape: 8 3 512 512 (6291456)
I0315 11:58:14.988147 15573 net.cpp:157] Top shape: 8 3 512 512 (6291456)
I0315 11:58:14.988170 15573 net.cpp:157] Top shape: 8 3 512 512 (6291456)
I0315 11:58:14.988175 15573 net.cpp:157] Top shape: 8 3 512 512 (6291456)
I0315 11:58:14.988179 15573 net.cpp:157] Top shape: 8 3 512 512 (6291456)
I0315 11:58:14.988186 15573 net.cpp:157] Top shape: 8 3 512 512 (6291456)
I0315 11:58:14.988194 15573 net.cpp:157] Top shape: 8 3 512 512 (6291456)
I0315 11:58:14.988200 15573 net.cpp:157] Top shape: 8 3 512 512 (6291456)
I0315 11:58:14.988206 15573 net.cpp:165] Memory required for data: 226493120
I0315 11:58:14.988211 15573 layer_factory.hpp:77] Creating layer label_data_1_split
I0315 11:58:14.988220 15573 net.cpp:100] Creating Layer label_data_1_split
I0315 11:58:14.988224 15573 net.cpp:434] label_data_1_split <- label
I0315 11:58:14.988231 15573 net.cpp:408] label_data_1_split -> label_data_1_split_0
I0315 11:58:14.988239 15573 net.cpp:408] label_data_1_split -> label_data_1_split_1
I0315 11:58:14.988267 15573 net.cpp:150] Setting up label_data_1_split
I0315 11:58:14.988276 15573 net.cpp:157] Top shape: 1 1 22 8 (176)
I0315 11:58:14.988284 15573 net.cpp:157] Top shape: 1 1 22 8 (176)
I0315 11:58:14.988289 15573 net.cpp:165] Memory required for data: 226494528
I0315 11:58:14.988294 15573 layer_factory.hpp:77] Creating layer conv1_1
I0315 11:58:14.988313 15573 net.cpp:100] Creating Layer conv1_1
I0315 11:58:14.988319 15573 net.cpp:434] conv1_1 <- data_data_0_split_0
I0315 11:58:14.988329 15573 net.cpp:408] conv1_1 -> conv1_1
I0315 11:58:15.034446 15580 blocking_queue.cpp:50] Waiting for data
I0315 11:58:15.400225 15573 net.cpp:150] Setting up conv1_1
I0315 11:58:15.400251 15573 net.cpp:157] Top shape: 8 64 512 512 (134217728)
I0315 11:58:15.400256 15573 net.cpp:165] Memory required for data: 763365440
I0315 11:58:15.400275 15573 layer_factory.hpp:77] Creating layer relu1_1
I0315 11:58:15.400288 15573 net.cpp:100] Creating Layer relu1_1
I0315 11:58:15.400296 15573 net.cpp:434] relu1_1 <- conv1_1
I0315 11:58:15.400303 15573 net.cpp:395] relu1_1 -> conv1_1 (in-place)
I0315 11:58:15.400475 15573 net.cpp:150] Setting up relu1_1
I0315 11:58:15.400486 15573 net.cpp:157] Top shape: 8 64 512 512 (134217728)
I0315 11:58:15.400490 15573 net.cpp:165] Memory required for data: 1300236352
I0315 11:58:15.400494 15573 layer_factory.hpp:77] Creating layer conv1_2
I0315 11:58:15.400509 15573 net.cpp:100] Creating Layer conv1_2
I0315 11:58:15.400514 15573 net.cpp:434] conv1_2 <- conv1_1
I0315 11:58:15.400522 15573 net.cpp:408] conv1_2 -> conv1_2
I0315 11:58:15.402556 15573 net.cpp:150] Setting up conv1_2
I0315 11:58:15.402570 15573 net.cpp:157] Top shape: 8 64 512 512 (134217728)
I0315 11:58:15.402573 15573 net.cpp:165] Memory required for data: 1837107264
I0315 11:58:15.402582 15573 layer_factory.hpp:77] Creating layer relu1_2
I0315 11:58:15.402593 15573 net.cpp:100] Creating Layer relu1_2
I0315 11:58:15.402597 15573 net.cpp:434] relu1_2 <- conv1_2
I0315 11:58:15.402603 15573 net.cpp:395] relu1_2 -> conv1_2 (in-place)
I0315 11:58:15.402752 15573 net.cpp:150] Setting up relu1_2
I0315 11:58:15.402761 15573 net.cpp:157] Top shape: 8 64 512 512 (134217728)
I0315 11:58:15.402765 15573 net.cpp:165] Memory required for data: 2373978176
I0315 11:58:15.402768 15573 layer_factory.hpp:77] Creating layer pool1
I0315 11:58:15.402776 15573 net.cpp:100] Creating Layer pool1
I0315 11:58:15.402781 15573 net.cpp:434] pool1 <- conv1_2
I0315 11:58:15.402786 15573 net.cpp:408] pool1 -> pool1
I0315 11:58:15.402832 15573 net.cpp:150] Setting up pool1
I0315 11:58:15.402838 15573 net.cpp:157] Top shape: 8 64 256 256 (33554432)
I0315 11:58:15.402842 15573 net.cpp:165] Memory required for data: 2508195904
I0315 11:58:15.402846 15573 layer_factory.hpp:77] Creating layer conv2_1
I0315 11:58:15.402858 15573 net.cpp:100] Creating Layer conv2_1
I0315 11:58:15.402863 15573 net.cpp:434] conv2_1 <- pool1
I0315 11:58:15.402869 15573 net.cpp:408] conv2_1 -> conv2_1
I0315 11:58:15.405181 15573 net.cpp:150] Setting up conv2_1
I0315 11:58:15.405194 15573 net.cpp:157] Top shape: 8 128 256 256 (67108864)
I0315 11:58:15.405197 15573 net.cpp:165] Memory required for data: 2776631360
I0315 11:58:15.405227 15573 layer_factory.hpp:77] Creating layer relu2_1
I0315 11:58:15.405236 15573 net.cpp:100] Creating Layer relu2_1
I0315 11:58:15.405241 15573 net.cpp:434] relu2_1 <- conv2_1
I0315 11:58:15.405247 15573 net.cpp:395] relu2_1 -> conv2_1 (in-place)
I0315 11:58:15.405694 15573 net.cpp:150] Setting up relu2_1
I0315 11:58:15.405705 15573 net.cpp:157] Top shape: 8 128 256 256 (67108864)
I0315 11:58:15.405709 15573 net.cpp:165] Memory required for data: 3045066816
I0315 11:58:15.405712 15573 layer_factory.hpp:77] Creating layer conv2_2
I0315 11:58:15.405722 15573 net.cpp:100] Creating Layer conv2_2
I0315 11:58:15.405730 15573 net.cpp:434] conv2_2 <- conv2_1
I0315 11:58:15.405740 15573 net.cpp:408] conv2_2 -> conv2_2
I0315 11:58:15.407610 15573 net.cpp:150] Setting up conv2_2
I0315 11:58:15.407624 15573 net.cpp:157] Top shape: 8 128 256 256 (67108864)
I0315 11:58:15.407629 15573 net.cpp:165] Memory required for data: 3313502272
I0315 11:58:15.407634 15573 layer_factory.hpp:77] Creating layer relu2_2
I0315 11:58:15.407640 15573 net.cpp:100] Creating Layer relu2_2
I0315 11:58:15.407645 15573 net.cpp:434] relu2_2 <- conv2_2
I0315 11:58:15.407652 15573 net.cpp:395] relu2_2 -> conv2_2 (in-place)
I0315 11:58:15.407811 15573 net.cpp:150] Setting up relu2_2
I0315 11:58:15.407820 15573 net.cpp:157] Top shape: 8 128 256 256 (67108864)
I0315 11:58:15.407824 15573 net.cpp:165] Memory required for data: 3581937728
I0315 11:58:15.407827 15573 layer_factory.hpp:77] Creating layer pool2
I0315 11:58:15.407836 15573 net.cpp:100] Creating Layer pool2
I0315 11:58:15.407840 15573 net.cpp:434] pool2 <- conv2_2
I0315 11:58:15.407846 15573 net.cpp:408] pool2 -> pool2
I0315 11:58:15.407881 15573 net.cpp:150] Setting up pool2
I0315 11:58:15.407888 15573 net.cpp:157] Top shape: 8 128 128 128 (16777216)
I0315 11:58:15.407891 15573 net.cpp:165] Memory required for data: 3649046592
I0315 11:58:15.407896 15573 layer_factory.hpp:77] Creating layer conv3_1
I0315 11:58:15.407904 15573 net.cpp:100] Creating Layer conv3_1
I0315 11:58:15.407912 15573 net.cpp:434] conv3_1 <- pool2
I0315 11:58:15.407917 15573 net.cpp:408] conv3_1 -> conv3_1
I0315 11:58:15.411119 15573 net.cpp:150] Setting up conv3_1
I0315 11:58:15.411134 15573 net.cpp:157] Top shape: 8 256 128 128 (33554432)
I0315 11:58:15.411137 15573 net.cpp:165] Memory required for data: 3783264320
I0315 11:58:15.411146 15573 layer_factory.hpp:77] Creating layer relu3_1
I0315 11:58:15.411156 15573 net.cpp:100] Creating Layer relu3_1
I0315 11:58:15.411160 15573 net.cpp:434] relu3_1 <- conv3_1
I0315 11:58:15.411167 15573 net.cpp:395] relu3_1 -> conv3_1 (in-place)
I0315 11:58:15.411336 15573 net.cpp:150] Setting up relu3_1
I0315 11:58:15.411346 15573 net.cpp:157] Top shape: 8 256 128 128 (33554432)
I0315 11:58:15.411350 15573 net.cpp:165] Memory required for data: 3917482048
I0315 11:58:15.411355 15573 layer_factory.hpp:77] Creating layer conv3_2
I0315 11:58:15.411365 15573 net.cpp:100] Creating Layer conv3_2
I0315 11:58:15.411371 15573 net.cpp:434] conv3_2 <- conv3_1
I0315 11:58:15.411377 15573 net.cpp:408] conv3_2 -> conv3_2
I0315 11:58:15.415879 15573 net.cpp:150] Setting up conv3_2
I0315 11:58:15.415892 15573 net.cpp:157] Top shape: 8 256 128 128 (33554432)
I0315 11:58:15.415897 15573 net.cpp:165] Memory required for data: 4051699776
I0315 11:58:15.415904 15573 layer_factory.hpp:77] Creating layer relu3_2
I0315 11:58:15.415911 15573 net.cpp:100] Creating Layer relu3_2
I0315 11:58:15.415920 15573 net.cpp:434] relu3_2 <- conv3_2
I0315 11:58:15.415926 15573 net.cpp:395] relu3_2 -> conv3_2 (in-place)
I0315 11:58:15.416378 15573 net.cpp:150] Setting up relu3_2
I0315 11:58:15.416390 15573 net.cpp:157] Top shape: 8 256 128 128 (33554432)
I0315 11:58:15.416394 15573 net.cpp:165] Memory required for data: 4185917504
I0315 11:58:15.416399 15573 layer_factory.hpp:77] Creating layer conv3_3
I0315 11:58:15.416409 15573 net.cpp:100] Creating Layer conv3_3
I0315 11:58:15.416414 15573 net.cpp:434] conv3_3 <- conv3_2
I0315 11:58:15.416420 15573 net.cpp:408] conv3_3 -> conv3_3
I0315 11:58:15.420944 15573 net.cpp:150] Setting up conv3_3
I0315 11:58:15.420958 15573 net.cpp:157] Top shape: 8 256 128 128 (33554432)
I0315 11:58:15.420963 15573 net.cpp:165] Memory required for data: 4320135232
I0315 11:58:15.420969 15573 layer_factory.hpp:77] Creating layer relu3_3
I0315 11:58:15.420976 15573 net.cpp:100] Creating Layer relu3_3
I0315 11:58:15.420984 15573 net.cpp:434] relu3_3 <- conv3_3
I0315 11:58:15.420989 15573 net.cpp:395] relu3_3 -> conv3_3 (in-place)
I0315 11:58:15.421151 15573 net.cpp:150] Setting up relu3_3
I0315 11:58:15.421160 15573 net.cpp:157] Top shape: 8 256 128 128 (33554432)
I0315 11:58:15.421164 15573 net.cpp:165] Memory required for data: 4454352960
I0315 11:58:15.421169 15573 layer_factory.hpp:77] Creating layer pool3
I0315 11:58:15.421175 15573 net.cpp:100] Creating Layer pool3
I0315 11:58:15.421180 15573 net.cpp:434] pool3 <- conv3_3
I0315 11:58:15.421186 15573 net.cpp:408] pool3 -> pool3
I0315 11:58:15.421224 15573 net.cpp:150] Setting up pool3
I0315 11:58:15.421231 15573 net.cpp:157] Top shape: 8 256 64 64 (8388608)
I0315 11:58:15.421234 15573 net.cpp:165] Memory required for data: 4487907392
I0315 11:58:15.421238 15573 layer_factory.hpp:77] Creating layer conv4_1
I0315 11:58:15.421247 15573 net.cpp:100] Creating Layer conv4_1
I0315 11:58:15.421252 15573 net.cpp:434] conv4_1 <- pool3
I0315 11:58:15.421259 15573 net.cpp:408] conv4_1 -> conv4_1
I0315 11:58:15.429430 15573 net.cpp:150] Setting up conv4_1
I0315 11:58:15.429445 15573 net.cpp:157] Top shape: 8 512 64 64 (16777216)
I0315 11:58:15.429448 15573 net.cpp:165] Memory required for data: 4555016256
I0315 11:58:15.429455 15573 layer_factory.hpp:77] Creating layer relu4_1
I0315 11:58:15.429462 15573 net.cpp:100] Creating Layer relu4_1
I0315 11:58:15.429471 15573 net.cpp:434] relu4_1 <- conv4_1
I0315 11:58:15.429477 15573 net.cpp:395] relu4_1 -> conv4_1 (in-place)
I0315 11:58:15.429643 15573 net.cpp:150] Setting up relu4_1
I0315 11:58:15.429652 15573 net.cpp:157] Top shape: 8 512 64 64 (16777216)
I0315 11:58:15.429656 15573 net.cpp:165] Memory required for data: 4622125120
I0315 11:58:15.429658 15573 layer_factory.hpp:77] Creating layer conv4_2
I0315 11:58:15.429669 15573 net.cpp:100] Creating Layer conv4_2
I0315 11:58:15.429677 15573 net.cpp:434] conv4_2 <- conv4_1
I0315 11:58:15.429684 15573 net.cpp:408] conv4_2 -> conv4_2
I0315 11:58:15.443018 15573 net.cpp:150] Setting up conv4_2
I0315 11:58:15.443037 15573 net.cpp:157] Top shape: 8 512 64 64 (16777216)
I0315 11:58:15.443042 15573 net.cpp:165] Memory required for data: 4689233984
I0315 11:58:15.443054 15573 layer_factory.hpp:77] Creating layer relu4_2
I0315 11:58:15.443065 15573 net.cpp:100] Creating Layer relu4_2
I0315 11:58:15.443074 15573 net.cpp:434] relu4_2 <- conv4_2
I0315 11:58:15.443081 15573 net.cpp:395] relu4_2 -> conv4_2 (in-place)
I0315 11:58:15.443243 15573 net.cpp:150] Setting up relu4_2
I0315 11:58:15.443253 15573 net.cpp:157] Top shape: 8 512 64 64 (16777216)
I0315 11:58:15.443255 15573 net.cpp:165] Memory required for data: 4756342848
I0315 11:58:15.443259 15573 layer_factory.hpp:77] Creating layer conv4_3
I0315 11:58:15.443271 15573 net.cpp:100] Creating Layer conv4_3
I0315 11:58:15.443277 15573 net.cpp:434] conv4_3 <- conv4_2
I0315 11:58:15.443284 15573 net.cpp:408] conv4_3 -> conv4_3_ori
I0315 11:58:15.456229 15573 net.cpp:150] Setting up conv4_3
I0315 11:58:15.456249 15573 net.cpp:157] Top shape: 8 512 64 64 (16777216)
I0315 11:58:15.456252 15573 net.cpp:165] Memory required for data: 4823451712
I0315 11:58:15.456261 15573 layer_factory.hpp:77] Creating layer relu4_3
I0315 11:58:15.456271 15573 net.cpp:100] Creating Layer relu4_3
I0315 11:58:15.456279 15573 net.cpp:434] relu4_3 <- conv4_3_ori
I0315 11:58:15.456286 15573 net.cpp:395] relu4_3 -> conv4_3_ori (in-place)
I0315 11:58:15.456766 15573 net.cpp:150] Setting up relu4_3
I0315 11:58:15.456778 15573 net.cpp:157] Top shape: 8 512 64 64 (16777216)
I0315 11:58:15.456781 15573 net.cpp:165] Memory required for data: 4890560576
I0315 11:58:15.456787 15573 layer_factory.hpp:77] Creating layer conv4_3_ori_relu4_3_0_split
I0315 11:58:15.456815 15573 net.cpp:100] Creating Layer conv4_3_ori_relu4_3_0_split
I0315 11:58:15.456820 15573 net.cpp:434] conv4_3_ori_relu4_3_0_split <- conv4_3_ori
I0315 11:58:15.456830 15573 net.cpp:408] conv4_3_ori_relu4_3_0_split -> conv4_3_ori_relu4_3_0_split_0
I0315 11:58:15.456841 15573 net.cpp:408] conv4_3_ori_relu4_3_0_split -> conv4_3_ori_relu4_3_0_split_1
I0315 11:58:15.456885 15573 net.cpp:150] Setting up conv4_3_ori_relu4_3_0_split
I0315 11:58:15.456893 15573 net.cpp:157] Top shape: 8 512 64 64 (16777216)
I0315 11:58:15.456898 15573 net.cpp:157] Top shape: 8 512 64 64 (16777216)
I0315 11:58:15.456903 15573 net.cpp:165] Memory required for data: 5024778304
I0315 11:58:15.456907 15573 layer_factory.hpp:77] Creating layer seg_pool4
I0315 11:58:15.456917 15573 net.cpp:100] Creating Layer seg_pool4
I0315 11:58:15.456925 15573 net.cpp:434] seg_pool4 <- conv4_3_ori_relu4_3_0_split_0
I0315 11:58:15.456931 15573 net.cpp:408] seg_pool4 -> seg_pool4
I0315 11:58:15.456967 15573 net.cpp:150] Setting up seg_pool4
I0315 11:58:15.456974 15573 net.cpp:157] Top shape: 8 512 64 64 (16777216)
I0315 11:58:15.456977 15573 net.cpp:165] Memory required for data: 5091887168
I0315 11:58:15.456980 15573 layer_factory.hpp:77] Creating layer seg5_1
I0315 11:58:15.456990 15573 net.cpp:100] Creating Layer seg5_1
I0315 11:58:15.456993 15573 net.cpp:434] seg5_1 <- seg_pool4
I0315 11:58:15.457000 15573 net.cpp:408] seg5_1 -> seg5_1
I0315 11:58:15.469107 15573 net.cpp:150] Setting up seg5_1
I0315 11:58:15.469125 15573 net.cpp:157] Top shape: 8 512 64 64 (16777216)
I0315 11:58:15.469130 15573 net.cpp:165] Memory required for data: 5158996032
I0315 11:58:15.469137 15573 layer_factory.hpp:77] Creating layer seg_relu5_1
I0315 11:58:15.469147 15573 net.cpp:100] Creating Layer seg_relu5_1
I0315 11:58:15.469154 15573 net.cpp:434] seg_relu5_1 <- seg5_1
I0315 11:58:15.469161 15573 net.cpp:395] seg_relu5_1 -> seg5_1 (in-place)
I0315 11:58:15.469352 15573 net.cpp:150] Setting up seg_relu5_1
I0315 11:58:15.469362 15573 net.cpp:157] Top shape: 8 512 64 64 (16777216)
I0315 11:58:15.469365 15573 net.cpp:165] Memory required for data: 5226104896
I0315 11:58:15.469369 15573 layer_factory.hpp:77] Creating layer seg5_2
I0315 11:58:15.469380 15573 net.cpp:100] Creating Layer seg5_2
I0315 11:58:15.469385 15573 net.cpp:434] seg5_2 <- seg5_1
I0315 11:58:15.469393 15573 net.cpp:408] seg5_2 -> seg5_2
I0315 11:58:15.481526 15573 net.cpp:150] Setting up seg5_2
I0315 11:58:15.481541 15573 net.cpp:157] Top shape: 8 512 64 64 (16777216)
I0315 11:58:15.481544 15573 net.cpp:165] Memory required for data: 5293213760
I0315 11:58:15.481552 15573 layer_factory.hpp:77] Creating layer seg_relu5_2
I0315 11:58:15.481562 15573 net.cpp:100] Creating Layer seg_relu5_2
I0315 11:58:15.481568 15573 net.cpp:434] seg_relu5_2 <- seg5_2
I0315 11:58:15.481575 15573 net.cpp:395] seg_relu5_2 -> seg5_2 (in-place)
I0315 11:58:15.481766 15573 net.cpp:150] Setting up seg_relu5_2
I0315 11:58:15.481775 15573 net.cpp:157] Top shape: 8 512 64 64 (16777216)
I0315 11:58:15.481779 15573 net.cpp:165] Memory required for data: 5360322624
I0315 11:58:15.481782 15573 layer_factory.hpp:77] Creating layer seg5_3
I0315 11:58:15.481799 15573 net.cpp:100] Creating Layer seg5_3
I0315 11:58:15.481806 15573 net.cpp:434] seg5_3 <- seg5_2
I0315 11:58:15.481812 15573 net.cpp:408] seg5_3 -> seg5_3
I0315 11:58:15.493952 15573 net.cpp:150] Setting up seg5_3
I0315 11:58:15.493969 15573 net.cpp:157] Top shape: 8 512 64 64 (16777216)
I0315 11:58:15.493973 15573 net.cpp:165] Memory required for data: 5427431488
I0315 11:58:15.493979 15573 layer_factory.hpp:77] Creating layer seg_relu5_3
I0315 11:58:15.493988 15573 net.cpp:100] Creating Layer seg_relu5_3
I0315 11:58:15.493993 15573 net.cpp:434] seg_relu5_3 <- seg5_3
I0315 11:58:15.494000 15573 net.cpp:395] seg_relu5_3 -> seg5_3 (in-place)
I0315 11:58:15.494562 15573 net.cpp:150] Setting up seg_relu5_3
I0315 11:58:15.494575 15573 net.cpp:157] Top shape: 8 512 64 64 (16777216)
I0315 11:58:15.494580 15573 net.cpp:165] Memory required for data: 5494540352
I0315 11:58:15.494583 15573 layer_factory.hpp:77] Creating layer seg_pool5
I0315 11:58:15.494608 15573 net.cpp:100] Creating Layer seg_pool5
I0315 11:58:15.494612 15573 net.cpp:434] seg_pool5 <- seg5_3
I0315 11:58:15.494622 15573 net.cpp:408] seg_pool5 -> seg_pool5
I0315 11:58:15.494665 15573 net.cpp:150] Setting up seg_pool5
I0315 11:58:15.494673 15573 net.cpp:157] Top shape: 8 512 64 64 (16777216)
I0315 11:58:15.494676 15573 net.cpp:165] Memory required for data: 5561649216
I0315 11:58:15.494679 15573 layer_factory.hpp:77] Creating layer seg6
I0315 11:58:15.494691 15573 net.cpp:100] Creating Layer seg6
I0315 11:58:15.494699 15573 net.cpp:434] seg6 <- seg_pool5
I0315 11:58:15.494706 15573 net.cpp:408] seg6 -> seg6
I0315 11:58:15.519212 15573 net.cpp:150] Setting up seg6
I0315 11:58:15.519239 15573 net.cpp:157] Top shape: 8 1024 64 64 (33554432)
I0315 11:58:15.519243 15573 net.cpp:165] Memory required for data: 5695866944
I0315 11:58:15.519253 15573 layer_factory.hpp:77] Creating layer seg_relu6
I0315 11:58:15.519261 15573 net.cpp:100] Creating Layer seg_relu6
I0315 11:58:15.519269 15573 net.cpp:434] seg_relu6 <- seg6
I0315 11:58:15.519279 15573 net.cpp:395] seg_relu6 -> seg6 (in-place)
I0315 11:58:15.519510 15573 net.cpp:150] Setting up seg_relu6
I0315 11:58:15.519518 15573 net.cpp:157] Top shape: 8 1024 64 64 (33554432)
I0315 11:58:15.519523 15573 net.cpp:165] Memory required for data: 5830084672
I0315 11:58:15.519527 15573 layer_factory.hpp:77] Creating layer seg_drop6
I0315 11:58:15.519534 15573 net.cpp:100] Creating Layer seg_drop6
I0315 11:58:15.519538 15573 net.cpp:434] seg_drop6 <- seg6
I0315 11:58:15.519546 15573 net.cpp:395] seg_drop6 -> seg6 (in-place)
I0315 11:58:15.519578 15573 net.cpp:150] Setting up seg_drop6
I0315 11:58:15.519585 15573 net.cpp:157] Top shape: 8 1024 64 64 (33554432)
I0315 11:58:15.519588 15573 net.cpp:165] Memory required for data: 5964302400
I0315 11:58:15.519593 15573 layer_factory.hpp:77] Creating layer seg7
I0315 11:58:15.519604 15573 net.cpp:100] Creating Layer seg7
I0315 11:58:15.519609 15573 net.cpp:434] seg7 <- seg6
I0315 11:58:15.519618 15573 net.cpp:408] seg7 -> seg7
I0315 11:58:15.526316 15573 net.cpp:150] Setting up seg7
I0315 11:58:15.526340 15573 net.cpp:157] Top shape: 8 1024 64 64 (33554432)
I0315 11:58:15.526345 15573 net.cpp:165] Memory required for data: 6098520128
I0315 11:58:15.526353 15573 layer_factory.hpp:77] Creating layer seg_relu7
I0315 11:58:15.526361 15573 net.cpp:100] Creating Layer seg_relu7
I0315 11:58:15.526366 15573 net.cpp:434] seg_relu7 <- seg7
I0315 11:58:15.526376 15573 net.cpp:395] seg_relu7 -> seg7 (in-place)
I0315 11:58:15.526538 15573 net.cpp:150] Setting up seg_relu7
I0315 11:58:15.526548 15573 net.cpp:157] Top shape: 8 1024 64 64 (33554432)
I0315 11:58:15.526551 15573 net.cpp:165] Memory required for data: 6232737856
I0315 11:58:15.526556 15573 layer_factory.hpp:77] Creating layer seg7_seg_relu7_0_split
I0315 11:58:15.526563 15573 net.cpp:100] Creating Layer seg7_seg_relu7_0_split
I0315 11:58:15.526567 15573 net.cpp:434] seg7_seg_relu7_0_split <- seg7
I0315 11:58:15.526576 15573 net.cpp:408] seg7_seg_relu7_0_split -> seg7_seg_relu7_0_split_0
I0315 11:58:15.526582 15573 net.cpp:408] seg7_seg_relu7_0_split -> seg7_seg_relu7_0_split_1
I0315 11:58:15.526621 15573 net.cpp:150] Setting up seg7_seg_relu7_0_split
I0315 11:58:15.526628 15573 net.cpp:157] Top shape: 8 1024 64 64 (33554432)
I0315 11:58:15.526633 15573 net.cpp:157] Top shape: 8 1024 64 64 (33554432)
I0315 11:58:15.526635 15573 net.cpp:165] Memory required for data: 6501173312
I0315 11:58:15.526638 15573 layer_factory.hpp:77] Creating layer seg_drop7
I0315 11:58:15.526644 15573 net.cpp:100] Creating Layer seg_drop7
I0315 11:58:15.526648 15573 net.cpp:434] seg_drop7 <- seg7_seg_relu7_0_split_0
I0315 11:58:15.526655 15573 net.cpp:408] seg_drop7 -> seg7d
I0315 11:58:15.526690 15573 net.cpp:150] Setting up seg_drop7
I0315 11:58:15.526700 15573 net.cpp:157] Top shape: 8 1024 64 64 (33554432)
I0315 11:58:15.526705 15573 net.cpp:165] Memory required for data: 6635391040
I0315 11:58:15.526707 15573 layer_factory.hpp:77] Creating layer seg_new
I0315 11:58:15.526738 15573 net.cpp:100] Creating Layer seg_new
I0315 11:58:15.526742 15573 net.cpp:434] seg_new <- seg7d
I0315 11:58:15.526748 15573 net.cpp:408] seg_new -> seg
I0315 11:58:15.527936 15573 net.cpp:150] Setting up seg_new
I0315 11:58:15.527951 15573 net.cpp:157] Top shape: 8 21 64 64 (688128)
I0315 11:58:15.527953 15573 net.cpp:165] Memory required for data: 6638143552
I0315 11:58:15.527962 15573 layer_factory.hpp:77] Creating layer seg_seg_new_0_split
I0315 11:58:15.527969 15573 net.cpp:100] Creating Layer seg_seg_new_0_split
I0315 11:58:15.527973 15573 net.cpp:434] seg_seg_new_0_split <- seg
I0315 11:58:15.527981 15573 net.cpp:408] seg_seg_new_0_split -> seg_seg_new_0_split_0
I0315 11:58:15.527992 15573 net.cpp:408] seg_seg_new_0_split -> seg_seg_new_0_split_1
I0315 11:58:15.528028 15573 net.cpp:150] Setting up seg_seg_new_0_split
I0315 11:58:15.528035 15573 net.cpp:157] Top shape: 8 21 64 64 (688128)
I0315 11:58:15.528039 15573 net.cpp:157] Top shape: 8 21 64 64 (688128)
I0315 11:58:15.528044 15573 net.cpp:165] Memory required for data: 6643648576
I0315 11:58:15.528049 15573 layer_factory.hpp:77] Creating layer seg_gt
I0315 11:58:15.528057 15573 net.cpp:100] Creating Layer seg_gt
I0315 11:58:15.528064 15573 net.cpp:434] seg_gt <- label_data_1_split_0
I0315 11:58:15.528069 15573 net.cpp:434] seg_gt <- seg_seg_new_0_split_0
I0315 11:58:15.528075 15573 net.cpp:408] seg_gt -> seg_gt
I0315 11:58:15.528108 15573 net.cpp:150] Setting up seg_gt
I0315 11:58:15.528115 15573 net.cpp:157] Top shape: 8 1 64 64 (32768)
I0315 11:58:15.528120 15573 net.cpp:165] Memory required for data: 6643779648
I0315 11:58:15.528123 15573 layer_factory.hpp:77] Creating layer seg_loss
I0315 11:58:15.528136 15573 net.cpp:100] Creating Layer seg_loss
I0315 11:58:15.528141 15573 net.cpp:434] seg_loss <- seg_seg_new_0_split_1
I0315 11:58:15.528146 15573 net.cpp:434] seg_loss <- seg_gt
I0315 11:58:15.528151 15573 net.cpp:408] seg_loss -> seg_loss
I0315 11:58:15.528164 15573 layer_factory.hpp:77] Creating layer seg_loss
I0315 11:58:15.529953 15573 net.cpp:150] Setting up seg_loss
I0315 11:58:15.529966 15573 net.cpp:157] Top shape: (1)
I0315 11:58:15.529969 15573 net.cpp:160]     with loss weight 0.1
I0315 11:58:15.529994 15573 net.cpp:165] Memory required for data: 6643779652
I0315 11:58:15.529999 15573 layer_factory.hpp:77] Creating layer seg_to_det_conv
I0315 11:58:15.530012 15573 net.cpp:100] Creating Layer seg_to_det_conv
I0315 11:58:15.530020 15573 net.cpp:434] seg_to_det_conv <- seg7_seg_relu7_0_split_1
I0315 11:58:15.530028 15573 net.cpp:408] seg_to_det_conv -> seg_to_det_conv
I0315 11:58:15.534014 15573 net.cpp:150] Setting up seg_to_det_conv
I0315 11:58:15.534029 15573 net.cpp:157] Top shape: 8 512 64 64 (16777216)
I0315 11:58:15.534031 15573 net.cpp:165] Memory required for data: 6710888516
I0315 11:58:15.534044 15573 layer_factory.hpp:77] Creating layer mult_conv4_3
I0315 11:58:15.534054 15573 net.cpp:100] Creating Layer mult_conv4_3
I0315 11:58:15.534065 15573 net.cpp:434] mult_conv4_3 <- conv4_3_ori_relu4_3_0_split_1
I0315 11:58:15.534070 15573 net.cpp:434] mult_conv4_3 <- seg_to_det_conv
I0315 11:58:15.534078 15573 net.cpp:408] mult_conv4_3 -> conv4_3_t
I0315 11:58:15.534109 15573 net.cpp:150] Setting up mult_conv4_3
I0315 11:58:15.534116 15573 net.cpp:157] Top shape: 8 512 64 64 (16777216)
I0315 11:58:15.534121 15573 net.cpp:165] Memory required for data: 6777997380
I0315 11:58:15.534126 15573 layer_factory.hpp:77] Creating layer conv4_3_t_mult_conv4_3_0_split
I0315 11:58:15.534132 15573 net.cpp:100] Creating Layer conv4_3_t_mult_conv4_3_0_split
I0315 11:58:15.534138 15573 net.cpp:434] conv4_3_t_mult_conv4_3_0_split <- conv4_3_t
I0315 11:58:15.534145 15573 net.cpp:408] conv4_3_t_mult_conv4_3_0_split -> conv4_3_t_mult_conv4_3_0_split_0
I0315 11:58:15.534152 15573 net.cpp:408] conv4_3_t_mult_conv4_3_0_split -> conv4_3_t_mult_conv4_3_0_split_1
I0315 11:58:15.534190 15573 net.cpp:150] Setting up conv4_3_t_mult_conv4_3_0_split
I0315 11:58:15.534198 15573 net.cpp:157] Top shape: 8 512 64 64 (16777216)
I0315 11:58:15.534217 15573 net.cpp:157] Top shape: 8 512 64 64 (16777216)
I0315 11:58:15.534220 15573 net.cpp:165] Memory required for data: 6912215108
I0315 11:58:15.534225 15573 layer_factory.hpp:77] Creating layer conv4_3_s
I0315 11:58:15.534235 15573 net.cpp:100] Creating Layer conv4_3_s
I0315 11:58:15.534241 15573 net.cpp:434] conv4_3_s <- conv4_3_t_mult_conv4_3_0_split_0
I0315 11:58:15.534248 15573 net.cpp:408] conv4_3_s -> conv4_3_s
I0315 11:58:15.534445 15573 net.cpp:150] Setting up conv4_3_s
I0315 11:58:15.534454 15573 net.cpp:157] Top shape: 8 512 1 1 (4096)
I0315 11:58:15.534458 15573 net.cpp:165] Memory required for data: 6912231492
I0315 11:58:15.534461 15573 layer_factory.hpp:77] Creating layer conv4_3_fc1
I0315 11:58:15.534471 15573 net.cpp:100] Creating Layer conv4_3_fc1
I0315 11:58:15.534477 15573 net.cpp:434] conv4_3_fc1 <- conv4_3_s
I0315 11:58:15.534484 15573 net.cpp:408] conv4_3_fc1 -> conv4_3_fc1
I0315 11:58:15.536083 15573 net.cpp:150] Setting up conv4_3_fc1
I0315 11:58:15.536097 15573 net.cpp:157] Top shape: 8 128 1 1 (1024)
I0315 11:58:15.536099 15573 net.cpp:165] Memory required for data: 6912235588
I0315 11:58:15.536108 15573 layer_factory.hpp:77] Creating layer conv4_3_relu
I0315 11:58:15.536116 15573 net.cpp:100] Creating Layer conv4_3_relu
I0315 11:58:15.536121 15573 net.cpp:434] conv4_3_relu <- conv4_3_fc1
I0315 11:58:15.536129 15573 net.cpp:395] conv4_3_relu -> conv4_3_fc1 (in-place)
I0315 11:58:15.536298 15573 net.cpp:150] Setting up conv4_3_relu
I0315 11:58:15.536309 15573 net.cpp:157] Top shape: 8 128 1 1 (1024)
I0315 11:58:15.536311 15573 net.cpp:165] Memory required for data: 6912239684
I0315 11:58:15.536315 15573 layer_factory.hpp:77] Creating layer conv4_3_fc2
I0315 11:58:15.536325 15573 net.cpp:100] Creating Layer conv4_3_fc2
I0315 11:58:15.536332 15573 net.cpp:434] conv4_3_fc2 <- conv4_3_fc1
I0315 11:58:15.536339 15573 net.cpp:408] conv4_3_fc2 -> conv4_3_fc2
I0315 11:58:15.537963 15573 net.cpp:150] Setting up conv4_3_fc2
I0315 11:58:15.537976 15573 net.cpp:157] Top shape: 8 512 1 1 (4096)
I0315 11:58:15.537979 15573 net.cpp:165] Memory required for data: 6912256068
I0315 11:58:15.537987 15573 layer_factory.hpp:77] Creating layer conv4_3_sig
I0315 11:58:15.537994 15573 net.cpp:100] Creating Layer conv4_3_sig
I0315 11:58:15.538000 15573 net.cpp:434] conv4_3_sig <- conv4_3_fc2
I0315 11:58:15.538007 15573 net.cpp:395] conv4_3_sig -> conv4_3_fc2 (in-place)
I0315 11:58:15.538164 15573 net.cpp:150] Setting up conv4_3_sig
I0315 11:58:15.538173 15573 net.cpp:157] Top shape: 8 512 1 1 (4096)
I0315 11:58:15.538177 15573 net.cpp:165] Memory required for data: 6912272452
I0315 11:58:15.538182 15573 layer_factory.hpp:77] Creating layer conv4_3_reshape
I0315 11:58:15.538190 15573 net.cpp:100] Creating Layer conv4_3_reshape
I0315 11:58:15.538195 15573 net.cpp:434] conv4_3_reshape <- conv4_3_fc2
I0315 11:58:15.538203 15573 net.cpp:408] conv4_3_reshape -> conv4_3_reshape
I0315 11:58:15.538239 15573 net.cpp:150] Setting up conv4_3_reshape
I0315 11:58:15.538245 15573 net.cpp:157] Top shape: 8 512 (4096)
I0315 11:58:15.538249 15573 net.cpp:165] Memory required for data: 6912288836
I0315 11:58:15.538252 15573 layer_factory.hpp:77] Creating layer conv4_3_scale
I0315 11:58:15.538262 15573 net.cpp:100] Creating Layer conv4_3_scale
I0315 11:58:15.538266 15573 net.cpp:434] conv4_3_scale <- conv4_3_t_mult_conv4_3_0_split_1
I0315 11:58:15.538272 15573 net.cpp:434] conv4_3_scale <- conv4_3_reshape
I0315 11:58:15.538283 15573 net.cpp:408] conv4_3_scale -> conv4_3
I0315 11:58:15.538363 15573 net.cpp:150] Setting up conv4_3_scale
I0315 11:58:15.538372 15573 net.cpp:157] Top shape: 8 512 64 64 (16777216)
I0315 11:58:15.538375 15573 net.cpp:165] Memory required for data: 6979397700
I0315 11:58:15.538380 15573 layer_factory.hpp:77] Creating layer conv4_3_conv4_3_scale_0_split
I0315 11:58:15.538388 15573 net.cpp:100] Creating Layer conv4_3_conv4_3_scale_0_split
I0315 11:58:15.538393 15573 net.cpp:434] conv4_3_conv4_3_scale_0_split <- conv4_3
I0315 11:58:15.538403 15573 net.cpp:408] conv4_3_conv4_3_scale_0_split -> conv4_3_conv4_3_scale_0_split_0
I0315 11:58:15.538421 15573 net.cpp:408] conv4_3_conv4_3_scale_0_split -> conv4_3_conv4_3_scale_0_split_1
I0315 11:58:15.538460 15573 net.cpp:150] Setting up conv4_3_conv4_3_scale_0_split
I0315 11:58:15.538467 15573 net.cpp:157] Top shape: 8 512 64 64 (16777216)
I0315 11:58:15.538471 15573 net.cpp:157] Top shape: 8 512 64 64 (16777216)
I0315 11:58:15.538476 15573 net.cpp:165] Memory required for data: 7113615428
I0315 11:58:15.538481 15573 layer_factory.hpp:77] Creating layer pool4
I0315 11:58:15.538487 15573 net.cpp:100] Creating Layer pool4
I0315 11:58:15.538494 15573 net.cpp:434] pool4 <- conv4_3_conv4_3_scale_0_split_0
I0315 11:58:15.538501 15573 net.cpp:408] pool4 -> pool4
I0315 11:58:15.538537 15573 net.cpp:150] Setting up pool4
I0315 11:58:15.538545 15573 net.cpp:157] Top shape: 8 512 32 32 (4194304)
I0315 11:58:15.538548 15573 net.cpp:165] Memory required for data: 7130392644
I0315 11:58:15.538552 15573 layer_factory.hpp:77] Creating layer conv5_1
I0315 11:58:15.538563 15573 net.cpp:100] Creating Layer conv5_1
I0315 11:58:15.538569 15573 net.cpp:434] conv5_1 <- pool4
I0315 11:58:15.538575 15573 net.cpp:408] conv5_1 -> conv5_1
I0315 11:58:15.551565 15573 net.cpp:150] Setting up conv5_1
I0315 11:58:15.551584 15573 net.cpp:157] Top shape: 8 512 32 32 (4194304)
I0315 11:58:15.551587 15573 net.cpp:165] Memory required for data: 7147169860
I0315 11:58:15.551595 15573 layer_factory.hpp:77] Creating layer relu5_1
I0315 11:58:15.551605 15573 net.cpp:100] Creating Layer relu5_1
I0315 11:58:15.551612 15573 net.cpp:434] relu5_1 <- conv5_1
I0315 11:58:15.551620 15573 net.cpp:395] relu5_1 -> conv5_1 (in-place)
I0315 11:58:15.552111 15573 net.cpp:150] Setting up relu5_1
I0315 11:58:15.552124 15573 net.cpp:157] Top shape: 8 512 32 32 (4194304)
I0315 11:58:15.552130 15573 net.cpp:165] Memory required for data: 7163947076
I0315 11:58:15.552134 15573 layer_factory.hpp:77] Creating layer conv5_2
I0315 11:58:15.552145 15573 net.cpp:100] Creating Layer conv5_2
I0315 11:58:15.552153 15573 net.cpp:434] conv5_2 <- conv5_1
I0315 11:58:15.552161 15573 net.cpp:408] conv5_2 -> conv5_2
I0315 11:58:15.565209 15573 net.cpp:150] Setting up conv5_2
I0315 11:58:15.565227 15573 net.cpp:157] Top shape: 8 512 32 32 (4194304)
I0315 11:58:15.565232 15573 net.cpp:165] Memory required for data: 7180724292
I0315 11:58:15.565238 15573 layer_factory.hpp:77] Creating layer relu5_2
I0315 11:58:15.565246 15573 net.cpp:100] Creating Layer relu5_2
I0315 11:58:15.565255 15573 net.cpp:434] relu5_2 <- conv5_2
I0315 11:58:15.565261 15573 net.cpp:395] relu5_2 -> conv5_2 (in-place)
I0315 11:58:15.565433 15573 net.cpp:150] Setting up relu5_2
I0315 11:58:15.565441 15573 net.cpp:157] Top shape: 8 512 32 32 (4194304)
I0315 11:58:15.565445 15573 net.cpp:165] Memory required for data: 7197501508
I0315 11:58:15.565449 15573 layer_factory.hpp:77] Creating layer conv5_3
I0315 11:58:15.565464 15573 net.cpp:100] Creating Layer conv5_3
I0315 11:58:15.565469 15573 net.cpp:434] conv5_3 <- conv5_2
I0315 11:58:15.565475 15573 net.cpp:408] conv5_3 -> conv5_3
I0315 11:58:15.578774 15573 net.cpp:150] Setting up conv5_3
I0315 11:58:15.578793 15573 net.cpp:157] Top shape: 8 512 32 32 (4194304)
I0315 11:58:15.578796 15573 net.cpp:165] Memory required for data: 7214278724
I0315 11:58:15.578804 15573 layer_factory.hpp:77] Creating layer relu5_3
I0315 11:58:15.578814 15573 net.cpp:100] Creating Layer relu5_3
I0315 11:58:15.578819 15573 net.cpp:434] relu5_3 <- conv5_3
I0315 11:58:15.578829 15573 net.cpp:395] relu5_3 -> conv5_3 (in-place)
I0315 11:58:15.578990 15573 net.cpp:150] Setting up relu5_3
I0315 11:58:15.578999 15573 net.cpp:157] Top shape: 8 512 32 32 (4194304)
I0315 11:58:15.579002 15573 net.cpp:165] Memory required for data: 7231055940
I0315 11:58:15.579006 15573 layer_factory.hpp:77] Creating layer pool5
I0315 11:58:15.579023 15573 net.cpp:100] Creating Layer pool5
I0315 11:58:15.579030 15573 net.cpp:434] pool5 <- conv5_3
I0315 11:58:15.579035 15573 net.cpp:408] pool5 -> pool5
I0315 11:58:15.579079 15573 net.cpp:150] Setting up pool5
I0315 11:58:15.579087 15573 net.cpp:157] Top shape: 8 512 32 32 (4194304)
I0315 11:58:15.579109 15573 net.cpp:165] Memory required for data: 7247833156
I0315 11:58:15.579116 15573 layer_factory.hpp:77] Creating layer fc6
I0315 11:58:15.579128 15573 net.cpp:100] Creating Layer fc6
I0315 11:58:15.579138 15573 net.cpp:434] fc6 <- pool5
I0315 11:58:15.579147 15573 net.cpp:408] fc6 -> fc6
I0315 11:58:15.603184 15573 net.cpp:150] Setting up fc6
I0315 11:58:15.603209 15573 net.cpp:157] Top shape: 8 1024 32 32 (8388608)
I0315 11:58:15.603214 15573 net.cpp:165] Memory required for data: 7281387588
I0315 11:58:15.603222 15573 layer_factory.hpp:77] Creating layer relu6
I0315 11:58:15.603232 15573 net.cpp:100] Creating Layer relu6
I0315 11:58:15.603238 15573 net.cpp:434] relu6 <- fc6
I0315 11:58:15.603246 15573 net.cpp:395] relu6 -> fc6 (in-place)
I0315 11:58:15.603909 15573 net.cpp:150] Setting up relu6
I0315 11:58:15.603922 15573 net.cpp:157] Top shape: 8 1024 32 32 (8388608)
I0315 11:58:15.603926 15573 net.cpp:165] Memory required for data: 7314942020
I0315 11:58:15.603930 15573 layer_factory.hpp:77] Creating layer fc7
I0315 11:58:15.603943 15573 net.cpp:100] Creating Layer fc7
I0315 11:58:15.603948 15573 net.cpp:434] fc7 <- fc6
I0315 11:58:15.603956 15573 net.cpp:408] fc7 -> fc7_t
I0315 11:58:15.610380 15573 net.cpp:150] Setting up fc7
I0315 11:58:15.610393 15573 net.cpp:157] Top shape: 8 1024 32 32 (8388608)
I0315 11:58:15.610396 15573 net.cpp:165] Memory required for data: 7348496452
I0315 11:58:15.610402 15573 layer_factory.hpp:77] Creating layer relu7
I0315 11:58:15.610409 15573 net.cpp:100] Creating Layer relu7
I0315 11:58:15.610412 15573 net.cpp:434] relu7 <- fc7_t
I0315 11:58:15.610419 15573 net.cpp:395] relu7 -> fc7_t (in-place)
I0315 11:58:15.610575 15573 net.cpp:150] Setting up relu7
I0315 11:58:15.610584 15573 net.cpp:157] Top shape: 8 1024 32 32 (8388608)
I0315 11:58:15.610587 15573 net.cpp:165] Memory required for data: 7382050884
I0315 11:58:15.610591 15573 layer_factory.hpp:77] Creating layer fc7_t_relu7_0_split
I0315 11:58:15.610599 15573 net.cpp:100] Creating Layer fc7_t_relu7_0_split
I0315 11:58:15.610606 15573 net.cpp:434] fc7_t_relu7_0_split <- fc7_t
I0315 11:58:15.610611 15573 net.cpp:408] fc7_t_relu7_0_split -> fc7_t_relu7_0_split_0
I0315 11:58:15.610618 15573 net.cpp:408] fc7_t_relu7_0_split -> fc7_t_relu7_0_split_1
I0315 11:58:15.610658 15573 net.cpp:150] Setting up fc7_t_relu7_0_split
I0315 11:58:15.610666 15573 net.cpp:157] Top shape: 8 1024 32 32 (8388608)
I0315 11:58:15.610669 15573 net.cpp:157] Top shape: 8 1024 32 32 (8388608)
I0315 11:58:15.610674 15573 net.cpp:165] Memory required for data: 7449159748
I0315 11:58:15.610677 15573 layer_factory.hpp:77] Creating layer fc7_s
I0315 11:58:15.610685 15573 net.cpp:100] Creating Layer fc7_s
I0315 11:58:15.610692 15573 net.cpp:434] fc7_s <- fc7_t_relu7_0_split_0
I0315 11:58:15.610697 15573 net.cpp:408] fc7_s -> fc7_s
I0315 11:58:15.610862 15573 net.cpp:150] Setting up fc7_s
I0315 11:58:15.610870 15573 net.cpp:157] Top shape: 8 1024 1 1 (8192)
I0315 11:58:15.610873 15573 net.cpp:165] Memory required for data: 7449192516
I0315 11:58:15.610877 15573 layer_factory.hpp:77] Creating layer fc7_fc1
I0315 11:58:15.610886 15573 net.cpp:100] Creating Layer fc7_fc1
I0315 11:58:15.610894 15573 net.cpp:434] fc7_fc1 <- fc7_s
I0315 11:58:15.610901 15573 net.cpp:408] fc7_fc1 -> fc7_fc1
I0315 11:58:15.613672 15573 net.cpp:150] Setting up fc7_fc1
I0315 11:58:15.613684 15573 net.cpp:157] Top shape: 8 256 1 1 (2048)
I0315 11:58:15.613689 15573 net.cpp:165] Memory required for data: 7449200708
I0315 11:58:15.613696 15573 layer_factory.hpp:77] Creating layer fc7_relu
I0315 11:58:15.613704 15573 net.cpp:100] Creating Layer fc7_relu
I0315 11:58:15.613708 15573 net.cpp:434] fc7_relu <- fc7_fc1
I0315 11:58:15.613715 15573 net.cpp:395] fc7_relu -> fc7_fc1 (in-place)
I0315 11:58:15.614187 15573 net.cpp:150] Setting up fc7_relu
I0315 11:58:15.614200 15573 net.cpp:157] Top shape: 8 256 1 1 (2048)
I0315 11:58:15.614203 15573 net.cpp:165] Memory required for data: 7449208900
I0315 11:58:15.614208 15573 layer_factory.hpp:77] Creating layer fc7_fc2
I0315 11:58:15.614234 15573 net.cpp:100] Creating Layer fc7_fc2
I0315 11:58:15.614241 15573 net.cpp:434] fc7_fc2 <- fc7_fc1
I0315 11:58:15.614248 15573 net.cpp:408] fc7_fc2 -> fc7_fc2
I0315 11:58:15.616317 15573 net.cpp:150] Setting up fc7_fc2
I0315 11:58:15.616330 15573 net.cpp:157] Top shape: 8 1024 1 1 (8192)
I0315 11:58:15.616334 15573 net.cpp:165] Memory required for data: 7449241668
I0315 11:58:15.616340 15573 layer_factory.hpp:77] Creating layer fc7_sig
I0315 11:58:15.616348 15573 net.cpp:100] Creating Layer fc7_sig
I0315 11:58:15.616353 15573 net.cpp:434] fc7_sig <- fc7_fc2
I0315 11:58:15.616359 15573 net.cpp:395] fc7_sig -> fc7_fc2 (in-place)
I0315 11:58:15.616514 15573 net.cpp:150] Setting up fc7_sig
I0315 11:58:15.616523 15573 net.cpp:157] Top shape: 8 1024 1 1 (8192)
I0315 11:58:15.616525 15573 net.cpp:165] Memory required for data: 7449274436
I0315 11:58:15.616528 15573 layer_factory.hpp:77] Creating layer fc7_reshape
I0315 11:58:15.616536 15573 net.cpp:100] Creating Layer fc7_reshape
I0315 11:58:15.616540 15573 net.cpp:434] fc7_reshape <- fc7_fc2
I0315 11:58:15.616547 15573 net.cpp:408] fc7_reshape -> fc7_reshape
I0315 11:58:15.616578 15573 net.cpp:150] Setting up fc7_reshape
I0315 11:58:15.616585 15573 net.cpp:157] Top shape: 8 1024 (8192)
I0315 11:58:15.616588 15573 net.cpp:165] Memory required for data: 7449307204
I0315 11:58:15.616591 15573 layer_factory.hpp:77] Creating layer fc7_scale
I0315 11:58:15.616597 15573 net.cpp:100] Creating Layer fc7_scale
I0315 11:58:15.616602 15573 net.cpp:434] fc7_scale <- fc7_t_relu7_0_split_1
I0315 11:58:15.616608 15573 net.cpp:434] fc7_scale <- fc7_reshape
I0315 11:58:15.616616 15573 net.cpp:408] fc7_scale -> fc7
I0315 11:58:15.616674 15573 net.cpp:150] Setting up fc7_scale
I0315 11:58:15.616681 15573 net.cpp:157] Top shape: 8 1024 32 32 (8388608)
I0315 11:58:15.616684 15573 net.cpp:165] Memory required for data: 7482861636
I0315 11:58:15.616688 15573 layer_factory.hpp:77] Creating layer fc7_fc7_scale_0_split
I0315 11:58:15.616695 15573 net.cpp:100] Creating Layer fc7_fc7_scale_0_split
I0315 11:58:15.616700 15573 net.cpp:434] fc7_fc7_scale_0_split <- fc7
I0315 11:58:15.616708 15573 net.cpp:408] fc7_fc7_scale_0_split -> fc7_fc7_scale_0_split_0
I0315 11:58:15.616714 15573 net.cpp:408] fc7_fc7_scale_0_split -> fc7_fc7_scale_0_split_1
I0315 11:58:15.616721 15573 net.cpp:408] fc7_fc7_scale_0_split -> fc7_fc7_scale_0_split_2
I0315 11:58:15.616729 15573 net.cpp:408] fc7_fc7_scale_0_split -> fc7_fc7_scale_0_split_3
I0315 11:58:15.616780 15573 net.cpp:150] Setting up fc7_fc7_scale_0_split
I0315 11:58:15.616787 15573 net.cpp:157] Top shape: 8 1024 32 32 (8388608)
I0315 11:58:15.616791 15573 net.cpp:157] Top shape: 8 1024 32 32 (8388608)
I0315 11:58:15.616794 15573 net.cpp:157] Top shape: 8 1024 32 32 (8388608)
I0315 11:58:15.616801 15573 net.cpp:157] Top shape: 8 1024 32 32 (8388608)
I0315 11:58:15.616804 15573 net.cpp:165] Memory required for data: 7617079364
I0315 11:58:15.616808 15573 layer_factory.hpp:77] Creating layer conv6_1
I0315 11:58:15.616818 15573 net.cpp:100] Creating Layer conv6_1
I0315 11:58:15.616828 15573 net.cpp:434] conv6_1 <- fc7_fc7_scale_0_split_0
I0315 11:58:15.616842 15573 net.cpp:408] conv6_1 -> conv6_1
I0315 11:58:15.619653 15573 net.cpp:150] Setting up conv6_1
I0315 11:58:15.619668 15573 net.cpp:157] Top shape: 8 256 32 32 (2097152)
I0315 11:58:15.619673 15573 net.cpp:165] Memory required for data: 7625467972
I0315 11:58:15.619681 15573 layer_factory.hpp:77] Creating layer conv6_1_relu
I0315 11:58:15.619690 15573 net.cpp:100] Creating Layer conv6_1_relu
I0315 11:58:15.619699 15573 net.cpp:434] conv6_1_relu <- conv6_1
I0315 11:58:15.619706 15573 net.cpp:395] conv6_1_relu -> conv6_1 (in-place)
I0315 11:58:15.619873 15573 net.cpp:150] Setting up conv6_1_relu
I0315 11:58:15.619884 15573 net.cpp:157] Top shape: 8 256 32 32 (2097152)
I0315 11:58:15.619904 15573 net.cpp:165] Memory required for data: 7633856580
I0315 11:58:15.619910 15573 layer_factory.hpp:77] Creating layer conv6_2
I0315 11:58:15.619921 15573 net.cpp:100] Creating Layer conv6_2
I0315 11:58:15.619938 15573 net.cpp:434] conv6_2 <- conv6_1
I0315 11:58:15.619949 15573 net.cpp:408] conv6_2 -> conv6_2_t
I0315 11:58:15.626885 15573 net.cpp:150] Setting up conv6_2
I0315 11:58:15.626899 15573 net.cpp:157] Top shape: 8 512 16 16 (1048576)
I0315 11:58:15.626904 15573 net.cpp:165] Memory required for data: 7638050884
I0315 11:58:15.626911 15573 layer_factory.hpp:77] Creating layer conv6_2_relu
I0315 11:58:15.626922 15573 net.cpp:100] Creating Layer conv6_2_relu
I0315 11:58:15.626929 15573 net.cpp:434] conv6_2_relu <- conv6_2_t
I0315 11:58:15.626940 15573 net.cpp:395] conv6_2_relu -> conv6_2_t (in-place)
I0315 11:58:15.627105 15573 net.cpp:150] Setting up conv6_2_relu
I0315 11:58:15.627115 15573 net.cpp:157] Top shape: 8 512 16 16 (1048576)
I0315 11:58:15.627118 15573 net.cpp:165] Memory required for data: 7642245188
I0315 11:58:15.627123 15573 layer_factory.hpp:77] Creating layer conv6_2_t_conv6_2_relu_0_split
I0315 11:58:15.627135 15573 net.cpp:100] Creating Layer conv6_2_t_conv6_2_relu_0_split
I0315 11:58:15.627142 15573 net.cpp:434] conv6_2_t_conv6_2_relu_0_split <- conv6_2_t
I0315 11:58:15.627149 15573 net.cpp:408] conv6_2_t_conv6_2_relu_0_split -> conv6_2_t_conv6_2_relu_0_split_0
I0315 11:58:15.627161 15573 net.cpp:408] conv6_2_t_conv6_2_relu_0_split -> conv6_2_t_conv6_2_relu_0_split_1
I0315 11:58:15.627202 15573 net.cpp:150] Setting up conv6_2_t_conv6_2_relu_0_split
I0315 11:58:15.627209 15573 net.cpp:157] Top shape: 8 512 16 16 (1048576)
I0315 11:58:15.627214 15573 net.cpp:157] Top shape: 8 512 16 16 (1048576)
I0315 11:58:15.627218 15573 net.cpp:165] Memory required for data: 7650633796
I0315 11:58:15.627223 15573 layer_factory.hpp:77] Creating layer conv6_2_s
I0315 11:58:15.627234 15573 net.cpp:100] Creating Layer conv6_2_s
I0315 11:58:15.627239 15573 net.cpp:434] conv6_2_s <- conv6_2_t_conv6_2_relu_0_split_0
I0315 11:58:15.627254 15573 net.cpp:408] conv6_2_s -> conv6_2_s
I0315 11:58:15.627756 15573 net.cpp:150] Setting up conv6_2_s
I0315 11:58:15.627768 15573 net.cpp:157] Top shape: 8 512 1 1 (4096)
I0315 11:58:15.627773 15573 net.cpp:165] Memory required for data: 7650650180
I0315 11:58:15.627777 15573 layer_factory.hpp:77] Creating layer conv6_2_fc1
I0315 11:58:15.627790 15573 net.cpp:100] Creating Layer conv6_2_fc1
I0315 11:58:15.627797 15573 net.cpp:434] conv6_2_fc1 <- conv6_2_s
I0315 11:58:15.627807 15573 net.cpp:408] conv6_2_fc1 -> conv6_2_fc1
I0315 11:58:15.629098 15573 net.cpp:150] Setting up conv6_2_fc1
I0315 11:58:15.629110 15573 net.cpp:157] Top shape: 8 128 1 1 (1024)
I0315 11:58:15.629114 15573 net.cpp:165] Memory required for data: 7650654276
I0315 11:58:15.629123 15573 layer_factory.hpp:77] Creating layer conv6_2_relu
I0315 11:58:15.629133 15573 net.cpp:100] Creating Layer conv6_2_relu
I0315 11:58:15.629139 15573 net.cpp:434] conv6_2_relu <- conv6_2_fc1
I0315 11:58:15.629150 15573 net.cpp:395] conv6_2_relu -> conv6_2_fc1 (in-place)
I0315 11:58:15.629307 15573 net.cpp:150] Setting up conv6_2_relu
I0315 11:58:15.629317 15573 net.cpp:157] Top shape: 8 128 1 1 (1024)
I0315 11:58:15.629320 15573 net.cpp:165] Memory required for data: 7650658372
I0315 11:58:15.629325 15573 layer_factory.hpp:77] Creating layer conv6_2_fc2
I0315 11:58:15.629339 15573 net.cpp:100] Creating Layer conv6_2_fc2
I0315 11:58:15.629346 15573 net.cpp:434] conv6_2_fc2 <- conv6_2_fc1
I0315 11:58:15.629356 15573 net.cpp:408] conv6_2_fc2 -> conv6_2_fc2
I0315 11:58:15.630702 15573 net.cpp:150] Setting up conv6_2_fc2
I0315 11:58:15.630714 15573 net.cpp:157] Top shape: 8 512 1 1 (4096)
I0315 11:58:15.630719 15573 net.cpp:165] Memory required for data: 7650674756
I0315 11:58:15.630728 15573 layer_factory.hpp:77] Creating layer conv6_2_sig
I0315 11:58:15.630738 15573 net.cpp:100] Creating Layer conv6_2_sig
I0315 11:58:15.630744 15573 net.cpp:434] conv6_2_sig <- conv6_2_fc2
I0315 11:58:15.630753 15573 net.cpp:395] conv6_2_sig -> conv6_2_fc2 (in-place)
I0315 11:58:15.630913 15573 net.cpp:150] Setting up conv6_2_sig
I0315 11:58:15.630923 15573 net.cpp:157] Top shape: 8 512 1 1 (4096)
I0315 11:58:15.630926 15573 net.cpp:165] Memory required for data: 7650691140
I0315 11:58:15.630945 15573 layer_factory.hpp:77] Creating layer conv6_2_reshape
I0315 11:58:15.630956 15573 net.cpp:100] Creating Layer conv6_2_reshape
I0315 11:58:15.630965 15573 net.cpp:434] conv6_2_reshape <- conv6_2_fc2
I0315 11:58:15.630975 15573 net.cpp:408] conv6_2_reshape -> conv6_2_reshape
I0315 11:58:15.631011 15573 net.cpp:150] Setting up conv6_2_reshape
I0315 11:58:15.631017 15573 net.cpp:157] Top shape: 8 512 (4096)
I0315 11:58:15.631021 15573 net.cpp:165] Memory required for data: 7650707524
I0315 11:58:15.631026 15573 layer_factory.hpp:77] Creating layer conv6_2_scale
I0315 11:58:15.631037 15573 net.cpp:100] Creating Layer conv6_2_scale
I0315 11:58:15.631045 15573 net.cpp:434] conv6_2_scale <- conv6_2_t_conv6_2_relu_0_split_1
I0315 11:58:15.631053 15573 net.cpp:434] conv6_2_scale <- conv6_2_reshape
I0315 11:58:15.631063 15573 net.cpp:408] conv6_2_scale -> conv6_2
I0315 11:58:15.631134 15573 net.cpp:150] Setting up conv6_2_scale
I0315 11:58:15.631140 15573 net.cpp:157] Top shape: 8 512 16 16 (1048576)
I0315 11:58:15.631145 15573 net.cpp:165] Memory required for data: 7654901828
I0315 11:58:15.631148 15573 layer_factory.hpp:77] Creating layer conv6_2_conv6_2_scale_0_split
I0315 11:58:15.631162 15573 net.cpp:100] Creating Layer conv6_2_conv6_2_scale_0_split
I0315 11:58:15.631172 15573 net.cpp:434] conv6_2_conv6_2_scale_0_split <- conv6_2
I0315 11:58:15.631180 15573 net.cpp:408] conv6_2_conv6_2_scale_0_split -> conv6_2_conv6_2_scale_0_split_0
I0315 11:58:15.631191 15573 net.cpp:408] conv6_2_conv6_2_scale_0_split -> conv6_2_conv6_2_scale_0_split_1
I0315 11:58:15.631206 15573 net.cpp:408] conv6_2_conv6_2_scale_0_split -> conv6_2_conv6_2_scale_0_split_2
I0315 11:58:15.631219 15573 net.cpp:408] conv6_2_conv6_2_scale_0_split -> conv6_2_conv6_2_scale_0_split_3
I0315 11:58:15.631279 15573 net.cpp:150] Setting up conv6_2_conv6_2_scale_0_split
I0315 11:58:15.631289 15573 net.cpp:157] Top shape: 8 512 16 16 (1048576)
I0315 11:58:15.631294 15573 net.cpp:157] Top shape: 8 512 16 16 (1048576)
I0315 11:58:15.631300 15573 net.cpp:157] Top shape: 8 512 16 16 (1048576)
I0315 11:58:15.631306 15573 net.cpp:157] Top shape: 8 512 16 16 (1048576)
I0315 11:58:15.631316 15573 net.cpp:165] Memory required for data: 7671679044
I0315 11:58:15.631326 15573 layer_factory.hpp:77] Creating layer conv7_1
I0315 11:58:15.631343 15573 net.cpp:100] Creating Layer conv7_1
I0315 11:58:15.631350 15573 net.cpp:434] conv7_1 <- conv6_2_conv6_2_scale_0_split_0
I0315 11:58:15.631358 15573 net.cpp:408] conv7_1 -> conv7_1
I0315 11:58:15.632635 15573 net.cpp:150] Setting up conv7_1
I0315 11:58:15.632647 15573 net.cpp:157] Top shape: 8 128 16 16 (262144)
I0315 11:58:15.632652 15573 net.cpp:165] Memory required for data: 7672727620
I0315 11:58:15.632660 15573 layer_factory.hpp:77] Creating layer conv7_1_relu
I0315 11:58:15.632669 15573 net.cpp:100] Creating Layer conv7_1_relu
I0315 11:58:15.632675 15573 net.cpp:434] conv7_1_relu <- conv7_1
I0315 11:58:15.632684 15573 net.cpp:395] conv7_1_relu -> conv7_1 (in-place)
I0315 11:58:15.633172 15573 net.cpp:150] Setting up conv7_1_relu
I0315 11:58:15.633183 15573 net.cpp:157] Top shape: 8 128 16 16 (262144)
I0315 11:58:15.633188 15573 net.cpp:165] Memory required for data: 7673776196
I0315 11:58:15.633193 15573 layer_factory.hpp:77] Creating layer conv7_2
I0315 11:58:15.633208 15573 net.cpp:100] Creating Layer conv7_2
I0315 11:58:15.633214 15573 net.cpp:434] conv7_2 <- conv7_1
I0315 11:58:15.633224 15573 net.cpp:408] conv7_2 -> conv7_2_t
I0315 11:58:15.636483 15573 net.cpp:150] Setting up conv7_2
I0315 11:58:15.636498 15573 net.cpp:157] Top shape: 8 256 8 8 (131072)
I0315 11:58:15.636502 15573 net.cpp:165] Memory required for data: 7674300484
I0315 11:58:15.636512 15573 layer_factory.hpp:77] Creating layer conv7_2_relu
I0315 11:58:15.636519 15573 net.cpp:100] Creating Layer conv7_2_relu
I0315 11:58:15.636526 15573 net.cpp:434] conv7_2_relu <- conv7_2_t
I0315 11:58:15.636536 15573 net.cpp:395] conv7_2_relu -> conv7_2_t (in-place)
I0315 11:58:15.636709 15573 net.cpp:150] Setting up conv7_2_relu
I0315 11:58:15.636728 15573 net.cpp:157] Top shape: 8 256 8 8 (131072)
I0315 11:58:15.636732 15573 net.cpp:165] Memory required for data: 7674824772
I0315 11:58:15.636737 15573 layer_factory.hpp:77] Creating layer conv7_2_t_conv7_2_relu_0_split
I0315 11:58:15.636744 15573 net.cpp:100] Creating Layer conv7_2_t_conv7_2_relu_0_split
I0315 11:58:15.636749 15573 net.cpp:434] conv7_2_t_conv7_2_relu_0_split <- conv7_2_t
I0315 11:58:15.636761 15573 net.cpp:408] conv7_2_t_conv7_2_relu_0_split -> conv7_2_t_conv7_2_relu_0_split_0
I0315 11:58:15.636776 15573 net.cpp:408] conv7_2_t_conv7_2_relu_0_split -> conv7_2_t_conv7_2_relu_0_split_1
I0315 11:58:15.636826 15573 net.cpp:150] Setting up conv7_2_t_conv7_2_relu_0_split
I0315 11:58:15.636833 15573 net.cpp:157] Top shape: 8 256 8 8 (131072)
I0315 11:58:15.636839 15573 net.cpp:157] Top shape: 8 256 8 8 (131072)
I0315 11:58:15.636845 15573 net.cpp:165] Memory required for data: 7675873348
I0315 11:58:15.636852 15573 layer_factory.hpp:77] Creating layer conv7_2_s
I0315 11:58:15.636862 15573 net.cpp:100] Creating Layer conv7_2_s
I0315 11:58:15.636873 15573 net.cpp:434] conv7_2_s <- conv7_2_t_conv7_2_relu_0_split_0
I0315 11:58:15.636886 15573 net.cpp:408] conv7_2_s -> conv7_2_s
I0315 11:58:15.637064 15573 net.cpp:150] Setting up conv7_2_s
I0315 11:58:15.637073 15573 net.cpp:157] Top shape: 8 256 1 1 (2048)
I0315 11:58:15.637078 15573 net.cpp:165] Memory required for data: 7675881540
I0315 11:58:15.637082 15573 layer_factory.hpp:77] Creating layer conv7_2_fc1
I0315 11:58:15.637094 15573 net.cpp:100] Creating Layer conv7_2_fc1
I0315 11:58:15.637101 15573 net.cpp:434] conv7_2_fc1 <- conv7_2_s
I0315 11:58:15.637110 15573 net.cpp:408] conv7_2_fc1 -> conv7_2_fc1
I0315 11:58:15.638217 15573 net.cpp:150] Setting up conv7_2_fc1
I0315 11:58:15.638228 15573 net.cpp:157] Top shape: 8 64 1 1 (512)
I0315 11:58:15.638232 15573 net.cpp:165] Memory required for data: 7675883588
I0315 11:58:15.638252 15573 layer_factory.hpp:77] Creating layer conv7_2_relu
I0315 11:58:15.638262 15573 net.cpp:100] Creating Layer conv7_2_relu
I0315 11:58:15.638267 15573 net.cpp:434] conv7_2_relu <- conv7_2_fc1
I0315 11:58:15.638274 15573 net.cpp:395] conv7_2_relu -> conv7_2_fc1 (in-place)
I0315 11:58:15.638780 15573 net.cpp:150] Setting up conv7_2_relu
I0315 11:58:15.638792 15573 net.cpp:157] Top shape: 8 64 1 1 (512)
I0315 11:58:15.638797 15573 net.cpp:165] Memory required for data: 7675885636
I0315 11:58:15.638803 15573 layer_factory.hpp:77] Creating layer conv7_2_fc2
I0315 11:58:15.638818 15573 net.cpp:100] Creating Layer conv7_2_fc2
I0315 11:58:15.638828 15573 net.cpp:434] conv7_2_fc2 <- conv7_2_fc1
I0315 11:58:15.638841 15573 net.cpp:408] conv7_2_fc2 -> conv7_2_fc2
I0315 11:58:15.640259 15573 net.cpp:150] Setting up conv7_2_fc2
I0315 11:58:15.640270 15573 net.cpp:157] Top shape: 8 256 1 1 (2048)
I0315 11:58:15.640275 15573 net.cpp:165] Memory required for data: 7675893828
I0315 11:58:15.640283 15573 layer_factory.hpp:77] Creating layer conv7_2_sig
I0315 11:58:15.640292 15573 net.cpp:100] Creating Layer conv7_2_sig
I0315 11:58:15.640300 15573 net.cpp:434] conv7_2_sig <- conv7_2_fc2
I0315 11:58:15.640310 15573 net.cpp:395] conv7_2_sig -> conv7_2_fc2 (in-place)
I0315 11:58:15.640472 15573 net.cpp:150] Setting up conv7_2_sig
I0315 11:58:15.640481 15573 net.cpp:157] Top shape: 8 256 1 1 (2048)
I0315 11:58:15.640486 15573 net.cpp:165] Memory required for data: 7675902020
I0315 11:58:15.640491 15573 layer_factory.hpp:77] Creating layer conv7_2_reshape
I0315 11:58:15.640499 15573 net.cpp:100] Creating Layer conv7_2_reshape
I0315 11:58:15.640506 15573 net.cpp:434] conv7_2_reshape <- conv7_2_fc2
I0315 11:58:15.640514 15573 net.cpp:408] conv7_2_reshape -> conv7_2_reshape
I0315 11:58:15.640549 15573 net.cpp:150] Setting up conv7_2_reshape
I0315 11:58:15.640556 15573 net.cpp:157] Top shape: 8 256 (2048)
I0315 11:58:15.640559 15573 net.cpp:165] Memory required for data: 7675910212
I0315 11:58:15.640564 15573 layer_factory.hpp:77] Creating layer conv7_2_scale
I0315 11:58:15.640575 15573 net.cpp:100] Creating Layer conv7_2_scale
I0315 11:58:15.640594 15573 net.cpp:434] conv7_2_scale <- conv7_2_t_conv7_2_relu_0_split_1
I0315 11:58:15.640604 15573 net.cpp:434] conv7_2_scale <- conv7_2_reshape
I0315 11:58:15.640614 15573 net.cpp:408] conv7_2_scale -> conv7_2
I0315 11:58:15.640686 15573 net.cpp:150] Setting up conv7_2_scale
I0315 11:58:15.640692 15573 net.cpp:157] Top shape: 8 256 8 8 (131072)
I0315 11:58:15.640697 15573 net.cpp:165] Memory required for data: 7676434500
I0315 11:58:15.640702 15573 layer_factory.hpp:77] Creating layer conv7_2_conv7_2_scale_0_split
I0315 11:58:15.640717 15573 net.cpp:100] Creating Layer conv7_2_conv7_2_scale_0_split
I0315 11:58:15.640722 15573 net.cpp:434] conv7_2_conv7_2_scale_0_split <- conv7_2
I0315 11:58:15.640730 15573 net.cpp:408] conv7_2_conv7_2_scale_0_split -> conv7_2_conv7_2_scale_0_split_0
I0315 11:58:15.640741 15573 net.cpp:408] conv7_2_conv7_2_scale_0_split -> conv7_2_conv7_2_scale_0_split_1
I0315 11:58:15.640751 15573 net.cpp:408] conv7_2_conv7_2_scale_0_split -> conv7_2_conv7_2_scale_0_split_2
I0315 11:58:15.640758 15573 net.cpp:408] conv7_2_conv7_2_scale_0_split -> conv7_2_conv7_2_scale_0_split_3
I0315 11:58:15.640816 15573 net.cpp:150] Setting up conv7_2_conv7_2_scale_0_split
I0315 11:58:15.640825 15573 net.cpp:157] Top shape: 8 256 8 8 (131072)
I0315 11:58:15.640831 15573 net.cpp:157] Top shape: 8 256 8 8 (131072)
I0315 11:58:15.640843 15573 net.cpp:157] Top shape: 8 256 8 8 (131072)
I0315 11:58:15.640852 15573 net.cpp:157] Top shape: 8 256 8 8 (131072)
I0315 11:58:15.640861 15573 net.cpp:165] Memory required for data: 7678531652
I0315 11:58:15.640868 15573 layer_factory.hpp:77] Creating layer conv8_1
I0315 11:58:15.640882 15573 net.cpp:100] Creating Layer conv8_1
I0315 11:58:15.640888 15573 net.cpp:434] conv8_1 <- conv7_2_conv7_2_scale_0_split_0
I0315 11:58:15.640897 15573 net.cpp:408] conv8_1 -> conv8_1
I0315 11:58:15.642782 15573 net.cpp:150] Setting up conv8_1
I0315 11:58:15.642797 15573 net.cpp:157] Top shape: 8 128 8 8 (65536)
I0315 11:58:15.642802 15573 net.cpp:165] Memory required for data: 7678793796
I0315 11:58:15.642812 15573 layer_factory.hpp:77] Creating layer conv8_1_relu
I0315 11:58:15.642822 15573 net.cpp:100] Creating Layer conv8_1_relu
I0315 11:58:15.642832 15573 net.cpp:434] conv8_1_relu <- conv8_1
I0315 11:58:15.642839 15573 net.cpp:395] conv8_1_relu -> conv8_1 (in-place)
I0315 11:58:15.643002 15573 net.cpp:150] Setting up conv8_1_relu
I0315 11:58:15.643013 15573 net.cpp:157] Top shape: 8 128 8 8 (65536)
I0315 11:58:15.643016 15573 net.cpp:165] Memory required for data: 7679055940
I0315 11:58:15.643023 15573 layer_factory.hpp:77] Creating layer conv8_2
I0315 11:58:15.643035 15573 net.cpp:100] Creating Layer conv8_2
I0315 11:58:15.643043 15573 net.cpp:434] conv8_2 <- conv8_1
I0315 11:58:15.643050 15573 net.cpp:408] conv8_2 -> conv8_2_t
I0315 11:58:15.645968 15573 net.cpp:150] Setting up conv8_2
I0315 11:58:15.645982 15573 net.cpp:157] Top shape: 8 256 4 4 (32768)
I0315 11:58:15.645988 15573 net.cpp:165] Memory required for data: 7679187012
I0315 11:58:15.645998 15573 layer_factory.hpp:77] Creating layer conv8_2_relu
I0315 11:58:15.646006 15573 net.cpp:100] Creating Layer conv8_2_relu
I0315 11:58:15.646013 15573 net.cpp:434] conv8_2_relu <- conv8_2_t
I0315 11:58:15.646021 15573 net.cpp:395] conv8_2_relu -> conv8_2_t (in-place)
I0315 11:58:15.646178 15573 net.cpp:150] Setting up conv8_2_relu
I0315 11:58:15.646188 15573 net.cpp:157] Top shape: 8 256 4 4 (32768)
I0315 11:58:15.646193 15573 net.cpp:165] Memory required for data: 7679318084
I0315 11:58:15.646198 15573 layer_factory.hpp:77] Creating layer conv8_2_t_conv8_2_relu_0_split
I0315 11:58:15.646205 15573 net.cpp:100] Creating Layer conv8_2_t_conv8_2_relu_0_split
I0315 11:58:15.646214 15573 net.cpp:434] conv8_2_t_conv8_2_relu_0_split <- conv8_2_t
I0315 11:58:15.646222 15573 net.cpp:408] conv8_2_t_conv8_2_relu_0_split -> conv8_2_t_conv8_2_relu_0_split_0
I0315 11:58:15.646232 15573 net.cpp:408] conv8_2_t_conv8_2_relu_0_split -> conv8_2_t_conv8_2_relu_0_split_1
I0315 11:58:15.646280 15573 net.cpp:150] Setting up conv8_2_t_conv8_2_relu_0_split
I0315 11:58:15.646297 15573 net.cpp:157] Top shape: 8 256 4 4 (32768)
I0315 11:58:15.646304 15573 net.cpp:157] Top shape: 8 256 4 4 (32768)
I0315 11:58:15.646309 15573 net.cpp:165] Memory required for data: 7679580228
I0315 11:58:15.646318 15573 layer_factory.hpp:77] Creating layer conv8_2_s
I0315 11:58:15.646366 15573 net.cpp:100] Creating Layer conv8_2_s
I0315 11:58:15.646373 15573 net.cpp:434] conv8_2_s <- conv8_2_t_conv8_2_relu_0_split_0
I0315 11:58:15.646385 15573 net.cpp:408] conv8_2_s -> conv8_2_s
I0315 11:58:15.646880 15573 net.cpp:150] Setting up conv8_2_s
I0315 11:58:15.646891 15573 net.cpp:157] Top shape: 8 256 1 1 (2048)
I0315 11:58:15.646896 15573 net.cpp:165] Memory required for data: 7679588420
I0315 11:58:15.646901 15573 layer_factory.hpp:77] Creating layer conv8_2_fc1
I0315 11:58:15.646914 15573 net.cpp:100] Creating Layer conv8_2_fc1
I0315 11:58:15.646920 15573 net.cpp:434] conv8_2_fc1 <- conv8_2_s
I0315 11:58:15.646931 15573 net.cpp:408] conv8_2_fc1 -> conv8_2_fc1
I0315 11:58:15.648025 15573 net.cpp:150] Setting up conv8_2_fc1
I0315 11:58:15.648038 15573 net.cpp:157] Top shape: 8 64 1 1 (512)
I0315 11:58:15.648042 15573 net.cpp:165] Memory required for data: 7679590468
I0315 11:58:15.648051 15573 layer_factory.hpp:77] Creating layer conv8_2_relu
I0315 11:58:15.648061 15573 net.cpp:100] Creating Layer conv8_2_relu
I0315 11:58:15.648067 15573 net.cpp:434] conv8_2_relu <- conv8_2_fc1
I0315 11:58:15.648075 15573 net.cpp:395] conv8_2_relu -> conv8_2_fc1 (in-place)
I0315 11:58:15.648238 15573 net.cpp:150] Setting up conv8_2_relu
I0315 11:58:15.648247 15573 net.cpp:157] Top shape: 8 64 1 1 (512)
I0315 11:58:15.648252 15573 net.cpp:165] Memory required for data: 7679592516
I0315 11:58:15.648257 15573 layer_factory.hpp:77] Creating layer conv8_2_fc2
I0315 11:58:15.648272 15573 net.cpp:100] Creating Layer conv8_2_fc2
I0315 11:58:15.648277 15573 net.cpp:434] conv8_2_fc2 <- conv8_2_fc1
I0315 11:58:15.648284 15573 net.cpp:408] conv8_2_fc2 -> conv8_2_fc2
I0315 11:58:15.649364 15573 net.cpp:150] Setting up conv8_2_fc2
I0315 11:58:15.649376 15573 net.cpp:157] Top shape: 8 256 1 1 (2048)
I0315 11:58:15.649380 15573 net.cpp:165] Memory required for data: 7679600708
I0315 11:58:15.649389 15573 layer_factory.hpp:77] Creating layer conv8_2_sig
I0315 11:58:15.649397 15573 net.cpp:100] Creating Layer conv8_2_sig
I0315 11:58:15.649405 15573 net.cpp:434] conv8_2_sig <- conv8_2_fc2
I0315 11:58:15.649415 15573 net.cpp:395] conv8_2_sig -> conv8_2_fc2 (in-place)
I0315 11:58:15.649574 15573 net.cpp:150] Setting up conv8_2_sig
I0315 11:58:15.649585 15573 net.cpp:157] Top shape: 8 256 1 1 (2048)
I0315 11:58:15.649590 15573 net.cpp:165] Memory required for data: 7679608900
I0315 11:58:15.649593 15573 layer_factory.hpp:77] Creating layer conv8_2_reshape
I0315 11:58:15.649603 15573 net.cpp:100] Creating Layer conv8_2_reshape
I0315 11:58:15.649610 15573 net.cpp:434] conv8_2_reshape <- conv8_2_fc2
I0315 11:58:15.649617 15573 net.cpp:408] conv8_2_reshape -> conv8_2_reshape
I0315 11:58:15.649655 15573 net.cpp:150] Setting up conv8_2_reshape
I0315 11:58:15.649662 15573 net.cpp:157] Top shape: 8 256 (2048)
I0315 11:58:15.649665 15573 net.cpp:165] Memory required for data: 7679617092
I0315 11:58:15.649670 15573 layer_factory.hpp:77] Creating layer conv8_2_scale
I0315 11:58:15.649678 15573 net.cpp:100] Creating Layer conv8_2_scale
I0315 11:58:15.649688 15573 net.cpp:434] conv8_2_scale <- conv8_2_t_conv8_2_relu_0_split_1
I0315 11:58:15.649696 15573 net.cpp:434] conv8_2_scale <- conv8_2_reshape
I0315 11:58:15.649710 15573 net.cpp:408] conv8_2_scale -> conv8_2
I0315 11:58:15.649782 15573 net.cpp:150] Setting up conv8_2_scale
I0315 11:58:15.649790 15573 net.cpp:157] Top shape: 8 256 4 4 (32768)
I0315 11:58:15.649796 15573 net.cpp:165] Memory required for data: 7679748164
I0315 11:58:15.649803 15573 layer_factory.hpp:77] Creating layer conv8_2_conv8_2_scale_0_split
I0315 11:58:15.649812 15573 net.cpp:100] Creating Layer conv8_2_conv8_2_scale_0_split
I0315 11:58:15.649822 15573 net.cpp:434] conv8_2_conv8_2_scale_0_split <- conv8_2
I0315 11:58:15.649844 15573 net.cpp:408] conv8_2_conv8_2_scale_0_split -> conv8_2_conv8_2_scale_0_split_0
I0315 11:58:15.649857 15573 net.cpp:408] conv8_2_conv8_2_scale_0_split -> conv8_2_conv8_2_scale_0_split_1
I0315 11:58:15.649873 15573 net.cpp:408] conv8_2_conv8_2_scale_0_split -> conv8_2_conv8_2_scale_0_split_2
I0315 11:58:15.649881 15573 net.cpp:408] conv8_2_conv8_2_scale_0_split -> conv8_2_conv8_2_scale_0_split_3
I0315 11:58:15.649945 15573 net.cpp:150] Setting up conv8_2_conv8_2_scale_0_split
I0315 11:58:15.649955 15573 net.cpp:157] Top shape: 8 256 4 4 (32768)
I0315 11:58:15.649961 15573 net.cpp:157] Top shape: 8 256 4 4 (32768)
I0315 11:58:15.649968 15573 net.cpp:157] Top shape: 8 256 4 4 (32768)
I0315 11:58:15.649976 15573 net.cpp:157] Top shape: 8 256 4 4 (32768)
I0315 11:58:15.649986 15573 net.cpp:165] Memory required for data: 7680272452
I0315 11:58:15.649994 15573 layer_factory.hpp:77] Creating layer conv9_1
I0315 11:58:15.650007 15573 net.cpp:100] Creating Layer conv9_1
I0315 11:58:15.650012 15573 net.cpp:434] conv9_1 <- conv8_2_conv8_2_scale_0_split_0
I0315 11:58:15.650022 15573 net.cpp:408] conv9_1 -> conv9_1
I0315 11:58:15.651173 15573 net.cpp:150] Setting up conv9_1
I0315 11:58:15.651187 15573 net.cpp:157] Top shape: 8 128 4 4 (16384)
I0315 11:58:15.651191 15573 net.cpp:165] Memory required for data: 7680337988
I0315 11:58:15.651201 15573 layer_factory.hpp:77] Creating layer conv9_1_relu
I0315 11:58:15.651211 15573 net.cpp:100] Creating Layer conv9_1_relu
I0315 11:58:15.651216 15573 net.cpp:434] conv9_1_relu <- conv9_1
I0315 11:58:15.651226 15573 net.cpp:395] conv9_1_relu -> conv9_1 (in-place)
I0315 11:58:15.651706 15573 net.cpp:150] Setting up conv9_1_relu
I0315 11:58:15.651720 15573 net.cpp:157] Top shape: 8 128 4 4 (16384)
I0315 11:58:15.651723 15573 net.cpp:165] Memory required for data: 7680403524
I0315 11:58:15.651728 15573 layer_factory.hpp:77] Creating layer conv9_2
I0315 11:58:15.651746 15573 net.cpp:100] Creating Layer conv9_2
I0315 11:58:15.651752 15573 net.cpp:434] conv9_2 <- conv9_1
I0315 11:58:15.651762 15573 net.cpp:408] conv9_2 -> conv9_2_t
I0315 11:58:15.654721 15573 net.cpp:150] Setting up conv9_2
I0315 11:58:15.654734 15573 net.cpp:157] Top shape: 8 256 2 2 (8192)
I0315 11:58:15.654739 15573 net.cpp:165] Memory required for data: 7680436292
I0315 11:58:15.654747 15573 layer_factory.hpp:77] Creating layer conv9_2_relu
I0315 11:58:15.654755 15573 net.cpp:100] Creating Layer conv9_2_relu
I0315 11:58:15.654762 15573 net.cpp:434] conv9_2_relu <- conv9_2_t
I0315 11:58:15.654769 15573 net.cpp:395] conv9_2_relu -> conv9_2_t (in-place)
I0315 11:58:15.654929 15573 net.cpp:150] Setting up conv9_2_relu
I0315 11:58:15.654938 15573 net.cpp:157] Top shape: 8 256 2 2 (8192)
I0315 11:58:15.654942 15573 net.cpp:165] Memory required for data: 7680469060
I0315 11:58:15.654947 15573 layer_factory.hpp:77] Creating layer conv9_2_t_conv9_2_relu_0_split
I0315 11:58:15.654955 15573 net.cpp:100] Creating Layer conv9_2_t_conv9_2_relu_0_split
I0315 11:58:15.654960 15573 net.cpp:434] conv9_2_t_conv9_2_relu_0_split <- conv9_2_t
I0315 11:58:15.654968 15573 net.cpp:408] conv9_2_t_conv9_2_relu_0_split -> conv9_2_t_conv9_2_relu_0_split_0
I0315 11:58:15.654980 15573 net.cpp:408] conv9_2_t_conv9_2_relu_0_split -> conv9_2_t_conv9_2_relu_0_split_1
I0315 11:58:15.655025 15573 net.cpp:150] Setting up conv9_2_t_conv9_2_relu_0_split
I0315 11:58:15.655031 15573 net.cpp:157] Top shape: 8 256 2 2 (8192)
I0315 11:58:15.655038 15573 net.cpp:157] Top shape: 8 256 2 2 (8192)
I0315 11:58:15.655043 15573 net.cpp:165] Memory required for data: 7680534596
I0315 11:58:15.655048 15573 layer_factory.hpp:77] Creating layer conv9_2_s
I0315 11:58:15.655058 15573 net.cpp:100] Creating Layer conv9_2_s
I0315 11:58:15.655066 15573 net.cpp:434] conv9_2_s <- conv9_2_t_conv9_2_relu_0_split_0
I0315 11:58:15.655076 15573 net.cpp:408] conv9_2_s -> conv9_2_s
I0315 11:58:15.655251 15573 net.cpp:150] Setting up conv9_2_s
I0315 11:58:15.655261 15573 net.cpp:157] Top shape: 8 256 1 1 (2048)
I0315 11:58:15.655264 15573 net.cpp:165] Memory required for data: 7680542788
I0315 11:58:15.655282 15573 layer_factory.hpp:77] Creating layer conv9_2_fc1
I0315 11:58:15.655293 15573 net.cpp:100] Creating Layer conv9_2_fc1
I0315 11:58:15.655299 15573 net.cpp:434] conv9_2_fc1 <- conv9_2_s
I0315 11:58:15.655310 15573 net.cpp:408] conv9_2_fc1 -> conv9_2_fc1
I0315 11:58:15.656419 15573 net.cpp:150] Setting up conv9_2_fc1
I0315 11:58:15.656430 15573 net.cpp:157] Top shape: 8 64 1 1 (512)
I0315 11:58:15.656435 15573 net.cpp:165] Memory required for data: 7680544836
I0315 11:58:15.656442 15573 layer_factory.hpp:77] Creating layer conv9_2_relu
I0315 11:58:15.656452 15573 net.cpp:100] Creating Layer conv9_2_relu
I0315 11:58:15.656457 15573 net.cpp:434] conv9_2_relu <- conv9_2_fc1
I0315 11:58:15.656466 15573 net.cpp:395] conv9_2_relu -> conv9_2_fc1 (in-place)
I0315 11:58:15.656960 15573 net.cpp:150] Setting up conv9_2_relu
I0315 11:58:15.656971 15573 net.cpp:157] Top shape: 8 64 1 1 (512)
I0315 11:58:15.656975 15573 net.cpp:165] Memory required for data: 7680546884
I0315 11:58:15.656980 15573 layer_factory.hpp:77] Creating layer conv9_2_fc2
I0315 11:58:15.656992 15573 net.cpp:100] Creating Layer conv9_2_fc2
I0315 11:58:15.656999 15573 net.cpp:434] conv9_2_fc2 <- conv9_2_fc1
I0315 11:58:15.657008 15573 net.cpp:408] conv9_2_fc2 -> conv9_2_fc2
I0315 11:58:15.658121 15573 net.cpp:150] Setting up conv9_2_fc2
I0315 11:58:15.658133 15573 net.cpp:157] Top shape: 8 256 1 1 (2048)
I0315 11:58:15.658138 15573 net.cpp:165] Memory required for data: 7680555076
I0315 11:58:15.658146 15573 layer_factory.hpp:77] Creating layer conv9_2_sig
I0315 11:58:15.658154 15573 net.cpp:100] Creating Layer conv9_2_sig
I0315 11:58:15.658160 15573 net.cpp:434] conv9_2_sig <- conv9_2_fc2
I0315 11:58:15.658170 15573 net.cpp:395] conv9_2_sig -> conv9_2_fc2 (in-place)
I0315 11:58:15.658342 15573 net.cpp:150] Setting up conv9_2_sig
I0315 11:58:15.658354 15573 net.cpp:157] Top shape: 8 256 1 1 (2048)
I0315 11:58:15.658357 15573 net.cpp:165] Memory required for data: 7680563268
I0315 11:58:15.658362 15573 layer_factory.hpp:77] Creating layer conv9_2_reshape
I0315 11:58:15.658372 15573 net.cpp:100] Creating Layer conv9_2_reshape
I0315 11:58:15.658381 15573 net.cpp:434] conv9_2_reshape <- conv9_2_fc2
I0315 11:58:15.658390 15573 net.cpp:408] conv9_2_reshape -> conv9_2_reshape
I0315 11:58:15.658427 15573 net.cpp:150] Setting up conv9_2_reshape
I0315 11:58:15.658432 15573 net.cpp:157] Top shape: 8 256 (2048)
I0315 11:58:15.658437 15573 net.cpp:165] Memory required for data: 7680571460
I0315 11:58:15.658442 15573 layer_factory.hpp:77] Creating layer conv9_2_scale
I0315 11:58:15.658464 15573 net.cpp:100] Creating Layer conv9_2_scale
I0315 11:58:15.658470 15573 net.cpp:434] conv9_2_scale <- conv9_2_t_conv9_2_relu_0_split_1
I0315 11:58:15.658476 15573 net.cpp:434] conv9_2_scale <- conv9_2_reshape
I0315 11:58:15.658485 15573 net.cpp:408] conv9_2_scale -> conv9_2
I0315 11:58:15.658556 15573 net.cpp:150] Setting up conv9_2_scale
I0315 11:58:15.658563 15573 net.cpp:157] Top shape: 8 256 2 2 (8192)
I0315 11:58:15.658567 15573 net.cpp:165] Memory required for data: 7680604228
I0315 11:58:15.658572 15573 layer_factory.hpp:77] Creating layer conv9_2_conv9_2_scale_0_split
I0315 11:58:15.658582 15573 net.cpp:100] Creating Layer conv9_2_conv9_2_scale_0_split
I0315 11:58:15.658591 15573 net.cpp:434] conv9_2_conv9_2_scale_0_split <- conv9_2
I0315 11:58:15.658602 15573 net.cpp:408] conv9_2_conv9_2_scale_0_split -> conv9_2_conv9_2_scale_0_split_0
I0315 11:58:15.658615 15573 net.cpp:408] conv9_2_conv9_2_scale_0_split -> conv9_2_conv9_2_scale_0_split_1
I0315 11:58:15.658633 15573 net.cpp:408] conv9_2_conv9_2_scale_0_split -> conv9_2_conv9_2_scale_0_split_2
I0315 11:58:15.658643 15573 net.cpp:408] conv9_2_conv9_2_scale_0_split -> conv9_2_conv9_2_scale_0_split_3
I0315 11:58:15.658706 15573 net.cpp:150] Setting up conv9_2_conv9_2_scale_0_split
I0315 11:58:15.658715 15573 net.cpp:157] Top shape: 8 256 2 2 (8192)
I0315 11:58:15.658720 15573 net.cpp:157] Top shape: 8 256 2 2 (8192)
I0315 11:58:15.658726 15573 net.cpp:157] Top shape: 8 256 2 2 (8192)
I0315 11:58:15.658746 15573 net.cpp:157] Top shape: 8 256 2 2 (8192)
I0315 11:58:15.658751 15573 net.cpp:165] Memory required for data: 7680735300
I0315 11:58:15.658766 15573 layer_factory.hpp:77] Creating layer conv10_1
I0315 11:58:15.658782 15573 net.cpp:100] Creating Layer conv10_1
I0315 11:58:15.658787 15573 net.cpp:434] conv10_1 <- conv9_2_conv9_2_scale_0_split_0
I0315 11:58:15.658797 15573 net.cpp:408] conv10_1 -> conv10_1
I0315 11:58:15.659957 15573 net.cpp:150] Setting up conv10_1
I0315 11:58:15.659970 15573 net.cpp:157] Top shape: 8 128 2 2 (4096)
I0315 11:58:15.659973 15573 net.cpp:165] Memory required for data: 7680751684
I0315 11:58:15.659982 15573 layer_factory.hpp:77] Creating layer conv10_1_relu
I0315 11:58:15.659994 15573 net.cpp:100] Creating Layer conv10_1_relu
I0315 11:58:15.660003 15573 net.cpp:434] conv10_1_relu <- conv10_1
I0315 11:58:15.660012 15573 net.cpp:395] conv10_1_relu -> conv10_1 (in-place)
I0315 11:58:15.660176 15573 net.cpp:150] Setting up conv10_1_relu
I0315 11:58:15.660187 15573 net.cpp:157] Top shape: 8 128 2 2 (4096)
I0315 11:58:15.660192 15573 net.cpp:165] Memory required for data: 7680768068
I0315 11:58:15.660195 15573 layer_factory.hpp:77] Creating layer conv10_2
I0315 11:58:15.660209 15573 net.cpp:100] Creating Layer conv10_2
I0315 11:58:15.660214 15573 net.cpp:434] conv10_2 <- conv10_1
I0315 11:58:15.660221 15573 net.cpp:408] conv10_2 -> conv10_2_t
I0315 11:58:15.664098 15573 net.cpp:150] Setting up conv10_2
I0315 11:58:15.664111 15573 net.cpp:157] Top shape: 8 256 1 1 (2048)
I0315 11:58:15.664116 15573 net.cpp:165] Memory required for data: 7680776260
I0315 11:58:15.664124 15573 layer_factory.hpp:77] Creating layer conv10_2_relu
I0315 11:58:15.664134 15573 net.cpp:100] Creating Layer conv10_2_relu
I0315 11:58:15.664140 15573 net.cpp:434] conv10_2_relu <- conv10_2_t
I0315 11:58:15.664150 15573 net.cpp:395] conv10_2_relu -> conv10_2_t (in-place)
I0315 11:58:15.664311 15573 net.cpp:150] Setting up conv10_2_relu
I0315 11:58:15.664321 15573 net.cpp:157] Top shape: 8 256 1 1 (2048)
I0315 11:58:15.664325 15573 net.cpp:165] Memory required for data: 7680784452
I0315 11:58:15.664331 15573 layer_factory.hpp:77] Creating layer conv10_2_t_conv10_2_relu_0_split
I0315 11:58:15.664340 15573 net.cpp:100] Creating Layer conv10_2_t_conv10_2_relu_0_split
I0315 11:58:15.664346 15573 net.cpp:434] conv10_2_t_conv10_2_relu_0_split <- conv10_2_t
I0315 11:58:15.664353 15573 net.cpp:408] conv10_2_t_conv10_2_relu_0_split -> conv10_2_t_conv10_2_relu_0_split_0
I0315 11:58:15.664366 15573 net.cpp:408] conv10_2_t_conv10_2_relu_0_split -> conv10_2_t_conv10_2_relu_0_split_1
I0315 11:58:15.664415 15573 net.cpp:150] Setting up conv10_2_t_conv10_2_relu_0_split
I0315 11:58:15.664422 15573 net.cpp:157] Top shape: 8 256 1 1 (2048)
I0315 11:58:15.664427 15573 net.cpp:157] Top shape: 8 256 1 1 (2048)
I0315 11:58:15.664433 15573 net.cpp:165] Memory required for data: 7680800836
I0315 11:58:15.664438 15573 layer_factory.hpp:77] Creating layer conv10_2_s
I0315 11:58:15.664458 15573 net.cpp:100] Creating Layer conv10_2_s
I0315 11:58:15.664464 15573 net.cpp:434] conv10_2_s <- conv10_2_t_conv10_2_relu_0_split_0
I0315 11:58:15.664474 15573 net.cpp:408] conv10_2_s -> conv10_2_s
I0315 11:58:15.664986 15573 net.cpp:150] Setting up conv10_2_s
I0315 11:58:15.665000 15573 net.cpp:157] Top shape: 8 256 1 1 (2048)
I0315 11:58:15.665005 15573 net.cpp:165] Memory required for data: 7680809028
I0315 11:58:15.665011 15573 layer_factory.hpp:77] Creating layer conv10_2_fc1
I0315 11:58:15.665024 15573 net.cpp:100] Creating Layer conv10_2_fc1
I0315 11:58:15.665030 15573 net.cpp:434] conv10_2_fc1 <- conv10_2_s
I0315 11:58:15.665040 15573 net.cpp:408] conv10_2_fc1 -> conv10_2_fc1
I0315 11:58:15.666170 15573 net.cpp:150] Setting up conv10_2_fc1
I0315 11:58:15.666183 15573 net.cpp:157] Top shape: 8 64 1 1 (512)
I0315 11:58:15.666188 15573 net.cpp:165] Memory required for data: 7680811076
I0315 11:58:15.666196 15573 layer_factory.hpp:77] Creating layer conv10_2_relu
I0315 11:58:15.666208 15573 net.cpp:100] Creating Layer conv10_2_relu
I0315 11:58:15.666224 15573 net.cpp:434] conv10_2_relu <- conv10_2_fc1
I0315 11:58:15.666232 15573 net.cpp:395] conv10_2_relu -> conv10_2_fc1 (in-place)
I0315 11:58:15.666399 15573 net.cpp:150] Setting up conv10_2_relu
I0315 11:58:15.666409 15573 net.cpp:157] Top shape: 8 64 1 1 (512)
I0315 11:58:15.666414 15573 net.cpp:165] Memory required for data: 7680813124
I0315 11:58:15.666417 15573 layer_factory.hpp:77] Creating layer conv10_2_fc2
I0315 11:58:15.666429 15573 net.cpp:100] Creating Layer conv10_2_fc2
I0315 11:58:15.666435 15573 net.cpp:434] conv10_2_fc2 <- conv10_2_fc1
I0315 11:58:15.666445 15573 net.cpp:408] conv10_2_fc2 -> conv10_2_fc2
I0315 11:58:15.667559 15573 net.cpp:150] Setting up conv10_2_fc2
I0315 11:58:15.667572 15573 net.cpp:157] Top shape: 8 256 1 1 (2048)
I0315 11:58:15.667577 15573 net.cpp:165] Memory required for data: 7680821316
I0315 11:58:15.667584 15573 layer_factory.hpp:77] Creating layer conv10_2_sig
I0315 11:58:15.667594 15573 net.cpp:100] Creating Layer conv10_2_sig
I0315 11:58:15.667599 15573 net.cpp:434] conv10_2_sig <- conv10_2_fc2
I0315 11:58:15.667611 15573 net.cpp:395] conv10_2_sig -> conv10_2_fc2 (in-place)
I0315 11:58:15.667774 15573 net.cpp:150] Setting up conv10_2_sig
I0315 11:58:15.667783 15573 net.cpp:157] Top shape: 8 256 1 1 (2048)
I0315 11:58:15.667786 15573 net.cpp:165] Memory required for data: 7680829508
I0315 11:58:15.667791 15573 layer_factory.hpp:77] Creating layer conv10_2_reshape
I0315 11:58:15.667801 15573 net.cpp:100] Creating Layer conv10_2_reshape
I0315 11:58:15.667806 15573 net.cpp:434] conv10_2_reshape <- conv10_2_fc2
I0315 11:58:15.667815 15573 net.cpp:408] conv10_2_reshape -> conv10_2_reshape
I0315 11:58:15.667852 15573 net.cpp:150] Setting up conv10_2_reshape
I0315 11:58:15.667860 15573 net.cpp:157] Top shape: 8 256 (2048)
I0315 11:58:15.667863 15573 net.cpp:165] Memory required for data: 7680837700
I0315 11:58:15.667867 15573 layer_factory.hpp:77] Creating layer conv10_2_scale
I0315 11:58:15.667877 15573 net.cpp:100] Creating Layer conv10_2_scale
I0315 11:58:15.667882 15573 net.cpp:434] conv10_2_scale <- conv10_2_t_conv10_2_relu_0_split_1
I0315 11:58:15.667889 15573 net.cpp:434] conv10_2_scale <- conv10_2_reshape
I0315 11:58:15.667902 15573 net.cpp:408] conv10_2_scale -> conv10_2
I0315 11:58:15.667973 15573 net.cpp:150] Setting up conv10_2_scale
I0315 11:58:15.667979 15573 net.cpp:157] Top shape: 8 256 1 1 (2048)
I0315 11:58:15.667984 15573 net.cpp:165] Memory required for data: 7680845892
I0315 11:58:15.667989 15573 layer_factory.hpp:77] Creating layer conv10_2_conv10_2_scale_0_split
I0315 11:58:15.668000 15573 net.cpp:100] Creating Layer conv10_2_conv10_2_scale_0_split
I0315 11:58:15.668012 15573 net.cpp:434] conv10_2_conv10_2_scale_0_split <- conv10_2
I0315 11:58:15.668026 15573 net.cpp:408] conv10_2_conv10_2_scale_0_split -> conv10_2_conv10_2_scale_0_split_0
I0315 11:58:15.668041 15573 net.cpp:408] conv10_2_conv10_2_scale_0_split -> conv10_2_conv10_2_scale_0_split_1
I0315 11:58:15.668051 15573 net.cpp:408] conv10_2_conv10_2_scale_0_split -> conv10_2_conv10_2_scale_0_split_2
I0315 11:58:15.668104 15573 net.cpp:150] Setting up conv10_2_conv10_2_scale_0_split
I0315 11:58:15.668118 15573 net.cpp:157] Top shape: 8 256 1 1 (2048)
I0315 11:58:15.668123 15573 net.cpp:157] Top shape: 8 256 1 1 (2048)
I0315 11:58:15.668131 15573 net.cpp:157] Top shape: 8 256 1 1 (2048)
I0315 11:58:15.668139 15573 net.cpp:165] Memory required for data: 7680870468
I0315 11:58:15.668145 15573 layer_factory.hpp:77] Creating layer conv4_3_norm
I0315 11:58:15.668159 15573 net.cpp:100] Creating Layer conv4_3_norm
I0315 11:58:15.668169 15573 net.cpp:434] conv4_3_norm <- conv4_3_conv4_3_scale_0_split_1
I0315 11:58:15.668179 15573 net.cpp:408] conv4_3_norm -> conv4_3_norm
I0315 11:58:15.668323 15573 net.cpp:150] Setting up conv4_3_norm
I0315 11:58:15.668330 15573 net.cpp:157] Top shape: 8 512 64 64 (16777216)
I0315 11:58:15.668335 15573 net.cpp:165] Memory required for data: 7747979332
I0315 11:58:15.668344 15573 layer_factory.hpp:77] Creating layer conv4_3_norm_conv4_3_norm_0_split
I0315 11:58:15.668354 15573 net.cpp:100] Creating Layer conv4_3_norm_conv4_3_norm_0_split
I0315 11:58:15.668370 15573 net.cpp:434] conv4_3_norm_conv4_3_norm_0_split <- conv4_3_norm
I0315 11:58:15.668380 15573 net.cpp:408] conv4_3_norm_conv4_3_norm_0_split -> conv4_3_norm_conv4_3_norm_0_split_0
I0315 11:58:15.668388 15573 net.cpp:408] conv4_3_norm_conv4_3_norm_0_split -> conv4_3_norm_conv4_3_norm_0_split_1
I0315 11:58:15.668397 15573 net.cpp:408] conv4_3_norm_conv4_3_norm_0_split -> conv4_3_norm_conv4_3_norm_0_split_2
I0315 11:58:15.668452 15573 net.cpp:150] Setting up conv4_3_norm_conv4_3_norm_0_split
I0315 11:58:15.668462 15573 net.cpp:157] Top shape: 8 512 64 64 (16777216)
I0315 11:58:15.668467 15573 net.cpp:157] Top shape: 8 512 64 64 (16777216)
I0315 11:58:15.668473 15573 net.cpp:157] Top shape: 8 512 64 64 (16777216)
I0315 11:58:15.668476 15573 net.cpp:165] Memory required for data: 7949305924
I0315 11:58:15.668484 15573 layer_factory.hpp:77] Creating layer conv4_3_norm_mbox_loc
I0315 11:58:15.668498 15573 net.cpp:100] Creating Layer conv4_3_norm_mbox_loc
I0315 11:58:15.668504 15573 net.cpp:434] conv4_3_norm_mbox_loc <- conv4_3_norm_conv4_3_norm_0_split_0
I0315 11:58:15.668514 15573 net.cpp:408] conv4_3_norm_mbox_loc -> conv4_3_norm_mbox_loc
I0315 11:58:15.670164 15573 net.cpp:150] Setting up conv4_3_norm_mbox_loc
I0315 11:58:15.670177 15573 net.cpp:157] Top shape: 8 16 64 64 (524288)
I0315 11:58:15.670181 15573 net.cpp:165] Memory required for data: 7951403076
I0315 11:58:15.670191 15573 layer_factory.hpp:77] Creating layer conv4_3_norm_mbox_loc_perm
I0315 11:58:15.670202 15573 net.cpp:100] Creating Layer conv4_3_norm_mbox_loc_perm
I0315 11:58:15.670207 15573 net.cpp:434] conv4_3_norm_mbox_loc_perm <- conv4_3_norm_mbox_loc
I0315 11:58:15.670219 15573 net.cpp:408] conv4_3_norm_mbox_loc_perm -> conv4_3_norm_mbox_loc_perm
I0315 11:58:15.670338 15573 net.cpp:150] Setting up conv4_3_norm_mbox_loc_perm
I0315 11:58:15.670346 15573 net.cpp:157] Top shape: 8 64 64 16 (524288)
I0315 11:58:15.670351 15573 net.cpp:165] Memory required for data: 7953500228
I0315 11:58:15.670356 15573 layer_factory.hpp:77] Creating layer conv4_3_norm_mbox_loc_flat
I0315 11:58:15.670367 15573 net.cpp:100] Creating Layer conv4_3_norm_mbox_loc_flat
I0315 11:58:15.670375 15573 net.cpp:434] conv4_3_norm_mbox_loc_flat <- conv4_3_norm_mbox_loc_perm
I0315 11:58:15.670385 15573 net.cpp:408] conv4_3_norm_mbox_loc_flat -> conv4_3_norm_mbox_loc_flat
I0315 11:58:15.670420 15573 net.cpp:150] Setting up conv4_3_norm_mbox_loc_flat
I0315 11:58:15.670428 15573 net.cpp:157] Top shape: 8 65536 (524288)
I0315 11:58:15.670433 15573 net.cpp:165] Memory required for data: 7955597380
I0315 11:58:15.670437 15573 layer_factory.hpp:77] Creating layer conv4_3_norm_mbox_conf
I0315 11:58:15.670455 15573 net.cpp:100] Creating Layer conv4_3_norm_mbox_conf
I0315 11:58:15.670472 15573 net.cpp:434] conv4_3_norm_mbox_conf <- conv4_3_norm_conv4_3_norm_0_split_1
I0315 11:58:15.670485 15573 net.cpp:408] conv4_3_norm_mbox_conf -> conv4_3_norm_mbox_conf
I0315 11:58:15.674126 15573 net.cpp:150] Setting up conv4_3_norm_mbox_conf
I0315 11:58:15.674139 15573 net.cpp:157] Top shape: 8 84 64 64 (2752512)
I0315 11:58:15.674144 15573 net.cpp:165] Memory required for data: 7966607428
I0315 11:58:15.674155 15573 layer_factory.hpp:77] Creating layer conv4_3_norm_mbox_conf_perm
I0315 11:58:15.674163 15573 net.cpp:100] Creating Layer conv4_3_norm_mbox_conf_perm
I0315 11:58:15.674170 15573 net.cpp:434] conv4_3_norm_mbox_conf_perm <- conv4_3_norm_mbox_conf
I0315 11:58:15.674182 15573 net.cpp:408] conv4_3_norm_mbox_conf_perm -> conv4_3_norm_mbox_conf_perm
I0315 11:58:15.674289 15573 net.cpp:150] Setting up conv4_3_norm_mbox_conf_perm
I0315 11:58:15.674298 15573 net.cpp:157] Top shape: 8 64 64 84 (2752512)
I0315 11:58:15.674301 15573 net.cpp:165] Memory required for data: 7977617476
I0315 11:58:15.674306 15573 layer_factory.hpp:77] Creating layer conv4_3_norm_mbox_conf_flat
I0315 11:58:15.674316 15573 net.cpp:100] Creating Layer conv4_3_norm_mbox_conf_flat
I0315 11:58:15.674322 15573 net.cpp:434] conv4_3_norm_mbox_conf_flat <- conv4_3_norm_mbox_conf_perm
I0315 11:58:15.674365 15573 net.cpp:408] conv4_3_norm_mbox_conf_flat -> conv4_3_norm_mbox_conf_flat
I0315 11:58:15.674401 15573 net.cpp:150] Setting up conv4_3_norm_mbox_conf_flat
I0315 11:58:15.674410 15573 net.cpp:157] Top shape: 8 344064 (2752512)
I0315 11:58:15.674415 15573 net.cpp:165] Memory required for data: 7988627524
I0315 11:58:15.674419 15573 layer_factory.hpp:77] Creating layer conv4_3_norm_mbox_priorbox
I0315 11:58:15.674432 15573 net.cpp:100] Creating Layer conv4_3_norm_mbox_priorbox
I0315 11:58:15.674444 15573 net.cpp:434] conv4_3_norm_mbox_priorbox <- conv4_3_norm_conv4_3_norm_0_split_2
I0315 11:58:15.674455 15573 net.cpp:434] conv4_3_norm_mbox_priorbox <- data_data_0_split_1
I0315 11:58:15.674466 15573 net.cpp:408] conv4_3_norm_mbox_priorbox -> conv4_3_norm_mbox_priorbox
I0315 11:58:15.674505 15573 net.cpp:150] Setting up conv4_3_norm_mbox_priorbox
I0315 11:58:15.674513 15573 net.cpp:157] Top shape: 1 2 65536 (131072)
I0315 11:58:15.674517 15573 net.cpp:165] Memory required for data: 7989151812
I0315 11:58:15.674523 15573 layer_factory.hpp:77] Creating layer fc7_mbox_loc
I0315 11:58:15.674540 15573 net.cpp:100] Creating Layer fc7_mbox_loc
I0315 11:58:15.674548 15573 net.cpp:434] fc7_mbox_loc <- fc7_fc7_scale_0_split_1
I0315 11:58:15.674559 15573 net.cpp:408] fc7_mbox_loc -> fc7_mbox_loc
I0315 11:58:15.677316 15573 net.cpp:150] Setting up fc7_mbox_loc
I0315 11:58:15.677327 15573 net.cpp:157] Top shape: 8 24 32 32 (196608)
I0315 11:58:15.677333 15573 net.cpp:165] Memory required for data: 7989938244
I0315 11:58:15.677341 15573 layer_factory.hpp:77] Creating layer fc7_mbox_loc_perm
I0315 11:58:15.677351 15573 net.cpp:100] Creating Layer fc7_mbox_loc_perm
I0315 11:58:15.677356 15573 net.cpp:434] fc7_mbox_loc_perm <- fc7_mbox_loc
I0315 11:58:15.677366 15573 net.cpp:408] fc7_mbox_loc_perm -> fc7_mbox_loc_perm
I0315 11:58:15.677470 15573 net.cpp:150] Setting up fc7_mbox_loc_perm
I0315 11:58:15.677479 15573 net.cpp:157] Top shape: 8 32 32 24 (196608)
I0315 11:58:15.677482 15573 net.cpp:165] Memory required for data: 7990724676
I0315 11:58:15.677489 15573 layer_factory.hpp:77] Creating layer fc7_mbox_loc_flat
I0315 11:58:15.677496 15573 net.cpp:100] Creating Layer fc7_mbox_loc_flat
I0315 11:58:15.677505 15573 net.cpp:434] fc7_mbox_loc_flat <- fc7_mbox_loc_perm
I0315 11:58:15.677513 15573 net.cpp:408] fc7_mbox_loc_flat -> fc7_mbox_loc_flat
I0315 11:58:15.677548 15573 net.cpp:150] Setting up fc7_mbox_loc_flat
I0315 11:58:15.677556 15573 net.cpp:157] Top shape: 8 24576 (196608)
I0315 11:58:15.677559 15573 net.cpp:165] Memory required for data: 7991511108
I0315 11:58:15.677563 15573 layer_factory.hpp:77] Creating layer fc7_mbox_conf
I0315 11:58:15.677583 15573 net.cpp:100] Creating Layer fc7_mbox_conf
I0315 11:58:15.677590 15573 net.cpp:434] fc7_mbox_conf <- fc7_fc7_scale_0_split_2
I0315 11:58:15.677599 15573 net.cpp:408] fc7_mbox_conf -> fc7_mbox_conf
I0315 11:58:15.685135 15573 net.cpp:150] Setting up fc7_mbox_conf
I0315 11:58:15.685149 15573 net.cpp:157] Top shape: 8 126 32 32 (1032192)
I0315 11:58:15.685153 15573 net.cpp:165] Memory required for data: 7995639876
I0315 11:58:15.685163 15573 layer_factory.hpp:77] Creating layer fc7_mbox_conf_perm
I0315 11:58:15.685173 15573 net.cpp:100] Creating Layer fc7_mbox_conf_perm
I0315 11:58:15.685183 15573 net.cpp:434] fc7_mbox_conf_perm <- fc7_mbox_conf
I0315 11:58:15.685190 15573 net.cpp:408] fc7_mbox_conf_perm -> fc7_mbox_conf_perm
I0315 11:58:15.685303 15573 net.cpp:150] Setting up fc7_mbox_conf_perm
I0315 11:58:15.685312 15573 net.cpp:157] Top shape: 8 32 32 126 (1032192)
I0315 11:58:15.685317 15573 net.cpp:165] Memory required for data: 7999768644
I0315 11:58:15.685322 15573 layer_factory.hpp:77] Creating layer fc7_mbox_conf_flat
I0315 11:58:15.685329 15573 net.cpp:100] Creating Layer fc7_mbox_conf_flat
I0315 11:58:15.685338 15573 net.cpp:434] fc7_mbox_conf_flat <- fc7_mbox_conf_perm
I0315 11:58:15.685348 15573 net.cpp:408] fc7_mbox_conf_flat -> fc7_mbox_conf_flat
I0315 11:58:15.685386 15573 net.cpp:150] Setting up fc7_mbox_conf_flat
I0315 11:58:15.685401 15573 net.cpp:157] Top shape: 8 129024 (1032192)
I0315 11:58:15.685406 15573 net.cpp:165] Memory required for data: 8003897412
I0315 11:58:15.685411 15573 layer_factory.hpp:77] Creating layer fc7_mbox_priorbox
I0315 11:58:15.685423 15573 net.cpp:100] Creating Layer fc7_mbox_priorbox
I0315 11:58:15.685431 15573 net.cpp:434] fc7_mbox_priorbox <- fc7_fc7_scale_0_split_3
I0315 11:58:15.685439 15573 net.cpp:434] fc7_mbox_priorbox <- data_data_0_split_2
I0315 11:58:15.685454 15573 net.cpp:408] fc7_mbox_priorbox -> fc7_mbox_priorbox
I0315 11:58:15.685490 15573 net.cpp:150] Setting up fc7_mbox_priorbox
I0315 11:58:15.685499 15573 net.cpp:157] Top shape: 1 2 24576 (49152)
I0315 11:58:15.685503 15573 net.cpp:165] Memory required for data: 8004094020
I0315 11:58:15.685508 15573 layer_factory.hpp:77] Creating layer conv6_2_mbox_loc
I0315 11:58:15.685519 15573 net.cpp:100] Creating Layer conv6_2_mbox_loc
I0315 11:58:15.685526 15573 net.cpp:434] conv6_2_mbox_loc <- conv6_2_conv6_2_scale_0_split_1
I0315 11:58:15.685537 15573 net.cpp:408] conv6_2_mbox_loc -> conv6_2_mbox_loc
I0315 11:58:15.687371 15573 net.cpp:150] Setting up conv6_2_mbox_loc
I0315 11:58:15.687383 15573 net.cpp:157] Top shape: 8 24 16 16 (49152)
I0315 11:58:15.687388 15573 net.cpp:165] Memory required for data: 8004290628
I0315 11:58:15.687397 15573 layer_factory.hpp:77] Creating layer conv6_2_mbox_loc_perm
I0315 11:58:15.687407 15573 net.cpp:100] Creating Layer conv6_2_mbox_loc_perm
I0315 11:58:15.687413 15573 net.cpp:434] conv6_2_mbox_loc_perm <- conv6_2_mbox_loc
I0315 11:58:15.687423 15573 net.cpp:408] conv6_2_mbox_loc_perm -> conv6_2_mbox_loc_perm
I0315 11:58:15.687535 15573 net.cpp:150] Setting up conv6_2_mbox_loc_perm
I0315 11:58:15.687543 15573 net.cpp:157] Top shape: 8 16 16 24 (49152)
I0315 11:58:15.687548 15573 net.cpp:165] Memory required for data: 8004487236
I0315 11:58:15.687552 15573 layer_factory.hpp:77] Creating layer conv6_2_mbox_loc_flat
I0315 11:58:15.687561 15573 net.cpp:100] Creating Layer conv6_2_mbox_loc_flat
I0315 11:58:15.687567 15573 net.cpp:434] conv6_2_mbox_loc_flat <- conv6_2_mbox_loc_perm
I0315 11:58:15.687575 15573 net.cpp:408] conv6_2_mbox_loc_flat -> conv6_2_mbox_loc_flat
I0315 11:58:15.687609 15573 net.cpp:150] Setting up conv6_2_mbox_loc_flat
I0315 11:58:15.687618 15573 net.cpp:157] Top shape: 8 6144 (49152)
I0315 11:58:15.687621 15573 net.cpp:165] Memory required for data: 8004683844
I0315 11:58:15.687626 15573 layer_factory.hpp:77] Creating layer conv6_2_mbox_conf
I0315 11:58:15.687640 15573 net.cpp:100] Creating Layer conv6_2_mbox_conf
I0315 11:58:15.687646 15573 net.cpp:434] conv6_2_mbox_conf <- conv6_2_conv6_2_scale_0_split_2
I0315 11:58:15.687654 15573 net.cpp:408] conv6_2_mbox_conf -> conv6_2_mbox_conf
I0315 11:58:15.692127 15573 net.cpp:150] Setting up conv6_2_mbox_conf
I0315 11:58:15.692139 15573 net.cpp:157] Top shape: 8 126 16 16 (258048)
I0315 11:58:15.692143 15573 net.cpp:165] Memory required for data: 8005716036
I0315 11:58:15.692153 15573 layer_factory.hpp:77] Creating layer conv6_2_mbox_conf_perm
I0315 11:58:15.692167 15573 net.cpp:100] Creating Layer conv6_2_mbox_conf_perm
I0315 11:58:15.692173 15573 net.cpp:434] conv6_2_mbox_conf_perm <- conv6_2_mbox_conf
I0315 11:58:15.692183 15573 net.cpp:408] conv6_2_mbox_conf_perm -> conv6_2_mbox_conf_perm
I0315 11:58:15.692292 15573 net.cpp:150] Setting up conv6_2_mbox_conf_perm
I0315 11:58:15.692301 15573 net.cpp:157] Top shape: 8 16 16 126 (258048)
I0315 11:58:15.692303 15573 net.cpp:165] Memory required for data: 8006748228
I0315 11:58:15.692308 15573 layer_factory.hpp:77] Creating layer conv6_2_mbox_conf_flat
I0315 11:58:15.692317 15573 net.cpp:100] Creating Layer conv6_2_mbox_conf_flat
I0315 11:58:15.692324 15573 net.cpp:434] conv6_2_mbox_conf_flat <- conv6_2_mbox_conf_perm
I0315 11:58:15.692332 15573 net.cpp:408] conv6_2_mbox_conf_flat -> conv6_2_mbox_conf_flat
I0315 11:58:15.692368 15573 net.cpp:150] Setting up conv6_2_mbox_conf_flat
I0315 11:58:15.692376 15573 net.cpp:157] Top shape: 8 32256 (258048)
I0315 11:58:15.692379 15573 net.cpp:165] Memory required for data: 8007780420
I0315 11:58:15.692395 15573 layer_factory.hpp:77] Creating layer conv6_2_mbox_priorbox
I0315 11:58:15.692407 15573 net.cpp:100] Creating Layer conv6_2_mbox_priorbox
I0315 11:58:15.692414 15573 net.cpp:434] conv6_2_mbox_priorbox <- conv6_2_conv6_2_scale_0_split_3
I0315 11:58:15.692425 15573 net.cpp:434] conv6_2_mbox_priorbox <- data_data_0_split_3
I0315 11:58:15.692433 15573 net.cpp:408] conv6_2_mbox_priorbox -> conv6_2_mbox_priorbox
I0315 11:58:15.692471 15573 net.cpp:150] Setting up conv6_2_mbox_priorbox
I0315 11:58:15.692479 15573 net.cpp:157] Top shape: 1 2 6144 (12288)
I0315 11:58:15.692483 15573 net.cpp:165] Memory required for data: 8007829572
I0315 11:58:15.692487 15573 layer_factory.hpp:77] Creating layer conv7_2_mbox_loc
I0315 11:58:15.692502 15573 net.cpp:100] Creating Layer conv7_2_mbox_loc
I0315 11:58:15.692510 15573 net.cpp:434] conv7_2_mbox_loc <- conv7_2_conv7_2_scale_0_split_1
I0315 11:58:15.692520 15573 net.cpp:408] conv7_2_mbox_loc -> conv7_2_mbox_loc
I0315 11:58:15.694140 15573 net.cpp:150] Setting up conv7_2_mbox_loc
I0315 11:58:15.694152 15573 net.cpp:157] Top shape: 8 24 8 8 (12288)
I0315 11:58:15.694157 15573 net.cpp:165] Memory required for data: 8007878724
I0315 11:58:15.694165 15573 layer_factory.hpp:77] Creating layer conv7_2_mbox_loc_perm
I0315 11:58:15.694175 15573 net.cpp:100] Creating Layer conv7_2_mbox_loc_perm
I0315 11:58:15.694181 15573 net.cpp:434] conv7_2_mbox_loc_perm <- conv7_2_mbox_loc
I0315 11:58:15.694191 15573 net.cpp:408] conv7_2_mbox_loc_perm -> conv7_2_mbox_loc_perm
I0315 11:58:15.694300 15573 net.cpp:150] Setting up conv7_2_mbox_loc_perm
I0315 11:58:15.694308 15573 net.cpp:157] Top shape: 8 8 8 24 (12288)
I0315 11:58:15.694311 15573 net.cpp:165] Memory required for data: 8007927876
I0315 11:58:15.694316 15573 layer_factory.hpp:77] Creating layer conv7_2_mbox_loc_flat
I0315 11:58:15.694344 15573 net.cpp:100] Creating Layer conv7_2_mbox_loc_flat
I0315 11:58:15.694351 15573 net.cpp:434] conv7_2_mbox_loc_flat <- conv7_2_mbox_loc_perm
I0315 11:58:15.694363 15573 net.cpp:408] conv7_2_mbox_loc_flat -> conv7_2_mbox_loc_flat
I0315 11:58:15.694399 15573 net.cpp:150] Setting up conv7_2_mbox_loc_flat
I0315 11:58:15.694407 15573 net.cpp:157] Top shape: 8 1536 (12288)
I0315 11:58:15.694411 15573 net.cpp:165] Memory required for data: 8007977028
I0315 11:58:15.694416 15573 layer_factory.hpp:77] Creating layer conv7_2_mbox_conf
I0315 11:58:15.694432 15573 net.cpp:100] Creating Layer conv7_2_mbox_conf
I0315 11:58:15.694438 15573 net.cpp:434] conv7_2_mbox_conf <- conv7_2_conv7_2_scale_0_split_2
I0315 11:58:15.694449 15573 net.cpp:408] conv7_2_mbox_conf -> conv7_2_mbox_conf
I0315 11:58:15.697741 15573 net.cpp:150] Setting up conv7_2_mbox_conf
I0315 11:58:15.697753 15573 net.cpp:157] Top shape: 8 126 8 8 (64512)
I0315 11:58:15.697757 15573 net.cpp:165] Memory required for data: 8008235076
I0315 11:58:15.697765 15573 layer_factory.hpp:77] Creating layer conv7_2_mbox_conf_perm
I0315 11:58:15.697777 15573 net.cpp:100] Creating Layer conv7_2_mbox_conf_perm
I0315 11:58:15.697787 15573 net.cpp:434] conv7_2_mbox_conf_perm <- conv7_2_mbox_conf
I0315 11:58:15.697793 15573 net.cpp:408] conv7_2_mbox_conf_perm -> conv7_2_mbox_conf_perm
I0315 11:58:15.697906 15573 net.cpp:150] Setting up conv7_2_mbox_conf_perm
I0315 11:58:15.697913 15573 net.cpp:157] Top shape: 8 8 8 126 (64512)
I0315 11:58:15.697918 15573 net.cpp:165] Memory required for data: 8008493124
I0315 11:58:15.697923 15573 layer_factory.hpp:77] Creating layer conv7_2_mbox_conf_flat
I0315 11:58:15.697933 15573 net.cpp:100] Creating Layer conv7_2_mbox_conf_flat
I0315 11:58:15.697942 15573 net.cpp:434] conv7_2_mbox_conf_flat <- conv7_2_mbox_conf_perm
I0315 11:58:15.697948 15573 net.cpp:408] conv7_2_mbox_conf_flat -> conv7_2_mbox_conf_flat
I0315 11:58:15.697978 15573 net.cpp:150] Setting up conv7_2_mbox_conf_flat
I0315 11:58:15.697985 15573 net.cpp:157] Top shape: 8 8064 (64512)
I0315 11:58:15.697988 15573 net.cpp:165] Memory required for data: 8008751172
I0315 11:58:15.697994 15573 layer_factory.hpp:77] Creating layer conv7_2_mbox_priorbox
I0315 11:58:15.698015 15573 net.cpp:100] Creating Layer conv7_2_mbox_priorbox
I0315 11:58:15.698021 15573 net.cpp:434] conv7_2_mbox_priorbox <- conv7_2_conv7_2_scale_0_split_3
I0315 11:58:15.698030 15573 net.cpp:434] conv7_2_mbox_priorbox <- data_data_0_split_4
I0315 11:58:15.698038 15573 net.cpp:408] conv7_2_mbox_priorbox -> conv7_2_mbox_priorbox
I0315 11:58:15.698074 15573 net.cpp:150] Setting up conv7_2_mbox_priorbox
I0315 11:58:15.698081 15573 net.cpp:157] Top shape: 1 2 1536 (3072)
I0315 11:58:15.698084 15573 net.cpp:165] Memory required for data: 8008763460
I0315 11:58:15.698089 15573 layer_factory.hpp:77] Creating layer conv8_2_mbox_loc
I0315 11:58:15.698103 15573 net.cpp:100] Creating Layer conv8_2_mbox_loc
I0315 11:58:15.698110 15573 net.cpp:434] conv8_2_mbox_loc <- conv8_2_conv8_2_scale_0_split_1
I0315 11:58:15.698118 15573 net.cpp:408] conv8_2_mbox_loc -> conv8_2_mbox_loc
I0315 11:58:15.699446 15573 net.cpp:150] Setting up conv8_2_mbox_loc
I0315 11:58:15.699458 15573 net.cpp:157] Top shape: 8 24 4 4 (3072)
I0315 11:58:15.699462 15573 net.cpp:165] Memory required for data: 8008775748
I0315 11:58:15.699470 15573 layer_factory.hpp:77] Creating layer conv8_2_mbox_loc_perm
I0315 11:58:15.699481 15573 net.cpp:100] Creating Layer conv8_2_mbox_loc_perm
I0315 11:58:15.699488 15573 net.cpp:434] conv8_2_mbox_loc_perm <- conv8_2_mbox_loc
I0315 11:58:15.699497 15573 net.cpp:408] conv8_2_mbox_loc_perm -> conv8_2_mbox_loc_perm
I0315 11:58:15.699611 15573 net.cpp:150] Setting up conv8_2_mbox_loc_perm
I0315 11:58:15.699620 15573 net.cpp:157] Top shape: 8 4 4 24 (3072)
I0315 11:58:15.699622 15573 net.cpp:165] Memory required for data: 8008788036
I0315 11:58:15.699627 15573 layer_factory.hpp:77] Creating layer conv8_2_mbox_loc_flat
I0315 11:58:15.699635 15573 net.cpp:100] Creating Layer conv8_2_mbox_loc_flat
I0315 11:58:15.699645 15573 net.cpp:434] conv8_2_mbox_loc_flat <- conv8_2_mbox_loc_perm
I0315 11:58:15.699656 15573 net.cpp:408] conv8_2_mbox_loc_flat -> conv8_2_mbox_loc_flat
I0315 11:58:15.699692 15573 net.cpp:150] Setting up conv8_2_mbox_loc_flat
I0315 11:58:15.699699 15573 net.cpp:157] Top shape: 8 384 (3072)
I0315 11:58:15.699703 15573 net.cpp:165] Memory required for data: 8008800324
I0315 11:58:15.699707 15573 layer_factory.hpp:77] Creating layer conv8_2_mbox_conf
I0315 11:58:15.699721 15573 net.cpp:100] Creating Layer conv8_2_mbox_conf
I0315 11:58:15.699730 15573 net.cpp:434] conv8_2_mbox_conf <- conv8_2_conv8_2_scale_0_split_2
I0315 11:58:15.699741 15573 net.cpp:408] conv8_2_mbox_conf -> conv8_2_mbox_conf
I0315 11:58:15.703024 15573 net.cpp:150] Setting up conv8_2_mbox_conf
I0315 11:58:15.703037 15573 net.cpp:157] Top shape: 8 126 4 4 (16128)
I0315 11:58:15.703042 15573 net.cpp:165] Memory required for data: 8008864836
I0315 11:58:15.703050 15573 layer_factory.hpp:77] Creating layer conv8_2_mbox_conf_perm
I0315 11:58:15.703064 15573 net.cpp:100] Creating Layer conv8_2_mbox_conf_perm
I0315 11:58:15.703071 15573 net.cpp:434] conv8_2_mbox_conf_perm <- conv8_2_mbox_conf
I0315 11:58:15.703078 15573 net.cpp:408] conv8_2_mbox_conf_perm -> conv8_2_mbox_conf_perm
I0315 11:58:15.703198 15573 net.cpp:150] Setting up conv8_2_mbox_conf_perm
I0315 11:58:15.703205 15573 net.cpp:157] Top shape: 8 4 4 126 (16128)
I0315 11:58:15.703209 15573 net.cpp:165] Memory required for data: 8008929348
I0315 11:58:15.703213 15573 layer_factory.hpp:77] Creating layer conv8_2_mbox_conf_flat
I0315 11:58:15.703222 15573 net.cpp:100] Creating Layer conv8_2_mbox_conf_flat
I0315 11:58:15.703228 15573 net.cpp:434] conv8_2_mbox_conf_flat <- conv8_2_mbox_conf_perm
I0315 11:58:15.703238 15573 net.cpp:408] conv8_2_mbox_conf_flat -> conv8_2_mbox_conf_flat
I0315 11:58:15.703275 15573 net.cpp:150] Setting up conv8_2_mbox_conf_flat
I0315 11:58:15.703284 15573 net.cpp:157] Top shape: 8 2016 (16128)
I0315 11:58:15.703286 15573 net.cpp:165] Memory required for data: 8008993860
I0315 11:58:15.703291 15573 layer_factory.hpp:77] Creating layer conv8_2_mbox_priorbox
I0315 11:58:15.703302 15573 net.cpp:100] Creating Layer conv8_2_mbox_priorbox
I0315 11:58:15.703321 15573 net.cpp:434] conv8_2_mbox_priorbox <- conv8_2_conv8_2_scale_0_split_3
I0315 11:58:15.703331 15573 net.cpp:434] conv8_2_mbox_priorbox <- data_data_0_split_5
I0315 11:58:15.703339 15573 net.cpp:408] conv8_2_mbox_priorbox -> conv8_2_mbox_priorbox
I0315 11:58:15.703377 15573 net.cpp:150] Setting up conv8_2_mbox_priorbox
I0315 11:58:15.703385 15573 net.cpp:157] Top shape: 1 2 384 (768)
I0315 11:58:15.703389 15573 net.cpp:165] Memory required for data: 8008996932
I0315 11:58:15.703393 15573 layer_factory.hpp:77] Creating layer conv9_2_mbox_loc
I0315 11:58:15.703408 15573 net.cpp:100] Creating Layer conv9_2_mbox_loc
I0315 11:58:15.703415 15573 net.cpp:434] conv9_2_mbox_loc <- conv9_2_conv9_2_scale_0_split_1
I0315 11:58:15.703423 15573 net.cpp:408] conv9_2_mbox_loc -> conv9_2_mbox_loc
I0315 11:58:15.704653 15573 net.cpp:150] Setting up conv9_2_mbox_loc
I0315 11:58:15.704664 15573 net.cpp:157] Top shape: 8 16 2 2 (512)
I0315 11:58:15.704669 15573 net.cpp:165] Memory required for data: 8008998980
I0315 11:58:15.704679 15573 layer_factory.hpp:77] Creating layer conv9_2_mbox_loc_perm
I0315 11:58:15.704689 15573 net.cpp:100] Creating Layer conv9_2_mbox_loc_perm
I0315 11:58:15.704697 15573 net.cpp:434] conv9_2_mbox_loc_perm <- conv9_2_mbox_loc
I0315 11:58:15.704708 15573 net.cpp:408] conv9_2_mbox_loc_perm -> conv9_2_mbox_loc_perm
I0315 11:58:15.704815 15573 net.cpp:150] Setting up conv9_2_mbox_loc_perm
I0315 11:58:15.704823 15573 net.cpp:157] Top shape: 8 2 2 16 (512)
I0315 11:58:15.704826 15573 net.cpp:165] Memory required for data: 8009001028
I0315 11:58:15.704831 15573 layer_factory.hpp:77] Creating layer conv9_2_mbox_loc_flat
I0315 11:58:15.704839 15573 net.cpp:100] Creating Layer conv9_2_mbox_loc_flat
I0315 11:58:15.704847 15573 net.cpp:434] conv9_2_mbox_loc_flat <- conv9_2_mbox_loc_perm
I0315 11:58:15.704856 15573 net.cpp:408] conv9_2_mbox_loc_flat -> conv9_2_mbox_loc_flat
I0315 11:58:15.704892 15573 net.cpp:150] Setting up conv9_2_mbox_loc_flat
I0315 11:58:15.704900 15573 net.cpp:157] Top shape: 8 64 (512)
I0315 11:58:15.704903 15573 net.cpp:165] Memory required for data: 8009003076
I0315 11:58:15.704908 15573 layer_factory.hpp:77] Creating layer conv9_2_mbox_conf
I0315 11:58:15.704921 15573 net.cpp:100] Creating Layer conv9_2_mbox_conf
I0315 11:58:15.704928 15573 net.cpp:434] conv9_2_mbox_conf <- conv9_2_conv9_2_scale_0_split_2
I0315 11:58:15.704944 15573 net.cpp:408] conv9_2_mbox_conf -> conv9_2_mbox_conf
I0315 11:58:15.707170 15573 net.cpp:150] Setting up conv9_2_mbox_conf
I0315 11:58:15.707183 15573 net.cpp:157] Top shape: 8 84 2 2 (2688)
I0315 11:58:15.707187 15573 net.cpp:165] Memory required for data: 8009013828
I0315 11:58:15.707195 15573 layer_factory.hpp:77] Creating layer conv9_2_mbox_conf_perm
I0315 11:58:15.707206 15573 net.cpp:100] Creating Layer conv9_2_mbox_conf_perm
I0315 11:58:15.707214 15573 net.cpp:434] conv9_2_mbox_conf_perm <- conv9_2_mbox_conf
I0315 11:58:15.707224 15573 net.cpp:408] conv9_2_mbox_conf_perm -> conv9_2_mbox_conf_perm
I0315 11:58:15.707339 15573 net.cpp:150] Setting up conv9_2_mbox_conf_perm
I0315 11:58:15.707345 15573 net.cpp:157] Top shape: 8 2 2 84 (2688)
I0315 11:58:15.707350 15573 net.cpp:165] Memory required for data: 8009024580
I0315 11:58:15.707355 15573 layer_factory.hpp:77] Creating layer conv9_2_mbox_conf_flat
I0315 11:58:15.707362 15573 net.cpp:100] Creating Layer conv9_2_mbox_conf_flat
I0315 11:58:15.707370 15573 net.cpp:434] conv9_2_mbox_conf_flat <- conv9_2_mbox_conf_perm
I0315 11:58:15.707379 15573 net.cpp:408] conv9_2_mbox_conf_flat -> conv9_2_mbox_conf_flat
I0315 11:58:15.707412 15573 net.cpp:150] Setting up conv9_2_mbox_conf_flat
I0315 11:58:15.707418 15573 net.cpp:157] Top shape: 8 336 (2688)
I0315 11:58:15.707422 15573 net.cpp:165] Memory required for data: 8009035332
I0315 11:58:15.707427 15573 layer_factory.hpp:77] Creating layer conv9_2_mbox_priorbox
I0315 11:58:15.707437 15573 net.cpp:100] Creating Layer conv9_2_mbox_priorbox
I0315 11:58:15.707446 15573 net.cpp:434] conv9_2_mbox_priorbox <- conv9_2_conv9_2_scale_0_split_3
I0315 11:58:15.707455 15573 net.cpp:434] conv9_2_mbox_priorbox <- data_data_0_split_6
I0315 11:58:15.707479 15573 net.cpp:408] conv9_2_mbox_priorbox -> conv9_2_mbox_priorbox
I0315 11:58:15.707512 15573 net.cpp:150] Setting up conv9_2_mbox_priorbox
I0315 11:58:15.707520 15573 net.cpp:157] Top shape: 1 2 64 (128)
I0315 11:58:15.707522 15573 net.cpp:165] Memory required for data: 8009035844
I0315 11:58:15.707528 15573 layer_factory.hpp:77] Creating layer conv10_2_mbox_loc
I0315 11:58:15.707542 15573 net.cpp:100] Creating Layer conv10_2_mbox_loc
I0315 11:58:15.707548 15573 net.cpp:434] conv10_2_mbox_loc <- conv10_2_conv10_2_scale_0_split_0
I0315 11:58:15.707557 15573 net.cpp:408] conv10_2_mbox_loc -> conv10_2_mbox_loc
I0315 11:58:15.708792 15573 net.cpp:150] Setting up conv10_2_mbox_loc
I0315 11:58:15.708804 15573 net.cpp:157] Top shape: 8 16 1 1 (128)
I0315 11:58:15.708808 15573 net.cpp:165] Memory required for data: 8009036356
I0315 11:58:15.708817 15573 layer_factory.hpp:77] Creating layer conv10_2_mbox_loc_perm
I0315 11:58:15.708827 15573 net.cpp:100] Creating Layer conv10_2_mbox_loc_perm
I0315 11:58:15.708832 15573 net.cpp:434] conv10_2_mbox_loc_perm <- conv10_2_mbox_loc
I0315 11:58:15.708843 15573 net.cpp:408] conv10_2_mbox_loc_perm -> conv10_2_mbox_loc_perm
I0315 11:58:15.708950 15573 net.cpp:150] Setting up conv10_2_mbox_loc_perm
I0315 11:58:15.708958 15573 net.cpp:157] Top shape: 8 1 1 16 (128)
I0315 11:58:15.708961 15573 net.cpp:165] Memory required for data: 8009036868
I0315 11:58:15.708966 15573 layer_factory.hpp:77] Creating layer conv10_2_mbox_loc_flat
I0315 11:58:15.708974 15573 net.cpp:100] Creating Layer conv10_2_mbox_loc_flat
I0315 11:58:15.708983 15573 net.cpp:434] conv10_2_mbox_loc_flat <- conv10_2_mbox_loc_perm
I0315 11:58:15.708992 15573 net.cpp:408] conv10_2_mbox_loc_flat -> conv10_2_mbox_loc_flat
I0315 11:58:15.709026 15573 net.cpp:150] Setting up conv10_2_mbox_loc_flat
I0315 11:58:15.709034 15573 net.cpp:157] Top shape: 8 16 (128)
I0315 11:58:15.709038 15573 net.cpp:165] Memory required for data: 8009037380
I0315 11:58:15.709043 15573 layer_factory.hpp:77] Creating layer conv10_2_mbox_conf
I0315 11:58:15.709055 15573 net.cpp:100] Creating Layer conv10_2_mbox_conf
I0315 11:58:15.709061 15573 net.cpp:434] conv10_2_mbox_conf <- conv10_2_conv10_2_scale_0_split_1
I0315 11:58:15.709071 15573 net.cpp:408] conv10_2_mbox_conf -> conv10_2_mbox_conf
I0315 11:58:15.711256 15573 net.cpp:150] Setting up conv10_2_mbox_conf
I0315 11:58:15.711267 15573 net.cpp:157] Top shape: 8 84 1 1 (672)
I0315 11:58:15.711272 15573 net.cpp:165] Memory required for data: 8009040068
I0315 11:58:15.711282 15573 layer_factory.hpp:77] Creating layer conv10_2_mbox_conf_perm
I0315 11:58:15.711292 15573 net.cpp:100] Creating Layer conv10_2_mbox_conf_perm
I0315 11:58:15.711300 15573 net.cpp:434] conv10_2_mbox_conf_perm <- conv10_2_mbox_conf
I0315 11:58:15.711311 15573 net.cpp:408] conv10_2_mbox_conf_perm -> conv10_2_mbox_conf_perm
I0315 11:58:15.711427 15573 net.cpp:150] Setting up conv10_2_mbox_conf_perm
I0315 11:58:15.711437 15573 net.cpp:157] Top shape: 8 1 1 84 (672)
I0315 11:58:15.711441 15573 net.cpp:165] Memory required for data: 8009042756
I0315 11:58:15.711446 15573 layer_factory.hpp:77] Creating layer conv10_2_mbox_conf_flat
I0315 11:58:15.711452 15573 net.cpp:100] Creating Layer conv10_2_mbox_conf_flat
I0315 11:58:15.711457 15573 net.cpp:434] conv10_2_mbox_conf_flat <- conv10_2_mbox_conf_perm
I0315 11:58:15.711470 15573 net.cpp:408] conv10_2_mbox_conf_flat -> conv10_2_mbox_conf_flat
I0315 11:58:15.711503 15573 net.cpp:150] Setting up conv10_2_mbox_conf_flat
I0315 11:58:15.711511 15573 net.cpp:157] Top shape: 8 84 (672)
I0315 11:58:15.711515 15573 net.cpp:165] Memory required for data: 8009045444
I0315 11:58:15.711519 15573 layer_factory.hpp:77] Creating layer conv10_2_mbox_priorbox
I0315 11:58:15.711527 15573 net.cpp:100] Creating Layer conv10_2_mbox_priorbox
I0315 11:58:15.711534 15573 net.cpp:434] conv10_2_mbox_priorbox <- conv10_2_conv10_2_scale_0_split_2
I0315 11:58:15.711541 15573 net.cpp:434] conv10_2_mbox_priorbox <- data_data_0_split_7
I0315 11:58:15.711562 15573 net.cpp:408] conv10_2_mbox_priorbox -> conv10_2_mbox_priorbox
I0315 11:58:15.711597 15573 net.cpp:150] Setting up conv10_2_mbox_priorbox
I0315 11:58:15.711606 15573 net.cpp:157] Top shape: 1 2 16 (32)
I0315 11:58:15.711611 15573 net.cpp:165] Memory required for data: 8009045572
I0315 11:58:15.711614 15573 layer_factory.hpp:77] Creating layer mbox_loc
I0315 11:58:15.711623 15573 net.cpp:100] Creating Layer mbox_loc
I0315 11:58:15.711632 15573 net.cpp:434] mbox_loc <- conv4_3_norm_mbox_loc_flat
I0315 11:58:15.711640 15573 net.cpp:434] mbox_loc <- fc7_mbox_loc_flat
I0315 11:58:15.711647 15573 net.cpp:434] mbox_loc <- conv6_2_mbox_loc_flat
I0315 11:58:15.711659 15573 net.cpp:434] mbox_loc <- conv7_2_mbox_loc_flat
I0315 11:58:15.711666 15573 net.cpp:434] mbox_loc <- conv8_2_mbox_loc_flat
I0315 11:58:15.711678 15573 net.cpp:434] mbox_loc <- conv9_2_mbox_loc_flat
I0315 11:58:15.711689 15573 net.cpp:434] mbox_loc <- conv10_2_mbox_loc_flat
I0315 11:58:15.711701 15573 net.cpp:408] mbox_loc -> mbox_loc
I0315 11:58:15.711736 15573 net.cpp:150] Setting up mbox_loc
I0315 11:58:15.711743 15573 net.cpp:157] Top shape: 8 98256 (786048)
I0315 11:58:15.711750 15573 net.cpp:165] Memory required for data: 8012189764
I0315 11:58:15.711755 15573 layer_factory.hpp:77] Creating layer mbox_conf
I0315 11:58:15.711766 15573 net.cpp:100] Creating Layer mbox_conf
I0315 11:58:15.711776 15573 net.cpp:434] mbox_conf <- conv4_3_norm_mbox_conf_flat
I0315 11:58:15.711791 15573 net.cpp:434] mbox_conf <- fc7_mbox_conf_flat
I0315 11:58:15.711797 15573 net.cpp:434] mbox_conf <- conv6_2_mbox_conf_flat
I0315 11:58:15.711809 15573 net.cpp:434] mbox_conf <- conv7_2_mbox_conf_flat
I0315 11:58:15.711814 15573 net.cpp:434] mbox_conf <- conv8_2_mbox_conf_flat
I0315 11:58:15.711819 15573 net.cpp:434] mbox_conf <- conv9_2_mbox_conf_flat
I0315 11:58:15.711827 15573 net.cpp:434] mbox_conf <- conv10_2_mbox_conf_flat
I0315 11:58:15.711834 15573 net.cpp:408] mbox_conf -> mbox_conf
I0315 11:58:15.711871 15573 net.cpp:150] Setting up mbox_conf
I0315 11:58:15.711882 15573 net.cpp:157] Top shape: 8 515844 (4126752)
I0315 11:58:15.711891 15573 net.cpp:165] Memory required for data: 8028696772
I0315 11:58:15.711896 15573 layer_factory.hpp:77] Creating layer mbox_priorbox
I0315 11:58:15.711906 15573 net.cpp:100] Creating Layer mbox_priorbox
I0315 11:58:15.711911 15573 net.cpp:434] mbox_priorbox <- conv4_3_norm_mbox_priorbox
I0315 11:58:15.711921 15573 net.cpp:434] mbox_priorbox <- fc7_mbox_priorbox
I0315 11:58:15.711928 15573 net.cpp:434] mbox_priorbox <- conv6_2_mbox_priorbox
I0315 11:58:15.711937 15573 net.cpp:434] mbox_priorbox <- conv7_2_mbox_priorbox
I0315 11:58:15.711943 15573 net.cpp:434] mbox_priorbox <- conv8_2_mbox_priorbox
I0315 11:58:15.711948 15573 net.cpp:434] mbox_priorbox <- conv9_2_mbox_priorbox
I0315 11:58:15.711961 15573 net.cpp:434] mbox_priorbox <- conv10_2_mbox_priorbox
I0315 11:58:15.711972 15573 net.cpp:408] mbox_priorbox -> mbox_priorbox
I0315 11:58:15.712010 15573 net.cpp:150] Setting up mbox_priorbox
I0315 11:58:15.712018 15573 net.cpp:157] Top shape: 1 2 98256 (196512)
I0315 11:58:15.712023 15573 net.cpp:165] Memory required for data: 8029482820
I0315 11:58:15.712028 15573 layer_factory.hpp:77] Creating layer mbox_loss
I0315 11:58:15.712043 15573 net.cpp:100] Creating Layer mbox_loss
I0315 11:58:15.712054 15573 net.cpp:434] mbox_loss <- mbox_loc
I0315 11:58:15.712064 15573 net.cpp:434] mbox_loss <- mbox_conf
I0315 11:58:15.712074 15573 net.cpp:434] mbox_loss <- mbox_priorbox
…
state {
  phase: TEST
}
layer {
  name: "data"
  type: "AnnotatedData"
  top: "data"
  top: "label"
  include {
    phase: TEST
  }
  transform_param {
    mean_value: 104
    mean_value: 117
    mean_value: 123
    resize_param {
      prob: 1
      resize_mode: WARP
      height: 512
      width: 512
      interp_mode: LINEAR
    }
  }
  data_param {
    source: "examples/VOC0712/VOC0712_test_lmdb"
    batch_size: 8
    backend: LMDB
  }
  annotated_data_param {
    batch_sampler {
    }
    label_map_file: "data/VOC0712/labelmap_voc.prototxt"
  }
}
layer {
  name: "conv1_1"
  type: "Convolution"
  bottom: "data"
  top: "conv1_1"
  param {
    lr_mult: 1
    decay_mult: 1
  }
  param {
    lr_mult: 2
    decay_mult: 0
  }
  convolution_param {
    num_output: 64
    pad: 1
    kernel_size: 3
    weight_filler {
      type: "xavier"
    }
    bias_filler {
      type: "constant"
      value: 0
    }
  }
}
layer {
  name: "relu1_1"
  type: "ReLU"
  bottom: "conv1_1"
  top: "conv1_1"
}
layer {
  name: "conv1_2"
  type: "Convolution"
  bottom: "conv1_1"
  top: "conv1_2"
  param {
    lr_mult: 1
    decay_mult: 1
  }
  param {
    lr_mult: 2
    decay_mult: 0
  }
  convolution_param {
    num_output: 64
    pad: 1
    kernel_size: 3
    weight_filler {
      type: "xavier"
    }
    bias_filler {
      type: "constant"
      value: 0
    }
  }
}
layer {
  name: "relu1_2"
  type: "ReLU"
  bottom: "conv1_2"
  top: "conv1_2"
}
layer {
  name: "pool1"
  type: "Pooling"
  bottom: "conv1_2"
  top: "pool1"
  pooling_param {
    pool: MAX
    kernel_size: 2
    stride: 2
  }
}
layer {
  name: "conv2_1"
  type: "Convolution"
  bottom: "pool1"
  top: "conv2_1"
  param {
    lr_mult: 1
    decay_mult: 1
  }
  param {
    lr_mult: 2
    decay_mult: 0
  }
  convolution_param {
    num_output: 128
    pad: 1
    kernel_size: 3
    weight_filler {
      type: "xavier"
    }
    bias_filler {
      type: "constant"
      value: 0
    }
  }
}
layer {
  name: "relu2_1"
  type: "ReLU"
  bottom: "conv2_1"
  top: "conv2_1"
}
layer {
  name: "conv2_2"
  type: "Convolution"
  bottom: "conv2_1"
  top: "conv2_2"
  param {
    lr_mult: 1
    decay_mult: 1
  }
  param {
    lr_mult: 2
    decay_mult: 0
  }
  convolution_param {
    num_output: 128
    pad: 1
    kernel_size: 3
    weight_filler {
      type: "xavier"
    }
    bias_filler {
      type: "constant"
      value: 0
    }
  }
}
layer {
  name: "relu2_2"
  type: "ReLU"
  bottom: "conv2_2"
  top: "conv2_2"
}
layer {
  name: "pool2"
  type: "Pooling"
  bottom: "conv2_2"
  top: "pool2"
  pooling_param {
    pool: MAX
    kernel_size: 2
    stride: 2
  }
}
layer {
  name: "conv3_1"
  type: "Convolution"
  bottom: "pool2"
  top: "conv3_1"
  param {
    lr_mult: 1
    decay_mult: 1
  }
  param {
    lr_mult: 2
    decay_mult: 0
  }
  convolution_param {
    num_output: 256
    pad: 1
    kernel_size: 3
    weight_filler {
      type: "xavier"
    }
    bias_filler {
      type: "constant"
      value: 0
    }
  }
}
layer {
  name: "relu3_1"
  type: "ReLU"
  bottom: "conv3_1"
  top: "conv3_1"
}
layer {
  name: "conv3_2"
  type: "Convolution"
  bottom: "conv3_1"
  top: "conv3_2"
  param {
    lr_mult: 1
    decay_mult: 1
  }
  param {
    lr_mult: 2
    decay_mult: 0
  }
  convolution_param {
    num_output: 256
    pad: 1
    kernel_size: 3
    weight_filler {
      type: "xavier"
    }
    bias_filler {
      type: "constant"
      value: 0
    }
  }
}
layer {
  name: "relu3_2"
  type: "ReLU"
  bottom: "conv3_2"
  top: "conv3_2"
}
layer {
  name: "conv3_3"
  type: "Convolution"
  bottom: "conv3_2"
  top: "conv3_3"
  param {
    lr_mult: 1
    decay_mult: 1
  }
  param {
    lr_mult: 2
    decay_mult: 0
  }
  convolution_param {
    num_output: 256
    pad: 1
    kernel_size: 3
    weight_filler {
      type: "xavier"
    }
    bias_filler {
      type: "constant"
      value: 0
    }
  }
}
layer {
  name: "relu3_3"
  type: "ReLU"
  bottom: "conv3_3"
  top: "conv3_3"
}
layer {
  name: "pool3"
  type: "Pooling"
  bottom: "conv3_3"
  top: "pool3"
  pooling_param {
    pool: MAX
    kernel_size: 2
    stride: 2
  }
}
layer {
  name: "conv4_1"
  type: "Convolution"
  bottom: "pool3"
  top: "conv4_1"
  param {
    lr_mult: 1
    decay_mult: 1
  }
  param {
    lr_mult: 2
    decay_mult: 0
  }
  convolution_param {
    num_output: 512
    pad: 1
    kernel_size: 3
    weight_filler {
      type: "xavier"
    }
    bias_filler {
      type: "constant"
      value: 0
    }
  }
}
layer {
  name: "relu4_1"
  type: "ReLU"
  bottom: "conv4_1"
  top: "conv4_1"
}
layer {
  name: "conv4_2"
  type: "Convolution"
  bottom: "conv4_1"
  top: "conv4_2"
  param {
    lr_mult: 1
    decay_mult: 1
  }
  param {
    lr_mult: 2
    decay_mult: 0
  }
  convolution_param {
    num_output: 512
    pad: 1
    kernel_size: 3
    weight_filler {
      type: "xavier"
    }
    bias_filler {
      type: "constant"
      value: 0
    }
  }
}
layer {
  name: "relu4_2"
  type: "ReLU"
  bottom: "conv4_2"
  top: "conv4_2"
}
layer {
  name: "conv4_3"
  type: "Convolution"
  bottom: "conv4_2"
  top: "conv4_3_ori"
  param {
    lr_mult: 1
    decay_mult: 1
  }
  param {
    lr_mult: 2
    decay_mult: 0
  }
  convolution_param {
    num_output: 512
    pad: 1
    kernel_size: 3
    weight_filler {
      type: "xavier"
    }
    bias_filler {
      type: "constant"
      value: 0
    }
  }
}
layer {
  name: "relu4_3"
  type: "ReLU"
  bottom: "conv4_3_ori"
  top: "conv4_3_ori"
}
layer {
  name: "seg_pool4"
  type: "Pooling"
  bottom: "conv4_3_ori"
  top: "seg_pool4"
  pooling_param {
    pool: MAX
    kernel_size: 3
    stride: 1
    pad: 1
  }
}
layer {
  name: "seg5_1"
  type: "Convolution"
  bottom: "seg_pool4"
  top: "seg5_1"
  param {
    lr_mult: 1
    decay_mult: 1
  }
  param {
    lr_mult: 2
    decay_mult: 0
  }
  convolution_param {
    num_output: 512
    pad: 2
    kernel_size: 3
    weight_filler {
      type: "xavier"
    }
    bias_filler {
      type: "constant"
      value: 0
    }
    dilation: 2
  }
}
layer {
  name: "seg_relu5_1"
  type: "ReLU"
  bottom: "seg5_1"
  top: "seg5_1"
}
layer {
  name: "seg5_2"
  type: "Convolution"
  bottom: "seg5_1"
  top: "seg5_2"
  param {
    lr_mult: 1
    decay_mult: 1
  }
  param {
    lr_mult: 2
    decay_mult: 0
  }
  convolution_param {
    num_output: 512
    pad: 2
    kernel_size: 3
    weight_filler {
      type: "xavier"
    }
    bias_filler {
      type: "constant"
      value: 0
    }
    dilation: 2
  }
}
layer {
  name: "seg_relu5_2"
  type: "ReLU"
  bottom: "seg5_2"
  top: "seg5_2"
}
layer {
  name: "seg5_3"
  type: "Convolution"
  bottom: "seg5_2"
  top: "seg5_3"
  param {
    lr_mult: 1
    decay_mult: 1
  }
  param {
    lr_mult: 2
    decay_mult: 0
  }
  convolution_param {
    num_output: 512
    pad: 2
    kernel_size: 3
    weight_filler {
      type: "xavier"
    }
    bias_filler {
      type: "constant"
      value: 0
    }
    dilation: 2
  }
}
layer {
  name: "seg_relu5_3"
  type: "ReLU"
  bottom: "seg5_3"
  top: "seg5_3"
}
layer {
  name: "seg_pool5"
  type: "Pooling"
  bottom: "seg5_3"
  top: "seg_pool5"
  pooling_param {
    pool: MAX
    kernel_size: 3
    stride: 1
    pad: 1
  }
}
layer {
  name: "seg6"
  type: "Convolution"
  bottom: "seg_pool5"
  top: "seg6"
  param {
    lr_mult: 1
    decay_mult: 1
  }
  param {
    lr_mult: 2
    decay_mult: 0
  }
  convolution_param {
    num_output: 1024
    pad: 4
    kernel_size: 3
    weight_filler {
      type: "xavier"
    }
    bias_filler {
      type: "constant"
      value: 0
    }
    dilation: 4
  }
}
layer {
  name: "seg_relu6"
  type: "ReLU"
  bottom: "seg6"
  top: "seg6"
}
layer {
  name: "seg_drop6"
  type: "Dropout"
  bottom: "seg6"
  top: "seg6"
  dropout_param {
    dropout_ratio: 0.5
  }
}
layer {
  name: "seg7"
  type: "Convolution"
  bottom: "seg6"
  top: "seg7"
  param {
    lr_mult: 1
    decay_mult: 1
  }
  param {
    lr_mult: 2
    decay_mult: 0
  }
  convolution_param {
    num_output: 1024
    kernel_size: 1
    weight_filler {
      type: "xavier"
    }
    bias_filler {
      type: "constant"
      value: 0
    }
  }
}
layer {
  name: "seg_relu7"
  type: "ReLU"
  bottom: "seg7"
  top: "seg7"
}
layer {
  name: "seg_to_det_conv"
  type: "Convolution"
  bottom: "seg7"
  top: "seg_to_det_conv"
  param {
    lr_mult: 1
    decay_mult: 1
  }
  param {
    lr_mult: 2
    decay_mult: 0
  }
  convolution_param {
    num_output: 512
    pad: 0
    kernel_size: 1
    stride: 1
    weight_filler {
      type: "xavier"
    }
    bias_filler {
      type: "constant"
      value: 0
    }
  }
}
layer {
  name: "mult_conv4_3"
  type: "Eltwise"
  bottom: "conv4_3_ori"
  bottom: "seg_to_det_conv"
  top: "conv4_3_t"
  eltwise_param {
    operation: PROD
  }
}
layer {
  name: "conv4_3_s"
  type: "Pooling"
  bottom: "conv4_3_t"
  top: "conv4_3_s"
  pooling_param {
    pool: AVE
    global_pooling: true
  }
}
layer {
  name: "conv4_3_fc1"
  type: "Convolution"
  bottom: "conv4_3_s"
  top: "conv4_3_fc1"
  param {
    lr_mult: 1
    decay_mult: 1
  }
  param {
    lr_mult: 2
    decay_mult: 0
  }
  convolution_param {
    num_output: 128
    kernel_size: 1
    stride: 1
    weight_filler {
      type: "xavier"
    }
    bias_filler {
      type: "constant"
      value: 0
    }
  }
}
layer {
  name: "conv4_3_relu"
  type: "ReLU"
  bottom: "conv4_3_fc1"
  top: "conv4_3_fc1"
}
layer {
  name: "conv4_3_fc2"
  type: "Convolution"
  bottom: "conv4_3_fc1"
  top: "conv4_3_fc2"
  param {
    lr_mult: 1
    decay_mult: 1
  }
  param {
    lr_mult: 2
    decay_mult: 0
  }
  convolution_param {
    num_output: 512
    kernel_size: 1
    stride: 1
    weight_filler {
      type: "xavier"
    }
    bias_filler {
      type: "constant"
      value: 0
    }
  }
}
layer {
  name: "conv4_3_sig"
  type: "Sigmoid"
  bottom: "conv4_3_fc2"
  top: "conv4_3_fc2"
}
layer {
  name: "conv4_3_reshape"
  type: "Reshape"
  bottom: "conv4_3_fc2"
  top: "conv4_3_reshape"
  reshape_param {
    shape {
      dim: 0
      dim: 0
    }
  }
}
layer {
  name: "conv4_3_scale"
  type: "Scale"
  bottom: "conv4_3_t"
  bottom: "conv4_3_reshape"
  top: "conv4_3"
  scale_param {
    axis: 0
    bias_term: false
  }
}
layer {
  name: "pool4"
  type: "Pooling"
  bottom: "conv4_3"
  top: "pool4"
  pooling_param {
    pool: MAX
    kernel_size: 2
    stride: 2
  }
}
layer {
  name: "conv5_1"
  type: "Convolution"
  bottom: "pool4"
  top: "conv5_1"
  param {
    lr_mult: 1
    decay_mult: 1
  }
…
I0315 11:58:16.009930 15573 layer_factory.hpp:77] Creating layer conv9_1_relu
I0315 11:58:16.009940 15573 net.cpp:100] Creating Layer conv9_1_relu
I0315 11:58:16.009945 15573 net.cpp:434] conv9_1_relu <- conv9_1
I0315 11:58:16.009953 15573 net.cpp:395] conv9_1_relu -> conv9_1 (in-place)
I0315 11:58:16.010131 15573 net.cpp:150] Setting up conv9_1_relu
I0315 11:58:16.010140 15573 net.cpp:157] Top shape: 8 128 4 4 (16384)
I0315 11:58:16.010144 15573 net.cpp:165] Memory required for data: 7269359680
I0315 11:58:16.010149 15573 layer_factory.hpp:77] Creating layer conv9_2
I0315 11:58:16.010164 15573 net.cpp:100] Creating Layer conv9_2
I0315 11:58:16.010172 15573 net.cpp:434] conv9_2 <- conv9_1
I0315 11:58:16.010180 15573 net.cpp:408] conv9_2 -> conv9_2_t
I0315 11:58:16.013381 15573 net.cpp:150] Setting up conv9_2
I0315 11:58:16.013396 15573 net.cpp:157] Top shape: 8 256 2 2 (8192)
I0315 11:58:16.013399 15573 net.cpp:165] Memory required for data: 7269392448
I0315 11:58:16.013408 15573 layer_factory.hpp:77] Creating layer conv9_2_relu
I0315 11:58:16.013417 15573 net.cpp:100] Creating Layer conv9_2_relu
I0315 11:58:16.013424 15573 net.cpp:434] conv9_2_relu <- conv9_2_t
I0315 11:58:16.013432 15573 net.cpp:395] conv9_2_relu -> conv9_2_t (in-place)
I0315 11:58:16.013990 15573 net.cpp:150] Setting up conv9_2_relu
I0315 11:58:16.014001 15573 net.cpp:157] Top shape: 8 256 2 2 (8192)
I0315 11:58:16.014006 15573 net.cpp:165] Memory required for data: 7269425216
I0315 11:58:16.014011 15573 layer_factory.hpp:77] Creating layer conv9_2_t_conv9_2_relu_0_split
I0315 11:58:16.014020 15573 net.cpp:100] Creating Layer conv9_2_t_conv9_2_relu_0_split
I0315 11:58:16.014029 15573 net.cpp:434] conv9_2_t_conv9_2_relu_0_split <- conv9_2_t
I0315 11:58:16.014039 15573 net.cpp:408] conv9_2_t_conv9_2_relu_0_split -> conv9_2_t_conv9_2_relu_0_split_0
I0315 11:58:16.014048 15573 net.cpp:408] conv9_2_t_conv9_2_relu_0_split -> conv9_2_t_conv9_2_relu_0_split_1
I0315 11:58:16.014108 15573 net.cpp:150] Setting up conv9_2_t_conv9_2_relu_0_split
I0315 11:58:16.014118 15573 net.cpp:157] Top shape: 8 256 2 2 (8192)
I0315 11:58:16.014127 15573 net.cpp:157] Top shape: 8 256 2 2 (8192)
I0315 11:58:16.014132 15573 net.cpp:165] Memory required for data: 7269490752
I0315 11:58:16.014137 15573 layer_factory.hpp:77] Creating layer conv9_2_s
I0315 11:58:16.014147 15573 net.cpp:100] Creating Layer conv9_2_s
I0315 11:58:16.014154 15573 net.cpp:434] conv9_2_s <- conv9_2_t_conv9_2_relu_0_split_0
I0315 11:58:16.014163 15573 net.cpp:408] conv9_2_s -> conv9_2_s
I0315 11:58:16.014370 15573 net.cpp:150] Setting up conv9_2_s
I0315 11:58:16.014381 15573 net.cpp:157] Top shape: 8 256 1 1 (2048)
I0315 11:58:16.014386 15573 net.cpp:165] Memory required for data: 7269498944
I0315 11:58:16.014390 15573 layer_factory.hpp:77] Creating layer conv9_2_fc1
I0315 11:58:16.014403 15573 net.cpp:100] Creating Layer conv9_2_fc1
I0315 11:58:16.014408 15573 net.cpp:434] conv9_2_fc1 <- conv9_2_s
I0315 11:58:16.014420 15573 net.cpp:408] conv9_2_fc1 -> conv9_2_fc1
I0315 11:58:16.015727 15573 net.cpp:150] Setting up conv9_2_fc1
I0315 11:58:16.015738 15573 net.cpp:157] Top shape: 8 64 1 1 (512)
I0315 11:58:16.015741 15573 net.cpp:165] Memory required for data: 7269500992
I0315 11:58:16.015764 15573 layer_factory.hpp:77] Creating layer conv9_2_relu
I0315 11:58:16.015777 15573 net.cpp:100] Creating Layer conv9_2_relu
I0315 11:58:16.015782 15573 net.cpp:434] conv9_2_relu <- conv9_2_fc1
I0315 11:58:16.015790 15573 net.cpp:395] conv9_2_relu -> conv9_2_fc1 (in-place)
I0315 11:58:16.015969 15573 net.cpp:150] Setting up conv9_2_relu
I0315 11:58:16.015976 15573 net.cpp:157] Top shape: 8 64 1 1 (512)
I0315 11:58:16.015980 15573 net.cpp:165] Memory required for data: 7269503040
I0315 11:58:16.015985 15573 layer_factory.hpp:77] Creating layer conv9_2_fc2
I0315 11:58:16.016005 15573 net.cpp:100] Creating Layer conv9_2_fc2
I0315 11:58:16.016010 15573 net.cpp:434] conv9_2_fc2 <- conv9_2_fc1
I0315 11:58:16.016021 15573 net.cpp:408] conv9_2_fc2 -> conv9_2_fc2
I0315 11:58:16.017314 15573 net.cpp:150] Setting up conv9_2_fc2
I0315 11:58:16.017328 15573 net.cpp:157] Top shape: 8 256 1 1 (2048)
I0315 11:58:16.017331 15573 net.cpp:165] Memory required for data: 7269511232
I0315 11:58:16.017340 15573 layer_factory.hpp:77] Creating layer conv9_2_sig
I0315 11:58:16.017351 15573 net.cpp:100] Creating Layer conv9_2_sig
I0315 11:58:16.017357 15573 net.cpp:434] conv9_2_sig <- conv9_2_fc2
I0315 11:58:16.017371 15573 net.cpp:395] conv9_2_sig -> conv9_2_fc2 (in-place)
I0315 11:58:16.017925 15573 net.cpp:150] Setting up conv9_2_sig
I0315 11:58:16.017936 15573 net.cpp:157] Top shape: 8 256 1 1 (2048)
I0315 11:58:16.017941 15573 net.cpp:165] Memory required for data: 7269519424
I0315 11:58:16.017946 15573 layer_factory.hpp:77] Creating layer conv9_2_reshape
I0315 11:58:16.017956 15573 net.cpp:100] Creating Layer conv9_2_reshape
I0315 11:58:16.017961 15573 net.cpp:434] conv9_2_reshape <- conv9_2_fc2
I0315 11:58:16.017971 15573 net.cpp:408] conv9_2_reshape -> conv9_2_reshape
I0315 11:58:16.018018 15573 net.cpp:150] Setting up conv9_2_reshape
I0315 11:58:16.018025 15573 net.cpp:157] Top shape: 8 256 (2048)
I0315 11:58:16.018029 15573 net.cpp:165] Memory required for data: 7269527616
I0315 11:58:16.018035 15573 layer_factory.hpp:77] Creating layer conv9_2_scale
I0315 11:58:16.018045 15573 net.cpp:100] Creating Layer conv9_2_scale
I0315 11:58:16.018056 15573 net.cpp:434] conv9_2_scale <- conv9_2_t_conv9_2_relu_0_split_1
I0315 11:58:16.018071 15573 net.cpp:434] conv9_2_scale <- conv9_2_reshape
I0315 11:58:16.018084 15573 net.cpp:408] conv9_2_scale -> conv9_2
I0315 11:58:16.018177 15573 net.cpp:150] Setting up conv9_2_scale
I0315 11:58:16.018185 15573 net.cpp:157] Top shape: 8 256 2 2 (8192)
I0315 11:58:16.018189 15573 net.cpp:165] Memory required for data: 7269560384
I0315 11:58:16.018195 15573 layer_factory.hpp:77] Creating layer conv9_2_conv9_2_scale_0_split
I0315 11:58:16.018203 15573 net.cpp:100] Creating Layer conv9_2_conv9_2_scale_0_split
I0315 11:58:16.018210 15573 net.cpp:434] conv9_2_conv9_2_scale_0_split <- conv9_2
I0315 11:58:16.018219 15573 net.cpp:408] conv9_2_conv9_2_scale_0_split -> conv9_2_conv9_2_scale_0_split_0
I0315 11:58:16.018230 15573 net.cpp:408] conv9_2_conv9_2_scale_0_split -> conv9_2_conv9_2_scale_0_split_1
I0315 11:58:16.018245 15573 net.cpp:408] conv9_2_conv9_2_scale_0_split -> conv9_2_conv9_2_scale_0_split_2
I0315 11:58:16.018256 15573 net.cpp:408] conv9_2_conv9_2_scale_0_split -> conv9_2_conv9_2_scale_0_split_3
I0315 11:58:16.018366 15573 net.cpp:150] Setting up conv9_2_conv9_2_scale_0_split
I0315 11:58:16.018375 15573 net.cpp:157] Top shape: 8 256 2 2 (8192)
I0315 11:58:16.018380 15573 net.cpp:157] Top shape: 8 256 2 2 (8192)
I0315 11:58:16.018388 15573 net.cpp:157] Top shape: 8 256 2 2 (8192)
I0315 11:58:16.018398 15573 net.cpp:157] Top shape: 8 256 2 2 (8192)
I0315 11:58:16.018405 15573 net.cpp:165] Memory required for data: 7269691456
I0315 11:58:16.018419 15573 layer_factory.hpp:77] Creating layer conv10_1
I0315 11:58:16.018437 15573 net.cpp:100] Creating Layer conv10_1
I0315 11:58:16.018445 15573 net.cpp:434] conv10_1 <- conv9_2_conv9_2_scale_0_split_0
I0315 11:58:16.018455 15573 net.cpp:408] conv10_1 -> conv10_1
I0315 11:58:16.019794 15573 net.cpp:150] Setting up conv10_1
I0315 11:58:16.019816 15573 net.cpp:157] Top shape: 8 128 2 2 (4096)
I0315 11:58:16.019821 15573 net.cpp:165] Memory required for data: 7269707840
I0315 11:58:16.019832 15573 layer_factory.hpp:77] Creating layer conv10_1_relu
I0315 11:58:16.019841 15573 net.cpp:100] Creating Layer conv10_1_relu
I0315 11:58:16.019846 15573 net.cpp:434] conv10_1_relu <- conv10_1
I0315 11:58:16.019858 15573 net.cpp:395] conv10_1_relu -> conv10_1 (in-place)
I0315 11:58:16.020419 15573 net.cpp:150] Setting up conv10_1_relu
I0315 11:58:16.020431 15573 net.cpp:157] Top shape: 8 128 2 2 (4096)
I0315 11:58:16.020434 15573 net.cpp:165] Memory required for data: 7269724224
I0315 11:58:16.020439 15573 layer_factory.hpp:77] Creating layer conv10_2
I0315 11:58:16.020454 15573 net.cpp:100] Creating Layer conv10_2
I0315 11:58:16.020459 15573 net.cpp:434] conv10_2 <- conv10_1
I0315 11:58:16.020470 15573 net.cpp:408] conv10_2 -> conv10_2_t
I0315 11:58:16.024608 15573 net.cpp:150] Setting up conv10_2
I0315 11:58:16.024621 15573 net.cpp:157] Top shape: 8 256 1 1 (2048)
I0315 11:58:16.024626 15573 net.cpp:165] Memory required for data: 7269732416
I0315 11:58:16.024633 15573 layer_factory.hpp:77] Creating layer conv10_2_relu
I0315 11:58:16.024646 15573 net.cpp:100] Creating Layer conv10_2_relu
I0315 11:58:16.024653 15573 net.cpp:434] conv10_2_relu <- conv10_2_t
I0315 11:58:16.024660 15573 net.cpp:395] conv10_2_relu -> conv10_2_t (in-place)
I0315 11:58:16.024843 15573 net.cpp:150] Setting up conv10_2_relu
I0315 11:58:16.024852 15573 net.cpp:157] Top shape: 8 256 1 1 (2048)
I0315 11:58:16.024857 15573 net.cpp:165] Memory required for data: 7269740608
I0315 11:58:16.024863 15573 layer_factory.hpp:77] Creating layer conv10_2_t_conv10_2_relu_0_split
I0315 11:58:16.024869 15573 net.cpp:100] Creating Layer conv10_2_t_conv10_2_relu_0_split
I0315 11:58:16.024876 15573 net.cpp:434] conv10_2_t_conv10_2_relu_0_split <- conv10_2_t
I0315 11:58:16.024885 15573 net.cpp:408] conv10_2_t_conv10_2_relu_0_split -> conv10_2_t_conv10_2_relu_0_split_0
I0315 11:58:16.024896 15573 net.cpp:408] conv10_2_t_conv10_2_relu_0_split -> conv10_2_t_conv10_2_relu_0_split_1
I0315 11:58:16.024953 15573 net.cpp:150] Setting up conv10_2_t_conv10_2_relu_0_split
I0315 11:58:16.024963 15573 net.cpp:157] Top shape: 8 256 1 1 (2048)
I0315 11:58:16.024972 15573 net.cpp:157] Top shape: 8 256 1 1 (2048)
I0315 11:58:16.024977 15573 net.cpp:165] Memory required for data: 7269756992
I0315 11:58:16.024982 15573 layer_factory.hpp:77] Creating layer conv10_2_s
I0315 11:58:16.025004 15573 net.cpp:100] Creating Layer conv10_2_s
I0315 11:58:16.025009 15573 net.cpp:434] conv10_2_s <- conv10_2_t_conv10_2_relu_0_split_0
I0315 11:58:16.025015 15573 net.cpp:408] conv10_2_s -> conv10_2_s
I0315 11:58:16.025213 15573 net.cpp:150] Setting up conv10_2_s
I0315 11:58:16.025220 15573 net.cpp:157] Top shape: 8 256 1 1 (2048)
I0315 11:58:16.025225 15573 net.cpp:165] Memory required for data: 7269765184
I0315 11:58:16.025230 15573 layer_factory.hpp:77] Creating layer conv10_2_fc1
I0315 11:58:16.025243 15573 net.cpp:100] Creating Layer conv10_2_fc1
I0315 11:58:16.025250 15573 net.cpp:434] conv10_2_fc1 <- conv10_2_s
I0315 11:58:16.025265 15573 net.cpp:408] conv10_2_fc1 -> conv10_2_fc1
I0315 11:58:16.026598 15573 net.cpp:150] Setting up conv10_2_fc1
I0315 11:58:16.026610 15573 net.cpp:157] Top shape: 8 64 1 1 (512)
I0315 11:58:16.026614 15573 net.cpp:165] Memory required for data: 7269767232
I0315 11:58:16.026624 15573 layer_factory.hpp:77] Creating layer conv10_2_relu
I0315 11:58:16.026634 15573 net.cpp:100] Creating Layer conv10_2_relu
I0315 11:58:16.026640 15573 net.cpp:434] conv10_2_relu <- conv10_2_fc1
I0315 11:58:16.026649 15573 net.cpp:395] conv10_2_relu -> conv10_2_fc1 (in-place)
I0315 11:58:16.027217 15573 net.cpp:150] Setting up conv10_2_relu
I0315 11:58:16.027228 15573 net.cpp:157] Top shape: 8 64 1 1 (512)
I0315 11:58:16.027232 15573 net.cpp:165] Memory required for data: 7269769280
I0315 11:58:16.027237 15573 layer_factory.hpp:77] Creating layer conv10_2_fc2
I0315 11:58:16.027251 15573 net.cpp:100] Creating Layer conv10_2_fc2
I0315 11:58:16.027264 15573 net.cpp:434] conv10_2_fc2 <- conv10_2_fc1
I0315 11:58:16.027274 15573 net.cpp:408] conv10_2_fc2 -> conv10_2_fc2
I0315 11:58:16.028580 15573 net.cpp:150] Setting up conv10_2_fc2
I0315 11:58:16.028592 15573 net.cpp:157] Top shape: 8 256 1 1 (2048)
I0315 11:58:16.028597 15573 net.cpp:165] Memory required for data: 7269777472
I0315 11:58:16.028605 15573 layer_factory.hpp:77] Creating layer conv10_2_sig
I0315 11:58:16.028615 15573 net.cpp:100] Creating Layer conv10_2_sig
I0315 11:58:16.028621 15573 net.cpp:434] conv10_2_sig <- conv10_2_fc2
I0315 11:58:16.028633 15573 net.cpp:395] conv10_2_sig -> conv10_2_fc2 (in-place)
I0315 11:58:16.028810 15573 net.cpp:150] Setting up conv10_2_sig
I0315 11:58:16.028820 15573 net.cpp:157] Top shape: 8 256 1 1 (2048)
I0315 11:58:16.028823 15573 net.cpp:165] Memory required for data: 7269785664
I0315 11:58:16.028828 15573 layer_factory.hpp:77] Creating layer conv10_2_reshape
I0315 11:58:16.028836 15573 net.cpp:100] Creating Layer conv10_2_reshape
I0315 11:58:16.028844 15573 net.cpp:434] conv10_2_reshape <- conv10_2_fc2
I0315 11:58:16.028853 15573 net.cpp:408] conv10_2_reshape -> conv10_2_reshape
I0315 11:58:16.028895 15573 net.cpp:150] Setting up conv10_2_reshape
I0315 11:58:16.028903 15573 net.cpp:157] Top shape: 8 256 (2048)
I0315 11:58:16.028905 15573 net.cpp:165] Memory required for data: 7269793856
I0315 11:58:16.028913 15573 layer_factory.hpp:77] Creating layer conv10_2_scale
I0315 11:58:16.028919 15573 net.cpp:100] Creating Layer conv10_2_scale
I0315 11:58:16.028928 15573 net.cpp:434] conv10_2_scale <- conv10_2_t_conv10_2_relu_0_split_1
I0315 11:58:16.028939 15573 net.cpp:434] conv10_2_scale <- conv10_2_reshape
I0315 11:58:16.028950 15573 net.cpp:408] conv10_2_scale -> conv10_2
I0315 11:58:16.029045 15573 net.cpp:150] Setting up conv10_2_scale
I0315 11:58:16.029055 15573 net.cpp:157] Top shape: 8 256 1 1 (2048)
I0315 11:58:16.029060 15573 net.cpp:165] Memory required for data: 7269802048
I0315 11:58:16.029067 15573 layer_factory.hpp:77] Creating layer conv10_2_conv10_2_scale_0_split
I0315 11:58:16.029074 15573 net.cpp:100] Creating Layer conv10_2_conv10_2_scale_0_split
I0315 11:58:16.029080 15573 net.cpp:434] conv10_2_conv10_2_scale_0_split <- conv10_2
I0315 11:58:16.029088 15573 net.cpp:408] conv10_2_conv10_2_scale_0_split -> conv10_2_conv10_2_scale_0_split_0
I0315 11:58:16.029100 15573 net.cpp:408] conv10_2_conv10_2_scale_0_split -> conv10_2_conv10_2_scale_0_split_1
I0315 11:58:16.029109 15573 net.cpp:408] conv10_2_conv10_2_scale_0_split -> conv10_2_conv10_2_scale_0_split_2
I0315 11:58:16.029181 15573 net.cpp:150] Setting up conv10_2_conv10_2_scale_0_split
I0315 11:58:16.029191 15573 net.cpp:157] Top shape: 8 256 1 1 (2048)
I0315 11:58:16.029197 15573 net.cpp:157] Top shape: 8 256 1 1 (2048)
I0315 11:58:16.029202 15573 net.cpp:157] Top shape: 8 256 1 1 (2048)
I0315 11:58:16.029206 15573 net.cpp:165] Memory required for data: 7269826624
I0315 11:58:16.029212 15573 layer_factory.hpp:77] Creating layer conv4_3_norm
I0315 11:58:16.029224 15573 net.cpp:100] Creating Layer conv4_3_norm
I0315 11:58:16.029232 15573 net.cpp:434] conv4_3_norm <- conv4_3_conv4_3_scale_0_split_1
I0315 11:58:16.029240 15573 net.cpp:408] conv4_3_norm -> conv4_3_norm
I0315 11:58:16.029431 15573 net.cpp:150] Setting up conv4_3_norm
I0315 11:58:16.029440 15573 net.cpp:157] Top shape: 8 512 64 64 (16777216)
I0315 11:58:16.029444 15573 net.cpp:165] Memory required for data: 7336935488
I0315 11:58:16.029450 15573 layer_factory.hpp:77] Creating layer conv4_3_norm_conv4_3_norm_0_split
I0315 11:58:16.029461 15573 net.cpp:100] Creating Layer conv4_3_norm_conv4_3_norm_0_split
I0315 11:58:16.029466 15573 net.cpp:434] conv4_3_norm_conv4_3_norm_0_split <- conv4_3_norm
I0315 11:58:16.029476 15573 net.cpp:408] conv4_3_norm_conv4_3_norm_0_split -> conv4_3_norm_conv4_3_norm_0_split_0
I0315 11:58:16.029486 15573 net.cpp:408] conv4_3_norm_conv4_3_norm_0_split -> conv4_3_norm_conv4_3_norm_0_split_1
I0315 11:58:16.029494 15573 net.cpp:408] conv4_3_norm_conv4_3_norm_0_split -> conv4_3_norm_conv4_3_norm_0_split_2
I0315 11:58:16.029584 15573 net.cpp:150] Setting up conv4_3_norm_conv4_3_norm_0_split
I0315 11:58:16.029592 15573 net.cpp:157] Top shape: 8 512 64 64 (16777216)
I0315 11:58:16.029597 15573 net.cpp:157] Top shape: 8 512 64 64 (16777216)
I0315 11:58:16.029603 15573 net.cpp:157] Top shape: 8 512 64 64 (16777216)
I0315 11:58:16.029613 15573 net.cpp:165] Memory required for data: 7538262080
I0315 11:58:16.029618 15573 layer_factory.hpp:77] Creating layer conv4_3_norm_mbox_loc
I0315 11:58:16.029631 15573 net.cpp:100] Creating Layer conv4_3_norm_mbox_loc
I0315 11:58:16.029639 15573 net.cpp:434] conv4_3_norm_mbox_loc <- conv4_3_norm_conv4_3_norm_0_split_0
I0315 11:58:16.029652 15573 net.cpp:408] conv4_3_norm_mbox_loc -> conv4_3_norm_mbox_loc
I0315 11:58:16.031554 15573 net.cpp:150] Setting up conv4_3_norm_mbox_loc
I0315 11:58:16.031566 15573 net.cpp:157] Top shape: 8 16 64 64 (524288)
I0315 11:58:16.031570 15573 net.cpp:165] Memory required for data: 7540359232
I0315 11:58:16.031580 15573 layer_factory.hpp:77] Creating layer conv4_3_norm_mbox_loc_perm
I0315 11:58:16.031590 15573 net.cpp:100] Creating Layer conv4_3_norm_mbox_loc_perm
I0315 11:58:16.031596 15573 net.cpp:434] conv4_3_norm_mbox_loc_perm <- conv4_3_norm_mbox_loc
I0315 11:58:16.031607 15573 net.cpp:408] conv4_3_norm_mbox_loc_perm -> conv4_3_norm_mbox_loc_perm
I0315 11:58:16.031749 15573 net.cpp:150] Setting up conv4_3_norm_mbox_loc_perm
I0315 11:58:16.031756 15573 net.cpp:157] Top shape: 8 64 64 16 (524288)
I0315 11:58:16.031760 15573 net.cpp:165] Memory required for data: 7542456384
I0315 11:58:16.031764 15573 layer_factory.hpp:77] Creating layer conv4_3_norm_mbox_loc_flat
I0315 11:58:16.031778 15573 net.cpp:100] Creating Layer conv4_3_norm_mbox_loc_flat
I0315 11:58:16.031787 15573 net.cpp:434] conv4_3_norm_mbox_loc_flat <- conv4_3_norm_mbox_loc_perm
I0315 11:58:16.031795 15573 net.cpp:408] conv4_3_norm_mbox_loc_flat -> conv4_3_norm_mbox_loc_flat
I0315 11:58:16.031831 15573 net.cpp:150] Setting up conv4_3_norm_mbox_loc_flat
I0315 11:58:16.031838 15573 net.cpp:157] Top shape: 8 65536 (524288)
I0315 11:58:16.031842 15573 net.cpp:165] Memory required for data: 7544553536
I0315 11:58:16.031847 15573 layer_factory.hpp:77] Creating layer conv4_3_norm_mbox_conf
I0315 11:58:16.031860 15573 net.cpp:100] Creating Layer conv4_3_norm_mbox_conf
I0315 11:58:16.031867 15573 net.cpp:434] conv4_3_norm_mbox_conf <- conv4_3_norm_conv4_3_norm_0_split_1
I0315 11:58:16.031883 15573 net.cpp:408] conv4_3_norm_mbox_conf -> conv4_3_norm_mbox_conf
I0315 11:58:16.035841 15573 net.cpp:150] Setting up conv4_3_norm_mbox_conf
I0315 11:58:16.035853 15573 net.cpp:157] Top shape: 8 84 64 64 (2752512)
I0315 11:58:16.035858 15573 net.cpp:165] Memory required for data: 7555563584
I0315 11:58:16.035867 15573 layer_factory.hpp:77] Creating layer conv4_3_norm_mbox_conf_perm
I0315 11:58:16.035876 15573 net.cpp:100] Creating Layer conv4_3_norm_mbox_conf_perm
I0315 11:58:16.035884 15573 net.cpp:434] conv4_3_norm_mbox_conf_perm <- conv4_3_norm_mbox_conf
I0315 11:58:16.035898 15573 net.cpp:408] conv4_3_norm_mbox_conf_perm -> conv4_3_norm_mbox_conf_perm
I0315 11:58:16.036041 15573 net.cpp:150] Setting up conv4_3_norm_mbox_conf_perm
I0315 11:58:16.036048 15573 net.cpp:157] Top shape: 8 64 64 84 (2752512)
I0315 11:58:16.036054 15573 net.cpp:165] Memory required for data: 7566573632
I0315 11:58:16.036061 15573 layer_factory.hpp:77] Creating layer conv4_3_norm_mbox_conf_flat
I0315 11:58:16.036072 15573 net.cpp:100] Creating Layer conv4_3_norm_mbox_conf_flat
I0315 11:58:16.036077 15573 net.cpp:434] conv4_3_norm_mbox_conf_flat <- conv4_3_norm_mbox_conf_perm
I0315 11:58:16.036085 15573 net.cpp:408] conv4_3_norm_mbox_conf_flat -> conv4_3_norm_mbox_conf_flat
I0315 11:58:16.036125 15573 net.cpp:150] Setting up conv4_3_norm_mbox_conf_flat
I0315 11:58:16.036132 15573 net.cpp:157] Top shape: 8 344064 (2752512)
I0315 11:58:16.036136 15573 net.cpp:165] Memory required for data: 7577583680
I0315 11:58:16.036141 15573 layer_factory.hpp:77] Creating layer conv4_3_norm_mbox_priorbox
I0315 11:58:16.036154 15573 net.cpp:100] Creating Layer conv4_3_norm_mbox_priorbox
I0315 11:58:16.036171 15573 net.cpp:434] conv4_3_norm_mbox_priorbox <- conv4_3_norm_conv4_3_norm_0_split_2
I0315 11:58:16.036185 15573 net.cpp:434] conv4_3_norm_mbox_priorbox <- data_data_0_split_1
I0315 11:58:16.036197 15573 net.cpp:408] conv4_3_norm_mbox_priorbox -> conv4_3_norm_mbox_priorbox
I0315 11:58:16.036240 15573 net.cpp:150] Setting up conv4_3_norm_mbox_priorbox
I0315 11:58:16.036247 15573 net.cpp:157] Top shape: 1 2 65536 (131072)
I0315 11:58:16.036252 15573 net.cpp:165] Memory required for data: 7578107968
I0315 11:58:16.036258 15573 layer_factory.hpp:77] Creating layer fc7_mbox_loc
I0315 11:58:16.036281 15573 net.cpp:100] Creating Layer fc7_mbox_loc
I0315 11:58:16.036289 15573 net.cpp:434] fc7_mbox_loc <- fc7_fc7_scale_0_split_1
I0315 11:58:16.036300 15573 net.cpp:408] fc7_mbox_loc -> fc7_mbox_loc
I0315 11:58:16.038836 15573 net.cpp:150] Setting up fc7_mbox_loc
I0315 11:58:16.038849 15573 net.cpp:157] Top shape: 8 24 32 32 (196608)
I0315 11:58:16.038854 15573 net.cpp:165] Memory required for data: 7578894400
I0315 11:58:16.038862 15573 layer_factory.hpp:77] Creating layer fc7_mbox_loc_perm
I0315 11:58:16.038874 15573 net.cpp:100] Creating Layer fc7_mbox_loc_perm
I0315 11:58:16.038882 15573 net.cpp:434] fc7_mbox_loc_perm <- fc7_mbox_loc
I0315 11:58:16.038894 15573 net.cpp:408] fc7_mbox_loc_perm -> fc7_mbox_loc_perm
I0315 11:58:16.039037 15573 net.cpp:150] Setting up fc7_mbox_loc_perm
I0315 11:58:16.039046 15573 net.cpp:157] Top shape: 8 32 32 24 (196608)
I0315 11:58:16.039052 15573 net.cpp:165] Memory required for data: 7579680832
I0315 11:58:16.039057 15573 layer_factory.hpp:77] Creating layer fc7_mbox_loc_flat
I0315 11:58:16.039064 15573 net.cpp:100] Creating Layer fc7_mbox_loc_flat
I0315 11:58:16.039070 15573 net.cpp:434] fc7_mbox_loc_flat <- fc7_mbox_loc_perm
I0315 11:58:16.039079 15573 net.cpp:408] fc7_mbox_loc_flat -> fc7_mbox_loc_flat
I0315 11:58:16.039119 15573 net.cpp:150] Setting up fc7_mbox_loc_flat
I0315 11:58:16.039124 15573 net.cpp:157] Top shape: 8 24576 (196608)
I0315 11:58:16.039129 15573 net.cpp:165] Memory required for data: 7580467264
I0315 11:58:16.039134 15573 layer_factory.hpp:77] Creating layer fc7_mbox_conf
I0315 11:58:16.039149 15573 net.cpp:100] Creating Layer fc7_mbox_conf
I0315 11:58:16.039155 15573 net.cpp:434] fc7_mbox_conf <- fc7_fc7_scale_0_split_2
I0315 11:58:16.039170 15573 net.cpp:408] fc7_mbox_conf -> fc7_mbox_conf
I0315 11:58:16.046671 15573 net.cpp:150] Setting up fc7_mbox_conf
I0315 11:58:16.046685 15573 net.cpp:157] Top shape: 8 126 32 32 (1032192)
I0315 11:58:16.046690 15573 net.cpp:165] Memory required for data: 7584596032
I0315 11:58:16.046700 15573 layer_factory.hpp:77] Creating layer fc7_mbox_conf_perm
I0315 11:58:16.046710 15573 net.cpp:100] Creating Layer fc7_mbox_conf_perm
I0315 11:58:16.046715 15573 net.cpp:434] fc7_mbox_conf_perm <- fc7_mbox_conf
I0315 11:58:16.046725 15573 net.cpp:408] fc7_mbox_conf_perm -> fc7_mbox_conf_perm
I0315 11:58:16.046872 15573 net.cpp:150] Setting up fc7_mbox_conf_perm
I0315 11:58:16.046881 15573 net.cpp:157] Top shape: 8 32 32 126 (1032192)
I0315 11:58:16.046885 15573 net.cpp:165] Memory required for data: 7588724800
I0315 11:58:16.046890 15573 layer_factory.hpp:77] Creating layer fc7_mbox_conf_flat
I0315 11:58:16.046897 15573 net.cpp:100] Creating Layer fc7_mbox_conf_flat
I0315 11:58:16.046905 15573 net.cpp:434] fc7_mbox_conf_flat <- fc7_mbox_conf_perm
I0315 11:58:16.046912 15573 net.cpp:408] fc7_mbox_conf_flat -> fc7_mbox_conf_flat
I0315 11:58:16.046953 15573 net.cpp:150] Setting up fc7_mbox_conf_flat
I0315 11:58:16.046960 15573 net.cpp:157] Top shape: 8 129024 (1032192)
I0315 11:58:16.046964 15573 net.cpp:165] Memory required for data: 7592853568
I0315 11:58:16.046969 15573 layer_factory.hpp:77] Creating layer fc7_mbox_priorbox
I0315 11:58:16.046980 15573 net.cpp:100] Creating Layer fc7_mbox_priorbox
I0315 11:58:16.046988 15573 net.cpp:434] fc7_mbox_priorbox <- fc7_fc7_scale_0_split_3
I0315 11:58:16.046994 15573 net.cpp:434] fc7_mbox_priorbox <- data_data_0_split_2
I0315 11:58:16.047015 15573 net.cpp:408] fc7_mbox_priorbox -> fc7_mbox_priorbox
I0315 11:58:16.047062 15573 net.cpp:150] Setting up fc7_mbox_priorbox
I0315 11:58:16.047070 15573 net.cpp:157] Top shape: 1 2 24576 (49152)
I0315 11:58:16.047075 15573 net.cpp:165] Memory required for data: 7593050176
I0315 11:58:16.047080 15573 layer_factory.hpp:77] Creating layer conv6_2_mbox_loc
I0315 11:58:16.047091 15573 net.cpp:100] Creating Layer conv6_2_mbox_loc
I0315 11:58:16.047097 15573 net.cpp:434] conv6_2_mbox_loc <- conv6_2_conv6_2_scale_0_split_1
I0315 11:58:16.047109 15573 net.cpp:408] conv6_2_mbox_loc -> conv6_2_mbox_loc
I0315 11:58:16.049198 15573 net.cpp:150] Setting up conv6_2_mbox_loc
I0315 11:58:16.049211 15573 net.cpp:157] Top shape: 8 24 16 16 (49152)
I0315 11:58:16.049216 15573 net.cpp:165] Memory required for data: 7593246784
I0315 11:58:16.049224 15573 layer_factory.hpp:77] Creating layer conv6_2_mbox_loc_perm
I0315 11:58:16.049237 15573 net.cpp:100] Creating Layer conv6_2_mbox_loc_perm
I0315 11:58:16.049243 15573 net.cpp:434] conv6_2_mbox_loc_perm <- conv6_2_mbox_loc
I0315 11:58:16.049252 15573 net.cpp:408] conv6_2_mbox_loc_perm -> conv6_2_mbox_loc_perm
I0315 11:58:16.049396 15573 net.cpp:150] Setting up conv6_2_mbox_loc_perm
I0315 11:58:16.049403 15573 net.cpp:157] Top shape: 8 16 16 24 (49152)
I0315 11:58:16.049407 15573 net.cpp:165] Memory required for data: 7593443392
I0315 11:58:16.049412 15573 layer_factory.hpp:77] Creating layer conv6_2_mbox_loc_flat
I0315 11:58:16.049422 15573 net.cpp:100] Creating Layer conv6_2_mbox_loc_flat
I0315 11:58:16.049427 15573 net.cpp:434] conv6_2_mbox_loc_flat <- conv6_2_mbox_loc_perm
I0315 11:58:16.049437 15573 net.cpp:408] conv6_2_mbox_loc_flat -> conv6_2_mbox_loc_flat
I0315 11:58:16.049474 15573 net.cpp:150] Setting up conv6_2_mbox_loc_flat
I0315 11:58:16.049480 15573 net.cpp:157] Top shape: 8 6144 (49152)
I0315 11:58:16.049484 15573 net.cpp:165] Memory required for data: 7593640000
I0315 11:58:16.049489 15573 layer_factory.hpp:77] Creating layer conv6_2_mbox_conf
I0315 11:58:16.049500 15573 net.cpp:100] Creating Layer conv6_2_mbox_conf
I0315 11:58:16.049511 15573 net.cpp:434] conv6_2_mbox_conf <- conv6_2_conv6_2_scale_0_split_2
I0315 11:58:16.049523 15573 net.cpp:408] conv6_2_mbox_conf -> conv6_2_mbox_conf
I0315 11:58:16.054306 15573 net.cpp:150] Setting up conv6_2_mbox_conf
I0315 11:58:16.054318 15573 net.cpp:157] Top shape: 8 126 16 16 (258048)
I0315 11:58:16.054335 15573 net.cpp:165] Memory required for data: 7594672192
I0315 11:58:16.054345 15573 layer_factory.hpp:77] Creating layer conv6_2_mbox_conf_perm
I0315 11:58:16.054354 15573 net.cpp:100] Creating Layer conv6_2_mbox_conf_perm
I0315 11:58:16.054363 15573 net.cpp:434] conv6_2_mbox_conf_perm <- conv6_2_mbox_conf
I0315 11:58:16.054375 15573 net.cpp:408] conv6_2_mbox_conf_perm -> conv6_2_mbox_conf_perm
I0315 11:58:16.054522 15573 net.cpp:150] Setting up conv6_2_mbox_conf_perm
I0315 11:58:16.054530 15573 net.cpp:157] Top shape: 8 16 16 126 (258048)
I0315 11:58:16.054534 15573 net.cpp:165] Memory required for data: 7595704384
I0315 11:58:16.054539 15573 layer_factory.hpp:77] Creating layer conv6_2_mbox_conf_flat
I0315 11:58:16.054548 15573 net.cpp:100] Creating Layer conv6_2_mbox_conf_flat
I0315 11:58:16.054554 15573 net.cpp:434] conv6_2_mbox_conf_flat <- conv6_2_mbox_conf_perm
I0315 11:58:16.054563 15573 net.cpp:408] conv6_2_mbox_conf_flat -> conv6_2_mbox_conf_flat
I0315 11:58:16.054603 15573 net.cpp:150] Setting up conv6_2_mbox_conf_flat
I0315 11:58:16.054612 15573 net.cpp:157] Top shape: 8 32256 (258048)
I0315 11:58:16.054616 15573 net.cpp:165] Memory required for data: 7596736576
I0315 11:58:16.054620 15573 layer_factory.hpp:77] Creating layer conv6_2_mbox_priorbox
I0315 11:58:16.054630 15573 net.cpp:100] Creating Layer conv6_2_mbox_priorbox
I0315 11:58:16.054643 15573 net.cpp:434] conv6_2_mbox_priorbox <- conv6_2_conv6_2_scale_0_split_3
I0315 11:58:16.054651 15573 net.cpp:434] conv6_2_mbox_priorbox <- data_data_0_split_3
I0315 11:58:16.054662 15573 net.cpp:408] conv6_2_mbox_priorbox -> conv6_2_mbox_priorbox
I0315 11:58:16.054711 15573 net.cpp:150] Setting up conv6_2_mbox_priorbox
I0315 11:58:16.054728 15573 net.cpp:157] Top shape: 1 2 6144 (12288)
I0315 11:58:16.054731 15573 net.cpp:165] Memory required for data: 7596785728
I0315 11:58:16.054735 15573 layer_factory.hpp:77] Creating layer conv7_2_mbox_loc
I0315 11:58:16.054752 15573 net.cpp:100] Creating Layer conv7_2_mbox_loc
I0315 11:58:16.054760 15573 net.cpp:434] conv7_2_mbox_loc <- conv7_2_conv7_2_scale_0_split_1
I0315 11:58:16.054771 15573 net.cpp:408] conv7_2_mbox_loc -> conv7_2_mbox_loc
I0315 11:58:16.056674 15573 net.cpp:150] Setting up conv7_2_mbox_loc
I0315 11:58:16.056687 15573 net.cpp:157] Top shape: 8 24 8 8 (12288)
I0315 11:58:16.056691 15573 net.cpp:165] Memory required for data: 7596834880
I0315 11:58:16.056699 15573 layer_factory.hpp:77] Creating layer conv7_2_mbox_loc_perm
I0315 11:58:16.056713 15573 net.cpp:100] Creating Layer conv7_2_mbox_loc_perm
I0315 11:58:16.056723 15573 net.cpp:434] conv7_2_mbox_loc_perm <- conv7_2_mbox_loc
I0315 11:58:16.056730 15573 net.cpp:408] conv7_2_mbox_loc_perm -> conv7_2_mbox_loc_perm
I0315 11:58:16.056879 15573 net.cpp:150] Setting up conv7_2_mbox_loc_perm
I0315 11:58:16.056887 15573 net.cpp:157] Top shape: 8 8 8 24 (12288)
I0315 11:58:16.056892 15573 net.cpp:165] Memory required for data: 7596884032
I0315 11:58:16.056896 15573 layer_factory.hpp:77] Creating layer conv7_2_mbox_loc_flat
I0315 11:58:16.056906 15573 net.cpp:100] Creating Layer conv7_2_mbox_loc_flat
I0315 11:58:16.056915 15573 net.cpp:434] conv7_2_mbox_loc_flat <- conv7_2_mbox_loc_perm
I0315 11:58:16.056924 15573 net.cpp:408] conv7_2_mbox_loc_flat -> conv7_2_mbox_loc_flat
I0315 11:58:16.056963 15573 net.cpp:150] Setting up conv7_2_mbox_loc_flat
I0315 11:58:16.056970 15573 net.cpp:157] Top shape: 8 1536 (12288)
I0315 11:58:16.056974 15573 net.cpp:165] Memory required for data: 7596933184
I0315 11:58:16.056979 15573 layer_factory.hpp:77] Creating layer conv7_2_mbox_conf
I0315 11:58:16.056994 15573 net.cpp:100] Creating Layer conv7_2_mbox_conf
I0315 11:58:16.057003 15573 net.cpp:434] conv7_2_mbox_conf <- conv7_2_conv7_2_scale_0_split_2
I0315 11:58:16.057013 15573 net.cpp:408] conv7_2_mbox_conf -> conv7_2_mbox_conf
I0315 11:58:16.060621 15573 net.cpp:150] Setting up conv7_2_mbox_conf
I0315 11:58:16.060636 15573 net.cpp:157] Top shape: 8 126 8 8 (64512)
I0315 11:58:16.060639 15573 net.cpp:165] Memory required for data: 7597191232
I0315 11:58:16.060648 15573 layer_factory.hpp:77] Creating layer conv7_2_mbox_conf_perm
I0315 11:58:16.060658 15573 net.cpp:100] Creating Layer conv7_2_mbox_conf_perm
I0315 11:58:16.060669 15573 net.cpp:434] conv7_2_mbox_conf_perm <- conv7_2_mbox_conf
I0315 11:58:16.060680 15573 net.cpp:408] conv7_2_mbox_conf_perm -> conv7_2_mbox_conf_perm
I0315 11:58:16.060832 15573 net.cpp:150] Setting up conv7_2_mbox_conf_perm
I0315 11:58:16.060842 15573 net.cpp:157] Top shape: 8 8 8 126 (64512)
I0315 11:58:16.060845 15573 net.cpp:165] Memory required for data: 7597449280
I0315 11:58:16.060850 15573 layer_factory.hpp:77] Creating layer conv7_2_mbox_conf_flat
I0315 11:58:16.060858 15573 net.cpp:100] Creating Layer conv7_2_mbox_conf_flat
I0315 11:58:16.060868 15573 net.cpp:434] conv7_2_mbox_conf_flat <- conv7_2_mbox_conf_perm
I0315 11:58:16.060878 15573 net.cpp:408] conv7_2_mbox_conf_flat -> conv7_2_mbox_conf_flat
I0315 11:58:16.060916 15573 net.cpp:150] Setting up conv7_2_mbox_conf_flat
I0315 11:58:16.060923 15573 net.cpp:157] Top shape: 8 8064 (64512)
I0315 11:58:16.060927 15573 net.cpp:165] Memory required for data: 7597707328
I0315 11:58:16.060932 15573 layer_factory.hpp:77] Creating layer conv7_2_mbox_priorbox
I0315 11:58:16.060945 15573 net.cpp:100] Creating Layer conv7_2_mbox_priorbox
I0315 11:58:16.060957 15573 net.cpp:434] conv7_2_mbox_priorbox <- conv7_2_conv7_2_scale_0_split_3
I0315 11:58:16.060966 15573 net.cpp:434] conv7_2_mbox_priorbox <- data_data_0_split_4
I0315 11:58:16.060979 15573 net.cpp:408] conv7_2_mbox_priorbox -> conv7_2_mbox_priorbox
I0315 11:58:16.061022 15573 net.cpp:150] Setting up conv7_2_mbox_priorbox
I0315 11:58:16.061029 15573 net.cpp:157] Top shape: 1 2 1536 (3072)
I0315 11:58:16.061048 15573 net.cpp:165] Memory required for data: 7597719616
I0315 11:58:16.061053 15573 layer_factory.hpp:77] Creating layer conv8_2_mbox_loc
I0315 11:58:16.061066 15573 net.cpp:100] Creating Layer conv8_2_mbox_loc
I0315 11:58:16.061074 15573 net.cpp:434] conv8_2_mbox_loc <- conv8_2_conv8_2_scale_0_split_1
I0315 11:58:16.061086 15573 net.cpp:408] conv8_2_mbox_loc -> conv8_2_mbox_loc
I0315 11:58:16.062613 15573 net.cpp:150] Setting up conv8_2_mbox_loc
I0315 11:58:16.062624 15573 net.cpp:157] Top shape: 8 24 4 4 (3072)
I0315 11:58:16.062628 15573 net.cpp:165] Memory required for data: 7597731904
I0315 11:58:16.062639 15573 layer_factory.hpp:77] Creating layer conv8_2_mbox_loc_perm
I0315 11:58:16.062651 15573 net.cpp:100] Creating Layer conv8_2_mbox_loc_perm
I0315 11:58:16.062660 15573 net.cpp:434] conv8_2_mbox_loc_perm <- conv8_2_mbox_loc
I0315 11:58:16.062669 15573 net.cpp:408] conv8_2_mbox_loc_perm -> conv8_2_mbox_loc_perm
I0315 11:58:16.062813 15573 net.cpp:150] Setting up conv8_2_mbox_loc_perm
I0315 11:58:16.062821 15573 net.cpp:157] Top shape: 8 4 4 24 (3072)
I0315 11:58:16.062825 15573 net.cpp:165] Memory required for data: 7597744192
I0315 11:58:16.062831 15573 layer_factory.hpp:77] Creating layer conv8_2_mbox_loc_flat
I0315 11:58:16.062841 15573 net.cpp:100] Creating Layer conv8_2_mbox_loc_flat
I0315 11:58:16.062846 15573 net.cpp:434] conv8_2_mbox_loc_flat <- conv8_2_mbox_loc_perm
I0315 11:58:16.062855 15573 net.cpp:408] conv8_2_mbox_loc_flat -> conv8_2_mbox_loc_flat
I0315 11:58:16.062894 15573 net.cpp:150] Setting up conv8_2_mbox_loc_flat
I0315 11:58:16.062901 15573 net.cpp:157] Top shape: 8 384 (3072)
I0315 11:58:16.062904 15573 net.cpp:165] Memory required for data: 7597756480
I0315 11:58:16.062909 15573 layer_factory.hpp:77] Creating layer conv8_2_mbox_conf
I0315 11:58:16.062923 15573 net.cpp:100] Creating Layer conv8_2_mbox_conf
I0315 11:58:16.062933 15573 net.cpp:434] conv8_2_mbox_conf <- conv8_2_conv8_2_scale_0_split_2
I0315 11:58:16.062950 15573 net.cpp:408] conv8_2_mbox_conf -> conv8_2_mbox_conf
I0315 11:58:16.066563 15573 net.cpp:150] Setting up conv8_2_mbox_conf
I0315 11:58:16.066576 15573 net.cpp:157] Top shape: 8 126 4 4 (16128)
I0315 11:58:16.066581 15573 net.cpp:165] Memory required for data: 7597820992
I0315 11:58:16.066589 15573 layer_factory.hpp:77] Creating layer conv8_2_mbox_conf_perm
I0315 11:58:16.066603 15573 net.cpp:100] Creating Layer conv8_2_mbox_conf_perm
I0315 11:58:16.066609 15573 net.cpp:434] conv8_2_mbox_conf_perm <- conv8_2_mbox_conf
I0315 11:58:16.066622 15573 net.cpp:408] conv8_2_mbox_conf_perm -> conv8_2_mbox_conf_perm
I0315 11:58:16.066767 15573 net.cpp:150] Setting up conv8_2_mbox_conf_perm
I0315 11:58:16.066776 15573 net.cpp:157] Top shape: 8 4 4 126 (16128)
I0315 11:58:16.066781 15573 net.cpp:165] Memory required for data: 7597885504
I0315 11:58:16.066785 15573 layer_factory.hpp:77] Creating layer conv8_2_mbox_conf_flat
I0315 11:58:16.066794 15573 net.cpp:100] Creating Layer conv8_2_mbox_conf_flat
I0315 11:58:16.066802 15573 net.cpp:434] conv8_2_mbox_conf_flat <- conv8_2_mbox_conf_perm
I0315 11:58:16.066812 15573 net.cpp:408] conv8_2_mbox_conf_flat -> conv8_2_mbox_conf_flat
I0315 11:58:16.066853 15573 net.cpp:150] Setting up conv8_2_mbox_conf_flat
I0315 11:58:16.066859 15573 net.cpp:157] Top shape: 8 2016 (16128)
I0315 11:58:16.066864 15573 net.cpp:165] Memory required for data: 7597950016
I0315 11:58:16.066867 15573 layer_factory.hpp:77] Creating layer conv8_2_mbox_priorbox
I0315 11:58:16.066884 15573 net.cpp:100] Creating Layer conv8_2_mbox_priorbox
I0315 11:58:16.066890 15573 net.cpp:434] conv8_2_mbox_priorbox <- conv8_2_conv8_2_scale_0_split_3
I0315 11:58:16.066900 15573 net.cpp:434] conv8_2_mbox_priorbox <- data_data_0_split_5
I0315 11:58:16.066911 15573 net.cpp:408] conv8_2_mbox_priorbox -> conv8_2_mbox_priorbox
I0315 11:58:16.066954 15573 net.cpp:150] Setting up conv8_2_mbox_priorbox
I0315 11:58:16.066962 15573 net.cpp:157] Top shape: 1 2 384 (768)
I0315 11:58:16.066965 15573 net.cpp:165] Memory required for data: 7597953088
I0315 11:58:16.066980 15573 layer_factory.hpp:77] Creating layer conv9_2_mbox_loc
I0315 11:58:16.066998 15573 net.cpp:100] Creating Layer conv9_2_mbox_loc
I0315 11:58:16.067008 15573 net.cpp:434] conv9_2_mbox_loc <- conv9_2_conv9_2_scale_0_split_1
I0315 11:58:16.067019 15573 net.cpp:408] conv9_2_mbox_loc -> conv9_2_mbox_loc
I0315 11:58:16.068536 15573 net.cpp:150] Setting up conv9_2_mbox_loc
I0315 11:58:16.068547 15573 net.cpp:157] Top shape: 8 16 2 2 (512)
I0315 11:58:16.068552 15573 net.cpp:165] Memory required for data: 7597955136
I0315 11:58:16.068560 15573 layer_factory.hpp:77] Creating layer conv9_2_mbox_loc_perm
I0315 11:58:16.068573 15573 net.cpp:100] Creating Layer conv9_2_mbox_loc_perm
I0315 11:58:16.068583 15573 net.cpp:434] conv9_2_mbox_loc_perm <- conv9_2_mbox_loc
I0315 11:58:16.068591 15573 net.cpp:408] conv9_2_mbox_loc_perm -> conv9_2_mbox_loc_perm
I0315 11:58:16.068735 15573 net.cpp:150] Setting up conv9_2_mbox_loc_perm
I0315 11:58:16.068743 15573 net.cpp:157] Top shape: 8 2 2 16 (512)
I0315 11:58:16.068748 15573 net.cpp:165] Memory required for data: 7597957184
I0315 11:58:16.068754 15573 layer_factory.hpp:77] Creating layer conv9_2_mbox_loc_flat
I0315 11:58:16.068761 15573 net.cpp:100] Creating Layer conv9_2_mbox_loc_flat
I0315 11:58:16.068770 15573 net.cpp:434] conv9_2_mbox_loc_flat <- conv9_2_mbox_loc_perm
I0315 11:58:16.068781 15573 net.cpp:408] conv9_2_mbox_loc_flat -> conv9_2_mbox_loc_flat
I0315 11:58:16.068823 15573 net.cpp:150] Setting up conv9_2_mbox_loc_flat
I0315 11:58:16.068830 15573 net.cpp:157] Top shape: 8 64 (512)
I0315 11:58:16.068833 15573 net.cpp:165] Memory required for data: 7597959232
I0315 11:58:16.068838 15573 layer_factory.hpp:77] Creating layer conv9_2_mbox_conf
I0315 11:58:16.068851 15573 net.cpp:100] Creating Layer conv9_2_mbox_conf
I0315 11:58:16.068859 15573 net.cpp:434] conv9_2_mbox_conf <- conv9_2_conv9_2_scale_0_split_2
I0315 11:58:16.068871 15573 net.cpp:408] conv9_2_mbox_conf -> conv9_2_mbox_conf
I0315 11:58:16.071306 15573 net.cpp:150] Setting up conv9_2_mbox_conf
I0315 11:58:16.071318 15573 net.cpp:157] Top shape: 8 84 2 2 (2688)
I0315 11:58:16.071322 15573 net.cpp:165] Memory required for data: 7597969984
I0315 11:58:16.071331 15573 layer_factory.hpp:77] Creating layer conv9_2_mbox_conf_perm
I0315 11:58:16.071343 15573 net.cpp:100] Creating Layer conv9_2_mbox_conf_perm
I0315 11:58:16.071352 15573 net.cpp:434] conv9_2_mbox_conf_perm <- conv9_2_mbox_conf
I0315 11:58:16.071362 15573 net.cpp:408] conv9_2_mbox_conf_perm -> conv9_2_mbox_conf_perm
I0315 11:58:16.071512 15573 net.cpp:150] Setting up conv9_2_mbox_conf_perm
I0315 11:58:16.071522 15573 net.cpp:157] Top shape: 8 2 2 84 (2688)
I0315 11:58:16.071527 15573 net.cpp:165] Memory required for data: 7597980736
I0315 11:58:16.071530 15573 layer_factory.hpp:77] Creating layer conv9_2_mbox_conf_flat
I0315 11:58:16.071542 15573 net.cpp:100] Creating Layer conv9_2_mbox_conf_flat
I0315 11:58:16.071548 15573 net.cpp:434] conv9_2_mbox_conf_flat <- conv9_2_mbox_conf_perm
I0315 11:58:16.071555 15573 net.cpp:408] conv9_2_mbox_conf_flat -> conv9_2_mbox_conf_flat
I0315 11:58:16.071594 15573 net.cpp:150] Setting up conv9_2_mbox_conf_flat
I0315 11:58:16.071601 15573 net.cpp:157] Top shape: 8 336 (2688)
I0315 11:58:16.071605 15573 net.cpp:165] Memory required for data: 7597991488
I0315 11:58:16.071609 15573 layer_factory.hpp:77] Creating layer conv9_2_mbox_priorbox
I0315 11:58:16.071621 15573 net.cpp:100] Creating Layer conv9_2_mbox_priorbox
I0315 11:58:16.071632 15573 net.cpp:434] conv9_2_mbox_priorbox <- conv9_2_conv9_2_scale_0_split_3
I0315 11:58:16.071640 15573 net.cpp:434] conv9_2_mbox_priorbox <- data_data_0_split_6
I0315 11:58:16.071647 15573 net.cpp:408] conv9_2_mbox_priorbox -> conv9_2_mbox_priorbox
I0315 11:58:16.071696 15573 net.cpp:150] Setting up conv9_2_mbox_priorbox
I0315 11:58:16.071702 15573 net.cpp:157] Top shape: 1 2 64 (128)
I0315 11:58:16.071707 15573 net.cpp:165] Memory required for data: 7597992000
I0315 11:58:16.071712 15573 layer_factory.hpp:77] Creating layer conv10_2_mbox_loc
I0315 11:58:16.071723 15573 net.cpp:100] Creating Layer conv10_2_mbox_loc
I0315 11:58:16.071739 15573 net.cpp:434] conv10_2_mbox_loc <- conv10_2_conv10_2_scale_0_split_0
I0315 11:58:16.071753 15573 net.cpp:408] conv10_2_mbox_loc -> conv10_2_mbox_loc
I0315 11:58:16.073987 15573 net.cpp:150] Setting up conv10_2_mbox_loc
I0315 11:58:16.073998 15573 net.cpp:157] Top shape: 8 16 1 1 (128)
I0315 11:58:16.074003 15573 net.cpp:165] Memory required for data: 7597992512
I0315 11:58:16.074012 15573 layer_factory.hpp:77] Creating layer conv10_2_mbox_loc_perm
I0315 11:58:16.074028 15573 net.cpp:100] Creating Layer conv10_2_mbox_loc_perm
I0315 11:58:16.074036 15573 net.cpp:434] conv10_2_mbox_loc_perm <- conv10_2_mbox_loc
I0315 11:58:16.074045 15573 net.cpp:408] conv10_2_mbox_loc_perm -> conv10_2_mbox_loc_perm
I0315 11:58:16.074193 15573 net.cpp:150] Setting up conv10_2_mbox_loc_perm
I0315 11:58:16.074200 15573 net.cpp:157] Top shape: 8 1 1 16 (128)
I0315 11:58:16.074203 15573 net.cpp:165] Memory required for data: 7597993024
I0315 11:58:16.074209 15573 layer_factory.hpp:77] Creating layer conv10_2_mbox_loc_flat
I0315 11:58:16.074219 15573 net.cpp:100] Creating Layer conv10_2_mbox_loc_flat
I0315 11:58:16.074224 15573 net.cpp:434] conv10_2_mbox_loc_flat <- conv10_2_mbox_loc_perm
I0315 11:58:16.074234 15573 net.cpp:408] conv10_2_mbox_loc_flat -> conv10_2_mbox_loc_flat
I0315 11:58:16.074272 15573 net.cpp:150] Setting up conv10_2_mbox_loc_flat
I0315 11:58:16.074280 15573 net.cpp:157] Top shape: 8 16 (128)
I0315 11:58:16.074283 15573 net.cpp:165] Memory required for data: 7597993536
I0315 11:58:16.074288 15573 layer_factory.hpp:77] Creating layer conv10_2_mbox_conf
I0315 11:58:16.074303 15573 net.cpp:100] Creating Layer conv10_2_mbox_conf
I0315 11:58:16.074313 15573 net.cpp:434] conv10_2_mbox_conf <- conv10_2_conv10_2_scale_0_split_1
I0315 11:58:16.074345 15573 net.cpp:408] conv10_2_mbox_conf -> conv10_2_mbox_conf
I0315 11:58:16.076777 15573 net.cpp:150] Setting up conv10_2_mbox_conf
I0315 11:58:16.076789 15573 net.cpp:157] Top shape: 8 84 1 1 (672)
I0315 11:58:16.076794 15573 net.cpp:165] Memory required for data: 7597996224
I0315 11:58:16.076803 15573 layer_factory.hpp:77] Creating layer conv10_2_mbox_conf_perm
I0315 11:58:16.076817 15573 net.cpp:100] Creating Layer conv10_2_mbox_conf_perm
I0315 11:58:16.076822 15573 net.cpp:434] conv10_2_mbox_conf_perm <- conv10_2_mbox_conf
I0315 11:58:16.076835 15573 net.cpp:408] conv10_2_mbox_conf_perm -> conv10_2_mbox_conf_perm
I0315 11:58:16.076984 15573 net.cpp:150] Setting up conv10_2_mbox_conf_perm
I0315 11:58:16.076992 15573 net.cpp:157] Top shape: 8 1 1 84 (672)
I0315 11:58:16.076997 15573 net.cpp:165] Memory required for data: 7597998912
I0315 11:58:16.077002 15573 layer_factory.hpp:77] Creating layer conv10_2_mbox_conf_flat
I0315 11:58:16.077013 15573 net.cpp:100] Creating Layer conv10_2_mbox_conf_flat
I0315 11:58:16.077019 15573 net.cpp:434] conv10_2_mbox_conf_flat <- conv10_2_mbox_conf_perm
I0315 11:58:16.077028 15573 net.cpp:408] conv10_2_mbox_conf_flat -> conv10_2_mbox_conf_flat
I0315 11:58:16.077069 15573 net.cpp:150] Setting up conv10_2_mbox_conf_flat
I0315 11:58:16.077076 15573 net.cpp:157] Top shape: 8 84 (672)
I0315 11:58:16.077080 15573 net.cpp:165] Memory required for data: 7598001600
I0315 11:58:16.077083 15573 layer_factory.hpp:77] Creating layer conv10_2_mbox_priorbox
I0315 11:58:16.077095 15573 net.cpp:100] Creating Layer conv10_2_mbox_priorbox
I0315 11:58:16.077100 15573 net.cpp:434] conv10_2_mbox_priorbox <- conv10_2_conv10_2_scale_0_split_2
I0315 11:58:16.077109 15573 net.cpp:434] conv10_2_mbox_priorbox <- data_data_0_split_7
I0315 11:58:16.077121 15573 net.cpp:408] conv10_2_mbox_priorbox -> conv10_2_mbox_priorbox
I0315 11:58:16.077170 15573 net.cpp:150] Setting up conv10_2_mbox_priorbox
I0315 11:58:16.077177 15573 net.cpp:157] Top shape: 1 2 16 (32)
I0315 11:58:16.077180 15573 net.cpp:165] Memory required for data: 7598001728
I0315 11:58:16.077185 15573 layer_factory.hpp:77] Creating layer mbox_loc
I0315 11:58:16.077198 15573 net.cpp:100] Creating Layer mbox_loc
I0315 11:58:16.077208 15573 net.cpp:434] mbox_loc <- conv4_3_norm_mbox_loc_flat
I0315 11:58:16.077236 15573 net.cpp:434] mbox_loc <- fc7_mbox_loc_flat
I0315 11:58:16.077242 15573 net.cpp:434] mbox_loc <- conv6_2_mbox_loc_flat
I0315 11:58:16.077250 15573 net.cpp:434] mbox_loc <- conv7_2_mbox_loc_flat
I0315 11:58:16.077256 15573 net.cpp:434] mbox_loc <- conv8_2_mbox_loc_flat
I0315 11:58:16.077266 15573 net.cpp:434] mbox_loc <- conv9_2_mbox_loc_flat
I0315 11:58:16.077271 15573 net.cpp:434] mbox_loc <- conv10_2_mbox_loc_flat
I0315 11:58:16.077280 15573 net.cpp:408] mbox_loc -> mbox_loc
I0315 11:58:16.077323 15573 net.cpp:150] Setting up mbox_loc
I0315 11:58:16.077337 15573 net.cpp:157] Top shape: 8 98256 (786048)
I0315 11:58:16.077343 15573 net.cpp:165] Memory required for data: 7601145920
I0315 11:58:16.077348 15573 layer_factory.hpp:77] Creating layer mbox_conf
I0315 11:58:16.077358 15573 net.cpp:100] Creating Layer mbox_conf
I0315 11:58:16.077364 15573 net.cpp:434] mbox_conf <- conv4_3_norm_mbox_conf_flat
I0315 11:58:16.077370 15573 net.cpp:434] mbox_conf <- fc7_mbox_conf_flat
I0315 11:58:16.077380 15573 net.cpp:434] mbox_conf <- conv6_2_mbox_conf_flat
I0315 11:58:16.077388 15573 net.cpp:434] mbox_conf <- conv7_2_mbox_conf_flat
I0315 11:58:16.077394 15573 net.cpp:434] mbox_conf <- conv8_2_mbox_conf_flat
I0315 11:58:16.077404 15573 net.cpp:434] mbox_conf <- conv9_2_mbox_conf_flat
I0315 11:58:16.077414 15573 net.cpp:434] mbox_conf <- conv10_2_mbox_conf_flat
I0315 11:58:16.077422 15573 net.cpp:408] mbox_conf -> mbox_conf
I0315 11:58:16.077469 15573 net.cpp:150] Setting up mbox_conf
I0315 11:58:16.077476 15573 net.cpp:157] Top shape: 8 515844 (4126752)
I0315 11:58:16.077481 15573 net.cpp:165] Memory required for data: 7617652928
I0315 11:58:16.077486 15573 layer_factory.hpp:77] Creating layer mbox_priorbox
I0315 11:58:16.077493 15573 net.cpp:100] Creating Layer mbox_priorbox
I0315 11:58:16.077502 15573 net.cpp:434] mbox_priorbox <- conv4_3_norm_mbox_priorbox
I0315 11:58:16.077509 15573 net.cpp:434] mbox_priorbox <- fc7_mbox_priorbox
I0315 11:58:16.077517 15573 net.cpp:434] mbox_priorbox <- conv6_2_mbox_priorbox
I0315 11:58:16.077524 15573 net.cpp:434] mbox_priorbox <- conv7_2_mbox_priorbox
I0315 11:58:16.077533 15573 net.cpp:434] mbox_priorbox <- conv8_2_mbox_priorbox
I0315 11:58:16.077539 15573 net.cpp:434] mbox_priorbox <- conv9_2_mbox_priorbox
I0315 11:58:16.077551 15573 net.cpp:434] mbox_priorbox <- conv10_2_mbox_priorbox
I0315 11:58:16.077564 15573 net.cpp:408] mbox_priorbox -> mbox_priorbox
I0315 11:58:16.077610 15573 net.cpp:150] Setting up mbox_priorbox
I0315 11:58:16.077617 15573 net.cpp:157] Top shape: 1 2 98256 (196512)
I0315 11:58:16.077621 15573 net.cpp:165] Memory required for data: 7618438976
I0315 11:58:16.077626 15573 layer_factory.hpp:77] Creating layer mbox_conf_reshape
I0315 11:58:16.077641 15573 net.cpp:100] Creating Layer mbox_conf_reshape
I0315 11:58:16.077652 15573 net.cpp:434] mbox_conf_reshape <- mbox_conf
I0315 11:58:16.077662 15573 net.cpp:408] mbox_conf_reshape -> mbox_conf_reshape
I0315 11:58:16.077709 15573 net.cpp:150] Setting up mbox_conf_reshape
I0315 11:58:16.077716 15573 net.cpp:157] Top shape: 8 24564 21 (4126752)
I0315 11:58:16.077720 15573 net.cpp:165] Memory required for data: 7634945984
I0315 11:58:16.077724 15573 layer_factory.hpp:77] Creating layer mbox_conf_softmax
I0315 11:58:16.077739 15573 net.cpp:100] Creating Layer mbox_conf_softmax
I0315 11:58:16.077754 15573 net.cpp:434] mbox_conf_softmax <- mbox_conf_reshape
I0315 11:58:16.077762 15573 net.cpp:408] mbox_conf_softmax -> mbox_conf_softmax
I0315 11:58:16.078042 15573 net.cpp:150] Setting up mbox_conf_softmax
I0315 11:58:16.078052 15573 net.cpp:157] Top shape: 8 24564 21 (4126752)
I0315 11:58:16.078055 15573 net.cpp:165] Memory required for data: 7651452992
I0315 11:58:16.078061 15573 layer_factory.hpp:77] Creating layer mbox_conf_flatten
I0315 11:58:16.078073 15573 net.cpp:100] Creating Layer mbox_conf_flatten
I0315 11:58:16.078076 15573 net.cpp:434] mbox_conf_flatten <- mbox_conf_softmax
I0315 11:58:16.078084 15573 net.cpp:408] mbox_conf_flatten -> mbox_conf_flatten
I0315 11:58:16.078135 15573 net.cpp:150] Setting up mbox_conf_flatten
I0315 11:58:16.078141 15573 net.cpp:157] Top shape: 8 515844 (4126752)
I0315 11:58:16.078145 15573 net.cpp:165] Memory required for data: 7667960000
I0315 11:58:16.078150 15573 layer_factory.hpp:77] Creating layer detection_out
I0315 11:58:16.078171 15573 net.cpp:100] Creating Layer detection_out
I0315 11:58:16.078179 15573 net.cpp:434] detection_out <- mbox_loc
I0315 11:58:16.078187 15573 net.cpp:434] detection_out <- mbox_conf_flatten
I0315 11:58:16.078198 15573 net.cpp:434] detection_out <- mbox_priorbox
I0315 11:58:16.078209 15573 net.cpp:408] detection_out -> detection_out
I0315 11:58:16.079303 15573 net.cpp:150] Setting up detection_out
I0315 11:58:16.079313 15573 net.cpp:157] Top shape: 1 1 1 7 (7)
I0315 11:58:16.079318 15573 net.cpp:165] Memory required for data: 7667960028
I0315 11:58:16.079322 15573 layer_factory.hpp:77] Creating layer detection_eval
I0315 11:58:16.079331 15573 net.cpp:100] Creating Layer detection_eval
I0315 11:58:16.079342 15573 net.cpp:434] detection_eval <- detection_out
I0315 11:58:16.079349 15573 net.cpp:434] detection_eval <- label
I0315 11:58:16.079358 15573 net.cpp:408] detection_eval -> detection_eval
I0315 11:58:16.080149 15573 net.cpp:150] Setting up detection_eval
I0315 11:58:16.080158 15573 net.cpp:157] Top shape: 1 1 21 5 (105)
I0315 11:58:16.080162 15573 net.cpp:165] Memory required for data: 7667960448
I0315 11:58:16.080168 15573 net.cpp:228] detection_eval does not need backward computation.
I0315 11:58:16.080173 15573 net.cpp:228] detection_out does not need backward computation.
I0315 11:58:16.080180 15573 net.cpp:228] mbox_conf_flatten does not need backward computation.
I0315 11:58:16.080185 15573 net.cpp:228] mbox_conf_softmax does not need backward computation.
…
