…
      sampler {
        min_scale: 0.3
        max_scale: 1
        min_aspect_ratio: 0.5
        max_aspect_ratio: 2
      }
      sample_constraint {
        min_jaccard_overlap: 0.9
      }
      max_sample: 1
      max_trials: 50
    }
    batch_sampler {
      sampler {
        min_scale: 0.3
        max_scale: 1
        min_aspect_ratio: 0.5
        max_aspect_ratio: 2
      }
      sample_constraint {
        max_jaccard_overlap: 1
      }
      max_sample: 1
      max_trials: 50
    }
    label_map_file: "data/VOC0712/labelmap_voc.prototxt"
  }
}
layer {
  name: "conv1_1"
  type: "Convolution"
  bottom: "data"
  top: "conv1_1"
  param {
    lr_mult: 1
    decay_mult: 1
  }
  param {
    lr_mult: 2
    decay_mult: 0
  }
  convolution_param {
    num_output: 64
    pad: 1
    kernel_size: 3
    weight_filler {
      type: "xavier"
    }
    bias_filler {
      type: "constant"
      value: 0
    }
  }
}
layer {
  name: "relu1_1"
  type: "ReLU"
  bottom: "conv1_1"
  top: "conv1_1"
}
layer {
  name: "conv1_2"
  type: "Convolution"
  bottom: "conv1_1"
  top: "conv1_2"
  param {
    lr_mult: 1
    decay_mult: 1
  }
  param {
    lr_mult: 2
    decay_mult: 0
  }
  convolution_param {
    num_output: 64
    pad: 1
    kernel_size: 3
    weight_filler {
      type: "xavier"
    }
    bias_filler {
      type: "constant"
      value: 0
    }
  }
}
layer {
  name: "relu1_2"
  type: "ReLU"
  bottom: "conv1_2"
  top: "conv1_2"
}
layer {
  name: "pool1"
  type: "Pooling"
  bottom: "conv1_2"
  top: "pool1"
  pooling_param {
    pool: MAX
    kernel_size: 2
    stride: 2
  }
}
layer {
  name: "conv2_1"
  type: "Convolution"
  bottom: "pool1"
  top: "conv2_1"
  param {
    lr_mult: 1
    decay_mult: 1
  }
  param {
    lr_mult: 2
    decay_mult: 0
  }
  convolution_param {
    num_output: 128
    pad: 1
    kernel_size: 3
    weight_filler {
      type: "xavier"
    }
    bias_filler {
      type: "constant"
      value: 0
    }
  }
}
layer {
  name: "relu2_1"
  type: "ReLU"
  bottom: "conv2_1"
  top: "conv2_1"
}
layer {
  name: "conv2_2"
  type: "Convolution"
  bottom: "conv2_1"
  top: "conv2_2"
  param {
    lr_mult: 1
    decay_mult: 1
  }
  param {
    lr_mult: 2
    decay_mult: 0
  }
  convolution_param {
    num_output: 128
    pad: 1
    kernel_size: 3
    weight_filler {
      type: "xavier"
    }
    bias_filler {
      type: "constant"
      value: 0
    }
  }
}
layer {
  name: "relu2_2"
  type: "ReLU"
  bottom: "conv2_2"
  top: "conv2_2"
}
layer {
  name: "pool2"
  type: "Pooling"
  bottom: "conv2_2"
  top: "pool2"
  pooling_param {
    pool: MAX
    kernel_size: 2
    stride: 2
  }
}
layer {
  name: "conv3_1"
  type: "Convolution"
  bottom: "pool2"
  top: "conv3_1"
  param {
    lr_mult: 1
    decay_mult: 1
  }
  param {
    lr_mult: 2
    decay_mult: 0
  }
  convolution_param {
    num_output: 256
    pad: 1
    kernel_size: 3
    weight_filler {
      type: "xavier"
    }
    bias_filler {
      type: "constant"
      value: 0
    }
  }
}
layer {
  name: "relu3_1"
  type: "ReLU"
  bottom: "conv3_1"
  top: "conv3_1"
}
layer {
  name: "conv3_2"
  type: "Convolution"
  bottom: "conv3_1"
  top: "conv3_2"
  param {
    lr_mult: 1
    decay_mult: 1
  }
  param {
    lr_mult: 2
    decay_mult: 0
  }
  convolution_param {
    num_output: 256
    pad: 1
    kernel_size: 3
    weight_filler {
      type: "xavier"
    }
    bias_filler {
      type: "constant"
      value: 0
    }
  }
}
layer {
  name: "relu3_2"
  type: "ReLU"
  bottom: "conv3_2"
  top: "conv3_2"
}
layer {
  name: "conv3_3"
  type: "Convolution"
  bottom: "conv3_2"
  top: "conv3_3"
  param {
    lr_mult: 1
    decay_mult: 1
  }
  param {
    lr_mult: 2
    decay_mult: 0
  }
  convolution_param {
    num_output: 256
    pad: 1
    kernel_size: 3
    weight_filler {
      type: "xavier"
    }
    bias_filler {
      type: "constant"
      value: 0
    }
  }
}
layer {
  name: "relu3_3"
  type: "ReLU"
  bottom: "conv3_3"
  top: "conv3_3"
}
layer {
  name: "pool3"
  type: "Pooling"
  bottom: "conv3_3"
  top: "pool3"
  pooling_param {
    pool: MAX
    kernel_size: 2
    stride: 2
  }
}
layer {
  name: "conv4_1"
  type: "Convolution"
  bottom: "pool3"
  top: "conv4_1"
  param {
    lr_mult: 1
    decay_mult: 1
  }
  param {
    lr_mult: 2
    decay_mult: 0
  }
  convolution_param {
    num_output: 512
    pad: 1
    kernel_size: 3
    weight_filler {
      type: "xavier"
    }
    bias_filler {
      type: "constant"
      value: 0
    }
  }
}
layer {
  name: "relu4_1"
  type: "ReLU"
  bottom: "conv4_1"
  top: "conv4_1"
}
layer {
  name: "conv4_2"
  type: "Convolution"
  bottom: "conv4_1"
  top: "conv4_2"
  param {
    lr_mult: 1
    decay_mult: 1
  }
  param {
    lr_mult: 2
    decay_mult: 0
  }
  convolution_param {
    num_output: 512
    pad: 1
    kernel_size: 3
    weight_filler {
      type: "xavier"
    }
    bias_filler {
      type: "constant"
      value: 0
    }
  }
}
layer {
  name: "relu4_2"
  type: "ReLU"
  bottom: "conv4_2"
  top: "conv4_2"
}
layer {
  name: "conv4_3"
  type: "Convolution"
  bottom: "conv4_2"
  top: "conv4_3_ori"
  param {
    lr_mult: 1
    decay_mult: 1
  }
  param {
    lr_mult: 2
    decay_mult: 0
  }
  convolution_param {
    num_output: 512
    pad: 1
    kernel_size: 3
    weight_filler {
      type: "xavier"
    }
    bias_filler {
      type: "constant"
      value: 0
    }
  }
}
layer {
  name: "relu4_3"
  type: "ReLU"
  bottom: "conv4_3_ori"
  top: "conv4_3_ori"
}
layer {
  name: "seg_pool4"
  type: "Pooling"
  bottom: "conv4_3_ori"
  top: "seg_pool4"
  pooling_param {
    pool: MAX
    kernel_size: 3
    stride: 1
    pad: 1
  }
}
layer {
  name: "seg5_1"
  type: "Convolution"
  bottom: "seg_pool4"
  top: "seg5_1"
  param {
    lr_mult: 1
    decay_mult: 1
  }
  param {
    lr_mult: 2
    decay_mult: 0
  }
  convolution_param {
    num_output: 512
    pad: 2
    kernel_size: 3
    weight_filler {
      type: "xavier"
    }
    bias_filler {
      type: "constant"
      value: 0
    }
    dilation: 2
  }
}
layer {
  name: "seg_relu5_1"
  type: "ReLU"
  bottom: "seg5_1"
  top: "seg5_1"
}
layer {
  name: "seg5_2"
  type: "Convolution"
  bottom: "seg5_1"
  top: "seg5_2"
  param {
    lr_mult: 1
    decay_mult: 1
  }
  param {
    lr_mult: 2
    decay_mult: 0
  }
  convolution_param {
    num_output: 512
    pad: 2
    kernel_size: 3
    weight_filler {
      type: "xavier"
    }
    bias_filler {
      type: "constant"
      value: 0
    }
    dilation: 2
  }
}
layer {
  name: "seg_relu5_2"
  type: "ReLU"
  bottom: "seg5_2"
  top: "seg5_2"
}
layer {
  name: "seg5_3"
  type: "Convolution"
  bottom: "seg5_2"
  top: "seg5_3"
  param {
    lr_mult: 1
    decay_mult: 1
  }
  param {
    lr_mult: 2
    decay_mult: 0
  }
  convolution_param {
    num_output: 512
    pad: 2
    kernel_size: 3
    weight_filler {
      type: "xavier"
    }
    bias_filler {
      type: "constant"
      value: 0
    }
    dilation: 2
  }
}
layer {
  name: "seg_relu5_3"
  type: "ReLU"
  bottom: "seg5_3"
  top: "seg5_3"
}
layer {
  name: "seg_pool5"
  type: "Pooling"
  bottom: "seg5_3"
  top: "seg_pool5"
  pooling_param {
    pool: MAX
    kernel_size: 3
    stride: 1
    pad: 1
  }
}
layer {
  name: "seg6"
  type: "Convolution"
  bottom: "seg_pool5"
  top: "seg6"
  param {
    lr_mult: 1
    decay_mult: 1
  }
  param {
    lr_mult: 2
    decay_mult: 0
  }
  convolution_param {
    num_output: 1024
    pad: 4
    kernel_size: 3
    weight_filler {
      type: "xavier"
    }
    bias_filler {
      type: "constant"
      value: 0
    }
    dilation: 4
  }
}
layer {
  name: "seg_relu6"
  type: "ReLU"
  bottom: "seg6"
  top: "seg6"
}
layer {
  name: "seg_drop6"
  type: "Dropout"
  bottom: "seg6"
  top: "seg6"
  dropout_param {
    dropout_ratio: 0.5
  }
}
layer {
  name: "seg7"
  type: "Convolution"
  bottom: "seg6"
  top: "seg7"
  param {
    lr_mult: 1
    decay_mult: 1
  }
  param {
    lr_mult: 2
    decay_mult: 0
  }
  convolution_param {
    num_output: 1024
    kernel_size: 1
    weight_filler {
      type: "xavier"
    }
    bias_filler {
      type: "constant"
      value: 0
    }
  }
}
layer {
  name: "seg_relu7"
  type: "ReLU"
  bottom: "seg7"
  top: "seg7"
}
layer {
  name: "seg_drop7"
  type: "Dropout"
  bottom: "seg7"
  top: "seg7d"
  dropout_param {
    dropout_ratio: 0.5
  }
}
layer {
  name: "seg_new"
  type: "Convolution"
  bottom: "seg7d"
  top: "seg"
  param {
    lr_mult: 10
    decay_mult: 1
  }
  param {
    lr_mult: 20
    decay_mult: 0
  }
  convolution_param {
    num_output: 21
    kernel_size: 1
    weight_filler {
      type: "gaussian"
      std: 0.01
    }
    bias_filler {
      type: "constant"
      value: 0
    }
  }
}
layer {
  name: "seg_gt"
  type: "SegGt"
  bottom: "label"
  bottom: "seg"
  top: "seg_gt"
  seggt_param {
    background_label_id: 0
    use_difficult_gt: true
  }
}
layer {
  name: "seg_loss"
  type: "SoftmaxWithLoss"
  bottom: "seg"
  bottom: "seg_gt"
  top: "seg_loss"
  loss_weight: 0.1
  propagate_down: true
  propagate_down: false
  softmax_param {
    axis: 1
  }
}
layer {
  name: "seg_to_det_conv"
  type: "Convolution"
  bottom: "seg7"
  top: "seg_to_det_conv"
  param {
    lr_mult: 1
    decay_mult: 1
  }
  param {
    lr_mult: 2
    decay_mult: 0
  }
  convolution_param {
    num_output: 512
    pad: 0
    kernel_size: 1
    stride: 1
    weight_filler {
      type: "xavier"
    }
    bias_filler {
      type: "constant"
      value: 0
    }
  }
}
layer {
  name: "mult_conv4_3"
  type: "Eltwise"
  bottom: "conv4_3_ori"
  bottom: "seg_to_det_conv"
  top: "conv4_3_t"
  eltwise_param {
    operation: PROD
  }
}
layer {
  name: "conv4_3_s"
  type: "Pooling"
  bottom: "conv4_3_t"
  top: "conv4_3_s"
  pooling_param {
    pool: AVE
    global_pooling: true
  }
}
layer {
  name: "conv4_3_fc1"
  type: "Convolution"
  bottom: "conv4_3_s"
  top: "conv4_3_fc1"
  param {
    lr_mult: 1
    decay_mult: 1
  }
  param {
    lr_mult: 2
    decay_mult: 0
  }
  convolution_param {
    num_output: 128
    kernel_size: 1
    stride: 1
    weight_filler {
      type: "xavier"
    }
    bias_filler {
      type: "constant"
      value: 0
    }
  }
}
layer {
  name: "conv4_3_relu"
  type: "ReLU"
  bottom: "conv4_3_fc1"
  top: "conv4_3_fc1"
}
layer {
  name: "conv4_3_fc2"
  type: "Convolution"
  bottom: "conv4_3_fc1"
  top: "conv4_3_fc2"
  param {
    lr_mult: 1
    decay_mult: 1
  }
  param {
    lr_mult: 2
    decay_mult: 0
  }
  convolution_param {
    num_output: 512
    kernel_size: 1
    stride: 1
    weight_filler {
      type: "xavier"
    }
    bias_filler {
      type: "constant"
      value: 0
    }
  }
}
layer {
  name: "conv4_3_sig"
  type: "Sigmoid"
  bottom: "conv4_3_fc2"
  top: "conv4_3_fc2"
}
layer {
  name: "conv4_3_reshape"
  type: "Reshape"
  bottom: "conv4_3_fc2"
  top: "conv4_3_reshape"
  reshape_param {
    shape {
      dim: 0
      dim: 0
    }
  }
}
layer {
  name: "conv4_3_scale"
  type: "Scale"
  bottom: "conv4_3_t"
  bottom: "conv4_3_reshape"
  top: "conv4_3"
  scale_param {
    axis: 0
    bias_term: false
  }
}
layer {
  name: "pool4"
  type: "Pooling"
  bottom: "conv4_3"
  top: "pool4"
  pooling_param {
    pool: MAX
    kernel_size: 2
    stride: 2
  }
}
layer {
  name: "conv5_1"
  type: "Convolution"
  bottom: "pool4"
  top: "conv5_1"
  param {
    lr_mult: 1
    decay_mult: 1
  }
  param {
    lr_mult: 2
    decay_mult: 0
  }
  convolution_param {
    num_output: 512
    pad: 1
    kernel_size: 3
    weight_filler {
      type: "xavier"
    }
    bias_filler {
      type: "constant"
      value: 0
    }
    dilation: 1
  }
}
layer {
  name: "relu5_1"
  type: "ReLU"
  bottom: "conv5_1"
  top: "conv5_1"
}
layer {
  name: "conv5_2"
  type: "Convolution"
  bottom: "conv5_1"
  top: "conv5_2"
  param {
    lr_mult: 1
    decay_mult: 1
  }
  param {
    lr_mult: 2
    decay_mult: 0
  }
  convolution_param {
    num_output: 512
    pad: 1
    kernel_size: 3
    weight_filler {
      type: "xavier"
    }
    bias_filler {
      type: "constant"
      value: 0
    }
    dilation: 1
  }
}
layer {
  name: "relu5_2"
  type: "ReLU"
  bottom: "conv5_2"
  top: "conv5_2"
}
layer {
  name: "conv5_3"
  type: "Convolution"
  bottom: "conv5_2"
  top: "conv5_3"
  param {
    lr_mult: 1
    decay_mult: 1
  }
  param {
    lr_mult: 2
    decay_mult: 0
  }
  convolution_param {
    num_output: 512
    pad: 1
    kernel_size: 3
    weight_filler {
      type: "xavier"
    }
    bias_filler {
      type: "constant"
      value: 0
    }
    dilation: 1
  }
}
layer {
  name: "relu5_3"
  type: "ReLU"
  bottom: "conv5_3"
  top: "conv5_3"
}
layer {
  name: "pool5"
  type: "Pooling"
  bottom: "conv5_3"
  top: "pool5"
  pooling_param {
    pool: MAX
    kernel_size: 3
    stride: 1
    pad: 1
  }
}
layer {
  name: "fc6"
  type: "Convolution"
  bottom: "pool5"
  top: "fc6"
  param {
    lr_mult: 1
    decay_mult: 1
  }
  param {
    lr_mult: 2
    decay_mult: 0
  }
  convolution_param {
    num_output: 1024
    pad: 6
    kernel_size: 3
    weight_filler {
      type: "xavier"
    }
    bias_filler {
      type: "constant"
      value: 0
    }
    dilation: 6
  }
}
layer {
  name: "relu6"
  type: "ReLU"
  bottom: "fc6"
  top: "fc6"
}
layer {
  name: "fc7"
  type: "Convolution"
  bottom: "fc6"
  top: "fc7_t"
  param {
    lr_mult: 1
    decay_mult: 1
  }
  param {
    lr_mult: 2
    decay_mult: 0
  }
  convolution_param {
    num_output: 1024
    kernel_size: 1
    weight_filler {
      type: "xavier"
    }
    bias_filler {
      type: "constant"
      value: 0
    }
  }
}
layer {
  name: "relu7"
  type: "ReLU"
  bottom: "fc7_t"
  top: "fc7_t"
}
layer {
  name: "fc7_s"
  type: "Pooling"
  bottom: "fc7_t"
  top: "fc7_s"
  pooling_param {
    pool: AVE
    global_pooling: true
  }
}
layer {
  name: "fc7_fc1"
  type: "Convolution"
  bottom: "fc7_s"
  top: "fc7_fc1"
  param {
    lr_mult: 1
    decay_mult: 1
  }
  param {
    lr_mult: 2
    decay_mult: 0
  }
  convolution_param {
    num_output: 256
    kernel_size: 1
    stride: 1
    weight_filler {
      type: "xavier"
    }
    bias_filler {
      type: "constant"
      value: 0
    }
  }
}
layer {
  name: "fc7_relu"
  type: "ReLU"
  bottom: "fc7_fc1"
  top: "fc7_fc1"
}
layer {
  name: "fc7_fc2"
  type: "Convolution"
  bottom: "fc7_fc1"
  top: "fc7_fc2"
  param {
    lr_mult: 1
    decay_mult: 1
  }
  param {
    lr_mult: 2
    decay_mult: 0
  }
  convolution_param {
    num_output: 1024
    kernel_size: 1
    stride: 1
    weight_filler {
      type: "xavier"
    }
    bias_filler {
      type: "constant"
      value: 0
    }
  }
}
layer {
  name: "fc7_sig"
  type: "Sigmoid"
  bottom: "fc7_fc2"
  top: "fc7_fc2"
}
layer {
  name: "fc7_reshape"
  type: "Reshape"
  bottom: "fc7_fc2"
  top: "fc7_reshape"
  reshape_param {
    shape {
      dim: 0
      dim: 0
    }
  }
}
layer {
  name: "fc7_scale"
  type: "Scale"
  bottom: "fc7_t"
  bottom: "fc7_reshape"
  top: "fc7"
  scale_param {
    axis: 0
    bias_term: false
  }
}
layer {
  name: "conv6_1"
  type: "Convolution"
  bottom: "fc7"
  top: "conv6_1"
  param {
    lr_mult: 1
    decay_mult: 1
  }
  param {
    lr_mult: 2
    decay_mult: 0
  }
  convolution_param {
    num_output: 256
    pad: 0
    kernel_size: 1
    stride: 1
    weight_filler {
      type: "xavier"
    }
    bias_filler {
      type: "constant"
      value: 0
    }
  }
}
layer {
  name: "conv6_1_relu"
  type: "ReLU"
  bottom: "conv6_1"
  top: "conv6_1"
}
layer {
  name: "conv6_2"
  type: "Convolution"
  bottom: "conv6_1"
  top: "conv6_2_t"
  param {
    lr_mult: 1
    decay_mult: 1
  }
  param {
    lr_mult: 2
    decay_mult: 0
  }
  convolution_param {
    num_output: 512
    pad: 1
    kernel_size: 3
    stride: 2
    weight_filler {
      type: "xavier"
    }
    bias_filler {
      type: "constant"
      value: 0
    }
  }
}
layer {
  name: "conv6_2_relu"
  type: "ReLU"
  bottom: "conv6_2_t"
  top: "conv6_2_t"
}
layer {
  name: "conv6_2_s"
  type: "Pooling"
  bottom: "conv6_2_t"
  top: "conv6_2_s"
  pooling_param {
    pool: AVE
    global_pooling: true
  }
}
layer {
  name: "conv6_2_fc1"
  type: "Convolution"
  bottom: "conv6_2_s"
  top: "conv6_2_fc1"
  param {
    lr_mult: 1
    decay_mult: 1
  }
  param {
    lr_mult: 2
    decay_mult: 0
  }
  convolution_param {
    num_output: 128
    kernel_size: 1
    stride: 1
    weight_filler {
      type: "xavier"
    }
    bias_filler {
      type: "constant"
      value: 0
    }
  }
}
layer {
  name: "conv6_2_relu"
  type: "ReLU"
  bottom: "conv6_2_fc1"
  top: "conv6_2_fc1"
}
layer {
  name: "conv6_2_fc2"
  type: "Convolution"
  bottom: "conv6_2_fc1"
  top: "conv6_2_fc2"
  param {
    lr_mult: 1
    decay_mult: 1
  }
  param {
    lr_mult: 2
    decay_mult: 0
  }
  convolution_param {
    num_output: 512
    kernel_size: 1
    stride: 1
    weight_filler {
      type: "xavier"
    }
    bias_filler {
      type: "constant"
      value: 0
    }
  }
}
layer {
  name: "conv6_2_sig"
  type: "Sigmoid"
  bottom: "conv6_2_fc2"
  top: "conv6_2_fc2"
}
layer {
  name: "conv6_2_reshape"
  type: "Reshape"
  bottom: "conv6_2_fc2"
  top: "conv6_2_reshape"
  reshape_param {
    shape {
      dim: 0
      dim: 0
    }
  }
}
layer {
  name: "conv6_2_scale"
  type: "Scale"
  bottom: "conv6_2_t"
  bottom: "conv6_2_reshape"
  top: "conv6_2"
  scale_param {
    axis: 0
    bias_term: false
  }
}
layer {
  name: "conv7_1"
  type: "Convolution"
  bottom: "conv6_2"
  top: "conv7_1"
  param {
    lr_mult: 1
    decay_mult: 1
  }
  param {
    lr_mult: 2
    decay_mult: 0
  }
  convolution_param {
    num_output: 128
    pad: 0
    kernel_size: 1
    stride: 1
    weight_filler {
      type: "xavier"
    }
    bias_filler {
      type: "constant"
      value: 0
    }
  }
}
layer {
  name: "conv7_1_relu"
  type: "ReLU"
  bottom: "conv7_1"
  top: "conv7_1"
}
layer {
  name: "conv7_2"
  type: "Convolution"
  bottom: "conv7_1"
  top: "conv7_2_t"
  param {
    lr_mult: 1
    decay_mult: 1
  }
  param {
    lr_mult: 2
    decay_mult: 0
  }
  convolution_param {
    num_output: 256
    pad: 1
    kernel_size: 3
    stride: 2
    weight_filler {
      type: "xavier"
    }
    bias_filler {
      type: "constant"
      value: 0
    }
  }
}
layer {
  name: "conv7_2_relu"
  type: "ReLU"
  bottom: "conv7_2_t"
  top: "conv7_2_t"
}
layer {
  name: "conv7_2_s"
  type: "Pooling"
  bottom: "conv7_2_t"
  top: "conv7_2_s"
  pooling_param {
    pool: AVE
    global_pooling: true
  }
}
layer {
  name: "conv7_2_fc1"
  type: "Convolution"
  bottom: "conv7_2_s"
  top: "conv7_2_fc1"
  param {
    lr_mult: 1
    decay_mult: 1
  }
  param {
    lr_mult: 2
    decay_mult: 0
  }
  convolution_param {
    num_output: 64
    kernel_size: 1
    stride: 1
    weight_filler {
      type: "xavier"
    }
    bias_filler {
      type: "constant"
      value: 0
    }
  }
}
layer {
  name: "conv7_2_relu"
  type: "ReLU"
  bottom: "conv7_2_fc1"
  top: "conv7_2_fc1"
}
layer {
  name: "conv7_2_fc2"
  type: "Convolution"
  bottom: "conv7_2_fc1"
  top: "conv7_2_fc2"
  param {
    lr_mult: 1
    decay_mult: 1
  }
  param {
    lr_mult: 2
    decay_mult: 0
  }
  convolution_param {
    num_output: 256
    kernel_size: 1
    stride: 1
    weight_filler {
      type: "xavier"
    }
    bias_filler {
      type: "constant"
      value: 0
    }
  }
}
layer {
  name: "conv7_2_sig"
  type: "Sigmoid"
  bottom: "conv7_2_fc2"
  top: "conv7_2_fc2"
}
layer {
  name: "conv7_2_reshape"
  type: "Reshape"
  bottom: "conv7_2_fc2"
  top: "conv7_2_reshape"
  reshape_param {
    shape {
      dim: 0
      dim: 0
    }
  }
}
layer {
  name: "conv7_2_scale"
  type: "Scale"
  bottom: "conv7_2_t"
  bottom: "conv7_2_reshape"
  top: "conv7_2"
  scale_param {
    axis: 0
    bias_term: false
  }
}
layer {
  name: "conv8_1"
  type: "Convolution"
  bottom: "conv7_2"
  top: "conv8_1"
  param {
    lr_mult: 1
    decay_mult: 1
  }
  param {
    lr_mult: 2
    decay_mult: 0
  }
  convolution_param {
    num_output: 128
    pad: 0
    kernel_size: 1
    stride: 1
    weight_filler {
      type: "xavier"
    }
    bias_filler {
      type: "constant"
      value: 0
    }
  }
}
layer {
  name: "conv8_1_relu"
  type: "ReLU"
  bottom: "conv8_1"
  top: "conv8_1"
}
layer {
  name: "conv8_2"
  type: "Convolution"
  bottom: "conv8_1"
  top: "conv8_2_t"
  param {
    lr_mult: 1
    decay_mult: 1
  }
  param {
    lr_mult: 2
    decay_mult: 0
  }
  convolution_param {
    num_output: 256
    pad: 1
    kernel_size: 3
    stride: 2
    weight_filler {
      type: "xavier"
    }
    bias_filler {
      type: "constant"
      value: 0
    }
  }
}
layer {
  name: "conv8_2_relu"
  type: "ReLU"
  bottom: "conv8_2_t"
  top: "conv8_2_t"
}
layer {
  name: "conv8_2_s"
  type: "Pooling"
  bottom: "conv8_2_t"
  top: "conv8_2_s"
  pooling_param {
    pool: AVE
    global_pooling: true
  }
}
layer {
  name: "conv8_2_fc1"
  type: "Convolution"
  bottom: "conv8_2_s"
  top: "conv8_2_fc1"
  param {
    lr_mult: 1
    decay_mult: 1
  }
  param {
    lr_mult: 2
    decay_mult: 0
  }
  convolution_param {
    num_output: 64
    kernel_size: 1
    stride: 1
    weight_filler {
      type: "xavier"
    }
    bias_filler {
      type: "constant"
      value: 0
    }
  }
}
layer {
  name: "conv8_2_relu"
  type: "ReLU"
  bottom: "conv8_2_fc1"
  top: "conv8_2_fc1"
}
layer {
  name: "conv8_2_fc2"
  type: "Convolution"
  bottom: "conv8_2_fc1"
  top: "conv8_2_fc2"
  param {
    lr_mult: 1
    decay_mult: 1
  }
  param {
    lr_mult: 2
    decay_mult: 0
  }
  convolution_param {
    num_output: 256
    kernel_size: 1
    stride: 1
    weight_filler {
      type: "xavier"
    }
    bias_filler {
      type: "constant"
      value: 0
    }
  }
}
layer {
  name: "conv8_2_sig"
  type: "Sigmoid"
  bottom: "conv8_2_fc2"
  top: "conv8_2_fc2"
}
layer {
  name: "conv8_2_reshape"
  type: "Reshape"
  bottom: "conv8_2_fc2"
  top: "conv8_2_reshape"
  reshape_param {
    shape {
      dim: 0
      dim: 0
    }
  }
}
layer {
  name: "conv8_2_scale"
  type: "Scale"
  bottom: "conv8_2_t"
  bottom: "conv8_2_reshape"
  top: "conv8_2"
  scale_param {
    axis: 0
    bias_term: false
  }
}
layer {
  name: "conv9_1"
  type: "Convolution"
  bottom: "conv8_2"
  top: "conv9_1"
  param {
    lr_mult: 1
    decay_mult: 1
  }
  param {
    lr_mult: 2
    decay_mult: 0
  }
  convolution_param {
    num_output: 128
    pad: 0
    kernel_size: 1
    stride: 1
    weight_filler {
      type: "xavier"
    }
    bias_filler {
      type: "constant"
      value: 0
    }
  }
}
layer {
  name: "conv9_1_relu"
  type: "ReLU"
  bottom: "conv9_1"
  top: "conv9_1"
}
layer {
  name: "conv9_2"
  type: "Convolution"
  bottom: "conv9_1"
  top: "conv9_2_t"
  param {
    lr_mult: 1
    decay_mult: 1
  }
  param {
    lr_mult: 2
    decay_mult: 0
  }
  convolution_param {
    num_output: 256
    pad: 1
    kernel_size: 3
    stride: 2
    weight_filler {
      type: "xavier"
    }
    bias_filler {
      type: "constant"
      value: 0
    }
  }
}
layer {
  name: "conv9_2_relu"
  type: "ReLU"
  bottom: "conv9_2_t"
  top: "conv9_2_t"
}
layer {
  name: "conv9_2_s"
  type: "Pooling"
  bottom: "conv9_2_t"
  top: "conv9_2_s"
  pooling_param {
    pool: AVE
    global_pooling: true
  }
}
layer {
  name: "conv9_2_fc1"
  type: "Convolution"
  bottom: "conv9_2_s"
  top: "conv9_2_fc1"
  param {
    lr_mult: 1
    decay_mult: 1
  }
  param {
    lr_mult: 2
    decay_mult: 0
  }
  convolution_param {
    num_output: 64
    kernel_size: 1
    stride: 1
    weight_filler {
      type: "xavier"
    }
    bias_filler {
      type: "constant"
      value: 0
    }
  }
}
layer {
  name: "conv9_2_relu"
  type: "ReLU"
  bottom: "conv9_2_fc1"
  top: "conv9_2_fc1"
}
layer {
  name: "conv9_2_fc2"
  type: "Convolution"
  bottom: "conv9_2_fc1"
  top: "conv9_2_fc2"
  param {
    lr_mult: 1
    decay_mult: 1
  }
  param {
    lr_mult: 2
    decay_mult: 0
  }
  convolution_param {
    num_output: 256
    kernel_size: 1
    stride: 1
    weight_filler {
      type: "xavier"
    }
    bias_filler {
      type: "constant"
      value: 0
    }
  }
}
layer {
  name: "conv9_2_sig"
  type: "Sigmoid"
  bottom: "conv9_2_fc2"
  top: "conv9_2_fc2"
}
layer {
  name: "conv9_2_reshape"
  type: "Reshape"
  bottom: "conv9_2_fc2"
  top: "conv9_2_reshape"
  reshape_param {
    shape {
      dim: 0
      dim: 0
    }
  }
}
layer {
  name: "conv9_2_scale"
  type: "Scale"
  bottom: "conv9_2_t"
  bottom: "conv9_2_reshape"
  top: "conv9_2"
  scale_param {
    axis: 0
    bias_term: false
  }
}
layer {
  name: "conv10_1"
  type: "Convolution"
  bottom: "conv9_2"
  top: "conv10_1"
  param {
    lr_mult: 1
    decay_mult: 1
  }
  param {
    lr_mult: 2
    decay_mult: 0
  }
  convolution_param {
    num_output: 128
    pad: 0
    kernel_size: 1
    stride: 1
    weight_filler {
      type: "xavier"
    }
    bias_filler {
      type: "constant"
      value: 0
    }
  }
}
layer {
  name: "conv10_1_relu"
  type: "ReLU"
  bottom: "conv10_1"
  top: "conv10_1"
}
layer {
  name: "conv10_2"
  type: "Convolution"
  bottom: "conv10_1"
  top: "conv10_2_t"
  param {
    lr_mult: 1
    decay_mult: 1
  }
  param {
    lr_mult: 2
    decay_mult: 0
  }
  convolution_param {
    num_output: 256
    pad: 1
    kernel_size: 4
    stride: 1
    weight_filler {
      type: "xavier"
    }
    bias_filler {
      type: "constant"
      value: 0
    }
  }
}
layer {
  name: "conv10_2_relu"
  type: "ReLU"
  bottom: "conv10_2_t"
  top: "conv10_2_t"
}
layer {
  name: "conv10_2_s"
  type: "Pooling"
  bottom: "conv10_2_t"
  top: "conv10_2_s"
  pooling_param {
    pool: AVE
    global_pooling: true
  }
}
layer {
  name: "conv10_2_fc1"
  type: "Convolution"
  bottom: "conv10_2_s"
  top: "conv10_2_fc1"
  param {
    lr_mult: 1
    decay_mult: 1
  }
  param {
    lr_mult: 2
    decay_mult: 0
  }
  convolution_param {
    num_output: 64
    kernel_size: 1
    stride: 1
    weight_filler {
      type: "xavier"
    }
    bias_filler {
      type: "constant"
      value: 0
    }
  }
}
layer {
  name: "conv10_2_relu"
  type: "ReLU"
  bottom: "conv10_2_fc1"
  top: "conv10_2_fc1"
}
layer {
  name: "conv10_2_fc2"
  type: "Convolution"
  bottom: "conv10_2_fc1"
  top: "conv10_2_fc2"
  param {
    lr_mult: 1
    decay_mult: 1
  }
  param {
    lr_mult: 2
    decay_mult: 0
  }
  convolution_param {
    num_output: 256
    kernel_size: 1
    stride: 1
    weight_filler {
      type: "xavier"
    }
    bias_filler {
      type: "constant"
      value: 0
    }
  }
}
layer {
  name: "conv10_2_sig"
  type: "Sigmoid"
  bottom: "conv10_2_fc2"
  top: "conv10_2_fc2"
}
layer {
  name: "conv10_2_reshape"
  type: "Reshape"
  bottom: "conv10_2_fc2"
  top: "conv10_2_reshape"
  reshape_param {
    shape {
      dim: 0
      dim: 0
    }
  }
}
layer {
  name: "conv10_2_scale"
  type: "Scale"
  bottom: "conv10_2_t"
  bottom: "conv10_2_reshape"
  top: "conv10_2"
  scale_param {
    axis: 0
    bias_term: false
  }
}
layer {
  name: "conv4_3_norm"
  type: "Normalize"
  bottom: "conv4_3"
  top: "conv4_3_norm"
  norm_param {
    across_spatial: false
    scale_filler {
      type: "constant"
      value: 20
    }
    channel_shared: false
  }
}
layer {
  name: "conv4_3_norm_mbox_loc"
  type: "Convolution"
  bottom: "conv4_3_norm"
  top: "conv4_3_norm_mbox_loc"
  param {
    lr_mult: 1
    decay_mult: 1
  }
  param {
    lr_mult: 2
    decay_mult: 0
  }
  convolution_param {
    num_output: 16
    pad: 1
    kernel_size: 3
    stride: 1
    weight_filler {
      type: "xavier"
    }
    bias_filler {
      type: "constant"
      value: 0
    }
  }
}
layer {
  name: "conv4_3_norm_mbox_loc_perm"
  type: "Permute"
  bottom: "conv4_3_norm_mbox_loc"
  top: "conv4_3_norm_mbox_loc_perm"
  permute_param {
    order: 0
    order: 2
    order: 3
    order: 1
  }
}
layer {
  nam
I0317 14:49:43.110059 16302 layer_factory.hpp:77] Creating layer data
I0317 14:49:43.110436 16302 net.cpp:100] Creating Layer data
I0317 14:49:43.110463 16302 net.cpp:408] data -> data
I0317 14:49:43.110496 16302 net.cpp:408] data -> label
I0317 14:49:43.112236 16308 db_lmdb.cpp:35] Opened lmdb examples/VOC0712/VOC0712_trainval_lmdb
I0317 14:49:43.123682 16302 annotated_data_layer.cpp:62] output data size: 8,3,512,512
I0317 14:49:43.152918 16302 net.cpp:150] Setting up data
I0317 14:49:43.152945 16302 net.cpp:157] Top shape: 8 3 512 512 (6291456)
I0317 14:49:43.152951 16302 net.cpp:157] Top shape: 1 1 22 8 (176)
I0317 14:49:43.152954 16302 net.cpp:165] Memory required for data: 25166528
I0317 14:49:43.152967 16302 layer_factory.hpp:77] Creating layer data_data_0_split
I0317 14:49:43.152987 16302 net.cpp:100] Creating Layer data_data_0_split
I0317 14:49:43.152994 16302 net.cpp:434] data_data_0_split <- data
I0317 14:49:43.153014 16302 net.cpp:408] data_data_0_split -> data_data_0_split_0
I0317 14:49:43.153031 16302 net.cpp:408] data_data_0_split -> data_data_0_split_1
I0317 14:49:43.153039 16302 net.cpp:408] data_data_0_split -> data_data_0_split_2
I0317 14:49:43.153044 16302 net.cpp:408] data_data_0_split -> data_data_0_split_3
I0317 14:49:43.153053 16302 net.cpp:408] data_data_0_split -> data_data_0_split_4
I0317 14:49:43.153060 16302 net.cpp:408] data_data_0_split -> data_data_0_split_5
I0317 14:49:43.153067 16302 net.cpp:408] data_data_0_split -> data_data_0_split_6
I0317 14:49:43.153074 16302 net.cpp:408] data_data_0_split -> data_data_0_split_7
I0317 14:49:43.153169 16302 net.cpp:150] Setting up data_data_0_split
I0317 14:49:43.153177 16302 net.cpp:157] Top shape: 8 3 512 512 (6291456)
I0317 14:49:43.153182 16302 net.cpp:157] Top shape: 8 3 512 512 (6291456)
I0317 14:49:43.153203 16302 net.cpp:157] Top shape: 8 3 512 512 (6291456)
I0317 14:49:43.153209 16302 net.cpp:157] Top shape: 8 3 512 512 (6291456)
I0317 14:49:43.153214 16302 net.cpp:157] Top shape: 8 3 512 512 (6291456)
I0317 14:49:43.153220 16302 net.cpp:157] Top shape: 8 3 512 512 (6291456)
I0317 14:49:43.153228 16302 net.cpp:157] Top shape: 8 3 512 512 (6291456)
I0317 14:49:43.153231 16302 net.cpp:157] Top shape: 8 3 512 512 (6291456)
I0317 14:49:43.153235 16302 net.cpp:165] Memory required for data: 226493120
I0317 14:49:43.153241 16302 layer_factory.hpp:77] Creating layer label_data_1_split
I0317 14:49:43.153252 16302 net.cpp:100] Creating Layer label_data_1_split
I0317 14:49:43.153257 16302 net.cpp:434] label_data_1_split <- label
I0317 14:49:43.153264 16302 net.cpp:408] label_data_1_split -> label_data_1_split_0
I0317 14:49:43.153270 16302 net.cpp:408] label_data_1_split -> label_data_1_split_1
I0317 14:49:43.153301 16302 net.cpp:150] Setting up label_data_1_split
I0317 14:49:43.153308 16302 net.cpp:157] Top shape: 1 1 22 8 (176)
I0317 14:49:43.153313 16302 net.cpp:157] Top shape: 1 1 22 8 (176)
I0317 14:49:43.153322 16302 net.cpp:165] Memory required for data: 226494528
I0317 14:49:43.153327 16302 layer_factory.hpp:77] Creating layer conv1_1
I0317 14:49:43.153347 16302 net.cpp:100] Creating Layer conv1_1
I0317 14:49:43.153352 16302 net.cpp:434] conv1_1 <- data_data_0_split_0
I0317 14:49:43.153359 16302 net.cpp:408] conv1_1 -> conv1_1
I0317 14:49:43.189944 16309 blocking_queue.cpp:50] Waiting for data
I0317 14:49:43.533771 16302 net.cpp:150] Setting up conv1_1
I0317 14:49:43.533797 16302 net.cpp:157] Top shape: 8 64 512 512 (134217728)
I0317 14:49:43.533802 16302 net.cpp:165] Memory required for data: 763365440
I0317 14:49:43.533819 16302 layer_factory.hpp:77] Creating layer relu1_1
I0317 14:49:43.533833 16302 net.cpp:100] Creating Layer relu1_1
I0317 14:49:43.533838 16302 net.cpp:434] relu1_1 <- conv1_1
I0317 14:49:43.533849 16302 net.cpp:395] relu1_1 -> conv1_1 (in-place)
I0317 14:49:43.534004 16302 net.cpp:150] Setting up relu1_1
I0317 14:49:43.534013 16302 net.cpp:157] Top shape: 8 64 512 512 (134217728)
I0317 14:49:43.534018 16302 net.cpp:165] Memory required for data: 1300236352
I0317 14:49:43.534023 16302 layer_factory.hpp:77] Creating layer conv1_2
I0317 14:49:43.534034 16302 net.cpp:100] Creating Layer conv1_2
I0317 14:49:43.534041 16302 net.cpp:434] conv1_2 <- conv1_1
I0317 14:49:43.534047 16302 net.cpp:408] conv1_2 -> conv1_2
I0317 14:49:43.535908 16302 net.cpp:150] Setting up conv1_2
I0317 14:49:43.535920 16302 net.cpp:157] Top shape: 8 64 512 512 (134217728)
I0317 14:49:43.535924 16302 net.cpp:165] Memory required for data: 1837107264
I0317 14:49:43.535933 16302 layer_factory.hpp:77] Creating layer relu1_2
I0317 14:49:43.535941 16302 net.cpp:100] Creating Layer relu1_2
I0317 14:49:43.535945 16302 net.cpp:434] relu1_2 <- conv1_2
I0317 14:49:43.535953 16302 net.cpp:395] relu1_2 -> conv1_2 (in-place)
I0317 14:49:43.536085 16302 net.cpp:150] Setting up relu1_2
I0317 14:49:43.536097 16302 net.cpp:157] Top shape: 8 64 512 512 (134217728)
I0317 14:49:43.536101 16302 net.cpp:165] Memory required for data: 2373978176
I0317 14:49:43.536106 16302 layer_factory.hpp:77] Creating layer pool1
I0317 14:49:43.536113 16302 net.cpp:100] Creating Layer pool1
I0317 14:49:43.536118 16302 net.cpp:434] pool1 <- conv1_2
I0317 14:49:43.536125 16302 net.cpp:408] pool1 -> pool1
I0317 14:49:43.536165 16302 net.cpp:150] Setting up pool1
I0317 14:49:43.536171 16302 net.cpp:157] Top shape: 8 64 256 256 (33554432)
I0317 14:49:43.536175 16302 net.cpp:165] Memory required for data: 2508195904
I0317 14:49:43.536178 16302 layer_factory.hpp:77] Creating layer conv2_1
I0317 14:49:43.536188 16302 net.cpp:100] Creating Layer conv2_1
I0317 14:49:43.536192 16302 net.cpp:434] conv2_1 <- pool1
I0317 14:49:43.536198 16302 net.cpp:408] conv2_1 -> conv2_1
I0317 14:49:43.538355 16302 net.cpp:150] Setting up conv2_1
I0317 14:49:43.538367 16302 net.cpp:157] Top shape: 8 128 256 256 (67108864)
I0317 14:49:43.538370 16302 net.cpp:165] Memory required for data: 2776631360
I0317 14:49:43.538398 16302 layer_factory.hpp:77] Creating layer relu2_1
I0317 14:49:43.538403 16302 net.cpp:100] Creating Layer relu2_1
I0317 14:49:43.538409 16302 net.cpp:434] relu2_1 <- conv2_1
I0317 14:49:43.538417 16302 net.cpp:395] relu2_1 -> conv2_1 (in-place)
I0317 14:49:43.538839 16302 net.cpp:150] Setting up relu2_1
I0317 14:49:43.538851 16302 net.cpp:157] Top shape: 8 128 256 256 (67108864)
I0317 14:49:43.538854 16302 net.cpp:165] Memory required for data: 3045066816
I0317 14:49:43.538858 16302 layer_factory.hpp:77] Creating layer conv2_2
I0317 14:49:43.538866 16302 net.cpp:100] Creating Layer conv2_2
I0317 14:49:43.538872 16302 net.cpp:434] conv2_2 <- conv2_1
I0317 14:49:43.538878 16302 net.cpp:408] conv2_2 -> conv2_2
I0317 14:49:43.540611 16302 net.cpp:150] Setting up conv2_2
I0317 14:49:43.540622 16302 net.cpp:157] Top shape: 8 128 256 256 (67108864)
I0317 14:49:43.540626 16302 net.cpp:165] Memory required for data: 3313502272
I0317 14:49:43.540633 16302 layer_factory.hpp:77] Creating layer relu2_2
I0317 14:49:43.540642 16302 net.cpp:100] Creating Layer relu2_2
I0317 14:49:43.540647 16302 net.cpp:434] relu2_2 <- conv2_2
I0317 14:49:43.540654 16302 net.cpp:395] relu2_2 -> conv2_2 (in-place)
I0317 14:49:43.540809 16302 net.cpp:150] Setting up relu2_2
I0317 14:49:43.540817 16302 net.cpp:157] Top shape: 8 128 256 256 (67108864)
I0317 14:49:43.540822 16302 net.cpp:165] Memory required for data: 3581937728
I0317 14:49:43.540825 16302 layer_factory.hpp:77] Creating layer pool2
I0317 14:49:43.540832 16302 net.cpp:100] Creating Layer pool2
I0317 14:49:43.540838 16302 net.cpp:434] pool2 <- conv2_2
I0317 14:49:43.540844 16302 net.cpp:408] pool2 -> pool2
I0317 14:49:43.540881 16302 net.cpp:150] Setting up pool2
I0317 14:49:43.540889 16302 net.cpp:157] Top shape: 8 128 128 128 (16777216)
I0317 14:49:43.540892 16302 net.cpp:165] Memory required for data: 3649046592
I0317 14:49:43.540896 16302 layer_factory.hpp:77] Creating layer conv3_1
I0317 14:49:43.540904 16302 net.cpp:100] Creating Layer conv3_1
I0317 14:49:43.540910 16302 net.cpp:434] conv3_1 <- pool2
I0317 14:49:43.540915 16302 net.cpp:408] conv3_1 -> conv3_1
I0317 14:49:43.543944 16302 net.cpp:150] Setting up conv3_1
I0317 14:49:43.543956 16302 net.cpp:157] Top shape: 8 256 128 128 (33554432)
I0317 14:49:43.543959 16302 net.cpp:165] Memory required for data: 3783264320
I0317 14:49:43.543969 16302 layer_factory.hpp:77] Creating layer relu3_1
I0317 14:49:43.543978 16302 net.cpp:100] Creating Layer relu3_1
I0317 14:49:43.543982 16302 net.cpp:434] relu3_1 <- conv3_1
I0317 14:49:43.543989 16302 net.cpp:395] relu3_1 -> conv3_1 (in-place)
I0317 14:49:43.544142 16302 net.cpp:150] Setting up relu3_1
I0317 14:49:43.544152 16302 net.cpp:157] Top shape: 8 256 128 128 (33554432)
I0317 14:49:43.544154 16302 net.cpp:165] Memory required for data: 3917482048
I0317 14:49:43.544157 16302 layer_factory.hpp:77] Creating layer conv3_2
I0317 14:49:43.544167 16302 net.cpp:100] Creating Layer conv3_2
I0317 14:49:43.544172 16302 net.cpp:434] conv3_2 <- conv3_1
I0317 14:49:43.544176 16302 net.cpp:408] conv3_2 -> conv3_2
I0317 14:49:43.548435 16302 net.cpp:150] Setting up conv3_2
I0317 14:49:43.548447 16302 net.cpp:157] Top shape: 8 256 128 128 (33554432)
I0317 14:49:43.548451 16302 net.cpp:165] Memory required for data: 4051699776
I0317 14:49:43.548457 16302 layer_factory.hpp:77] Creating layer relu3_2
I0317 14:49:43.548468 16302 net.cpp:100] Creating Layer relu3_2
I0317 14:49:43.548473 16302 net.cpp:434] relu3_2 <- conv3_2
I0317 14:49:43.548483 16302 net.cpp:395] relu3_2 -> conv3_2 (in-place)
I0317 14:49:43.548918 16302 net.cpp:150] Setting up relu3_2
I0317 14:49:43.548929 16302 net.cpp:157] Top shape: 8 256 128 128 (33554432)
I0317 14:49:43.548933 16302 net.cpp:165] Memory required for data: 4185917504
I0317 14:49:43.548938 16302 layer_factory.hpp:77] Creating layer conv3_3
I0317 14:49:43.548946 16302 net.cpp:100] Creating Layer conv3_3
I0317 14:49:43.548952 16302 net.cpp:434] conv3_3 <- conv3_2
I0317 14:49:43.548957 16302 net.cpp:408] conv3_3 -> conv3_3
I0317 14:49:43.553262 16302 net.cpp:150] Setting up conv3_3
I0317 14:49:43.553274 16302 net.cpp:157] Top shape: 8 256 128 128 (33554432)
I0317 14:49:43.553278 16302 net.cpp:165] Memory required for data: 4320135232
I0317 14:49:43.553284 16302 layer_factory.hpp:77] Creating layer relu3_3
I0317 14:49:43.553294 16302 net.cpp:100] Creating Layer relu3_3
I0317 14:49:43.553298 16302 net.cpp:434] relu3_3 <- conv3_3
I0317 14:49:43.553303 16302 net.cpp:395] relu3_3 -> conv3_3 (in-place)
I0317 14:49:43.553463 16302 net.cpp:150] Setting up relu3_3
I0317 14:49:43.553472 16302 net.cpp:157] Top shape: 8 256 128 128 (33554432)
I0317 14:49:43.553475 16302 net.cpp:165] Memory required for data: 4454352960
I0317 14:49:43.553479 16302 layer_factory.hpp:77] Creating layer pool3
I0317 14:49:43.553486 16302 net.cpp:100] Creating Layer pool3
I0317 14:49:43.553493 16302 net.cpp:434] pool3 <- conv3_3
I0317 14:49:43.553500 16302 net.cpp:408] pool3 -> pool3
I0317 14:49:43.553539 16302 net.cpp:150] Setting up pool3
I0317 14:49:43.553546 16302 net.cpp:157] Top shape: 8 256 64 64 (8388608)
I0317 14:49:43.553550 16302 net.cpp:165] Memory required for data: 4487907392
I0317 14:49:43.553552 16302 layer_factory.hpp:77] Creating layer conv4_1
I0317 14:49:43.553560 16302 net.cpp:100] Creating Layer conv4_1
I0317 14:49:43.553565 16302 net.cpp:434] conv4_1 <- pool3
I0317 14:49:43.553571 16302 net.cpp:408] conv4_1 -> conv4_1
I0317 14:49:43.561357 16302 net.cpp:150] Setting up conv4_1
I0317 14:49:43.561370 16302 net.cpp:157] Top shape: 8 512 64 64 (16777216)
I0317 14:49:43.561373 16302 net.cpp:165] Memory required for data: 4555016256
I0317 14:49:43.561381 16302 layer_factory.hpp:77] Creating layer relu4_1
I0317 14:49:43.561389 16302 net.cpp:100] Creating Layer relu4_1
I0317 14:49:43.561393 16302 net.cpp:434] relu4_1 <- conv4_1
I0317 14:49:43.561398 16302 net.cpp:395] relu4_1 -> conv4_1 (in-place)
I0317 14:49:43.561553 16302 net.cpp:150] Setting up relu4_1
I0317 14:49:43.561563 16302 net.cpp:157] Top shape: 8 512 64 64 (16777216)
I0317 14:49:43.561565 16302 net.cpp:165] Memory required for data: 4622125120
I0317 14:49:43.561569 16302 layer_factory.hpp:77] Creating layer conv4_2
I0317 14:49:43.561579 16302 net.cpp:100] Creating Layer conv4_2
I0317 14:49:43.561585 16302 net.cpp:434] conv4_2 <- conv4_1
I0317 14:49:43.561591 16302 net.cpp:408] conv4_2 -> conv4_2
I0317 14:49:43.574231 16302 net.cpp:150] Setting up conv4_2
I0317 14:49:43.574246 16302 net.cpp:157] Top shape: 8 512 64 64 (16777216)
I0317 14:49:43.574250 16302 net.cpp:165] Memory required for data: 4689233984
I0317 14:49:43.574261 16302 layer_factory.hpp:77] Creating layer relu4_2
I0317 14:49:43.574270 16302 net.cpp:100] Creating Layer relu4_2
I0317 14:49:43.574275 16302 net.cpp:434] relu4_2 <- conv4_2
I0317 14:49:43.574281 16302 net.cpp:395] relu4_2 -> conv4_2 (in-place)
I0317 14:49:43.574450 16302 net.cpp:150] Setting up relu4_2
I0317 14:49:43.574458 16302 net.cpp:157] Top shape: 8 512 64 64 (16777216)
I0317 14:49:43.574462 16302 net.cpp:165] Memory required for data: 4756342848
I0317 14:49:43.574466 16302 layer_factory.hpp:77] Creating layer conv4_3
I0317 14:49:43.574476 16302 net.cpp:100] Creating Layer conv4_3
I0317 14:49:43.574481 16302 net.cpp:434] conv4_3 <- conv4_2
I0317 14:49:43.574486 16302 net.cpp:408] conv4_3 -> conv4_3_ori
I0317 14:49:43.586844 16302 net.cpp:150] Setting up conv4_3
I0317 14:49:43.586860 16302 net.cpp:157] Top shape: 8 512 64 64 (16777216)
I0317 14:49:43.586864 16302 net.cpp:165] Memory required for data: 4823451712
I0317 14:49:43.586872 16302 layer_factory.hpp:77] Creating layer relu4_3
I0317 14:49:43.586880 16302 net.cpp:100] Creating Layer relu4_3
I0317 14:49:43.586886 16302 net.cpp:434] relu4_3 <- conv4_3_ori
I0317 14:49:43.586891 16302 net.cpp:395] relu4_3 -> conv4_3_ori (in-place)
I0317 14:49:43.587353 16302 net.cpp:150] Setting up relu4_3
I0317 14:49:43.587364 16302 net.cpp:157] Top shape: 8 512 64 64 (16777216)
I0317 14:49:43.587368 16302 net.cpp:165] Memory required for data: 4890560576
I0317 14:49:43.587371 16302 layer_factory.hpp:77] Creating layer conv4_3_ori_relu4_3_0_split
I0317 14:49:43.587399 16302 net.cpp:100] Creating Layer conv4_3_ori_relu4_3_0_split
I0317 14:49:43.587405 16302 net.cpp:434] conv4_3_ori_relu4_3_0_split <- conv4_3_ori
I0317 14:49:43.587414 16302 net.cpp:408] conv4_3_ori_relu4_3_0_split -> conv4_3_ori_relu4_3_0_split_0
I0317 14:49:43.587422 16302 net.cpp:408] conv4_3_ori_relu4_3_0_split -> conv4_3_ori_relu4_3_0_split_1
I0317 14:49:43.587460 16302 net.cpp:150] Setting up conv4_3_ori_relu4_3_0_split
I0317 14:49:43.587471 16302 net.cpp:157] Top shape: 8 512 64 64 (16777216)
I0317 14:49:43.587476 16302 net.cpp:157] Top shape: 8 512 64 64 (16777216)
I0317 14:49:43.587481 16302 net.cpp:165] Memory required for data: 5024778304
I0317 14:49:43.587486 16302 layer_factory.hpp:77] Creating layer seg_pool4
I0317 14:49:43.587496 16302 net.cpp:100] Creating Layer seg_pool4
I0317 14:49:43.587501 16302 net.cpp:434] seg_pool4 <- conv4_3_ori_relu4_3_0_split_0
I0317 14:49:43.587507 16302 net.cpp:408] seg_pool4 -> seg_pool4
I0317 14:49:43.587543 16302 net.cpp:150] Setting up seg_pool4
I0317 14:49:43.587551 16302 net.cpp:157] Top shape: 8 512 64 64 (16777216)
I0317 14:49:43.587554 16302 net.cpp:165] Memory required for data: 5091887168
I0317 14:49:43.587558 16302 layer_factory.hpp:77] Creating layer seg5_1
I0317 14:49:43.587566 16302 net.cpp:100] Creating Layer seg5_1
I0317 14:49:43.587570 16302 net.cpp:434] seg5_1 <- seg_pool4
I0317 14:49:43.587575 16302 net.cpp:408] seg5_1 -> seg5_1
I0317 14:49:43.599179 16302 net.cpp:150] Setting up seg5_1
I0317 14:49:43.599195 16302 net.cpp:157] Top shape: 8 512 64 64 (16777216)
I0317 14:49:43.599197 16302 net.cpp:165] Memory required for data: 5158996032
I0317 14:49:43.599205 16302 layer_factory.hpp:77] Creating layer seg_relu5_1
I0317 14:49:43.599211 16302 net.cpp:100] Creating Layer seg_relu5_1
I0317 14:49:43.599217 16302 net.cpp:434] seg_relu5_1 <- seg5_1
I0317 14:49:43.599222 16302 net.cpp:395] seg_relu5_1 -> seg5_1 (in-place)
I0317 14:49:43.599388 16302 net.cpp:150] Setting up seg_relu5_1
I0317 14:49:43.599397 16302 net.cpp:157] Top shape: 8 512 64 64 (16777216)
I0317 14:49:43.599402 16302 net.cpp:165] Memory required for data: 5226104896
I0317 14:49:43.599406 16302 layer_factory.hpp:77] Creating layer seg5_2
I0317 14:49:43.599416 16302 net.cpp:100] Creating Layer seg5_2
I0317 14:49:43.599419 16302 net.cpp:434] seg5_2 <- seg5_1
I0317 14:49:43.599426 16302 net.cpp:408] seg5_2 -> seg5_2
I0317 14:49:43.611028 16302 net.cpp:150] Setting up seg5_2
I0317 14:49:43.611043 16302 net.cpp:157] Top shape: 8 512 64 64 (16777216)
I0317 14:49:43.611047 16302 net.cpp:165] Memory required for data: 5293213760
I0317 14:49:43.611054 16302 layer_factory.hpp:77] Creating layer seg_relu5_2
I0317 14:49:43.611060 16302 net.cpp:100] Creating Layer seg_relu5_2
I0317 14:49:43.611064 16302 net.cpp:434] seg_relu5_2 <- seg5_2
I0317 14:49:43.611070 16302 net.cpp:395] seg_relu5_2 -> seg5_2 (in-place)
I0317 14:49:43.611239 16302 net.cpp:150] Setting up seg_relu5_2
I0317 14:49:43.611248 16302 net.cpp:157] Top shape: 8 512 64 64 (16777216)
I0317 14:49:43.611251 16302 net.cpp:165] Memory required for data: 5360322624
I0317 14:49:43.611254 16302 layer_factory.hpp:77] Creating layer seg5_3
I0317 14:49:43.611268 16302 net.cpp:100] Creating Layer seg5_3
I0317 14:49:43.611273 16302 net.cpp:434] seg5_3 <- seg5_2
I0317 14:49:43.611277 16302 net.cpp:408] seg5_3 -> seg5_3
I0317 14:49:43.622900 16302 net.cpp:150] Setting up seg5_3
I0317 14:49:43.622915 16302 net.cpp:157] Top shape: 8 512 64 64 (16777216)
I0317 14:49:43.622917 16302 net.cpp:165] Memory required for data: 5427431488
I0317 14:49:43.622925 16302 layer_factory.hpp:77] Creating layer seg_relu5_3
I0317 14:49:43.622931 16302 net.cpp:100] Creating Layer seg_relu5_3
I0317 14:49:43.622936 16302 net.cpp:434] seg_relu5_3 <- seg5_3
I0317 14:49:43.622941 16302 net.cpp:395] seg_relu5_3 -> seg5_3 (in-place)
I0317 14:49:43.623447 16302 net.cpp:150] Setting up seg_relu5_3
I0317 14:49:43.623458 16302 net.cpp:157] Top shape: 8 512 64 64 (16777216)
I0317 14:49:43.623463 16302 net.cpp:165] Memory required for data: 5494540352
I0317 14:49:43.623467 16302 layer_factory.hpp:77] Creating layer seg_pool5
I0317 14:49:43.623495 16302 net.cpp:100] Creating Layer seg_pool5
I0317 14:49:43.623499 16302 net.cpp:434] seg_pool5 <- seg5_3
I0317 14:49:43.623508 16302 net.cpp:408] seg_pool5 -> seg_pool5
I0317 14:49:43.623545 16302 net.cpp:150] Setting up seg_pool5
I0317 14:49:43.623553 16302 net.cpp:157] Top shape: 8 512 64 64 (16777216)
I0317 14:49:43.623556 16302 net.cpp:165] Memory required for data: 5561649216
I0317 14:49:43.623560 16302 layer_factory.hpp:77] Creating layer seg6
I0317 14:49:43.623571 16302 net.cpp:100] Creating Layer seg6
I0317 14:49:43.623576 16302 net.cpp:434] seg6 <- seg_pool5
I0317 14:49:43.623586 16302 net.cpp:408] seg6 -> seg6
I0317 14:49:43.647042 16302 net.cpp:150] Setting up seg6
I0317 14:49:43.647066 16302 net.cpp:157] Top shape: 8 1024 64 64 (33554432)
I0317 14:49:43.647070 16302 net.cpp:165] Memory required for data: 5695866944
I0317 14:49:43.647078 16302 layer_factory.hpp:77] Creating layer seg_relu6
I0317 14:49:43.647087 16302 net.cpp:100] Creating Layer seg_relu6
I0317 14:49:43.647094 16302 net.cpp:434] seg_relu6 <- seg6
I0317 14:49:43.647099 16302 net.cpp:395] seg_relu6 -> seg6 (in-place)
I0317 14:49:43.647305 16302 net.cpp:150] Setting up seg_relu6
I0317 14:49:43.647315 16302 net.cpp:157] Top shape: 8 1024 64 64 (33554432)
I0317 14:49:43.647320 16302 net.cpp:165] Memory required for data: 5830084672
I0317 14:49:43.647322 16302 layer_factory.hpp:77] Creating layer seg_drop6
I0317 14:49:43.647328 16302 net.cpp:100] Creating Layer seg_drop6
I0317 14:49:43.647332 16302 net.cpp:434] seg_drop6 <- seg6
I0317 14:49:43.647338 16302 net.cpp:395] seg_drop6 -> seg6 (in-place)
I0317 14:49:43.647367 16302 net.cpp:150] Setting up seg_drop6
I0317 14:49:43.647373 16302 net.cpp:157] Top shape: 8 1024 64 64 (33554432)
I0317 14:49:43.647380 16302 net.cpp:165] Memory required for data: 5964302400
I0317 14:49:43.647383 16302 layer_factory.hpp:77] Creating layer seg7
I0317 14:49:43.647392 16302 net.cpp:100] Creating Layer seg7
I0317 14:49:43.647397 16302 net.cpp:434] seg7 <- seg6
I0317 14:49:43.647402 16302 net.cpp:408] seg7 -> seg7
I0317 14:49:43.653740 16302 net.cpp:150] Setting up seg7
I0317 14:49:43.653753 16302 net.cpp:157] Top shape: 8 1024 64 64 (33554432)
I0317 14:49:43.653756 16302 net.cpp:165] Memory required for data: 6098520128
I0317 14:49:43.653764 16302 layer_factory.hpp:77] Creating layer seg_relu7
I0317 14:49:43.653770 16302 net.cpp:100] Creating Layer seg_relu7
I0317 14:49:43.653774 16302 net.cpp:434] seg_relu7 <- seg7
I0317 14:49:43.653779 16302 net.cpp:395] seg_relu7 -> seg7 (in-place)
I0317 14:49:43.653930 16302 net.cpp:150] Setting up seg_relu7
I0317 14:49:43.653939 16302 net.cpp:157] Top shape: 8 1024 64 64 (33554432)
I0317 14:49:43.653942 16302 net.cpp:165] Memory required for data: 6232737856
I0317 14:49:43.653945 16302 layer_factory.hpp:77] Creating layer seg7_seg_relu7_0_split
I0317 14:49:43.653952 16302 net.cpp:100] Creating Layer seg7_seg_relu7_0_split
I0317 14:49:43.653955 16302 net.cpp:434] seg7_seg_relu7_0_split <- seg7
I0317 14:49:43.653960 16302 net.cpp:408] seg7_seg_relu7_0_split -> seg7_seg_relu7_0_split_0
I0317 14:49:43.653967 16302 net.cpp:408] seg7_seg_relu7_0_split -> seg7_seg_relu7_0_split_1
I0317 14:49:43.654004 16302 net.cpp:150] Setting up seg7_seg_relu7_0_split
I0317 14:49:43.654012 16302 net.cpp:157] Top shape: 8 1024 64 64 (33554432)
I0317 14:49:43.654016 16302 net.cpp:157] Top shape: 8 1024 64 64 (33554432)
I0317 14:49:43.654018 16302 net.cpp:165] Memory required for data: 6501173312
I0317 14:49:43.654022 16302 layer_factory.hpp:77] Creating layer seg_drop7
I0317 14:49:43.654027 16302 net.cpp:100] Creating Layer seg_drop7
I0317 14:49:43.654031 16302 net.cpp:434] seg_drop7 <- seg7_seg_relu7_0_split_0
I0317 14:49:43.654037 16302 net.cpp:408] seg_drop7 -> seg7d
I0317 14:49:43.654070 16302 net.cpp:150] Setting up seg_drop7
I0317 14:49:43.654079 16302 net.cpp:157] Top shape: 8 1024 64 64 (33554432)
I0317 14:49:43.654084 16302 net.cpp:165] Memory required for data: 6635391040
I0317 14:49:43.654088 16302 layer_factory.hpp:77] Creating layer seg_new
I0317 14:49:43.654114 16302 net.cpp:100] Creating Layer seg_new
I0317 14:49:43.654119 16302 net.cpp:434] seg_new <- seg7d
I0317 14:49:43.654127 16302 net.cpp:408] seg_new -> seg
I0317 14:49:43.655217 16302 net.cpp:150] Setting up seg_new
I0317 14:49:43.655230 16302 net.cpp:157] Top shape: 8 21 64 64 (688128)
I0317 14:49:43.655233 16302 net.cpp:165] Memory required for data: 6638143552
I0317 14:49:43.655239 16302 layer_factory.hpp:77] Creating layer seg_seg_new_0_split
I0317 14:49:43.655244 16302 net.cpp:100] Creating Layer seg_seg_new_0_split
I0317 14:49:43.655251 16302 net.cpp:434] seg_seg_new_0_split <- seg
I0317 14:49:43.655256 16302 net.cpp:408] seg_seg_new_0_split -> seg_seg_new_0_split_0
I0317 14:49:43.655261 16302 net.cpp:408] seg_seg_new_0_split -> seg_seg_new_0_split_1
I0317 14:49:43.655298 16302 net.cpp:150] Setting up seg_seg_new_0_split
I0317 14:49:43.655306 16302 net.cpp:157] Top shape: 8 21 64 64 (688128)
I0317 14:49:43.655310 16302 net.cpp:157] Top shape: 8 21 64 64 (688128)
I0317 14:49:43.655313 16302 net.cpp:165] Memory required for data: 6643648576
I0317 14:49:43.655316 16302 layer_factory.hpp:77] Creating layer seg_gt
I0317 14:49:43.655323 16302 net.cpp:100] Creating Layer seg_gt
I0317 14:49:43.655326 16302 net.cpp:434] seg_gt <- label_data_1_split_0
I0317 14:49:43.655331 16302 net.cpp:434] seg_gt <- seg_seg_new_0_split_0
I0317 14:49:43.655339 16302 net.cpp:408] seg_gt -> seg_gt
I0317 14:49:43.655376 16302 net.cpp:150] Setting up seg_gt
I0317 14:49:43.655385 16302 net.cpp:157] Top shape: 8 1 64 64 (32768)
I0317 14:49:43.655391 16302 net.cpp:165] Memory required for data: 6643779648
I0317 14:49:43.655397 16302 layer_factory.hpp:77] Creating layer seg_loss
I0317 14:49:43.655408 16302 net.cpp:100] Creating Layer seg_loss
I0317 14:49:43.655412 16302 net.cpp:434] seg_loss <- seg_seg_new_0_split_1
I0317 14:49:43.655417 16302 net.cpp:434] seg_loss <- seg_gt
I0317 14:49:43.655422 16302 net.cpp:408] seg_loss -> seg_loss
I0317 14:49:43.655432 16302 layer_factory.hpp:77] Creating layer seg_loss
I0317 14:49:43.657109 16302 net.cpp:150] Setting up seg_loss
I0317 14:49:43.657120 16302 net.cpp:157] Top shape: (1)
I0317 14:49:43.657124 16302 net.cpp:160]     with loss weight 0.1
I0317 14:49:43.657142 16302 net.cpp:165] Memory required for data: 6643779652
I0317 14:49:43.657148 16302 layer_factory.hpp:77] Creating layer seg_to_det_conv
I0317 14:49:43.657161 16302 net.cpp:100] Creating Layer seg_to_det_conv
I0317 14:49:43.657176 16302 net.cpp:434] seg_to_det_conv <- seg7_seg_relu7_0_split_1
I0317 14:49:43.657182 16302 net.cpp:408] seg_to_det_conv -> seg_to_det_conv
I0317 14:49:43.660902 16302 net.cpp:150] Setting up seg_to_det_conv
I0317 14:49:43.660913 16302 net.cpp:157] Top shape: 8 512 64 64 (16777216)
I0317 14:49:43.660917 16302 net.cpp:165] Memory required for data: 6710888516
I0317 14:49:43.660928 16302 layer_factory.hpp:77] Creating layer mult_conv4_3
I0317 14:49:43.660935 16302 net.cpp:100] Creating Layer mult_conv4_3
I0317 14:49:43.660941 16302 net.cpp:434] mult_conv4_3 <- conv4_3_ori_relu4_3_0_split_1
I0317 14:49:43.660946 16302 net.cpp:434] mult_conv4_3 <- seg_to_det_conv
I0317 14:49:43.660953 16302 net.cpp:408] mult_conv4_3 -> conv4_3_t
I0317 14:49:43.660986 16302 net.cpp:150] Setting up mult_conv4_3
I0317 14:49:43.660993 16302 net.cpp:157] Top shape: 8 512 64 64 (16777216)
I0317 14:49:43.660997 16302 net.cpp:165] Memory required for data: 6777997380
I0317 14:49:43.661001 16302 layer_factory.hpp:77] Creating layer conv4_3_t_mult_conv4_3_0_split
I0317 14:49:43.661006 16302 net.cpp:100] Creating Layer conv4_3_t_mult_conv4_3_0_split
I0317 14:49:43.661010 16302 net.cpp:434] conv4_3_t_mult_conv4_3_0_split <- conv4_3_t
I0317 14:49:43.661015 16302 net.cpp:408] conv4_3_t_mult_conv4_3_0_split -> conv4_3_t_mult_conv4_3_0_split_0
I0317 14:49:43.661027 16302 net.cpp:408] conv4_3_t_mult_conv4_3_0_split -> conv4_3_t_mult_conv4_3_0_split_1
I0317 14:49:43.661075 16302 net.cpp:150] Setting up conv4_3_t_mult_conv4_3_0_split
I0317 14:49:43.661084 16302 net.cpp:157] Top shape: 8 512 64 64 (16777216)
I0317 14:49:43.661103 16302 net.cpp:157] Top shape: 8 512 64 64 (16777216)
I0317 14:49:43.661108 16302 net.cpp:165] Memory required for data: 6912215108
I0317 14:49:43.661110 16302 layer_factory.hpp:77] Creating layer conv4_3_s
I0317 14:49:43.661118 16302 net.cpp:100] Creating Layer conv4_3_s
I0317 14:49:43.661128 16302 net.cpp:434] conv4_3_s <- conv4_3_t_mult_conv4_3_0_split_0
I0317 14:49:43.661139 16302 net.cpp:408] conv4_3_s -> conv4_3_s
I0317 14:49:43.661314 16302 net.cpp:150] Setting up conv4_3_s
I0317 14:49:43.661322 16302 net.cpp:157] Top shape: 8 512 1 1 (4096)
I0317 14:49:43.661325 16302 net.cpp:165] Memory required for data: 6912231492
I0317 14:49:43.661329 16302 layer_factory.hpp:77] Creating layer conv4_3_fc1
I0317 14:49:43.661336 16302 net.cpp:100] Creating Layer conv4_3_fc1
I0317 14:49:43.661340 16302 net.cpp:434] conv4_3_fc1 <- conv4_3_s
I0317 14:49:43.661346 16302 net.cpp:408] conv4_3_fc1 -> conv4_3_fc1
I0317 14:49:43.662833 16302 net.cpp:150] Setting up conv4_3_fc1
I0317 14:49:43.662845 16302 net.cpp:157] Top shape: 8 128 1 1 (1024)
I0317 14:49:43.662848 16302 net.cpp:165] Memory required for data: 6912235588
I0317 14:49:43.662854 16302 layer_factory.hpp:77] Creating layer conv4_3_relu
I0317 14:49:43.662860 16302 net.cpp:100] Creating Layer conv4_3_relu
I0317 14:49:43.662864 16302 net.cpp:434] conv4_3_relu <- conv4_3_fc1
I0317 14:49:43.662870 16302 net.cpp:395] conv4_3_relu -> conv4_3_fc1 (in-place)
I0317 14:49:43.663028 16302 net.cpp:150] Setting up conv4_3_relu
I0317 14:49:43.663036 16302 net.cpp:157] Top shape: 8 128 1 1 (1024)
I0317 14:49:43.663039 16302 net.cpp:165] Memory required for data: 6912239684
I0317 14:49:43.663043 16302 layer_factory.hpp:77] Creating layer conv4_3_fc2
I0317 14:49:43.663051 16302 net.cpp:100] Creating Layer conv4_3_fc2
I0317 14:49:43.663055 16302 net.cpp:434] conv4_3_fc2 <- conv4_3_fc1
I0317 14:49:43.663063 16302 net.cpp:408] conv4_3_fc2 -> conv4_3_fc2
I0317 14:49:43.664537 16302 net.cpp:150] Setting up conv4_3_fc2
I0317 14:49:43.664549 16302 net.cpp:157] Top shape: 8 512 1 1 (4096)
I0317 14:49:43.664553 16302 net.cpp:165] Memory required for data: 6912256068
I0317 14:49:43.664558 16302 layer_factory.hpp:77] Creating layer conv4_3_sig
I0317 14:49:43.664564 16302 net.cpp:100] Creating Layer conv4_3_sig
I0317 14:49:43.664567 16302 net.cpp:434] conv4_3_sig <- conv4_3_fc2
I0317 14:49:43.664573 16302 net.cpp:395] conv4_3_sig -> conv4_3_fc2 (in-place)
I0317 14:49:43.664724 16302 net.cpp:150] Setting up conv4_3_sig
I0317 14:49:43.664733 16302 net.cpp:157] Top shape: 8 512 1 1 (4096)
I0317 14:49:43.664736 16302 net.cpp:165] Memory required for data: 6912272452
I0317 14:49:43.664741 16302 layer_factory.hpp:77] Creating layer conv4_3_reshape
I0317 14:49:43.664746 16302 net.cpp:100] Creating Layer conv4_3_reshape
I0317 14:49:43.664749 16302 net.cpp:434] conv4_3_reshape <- conv4_3_fc2
I0317 14:49:43.664757 16302 net.cpp:408] conv4_3_reshape -> conv4_3_reshape
I0317 14:49:43.664789 16302 net.cpp:150] Setting up conv4_3_reshape
I0317 14:49:43.664796 16302 net.cpp:157] Top shape: 8 512 (4096)
I0317 14:49:43.664799 16302 net.cpp:165] Memory required for data: 6912288836
I0317 14:49:43.664803 16302 layer_factory.hpp:77] Creating layer conv4_3_scale
I0317 14:49:43.664808 16302 net.cpp:100] Creating Layer conv4_3_scale
I0317 14:49:43.664813 16302 net.cpp:434] conv4_3_scale <- conv4_3_t_mult_conv4_3_0_split_1
I0317 14:49:43.664816 16302 net.cpp:434] conv4_3_scale <- conv4_3_reshape
I0317 14:49:43.664822 16302 net.cpp:408] conv4_3_scale -> conv4_3
I0317 14:49:43.664885 16302 net.cpp:150] Setting up conv4_3_scale
I0317 14:49:43.664892 16302 net.cpp:157] Top shape: 8 512 64 64 (16777216)
I0317 14:49:43.664894 16302 net.cpp:165] Memory required for data: 6979397700
I0317 14:49:43.664897 16302 layer_factory.hpp:77] Creating layer conv4_3_conv4_3_scale_0_split
I0317 14:49:43.664903 16302 net.cpp:100] Creating Layer conv4_3_conv4_3_scale_0_split
I0317 14:49:43.664909 16302 net.cpp:434] conv4_3_conv4_3_scale_0_split <- conv4_3
I0317 14:49:43.664916 16302 net.cpp:408] conv4_3_conv4_3_scale_0_split -> conv4_3_conv4_3_scale_0_split_0
I0317 14:49:43.664942 16302 net.cpp:408] conv4_3_conv4_3_scale_0_split -> conv4_3_conv4_3_scale_0_split_1
I0317 14:49:43.664981 16302 net.cpp:150] Setting up conv4_3_conv4_3_scale_0_split
I0317 14:49:43.664988 16302 net.cpp:157] Top shape: 8 512 64 64 (16777216)
I0317 14:49:43.664991 16302 net.cpp:157] Top shape: 8 512 64 64 (16777216)
I0317 14:49:43.664994 16302 net.cpp:165] Memory required for data: 7113615428
I0317 14:49:43.664999 16302 layer_factory.hpp:77] Creating layer pool4
I0317 14:49:43.665004 16302 net.cpp:100] Creating Layer pool4
I0317 14:49:43.665007 16302 net.cpp:434] pool4 <- conv4_3_conv4_3_scale_0_split_0
I0317 14:49:43.665012 16302 net.cpp:408] pool4 -> pool4
I0317 14:49:43.665051 16302 net.cpp:150] Setting up pool4
I0317 14:49:43.665065 16302 net.cpp:157] Top shape: 8 512 32 32 (4194304)
I0317 14:49:43.665072 16302 net.cpp:165] Memory required for data: 7130392644
I0317 14:49:43.665076 16302 layer_factory.hpp:77] Creating layer conv5_1
I0317 14:49:43.665086 16302 net.cpp:100] Creating Layer conv5_1
I0317 14:49:43.665088 16302 net.cpp:434] conv5_1 <- pool4
I0317 14:49:43.665093 16302 net.cpp:408] conv5_1 -> conv5_1
I0317 14:49:43.677438 16302 net.cpp:150] Setting up conv5_1
I0317 14:49:43.677453 16302 net.cpp:157] Top shape: 8 512 32 32 (4194304)
I0317 14:49:43.677458 16302 net.cpp:165] Memory required for data: 7147169860
I0317 14:49:43.677464 16302 layer_factory.hpp:77] Creating layer relu5_1
I0317 14:49:43.677471 16302 net.cpp:100] Creating Layer relu5_1
I0317 14:49:43.677476 16302 net.cpp:434] relu5_1 <- conv5_1
I0317 14:49:43.677482 16302 net.cpp:395] relu5_1 -> conv5_1 (in-place)
I0317 14:49:43.677948 16302 net.cpp:150] Setting up relu5_1
I0317 14:49:43.677959 16302 net.cpp:157] Top shape: 8 512 32 32 (4194304)
I0317 14:49:43.677963 16302 net.cpp:165] Memory required for data: 7163947076
I0317 14:49:43.677968 16302 layer_factory.hpp:77] Creating layer conv5_2
I0317 14:49:43.677978 16302 net.cpp:100] Creating Layer conv5_2
I0317 14:49:43.677981 16302 net.cpp:434] conv5_2 <- conv5_1
I0317 14:49:43.677987 16302 net.cpp:408] conv5_2 -> conv5_2
I0317 14:49:43.690431 16302 net.cpp:150] Setting up conv5_2
I0317 14:49:43.690448 16302 net.cpp:157] Top shape: 8 512 32 32 (4194304)
I0317 14:49:43.690451 16302 net.cpp:165] Memory required for data: 7180724292
I0317 14:49:43.690459 16302 layer_factory.hpp:77] Creating layer relu5_2
I0317 14:49:43.690465 16302 net.cpp:100] Creating Layer relu5_2
I0317 14:49:43.690470 16302 net.cpp:434] relu5_2 <- conv5_2
I0317 14:49:43.690476 16302 net.cpp:395] relu5_2 -> conv5_2 (in-place)
I0317 14:49:43.690644 16302 net.cpp:150] Setting up relu5_2
I0317 14:49:43.690652 16302 net.cpp:157] Top shape: 8 512 32 32 (4194304)
I0317 14:49:43.690655 16302 net.cpp:165] Memory required for data: 7197501508
I0317 14:49:43.690659 16302 layer_factory.hpp:77] Creating layer conv5_3
I0317 14:49:43.690670 16302 net.cpp:100] Creating Layer conv5_3
I0317 14:49:43.690673 16302 net.cpp:434] conv5_3 <- conv5_2
I0317 14:49:43.690680 16302 net.cpp:408] conv5_3 -> conv5_3
I0317 14:49:43.703097 16302 net.cpp:150] Setting up conv5_3
I0317 14:49:43.703114 16302 net.cpp:157] Top shape: 8 512 32 32 (4194304)
I0317 14:49:43.703117 16302 net.cpp:165] Memory required for data: 7214278724
I0317 14:49:43.703125 16302 layer_factory.hpp:77] Creating layer relu5_3
I0317 14:49:43.703131 16302 net.cpp:100] Creating Layer relu5_3
I0317 14:49:43.703136 16302 net.cpp:434] relu5_3 <- conv5_3
I0317 14:49:43.703142 16302 net.cpp:395] relu5_3 -> conv5_3 (in-place)
I0317 14:49:43.703307 16302 net.cpp:150] Setting up relu5_3
I0317 14:49:43.703316 16302 net.cpp:157] Top shape: 8 512 32 32 (4194304)
I0317 14:49:43.703320 16302 net.cpp:165] Memory required for data: 7231055940
I0317 14:49:43.703323 16302 layer_factory.hpp:77] Creating layer pool5
I0317 14:49:43.703339 16302 net.cpp:100] Creating Layer pool5
I0317 14:49:43.703343 16302 net.cpp:434] pool5 <- conv5_3
I0317 14:49:43.703351 16302 net.cpp:408] pool5 -> pool5
I0317 14:49:43.703392 16302 net.cpp:150] Setting up pool5
I0317 14:49:43.703399 16302 net.cpp:157] Top shape: 8 512 32 32 (4194304)
I0317 14:49:43.703421 16302 net.cpp:165] Memory required for data: 7247833156
I0317 14:49:43.703428 16302 layer_factory.hpp:77] Creating layer fc6
I0317 14:49:43.703441 16302 net.cpp:100] Creating Layer fc6
I0317 14:49:43.703450 16302 net.cpp:434] fc6 <- pool5
I0317 14:49:43.703461 16302 net.cpp:408] fc6 -> fc6
I0317 14:49:43.726876 16302 net.cpp:150] Setting up fc6
I0317 14:49:43.726899 16302 net.cpp:157] Top shape: 8 1024 32 32 (8388608)
I0317 14:49:43.726903 16302 net.cpp:165] Memory required for data: 7281387588
I0317 14:49:43.726912 16302 layer_factory.hpp:77] Creating layer relu6
I0317 14:49:43.726920 16302 net.cpp:100] Creating Layer relu6
I0317 14:49:43.726925 16302 net.cpp:434] relu6 <- fc6
I0317 14:49:43.726933 16302 net.cpp:395] relu6 -> fc6 (in-place)
I0317 14:49:43.727589 16302 net.cpp:150] Setting up relu6
I0317 14:49:43.727603 16302 net.cpp:157] Top shape: 8 1024 32 32 (8388608)
I0317 14:49:43.727607 16302 net.cpp:165] Memory required for data: 7314942020
I0317 14:49:43.727610 16302 layer_factory.hpp:77] Creating layer fc7
I0317 14:49:43.727622 16302 net.cpp:100] Creating Layer fc7
I0317 14:49:43.727628 16302 net.cpp:434] fc7 <- fc6
I0317 14:49:43.727635 16302 net.cpp:408] fc7 -> fc7_t
I0317 14:49:43.733944 16302 net.cpp:150] Setting up fc7
I0317 14:49:43.733956 16302 net.cpp:157] Top shape: 8 1024 32 32 (8388608)
I0317 14:49:43.733960 16302 net.cpp:165] Memory required for data: 7348496452
I0317 14:49:43.733966 16302 layer_factory.hpp:77] Creating layer relu7
I0317 14:49:43.733973 16302 net.cpp:100] Creating Layer relu7
I0317 14:49:43.733976 16302 net.cpp:434] relu7 <- fc7_t
I0317 14:49:43.733983 16302 net.cpp:395] relu7 -> fc7_t (in-place)
I0317 14:49:43.734149 16302 net.cpp:150] Setting up relu7
I0317 14:49:43.734159 16302 net.cpp:157] Top shape: 8 1024 32 32 (8388608)
I0317 14:49:43.734163 16302 net.cpp:165] Memory required for data: 7382050884
I0317 14:49:43.734165 16302 layer_factory.hpp:77] Creating layer fc7_t_relu7_0_split
I0317 14:49:43.734174 16302 net.cpp:100] Creating Layer fc7_t_relu7_0_split
I0317 14:49:43.734176 16302 net.cpp:434] fc7_t_relu7_0_split <- fc7_t
I0317 14:49:43.734182 16302 net.cpp:408] fc7_t_relu7_0_split -> fc7_t_relu7_0_split_0
I0317 14:49:43.734189 16302 net.cpp:408] fc7_t_relu7_0_split -> fc7_t_relu7_0_split_1
I0317 14:49:43.734230 16302 net.cpp:150] Setting up fc7_t_relu7_0_split
I0317 14:49:43.734236 16302 net.cpp:157] Top shape: 8 1024 32 32 (8388608)
I0317 14:49:43.734239 16302 net.cpp:157] Top shape: 8 1024 32 32 (8388608)
I0317 14:49:43.734243 16302 net.cpp:165] Memory required for data: 7449159748
I0317 14:49:43.734246 16302 layer_factory.hpp:77] Creating layer fc7_s
I0317 14:49:43.734253 16302 net.cpp:100] Creating Layer fc7_s
I0317 14:49:43.734256 16302 net.cpp:434] fc7_s <- fc7_t_relu7_0_split_0
I0317 14:49:43.734266 16302 net.cpp:408] fc7_s -> fc7_s
I0317 14:49:43.734477 16302 net.cpp:150] Setting up fc7_s
I0317 14:49:43.734488 16302 net.cpp:157] Top shape: 8 1024 1 1 (8192)
I0317 14:49:43.734491 16302 net.cpp:165] Memory required for data: 7449192516
I0317 14:49:43.734495 16302 layer_factory.hpp:77] Creating layer fc7_fc1
I0317 14:49:43.734506 16302 net.cpp:100] Creating Layer fc7_fc1
I0317 14:49:43.734511 16302 net.cpp:434] fc7_fc1 <- fc7_s
I0317 14:49:43.734519 16302 net.cpp:408] fc7_fc1 -> fc7_fc1
I0317 14:49:43.737257 16302 net.cpp:150] Setting up fc7_fc1
I0317 14:49:43.737268 16302 net.cpp:157] Top shape: 8 256 1 1 (2048)
I0317 14:49:43.737272 16302 net.cpp:165] Memory required for data: 7449200708
I0317 14:49:43.737277 16302 layer_factory.hpp:77] Creating layer fc7_relu
I0317 14:49:43.737284 16302 net.cpp:100] Creating Layer fc7_relu
I0317 14:49:43.737289 16302 net.cpp:434] fc7_relu <- fc7_fc1
I0317 14:49:43.737294 16302 net.cpp:395] fc7_relu -> fc7_fc1 (in-place)
I0317 14:49:43.737761 16302 net.cpp:150] Setting up fc7_relu
I0317 14:49:43.737774 16302 net.cpp:157] Top shape: 8 256 1 1 (2048)
I0317 14:49:43.737778 16302 net.cpp:165] Memory required for data: 7449208900
I0317 14:49:43.737782 16302 layer_factory.hpp:77] Creating layer fc7_fc2
I0317 14:49:43.737810 16302 net.cpp:100] Creating Layer fc7_fc2
I0317 14:49:43.737815 16302 net.cpp:434] fc7_fc2 <- fc7_fc1
I0317 14:49:43.737823 16302 net.cpp:408] fc7_fc2 -> fc7_fc2
I0317 14:49:43.739851 16302 net.cpp:150] Setting up fc7_fc2
I0317 14:49:43.739864 16302 net.cpp:157] Top shape: 8 1024 1 1 (8192)
I0317 14:49:43.739868 16302 net.cpp:165] Memory required for data: 7449241668
I0317 14:49:43.739873 16302 layer_factory.hpp:77] Creating layer fc7_sig
I0317 14:49:43.739879 16302 net.cpp:100] Creating Layer fc7_sig
I0317 14:49:43.739884 16302 net.cpp:434] fc7_sig <- fc7_fc2
I0317 14:49:43.739892 16302 net.cpp:395] fc7_sig -> fc7_fc2 (in-place)
I0317 14:49:43.740046 16302 net.cpp:150] Setting up fc7_sig
I0317 14:49:43.740054 16302 net.cpp:157] Top shape: 8 1024 1 1 (8192)
I0317 14:49:43.740057 16302 net.cpp:165] Memory required for data: 7449274436
I0317 14:49:43.740061 16302 layer_factory.hpp:77] Creating layer fc7_reshape
I0317 14:49:43.740068 16302 net.cpp:100] Creating Layer fc7_reshape
I0317 14:49:43.740072 16302 net.cpp:434] fc7_reshape <- fc7_fc2
I0317 14:49:43.740079 16302 net.cpp:408] fc7_reshape -> fc7_reshape
I0317 14:49:43.740109 16302 net.cpp:150] Setting up fc7_reshape
I0317 14:49:43.740116 16302 net.cpp:157] Top shape: 8 1024 (8192)
I0317 14:49:43.740119 16302 net.cpp:165] Memory required for data: 7449307204
I0317 14:49:43.740123 16302 layer_factory.hpp:77] Creating layer fc7_scale
I0317 14:49:43.740129 16302 net.cpp:100] Creating Layer fc7_scale
I0317 14:49:43.740134 16302 net.cpp:434] fc7_scale <- fc7_t_relu7_0_split_1
I0317 14:49:43.740139 16302 net.cpp:434] fc7_scale <- fc7_reshape
I0317 14:49:43.740144 16302 net.cpp:408] fc7_scale -> fc7
I0317 14:49:43.740212 16302 net.cpp:150] Setting up fc7_scale
I0317 14:49:43.740221 16302 net.cpp:157] Top shape: 8 1024 32 32 (8388608)
I0317 14:49:43.740223 16302 net.cpp:165] Memory required for data: 7482861636
I0317 14:49:43.740226 16302 layer_factory.hpp:77] Creating layer fc7_fc7_scale_0_split
I0317 14:49:43.740232 16302 net.cpp:100] Creating Layer fc7_fc7_scale_0_split
I0317 14:49:43.740236 16302 net.cpp:434] fc7_fc7_scale_0_split <- fc7
I0317 14:49:43.740242 16302 net.cpp:408] fc7_fc7_scale_0_split -> fc7_fc7_scale_0_split_0
I0317 14:49:43.740247 16302 net.cpp:408] fc7_fc7_scale_0_split -> fc7_fc7_scale_0_split_1
I0317 14:49:43.740253 16302 net.cpp:408] fc7_fc7_scale_0_split -> fc7_fc7_scale_0_split_2
I0317 14:49:43.740262 16302 net.cpp:408] fc7_fc7_scale_0_split -> fc7_fc7_scale_0_split_3
I0317 14:49:43.740319 16302 net.cpp:150] Setting up fc7_fc7_scale_0_split
I0317 14:49:43.740329 16302 net.cpp:157] Top shape: 8 1024 32 32 (8388608)
I0317 14:49:43.740334 16302 net.cpp:157] Top shape: 8 1024 32 32 (8388608)
I0317 14:49:43.740340 16302 net.cpp:157] Top shape: 8 1024 32 32 (8388608)
I0317 14:49:43.740348 16302 net.cpp:157] Top shape: 8 1024 32 32 (8388608)
I0317 14:49:43.740355 16302 net.cpp:165] Memory required for data: 7617079364
I0317 14:49:43.740358 16302 layer_factory.hpp:77] Creating layer conv6_1
I0317 14:49:43.740366 16302 net.cpp:100] Creating Layer conv6_1
I0317 14:49:43.740372 16302 net.cpp:434] conv6_1 <- fc7_fc7_scale_0_split_0
I0317 14:49:43.740381 16302 net.cpp:408] conv6_1 -> conv6_1
I0317 14:49:43.743136 16302 net.cpp:150] Setting up conv6_1
I0317 14:49:43.743149 16302 net.cpp:157] Top shape: 8 256 32 32 (2097152)
I0317 14:49:43.743152 16302 net.cpp:165] Memory required for data: 7625467972
I0317 14:49:43.743158 16302 layer_factory.hpp:77] Creating layer conv6_1_relu
I0317 14:49:43.743165 16302 net.cpp:100] Creating Layer conv6_1_relu
I0317 14:49:43.743168 16302 net.cpp:434] conv6_1_relu <- conv6_1
I0317 14:49:43.743173 16302 net.cpp:395] conv6_1_relu -> conv6_1 (in-place)
I0317 14:49:43.743340 16302 net.cpp:150] Setting up conv6_1_relu
I0317 14:49:43.743351 16302 net.cpp:157] Top shape: 8 256 32 32 (2097152)
I0317 14:49:43.743355 16302 net.cpp:165] Memory required for data: 7633856580
I0317 14:49:43.743358 16302 layer_factory.hpp:77] Creating layer conv6_2
I0317 14:49:43.743368 16302 net.cpp:100] Creating Layer conv6_2
I0317 14:49:43.743384 16302 net.cpp:434] conv6_2 <- conv6_1
I0317 14:49:43.743396 16302 net.cpp:408] conv6_2 -> conv6_2_t
I0317 14:49:43.750272 16302 net.cpp:150] Setting up conv6_2
I0317 14:49:43.750285 16302 net.cpp:157] Top shape: 8 512 16 16 (1048576)
I0317 14:49:43.750289 16302 net.cpp:165] Memory required for data: 7638050884
I0317 14:49:43.750295 16302 layer_factory.hpp:77] Creating layer conv6_2_relu
I0317 14:49:43.750300 16302 net.cpp:100] Creating Layer conv6_2_relu
I0317 14:49:43.750303 16302 net.cpp:434] conv6_2_relu <- conv6_2_t
I0317 14:49:43.750310 16302 net.cpp:395] conv6_2_relu -> conv6_2_t (in-place)
I0317 14:49:43.750495 16302 net.cpp:150] Setting up conv6_2_relu
I0317 14:49:43.750505 16302 net.cpp:157] Top shape: 8 512 16 16 (1048576)
I0317 14:49:43.750509 16302 net.cpp:165] Memory required for data: 7642245188
I0317 14:49:43.750514 16302 layer_factory.hpp:77] Creating layer conv6_2_t_conv6_2_relu_0_split
I0317 14:49:43.750519 16302 net.cpp:100] Creating Layer conv6_2_t_conv6_2_relu_0_split
I0317 14:49:43.750524 16302 net.cpp:434] conv6_2_t_conv6_2_relu_0_split <- conv6_2_t
I0317 14:49:43.750530 16302 net.cpp:408] conv6_2_t_conv6_2_relu_0_split -> conv6_2_t_conv6_2_relu_0_split_0
I0317 14:49:43.750537 16302 net.cpp:408] conv6_2_t_conv6_2_relu_0_split -> conv6_2_t_conv6_2_relu_0_split_1
I0317 14:49:43.750574 16302 net.cpp:150] Setting up conv6_2_t_conv6_2_relu_0_split
I0317 14:49:43.750582 16302 net.cpp:157] Top shape: 8 512 16 16 (1048576)
I0317 14:49:43.750586 16302 net.cpp:157] Top shape: 8 512 16 16 (1048576)
I0317 14:49:43.750589 16302 net.cpp:165] Memory required for data: 7650633796
I0317 14:49:43.750592 16302 layer_factory.hpp:77] Creating layer conv6_2_s
I0317 14:49:43.750597 16302 net.cpp:100] Creating Layer conv6_2_s
I0317 14:49:43.750602 16302 net.cpp:434] conv6_2_s <- conv6_2_t_conv6_2_relu_0_split_0
I0317 14:49:43.750609 16302 net.cpp:408] conv6_2_s -> conv6_2_s
I0317 14:49:43.751116 16302 net.cpp:150] Setting up conv6_2_s
I0317 14:49:43.751127 16302 net.cpp:157] Top shape: 8 512 1 1 (4096)
I0317 14:49:43.751132 16302 net.cpp:165] Memory required for data: 7650650180
I0317 14:49:43.751135 16302 layer_factory.hpp:77] Creating layer conv6_2_fc1
I0317 14:49:43.751143 16302 net.cpp:100] Creating Layer conv6_2_fc1
I0317 14:49:43.751148 16302 net.cpp:434] conv6_2_fc1 <- conv6_2_s
I0317 14:49:43.751155 16302 net.cpp:408] conv6_2_fc1 -> conv6_2_fc1
I0317 14:49:43.752440 16302 net.cpp:150] Setting up conv6_2_fc1
I0317 14:49:43.752452 16302 net.cpp:157] Top shape: 8 128 1 1 (1024)
I0317 14:49:43.752455 16302 net.cpp:165] Memory required for data: 7650654276
I0317 14:49:43.752460 16302 layer_factory.hpp:77] Creating layer conv6_2_relu
I0317 14:49:43.752466 16302 net.cpp:100] Creating Layer conv6_2_relu
I0317 14:49:43.752471 16302 net.cpp:434] conv6_2_relu <- conv6_2_fc1
I0317 14:49:43.752477 16302 net.cpp:395] conv6_2_relu -> conv6_2_fc1 (in-place)
I0317 14:49:43.752642 16302 net.cpp:150] Setting up conv6_2_relu
I0317 14:49:43.752652 16302 net.cpp:157] Top shape: 8 128 1 1 (1024)
I0317 14:49:43.752655 16302 net.cpp:165] Memory required for data: 7650658372
I0317 14:49:43.752660 16302 layer_factory.hpp:77] Creating layer conv6_2_fc2
I0317 14:49:43.752667 16302 net.cpp:100] Creating Layer conv6_2_fc2
I0317 14:49:43.752673 16302 net.cpp:434] conv6_2_fc2 <- conv6_2_fc1
I0317 14:49:43.752679 16302 net.cpp:408] conv6_2_fc2 -> conv6_2_fc2
I0317 14:49:43.753980 16302 net.cpp:150] Setting up conv6_2_fc2
I0317 14:49:43.753993 16302 net.cpp:157] Top shape: 8 512 1 1 (4096)
I0317 14:49:43.753996 16302 net.cpp:165] Memory required for data: 7650674756
I0317 14:49:43.754001 16302 layer_factory.hpp:77] Creating layer conv6_2_sig
I0317 14:49:43.754007 16302 net.cpp:100] Creating Layer conv6_2_sig
I0317 14:49:43.754014 16302 net.cpp:434] conv6_2_sig <- conv6_2_fc2
I0317 14:49:43.754019 16302 net.cpp:395] conv6_2_sig -> conv6_2_fc2 (in-place)
I0317 14:49:43.754186 16302 net.cpp:150] Setting up conv6_2_sig
I0317 14:49:43.754195 16302 net.cpp:157] Top shape: 8 512 1 1 (4096)
I0317 14:49:43.754199 16302 net.cpp:165] Memory required for data: 7650691140
I0317 14:49:43.754212 16302 layer_factory.hpp:77] Creating layer conv6_2_reshape
I0317 14:49:43.754220 16302 net.cpp:100] Creating Layer conv6_2_reshape
I0317 14:49:43.754223 16302 net.cpp:434] conv6_2_reshape <- conv6_2_fc2
I0317 14:49:43.754230 16302 net.cpp:408] conv6_2_reshape -> conv6_2_reshape
I0317 14:49:43.754263 16302 net.cpp:150] Setting up conv6_2_reshape
I0317 14:49:43.754271 16302 net.cpp:157] Top shape: 8 512 (4096)
I0317 14:49:43.754274 16302 net.cpp:165] Memory required for data: 7650707524
I0317 14:49:43.754278 16302 layer_factory.hpp:77] Creating layer conv6_2_scale
I0317 14:49:43.754285 16302 net.cpp:100] Creating Layer conv6_2_scale
I0317 14:49:43.754288 16302 net.cpp:434] conv6_2_scale <- conv6_2_t_conv6_2_relu_0_split_1
I0317 14:49:43.754295 16302 net.cpp:434] conv6_2_scale <- conv6_2_reshape
I0317 14:49:43.754303 16302 net.cpp:408] conv6_2_scale -> conv6_2
I0317 14:49:43.754392 16302 net.cpp:150] Setting up conv6_2_scale
I0317 14:49:43.754400 16302 net.cpp:157] Top shape: 8 512 16 16 (1048576)
I0317 14:49:43.754403 16302 net.cpp:165] Memory required for data: 7654901828
I0317 14:49:43.754406 16302 layer_factory.hpp:77] Creating layer conv6_2_conv6_2_scale_0_split
I0317 14:49:43.754412 16302 net.cpp:100] Creating Layer conv6_2_conv6_2_scale_0_split
I0317 14:49:43.754416 16302 net.cpp:434] conv6_2_conv6_2_scale_0_split <- conv6_2
I0317 14:49:43.754421 16302 net.cpp:408] conv6_2_conv6_2_scale_0_split -> conv6_2_conv6_2_scale_0_split_0
I0317 14:49:43.754427 16302 net.cpp:408] conv6_2_conv6_2_scale_0_split -> conv6_2_conv6_2_scale_0_split_1
I0317 14:49:43.754438 16302 net.cpp:408] conv6_2_conv6_2_scale_0_split -> conv6_2_conv6_2_scale_0_split_2
I0317 14:49:43.754446 16302 net.cpp:408] conv6_2_conv6_2_scale_0_split -> conv6_2_conv6_2_scale_0_split_3
I0317 14:49:43.754503 16302 net.cpp:150] Setting up conv6_2_conv6_2_scale_0_split
I0317 14:49:43.754511 16302 net.cpp:157] Top shape: 8 512 16 16 (1048576)
I0317 14:49:43.754518 16302 net.cpp:157] Top shape: 8 512 16 16 (1048576)
I0317 14:49:43.754524 16302 net.cpp:157] Top shape: 8 512 16 16 (1048576)
I0317 14:49:43.754534 16302 net.cpp:157] Top shape: 8 512 16 16 (1048576)
I0317 14:49:43.754539 16302 net.cpp:165] Memory required for data: 7671679044
I0317 14:49:43.754545 16302 layer_factory.hpp:77] Creating layer conv7_1
I0317 14:49:43.754557 16302 net.cpp:100] Creating Layer conv7_1
I0317 14:49:43.754570 16302 net.cpp:434] conv7_1 <- conv6_2_conv6_2_scale_0_split_0
I0317 14:49:43.754575 16302 net.cpp:408] conv7_1 -> conv7_1
I0317 14:49:43.755846 16302 net.cpp:150] Setting up conv7_1
I0317 14:49:43.755858 16302 net.cpp:157] Top shape: 8 128 16 16 (262144)
I0317 14:49:43.755861 16302 net.cpp:165] Memory required for data: 7672727620
I0317 14:49:43.755867 16302 layer_factory.hpp:77] Creating layer conv7_1_relu
I0317 14:49:43.755873 16302 net.cpp:100] Creating Layer conv7_1_relu
I0317 14:49:43.755877 16302 net.cpp:434] conv7_1_relu <- conv7_1
I0317 14:49:43.755883 16302 net.cpp:395] conv7_1_relu -> conv7_1 (in-place)
I0317 14:49:43.756368 16302 net.cpp:150] Setting up conv7_1_relu
I0317 14:49:43.756381 16302 net.cpp:157] Top shape: 8 128 16 16 (262144)
I0317 14:49:43.756383 16302 net.cpp:165] Memory required for data: 7673776196
I0317 14:49:43.756386 16302 layer_factory.hpp:77] Creating layer conv7_2
I0317 14:49:43.756397 16302 net.cpp:100] Creating Layer conv7_2
I0317 14:49:43.756402 16302 net.cpp:434] conv7_2 <- conv7_1
I0317 14:49:43.756408 16302 net.cpp:408] conv7_2 -> conv7_2_t
I0317 14:49:43.759639 16302 net.cpp:150] Setting up conv7_2
I0317 14:49:43.759651 16302 net.cpp:157] Top shape: 8 256 8 8 (131072)
I0317 14:49:43.759655 16302 net.cpp:165] Memory required for data: 7674300484
I0317 14:49:43.759661 16302 layer_factory.hpp:77] Creating layer conv7_2_relu
I0317 14:49:43.759666 16302 net.cpp:100] Creating Layer conv7_2_relu
I0317 14:49:43.759671 16302 net.cpp:434] conv7_2_relu <- conv7_2_t
I0317 14:49:43.759677 16302 net.cpp:395] conv7_2_relu -> conv7_2_t (in-place)
I0317 14:49:43.759855 16302 net.cpp:150] Setting up conv7_2_relu
I0317 14:49:43.759876 16302 net.cpp:157] Top shape: 8 256 8 8 (131072)
I0317 14:49:43.759878 16302 net.cpp:165] Memory required for data: 7674824772
I0317 14:49:43.759882 16302 layer_factory.hpp:77] Creating layer conv7_2_t_conv7_2_relu_0_split
I0317 14:49:43.759887 16302 net.cpp:100] Creating Layer conv7_2_t_conv7_2_relu_0_split
I0317 14:49:43.759892 16302 net.cpp:434] conv7_2_t_conv7_2_relu_0_split <- conv7_2_t
I0317 14:49:43.759899 16302 net.cpp:408] conv7_2_t_conv7_2_relu_0_split -> conv7_2_t_conv7_2_relu_0_split_0
I0317 14:49:43.759907 16302 net.cpp:408] conv7_2_t_conv7_2_relu_0_split -> conv7_2_t_conv7_2_relu_0_split_1
I0317 14:49:43.759950 16302 net.cpp:150] Setting up conv7_2_t_conv7_2_relu_0_split
I0317 14:49:43.759958 16302 net.cpp:157] Top shape: 8 256 8 8 (131072)
I0317 14:49:43.759961 16302 net.cpp:157] Top shape: 8 256 8 8 (131072)
I0317 14:49:43.759965 16302 net.cpp:165] Memory required for data: 7675873348
I0317 14:49:43.759968 16302 layer_factory.hpp:77] Creating layer conv7_2_s
I0317 14:49:43.759974 16302 net.cpp:100] Creating Layer conv7_2_s
I0317 14:49:43.759980 16302 net.cpp:434] conv7_2_s <- conv7_2_t_conv7_2_relu_0_split_0
I0317 14:49:43.759989 16302 net.cpp:408] conv7_2_s -> conv7_2_s
I0317 14:49:43.760169 16302 net.cpp:150] Setting up conv7_2_s
I0317 14:49:43.760177 16302 net.cpp:157] Top shape: 8 256 1 1 (2048)
I0317 14:49:43.760180 16302 net.cpp:165] Memory required for data: 7675881540
I0317 14:49:43.760185 16302 layer_factory.hpp:77] Creating layer conv7_2_fc1
I0317 14:49:43.760192 16302 net.cpp:100] Creating Layer conv7_2_fc1
I0317 14:49:43.760196 16302 net.cpp:434] conv7_2_fc1 <- conv7_2_s
I0317 14:49:43.760202 16302 net.cpp:408] conv7_2_fc1 -> conv7_2_fc1
I0317 14:49:43.761301 16302 net.cpp:150] Setting up conv7_2_fc1
I0317 14:49:43.761312 16302 net.cpp:157] Top shape: 8 64 1 1 (512)
I0317 14:49:43.761315 16302 net.cpp:165] Memory required for data: 7675883588
I0317 14:49:43.761329 16302 layer_factory.hpp:77] Creating layer conv7_2_relu
I0317 14:49:43.761337 16302 net.cpp:100] Creating Layer conv7_2_relu
I0317 14:49:43.761340 16302 net.cpp:434] conv7_2_relu <- conv7_2_fc1
I0317 14:49:43.761348 16302 net.cpp:395] conv7_2_relu -> conv7_2_fc1 (in-place)
I0317 14:49:43.761838 16302 net.cpp:150] Setting up conv7_2_relu
I0317 14:49:43.761849 16302 net.cpp:157] Top shape: 8 64 1 1 (512)
I0317 14:49:43.761852 16302 net.cpp:165] Memory required for data: 7675885636
I0317 14:49:43.761857 16302 layer_factory.hpp:77] Creating layer conv7_2_fc2
I0317 14:49:43.761863 16302 net.cpp:100] Creating Layer conv7_2_fc2
I0317 14:49:43.761868 16302 net.cpp:434] conv7_2_fc2 <- conv7_2_fc1
I0317 14:49:43.761874 16302 net.cpp:408] conv7_2_fc2 -> conv7_2_fc2
I0317 14:49:43.763288 16302 net.cpp:150] Setting up conv7_2_fc2
I0317 14:49:43.763301 16302 net.cpp:157] Top shape: 8 256 1 1 (2048)
I0317 14:49:43.763305 16302 net.cpp:165] Memory required for data: 7675893828
I0317 14:49:43.763310 16302 layer_factory.hpp:77] Creating layer conv7_2_sig
I0317 14:49:43.763316 16302 net.cpp:100] Creating Layer conv7_2_sig
I0317 14:49:43.763320 16302 net.cpp:434] conv7_2_sig <- conv7_2_fc2
I0317 14:49:43.763326 16302 net.cpp:395] conv7_2_sig -> conv7_2_fc2 (in-place)
I0317 14:49:43.763495 16302 net.cpp:150] Setting up conv7_2_sig
I0317 14:49:43.763505 16302 net.cpp:157] Top shape: 8 256 1 1 (2048)
I0317 14:49:43.763509 16302 net.cpp:165] Memory required for data: 7675902020
I0317 14:49:43.763514 16302 layer_factory.hpp:77] Creating layer conv7_2_reshape
I0317 14:49:43.763519 16302 net.cpp:100] Creating Layer conv7_2_reshape
I0317 14:49:43.763522 16302 net.cpp:434] conv7_2_reshape <- conv7_2_fc2
I0317 14:49:43.763528 16302 net.cpp:408] conv7_2_reshape -> conv7_2_reshape
I0317 14:49:43.763561 16302 net.cpp:150] Setting up conv7_2_reshape
I0317 14:49:43.763567 16302 net.cpp:157] Top shape: 8 256 (2048)
I0317 14:49:43.763569 16302 net.cpp:165] Memory required for data: 7675910212
I0317 14:49:43.763572 16302 layer_factory.hpp:77] Creating layer conv7_2_scale
I0317 14:49:43.763578 16302 net.cpp:100] Creating Layer conv7_2_scale
I0317 14:49:43.763592 16302 net.cpp:434] conv7_2_scale <- conv7_2_t_conv7_2_relu_0_split_1
I0317 14:49:43.763597 16302 net.cpp:434] conv7_2_scale <- conv7_2_reshape
I0317 14:49:43.763605 16302 net.cpp:408] conv7_2_scale -> conv7_2
I0317 14:49:43.763684 16302 net.cpp:150] Setting up conv7_2_scale
I0317 14:49:43.763691 16302 net.cpp:157] Top shape: 8 256 8 8 (131072)
I0317 14:49:43.763695 16302 net.cpp:165] Memory required for data: 7676434500
I0317 14:49:43.763697 16302 layer_factory.hpp:77] Creating layer conv7_2_conv7_2_scale_0_split
I0317 14:49:43.763705 16302 net.cpp:100] Creating Layer conv7_2_conv7_2_scale_0_split
I0317 14:49:43.763707 16302 net.cpp:434] conv7_2_conv7_2_scale_0_split <- conv7_2
I0317 14:49:43.763718 16302 net.cpp:408] conv7_2_conv7_2_scale_0_split -> conv7_2_conv7_2_scale_0_split_0
I0317 14:49:43.763730 16302 net.cpp:408] conv7_2_conv7_2_scale_0_split -> conv7_2_conv7_2_scale_0_split_1
I0317 14:49:43.763739 16302 net.cpp:408] conv7_2_conv7_2_scale_0_split -> conv7_2_conv7_2_scale_0_split_2
I0317 14:49:43.763746 16302 net.cpp:408] conv7_2_conv7_2_scale_0_split -> conv7_2_conv7_2_scale_0_split_3
I0317 14:49:43.763801 16302 net.cpp:150] Setting up conv7_2_conv7_2_scale_0_split
I0317 14:49:43.763808 16302 net.cpp:157] Top shape: 8 256 8 8 (131072)
I0317 14:49:43.763813 16302 net.cpp:157] Top shape: 8 256 8 8 (131072)
I0317 14:49:43.763816 16302 net.cpp:157] Top shape: 8 256 8 8 (131072)
I0317 14:49:43.763819 16302 net.cpp:157] Top shape: 8 256 8 8 (131072)
I0317 14:49:43.763823 16302 net.cpp:165] Memory required for data: 7678531652
I0317 14:49:43.763826 16302 layer_factory.hpp:77] Creating layer conv8_1
I0317 14:49:43.763836 16302 net.cpp:100] Creating Layer conv8_1
I0317 14:49:43.763841 16302 net.cpp:434] conv8_1 <- conv7_2_conv7_2_scale_0_split_0
I0317 14:49:43.763847 16302 net.cpp:408] conv8_1 -> conv8_1
I0317 14:49:43.765717 16302 net.cpp:150] Setting up conv8_1
I0317 14:49:43.765729 16302 net.cpp:157] Top shape: 8 128 8 8 (65536)
I0317 14:49:43.765734 16302 net.cpp:165] Memory required for data: 7678793796
I0317 14:49:43.765740 16302 layer_factory.hpp:77] Creating layer conv8_1_relu
I0317 14:49:43.765746 16302 net.cpp:100] Creating Layer conv8_1_relu
I0317 14:49:43.765751 16302 net.cpp:434] conv8_1_relu <- conv8_1
I0317 14:49:43.765755 16302 net.cpp:395] conv8_1_relu -> conv8_1 (in-place)
I0317 14:49:43.765910 16302 net.cpp:150] Setting up conv8_1_relu
I0317 14:49:43.765921 16302 net.cpp:157] Top shape: 8 128 8 8 (65536)
I0317 14:49:43.765924 16302 net.cpp:165] Memory required for data: 7679055940
I0317 14:49:43.765928 16302 layer_factory.hpp:77] Creating layer conv8_2
I0317 14:49:43.765936 16302 net.cpp:100] Creating Layer conv8_2
I0317 14:49:43.765942 16302 net.cpp:434] conv8_2 <- conv8_1
I0317 14:49:43.765949 16302 net.cpp:408] conv8_2 -> conv8_2_t
I0317 14:49:43.768870 16302 net.cpp:150] Setting up conv8_2
I0317 14:49:43.768883 16302 net.cpp:157] Top shape: 8 256 4 4 (32768)
I0317 14:49:43.768887 16302 net.cpp:165] Memory required for data: 7679187012
I0317 14:49:43.768893 16302 layer_factory.hpp:77] Creating layer conv8_2_relu
I0317 14:49:43.768899 16302 net.cpp:100] Creating Layer conv8_2_relu
I0317 14:49:43.768904 16302 net.cpp:434] conv8_2_relu <- conv8_2_t
I0317 14:49:43.768909 16302 net.cpp:395] conv8_2_relu -> conv8_2_t (in-place)
I0317 14:49:43.769065 16302 net.cpp:150] Setting up conv8_2_relu
I0317 14:49:43.769074 16302 net.cpp:157] Top shape: 8 256 4 4 (32768)
I0317 14:49:43.769078 16302 net.cpp:165] Memory required for data: 7679318084
I0317 14:49:43.769081 16302 layer_factory.hpp:77] Creating layer conv8_2_t_conv8_2_relu_0_split
I0317 14:49:43.769088 16302 net.cpp:100] Creating Layer conv8_2_t_conv8_2_relu_0_split
I0317 14:49:43.769091 16302 net.cpp:434] conv8_2_t_conv8_2_relu_0_split <- conv8_2_t
I0317 14:49:43.769096 16302 net.cpp:408] conv8_2_t_conv8_2_relu_0_split -> conv8_2_t_conv8_2_relu_0_split_0
I0317 14:49:43.769104 16302 net.cpp:408] conv8_2_t_conv8_2_relu_0_split -> conv8_2_t_conv8_2_relu_0_split_1
I0317 14:49:43.769140 16302 net.cpp:150] Setting up conv8_2_t_conv8_2_relu_0_split
I0317 14:49:43.769158 16302 net.cpp:157] Top shape: 8 256 4 4 (32768)
I0317 14:49:43.769162 16302 net.cpp:157] Top shape: 8 256 4 4 (32768)
I0317 14:49:43.769166 16302 net.cpp:165] Memory required for data: 7679580228
I0317 14:49:43.769170 16302 layer_factory.hpp:77] Creating layer conv8_2_s
I0317 14:49:43.769176 16302 net.cpp:100] Creating Layer conv8_2_s
I0317 14:49:43.769181 16302 net.cpp:434] conv8_2_s <- conv8_2_t_conv8_2_relu_0_split_0
I0317 14:49:43.769187 16302 net.cpp:408] conv8_2_s -> conv8_2_s
I0317 14:49:43.769692 16302 net.cpp:150] Setting up conv8_2_s
I0317 14:49:43.769702 16302 net.cpp:157] Top shape: 8 256 1 1 (2048)
I0317 14:49:43.769706 16302 net.cpp:165] Memory required for data: 7679588420
I0317 14:49:43.769711 16302 layer_factory.hpp:77] Creating layer conv8_2_fc1
I0317 14:49:43.769721 16302 net.cpp:100] Creating Layer conv8_2_fc1
I0317 14:49:43.769727 16302 net.cpp:434] conv8_2_fc1 <- conv8_2_s
I0317 14:49:43.769735 16302 net.cpp:408] conv8_2_fc1 -> conv8_2_fc1
I0317 14:49:43.770833 16302 net.cpp:150] Setting up conv8_2_fc1
I0317 14:49:43.770844 16302 net.cpp:157] Top shape: 8 64 1 1 (512)
I0317 14:49:43.770848 16302 net.cpp:165] Memory required for data: 7679590468
I0317 14:49:43.770853 16302 layer_factory.hpp:77] Creating layer conv8_2_relu
I0317 14:49:43.770859 16302 net.cpp:100] Creating Layer conv8_2_relu
I0317 14:49:43.770864 16302 net.cpp:434] conv8_2_relu <- conv8_2_fc1
I0317 14:49:43.770869 16302 net.cpp:395] conv8_2_relu -> conv8_2_fc1 (in-place)
I0317 14:49:43.771028 16302 net.cpp:150] Setting up conv8_2_relu
I0317 14:49:43.771036 16302 net.cpp:157] Top shape: 8 64 1 1 (512)
I0317 14:49:43.771039 16302 net.cpp:165] Memory required for data: 7679592516
I0317 14:49:43.771044 16302 layer_factory.hpp:77] Creating layer conv8_2_fc2
I0317 14:49:43.771051 16302 net.cpp:100] Creating Layer conv8_2_fc2
I0317 14:49:43.771055 16302 net.cpp:434] conv8_2_fc2 <- conv8_2_fc1
I0317 14:49:43.771061 16302 net.cpp:408] conv8_2_fc2 -> conv8_2_fc2
I0317 14:49:43.772145 16302 net.cpp:150] Setting up conv8_2_fc2
I0317 14:49:43.772156 16302 net.cpp:157] Top shape: 8 256 1 1 (2048)
I0317 14:49:43.772159 16302 net.cpp:165] Memory required for data: 7679600708
I0317 14:49:43.772164 16302 layer_factory.hpp:77] Creating layer conv8_2_sig
I0317 14:49:43.772171 16302 net.cpp:100] Creating Layer conv8_2_sig
I0317 14:49:43.772176 16302 net.cpp:434] conv8_2_sig <- conv8_2_fc2
I0317 14:49:43.772181 16302 net.cpp:395] conv8_2_sig -> conv8_2_fc2 (in-place)
I0317 14:49:43.772336 16302 net.cpp:150] Setting up conv8_2_sig
I0317 14:49:43.772343 16302 net.cpp:157] Top shape: 8 256 1 1 (2048)
I0317 14:49:43.772346 16302 net.cpp:165] Memory required for data: 7679608900
I0317 14:49:43.772351 16302 layer_factory.hpp:77] Creating layer conv8_2_reshape
I0317 14:49:43.772357 16302 net.cpp:100] Creating Layer conv8_2_reshape
I0317 14:49:43.772361 16302 net.cpp:434] conv8_2_reshape <- conv8_2_fc2
I0317 14:49:43.772367 16302 net.cpp:408] conv8_2_reshape -> conv8_2_reshape
I0317 14:49:43.772397 16302 net.cpp:150] Setting up conv8_2_reshape
I0317 14:49:43.772403 16302 net.cpp:157] Top shape: 8 256 (2048)
I0317 14:49:43.772408 16302 net.cpp:165] Memory required for data: 7679617092
I0317 14:49:43.772410 16302 layer_factory.hpp:77] Creating layer conv8_2_scale
I0317 14:49:43.772415 16302 net.cpp:100] Creating Layer conv8_2_scale
I0317 14:49:43.772419 16302 net.cpp:434] conv8_2_scale <- conv8_2_t_conv8_2_relu_0_split_1
I0317 14:49:43.772423 16302 net.cpp:434] conv8_2_scale <- conv8_2_reshape
I0317 14:49:43.772428 16302 net.cpp:408] conv8_2_scale -> conv8_2
I0317 14:49:43.772495 16302 net.cpp:150] Setting up conv8_2_scale
I0317 14:49:43.772501 16302 net.cpp:157] Top shape: 8 256 4 4 (32768)
I0317 14:49:43.772505 16302 net.cpp:165] Memory required for data: 7679748164
I0317 14:49:43.772508 16302 layer_factory.hpp:77] Creating layer conv8_2_conv8_2_scale_0_split
I0317 14:49:43.772514 16302 net.cpp:100] Creating Layer conv8_2_conv8_2_scale_0_split
I0317 14:49:43.772517 16302 net.cpp:434] conv8_2_conv8_2_scale_0_split <- conv8_2
I0317 14:49:43.772532 16302 net.cpp:408] conv8_2_conv8_2_scale_0_split -> conv8_2_conv8_2_scale_0_split_0
I0317 14:49:43.772541 16302 net.cpp:408] conv8_2_conv8_2_scale_0_split -> conv8_2_conv8_2_scale_0_split_1
I0317 14:49:43.772547 16302 net.cpp:408] conv8_2_conv8_2_scale_0_split -> conv8_2_conv8_2_scale_0_split_2
I0317 14:49:43.772552 16302 net.cpp:408] conv8_2_conv8_2_scale_0_split -> conv8_2_conv8_2_scale_0_split_3
I0317 14:49:43.772609 16302 net.cpp:150] Setting up conv8_2_conv8_2_scale_0_split
I0317 14:49:43.772619 16302 net.cpp:157] Top shape: 8 256 4 4 (32768)
I0317 14:49:43.772625 16302 net.cpp:157] Top shape: 8 256 4 4 (32768)
I0317 14:49:43.772629 16302 net.cpp:157] Top shape: 8 256 4 4 (32768)
I0317 14:49:43.772634 16302 net.cpp:157] Top shape: 8 256 4 4 (32768)
I0317 14:49:43.772637 16302 net.cpp:165] Memory required for data: 7680272452
I0317 14:49:43.772645 16302 layer_factory.hpp:77] Creating layer conv9_1
I0317 14:49:43.772656 16302 net.cpp:100] Creating Layer conv9_1
I0317 14:49:43.772660 16302 net.cpp:434] conv9_1 <- conv8_2_conv8_2_scale_0_split_0
I0317 14:49:43.772666 16302 net.cpp:408] conv9_1 -> conv9_1
I0317 14:49:43.773799 16302 net.cpp:150] Setting up conv9_1
I0317 14:49:43.773810 16302 net.cpp:157] Top shape: 8 128 4 4 (16384)
I0317 14:49:43.773814 16302 net.cpp:165] Memory required for data: 7680337988
I0317 14:49:43.773819 16302 layer_factory.hpp:77] Creating layer conv9_1_relu
I0317 14:49:43.773826 16302 net.cpp:100] Creating Layer conv9_1_relu
I0317 14:49:43.773830 16302 net.cpp:434] conv9_1_relu <- conv9_1
I0317 14:49:43.773834 16302 net.cpp:395] conv9_1_relu -> conv9_1 (in-place)
I0317 14:49:43.774317 16302 net.cpp:150] Setting up conv9_1_relu
I0317 14:49:43.774341 16302 net.cpp:157] Top shape: 8 128 4 4 (16384)
I0317 14:49:43.774345 16302 net.cpp:165] Memory required for data: 7680403524
I0317 14:49:43.774348 16302 layer_factory.hpp:77] Creating layer conv9_2
I0317 14:49:43.774358 16302 net.cpp:100] Creating Layer conv9_2
I0317 14:49:43.774363 16302 net.cpp:434] conv9_2 <- conv9_1
I0317 14:49:43.774368 16302 net.cpp:408] conv9_2 -> conv9_2_t
I0317 14:49:43.777317 16302 net.cpp:150] Setting up conv9_2
I0317 14:49:43.777328 16302 net.cpp:157] Top shape: 8 256 2 2 (8192)
I0317 14:49:43.777333 16302 net.cpp:165] Memory required for data: 7680436292
I0317 14:49:43.777338 16302 layer_factory.hpp:77] Creating layer conv9_2_relu
I0317 14:49:43.777344 16302 net.cpp:100] Creating Layer conv9_2_relu
I0317 14:49:43.777348 16302 net.cpp:434] conv9_2_relu <- conv9_2_t
I0317 14:49:43.777354 16302 net.cpp:395] conv9_2_relu -> conv9_2_t (in-place)
I0317 14:49:43.777513 16302 net.cpp:150] Setting up conv9_2_relu
I0317 14:49:43.777520 16302 net.cpp:157] Top shape: 8 256 2 2 (8192)
I0317 14:49:43.777523 16302 net.cpp:165] Memory required for data: 7680469060
I0317 14:49:43.777528 16302 layer_factory.hpp:77] Creating layer conv9_2_t_conv9_2_relu_0_split
I0317 14:49:43.777534 16302 net.cpp:100] Creating Layer conv9_2_t_conv9_2_relu_0_split
I0317 14:49:43.777537 16302 net.cpp:434] conv9_2_t_conv9_2_relu_0_split <- conv9_2_t
I0317 14:49:43.777544 16302 net.cpp:408] conv9_2_t_conv9_2_relu_0_split -> conv9_2_t_conv9_2_relu_0_split_0
I0317 14:49:43.777549 16302 net.cpp:408] conv9_2_t_conv9_2_relu_0_split -> conv9_2_t_conv9_2_relu_0_split_1
I0317 14:49:43.777595 16302 net.cpp:150] Setting up conv9_2_t_conv9_2_relu_0_split
I0317 14:49:43.777602 16302 net.cpp:157] Top shape: 8 256 2 2 (8192)
I0317 14:49:43.777606 16302 net.cpp:157] Top shape: 8 256 2 2 (8192)
I0317 14:49:43.777609 16302 net.cpp:165] Memory required for data: 7680534596
I0317 14:49:43.777611 16302 layer_factory.hpp:77] Creating layer conv9_2_s
I0317 14:49:43.777617 16302 net.cpp:100] Creating Layer conv9_2_s
I0317 14:49:43.777622 16302 net.cpp:434] conv9_2_s <- conv9_2_t_conv9_2_relu_0_split_0
I0317 14:49:43.777633 16302 net.cpp:408] conv9_2_s -> conv9_2_s
I0317 14:49:43.777817 16302 net.cpp:150] Setting up conv9_2_s
I0317 14:49:43.777827 16302 net.cpp:157] Top shape: 8 256 1 1 (2048)
I0317 14:49:43.777829 16302 net.cpp:165] Memory required for data: 7680542788
I0317 14:49:43.777843 16302 layer_factory.hpp:77] Creating layer conv9_2_fc1
I0317 14:49:43.777853 16302 net.cpp:100] Creating Layer conv9_2_fc1
I0317 14:49:43.777858 16302 net.cpp:434] conv9_2_fc1 <- conv9_2_s
I0317 14:49:43.777864 16302 net.cpp:408] conv9_2_fc1 -> conv9_2_fc1
I0317 14:49:43.778993 16302 net.cpp:150] Setting up conv9_2_fc1
I0317 14:49:43.779006 16302 net.cpp:157] Top shape: 8 64 1 1 (512)
I0317 14:49:43.779008 16302 net.cpp:165] Memory required for data: 7680544836
I0317 14:49:43.779013 16302 layer_factory.hpp:77] Creating layer conv9_2_relu
I0317 14:49:43.779019 16302 net.cpp:100] Creating Layer conv9_2_relu
I0317 14:49:43.779023 16302 net.cpp:434] conv9_2_relu <- conv9_2_fc1
I0317 14:49:43.779031 16302 net.cpp:395] conv9_2_relu -> conv9_2_fc1 (in-place)
I0317 14:49:43.779528 16302 net.cpp:150] Setting up conv9_2_relu
I0317 14:49:43.779539 16302 net.cpp:157] Top shape: 8 64 1 1 (512)
I0317 14:49:43.779542 16302 net.cpp:165] Memory required for data: 7680546884
I0317 14:49:43.779546 16302 layer_factory.hpp:77] Creating layer conv9_2_fc2
I0317 14:49:43.779554 16302 net.cpp:100] Creating Layer conv9_2_fc2
I0317 14:49:43.779561 16302 net.cpp:434] conv9_2_fc2 <- conv9_2_fc1
I0317 14:49:43.779567 16302 net.cpp:408] conv9_2_fc2 -> conv9_2_fc2
I0317 14:49:43.780683 16302 net.cpp:150] Setting up conv9_2_fc2
I0317 14:49:43.780694 16302 net.cpp:157] Top shape: 8 256 1 1 (2048)
I0317 14:49:43.780697 16302 net.cpp:165] Memory required for data: 7680555076
I0317 14:49:43.780702 16302 layer_factory.hpp:77] Creating layer conv9_2_sig
I0317 14:49:43.780709 16302 net.cpp:100] Creating Layer conv9_2_sig
I0317 14:49:43.780712 16302 net.cpp:434] conv9_2_sig <- conv9_2_fc2
I0317 14:49:43.780719 16302 net.cpp:395] conv9_2_sig -> conv9_2_fc2 (in-place)
I0317 14:49:43.780889 16302 net.cpp:150] Setting up conv9_2_sig
I0317 14:49:43.780897 16302 net.cpp:157] Top shape: 8 256 1 1 (2048)
I0317 14:49:43.780901 16302 net.cpp:165] Memory required for data: 7680563268
I0317 14:49:43.780907 16302 layer_factory.hpp:77] Creating layer conv9_2_reshape
I0317 14:49:43.780913 16302 net.cpp:100] Creating Layer conv9_2_reshape
I0317 14:49:43.780917 16302 net.cpp:434] conv9_2_reshape <- conv9_2_fc2
I0317 14:49:43.780923 16302 net.cpp:408] conv9_2_reshape -> conv9_2_reshape
I0317 14:49:43.780956 16302 net.cpp:150] Setting up conv9_2_reshape
I0317 14:49:43.780963 16302 net.cpp:157] Top shape: 8 256 (2048)
I0317 14:49:43.780966 16302 net.cpp:165] Memory required for data: 7680571460
I0317 14:49:43.780968 16302 layer_factory.hpp:77] Creating layer conv9_2_scale
I0317 14:49:43.780985 16302 net.cpp:100] Creating Layer conv9_2_scale
I0317 14:49:43.780989 16302 net.cpp:434] conv9_2_scale <- conv9_2_t_conv9_2_relu_0_split_1
I0317 14:49:43.780994 16302 net.cpp:434] conv9_2_scale <- conv9_2_reshape
I0317 14:49:43.780998 16302 net.cpp:408] conv9_2_scale -> conv9_2
I0317 14:49:43.781070 16302 net.cpp:150] Setting up conv9_2_scale
I0317 14:49:43.781078 16302 net.cpp:157] Top shape: 8 256 2 2 (8192)
I0317 14:49:43.781081 16302 net.cpp:165] Memory required for data: 7680604228
I0317 14:49:43.781085 16302 layer_factory.hpp:77] Creating layer conv9_2_conv9_2_scale_0_split
I0317 14:49:43.781091 16302 net.cpp:100] Creating Layer conv9_2_conv9_2_scale_0_split
I0317 14:49:43.781095 16302 net.cpp:434] conv9_2_conv9_2_scale_0_split <- conv9_2
I0317 14:49:43.781100 16302 net.cpp:408] conv9_2_conv9_2_scale_0_split -> conv9_2_conv9_2_scale_0_split_0
I0317 14:49:43.781107 16302 net.cpp:408] conv9_2_conv9_2_scale_0_split -> conv9_2_conv9_2_scale_0_split_1
I0317 14:49:43.781114 16302 net.cpp:408] conv9_2_conv9_2_scale_0_split -> conv9_2_conv9_2_scale_0_split_2
I0317 14:49:43.781121 16302 net.cpp:408] conv9_2_conv9_2_scale_0_split -> conv9_2_conv9_2_scale_0_split_3
I0317 14:49:43.781181 16302 net.cpp:150] Setting up conv9_2_conv9_2_scale_0_split
I0317 14:49:43.781188 16302 net.cpp:157] Top shape: 8 256 2 2 (8192)
I0317 14:49:43.781193 16302 net.cpp:157] Top shape: 8 256 2 2 (8192)
I0317 14:49:43.781195 16302 net.cpp:157] Top shape: 8 256 2 2 (8192)
I0317 14:49:43.781210 16302 net.cpp:157] Top shape: 8 256 2 2 (8192)
I0317 14:49:43.781213 16302 net.cpp:165] Memory required for data: 7680735300
I0317 14:49:43.781217 16302 layer_factory.hpp:77] Creating layer conv10_1
I0317 14:49:43.781234 16302 net.cpp:100] Creating Layer conv10_1
I0317 14:49:43.781239 16302 net.cpp:434] conv10_1 <- conv9_2_conv9_2_scale_0_split_0
I0317 14:49:43.781247 16302 net.cpp:408] conv10_1 -> conv10_1
I0317 14:49:43.782428 16302 net.cpp:150] Setting up conv10_1
I0317 14:49:43.782439 16302 net.cpp:157] Top shape: 8 128 2 2 (4096)
I0317 14:49:43.782443 16302 net.cpp:165] Memory required for data: 7680751684
I0317 14:49:43.782449 16302 layer_factory.hpp:77] Creating layer conv10_1_relu
I0317 14:49:43.782455 16302 net.cpp:100] Creating Layer conv10_1_relu
I0317 14:49:43.782459 16302 net.cpp:434] conv10_1_relu <- conv10_1
I0317 14:49:43.782464 16302 net.cpp:395] conv10_1_relu -> conv10_1 (in-place)
I0317 14:49:43.782621 16302 net.cpp:150] Setting up conv10_1_relu
I0317 14:49:43.782631 16302 net.cpp:157] Top shape: 8 128 2 2 (4096)
I0317 14:49:43.782634 16302 net.cpp:165] Memory required for data: 7680768068
I0317 14:49:43.782639 16302 layer_factory.hpp:77] Creating layer conv10_2
I0317 14:49:43.782646 16302 net.cpp:100] Creating Layer conv10_2
I0317 14:49:43.782650 16302 net.cpp:434] conv10_2 <- conv10_1
I0317 14:49:43.782658 16302 net.cpp:408] conv10_2 -> conv10_2_t
I0317 14:49:43.786547 16302 net.cpp:150] Setting up conv10_2
I0317 14:49:43.786558 16302 net.cpp:157] Top shape: 8 256 1 1 (2048)
I0317 14:49:43.786562 16302 net.cpp:165] Memory required for data: 7680776260
I0317 14:49:43.786568 16302 layer_factory.hpp:77] Creating layer conv10_2_relu
I0317 14:49:43.786574 16302 net.cpp:100] Creating Layer conv10_2_relu
I0317 14:49:43.786579 16302 net.cpp:434] conv10_2_relu <- conv10_2_t
I0317 14:49:43.786586 16302 net.cpp:395] conv10_2_relu -> conv10_2_t (in-place)
I0317 14:49:43.786756 16302 net.cpp:150] Setting up conv10_2_relu
I0317 14:49:43.786765 16302 net.cpp:157] Top shape: 8 256 1 1 (2048)
I0317 14:49:43.786767 16302 net.cpp:165] Memory required for data: 7680784452
I0317 14:49:43.786772 16302 layer_factory.hpp:77] Creating layer conv10_2_t_conv10_2_relu_0_split
I0317 14:49:43.786779 16302 net.cpp:100] Creating Layer conv10_2_t_conv10_2_relu_0_split
I0317 14:49:43.786783 16302 net.cpp:434] conv10_2_t_conv10_2_relu_0_split <- conv10_2_t
I0317 14:49:43.786788 16302 net.cpp:408] conv10_2_t_conv10_2_relu_0_split -> conv10_2_t_conv10_2_relu_0_split_0
I0317 14:49:43.786795 16302 net.cpp:408] conv10_2_t_conv10_2_relu_0_split -> conv10_2_t_conv10_2_relu_0_split_1
I0317 14:49:43.786840 16302 net.cpp:150] Setting up conv10_2_t_conv10_2_relu_0_split
I0317 14:49:43.786847 16302 net.cpp:157] Top shape: 8 256 1 1 (2048)
I0317 14:49:43.786850 16302 net.cpp:157] Top shape: 8 256 1 1 (2048)
I0317 14:49:43.786854 16302 net.cpp:165] Memory required for data: 7680800836
I0317 14:49:43.786857 16302 layer_factory.hpp:77] Creating layer conv10_2_s
I0317 14:49:43.786864 16302 net.cpp:100] Creating Layer conv10_2_s
I0317 14:49:43.786869 16302 net.cpp:434] conv10_2_s <- conv10_2_t_conv10_2_relu_0_split_0
I0317 14:49:43.786873 16302 net.cpp:408] conv10_2_s -> conv10_2_s
I0317 14:49:43.787392 16302 net.cpp:150] Setting up conv10_2_s
I0317 14:49:43.787405 16302 net.cpp:157] Top shape: 8 256 1 1 (2048)
I0317 14:49:43.787408 16302 net.cpp:165] Memory required for data: 7680809028
I0317 14:49:43.787412 16302 layer_factory.hpp:77] Creating layer conv10_2_fc1
I0317 14:49:43.787420 16302 net.cpp:100] Creating Layer conv10_2_fc1
I0317 14:49:43.787426 16302 net.cpp:434] conv10_2_fc1 <- conv10_2_s
I0317 14:49:43.787432 16302 net.cpp:408] conv10_2_fc1 -> conv10_2_fc1
I0317 14:49:43.788560 16302 net.cpp:150] Setting up conv10_2_fc1
I0317 14:49:43.788573 16302 net.cpp:157] Top shape: 8 64 1 1 (512)
I0317 14:49:43.788576 16302 net.cpp:165] Memory required for data: 7680811076
I0317 14:49:43.788583 16302 layer_factory.hpp:77] Creating layer conv10_2_relu
I0317 14:49:43.788589 16302 net.cpp:100] Creating Layer conv10_2_relu
I0317 14:49:43.788604 16302 net.cpp:434] conv10_2_relu <- conv10_2_fc1
I0317 14:49:43.788609 16302 net.cpp:395] conv10_2_relu -> conv10_2_fc1 (in-place)
I0317 14:49:43.788780 16302 net.cpp:150] Setting up conv10_2_relu
I0317 14:49:43.788790 16302 net.cpp:157] Top shape: 8 64 1 1 (512)
I0317 14:49:43.788792 16302 net.cpp:165] Memory required for data: 7680813124
I0317 14:49:43.788796 16302 layer_factory.hpp:77] Creating layer conv10_2_fc2
I0317 14:49:43.788805 16302 net.cpp:100] Creating Layer conv10_2_fc2
I0317 14:49:43.788810 16302 net.cpp:434] conv10_2_fc2 <- conv10_2_fc1
I0317 14:49:43.788818 16302 net.cpp:408] conv10_2_fc2 -> conv10_2_fc2
I0317 14:49:43.789942 16302 net.cpp:150] Setting up conv10_2_fc2
I0317 14:49:43.789953 16302 net.cpp:157] Top shape: 8 256 1 1 (2048)
I0317 14:49:43.789958 16302 net.cpp:165] Memory required for data: 7680821316
I0317 14:49:43.789963 16302 layer_factory.hpp:77] Creating layer conv10_2_sig
I0317 14:49:43.789969 16302 net.cpp:100] Creating Layer conv10_2_sig
I0317 14:49:43.789974 16302 net.cpp:434] conv10_2_sig <- conv10_2_fc2
I0317 14:49:43.789981 16302 net.cpp:395] conv10_2_sig -> conv10_2_fc2 (in-place)
I0317 14:49:43.790153 16302 net.cpp:150] Setting up conv10_2_sig
I0317 14:49:43.790163 16302 net.cpp:157] Top shape: 8 256 1 1 (2048)
I0317 14:49:43.790166 16302 net.cpp:165] Memory required for data: 7680829508
I0317 14:49:43.790170 16302 layer_factory.hpp:77] Creating layer conv10_2_reshape
I0317 14:49:43.790176 16302 net.cpp:100] Creating Layer conv10_2_reshape
I0317 14:49:43.790179 16302 net.cpp:434] conv10_2_reshape <- conv10_2_fc2
I0317 14:49:43.790185 16302 net.cpp:408] conv10_2_reshape -> conv10_2_reshape
I0317 14:49:43.790217 16302 net.cpp:150] Setting up conv10_2_reshape
I0317 14:49:43.790225 16302 net.cpp:157] Top shape: 8 256 (2048)
I0317 14:49:43.790228 16302 net.cpp:165] Memory required for data: 7680837700
I0317 14:49:43.790231 16302 layer_factory.hpp:77] Creating layer conv10_2_scale
I0317 14:49:43.790237 16302 net.cpp:100] Creating Layer conv10_2_scale
I0317 14:49:43.790241 16302 net.cpp:434] conv10_2_scale <- conv10_2_t_conv10_2_relu_0_split_1
I0317 14:49:43.790246 16302 net.cpp:434] conv10_2_scale <- conv10_2_reshape
I0317 14:49:43.790251 16302 net.cpp:408] conv10_2_scale -> conv10_2
I0317 14:49:43.790338 16302 net.cpp:150] Setting up conv10_2_scale
I0317 14:49:43.790346 16302 net.cpp:157] Top shape: 8 256 1 1 (2048)
I0317 14:49:43.790349 16302 net.cpp:165] Memory required for data: 7680845892
I0317 14:49:43.790352 16302 layer_factory.hpp:77] Creating layer conv10_2_conv10_2_scale_0_split
I0317 14:49:43.790359 16302 net.cpp:100] Creating Layer conv10_2_conv10_2_scale_0_split
I0317 14:49:43.790362 16302 net.cpp:434] conv10_2_conv10_2_scale_0_split <- conv10_2
I0317 14:49:43.790369 16302 net.cpp:408] conv10_2_conv10_2_scale_0_split -> conv10_2_conv10_2_scale_0_split_0
I0317 14:49:43.790376 16302 net.cpp:408] conv10_2_conv10_2_scale_0_split -> conv10_2_conv10_2_scale_0_split_1
I0317 14:49:43.790383 16302 net.cpp:408] conv10_2_conv10_2_scale_0_split -> conv10_2_conv10_2_scale_0_split_2
I0317 14:49:43.790436 16302 net.cpp:150] Setting up conv10_2_conv10_2_scale_0_split
I0317 14:49:43.790442 16302 net.cpp:157] Top shape: 8 256 1 1 (2048)
I0317 14:49:43.790446 16302 net.cpp:157] Top shape: 8 256 1 1 (2048)
I0317 14:49:43.790449 16302 net.cpp:157] Top shape: 8 256 1 1 (2048)
I0317 14:49:43.790453 16302 net.cpp:165] Memory required for data: 7680870468
I0317 14:49:43.790457 16302 layer_factory.hpp:77] Creating layer conv4_3_norm
I0317 14:49:43.790477 16302 net.cpp:100] Creating Layer conv4_3_norm
I0317 14:49:43.790484 16302 net.cpp:434] conv4_3_norm <- conv4_3_conv4_3_scale_0_split_1
I0317 14:49:43.790491 16302 net.cpp:408] conv4_3_norm -> conv4_3_norm
I0317 14:49:43.790647 16302 net.cpp:150] Setting up conv4_3_norm
I0317 14:49:43.790654 16302 net.cpp:157] Top shape: 8 512 64 64 (16777216)
I0317 14:49:43.790658 16302 net.cpp:165] Memory required for data: 7747979332
I0317 14:49:43.790664 16302 layer_factory.hpp:77] Creating layer conv4_3_norm_conv4_3_norm_0_split
I0317 14:49:43.790670 16302 net.cpp:100] Creating Layer conv4_3_norm_conv4_3_norm_0_split
I0317 14:49:43.790684 16302 net.cpp:434] conv4_3_norm_conv4_3_norm_0_split <- conv4_3_norm
I0317 14:49:43.790690 16302 net.cpp:408] conv4_3_norm_conv4_3_norm_0_split -> conv4_3_norm_conv4_3_norm_0_split_0
I0317 14:49:43.790696 16302 net.cpp:408] conv4_3_norm_conv4_3_norm_0_split -> conv4_3_norm_conv4_3_norm_0_split_1
I0317 14:49:43.790701 16302 net.cpp:408] conv4_3_norm_conv4_3_norm_0_split -> conv4_3_norm_conv4_3_norm_0_split_2
I0317 14:49:43.790750 16302 net.cpp:150] Setting up conv4_3_norm_conv4_3_norm_0_split
I0317 14:49:43.790758 16302 net.cpp:157] Top shape: 8 512 64 64 (16777216)
I0317 14:49:43.790761 16302 net.cpp:157] Top shape: 8 512 64 64 (16777216)
I0317 14:49:43.790765 16302 net.cpp:157] Top shape: 8 512 64 64 (16777216)
I0317 14:49:43.790769 16302 net.cpp:165] Memory required for data: 7949305924
I0317 14:49:43.790776 16302 layer_factory.hpp:77] Creating layer conv4_3_norm_mbox_loc
I0317 14:49:43.790786 16302 net.cpp:100] Creating Layer conv4_3_norm_mbox_loc
I0317 14:49:43.790796 16302 net.cpp:434] conv4_3_norm_mbox_loc <- conv4_3_norm_conv4_3_norm_0_split_0
I0317 14:49:43.790807 16302 net.cpp:408] conv4_3_norm_mbox_loc -> conv4_3_norm_mbox_loc
I0317 14:49:43.792472 16302 net.cpp:150] Setting up conv4_3_norm_mbox_loc
I0317 14:49:43.792484 16302 net.cpp:157] Top shape: 8 16 64 64 (524288)
I0317 14:49:43.792487 16302 net.cpp:165] Memory required for data: 7951403076
I0317 14:49:43.792493 16302 layer_factory.hpp:77] Creating layer conv4_3_norm_mbox_loc_perm
I0317 14:49:43.792500 16302 net.cpp:100] Creating Layer conv4_3_norm_mbox_loc_perm
I0317 14:49:43.792505 16302 net.cpp:434] conv4_3_norm_mbox_loc_perm <- conv4_3_norm_mbox_loc
I0317 14:49:43.792511 16302 net.cpp:408] conv4_3_norm_mbox_loc_perm -> conv4_3_norm_mbox_loc_perm
I0317 14:49:43.792634 16302 net.cpp:150] Setting up conv4_3_norm_mbox_loc_perm
I0317 14:49:43.792644 16302 net.cpp:157] Top shape: 8 64 64 16 (524288)
I0317 14:49:43.792646 16302 net.cpp:165] Memory required for data: 7953500228
I0317 14:49:43.792649 16302 layer_factory.hpp:77] Creating layer conv4_3_norm_mbox_loc_flat
I0317 14:49:43.792655 16302 net.cpp:100] Creating Layer conv4_3_norm_mbox_loc_flat
I0317 14:49:43.792660 16302 net.cpp:434] conv4_3_norm_mbox_loc_flat <- conv4_3_norm_mbox_loc_perm
I0317 14:49:43.792666 16302 net.cpp:408] conv4_3_norm_mbox_loc_flat -> conv4_3_norm_mbox_loc_flat
I0317 14:49:43.792698 16302 net.cpp:150] Setting up conv4_3_norm_mbox_loc_flat
I0317 14:49:43.792709 16302 net.cpp:157] Top shape: 8 65536 (524288)
I0317 14:49:43.792714 16302 net.cpp:165] Memory required for data: 7955597380
I0317 14:49:43.792717 16302 layer_factory.hpp:77] Creating layer conv4_3_norm_mbox_conf
I0317 14:49:43.792726 16302 net.cpp:100] Creating Layer conv4_3_norm_mbox_conf
I0317 14:49:43.792732 16302 net.cpp:434] conv4_3_norm_mbox_conf <- conv4_3_norm_conv4_3_norm_0_split_1
I0317 14:49:43.792738 16302 net.cpp:408] conv4_3_norm_mbox_conf -> conv4_3_norm_mbox_conf
I0317 14:49:43.796387 16302 net.cpp:150] Setting up conv4_3_norm_mbox_conf
I0317 14:49:43.796399 16302 net.cpp:157] Top shape: 8 84 64 64 (2752512)
I0317 14:49:43.796403 16302 net.cpp:165] Memory required for data: 7966607428
I0317 14:49:43.796409 16302 layer_factory.hpp:77] Creating layer conv4_3_norm_mbox_conf_perm
I0317 14:49:43.796417 16302 net.cpp:100] Creating Layer conv4_3_norm_mbox_conf_perm
I0317 14:49:43.796420 16302 net.cpp:434] conv4_3_norm_mbox_conf_perm <- conv4_3_norm_mbox_conf
I0317 14:49:43.796427 16302 net.cpp:408] conv4_3_norm_mbox_conf_perm -> conv4_3_norm_mbox_conf_perm
I0317 14:49:43.796548 16302 net.cpp:150] Setting up conv4_3_norm_mbox_conf_perm
I0317 14:49:43.796556 16302 net.cpp:157] Top shape: 8 64 64 84 (2752512)
I0317 14:49:43.796560 16302 net.cpp:165] Memory required for data: 7977617476
I0317 14:49:43.796563 16302 layer_factory.hpp:77] Creating layer conv4_3_norm_mbox_conf_flat
I0317 14:49:43.796569 16302 net.cpp:100] Creating Layer conv4_3_norm_mbox_conf_flat
I0317 14:49:43.796573 16302 net.cpp:434] conv4_3_norm_mbox_conf_flat <- conv4_3_norm_mbox_conf_perm
I0317 14:49:43.796591 16302 net.cpp:408] conv4_3_norm_mbox_conf_flat -> conv4_3_norm_mbox_conf_flat
I0317 14:49:43.796620 16302 net.cpp:150] Setting up conv4_3_norm_mbox_conf_flat
I0317 14:49:43.796628 16302 net.cpp:157] Top shape: 8 344064 (2752512)
I0317 14:49:43.796631 16302 net.cpp:165] Memory required for data: 7988627524
I0317 14:49:43.796634 16302 layer_factory.hpp:77] Creating layer conv4_3_norm_mbox_priorbox
I0317 14:49:43.796640 16302 net.cpp:100] Creating Layer conv4_3_norm_mbox_priorbox
I0317 14:49:43.796646 16302 net.cpp:434] conv4_3_norm_mbox_priorbox <- conv4_3_norm_conv4_3_norm_0_split_2
I0317 14:49:43.796651 16302 net.cpp:434] conv4_3_norm_mbox_priorbox <- data_data_0_split_1
I0317 14:49:43.796658 16302 net.cpp:408] conv4_3_norm_mbox_priorbox -> conv4_3_norm_mbox_priorbox
I0317 14:49:43.796700 16302 net.cpp:150] Setting up conv4_3_norm_mbox_priorbox
I0317 14:49:43.796710 16302 net.cpp:157] Top shape: 1 2 65536 (131072)
I0317 14:49:43.796715 16302 net.cpp:165] Memory required for data: 7989151812
I0317 14:49:43.796717 16302 layer_factory.hpp:77] Creating layer fc7_mbox_loc
I0317 14:49:43.796725 16302 net.cpp:100] Creating Layer fc7_mbox_loc
I0317 14:49:43.796731 16302 net.cpp:434] fc7_mbox_loc <- fc7_fc7_scale_0_split_1
I0317 14:49:43.796737 16302 net.cpp:408] fc7_mbox_loc -> fc7_mbox_loc
I0317 14:49:43.799019 16302 net.cpp:150] Setting up fc7_mbox_loc
I0317 14:49:43.799031 16302 net.cpp:157] Top shape: 8 24 32 32 (196608)
I0317 14:49:43.799036 16302 net.cpp:165] Memory required for data: 7989938244
I0317 14:49:43.799041 16302 layer_factory.hpp:77] Creating layer fc7_mbox_loc_perm
I0317 14:49:43.799047 16302 net.cpp:100] Creating Layer fc7_mbox_loc_perm
I0317 14:49:43.799052 16302 net.cpp:434] fc7_mbox_loc_perm <- fc7_mbox_loc
I0317 14:49:43.799057 16302 net.cpp:408] fc7_mbox_loc_perm -> fc7_mbox_loc_perm
I0317 14:49:43.799177 16302 net.cpp:150] Setting up fc7_mbox_loc_perm
I0317 14:49:43.799186 16302 net.cpp:157] Top shape: 8 32 32 24 (196608)
I0317 14:49:43.799190 16302 net.cpp:165] Memory required for data: 7990724676
I0317 14:49:43.799192 16302 layer_factory.hpp:77] Creating layer fc7_mbox_loc_flat
I0317 14:49:43.799198 16302 net.cpp:100] Creating Layer fc7_mbox_loc_flat
I0317 14:49:43.799202 16302 net.cpp:434] fc7_mbox_loc_flat <- fc7_mbox_loc_perm
I0317 14:49:43.799207 16302 net.cpp:408] fc7_mbox_loc_flat -> fc7_mbox_loc_flat
I0317 14:49:43.799234 16302 net.cpp:150] Setting up fc7_mbox_loc_flat
I0317 14:49:43.799243 16302 net.cpp:157] Top shape: 8 24576 (196608)
I0317 14:49:43.799248 16302 net.cpp:165] Memory required for data: 7991511108
I0317 14:49:43.799252 16302 layer_factory.hpp:77] Creating layer fc7_mbox_conf
I0317 14:49:43.799263 16302 net.cpp:100] Creating Layer fc7_mbox_conf
I0317 14:49:43.799268 16302 net.cpp:434] fc7_mbox_conf <- fc7_fc7_scale_0_split_2
I0317 14:49:43.799273 16302 net.cpp:408] fc7_mbox_conf -> fc7_mbox_conf
I0317 14:49:43.806802 16302 net.cpp:150] Setting up fc7_mbox_conf
I0317 14:49:43.806816 16302 net.cpp:157] Top shape: 8 126 32 32 (1032192)
I0317 14:49:43.806819 16302 net.cpp:165] Memory required for data: 7995639876
I0317 14:49:43.806825 16302 layer_factory.hpp:77] Creating layer fc7_mbox_conf_perm
I0317 14:49:43.806831 16302 net.cpp:100] Creating Layer fc7_mbox_conf_perm
I0317 14:49:43.806835 16302 net.cpp:434] fc7_mbox_conf_perm <- fc7_mbox_conf
I0317 14:49:43.806843 16302 net.cpp:408] fc7_mbox_conf_perm -> fc7_mbox_conf_perm
I0317 14:49:43.806965 16302 net.cpp:150] Setting up fc7_mbox_conf_perm
I0317 14:49:43.806975 16302 net.cpp:157] Top shape: 8 32 32 126 (1032192)
I0317 14:49:43.806979 16302 net.cpp:165] Memory required for data: 7999768644
I0317 14:49:43.806982 16302 layer_factory.hpp:77] Creating layer fc7_mbox_conf_flat
I0317 14:49:43.806988 16302 net.cpp:100] Creating Layer fc7_mbox_conf_flat
I0317 14:49:43.806991 16302 net.cpp:434] fc7_mbox_conf_flat <- fc7_mbox_conf_perm
I0317 14:49:43.806999 16302 net.cpp:408] fc7_mbox_conf_flat -> fc7_mbox_conf_flat
I0317 14:49:43.807026 16302 net.cpp:150] Setting up fc7_mbox_conf_flat
I0317 14:49:43.807045 16302 net.cpp:157] Top shape: 8 129024 (1032192)
I0317 14:49:43.807049 16302 net.cpp:165] Memory required for data: 8003897412
I0317 14:49:43.807052 16302 layer_factory.hpp:77] Creating layer fc7_mbox_priorbox
I0317 14:49:43.807060 16302 net.cpp:100] Creating Layer fc7_mbox_priorbox
I0317 14:49:43.807065 16302 net.cpp:434] fc7_mbox_priorbox <- fc7_fc7_scale_0_split_3
I0317 14:49:43.807070 16302 net.cpp:434] fc7_mbox_priorbox <- data_data_0_split_2
I0317 14:49:43.807076 16302 net.cpp:408] fc7_mbox_priorbox -> fc7_mbox_priorbox
I0317 14:49:43.807116 16302 net.cpp:150] Setting up fc7_mbox_priorbox
I0317 14:49:43.807127 16302 net.cpp:157] Top shape: 1 2 24576 (49152)
I0317 14:49:43.807130 16302 net.cpp:165] Memory required for data: 8004094020
I0317 14:49:43.807134 16302 layer_factory.hpp:77] Creating layer conv6_2_mbox_loc
I0317 14:49:43.807143 16302 net.cpp:100] Creating Layer conv6_2_mbox_loc
I0317 14:49:43.807148 16302 net.cpp:434] conv6_2_mbox_loc <- conv6_2_conv6_2_scale_0_split_1
I0317 14:49:43.807154 16302 net.cpp:408] conv6_2_mbox_loc -> conv6_2_mbox_loc
I0317 14:49:43.808975 16302 net.cpp:150] Setting up conv6_2_mbox_loc
I0317 14:49:43.808987 16302 net.cpp:157] Top shape: 8 24 16 16 (49152)
I0317 14:49:43.808990 16302 net.cpp:165] Memory required for data: 8004290628
I0317 14:49:43.808996 16302 layer_factory.hpp:77] Creating layer conv6_2_mbox_loc_perm
I0317 14:49:43.809003 16302 net.cpp:100] Creating Layer conv6_2_mbox_loc_perm
I0317 14:49:43.809007 16302 net.cpp:434] conv6_2_mbox_loc_perm <- conv6_2_mbox_loc
I0317 14:49:43.809015 16302 net.cpp:408] conv6_2_mbox_loc_perm -> conv6_2_mbox_loc_perm
I0317 14:49:43.809136 16302 net.cpp:150] Setting up conv6_2_mbox_loc_perm
I0317 14:49:43.809145 16302 net.cpp:157] Top shape: 8 16 16 24 (49152)
I0317 14:49:43.809149 16302 net.cpp:165] Memory required for data: 8004487236
I0317 14:49:43.809152 16302 layer_factory.hpp:77] Creating layer conv6_2_mbox_loc_flat
I0317 14:49:43.809159 16302 net.cpp:100] Creating Layer conv6_2_mbox_loc_flat
I0317 14:49:43.809164 16302 net.cpp:434] conv6_2_mbox_loc_flat <- conv6_2_mbox_loc_perm
I0317 14:49:43.809168 16302 net.cpp:408] conv6_2_mbox_loc_flat -> conv6_2_mbox_loc_flat
I0317 14:49:43.809196 16302 net.cpp:150] Setting up conv6_2_mbox_loc_flat
I0317 14:49:43.809207 16302 net.cpp:157] Top shape: 8 6144 (49152)
I0317 14:49:43.809212 16302 net.cpp:165] Memory required for data: 8004683844
I0317 14:49:43.809216 16302 layer_factory.hpp:77] Creating layer conv6_2_mbox_conf
I0317 14:49:43.809223 16302 net.cpp:100] Creating Layer conv6_2_mbox_conf
I0317 14:49:43.809227 16302 net.cpp:434] conv6_2_mbox_conf <- conv6_2_conv6_2_scale_0_split_2
I0317 14:49:43.809234 16302 net.cpp:408] conv6_2_mbox_conf -> conv6_2_mbox_conf
I0317 14:49:43.813701 16302 net.cpp:150] Setting up conv6_2_mbox_conf
I0317 14:49:43.813712 16302 net.cpp:157] Top shape: 8 126 16 16 (258048)
I0317 14:49:43.813716 16302 net.cpp:165] Memory required for data: 8005716036
I0317 14:49:43.813722 16302 layer_factory.hpp:77] Creating layer conv6_2_mbox_conf_perm
I0317 14:49:43.813730 16302 net.cpp:100] Creating Layer conv6_2_mbox_conf_perm
I0317 14:49:43.813735 16302 net.cpp:434] conv6_2_mbox_conf_perm <- conv6_2_mbox_conf
I0317 14:49:43.813742 16302 net.cpp:408] conv6_2_mbox_conf_perm -> conv6_2_mbox_conf_perm
I0317 14:49:43.813868 16302 net.cpp:150] Setting up conv6_2_mbox_conf_perm
I0317 14:49:43.813876 16302 net.cpp:157] Top shape: 8 16 16 126 (258048)
I0317 14:49:43.813880 16302 net.cpp:165] Memory required for data: 8006748228
I0317 14:49:43.813884 16302 layer_factory.hpp:77] Creating layer conv6_2_mbox_conf_flat
I0317 14:49:43.813890 16302 net.cpp:100] Creating Layer conv6_2_mbox_conf_flat
I0317 14:49:43.813894 16302 net.cpp:434] conv6_2_mbox_conf_flat <- conv6_2_mbox_conf_perm
I0317 14:49:43.813900 16302 net.cpp:408] conv6_2_mbox_conf_flat -> conv6_2_mbox_conf_flat
I0317 14:49:43.813927 16302 net.cpp:150] Setting up conv6_2_mbox_conf_flat
I0317 14:49:43.813938 16302 net.cpp:157] Top shape: 8 32256 (258048)
I0317 14:49:43.813942 16302 net.cpp:165] Memory required for data: 8007780420
I0317 14:49:43.813956 16302 layer_factory.hpp:77] Creating layer conv6_2_mbox_priorbox
I0317 14:49:43.813963 16302 net.cpp:100] Creating Layer conv6_2_mbox_priorbox
I0317 14:49:43.813967 16302 net.cpp:434] conv6_2_mbox_priorbox <- conv6_2_conv6_2_scale_0_split_3
I0317 14:49:43.813972 16302 net.cpp:434] conv6_2_mbox_priorbox <- data_data_0_split_3
I0317 14:49:43.813977 16302 net.cpp:408] conv6_2_mbox_priorbox -> conv6_2_mbox_priorbox
I0317 14:49:43.814011 16302 net.cpp:150] Setting up conv6_2_mbox_priorbox
I0317 14:49:43.814019 16302 net.cpp:157] Top shape: 1 2 6144 (12288)
I0317 14:49:43.814023 16302 net.cpp:165] Memory required for data: 8007829572
I0317 14:49:43.814025 16302 layer_factory.hpp:77] Creating layer conv7_2_mbox_loc
I0317 14:49:43.814035 16302 net.cpp:100] Creating Layer conv7_2_mbox_loc
I0317 14:49:43.814041 16302 net.cpp:434] conv7_2_mbox_loc <- conv7_2_conv7_2_scale_0_split_1
I0317 14:49:43.814046 16302 net.cpp:408] conv7_2_mbox_loc -> conv7_2_mbox_loc
I0317 14:49:43.815673 16302 net.cpp:150] Setting up conv7_2_mbox_loc
I0317 14:49:43.815685 16302 net.cpp:157] Top shape: 8 24 8 8 (12288)
I0317 14:49:43.815690 16302 net.cpp:165] Memory required for data: 8007878724
I0317 14:49:43.815696 16302 layer_factory.hpp:77] Creating layer conv7_2_mbox_loc_perm
I0317 14:49:43.815701 16302 net.cpp:100] Creating Layer conv7_2_mbox_loc_perm
I0317 14:49:43.815708 16302 net.cpp:434] conv7_2_mbox_loc_perm <- conv7_2_mbox_loc
I0317 14:49:43.815714 16302 net.cpp:408] conv7_2_mbox_loc_perm -> conv7_2_mbox_loc_perm
I0317 14:49:43.815824 16302 net.cpp:150] Setting up conv7_2_mbox_loc_perm
I0317 14:49:43.815832 16302 net.cpp:157] Top shape: 8 8 8 24 (12288)
I0317 14:49:43.815836 16302 net.cpp:165] Memory required for data: 8007927876
I0317 14:49:43.815840 16302 layer_factory.hpp:77] Creating layer conv7_2_mbox_loc_flat
I0317 14:49:43.815845 16302 net.cpp:100] Creating Layer conv7_2_mbox_loc_flat
I0317 14:49:43.815850 16302 net.cpp:434] conv7_2_mbox_loc_flat <- conv7_2_mbox_loc_perm
I0317 14:49:43.815856 16302 net.cpp:408] conv7_2_mbox_loc_flat -> conv7_2_mbox_loc_flat
I0317 14:49:43.815886 16302 net.cpp:150] Setting up conv7_2_mbox_loc_flat
I0317 14:49:43.815893 16302 net.cpp:157] Top shape: 8 1536 (12288)
I0317 14:49:43.815897 16302 net.cpp:165] Memory required for data: 8007977028
I0317 14:49:43.815901 16302 layer_factory.hpp:77] Creating layer conv7_2_mbox_conf
I0317 14:49:43.815910 16302 net.cpp:100] Creating Layer conv7_2_mbox_conf
I0317 14:49:43.815913 16302 net.cpp:434] conv7_2_mbox_conf <- conv7_2_conv7_2_scale_0_split_2
I0317 14:49:43.815922 16302 net.cpp:408] conv7_2_mbox_conf -> conv7_2_mbox_conf
I0317 14:49:43.819197 16302 net.cpp:150] Setting up conv7_2_mbox_conf
I0317 14:49:43.819211 16302 net.cpp:157] Top shape: 8 126 8 8 (64512)
I0317 14:49:43.819213 16302 net.cpp:165] Memory required for data: 8008235076
I0317 14:49:43.819219 16302 layer_factory.hpp:77] Creating layer conv7_2_mbox_conf_perm
I0317 14:49:43.819227 16302 net.cpp:100] Creating Layer conv7_2_mbox_conf_perm
I0317 14:49:43.819232 16302 net.cpp:434] conv7_2_mbox_conf_perm <- conv7_2_mbox_conf
I0317 14:49:43.819239 16302 net.cpp:408] conv7_2_mbox_conf_perm -> conv7_2_mbox_conf_perm
I0317 14:49:43.819363 16302 net.cpp:150] Setting up conv7_2_mbox_conf_perm
I0317 14:49:43.819371 16302 net.cpp:157] Top shape: 8 8 8 126 (64512)
I0317 14:49:43.819375 16302 net.cpp:165] Memory required for data: 8008493124
I0317 14:49:43.819378 16302 layer_factory.hpp:77] Creating layer conv7_2_mbox_conf_flat
I0317 14:49:43.819383 16302 net.cpp:100] Creating Layer conv7_2_mbox_conf_flat
I0317 14:49:43.819387 16302 net.cpp:434] conv7_2_mbox_conf_flat <- conv7_2_mbox_conf_perm
I0317 14:49:43.819393 16302 net.cpp:408] conv7_2_mbox_conf_flat -> conv7_2_mbox_conf_flat
I0317 14:49:43.819422 16302 net.cpp:150] Setting up conv7_2_mbox_conf_flat
I0317 14:49:43.819429 16302 net.cpp:157] Top shape: 8 8064 (64512)
I0317 14:49:43.819433 16302 net.cpp:165] Memory required for data: 8008751172
I0317 14:49:43.819438 16302 layer_factory.hpp:77] Creating layer conv7_2_mbox_priorbox
I0317 14:49:43.819456 16302 net.cpp:100] Creating Layer conv7_2_mbox_priorbox
I0317 14:49:43.819461 16302 net.cpp:434] conv7_2_mbox_priorbox <- conv7_2_conv7_2_scale_0_split_3
I0317 14:49:43.819466 16302 net.cpp:434] conv7_2_mbox_priorbox <- data_data_0_split_4
I0317 14:49:43.819476 16302 net.cpp:408] conv7_2_mbox_priorbox -> conv7_2_mbox_priorbox
I0317 14:49:43.819514 16302 net.cpp:150] Setting up conv7_2_mbox_priorbox
I0317 14:49:43.819522 16302 net.cpp:157] Top shape: 1 2 1536 (3072)
I0317 14:49:43.819527 16302 net.cpp:165] Memory required for data: 8008763460
I0317 14:49:43.819532 16302 layer_factory.hpp:77] Creating layer conv8_2_mbox_loc
I0317 14:49:43.819542 16302 net.cpp:100] Creating Layer conv8_2_mbox_loc
I0317 14:49:43.819546 16302 net.cpp:434] conv8_2_mbox_loc <- conv8_2_conv8_2_scale_0_split_1
I0317 14:49:43.819553 16302 net.cpp:408] conv8_2_mbox_loc -> conv8_2_mbox_loc
I0317 14:49:43.820858 16302 net.cpp:150] Setting up conv8_2_mbox_loc
I0317 14:49:43.820869 16302 net.cpp:157] Top shape: 8 24 4 4 (3072)
I0317 14:49:43.820873 16302 net.cpp:165] Memory required for data: 8008775748
I0317 14:49:43.820878 16302 layer_factory.hpp:77] Creating layer conv8_2_mbox_loc_perm
I0317 14:49:43.820885 16302 net.cpp:100] Creating Layer conv8_2_mbox_loc_perm
I0317 14:49:43.820891 16302 net.cpp:434] conv8_2_mbox_loc_perm <- conv8_2_mbox_loc
I0317 14:49:43.820897 16302 net.cpp:408] conv8_2_mbox_loc_perm -> conv8_2_mbox_loc_perm
I0317 14:49:43.821022 16302 net.cpp:150] Setting up conv8_2_mbox_loc_perm
I0317 14:49:43.821029 16302 net.cpp:157] Top shape: 8 4 4 24 (3072)
I0317 14:49:43.821033 16302 net.cpp:165] Memory required for data: 8008788036
I0317 14:49:43.821035 16302 layer_factory.hpp:77] Creating layer conv8_2_mbox_loc_flat
I0317 14:49:43.821040 16302 net.cpp:100] Creating Layer conv8_2_mbox_loc_flat
I0317 14:49:43.821045 16302 net.cpp:434] conv8_2_mbox_loc_flat <- conv8_2_mbox_loc_perm
I0317 14:49:43.821051 16302 net.cpp:408] conv8_2_mbox_loc_flat -> conv8_2_mbox_loc_flat
I0317 14:49:43.821080 16302 net.cpp:150] Setting up conv8_2_mbox_loc_flat
I0317 14:49:43.821089 16302 net.cpp:157] Top shape: 8 384 (3072)
I0317 14:49:43.821092 16302 net.cpp:165] Memory required for data: 8008800324
I0317 14:49:43.821096 16302 layer_factory.hpp:77] Creating layer conv8_2_mbox_conf
I0317 14:49:43.821105 16302 net.cpp:100] Creating Layer conv8_2_mbox_conf
I0317 14:49:43.821110 16302 net.cpp:434] conv8_2_mbox_conf <- conv8_2_conv8_2_scale_0_split_2
I0317 14:49:43.821116 16302 net.cpp:408] conv8_2_mbox_conf -> conv8_2_mbox_conf
I0317 14:49:43.824414 16302 net.cpp:150] Setting up conv8_2_mbox_conf
I0317 14:49:43.824425 16302 net.cpp:157] Top shape: 8 126 4 4 (16128)
I0317 14:49:43.824429 16302 net.cpp:165] Memory required for data: 8008864836
I0317 14:49:43.824434 16302 layer_factory.hpp:77] Creating layer conv8_2_mbox_conf_perm
I0317 14:49:43.824440 16302 net.cpp:100] Creating Layer conv8_2_mbox_conf_perm
I0317 14:49:43.824447 16302 net.cpp:434] conv8_2_mbox_conf_perm <- conv8_2_mbox_conf
I0317 14:49:43.824453 16302 net.cpp:408] conv8_2_mbox_conf_perm -> conv8_2_mbox_conf_perm
I0317 14:49:43.824581 16302 net.cpp:150] Setting up conv8_2_mbox_conf_perm
I0317 14:49:43.824590 16302 net.cpp:157] Top shape: 8 4 4 126 (16128)
I0317 14:49:43.824594 16302 net.cpp:165] Memory required for data: 8008929348
I0317 14:49:43.824597 16302 layer_factory.hpp:77] Creating layer conv8_2_mbox_conf_flat
I0317 14:49:43.824604 16302 net.cpp:100] Creating Layer conv8_2_mbox_conf_flat
I0317 14:49:43.824606 16302 net.cpp:434] conv8_2_mbox_conf_flat <- conv8_2_mbox_conf_perm
I0317 14:49:43.824614 16302 net.cpp:408] conv8_2_mbox_conf_flat -> conv8_2_mbox_conf_flat
I0317 14:49:43.824642 16302 net.cpp:150] Setting up conv8_2_mbox_conf_flat
I0317 14:49:43.824653 16302 net.cpp:157] Top shape: 8 2016 (16128)
I0317 14:49:43.824657 16302 net.cpp:165] Memory required for data: 8008993860
I0317 14:49:43.824661 16302 layer_factory.hpp:77] Creating layer conv8_2_mbox_priorbox
I0317 14:49:43.824666 16302 net.cpp:100] Creating Layer conv8_2_mbox_priorbox
I0317 14:49:43.824682 16302 net.cpp:434] conv8_2_mbox_priorbox <- conv8_2_conv8_2_scale_0_split_3
I0317 14:49:43.824688 16302 net.cpp:434] conv8_2_mbox_priorbox <- data_data_0_split_5
I0317 14:49:43.824697 16302 net.cpp:408] conv8_2_mbox_priorbox -> conv8_2_mbox_priorbox
I0317 14:49:43.824735 16302 net.cpp:150] Setting up conv8_2_mbox_priorbox
I0317 14:49:43.824749 16302 net.cpp:157] Top shape: 1 2 384 (768)
I0317 14:49:43.824751 16302 net.cpp:165] Memory required for data: 8008996932
I0317 14:49:43.824754 16302 layer_factory.hpp:77] Creating layer conv9_2_mbox_loc
I0317 14:49:43.824764 16302 net.cpp:100] Creating Layer conv9_2_mbox_loc
I0317 14:49:43.824769 16302 net.cpp:434] conv9_2_mbox_loc <- conv9_2_conv9_2_scale_0_split_1
I0317 14:49:43.824775 16302 net.cpp:408] conv9_2_mbox_loc -> conv9_2_mbox_loc
I0317 14:49:43.826020 16302 net.cpp:150] Setting up conv9_2_mbox_loc
I0317 14:49:43.826030 16302 net.cpp:157] Top shape: 8 16 2 2 (512)
I0317 14:49:43.826035 16302 net.cpp:165] Memory required for data: 8008998980
I0317 14:49:43.826041 16302 layer_factory.hpp:77] Creating layer conv9_2_mbox_loc_perm
I0317 14:49:43.826048 16302 net.cpp:100] Creating Layer conv9_2_mbox_loc_perm
I0317 14:49:43.826052 16302 net.cpp:434] conv9_2_mbox_loc_perm <- conv9_2_mbox_loc
I0317 14:49:43.826059 16302 net.cpp:408] conv9_2_mbox_loc_perm -> conv9_2_mbox_loc_perm
I0317 14:49:43.826180 16302 net.cpp:150] Setting up conv9_2_mbox_loc_perm
I0317 14:49:43.826189 16302 net.cpp:157] Top shape: 8 2 2 16 (512)
I0317 14:49:43.826192 16302 net.cpp:165] Memory required for data: 8009001028
I0317 14:49:43.826196 16302 layer_factory.hpp:77] Creating layer conv9_2_mbox_loc_flat
I0317 14:49:43.826201 16302 net.cpp:100] Creating Layer conv9_2_mbox_loc_flat
I0317 14:49:43.826205 16302 net.cpp:434] conv9_2_mbox_loc_flat <- conv9_2_mbox_loc_perm
I0317 14:49:43.826211 16302 net.cpp:408] conv9_2_mbox_loc_flat -> conv9_2_mbox_loc_flat
I0317 14:49:43.826239 16302 net.cpp:150] Setting up conv9_2_mbox_loc_flat
I0317 14:49:43.826253 16302 net.cpp:157] Top shape: 8 64 (512)
I0317 14:49:43.826257 16302 net.cpp:165] Memory required for data: 8009003076
I0317 14:49:43.826261 16302 layer_factory.hpp:77] Creating layer conv9_2_mbox_conf
I0317 14:49:43.826270 16302 net.cpp:100] Creating Layer conv9_2_mbox_conf
I0317 14:49:43.826274 16302 net.cpp:434] conv9_2_mbox_conf <- conv9_2_conv9_2_scale_0_split_2
I0317 14:49:43.826282 16302 net.cpp:408] conv9_2_mbox_conf -> conv9_2_mbox_conf
I0317 14:49:43.828541 16302 net.cpp:150] Setting up conv9_2_mbox_conf
I0317 14:49:43.828552 16302 net.cpp:157] Top shape: 8 84 2 2 (2688)
I0317 14:49:43.828555 16302 net.cpp:165] Memory required for data: 8009013828
I0317 14:49:43.828562 16302 layer_factory.hpp:77] Creating layer conv9_2_mbox_conf_perm
I0317 14:49:43.828568 16302 net.cpp:100] Creating Layer conv9_2_mbox_conf_perm
I0317 14:49:43.828573 16302 net.cpp:434] conv9_2_mbox_conf_perm <- conv9_2_mbox_conf
I0317 14:49:43.828582 16302 net.cpp:408] conv9_2_mbox_conf_perm -> conv9_2_mbox_conf_perm
I0317 14:49:43.828704 16302 net.cpp:150] Setting up conv9_2_mbox_conf_perm
I0317 14:49:43.828712 16302 net.cpp:157] Top shape: 8 2 2 84 (2688)
I0317 14:49:43.828716 16302 net.cpp:165] Memory required for data: 8009024580
I0317 14:49:43.828719 16302 layer_factory.hpp:77] Creating layer conv9_2_mbox_conf_flat
I0317 14:49:43.828725 16302 net.cpp:100] Creating Layer conv9_2_mbox_conf_flat
I0317 14:49:43.828729 16302 net.cpp:434] conv9_2_mbox_conf_flat <- conv9_2_mbox_conf_perm
I0317 14:49:43.828735 16302 net.cpp:408] conv9_2_mbox_conf_flat -> conv9_2_mbox_conf_flat
I0317 14:49:43.828763 16302 net.cpp:150] Setting up conv9_2_mbox_conf_flat
I0317 14:49:43.828770 16302 net.cpp:157] Top shape: 8 336 (2688)
I0317 14:49:43.828776 16302 net.cpp:165] Memory required for data: 8009035332
I0317 14:49:43.828779 16302 layer_factory.hpp:77] Creating layer conv9_2_mbox_priorbox
I0317 14:49:43.828786 16302 net.cpp:100] Creating Layer conv9_2_mbox_priorbox
I0317 14:49:43.828789 16302 net.cpp:434] conv9_2_mbox_priorbox <- conv9_2_conv9_2_scale_0_split_3
I0317 14:49:43.828794 16302 net.cpp:434] conv9_2_mbox_priorbox <- data_data_0_split_6
I0317 14:49:43.828814 16302 net.cpp:408] conv9_2_mbox_priorbox -> conv9_2_mbox_priorbox
I0317 14:49:43.828852 16302 net.cpp:150] Setting up conv9_2_mbox_priorbox
I0317 14:49:43.828860 16302 net.cpp:157] Top shape: 1 2 64 (128)
I0317 14:49:43.828863 16302 net.cpp:165] Memory required for data: 8009035844
I0317 14:49:43.828867 16302 layer_factory.hpp:77] Creating layer conv10_2_mbox_loc
I0317 14:49:43.828876 16302 net.cpp:100] Creating Layer conv10_2_mbox_loc
I0317 14:49:43.828881 16302 net.cpp:434] conv10_2_mbox_loc <- conv10_2_conv10_2_scale_0_split_0
I0317 14:49:43.828887 16302 net.cpp:408] conv10_2_mbox_loc -> conv10_2_mbox_loc
I0317 14:49:43.830135 16302 net.cpp:150] Setting up conv10_2_mbox_loc
I0317 14:49:43.830147 16302 net.cpp:157] Top shape: 8 16 1 1 (128)
I0317 14:49:43.830149 16302 net.cpp:165] Memory required for data: 8009036356
I0317 14:49:43.830155 16302 layer_factory.hpp:77] Creating layer conv10_2_mbox_loc_perm
I0317 14:49:43.830163 16302 net.cpp:100] Creating Layer conv10_2_mbox_loc_perm
I0317 14:49:43.830168 16302 net.cpp:434] conv10_2_mbox_loc_perm <- conv10_2_mbox_loc
I0317 14:49:43.830173 16302 net.cpp:408] conv10_2_mbox_loc_perm -> conv10_2_mbox_loc_perm
I0317 14:49:43.830297 16302 net.cpp:150] Setting up conv10_2_mbox_loc_perm
I0317 14:49:43.830305 16302 net.cpp:157] Top shape: 8 1 1 16 (128)
I0317 14:49:43.830308 16302 net.cpp:165] Memory required for data: 8009036868
I0317 14:49:43.830312 16302 layer_factory.hpp:77] Creating layer conv10_2_mbox_loc_flat
I0317 14:49:43.830317 16302 net.cpp:100] Creating Layer conv10_2_mbox_loc_flat
I0317 14:49:43.830322 16302 net.cpp:434] conv10_2_mbox_loc_flat <- conv10_2_mbox_loc_perm
I0317 14:49:43.830343 16302 net.cpp:408] conv10_2_mbox_loc_flat -> conv10_2_mbox_loc_flat
I0317 14:49:43.830369 16302 net.cpp:150] Setting up conv10_2_mbox_loc_flat
I0317 14:49:43.830380 16302 net.cpp:157] Top shape: 8 16 (128)
I0317 14:49:43.830385 16302 net.cpp:165] Memory required for data: 8009037380
I0317 14:49:43.830390 16302 layer_factory.hpp:77] Creating layer conv10_2_mbox_conf
I0317 14:49:43.830400 16302 net.cpp:100] Creating Layer conv10_2_mbox_conf
I0317 14:49:43.830405 16302 net.cpp:434] conv10_2_mbox_conf <- conv10_2_conv10_2_scale_0_split_1
I0317 14:49:43.830411 16302 net.cpp:408] conv10_2_mbox_conf -> conv10_2_mbox_conf
I0317 14:49:43.832583 16302 net.cpp:150] Setting up conv10_2_mbox_conf
I0317 14:49:43.832594 16302 net.cpp:157] Top shape: 8 84 1 1 (672)
I0317 14:49:43.832597 16302 net.cpp:165] Memory required for data: 8009040068
I0317 14:49:43.832603 16302 layer_factory.hpp:77] Creating layer conv10_2_mbox_conf_perm
I0317 14:49:43.832612 16302 net.cpp:100] Creating Layer conv10_2_mbox_conf_perm
I0317 14:49:43.832618 16302 net.cpp:434] conv10_2_mbox_conf_perm <- conv10_2_mbox_conf
I0317 14:49:43.832626 16302 net.cpp:408] conv10_2_mbox_conf_perm -> conv10_2_mbox_conf_perm
I0317 14:49:43.832756 16302 net.cpp:150] Setting up conv10_2_mbox_conf_perm
I0317 14:49:43.832763 16302 net.cpp:157] Top shape: 8 1 1 84 (672)
I0317 14:49:43.832767 16302 net.cpp:165] Memory required for data: 8009042756
I0317 14:49:43.832770 16302 layer_factory.hpp:77] Creating layer conv10_2_mbox_conf_flat
I0317 14:49:43.832777 16302 net.cpp:100] Creating Layer conv10_2_mbox_conf_flat
I0317 14:49:43.832780 16302 net.cpp:434] conv10_2_mbox_conf_flat <- conv10_2_mbox_conf_perm
I0317 14:49:43.832787 16302 net.cpp:408] conv10_2_mbox_conf_flat -> conv10_2_mbox_conf_flat
I0317 14:49:43.832819 16302 net.cpp:150] Setting up conv10_2_mbox_conf_flat
I0317 14:49:43.832829 16302 net.cpp:157] Top shape: 8 84 (672)
I0317 14:49:43.832834 16302 net.cpp:165] Memory required for data: 8009045444
I0317 14:49:43.832836 16302 layer_factory.hpp:77] Creating layer conv10_2_mbox_priorbox
I0317 14:49:43.832844 16302 net.cpp:100] Creating Layer conv10_2_mbox_priorbox
I0317 14:49:43.832849 16302 net.cpp:434] conv10_2_mbox_priorbox <- conv10_2_conv10_2_scale_0_split_2
I0317 14:49:43.832854 16302 net.cpp:434] conv10_2_mbox_priorbox <- data_data_0_split_7
I0317 14:49:43.832875 16302 net.cpp:408] conv10_2_mbox_priorbox -> conv10_2_mbox_priorbox
I0317 14:49:43.832917 16302 net.cpp:150] Setting up conv10_2_mbox_priorbox
I0317 14:49:43.832931 16302 net.cpp:157] Top shape: 1 2 16 (32)
I0317 14:49:43.832934 16302 net.cpp:165] Memory required for data: 8009045572
I0317 14:49:43.832938 16302 layer_factory.hpp:77] Creating layer mbox_loc
I0317 14:49:43.832945 16302 net.cpp:100] Creating Layer mbox_loc
I0317 14:49:43.832950 16302 net.cpp:434] mbox_loc <- conv4_3_norm_mbox_loc_flat
I0317 14:49:43.832954 16302 net.cpp:434] mbox_loc <- fc7_mbox_loc_flat
I0317 14:49:43.832960 16302 net.cpp:434] mbox_loc <- conv6_2_mbox_loc_flat
I0317 14:49:43.832965 16302 net.cpp:434] mbox_loc <- conv7_2_mbox_loc_flat
I0317 14:49:43.832972 16302 net.cpp:434] mbox_loc <- conv8_2_mbox_loc_flat
I0317 14:49:43.832975 16302 net.cpp:434] mbox_loc <- conv9_2_mbox_loc_flat
I0317 14:49:43.832978 16302 net.cpp:434] mbox_loc <- conv10_2_mbox_loc_flat
I0317 14:49:43.832990 16302 net.cpp:408] mbox_loc -> mbox_loc
I0317 14:49:43.833029 16302 net.cpp:150] Setting up mbox_loc
I0317 14:49:43.833037 16302 net.cpp:157] Top shape: 8 98256 (786048)
I0317 14:49:43.833040 16302 net.cpp:165] Memory required for data: 8012189764
I0317 14:49:43.833045 16302 layer_factory.hpp:77] Creating layer mbox_conf
I0317 14:49:43.833050 16302 net.cpp:100] Creating Layer mbox_conf
I0317 14:49:43.833053 16302 net.cpp:434] mbox_conf <- conv4_3_norm_mbox_conf_flat
I0317 14:49:43.833058 16302 net.cpp:434] mbox_conf <- fc7_mbox_conf_flat
I0317 14:49:43.833062 16302 net.cpp:434] mbox_conf <- conv6_2_mbox_conf_flat
I0317 14:49:43.833066 16302 net.cpp:434] mbox_conf <- conv7_2_mbox_conf_flat
I0317 14:49:43.833070 16302 net.cpp:434] mbox_conf <- conv8_2_mbox_conf_flat
I0317 14:49:43.833076 16302 net.cpp:434] mbox_conf <- conv9_2_mbox_conf_flat
I0317 14:49:43.833079 16302 net.cpp:434] mbox_conf <- conv10_2_mbox_conf_flat
I0317 14:49:43.833086 16302 net.cpp:408] mbox_conf -> mbox_conf
I0317 14:49:43.833119 16302 net.cpp:150] Setting up mbox_conf
I0317 14:49:43.833128 16302 net.cpp:157] Top shape: 8 515844 (4126752)
I0317 14:49:43.833132 16302 net.cpp:165] Memory required for data: 8028696772
I0317 14:49:43.833137 16302 layer_factory.hpp:77] Creating layer mbox_priorbox
I0317 14:49:43.833140 16302 net.cpp:100] Creating Layer mbox_priorbox
I0317 14:49:43.833144 16302 net.cpp:434] mbox_priorbox <- conv4_3_norm_mbox_priorbox
I0317 14:49:43.833148 16302 net.cpp:434] mbox_priorbox <- fc7_mbox_priorbox
I0317 14:49:43.833154 16302 net.cpp:434] mbox_priorbox <- conv6_2_mbox_priorbox
I0317 14:49:43.833161 16302 net.cpp:434] mbox_priorbox <- conv7_2_mbox_priorbox
I0317 14:49:43.833166 16302 net.cpp:434] mbox_priorbox <- conv8_2_mbox_priorbox
I0317 14:49:43.833171 16302 net.cpp:434] mbox_priorbox <- conv9_2_mbox_priorbox
I0317 14:49:43.833178 16302 net.cpp:434] mbox_priorbox <- conv10_2_mbox_priorbox
I0317 14:49:43.833185 16302 net.cpp:408] mbox_priorbox -> mbox_priorbox
I0317 14:49:43.833221 16302 net.cpp:150] Setting up mbox_priorbox
I0317 14:49:43.833228 16302 net.cpp:157] Top shape: 1 2 98256 (196512)
I0317 14:49:43.833231 16302 net.cpp:165] Memory required for data: 8029482820
I0317 14:49:43.833235 16302 layer_factory.hpp:77] Creating layer mbox_loss
I0317 14:49:43.833245 16302 net.cpp:100] Creating Layer mbox_loss
I0317 14:49:43.833250 16302 net.cpp:434] mbox_loss <- mbox_loc
I0317 14:49:43.833254 16302 net.cpp:434] mbox_loss <- mbox_conf
I0317 14:49:43.833257 16302 net.cpp:434] mbox_loss <- mbox_priorbox
…
state {
  phase: TEST
}
layer {
  name: "data"
  type: "AnnotatedData"
  top: "data"
  top: "label"
  include {
    phase: TEST
  }
  transform_param {
    mean_value: 104
    mean_value: 117
    mean_value: 123
    resize_param {
      prob: 1
      resize_mode: WARP
      height: 512
      width: 512
      interp_mode: LINEAR
    }
  }
  data_param {
    source: "examples/VOC0712/VOC0712_test_lmdb"
    batch_size: 8
    backend: LMDB
  }
  annotated_data_param {
    batch_sampler {
    }
    label_map_file: "data/VOC0712/labelmap_voc.prototxt"
  }
}
layer {
  name: "conv1_1"
  type: "Convolution"
  bottom: "data"
  top: "conv1_1"
  param {
    lr_mult: 1
    decay_mult: 1
  }
  param {
    lr_mult: 2
    decay_mult: 0
  }
  convolution_param {
    num_output: 64
    pad: 1
    kernel_size: 3
    weight_filler {
      type: "xavier"
    }
    bias_filler {
      type: "constant"
      value: 0
    }
  }
}
layer {
  name: "relu1_1"
  type: "ReLU"
  bottom: "conv1_1"
  top: "conv1_1"
}
layer {
  name: "conv1_2"
  type: "Convolution"
  bottom: "conv1_1"
  top: "conv1_2"
  param {
    lr_mult: 1
    decay_mult: 1
  }
  param {
    lr_mult: 2
    decay_mult: 0
  }
  convolution_param {
    num_output: 64
    pad: 1
    kernel_size: 3
    weight_filler {
      type: "xavier"
    }
    bias_filler {
      type: "constant"
      value: 0
    }
  }
}
layer {
  name: "relu1_2"
  type: "ReLU"
  bottom: "conv1_2"
  top: "conv1_2"
}
layer {
  name: "pool1"
  type: "Pooling"
  bottom: "conv1_2"
  top: "pool1"
  pooling_param {
    pool: MAX
    kernel_size: 2
    stride: 2
  }
}
layer {
  name: "conv2_1"
  type: "Convolution"
  bottom: "pool1"
  top: "conv2_1"
  param {
    lr_mult: 1
    decay_mult: 1
  }
  param {
    lr_mult: 2
    decay_mult: 0
  }
  convolution_param {
    num_output: 128
    pad: 1
    kernel_size: 3
    weight_filler {
      type: "xavier"
    }
    bias_filler {
      type: "constant"
      value: 0
    }
  }
}
layer {
  name: "relu2_1"
  type: "ReLU"
  bottom: "conv2_1"
  top: "conv2_1"
}
layer {
  name: "conv2_2"
  type: "Convolution"
  bottom: "conv2_1"
  top: "conv2_2"
  param {
    lr_mult: 1
    decay_mult: 1
  }
  param {
    lr_mult: 2
    decay_mult: 0
  }
  convolution_param {
    num_output: 128
    pad: 1
    kernel_size: 3
    weight_filler {
      type: "xavier"
    }
    bias_filler {
      type: "constant"
      value: 0
    }
  }
}
layer {
  name: "relu2_2"
  type: "ReLU"
  bottom: "conv2_2"
  top: "conv2_2"
}
layer {
  name: "pool2"
  type: "Pooling"
  bottom: "conv2_2"
  top: "pool2"
  pooling_param {
    pool: MAX
    kernel_size: 2
    stride: 2
  }
}
layer {
  name: "conv3_1"
  type: "Convolution"
  bottom: "pool2"
  top: "conv3_1"
  param {
    lr_mult: 1
    decay_mult: 1
  }
  param {
    lr_mult: 2
    decay_mult: 0
  }
  convolution_param {
    num_output: 256
    pad: 1
    kernel_size: 3
    weight_filler {
      type: "xavier"
    }
    bias_filler {
      type: "constant"
      value: 0
    }
  }
}
layer {
  name: "relu3_1"
  type: "ReLU"
  bottom: "conv3_1"
  top: "conv3_1"
}
layer {
  name: "conv3_2"
  type: "Convolution"
  bottom: "conv3_1"
  top: "conv3_2"
  param {
    lr_mult: 1
    decay_mult: 1
  }
  param {
    lr_mult: 2
    decay_mult: 0
  }
  convolution_param {
    num_output: 256
    pad: 1
    kernel_size: 3
    weight_filler {
      type: "xavier"
    }
    bias_filler {
      type: "constant"
      value: 0
    }
  }
}
layer {
  name: "relu3_2"
  type: "ReLU"
  bottom: "conv3_2"
  top: "conv3_2"
}
layer {
  name: "conv3_3"
  type: "Convolution"
  bottom: "conv3_2"
  top: "conv3_3"
  param {
    lr_mult: 1
    decay_mult: 1
  }
  param {
    lr_mult: 2
    decay_mult: 0
  }
  convolution_param {
    num_output: 256
    pad: 1
    kernel_size: 3
    weight_filler {
      type: "xavier"
    }
    bias_filler {
      type: "constant"
      value: 0
    }
  }
}
layer {
  name: "relu3_3"
  type: "ReLU"
  bottom: "conv3_3"
  top: "conv3_3"
}
layer {
  name: "pool3"
  type: "Pooling"
  bottom: "conv3_3"
  top: "pool3"
  pooling_param {
    pool: MAX
    kernel_size: 2
    stride: 2
  }
}
layer {
  name: "conv4_1"
  type: "Convolution"
  bottom: "pool3"
  top: "conv4_1"
  param {
    lr_mult: 1
    decay_mult: 1
  }
  param {
    lr_mult: 2
    decay_mult: 0
  }
  convolution_param {
    num_output: 512
    pad: 1
    kernel_size: 3
    weight_filler {
      type: "xavier"
    }
    bias_filler {
      type: "constant"
      value: 0
    }
  }
}
layer {
  name: "relu4_1"
  type: "ReLU"
  bottom: "conv4_1"
  top: "conv4_1"
}
layer {
  name: "conv4_2"
  type: "Convolution"
  bottom: "conv4_1"
  top: "conv4_2"
  param {
    lr_mult: 1
    decay_mult: 1
  }
  param {
    lr_mult: 2
    decay_mult: 0
  }
  convolution_param {
    num_output: 512
    pad: 1
    kernel_size: 3
    weight_filler {
      type: "xavier"
    }
    bias_filler {
      type: "constant"
      value: 0
    }
  }
}
layer {
  name: "relu4_2"
  type: "ReLU"
  bottom: "conv4_2"
  top: "conv4_2"
}
layer {
  name: "conv4_3"
  type: "Convolution"
  bottom: "conv4_2"
  top: "conv4_3_ori"
  param {
    lr_mult: 1
    decay_mult: 1
  }
  param {
    lr_mult: 2
    decay_mult: 0
  }
  convolution_param {
    num_output: 512
    pad: 1
    kernel_size: 3
    weight_filler {
      type: "xavier"
    }
    bias_filler {
      type: "constant"
      value: 0
    }
  }
}
layer {
  name: "relu4_3"
  type: "ReLU"
  bottom: "conv4_3_ori"
  top: "conv4_3_ori"
}
layer {
  name: "seg_pool4"
  type: "Pooling"
  bottom: "conv4_3_ori"
  top: "seg_pool4"
  pooling_param {
    pool: MAX
    kernel_size: 3
    stride: 1
    pad: 1
  }
}
layer {
  name: "seg5_1"
  type: "Convolution"
  bottom: "seg_pool4"
  top: "seg5_1"
  param {
    lr_mult: 1
    decay_mult: 1
  }
  param {
    lr_mult: 2
    decay_mult: 0
  }
  convolution_param {
    num_output: 512
    pad: 2
    kernel_size: 3
    weight_filler {
      type: "xavier"
    }
    bias_filler {
      type: "constant"
      value: 0
    }
    dilation: 2
  }
}
layer {
  name: "seg_relu5_1"
  type: "ReLU"
  bottom: "seg5_1"
  top: "seg5_1"
}
layer {
  name: "seg5_2"
  type: "Convolution"
  bottom: "seg5_1"
  top: "seg5_2"
  param {
    lr_mult: 1
    decay_mult: 1
  }
  param {
    lr_mult: 2
    decay_mult: 0
  }
  convolution_param {
    num_output: 512
    pad: 2
    kernel_size: 3
    weight_filler {
      type: "xavier"
    }
    bias_filler {
      type: "constant"
      value: 0
    }
    dilation: 2
  }
}
layer {
  name: "seg_relu5_2"
  type: "ReLU"
  bottom: "seg5_2"
  top: "seg5_2"
}
layer {
  name: "seg5_3"
  type: "Convolution"
  bottom: "seg5_2"
  top: "seg5_3"
  param {
    lr_mult: 1
    decay_mult: 1
  }
  param {
    lr_mult: 2
    decay_mult: 0
  }
  convolution_param {
    num_output: 512
    pad: 2
    kernel_size: 3
    weight_filler {
      type: "xavier"
    }
    bias_filler {
      type: "constant"
      value: 0
    }
    dilation: 2
  }
}
layer {
  name: "seg_relu5_3"
  type: "ReLU"
  bottom: "seg5_3"
  top: "seg5_3"
}
layer {
  name: "seg_pool5"
  type: "Pooling"
  bottom: "seg5_3"
  top: "seg_pool5"
  pooling_param {
    pool: MAX
    kernel_size: 3
    stride: 1
    pad: 1
  }
}
layer {
  name: "seg6"
  type: "Convolution"
  bottom: "seg_pool5"
  top: "seg6"
  param {
    lr_mult: 1
    decay_mult: 1
  }
  param {
    lr_mult: 2
    decay_mult: 0
  }
  convolution_param {
    num_output: 1024
    pad: 4
    kernel_size: 3
    weight_filler {
      type: "xavier"
    }
    bias_filler {
      type: "constant"
      value: 0
    }
    dilation: 4
  }
}
layer {
  name: "seg_relu6"
  type: "ReLU"
  bottom: "seg6"
  top: "seg6"
}
layer {
  name: "seg_drop6"
  type: "Dropout"
  bottom: "seg6"
  top: "seg6"
  dropout_param {
    dropout_ratio: 0.5
  }
}
layer {
  name: "seg7"
  type: "Convolution"
  bottom: "seg6"
  top: "seg7"
  param {
    lr_mult: 1
    decay_mult: 1
  }
  param {
    lr_mult: 2
    decay_mult: 0
  }
  convolution_param {
    num_output: 1024
    kernel_size: 1
    weight_filler {
      type: "xavier"
    }
    bias_filler {
      type: "constant"
      value: 0
    }
  }
}
layer {
  name: "seg_relu7"
  type: "ReLU"
  bottom: "seg7"
  top: "seg7"
}
layer {
  name: "seg_to_det_conv"
  type: "Convolution"
  bottom: "seg7"
  top: "seg_to_det_conv"
  param {
    lr_mult: 1
    decay_mult: 1
  }
  param {
    lr_mult: 2
    decay_mult: 0
  }
  convolution_param {
    num_output: 512
    pad: 0
    kernel_size: 1
    stride: 1
    weight_filler {
      type: "xavier"
    }
    bias_filler {
      type: "constant"
      value: 0
    }
  }
}
layer {
  name: "mult_conv4_3"
  type: "Eltwise"
  bottom: "conv4_3_ori"
  bottom: "seg_to_det_conv"
  top: "conv4_3_t"
  eltwise_param {
    operation: PROD
  }
}
layer {
  name: "conv4_3_s"
  type: "Pooling"
  bottom: "conv4_3_t"
  top: "conv4_3_s"
  pooling_param {
    pool: AVE
    global_pooling: true
  }
}
layer {
  name: "conv4_3_fc1"
  type: "Convolution"
  bottom: "conv4_3_s"
  top: "conv4_3_fc1"
  param {
    lr_mult: 1
    decay_mult: 1
  }
  param {
    lr_mult: 2
    decay_mult: 0
  }
  convolution_param {
    num_output: 128
    kernel_size: 1
    stride: 1
    weight_filler {
      type: "xavier"
    }
    bias_filler {
      type: "constant"
      value: 0
    }
  }
}
layer {
  name: "conv4_3_relu"
  type: "ReLU"
  bottom: "conv4_3_fc1"
  top: "conv4_3_fc1"
}
layer {
  name: "conv4_3_fc2"
  type: "Convolution"
  bottom: "conv4_3_fc1"
  top: "conv4_3_fc2"
  param {
    lr_mult: 1
    decay_mult: 1
  }
  param {
    lr_mult: 2
    decay_mult: 0
  }
  convolution_param {
    num_output: 512
    kernel_size: 1
    stride: 1
    weight_filler {
      type: "xavier"
    }
    bias_filler {
      type: "constant"
      value: 0
    }
  }
}
layer {
  name: "conv4_3_sig"
  type: "Sigmoid"
  bottom: "conv4_3_fc2"
  top: "conv4_3_fc2"
}
layer {
  name: "conv4_3_reshape"
  type: "Reshape"
  bottom: "conv4_3_fc2"
  top: "conv4_3_reshape"
  reshape_param {
    shape {
      dim: 0
      dim: 0
    }
  }
}
layer {
  name: "conv4_3_scale"
  type: "Scale"
  bottom: "conv4_3_t"
  bottom: "conv4_3_reshape"
  top: "conv4_3"
  scale_param {
    axis: 0
    bias_term: false
  }
}
layer {
  name: "pool4"
  type: "Pooling"
  bottom: "conv4_3"
  top: "pool4"
  pooling_param {
    pool: MAX
    kernel_size: 2
    stride: 2
  }
}
layer {
  name: "conv5_1"
  type: "Convolution"
  bottom: "pool4"
  top: "conv5_1"
  param {
    lr_mult: 1
    decay_mult: 1
  }
…
I0317 14:49:44.131789 16302 layer_factory.hpp:77] Creating layer conv9_1_relu
I0317 14:49:44.131795 16302 net.cpp:100] Creating Layer conv9_1_relu
I0317 14:49:44.131799 16302 net.cpp:434] conv9_1_relu <- conv9_1
I0317 14:49:44.131805 16302 net.cpp:395] conv9_1_relu -> conv9_1 (in-place)
I0317 14:49:44.131979 16302 net.cpp:150] Setting up conv9_1_relu
I0317 14:49:44.131989 16302 net.cpp:157] Top shape: 8 128 4 4 (16384)
I0317 14:49:44.131990 16302 net.cpp:165] Memory required for data: 7269359680
I0317 14:49:44.131994 16302 layer_factory.hpp:77] Creating layer conv9_2
I0317 14:49:44.132006 16302 net.cpp:100] Creating Layer conv9_2
I0317 14:49:44.132014 16302 net.cpp:434] conv9_2 <- conv9_1
I0317 14:49:44.132025 16302 net.cpp:408] conv9_2 -> conv9_2_t
I0317 14:49:44.135236 16302 net.cpp:150] Setting up conv9_2
I0317 14:49:44.135247 16302 net.cpp:157] Top shape: 8 256 2 2 (8192)
I0317 14:49:44.135251 16302 net.cpp:165] Memory required for data: 7269392448
I0317 14:49:44.135257 16302 layer_factory.hpp:77] Creating layer conv9_2_relu
I0317 14:49:44.135262 16302 net.cpp:100] Creating Layer conv9_2_relu
I0317 14:49:44.135268 16302 net.cpp:434] conv9_2_relu <- conv9_2_t
I0317 14:49:44.135274 16302 net.cpp:395] conv9_2_relu -> conv9_2_t (in-place)
I0317 14:49:44.135843 16302 net.cpp:150] Setting up conv9_2_relu
I0317 14:49:44.135854 16302 net.cpp:157] Top shape: 8 256 2 2 (8192)
I0317 14:49:44.135859 16302 net.cpp:165] Memory required for data: 7269425216
I0317 14:49:44.135862 16302 layer_factory.hpp:77] Creating layer conv9_2_t_conv9_2_relu_0_split
I0317 14:49:44.135869 16302 net.cpp:100] Creating Layer conv9_2_t_conv9_2_relu_0_split
I0317 14:49:44.135876 16302 net.cpp:434] conv9_2_t_conv9_2_relu_0_split <- conv9_2_t
I0317 14:49:44.135882 16302 net.cpp:408] conv9_2_t_conv9_2_relu_0_split -> conv9_2_t_conv9_2_relu_0_split_0
I0317 14:49:44.135890 16302 net.cpp:408] conv9_2_t_conv9_2_relu_0_split -> conv9_2_t_conv9_2_relu_0_split_1
I0317 14:49:44.135944 16302 net.cpp:150] Setting up conv9_2_t_conv9_2_relu_0_split
I0317 14:49:44.135951 16302 net.cpp:157] Top shape: 8 256 2 2 (8192)
I0317 14:49:44.135957 16302 net.cpp:157] Top shape: 8 256 2 2 (8192)
I0317 14:49:44.135959 16302 net.cpp:165] Memory required for data: 7269490752
I0317 14:49:44.135962 16302 layer_factory.hpp:77] Creating layer conv9_2_s
I0317 14:49:44.135969 16302 net.cpp:100] Creating Layer conv9_2_s
I0317 14:49:44.135975 16302 net.cpp:434] conv9_2_s <- conv9_2_t_conv9_2_relu_0_split_0
I0317 14:49:44.135979 16302 net.cpp:408] conv9_2_s -> conv9_2_s
I0317 14:49:44.136188 16302 net.cpp:150] Setting up conv9_2_s
I0317 14:49:44.136196 16302 net.cpp:157] Top shape: 8 256 1 1 (2048)
I0317 14:49:44.136199 16302 net.cpp:165] Memory required for data: 7269498944
I0317 14:49:44.136204 16302 layer_factory.hpp:77] Creating layer conv9_2_fc1
I0317 14:49:44.136212 16302 net.cpp:100] Creating Layer conv9_2_fc1
I0317 14:49:44.136217 16302 net.cpp:434] conv9_2_fc1 <- conv9_2_s
I0317 14:49:44.136224 16302 net.cpp:408] conv9_2_fc1 -> conv9_2_fc1
I0317 14:49:44.137529 16302 net.cpp:150] Setting up conv9_2_fc1
I0317 14:49:44.137542 16302 net.cpp:157] Top shape: 8 64 1 1 (512)
I0317 14:49:44.137544 16302 net.cpp:165] Memory required for data: 7269500992
I0317 14:49:44.137562 16302 layer_factory.hpp:77] Creating layer conv9_2_relu
I0317 14:49:44.137569 16302 net.cpp:100] Creating Layer conv9_2_relu
I0317 14:49:44.137573 16302 net.cpp:434] conv9_2_relu <- conv9_2_fc1
I0317 14:49:44.137578 16302 net.cpp:395] conv9_2_relu -> conv9_2_fc1 (in-place)
I0317 14:49:44.137758 16302 net.cpp:150] Setting up conv9_2_relu
I0317 14:49:44.137768 16302 net.cpp:157] Top shape: 8 64 1 1 (512)
I0317 14:49:44.137770 16302 net.cpp:165] Memory required for data: 7269503040
I0317 14:49:44.137774 16302 layer_factory.hpp:77] Creating layer conv9_2_fc2
I0317 14:49:44.137784 16302 net.cpp:100] Creating Layer conv9_2_fc2
I0317 14:49:44.137787 16302 net.cpp:434] conv9_2_fc2 <- conv9_2_fc1
I0317 14:49:44.137795 16302 net.cpp:408] conv9_2_fc2 -> conv9_2_fc2
I0317 14:49:44.139103 16302 net.cpp:150] Setting up conv9_2_fc2
I0317 14:49:44.139117 16302 net.cpp:157] Top shape: 8 256 1 1 (2048)
I0317 14:49:44.139119 16302 net.cpp:165] Memory required for data: 7269511232
I0317 14:49:44.139125 16302 layer_factory.hpp:77] Creating layer conv9_2_sig
I0317 14:49:44.139132 16302 net.cpp:100] Creating Layer conv9_2_sig
I0317 14:49:44.139135 16302 net.cpp:434] conv9_2_sig <- conv9_2_fc2
I0317 14:49:44.139142 16302 net.cpp:395] conv9_2_sig -> conv9_2_fc2 (in-place)
I0317 14:49:44.139709 16302 net.cpp:150] Setting up conv9_2_sig
I0317 14:49:44.139721 16302 net.cpp:157] Top shape: 8 256 1 1 (2048)
I0317 14:49:44.139725 16302 net.cpp:165] Memory required for data: 7269519424
I0317 14:49:44.139729 16302 layer_factory.hpp:77] Creating layer conv9_2_reshape
I0317 14:49:44.139736 16302 net.cpp:100] Creating Layer conv9_2_reshape
I0317 14:49:44.139740 16302 net.cpp:434] conv9_2_reshape <- conv9_2_fc2
I0317 14:49:44.139746 16302 net.cpp:408] conv9_2_reshape -> conv9_2_reshape
I0317 14:49:44.139784 16302 net.cpp:150] Setting up conv9_2_reshape
I0317 14:49:44.139791 16302 net.cpp:157] Top shape: 8 256 (2048)
I0317 14:49:44.139794 16302 net.cpp:165] Memory required for data: 7269527616
I0317 14:49:44.139798 16302 layer_factory.hpp:77] Creating layer conv9_2_scale
I0317 14:49:44.139804 16302 net.cpp:100] Creating Layer conv9_2_scale
I0317 14:49:44.139808 16302 net.cpp:434] conv9_2_scale <- conv9_2_t_conv9_2_relu_0_split_1
I0317 14:49:44.139812 16302 net.cpp:434] conv9_2_scale <- conv9_2_reshape
I0317 14:49:44.139818 16302 net.cpp:408] conv9_2_scale -> conv9_2
I0317 14:49:44.139912 16302 net.cpp:150] Setting up conv9_2_scale
I0317 14:49:44.139919 16302 net.cpp:157] Top shape: 8 256 2 2 (8192)
I0317 14:49:44.139922 16302 net.cpp:165] Memory required for data: 7269560384
I0317 14:49:44.139926 16302 layer_factory.hpp:77] Creating layer conv9_2_conv9_2_scale_0_split
I0317 14:49:44.139930 16302 net.cpp:100] Creating Layer conv9_2_conv9_2_scale_0_split
I0317 14:49:44.139935 16302 net.cpp:434] conv9_2_conv9_2_scale_0_split <- conv9_2
I0317 14:49:44.139940 16302 net.cpp:408] conv9_2_conv9_2_scale_0_split -> conv9_2_conv9_2_scale_0_split_0
I0317 14:49:44.139951 16302 net.cpp:408] conv9_2_conv9_2_scale_0_split -> conv9_2_conv9_2_scale_0_split_1
I0317 14:49:44.139963 16302 net.cpp:408] conv9_2_conv9_2_scale_0_split -> conv9_2_conv9_2_scale_0_split_2
I0317 14:49:44.139969 16302 net.cpp:408] conv9_2_conv9_2_scale_0_split -> conv9_2_conv9_2_scale_0_split_3
I0317 14:49:44.140043 16302 net.cpp:150] Setting up conv9_2_conv9_2_scale_0_split
I0317 14:49:44.140050 16302 net.cpp:157] Top shape: 8 256 2 2 (8192)
I0317 14:49:44.140054 16302 net.cpp:157] Top shape: 8 256 2 2 (8192)
I0317 14:49:44.140058 16302 net.cpp:157] Top shape: 8 256 2 2 (8192)
I0317 14:49:44.140064 16302 net.cpp:157] Top shape: 8 256 2 2 (8192)
I0317 14:49:44.140069 16302 net.cpp:165] Memory required for data: 7269691456
I0317 14:49:44.140074 16302 layer_factory.hpp:77] Creating layer conv10_1
I0317 14:49:44.140082 16302 net.cpp:100] Creating Layer conv10_1
I0317 14:49:44.140086 16302 net.cpp:434] conv10_1 <- conv9_2_conv9_2_scale_0_split_0
I0317 14:49:44.140094 16302 net.cpp:408] conv10_1 -> conv10_1
I0317 14:49:44.141461 16302 net.cpp:150] Setting up conv10_1
I0317 14:49:44.141482 16302 net.cpp:157] Top shape: 8 128 2 2 (4096)
I0317 14:49:44.141486 16302 net.cpp:165] Memory required for data: 7269707840
I0317 14:49:44.141492 16302 layer_factory.hpp:77] Creating layer conv10_1_relu
I0317 14:49:44.141499 16302 net.cpp:100] Creating Layer conv10_1_relu
I0317 14:49:44.141502 16302 net.cpp:434] conv10_1_relu <- conv10_1
I0317 14:49:44.141508 16302 net.cpp:395] conv10_1_relu -> conv10_1 (in-place)
I0317 14:49:44.142081 16302 net.cpp:150] Setting up conv10_1_relu
I0317 14:49:44.142092 16302 net.cpp:157] Top shape: 8 128 2 2 (4096)
I0317 14:49:44.142096 16302 net.cpp:165] Memory required for data: 7269724224
I0317 14:49:44.142098 16302 layer_factory.hpp:77] Creating layer conv10_2
I0317 14:49:44.142109 16302 net.cpp:100] Creating Layer conv10_2
I0317 14:49:44.142115 16302 net.cpp:434] conv10_2 <- conv10_1
I0317 14:49:44.142123 16302 net.cpp:408] conv10_2 -> conv10_2_t
I0317 14:49:44.146293 16302 net.cpp:150] Setting up conv10_2
I0317 14:49:44.146306 16302 net.cpp:157] Top shape: 8 256 1 1 (2048)
I0317 14:49:44.146308 16302 net.cpp:165] Memory required for data: 7269732416
I0317 14:49:44.146314 16302 layer_factory.hpp:77] Creating layer conv10_2_relu
I0317 14:49:44.146322 16302 net.cpp:100] Creating Layer conv10_2_relu
I0317 14:49:44.146345 16302 net.cpp:434] conv10_2_relu <- conv10_2_t
I0317 14:49:44.146350 16302 net.cpp:395] conv10_2_relu -> conv10_2_t (in-place)
I0317 14:49:44.146528 16302 net.cpp:150] Setting up conv10_2_relu
I0317 14:49:44.146538 16302 net.cpp:157] Top shape: 8 256 1 1 (2048)
I0317 14:49:44.146541 16302 net.cpp:165] Memory required for data: 7269740608
I0317 14:49:44.146544 16302 layer_factory.hpp:77] Creating layer conv10_2_t_conv10_2_relu_0_split
I0317 14:49:44.146550 16302 net.cpp:100] Creating Layer conv10_2_t_conv10_2_relu_0_split
I0317 14:49:44.146556 16302 net.cpp:434] conv10_2_t_conv10_2_relu_0_split <- conv10_2_t
I0317 14:49:44.146565 16302 net.cpp:408] conv10_2_t_conv10_2_relu_0_split -> conv10_2_t_conv10_2_relu_0_split_0
I0317 14:49:44.146574 16302 net.cpp:408] conv10_2_t_conv10_2_relu_0_split -> conv10_2_t_conv10_2_relu_0_split_1
I0317 14:49:44.146628 16302 net.cpp:150] Setting up conv10_2_t_conv10_2_relu_0_split
I0317 14:49:44.146636 16302 net.cpp:157] Top shape: 8 256 1 1 (2048)
I0317 14:49:44.146639 16302 net.cpp:157] Top shape: 8 256 1 1 (2048)
I0317 14:49:44.146646 16302 net.cpp:165] Memory required for data: 7269756992
I0317 14:49:44.146651 16302 layer_factory.hpp:77] Creating layer conv10_2_s
I0317 14:49:44.146670 16302 net.cpp:100] Creating Layer conv10_2_s
I0317 14:49:44.146682 16302 net.cpp:434] conv10_2_s <- conv10_2_t_conv10_2_relu_0_split_0
I0317 14:49:44.146689 16302 net.cpp:408] conv10_2_s -> conv10_2_s
I0317 14:49:44.146893 16302 net.cpp:150] Setting up conv10_2_s
I0317 14:49:44.146903 16302 net.cpp:157] Top shape: 8 256 1 1 (2048)
I0317 14:49:44.146906 16302 net.cpp:165] Memory required for data: 7269765184
I0317 14:49:44.146910 16302 layer_factory.hpp:77] Creating layer conv10_2_fc1
I0317 14:49:44.146920 16302 net.cpp:100] Creating Layer conv10_2_fc1
I0317 14:49:44.146924 16302 net.cpp:434] conv10_2_fc1 <- conv10_2_s
I0317 14:49:44.146930 16302 net.cpp:408] conv10_2_fc1 -> conv10_2_fc1
I0317 14:49:44.148275 16302 net.cpp:150] Setting up conv10_2_fc1
I0317 14:49:44.148288 16302 net.cpp:157] Top shape: 8 64 1 1 (512)
I0317 14:49:44.148290 16302 net.cpp:165] Memory required for data: 7269767232
I0317 14:49:44.148296 16302 layer_factory.hpp:77] Creating layer conv10_2_relu
I0317 14:49:44.148303 16302 net.cpp:100] Creating Layer conv10_2_relu
I0317 14:49:44.148308 16302 net.cpp:434] conv10_2_relu <- conv10_2_fc1
I0317 14:49:44.148313 16302 net.cpp:395] conv10_2_relu -> conv10_2_fc1 (in-place)
I0317 14:49:44.148890 16302 net.cpp:150] Setting up conv10_2_relu
I0317 14:49:44.148901 16302 net.cpp:157] Top shape: 8 64 1 1 (512)
I0317 14:49:44.148905 16302 net.cpp:165] Memory required for data: 7269769280
I0317 14:49:44.148908 16302 layer_factory.hpp:77] Creating layer conv10_2_fc2
I0317 14:49:44.148918 16302 net.cpp:100] Creating Layer conv10_2_fc2
I0317 14:49:44.148936 16302 net.cpp:434] conv10_2_fc2 <- conv10_2_fc1
I0317 14:49:44.148942 16302 net.cpp:408] conv10_2_fc2 -> conv10_2_fc2
I0317 14:49:44.150256 16302 net.cpp:150] Setting up conv10_2_fc2
I0317 14:49:44.150269 16302 net.cpp:157] Top shape: 8 256 1 1 (2048)
I0317 14:49:44.150271 16302 net.cpp:165] Memory required for data: 7269777472
I0317 14:49:44.150277 16302 layer_factory.hpp:77] Creating layer conv10_2_sig
I0317 14:49:44.150282 16302 net.cpp:100] Creating Layer conv10_2_sig
I0317 14:49:44.150288 16302 net.cpp:434] conv10_2_sig <- conv10_2_fc2
I0317 14:49:44.150295 16302 net.cpp:395] conv10_2_sig -> conv10_2_fc2 (in-place)
I0317 14:49:44.150487 16302 net.cpp:150] Setting up conv10_2_sig
I0317 14:49:44.150496 16302 net.cpp:157] Top shape: 8 256 1 1 (2048)
I0317 14:49:44.150501 16302 net.cpp:165] Memory required for data: 7269785664
I0317 14:49:44.150503 16302 layer_factory.hpp:77] Creating layer conv10_2_reshape
I0317 14:49:44.150512 16302 net.cpp:100] Creating Layer conv10_2_reshape
I0317 14:49:44.150516 16302 net.cpp:434] conv10_2_reshape <- conv10_2_fc2
I0317 14:49:44.150522 16302 net.cpp:408] conv10_2_reshape -> conv10_2_reshape
I0317 14:49:44.150558 16302 net.cpp:150] Setting up conv10_2_reshape
I0317 14:49:44.150565 16302 net.cpp:157] Top shape: 8 256 (2048)
I0317 14:49:44.150568 16302 net.cpp:165] Memory required for data: 7269793856
I0317 14:49:44.150573 16302 layer_factory.hpp:77] Creating layer conv10_2_scale
I0317 14:49:44.150578 16302 net.cpp:100] Creating Layer conv10_2_scale
I0317 14:49:44.150583 16302 net.cpp:434] conv10_2_scale <- conv10_2_t_conv10_2_relu_0_split_1
I0317 14:49:44.150588 16302 net.cpp:434] conv10_2_scale <- conv10_2_reshape
I0317 14:49:44.150593 16302 net.cpp:408] conv10_2_scale -> conv10_2
I0317 14:49:44.150679 16302 net.cpp:150] Setting up conv10_2_scale
I0317 14:49:44.150687 16302 net.cpp:157] Top shape: 8 256 1 1 (2048)
I0317 14:49:44.150691 16302 net.cpp:165] Memory required for data: 7269802048
I0317 14:49:44.150694 16302 layer_factory.hpp:77] Creating layer conv10_2_conv10_2_scale_0_split
I0317 14:49:44.150698 16302 net.cpp:100] Creating Layer conv10_2_conv10_2_scale_0_split
I0317 14:49:44.150702 16302 net.cpp:434] conv10_2_conv10_2_scale_0_split <- conv10_2
I0317 14:49:44.150709 16302 net.cpp:408] conv10_2_conv10_2_scale_0_split -> conv10_2_conv10_2_scale_0_split_0
I0317 14:49:44.150718 16302 net.cpp:408] conv10_2_conv10_2_scale_0_split -> conv10_2_conv10_2_scale_0_split_1
I0317 14:49:44.150733 16302 net.cpp:408] conv10_2_conv10_2_scale_0_split -> conv10_2_conv10_2_scale_0_split_2
I0317 14:49:44.150795 16302 net.cpp:150] Setting up conv10_2_conv10_2_scale_0_split
I0317 14:49:44.150802 16302 net.cpp:157] Top shape: 8 256 1 1 (2048)
I0317 14:49:44.150806 16302 net.cpp:157] Top shape: 8 256 1 1 (2048)
I0317 14:49:44.150810 16302 net.cpp:157] Top shape: 8 256 1 1 (2048)
I0317 14:49:44.150813 16302 net.cpp:165] Memory required for data: 7269826624
I0317 14:49:44.150816 16302 layer_factory.hpp:77] Creating layer conv4_3_norm
I0317 14:49:44.150823 16302 net.cpp:100] Creating Layer conv4_3_norm
I0317 14:49:44.150827 16302 net.cpp:434] conv4_3_norm <- conv4_3_conv4_3_scale_0_split_1
I0317 14:49:44.150836 16302 net.cpp:408] conv4_3_norm -> conv4_3_norm
I0317 14:49:44.151048 16302 net.cpp:150] Setting up conv4_3_norm
I0317 14:49:44.151057 16302 net.cpp:157] Top shape: 8 512 64 64 (16777216)
I0317 14:49:44.151060 16302 net.cpp:165] Memory required for data: 7336935488
I0317 14:49:44.151065 16302 layer_factory.hpp:77] Creating layer conv4_3_norm_conv4_3_norm_0_split
I0317 14:49:44.151070 16302 net.cpp:100] Creating Layer conv4_3_norm_conv4_3_norm_0_split
I0317 14:49:44.151074 16302 net.cpp:434] conv4_3_norm_conv4_3_norm_0_split <- conv4_3_norm
I0317 14:49:44.151080 16302 net.cpp:408] conv4_3_norm_conv4_3_norm_0_split -> conv4_3_norm_conv4_3_norm_0_split_0
I0317 14:49:44.151087 16302 net.cpp:408] conv4_3_norm_conv4_3_norm_0_split -> conv4_3_norm_conv4_3_norm_0_split_1
I0317 14:49:44.151093 16302 net.cpp:408] conv4_3_norm_conv4_3_norm_0_split -> conv4_3_norm_conv4_3_norm_0_split_2
I0317 14:49:44.151181 16302 net.cpp:150] Setting up conv4_3_norm_conv4_3_norm_0_split
I0317 14:49:44.151188 16302 net.cpp:157] Top shape: 8 512 64 64 (16777216)
I0317 14:49:44.151192 16302 net.cpp:157] Top shape: 8 512 64 64 (16777216)
I0317 14:49:44.151196 16302 net.cpp:157] Top shape: 8 512 64 64 (16777216)
I0317 14:49:44.151202 16302 net.cpp:165] Memory required for data: 7538262080
I0317 14:49:44.151208 16302 layer_factory.hpp:77] Creating layer conv4_3_norm_mbox_loc
I0317 14:49:44.151221 16302 net.cpp:100] Creating Layer conv4_3_norm_mbox_loc
I0317 14:49:44.151226 16302 net.cpp:434] conv4_3_norm_mbox_loc <- conv4_3_norm_conv4_3_norm_0_split_0
I0317 14:49:44.151232 16302 net.cpp:408] conv4_3_norm_mbox_loc -> conv4_3_norm_mbox_loc
I0317 14:49:44.153151 16302 net.cpp:150] Setting up conv4_3_norm_mbox_loc
I0317 14:49:44.153162 16302 net.cpp:157] Top shape: 8 16 64 64 (524288)
I0317 14:49:44.153167 16302 net.cpp:165] Memory required for data: 7540359232
I0317 14:49:44.153172 16302 layer_factory.hpp:77] Creating layer conv4_3_norm_mbox_loc_perm
I0317 14:49:44.153180 16302 net.cpp:100] Creating Layer conv4_3_norm_mbox_loc_perm
I0317 14:49:44.153184 16302 net.cpp:434] conv4_3_norm_mbox_loc_perm <- conv4_3_norm_mbox_loc
I0317 14:49:44.153189 16302 net.cpp:408] conv4_3_norm_mbox_loc_perm -> conv4_3_norm_mbox_loc_perm
I0317 14:49:44.153333 16302 net.cpp:150] Setting up conv4_3_norm_mbox_loc_perm
I0317 14:49:44.153342 16302 net.cpp:157] Top shape: 8 64 64 16 (524288)
I0317 14:49:44.153344 16302 net.cpp:165] Memory required for data: 7542456384
I0317 14:49:44.153347 16302 layer_factory.hpp:77] Creating layer conv4_3_norm_mbox_loc_flat
I0317 14:49:44.153354 16302 net.cpp:100] Creating Layer conv4_3_norm_mbox_loc_flat
I0317 14:49:44.153358 16302 net.cpp:434] conv4_3_norm_mbox_loc_flat <- conv4_3_norm_mbox_loc_perm
I0317 14:49:44.153364 16302 net.cpp:408] conv4_3_norm_mbox_loc_flat -> conv4_3_norm_mbox_loc_flat
I0317 14:49:44.153400 16302 net.cpp:150] Setting up conv4_3_norm_mbox_loc_flat
I0317 14:49:44.153409 16302 net.cpp:157] Top shape: 8 65536 (524288)
I0317 14:49:44.153411 16302 net.cpp:165] Memory required for data: 7544553536
I0317 14:49:44.153414 16302 layer_factory.hpp:77] Creating layer conv4_3_norm_mbox_conf
I0317 14:49:44.153424 16302 net.cpp:100] Creating Layer conv4_3_norm_mbox_conf
I0317 14:49:44.153429 16302 net.cpp:434] conv4_3_norm_mbox_conf <- conv4_3_norm_conv4_3_norm_0_split_1
I0317 14:49:44.153437 16302 net.cpp:408] conv4_3_norm_mbox_conf -> conv4_3_norm_mbox_conf
I0317 14:49:44.157469 16302 net.cpp:150] Setting up conv4_3_norm_mbox_conf
I0317 14:49:44.157481 16302 net.cpp:157] Top shape: 8 84 64 64 (2752512)
I0317 14:49:44.157486 16302 net.cpp:165] Memory required for data: 7555563584
I0317 14:49:44.157492 16302 layer_factory.hpp:77] Creating layer conv4_3_norm_mbox_conf_perm
I0317 14:49:44.157500 16302 net.cpp:100] Creating Layer conv4_3_norm_mbox_conf_perm
I0317 14:49:44.157503 16302 net.cpp:434] conv4_3_norm_mbox_conf_perm <- conv4_3_norm_mbox_conf
I0317 14:49:44.157510 16302 net.cpp:408] conv4_3_norm_mbox_conf_perm -> conv4_3_norm_mbox_conf_perm
I0317 14:49:44.157655 16302 net.cpp:150] Setting up conv4_3_norm_mbox_conf_perm
I0317 14:49:44.157662 16302 net.cpp:157] Top shape: 8 64 64 84 (2752512)
I0317 14:49:44.157665 16302 net.cpp:165] Memory required for data: 7566573632
I0317 14:49:44.157670 16302 layer_factory.hpp:77] Creating layer conv4_3_norm_mbox_conf_flat
I0317 14:49:44.157675 16302 net.cpp:100] Creating Layer conv4_3_norm_mbox_conf_flat
I0317 14:49:44.157681 16302 net.cpp:434] conv4_3_norm_mbox_conf_flat <- conv4_3_norm_mbox_conf_perm
I0317 14:49:44.157686 16302 net.cpp:408] conv4_3_norm_mbox_conf_flat -> conv4_3_norm_mbox_conf_flat
I0317 14:49:44.157724 16302 net.cpp:150] Setting up conv4_3_norm_mbox_conf_flat
I0317 14:49:44.157732 16302 net.cpp:157] Top shape: 8 344064 (2752512)
I0317 14:49:44.157735 16302 net.cpp:165] Memory required for data: 7577583680
I0317 14:49:44.157738 16302 layer_factory.hpp:77] Creating layer conv4_3_norm_mbox_priorbox
I0317 14:49:44.157747 16302 net.cpp:100] Creating Layer conv4_3_norm_mbox_priorbox
I0317 14:49:44.157764 16302 net.cpp:434] conv4_3_norm_mbox_priorbox <- conv4_3_norm_conv4_3_norm_0_split_2
I0317 14:49:44.157770 16302 net.cpp:434] conv4_3_norm_mbox_priorbox <- data_data_0_split_1
I0317 14:49:44.157776 16302 net.cpp:408] conv4_3_norm_mbox_priorbox -> conv4_3_norm_mbox_priorbox
I0317 14:49:44.157819 16302 net.cpp:150] Setting up conv4_3_norm_mbox_priorbox
I0317 14:49:44.157825 16302 net.cpp:157] Top shape: 1 2 65536 (131072)
I0317 14:49:44.157829 16302 net.cpp:165] Memory required for data: 7578107968
I0317 14:49:44.157831 16302 layer_factory.hpp:77] Creating layer fc7_mbox_loc
I0317 14:49:44.157843 16302 net.cpp:100] Creating Layer fc7_mbox_loc
I0317 14:49:44.157852 16302 net.cpp:434] fc7_mbox_loc <- fc7_fc7_scale_0_split_1
I0317 14:49:44.157858 16302 net.cpp:408] fc7_mbox_loc -> fc7_mbox_loc
I0317 14:49:44.160410 16302 net.cpp:150] Setting up fc7_mbox_loc
I0317 14:49:44.160424 16302 net.cpp:157] Top shape: 8 24 32 32 (196608)
I0317 14:49:44.160429 16302 net.cpp:165] Memory required for data: 7578894400
I0317 14:49:44.160434 16302 layer_factory.hpp:77] Creating layer fc7_mbox_loc_perm
I0317 14:49:44.160440 16302 net.cpp:100] Creating Layer fc7_mbox_loc_perm
I0317 14:49:44.160444 16302 net.cpp:434] fc7_mbox_loc_perm <- fc7_mbox_loc
I0317 14:49:44.160451 16302 net.cpp:408] fc7_mbox_loc_perm -> fc7_mbox_loc_perm
I0317 14:49:44.160595 16302 net.cpp:150] Setting up fc7_mbox_loc_perm
I0317 14:49:44.160605 16302 net.cpp:157] Top shape: 8 32 32 24 (196608)
I0317 14:49:44.160609 16302 net.cpp:165] Memory required for data: 7579680832
I0317 14:49:44.160611 16302 layer_factory.hpp:77] Creating layer fc7_mbox_loc_flat
I0317 14:49:44.160617 16302 net.cpp:100] Creating Layer fc7_mbox_loc_flat
I0317 14:49:44.160620 16302 net.cpp:434] fc7_mbox_loc_flat <- fc7_mbox_loc_perm
I0317 14:49:44.160629 16302 net.cpp:408] fc7_mbox_loc_flat -> fc7_mbox_loc_flat
I0317 14:49:44.160663 16302 net.cpp:150] Setting up fc7_mbox_loc_flat
I0317 14:49:44.160671 16302 net.cpp:157] Top shape: 8 24576 (196608)
I0317 14:49:44.160675 16302 net.cpp:165] Memory required for data: 7580467264
I0317 14:49:44.160678 16302 layer_factory.hpp:77] Creating layer fc7_mbox_conf
I0317 14:49:44.160688 16302 net.cpp:100] Creating Layer fc7_mbox_conf
I0317 14:49:44.160693 16302 net.cpp:434] fc7_mbox_conf <- fc7_fc7_scale_0_split_2
I0317 14:49:44.160701 16302 net.cpp:408] fc7_mbox_conf -> fc7_mbox_conf
I0317 14:49:44.168365 16302 net.cpp:150] Setting up fc7_mbox_conf
I0317 14:49:44.168380 16302 net.cpp:157] Top shape: 8 126 32 32 (1032192)
I0317 14:49:44.168383 16302 net.cpp:165] Memory required for data: 7584596032
I0317 14:49:44.168390 16302 layer_factory.hpp:77] Creating layer fc7_mbox_conf_perm
I0317 14:49:44.168398 16302 net.cpp:100] Creating Layer fc7_mbox_conf_perm
I0317 14:49:44.168403 16302 net.cpp:434] fc7_mbox_conf_perm <- fc7_mbox_conf
I0317 14:49:44.168408 16302 net.cpp:408] fc7_mbox_conf_perm -> fc7_mbox_conf_perm
I0317 14:49:44.168548 16302 net.cpp:150] Setting up fc7_mbox_conf_perm
I0317 14:49:44.168560 16302 net.cpp:157] Top shape: 8 32 32 126 (1032192)
I0317 14:49:44.168563 16302 net.cpp:165] Memory required for data: 7588724800
I0317 14:49:44.168566 16302 layer_factory.hpp:77] Creating layer fc7_mbox_conf_flat
I0317 14:49:44.168573 16302 net.cpp:100] Creating Layer fc7_mbox_conf_flat
I0317 14:49:44.168577 16302 net.cpp:434] fc7_mbox_conf_flat <- fc7_mbox_conf_perm
I0317 14:49:44.168582 16302 net.cpp:408] fc7_mbox_conf_flat -> fc7_mbox_conf_flat
I0317 14:49:44.168614 16302 net.cpp:150] Setting up fc7_mbox_conf_flat
I0317 14:49:44.168622 16302 net.cpp:157] Top shape: 8 129024 (1032192)
I0317 14:49:44.168629 16302 net.cpp:165] Memory required for data: 7592853568
I0317 14:49:44.168633 16302 layer_factory.hpp:77] Creating layer fc7_mbox_priorbox
I0317 14:49:44.168643 16302 net.cpp:100] Creating Layer fc7_mbox_priorbox
I0317 14:49:44.168650 16302 net.cpp:434] fc7_mbox_priorbox <- fc7_fc7_scale_0_split_3
I0317 14:49:44.168658 16302 net.cpp:434] fc7_mbox_priorbox <- data_data_0_split_2
I0317 14:49:44.168678 16302 net.cpp:408] fc7_mbox_priorbox -> fc7_mbox_priorbox
I0317 14:49:44.168714 16302 net.cpp:150] Setting up fc7_mbox_priorbox
I0317 14:49:44.168720 16302 net.cpp:157] Top shape: 1 2 24576 (49152)
I0317 14:49:44.168723 16302 net.cpp:165] Memory required for data: 7593050176
I0317 14:49:44.168726 16302 layer_factory.hpp:77] Creating layer conv6_2_mbox_loc
I0317 14:49:44.168736 16302 net.cpp:100] Creating Layer conv6_2_mbox_loc
I0317 14:49:44.168745 16302 net.cpp:434] conv6_2_mbox_loc <- conv6_2_conv6_2_scale_0_split_1
I0317 14:49:44.168752 16302 net.cpp:408] conv6_2_mbox_loc -> conv6_2_mbox_loc
I0317 14:49:44.170852 16302 net.cpp:150] Setting up conv6_2_mbox_loc
I0317 14:49:44.170864 16302 net.cpp:157] Top shape: 8 24 16 16 (49152)
I0317 14:49:44.170867 16302 net.cpp:165] Memory required for data: 7593246784
I0317 14:49:44.170874 16302 layer_factory.hpp:77] Creating layer conv6_2_mbox_loc_perm
I0317 14:49:44.170882 16302 net.cpp:100] Creating Layer conv6_2_mbox_loc_perm
I0317 14:49:44.170889 16302 net.cpp:434] conv6_2_mbox_loc_perm <- conv6_2_mbox_loc
I0317 14:49:44.170894 16302 net.cpp:408] conv6_2_mbox_loc_perm -> conv6_2_mbox_loc_perm
I0317 14:49:44.171039 16302 net.cpp:150] Setting up conv6_2_mbox_loc_perm
I0317 14:49:44.171046 16302 net.cpp:157] Top shape: 8 16 16 24 (49152)
I0317 14:49:44.171049 16302 net.cpp:165] Memory required for data: 7593443392
I0317 14:49:44.171052 16302 layer_factory.hpp:77] Creating layer conv6_2_mbox_loc_flat
I0317 14:49:44.171058 16302 net.cpp:100] Creating Layer conv6_2_mbox_loc_flat
I0317 14:49:44.171063 16302 net.cpp:434] conv6_2_mbox_loc_flat <- conv6_2_mbox_loc_perm
I0317 14:49:44.171070 16302 net.cpp:408] conv6_2_mbox_loc_flat -> conv6_2_mbox_loc_flat
I0317 14:49:44.171109 16302 net.cpp:150] Setting up conv6_2_mbox_loc_flat
I0317 14:49:44.171116 16302 net.cpp:157] Top shape: 8 6144 (49152)
I0317 14:49:44.171119 16302 net.cpp:165] Memory required for data: 7593640000
I0317 14:49:44.171123 16302 layer_factory.hpp:77] Creating layer conv6_2_mbox_conf
I0317 14:49:44.171131 16302 net.cpp:100] Creating Layer conv6_2_mbox_conf
I0317 14:49:44.171136 16302 net.cpp:434] conv6_2_mbox_conf <- conv6_2_conv6_2_scale_0_split_2
I0317 14:49:44.171144 16302 net.cpp:408] conv6_2_mbox_conf -> conv6_2_mbox_conf
I0317 14:49:44.176019 16302 net.cpp:150] Setting up conv6_2_mbox_conf
I0317 14:49:44.176033 16302 net.cpp:157] Top shape: 8 126 16 16 (258048)
I0317 14:49:44.176038 16302 net.cpp:165] Memory required for data: 7594672192
I0317 14:49:44.176043 16302 layer_factory.hpp:77] Creating layer conv6_2_mbox_conf_perm
I0317 14:49:44.176050 16302 net.cpp:100] Creating Layer conv6_2_mbox_conf_perm
I0317 14:49:44.176056 16302 net.cpp:434] conv6_2_mbox_conf_perm <- conv6_2_mbox_conf
I0317 14:49:44.176065 16302 net.cpp:408] conv6_2_mbox_conf_perm -> conv6_2_mbox_conf_perm
I0317 14:49:44.176210 16302 net.cpp:150] Setting up conv6_2_mbox_conf_perm
I0317 14:49:44.176219 16302 net.cpp:157] Top shape: 8 16 16 126 (258048)
I0317 14:49:44.176223 16302 net.cpp:165] Memory required for data: 7595704384
I0317 14:49:44.176226 16302 layer_factory.hpp:77] Creating layer conv6_2_mbox_conf_flat
I0317 14:49:44.176234 16302 net.cpp:100] Creating Layer conv6_2_mbox_conf_flat
I0317 14:49:44.176239 16302 net.cpp:434] conv6_2_mbox_conf_flat <- conv6_2_mbox_conf_perm
I0317 14:49:44.176245 16302 net.cpp:408] conv6_2_mbox_conf_flat -> conv6_2_mbox_conf_flat
I0317 14:49:44.176282 16302 net.cpp:150] Setting up conv6_2_mbox_conf_flat
I0317 14:49:44.176290 16302 net.cpp:157] Top shape: 8 32256 (258048)
I0317 14:49:44.176291 16302 net.cpp:165] Memory required for data: 7596736576
I0317 14:49:44.176295 16302 layer_factory.hpp:77] Creating layer conv6_2_mbox_priorbox
I0317 14:49:44.176303 16302 net.cpp:100] Creating Layer conv6_2_mbox_priorbox
I0317 14:49:44.176307 16302 net.cpp:434] conv6_2_mbox_priorbox <- conv6_2_conv6_2_scale_0_split_3
I0317 14:49:44.176314 16302 net.cpp:434] conv6_2_mbox_priorbox <- data_data_0_split_3
I0317 14:49:44.176321 16302 net.cpp:408] conv6_2_mbox_priorbox -> conv6_2_mbox_priorbox
I0317 14:49:44.176357 16302 net.cpp:150] Setting up conv6_2_mbox_priorbox
I0317 14:49:44.176378 16302 net.cpp:157] Top shape: 1 2 6144 (12288)
I0317 14:49:44.176383 16302 net.cpp:165] Memory required for data: 7596785728
I0317 14:49:44.176386 16302 layer_factory.hpp:77] Creating layer conv7_2_mbox_loc
I0317 14:49:44.176398 16302 net.cpp:100] Creating Layer conv7_2_mbox_loc
I0317 14:49:44.176403 16302 net.cpp:434] conv7_2_mbox_loc <- conv7_2_conv7_2_scale_0_split_1
I0317 14:49:44.176410 16302 net.cpp:408] conv7_2_mbox_loc -> conv7_2_mbox_loc
I0317 14:49:44.178340 16302 net.cpp:150] Setting up conv7_2_mbox_loc
I0317 14:49:44.178352 16302 net.cpp:157] Top shape: 8 24 8 8 (12288)
I0317 14:49:44.178356 16302 net.cpp:165] Memory required for data: 7596834880
I0317 14:49:44.178362 16302 layer_factory.hpp:77] Creating layer conv7_2_mbox_loc_perm
I0317 14:49:44.178369 16302 net.cpp:100] Creating Layer conv7_2_mbox_loc_perm
I0317 14:49:44.178375 16302 net.cpp:434] conv7_2_mbox_loc_perm <- conv7_2_mbox_loc
I0317 14:49:44.178381 16302 net.cpp:408] conv7_2_mbox_loc_perm -> conv7_2_mbox_loc_perm
I0317 14:49:44.178532 16302 net.cpp:150] Setting up conv7_2_mbox_loc_perm
I0317 14:49:44.178540 16302 net.cpp:157] Top shape: 8 8 8 24 (12288)
I0317 14:49:44.178544 16302 net.cpp:165] Memory required for data: 7596884032
I0317 14:49:44.178547 16302 layer_factory.hpp:77] Creating layer conv7_2_mbox_loc_flat
I0317 14:49:44.178552 16302 net.cpp:100] Creating Layer conv7_2_mbox_loc_flat
I0317 14:49:44.178556 16302 net.cpp:434] conv7_2_mbox_loc_flat <- conv7_2_mbox_loc_perm
I0317 14:49:44.178563 16302 net.cpp:408] conv7_2_mbox_loc_flat -> conv7_2_mbox_loc_flat
I0317 14:49:44.178601 16302 net.cpp:150] Setting up conv7_2_mbox_loc_flat
I0317 14:49:44.178607 16302 net.cpp:157] Top shape: 8 1536 (12288)
I0317 14:49:44.178611 16302 net.cpp:165] Memory required for data: 7596933184
I0317 14:49:44.178614 16302 layer_factory.hpp:77] Creating layer conv7_2_mbox_conf
I0317 14:49:44.178622 16302 net.cpp:100] Creating Layer conv7_2_mbox_conf
I0317 14:49:44.178627 16302 net.cpp:434] conv7_2_mbox_conf <- conv7_2_conv7_2_scale_0_split_2
I0317 14:49:44.178634 16302 net.cpp:408] conv7_2_mbox_conf -> conv7_2_mbox_conf
I0317 14:49:44.182315 16302 net.cpp:150] Setting up conv7_2_mbox_conf
I0317 14:49:44.182339 16302 net.cpp:157] Top shape: 8 126 8 8 (64512)
I0317 14:49:44.182343 16302 net.cpp:165] Memory required for data: 7597191232
I0317 14:49:44.182349 16302 layer_factory.hpp:77] Creating layer conv7_2_mbox_conf_perm
I0317 14:49:44.182358 16302 net.cpp:100] Creating Layer conv7_2_mbox_conf_perm
I0317 14:49:44.182364 16302 net.cpp:434] conv7_2_mbox_conf_perm <- conv7_2_mbox_conf
I0317 14:49:44.182370 16302 net.cpp:408] conv7_2_mbox_conf_perm -> conv7_2_mbox_conf_perm
I0317 14:49:44.182523 16302 net.cpp:150] Setting up conv7_2_mbox_conf_perm
I0317 14:49:44.182530 16302 net.cpp:157] Top shape: 8 8 8 126 (64512)
I0317 14:49:44.182533 16302 net.cpp:165] Memory required for data: 7597449280
I0317 14:49:44.182536 16302 layer_factory.hpp:77] Creating layer conv7_2_mbox_conf_flat
I0317 14:49:44.182541 16302 net.cpp:100] Creating Layer conv7_2_mbox_conf_flat
I0317 14:49:44.182548 16302 net.cpp:434] conv7_2_mbox_conf_flat <- conv7_2_mbox_conf_perm
I0317 14:49:44.182554 16302 net.cpp:408] conv7_2_mbox_conf_flat -> conv7_2_mbox_conf_flat
I0317 14:49:44.182591 16302 net.cpp:150] Setting up conv7_2_mbox_conf_flat
I0317 14:49:44.182598 16302 net.cpp:157] Top shape: 8 8064 (64512)
I0317 14:49:44.182601 16302 net.cpp:165] Memory required for data: 7597707328
I0317 14:49:44.182605 16302 layer_factory.hpp:77] Creating layer conv7_2_mbox_priorbox
I0317 14:49:44.182610 16302 net.cpp:100] Creating Layer conv7_2_mbox_priorbox
I0317 14:49:44.182615 16302 net.cpp:434] conv7_2_mbox_priorbox <- conv7_2_conv7_2_scale_0_split_3
I0317 14:49:44.182621 16302 net.cpp:434] conv7_2_mbox_priorbox <- data_data_0_split_4
I0317 14:49:44.182626 16302 net.cpp:408] conv7_2_mbox_priorbox -> conv7_2_mbox_priorbox
I0317 14:49:44.182665 16302 net.cpp:150] Setting up conv7_2_mbox_priorbox
I0317 14:49:44.182673 16302 net.cpp:157] Top shape: 1 2 1536 (3072)
I0317 14:49:44.182695 16302 net.cpp:165] Memory required for data: 7597719616
I0317 14:49:44.182700 16302 layer_factory.hpp:77] Creating layer conv8_2_mbox_loc
I0317 14:49:44.182708 16302 net.cpp:100] Creating Layer conv8_2_mbox_loc
I0317 14:49:44.182713 16302 net.cpp:434] conv8_2_mbox_loc <- conv8_2_conv8_2_scale_0_split_1
I0317 14:49:44.182723 16302 net.cpp:408] conv8_2_mbox_loc -> conv8_2_mbox_loc
I0317 14:49:44.185533 16302 net.cpp:150] Setting up conv8_2_mbox_loc
I0317 14:49:44.185544 16302 net.cpp:157] Top shape: 8 24 4 4 (3072)
I0317 14:49:44.185546 16302 net.cpp:165] Memory required for data: 7597731904
I0317 14:49:44.185554 16302 layer_factory.hpp:77] Creating layer conv8_2_mbox_loc_perm
I0317 14:49:44.185564 16302 net.cpp:100] Creating Layer conv8_2_mbox_loc_perm
I0317 14:49:44.185569 16302 net.cpp:434] conv8_2_mbox_loc_perm <- conv8_2_mbox_loc
I0317 14:49:44.185576 16302 net.cpp:408] conv8_2_mbox_loc_perm -> conv8_2_mbox_loc_perm
I0317 14:49:44.185722 16302 net.cpp:150] Setting up conv8_2_mbox_loc_perm
I0317 14:49:44.185729 16302 net.cpp:157] Top shape: 8 4 4 24 (3072)
I0317 14:49:44.185732 16302 net.cpp:165] Memory required for data: 7597744192
I0317 14:49:44.185735 16302 layer_factory.hpp:77] Creating layer conv8_2_mbox_loc_flat
I0317 14:49:44.185741 16302 net.cpp:100] Creating Layer conv8_2_mbox_loc_flat
I0317 14:49:44.185745 16302 net.cpp:434] conv8_2_mbox_loc_flat <- conv8_2_mbox_loc_perm
I0317 14:49:44.185755 16302 net.cpp:408] conv8_2_mbox_loc_flat -> conv8_2_mbox_loc_flat
I0317 14:49:44.185797 16302 net.cpp:150] Setting up conv8_2_mbox_loc_flat
I0317 14:49:44.185804 16302 net.cpp:157] Top shape: 8 384 (3072)
I0317 14:49:44.185808 16302 net.cpp:165] Memory required for data: 7597756480
I0317 14:49:44.185811 16302 layer_factory.hpp:77] Creating layer conv8_2_mbox_conf
I0317 14:49:44.185822 16302 net.cpp:100] Creating Layer conv8_2_mbox_conf
I0317 14:49:44.185829 16302 net.cpp:434] conv8_2_mbox_conf <- conv8_2_conv8_2_scale_0_split_2
I0317 14:49:44.185837 16302 net.cpp:408] conv8_2_mbox_conf -> conv8_2_mbox_conf
I0317 14:49:44.189491 16302 net.cpp:150] Setting up conv8_2_mbox_conf
I0317 14:49:44.189502 16302 net.cpp:157] Top shape: 8 126 4 4 (16128)
I0317 14:49:44.189507 16302 net.cpp:165] Memory required for data: 7597820992
I0317 14:49:44.189512 16302 layer_factory.hpp:77] Creating layer conv8_2_mbox_conf_perm
I0317 14:49:44.189523 16302 net.cpp:100] Creating Layer conv8_2_mbox_conf_perm
I0317 14:49:44.189528 16302 net.cpp:434] conv8_2_mbox_conf_perm <- conv8_2_mbox_conf
I0317 14:49:44.189535 16302 net.cpp:408] conv8_2_mbox_conf_perm -> conv8_2_mbox_conf_perm
I0317 14:49:44.189688 16302 net.cpp:150] Setting up conv8_2_mbox_conf_perm
I0317 14:49:44.189695 16302 net.cpp:157] Top shape: 8 4 4 126 (16128)
I0317 14:49:44.189698 16302 net.cpp:165] Memory required for data: 7597885504
I0317 14:49:44.189702 16302 layer_factory.hpp:77] Creating layer conv8_2_mbox_conf_flat
I0317 14:49:44.189708 16302 net.cpp:100] Creating Layer conv8_2_mbox_conf_flat
I0317 14:49:44.189713 16302 net.cpp:434] conv8_2_mbox_conf_flat <- conv8_2_mbox_conf_perm
I0317 14:49:44.189719 16302 net.cpp:408] conv8_2_mbox_conf_flat -> conv8_2_mbox_conf_flat
I0317 14:49:44.189759 16302 net.cpp:150] Setting up conv8_2_mbox_conf_flat
I0317 14:49:44.189765 16302 net.cpp:157] Top shape: 8 2016 (16128)
I0317 14:49:44.189769 16302 net.cpp:165] Memory required for data: 7597950016
I0317 14:49:44.189772 16302 layer_factory.hpp:77] Creating layer conv8_2_mbox_priorbox
I0317 14:49:44.189779 16302 net.cpp:100] Creating Layer conv8_2_mbox_priorbox
I0317 14:49:44.189785 16302 net.cpp:434] conv8_2_mbox_priorbox <- conv8_2_conv8_2_scale_0_split_3
I0317 14:49:44.189791 16302 net.cpp:434] conv8_2_mbox_priorbox <- data_data_0_split_5
I0317 14:49:44.189798 16302 net.cpp:408] conv8_2_mbox_priorbox -> conv8_2_mbox_priorbox
I0317 14:49:44.189833 16302 net.cpp:150] Setting up conv8_2_mbox_priorbox
I0317 14:49:44.189846 16302 net.cpp:157] Top shape: 1 2 384 (768)
I0317 14:49:44.189851 16302 net.cpp:165] Memory required for data: 7597953088
I0317 14:49:44.189867 16302 layer_factory.hpp:77] Creating layer conv9_2_mbox_loc
I0317 14:49:44.189882 16302 net.cpp:100] Creating Layer conv9_2_mbox_loc
I0317 14:49:44.189888 16302 net.cpp:434] conv9_2_mbox_loc <- conv9_2_conv9_2_scale_0_split_1
I0317 14:49:44.189893 16302 net.cpp:408] conv9_2_mbox_loc -> conv9_2_mbox_loc
I0317 14:49:44.191434 16302 net.cpp:150] Setting up conv9_2_mbox_loc
I0317 14:49:44.191447 16302 net.cpp:157] Top shape: 8 16 2 2 (512)
I0317 14:49:44.191449 16302 net.cpp:165] Memory required for data: 7597955136
I0317 14:49:44.191455 16302 layer_factory.hpp:77] Creating layer conv9_2_mbox_loc_perm
I0317 14:49:44.191462 16302 net.cpp:100] Creating Layer conv9_2_mbox_loc_perm
I0317 14:49:44.191470 16302 net.cpp:434] conv9_2_mbox_loc_perm <- conv9_2_mbox_loc
I0317 14:49:44.191478 16302 net.cpp:408] conv9_2_mbox_loc_perm -> conv9_2_mbox_loc_perm
I0317 14:49:44.191620 16302 net.cpp:150] Setting up conv9_2_mbox_loc_perm
I0317 14:49:44.191627 16302 net.cpp:157] Top shape: 8 2 2 16 (512)
I0317 14:49:44.191630 16302 net.cpp:165] Memory required for data: 7597957184
I0317 14:49:44.191634 16302 layer_factory.hpp:77] Creating layer conv9_2_mbox_loc_flat
I0317 14:49:44.191639 16302 net.cpp:100] Creating Layer conv9_2_mbox_loc_flat
I0317 14:49:44.191644 16302 net.cpp:434] conv9_2_mbox_loc_flat <- conv9_2_mbox_loc_perm
I0317 14:49:44.191653 16302 net.cpp:408] conv9_2_mbox_loc_flat -> conv9_2_mbox_loc_flat
I0317 14:49:44.191692 16302 net.cpp:150] Setting up conv9_2_mbox_loc_flat
I0317 14:49:44.191699 16302 net.cpp:157] Top shape: 8 64 (512)
I0317 14:49:44.191702 16302 net.cpp:165] Memory required for data: 7597959232
I0317 14:49:44.191706 16302 layer_factory.hpp:77] Creating layer conv9_2_mbox_conf
I0317 14:49:44.191715 16302 net.cpp:100] Creating Layer conv9_2_mbox_conf
I0317 14:49:44.191721 16302 net.cpp:434] conv9_2_mbox_conf <- conv9_2_conv9_2_scale_0_split_2
I0317 14:49:44.191728 16302 net.cpp:408] conv9_2_mbox_conf -> conv9_2_mbox_conf
I0317 14:49:44.194176 16302 net.cpp:150] Setting up conv9_2_mbox_conf
I0317 14:49:44.194187 16302 net.cpp:157] Top shape: 8 84 2 2 (2688)
I0317 14:49:44.194190 16302 net.cpp:165] Memory required for data: 7597969984
I0317 14:49:44.194196 16302 layer_factory.hpp:77] Creating layer conv9_2_mbox_conf_perm
I0317 14:49:44.194205 16302 net.cpp:100] Creating Layer conv9_2_mbox_conf_perm
I0317 14:49:44.194208 16302 net.cpp:434] conv9_2_mbox_conf_perm <- conv9_2_mbox_conf
I0317 14:49:44.194214 16302 net.cpp:408] conv9_2_mbox_conf_perm -> conv9_2_mbox_conf_perm
I0317 14:49:44.194391 16302 net.cpp:150] Setting up conv9_2_mbox_conf_perm
I0317 14:49:44.194401 16302 net.cpp:157] Top shape: 8 2 2 84 (2688)
I0317 14:49:44.194406 16302 net.cpp:165] Memory required for data: 7597980736
I0317 14:49:44.194409 16302 layer_factory.hpp:77] Creating layer conv9_2_mbox_conf_flat
I0317 14:49:44.194416 16302 net.cpp:100] Creating Layer conv9_2_mbox_conf_flat
I0317 14:49:44.194422 16302 net.cpp:434] conv9_2_mbox_conf_flat <- conv9_2_mbox_conf_perm
I0317 14:49:44.194433 16302 net.cpp:408] conv9_2_mbox_conf_flat -> conv9_2_mbox_conf_flat
I0317 14:49:44.194468 16302 net.cpp:150] Setting up conv9_2_mbox_conf_flat
I0317 14:49:44.194473 16302 net.cpp:157] Top shape: 8 336 (2688)
I0317 14:49:44.194478 16302 net.cpp:165] Memory required for data: 7597991488
I0317 14:49:44.194480 16302 layer_factory.hpp:77] Creating layer conv9_2_mbox_priorbox
I0317 14:49:44.194485 16302 net.cpp:100] Creating Layer conv9_2_mbox_priorbox
I0317 14:49:44.194490 16302 net.cpp:434] conv9_2_mbox_priorbox <- conv9_2_conv9_2_scale_0_split_3
I0317 14:49:44.194497 16302 net.cpp:434] conv9_2_mbox_priorbox <- data_data_0_split_6
I0317 14:49:44.194504 16302 net.cpp:408] conv9_2_mbox_priorbox -> conv9_2_mbox_priorbox
I0317 14:49:44.194538 16302 net.cpp:150] Setting up conv9_2_mbox_priorbox
I0317 14:49:44.194551 16302 net.cpp:157] Top shape: 1 2 64 (128)
I0317 14:49:44.194555 16302 net.cpp:165] Memory required for data: 7597992000
I0317 14:49:44.194557 16302 layer_factory.hpp:77] Creating layer conv10_2_mbox_loc
I0317 14:49:44.194566 16302 net.cpp:100] Creating Layer conv10_2_mbox_loc
I0317 14:49:44.194583 16302 net.cpp:434] conv10_2_mbox_loc <- conv10_2_conv10_2_scale_0_split_0
I0317 14:49:44.194592 16302 net.cpp:408] conv10_2_mbox_loc -> conv10_2_mbox_loc
I0317 14:49:44.196856 16302 net.cpp:150] Setting up conv10_2_mbox_loc
I0317 14:49:44.196867 16302 net.cpp:157] Top shape: 8 16 1 1 (128)
I0317 14:49:44.196871 16302 net.cpp:165] Memory required for data: 7597992512
I0317 14:49:44.196877 16302 layer_factory.hpp:77] Creating layer conv10_2_mbox_loc_perm
I0317 14:49:44.196887 16302 net.cpp:100] Creating Layer conv10_2_mbox_loc_perm
I0317 14:49:44.196890 16302 net.cpp:434] conv10_2_mbox_loc_perm <- conv10_2_mbox_loc
I0317 14:49:44.196897 16302 net.cpp:408] conv10_2_mbox_loc_perm -> conv10_2_mbox_loc_perm
I0317 14:49:44.197046 16302 net.cpp:150] Setting up conv10_2_mbox_loc_perm
I0317 14:49:44.197053 16302 net.cpp:157] Top shape: 8 1 1 16 (128)
I0317 14:49:44.197057 16302 net.cpp:165] Memory required for data: 7597993024
I0317 14:49:44.197059 16302 layer_factory.hpp:77] Creating layer conv10_2_mbox_loc_flat
I0317 14:49:44.197067 16302 net.cpp:100] Creating Layer conv10_2_mbox_loc_flat
I0317 14:49:44.197074 16302 net.cpp:434] conv10_2_mbox_loc_flat <- conv10_2_mbox_loc_perm
I0317 14:49:44.197088 16302 net.cpp:408] conv10_2_mbox_loc_flat -> conv10_2_mbox_loc_flat
I0317 14:49:44.197121 16302 net.cpp:150] Setting up conv10_2_mbox_loc_flat
I0317 14:49:44.197129 16302 net.cpp:157] Top shape: 8 16 (128)
I0317 14:49:44.197131 16302 net.cpp:165] Memory required for data: 7597993536
I0317 14:49:44.197134 16302 layer_factory.hpp:77] Creating layer conv10_2_mbox_conf
I0317 14:49:44.197144 16302 net.cpp:100] Creating Layer conv10_2_mbox_conf
I0317 14:49:44.197150 16302 net.cpp:434] conv10_2_mbox_conf <- conv10_2_conv10_2_scale_0_split_1
I0317 14:49:44.197158 16302 net.cpp:408] conv10_2_mbox_conf -> conv10_2_mbox_conf
I0317 14:49:44.199616 16302 net.cpp:150] Setting up conv10_2_mbox_conf
I0317 14:49:44.199627 16302 net.cpp:157] Top shape: 8 84 1 1 (672)
I0317 14:49:44.199631 16302 net.cpp:165] Memory required for data: 7597996224
I0317 14:49:44.199637 16302 layer_factory.hpp:77] Creating layer conv10_2_mbox_conf_perm
I0317 14:49:44.199647 16302 net.cpp:100] Creating Layer conv10_2_mbox_conf_perm
I0317 14:49:44.199651 16302 net.cpp:434] conv10_2_mbox_conf_perm <- conv10_2_mbox_conf
I0317 14:49:44.199659 16302 net.cpp:408] conv10_2_mbox_conf_perm -> conv10_2_mbox_conf_perm
I0317 14:49:44.199816 16302 net.cpp:150] Setting up conv10_2_mbox_conf_perm
I0317 14:49:44.199823 16302 net.cpp:157] Top shape: 8 1 1 84 (672)
I0317 14:49:44.199826 16302 net.cpp:165] Memory required for data: 7597998912
I0317 14:49:44.199832 16302 layer_factory.hpp:77] Creating layer conv10_2_mbox_conf_flat
I0317 14:49:44.199841 16302 net.cpp:100] Creating Layer conv10_2_mbox_conf_flat
I0317 14:49:44.199848 16302 net.cpp:434] conv10_2_mbox_conf_flat <- conv10_2_mbox_conf_perm
I0317 14:49:44.199859 16302 net.cpp:408] conv10_2_mbox_conf_flat -> conv10_2_mbox_conf_flat
I0317 14:49:44.199893 16302 net.cpp:150] Setting up conv10_2_mbox_conf_flat
I0317 14:49:44.199899 16302 net.cpp:157] Top shape: 8 84 (672)
I0317 14:49:44.199903 16302 net.cpp:165] Memory required for data: 7598001600
I0317 14:49:44.199905 16302 layer_factory.hpp:77] Creating layer conv10_2_mbox_priorbox
I0317 14:49:44.199914 16302 net.cpp:100] Creating Layer conv10_2_mbox_priorbox
I0317 14:49:44.199918 16302 net.cpp:434] conv10_2_mbox_priorbox <- conv10_2_conv10_2_scale_0_split_2
I0317 14:49:44.199925 16302 net.cpp:434] conv10_2_mbox_priorbox <- data_data_0_split_7
I0317 14:49:44.199930 16302 net.cpp:408] conv10_2_mbox_priorbox -> conv10_2_mbox_priorbox
I0317 14:49:44.199970 16302 net.cpp:150] Setting up conv10_2_mbox_priorbox
I0317 14:49:44.199977 16302 net.cpp:157] Top shape: 1 2 16 (32)
I0317 14:49:44.199980 16302 net.cpp:165] Memory required for data: 7598001728
I0317 14:49:44.199983 16302 layer_factory.hpp:77] Creating layer mbox_loc
I0317 14:49:44.199991 16302 net.cpp:100] Creating Layer mbox_loc
I0317 14:49:44.199996 16302 net.cpp:434] mbox_loc <- conv4_3_norm_mbox_loc_flat
I0317 14:49:44.200014 16302 net.cpp:434] mbox_loc <- fc7_mbox_loc_flat
I0317 14:49:44.200019 16302 net.cpp:434] mbox_loc <- conv6_2_mbox_loc_flat
I0317 14:49:44.200023 16302 net.cpp:434] mbox_loc <- conv7_2_mbox_loc_flat
I0317 14:49:44.200027 16302 net.cpp:434] mbox_loc <- conv8_2_mbox_loc_flat
I0317 14:49:44.200032 16302 net.cpp:434] mbox_loc <- conv9_2_mbox_loc_flat
I0317 14:49:44.200037 16302 net.cpp:434] mbox_loc <- conv10_2_mbox_loc_flat
I0317 14:49:44.200052 16302 net.cpp:408] mbox_loc -> mbox_loc
I0317 14:49:44.200101 16302 net.cpp:150] Setting up mbox_loc
I0317 14:49:44.200111 16302 net.cpp:157] Top shape: 8 98256 (786048)
I0317 14:49:44.200116 16302 net.cpp:165] Memory required for data: 7601145920
I0317 14:49:44.200120 16302 layer_factory.hpp:77] Creating layer mbox_conf
I0317 14:49:44.200125 16302 net.cpp:100] Creating Layer mbox_conf
I0317 14:49:44.200132 16302 net.cpp:434] mbox_conf <- conv4_3_norm_mbox_conf_flat
I0317 14:49:44.200139 16302 net.cpp:434] mbox_conf <- fc7_mbox_conf_flat
I0317 14:49:44.200143 16302 net.cpp:434] mbox_conf <- conv6_2_mbox_conf_flat
I0317 14:49:44.200148 16302 net.cpp:434] mbox_conf <- conv7_2_mbox_conf_flat
I0317 14:49:44.200152 16302 net.cpp:434] mbox_conf <- conv8_2_mbox_conf_flat
I0317 14:49:44.200156 16302 net.cpp:434] mbox_conf <- conv9_2_mbox_conf_flat
I0317 14:49:44.200162 16302 net.cpp:434] mbox_conf <- conv10_2_mbox_conf_flat
I0317 14:49:44.200167 16302 net.cpp:408] mbox_conf -> mbox_conf
I0317 14:49:44.200208 16302 net.cpp:150] Setting up mbox_conf
I0317 14:49:44.200217 16302 net.cpp:157] Top shape: 8 515844 (4126752)
I0317 14:49:44.200227 16302 net.cpp:165] Memory required for data: 7617652928
I0317 14:49:44.200237 16302 layer_factory.hpp:77] Creating layer mbox_priorbox
I0317 14:49:44.200243 16302 net.cpp:100] Creating Layer mbox_priorbox
I0317 14:49:44.200248 16302 net.cpp:434] mbox_priorbox <- conv4_3_norm_mbox_priorbox
I0317 14:49:44.200253 16302 net.cpp:434] mbox_priorbox <- fc7_mbox_priorbox
I0317 14:49:44.200256 16302 net.cpp:434] mbox_priorbox <- conv6_2_mbox_priorbox
I0317 14:49:44.200261 16302 net.cpp:434] mbox_priorbox <- conv7_2_mbox_priorbox
I0317 14:49:44.200265 16302 net.cpp:434] mbox_priorbox <- conv8_2_mbox_priorbox
I0317 14:49:44.200270 16302 net.cpp:434] mbox_priorbox <- conv9_2_mbox_priorbox
I0317 14:49:44.200274 16302 net.cpp:434] mbox_priorbox <- conv10_2_mbox_priorbox
I0317 14:49:44.200279 16302 net.cpp:408] mbox_priorbox -> mbox_priorbox
I0317 14:49:44.200314 16302 net.cpp:150] Setting up mbox_priorbox
I0317 14:49:44.200321 16302 net.cpp:157] Top shape: 1 2 98256 (196512)
I0317 14:49:44.200325 16302 net.cpp:165] Memory required for data: 7618438976
I0317 14:49:44.200327 16302 layer_factory.hpp:77] Creating layer mbox_conf_reshape
I0317 14:49:44.200335 16302 net.cpp:100] Creating Layer mbox_conf_reshape
I0317 14:49:44.200341 16302 net.cpp:434] mbox_conf_reshape <- mbox_conf
I0317 14:49:44.200350 16302 net.cpp:408] mbox_conf_reshape -> mbox_conf_reshape
I0317 14:49:44.200390 16302 net.cpp:150] Setting up mbox_conf_reshape
I0317 14:49:44.200397 16302 net.cpp:157] Top shape: 8 24564 21 (4126752)
I0317 14:49:44.200400 16302 net.cpp:165] Memory required for data: 7634945984
I0317 14:49:44.200403 16302 layer_factory.hpp:77] Creating layer mbox_conf_softmax
I0317 14:49:44.200410 16302 net.cpp:100] Creating Layer mbox_conf_softmax
I0317 14:49:44.200415 16302 net.cpp:434] mbox_conf_softmax <- mbox_conf_reshape
I0317 14:49:44.200423 16302 net.cpp:408] mbox_conf_softmax -> mbox_conf_softmax
I0317 14:49:44.200701 16302 net.cpp:150] Setting up mbox_conf_softmax
I0317 14:49:44.200711 16302 net.cpp:157] Top shape: 8 24564 21 (4126752)
I0317 14:49:44.200717 16302 net.cpp:165] Memory required for data: 7651452992
I0317 14:49:44.200721 16302 layer_factory.hpp:77] Creating layer mbox_conf_flatten
I0317 14:49:44.200727 16302 net.cpp:100] Creating Layer mbox_conf_flatten
I0317 14:49:44.200731 16302 net.cpp:434] mbox_conf_flatten <- mbox_conf_softmax
I0317 14:49:44.200739 16302 net.cpp:408] mbox_conf_flatten -> mbox_conf_flatten
I0317 14:49:44.200786 16302 net.cpp:150] Setting up mbox_conf_flatten
I0317 14:49:44.200793 16302 net.cpp:157] Top shape: 8 515844 (4126752)
I0317 14:49:44.200796 16302 net.cpp:165] Memory required for data: 7667960000
I0317 14:49:44.200799 16302 layer_factory.hpp:77] Creating layer detection_out
I0317 14:49:44.200812 16302 net.cpp:100] Creating Layer detection_out
I0317 14:49:44.200819 16302 net.cpp:434] detection_out <- mbox_loc
I0317 14:49:44.200824 16302 net.cpp:434] detection_out <- mbox_conf_flatten
I0317 14:49:44.200827 16302 net.cpp:434] detection_out <- mbox_priorbox
I0317 14:49:44.200834 16302 net.cpp:408] detection_out -> detection_out
I0317 14:49:44.201925 16302 net.cpp:150] Setting up detection_out
I0317 14:49:44.201934 16302 net.cpp:157] Top shape: 1 1 1 7 (7)
I0317 14:49:44.201937 16302 net.cpp:165] Memory required for data: 7667960028
I0317 14:49:44.201941 16302 layer_factory.hpp:77] Creating layer detection_eval
I0317 14:49:44.201949 16302 net.cpp:100] Creating Layer detection_eval
I0317 14:49:44.201954 16302 net.cpp:434] detection_eval <- detection_out
I0317 14:49:44.201958 16302 net.cpp:434] detection_eval <- label
I0317 14:49:44.201964 16302 net.cpp:408] detection_eval -> detection_eval
I0317 14:49:44.202782 16302 net.cpp:150] Setting up detection_eval
I0317 14:49:44.202790 16302 net.cpp:157] Top shape: 1 1 21 5 (105)
I0317 14:49:44.202793 16302 net.cpp:165] Memory required for data: 7667960448
I0317 14:49:44.202797 16302 net.cpp:228] detection_eval does not need backward computation.
I0317 14:49:44.202803 16302 net.cpp:228] detection_out does not need backward computation.
I0317 14:49:44.202807 16302 net.cpp:228] mbox_conf_flatten does not need backward computation.
I0317 14:49:44.202812 16302 net.cpp:228] mbox_conf_softmax does not need backward computation.
…
