…
      sampler {
        min_scale: 0.3
        max_scale: 1
        min_aspect_ratio: 0.5
        max_aspect_ratio: 2
      }
      sample_constraint {
        min_jaccard_overlap: 0.9
      }
      max_sample: 1
      max_trials: 50
    }
    batch_sampler {
      sampler {
        min_scale: 0.3
        max_scale: 1
        min_aspect_ratio: 0.5
        max_aspect_ratio: 2
      }
      sample_constraint {
        max_jaccard_overlap: 1
      }
      max_sample: 1
      max_trials: 50
    }
    label_map_file: "data/VOC0712/labelmap_voc.prototxt"
  }
}
layer {
  name: "conv1_1"
  type: "Convolution"
  bottom: "data"
  top: "conv1_1"
  param {
    lr_mult: 1
    decay_mult: 1
  }
  param {
    lr_mult: 2
    decay_mult: 0
  }
  convolution_param {
    num_output: 64
    pad: 1
    kernel_size: 3
    weight_filler {
      type: "xavier"
    }
    bias_filler {
      type: "constant"
      value: 0
    }
  }
}
layer {
  name: "relu1_1"
  type: "ReLU"
  bottom: "conv1_1"
  top: "conv1_1"
}
layer {
  name: "conv1_2"
  type: "Convolution"
  bottom: "conv1_1"
  top: "conv1_2"
  param {
    lr_mult: 1
    decay_mult: 1
  }
  param {
    lr_mult: 2
    decay_mult: 0
  }
  convolution_param {
    num_output: 64
    pad: 1
    kernel_size: 3
    weight_filler {
      type: "xavier"
    }
    bias_filler {
      type: "constant"
      value: 0
    }
  }
}
layer {
  name: "relu1_2"
  type: "ReLU"
  bottom: "conv1_2"
  top: "conv1_2"
}
layer {
  name: "pool1"
  type: "Pooling"
  bottom: "conv1_2"
  top: "pool1"
  pooling_param {
    pool: MAX
    kernel_size: 2
    stride: 2
  }
}
layer {
  name: "conv2_1"
  type: "Convolution"
  bottom: "pool1"
  top: "conv2_1"
  param {
    lr_mult: 1
    decay_mult: 1
  }
  param {
    lr_mult: 2
    decay_mult: 0
  }
  convolution_param {
    num_output: 128
    pad: 1
    kernel_size: 3
    weight_filler {
      type: "xavier"
    }
    bias_filler {
      type: "constant"
      value: 0
    }
  }
}
layer {
  name: "relu2_1"
  type: "ReLU"
  bottom: "conv2_1"
  top: "conv2_1"
}
layer {
  name: "conv2_2"
  type: "Convolution"
  bottom: "conv2_1"
  top: "conv2_2"
  param {
    lr_mult: 1
    decay_mult: 1
  }
  param {
    lr_mult: 2
    decay_mult: 0
  }
  convolution_param {
    num_output: 128
    pad: 1
    kernel_size: 3
    weight_filler {
      type: "xavier"
    }
    bias_filler {
      type: "constant"
      value: 0
    }
  }
}
layer {
  name: "relu2_2"
  type: "ReLU"
  bottom: "conv2_2"
  top: "conv2_2"
}
layer {
  name: "pool2"
  type: "Pooling"
  bottom: "conv2_2"
  top: "pool2"
  pooling_param {
    pool: MAX
    kernel_size: 2
    stride: 2
  }
}
layer {
  name: "conv3_1"
  type: "Convolution"
  bottom: "pool2"
  top: "conv3_1"
  param {
    lr_mult: 1
    decay_mult: 1
  }
  param {
    lr_mult: 2
    decay_mult: 0
  }
  convolution_param {
    num_output: 256
    pad: 1
    kernel_size: 3
    weight_filler {
      type: "xavier"
    }
    bias_filler {
      type: "constant"
      value: 0
    }
  }
}
layer {
  name: "relu3_1"
  type: "ReLU"
  bottom: "conv3_1"
  top: "conv3_1"
}
layer {
  name: "conv3_2"
  type: "Convolution"
  bottom: "conv3_1"
  top: "conv3_2"
  param {
    lr_mult: 1
    decay_mult: 1
  }
  param {
    lr_mult: 2
    decay_mult: 0
  }
  convolution_param {
    num_output: 256
    pad: 1
    kernel_size: 3
    weight_filler {
      type: "xavier"
    }
    bias_filler {
      type: "constant"
      value: 0
    }
  }
}
layer {
  name: "relu3_2"
  type: "ReLU"
  bottom: "conv3_2"
  top: "conv3_2"
}
layer {
  name: "conv3_3"
  type: "Convolution"
  bottom: "conv3_2"
  top: "conv3_3"
  param {
    lr_mult: 1
    decay_mult: 1
  }
  param {
    lr_mult: 2
    decay_mult: 0
  }
  convolution_param {
    num_output: 256
    pad: 1
    kernel_size: 3
    weight_filler {
      type: "xavier"
    }
    bias_filler {
      type: "constant"
      value: 0
    }
  }
}
layer {
  name: "relu3_3"
  type: "ReLU"
  bottom: "conv3_3"
  top: "conv3_3"
}
layer {
  name: "pool3"
  type: "Pooling"
  bottom: "conv3_3"
  top: "pool3"
  pooling_param {
    pool: MAX
    kernel_size: 2
    stride: 2
  }
}
layer {
  name: "conv4_1"
  type: "Convolution"
  bottom: "pool3"
  top: "conv4_1"
  param {
    lr_mult: 1
    decay_mult: 1
  }
  param {
    lr_mult: 2
    decay_mult: 0
  }
  convolution_param {
    num_output: 512
    pad: 1
    kernel_size: 3
    weight_filler {
      type: "xavier"
    }
    bias_filler {
      type: "constant"
      value: 0
    }
  }
}
layer {
  name: "relu4_1"
  type: "ReLU"
  bottom: "conv4_1"
  top: "conv4_1"
}
layer {
  name: "conv4_2"
  type: "Convolution"
  bottom: "conv4_1"
  top: "conv4_2"
  param {
    lr_mult: 1
    decay_mult: 1
  }
  param {
    lr_mult: 2
    decay_mult: 0
  }
  convolution_param {
    num_output: 512
    pad: 1
    kernel_size: 3
    weight_filler {
      type: "xavier"
    }
    bias_filler {
      type: "constant"
      value: 0
    }
  }
}
layer {
  name: "relu4_2"
  type: "ReLU"
  bottom: "conv4_2"
  top: "conv4_2"
}
layer {
  name: "conv4_3"
  type: "Convolution"
  bottom: "conv4_2"
  top: "conv4_3_ori"
  param {
    lr_mult: 1
    decay_mult: 1
  }
  param {
    lr_mult: 2
    decay_mult: 0
  }
  convolution_param {
    num_output: 512
    pad: 1
    kernel_size: 3
    weight_filler {
      type: "xavier"
    }
    bias_filler {
      type: "constant"
      value: 0
    }
  }
}
layer {
  name: "relu4_3"
  type: "ReLU"
  bottom: "conv4_3_ori"
  top: "conv4_3_ori"
}
layer {
  name: "seg_pool4"
  type: "Pooling"
  bottom: "conv4_3_ori"
  top: "seg_pool4"
  pooling_param {
    pool: MAX
    kernel_size: 3
    stride: 1
    pad: 1
  }
}
layer {
  name: "seg5_1"
  type: "Convolution"
  bottom: "seg_pool4"
  top: "seg5_1"
  param {
    lr_mult: 1
    decay_mult: 1
  }
  param {
    lr_mult: 2
    decay_mult: 0
  }
  convolution_param {
    num_output: 512
    pad: 2
    kernel_size: 3
    weight_filler {
      type: "xavier"
    }
    bias_filler {
      type: "constant"
      value: 0
    }
    dilation: 2
  }
}
layer {
  name: "seg_relu5_1"
  type: "ReLU"
  bottom: "seg5_1"
  top: "seg5_1"
}
layer {
  name: "seg5_2"
  type: "Convolution"
  bottom: "seg5_1"
  top: "seg5_2"
  param {
    lr_mult: 1
    decay_mult: 1
  }
  param {
    lr_mult: 2
    decay_mult: 0
  }
  convolution_param {
    num_output: 512
    pad: 2
    kernel_size: 3
    weight_filler {
      type: "xavier"
    }
    bias_filler {
      type: "constant"
      value: 0
    }
    dilation: 2
  }
}
layer {
  name: "seg_relu5_2"
  type: "ReLU"
  bottom: "seg5_2"
  top: "seg5_2"
}
layer {
  name: "seg5_3"
  type: "Convolution"
  bottom: "seg5_2"
  top: "seg5_3"
  param {
    lr_mult: 1
    decay_mult: 1
  }
  param {
    lr_mult: 2
    decay_mult: 0
  }
  convolution_param {
    num_output: 512
    pad: 2
    kernel_size: 3
    weight_filler {
      type: "xavier"
    }
    bias_filler {
      type: "constant"
      value: 0
    }
    dilation: 2
  }
}
layer {
  name: "seg_relu5_3"
  type: "ReLU"
  bottom: "seg5_3"
  top: "seg5_3"
}
layer {
  name: "seg_pool5"
  type: "Pooling"
  bottom: "seg5_3"
  top: "seg_pool5"
  pooling_param {
    pool: MAX
    kernel_size: 3
    stride: 1
    pad: 1
  }
}
layer {
  name: "seg6"
  type: "Convolution"
  bottom: "seg_pool5"
  top: "seg6"
  param {
    lr_mult: 1
    decay_mult: 1
  }
  param {
    lr_mult: 2
    decay_mult: 0
  }
  convolution_param {
    num_output: 1024
    pad: 4
    kernel_size: 3
    weight_filler {
      type: "xavier"
    }
    bias_filler {
      type: "constant"
      value: 0
    }
    dilation: 4
  }
}
layer {
  name: "seg_relu6"
  type: "ReLU"
  bottom: "seg6"
  top: "seg6"
}
layer {
  name: "seg_drop6"
  type: "Dropout"
  bottom: "seg6"
  top: "seg6"
  dropout_param {
    dropout_ratio: 0.5
  }
}
layer {
  name: "seg7"
  type: "Convolution"
  bottom: "seg6"
  top: "seg7"
  param {
    lr_mult: 1
    decay_mult: 1
  }
  param {
    lr_mult: 2
    decay_mult: 0
  }
  convolution_param {
    num_output: 1024
    kernel_size: 1
    weight_filler {
      type: "xavier"
    }
    bias_filler {
      type: "constant"
      value: 0
    }
  }
}
layer {
  name: "seg_relu7"
  type: "ReLU"
  bottom: "seg7"
  top: "seg7"
}
layer {
  name: "seg_drop7"
  type: "Dropout"
  bottom: "seg7"
  top: "seg7d"
  dropout_param {
    dropout_ratio: 0.5
  }
}
layer {
  name: "seg"
  type: "Convolution"
  bottom: "seg7d"
  top: "seg"
  param {
    lr_mult: 10
    decay_mult: 1
  }
  param {
    lr_mult: 20
    decay_mult: 0
  }
  convolution_param {
    num_output: 21
    kernel_size: 1
    weight_filler {
      type: "gaussian"
      std: 0.01
    }
    bias_filler {
      type: "constant"
      value: 0
    }
  }
}
layer {
  name: "seg_gt"
  type: "SegGt"
  bottom: "label"
  bottom: "seg"
  top: "seg_gt"
  seggt_param {
    background_label_id: 0
    use_difficult_gt: true
  }
}
layer {
  name: "seg_loss"
  type: "SoftmaxWithLoss"
  bottom: "seg"
  bottom: "seg_gt"
  top: "seg_loss"
  loss_weight: 0.1
  propagate_down: true
  propagate_down: false
  softmax_param {
    axis: 1
  }
}
layer {
  name: "seg_to_det_conv"
  type: "Convolution"
  bottom: "seg7"
  top: "seg_to_det_conv"
  param {
    lr_mult: 1
    decay_mult: 1
  }
  param {
    lr_mult: 2
    decay_mult: 0
  }
  convolution_param {
    num_output: 512
    pad: 0
    kernel_size: 1
    stride: 1
    weight_filler {
      type: "xavier"
    }
    bias_filler {
      type: "constant"
      value: 0
    }
  }
}
layer {
  name: "mult_conv4_3"
  type: "Eltwise"
  bottom: "conv4_3_ori"
  bottom: "seg_to_det_conv"
  top: "conv4_3_t"
  eltwise_param {
    operation: PROD
  }
}
layer {
  name: "conv4_3_s"
  type: "Pooling"
  bottom: "conv4_3_t"
  top: "conv4_3_s"
  pooling_param {
    pool: AVE
    global_pooling: true
  }
}
layer {
  name: "conv4_3_fc1"
  type: "Convolution"
  bottom: "conv4_3_s"
  top: "conv4_3_fc1"
  param {
    lr_mult: 1
    decay_mult: 1
  }
  param {
    lr_mult: 2
    decay_mult: 0
  }
  convolution_param {
    num_output: 128
    kernel_size: 1
    stride: 1
    weight_filler {
      type: "xavier"
    }
    bias_filler {
      type: "constant"
      value: 0
    }
  }
}
layer {
  name: "conv4_3_relu"
  type: "ReLU"
  bottom: "conv4_3_fc1"
  top: "conv4_3_fc1"
}
layer {
  name: "conv4_3_fc2"
  type: "Convolution"
  bottom: "conv4_3_fc1"
  top: "conv4_3_fc2"
  param {
    lr_mult: 1
    decay_mult: 1
  }
  param {
    lr_mult: 2
    decay_mult: 0
  }
  convolution_param {
    num_output: 512
    kernel_size: 1
    stride: 1
    weight_filler {
      type: "xavier"
    }
    bias_filler {
      type: "constant"
      value: 0
    }
  }
}
layer {
  name: "conv4_3_sig"
  type: "Sigmoid"
  bottom: "conv4_3_fc2"
  top: "conv4_3_fc2"
}
layer {
  name: "conv4_3_reshape"
  type: "Reshape"
  bottom: "conv4_3_fc2"
  top: "conv4_3_reshape"
  reshape_param {
    shape {
      dim: 0
      dim: 0
    }
  }
}
layer {
  name: "conv4_3_scale"
  type: "Scale"
  bottom: "conv4_3_t"
  bottom: "conv4_3_reshape"
  top: "conv4_3"
  scale_param {
    axis: 0
    bias_term: false
  }
}
layer {
  name: "pool4"
  type: "Pooling"
  bottom: "conv4_3"
  top: "pool4"
  pooling_param {
    pool: MAX
    kernel_size: 2
    stride: 2
  }
}
layer {
  name: "conv5_1"
  type: "Convolution"
  bottom: "pool4"
  top: "conv5_1"
  param {
    lr_mult: 1
    decay_mult: 1
  }
  param {
    lr_mult: 2
    decay_mult: 0
  }
  convolution_param {
    num_output: 512
    pad: 1
    kernel_size: 3
    weight_filler {
      type: "xavier"
    }
    bias_filler {
      type: "constant"
      value: 0
    }
    dilation: 1
  }
}
layer {
  name: "relu5_1"
  type: "ReLU"
  bottom: "conv5_1"
  top: "conv5_1"
}
layer {
  name: "conv5_2"
  type: "Convolution"
  bottom: "conv5_1"
  top: "conv5_2"
  param {
    lr_mult: 1
    decay_mult: 1
  }
  param {
    lr_mult: 2
    decay_mult: 0
  }
  convolution_param {
    num_output: 512
    pad: 1
    kernel_size: 3
    weight_filler {
      type: "xavier"
    }
    bias_filler {
      type: "constant"
      value: 0
    }
    dilation: 1
  }
}
layer {
  name: "relu5_2"
  type: "ReLU"
  bottom: "conv5_2"
  top: "conv5_2"
}
layer {
  name: "conv5_3"
  type: "Convolution"
  bottom: "conv5_2"
  top: "conv5_3"
  param {
    lr_mult: 1
    decay_mult: 1
  }
  param {
    lr_mult: 2
    decay_mult: 0
  }
  convolution_param {
    num_output: 512
    pad: 1
    kernel_size: 3
    weight_filler {
      type: "xavier"
    }
    bias_filler {
      type: "constant"
      value: 0
    }
    dilation: 1
  }
}
layer {
  name: "relu5_3"
  type: "ReLU"
  bottom: "conv5_3"
  top: "conv5_3"
}
layer {
  name: "pool5"
  type: "Pooling"
  bottom: "conv5_3"
  top: "pool5"
  pooling_param {
    pool: MAX
    kernel_size: 3
    stride: 1
    pad: 1
  }
}
layer {
  name: "fc6"
  type: "Convolution"
  bottom: "pool5"
  top: "fc6"
  param {
    lr_mult: 1
    decay_mult: 1
  }
  param {
    lr_mult: 2
    decay_mult: 0
  }
  convolution_param {
    num_output: 1024
    pad: 6
    kernel_size: 3
    weight_filler {
      type: "xavier"
    }
    bias_filler {
      type: "constant"
      value: 0
    }
    dilation: 6
  }
}
layer {
  name: "relu6"
  type: "ReLU"
  bottom: "fc6"
  top: "fc6"
}
layer {
  name: "fc7"
  type: "Convolution"
  bottom: "fc6"
  top: "fc7_t"
  param {
    lr_mult: 1
    decay_mult: 1
  }
  param {
    lr_mult: 2
    decay_mult: 0
  }
  convolution_param {
    num_output: 1024
    kernel_size: 1
    weight_filler {
      type: "xavier"
    }
    bias_filler {
      type: "constant"
      value: 0
    }
  }
}
layer {
  name: "relu7"
  type: "ReLU"
  bottom: "fc7_t"
  top: "fc7_t"
}
layer {
  name: "fc7_s"
  type: "Pooling"
  bottom: "fc7_t"
  top: "fc7_s"
  pooling_param {
    pool: AVE
    global_pooling: true
  }
}
layer {
  name: "fc7_fc1"
  type: "Convolution"
  bottom: "fc7_s"
  top: "fc7_fc1"
  param {
    lr_mult: 1
    decay_mult: 1
  }
  param {
    lr_mult: 2
    decay_mult: 0
  }
  convolution_param {
    num_output: 256
    kernel_size: 1
    stride: 1
    weight_filler {
      type: "xavier"
    }
    bias_filler {
      type: "constant"
      value: 0
    }
  }
}
layer {
  name: "fc7_relu"
  type: "ReLU"
  bottom: "fc7_fc1"
  top: "fc7_fc1"
}
layer {
  name: "fc7_fc2"
  type: "Convolution"
  bottom: "fc7_fc1"
  top: "fc7_fc2"
  param {
    lr_mult: 1
    decay_mult: 1
  }
  param {
    lr_mult: 2
    decay_mult: 0
  }
  convolution_param {
    num_output: 1024
    kernel_size: 1
    stride: 1
    weight_filler {
      type: "xavier"
    }
    bias_filler {
      type: "constant"
      value: 0
    }
  }
}
layer {
  name: "fc7_sig"
  type: "Sigmoid"
  bottom: "fc7_fc2"
  top: "fc7_fc2"
}
layer {
  name: "fc7_reshape"
  type: "Reshape"
  bottom: "fc7_fc2"
  top: "fc7_reshape"
  reshape_param {
    shape {
      dim: 0
      dim: 0
    }
  }
}
layer {
  name: "fc7_scale"
  type: "Scale"
  bottom: "fc7_t"
  bottom: "fc7_reshape"
  top: "fc7"
  scale_param {
    axis: 0
    bias_term: false
  }
}
layer {
  name: "conv6_1"
  type: "Convolution"
  bottom: "fc7"
  top: "conv6_1"
  param {
    lr_mult: 1
    decay_mult: 1
  }
  param {
    lr_mult: 2
    decay_mult: 0
  }
  convolution_param {
    num_output: 256
    pad: 0
    kernel_size: 1
    stride: 1
    weight_filler {
      type: "xavier"
    }
    bias_filler {
      type: "constant"
      value: 0
    }
  }
}
layer {
  name: "conv6_1_relu"
  type: "ReLU"
  bottom: "conv6_1"
  top: "conv6_1"
}
layer {
  name: "conv6_2"
  type: "Convolution"
  bottom: "conv6_1"
  top: "conv6_2_t"
  param {
    lr_mult: 1
    decay_mult: 1
  }
  param {
    lr_mult: 2
    decay_mult: 0
  }
  convolution_param {
    num_output: 512
    pad: 1
    kernel_size: 3
    stride: 2
    weight_filler {
      type: "xavier"
    }
    bias_filler {
      type: "constant"
      value: 0
    }
  }
}
layer {
  name: "conv6_2_relu"
  type: "ReLU"
  bottom: "conv6_2_t"
  top: "conv6_2_t"
}
layer {
  name: "conv6_2_s"
  type: "Pooling"
  bottom: "conv6_2_t"
  top: "conv6_2_s"
  pooling_param {
    pool: AVE
    global_pooling: true
  }
}
layer {
  name: "conv6_2_fc1"
  type: "Convolution"
  bottom: "conv6_2_s"
  top: "conv6_2_fc1"
  param {
    lr_mult: 1
    decay_mult: 1
  }
  param {
    lr_mult: 2
    decay_mult: 0
  }
  convolution_param {
    num_output: 128
    kernel_size: 1
    stride: 1
    weight_filler {
      type: "xavier"
    }
    bias_filler {
      type: "constant"
      value: 0
    }
  }
}
layer {
  name: "conv6_2_relu"
  type: "ReLU"
  bottom: "conv6_2_fc1"
  top: "conv6_2_fc1"
}
layer {
  name: "conv6_2_fc2"
  type: "Convolution"
  bottom: "conv6_2_fc1"
  top: "conv6_2_fc2"
  param {
    lr_mult: 1
    decay_mult: 1
  }
  param {
    lr_mult: 2
    decay_mult: 0
  }
  convolution_param {
    num_output: 512
    kernel_size: 1
    stride: 1
    weight_filler {
      type: "xavier"
    }
    bias_filler {
      type: "constant"
      value: 0
    }
  }
}
layer {
  name: "conv6_2_sig"
  type: "Sigmoid"
  bottom: "conv6_2_fc2"
  top: "conv6_2_fc2"
}
layer {
  name: "conv6_2_reshape"
  type: "Reshape"
  bottom: "conv6_2_fc2"
  top: "conv6_2_reshape"
  reshape_param {
    shape {
      dim: 0
      dim: 0
    }
  }
}
layer {
  name: "conv6_2_scale"
  type: "Scale"
  bottom: "conv6_2_t"
  bottom: "conv6_2_reshape"
  top: "conv6_2"
  scale_param {
    axis: 0
    bias_term: false
  }
}
layer {
  name: "conv7_1"
  type: "Convolution"
  bottom: "conv6_2"
  top: "conv7_1"
  param {
    lr_mult: 1
    decay_mult: 1
  }
  param {
    lr_mult: 2
    decay_mult: 0
  }
  convolution_param {
    num_output: 128
    pad: 0
    kernel_size: 1
    stride: 1
    weight_filler {
      type: "xavier"
    }
    bias_filler {
      type: "constant"
      value: 0
    }
  }
}
layer {
  name: "conv7_1_relu"
  type: "ReLU"
  bottom: "conv7_1"
  top: "conv7_1"
}
layer {
  name: "conv7_2"
  type: "Convolution"
  bottom: "conv7_1"
  top: "conv7_2_t"
  param {
    lr_mult: 1
    decay_mult: 1
  }
  param {
    lr_mult: 2
    decay_mult: 0
  }
  convolution_param {
    num_output: 256
    pad: 1
    kernel_size: 3
    stride: 2
    weight_filler {
      type: "xavier"
    }
    bias_filler {
      type: "constant"
      value: 0
    }
  }
}
layer {
  name: "conv7_2_relu"
  type: "ReLU"
  bottom: "conv7_2_t"
  top: "conv7_2_t"
}
layer {
  name: "conv7_2_s"
  type: "Pooling"
  bottom: "conv7_2_t"
  top: "conv7_2_s"
  pooling_param {
    pool: AVE
    global_pooling: true
  }
}
layer {
  name: "conv7_2_fc1"
  type: "Convolution"
  bottom: "conv7_2_s"
  top: "conv7_2_fc1"
  param {
    lr_mult: 1
    decay_mult: 1
  }
  param {
    lr_mult: 2
    decay_mult: 0
  }
  convolution_param {
    num_output: 64
    kernel_size: 1
    stride: 1
    weight_filler {
      type: "xavier"
    }
    bias_filler {
      type: "constant"
      value: 0
    }
  }
}
layer {
  name: "conv7_2_relu"
  type: "ReLU"
  bottom: "conv7_2_fc1"
  top: "conv7_2_fc1"
}
layer {
  name: "conv7_2_fc2"
  type: "Convolution"
  bottom: "conv7_2_fc1"
  top: "conv7_2_fc2"
  param {
    lr_mult: 1
    decay_mult: 1
  }
  param {
    lr_mult: 2
    decay_mult: 0
  }
  convolution_param {
    num_output: 256
    kernel_size: 1
    stride: 1
    weight_filler {
      type: "xavier"
    }
    bias_filler {
      type: "constant"
      value: 0
    }
  }
}
layer {
  name: "conv7_2_sig"
  type: "Sigmoid"
  bottom: "conv7_2_fc2"
  top: "conv7_2_fc2"
}
layer {
  name: "conv7_2_reshape"
  type: "Reshape"
  bottom: "conv7_2_fc2"
  top: "conv7_2_reshape"
  reshape_param {
    shape {
      dim: 0
      dim: 0
    }
  }
}
layer {
  name: "conv7_2_scale"
  type: "Scale"
  bottom: "conv7_2_t"
  bottom: "conv7_2_reshape"
  top: "conv7_2"
  scale_param {
    axis: 0
    bias_term: false
  }
}
layer {
  name: "conv8_1"
  type: "Convolution"
  bottom: "conv7_2"
  top: "conv8_1"
  param {
    lr_mult: 1
    decay_mult: 1
  }
  param {
    lr_mult: 2
    decay_mult: 0
  }
  convolution_param {
    num_output: 128
    pad: 0
    kernel_size: 1
    stride: 1
    weight_filler {
      type: "xavier"
    }
    bias_filler {
      type: "constant"
      value: 0
    }
  }
}
layer {
  name: "conv8_1_relu"
  type: "ReLU"
  bottom: "conv8_1"
  top: "conv8_1"
}
layer {
  name: "conv8_2"
  type: "Convolution"
  bottom: "conv8_1"
  top: "conv8_2_t"
  param {
    lr_mult: 1
    decay_mult: 1
  }
  param {
    lr_mult: 2
    decay_mult: 0
  }
  convolution_param {
    num_output: 256
    pad: 0
    kernel_size: 3
    stride: 1
    weight_filler {
      type: "xavier"
    }
    bias_filler {
      type: "constant"
      value: 0
    }
  }
}
layer {
  name: "conv8_2_relu"
  type: "ReLU"
  bottom: "conv8_2_t"
  top: "conv8_2_t"
}
layer {
  name: "conv8_2_s"
  type: "Pooling"
  bottom: "conv8_2_t"
  top: "conv8_2_s"
  pooling_param {
    pool: AVE
    global_pooling: true
  }
}
layer {
  name: "conv8_2_fc1"
  type: "Convolution"
  bottom: "conv8_2_s"
  top: "conv8_2_fc1"
  param {
    lr_mult: 1
    decay_mult: 1
  }
  param {
    lr_mult: 2
    decay_mult: 0
  }
  convolution_param {
    num_output: 64
    kernel_size: 1
    stride: 1
    weight_filler {
      type: "xavier"
    }
    bias_filler {
      type: "constant"
      value: 0
    }
  }
}
layer {
  name: "conv8_2_relu"
  type: "ReLU"
  bottom: "conv8_2_fc1"
  top: "conv8_2_fc1"
}
layer {
  name: "conv8_2_fc2"
  type: "Convolution"
  bottom: "conv8_2_fc1"
  top: "conv8_2_fc2"
  param {
    lr_mult: 1
    decay_mult: 1
  }
  param {
    lr_mult: 2
    decay_mult: 0
  }
  convolution_param {
    num_output: 256
    kernel_size: 1
    stride: 1
    weight_filler {
      type: "xavier"
    }
    bias_filler {
      type: "constant"
      value: 0
    }
  }
}
layer {
  name: "conv8_2_sig"
  type: "Sigmoid"
  bottom: "conv8_2_fc2"
  top: "conv8_2_fc2"
}
layer {
  name: "conv8_2_reshape"
  type: "Reshape"
  bottom: "conv8_2_fc2"
  top: "conv8_2_reshape"
  reshape_param {
    shape {
      dim: 0
      dim: 0
    }
  }
}
layer {
  name: "conv8_2_scale"
  type: "Scale"
  bottom: "conv8_2_t"
  bottom: "conv8_2_reshape"
  top: "conv8_2"
  scale_param {
    axis: 0
    bias_term: false
  }
}
layer {
  name: "conv9_1"
  type: "Convolution"
  bottom: "conv8_2"
  top: "conv9_1"
  param {
    lr_mult: 1
    decay_mult: 1
  }
  param {
    lr_mult: 2
    decay_mult: 0
  }
  convolution_param {
    num_output: 128
    pad: 0
    kernel_size: 1
    stride: 1
    weight_filler {
      type: "xavier"
    }
    bias_filler {
      type: "constant"
      value: 0
    }
  }
}
layer {
  name: "conv9_1_relu"
  type: "ReLU"
  bottom: "conv9_1"
  top: "conv9_1"
}
layer {
  name: "conv9_2"
  type: "Convolution"
  bottom: "conv9_1"
  top: "conv9_2_t"
  param {
    lr_mult: 1
    decay_mult: 1
  }
  param {
    lr_mult: 2
    decay_mult: 0
  }
  convolution_param {
    num_output: 256
    pad: 0
    kernel_size: 3
    stride: 1
    weight_filler {
      type: "xavier"
    }
    bias_filler {
      type: "constant"
      value: 0
    }
  }
}
layer {
  name: "conv9_2_relu"
  type: "ReLU"
  bottom: "conv9_2_t"
  top: "conv9_2_t"
}
layer {
  name: "conv9_2_s"
  type: "Pooling"
  bottom: "conv9_2_t"
  top: "conv9_2_s"
  pooling_param {
    pool: AVE
    global_pooling: true
  }
}
layer {
  name: "conv9_2_fc1"
  type: "Convolution"
  bottom: "conv9_2_s"
  top: "conv9_2_fc1"
  param {
    lr_mult: 1
    decay_mult: 1
  }
  param {
    lr_mult: 2
    decay_mult: 0
  }
  convolution_param {
    num_output: 64
    kernel_size: 1
    stride: 1
    weight_filler {
      type: "xavier"
    }
    bias_filler {
      type: "constant"
      value: 0
    }
  }
}
layer {
  name: "conv9_2_relu"
  type: "ReLU"
  bottom: "conv9_2_fc1"
  top: "conv9_2_fc1"
}
layer {
  name: "conv9_2_fc2"
  type: "Convolution"
  bottom: "conv9_2_fc1"
  top: "conv9_2_fc2"
  param {
    lr_mult: 1
    decay_mult: 1
  }
  param {
    lr_mult: 2
    decay_mult: 0
  }
  convolution_param {
    num_output: 256
    kernel_size: 1
    stride: 1
    weight_filler {
      type: "xavier"
    }
    bias_filler {
      type: "constant"
      value: 0
    }
  }
}
layer {
  name: "conv9_2_sig"
  type: "Sigmoid"
  bottom: "conv9_2_fc2"
  top: "conv9_2_fc2"
}
layer {
  name: "conv9_2_reshape"
  type: "Reshape"
  bottom: "conv9_2_fc2"
  top: "conv9_2_reshape"
  reshape_param {
    shape {
      dim: 0
      dim: 0
    }
  }
}
layer {
  name: "conv9_2_scale"
  type: "Scale"
  bottom: "conv9_2_t"
  bottom: "conv9_2_reshape"
  top: "conv9_2"
  scale_param {
    axis: 0
    bias_term: false
  }
}
layer {
  name: "conv4_3_norm"
  type: "Normalize"
  bottom: "conv4_3"
  top: "conv4_3_norm"
  norm_param {
    across_spatial: false
    scale_filler {
      type: "constant"
      value: 20
    }
    channel_shared: false
  }
}
layer {
  name: "conv4_3_norm_mbox_loc"
  type: "Convolution"
  bottom: "conv4_3_norm"
  top: "conv4_3_norm_mbox_loc"
  param {
    lr_mult: 1
    decay_mult: 1
  }
  param {
    lr_mult: 2
    decay_mult: 0
  }
  convolution_param {
    num_output: 16
    pad: 1
    kernel_size: 3
    stride: 1
    weight_filler {
      type: "xavier"
    }
    bias_filler {
      type: "constant"
      value: 0
    }
  }
}
layer {
  name: "conv4_3_norm_mbox_loc_perm"
  type: "Permute"
  bottom: "conv4_3_norm_mbox_loc"
  top: "conv4_3_norm_mbox_loc_perm"
  permute_param {
    order: 0
    order: 2
    order: 3
    order: 1
  }
}
layer {
  name: "conv4_3_norm_mbox_loc_flat"
  type: "Flatten"
  bottom: "conv4_3_norm_mbox_loc_perm"
  top: "conv4_3_norm_mbox_loc_flat"
  flatten_param {
    axis: 1
  }
}
layer {
  name: "conv4_3_norm_mbox_conf"
  type: "Convolution"
  bottom: "conv4_3_norm"
  top: "conv4_3_norm_mbox_conf"
  param {
    lr_mult: 1
    decay_mult: 1
  }
  param {
    lr_mult: 2
    decay_mult: 0
  }
  convolution_param {
    num_output: 84
    pad: 1
    kernel_size: 3
    stride: 1
    weight_filler {
      type: "xavier"
    }
    bias_filler {
      type: "constant"
      value: 0
    }
  }
}
layer {
  name: "conv4_3_norm_mbox_conf_perm"
  type: "Permute"
  bottom: "conv4_3_norm_mbox_conf"
  top: "conv4_3_norm_mbox_conf_perm"
  permute_param {
    order: 0
    order: 2
    order: 3
    order: 1
  }
}
layer {
  name: "conv4_3_norm_mbox_conf_flat"
  type: "Flatten"
  bottom: "conv4_3_norm_mbox_conf_perm"
  top: "conv4_3_norm_mbox_conf_flat"
  flatten_param {
    axis: 1
  }
}
layer {
  name: "conv4_3_norm_mbox_priorbox"
  type: "PriorBox"
  bottom: "conv4_3_norm"
  bottom: "data"
  top: "conv4_3_norm_mbox_priorbox"
  prior_box_param {
    min_size: 30
    max_size: 60
    aspect_ratio: 2
    flip: true
    clip: false
    variance: 0.1
    variance: 0.1
    variance: 0.2
    variance: 0.2
    step: 8
    offset: 0.5
  }
}
layer {
  name: "fc7_mbox_loc"
  type: "Convolution"
  bottom: "fc7"
  top: "fc7_mbox_loc"
  param {
    lr_mult: 1
    decay_mult: 1
  }
  param {
    lr_mult: 2
    decay_mult: 0
  }
  convolution_param {
    num_output: 24
    pad: 1
    kernel_size: 3
    stride: 1
    weight_filler {
      type: "xavier"
    }
    bias_filler {
      type: "constant"
      value: 0
    }
  }
}
layer {
  name: "fc7_mbox_loc_perm"
  type: "Permute"
  bottom: "fc7_mbox_loc"
  top: "fc7_mbox_loc_perm"
  permute_param {
    order: 0
    order: 2
    order: 3
    order: 1
  }
}
layer {
  name: "fc7_mbox_loc_flat"
  type: "Flatten"
  bottom: "fc7_mbox_loc_perm"
  top: "fc7_mbox_loc_flat"
  flatten_param {
    axis: 1
  }
}
layer {
  name: "fc7_mbox_conf"
  type: "Convolution"
  bottom: "fc7"
  top: "fc7_mbox_conf"
  param {
    lr_mult: 1
    decay_mult: 1
  }
  param {
    lr_mult: 2
    decay_mult: 0
  }
  convolution_param {
    num_output: 126
    pad: 1
    kernel_size: 3
    stride: 1
    weight_filler {
      type: "xavier"
    }
    bias_filler {
      type: "constant"
      value: 0
    }
I0326 15:53:43.815258  9033 layer_factory.hpp:77] Creating layer data
I0326 15:53:43.815776  9033 net.cpp:100] Creating Layer data
I0326 15:53:43.815788  9033 net.cpp:408] data -> data
I0326 15:53:43.815816  9033 net.cpp:408] data -> label
I0326 15:53:43.816650  9039 db_lmdb.cpp:35] Opened lmdb examples/VOC0712/VOC0712_trainval_lmdb
I0326 15:53:43.829002  9033 annotated_data_layer.cpp:62] output data size: 8,3,300,300
I0326 15:53:43.842191  9033 net.cpp:150] Setting up data
I0326 15:53:43.842216  9033 net.cpp:157] Top shape: 8 3 300 300 (2160000)
I0326 15:53:43.842219  9033 net.cpp:157] Top shape: 1 1 22 8 (176)
I0326 15:53:43.842221  9033 net.cpp:165] Memory required for data: 8640704
I0326 15:53:43.842229  9033 layer_factory.hpp:77] Creating layer data_data_0_split
I0326 15:53:43.842242  9033 net.cpp:100] Creating Layer data_data_0_split
I0326 15:53:43.842247  9033 net.cpp:434] data_data_0_split <- data
I0326 15:53:43.842259  9033 net.cpp:408] data_data_0_split -> data_data_0_split_0
I0326 15:53:43.842268  9033 net.cpp:408] data_data_0_split -> data_data_0_split_1
I0326 15:53:43.842273  9033 net.cpp:408] data_data_0_split -> data_data_0_split_2
I0326 15:53:43.842279  9033 net.cpp:408] data_data_0_split -> data_data_0_split_3
I0326 15:53:43.842283  9033 net.cpp:408] data_data_0_split -> data_data_0_split_4
I0326 15:53:43.842288  9033 net.cpp:408] data_data_0_split -> data_data_0_split_5
I0326 15:53:43.842293  9033 net.cpp:408] data_data_0_split -> data_data_0_split_6
I0326 15:53:43.842430  9033 net.cpp:150] Setting up data_data_0_split
I0326 15:53:43.842438  9033 net.cpp:157] Top shape: 8 3 300 300 (2160000)
I0326 15:53:43.842440  9033 net.cpp:157] Top shape: 8 3 300 300 (2160000)
I0326 15:53:43.842444  9033 net.cpp:157] Top shape: 8 3 300 300 (2160000)
I0326 15:53:43.842465  9033 net.cpp:157] Top shape: 8 3 300 300 (2160000)
I0326 15:53:43.842470  9033 net.cpp:157] Top shape: 8 3 300 300 (2160000)
I0326 15:53:43.842474  9033 net.cpp:157] Top shape: 8 3 300 300 (2160000)
I0326 15:53:43.842484  9033 net.cpp:157] Top shape: 8 3 300 300 (2160000)
I0326 15:53:43.842491  9033 net.cpp:165] Memory required for data: 69120704
I0326 15:53:43.842494  9033 layer_factory.hpp:77] Creating layer label_data_1_split
I0326 15:53:43.842500  9033 net.cpp:100] Creating Layer label_data_1_split
I0326 15:53:43.842504  9033 net.cpp:434] label_data_1_split <- label
I0326 15:53:43.842509  9033 net.cpp:408] label_data_1_split -> label_data_1_split_0
I0326 15:53:43.842515  9033 net.cpp:408] label_data_1_split -> label_data_1_split_1
I0326 15:53:43.842542  9033 net.cpp:150] Setting up label_data_1_split
I0326 15:53:43.842550  9033 net.cpp:157] Top shape: 1 1 22 8 (176)
I0326 15:53:43.842552  9033 net.cpp:157] Top shape: 1 1 22 8 (176)
I0326 15:53:43.842555  9033 net.cpp:165] Memory required for data: 69122112
I0326 15:53:43.842556  9033 layer_factory.hpp:77] Creating layer conv1_1
I0326 15:53:43.842574  9033 net.cpp:100] Creating Layer conv1_1
I0326 15:53:43.842578  9033 net.cpp:434] conv1_1 <- data_data_0_split_0
I0326 15:53:43.842583  9033 net.cpp:408] conv1_1 -> conv1_1
I0326 15:53:43.868844  9040 blocking_queue.cpp:50] Waiting for data
I0326 15:53:44.265081  9033 net.cpp:150] Setting up conv1_1
I0326 15:53:44.265106  9033 net.cpp:157] Top shape: 8 64 300 300 (46080000)
I0326 15:53:44.265108  9033 net.cpp:165] Memory required for data: 253442112
I0326 15:53:44.265125  9033 layer_factory.hpp:77] Creating layer relu1_1
I0326 15:53:44.265137  9033 net.cpp:100] Creating Layer relu1_1
I0326 15:53:44.265141  9033 net.cpp:434] relu1_1 <- conv1_1
I0326 15:53:44.265146  9033 net.cpp:395] relu1_1 -> conv1_1 (in-place)
I0326 15:53:44.266139  9033 net.cpp:150] Setting up relu1_1
I0326 15:53:44.266152  9033 net.cpp:157] Top shape: 8 64 300 300 (46080000)
I0326 15:53:44.266155  9033 net.cpp:165] Memory required for data: 437762112
I0326 15:53:44.266157  9033 layer_factory.hpp:77] Creating layer conv1_2
I0326 15:53:44.266170  9033 net.cpp:100] Creating Layer conv1_2
I0326 15:53:44.266175  9033 net.cpp:434] conv1_2 <- conv1_1
I0326 15:53:44.266180  9033 net.cpp:408] conv1_2 -> conv1_2
I0326 15:53:44.267990  9033 net.cpp:150] Setting up conv1_2
I0326 15:53:44.268002  9033 net.cpp:157] Top shape: 8 64 300 300 (46080000)
I0326 15:53:44.268005  9033 net.cpp:165] Memory required for data: 622082112
I0326 15:53:44.268013  9033 layer_factory.hpp:77] Creating layer relu1_2
I0326 15:53:44.268021  9033 net.cpp:100] Creating Layer relu1_2
I0326 15:53:44.268023  9033 net.cpp:434] relu1_2 <- conv1_2
I0326 15:53:44.268028  9033 net.cpp:395] relu1_2 -> conv1_2 (in-place)
I0326 15:53:44.268172  9033 net.cpp:150] Setting up relu1_2
I0326 15:53:44.268182  9033 net.cpp:157] Top shape: 8 64 300 300 (46080000)
I0326 15:53:44.268183  9033 net.cpp:165] Memory required for data: 806402112
I0326 15:53:44.268185  9033 layer_factory.hpp:77] Creating layer pool1
I0326 15:53:44.268191  9033 net.cpp:100] Creating Layer pool1
I0326 15:53:44.268193  9033 net.cpp:434] pool1 <- conv1_2
I0326 15:53:44.268198  9033 net.cpp:408] pool1 -> pool1
I0326 15:53:44.268239  9033 net.cpp:150] Setting up pool1
I0326 15:53:44.268245  9033 net.cpp:157] Top shape: 8 64 150 150 (11520000)
I0326 15:53:44.268247  9033 net.cpp:165] Memory required for data: 852482112
I0326 15:53:44.268249  9033 layer_factory.hpp:77] Creating layer conv2_1
I0326 15:53:44.268259  9033 net.cpp:100] Creating Layer conv2_1
I0326 15:53:44.268262  9033 net.cpp:434] conv2_1 <- pool1
I0326 15:53:44.268267  9033 net.cpp:408] conv2_1 -> conv2_1
I0326 15:53:44.269440  9033 net.cpp:150] Setting up conv2_1
I0326 15:53:44.269454  9033 net.cpp:157] Top shape: 8 128 150 150 (23040000)
I0326 15:53:44.269456  9033 net.cpp:165] Memory required for data: 944642112
I0326 15:53:44.269465  9033 layer_factory.hpp:77] Creating layer relu2_1
I0326 15:53:44.269471  9033 net.cpp:100] Creating Layer relu2_1
I0326 15:53:44.269493  9033 net.cpp:434] relu2_1 <- conv2_1
I0326 15:53:44.269498  9033 net.cpp:395] relu2_1 -> conv2_1 (in-place)
I0326 15:53:44.269640  9033 net.cpp:150] Setting up relu2_1
I0326 15:53:44.269649  9033 net.cpp:157] Top shape: 8 128 150 150 (23040000)
I0326 15:53:44.269650  9033 net.cpp:165] Memory required for data: 1036802112
I0326 15:53:44.269652  9033 layer_factory.hpp:77] Creating layer conv2_2
I0326 15:53:44.269660  9033 net.cpp:100] Creating Layer conv2_2
I0326 15:53:44.269662  9033 net.cpp:434] conv2_2 <- conv2_1
I0326 15:53:44.269667  9033 net.cpp:408] conv2_2 -> conv2_2
I0326 15:53:44.271353  9033 net.cpp:150] Setting up conv2_2
I0326 15:53:44.271365  9033 net.cpp:157] Top shape: 8 128 150 150 (23040000)
I0326 15:53:44.271368  9033 net.cpp:165] Memory required for data: 1128962112
I0326 15:53:44.271374  9033 layer_factory.hpp:77] Creating layer relu2_2
I0326 15:53:44.271378  9033 net.cpp:100] Creating Layer relu2_2
I0326 15:53:44.271381  9033 net.cpp:434] relu2_2 <- conv2_2
I0326 15:53:44.271385  9033 net.cpp:395] relu2_2 -> conv2_2 (in-place)
I0326 15:53:44.271740  9033 net.cpp:150] Setting up relu2_2
I0326 15:53:44.271751  9033 net.cpp:157] Top shape: 8 128 150 150 (23040000)
I0326 15:53:44.271754  9033 net.cpp:165] Memory required for data: 1221122112
I0326 15:53:44.271755  9033 layer_factory.hpp:77] Creating layer pool2
I0326 15:53:44.271762  9033 net.cpp:100] Creating Layer pool2
I0326 15:53:44.271764  9033 net.cpp:434] pool2 <- conv2_2
I0326 15:53:44.271769  9033 net.cpp:408] pool2 -> pool2
I0326 15:53:44.271807  9033 net.cpp:150] Setting up pool2
I0326 15:53:44.271816  9033 net.cpp:157] Top shape: 8 128 75 75 (5760000)
I0326 15:53:44.271817  9033 net.cpp:165] Memory required for data: 1244162112
I0326 15:53:44.271819  9033 layer_factory.hpp:77] Creating layer conv3_1
I0326 15:53:44.271826  9033 net.cpp:100] Creating Layer conv3_1
I0326 15:53:44.271829  9033 net.cpp:434] conv3_1 <- pool2
I0326 15:53:44.271834  9033 net.cpp:408] conv3_1 -> conv3_1
I0326 15:53:44.275687  9033 net.cpp:150] Setting up conv3_1
I0326 15:53:44.275708  9033 net.cpp:157] Top shape: 8 256 75 75 (11520000)
I0326 15:53:44.275712  9033 net.cpp:165] Memory required for data: 1290242112
I0326 15:53:44.275723  9033 layer_factory.hpp:77] Creating layer relu3_1
I0326 15:53:44.275732  9033 net.cpp:100] Creating Layer relu3_1
I0326 15:53:44.275738  9033 net.cpp:434] relu3_1 <- conv3_1
I0326 15:53:44.275743  9033 net.cpp:395] relu3_1 -> conv3_1 (in-place)
I0326 15:53:44.275899  9033 net.cpp:150] Setting up relu3_1
I0326 15:53:44.275907  9033 net.cpp:157] Top shape: 8 256 75 75 (11520000)
I0326 15:53:44.275909  9033 net.cpp:165] Memory required for data: 1336322112
I0326 15:53:44.275913  9033 layer_factory.hpp:77] Creating layer conv3_2
I0326 15:53:44.275921  9033 net.cpp:100] Creating Layer conv3_2
I0326 15:53:44.275923  9033 net.cpp:434] conv3_2 <- conv3_1
I0326 15:53:44.275928  9033 net.cpp:408] conv3_2 -> conv3_2
I0326 15:53:44.280323  9033 net.cpp:150] Setting up conv3_2
I0326 15:53:44.280335  9033 net.cpp:157] Top shape: 8 256 75 75 (11520000)
I0326 15:53:44.280338  9033 net.cpp:165] Memory required for data: 1382402112
I0326 15:53:44.280344  9033 layer_factory.hpp:77] Creating layer relu3_2
I0326 15:53:44.280351  9033 net.cpp:100] Creating Layer relu3_2
I0326 15:53:44.280357  9033 net.cpp:434] relu3_2 <- conv3_2
I0326 15:53:44.280361  9033 net.cpp:395] relu3_2 -> conv3_2 (in-place)
I0326 15:53:44.280510  9033 net.cpp:150] Setting up relu3_2
I0326 15:53:44.280519  9033 net.cpp:157] Top shape: 8 256 75 75 (11520000)
I0326 15:53:44.280521  9033 net.cpp:165] Memory required for data: 1428482112
I0326 15:53:44.280524  9033 layer_factory.hpp:77] Creating layer conv3_3
I0326 15:53:44.280531  9033 net.cpp:100] Creating Layer conv3_3
I0326 15:53:44.280534  9033 net.cpp:434] conv3_3 <- conv3_2
I0326 15:53:44.280539  9033 net.cpp:408] conv3_3 -> conv3_3
I0326 15:53:44.284898  9033 net.cpp:150] Setting up conv3_3
I0326 15:53:44.284909  9033 net.cpp:157] Top shape: 8 256 75 75 (11520000)
I0326 15:53:44.284912  9033 net.cpp:165] Memory required for data: 1474562112
I0326 15:53:44.284934  9033 layer_factory.hpp:77] Creating layer relu3_3
I0326 15:53:44.284938  9033 net.cpp:100] Creating Layer relu3_3
I0326 15:53:44.284940  9033 net.cpp:434] relu3_3 <- conv3_3
I0326 15:53:44.284945  9033 net.cpp:395] relu3_3 -> conv3_3 (in-place)
I0326 15:53:44.285094  9033 net.cpp:150] Setting up relu3_3
I0326 15:53:44.285102  9033 net.cpp:157] Top shape: 8 256 75 75 (11520000)
I0326 15:53:44.285105  9033 net.cpp:165] Memory required for data: 1520642112
I0326 15:53:44.285109  9033 layer_factory.hpp:77] Creating layer pool3
I0326 15:53:44.285114  9033 net.cpp:100] Creating Layer pool3
I0326 15:53:44.285115  9033 net.cpp:434] pool3 <- conv3_3
I0326 15:53:44.285120  9033 net.cpp:408] pool3 -> pool3
I0326 15:53:44.285156  9033 net.cpp:150] Setting up pool3
I0326 15:53:44.285162  9033 net.cpp:157] Top shape: 8 256 38 38 (2957312)
I0326 15:53:44.285164  9033 net.cpp:165] Memory required for data: 1532471360
I0326 15:53:44.285166  9033 layer_factory.hpp:77] Creating layer conv4_1
I0326 15:53:44.285172  9033 net.cpp:100] Creating Layer conv4_1
I0326 15:53:44.285176  9033 net.cpp:434] conv4_1 <- pool3
I0326 15:53:44.285178  9033 net.cpp:408] conv4_1 -> conv4_1
I0326 15:53:44.293934  9033 net.cpp:150] Setting up conv4_1
I0326 15:53:44.293959  9033 net.cpp:157] Top shape: 8 512 38 38 (5914624)
I0326 15:53:44.293962  9033 net.cpp:165] Memory required for data: 1556129856
I0326 15:53:44.293970  9033 layer_factory.hpp:77] Creating layer relu4_1
I0326 15:53:44.293978  9033 net.cpp:100] Creating Layer relu4_1
I0326 15:53:44.293982  9033 net.cpp:434] relu4_1 <- conv4_1
I0326 15:53:44.293987  9033 net.cpp:395] relu4_1 -> conv4_1 (in-place)
I0326 15:53:44.294354  9033 net.cpp:150] Setting up relu4_1
I0326 15:53:44.294366  9033 net.cpp:157] Top shape: 8 512 38 38 (5914624)
I0326 15:53:44.294368  9033 net.cpp:165] Memory required for data: 1579788352
I0326 15:53:44.294371  9033 layer_factory.hpp:77] Creating layer conv4_2
I0326 15:53:44.294381  9033 net.cpp:100] Creating Layer conv4_2
I0326 15:53:44.294384  9033 net.cpp:434] conv4_2 <- conv4_1
I0326 15:53:44.294389  9033 net.cpp:408] conv4_2 -> conv4_2
I0326 15:53:44.308645  9033 net.cpp:150] Setting up conv4_2
I0326 15:53:44.308667  9033 net.cpp:157] Top shape: 8 512 38 38 (5914624)
I0326 15:53:44.308670  9033 net.cpp:165] Memory required for data: 1603446848
I0326 15:53:44.308682  9033 layer_factory.hpp:77] Creating layer relu4_2
I0326 15:53:44.308691  9033 net.cpp:100] Creating Layer relu4_2
I0326 15:53:44.308696  9033 net.cpp:434] relu4_2 <- conv4_2
I0326 15:53:44.308702  9033 net.cpp:395] relu4_2 -> conv4_2 (in-place)
I0326 15:53:44.308857  9033 net.cpp:150] Setting up relu4_2
I0326 15:53:44.308866  9033 net.cpp:157] Top shape: 8 512 38 38 (5914624)
I0326 15:53:44.308867  9033 net.cpp:165] Memory required for data: 1627105344
I0326 15:53:44.308871  9033 layer_factory.hpp:77] Creating layer conv4_3
I0326 15:53:44.308879  9033 net.cpp:100] Creating Layer conv4_3
I0326 15:53:44.308882  9033 net.cpp:434] conv4_3 <- conv4_2
I0326 15:53:44.308887  9033 net.cpp:408] conv4_3 -> conv4_3_ori
I0326 15:53:44.322337  9033 net.cpp:150] Setting up conv4_3
I0326 15:53:44.322358  9033 net.cpp:157] Top shape: 8 512 38 38 (5914624)
I0326 15:53:44.322361  9033 net.cpp:165] Memory required for data: 1650763840
I0326 15:53:44.322368  9033 layer_factory.hpp:77] Creating layer relu4_3
I0326 15:53:44.322376  9033 net.cpp:100] Creating Layer relu4_3
I0326 15:53:44.322381  9033 net.cpp:434] relu4_3 <- conv4_3_ori
I0326 15:53:44.322387  9033 net.cpp:395] relu4_3 -> conv4_3_ori (in-place)
I0326 15:53:44.322554  9033 net.cpp:150] Setting up relu4_3
I0326 15:53:44.322562  9033 net.cpp:157] Top shape: 8 512 38 38 (5914624)
I0326 15:53:44.322564  9033 net.cpp:165] Memory required for data: 1674422336
I0326 15:53:44.322567  9033 layer_factory.hpp:77] Creating layer conv4_3_ori_relu4_3_0_split
I0326 15:53:44.322572  9033 net.cpp:100] Creating Layer conv4_3_ori_relu4_3_0_split
I0326 15:53:44.322574  9033 net.cpp:434] conv4_3_ori_relu4_3_0_split <- conv4_3_ori
I0326 15:53:44.322599  9033 net.cpp:408] conv4_3_ori_relu4_3_0_split -> conv4_3_ori_relu4_3_0_split_0
I0326 15:53:44.322607  9033 net.cpp:408] conv4_3_ori_relu4_3_0_split -> conv4_3_ori_relu4_3_0_split_1
I0326 15:53:44.322643  9033 net.cpp:150] Setting up conv4_3_ori_relu4_3_0_split
I0326 15:53:44.322650  9033 net.cpp:157] Top shape: 8 512 38 38 (5914624)
I0326 15:53:44.322654  9033 net.cpp:157] Top shape: 8 512 38 38 (5914624)
I0326 15:53:44.322655  9033 net.cpp:165] Memory required for data: 1721739328
I0326 15:53:44.322657  9033 layer_factory.hpp:77] Creating layer seg_pool4
I0326 15:53:44.322664  9033 net.cpp:100] Creating Layer seg_pool4
I0326 15:53:44.322666  9033 net.cpp:434] seg_pool4 <- conv4_3_ori_relu4_3_0_split_0
I0326 15:53:44.322671  9033 net.cpp:408] seg_pool4 -> seg_pool4
I0326 15:53:44.322705  9033 net.cpp:150] Setting up seg_pool4
I0326 15:53:44.322710  9033 net.cpp:157] Top shape: 8 512 38 38 (5914624)
I0326 15:53:44.322713  9033 net.cpp:165] Memory required for data: 1745397824
I0326 15:53:44.322715  9033 layer_factory.hpp:77] Creating layer seg5_1
I0326 15:53:44.322726  9033 net.cpp:100] Creating Layer seg5_1
I0326 15:53:44.322727  9033 net.cpp:434] seg5_1 <- seg_pool4
I0326 15:53:44.322733  9033 net.cpp:408] seg5_1 -> seg5_1
I0326 15:53:44.336148  9033 net.cpp:150] Setting up seg5_1
I0326 15:53:44.336172  9033 net.cpp:157] Top shape: 8 512 38 38 (5914624)
I0326 15:53:44.336174  9033 net.cpp:165] Memory required for data: 1769056320
I0326 15:53:44.336184  9033 layer_factory.hpp:77] Creating layer seg_relu5_1
I0326 15:53:44.336191  9033 net.cpp:100] Creating Layer seg_relu5_1
I0326 15:53:44.336195  9033 net.cpp:434] seg_relu5_1 <- seg5_1
I0326 15:53:44.336202  9033 net.cpp:395] seg_relu5_1 -> seg5_1 (in-place)
I0326 15:53:44.336762  9033 net.cpp:150] Setting up seg_relu5_1
I0326 15:53:44.336773  9033 net.cpp:157] Top shape: 8 512 38 38 (5914624)
I0326 15:53:44.336776  9033 net.cpp:165] Memory required for data: 1792714816
I0326 15:53:44.336777  9033 layer_factory.hpp:77] Creating layer seg5_2
I0326 15:53:44.336788  9033 net.cpp:100] Creating Layer seg5_2
I0326 15:53:44.336794  9033 net.cpp:434] seg5_2 <- seg5_1
I0326 15:53:44.336800  9033 net.cpp:408] seg5_2 -> seg5_2
I0326 15:53:44.350111  9033 net.cpp:150] Setting up seg5_2
I0326 15:53:44.350136  9033 net.cpp:157] Top shape: 8 512 38 38 (5914624)
I0326 15:53:44.350137  9033 net.cpp:165] Memory required for data: 1816373312
I0326 15:53:44.350145  9033 layer_factory.hpp:77] Creating layer seg_relu5_2
I0326 15:53:44.350154  9033 net.cpp:100] Creating Layer seg_relu5_2
I0326 15:53:44.350158  9033 net.cpp:434] seg_relu5_2 <- seg5_2
I0326 15:53:44.350165  9033 net.cpp:395] seg_relu5_2 -> seg5_2 (in-place)
I0326 15:53:44.350399  9033 net.cpp:150] Setting up seg_relu5_2
I0326 15:53:44.350406  9033 net.cpp:157] Top shape: 8 512 38 38 (5914624)
I0326 15:53:44.350409  9033 net.cpp:165] Memory required for data: 1840031808
I0326 15:53:44.350410  9033 layer_factory.hpp:77] Creating layer seg5_3
I0326 15:53:44.350426  9033 net.cpp:100] Creating Layer seg5_3
I0326 15:53:44.350432  9033 net.cpp:434] seg5_3 <- seg5_2
I0326 15:53:44.350437  9033 net.cpp:408] seg5_3 -> seg5_3
I0326 15:53:44.363415  9033 net.cpp:150] Setting up seg5_3
I0326 15:53:44.363440  9033 net.cpp:157] Top shape: 8 512 38 38 (5914624)
I0326 15:53:44.363441  9033 net.cpp:165] Memory required for data: 1863690304
I0326 15:53:44.363449  9033 layer_factory.hpp:77] Creating layer seg_relu5_3
I0326 15:53:44.363458  9033 net.cpp:100] Creating Layer seg_relu5_3
I0326 15:53:44.363461  9033 net.cpp:434] seg_relu5_3 <- seg5_3
I0326 15:53:44.363466  9033 net.cpp:395] seg_relu5_3 -> seg5_3 (in-place)
I0326 15:53:44.363698  9033 net.cpp:150] Setting up seg_relu5_3
I0326 15:53:44.363708  9033 net.cpp:157] Top shape: 8 512 38 38 (5914624)
I0326 15:53:44.363711  9033 net.cpp:165] Memory required for data: 1887348800
I0326 15:53:44.363713  9033 layer_factory.hpp:77] Creating layer seg_pool5
I0326 15:53:44.363718  9033 net.cpp:100] Creating Layer seg_pool5
I0326 15:53:44.363720  9033 net.cpp:434] seg_pool5 <- seg5_3
I0326 15:53:44.363744  9033 net.cpp:408] seg_pool5 -> seg_pool5
I0326 15:53:44.363785  9033 net.cpp:150] Setting up seg_pool5
I0326 15:53:44.363792  9033 net.cpp:157] Top shape: 8 512 38 38 (5914624)
I0326 15:53:44.363795  9033 net.cpp:165] Memory required for data: 1911007296
I0326 15:53:44.363796  9033 layer_factory.hpp:77] Creating layer seg6
I0326 15:53:44.363806  9033 net.cpp:100] Creating Layer seg6
I0326 15:53:44.363813  9033 net.cpp:434] seg6 <- seg_pool5
I0326 15:53:44.363818  9033 net.cpp:408] seg6 -> seg6
I0326 15:53:44.389788  9033 net.cpp:150] Setting up seg6
I0326 15:53:44.389816  9033 net.cpp:157] Top shape: 8 1024 38 38 (11829248)
I0326 15:53:44.389818  9033 net.cpp:165] Memory required for data: 1958324288
I0326 15:53:44.389827  9033 layer_factory.hpp:77] Creating layer seg_relu6
I0326 15:53:44.389834  9033 net.cpp:100] Creating Layer seg_relu6
I0326 15:53:44.389838  9033 net.cpp:434] seg_relu6 <- seg6
I0326 15:53:44.389852  9033 net.cpp:395] seg_relu6 -> seg6 (in-place)
I0326 15:53:44.390439  9033 net.cpp:150] Setting up seg_relu6
I0326 15:53:44.390451  9033 net.cpp:157] Top shape: 8 1024 38 38 (11829248)
I0326 15:53:44.390456  9033 net.cpp:165] Memory required for data: 2005641280
I0326 15:53:44.390460  9033 layer_factory.hpp:77] Creating layer seg_drop6
I0326 15:53:44.390465  9033 net.cpp:100] Creating Layer seg_drop6
I0326 15:53:44.390468  9033 net.cpp:434] seg_drop6 <- seg6
I0326 15:53:44.390473  9033 net.cpp:395] seg_drop6 -> seg6 (in-place)
I0326 15:53:44.390502  9033 net.cpp:150] Setting up seg_drop6
I0326 15:53:44.390506  9033 net.cpp:157] Top shape: 8 1024 38 38 (11829248)
I0326 15:53:44.390508  9033 net.cpp:165] Memory required for data: 2052958272
I0326 15:53:44.390511  9033 layer_factory.hpp:77] Creating layer seg7
I0326 15:53:44.390521  9033 net.cpp:100] Creating Layer seg7
I0326 15:53:44.390523  9033 net.cpp:434] seg7 <- seg6
I0326 15:53:44.390528  9033 net.cpp:408] seg7 -> seg7
I0326 15:53:44.397179  9033 net.cpp:150] Setting up seg7
I0326 15:53:44.397194  9033 net.cpp:157] Top shape: 8 1024 38 38 (11829248)
I0326 15:53:44.397197  9033 net.cpp:165] Memory required for data: 2100275264
I0326 15:53:44.397202  9033 layer_factory.hpp:77] Creating layer seg_relu7
I0326 15:53:44.397207  9033 net.cpp:100] Creating Layer seg_relu7
I0326 15:53:44.397209  9033 net.cpp:434] seg_relu7 <- seg7
I0326 15:53:44.397214  9033 net.cpp:395] seg_relu7 -> seg7 (in-place)
I0326 15:53:44.397379  9033 net.cpp:150] Setting up seg_relu7
I0326 15:53:44.397388  9033 net.cpp:157] Top shape: 8 1024 38 38 (11829248)
I0326 15:53:44.397390  9033 net.cpp:165] Memory required for data: 2147592256
I0326 15:53:44.397393  9033 layer_factory.hpp:77] Creating layer seg7_seg_relu7_0_split
I0326 15:53:44.397403  9033 net.cpp:100] Creating Layer seg7_seg_relu7_0_split
I0326 15:53:44.397405  9033 net.cpp:434] seg7_seg_relu7_0_split <- seg7
I0326 15:53:44.397410  9033 net.cpp:408] seg7_seg_relu7_0_split -> seg7_seg_relu7_0_split_0
I0326 15:53:44.397420  9033 net.cpp:408] seg7_seg_relu7_0_split -> seg7_seg_relu7_0_split_1
I0326 15:53:44.397471  9033 net.cpp:150] Setting up seg7_seg_relu7_0_split
I0326 15:53:44.397480  9033 net.cpp:157] Top shape: 8 1024 38 38 (11829248)
I0326 15:53:44.397486  9033 net.cpp:157] Top shape: 8 1024 38 38 (11829248)
I0326 15:53:44.397495  9033 net.cpp:165] Memory required for data: 2242226240
I0326 15:53:44.397498  9033 layer_factory.hpp:77] Creating layer seg_drop7
I0326 15:53:44.397503  9033 net.cpp:100] Creating Layer seg_drop7
I0326 15:53:44.397506  9033 net.cpp:434] seg_drop7 <- seg7_seg_relu7_0_split_0
I0326 15:53:44.397511  9033 net.cpp:408] seg_drop7 -> seg7d
I0326 15:53:44.397545  9033 net.cpp:150] Setting up seg_drop7
I0326 15:53:44.397552  9033 net.cpp:157] Top shape: 8 1024 38 38 (11829248)
I0326 15:53:44.397554  9033 net.cpp:165] Memory required for data: 2289543232
I0326 15:53:44.397557  9033 layer_factory.hpp:77] Creating layer seg
I0326 15:53:44.397564  9033 net.cpp:100] Creating Layer seg
I0326 15:53:44.397567  9033 net.cpp:434] seg <- seg7d
I0326 15:53:44.397572  9033 net.cpp:408] seg -> seg
I0326 15:53:44.398728  9033 net.cpp:150] Setting up seg
I0326 15:53:44.398739  9033 net.cpp:157] Top shape: 8 21 38 38 (242592)
I0326 15:53:44.398741  9033 net.cpp:165] Memory required for data: 2290513600
I0326 15:53:44.398747  9033 layer_factory.hpp:77] Creating layer seg_seg_0_split
I0326 15:53:44.398751  9033 net.cpp:100] Creating Layer seg_seg_0_split
I0326 15:53:44.398753  9033 net.cpp:434] seg_seg_0_split <- seg
I0326 15:53:44.398758  9033 net.cpp:408] seg_seg_0_split -> seg_seg_0_split_0
I0326 15:53:44.398764  9033 net.cpp:408] seg_seg_0_split -> seg_seg_0_split_1
I0326 15:53:44.398799  9033 net.cpp:150] Setting up seg_seg_0_split
I0326 15:53:44.398807  9033 net.cpp:157] Top shape: 8 21 38 38 (242592)
I0326 15:53:44.398809  9033 net.cpp:157] Top shape: 8 21 38 38 (242592)
I0326 15:53:44.398811  9033 net.cpp:165] Memory required for data: 2292454336
I0326 15:53:44.398813  9033 layer_factory.hpp:77] Creating layer seg_gt
I0326 15:53:44.398818  9033 net.cpp:100] Creating Layer seg_gt
I0326 15:53:44.398820  9033 net.cpp:434] seg_gt <- label_data_1_split_0
I0326 15:53:44.398824  9033 net.cpp:434] seg_gt <- seg_seg_0_split_0
I0326 15:53:44.398828  9033 net.cpp:408] seg_gt -> seg_gt
I0326 15:53:44.398859  9033 net.cpp:150] Setting up seg_gt
I0326 15:53:44.398865  9033 net.cpp:157] Top shape: 8 1 38 38 (11552)
I0326 15:53:44.398867  9033 net.cpp:165] Memory required for data: 2292500544
I0326 15:53:44.398869  9033 layer_factory.hpp:77] Creating layer seg_loss
I0326 15:53:44.398876  9033 net.cpp:100] Creating Layer seg_loss
I0326 15:53:44.398881  9033 net.cpp:434] seg_loss <- seg_seg_0_split_1
I0326 15:53:44.398885  9033 net.cpp:434] seg_loss <- seg_gt
I0326 15:53:44.398890  9033 net.cpp:408] seg_loss -> seg_loss
I0326 15:53:44.398897  9033 layer_factory.hpp:77] Creating layer seg_loss
I0326 15:53:44.400018  9033 net.cpp:150] Setting up seg_loss
I0326 15:53:44.400030  9033 net.cpp:157] Top shape: (1)
I0326 15:53:44.400032  9033 net.cpp:160]     with loss weight 0.1
I0326 15:53:44.400050  9033 net.cpp:165] Memory required for data: 2292500548
I0326 15:53:44.400053  9033 layer_factory.hpp:77] Creating layer seg_to_det_conv
I0326 15:53:44.400064  9033 net.cpp:100] Creating Layer seg_to_det_conv
I0326 15:53:44.400072  9033 net.cpp:434] seg_to_det_conv <- seg7_seg_relu7_0_split_1
I0326 15:53:44.400086  9033 net.cpp:408] seg_to_det_conv -> seg_to_det_conv
I0326 15:53:44.404120  9033 net.cpp:150] Setting up seg_to_det_conv
I0326 15:53:44.404136  9033 net.cpp:157] Top shape: 8 512 38 38 (5914624)
I0326 15:53:44.404139  9033 net.cpp:165] Memory required for data: 2316159044
I0326 15:53:44.404153  9033 layer_factory.hpp:77] Creating layer mult_conv4_3
I0326 15:53:44.404165  9033 net.cpp:100] Creating Layer mult_conv4_3
I0326 15:53:44.404170  9033 net.cpp:434] mult_conv4_3 <- conv4_3_ori_relu4_3_0_split_1
I0326 15:53:44.404173  9033 net.cpp:434] mult_conv4_3 <- seg_to_det_conv
I0326 15:53:44.404177  9033 net.cpp:408] mult_conv4_3 -> conv4_3_t
I0326 15:53:44.404209  9033 net.cpp:150] Setting up mult_conv4_3
I0326 15:53:44.404217  9033 net.cpp:157] Top shape: 8 512 38 38 (5914624)
I0326 15:53:44.404218  9033 net.cpp:165] Memory required for data: 2339817540
I0326 15:53:44.404220  9033 layer_factory.hpp:77] Creating layer conv4_3_t_mult_conv4_3_0_split
I0326 15:53:44.404227  9033 net.cpp:100] Creating Layer conv4_3_t_mult_conv4_3_0_split
I0326 15:53:44.404229  9033 net.cpp:434] conv4_3_t_mult_conv4_3_0_split <- conv4_3_t
I0326 15:53:44.404233  9033 net.cpp:408] conv4_3_t_mult_conv4_3_0_split -> conv4_3_t_mult_conv4_3_0_split_0
I0326 15:53:44.404239  9033 net.cpp:408] conv4_3_t_mult_conv4_3_0_split -> conv4_3_t_mult_conv4_3_0_split_1
I0326 15:53:44.404271  9033 net.cpp:150] Setting up conv4_3_t_mult_conv4_3_0_split
I0326 15:53:44.404278  9033 net.cpp:157] Top shape: 8 512 38 38 (5914624)
I0326 15:53:44.404281  9033 net.cpp:157] Top shape: 8 512 38 38 (5914624)
I0326 15:53:44.404284  9033 net.cpp:165] Memory required for data: 2387134532
I0326 15:53:44.404285  9033 layer_factory.hpp:77] Creating layer conv4_3_s
I0326 15:53:44.404292  9033 net.cpp:100] Creating Layer conv4_3_s
I0326 15:53:44.404314  9033 net.cpp:434] conv4_3_s <- conv4_3_t_mult_conv4_3_0_split_0
I0326 15:53:44.404317  9033 net.cpp:408] conv4_3_s -> conv4_3_s
I0326 15:53:44.404512  9033 net.cpp:150] Setting up conv4_3_s
I0326 15:53:44.404521  9033 net.cpp:157] Top shape: 8 512 1 1 (4096)
I0326 15:53:44.404523  9033 net.cpp:165] Memory required for data: 2387150916
I0326 15:53:44.404526  9033 layer_factory.hpp:77] Creating layer conv4_3_fc1
I0326 15:53:44.404536  9033 net.cpp:100] Creating Layer conv4_3_fc1
I0326 15:53:44.404538  9033 net.cpp:434] conv4_3_fc1 <- conv4_3_s
I0326 15:53:44.404543  9033 net.cpp:408] conv4_3_fc1 -> conv4_3_fc1
I0326 15:53:44.406327  9033 net.cpp:150] Setting up conv4_3_fc1
I0326 15:53:44.406342  9033 net.cpp:157] Top shape: 8 128 1 1 (1024)
I0326 15:53:44.406344  9033 net.cpp:165] Memory required for data: 2387155012
I0326 15:53:44.406350  9033 layer_factory.hpp:77] Creating layer conv4_3_relu
I0326 15:53:44.406355  9033 net.cpp:100] Creating Layer conv4_3_relu
I0326 15:53:44.406358  9033 net.cpp:434] conv4_3_relu <- conv4_3_fc1
I0326 15:53:44.406363  9033 net.cpp:395] conv4_3_relu -> conv4_3_fc1 (in-place)
I0326 15:53:44.406752  9033 net.cpp:150] Setting up conv4_3_relu
I0326 15:53:44.406764  9033 net.cpp:157] Top shape: 8 128 1 1 (1024)
I0326 15:53:44.406765  9033 net.cpp:165] Memory required for data: 2387159108
I0326 15:53:44.406769  9033 layer_factory.hpp:77] Creating layer conv4_3_fc2
I0326 15:53:44.406777  9033 net.cpp:100] Creating Layer conv4_3_fc2
I0326 15:53:44.406780  9033 net.cpp:434] conv4_3_fc2 <- conv4_3_fc1
I0326 15:53:44.406786  9033 net.cpp:408] conv4_3_fc2 -> conv4_3_fc2
I0326 15:53:44.408035  9033 net.cpp:150] Setting up conv4_3_fc2
I0326 15:53:44.408049  9033 net.cpp:157] Top shape: 8 512 1 1 (4096)
I0326 15:53:44.408051  9033 net.cpp:165] Memory required for data: 2387175492
I0326 15:53:44.408056  9033 layer_factory.hpp:77] Creating layer conv4_3_sig
I0326 15:53:44.408061  9033 net.cpp:100] Creating Layer conv4_3_sig
I0326 15:53:44.408064  9033 net.cpp:434] conv4_3_sig <- conv4_3_fc2
I0326 15:53:44.408067  9033 net.cpp:395] conv4_3_sig -> conv4_3_fc2 (in-place)
I0326 15:53:44.408232  9033 net.cpp:150] Setting up conv4_3_sig
I0326 15:53:44.408242  9033 net.cpp:157] Top shape: 8 512 1 1 (4096)
I0326 15:53:44.408244  9033 net.cpp:165] Memory required for data: 2387191876
I0326 15:53:44.408246  9033 layer_factory.hpp:77] Creating layer conv4_3_reshape
I0326 15:53:44.408253  9033 net.cpp:100] Creating Layer conv4_3_reshape
I0326 15:53:44.408257  9033 net.cpp:434] conv4_3_reshape <- conv4_3_fc2
I0326 15:53:44.408262  9033 net.cpp:408] conv4_3_reshape -> conv4_3_reshape
I0326 15:53:44.408295  9033 net.cpp:150] Setting up conv4_3_reshape
I0326 15:53:44.408301  9033 net.cpp:157] Top shape: 8 512 (4096)
I0326 15:53:44.408304  9033 net.cpp:165] Memory required for data: 2387208260
I0326 15:53:44.408306  9033 layer_factory.hpp:77] Creating layer conv4_3_scale
I0326 15:53:44.408311  9033 net.cpp:100] Creating Layer conv4_3_scale
I0326 15:53:44.408313  9033 net.cpp:434] conv4_3_scale <- conv4_3_t_mult_conv4_3_0_split_1
I0326 15:53:44.408316  9033 net.cpp:434] conv4_3_scale <- conv4_3_reshape
I0326 15:53:44.408321  9033 net.cpp:408] conv4_3_scale -> conv4_3
I0326 15:53:44.408390  9033 net.cpp:150] Setting up conv4_3_scale
I0326 15:53:44.408396  9033 net.cpp:157] Top shape: 8 512 38 38 (5914624)
I0326 15:53:44.408397  9033 net.cpp:165] Memory required for data: 2410866756
I0326 15:53:44.408401  9033 layer_factory.hpp:77] Creating layer conv4_3_conv4_3_scale_0_split
I0326 15:53:44.408403  9033 net.cpp:100] Creating Layer conv4_3_conv4_3_scale_0_split
I0326 15:53:44.408406  9033 net.cpp:434] conv4_3_conv4_3_scale_0_split <- conv4_3
I0326 15:53:44.408411  9033 net.cpp:408] conv4_3_conv4_3_scale_0_split -> conv4_3_conv4_3_scale_0_split_0
I0326 15:53:44.408416  9033 net.cpp:408] conv4_3_conv4_3_scale_0_split -> conv4_3_conv4_3_scale_0_split_1
I0326 15:53:44.408448  9033 net.cpp:150] Setting up conv4_3_conv4_3_scale_0_split
I0326 15:53:44.408454  9033 net.cpp:157] Top shape: 8 512 38 38 (5914624)
I0326 15:53:44.408469  9033 net.cpp:157] Top shape: 8 512 38 38 (5914624)
I0326 15:53:44.408471  9033 net.cpp:165] Memory required for data: 2458183748
I0326 15:53:44.408473  9033 layer_factory.hpp:77] Creating layer pool4
I0326 15:53:44.408478  9033 net.cpp:100] Creating Layer pool4
I0326 15:53:44.408481  9033 net.cpp:434] pool4 <- conv4_3_conv4_3_scale_0_split_0
I0326 15:53:44.408485  9033 net.cpp:408] pool4 -> pool4
I0326 15:53:44.408519  9033 net.cpp:150] Setting up pool4
I0326 15:53:44.408525  9033 net.cpp:157] Top shape: 8 512 19 19 (1478656)
I0326 15:53:44.408527  9033 net.cpp:165] Memory required for data: 2464098372
I0326 15:53:44.408530  9033 layer_factory.hpp:77] Creating layer conv5_1
I0326 15:53:44.408540  9033 net.cpp:100] Creating Layer conv5_1
I0326 15:53:44.408542  9033 net.cpp:434] conv5_1 <- pool4
I0326 15:53:44.408547  9033 net.cpp:408] conv5_1 -> conv5_1
I0326 15:53:44.422302  9033 net.cpp:150] Setting up conv5_1
I0326 15:53:44.422324  9033 net.cpp:157] Top shape: 8 512 19 19 (1478656)
I0326 15:53:44.422327  9033 net.cpp:165] Memory required for data: 2470012996
I0326 15:53:44.422334  9033 layer_factory.hpp:77] Creating layer relu5_1
I0326 15:53:44.422344  9033 net.cpp:100] Creating Layer relu5_1
I0326 15:53:44.422348  9033 net.cpp:434] relu5_1 <- conv5_1
I0326 15:53:44.422353  9033 net.cpp:395] relu5_1 -> conv5_1 (in-place)
I0326 15:53:44.422513  9033 net.cpp:150] Setting up relu5_1
I0326 15:53:44.422520  9033 net.cpp:157] Top shape: 8 512 19 19 (1478656)
I0326 15:53:44.422523  9033 net.cpp:165] Memory required for data: 2475927620
I0326 15:53:44.422525  9033 layer_factory.hpp:77] Creating layer conv5_2
I0326 15:53:44.422536  9033 net.cpp:100] Creating Layer conv5_2
I0326 15:53:44.422543  9033 net.cpp:434] conv5_2 <- conv5_1
I0326 15:53:44.422547  9033 net.cpp:408] conv5_2 -> conv5_2
I0326 15:53:44.436785  9033 net.cpp:150] Setting up conv5_2
I0326 15:53:44.436811  9033 net.cpp:157] Top shape: 8 512 19 19 (1478656)
I0326 15:53:44.436815  9033 net.cpp:165] Memory required for data: 2481842244
I0326 15:53:44.436822  9033 layer_factory.hpp:77] Creating layer relu5_2
I0326 15:53:44.436830  9033 net.cpp:100] Creating Layer relu5_2
I0326 15:53:44.436839  9033 net.cpp:434] relu5_2 <- conv5_2
I0326 15:53:44.436844  9033 net.cpp:395] relu5_2 -> conv5_2 (in-place)
I0326 15:53:44.437271  9033 net.cpp:150] Setting up relu5_2
I0326 15:53:44.437283  9033 net.cpp:157] Top shape: 8 512 19 19 (1478656)
I0326 15:53:44.437285  9033 net.cpp:165] Memory required for data: 2487756868
I0326 15:53:44.437288  9033 layer_factory.hpp:77] Creating layer conv5_3
I0326 15:53:44.437300  9033 net.cpp:100] Creating Layer conv5_3
I0326 15:53:44.437304  9033 net.cpp:434] conv5_3 <- conv5_2
I0326 15:53:44.437310  9033 net.cpp:408] conv5_3 -> conv5_3
I0326 15:53:44.451220  9033 net.cpp:150] Setting up conv5_3
I0326 15:53:44.451244  9033 net.cpp:157] Top shape: 8 512 19 19 (1478656)
I0326 15:53:44.451246  9033 net.cpp:165] Memory required for data: 2493671492
I0326 15:53:44.451256  9033 layer_factory.hpp:77] Creating layer relu5_3
I0326 15:53:44.451265  9033 net.cpp:100] Creating Layer relu5_3
I0326 15:53:44.451269  9033 net.cpp:434] relu5_3 <- conv5_3
I0326 15:53:44.451277  9033 net.cpp:395] relu5_3 -> conv5_3 (in-place)
I0326 15:53:44.451433  9033 net.cpp:150] Setting up relu5_3
I0326 15:53:44.451442  9033 net.cpp:157] Top shape: 8 512 19 19 (1478656)
I0326 15:53:44.451443  9033 net.cpp:165] Memory required for data: 2499586116
I0326 15:53:44.451447  9033 layer_factory.hpp:77] Creating layer pool5
I0326 15:53:44.451462  9033 net.cpp:100] Creating Layer pool5
I0326 15:53:44.451467  9033 net.cpp:434] pool5 <- conv5_3
I0326 15:53:44.451472  9033 net.cpp:408] pool5 -> pool5
I0326 15:53:44.451512  9033 net.cpp:150] Setting up pool5
I0326 15:53:44.451519  9033 net.cpp:157] Top shape: 8 512 19 19 (1478656)
I0326 15:53:44.451520  9033 net.cpp:165] Memory required for data: 2505500740
I0326 15:53:44.451522  9033 layer_factory.hpp:77] Creating layer fc6
I0326 15:53:44.451532  9033 net.cpp:100] Creating Layer fc6
I0326 15:53:44.451560  9033 net.cpp:434] fc6 <- pool5
I0326 15:53:44.451567  9033 net.cpp:408] fc6 -> fc6
I0326 15:53:44.476716  9033 net.cpp:150] Setting up fc6
I0326 15:53:44.476740  9033 net.cpp:157] Top shape: 8 1024 19 19 (2957312)
I0326 15:53:44.476743  9033 net.cpp:165] Memory required for data: 2517329988
I0326 15:53:44.476752  9033 layer_factory.hpp:77] Creating layer relu6
I0326 15:53:44.476759  9033 net.cpp:100] Creating Layer relu6
I0326 15:53:44.476763  9033 net.cpp:434] relu6 <- fc6
I0326 15:53:44.476769  9033 net.cpp:395] relu6 -> fc6 (in-place)
I0326 15:53:44.477002  9033 net.cpp:150] Setting up relu6
I0326 15:53:44.477010  9033 net.cpp:157] Top shape: 8 1024 19 19 (2957312)
I0326 15:53:44.477011  9033 net.cpp:165] Memory required for data: 2529159236
I0326 15:53:44.477015  9033 layer_factory.hpp:77] Creating layer fc7
I0326 15:53:44.477025  9033 net.cpp:100] Creating Layer fc7
I0326 15:53:44.477030  9033 net.cpp:434] fc7 <- fc6
I0326 15:53:44.477035  9033 net.cpp:408] fc7 -> fc7_t
I0326 15:53:44.483850  9033 net.cpp:150] Setting up fc7
I0326 15:53:44.483871  9033 net.cpp:157] Top shape: 8 1024 19 19 (2957312)
I0326 15:53:44.483875  9033 net.cpp:165] Memory required for data: 2540988484
I0326 15:53:44.483881  9033 layer_factory.hpp:77] Creating layer relu7
I0326 15:53:44.483891  9033 net.cpp:100] Creating Layer relu7
I0326 15:53:44.483897  9033 net.cpp:434] relu7 <- fc7_t
I0326 15:53:44.483903  9033 net.cpp:395] relu7 -> fc7_t (in-place)
I0326 15:53:44.484310  9033 net.cpp:150] Setting up relu7
I0326 15:53:44.484320  9033 net.cpp:157] Top shape: 8 1024 19 19 (2957312)
I0326 15:53:44.484323  9033 net.cpp:165] Memory required for data: 2552817732
I0326 15:53:44.484325  9033 layer_factory.hpp:77] Creating layer fc7_t_relu7_0_split
I0326 15:53:44.484329  9033 net.cpp:100] Creating Layer fc7_t_relu7_0_split
I0326 15:53:44.484334  9033 net.cpp:434] fc7_t_relu7_0_split <- fc7_t
I0326 15:53:44.484339  9033 net.cpp:408] fc7_t_relu7_0_split -> fc7_t_relu7_0_split_0
I0326 15:53:44.484345  9033 net.cpp:408] fc7_t_relu7_0_split -> fc7_t_relu7_0_split_1
I0326 15:53:44.484383  9033 net.cpp:150] Setting up fc7_t_relu7_0_split
I0326 15:53:44.484390  9033 net.cpp:157] Top shape: 8 1024 19 19 (2957312)
I0326 15:53:44.484392  9033 net.cpp:157] Top shape: 8 1024 19 19 (2957312)
I0326 15:53:44.484395  9033 net.cpp:165] Memory required for data: 2576476228
I0326 15:53:44.484396  9033 layer_factory.hpp:77] Creating layer fc7_s
I0326 15:53:44.484401  9033 net.cpp:100] Creating Layer fc7_s
I0326 15:53:44.484403  9033 net.cpp:434] fc7_s <- fc7_t_relu7_0_split_0
I0326 15:53:44.484407  9033 net.cpp:408] fc7_s -> fc7_s
I0326 15:53:44.484575  9033 net.cpp:150] Setting up fc7_s
I0326 15:53:44.484583  9033 net.cpp:157] Top shape: 8 1024 1 1 (8192)
I0326 15:53:44.484586  9033 net.cpp:165] Memory required for data: 2576508996
I0326 15:53:44.484587  9033 layer_factory.hpp:77] Creating layer fc7_fc1
I0326 15:53:44.484597  9033 net.cpp:100] Creating Layer fc7_fc1
I0326 15:53:44.484601  9033 net.cpp:434] fc7_fc1 <- fc7_s
I0326 15:53:44.484606  9033 net.cpp:408] fc7_fc1 -> fc7_fc1
I0326 15:53:44.487179  9033 net.cpp:150] Setting up fc7_fc1
I0326 15:53:44.487192  9033 net.cpp:157] Top shape: 8 256 1 1 (2048)
I0326 15:53:44.487197  9033 net.cpp:165] Memory required for data: 2576517188
I0326 15:53:44.487202  9033 layer_factory.hpp:77] Creating layer fc7_relu
I0326 15:53:44.487206  9033 net.cpp:100] Creating Layer fc7_relu
I0326 15:53:44.487208  9033 net.cpp:434] fc7_relu <- fc7_fc1
I0326 15:53:44.487215  9033 net.cpp:395] fc7_relu -> fc7_fc1 (in-place)
I0326 15:53:44.487363  9033 net.cpp:150] Setting up fc7_relu
I0326 15:53:44.487370  9033 net.cpp:157] Top shape: 8 256 1 1 (2048)
I0326 15:53:44.487372  9033 net.cpp:165] Memory required for data: 2576525380
I0326 15:53:44.487375  9033 layer_factory.hpp:77] Creating layer fc7_fc2
I0326 15:53:44.487382  9033 net.cpp:100] Creating Layer fc7_fc2
I0326 15:53:44.487387  9033 net.cpp:434] fc7_fc2 <- fc7_fc1
I0326 15:53:44.487396  9033 net.cpp:408] fc7_fc2 -> fc7_fc2
I0326 15:53:44.490139  9033 net.cpp:150] Setting up fc7_fc2
I0326 15:53:44.490162  9033 net.cpp:157] Top shape: 8 1024 1 1 (8192)
I0326 15:53:44.490166  9033 net.cpp:165] Memory required for data: 2576558148
I0326 15:53:44.490175  9033 layer_factory.hpp:77] Creating layer fc7_sig
I0326 15:53:44.490186  9033 net.cpp:100] Creating Layer fc7_sig
I0326 15:53:44.490191  9033 net.cpp:434] fc7_sig <- fc7_fc2
I0326 15:53:44.490195  9033 net.cpp:395] fc7_sig -> fc7_fc2 (in-place)
I0326 15:53:44.490348  9033 net.cpp:150] Setting up fc7_sig
I0326 15:53:44.490356  9033 net.cpp:157] Top shape: 8 1024 1 1 (8192)
I0326 15:53:44.490358  9033 net.cpp:165] Memory required for data: 2576590916
I0326 15:53:44.490361  9033 layer_factory.hpp:77] Creating layer fc7_reshape
I0326 15:53:44.490368  9033 net.cpp:100] Creating Layer fc7_reshape
I0326 15:53:44.490373  9033 net.cpp:434] fc7_reshape <- fc7_fc2
I0326 15:53:44.490378  9033 net.cpp:408] fc7_reshape -> fc7_reshape
I0326 15:53:44.490416  9033 net.cpp:150] Setting up fc7_reshape
I0326 15:53:44.490422  9033 net.cpp:157] Top shape: 8 1024 (8192)
I0326 15:53:44.490425  9033 net.cpp:165] Memory required for data: 2576623684
I0326 15:53:44.490427  9033 layer_factory.hpp:77] Creating layer fc7_scale
I0326 15:53:44.490433  9033 net.cpp:100] Creating Layer fc7_scale
I0326 15:53:44.490435  9033 net.cpp:434] fc7_scale <- fc7_t_relu7_0_split_1
I0326 15:53:44.490439  9033 net.cpp:434] fc7_scale <- fc7_reshape
I0326 15:53:44.490443  9033 net.cpp:408] fc7_scale -> fc7
I0326 15:53:44.490499  9033 net.cpp:150] Setting up fc7_scale
I0326 15:53:44.490504  9033 net.cpp:157] Top shape: 8 1024 19 19 (2957312)
I0326 15:53:44.490506  9033 net.cpp:165] Memory required for data: 2588452932
I0326 15:53:44.490509  9033 layer_factory.hpp:77] Creating layer fc7_fc7_scale_0_split
I0326 15:53:44.490514  9033 net.cpp:100] Creating Layer fc7_fc7_scale_0_split
I0326 15:53:44.490515  9033 net.cpp:434] fc7_fc7_scale_0_split <- fc7
I0326 15:53:44.490520  9033 net.cpp:408] fc7_fc7_scale_0_split -> fc7_fc7_scale_0_split_0
I0326 15:53:44.490525  9033 net.cpp:408] fc7_fc7_scale_0_split -> fc7_fc7_scale_0_split_1
I0326 15:53:44.490528  9033 net.cpp:408] fc7_fc7_scale_0_split -> fc7_fc7_scale_0_split_2
I0326 15:53:44.490532  9033 net.cpp:408] fc7_fc7_scale_0_split -> fc7_fc7_scale_0_split_3
I0326 15:53:44.490581  9033 net.cpp:150] Setting up fc7_fc7_scale_0_split
I0326 15:53:44.490587  9033 net.cpp:157] Top shape: 8 1024 19 19 (2957312)
I0326 15:53:44.490591  9033 net.cpp:157] Top shape: 8 1024 19 19 (2957312)
I0326 15:53:44.490592  9033 net.cpp:157] Top shape: 8 1024 19 19 (2957312)
I0326 15:53:44.490595  9033 net.cpp:157] Top shape: 8 1024 19 19 (2957312)
I0326 15:53:44.490597  9033 net.cpp:165] Memory required for data: 2635769924
I0326 15:53:44.490599  9033 layer_factory.hpp:77] Creating layer conv6_1
I0326 15:53:44.490607  9033 net.cpp:100] Creating Layer conv6_1
I0326 15:53:44.490612  9033 net.cpp:434] conv6_1 <- fc7_fc7_scale_0_split_0
I0326 15:53:44.490617  9033 net.cpp:408] conv6_1 -> conv6_1
I0326 15:53:44.492606  9033 net.cpp:150] Setting up conv6_1
I0326 15:53:44.492619  9033 net.cpp:157] Top shape: 8 256 19 19 (739328)
I0326 15:53:44.492621  9033 net.cpp:165] Memory required for data: 2638727236
I0326 15:53:44.492626  9033 layer_factory.hpp:77] Creating layer conv6_1_relu
I0326 15:53:44.492630  9033 net.cpp:100] Creating Layer conv6_1_relu
I0326 15:53:44.492632  9033 net.cpp:434] conv6_1_relu <- conv6_1
I0326 15:53:44.492640  9033 net.cpp:395] conv6_1_relu -> conv6_1 (in-place)
I0326 15:53:44.493031  9033 net.cpp:150] Setting up conv6_1_relu
I0326 15:53:44.493039  9033 net.cpp:157] Top shape: 8 256 19 19 (739328)
I0326 15:53:44.493041  9033 net.cpp:165] Memory required for data: 2641684548
I0326 15:53:44.493047  9033 layer_factory.hpp:77] Creating layer conv6_2
I0326 15:53:44.493055  9033 net.cpp:100] Creating Layer conv6_2
I0326 15:53:44.493058  9033 net.cpp:434] conv6_2 <- conv6_1
I0326 15:53:44.493063  9033 net.cpp:408] conv6_2 -> conv6_2_t
I0326 15:53:44.500695  9033 net.cpp:150] Setting up conv6_2
I0326 15:53:44.500716  9033 net.cpp:157] Top shape: 8 512 10 10 (409600)
I0326 15:53:44.500736  9033 net.cpp:165] Memory required for data: 2643322948
I0326 15:53:44.500744  9033 layer_factory.hpp:77] Creating layer conv6_2_relu
I0326 15:53:44.500756  9033 net.cpp:100] Creating Layer conv6_2_relu
I0326 15:53:44.500761  9033 net.cpp:434] conv6_2_relu <- conv6_2_t
I0326 15:53:44.500767  9033 net.cpp:395] conv6_2_relu -> conv6_2_t (in-place)
I0326 15:53:44.500931  9033 net.cpp:150] Setting up conv6_2_relu
I0326 15:53:44.500941  9033 net.cpp:157] Top shape: 8 512 10 10 (409600)
I0326 15:53:44.500942  9033 net.cpp:165] Memory required for data: 2644961348
I0326 15:53:44.500944  9033 layer_factory.hpp:77] Creating layer conv6_2_t_conv6_2_relu_0_split
I0326 15:53:44.500950  9033 net.cpp:100] Creating Layer conv6_2_t_conv6_2_relu_0_split
I0326 15:53:44.500955  9033 net.cpp:434] conv6_2_t_conv6_2_relu_0_split <- conv6_2_t
I0326 15:53:44.500960  9033 net.cpp:408] conv6_2_t_conv6_2_relu_0_split -> conv6_2_t_conv6_2_relu_0_split_0
I0326 15:53:44.500965  9033 net.cpp:408] conv6_2_t_conv6_2_relu_0_split -> conv6_2_t_conv6_2_relu_0_split_1
I0326 15:53:44.501005  9033 net.cpp:150] Setting up conv6_2_t_conv6_2_relu_0_split
I0326 15:53:44.501013  9033 net.cpp:157] Top shape: 8 512 10 10 (409600)
I0326 15:53:44.501016  9033 net.cpp:157] Top shape: 8 512 10 10 (409600)
I0326 15:53:44.501018  9033 net.cpp:165] Memory required for data: 2648238148
I0326 15:53:44.501019  9033 layer_factory.hpp:77] Creating layer conv6_2_s
I0326 15:53:44.501024  9033 net.cpp:100] Creating Layer conv6_2_s
I0326 15:53:44.501027  9033 net.cpp:434] conv6_2_s <- conv6_2_t_conv6_2_relu_0_split_0
I0326 15:53:44.501030  9033 net.cpp:408] conv6_2_s -> conv6_2_s
I0326 15:53:44.501200  9033 net.cpp:150] Setting up conv6_2_s
I0326 15:53:44.501207  9033 net.cpp:157] Top shape: 8 512 1 1 (4096)
I0326 15:53:44.501209  9033 net.cpp:165] Memory required for data: 2648254532
I0326 15:53:44.501212  9033 layer_factory.hpp:77] Creating layer conv6_2_fc1
I0326 15:53:44.501221  9033 net.cpp:100] Creating Layer conv6_2_fc1
I0326 15:53:44.501224  9033 net.cpp:434] conv6_2_fc1 <- conv6_2_s
I0326 15:53:44.501230  9033 net.cpp:408] conv6_2_fc1 -> conv6_2_fc1
I0326 15:53:44.502457  9033 net.cpp:150] Setting up conv6_2_fc1
I0326 15:53:44.502467  9033 net.cpp:157] Top shape: 8 128 1 1 (1024)
I0326 15:53:44.502470  9033 net.cpp:165] Memory required for data: 2648258628
I0326 15:53:44.502475  9033 layer_factory.hpp:77] Creating layer conv6_2_relu
I0326 15:53:44.502478  9033 net.cpp:100] Creating Layer conv6_2_relu
I0326 15:53:44.502481  9033 net.cpp:434] conv6_2_relu <- conv6_2_fc1
I0326 15:53:44.502487  9033 net.cpp:395] conv6_2_relu -> conv6_2_fc1 (in-place)
I0326 15:53:44.502878  9033 net.cpp:150] Setting up conv6_2_relu
I0326 15:53:44.502888  9033 net.cpp:157] Top shape: 8 128 1 1 (1024)
I0326 15:53:44.502890  9033 net.cpp:165] Memory required for data: 2648262724
I0326 15:53:44.502893  9033 layer_factory.hpp:77] Creating layer conv6_2_fc2
I0326 15:53:44.502902  9033 net.cpp:100] Creating Layer conv6_2_fc2
I0326 15:53:44.502907  9033 net.cpp:434] conv6_2_fc2 <- conv6_2_fc1
I0326 15:53:44.502912  9033 net.cpp:408] conv6_2_fc2 -> conv6_2_fc2
I0326 15:53:44.504155  9033 net.cpp:150] Setting up conv6_2_fc2
I0326 15:53:44.504165  9033 net.cpp:157] Top shape: 8 512 1 1 (4096)
I0326 15:53:44.504168  9033 net.cpp:165] Memory required for data: 2648279108
I0326 15:53:44.504173  9033 layer_factory.hpp:77] Creating layer conv6_2_sig
I0326 15:53:44.504178  9033 net.cpp:100] Creating Layer conv6_2_sig
I0326 15:53:44.504180  9033 net.cpp:434] conv6_2_sig <- conv6_2_fc2
I0326 15:53:44.504184  9033 net.cpp:395] conv6_2_sig -> conv6_2_fc2 (in-place)
I0326 15:53:44.504330  9033 net.cpp:150] Setting up conv6_2_sig
I0326 15:53:44.504338  9033 net.cpp:157] Top shape: 8 512 1 1 (4096)
I0326 15:53:44.504340  9033 net.cpp:165] Memory required for data: 2648295492
I0326 15:53:44.504343  9033 layer_factory.hpp:77] Creating layer conv6_2_reshape
I0326 15:53:44.504349  9033 net.cpp:100] Creating Layer conv6_2_reshape
I0326 15:53:44.504353  9033 net.cpp:434] conv6_2_reshape <- conv6_2_fc2
I0326 15:53:44.504367  9033 net.cpp:408] conv6_2_reshape -> conv6_2_reshape
I0326 15:53:44.504395  9033 net.cpp:150] Setting up conv6_2_reshape
I0326 15:53:44.504401  9033 net.cpp:157] Top shape: 8 512 (4096)
I0326 15:53:44.504405  9033 net.cpp:165] Memory required for data: 2648311876
I0326 15:53:44.504406  9033 layer_factory.hpp:77] Creating layer conv6_2_scale
I0326 15:53:44.504410  9033 net.cpp:100] Creating Layer conv6_2_scale
I0326 15:53:44.504413  9033 net.cpp:434] conv6_2_scale <- conv6_2_t_conv6_2_relu_0_split_1
I0326 15:53:44.504417  9033 net.cpp:434] conv6_2_scale <- conv6_2_reshape
I0326 15:53:44.504420  9033 net.cpp:408] conv6_2_scale -> conv6_2
I0326 15:53:44.504478  9033 net.cpp:150] Setting up conv6_2_scale
I0326 15:53:44.504484  9033 net.cpp:157] Top shape: 8 512 10 10 (409600)
I0326 15:53:44.504487  9033 net.cpp:165] Memory required for data: 2649950276
I0326 15:53:44.504489  9033 layer_factory.hpp:77] Creating layer conv6_2_conv6_2_scale_0_split
I0326 15:53:44.504493  9033 net.cpp:100] Creating Layer conv6_2_conv6_2_scale_0_split
I0326 15:53:44.504496  9033 net.cpp:434] conv6_2_conv6_2_scale_0_split <- conv6_2
I0326 15:53:44.504500  9033 net.cpp:408] conv6_2_conv6_2_scale_0_split -> conv6_2_conv6_2_scale_0_split_0
I0326 15:53:44.504505  9033 net.cpp:408] conv6_2_conv6_2_scale_0_split -> conv6_2_conv6_2_scale_0_split_1
I0326 15:53:44.504509  9033 net.cpp:408] conv6_2_conv6_2_scale_0_split -> conv6_2_conv6_2_scale_0_split_2
I0326 15:53:44.504513  9033 net.cpp:408] conv6_2_conv6_2_scale_0_split -> conv6_2_conv6_2_scale_0_split_3
I0326 15:53:44.504565  9033 net.cpp:150] Setting up conv6_2_conv6_2_scale_0_split
I0326 15:53:44.504570  9033 net.cpp:157] Top shape: 8 512 10 10 (409600)
I0326 15:53:44.504573  9033 net.cpp:157] Top shape: 8 512 10 10 (409600)
I0326 15:53:44.504576  9033 net.cpp:157] Top shape: 8 512 10 10 (409600)
I0326 15:53:44.504580  9033 net.cpp:157] Top shape: 8 512 10 10 (409600)
I0326 15:53:44.504581  9033 net.cpp:165] Memory required for data: 2656503876
I0326 15:53:44.504583  9033 layer_factory.hpp:77] Creating layer conv7_1
I0326 15:53:44.504592  9033 net.cpp:100] Creating Layer conv7_1
I0326 15:53:44.504595  9033 net.cpp:434] conv7_1 <- conv6_2_conv6_2_scale_0_split_0
I0326 15:53:44.504601  9033 net.cpp:408] conv7_1 -> conv7_1
I0326 15:53:44.505883  9033 net.cpp:150] Setting up conv7_1
I0326 15:53:44.505897  9033 net.cpp:157] Top shape: 8 128 10 10 (102400)
I0326 15:53:44.505901  9033 net.cpp:165] Memory required for data: 2656913476
I0326 15:53:44.505909  9033 layer_factory.hpp:77] Creating layer conv7_1_relu
I0326 15:53:44.505914  9033 net.cpp:100] Creating Layer conv7_1_relu
I0326 15:53:44.505923  9033 net.cpp:434] conv7_1_relu <- conv7_1
I0326 15:53:44.505930  9033 net.cpp:395] conv7_1_relu -> conv7_1 (in-place)
I0326 15:53:44.506142  9033 net.cpp:150] Setting up conv7_1_relu
I0326 15:53:44.506153  9033 net.cpp:157] Top shape: 8 128 10 10 (102400)
I0326 15:53:44.506160  9033 net.cpp:165] Memory required for data: 2657323076
I0326 15:53:44.506165  9033 layer_factory.hpp:77] Creating layer conv7_2
I0326 15:53:44.506175  9033 net.cpp:100] Creating Layer conv7_2
I0326 15:53:44.506178  9033 net.cpp:434] conv7_2 <- conv7_1
I0326 15:53:44.506187  9033 net.cpp:408] conv7_2 -> conv7_2_t
I0326 15:53:44.509229  9033 net.cpp:150] Setting up conv7_2
I0326 15:53:44.509240  9033 net.cpp:157] Top shape: 8 256 5 5 (51200)
I0326 15:53:44.509243  9033 net.cpp:165] Memory required for data: 2657527876
I0326 15:53:44.509248  9033 layer_factory.hpp:77] Creating layer conv7_2_relu
I0326 15:53:44.509254  9033 net.cpp:100] Creating Layer conv7_2_relu
I0326 15:53:44.509256  9033 net.cpp:434] conv7_2_relu <- conv7_2_t
I0326 15:53:44.509260  9033 net.cpp:395] conv7_2_relu -> conv7_2_t (in-place)
I0326 15:53:44.509660  9033 net.cpp:150] Setting up conv7_2_relu
I0326 15:53:44.509670  9033 net.cpp:157] Top shape: 8 256 5 5 (51200)
I0326 15:53:44.509672  9033 net.cpp:165] Memory required for data: 2657732676
I0326 15:53:44.509675  9033 layer_factory.hpp:77] Creating layer conv7_2_t_conv7_2_relu_0_split
I0326 15:53:44.509691  9033 net.cpp:100] Creating Layer conv7_2_t_conv7_2_relu_0_split
I0326 15:53:44.509694  9033 net.cpp:434] conv7_2_t_conv7_2_relu_0_split <- conv7_2_t
I0326 15:53:44.509701  9033 net.cpp:408] conv7_2_t_conv7_2_relu_0_split -> conv7_2_t_conv7_2_relu_0_split_0
I0326 15:53:44.509706  9033 net.cpp:408] conv7_2_t_conv7_2_relu_0_split -> conv7_2_t_conv7_2_relu_0_split_1
I0326 15:53:44.509748  9033 net.cpp:150] Setting up conv7_2_t_conv7_2_relu_0_split
I0326 15:53:44.509755  9033 net.cpp:157] Top shape: 8 256 5 5 (51200)
I0326 15:53:44.509758  9033 net.cpp:157] Top shape: 8 256 5 5 (51200)
I0326 15:53:44.509759  9033 net.cpp:165] Memory required for data: 2658142276
I0326 15:53:44.509762  9033 layer_factory.hpp:77] Creating layer conv7_2_s
I0326 15:53:44.509766  9033 net.cpp:100] Creating Layer conv7_2_s
I0326 15:53:44.509768  9033 net.cpp:434] conv7_2_s <- conv7_2_t_conv7_2_relu_0_split_0
I0326 15:53:44.509773  9033 net.cpp:408] conv7_2_s -> conv7_2_s
I0326 15:53:44.509938  9033 net.cpp:150] Setting up conv7_2_s
I0326 15:53:44.509945  9033 net.cpp:157] Top shape: 8 256 1 1 (2048)
I0326 15:53:44.509948  9033 net.cpp:165] Memory required for data: 2658150468
I0326 15:53:44.509950  9033 layer_factory.hpp:77] Creating layer conv7_2_fc1
I0326 15:53:44.509958  9033 net.cpp:100] Creating Layer conv7_2_fc1
I0326 15:53:44.509964  9033 net.cpp:434] conv7_2_fc1 <- conv7_2_s
I0326 15:53:44.509968  9033 net.cpp:408] conv7_2_fc1 -> conv7_2_fc1
I0326 15:53:44.510993  9033 net.cpp:150] Setting up conv7_2_fc1
I0326 15:53:44.511003  9033 net.cpp:157] Top shape: 8 64 1 1 (512)
I0326 15:53:44.511005  9033 net.cpp:165] Memory required for data: 2658152516
I0326 15:53:44.511019  9033 layer_factory.hpp:77] Creating layer conv7_2_relu
I0326 15:53:44.511027  9033 net.cpp:100] Creating Layer conv7_2_relu
I0326 15:53:44.511030  9033 net.cpp:434] conv7_2_relu <- conv7_2_fc1
I0326 15:53:44.511034  9033 net.cpp:395] conv7_2_relu -> conv7_2_fc1 (in-place)
I0326 15:53:44.511180  9033 net.cpp:150] Setting up conv7_2_relu
I0326 15:53:44.511188  9033 net.cpp:157] Top shape: 8 64 1 1 (512)
I0326 15:53:44.511190  9033 net.cpp:165] Memory required for data: 2658154564
I0326 15:53:44.511193  9033 layer_factory.hpp:77] Creating layer conv7_2_fc2
I0326 15:53:44.511202  9033 net.cpp:100] Creating Layer conv7_2_fc2
I0326 15:53:44.511204  9033 net.cpp:434] conv7_2_fc2 <- conv7_2_fc1
I0326 15:53:44.511209  9033 net.cpp:408] conv7_2_fc2 -> conv7_2_fc2
I0326 15:53:44.512461  9033 net.cpp:150] Setting up conv7_2_fc2
I0326 15:53:44.512472  9033 net.cpp:157] Top shape: 8 256 1 1 (2048)
I0326 15:53:44.512475  9033 net.cpp:165] Memory required for data: 2658162756
I0326 15:53:44.512480  9033 layer_factory.hpp:77] Creating layer conv7_2_sig
I0326 15:53:44.512483  9033 net.cpp:100] Creating Layer conv7_2_sig
I0326 15:53:44.512486  9033 net.cpp:434] conv7_2_sig <- conv7_2_fc2
I0326 15:53:44.512491  9033 net.cpp:395] conv7_2_sig -> conv7_2_fc2 (in-place)
I0326 15:53:44.512645  9033 net.cpp:150] Setting up conv7_2_sig
I0326 15:53:44.512652  9033 net.cpp:157] Top shape: 8 256 1 1 (2048)
I0326 15:53:44.512655  9033 net.cpp:165] Memory required for data: 2658170948
I0326 15:53:44.512657  9033 layer_factory.hpp:77] Creating layer conv7_2_reshape
I0326 15:53:44.512663  9033 net.cpp:100] Creating Layer conv7_2_reshape
I0326 15:53:44.512666  9033 net.cpp:434] conv7_2_reshape <- conv7_2_fc2
I0326 15:53:44.512670  9033 net.cpp:408] conv7_2_reshape -> conv7_2_reshape
I0326 15:53:44.512696  9033 net.cpp:150] Setting up conv7_2_reshape
I0326 15:53:44.512701  9033 net.cpp:157] Top shape: 8 256 (2048)
I0326 15:53:44.512704  9033 net.cpp:165] Memory required for data: 2658179140
I0326 15:53:44.512706  9033 layer_factory.hpp:77] Creating layer conv7_2_scale
I0326 15:53:44.512712  9033 net.cpp:100] Creating Layer conv7_2_scale
I0326 15:53:44.512715  9033 net.cpp:434] conv7_2_scale <- conv7_2_t_conv7_2_relu_0_split_1
I0326 15:53:44.512718  9033 net.cpp:434] conv7_2_scale <- conv7_2_reshape
I0326 15:53:44.512722  9033 net.cpp:408] conv7_2_scale -> conv7_2
I0326 15:53:44.512796  9033 net.cpp:150] Setting up conv7_2_scale
I0326 15:53:44.512802  9033 net.cpp:157] Top shape: 8 256 5 5 (51200)
I0326 15:53:44.512805  9033 net.cpp:165] Memory required for data: 2658383940
I0326 15:53:44.512807  9033 layer_factory.hpp:77] Creating layer conv7_2_conv7_2_scale_0_split
I0326 15:53:44.512811  9033 net.cpp:100] Creating Layer conv7_2_conv7_2_scale_0_split
I0326 15:53:44.512814  9033 net.cpp:434] conv7_2_conv7_2_scale_0_split <- conv7_2
I0326 15:53:44.512818  9033 net.cpp:408] conv7_2_conv7_2_scale_0_split -> conv7_2_conv7_2_scale_0_split_0
I0326 15:53:44.512823  9033 net.cpp:408] conv7_2_conv7_2_scale_0_split -> conv7_2_conv7_2_scale_0_split_1
I0326 15:53:44.512827  9033 net.cpp:408] conv7_2_conv7_2_scale_0_split -> conv7_2_conv7_2_scale_0_split_2
I0326 15:53:44.512831  9033 net.cpp:408] conv7_2_conv7_2_scale_0_split -> conv7_2_conv7_2_scale_0_split_3
I0326 15:53:44.512883  9033 net.cpp:150] Setting up conv7_2_conv7_2_scale_0_split
I0326 15:53:44.512889  9033 net.cpp:157] Top shape: 8 256 5 5 (51200)
I0326 15:53:44.512892  9033 net.cpp:157] Top shape: 8 256 5 5 (51200)
I0326 15:53:44.512894  9033 net.cpp:157] Top shape: 8 256 5 5 (51200)
I0326 15:53:44.512897  9033 net.cpp:157] Top shape: 8 256 5 5 (51200)
I0326 15:53:44.512898  9033 net.cpp:165] Memory required for data: 2659203140
I0326 15:53:44.512900  9033 layer_factory.hpp:77] Creating layer conv8_1
I0326 15:53:44.512909  9033 net.cpp:100] Creating Layer conv8_1
I0326 15:53:44.512914  9033 net.cpp:434] conv8_1 <- conv7_2_conv7_2_scale_0_split_0
I0326 15:53:44.512918  9033 net.cpp:408] conv8_1 -> conv8_1
I0326 15:53:44.513980  9033 net.cpp:150] Setting up conv8_1
I0326 15:53:44.513993  9033 net.cpp:157] Top shape: 8 128 5 5 (25600)
I0326 15:53:44.513995  9033 net.cpp:165] Memory required for data: 2659305540
I0326 15:53:44.514000  9033 layer_factory.hpp:77] Creating layer conv8_1_relu
I0326 15:53:44.514004  9033 net.cpp:100] Creating Layer conv8_1_relu
I0326 15:53:44.514008  9033 net.cpp:434] conv8_1_relu <- conv8_1
I0326 15:53:44.514012  9033 net.cpp:395] conv8_1_relu -> conv8_1 (in-place)
I0326 15:53:44.514415  9033 net.cpp:150] Setting up conv8_1_relu
I0326 15:53:44.514425  9033 net.cpp:157] Top shape: 8 128 5 5 (25600)
I0326 15:53:44.514427  9033 net.cpp:165] Memory required for data: 2659407940
I0326 15:53:44.514430  9033 layer_factory.hpp:77] Creating layer conv8_2
I0326 15:53:44.514439  9033 net.cpp:100] Creating Layer conv8_2
I0326 15:53:44.514446  9033 net.cpp:434] conv8_2 <- conv8_1
I0326 15:53:44.514452  9033 net.cpp:408] conv8_2 -> conv8_2_t
I0326 15:53:44.517578  9033 net.cpp:150] Setting up conv8_2
I0326 15:53:44.517590  9033 net.cpp:157] Top shape: 8 256 3 3 (18432)
I0326 15:53:44.517591  9033 net.cpp:165] Memory required for data: 2659481668
I0326 15:53:44.517596  9033 layer_factory.hpp:77] Creating layer conv8_2_relu
I0326 15:53:44.517601  9033 net.cpp:100] Creating Layer conv8_2_relu
I0326 15:53:44.517604  9033 net.cpp:434] conv8_2_relu <- conv8_2_t
I0326 15:53:44.517609  9033 net.cpp:395] conv8_2_relu -> conv8_2_t (in-place)
I0326 15:53:44.517771  9033 net.cpp:150] Setting up conv8_2_relu
I0326 15:53:44.517781  9033 net.cpp:157] Top shape: 8 256 3 3 (18432)
I0326 15:53:44.517783  9033 net.cpp:165] Memory required for data: 2659555396
I0326 15:53:44.517786  9033 layer_factory.hpp:77] Creating layer conv8_2_t_conv8_2_relu_0_split
I0326 15:53:44.517789  9033 net.cpp:100] Creating Layer conv8_2_t_conv8_2_relu_0_split
I0326 15:53:44.517792  9033 net.cpp:434] conv8_2_t_conv8_2_relu_0_split <- conv8_2_t
I0326 15:53:44.517796  9033 net.cpp:408] conv8_2_t_conv8_2_relu_0_split -> conv8_2_t_conv8_2_relu_0_split_0
I0326 15:53:44.517802  9033 net.cpp:408] conv8_2_t_conv8_2_relu_0_split -> conv8_2_t_conv8_2_relu_0_split_1
I0326 15:53:44.517841  9033 net.cpp:150] Setting up conv8_2_t_conv8_2_relu_0_split
I0326 15:53:44.517848  9033 net.cpp:157] Top shape: 8 256 3 3 (18432)
I0326 15:53:44.517851  9033 net.cpp:157] Top shape: 8 256 3 3 (18432)
I0326 15:53:44.517853  9033 net.cpp:165] Memory required for data: 2659702852
I0326 15:53:44.517854  9033 layer_factory.hpp:77] Creating layer conv8_2_s
I0326 15:53:44.517874  9033 net.cpp:100] Creating Layer conv8_2_s
I0326 15:53:44.517881  9033 net.cpp:434] conv8_2_s <- conv8_2_t_conv8_2_relu_0_split_0
I0326 15:53:44.517884  9033 net.cpp:408] conv8_2_s -> conv8_2_s
I0326 15:53:44.518055  9033 net.cpp:150] Setting up conv8_2_s
I0326 15:53:44.518064  9033 net.cpp:157] Top shape: 8 256 1 1 (2048)
I0326 15:53:44.518065  9033 net.cpp:165] Memory required for data: 2659711044
I0326 15:53:44.518067  9033 layer_factory.hpp:77] Creating layer conv8_2_fc1
I0326 15:53:44.518077  9033 net.cpp:100] Creating Layer conv8_2_fc1
I0326 15:53:44.518084  9033 net.cpp:434] conv8_2_fc1 <- conv8_2_s
I0326 15:53:44.518087  9033 net.cpp:408] conv8_2_fc1 -> conv8_2_fc1
I0326 15:53:44.519107  9033 net.cpp:150] Setting up conv8_2_fc1
I0326 15:53:44.519117  9033 net.cpp:157] Top shape: 8 64 1 1 (512)
I0326 15:53:44.519120  9033 net.cpp:165] Memory required for data: 2659713092
I0326 15:53:44.519125  9033 layer_factory.hpp:77] Creating layer conv8_2_relu
I0326 15:53:44.519129  9033 net.cpp:100] Creating Layer conv8_2_relu
I0326 15:53:44.519132  9033 net.cpp:434] conv8_2_relu <- conv8_2_fc1
I0326 15:53:44.519137  9033 net.cpp:395] conv8_2_relu -> conv8_2_fc1 (in-place)
I0326 15:53:44.519531  9033 net.cpp:150] Setting up conv8_2_relu
I0326 15:53:44.519541  9033 net.cpp:157] Top shape: 8 64 1 1 (512)
I0326 15:53:44.519543  9033 net.cpp:165] Memory required for data: 2659715140
I0326 15:53:44.519546  9033 layer_factory.hpp:77] Creating layer conv8_2_fc2
I0326 15:53:44.519553  9033 net.cpp:100] Creating Layer conv8_2_fc2
I0326 15:53:44.519556  9033 net.cpp:434] conv8_2_fc2 <- conv8_2_fc1
I0326 15:53:44.519562  9033 net.cpp:408] conv8_2_fc2 -> conv8_2_fc2
I0326 15:53:44.520596  9033 net.cpp:150] Setting up conv8_2_fc2
I0326 15:53:44.520618  9033 net.cpp:157] Top shape: 8 256 1 1 (2048)
I0326 15:53:44.520620  9033 net.cpp:165] Memory required for data: 2659723332
I0326 15:53:44.520624  9033 layer_factory.hpp:77] Creating layer conv8_2_sig
I0326 15:53:44.520630  9033 net.cpp:100] Creating Layer conv8_2_sig
I0326 15:53:44.520632  9033 net.cpp:434] conv8_2_sig <- conv8_2_fc2
I0326 15:53:44.520637  9033 net.cpp:395] conv8_2_sig -> conv8_2_fc2 (in-place)
I0326 15:53:44.520788  9033 net.cpp:150] Setting up conv8_2_sig
I0326 15:53:44.520797  9033 net.cpp:157] Top shape: 8 256 1 1 (2048)
I0326 15:53:44.520799  9033 net.cpp:165] Memory required for data: 2659731524
I0326 15:53:44.520802  9033 layer_factory.hpp:77] Creating layer conv8_2_reshape
I0326 15:53:44.520807  9033 net.cpp:100] Creating Layer conv8_2_reshape
I0326 15:53:44.520810  9033 net.cpp:434] conv8_2_reshape <- conv8_2_fc2
I0326 15:53:44.520814  9033 net.cpp:408] conv8_2_reshape -> conv8_2_reshape
I0326 15:53:44.520843  9033 net.cpp:150] Setting up conv8_2_reshape
I0326 15:53:44.520848  9033 net.cpp:157] Top shape: 8 256 (2048)
I0326 15:53:44.520850  9033 net.cpp:165] Memory required for data: 2659739716
I0326 15:53:44.520853  9033 layer_factory.hpp:77] Creating layer conv8_2_scale
I0326 15:53:44.520858  9033 net.cpp:100] Creating Layer conv8_2_scale
I0326 15:53:44.520859  9033 net.cpp:434] conv8_2_scale <- conv8_2_t_conv8_2_relu_0_split_1
I0326 15:53:44.520864  9033 net.cpp:434] conv8_2_scale <- conv8_2_reshape
I0326 15:53:44.520867  9033 net.cpp:408] conv8_2_scale -> conv8_2
I0326 15:53:44.520931  9033 net.cpp:150] Setting up conv8_2_scale
I0326 15:53:44.520936  9033 net.cpp:157] Top shape: 8 256 3 3 (18432)
I0326 15:53:44.520938  9033 net.cpp:165] Memory required for data: 2659813444
I0326 15:53:44.520941  9033 layer_factory.hpp:77] Creating layer conv8_2_conv8_2_scale_0_split
I0326 15:53:44.520946  9033 net.cpp:100] Creating Layer conv8_2_conv8_2_scale_0_split
I0326 15:53:44.520947  9033 net.cpp:434] conv8_2_conv8_2_scale_0_split <- conv8_2
I0326 15:53:44.520951  9033 net.cpp:408] conv8_2_conv8_2_scale_0_split -> conv8_2_conv8_2_scale_0_split_0
I0326 15:53:44.520956  9033 net.cpp:408] conv8_2_conv8_2_scale_0_split -> conv8_2_conv8_2_scale_0_split_1
I0326 15:53:44.520961  9033 net.cpp:408] conv8_2_conv8_2_scale_0_split -> conv8_2_conv8_2_scale_0_split_2
I0326 15:53:44.520974  9033 net.cpp:408] conv8_2_conv8_2_scale_0_split -> conv8_2_conv8_2_scale_0_split_3
I0326 15:53:44.521030  9033 net.cpp:150] Setting up conv8_2_conv8_2_scale_0_split
I0326 15:53:44.521037  9033 net.cpp:157] Top shape: 8 256 3 3 (18432)
I0326 15:53:44.521040  9033 net.cpp:157] Top shape: 8 256 3 3 (18432)
I0326 15:53:44.521042  9033 net.cpp:157] Top shape: 8 256 3 3 (18432)
I0326 15:53:44.521045  9033 net.cpp:157] Top shape: 8 256 3 3 (18432)
I0326 15:53:44.521047  9033 net.cpp:165] Memory required for data: 2660108356
I0326 15:53:44.521049  9033 layer_factory.hpp:77] Creating layer conv9_1
I0326 15:53:44.521056  9033 net.cpp:100] Creating Layer conv9_1
I0326 15:53:44.521059  9033 net.cpp:434] conv9_1 <- conv8_2_conv8_2_scale_0_split_0
I0326 15:53:44.521064  9033 net.cpp:408] conv9_1 -> conv9_1
I0326 15:53:44.522145  9033 net.cpp:150] Setting up conv9_1
I0326 15:53:44.522156  9033 net.cpp:157] Top shape: 8 128 3 3 (9216)
I0326 15:53:44.522158  9033 net.cpp:165] Memory required for data: 2660145220
I0326 15:53:44.522163  9033 layer_factory.hpp:77] Creating layer conv9_1_relu
I0326 15:53:44.522167  9033 net.cpp:100] Creating Layer conv9_1_relu
I0326 15:53:44.522171  9033 net.cpp:434] conv9_1_relu <- conv9_1
I0326 15:53:44.522176  9033 net.cpp:395] conv9_1_relu -> conv9_1 (in-place)
I0326 15:53:44.522325  9033 net.cpp:150] Setting up conv9_1_relu
I0326 15:53:44.522333  9033 net.cpp:157] Top shape: 8 128 3 3 (9216)
I0326 15:53:44.522336  9033 net.cpp:165] Memory required for data: 2660182084
I0326 15:53:44.522338  9033 layer_factory.hpp:77] Creating layer conv9_2
I0326 15:53:44.522349  9033 net.cpp:100] Creating Layer conv9_2
I0326 15:53:44.522353  9033 net.cpp:434] conv9_2 <- conv9_1
I0326 15:53:44.522358  9033 net.cpp:408] conv9_2 -> conv9_2_t
I0326 15:53:44.525483  9033 net.cpp:150] Setting up conv9_2
I0326 15:53:44.525496  9033 net.cpp:157] Top shape: 8 256 1 1 (2048)
I0326 15:53:44.525497  9033 net.cpp:165] Memory required for data: 2660190276
I0326 15:53:44.525503  9033 layer_factory.hpp:77] Creating layer conv9_2_relu
I0326 15:53:44.525509  9033 net.cpp:100] Creating Layer conv9_2_relu
I0326 15:53:44.525512  9033 net.cpp:434] conv9_2_relu <- conv9_2_t
I0326 15:53:44.525516  9033 net.cpp:395] conv9_2_relu -> conv9_2_t (in-place)
I0326 15:53:44.526501  9033 net.cpp:150] Setting up conv9_2_relu
I0326 15:53:44.526512  9033 net.cpp:157] Top shape: 8 256 1 1 (2048)
I0326 15:53:44.526515  9033 net.cpp:165] Memory required for data: 2660198468
I0326 15:53:44.526517  9033 layer_factory.hpp:77] Creating layer conv9_2_t_conv9_2_relu_0_split
I0326 15:53:44.526523  9033 net.cpp:100] Creating Layer conv9_2_t_conv9_2_relu_0_split
I0326 15:53:44.526526  9033 net.cpp:434] conv9_2_t_conv9_2_relu_0_split <- conv9_2_t
I0326 15:53:44.526531  9033 net.cpp:408] conv9_2_t_conv9_2_relu_0_split -> conv9_2_t_conv9_2_relu_0_split_0
I0326 15:53:44.526537  9033 net.cpp:408] conv9_2_t_conv9_2_relu_0_split -> conv9_2_t_conv9_2_relu_0_split_1
I0326 15:53:44.526581  9033 net.cpp:150] Setting up conv9_2_t_conv9_2_relu_0_split
I0326 15:53:44.526588  9033 net.cpp:157] Top shape: 8 256 1 1 (2048)
I0326 15:53:44.526592  9033 net.cpp:157] Top shape: 8 256 1 1 (2048)
I0326 15:53:44.526592  9033 net.cpp:165] Memory required for data: 2660214852
I0326 15:53:44.526597  9033 layer_factory.hpp:77] Creating layer conv9_2_s
I0326 15:53:44.526602  9033 net.cpp:100] Creating Layer conv9_2_s
I0326 15:53:44.526603  9033 net.cpp:434] conv9_2_s <- conv9_2_t_conv9_2_relu_0_split_0
I0326 15:53:44.526607  9033 net.cpp:408] conv9_2_s -> conv9_2_s
I0326 15:53:44.526775  9033 net.cpp:150] Setting up conv9_2_s
I0326 15:53:44.526782  9033 net.cpp:157] Top shape: 8 256 1 1 (2048)
I0326 15:53:44.526784  9033 net.cpp:165] Memory required for data: 2660223044
I0326 15:53:44.526787  9033 layer_factory.hpp:77] Creating layer conv9_2_fc1
I0326 15:53:44.526794  9033 net.cpp:100] Creating Layer conv9_2_fc1
I0326 15:53:44.526798  9033 net.cpp:434] conv9_2_fc1 <- conv9_2_s
I0326 15:53:44.526803  9033 net.cpp:408] conv9_2_fc1 -> conv9_2_fc1
I0326 15:53:44.527868  9033 net.cpp:150] Setting up conv9_2_fc1
I0326 15:53:44.527878  9033 net.cpp:157] Top shape: 8 64 1 1 (512)
I0326 15:53:44.527880  9033 net.cpp:165] Memory required for data: 2660225092
I0326 15:53:44.527885  9033 layer_factory.hpp:77] Creating layer conv9_2_relu
I0326 15:53:44.527889  9033 net.cpp:100] Creating Layer conv9_2_relu
I0326 15:53:44.527891  9033 net.cpp:434] conv9_2_relu <- conv9_2_fc1
I0326 15:53:44.527896  9033 net.cpp:395] conv9_2_relu -> conv9_2_fc1 (in-place)
I0326 15:53:44.528048  9033 net.cpp:150] Setting up conv9_2_relu
I0326 15:53:44.528054  9033 net.cpp:157] Top shape: 8 64 1 1 (512)
I0326 15:53:44.528056  9033 net.cpp:165] Memory required for data: 2660227140
I0326 15:53:44.528059  9033 layer_factory.hpp:77] Creating layer conv9_2_fc2
I0326 15:53:44.528067  9033 net.cpp:100] Creating Layer conv9_2_fc2
I0326 15:53:44.528074  9033 net.cpp:434] conv9_2_fc2 <- conv9_2_fc1
I0326 15:53:44.528077  9033 net.cpp:408] conv9_2_fc2 -> conv9_2_fc2
I0326 15:53:44.529122  9033 net.cpp:150] Setting up conv9_2_fc2
I0326 15:53:44.529132  9033 net.cpp:157] Top shape: 8 256 1 1 (2048)
I0326 15:53:44.529135  9033 net.cpp:165] Memory required for data: 2660235332
I0326 15:53:44.529139  9033 layer_factory.hpp:77] Creating layer conv9_2_sig
I0326 15:53:44.529145  9033 net.cpp:100] Creating Layer conv9_2_sig
I0326 15:53:44.529150  9033 net.cpp:434] conv9_2_sig <- conv9_2_fc2
I0326 15:53:44.529155  9033 net.cpp:395] conv9_2_sig -> conv9_2_fc2 (in-place)
I0326 15:53:44.529305  9033 net.cpp:150] Setting up conv9_2_sig
I0326 15:53:44.529312  9033 net.cpp:157] Top shape: 8 256 1 1 (2048)
I0326 15:53:44.529314  9033 net.cpp:165] Memory required for data: 2660243524
I0326 15:53:44.529316  9033 layer_factory.hpp:77] Creating layer conv9_2_reshape
I0326 15:53:44.529323  9033 net.cpp:100] Creating Layer conv9_2_reshape
I0326 15:53:44.529325  9033 net.cpp:434] conv9_2_reshape <- conv9_2_fc2
I0326 15:53:44.529330  9033 net.cpp:408] conv9_2_reshape -> conv9_2_reshape
I0326 15:53:44.529358  9033 net.cpp:150] Setting up conv9_2_reshape
I0326 15:53:44.529364  9033 net.cpp:157] Top shape: 8 256 (2048)
I0326 15:53:44.529367  9033 net.cpp:165] Memory required for data: 2660251716
I0326 15:53:44.529369  9033 layer_factory.hpp:77] Creating layer conv9_2_scale
I0326 15:53:44.529390  9033 net.cpp:100] Creating Layer conv9_2_scale
I0326 15:53:44.529397  9033 net.cpp:434] conv9_2_scale <- conv9_2_t_conv9_2_relu_0_split_1
I0326 15:53:44.529399  9033 net.cpp:434] conv9_2_scale <- conv9_2_reshape
I0326 15:53:44.529403  9033 net.cpp:408] conv9_2_scale -> conv9_2
I0326 15:53:44.529464  9033 net.cpp:150] Setting up conv9_2_scale
I0326 15:53:44.529472  9033 net.cpp:157] Top shape: 8 256 1 1 (2048)
I0326 15:53:44.529475  9033 net.cpp:165] Memory required for data: 2660259908
I0326 15:53:44.529477  9033 layer_factory.hpp:77] Creating layer conv9_2_conv9_2_scale_0_split
I0326 15:53:44.529481  9033 net.cpp:100] Creating Layer conv9_2_conv9_2_scale_0_split
I0326 15:53:44.529484  9033 net.cpp:434] conv9_2_conv9_2_scale_0_split <- conv9_2
I0326 15:53:44.529489  9033 net.cpp:408] conv9_2_conv9_2_scale_0_split -> conv9_2_conv9_2_scale_0_split_0
I0326 15:53:44.529492  9033 net.cpp:408] conv9_2_conv9_2_scale_0_split -> conv9_2_conv9_2_scale_0_split_1
I0326 15:53:44.529496  9033 net.cpp:408] conv9_2_conv9_2_scale_0_split -> conv9_2_conv9_2_scale_0_split_2
I0326 15:53:44.529543  9033 net.cpp:150] Setting up conv9_2_conv9_2_scale_0_split
I0326 15:53:44.529551  9033 net.cpp:157] Top shape: 8 256 1 1 (2048)
I0326 15:53:44.529552  9033 net.cpp:157] Top shape: 8 256 1 1 (2048)
I0326 15:53:44.529556  9033 net.cpp:157] Top shape: 8 256 1 1 (2048)
I0326 15:53:44.529556  9033 net.cpp:165] Memory required for data: 2660284484
I0326 15:53:44.529559  9033 layer_factory.hpp:77] Creating layer conv4_3_norm
I0326 15:53:44.529566  9033 net.cpp:100] Creating Layer conv4_3_norm
I0326 15:53:44.529567  9033 net.cpp:434] conv4_3_norm <- conv4_3_conv4_3_scale_0_split_1
I0326 15:53:44.529572  9033 net.cpp:408] conv4_3_norm -> conv4_3_norm
I0326 15:53:44.529733  9033 net.cpp:150] Setting up conv4_3_norm
I0326 15:53:44.529741  9033 net.cpp:157] Top shape: 8 512 38 38 (5914624)
I0326 15:53:44.529742  9033 net.cpp:165] Memory required for data: 2683942980
I0326 15:53:44.529745  9033 layer_factory.hpp:77] Creating layer conv4_3_norm_conv4_3_norm_0_split
I0326 15:53:44.529750  9033 net.cpp:100] Creating Layer conv4_3_norm_conv4_3_norm_0_split
I0326 15:53:44.529752  9033 net.cpp:434] conv4_3_norm_conv4_3_norm_0_split <- conv4_3_norm
I0326 15:53:44.529757  9033 net.cpp:408] conv4_3_norm_conv4_3_norm_0_split -> conv4_3_norm_conv4_3_norm_0_split_0
I0326 15:53:44.529762  9033 net.cpp:408] conv4_3_norm_conv4_3_norm_0_split -> conv4_3_norm_conv4_3_norm_0_split_1
I0326 15:53:44.529767  9033 net.cpp:408] conv4_3_norm_conv4_3_norm_0_split -> conv4_3_norm_conv4_3_norm_0_split_2
I0326 15:53:44.529808  9033 net.cpp:150] Setting up conv4_3_norm_conv4_3_norm_0_split
I0326 15:53:44.529814  9033 net.cpp:157] Top shape: 8 512 38 38 (5914624)
I0326 15:53:44.529816  9033 net.cpp:157] Top shape: 8 512 38 38 (5914624)
I0326 15:53:44.529819  9033 net.cpp:157] Top shape: 8 512 38 38 (5914624)
I0326 15:53:44.529820  9033 net.cpp:165] Memory required for data: 2754918468
I0326 15:53:44.529822  9033 layer_factory.hpp:77] Creating layer conv4_3_norm_mbox_loc
I0326 15:53:44.529830  9033 net.cpp:100] Creating Layer conv4_3_norm_mbox_loc
I0326 15:53:44.529834  9033 net.cpp:434] conv4_3_norm_mbox_loc <- conv4_3_norm_conv4_3_norm_0_split_0
I0326 15:53:44.529837  9033 net.cpp:408] conv4_3_norm_mbox_loc -> conv4_3_norm_mbox_loc
I0326 15:53:44.531421  9033 net.cpp:150] Setting up conv4_3_norm_mbox_loc
I0326 15:53:44.531432  9033 net.cpp:157] Top shape: 8 16 38 38 (184832)
I0326 15:53:44.531435  9033 net.cpp:165] Memory required for data: 2755657796
I0326 15:53:44.531440  9033 layer_factory.hpp:77] Creating layer conv4_3_norm_mbox_loc_perm
I0326 15:53:44.531445  9033 net.cpp:100] Creating Layer conv4_3_norm_mbox_loc_perm
I0326 15:53:44.531448  9033 net.cpp:434] conv4_3_norm_mbox_loc_perm <- conv4_3_norm_mbox_loc
I0326 15:53:44.531455  9033 net.cpp:408] conv4_3_norm_mbox_loc_perm -> conv4_3_norm_mbox_loc_perm
I0326 15:53:44.531558  9033 net.cpp:150] Setting up conv4_3_norm_mbox_loc_perm
I0326 15:53:44.531564  9033 net.cpp:157] Top shape: 8 38 38 16 (184832)
I0326 15:53:44.531566  9033 net.cpp:165] Memory required for data: 2756397124
I0326 15:53:44.531569  9033 layer_factory.hpp:77] Creating layer conv4_3_norm_mbox_loc_flat
I0326 15:53:44.531574  9033 net.cpp:100] Creating Layer conv4_3_norm_mbox_loc_flat
I0326 15:53:44.531576  9033 net.cpp:434] conv4_3_norm_mbox_loc_flat <- conv4_3_norm_mbox_loc_perm
I0326 15:53:44.531580  9033 net.cpp:408] conv4_3_norm_mbox_loc_flat -> conv4_3_norm_mbox_loc_flat
I0326 15:53:44.531605  9033 net.cpp:150] Setting up conv4_3_norm_mbox_loc_flat
I0326 15:53:44.531610  9033 net.cpp:157] Top shape: 8 23104 (184832)
I0326 15:53:44.531613  9033 net.cpp:165] Memory required for data: 2757136452
I0326 15:53:44.531615  9033 layer_factory.hpp:77] Creating layer conv4_3_norm_mbox_conf
I0326 15:53:44.531623  9033 net.cpp:100] Creating Layer conv4_3_norm_mbox_conf
I0326 15:53:44.531625  9033 net.cpp:434] conv4_3_norm_mbox_conf <- conv4_3_norm_conv4_3_norm_0_split_1
I0326 15:53:44.531630  9033 net.cpp:408] conv4_3_norm_mbox_conf -> conv4_3_norm_mbox_conf
I0326 15:53:44.535148  9033 net.cpp:150] Setting up conv4_3_norm_mbox_conf
I0326 15:53:44.535162  9033 net.cpp:157] Top shape: 8 84 38 38 (970368)
I0326 15:53:44.535164  9033 net.cpp:165] Memory required for data: 2761017924
I0326 15:53:44.535169  9033 layer_factory.hpp:77] Creating layer conv4_3_norm_mbox_conf_perm
I0326 15:53:44.535174  9033 net.cpp:100] Creating Layer conv4_3_norm_mbox_conf_perm
I0326 15:53:44.535178  9033 net.cpp:434] conv4_3_norm_mbox_conf_perm <- conv4_3_norm_mbox_conf
I0326 15:53:44.535183  9033 net.cpp:408] conv4_3_norm_mbox_conf_perm -> conv4_3_norm_mbox_conf_perm
I0326 15:53:44.535284  9033 net.cpp:150] Setting up conv4_3_norm_mbox_conf_perm
I0326 15:53:44.535290  9033 net.cpp:157] Top shape: 8 38 38 84 (970368)
I0326 15:53:44.535302  9033 net.cpp:165] Memory required for data: 2764899396
I0326 15:53:44.535305  9033 layer_factory.hpp:77] Creating layer conv4_3_norm_mbox_conf_flat
I0326 15:53:44.535310  9033 net.cpp:100] Creating Layer conv4_3_norm_mbox_conf_flat
I0326 15:53:44.535312  9033 net.cpp:434] conv4_3_norm_mbox_conf_flat <- conv4_3_norm_mbox_conf_perm
I0326 15:53:44.535317  9033 net.cpp:408] conv4_3_norm_mbox_conf_flat -> conv4_3_norm_mbox_conf_flat
I0326 15:53:44.535341  9033 net.cpp:150] Setting up conv4_3_norm_mbox_conf_flat
I0326 15:53:44.535346  9033 net.cpp:157] Top shape: 8 121296 (970368)
I0326 15:53:44.535349  9033 net.cpp:165] Memory required for data: 2768780868
I0326 15:53:44.535351  9033 layer_factory.hpp:77] Creating layer conv4_3_norm_mbox_priorbox
I0326 15:53:44.535359  9033 net.cpp:100] Creating Layer conv4_3_norm_mbox_priorbox
I0326 15:53:44.535362  9033 net.cpp:434] conv4_3_norm_mbox_priorbox <- conv4_3_norm_conv4_3_norm_0_split_2
I0326 15:53:44.535365  9033 net.cpp:434] conv4_3_norm_mbox_priorbox <- data_data_0_split_1
I0326 15:53:44.535370  9033 net.cpp:408] conv4_3_norm_mbox_priorbox -> conv4_3_norm_mbox_priorbox
I0326 15:53:44.535398  9033 net.cpp:150] Setting up conv4_3_norm_mbox_priorbox
I0326 15:53:44.535403  9033 net.cpp:157] Top shape: 1 2 23104 (46208)
I0326 15:53:44.535405  9033 net.cpp:165] Memory required for data: 2768965700
I0326 15:53:44.535408  9033 layer_factory.hpp:77] Creating layer fc7_mbox_loc
I0326 15:53:44.535416  9033 net.cpp:100] Creating Layer fc7_mbox_loc
I0326 15:53:44.535419  9033 net.cpp:434] fc7_mbox_loc <- fc7_fc7_scale_0_split_1
I0326 15:53:44.535424  9033 net.cpp:408] fc7_mbox_loc -> fc7_mbox_loc
I0326 15:53:44.537564  9033 net.cpp:150] Setting up fc7_mbox_loc
I0326 15:53:44.537575  9033 net.cpp:157] Top shape: 8 24 19 19 (69312)
I0326 15:53:44.537577  9033 net.cpp:165] Memory required for data: 2769242948
I0326 15:53:44.537583  9033 layer_factory.hpp:77] Creating layer fc7_mbox_loc_perm
I0326 15:53:44.537588  9033 net.cpp:100] Creating Layer fc7_mbox_loc_perm
I0326 15:53:44.537591  9033 net.cpp:434] fc7_mbox_loc_perm <- fc7_mbox_loc
I0326 15:53:44.537595  9033 net.cpp:408] fc7_mbox_loc_perm -> fc7_mbox_loc_perm
I0326 15:53:44.537694  9033 net.cpp:150] Setting up fc7_mbox_loc_perm
I0326 15:53:44.537701  9033 net.cpp:157] Top shape: 8 19 19 24 (69312)
I0326 15:53:44.537703  9033 net.cpp:165] Memory required for data: 2769520196
I0326 15:53:44.537705  9033 layer_factory.hpp:77] Creating layer fc7_mbox_loc_flat
I0326 15:53:44.537709  9033 net.cpp:100] Creating Layer fc7_mbox_loc_flat
I0326 15:53:44.537711  9033 net.cpp:434] fc7_mbox_loc_flat <- fc7_mbox_loc_perm
I0326 15:53:44.537716  9033 net.cpp:408] fc7_mbox_loc_flat -> fc7_mbox_loc_flat
I0326 15:53:44.537739  9033 net.cpp:150] Setting up fc7_mbox_loc_flat
I0326 15:53:44.537744  9033 net.cpp:157] Top shape: 8 8664 (69312)
I0326 15:53:44.537746  9033 net.cpp:165] Memory required for data: 2769797444
I0326 15:53:44.537748  9033 layer_factory.hpp:77] Creating layer fc7_mbox_conf
I0326 15:53:44.537755  9033 net.cpp:100] Creating Layer fc7_mbox_conf
I0326 15:53:44.537757  9033 net.cpp:434] fc7_mbox_conf <- fc7_fc7_scale_0_split_2
I0326 15:53:44.537763  9033 net.cpp:408] fc7_mbox_conf -> fc7_mbox_conf
I0326 15:53:44.545166  9033 net.cpp:150] Setting up fc7_mbox_conf
I0326 15:53:44.545189  9033 net.cpp:157] Top shape: 8 126 19 19 (363888)
I0326 15:53:44.545193  9033 net.cpp:165] Memory required for data: 2771252996
I0326 15:53:44.545202  9033 layer_factory.hpp:77] Creating layer fc7_mbox_conf_perm
I0326 15:53:44.545213  9033 net.cpp:100] Creating Layer fc7_mbox_conf_perm
I0326 15:53:44.545217  9033 net.cpp:434] fc7_mbox_conf_perm <- fc7_mbox_conf
I0326 15:53:44.545223  9033 net.cpp:408] fc7_mbox_conf_perm -> fc7_mbox_conf_perm
I0326 15:53:44.545331  9033 net.cpp:150] Setting up fc7_mbox_conf_perm
I0326 15:53:44.545338  9033 net.cpp:157] Top shape: 8 19 19 126 (363888)
I0326 15:53:44.545341  9033 net.cpp:165] Memory required for data: 2772708548
I0326 15:53:44.545342  9033 layer_factory.hpp:77] Creating layer fc7_mbox_conf_flat
I0326 15:53:44.545367  9033 net.cpp:100] Creating Layer fc7_mbox_conf_flat
I0326 15:53:44.545370  9033 net.cpp:434] fc7_mbox_conf_flat <- fc7_mbox_conf_perm
I0326 15:53:44.545374  9033 net.cpp:408] fc7_mbox_conf_flat -> fc7_mbox_conf_flat
I0326 15:53:44.545400  9033 net.cpp:150] Setting up fc7_mbox_conf_flat
I0326 15:53:44.545406  9033 net.cpp:157] Top shape: 8 45486 (363888)
I0326 15:53:44.545408  9033 net.cpp:165] Memory required for data: 2774164100
I0326 15:53:44.545410  9033 layer_factory.hpp:77] Creating layer fc7_mbox_priorbox
I0326 15:53:44.545418  9033 net.cpp:100] Creating Layer fc7_mbox_priorbox
I0326 15:53:44.545421  9033 net.cpp:434] fc7_mbox_priorbox <- fc7_fc7_scale_0_split_3
I0326 15:53:44.545425  9033 net.cpp:434] fc7_mbox_priorbox <- data_data_0_split_2
I0326 15:53:44.545430  9033 net.cpp:408] fc7_mbox_priorbox -> fc7_mbox_priorbox
I0326 15:53:44.545459  9033 net.cpp:150] Setting up fc7_mbox_priorbox
I0326 15:53:44.545465  9033 net.cpp:157] Top shape: 1 2 8664 (17328)
I0326 15:53:44.545469  9033 net.cpp:165] Memory required for data: 2774233412
I0326 15:53:44.545470  9033 layer_factory.hpp:77] Creating layer conv6_2_mbox_loc
I0326 15:53:44.545481  9033 net.cpp:100] Creating Layer conv6_2_mbox_loc
I0326 15:53:44.545488  9033 net.cpp:434] conv6_2_mbox_loc <- conv6_2_conv6_2_scale_0_split_1
I0326 15:53:44.545493  9033 net.cpp:408] conv6_2_mbox_loc -> conv6_2_mbox_loc
I0326 15:53:44.547749  9033 net.cpp:150] Setting up conv6_2_mbox_loc
I0326 15:53:44.547760  9033 net.cpp:157] Top shape: 8 24 10 10 (19200)
I0326 15:53:44.547762  9033 net.cpp:165] Memory required for data: 2774310212
I0326 15:53:44.547767  9033 layer_factory.hpp:77] Creating layer conv6_2_mbox_loc_perm
I0326 15:53:44.547773  9033 net.cpp:100] Creating Layer conv6_2_mbox_loc_perm
I0326 15:53:44.547775  9033 net.cpp:434] conv6_2_mbox_loc_perm <- conv6_2_mbox_loc
I0326 15:53:44.547780  9033 net.cpp:408] conv6_2_mbox_loc_perm -> conv6_2_mbox_loc_perm
I0326 15:53:44.547883  9033 net.cpp:150] Setting up conv6_2_mbox_loc_perm
I0326 15:53:44.547889  9033 net.cpp:157] Top shape: 8 10 10 24 (19200)
I0326 15:53:44.547891  9033 net.cpp:165] Memory required for data: 2774387012
I0326 15:53:44.547894  9033 layer_factory.hpp:77] Creating layer conv6_2_mbox_loc_flat
I0326 15:53:44.547899  9033 net.cpp:100] Creating Layer conv6_2_mbox_loc_flat
I0326 15:53:44.547900  9033 net.cpp:434] conv6_2_mbox_loc_flat <- conv6_2_mbox_loc_perm
I0326 15:53:44.547905  9033 net.cpp:408] conv6_2_mbox_loc_flat -> conv6_2_mbox_loc_flat
I0326 15:53:44.547930  9033 net.cpp:150] Setting up conv6_2_mbox_loc_flat
I0326 15:53:44.547935  9033 net.cpp:157] Top shape: 8 2400 (19200)
I0326 15:53:44.547935  9033 net.cpp:165] Memory required for data: 2774463812
I0326 15:53:44.547937  9033 layer_factory.hpp:77] Creating layer conv6_2_mbox_conf
I0326 15:53:44.547945  9033 net.cpp:100] Creating Layer conv6_2_mbox_conf
I0326 15:53:44.547947  9033 net.cpp:434] conv6_2_mbox_conf <- conv6_2_conv6_2_scale_0_split_2
I0326 15:53:44.547952  9033 net.cpp:408] conv6_2_mbox_conf -> conv6_2_mbox_conf
I0326 15:53:44.552356  9033 net.cpp:150] Setting up conv6_2_mbox_conf
I0326 15:53:44.552368  9033 net.cpp:157] Top shape: 8 126 10 10 (100800)
I0326 15:53:44.552371  9033 net.cpp:165] Memory required for data: 2774867012
I0326 15:53:44.552379  9033 layer_factory.hpp:77] Creating layer conv6_2_mbox_conf_perm
I0326 15:53:44.552392  9033 net.cpp:100] Creating Layer conv6_2_mbox_conf_perm
I0326 15:53:44.552397  9033 net.cpp:434] conv6_2_mbox_conf_perm <- conv6_2_mbox_conf
I0326 15:53:44.552402  9033 net.cpp:408] conv6_2_mbox_conf_perm -> conv6_2_mbox_conf_perm
I0326 15:53:44.552505  9033 net.cpp:150] Setting up conv6_2_mbox_conf_perm
I0326 15:53:44.552512  9033 net.cpp:157] Top shape: 8 10 10 126 (100800)
I0326 15:53:44.552515  9033 net.cpp:165] Memory required for data: 2775270212
I0326 15:53:44.552516  9033 layer_factory.hpp:77] Creating layer conv6_2_mbox_conf_flat
I0326 15:53:44.552521  9033 net.cpp:100] Creating Layer conv6_2_mbox_conf_flat
I0326 15:53:44.552526  9033 net.cpp:434] conv6_2_mbox_conf_flat <- conv6_2_mbox_conf_perm
I0326 15:53:44.552541  9033 net.cpp:408] conv6_2_mbox_conf_flat -> conv6_2_mbox_conf_flat
I0326 15:53:44.552567  9033 net.cpp:150] Setting up conv6_2_mbox_conf_flat
I0326 15:53:44.552572  9033 net.cpp:157] Top shape: 8 12600 (100800)
I0326 15:53:44.552574  9033 net.cpp:165] Memory required for data: 2775673412
I0326 15:53:44.552577  9033 layer_factory.hpp:77] Creating layer conv6_2_mbox_priorbox
I0326 15:53:44.552582  9033 net.cpp:100] Creating Layer conv6_2_mbox_priorbox
I0326 15:53:44.552587  9033 net.cpp:434] conv6_2_mbox_priorbox <- conv6_2_conv6_2_scale_0_split_3
I0326 15:53:44.552590  9033 net.cpp:434] conv6_2_mbox_priorbox <- data_data_0_split_3
I0326 15:53:44.552594  9033 net.cpp:408] conv6_2_mbox_priorbox -> conv6_2_mbox_priorbox
I0326 15:53:44.552618  9033 net.cpp:150] Setting up conv6_2_mbox_priorbox
I0326 15:53:44.552623  9033 net.cpp:157] Top shape: 1 2 2400 (4800)
I0326 15:53:44.552624  9033 net.cpp:165] Memory required for data: 2775692612
I0326 15:53:44.552628  9033 layer_factory.hpp:77] Creating layer conv7_2_mbox_loc
I0326 15:53:44.552634  9033 net.cpp:100] Creating Layer conv7_2_mbox_loc
I0326 15:53:44.552637  9033 net.cpp:434] conv7_2_mbox_loc <- conv7_2_conv7_2_scale_0_split_1
I0326 15:53:44.552642  9033 net.cpp:408] conv7_2_mbox_loc -> conv7_2_mbox_loc
I0326 15:53:44.554766  9033 net.cpp:150] Setting up conv7_2_mbox_loc
I0326 15:53:44.554777  9033 net.cpp:157] Top shape: 8 24 5 5 (4800)
I0326 15:53:44.554780  9033 net.cpp:165] Memory required for data: 2775711812
I0326 15:53:44.554785  9033 layer_factory.hpp:77] Creating layer conv7_2_mbox_loc_perm
I0326 15:53:44.554790  9033 net.cpp:100] Creating Layer conv7_2_mbox_loc_perm
I0326 15:53:44.554793  9033 net.cpp:434] conv7_2_mbox_loc_perm <- conv7_2_mbox_loc
I0326 15:53:44.554798  9033 net.cpp:408] conv7_2_mbox_loc_perm -> conv7_2_mbox_loc_perm
I0326 15:53:44.554901  9033 net.cpp:150] Setting up conv7_2_mbox_loc_perm
I0326 15:53:44.554908  9033 net.cpp:157] Top shape: 8 5 5 24 (4800)
I0326 15:53:44.554910  9033 net.cpp:165] Memory required for data: 2775731012
I0326 15:53:44.554913  9033 layer_factory.hpp:77] Creating layer conv7_2_mbox_loc_flat
I0326 15:53:44.554916  9033 net.cpp:100] Creating Layer conv7_2_mbox_loc_flat
I0326 15:53:44.554919  9033 net.cpp:434] conv7_2_mbox_loc_flat <- conv7_2_mbox_loc_perm
I0326 15:53:44.554924  9033 net.cpp:408] conv7_2_mbox_loc_flat -> conv7_2_mbox_loc_flat
I0326 15:53:44.554960  9033 net.cpp:150] Setting up conv7_2_mbox_loc_flat
I0326 15:53:44.554965  9033 net.cpp:157] Top shape: 8 600 (4800)
I0326 15:53:44.554968  9033 net.cpp:165] Memory required for data: 2775750212
I0326 15:53:44.554972  9033 layer_factory.hpp:77] Creating layer conv7_2_mbox_conf
I0326 15:53:44.554983  9033 net.cpp:100] Creating Layer conv7_2_mbox_conf
I0326 15:53:44.554988  9033 net.cpp:434] conv7_2_mbox_conf <- conv7_2_conv7_2_scale_0_split_2
I0326 15:53:44.554997  9033 net.cpp:408] conv7_2_mbox_conf -> conv7_2_mbox_conf
I0326 15:53:44.558224  9033 net.cpp:150] Setting up conv7_2_mbox_conf
I0326 15:53:44.558243  9033 net.cpp:157] Top shape: 8 126 5 5 (25200)
I0326 15:53:44.558248  9033 net.cpp:165] Memory required for data: 2775851012
I0326 15:53:44.558255  9033 layer_factory.hpp:77] Creating layer conv7_2_mbox_conf_perm
I0326 15:53:44.558265  9033 net.cpp:100] Creating Layer conv7_2_mbox_conf_perm
I0326 15:53:44.558274  9033 net.cpp:434] conv7_2_mbox_conf_perm <- conv7_2_mbox_conf
I0326 15:53:44.558282  9033 net.cpp:408] conv7_2_mbox_conf_perm -> conv7_2_mbox_conf_perm
I0326 15:53:44.558401  9033 net.cpp:150] Setting up conv7_2_mbox_conf_perm
I0326 15:53:44.558408  9033 net.cpp:157] Top shape: 8 5 5 126 (25200)
I0326 15:53:44.558410  9033 net.cpp:165] Memory required for data: 2775951812
I0326 15:53:44.558413  9033 layer_factory.hpp:77] Creating layer conv7_2_mbox_conf_flat
I0326 15:53:44.558418  9033 net.cpp:100] Creating Layer conv7_2_mbox_conf_flat
I0326 15:53:44.558421  9033 net.cpp:434] conv7_2_mbox_conf_flat <- conv7_2_mbox_conf_perm
I0326 15:53:44.558426  9033 net.cpp:408] conv7_2_mbox_conf_flat -> conv7_2_mbox_conf_flat
I0326 15:53:44.558467  9033 net.cpp:150] Setting up conv7_2_mbox_conf_flat
I0326 15:53:44.558471  9033 net.cpp:157] Top shape: 8 3150 (25200)
I0326 15:53:44.558473  9033 net.cpp:165] Memory required for data: 2776052612
I0326 15:53:44.558475  9033 layer_factory.hpp:77] Creating layer conv7_2_mbox_priorbox
I0326 15:53:44.558482  9033 net.cpp:100] Creating Layer conv7_2_mbox_priorbox
I0326 15:53:44.558487  9033 net.cpp:434] conv7_2_mbox_priorbox <- conv7_2_conv7_2_scale_0_split_3
I0326 15:53:44.558493  9033 net.cpp:434] conv7_2_mbox_priorbox <- data_data_0_split_4
I0326 15:53:44.558501  9033 net.cpp:408] conv7_2_mbox_priorbox -> conv7_2_mbox_priorbox
I0326 15:53:44.558533  9033 net.cpp:150] Setting up conv7_2_mbox_priorbox
I0326 15:53:44.558540  9033 net.cpp:157] Top shape: 1 2 600 (1200)
I0326 15:53:44.558543  9033 net.cpp:165] Memory required for data: 2776057412
I0326 15:53:44.558547  9033 layer_factory.hpp:77] Creating layer conv8_2_mbox_loc
I0326 15:53:44.558563  9033 net.cpp:100] Creating Layer conv8_2_mbox_loc
I0326 15:53:44.558568  9033 net.cpp:434] conv8_2_mbox_loc <- conv8_2_conv8_2_scale_0_split_1
I0326 15:53:44.558578  9033 net.cpp:408] conv8_2_mbox_loc -> conv8_2_mbox_loc
I0326 15:53:44.559979  9033 net.cpp:150] Setting up conv8_2_mbox_loc
I0326 15:53:44.559989  9033 net.cpp:157] Top shape: 8 16 3 3 (1152)
I0326 15:53:44.559991  9033 net.cpp:165] Memory required for data: 2776062020
I0326 15:53:44.559998  9033 layer_factory.hpp:77] Creating layer conv8_2_mbox_loc_perm
I0326 15:53:44.560003  9033 net.cpp:100] Creating Layer conv8_2_mbox_loc_perm
I0326 15:53:44.560006  9033 net.cpp:434] conv8_2_mbox_loc_perm <- conv8_2_mbox_loc
I0326 15:53:44.560010  9033 net.cpp:408] conv8_2_mbox_loc_perm -> conv8_2_mbox_loc_perm
I0326 15:53:44.560120  9033 net.cpp:150] Setting up conv8_2_mbox_loc_perm
I0326 15:53:44.560127  9033 net.cpp:157] Top shape: 8 3 3 16 (1152)
I0326 15:53:44.560128  9033 net.cpp:165] Memory required for data: 2776066628
I0326 15:53:44.560130  9033 layer_factory.hpp:77] Creating layer conv8_2_mbox_loc_flat
I0326 15:53:44.560135  9033 net.cpp:100] Creating Layer conv8_2_mbox_loc_flat
I0326 15:53:44.560137  9033 net.cpp:434] conv8_2_mbox_loc_flat <- conv8_2_mbox_loc_perm
I0326 15:53:44.560142  9033 net.cpp:408] conv8_2_mbox_loc_flat -> conv8_2_mbox_loc_flat
I0326 15:53:44.560166  9033 net.cpp:150] Setting up conv8_2_mbox_loc_flat
I0326 15:53:44.560173  9033 net.cpp:157] Top shape: 8 144 (1152)
I0326 15:53:44.560174  9033 net.cpp:165] Memory required for data: 2776071236
I0326 15:53:44.560176  9033 layer_factory.hpp:77] Creating layer conv8_2_mbox_conf
I0326 15:53:44.560184  9033 net.cpp:100] Creating Layer conv8_2_mbox_conf
I0326 15:53:44.560190  9033 net.cpp:434] conv8_2_mbox_conf <- conv8_2_conv8_2_scale_0_split_2
I0326 15:53:44.560196  9033 net.cpp:408] conv8_2_mbox_conf -> conv8_2_mbox_conf
I0326 15:53:44.562372  9033 net.cpp:150] Setting up conv8_2_mbox_conf
I0326 15:53:44.562387  9033 net.cpp:157] Top shape: 8 84 3 3 (6048)
I0326 15:53:44.562391  9033 net.cpp:165] Memory required for data: 2776095428
I0326 15:53:44.562397  9033 layer_factory.hpp:77] Creating layer conv8_2_mbox_conf_perm
I0326 15:53:44.562403  9033 net.cpp:100] Creating Layer conv8_2_mbox_conf_perm
I0326 15:53:44.562407  9033 net.cpp:434] conv8_2_mbox_conf_perm <- conv8_2_mbox_conf
I0326 15:53:44.562412  9033 net.cpp:408] conv8_2_mbox_conf_perm -> conv8_2_mbox_conf_perm
I0326 15:53:44.562517  9033 net.cpp:150] Setting up conv8_2_mbox_conf_perm
I0326 15:53:44.562523  9033 net.cpp:157] Top shape: 8 3 3 84 (6048)
I0326 15:53:44.562525  9033 net.cpp:165] Memory required for data: 2776119620
I0326 15:53:44.562527  9033 layer_factory.hpp:77] Creating layer conv8_2_mbox_conf_flat
I0326 15:53:44.562531  9033 net.cpp:100] Creating Layer conv8_2_mbox_conf_flat
I0326 15:53:44.562535  9033 net.cpp:434] conv8_2_mbox_conf_flat <- conv8_2_mbox_conf_perm
I0326 15:53:44.562538  9033 net.cpp:408] conv8_2_mbox_conf_flat -> conv8_2_mbox_conf_flat
I0326 15:53:44.562562  9033 net.cpp:150] Setting up conv8_2_mbox_conf_flat
I0326 15:53:44.562582  9033 net.cpp:157] Top shape: 8 756 (6048)
I0326 15:53:44.562584  9033 net.cpp:165] Memory required for data: 2776143812
I0326 15:53:44.562587  9033 layer_factory.hpp:77] Creating layer conv8_2_mbox_priorbox
I0326 15:53:44.562592  9033 net.cpp:100] Creating Layer conv8_2_mbox_priorbox
I0326 15:53:44.562595  9033 net.cpp:434] conv8_2_mbox_priorbox <- conv8_2_conv8_2_scale_0_split_3
I0326 15:53:44.562598  9033 net.cpp:434] conv8_2_mbox_priorbox <- data_data_0_split_5
I0326 15:53:44.562604  9033 net.cpp:408] conv8_2_mbox_priorbox -> conv8_2_mbox_priorbox
I0326 15:53:44.562633  9033 net.cpp:150] Setting up conv8_2_mbox_priorbox
I0326 15:53:44.562639  9033 net.cpp:157] Top shape: 1 2 144 (288)
I0326 15:53:44.562641  9033 net.cpp:165] Memory required for data: 2776144964
I0326 15:53:44.562644  9033 layer_factory.hpp:77] Creating layer conv9_2_mbox_loc
I0326 15:53:44.562651  9033 net.cpp:100] Creating Layer conv9_2_mbox_loc
I0326 15:53:44.562657  9033 net.cpp:434] conv9_2_mbox_loc <- conv9_2_conv9_2_scale_0_split_0
I0326 15:53:44.562662  9033 net.cpp:408] conv9_2_mbox_loc -> conv9_2_mbox_loc
I0326 15:53:44.563804  9033 net.cpp:150] Setting up conv9_2_mbox_loc
I0326 15:53:44.563817  9033 net.cpp:157] Top shape: 8 16 1 1 (128)
I0326 15:53:44.563818  9033 net.cpp:165] Memory required for data: 2776145476
I0326 15:53:44.563822  9033 layer_factory.hpp:77] Creating layer conv9_2_mbox_loc_perm
I0326 15:53:44.563827  9033 net.cpp:100] Creating Layer conv9_2_mbox_loc_perm
I0326 15:53:44.563830  9033 net.cpp:434] conv9_2_mbox_loc_perm <- conv9_2_mbox_loc
I0326 15:53:44.563835  9033 net.cpp:408] conv9_2_mbox_loc_perm -> conv9_2_mbox_loc_perm
I0326 15:53:44.563936  9033 net.cpp:150] Setting up conv9_2_mbox_loc_perm
I0326 15:53:44.563942  9033 net.cpp:157] Top shape: 8 1 1 16 (128)
I0326 15:53:44.563944  9033 net.cpp:165] Memory required for data: 2776145988
I0326 15:53:44.563946  9033 layer_factory.hpp:77] Creating layer conv9_2_mbox_loc_flat
I0326 15:53:44.563951  9033 net.cpp:100] Creating Layer conv9_2_mbox_loc_flat
I0326 15:53:44.563953  9033 net.cpp:434] conv9_2_mbox_loc_flat <- conv9_2_mbox_loc_perm
I0326 15:53:44.563957  9033 net.cpp:408] conv9_2_mbox_loc_flat -> conv9_2_mbox_loc_flat
I0326 15:53:44.563982  9033 net.cpp:150] Setting up conv9_2_mbox_loc_flat
I0326 15:53:44.563987  9033 net.cpp:157] Top shape: 8 16 (128)
I0326 15:53:44.563989  9033 net.cpp:165] Memory required for data: 2776146500
I0326 15:53:44.563992  9033 layer_factory.hpp:77] Creating layer conv9_2_mbox_conf
I0326 15:53:44.563999  9033 net.cpp:100] Creating Layer conv9_2_mbox_conf
I0326 15:53:44.564002  9033 net.cpp:434] conv9_2_mbox_conf <- conv9_2_conv9_2_scale_0_split_1
I0326 15:53:44.564007  9033 net.cpp:408] conv9_2_mbox_conf -> conv9_2_mbox_conf
I0326 15:53:44.566556  9033 net.cpp:150] Setting up conv9_2_mbox_conf
I0326 15:53:44.566567  9033 net.cpp:157] Top shape: 8 84 1 1 (672)
I0326 15:53:44.566570  9033 net.cpp:165] Memory required for data: 2776149188
I0326 15:53:44.566574  9033 layer_factory.hpp:77] Creating layer conv9_2_mbox_conf_perm
I0326 15:53:44.566581  9033 net.cpp:100] Creating Layer conv9_2_mbox_conf_perm
I0326 15:53:44.566586  9033 net.cpp:434] conv9_2_mbox_conf_perm <- conv9_2_mbox_conf
I0326 15:53:44.566589  9033 net.cpp:408] conv9_2_mbox_conf_perm -> conv9_2_mbox_conf_perm
I0326 15:53:44.566699  9033 net.cpp:150] Setting up conv9_2_mbox_conf_perm
I0326 15:53:44.566705  9033 net.cpp:157] Top shape: 8 1 1 84 (672)
I0326 15:53:44.566707  9033 net.cpp:165] Memory required for data: 2776151876
I0326 15:53:44.566709  9033 layer_factory.hpp:77] Creating layer conv9_2_mbox_conf_flat
I0326 15:53:44.566714  9033 net.cpp:100] Creating Layer conv9_2_mbox_conf_flat
I0326 15:53:44.566716  9033 net.cpp:434] conv9_2_mbox_conf_flat <- conv9_2_mbox_conf_perm
I0326 15:53:44.566720  9033 net.cpp:408] conv9_2_mbox_conf_flat -> conv9_2_mbox_conf_flat
I0326 15:53:44.566745  9033 net.cpp:150] Setting up conv9_2_mbox_conf_flat
I0326 15:53:44.566751  9033 net.cpp:157] Top shape: 8 84 (672)
I0326 15:53:44.566752  9033 net.cpp:165] Memory required for data: 2776154564
I0326 15:53:44.566764  9033 layer_factory.hpp:77] Creating layer conv9_2_mbox_priorbox
I0326 15:53:44.566769  9033 net.cpp:100] Creating Layer conv9_2_mbox_priorbox
I0326 15:53:44.566771  9033 net.cpp:434] conv9_2_mbox_priorbox <- conv9_2_conv9_2_scale_0_split_2
I0326 15:53:44.566776  9033 net.cpp:434] conv9_2_mbox_priorbox <- data_data_0_split_6
I0326 15:53:44.566781  9033 net.cpp:408] conv9_2_mbox_priorbox -> conv9_2_mbox_priorbox
I0326 15:53:44.566807  9033 net.cpp:150] Setting up conv9_2_mbox_priorbox
I0326 15:53:44.566812  9033 net.cpp:157] Top shape: 1 2 16 (32)
I0326 15:53:44.566814  9033 net.cpp:165] Memory required for data: 2776154692
I0326 15:53:44.566817  9033 layer_factory.hpp:77] Creating layer mbox_loc
I0326 15:53:44.566821  9033 net.cpp:100] Creating Layer mbox_loc
I0326 15:53:44.566824  9033 net.cpp:434] mbox_loc <- conv4_3_norm_mbox_loc_flat
I0326 15:53:44.566830  9033 net.cpp:434] mbox_loc <- fc7_mbox_loc_flat
I0326 15:53:44.566834  9033 net.cpp:434] mbox_loc <- conv6_2_mbox_loc_flat
I0326 15:53:44.566836  9033 net.cpp:434] mbox_loc <- conv7_2_mbox_loc_flat
I0326 15:53:44.566839  9033 net.cpp:434] mbox_loc <- conv8_2_mbox_loc_flat
I0326 15:53:44.566843  9033 net.cpp:434] mbox_loc <- conv9_2_mbox_loc_flat
I0326 15:53:44.566845  9033 net.cpp:408] mbox_loc -> mbox_loc
I0326 15:53:44.566874  9033 net.cpp:150] Setting up mbox_loc
I0326 15:53:44.566879  9033 net.cpp:157] Top shape: 8 34928 (279424)
I0326 15:53:44.566882  9033 net.cpp:165] Memory required for data: 2777272388
I0326 15:53:44.566884  9033 layer_factory.hpp:77] Creating layer mbox_conf
I0326 15:53:44.566889  9033 net.cpp:100] Creating Layer mbox_conf
I0326 15:53:44.566890  9033 net.cpp:434] mbox_conf <- conv4_3_norm_mbox_conf_flat
I0326 15:53:44.566895  9033 net.cpp:434] mbox_conf <- fc7_mbox_conf_flat
I0326 15:53:44.566897  9033 net.cpp:434] mbox_conf <- conv6_2_mbox_conf_flat
I0326 15:53:44.566900  9033 net.cpp:434] mbox_conf <- conv7_2_mbox_conf_flat
I0326 15:53:44.566902  9033 net.cpp:434] mbox_conf <- conv8_2_mbox_conf_flat
I0326 15:53:44.566905  9033 net.cpp:434] mbox_conf <- conv9_2_mbox_conf_flat
I0326 15:53:44.566910  9033 net.cpp:408] mbox_conf -> mbox_conf
I0326 15:53:44.566931  9033 net.cpp:150] Setting up mbox_conf
I0326 15:53:44.566936  9033 net.cpp:157] Top shape: 8 183372 (1466976)
I0326 15:53:44.566939  9033 net.cpp:165] Memory required for data: 2783140292
I0326 15:53:44.566941  9033 layer_factory.hpp:77] Creating layer mbox_priorbox
I0326 15:53:44.566944  9033 net.cpp:100] Creating Layer mbox_priorbox
I0326 15:53:44.566946  9033 net.cpp:434] mbox_priorbox <- conv4_3_norm_mbox_priorbox
I0326 15:53:44.566951  9033 net.cpp:434] mbox_priorbox <- fc7_mbox_priorbox
I0326 15:53:44.566952  9033 net.cpp:434] mbox_priorbox <- conv6_2_mbox_priorbox
I0326 15:53:44.566956  9033 net.cpp:434] mbox_priorbox <- conv7_2_mbox_priorbox
I0326 15:53:44.566957  9033 net.cpp:434] mbox_priorbox <- conv8_2_mbox_priorbox
I0326 15:53:44.566961  9033 net.cpp:434] mbox_priorbox <- conv9_2_mbox_priorbox
I0326 15:53:44.566964  9033 net.cpp:408] mbox_priorbox -> mbox_priorbox
I0326 15:53:44.566987  9033 net.cpp:150] Setting up mbox_priorbox
I0326 15:53:44.566993  9033 net.cpp:157] Top shape: 1 2 34928 (69856)
I0326 15:53:44.566996  9033 net.cpp:165] Memory required for data: 2783419716
I0326 15:53:44.566998  9033 layer_factory.hpp:77] Creating layer mbox_loss
I0326 15:53:44.567006  9033 net.cpp:100] Creating Layer mbox_loss
I0326 15:53:44.567008  9033 net.cpp:434] mbox_loss <- mbox_loc
I0326 15:53:44.567011  9033 net.cpp:434] mbox_loss <- mbox_conf
I0326 15:53:44.567013  9033 net.cpp:434] mbox_loss <- mbox_priorbox
…
state {
  phase: TEST
}
layer {
  name: "data"
  type: "AnnotatedData"
  top: "data"
  top: "label"
  include {
    phase: TEST
  }
  transform_param {
    mean_value: 104
    mean_value: 117
    mean_value: 123
    resize_param {
      prob: 1
      resize_mode: WARP
      height: 300
      width: 300
      interp_mode: LINEAR
    }
  }
  data_param {
    source: "examples/VOC0712/VOC0712_test_lmdb"
    batch_size: 8
    backend: LMDB
  }
  annotated_data_param {
    batch_sampler {
    }
    label_map_file: "data/VOC0712/labelmap_voc.prototxt"
  }
}
layer {
  name: "conv1_1"
  type: "Convolution"
  bottom: "data"
  top: "conv1_1"
  param {
    lr_mult: 1
    decay_mult: 1
  }
  param {
    lr_mult: 2
    decay_mult: 0
  }
  convolution_param {
    num_output: 64
    pad: 1
    kernel_size: 3
    weight_filler {
      type: "xavier"
    }
    bias_filler {
      type: "constant"
      value: 0
    }
  }
}
layer {
  name: "relu1_1"
  type: "ReLU"
  bottom: "conv1_1"
  top: "conv1_1"
}
layer {
  name: "conv1_2"
  type: "Convolution"
  bottom: "conv1_1"
  top: "conv1_2"
  param {
    lr_mult: 1
    decay_mult: 1
  }
  param {
    lr_mult: 2
    decay_mult: 0
  }
  convolution_param {
    num_output: 64
    pad: 1
    kernel_size: 3
    weight_filler {
      type: "xavier"
    }
    bias_filler {
      type: "constant"
      value: 0
    }
  }
}
layer {
  name: "relu1_2"
  type: "ReLU"
  bottom: "conv1_2"
  top: "conv1_2"
}
layer {
  name: "pool1"
  type: "Pooling"
  bottom: "conv1_2"
  top: "pool1"
  pooling_param {
    pool: MAX
    kernel_size: 2
    stride: 2
  }
}
layer {
  name: "conv2_1"
  type: "Convolution"
  bottom: "pool1"
  top: "conv2_1"
  param {
    lr_mult: 1
    decay_mult: 1
  }
  param {
    lr_mult: 2
    decay_mult: 0
  }
  convolution_param {
    num_output: 128
    pad: 1
    kernel_size: 3
    weight_filler {
      type: "xavier"
    }
    bias_filler {
      type: "constant"
      value: 0
    }
  }
}
layer {
  name: "relu2_1"
  type: "ReLU"
  bottom: "conv2_1"
  top: "conv2_1"
}
layer {
  name: "conv2_2"
  type: "Convolution"
  bottom: "conv2_1"
  top: "conv2_2"
  param {
    lr_mult: 1
    decay_mult: 1
  }
  param {
    lr_mult: 2
    decay_mult: 0
  }
  convolution_param {
    num_output: 128
    pad: 1
    kernel_size: 3
    weight_filler {
      type: "xavier"
    }
    bias_filler {
      type: "constant"
      value: 0
    }
  }
}
layer {
  name: "relu2_2"
  type: "ReLU"
  bottom: "conv2_2"
  top: "conv2_2"
}
layer {
  name: "pool2"
  type: "Pooling"
  bottom: "conv2_2"
  top: "pool2"
  pooling_param {
    pool: MAX
    kernel_size: 2
    stride: 2
  }
}
layer {
  name: "conv3_1"
  type: "Convolution"
  bottom: "pool2"
  top: "conv3_1"
  param {
    lr_mult: 1
    decay_mult: 1
  }
  param {
    lr_mult: 2
    decay_mult: 0
  }
  convolution_param {
    num_output: 256
    pad: 1
    kernel_size: 3
    weight_filler {
      type: "xavier"
    }
    bias_filler {
      type: "constant"
      value: 0
    }
  }
}
layer {
  name: "relu3_1"
  type: "ReLU"
  bottom: "conv3_1"
  top: "conv3_1"
}
layer {
  name: "conv3_2"
  type: "Convolution"
  bottom: "conv3_1"
  top: "conv3_2"
  param {
    lr_mult: 1
    decay_mult: 1
  }
  param {
    lr_mult: 2
    decay_mult: 0
  }
  convolution_param {
    num_output: 256
    pad: 1
    kernel_size: 3
    weight_filler {
      type: "xavier"
    }
    bias_filler {
      type: "constant"
      value: 0
    }
  }
}
layer {
  name: "relu3_2"
  type: "ReLU"
  bottom: "conv3_2"
  top: "conv3_2"
}
layer {
  name: "conv3_3"
  type: "Convolution"
  bottom: "conv3_2"
  top: "conv3_3"
  param {
    lr_mult: 1
    decay_mult: 1
  }
  param {
    lr_mult: 2
    decay_mult: 0
  }
  convolution_param {
    num_output: 256
    pad: 1
    kernel_size: 3
    weight_filler {
      type: "xavier"
    }
    bias_filler {
      type: "constant"
      value: 0
    }
  }
}
layer {
  name: "relu3_3"
  type: "ReLU"
  bottom: "conv3_3"
  top: "conv3_3"
}
layer {
  name: "pool3"
  type: "Pooling"
  bottom: "conv3_3"
  top: "pool3"
  pooling_param {
    pool: MAX
    kernel_size: 2
    stride: 2
  }
}
layer {
  name: "conv4_1"
  type: "Convolution"
  bottom: "pool3"
  top: "conv4_1"
  param {
    lr_mult: 1
    decay_mult: 1
  }
  param {
    lr_mult: 2
    decay_mult: 0
  }
  convolution_param {
    num_output: 512
    pad: 1
    kernel_size: 3
    weight_filler {
      type: "xavier"
    }
    bias_filler {
      type: "constant"
      value: 0
    }
  }
}
layer {
  name: "relu4_1"
  type: "ReLU"
  bottom: "conv4_1"
  top: "conv4_1"
}
layer {
  name: "conv4_2"
  type: "Convolution"
  bottom: "conv4_1"
  top: "conv4_2"
  param {
    lr_mult: 1
    decay_mult: 1
  }
  param {
    lr_mult: 2
    decay_mult: 0
  }
  convolution_param {
    num_output: 512
    pad: 1
    kernel_size: 3
    weight_filler {
      type: "xavier"
    }
    bias_filler {
      type: "constant"
      value: 0
    }
  }
}
layer {
  name: "relu4_2"
  type: "ReLU"
  bottom: "conv4_2"
  top: "conv4_2"
}
layer {
  name: "conv4_3"
  type: "Convolution"
  bottom: "conv4_2"
  top: "conv4_3_ori"
  param {
    lr_mult: 1
    decay_mult: 1
  }
  param {
    lr_mult: 2
    decay_mult: 0
  }
  convolution_param {
    num_output: 512
    pad: 1
    kernel_size: 3
    weight_filler {
      type: "xavier"
    }
    bias_filler {
      type: "constant"
      value: 0
    }
  }
}
layer {
  name: "relu4_3"
  type: "ReLU"
  bottom: "conv4_3_ori"
  top: "conv4_3_ori"
}
layer {
  name: "seg_pool4"
  type: "Pooling"
  bottom: "conv4_3_ori"
  top: "seg_pool4"
  pooling_param {
    pool: MAX
    kernel_size: 3
    stride: 1
    pad: 1
  }
}
layer {
  name: "seg5_1"
  type: "Convolution"
  bottom: "seg_pool4"
  top: "seg5_1"
  param {
    lr_mult: 1
    decay_mult: 1
  }
  param {
    lr_mult: 2
    decay_mult: 0
  }
  convolution_param {
    num_output: 512
    pad: 2
    kernel_size: 3
    weight_filler {
      type: "xavier"
    }
    bias_filler {
      type: "constant"
      value: 0
    }
    dilation: 2
  }
}
layer {
  name: "seg_relu5_1"
  type: "ReLU"
  bottom: "seg5_1"
  top: "seg5_1"
}
layer {
  name: "seg5_2"
  type: "Convolution"
  bottom: "seg5_1"
  top: "seg5_2"
  param {
    lr_mult: 1
    decay_mult: 1
  }
  param {
    lr_mult: 2
    decay_mult: 0
  }
  convolution_param {
    num_output: 512
    pad: 2
    kernel_size: 3
    weight_filler {
      type: "xavier"
    }
    bias_filler {
      type: "constant"
      value: 0
    }
    dilation: 2
  }
}
layer {
  name: "seg_relu5_2"
  type: "ReLU"
  bottom: "seg5_2"
  top: "seg5_2"
}
layer {
  name: "seg5_3"
  type: "Convolution"
  bottom: "seg5_2"
  top: "seg5_3"
  param {
    lr_mult: 1
    decay_mult: 1
  }
  param {
    lr_mult: 2
    decay_mult: 0
  }
  convolution_param {
    num_output: 512
    pad: 2
    kernel_size: 3
    weight_filler {
      type: "xavier"
    }
    bias_filler {
      type: "constant"
      value: 0
    }
    dilation: 2
  }
}
layer {
  name: "seg_relu5_3"
  type: "ReLU"
  bottom: "seg5_3"
  top: "seg5_3"
}
layer {
  name: "seg_pool5"
  type: "Pooling"
  bottom: "seg5_3"
  top: "seg_pool5"
  pooling_param {
    pool: MAX
    kernel_size: 3
    stride: 1
    pad: 1
  }
}
layer {
  name: "seg6"
  type: "Convolution"
  bottom: "seg_pool5"
  top: "seg6"
  param {
    lr_mult: 1
    decay_mult: 1
  }
  param {
    lr_mult: 2
    decay_mult: 0
  }
  convolution_param {
    num_output: 1024
    pad: 4
    kernel_size: 3
    weight_filler {
      type: "xavier"
    }
    bias_filler {
      type: "constant"
      value: 0
    }
    dilation: 4
  }
}
layer {
  name: "seg_relu6"
  type: "ReLU"
  bottom: "seg6"
  top: "seg6"
}
layer {
  name: "seg_drop6"
  type: "Dropout"
  bottom: "seg6"
  top: "seg6"
  dropout_param {
    dropout_ratio: 0.5
  }
}
layer {
  name: "seg7"
  type: "Convolution"
  bottom: "seg6"
  top: "seg7"
  param {
    lr_mult: 1
    decay_mult: 1
  }
  param {
    lr_mult: 2
    decay_mult: 0
  }
  convolution_param {
    num_output: 1024
    kernel_size: 1
    weight_filler {
      type: "xavier"
    }
    bias_filler {
      type: "constant"
      value: 0
    }
  }
}
layer {
  name: "seg_relu7"
  type: "ReLU"
  bottom: "seg7"
  top: "seg7"
}
layer {
  name: "seg_to_det_conv"
  type: "Convolution"
  bottom: "seg7"
  top: "seg_to_det_conv"
  param {
    lr_mult: 1
    decay_mult: 1
  }
  param {
    lr_mult: 2
    decay_mult: 0
  }
  propagate_down: false
  convolution_param {
    num_output: 512
    pad: 0
    kernel_size: 1
    stride: 1
    weight_filler {
      type: "xavier"
    }
    bias_filler {
      type: "constant"
      value: 0
    }
  }
}
layer {
  name: "mult_conv4_3"
  type: "Eltwise"
  bottom: "conv4_3_ori"
  bottom: "seg_to_det_conv"
  top: "conv4_3_t"
  eltwise_param {
    operation: PROD
  }
}
layer {
  name: "conv4_3_s"
  type: "Pooling"
  bottom: "conv4_3_t"
  top: "conv4_3_s"
  pooling_param {
    pool: AVE
    global_pooling: true
  }
}
layer {
  name: "conv4_3_fc1"
  type: "Convolution"
  bottom: "conv4_3_s"
  top: "conv4_3_fc1"
  param {
    lr_mult: 1
    decay_mult: 1
  }
  param {
    lr_mult: 2
    decay_mult: 0
  }
  convolution_param {
    num_output: 128
    kernel_size: 1
    stride: 1
    weight_filler {
      type: "xavier"
    }
    bias_filler {
      type: "constant"
      value: 0
    }
  }
}
layer {
  name: "conv4_3_relu"
  type: "ReLU"
  bottom: "conv4_3_fc1"
  top: "conv4_3_fc1"
}
layer {
  name: "conv4_3_fc2"
  type: "Convolution"
  bottom: "conv4_3_fc1"
  top: "conv4_3_fc2"
  param {
    lr_mult: 1
    decay_mult: 1
  }
  param {
    lr_mult: 2
    decay_mult: 0
  }
  convolution_param {
    num_output: 512
    kernel_size: 1
    stride: 1
    weight_filler {
      type: "xavier"
    }
    bias_filler {
      type: "constant"
      value: 0
    }
  }
}
layer {
  name: "conv4_3_sig"
  type: "Sigmoid"
  bottom: "conv4_3_fc2"
  top: "conv4_3_fc2"
}
layer {
  name: "conv4_3_reshape"
  type: "Reshape"
  bottom: "conv4_3_fc2"
  top: "conv4_3_reshape"
  reshape_param {
    shape {
      dim: 0
      dim: 0
    }
  }
}
layer {
  name: "conv4_3_scale"
  type: "Scale"
  bottom: "conv4_3_t"
  bottom: "conv4_3_reshape"
  top: "conv4_3"
  scale_param {
    axis: 0
    bias_term: false
  }
}
layer {
  name: "pool4"
  type: "Pooling"
  bottom: "conv4_3"
  top: "pool4"
  pooling_param {
    pool: MAX
    kernel_size: 2
    stride: 2
  }
}
layer {
  name: "conv5_1"
  type: "Convolution"
  bottom: "pool4"
  top: "conv5_1"
  param {
    lr_mult: 1
    decay_mult: 1
  }
  param {
    lr_mult: 2
    decay_mult: 0
  }
  convolution_param {
    num_output: 512
    pad: 1
    kernel_size: 3
    weight_filler {
      type: "xavier"
    }
    bias_filler {
      type: "constant"
      value: 0
    }
    dilation: 1
  }
}
layer {
  name: "relu5_1"
  type: "ReLU"
  bottom: "conv5_1"
  top: "conv5_1"
}
layer {
  name: "conv5_2"
  type: "Convolution"
  bottom: "conv5_1"
  top: "conv5_2"
  param {
    lr_mult: 1
    decay_mult: 1
  }
  param {
    lr_mult: 2
    decay_mult: 0
  }
  convolution_param {
    num_output: 512
    pad: 1
    kernel_size: 3
    weight_filler {
      type: "xavier"
    }
    bias_filler {
      type: "constant"
      value: 0
    }
    dilation: 1
  }
}
layer {
  name: "relu5_2"
  type: "ReLU"
  bottom: "conv5_2"
  top: "conv5_2"
}
layer {
  name: "conv5_3"
  type: "Convolution"
  bottom: "conv5_2"
  top: "conv5_3"
  param {
    lr_mult: 1
    decay_mult: 1
  }
  param {
    lr_mult: 2
    decay_mult: 0
  }
  convolution_param {
    num_output: 512
    pad: 1
    kernel_size: 3
    weight_filler {
      type: "xavier"
    }
    bias_filler {
      type: "constant"
      value: 0
    }
    dilation: 1
  }
}
layer {
  name: "relu5_3"
  type: "ReLU"
  bottom: "conv5_3"
  top: "conv5_3"
}
layer {
  name: "pool5"
  type: "Pooling"
  bottom: "conv5_3"
  top: "pool5"
  pooling_param {
    pool: MAX
    kernel_size: 3
    stride: 1
    pad: 1
  }
}
layer {
  name: "fc6"
  type: "Convolution"
  bottom: "pool5"
  top: "fc6"
  param {
    lr_mult: 1
    decay_mult: 1
  }
  param {
    lr_mult: 2
    decay_mult: 0
  }
  convolution_param {
    num_output: 1024
    pad: 6
    kernel_size: 3
    weight_filler {
      type: "xavier"
    }
    bias_filler {
      type: "constant"
      value: 0
    }
    dilation: 6
  }
}
layer {
  name: "relu6"
  type: "ReLU"
  bottom: "fc6"
  top: "fc6"
}
layer {
  name: "fc7"
  type: "Convolution"
  bottom: "fc6"
  top: "fc7_t"
  param {
    lr_mult: 1
    decay_mult: 1
  }
  param {
    lr_mult: 2
    decay_mult: 0
  }
  convolution_param {
    num_output: 1024
    kernel_size: 1
    weight_filler {
      type: "xavier"
    }
    bias_filler {
      type: "constant"
      value: 0
    }
  }
}
layer {
  name: "relu7"
  type: "ReLU"
  bottom: "fc7_t"
  top: "fc7_t"
}
layer {
  name: "fc7_s"
  type: "Pooling"
  bottom: "fc7_t"
  top: "fc7_s"
  pooling_param {
    pool: AVE
    global_pooling: true
  }
}
layer {
  name: "fc7_fc1"
  type: "Convolution"
  bottom: "fc7_s"
  top: "fc7_fc1"
  param {
    lr_mult: 1
    decay_mult: 1
  }
  param {
    lr_mult: 2
    decay_mult: 0
  }
  convolution_param {
    num_output: 256
    kernel_size: 1
    stride: 1
    weight_filler {
      type: "xavier"
    }
    bias_filler {
      type: "constant"
      value: 0
    }
  }
}
layer {
  name: "fc7_relu"
  type: "ReLU"
  bottom: "fc7_fc1"
  top: "fc7_fc1"
}
layer {
  name: "fc7_fc2"
  type: "Convolution"
  bottom: "fc7_fc1"
  top: "fc7_fc2"
  param {
    lr_mult: 1
    decay_mult: 1
  }
  param {
    lr_mult: 2
    decay_mult: 0
  }
  convolution_param {
    num_output: 1024
    kernel_size: 1
    stride: 1
    weight_filler {
      type: "xavier"
    }
    bias_filler {
      type: "constant"
      value: 0
    }
  }
}
layer {
  name: "fc7_sig"
  type: "Sigmoid"
  bottom: "fc7_fc2"
  top: "fc7_fc2"
}
layer {
  name: "fc7_reshape"
  type: "Reshape"
  bottom: "fc7_fc2"
  top: "fc7_reshape"
  reshape_param {
    shape {
      dim: 0
      dim: 0
    }
  }
}
layer {
  name: "fc7_scale"
  type: "Scale"
  bottom: "fc7_t"
  bottom: "fc7_reshape"
  top: "fc7"
  scale_param {
    axis: 0
    bias_term: false
  }
}
layer {
  name: "conv6_1"
  type: "Convolution"
  bottom: "fc7"
  top: "conv6_1"
  param {
    lr_mult: 1
    decay_mult: 1
  }
  param {
    lr_mult: 2
    decay_mult: 0
  }
  convolution_param {
    num_output: 256
    pad: 0
    kernel_size: 1
    stride: 1
    weight_filler {
      type: "xavier"
    }
    bias_filler {
      type: "constant"
      value: 0
    }
  }
}
layer {
  name: "conv6_1_relu"
  type: "ReLU"
  bottom: "conv6_1"
  top: "conv6_1"
}
layer {
  name: "conv6_2"
  type: "Convolution"
  bottom: "conv6_1"
  top: "conv6_2_t"
  param {
    lr_mult: 1
    decay_mult: 1
  }
  param {
    lr_mult: 2
    decay_mult: 0
  }
  convolution_param {
    num_output: 512
    pad: 1
    kernel_size: 3
    stride: 2
    weight_filler {
      type: "xavier"
    }
    bias_filler {
      type: "constant"
      value: 0
    }
  }
}
layer {
  name: "conv6_2_relu"
  type: "ReLU"
  bottom: "conv6_2_t"
  top: "conv6_2_t"
}
layer {
  name: "conv6_2_s"
  type: "Pooling"
  bottom: "conv6_2_t"
  top: "conv6_2_s"
  pooling_param {
    pool: AVE
    global_pooling: true
  }
}
layer {
  name: "conv6_2_fc1"
  type: "Convolution"
  bottom: "conv6_2_s"
  top: "conv6_2_fc1"
  param {
    lr_mult: 1
    decay_mult: 1
  }
  param {
    lr_mult: 2
    decay_mult: 0
  }
  convolution_param {
    num_output: 128
    kernel_size: 1
    stride: 1
    weight_filler {
      type: "xavier"
    }
    bias_filler {
      type: "constant"
      value: 0
    }
  }
}
layer {
  name: "conv6_2_relu"
  type: "ReLU"
  bottom: "conv6_2_fc1"
  top: "conv6_2_fc1"
}
layer {
  name: "conv6_2_fc2"
  type: "Convolution"
  bottom: "conv6_2_fc1"
  top: "conv6_2_fc2"
  param {
    lr_mult: 1
    decay_mult: 1
  }
  param {
    lr_mult: 2
    decay_mult: 0
  }
  convolution_param {
    num_output: 512
    kernel_size: 1
    stride: 1
    weight_filler {
      type: "xavier"
    }
    bias_filler {
      type: "constant"
      value: 0
    }
  }
}
layer {
  name: "conv6_2_sig"
  type: "Sigmoid"
  bottom: "conv6_2_fc2"
  top: "conv6_2_fc2"
}
layer {
  name: "conv6_2_reshape"
  type: "Reshape"
  bottom: "conv6_2_fc2"
  top: "conv6_2_reshape"
  reshape_param {
    shape {
      dim: 0
      dim: 0
    }
  }
}
layer {
  name: "conv6_2_scale"
  type: "Scale"
  bottom: "conv6_2_t"
  bottom: "conv6_2_reshape"
  top: "conv6_2"
  scale_param {
    axis: 0
    bias_term: false
  }
}
layer {
  name: "conv7_1"
  type: "Convolution"
  bottom: "conv6_2"
  top: "conv7_1"
  param {
    lr_mult: 1
    decay_mult: 1
  }
  param {
    lr_mult: 2
    decay_mult: 0
  }
  convolution_param {
    num_output: 128
    pad: 0
    kernel_size: 1
    stride: 1
    weight_filler {
      type: "xavier"
    }
    bias_filler {
      type: "constant"
      value: 0
    }
  }
}
layer {
  name: "conv7_1_relu"
  type: "ReLU"
  bottom: "conv7_1"
  top: "conv7_1"
}
layer {
  name: "conv7_2"
  type: "Convolution"
  bottom: "conv7_1"
  top: "conv7_2_t"
  param {
    lr_mult: 1
    decay_mult: 1
  }
  param {
    lr_mult: 2
    decay_mult: 0
  }
  convolution_param {
    num_output: 256
    pad: 1
    kernel_size: 3
    stride: 2
    weight_filler {
      type: "xavier"
    }
    bias_filler {
      type: "constant"
      value: 0
    }
  }
}
layer {
  name: "conv7_2_relu"
  type: "ReLU"
  bottom: "conv7_2_t"
  top: "conv7_2_t"
}
layer {
  name: "conv7_2_s"
  type: "Pooling"
  bottom: "conv7_2_t"
  top: "conv7_2_s"
  pooling_param {
    pool: AVE
    global_pooling: true
  }
}
layer {
  name: "conv7_2_fc1"
  type: "Convolution"
  bottom: "conv7_2_s"
  top: "conv7_2_fc1"
  param {
    lr_mult: 1
    decay_mult: 1
  }
  param {
    lr_mult: 2
    decay_mult: 0
  }
  convolution_param {
    num_output: 64
    kernel_size: 1
    stride: 1
    weight_filler {
      type: "xavier"
    }
    bias_filler {
      type: "constant"
      value: 0
    }
  }
}
layer {
  name: "conv7_2_relu"
  type: "ReLU"
  bottom: "conv7_2_fc1"
  top: "conv7_2_fc1"
}
layer {
  name: "conv7_2_fc2"
  type: "Convolution"
  bottom: "conv7_2_fc1"
  top: "conv7_2_fc2"
  param {
    lr_mult: 1
    decay_mult: 1
  }
  param {
    lr_mult: 2
    decay_mult: 0
  }
  convolution_param {
    num_output: 256
    kernel_size: 1
    stride: 1
    weight_filler {
      type: "xavier"
    }
    bias_filler {
      type: "constant"
      value: 0
    }
  }
}
layer {
  name: "conv7_2_sig"
  type: "Sigmoid"
  bottom: "conv7_2_fc2"
  top: "conv7_2_fc2"
}
layer {
  name: "conv7_2_reshape"
  type: "Reshape"
  bottom: "conv7_2_fc2"
  top: "conv7_2_reshape"
  reshape_param {
    shape {
      dim: 0
      dim: 0
    }
  }
}
layer {
  name: "conv7_2_scale"
  type: "Scale"
  bottom: "conv7_2_t"
  bottom: "conv7_2_reshape"
  top: "conv7_2"
  scale_param {
    axis: 0
    bias_term: false
  }
}
layer {
  name: "conv8_1"
  type: "Convolution"
  bottom: "conv7_2"
  top: "conv8_1"
  param {
    lr_mult: 1
    decay_mult: 1
  }
  param {
    lr_mult: 2
    decay_mult: 0
  }
  convolution_param {
    num_output: 128
    pad: 0
    kernel_size: 1
    stride: 1
    weight_filler {
      type: "xavier"
    }
    bias_filler {
      type: "constant"
      value: 0
    }
  }
}
layer {
  name: "conv8_1_relu"
  type: "ReLU"
  bottom: "conv8_1"
  top: "conv8_1"
}
layer {
  name: "conv8_2"
  type: "Convolution"
  bottom: "conv8_1"
  top: "conv8_2_t"
  param {
    lr_mult: 1
    decay_mult: 1
  }
  param {
    lr_mult: 2
    decay_mult: 0
  }
  convolution_param {
    num_output: 256
    pad: 0
    kernel_size: 3
    stride: 1
    weight_filler {
      type: "xavier"
    }
    bias_filler {
      type: "constant"
      value: 0
    }
  }
}
layer {
  name: "conv8_2_relu"
  type: "ReLU"
  bottom: "conv8_2_t"
  top: "conv8_2_t"
}
layer {
  name: "conv8_2_s"
  type: "Pooling"
  bottom: "conv8_2_t"
  top: "conv8_2_s"
  pooling_param {
    pool: AVE
    global_pooling: true
  }
}
layer {
  name: "conv8_2_fc1"
  type: "Convolution"
  bottom: "conv8_2_s"
  top: "conv8_2_fc1"
  param {
    lr_mult: 1
    decay_mult: 1
  }
  param {
    lr_mult: 2
    decay_mult: 0
  }
  convolution_param {
    num_output: 64
    kernel_size: 1
    stride: 1
    weight_filler {
      type: "xavier"
    }
    bias_filler {
      type: "constant"
      value: 0
    }
  }
}
layer {
  name: "conv8_2_relu"
  type: "ReLU"
  bottom: "conv8_2_fc1"
  top: "conv8_2_fc1"
}
layer {
  name: "conv8_2_fc2"
  type: "Convolution"
  bottom: "conv8_2_fc1"
  top: "conv8_2_fc2"
  param {
    lr_mult: 1
    decay_mult: 1
  }
  param {
    lr_mult: 2
    decay_mult: 0
  }
  convolution_param {
    num_output: 256
    kernel_size: 1
    stride: 1
    weight_filler {
      type: "xavier"
    }
    bias_filler {
      type: "constant"
      value: 0
    }
  }
}
layer {
  name: "conv8_2_sig"
  type: "Sigmoid"
  bottom: "conv8_2_fc2"
  top: "conv8_2_fc2"
}
layer {
  name: "conv8_2_reshape"
  type: "Reshape"
  bottom: "conv8_2_fc2"
  top: "conv8_2_reshape"
  reshape_param {
    shape {
      dim: 0
      dim: 0
    }
  }
}
layer {
  name: "conv8_2_scale"
  type: "Scale"
  bottom: "conv8_2_t"
  bottom: "conv8_2_reshape"
  top: "conv8_2"
  scale_param {
    axis: 0
    bias_term: false
  }
}
layer {
  name: "conv9_1"
  type: "Convolution"
  bottom: "conv8_2"
  top: "conv9_1"
  param {
    lr_mult: 1
    decay_mult: 1
  }
  param {
    lr_mult: 2
    decay_mult: 0
  }
  convolution_param {
    num_output: 128
    pad: 0
    kernel_size: 1
    stride: 1
    weight_filler {
      type: "xavier"
    }
    bias_filler {
      type: "constant"
      value: 0
    }
  }
}
layer {
  name: "conv9_1_relu"
  type: "ReLU"
  bottom: "conv9_1"
  top: "conv9_1"
}
layer {
  name: "conv9_2"
  type: "Convolution"
  bottom: "conv9_1"
  top: "conv9_2_t"
  param {
    lr_mult: 1
    decay_mult: 1
  }
  param {
    lr_mult: 2
    decay_mult: 0
  }
  convolution_param {
    num_output: 256
    pad: 0
    kernel_size: 3
    stride: 1
    weight_filler {
      type: "xavier"
    }
    bias_filler {
      type: "constant"
      value: 0
    }
  }
}
layer {
  name: "conv9_2_relu"
  type: "ReLU"
  bottom: "conv9_2_t"
  top: "conv9_2_t"
}
layer {
  name: "conv9_2_s"
  type: "Pooling"
  bottom: "conv9_2_t"
  top: "conv9_2_s"
  pooling_param {
    pool: AVE
    global_pooling: true
  }
}
layer {
  name: "conv9_2_fc1"
  type: "Convolution"
  bottom: "conv9_2_s"
  top: "conv9_2_fc1"
  param {
    lr_mult: 1
    decay_mult: 1
  }
  param {
    lr_mult: 2
    decay_mult: 0
  }
  convolution_param {
    num_output: 64
    kernel_size: 1
    stride: 1
    weight_filler {
      type: "xavier"
    }
…
I0326 15:53:44.840670  9033 net.cpp:157] Top shape: 8 64 1 1 (512)
I0326 15:53:44.840673  9033 net.cpp:165] Memory required for data: 2513242176
I0326 15:53:44.840680  9033 layer_factory.hpp:77] Creating layer conv7_2_relu
I0326 15:53:44.840689  9033 net.cpp:100] Creating Layer conv7_2_relu
I0326 15:53:44.840697  9033 net.cpp:434] conv7_2_relu <- conv7_2_fc1
I0326 15:53:44.840703  9033 net.cpp:395] conv7_2_relu -> conv7_2_fc1 (in-place)
I0326 15:53:44.840875  9033 net.cpp:150] Setting up conv7_2_relu
I0326 15:53:44.840894  9033 net.cpp:157] Top shape: 8 64 1 1 (512)
I0326 15:53:44.840896  9033 net.cpp:165] Memory required for data: 2513244224
I0326 15:53:44.840899  9033 layer_factory.hpp:77] Creating layer conv7_2_fc2
I0326 15:53:44.840906  9033 net.cpp:100] Creating Layer conv7_2_fc2
I0326 15:53:44.840909  9033 net.cpp:434] conv7_2_fc2 <- conv7_2_fc1
I0326 15:53:44.840914  9033 net.cpp:408] conv7_2_fc2 -> conv7_2_fc2
I0326 15:53:44.842113  9033 net.cpp:150] Setting up conv7_2_fc2
I0326 15:53:44.842123  9033 net.cpp:157] Top shape: 8 256 1 1 (2048)
I0326 15:53:44.842126  9033 net.cpp:165] Memory required for data: 2513252416
I0326 15:53:44.842140  9033 layer_factory.hpp:77] Creating layer conv7_2_sig
I0326 15:53:44.842149  9033 net.cpp:100] Creating Layer conv7_2_sig
I0326 15:53:44.842151  9033 net.cpp:434] conv7_2_sig <- conv7_2_fc2
I0326 15:53:44.842154  9033 net.cpp:395] conv7_2_sig -> conv7_2_fc2 (in-place)
I0326 15:53:44.842634  9033 net.cpp:150] Setting up conv7_2_sig
I0326 15:53:44.842644  9033 net.cpp:157] Top shape: 8 256 1 1 (2048)
I0326 15:53:44.842646  9033 net.cpp:165] Memory required for data: 2513260608
I0326 15:53:44.842649  9033 layer_factory.hpp:77] Creating layer conv7_2_reshape
I0326 15:53:44.842658  9033 net.cpp:100] Creating Layer conv7_2_reshape
I0326 15:53:44.842660  9033 net.cpp:434] conv7_2_reshape <- conv7_2_fc2
I0326 15:53:44.842664  9033 net.cpp:408] conv7_2_reshape -> conv7_2_reshape
I0326 15:53:44.842705  9033 net.cpp:150] Setting up conv7_2_reshape
I0326 15:53:44.842711  9033 net.cpp:157] Top shape: 8 256 (2048)
I0326 15:53:44.842713  9033 net.cpp:165] Memory required for data: 2513268800
I0326 15:53:44.842715  9033 layer_factory.hpp:77] Creating layer conv7_2_scale
I0326 15:53:44.842721  9033 net.cpp:100] Creating Layer conv7_2_scale
I0326 15:53:44.842725  9033 net.cpp:434] conv7_2_scale <- conv7_2_t_conv7_2_relu_0_split_1
I0326 15:53:44.842727  9033 net.cpp:434] conv7_2_scale <- conv7_2_reshape
I0326 15:53:44.842731  9033 net.cpp:408] conv7_2_scale -> conv7_2
I0326 15:53:44.842815  9033 net.cpp:150] Setting up conv7_2_scale
I0326 15:53:44.842823  9033 net.cpp:157] Top shape: 8 256 5 5 (51200)
I0326 15:53:44.842824  9033 net.cpp:165] Memory required for data: 2513473600
I0326 15:53:44.842826  9033 layer_factory.hpp:77] Creating layer conv7_2_conv7_2_scale_0_split
I0326 15:53:44.842833  9033 net.cpp:100] Creating Layer conv7_2_conv7_2_scale_0_split
I0326 15:53:44.842836  9033 net.cpp:434] conv7_2_conv7_2_scale_0_split <- conv7_2
I0326 15:53:44.842840  9033 net.cpp:408] conv7_2_conv7_2_scale_0_split -> conv7_2_conv7_2_scale_0_split_0
I0326 15:53:44.842845  9033 net.cpp:408] conv7_2_conv7_2_scale_0_split -> conv7_2_conv7_2_scale_0_split_1
I0326 15:53:44.842849  9033 net.cpp:408] conv7_2_conv7_2_scale_0_split -> conv7_2_conv7_2_scale_0_split_2
I0326 15:53:44.842854  9033 net.cpp:408] conv7_2_conv7_2_scale_0_split -> conv7_2_conv7_2_scale_0_split_3
I0326 15:53:44.842928  9033 net.cpp:150] Setting up conv7_2_conv7_2_scale_0_split
I0326 15:53:44.842934  9033 net.cpp:157] Top shape: 8 256 5 5 (51200)
I0326 15:53:44.842937  9033 net.cpp:157] Top shape: 8 256 5 5 (51200)
I0326 15:53:44.842941  9033 net.cpp:157] Top shape: 8 256 5 5 (51200)
I0326 15:53:44.842942  9033 net.cpp:157] Top shape: 8 256 5 5 (51200)
I0326 15:53:44.842944  9033 net.cpp:165] Memory required for data: 2514292800
I0326 15:53:44.842947  9033 layer_factory.hpp:77] Creating layer conv8_1
I0326 15:53:44.842954  9033 net.cpp:100] Creating Layer conv8_1
I0326 15:53:44.842957  9033 net.cpp:434] conv8_1 <- conv7_2_conv7_2_scale_0_split_0
I0326 15:53:44.842962  9033 net.cpp:408] conv8_1 -> conv8_1
I0326 15:53:44.844302  9033 net.cpp:150] Setting up conv8_1
I0326 15:53:44.844313  9033 net.cpp:157] Top shape: 8 128 5 5 (25600)
I0326 15:53:44.844316  9033 net.cpp:165] Memory required for data: 2514395200
I0326 15:53:44.844322  9033 layer_factory.hpp:77] Creating layer conv8_1_relu
I0326 15:53:44.844326  9033 net.cpp:100] Creating Layer conv8_1_relu
I0326 15:53:44.844329  9033 net.cpp:434] conv8_1_relu <- conv8_1
I0326 15:53:44.844333  9033 net.cpp:395] conv8_1_relu -> conv8_1 (in-place)
I0326 15:53:44.844525  9033 net.cpp:150] Setting up conv8_1_relu
I0326 15:53:44.844533  9033 net.cpp:157] Top shape: 8 128 5 5 (25600)
I0326 15:53:44.844535  9033 net.cpp:165] Memory required for data: 2514497600
I0326 15:53:44.844537  9033 layer_factory.hpp:77] Creating layer conv8_2
I0326 15:53:44.844545  9033 net.cpp:100] Creating Layer conv8_2
I0326 15:53:44.844548  9033 net.cpp:434] conv8_2 <- conv8_1
I0326 15:53:44.844554  9033 net.cpp:408] conv8_2 -> conv8_2_t
I0326 15:53:44.848564  9033 net.cpp:150] Setting up conv8_2
I0326 15:53:44.848575  9033 net.cpp:157] Top shape: 8 256 3 3 (18432)
I0326 15:53:44.848578  9033 net.cpp:165] Memory required for data: 2514571328
I0326 15:53:44.848584  9033 layer_factory.hpp:77] Creating layer conv8_2_relu
I0326 15:53:44.848588  9033 net.cpp:100] Creating Layer conv8_2_relu
I0326 15:53:44.848590  9033 net.cpp:434] conv8_2_relu <- conv8_2_t
I0326 15:53:44.848597  9033 net.cpp:395] conv8_2_relu -> conv8_2_t (in-place)
I0326 15:53:44.848775  9033 net.cpp:150] Setting up conv8_2_relu
I0326 15:53:44.848783  9033 net.cpp:157] Top shape: 8 256 3 3 (18432)
I0326 15:53:44.848784  9033 net.cpp:165] Memory required for data: 2514645056
I0326 15:53:44.848788  9033 layer_factory.hpp:77] Creating layer conv8_2_t_conv8_2_relu_0_split
I0326 15:53:44.848793  9033 net.cpp:100] Creating Layer conv8_2_t_conv8_2_relu_0_split
I0326 15:53:44.848794  9033 net.cpp:434] conv8_2_t_conv8_2_relu_0_split <- conv8_2_t
I0326 15:53:44.848798  9033 net.cpp:408] conv8_2_t_conv8_2_relu_0_split -> conv8_2_t_conv8_2_relu_0_split_0
I0326 15:53:44.848804  9033 net.cpp:408] conv8_2_t_conv8_2_relu_0_split -> conv8_2_t_conv8_2_relu_0_split_1
I0326 15:53:44.848857  9033 net.cpp:150] Setting up conv8_2_t_conv8_2_relu_0_split
I0326 15:53:44.848868  9033 net.cpp:157] Top shape: 8 256 3 3 (18432)
I0326 15:53:44.848871  9033 net.cpp:157] Top shape: 8 256 3 3 (18432)
I0326 15:53:44.848872  9033 net.cpp:165] Memory required for data: 2514792512
I0326 15:53:44.848875  9033 layer_factory.hpp:77] Creating layer conv8_2_s
I0326 15:53:44.848881  9033 net.cpp:100] Creating Layer conv8_2_s
I0326 15:53:44.848883  9033 net.cpp:434] conv8_2_s <- conv8_2_t_conv8_2_relu_0_split_0
I0326 15:53:44.848886  9033 net.cpp:408] conv8_2_s -> conv8_2_s
I0326 15:53:44.849387  9033 net.cpp:150] Setting up conv8_2_s
I0326 15:53:44.849397  9033 net.cpp:157] Top shape: 8 256 1 1 (2048)
I0326 15:53:44.849400  9033 net.cpp:165] Memory required for data: 2514800704
I0326 15:53:44.849401  9033 layer_factory.hpp:77] Creating layer conv8_2_fc1
I0326 15:53:44.849411  9033 net.cpp:100] Creating Layer conv8_2_fc1
I0326 15:53:44.849414  9033 net.cpp:434] conv8_2_fc1 <- conv8_2_s
I0326 15:53:44.849418  9033 net.cpp:408] conv8_2_fc1 -> conv8_2_fc1
I0326 15:53:44.850639  9033 net.cpp:150] Setting up conv8_2_fc1
I0326 15:53:44.850649  9033 net.cpp:157] Top shape: 8 64 1 1 (512)
I0326 15:53:44.850651  9033 net.cpp:165] Memory required for data: 2514802752
I0326 15:53:44.850656  9033 layer_factory.hpp:77] Creating layer conv8_2_relu
I0326 15:53:44.850661  9033 net.cpp:100] Creating Layer conv8_2_relu
I0326 15:53:44.850664  9033 net.cpp:434] conv8_2_relu <- conv8_2_fc1
I0326 15:53:44.850667  9033 net.cpp:395] conv8_2_relu -> conv8_2_fc1 (in-place)
I0326 15:53:44.850838  9033 net.cpp:150] Setting up conv8_2_relu
I0326 15:53:44.850845  9033 net.cpp:157] Top shape: 8 64 1 1 (512)
I0326 15:53:44.850848  9033 net.cpp:165] Memory required for data: 2514804800
I0326 15:53:44.850850  9033 layer_factory.hpp:77] Creating layer conv8_2_fc2
I0326 15:53:44.850857  9033 net.cpp:100] Creating Layer conv8_2_fc2
I0326 15:53:44.850862  9033 net.cpp:434] conv8_2_fc2 <- conv8_2_fc1
I0326 15:53:44.850872  9033 net.cpp:408] conv8_2_fc2 -> conv8_2_fc2
I0326 15:53:44.852087  9033 net.cpp:150] Setting up conv8_2_fc2
I0326 15:53:44.852102  9033 net.cpp:157] Top shape: 8 256 1 1 (2048)
I0326 15:53:44.852107  9033 net.cpp:165] Memory required for data: 2514812992
I0326 15:53:44.852114  9033 layer_factory.hpp:77] Creating layer conv8_2_sig
I0326 15:53:44.852123  9033 net.cpp:100] Creating Layer conv8_2_sig
I0326 15:53:44.852138  9033 net.cpp:434] conv8_2_sig <- conv8_2_fc2
I0326 15:53:44.852144  9033 net.cpp:395] conv8_2_sig -> conv8_2_fc2 (in-place)
I0326 15:53:44.852316  9033 net.cpp:150] Setting up conv8_2_sig
I0326 15:53:44.852324  9033 net.cpp:157] Top shape: 8 256 1 1 (2048)
I0326 15:53:44.852326  9033 net.cpp:165] Memory required for data: 2514821184
I0326 15:53:44.852329  9033 layer_factory.hpp:77] Creating layer conv8_2_reshape
I0326 15:53:44.852334  9033 net.cpp:100] Creating Layer conv8_2_reshape
I0326 15:53:44.852335  9033 net.cpp:434] conv8_2_reshape <- conv8_2_fc2
I0326 15:53:44.852340  9033 net.cpp:408] conv8_2_reshape -> conv8_2_reshape
I0326 15:53:44.852375  9033 net.cpp:150] Setting up conv8_2_reshape
I0326 15:53:44.852378  9033 net.cpp:157] Top shape: 8 256 (2048)
I0326 15:53:44.852380  9033 net.cpp:165] Memory required for data: 2514829376
I0326 15:53:44.852382  9033 layer_factory.hpp:77] Creating layer conv8_2_scale
I0326 15:53:44.852386  9033 net.cpp:100] Creating Layer conv8_2_scale
I0326 15:53:44.852389  9033 net.cpp:434] conv8_2_scale <- conv8_2_t_conv8_2_relu_0_split_1
I0326 15:53:44.852392  9033 net.cpp:434] conv8_2_scale <- conv8_2_reshape
I0326 15:53:44.852396  9033 net.cpp:408] conv8_2_scale -> conv8_2
I0326 15:53:44.852476  9033 net.cpp:150] Setting up conv8_2_scale
I0326 15:53:44.852480  9033 net.cpp:157] Top shape: 8 256 3 3 (18432)
I0326 15:53:44.852483  9033 net.cpp:165] Memory required for data: 2514903104
I0326 15:53:44.852484  9033 layer_factory.hpp:77] Creating layer conv8_2_conv8_2_scale_0_split
I0326 15:53:44.852489  9033 net.cpp:100] Creating Layer conv8_2_conv8_2_scale_0_split
I0326 15:53:44.852493  9033 net.cpp:434] conv8_2_conv8_2_scale_0_split <- conv8_2
I0326 15:53:44.852495  9033 net.cpp:408] conv8_2_conv8_2_scale_0_split -> conv8_2_conv8_2_scale_0_split_0
I0326 15:53:44.852500  9033 net.cpp:408] conv8_2_conv8_2_scale_0_split -> conv8_2_conv8_2_scale_0_split_1
I0326 15:53:44.852505  9033 net.cpp:408] conv8_2_conv8_2_scale_0_split -> conv8_2_conv8_2_scale_0_split_2
I0326 15:53:44.852509  9033 net.cpp:408] conv8_2_conv8_2_scale_0_split -> conv8_2_conv8_2_scale_0_split_3
I0326 15:53:44.852579  9033 net.cpp:150] Setting up conv8_2_conv8_2_scale_0_split
I0326 15:53:44.852583  9033 net.cpp:157] Top shape: 8 256 3 3 (18432)
I0326 15:53:44.852586  9033 net.cpp:157] Top shape: 8 256 3 3 (18432)
I0326 15:53:44.852588  9033 net.cpp:157] Top shape: 8 256 3 3 (18432)
I0326 15:53:44.852591  9033 net.cpp:157] Top shape: 8 256 3 3 (18432)
I0326 15:53:44.852592  9033 net.cpp:165] Memory required for data: 2515198016
I0326 15:53:44.852594  9033 layer_factory.hpp:77] Creating layer conv9_1
I0326 15:53:44.852602  9033 net.cpp:100] Creating Layer conv9_1
I0326 15:53:44.852605  9033 net.cpp:434] conv9_1 <- conv8_2_conv8_2_scale_0_split_0
I0326 15:53:44.852609  9033 net.cpp:408] conv9_1 -> conv9_1
I0326 15:53:44.853881  9033 net.cpp:150] Setting up conv9_1
I0326 15:53:44.853893  9033 net.cpp:157] Top shape: 8 128 3 3 (9216)
I0326 15:53:44.853895  9033 net.cpp:165] Memory required for data: 2515234880
I0326 15:53:44.853900  9033 layer_factory.hpp:77] Creating layer conv9_1_relu
I0326 15:53:44.853904  9033 net.cpp:100] Creating Layer conv9_1_relu
I0326 15:53:44.853907  9033 net.cpp:434] conv9_1_relu <- conv9_1
I0326 15:53:44.853912  9033 net.cpp:395] conv9_1_relu -> conv9_1 (in-place)
I0326 15:53:44.854080  9033 net.cpp:150] Setting up conv9_1_relu
I0326 15:53:44.854089  9033 net.cpp:157] Top shape: 8 128 3 3 (9216)
I0326 15:53:44.854091  9033 net.cpp:165] Memory required for data: 2515271744
I0326 15:53:44.854094  9033 layer_factory.hpp:77] Creating layer conv9_2
I0326 15:53:44.854102  9033 net.cpp:100] Creating Layer conv9_2
I0326 15:53:44.854105  9033 net.cpp:434] conv9_2 <- conv9_1
I0326 15:53:44.854110  9033 net.cpp:408] conv9_2 -> conv9_2_t
I0326 15:53:44.857569  9033 net.cpp:150] Setting up conv9_2
I0326 15:53:44.857583  9033 net.cpp:157] Top shape: 8 256 1 1 (2048)
I0326 15:53:44.857585  9033 net.cpp:165] Memory required for data: 2515279936
I0326 15:53:44.857607  9033 layer_factory.hpp:77] Creating layer conv9_2_relu
I0326 15:53:44.857616  9033 net.cpp:100] Creating Layer conv9_2_relu
I0326 15:53:44.857620  9033 net.cpp:434] conv9_2_relu <- conv9_2_t
I0326 15:53:44.857623  9033 net.cpp:395] conv9_2_relu -> conv9_2_t (in-place)
I0326 15:53:44.858116  9033 net.cpp:150] Setting up conv9_2_relu
I0326 15:53:44.858126  9033 net.cpp:157] Top shape: 8 256 1 1 (2048)
I0326 15:53:44.858129  9033 net.cpp:165] Memory required for data: 2515288128
I0326 15:53:44.858131  9033 layer_factory.hpp:77] Creating layer conv9_2_t_conv9_2_relu_0_split
I0326 15:53:44.858137  9033 net.cpp:100] Creating Layer conv9_2_t_conv9_2_relu_0_split
I0326 15:53:44.858140  9033 net.cpp:434] conv9_2_t_conv9_2_relu_0_split <- conv9_2_t
I0326 15:53:44.858144  9033 net.cpp:408] conv9_2_t_conv9_2_relu_0_split -> conv9_2_t_conv9_2_relu_0_split_0
I0326 15:53:44.858151  9033 net.cpp:408] conv9_2_t_conv9_2_relu_0_split -> conv9_2_t_conv9_2_relu_0_split_1
I0326 15:53:44.858209  9033 net.cpp:150] Setting up conv9_2_t_conv9_2_relu_0_split
I0326 15:53:44.858213  9033 net.cpp:157] Top shape: 8 256 1 1 (2048)
I0326 15:53:44.858217  9033 net.cpp:157] Top shape: 8 256 1 1 (2048)
I0326 15:53:44.858217  9033 net.cpp:165] Memory required for data: 2515304512
I0326 15:53:44.858220  9033 layer_factory.hpp:77] Creating layer conv9_2_s
I0326 15:53:44.858227  9033 net.cpp:100] Creating Layer conv9_2_s
I0326 15:53:44.858229  9033 net.cpp:434] conv9_2_s <- conv9_2_t_conv9_2_relu_0_split_0
I0326 15:53:44.858233  9033 net.cpp:408] conv9_2_s -> conv9_2_s
I0326 15:53:44.858425  9033 net.cpp:150] Setting up conv9_2_s
I0326 15:53:44.858433  9033 net.cpp:157] Top shape: 8 256 1 1 (2048)
I0326 15:53:44.858434  9033 net.cpp:165] Memory required for data: 2515312704
I0326 15:53:44.858438  9033 layer_factory.hpp:77] Creating layer conv9_2_fc1
I0326 15:53:44.858446  9033 net.cpp:100] Creating Layer conv9_2_fc1
I0326 15:53:44.858449  9033 net.cpp:434] conv9_2_fc1 <- conv9_2_s
I0326 15:53:44.858454  9033 net.cpp:408] conv9_2_fc1 -> conv9_2_fc1
I0326 15:53:44.859776  9033 net.cpp:150] Setting up conv9_2_fc1
I0326 15:53:44.859786  9033 net.cpp:157] Top shape: 8 64 1 1 (512)
I0326 15:53:44.859788  9033 net.cpp:165] Memory required for data: 2515314752
I0326 15:53:44.859793  9033 layer_factory.hpp:77] Creating layer conv9_2_relu
I0326 15:53:44.859797  9033 net.cpp:100] Creating Layer conv9_2_relu
I0326 15:53:44.859800  9033 net.cpp:434] conv9_2_relu <- conv9_2_fc1
I0326 15:53:44.859805  9033 net.cpp:395] conv9_2_relu -> conv9_2_fc1 (in-place)
I0326 15:53:44.859974  9033 net.cpp:150] Setting up conv9_2_relu
I0326 15:53:44.859982  9033 net.cpp:157] Top shape: 8 64 1 1 (512)
I0326 15:53:44.859984  9033 net.cpp:165] Memory required for data: 2515316800
I0326 15:53:44.859987  9033 layer_factory.hpp:77] Creating layer conv9_2_fc2
I0326 15:53:44.859994  9033 net.cpp:100] Creating Layer conv9_2_fc2
I0326 15:53:44.859997  9033 net.cpp:434] conv9_2_fc2 <- conv9_2_fc1
I0326 15:53:44.860002  9033 net.cpp:408] conv9_2_fc2 -> conv9_2_fc2
I0326 15:53:44.861238  9033 net.cpp:150] Setting up conv9_2_fc2
I0326 15:53:44.861248  9033 net.cpp:157] Top shape: 8 256 1 1 (2048)
I0326 15:53:44.861250  9033 net.cpp:165] Memory required for data: 2515324992
I0326 15:53:44.861255  9033 layer_factory.hpp:77] Creating layer conv9_2_sig
I0326 15:53:44.861260  9033 net.cpp:100] Creating Layer conv9_2_sig
I0326 15:53:44.861263  9033 net.cpp:434] conv9_2_sig <- conv9_2_fc2
I0326 15:53:44.861268  9033 net.cpp:395] conv9_2_sig -> conv9_2_fc2 (in-place)
I0326 15:53:44.861752  9033 net.cpp:150] Setting up conv9_2_sig
I0326 15:53:44.861762  9033 net.cpp:157] Top shape: 8 256 1 1 (2048)
I0326 15:53:44.861763  9033 net.cpp:165] Memory required for data: 2515333184
I0326 15:53:44.861765  9033 layer_factory.hpp:77] Creating layer conv9_2_reshape
I0326 15:53:44.861773  9033 net.cpp:100] Creating Layer conv9_2_reshape
I0326 15:53:44.861776  9033 net.cpp:434] conv9_2_reshape <- conv9_2_fc2
I0326 15:53:44.861780  9033 net.cpp:408] conv9_2_reshape -> conv9_2_reshape
I0326 15:53:44.861817  9033 net.cpp:150] Setting up conv9_2_reshape
I0326 15:53:44.861840  9033 net.cpp:157] Top shape: 8 256 (2048)
I0326 15:53:44.861841  9033 net.cpp:165] Memory required for data: 2515341376
I0326 15:53:44.861843  9033 layer_factory.hpp:77] Creating layer conv9_2_scale
I0326 15:53:44.861848  9033 net.cpp:100] Creating Layer conv9_2_scale
I0326 15:53:44.861850  9033 net.cpp:434] conv9_2_scale <- conv9_2_t_conv9_2_relu_0_split_1
I0326 15:53:44.861855  9033 net.cpp:434] conv9_2_scale <- conv9_2_reshape
I0326 15:53:44.861860  9033 net.cpp:408] conv9_2_scale -> conv9_2
I0326 15:53:44.861943  9033 net.cpp:150] Setting up conv9_2_scale
I0326 15:53:44.861949  9033 net.cpp:157] Top shape: 8 256 1 1 (2048)
I0326 15:53:44.861951  9033 net.cpp:165] Memory required for data: 2515349568
I0326 15:53:44.861953  9033 layer_factory.hpp:77] Creating layer conv9_2_conv9_2_scale_0_split
I0326 15:53:44.861958  9033 net.cpp:100] Creating Layer conv9_2_conv9_2_scale_0_split
I0326 15:53:44.861960  9033 net.cpp:434] conv9_2_conv9_2_scale_0_split <- conv9_2
I0326 15:53:44.861965  9033 net.cpp:408] conv9_2_conv9_2_scale_0_split -> conv9_2_conv9_2_scale_0_split_0
I0326 15:53:44.861970  9033 net.cpp:408] conv9_2_conv9_2_scale_0_split -> conv9_2_conv9_2_scale_0_split_1
I0326 15:53:44.861974  9033 net.cpp:408] conv9_2_conv9_2_scale_0_split -> conv9_2_conv9_2_scale_0_split_2
I0326 15:53:44.862033  9033 net.cpp:150] Setting up conv9_2_conv9_2_scale_0_split
I0326 15:53:44.862037  9033 net.cpp:157] Top shape: 8 256 1 1 (2048)
I0326 15:53:44.862040  9033 net.cpp:157] Top shape: 8 256 1 1 (2048)
I0326 15:53:44.862042  9033 net.cpp:157] Top shape: 8 256 1 1 (2048)
I0326 15:53:44.862045  9033 net.cpp:165] Memory required for data: 2515374144
I0326 15:53:44.862046  9033 layer_factory.hpp:77] Creating layer conv4_3_norm
I0326 15:53:44.862052  9033 net.cpp:100] Creating Layer conv4_3_norm
I0326 15:53:44.862056  9033 net.cpp:434] conv4_3_norm <- conv4_3_conv4_3_scale_0_split_1
I0326 15:53:44.862061  9033 net.cpp:408] conv4_3_norm -> conv4_3_norm
I0326 15:53:44.862246  9033 net.cpp:150] Setting up conv4_3_norm
I0326 15:53:44.862253  9033 net.cpp:157] Top shape: 8 512 38 38 (5914624)
I0326 15:53:44.862256  9033 net.cpp:165] Memory required for data: 2539032640
I0326 15:53:44.862259  9033 layer_factory.hpp:77] Creating layer conv4_3_norm_conv4_3_norm_0_split
I0326 15:53:44.862263  9033 net.cpp:100] Creating Layer conv4_3_norm_conv4_3_norm_0_split
I0326 15:53:44.862265  9033 net.cpp:434] conv4_3_norm_conv4_3_norm_0_split <- conv4_3_norm
I0326 15:53:44.862269  9033 net.cpp:408] conv4_3_norm_conv4_3_norm_0_split -> conv4_3_norm_conv4_3_norm_0_split_0
I0326 15:53:44.862273  9033 net.cpp:408] conv4_3_norm_conv4_3_norm_0_split -> conv4_3_norm_conv4_3_norm_0_split_1
I0326 15:53:44.862277  9033 net.cpp:408] conv4_3_norm_conv4_3_norm_0_split -> conv4_3_norm_conv4_3_norm_0_split_2
I0326 15:53:44.862332  9033 net.cpp:150] Setting up conv4_3_norm_conv4_3_norm_0_split
I0326 15:53:44.862336  9033 net.cpp:157] Top shape: 8 512 38 38 (5914624)
I0326 15:53:44.862339  9033 net.cpp:157] Top shape: 8 512 38 38 (5914624)
I0326 15:53:44.862342  9033 net.cpp:157] Top shape: 8 512 38 38 (5914624)
I0326 15:53:44.862344  9033 net.cpp:165] Memory required for data: 2610008128
I0326 15:53:44.862345  9033 layer_factory.hpp:77] Creating layer conv4_3_norm_mbox_loc
I0326 15:53:44.862352  9033 net.cpp:100] Creating Layer conv4_3_norm_mbox_loc
I0326 15:53:44.862354  9033 net.cpp:434] conv4_3_norm_mbox_loc <- conv4_3_norm_conv4_3_norm_0_split_0
I0326 15:53:44.862360  9033 net.cpp:408] conv4_3_norm_mbox_loc -> conv4_3_norm_mbox_loc
I0326 15:53:44.864123  9033 net.cpp:150] Setting up conv4_3_norm_mbox_loc
I0326 15:53:44.864135  9033 net.cpp:157] Top shape: 8 16 38 38 (184832)
I0326 15:53:44.864137  9033 net.cpp:165] Memory required for data: 2610747456
I0326 15:53:44.864142  9033 layer_factory.hpp:77] Creating layer conv4_3_norm_mbox_loc_perm
I0326 15:53:44.864148  9033 net.cpp:100] Creating Layer conv4_3_norm_mbox_loc_perm
I0326 15:53:44.864151  9033 net.cpp:434] conv4_3_norm_mbox_loc_perm <- conv4_3_norm_mbox_loc
I0326 15:53:44.864166  9033 net.cpp:408] conv4_3_norm_mbox_loc_perm -> conv4_3_norm_mbox_loc_perm
I0326 15:53:44.864301  9033 net.cpp:150] Setting up conv4_3_norm_mbox_loc_perm
I0326 15:53:44.864308  9033 net.cpp:157] Top shape: 8 38 38 16 (184832)
I0326 15:53:44.864311  9033 net.cpp:165] Memory required for data: 2611486784
I0326 15:53:44.864313  9033 layer_factory.hpp:77] Creating layer conv4_3_norm_mbox_loc_flat
I0326 15:53:44.864320  9033 net.cpp:100] Creating Layer conv4_3_norm_mbox_loc_flat
I0326 15:53:44.864321  9033 net.cpp:434] conv4_3_norm_mbox_loc_flat <- conv4_3_norm_mbox_loc_perm
I0326 15:53:44.864326  9033 net.cpp:408] conv4_3_norm_mbox_loc_flat -> conv4_3_norm_mbox_loc_flat
I0326 15:53:44.864356  9033 net.cpp:150] Setting up conv4_3_norm_mbox_loc_flat
I0326 15:53:44.864358  9033 net.cpp:157] Top shape: 8 23104 (184832)
I0326 15:53:44.864361  9033 net.cpp:165] Memory required for data: 2612226112
I0326 15:53:44.864362  9033 layer_factory.hpp:77] Creating layer conv4_3_norm_mbox_conf
I0326 15:53:44.864385  9033 net.cpp:100] Creating Layer conv4_3_norm_mbox_conf
I0326 15:53:44.864387  9033 net.cpp:434] conv4_3_norm_mbox_conf <- conv4_3_norm_conv4_3_norm_0_split_1
I0326 15:53:44.864392  9033 net.cpp:408] conv4_3_norm_mbox_conf -> conv4_3_norm_mbox_conf
I0326 15:53:44.868818  9033 net.cpp:150] Setting up conv4_3_norm_mbox_conf
I0326 15:53:44.868830  9033 net.cpp:157] Top shape: 8 84 38 38 (970368)
I0326 15:53:44.868832  9033 net.cpp:165] Memory required for data: 2616107584
I0326 15:53:44.868839  9033 layer_factory.hpp:77] Creating layer conv4_3_norm_mbox_conf_perm
I0326 15:53:44.868845  9033 net.cpp:100] Creating Layer conv4_3_norm_mbox_conf_perm
I0326 15:53:44.868849  9033 net.cpp:434] conv4_3_norm_mbox_conf_perm <- conv4_3_norm_mbox_conf
I0326 15:53:44.868852  9033 net.cpp:408] conv4_3_norm_mbox_conf_perm -> conv4_3_norm_mbox_conf_perm
I0326 15:53:44.868984  9033 net.cpp:150] Setting up conv4_3_norm_mbox_conf_perm
I0326 15:53:44.868993  9033 net.cpp:157] Top shape: 8 38 38 84 (970368)
I0326 15:53:44.868994  9033 net.cpp:165] Memory required for data: 2619989056
I0326 15:53:44.868996  9033 layer_factory.hpp:77] Creating layer conv4_3_norm_mbox_conf_flat
I0326 15:53:44.869001  9033 net.cpp:100] Creating Layer conv4_3_norm_mbox_conf_flat
I0326 15:53:44.869004  9033 net.cpp:434] conv4_3_norm_mbox_conf_flat <- conv4_3_norm_mbox_conf_perm
I0326 15:53:44.869007  9033 net.cpp:408] conv4_3_norm_mbox_conf_flat -> conv4_3_norm_mbox_conf_flat
I0326 15:53:44.869041  9033 net.cpp:150] Setting up conv4_3_norm_mbox_conf_flat
I0326 15:53:44.869045  9033 net.cpp:157] Top shape: 8 121296 (970368)
I0326 15:53:44.869047  9033 net.cpp:165] Memory required for data: 2623870528
I0326 15:53:44.869050  9033 layer_factory.hpp:77] Creating layer conv4_3_norm_mbox_priorbox
I0326 15:53:44.869055  9033 net.cpp:100] Creating Layer conv4_3_norm_mbox_priorbox
I0326 15:53:44.869057  9033 net.cpp:434] conv4_3_norm_mbox_priorbox <- conv4_3_norm_conv4_3_norm_0_split_2
I0326 15:53:44.869061  9033 net.cpp:434] conv4_3_norm_mbox_priorbox <- data_data_0_split_1
I0326 15:53:44.869065  9033 net.cpp:408] conv4_3_norm_mbox_priorbox -> conv4_3_norm_mbox_priorbox
I0326 15:53:44.869096  9033 net.cpp:150] Setting up conv4_3_norm_mbox_priorbox
I0326 15:53:44.869101  9033 net.cpp:157] Top shape: 1 2 23104 (46208)
I0326 15:53:44.869102  9033 net.cpp:165] Memory required for data: 2624055360
I0326 15:53:44.869104  9033 layer_factory.hpp:77] Creating layer fc7_mbox_loc
I0326 15:53:44.869114  9033 net.cpp:100] Creating Layer fc7_mbox_loc
I0326 15:53:44.869117  9033 net.cpp:434] fc7_mbox_loc <- fc7_fc7_scale_0_split_1
I0326 15:53:44.869122  9033 net.cpp:408] fc7_mbox_loc -> fc7_mbox_loc
I0326 15:53:44.871588  9033 net.cpp:150] Setting up fc7_mbox_loc
I0326 15:53:44.871603  9033 net.cpp:157] Top shape: 8 24 19 19 (69312)
I0326 15:53:44.871605  9033 net.cpp:165] Memory required for data: 2624332608
I0326 15:53:44.871613  9033 layer_factory.hpp:77] Creating layer fc7_mbox_loc_perm
I0326 15:53:44.871621  9033 net.cpp:100] Creating Layer fc7_mbox_loc_perm
I0326 15:53:44.871639  9033 net.cpp:434] fc7_mbox_loc_perm <- fc7_mbox_loc
I0326 15:53:44.871644  9033 net.cpp:408] fc7_mbox_loc_perm -> fc7_mbox_loc_perm
I0326 15:53:44.871780  9033 net.cpp:150] Setting up fc7_mbox_loc_perm
I0326 15:53:44.871788  9033 net.cpp:157] Top shape: 8 19 19 24 (69312)
I0326 15:53:44.871789  9033 net.cpp:165] Memory required for data: 2624609856
I0326 15:53:44.871791  9033 layer_factory.hpp:77] Creating layer fc7_mbox_loc_flat
I0326 15:53:44.871798  9033 net.cpp:100] Creating Layer fc7_mbox_loc_flat
I0326 15:53:44.871799  9033 net.cpp:434] fc7_mbox_loc_flat <- fc7_mbox_loc_perm
I0326 15:53:44.871803  9033 net.cpp:408] fc7_mbox_loc_flat -> fc7_mbox_loc_flat
I0326 15:53:44.871832  9033 net.cpp:150] Setting up fc7_mbox_loc_flat
I0326 15:53:44.871839  9033 net.cpp:157] Top shape: 8 8664 (69312)
I0326 15:53:44.871840  9033 net.cpp:165] Memory required for data: 2624887104
I0326 15:53:44.871842  9033 layer_factory.hpp:77] Creating layer fc7_mbox_conf
I0326 15:53:44.871850  9033 net.cpp:100] Creating Layer fc7_mbox_conf
I0326 15:53:44.871858  9033 net.cpp:434] fc7_mbox_conf <- fc7_fc7_scale_0_split_2
I0326 15:53:44.871865  9033 net.cpp:408] fc7_mbox_conf -> fc7_mbox_conf
I0326 15:53:44.879694  9033 net.cpp:150] Setting up fc7_mbox_conf
I0326 15:53:44.879719  9033 net.cpp:157] Top shape: 8 126 19 19 (363888)
I0326 15:53:44.879721  9033 net.cpp:165] Memory required for data: 2626342656
I0326 15:53:44.879732  9033 layer_factory.hpp:77] Creating layer fc7_mbox_conf_perm
I0326 15:53:44.879743  9033 net.cpp:100] Creating Layer fc7_mbox_conf_perm
I0326 15:53:44.879755  9033 net.cpp:434] fc7_mbox_conf_perm <- fc7_mbox_conf
I0326 15:53:44.879767  9033 net.cpp:408] fc7_mbox_conf_perm -> fc7_mbox_conf_perm
I0326 15:53:44.879925  9033 net.cpp:150] Setting up fc7_mbox_conf_perm
I0326 15:53:44.879932  9033 net.cpp:157] Top shape: 8 19 19 126 (363888)
I0326 15:53:44.879935  9033 net.cpp:165] Memory required for data: 2627798208
I0326 15:53:44.879937  9033 layer_factory.hpp:77] Creating layer fc7_mbox_conf_flat
I0326 15:53:44.879942  9033 net.cpp:100] Creating Layer fc7_mbox_conf_flat
I0326 15:53:44.879945  9033 net.cpp:434] fc7_mbox_conf_flat <- fc7_mbox_conf_perm
I0326 15:53:44.879950  9033 net.cpp:408] fc7_mbox_conf_flat -> fc7_mbox_conf_flat
I0326 15:53:44.879979  9033 net.cpp:150] Setting up fc7_mbox_conf_flat
I0326 15:53:44.879987  9033 net.cpp:157] Top shape: 8 45486 (363888)
I0326 15:53:44.879988  9033 net.cpp:165] Memory required for data: 2629253760
I0326 15:53:44.879990  9033 layer_factory.hpp:77] Creating layer fc7_mbox_priorbox
I0326 15:53:44.879997  9033 net.cpp:100] Creating Layer fc7_mbox_priorbox
I0326 15:53:44.879998  9033 net.cpp:434] fc7_mbox_priorbox <- fc7_fc7_scale_0_split_3
I0326 15:53:44.880002  9033 net.cpp:434] fc7_mbox_priorbox <- data_data_0_split_2
I0326 15:53:44.880007  9033 net.cpp:408] fc7_mbox_priorbox -> fc7_mbox_priorbox
I0326 15:53:44.880059  9033 net.cpp:150] Setting up fc7_mbox_priorbox
I0326 15:53:44.880066  9033 net.cpp:157] Top shape: 1 2 8664 (17328)
I0326 15:53:44.880069  9033 net.cpp:165] Memory required for data: 2629323072
I0326 15:53:44.880070  9033 layer_factory.hpp:77] Creating layer conv6_2_mbox_loc
I0326 15:53:44.880085  9033 net.cpp:100] Creating Layer conv6_2_mbox_loc
I0326 15:53:44.880090  9033 net.cpp:434] conv6_2_mbox_loc <- conv6_2_conv6_2_scale_0_split_1
I0326 15:53:44.880100  9033 net.cpp:408] conv6_2_mbox_loc -> conv6_2_mbox_loc
I0326 15:53:44.882149  9033 net.cpp:150] Setting up conv6_2_mbox_loc
I0326 15:53:44.882163  9033 net.cpp:157] Top shape: 8 24 10 10 (19200)
I0326 15:53:44.882164  9033 net.cpp:165] Memory required for data: 2629399872
I0326 15:53:44.882170  9033 layer_factory.hpp:77] Creating layer conv6_2_mbox_loc_perm
I0326 15:53:44.882176  9033 net.cpp:100] Creating Layer conv6_2_mbox_loc_perm
I0326 15:53:44.882179  9033 net.cpp:434] conv6_2_mbox_loc_perm <- conv6_2_mbox_loc
I0326 15:53:44.882184  9033 net.cpp:408] conv6_2_mbox_loc_perm -> conv6_2_mbox_loc_perm
I0326 15:53:44.882320  9033 net.cpp:150] Setting up conv6_2_mbox_loc_perm
I0326 15:53:44.882340  9033 net.cpp:157] Top shape: 8 10 10 24 (19200)
I0326 15:53:44.882344  9033 net.cpp:165] Memory required for data: 2629476672
I0326 15:53:44.882346  9033 layer_factory.hpp:77] Creating layer conv6_2_mbox_loc_flat
I0326 15:53:44.882349  9033 net.cpp:100] Creating Layer conv6_2_mbox_loc_flat
I0326 15:53:44.882352  9033 net.cpp:434] conv6_2_mbox_loc_flat <- conv6_2_mbox_loc_perm
I0326 15:53:44.882359  9033 net.cpp:408] conv6_2_mbox_loc_flat -> conv6_2_mbox_loc_flat
I0326 15:53:44.882390  9033 net.cpp:150] Setting up conv6_2_mbox_loc_flat
I0326 15:53:44.882395  9033 net.cpp:157] Top shape: 8 2400 (19200)
I0326 15:53:44.882398  9033 net.cpp:165] Memory required for data: 2629553472
I0326 15:53:44.882400  9033 layer_factory.hpp:77] Creating layer conv6_2_mbox_conf
I0326 15:53:44.882408  9033 net.cpp:100] Creating Layer conv6_2_mbox_conf
I0326 15:53:44.882411  9033 net.cpp:434] conv6_2_mbox_conf <- conv6_2_conv6_2_scale_0_split_2
I0326 15:53:44.882416  9033 net.cpp:408] conv6_2_mbox_conf -> conv6_2_mbox_conf
I0326 15:53:44.887612  9033 net.cpp:150] Setting up conv6_2_mbox_conf
I0326 15:53:44.887624  9033 net.cpp:157] Top shape: 8 126 10 10 (100800)
I0326 15:53:44.887625  9033 net.cpp:165] Memory required for data: 2629956672
I0326 15:53:44.887630  9033 layer_factory.hpp:77] Creating layer conv6_2_mbox_conf_perm
I0326 15:53:44.887636  9033 net.cpp:100] Creating Layer conv6_2_mbox_conf_perm
I0326 15:53:44.887639  9033 net.cpp:434] conv6_2_mbox_conf_perm <- conv6_2_mbox_conf
I0326 15:53:44.887645  9033 net.cpp:408] conv6_2_mbox_conf_perm -> conv6_2_mbox_conf_perm
I0326 15:53:44.887784  9033 net.cpp:150] Setting up conv6_2_mbox_conf_perm
I0326 15:53:44.887791  9033 net.cpp:157] Top shape: 8 10 10 126 (100800)
I0326 15:53:44.887794  9033 net.cpp:165] Memory required for data: 2630359872
I0326 15:53:44.887795  9033 layer_factory.hpp:77] Creating layer conv6_2_mbox_conf_flat
I0326 15:53:44.887799  9033 net.cpp:100] Creating Layer conv6_2_mbox_conf_flat
I0326 15:53:44.887805  9033 net.cpp:434] conv6_2_mbox_conf_flat <- conv6_2_mbox_conf_perm
I0326 15:53:44.887812  9033 net.cpp:408] conv6_2_mbox_conf_flat -> conv6_2_mbox_conf_flat
I0326 15:53:44.887852  9033 net.cpp:150] Setting up conv6_2_mbox_conf_flat
I0326 15:53:44.887859  9033 net.cpp:157] Top shape: 8 12600 (100800)
I0326 15:53:44.887863  9033 net.cpp:165] Memory required for data: 2630763072
I0326 15:53:44.887866  9033 layer_factory.hpp:77] Creating layer conv6_2_mbox_priorbox
I0326 15:53:44.887873  9033 net.cpp:100] Creating Layer conv6_2_mbox_priorbox
I0326 15:53:44.887879  9033 net.cpp:434] conv6_2_mbox_priorbox <- conv6_2_conv6_2_scale_0_split_3
I0326 15:53:44.887884  9033 net.cpp:434] conv6_2_mbox_priorbox <- data_data_0_split_3
I0326 15:53:44.887892  9033 net.cpp:408] conv6_2_mbox_priorbox -> conv6_2_mbox_priorbox
I0326 15:53:44.887926  9033 net.cpp:150] Setting up conv6_2_mbox_priorbox
I0326 15:53:44.887933  9033 net.cpp:157] Top shape: 1 2 2400 (4800)
I0326 15:53:44.887935  9033 net.cpp:165] Memory required for data: 2630782272
I0326 15:53:44.887938  9033 layer_factory.hpp:77] Creating layer conv7_2_mbox_loc
I0326 15:53:44.887944  9033 net.cpp:100] Creating Layer conv7_2_mbox_loc
I0326 15:53:44.887948  9033 net.cpp:434] conv7_2_mbox_loc <- conv7_2_conv7_2_scale_0_split_1
I0326 15:53:44.887956  9033 net.cpp:408] conv7_2_mbox_loc -> conv7_2_mbox_loc
I0326 15:53:44.889391  9033 net.cpp:150] Setting up conv7_2_mbox_loc
I0326 15:53:44.889401  9033 net.cpp:157] Top shape: 8 24 5 5 (4800)
I0326 15:53:44.889403  9033 net.cpp:165] Memory required for data: 2630801472
I0326 15:53:44.889410  9033 layer_factory.hpp:77] Creating layer conv7_2_mbox_loc_perm
I0326 15:53:44.889415  9033 net.cpp:100] Creating Layer conv7_2_mbox_loc_perm
I0326 15:53:44.889420  9033 net.cpp:434] conv7_2_mbox_loc_perm <- conv7_2_mbox_loc
I0326 15:53:44.889426  9033 net.cpp:408] conv7_2_mbox_loc_perm -> conv7_2_mbox_loc_perm
I0326 15:53:44.889559  9033 net.cpp:150] Setting up conv7_2_mbox_loc_perm
I0326 15:53:44.889564  9033 net.cpp:157] Top shape: 8 5 5 24 (4800)
I0326 15:53:44.889566  9033 net.cpp:165] Memory required for data: 2630820672
I0326 15:53:44.889580  9033 layer_factory.hpp:77] Creating layer conv7_2_mbox_loc_flat
I0326 15:53:44.889586  9033 net.cpp:100] Creating Layer conv7_2_mbox_loc_flat
I0326 15:53:44.889591  9033 net.cpp:434] conv7_2_mbox_loc_flat <- conv7_2_mbox_loc_perm
I0326 15:53:44.889598  9033 net.cpp:408] conv7_2_mbox_loc_flat -> conv7_2_mbox_loc_flat
I0326 15:53:44.889638  9033 net.cpp:150] Setting up conv7_2_mbox_loc_flat
I0326 15:53:44.889645  9033 net.cpp:157] Top shape: 8 600 (4800)
I0326 15:53:44.889648  9033 net.cpp:165] Memory required for data: 2630839872
I0326 15:53:44.889652  9033 layer_factory.hpp:77] Creating layer conv7_2_mbox_conf
I0326 15:53:44.889667  9033 net.cpp:100] Creating Layer conv7_2_mbox_conf
I0326 15:53:44.889670  9033 net.cpp:434] conv7_2_mbox_conf <- conv7_2_conv7_2_scale_0_split_2
I0326 15:53:44.889677  9033 net.cpp:408] conv7_2_mbox_conf -> conv7_2_mbox_conf
I0326 15:53:44.893563  9033 net.cpp:150] Setting up conv7_2_mbox_conf
I0326 15:53:44.893579  9033 net.cpp:157] Top shape: 8 126 5 5 (25200)
I0326 15:53:44.893584  9033 net.cpp:165] Memory required for data: 2630940672
I0326 15:53:44.893591  9033 layer_factory.hpp:77] Creating layer conv7_2_mbox_conf_perm
I0326 15:53:44.893604  9033 net.cpp:100] Creating Layer conv7_2_mbox_conf_perm
I0326 15:53:44.893611  9033 net.cpp:434] conv7_2_mbox_conf_perm <- conv7_2_mbox_conf
I0326 15:53:44.893618  9033 net.cpp:408] conv7_2_mbox_conf_perm -> conv7_2_mbox_conf_perm
I0326 15:53:44.893761  9033 net.cpp:150] Setting up conv7_2_mbox_conf_perm
I0326 15:53:44.893769  9033 net.cpp:157] Top shape: 8 5 5 126 (25200)
I0326 15:53:44.893772  9033 net.cpp:165] Memory required for data: 2631041472
I0326 15:53:44.893776  9033 layer_factory.hpp:77] Creating layer conv7_2_mbox_conf_flat
I0326 15:53:44.893785  9033 net.cpp:100] Creating Layer conv7_2_mbox_conf_flat
I0326 15:53:44.893791  9033 net.cpp:434] conv7_2_mbox_conf_flat <- conv7_2_mbox_conf_perm
I0326 15:53:44.893795  9033 net.cpp:408] conv7_2_mbox_conf_flat -> conv7_2_mbox_conf_flat
I0326 15:53:44.893828  9033 net.cpp:150] Setting up conv7_2_mbox_conf_flat
I0326 15:53:44.893834  9033 net.cpp:157] Top shape: 8 3150 (25200)
I0326 15:53:44.893836  9033 net.cpp:165] Memory required for data: 2631142272
I0326 15:53:44.893838  9033 layer_factory.hpp:77] Creating layer conv7_2_mbox_priorbox
I0326 15:53:44.893844  9033 net.cpp:100] Creating Layer conv7_2_mbox_priorbox
I0326 15:53:44.893851  9033 net.cpp:434] conv7_2_mbox_priorbox <- conv7_2_conv7_2_scale_0_split_3
I0326 15:53:44.893857  9033 net.cpp:434] conv7_2_mbox_priorbox <- data_data_0_split_4
I0326 15:53:44.893863  9033 net.cpp:408] conv7_2_mbox_priorbox -> conv7_2_mbox_priorbox
I0326 15:53:44.893936  9033 net.cpp:150] Setting up conv7_2_mbox_priorbox
I0326 15:53:44.893942  9033 net.cpp:157] Top shape: 1 2 600 (1200)
I0326 15:53:44.893944  9033 net.cpp:165] Memory required for data: 2631147072
I0326 15:53:44.893946  9033 layer_factory.hpp:77] Creating layer conv8_2_mbox_loc
I0326 15:53:44.893956  9033 net.cpp:100] Creating Layer conv8_2_mbox_loc
I0326 15:53:44.893960  9033 net.cpp:434] conv8_2_mbox_loc <- conv8_2_conv8_2_scale_0_split_1
I0326 15:53:44.893966  9033 net.cpp:408] conv8_2_mbox_loc -> conv8_2_mbox_loc
I0326 15:53:44.895326  9033 net.cpp:150] Setting up conv8_2_mbox_loc
I0326 15:53:44.895336  9033 net.cpp:157] Top shape: 8 16 3 3 (1152)
I0326 15:53:44.895339  9033 net.cpp:165] Memory required for data: 2631151680
I0326 15:53:44.895344  9033 layer_factory.hpp:77] Creating layer conv8_2_mbox_loc_perm
I0326 15:53:44.895351  9033 net.cpp:100] Creating Layer conv8_2_mbox_loc_perm
I0326 15:53:44.895355  9033 net.cpp:434] conv8_2_mbox_loc_perm <- conv8_2_mbox_loc
I0326 15:53:44.895361  9033 net.cpp:408] conv8_2_mbox_loc_perm -> conv8_2_mbox_loc_perm
I0326 15:53:44.895496  9033 net.cpp:150] Setting up conv8_2_mbox_loc_perm
I0326 15:53:44.895501  9033 net.cpp:157] Top shape: 8 3 3 16 (1152)
I0326 15:53:44.895504  9033 net.cpp:165] Memory required for data: 2631156288
I0326 15:53:44.895506  9033 layer_factory.hpp:77] Creating layer conv8_2_mbox_loc_flat
I0326 15:53:44.895524  9033 net.cpp:100] Creating Layer conv8_2_mbox_loc_flat
I0326 15:53:44.895529  9033 net.cpp:434] conv8_2_mbox_loc_flat <- conv8_2_mbox_loc_perm
I0326 15:53:44.895534  9033 net.cpp:408] conv8_2_mbox_loc_flat -> conv8_2_mbox_loc_flat
I0326 15:53:44.895568  9033 net.cpp:150] Setting up conv8_2_mbox_loc_flat
I0326 15:53:44.895573  9033 net.cpp:157] Top shape: 8 144 (1152)
I0326 15:53:44.895576  9033 net.cpp:165] Memory required for data: 2631160896
I0326 15:53:44.895578  9033 layer_factory.hpp:77] Creating layer conv8_2_mbox_conf
I0326 15:53:44.895586  9033 net.cpp:100] Creating Layer conv8_2_mbox_conf
I0326 15:53:44.895591  9033 net.cpp:434] conv8_2_mbox_conf <- conv8_2_conv8_2_scale_0_split_2
I0326 15:53:44.895596  9033 net.cpp:408] conv8_2_mbox_conf -> conv8_2_mbox_conf
I0326 15:53:44.898553  9033 net.cpp:150] Setting up conv8_2_mbox_conf
I0326 15:53:44.898564  9033 net.cpp:157] Top shape: 8 84 3 3 (6048)
I0326 15:53:44.898566  9033 net.cpp:165] Memory required for data: 2631185088
I0326 15:53:44.898571  9033 layer_factory.hpp:77] Creating layer conv8_2_mbox_conf_perm
I0326 15:53:44.898579  9033 net.cpp:100] Creating Layer conv8_2_mbox_conf_perm
I0326 15:53:44.898584  9033 net.cpp:434] conv8_2_mbox_conf_perm <- conv8_2_mbox_conf
I0326 15:53:44.898588  9033 net.cpp:408] conv8_2_mbox_conf_perm -> conv8_2_mbox_conf_perm
I0326 15:53:44.898730  9033 net.cpp:150] Setting up conv8_2_mbox_conf_perm
I0326 15:53:44.898736  9033 net.cpp:157] Top shape: 8 3 3 84 (6048)
I0326 15:53:44.898738  9033 net.cpp:165] Memory required for data: 2631209280
I0326 15:53:44.898741  9033 layer_factory.hpp:77] Creating layer conv8_2_mbox_conf_flat
I0326 15:53:44.898746  9033 net.cpp:100] Creating Layer conv8_2_mbox_conf_flat
I0326 15:53:44.898748  9033 net.cpp:434] conv8_2_mbox_conf_flat <- conv8_2_mbox_conf_perm
I0326 15:53:44.898752  9033 net.cpp:408] conv8_2_mbox_conf_flat -> conv8_2_mbox_conf_flat
I0326 15:53:44.898782  9033 net.cpp:150] Setting up conv8_2_mbox_conf_flat
I0326 15:53:44.898788  9033 net.cpp:157] Top shape: 8 756 (6048)
I0326 15:53:44.898792  9033 net.cpp:165] Memory required for data: 2631233472
I0326 15:53:44.898792  9033 layer_factory.hpp:77] Creating layer conv8_2_mbox_priorbox
I0326 15:53:44.898799  9033 net.cpp:100] Creating Layer conv8_2_mbox_priorbox
I0326 15:53:44.898802  9033 net.cpp:434] conv8_2_mbox_priorbox <- conv8_2_conv8_2_scale_0_split_3
I0326 15:53:44.898805  9033 net.cpp:434] conv8_2_mbox_priorbox <- data_data_0_split_5
I0326 15:53:44.898809  9033 net.cpp:408] conv8_2_mbox_priorbox -> conv8_2_mbox_priorbox
I0326 15:53:44.898841  9033 net.cpp:150] Setting up conv8_2_mbox_priorbox
I0326 15:53:44.898846  9033 net.cpp:157] Top shape: 1 2 144 (288)
I0326 15:53:44.898849  9033 net.cpp:165] Memory required for data: 2631234624
I0326 15:53:44.898851  9033 layer_factory.hpp:77] Creating layer conv9_2_mbox_loc
I0326 15:53:44.898860  9033 net.cpp:100] Creating Layer conv9_2_mbox_loc
I0326 15:53:44.898864  9033 net.cpp:434] conv9_2_mbox_loc <- conv9_2_conv9_2_scale_0_split_0
I0326 15:53:44.898869  9033 net.cpp:408] conv9_2_mbox_loc -> conv9_2_mbox_loc
I0326 15:53:44.900275  9033 net.cpp:150] Setting up conv9_2_mbox_loc
I0326 15:53:44.900287  9033 net.cpp:157] Top shape: 8 16 1 1 (128)
I0326 15:53:44.900290  9033 net.cpp:165] Memory required for data: 2631235136
I0326 15:53:44.900296  9033 layer_factory.hpp:77] Creating layer conv9_2_mbox_loc_perm
I0326 15:53:44.900301  9033 net.cpp:100] Creating Layer conv9_2_mbox_loc_perm
I0326 15:53:44.900305  9033 net.cpp:434] conv9_2_mbox_loc_perm <- conv9_2_mbox_loc
I0326 15:53:44.900310  9033 net.cpp:408] conv9_2_mbox_loc_perm -> conv9_2_mbox_loc_perm
I0326 15:53:44.900445  9033 net.cpp:150] Setting up conv9_2_mbox_loc_perm
I0326 15:53:44.900451  9033 net.cpp:157] Top shape: 8 1 1 16 (128)
I0326 15:53:44.900454  9033 net.cpp:165] Memory required for data: 2631235648
I0326 15:53:44.900455  9033 layer_factory.hpp:77] Creating layer conv9_2_mbox_loc_flat
I0326 15:53:44.900461  9033 net.cpp:100] Creating Layer conv9_2_mbox_loc_flat
I0326 15:53:44.900480  9033 net.cpp:434] conv9_2_mbox_loc_flat <- conv9_2_mbox_loc_perm
I0326 15:53:44.900486  9033 net.cpp:408] conv9_2_mbox_loc_flat -> conv9_2_mbox_loc_flat
I0326 15:53:44.900518  9033 net.cpp:150] Setting up conv9_2_mbox_loc_flat
I0326 15:53:44.900524  9033 net.cpp:157] Top shape: 8 16 (128)
I0326 15:53:44.900527  9033 net.cpp:165] Memory required for data: 2631236160
I0326 15:53:44.900528  9033 layer_factory.hpp:77] Creating layer conv9_2_mbox_conf
I0326 15:53:44.900537  9033 net.cpp:100] Creating Layer conv9_2_mbox_conf
I0326 15:53:44.900542  9033 net.cpp:434] conv9_2_mbox_conf <- conv9_2_conv9_2_scale_0_split_1
I0326 15:53:44.900547  9033 net.cpp:408] conv9_2_mbox_conf -> conv9_2_mbox_conf
I0326 15:53:44.902860  9033 net.cpp:150] Setting up conv9_2_mbox_conf
I0326 15:53:44.902871  9033 net.cpp:157] Top shape: 8 84 1 1 (672)
I0326 15:53:44.902875  9033 net.cpp:165] Memory required for data: 2631238848
I0326 15:53:44.902884  9033 layer_factory.hpp:77] Creating layer conv9_2_mbox_conf_perm
I0326 15:53:44.902894  9033 net.cpp:100] Creating Layer conv9_2_mbox_conf_perm
I0326 15:53:44.902899  9033 net.cpp:434] conv9_2_mbox_conf_perm <- conv9_2_mbox_conf
I0326 15:53:44.902905  9033 net.cpp:408] conv9_2_mbox_conf_perm -> conv9_2_mbox_conf_perm
I0326 15:53:44.903050  9033 net.cpp:150] Setting up conv9_2_mbox_conf_perm
I0326 15:53:44.903056  9033 net.cpp:157] Top shape: 8 1 1 84 (672)
I0326 15:53:44.903059  9033 net.cpp:165] Memory required for data: 2631241536
I0326 15:53:44.903061  9033 layer_factory.hpp:77] Creating layer conv9_2_mbox_conf_flat
I0326 15:53:44.903066  9033 net.cpp:100] Creating Layer conv9_2_mbox_conf_flat
I0326 15:53:44.903069  9033 net.cpp:434] conv9_2_mbox_conf_flat <- conv9_2_mbox_conf_perm
I0326 15:53:44.903072  9033 net.cpp:408] conv9_2_mbox_conf_flat -> conv9_2_mbox_conf_flat
I0326 15:53:44.903103  9033 net.cpp:150] Setting up conv9_2_mbox_conf_flat
I0326 15:53:44.903110  9033 net.cpp:157] Top shape: 8 84 (672)
I0326 15:53:44.903111  9033 net.cpp:165] Memory required for data: 2631244224
I0326 15:53:44.903113  9033 layer_factory.hpp:77] Creating layer conv9_2_mbox_priorbox
I0326 15:53:44.903120  9033 net.cpp:100] Creating Layer conv9_2_mbox_priorbox
I0326 15:53:44.903123  9033 net.cpp:434] conv9_2_mbox_priorbox <- conv9_2_conv9_2_scale_0_split_2
I0326 15:53:44.903126  9033 net.cpp:434] conv9_2_mbox_priorbox <- data_data_0_split_6
I0326 15:53:44.903131  9033 net.cpp:408] conv9_2_mbox_priorbox -> conv9_2_mbox_priorbox
I0326 15:53:44.903162  9033 net.cpp:150] Setting up conv9_2_mbox_priorbox
I0326 15:53:44.903168  9033 net.cpp:157] Top shape: 1 2 16 (32)
I0326 15:53:44.903169  9033 net.cpp:165] Memory required for data: 2631244352
I0326 15:53:44.903172  9033 layer_factory.hpp:77] Creating layer mbox_loc
I0326 15:53:44.903178  9033 net.cpp:100] Creating Layer mbox_loc
I0326 15:53:44.903182  9033 net.cpp:434] mbox_loc <- conv4_3_norm_mbox_loc_flat
I0326 15:53:44.903185  9033 net.cpp:434] mbox_loc <- fc7_mbox_loc_flat
I0326 15:53:44.903188  9033 net.cpp:434] mbox_loc <- conv6_2_mbox_loc_flat
I0326 15:53:44.903192  9033 net.cpp:434] mbox_loc <- conv7_2_mbox_loc_flat
I0326 15:53:44.903195  9033 net.cpp:434] mbox_loc <- conv8_2_mbox_loc_flat
I0326 15:53:44.903198  9033 net.cpp:434] mbox_loc <- conv9_2_mbox_loc_flat
I0326 15:53:44.903201  9033 net.cpp:408] mbox_loc -> mbox_loc
I0326 15:53:44.903234  9033 net.cpp:150] Setting up mbox_loc
I0326 15:53:44.903239  9033 net.cpp:157] Top shape: 8 34928 (279424)
I0326 15:53:44.903241  9033 net.cpp:165] Memory required for data: 2632362048
I0326 15:53:44.903244  9033 layer_factory.hpp:77] Creating layer mbox_conf
I0326 15:53:44.903247  9033 net.cpp:100] Creating Layer mbox_conf
I0326 15:53:44.903250  9033 net.cpp:434] mbox_conf <- conv4_3_norm_mbox_conf_flat
I0326 15:53:44.903254  9033 net.cpp:434] mbox_conf <- fc7_mbox_conf_flat
I0326 15:53:44.903256  9033 net.cpp:434] mbox_conf <- conv6_2_mbox_conf_flat
I0326 15:53:44.903260  9033 net.cpp:434] mbox_conf <- conv7_2_mbox_conf_flat
I0326 15:53:44.903262  9033 net.cpp:434] mbox_conf <- conv8_2_mbox_conf_flat
I0326 15:53:44.903275  9033 net.cpp:434] mbox_conf <- conv9_2_mbox_conf_flat
I0326 15:53:44.903280  9033 net.cpp:408] mbox_conf -> mbox_conf
I0326 15:53:44.903309  9033 net.cpp:150] Setting up mbox_conf
I0326 15:53:44.903316  9033 net.cpp:157] Top shape: 8 183372 (1466976)
I0326 15:53:44.903317  9033 net.cpp:165] Memory required for data: 2638229952
I0326 15:53:44.903319  9033 layer_factory.hpp:77] Creating layer mbox_priorbox
I0326 15:53:44.903323  9033 net.cpp:100] Creating Layer mbox_priorbox
I0326 15:53:44.903326  9033 net.cpp:434] mbox_priorbox <- conv4_3_norm_mbox_priorbox
I0326 15:53:44.903328  9033 net.cpp:434] mbox_priorbox <- fc7_mbox_priorbox
I0326 15:53:44.903331  9033 net.cpp:434] mbox_priorbox <- conv6_2_mbox_priorbox
I0326 15:53:44.903333  9033 net.cpp:434] mbox_priorbox <- conv7_2_mbox_priorbox
I0326 15:53:44.903337  9033 net.cpp:434] mbox_priorbox <- conv8_2_mbox_priorbox
I0326 15:53:44.903338  9033 net.cpp:434] mbox_priorbox <- conv9_2_mbox_priorbox
I0326 15:53:44.903342  9033 net.cpp:408] mbox_priorbox -> mbox_priorbox
I0326 15:53:44.903370  9033 net.cpp:150] Setting up mbox_priorbox
I0326 15:53:44.903376  9033 net.cpp:157] Top shape: 1 2 34928 (69856)
I0326 15:53:44.903378  9033 net.cpp:165] Memory required for data: 2638509376
I0326 15:53:44.903379  9033 layer_factory.hpp:77] Creating layer mbox_conf_reshape
I0326 15:53:44.903385  9033 net.cpp:100] Creating Layer mbox_conf_reshape
I0326 15:53:44.903388  9033 net.cpp:434] mbox_conf_reshape <- mbox_conf
I0326 15:53:44.903391  9033 net.cpp:408] mbox_conf_reshape -> mbox_conf_reshape
I0326 15:53:44.903424  9033 net.cpp:150] Setting up mbox_conf_reshape
I0326 15:53:44.903430  9033 net.cpp:157] Top shape: 8 8732 21 (1466976)
I0326 15:53:44.903432  9033 net.cpp:165] Memory required for data: 2644377280
I0326 15:53:44.903434  9033 layer_factory.hpp:77] Creating layer mbox_conf_softmax
I0326 15:53:44.903440  9033 net.cpp:100] Creating Layer mbox_conf_softmax
I0326 15:53:44.903443  9033 net.cpp:434] mbox_conf_softmax <- mbox_conf_reshape
I0326 15:53:44.903446  9033 net.cpp:408] mbox_conf_softmax -> mbox_conf_softmax
I0326 15:53:44.903702  9033 net.cpp:150] Setting up mbox_conf_softmax
I0326 15:53:44.903709  9033 net.cpp:157] Top shape: 8 8732 21 (1466976)
I0326 15:53:44.903712  9033 net.cpp:165] Memory required for data: 2650245184
I0326 15:53:44.903715  9033 layer_factory.hpp:77] Creating layer mbox_conf_flatten
I0326 15:53:44.903720  9033 net.cpp:100] Creating Layer mbox_conf_flatten
I0326 15:53:44.903723  9033 net.cpp:434] mbox_conf_flatten <- mbox_conf_softmax
I0326 15:53:44.903726  9033 net.cpp:408] mbox_conf_flatten -> mbox_conf_flatten
I0326 15:53:44.903758  9033 net.cpp:150] Setting up mbox_conf_flatten
I0326 15:53:44.903762  9033 net.cpp:157] Top shape: 8 183372 (1466976)
I0326 15:53:44.903764  9033 net.cpp:165] Memory required for data: 2656113088
I0326 15:53:44.903767  9033 layer_factory.hpp:77] Creating layer detection_out
I0326 15:53:44.903784  9033 net.cpp:100] Creating Layer detection_out
I0326 15:53:44.903789  9033 net.cpp:434] detection_out <- mbox_loc
I0326 15:53:44.903791  9033 net.cpp:434] detection_out <- mbox_conf_flatten
I0326 15:53:44.903795  9033 net.cpp:434] detection_out <- mbox_priorbox
I0326 15:53:44.903800  9033 net.cpp:408] detection_out -> detection_out
I0326 15:53:44.905462  9033 net.cpp:150] Setting up detection_out
I0326 15:53:44.905472  9033 net.cpp:157] Top shape: 1 1 1 7 (7)
I0326 15:53:44.905475  9033 net.cpp:165] Memory required for data: 2656113116
I0326 15:53:44.905478  9033 layer_factory.hpp:77] Creating layer detection_eval
I0326 15:53:44.905483  9033 net.cpp:100] Creating Layer detection_eval
I0326 15:53:44.905486  9033 net.cpp:434] detection_eval <- detection_out
I0326 15:53:44.905489  9033 net.cpp:434] detection_eval <- label
I0326 15:53:44.905493  9033 net.cpp:408] detection_eval -> detection_eval
I0326 15:53:44.906924  9033 net.cpp:150] Setting up detection_eval
I0326 15:53:44.906931  9033 net.cpp:157] Top shape: 1 1 21 5 (105)
I0326 15:53:44.906934  9033 net.cpp:165] Memory required for data: 2656113536
I0326 15:53:44.906949  9033 net.cpp:228] detection_eval does not need backward computation.
I0326 15:53:44.906951  9033 net.cpp:228] detection_out does not need backward computation.
I0326 15:53:44.906955  9033 net.cpp:228] mbox_conf_flatten does not need backward computation.
I0326 15:53:44.906957  9033 net.cpp:228] mbox_conf_softmax does not need backward computation.
…
