…
      sampler {
        min_scale: 0.3
        max_scale: 1
        min_aspect_ratio: 0.5
        max_aspect_ratio: 2
      }
      sample_constraint {
        min_jaccard_overlap: 0.9
      }
      max_sample: 1
      max_trials: 50
    }
    batch_sampler {
      sampler {
        min_scale: 0.3
        max_scale: 1
        min_aspect_ratio: 0.5
        max_aspect_ratio: 2
      }
      sample_constraint {
        max_jaccard_overlap: 1
      }
      max_sample: 1
      max_trials: 50
    }
    label_map_file: "data/VOC0712/labelmap_voc.prototxt"
  }
}
layer {
  name: "conv1_1"
  type: "Convolution"
  bottom: "data"
  top: "conv1_1"
  param {
    lr_mult: 1
    decay_mult: 1
  }
  param {
    lr_mult: 2
    decay_mult: 0
  }
  convolution_param {
    num_output: 64
    pad: 1
    kernel_size: 3
    weight_filler {
      type: "xavier"
    }
    bias_filler {
      type: "constant"
      value: 0
    }
  }
}
layer {
  name: "relu1_1"
  type: "ReLU"
  bottom: "conv1_1"
  top: "conv1_1"
}
layer {
  name: "conv1_2"
  type: "Convolution"
  bottom: "conv1_1"
  top: "conv1_2"
  param {
    lr_mult: 1
    decay_mult: 1
  }
  param {
    lr_mult: 2
    decay_mult: 0
  }
  convolution_param {
    num_output: 64
    pad: 1
    kernel_size: 3
    weight_filler {
      type: "xavier"
    }
    bias_filler {
      type: "constant"
      value: 0
    }
  }
}
layer {
  name: "relu1_2"
  type: "ReLU"
  bottom: "conv1_2"
  top: "conv1_2"
}
layer {
  name: "pool1"
  type: "Pooling"
  bottom: "conv1_2"
  top: "pool1"
  pooling_param {
    pool: MAX
    kernel_size: 2
    stride: 2
  }
}
layer {
  name: "conv2_1"
  type: "Convolution"
  bottom: "pool1"
  top: "conv2_1"
  param {
    lr_mult: 1
    decay_mult: 1
  }
  param {
    lr_mult: 2
    decay_mult: 0
  }
  convolution_param {
    num_output: 128
    pad: 1
    kernel_size: 3
    weight_filler {
      type: "xavier"
    }
    bias_filler {
      type: "constant"
      value: 0
    }
  }
}
layer {
  name: "relu2_1"
  type: "ReLU"
  bottom: "conv2_1"
  top: "conv2_1"
}
layer {
  name: "conv2_2"
  type: "Convolution"
  bottom: "conv2_1"
  top: "conv2_2"
  param {
    lr_mult: 1
    decay_mult: 1
  }
  param {
    lr_mult: 2
    decay_mult: 0
  }
  convolution_param {
    num_output: 128
    pad: 1
    kernel_size: 3
    weight_filler {
      type: "xavier"
    }
    bias_filler {
      type: "constant"
      value: 0
    }
  }
}
layer {
  name: "relu2_2"
  type: "ReLU"
  bottom: "conv2_2"
  top: "conv2_2"
}
layer {
  name: "pool2"
  type: "Pooling"
  bottom: "conv2_2"
  top: "pool2"
  pooling_param {
    pool: MAX
    kernel_size: 2
    stride: 2
  }
}
layer {
  name: "conv3_1"
  type: "Convolution"
  bottom: "pool2"
  top: "conv3_1"
  param {
    lr_mult: 1
    decay_mult: 1
  }
  param {
    lr_mult: 2
    decay_mult: 0
  }
  convolution_param {
    num_output: 256
    pad: 1
    kernel_size: 3
    weight_filler {
      type: "xavier"
    }
    bias_filler {
      type: "constant"
      value: 0
    }
  }
}
layer {
  name: "relu3_1"
  type: "ReLU"
  bottom: "conv3_1"
  top: "conv3_1"
}
layer {
  name: "conv3_2"
  type: "Convolution"
  bottom: "conv3_1"
  top: "conv3_2"
  param {
    lr_mult: 1
    decay_mult: 1
  }
  param {
    lr_mult: 2
    decay_mult: 0
  }
  convolution_param {
    num_output: 256
    pad: 1
    kernel_size: 3
    weight_filler {
      type: "xavier"
    }
    bias_filler {
      type: "constant"
      value: 0
    }
  }
}
layer {
  name: "relu3_2"
  type: "ReLU"
  bottom: "conv3_2"
  top: "conv3_2"
}
layer {
  name: "conv3_3"
  type: "Convolution"
  bottom: "conv3_2"
  top: "conv3_3"
  param {
    lr_mult: 1
    decay_mult: 1
  }
  param {
    lr_mult: 2
    decay_mult: 0
  }
  convolution_param {
    num_output: 256
    pad: 1
    kernel_size: 3
    weight_filler {
      type: "xavier"
    }
    bias_filler {
      type: "constant"
      value: 0
    }
  }
}
layer {
  name: "relu3_3"
  type: "ReLU"
  bottom: "conv3_3"
  top: "conv3_3"
}
layer {
  name: "pool3"
  type: "Pooling"
  bottom: "conv3_3"
  top: "pool3"
  pooling_param {
    pool: MAX
    kernel_size: 2
    stride: 2
  }
}
layer {
  name: "conv4_1"
  type: "Convolution"
  bottom: "pool3"
  top: "conv4_1"
  param {
    lr_mult: 1
    decay_mult: 1
  }
  param {
    lr_mult: 2
    decay_mult: 0
  }
  convolution_param {
    num_output: 512
    pad: 1
    kernel_size: 3
    weight_filler {
      type: "xavier"
    }
    bias_filler {
      type: "constant"
      value: 0
    }
  }
}
layer {
  name: "relu4_1"
  type: "ReLU"
  bottom: "conv4_1"
  top: "conv4_1"
}
layer {
  name: "conv4_2"
  type: "Convolution"
  bottom: "conv4_1"
  top: "conv4_2"
  param {
    lr_mult: 1
    decay_mult: 1
  }
  param {
    lr_mult: 2
    decay_mult: 0
  }
  convolution_param {
    num_output: 512
    pad: 1
    kernel_size: 3
    weight_filler {
      type: "xavier"
    }
    bias_filler {
      type: "constant"
      value: 0
    }
  }
}
layer {
  name: "relu4_2"
  type: "ReLU"
  bottom: "conv4_2"
  top: "conv4_2"
}
layer {
  name: "conv4_3"
  type: "Convolution"
  bottom: "conv4_2"
  top: "conv4_3_ori"
  param {
    lr_mult: 1
    decay_mult: 1
  }
  param {
    lr_mult: 2
    decay_mult: 0
  }
  convolution_param {
    num_output: 512
    pad: 1
    kernel_size: 3
    weight_filler {
      type: "xavier"
    }
    bias_filler {
      type: "constant"
      value: 0
    }
  }
}
layer {
  name: "relu4_3"
  type: "ReLU"
  bottom: "conv4_3_ori"
  top: "conv4_3_ori"
}
layer {
  name: "seg_pool4"
  type: "Pooling"
  bottom: "conv4_3_ori"
  top: "seg_pool4"
  pooling_param {
    pool: MAX
    kernel_size: 3
    stride: 1
    pad: 1
  }
}
layer {
  name: "seg5_1"
  type: "Convolution"
  bottom: "seg_pool4"
  top: "seg5_1"
  param {
    lr_mult: 1
    decay_mult: 1
  }
  param {
    lr_mult: 2
    decay_mult: 0
  }
  convolution_param {
    num_output: 512
    pad: 2
    kernel_size: 3
    weight_filler {
      type: "xavier"
    }
    bias_filler {
      type: "constant"
      value: 0
    }
    dilation: 2
  }
}
layer {
  name: "seg_relu5_1"
  type: "ReLU"
  bottom: "seg5_1"
  top: "seg5_1"
}
layer {
  name: "seg5_2"
  type: "Convolution"
  bottom: "seg5_1"
  top: "seg5_2"
  param {
    lr_mult: 1
    decay_mult: 1
  }
  param {
    lr_mult: 2
    decay_mult: 0
  }
  convolution_param {
    num_output: 512
    pad: 2
    kernel_size: 3
    weight_filler {
      type: "xavier"
    }
    bias_filler {
      type: "constant"
      value: 0
    }
    dilation: 2
  }
}
layer {
  name: "seg_relu5_2"
  type: "ReLU"
  bottom: "seg5_2"
  top: "seg5_2"
}
layer {
  name: "seg5_3"
  type: "Convolution"
  bottom: "seg5_2"
  top: "seg5_3"
  param {
    lr_mult: 1
    decay_mult: 1
  }
  param {
    lr_mult: 2
    decay_mult: 0
  }
  convolution_param {
    num_output: 512
    pad: 2
    kernel_size: 3
    weight_filler {
      type: "xavier"
    }
    bias_filler {
      type: "constant"
      value: 0
    }
    dilation: 2
  }
}
layer {
  name: "seg_relu5_3"
  type: "ReLU"
  bottom: "seg5_3"
  top: "seg5_3"
}
layer {
  name: "seg_pool5"
  type: "Pooling"
  bottom: "seg5_3"
  top: "seg_pool5"
  pooling_param {
    pool: MAX
    kernel_size: 3
    stride: 1
    pad: 1
  }
}
layer {
  name: "seg6"
  type: "Convolution"
  bottom: "seg_pool5"
  top: "seg6"
  param {
    lr_mult: 1
    decay_mult: 1
  }
  param {
    lr_mult: 2
    decay_mult: 0
  }
  convolution_param {
    num_output: 1024
    pad: 4
    kernel_size: 3
    weight_filler {
      type: "xavier"
    }
    bias_filler {
      type: "constant"
      value: 0
    }
    dilation: 4
  }
}
layer {
  name: "seg_relu6"
  type: "ReLU"
  bottom: "seg6"
  top: "seg6"
}
layer {
  name: "seg_drop6"
  type: "Dropout"
  bottom: "seg6"
  top: "seg6"
  dropout_param {
    dropout_ratio: 0.5
  }
}
layer {
  name: "seg7"
  type: "Convolution"
  bottom: "seg6"
  top: "seg7"
  param {
    lr_mult: 1
    decay_mult: 1
  }
  param {
    lr_mult: 2
    decay_mult: 0
  }
  convolution_param {
    num_output: 1024
    kernel_size: 1
    weight_filler {
      type: "xavier"
    }
    bias_filler {
      type: "constant"
      value: 0
    }
  }
}
layer {
  name: "seg_relu7"
  type: "ReLU"
  bottom: "seg7"
  top: "seg7"
}
layer {
  name: "seg_drop7"
  type: "Dropout"
  bottom: "seg7"
  top: "seg7d"
  dropout_param {
    dropout_ratio: 0.5
  }
}
layer {
  name: "seg"
  type: "Convolution"
  bottom: "seg7d"
  top: "seg"
  param {
    lr_mult: 10
    decay_mult: 1
  }
  param {
    lr_mult: 20
    decay_mult: 0
  }
  convolution_param {
    num_output: 21
    kernel_size: 1
    weight_filler {
      type: "gaussian"
      std: 0.01
    }
    bias_filler {
      type: "constant"
      value: 0
    }
  }
}
layer {
  name: "seg_gt"
  type: "SegGt"
  bottom: "label"
  bottom: "seg"
  top: "seg_gt"
  seggt_param {
    background_label_id: 0
    use_difficult_gt: true
  }
}
layer {
  name: "seg_loss"
  type: "SoftmaxWithLoss"
  bottom: "seg"
  bottom: "seg_gt"
  top: "seg_loss"
  loss_weight: 0.1
  propagate_down: true
  propagate_down: false
  softmax_param {
    axis: 1
  }
}
layer {
  name: "seg_to_det_conv"
  type: "Convolution"
  bottom: "seg7"
  top: "seg_to_det_conv"
  param {
    lr_mult: 1
    decay_mult: 1
  }
  param {
    lr_mult: 2
    decay_mult: 0
  }
  convolution_param {
    num_output: 512
    pad: 0
    kernel_size: 1
    stride: 1
    weight_filler {
      type: "xavier"
    }
    bias_filler {
      type: "constant"
      value: 0
    }
  }
}
layer {
  name: "mult_conv4_3"
  type: "Eltwise"
  bottom: "conv4_3_ori"
  bottom: "seg_to_det_conv"
  top: "conv4_3_t"
  eltwise_param {
    operation: PROD
  }
}
layer {
  name: "conv4_3_s"
  type: "Pooling"
  bottom: "conv4_3_t"
  top: "conv4_3_s"
  pooling_param {
    pool: AVE
    global_pooling: true
  }
}
layer {
  name: "conv4_3_fc1"
  type: "Convolution"
  bottom: "conv4_3_s"
  top: "conv4_3_fc1"
  param {
    lr_mult: 1
    decay_mult: 1
  }
  param {
    lr_mult: 2
    decay_mult: 0
  }
  convolution_param {
    num_output: 128
    kernel_size: 1
    stride: 1
    weight_filler {
      type: "xavier"
    }
    bias_filler {
      type: "constant"
      value: 0
    }
  }
}
layer {
  name: "conv4_3_relu"
  type: "ReLU"
  bottom: "conv4_3_fc1"
  top: "conv4_3_fc1"
}
layer {
  name: "conv4_3_fc2"
  type: "Convolution"
  bottom: "conv4_3_fc1"
  top: "conv4_3_fc2"
  param {
    lr_mult: 1
    decay_mult: 1
  }
  param {
    lr_mult: 2
    decay_mult: 0
  }
  convolution_param {
    num_output: 512
    kernel_size: 1
    stride: 1
    weight_filler {
      type: "xavier"
    }
    bias_filler {
      type: "constant"
      value: 0
    }
  }
}
layer {
  name: "conv4_3_sig"
  type: "Sigmoid"
  bottom: "conv4_3_fc2"
  top: "conv4_3_fc2"
}
layer {
  name: "conv4_3_reshape"
  type: "Reshape"
  bottom: "conv4_3_fc2"
  top: "conv4_3_reshape"
  reshape_param {
    shape {
      dim: 0
      dim: 0
    }
  }
}
layer {
  name: "conv4_3_scale"
  type: "Scale"
  bottom: "conv4_3_t"
  bottom: "conv4_3_reshape"
  top: "conv4_3"
  scale_param {
    axis: 0
    bias_term: false
  }
}
layer {
  name: "pool4"
  type: "Pooling"
  bottom: "conv4_3"
  top: "pool4"
  pooling_param {
    pool: MAX
    kernel_size: 2
    stride: 2
  }
}
layer {
  name: "conv5_1"
  type: "Convolution"
  bottom: "pool4"
  top: "conv5_1"
  param {
    lr_mult: 1
    decay_mult: 1
  }
  param {
    lr_mult: 2
    decay_mult: 0
  }
  convolution_param {
    num_output: 512
    pad: 1
    kernel_size: 3
    weight_filler {
      type: "xavier"
    }
    bias_filler {
      type: "constant"
      value: 0
    }
    dilation: 1
  }
}
layer {
  name: "relu5_1"
  type: "ReLU"
  bottom: "conv5_1"
  top: "conv5_1"
}
layer {
  name: "conv5_2"
  type: "Convolution"
  bottom: "conv5_1"
  top: "conv5_2"
  param {
    lr_mult: 1
    decay_mult: 1
  }
  param {
    lr_mult: 2
    decay_mult: 0
  }
  convolution_param {
    num_output: 512
    pad: 1
    kernel_size: 3
    weight_filler {
      type: "xavier"
    }
    bias_filler {
      type: "constant"
      value: 0
    }
    dilation: 1
  }
}
layer {
  name: "relu5_2"
  type: "ReLU"
  bottom: "conv5_2"
  top: "conv5_2"
}
layer {
  name: "conv5_3"
  type: "Convolution"
  bottom: "conv5_2"
  top: "conv5_3"
  param {
    lr_mult: 1
    decay_mult: 1
  }
  param {
    lr_mult: 2
    decay_mult: 0
  }
  convolution_param {
    num_output: 512
    pad: 1
    kernel_size: 3
    weight_filler {
      type: "xavier"
    }
    bias_filler {
      type: "constant"
      value: 0
    }
    dilation: 1
  }
}
layer {
  name: "relu5_3"
  type: "ReLU"
  bottom: "conv5_3"
  top: "conv5_3"
}
layer {
  name: "pool5"
  type: "Pooling"
  bottom: "conv5_3"
  top: "pool5"
  pooling_param {
    pool: MAX
    kernel_size: 3
    stride: 1
    pad: 1
  }
}
layer {
  name: "fc6"
  type: "Convolution"
  bottom: "pool5"
  top: "fc6"
  param {
    lr_mult: 1
    decay_mult: 1
  }
  param {
    lr_mult: 2
    decay_mult: 0
  }
  convolution_param {
    num_output: 1024
    pad: 6
    kernel_size: 3
    weight_filler {
      type: "xavier"
    }
    bias_filler {
      type: "constant"
      value: 0
    }
    dilation: 6
  }
}
layer {
  name: "relu6"
  type: "ReLU"
  bottom: "fc6"
  top: "fc6"
}
layer {
  name: "fc7"
  type: "Convolution"
  bottom: "fc6"
  top: "fc7_t"
  param {
    lr_mult: 1
    decay_mult: 1
  }
  param {
    lr_mult: 2
    decay_mult: 0
  }
  convolution_param {
    num_output: 1024
    kernel_size: 1
    weight_filler {
      type: "xavier"
    }
    bias_filler {
      type: "constant"
      value: 0
    }
  }
}
layer {
  name: "relu7"
  type: "ReLU"
  bottom: "fc7_t"
  top: "fc7_t"
}
layer {
  name: "fc7_s"
  type: "Pooling"
  bottom: "fc7_t"
  top: "fc7_s"
  pooling_param {
    pool: AVE
    global_pooling: true
  }
}
layer {
  name: "fc7_fc1"
  type: "Convolution"
  bottom: "fc7_s"
  top: "fc7_fc1"
  param {
    lr_mult: 1
    decay_mult: 1
  }
  param {
    lr_mult: 2
    decay_mult: 0
  }
  convolution_param {
    num_output: 256
    kernel_size: 1
    stride: 1
    weight_filler {
      type: "xavier"
    }
    bias_filler {
      type: "constant"
      value: 0
    }
  }
}
layer {
  name: "fc7_relu"
  type: "ReLU"
  bottom: "fc7_fc1"
  top: "fc7_fc1"
}
layer {
  name: "fc7_fc2"
  type: "Convolution"
  bottom: "fc7_fc1"
  top: "fc7_fc2"
  param {
    lr_mult: 1
    decay_mult: 1
  }
  param {
    lr_mult: 2
    decay_mult: 0
  }
  convolution_param {
    num_output: 1024
    kernel_size: 1
    stride: 1
    weight_filler {
      type: "xavier"
    }
    bias_filler {
      type: "constant"
      value: 0
    }
  }
}
layer {
  name: "fc7_sig"
  type: "Sigmoid"
  bottom: "fc7_fc2"
  top: "fc7_fc2"
}
layer {
  name: "fc7_reshape"
  type: "Reshape"
  bottom: "fc7_fc2"
  top: "fc7_reshape"
  reshape_param {
    shape {
      dim: 0
      dim: 0
    }
  }
}
layer {
  name: "fc7_scale"
  type: "Scale"
  bottom: "fc7_t"
  bottom: "fc7_reshape"
  top: "fc7"
  scale_param {
    axis: 0
    bias_term: false
  }
}
layer {
  name: "conv6_1"
  type: "Convolution"
  bottom: "fc7"
  top: "conv6_1"
  param {
    lr_mult: 1
    decay_mult: 1
  }
  param {
    lr_mult: 2
    decay_mult: 0
  }
  convolution_param {
    num_output: 256
    pad: 0
    kernel_size: 1
    stride: 1
    weight_filler {
      type: "xavier"
    }
    bias_filler {
      type: "constant"
      value: 0
    }
  }
}
layer {
  name: "conv6_1_relu"
  type: "ReLU"
  bottom: "conv6_1"
  top: "conv6_1"
}
layer {
  name: "conv6_2"
  type: "Convolution"
  bottom: "conv6_1"
  top: "conv6_2_t"
  param {
    lr_mult: 1
    decay_mult: 1
  }
  param {
    lr_mult: 2
    decay_mult: 0
  }
  convolution_param {
    num_output: 512
    pad: 1
    kernel_size: 3
    stride: 2
    weight_filler {
      type: "xavier"
    }
    bias_filler {
      type: "constant"
      value: 0
    }
  }
}
layer {
  name: "conv6_2_relu"
  type: "ReLU"
  bottom: "conv6_2_t"
  top: "conv6_2_t"
}
layer {
  name: "conv6_2_s"
  type: "Pooling"
  bottom: "conv6_2_t"
  top: "conv6_2_s"
  pooling_param {
    pool: AVE
    global_pooling: true
  }
}
layer {
  name: "conv6_2_fc1"
  type: "Convolution"
  bottom: "conv6_2_s"
  top: "conv6_2_fc1"
  param {
    lr_mult: 1
    decay_mult: 1
  }
  param {
    lr_mult: 2
    decay_mult: 0
  }
  convolution_param {
    num_output: 128
    kernel_size: 1
    stride: 1
    weight_filler {
      type: "xavier"
    }
    bias_filler {
      type: "constant"
      value: 0
    }
  }
}
layer {
  name: "conv6_2_relu"
  type: "ReLU"
  bottom: "conv6_2_fc1"
  top: "conv6_2_fc1"
}
layer {
  name: "conv6_2_fc2"
  type: "Convolution"
  bottom: "conv6_2_fc1"
  top: "conv6_2_fc2"
  param {
    lr_mult: 1
    decay_mult: 1
  }
  param {
    lr_mult: 2
    decay_mult: 0
  }
  convolution_param {
    num_output: 512
    kernel_size: 1
    stride: 1
    weight_filler {
      type: "xavier"
    }
    bias_filler {
      type: "constant"
      value: 0
    }
  }
}
layer {
  name: "conv6_2_sig"
  type: "Sigmoid"
  bottom: "conv6_2_fc2"
  top: "conv6_2_fc2"
}
layer {
  name: "conv6_2_reshape"
  type: "Reshape"
  bottom: "conv6_2_fc2"
  top: "conv6_2_reshape"
  reshape_param {
    shape {
      dim: 0
      dim: 0
    }
  }
}
layer {
  name: "conv6_2_scale"
  type: "Scale"
  bottom: "conv6_2_t"
  bottom: "conv6_2_reshape"
  top: "conv6_2"
  scale_param {
    axis: 0
    bias_term: false
  }
}
layer {
  name: "conv7_1"
  type: "Convolution"
  bottom: "conv6_2"
  top: "conv7_1"
  param {
    lr_mult: 1
    decay_mult: 1
  }
  param {
    lr_mult: 2
    decay_mult: 0
  }
  convolution_param {
    num_output: 128
    pad: 0
    kernel_size: 1
    stride: 1
    weight_filler {
      type: "xavier"
    }
    bias_filler {
      type: "constant"
      value: 0
    }
  }
}
layer {
  name: "conv7_1_relu"
  type: "ReLU"
  bottom: "conv7_1"
  top: "conv7_1"
}
layer {
  name: "conv7_2"
  type: "Convolution"
  bottom: "conv7_1"
  top: "conv7_2_t"
  param {
    lr_mult: 1
    decay_mult: 1
  }
  param {
    lr_mult: 2
    decay_mult: 0
  }
  convolution_param {
    num_output: 256
    pad: 1
    kernel_size: 3
    stride: 2
    weight_filler {
      type: "xavier"
    }
    bias_filler {
      type: "constant"
      value: 0
    }
  }
}
layer {
  name: "conv7_2_relu"
  type: "ReLU"
  bottom: "conv7_2_t"
  top: "conv7_2_t"
}
layer {
  name: "conv7_2_s"
  type: "Pooling"
  bottom: "conv7_2_t"
  top: "conv7_2_s"
  pooling_param {
    pool: AVE
    global_pooling: true
  }
}
layer {
  name: "conv7_2_fc1"
  type: "Convolution"
  bottom: "conv7_2_s"
  top: "conv7_2_fc1"
  param {
    lr_mult: 1
    decay_mult: 1
  }
  param {
    lr_mult: 2
    decay_mult: 0
  }
  convolution_param {
    num_output: 64
    kernel_size: 1
    stride: 1
    weight_filler {
      type: "xavier"
    }
    bias_filler {
      type: "constant"
      value: 0
    }
  }
}
layer {
  name: "conv7_2_relu"
  type: "ReLU"
  bottom: "conv7_2_fc1"
  top: "conv7_2_fc1"
}
layer {
  name: "conv7_2_fc2"
  type: "Convolution"
  bottom: "conv7_2_fc1"
  top: "conv7_2_fc2"
  param {
    lr_mult: 1
    decay_mult: 1
  }
  param {
    lr_mult: 2
    decay_mult: 0
  }
  convolution_param {
    num_output: 256
    kernel_size: 1
    stride: 1
    weight_filler {
      type: "xavier"
    }
    bias_filler {
      type: "constant"
      value: 0
    }
  }
}
layer {
  name: "conv7_2_sig"
  type: "Sigmoid"
  bottom: "conv7_2_fc2"
  top: "conv7_2_fc2"
}
layer {
  name: "conv7_2_reshape"
  type: "Reshape"
  bottom: "conv7_2_fc2"
  top: "conv7_2_reshape"
  reshape_param {
    shape {
      dim: 0
      dim: 0
    }
  }
}
layer {
  name: "conv7_2_scale"
  type: "Scale"
  bottom: "conv7_2_t"
  bottom: "conv7_2_reshape"
  top: "conv7_2"
  scale_param {
    axis: 0
    bias_term: false
  }
}
layer {
  name: "conv8_1"
  type: "Convolution"
  bottom: "conv7_2"
  top: "conv8_1"
  param {
    lr_mult: 1
    decay_mult: 1
  }
  param {
    lr_mult: 2
    decay_mult: 0
  }
  convolution_param {
    num_output: 128
    pad: 0
    kernel_size: 1
    stride: 1
    weight_filler {
      type: "xavier"
    }
    bias_filler {
      type: "constant"
      value: 0
    }
  }
}
layer {
  name: "conv8_1_relu"
  type: "ReLU"
  bottom: "conv8_1"
  top: "conv8_1"
}
layer {
  name: "conv8_2"
  type: "Convolution"
  bottom: "conv8_1"
  top: "conv8_2_t"
  param {
    lr_mult: 1
    decay_mult: 1
  }
  param {
    lr_mult: 2
    decay_mult: 0
  }
  convolution_param {
    num_output: 256
    pad: 0
    kernel_size: 3
    stride: 1
    weight_filler {
      type: "xavier"
    }
    bias_filler {
      type: "constant"
      value: 0
    }
  }
}
layer {
  name: "conv8_2_relu"
  type: "ReLU"
  bottom: "conv8_2_t"
  top: "conv8_2_t"
}
layer {
  name: "conv8_2_s"
  type: "Pooling"
  bottom: "conv8_2_t"
  top: "conv8_2_s"
  pooling_param {
    pool: AVE
    global_pooling: true
  }
}
layer {
  name: "conv8_2_fc1"
  type: "Convolution"
  bottom: "conv8_2_s"
  top: "conv8_2_fc1"
  param {
    lr_mult: 1
    decay_mult: 1
  }
  param {
    lr_mult: 2
    decay_mult: 0
  }
  convolution_param {
    num_output: 64
    kernel_size: 1
    stride: 1
    weight_filler {
      type: "xavier"
    }
    bias_filler {
      type: "constant"
      value: 0
    }
  }
}
layer {
  name: "conv8_2_relu"
  type: "ReLU"
  bottom: "conv8_2_fc1"
  top: "conv8_2_fc1"
}
layer {
  name: "conv8_2_fc2"
  type: "Convolution"
  bottom: "conv8_2_fc1"
  top: "conv8_2_fc2"
  param {
    lr_mult: 1
    decay_mult: 1
  }
  param {
    lr_mult: 2
    decay_mult: 0
  }
  convolution_param {
    num_output: 256
    kernel_size: 1
    stride: 1
    weight_filler {
      type: "xavier"
    }
    bias_filler {
      type: "constant"
      value: 0
    }
  }
}
layer {
  name: "conv8_2_sig"
  type: "Sigmoid"
  bottom: "conv8_2_fc2"
  top: "conv8_2_fc2"
}
layer {
  name: "conv8_2_reshape"
  type: "Reshape"
  bottom: "conv8_2_fc2"
  top: "conv8_2_reshape"
  reshape_param {
    shape {
      dim: 0
      dim: 0
    }
  }
}
layer {
  name: "conv8_2_scale"
  type: "Scale"
  bottom: "conv8_2_t"
  bottom: "conv8_2_reshape"
  top: "conv8_2"
  scale_param {
    axis: 0
    bias_term: false
  }
}
layer {
  name: "conv9_1"
  type: "Convolution"
  bottom: "conv8_2"
  top: "conv9_1"
  param {
    lr_mult: 1
    decay_mult: 1
  }
  param {
    lr_mult: 2
    decay_mult: 0
  }
  convolution_param {
    num_output: 128
    pad: 0
    kernel_size: 1
    stride: 1
    weight_filler {
      type: "xavier"
    }
    bias_filler {
      type: "constant"
      value: 0
    }
  }
}
layer {
  name: "conv9_1_relu"
  type: "ReLU"
  bottom: "conv9_1"
  top: "conv9_1"
}
layer {
  name: "conv9_2"
  type: "Convolution"
  bottom: "conv9_1"
  top: "conv9_2_t"
  param {
    lr_mult: 1
    decay_mult: 1
  }
  param {
    lr_mult: 2
    decay_mult: 0
  }
  convolution_param {
    num_output: 256
    pad: 0
    kernel_size: 3
    stride: 1
    weight_filler {
      type: "xavier"
    }
    bias_filler {
      type: "constant"
      value: 0
    }
  }
}
layer {
  name: "conv9_2_relu"
  type: "ReLU"
  bottom: "conv9_2_t"
  top: "conv9_2_t"
}
layer {
  name: "conv9_2_s"
  type: "Pooling"
  bottom: "conv9_2_t"
  top: "conv9_2_s"
  pooling_param {
    pool: AVE
    global_pooling: true
  }
}
layer {
  name: "conv9_2_fc1"
  type: "Convolution"
  bottom: "conv9_2_s"
  top: "conv9_2_fc1"
  param {
    lr_mult: 1
    decay_mult: 1
  }
  param {
    lr_mult: 2
    decay_mult: 0
  }
  convolution_param {
    num_output: 64
    kernel_size: 1
    stride: 1
    weight_filler {
      type: "xavier"
    }
    bias_filler {
      type: "constant"
      value: 0
    }
  }
}
layer {
  name: "conv9_2_relu"
  type: "ReLU"
  bottom: "conv9_2_fc1"
  top: "conv9_2_fc1"
}
layer {
  name: "conv9_2_fc2"
  type: "Convolution"
  bottom: "conv9_2_fc1"
  top: "conv9_2_fc2"
  param {
    lr_mult: 1
    decay_mult: 1
  }
  param {
    lr_mult: 2
    decay_mult: 0
  }
  convolution_param {
    num_output: 256
    kernel_size: 1
    stride: 1
    weight_filler {
      type: "xavier"
    }
    bias_filler {
      type: "constant"
      value: 0
    }
  }
}
layer {
  name: "conv9_2_sig"
  type: "Sigmoid"
  bottom: "conv9_2_fc2"
  top: "conv9_2_fc2"
}
layer {
  name: "conv9_2_reshape"
  type: "Reshape"
  bottom: "conv9_2_fc2"
  top: "conv9_2_reshape"
  reshape_param {
    shape {
      dim: 0
      dim: 0
    }
  }
}
layer {
  name: "conv9_2_scale"
  type: "Scale"
  bottom: "conv9_2_t"
  bottom: "conv9_2_reshape"
  top: "conv9_2"
  scale_param {
    axis: 0
    bias_term: false
  }
}
layer {
  name: "conv4_3_norm"
  type: "Normalize"
  bottom: "conv4_3"
  top: "conv4_3_norm"
  norm_param {
    across_spatial: false
    scale_filler {
      type: "constant"
      value: 20
    }
    channel_shared: false
  }
}
layer {
  name: "conv4_3_norm_mbox_loc"
  type: "Convolution"
  bottom: "conv4_3_norm"
  top: "conv4_3_norm_mbox_loc"
  param {
    lr_mult: 1
    decay_mult: 1
  }
  param {
    lr_mult: 2
    decay_mult: 0
  }
  convolution_param {
    num_output: 16
    pad: 1
    kernel_size: 3
    stride: 1
    weight_filler {
      type: "xavier"
    }
    bias_filler {
      type: "constant"
      value: 0
    }
  }
}
layer {
  name: "conv4_3_norm_mbox_loc_perm"
  type: "Permute"
  bottom: "conv4_3_norm_mbox_loc"
  top: "conv4_3_norm_mbox_loc_perm"
  permute_param {
    order: 0
    order: 2
    order: 3
    order: 1
  }
}
layer {
  name: "conv4_3_norm_mbox_loc_flat"
  type: "Flatten"
  bottom: "conv4_3_norm_mbox_loc_perm"
  top: "conv4_3_norm_mbox_loc_flat"
  flatten_param {
    axis: 1
  }
}
layer {
  name: "conv4_3_norm_mbox_conf"
  type: "Convolution"
  bottom: "conv4_3_norm"
  top: "conv4_3_norm_mbox_conf"
  param {
    lr_mult: 1
    decay_mult: 1
  }
  param {
    lr_mult: 2
    decay_mult: 0
  }
  convolution_param {
    num_output: 84
    pad: 1
    kernel_size: 3
    stride: 1
    weight_filler {
      type: "xavier"
    }
    bias_filler {
      type: "constant"
      value: 0
    }
  }
}
layer {
  name: "conv4_3_norm_mbox_conf_perm"
  type: "Permute"
  bottom: "conv4_3_norm_mbox_conf"
  top: "conv4_3_norm_mbox_conf_perm"
  permute_param {
    order: 0
    order: 2
    order: 3
    order: 1
  }
}
layer {
  name: "conv4_3_norm_mbox_conf_flat"
  type: "Flatten"
  bottom: "conv4_3_norm_mbox_conf_perm"
  top: "conv4_3_norm_mbox_conf_flat"
  flatten_param {
    axis: 1
  }
}
layer {
  name: "conv4_3_norm_mbox_priorbox"
  type: "PriorBox"
  bottom: "conv4_3_norm"
  bottom: "data"
  top: "conv4_3_norm_mbox_priorbox"
  prior_box_param {
    min_size: 30
    max_size: 60
    aspect_ratio: 2
    flip: true
    clip: false
    variance: 0.1
    variance: 0.1
    variance: 0.2
    variance: 0.2
    step: 8
    offset: 0.5
  }
}
layer {
  name: "fc7_mbox_loc"
  type: "Convolution"
  bottom: "fc7"
  top: "fc7_mbox_loc"
  param {
    lr_mult: 1
    decay_mult: 1
  }
  param {
    lr_mult: 2
    decay_mult: 0
  }
  convolution_param {
    num_output: 24
    pad: 1
    kernel_size: 3
    stride: 1
    weight_filler {
      type: "xavier"
    }
    bias_filler {
      type: "constant"
      value: 0
    }
  }
}
layer {
  name: "fc7_mbox_loc_perm"
  type: "Permute"
  bottom: "fc7_mbox_loc"
  top: "fc7_mbox_loc_perm"
  permute_param {
    order: 0
    order: 2
    order: 3
    order: 1
  }
}
layer {
  name: "fc7_mbox_loc_flat"
  type: "Flatten"
  bottom: "fc7_mbox_loc_perm"
  top: "fc7_mbox_loc_flat"
  flatten_param {
    axis: 1
  }
}
layer {
  name: "fc7_mbox_conf"
  type: "Convolution"
  bottom: "fc7"
  top: "fc7_mbox_conf"
  param {
    lr_mult: 1
    decay_mult: 1
  }
  param {
    lr_mult: 2
    decay_mult: 0
  }
  convolution_param {
    num_output: 126
    pad: 1
    kernel_size: 3
    stride: 1
    weight_filler {
      type: "xavier"
    }
    bias_filler {
      type: "constant"
      value: 0
    }
I0121 19:02:18.357167 11644 layer_factory.hpp:77] Creating layer data
I0121 19:02:18.357832 11644 net.cpp:100] Creating Layer data
I0121 19:02:18.357872 11644 net.cpp:408] data -> data
I0121 19:02:18.357908 11644 net.cpp:408] data -> label
I0121 19:02:18.359648 11650 db_lmdb.cpp:35] Opened lmdb examples/VOC0712/VOC0712_trainval_lmdb
I0121 19:02:18.375617 11644 annotated_data_layer.cpp:62] output data size: 8,3,300,300
I0121 19:02:18.390529 11644 net.cpp:150] Setting up data
I0121 19:02:18.390558 11644 net.cpp:157] Top shape: 8 3 300 300 (2160000)
I0121 19:02:18.390560 11644 net.cpp:157] Top shape: 1 1 22 8 (176)
I0121 19:02:18.390563 11644 net.cpp:165] Memory required for data: 8640704
I0121 19:02:18.390573 11644 layer_factory.hpp:77] Creating layer data_data_0_split
I0121 19:02:18.390588 11644 net.cpp:100] Creating Layer data_data_0_split
I0121 19:02:18.390594 11644 net.cpp:434] data_data_0_split <- data
I0121 19:02:18.390607 11644 net.cpp:408] data_data_0_split -> data_data_0_split_0
I0121 19:02:18.390617 11644 net.cpp:408] data_data_0_split -> data_data_0_split_1
I0121 19:02:18.390624 11644 net.cpp:408] data_data_0_split -> data_data_0_split_2
I0121 19:02:18.390628 11644 net.cpp:408] data_data_0_split -> data_data_0_split_3
I0121 19:02:18.390632 11644 net.cpp:408] data_data_0_split -> data_data_0_split_4
I0121 19:02:18.390638 11644 net.cpp:408] data_data_0_split -> data_data_0_split_5
I0121 19:02:18.390643 11644 net.cpp:408] data_data_0_split -> data_data_0_split_6
I0121 19:02:18.390769 11644 net.cpp:150] Setting up data_data_0_split
I0121 19:02:18.390774 11644 net.cpp:157] Top shape: 8 3 300 300 (2160000)
I0121 19:02:18.390777 11644 net.cpp:157] Top shape: 8 3 300 300 (2160000)
I0121 19:02:18.390781 11644 net.cpp:157] Top shape: 8 3 300 300 (2160000)
I0121 19:02:18.390784 11644 net.cpp:157] Top shape: 8 3 300 300 (2160000)
I0121 19:02:18.390806 11644 net.cpp:157] Top shape: 8 3 300 300 (2160000)
I0121 19:02:18.390810 11644 net.cpp:157] Top shape: 8 3 300 300 (2160000)
I0121 19:02:18.390813 11644 net.cpp:157] Top shape: 8 3 300 300 (2160000)
I0121 19:02:18.390815 11644 net.cpp:165] Memory required for data: 69120704
I0121 19:02:18.390817 11644 layer_factory.hpp:77] Creating layer label_data_1_split
I0121 19:02:18.390825 11644 net.cpp:100] Creating Layer label_data_1_split
I0121 19:02:18.390827 11644 net.cpp:434] label_data_1_split <- label
I0121 19:02:18.390831 11644 net.cpp:408] label_data_1_split -> label_data_1_split_0
I0121 19:02:18.390836 11644 net.cpp:408] label_data_1_split -> label_data_1_split_1
I0121 19:02:18.390875 11644 net.cpp:150] Setting up label_data_1_split
I0121 19:02:18.390880 11644 net.cpp:157] Top shape: 1 1 22 8 (176)
I0121 19:02:18.390882 11644 net.cpp:157] Top shape: 1 1 22 8 (176)
I0121 19:02:18.390884 11644 net.cpp:165] Memory required for data: 69122112
I0121 19:02:18.390887 11644 layer_factory.hpp:77] Creating layer conv1_1
I0121 19:02:18.390902 11644 net.cpp:100] Creating Layer conv1_1
I0121 19:02:18.390905 11644 net.cpp:434] conv1_1 <- data_data_0_split_0
I0121 19:02:18.390910 11644 net.cpp:408] conv1_1 -> conv1_1
I0121 19:02:18.504962 11651 blocking_queue.cpp:50] Waiting for data
I0121 19:02:18.812860 11644 net.cpp:150] Setting up conv1_1
I0121 19:02:18.812885 11644 net.cpp:157] Top shape: 8 64 300 300 (46080000)
I0121 19:02:18.812887 11644 net.cpp:165] Memory required for data: 253442112
I0121 19:02:18.812911 11644 layer_factory.hpp:77] Creating layer relu1_1
I0121 19:02:18.812924 11644 net.cpp:100] Creating Layer relu1_1
I0121 19:02:18.812927 11644 net.cpp:434] relu1_1 <- conv1_1
I0121 19:02:18.812933 11644 net.cpp:395] relu1_1 -> conv1_1 (in-place)
I0121 19:02:18.813300 11644 net.cpp:150] Setting up relu1_1
I0121 19:02:18.813313 11644 net.cpp:157] Top shape: 8 64 300 300 (46080000)
I0121 19:02:18.813315 11644 net.cpp:165] Memory required for data: 437762112
I0121 19:02:18.813318 11644 layer_factory.hpp:77] Creating layer conv1_2
I0121 19:02:18.813328 11644 net.cpp:100] Creating Layer conv1_2
I0121 19:02:18.813331 11644 net.cpp:434] conv1_2 <- conv1_1
I0121 19:02:18.813336 11644 net.cpp:408] conv1_2 -> conv1_2
I0121 19:02:18.815099 11644 net.cpp:150] Setting up conv1_2
I0121 19:02:18.815111 11644 net.cpp:157] Top shape: 8 64 300 300 (46080000)
I0121 19:02:18.815114 11644 net.cpp:165] Memory required for data: 622082112
I0121 19:02:18.815121 11644 layer_factory.hpp:77] Creating layer relu1_2
I0121 19:02:18.815126 11644 net.cpp:100] Creating Layer relu1_2
I0121 19:02:18.815129 11644 net.cpp:434] relu1_2 <- conv1_2
I0121 19:02:18.815132 11644 net.cpp:395] relu1_2 -> conv1_2 (in-place)
I0121 19:02:18.815268 11644 net.cpp:150] Setting up relu1_2
I0121 19:02:18.815275 11644 net.cpp:157] Top shape: 8 64 300 300 (46080000)
I0121 19:02:18.815277 11644 net.cpp:165] Memory required for data: 806402112
I0121 19:02:18.815280 11644 layer_factory.hpp:77] Creating layer pool1
I0121 19:02:18.815285 11644 net.cpp:100] Creating Layer pool1
I0121 19:02:18.815287 11644 net.cpp:434] pool1 <- conv1_2
I0121 19:02:18.815291 11644 net.cpp:408] pool1 -> pool1
I0121 19:02:18.815333 11644 net.cpp:150] Setting up pool1
I0121 19:02:18.815340 11644 net.cpp:157] Top shape: 8 64 150 150 (11520000)
I0121 19:02:18.815342 11644 net.cpp:165] Memory required for data: 852482112
I0121 19:02:18.815345 11644 layer_factory.hpp:77] Creating layer conv2_1
I0121 19:02:18.815352 11644 net.cpp:100] Creating Layer conv2_1
I0121 19:02:18.815356 11644 net.cpp:434] conv2_1 <- pool1
I0121 19:02:18.815358 11644 net.cpp:408] conv2_1 -> conv2_1
I0121 19:02:18.816496 11644 net.cpp:150] Setting up conv2_1
I0121 19:02:18.816509 11644 net.cpp:157] Top shape: 8 128 150 150 (23040000)
I0121 19:02:18.816511 11644 net.cpp:165] Memory required for data: 944642112
I0121 19:02:18.816519 11644 layer_factory.hpp:77] Creating layer relu2_1
I0121 19:02:18.816524 11644 net.cpp:100] Creating Layer relu2_1
I0121 19:02:18.816525 11644 net.cpp:434] relu2_1 <- conv2_1
I0121 19:02:18.816548 11644 net.cpp:395] relu2_1 -> conv2_1 (in-place)
I0121 19:02:18.816685 11644 net.cpp:150] Setting up relu2_1
I0121 19:02:18.816692 11644 net.cpp:157] Top shape: 8 128 150 150 (23040000)
I0121 19:02:18.816695 11644 net.cpp:165] Memory required for data: 1036802112
I0121 19:02:18.816697 11644 layer_factory.hpp:77] Creating layer conv2_2
I0121 19:02:18.816704 11644 net.cpp:100] Creating Layer conv2_2
I0121 19:02:18.816706 11644 net.cpp:434] conv2_2 <- conv2_1
I0121 19:02:18.816711 11644 net.cpp:408] conv2_2 -> conv2_2
I0121 19:02:18.818379 11644 net.cpp:150] Setting up conv2_2
I0121 19:02:18.818392 11644 net.cpp:157] Top shape: 8 128 150 150 (23040000)
I0121 19:02:18.818393 11644 net.cpp:165] Memory required for data: 1128962112
I0121 19:02:18.818399 11644 layer_factory.hpp:77] Creating layer relu2_2
I0121 19:02:18.818404 11644 net.cpp:100] Creating Layer relu2_2
I0121 19:02:18.818408 11644 net.cpp:434] relu2_2 <- conv2_2
I0121 19:02:18.818410 11644 net.cpp:395] relu2_2 -> conv2_2 (in-place)
I0121 19:02:18.818760 11644 net.cpp:150] Setting up relu2_2
I0121 19:02:18.818771 11644 net.cpp:157] Top shape: 8 128 150 150 (23040000)
I0121 19:02:18.818773 11644 net.cpp:165] Memory required for data: 1221122112
I0121 19:02:18.818775 11644 layer_factory.hpp:77] Creating layer pool2
I0121 19:02:18.818781 11644 net.cpp:100] Creating Layer pool2
I0121 19:02:18.818784 11644 net.cpp:434] pool2 <- conv2_2
I0121 19:02:18.818789 11644 net.cpp:408] pool2 -> pool2
I0121 19:02:18.818825 11644 net.cpp:150] Setting up pool2
I0121 19:02:18.818830 11644 net.cpp:157] Top shape: 8 128 75 75 (5760000)
I0121 19:02:18.818832 11644 net.cpp:165] Memory required for data: 1244162112
I0121 19:02:18.818835 11644 layer_factory.hpp:77] Creating layer conv3_1
I0121 19:02:18.818840 11644 net.cpp:100] Creating Layer conv3_1
I0121 19:02:18.818843 11644 net.cpp:434] conv3_1 <- pool2
I0121 19:02:18.818847 11644 net.cpp:408] conv3_1 -> conv3_1
I0121 19:02:18.822528 11644 net.cpp:150] Setting up conv3_1
I0121 19:02:18.822540 11644 net.cpp:157] Top shape: 8 256 75 75 (11520000)
I0121 19:02:18.822543 11644 net.cpp:165] Memory required for data: 1290242112
I0121 19:02:18.822551 11644 layer_factory.hpp:77] Creating layer relu3_1
I0121 19:02:18.822556 11644 net.cpp:100] Creating Layer relu3_1
I0121 19:02:18.822559 11644 net.cpp:434] relu3_1 <- conv3_1
I0121 19:02:18.822563 11644 net.cpp:395] relu3_1 -> conv3_1 (in-place)
I0121 19:02:18.822710 11644 net.cpp:150] Setting up relu3_1
I0121 19:02:18.822718 11644 net.cpp:157] Top shape: 8 256 75 75 (11520000)
I0121 19:02:18.822721 11644 net.cpp:165] Memory required for data: 1336322112
I0121 19:02:18.822723 11644 layer_factory.hpp:77] Creating layer conv3_2
I0121 19:02:18.822731 11644 net.cpp:100] Creating Layer conv3_2
I0121 19:02:18.822732 11644 net.cpp:434] conv3_2 <- conv3_1
I0121 19:02:18.822736 11644 net.cpp:408] conv3_2 -> conv3_2
I0121 19:02:18.828119 11644 net.cpp:150] Setting up conv3_2
I0121 19:02:18.828132 11644 net.cpp:157] Top shape: 8 256 75 75 (11520000)
I0121 19:02:18.828135 11644 net.cpp:165] Memory required for data: 1382402112
I0121 19:02:18.828140 11644 layer_factory.hpp:77] Creating layer relu3_2
I0121 19:02:18.828148 11644 net.cpp:100] Creating Layer relu3_2
I0121 19:02:18.828150 11644 net.cpp:434] relu3_2 <- conv3_2
I0121 19:02:18.828155 11644 net.cpp:395] relu3_2 -> conv3_2 (in-place)
I0121 19:02:18.828299 11644 net.cpp:150] Setting up relu3_2
I0121 19:02:18.828308 11644 net.cpp:157] Top shape: 8 256 75 75 (11520000)
I0121 19:02:18.828310 11644 net.cpp:165] Memory required for data: 1428482112
I0121 19:02:18.828313 11644 layer_factory.hpp:77] Creating layer conv3_3
I0121 19:02:18.828320 11644 net.cpp:100] Creating Layer conv3_3
I0121 19:02:18.828323 11644 net.cpp:434] conv3_3 <- conv3_2
I0121 19:02:18.828339 11644 net.cpp:408] conv3_3 -> conv3_3
I0121 19:02:18.832671 11644 net.cpp:150] Setting up conv3_3
I0121 19:02:18.832684 11644 net.cpp:157] Top shape: 8 256 75 75 (11520000)
I0121 19:02:18.832687 11644 net.cpp:165] Memory required for data: 1474562112
I0121 19:02:18.832707 11644 layer_factory.hpp:77] Creating layer relu3_3
I0121 19:02:18.832712 11644 net.cpp:100] Creating Layer relu3_3
I0121 19:02:18.832715 11644 net.cpp:434] relu3_3 <- conv3_3
I0121 19:02:18.832720 11644 net.cpp:395] relu3_3 -> conv3_3 (in-place)
I0121 19:02:18.832866 11644 net.cpp:150] Setting up relu3_3
I0121 19:02:18.832875 11644 net.cpp:157] Top shape: 8 256 75 75 (11520000)
I0121 19:02:18.832876 11644 net.cpp:165] Memory required for data: 1520642112
I0121 19:02:18.832880 11644 layer_factory.hpp:77] Creating layer pool3
I0121 19:02:18.832885 11644 net.cpp:100] Creating Layer pool3
I0121 19:02:18.832886 11644 net.cpp:434] pool3 <- conv3_3
I0121 19:02:18.832890 11644 net.cpp:408] pool3 -> pool3
I0121 19:02:18.832932 11644 net.cpp:150] Setting up pool3
I0121 19:02:18.832944 11644 net.cpp:157] Top shape: 8 256 38 38 (2957312)
I0121 19:02:18.832947 11644 net.cpp:165] Memory required for data: 1532471360
I0121 19:02:18.832948 11644 layer_factory.hpp:77] Creating layer conv4_1
I0121 19:02:18.832955 11644 net.cpp:100] Creating Layer conv4_1
I0121 19:02:18.832958 11644 net.cpp:434] conv4_1 <- pool3
I0121 19:02:18.832962 11644 net.cpp:408] conv4_1 -> conv4_1
I0121 19:02:18.841032 11644 net.cpp:150] Setting up conv4_1
I0121 19:02:18.841047 11644 net.cpp:157] Top shape: 8 512 38 38 (5914624)
I0121 19:02:18.841049 11644 net.cpp:165] Memory required for data: 1556129856
I0121 19:02:18.841055 11644 layer_factory.hpp:77] Creating layer relu4_1
I0121 19:02:18.841059 11644 net.cpp:100] Creating Layer relu4_1
I0121 19:02:18.841063 11644 net.cpp:434] relu4_1 <- conv4_1
I0121 19:02:18.841068 11644 net.cpp:395] relu4_1 -> conv4_1 (in-place)
I0121 19:02:18.841414 11644 net.cpp:150] Setting up relu4_1
I0121 19:02:18.841425 11644 net.cpp:157] Top shape: 8 512 38 38 (5914624)
I0121 19:02:18.841428 11644 net.cpp:165] Memory required for data: 1579788352
I0121 19:02:18.841430 11644 layer_factory.hpp:77] Creating layer conv4_2
I0121 19:02:18.841439 11644 net.cpp:100] Creating Layer conv4_2
I0121 19:02:18.841441 11644 net.cpp:434] conv4_2 <- conv4_1
I0121 19:02:18.841445 11644 net.cpp:408] conv4_2 -> conv4_2
I0121 19:02:18.855571 11644 net.cpp:150] Setting up conv4_2
I0121 19:02:18.855587 11644 net.cpp:157] Top shape: 8 512 38 38 (5914624)
I0121 19:02:18.855590 11644 net.cpp:165] Memory required for data: 1603446848
I0121 19:02:18.855602 11644 layer_factory.hpp:77] Creating layer relu4_2
I0121 19:02:18.855607 11644 net.cpp:100] Creating Layer relu4_2
I0121 19:02:18.855610 11644 net.cpp:434] relu4_2 <- conv4_2
I0121 19:02:18.855614 11644 net.cpp:395] relu4_2 -> conv4_2 (in-place)
I0121 19:02:18.855763 11644 net.cpp:150] Setting up relu4_2
I0121 19:02:18.855772 11644 net.cpp:157] Top shape: 8 512 38 38 (5914624)
I0121 19:02:18.855774 11644 net.cpp:165] Memory required for data: 1627105344
I0121 19:02:18.855777 11644 layer_factory.hpp:77] Creating layer conv4_3
I0121 19:02:18.855785 11644 net.cpp:100] Creating Layer conv4_3
I0121 19:02:18.855788 11644 net.cpp:434] conv4_3 <- conv4_2
I0121 19:02:18.855792 11644 net.cpp:408] conv4_3 -> conv4_3_ori
I0121 19:02:18.869153 11644 net.cpp:150] Setting up conv4_3
I0121 19:02:18.869171 11644 net.cpp:157] Top shape: 8 512 38 38 (5914624)
I0121 19:02:18.869175 11644 net.cpp:165] Memory required for data: 1650763840
I0121 19:02:18.869181 11644 layer_factory.hpp:77] Creating layer relu4_3
I0121 19:02:18.869187 11644 net.cpp:100] Creating Layer relu4_3
I0121 19:02:18.869190 11644 net.cpp:434] relu4_3 <- conv4_3_ori
I0121 19:02:18.869194 11644 net.cpp:395] relu4_3 -> conv4_3_ori (in-place)
I0121 19:02:18.869336 11644 net.cpp:150] Setting up relu4_3
I0121 19:02:18.869345 11644 net.cpp:157] Top shape: 8 512 38 38 (5914624)
I0121 19:02:18.869349 11644 net.cpp:165] Memory required for data: 1674422336
I0121 19:02:18.869350 11644 layer_factory.hpp:77] Creating layer conv4_3_ori_relu4_3_0_split
I0121 19:02:18.869355 11644 net.cpp:100] Creating Layer conv4_3_ori_relu4_3_0_split
I0121 19:02:18.869357 11644 net.cpp:434] conv4_3_ori_relu4_3_0_split <- conv4_3_ori
I0121 19:02:18.869361 11644 net.cpp:408] conv4_3_ori_relu4_3_0_split -> conv4_3_ori_relu4_3_0_split_0
I0121 19:02:18.869386 11644 net.cpp:408] conv4_3_ori_relu4_3_0_split -> conv4_3_ori_relu4_3_0_split_1
I0121 19:02:18.869421 11644 net.cpp:150] Setting up conv4_3_ori_relu4_3_0_split
I0121 19:02:18.869426 11644 net.cpp:157] Top shape: 8 512 38 38 (5914624)
I0121 19:02:18.869428 11644 net.cpp:157] Top shape: 8 512 38 38 (5914624)
I0121 19:02:18.869431 11644 net.cpp:165] Memory required for data: 1721739328
I0121 19:02:18.869432 11644 layer_factory.hpp:77] Creating layer seg_pool4
I0121 19:02:18.869437 11644 net.cpp:100] Creating Layer seg_pool4
I0121 19:02:18.869441 11644 net.cpp:434] seg_pool4 <- conv4_3_ori_relu4_3_0_split_0
I0121 19:02:18.869444 11644 net.cpp:408] seg_pool4 -> seg_pool4
I0121 19:02:18.869474 11644 net.cpp:150] Setting up seg_pool4
I0121 19:02:18.869478 11644 net.cpp:157] Top shape: 8 512 38 38 (5914624)
I0121 19:02:18.869480 11644 net.cpp:165] Memory required for data: 1745397824
I0121 19:02:18.869482 11644 layer_factory.hpp:77] Creating layer seg5_1
I0121 19:02:18.869490 11644 net.cpp:100] Creating Layer seg5_1
I0121 19:02:18.869493 11644 net.cpp:434] seg5_1 <- seg_pool4
I0121 19:02:18.869496 11644 net.cpp:408] seg5_1 -> seg5_1
I0121 19:02:18.882084 11644 net.cpp:150] Setting up seg5_1
I0121 19:02:18.882100 11644 net.cpp:157] Top shape: 8 512 38 38 (5914624)
I0121 19:02:18.882102 11644 net.cpp:165] Memory required for data: 1769056320
I0121 19:02:18.882109 11644 layer_factory.hpp:77] Creating layer seg_relu5_1
I0121 19:02:18.882115 11644 net.cpp:100] Creating Layer seg_relu5_1
I0121 19:02:18.882117 11644 net.cpp:434] seg_relu5_1 <- seg5_1
I0121 19:02:18.882122 11644 net.cpp:395] seg_relu5_1 -> seg5_1 (in-place)
I0121 19:02:18.882540 11644 net.cpp:150] Setting up seg_relu5_1
I0121 19:02:18.882551 11644 net.cpp:157] Top shape: 8 512 38 38 (5914624)
I0121 19:02:18.882553 11644 net.cpp:165] Memory required for data: 1792714816
I0121 19:02:18.882555 11644 layer_factory.hpp:77] Creating layer seg5_2
I0121 19:02:18.882565 11644 net.cpp:100] Creating Layer seg5_2
I0121 19:02:18.882567 11644 net.cpp:434] seg5_2 <- seg5_1
I0121 19:02:18.882571 11644 net.cpp:408] seg5_2 -> seg5_2
I0121 19:02:18.895148 11644 net.cpp:150] Setting up seg5_2
I0121 19:02:18.895165 11644 net.cpp:157] Top shape: 8 512 38 38 (5914624)
I0121 19:02:18.895167 11644 net.cpp:165] Memory required for data: 1816373312
I0121 19:02:18.895174 11644 layer_factory.hpp:77] Creating layer seg_relu5_2
I0121 19:02:18.895179 11644 net.cpp:100] Creating Layer seg_relu5_2
I0121 19:02:18.895181 11644 net.cpp:434] seg_relu5_2 <- seg5_2
I0121 19:02:18.895185 11644 net.cpp:395] seg_relu5_2 -> seg5_2 (in-place)
I0121 19:02:18.895354 11644 net.cpp:150] Setting up seg_relu5_2
I0121 19:02:18.895360 11644 net.cpp:157] Top shape: 8 512 38 38 (5914624)
I0121 19:02:18.895364 11644 net.cpp:165] Memory required for data: 1840031808
I0121 19:02:18.895365 11644 layer_factory.hpp:77] Creating layer seg5_3
I0121 19:02:18.895378 11644 net.cpp:100] Creating Layer seg5_3
I0121 19:02:18.895380 11644 net.cpp:434] seg5_3 <- seg5_2
I0121 19:02:18.895385 11644 net.cpp:408] seg5_3 -> seg5_3
I0121 19:02:18.908010 11644 net.cpp:150] Setting up seg5_3
I0121 19:02:18.908026 11644 net.cpp:157] Top shape: 8 512 38 38 (5914624)
I0121 19:02:18.908028 11644 net.cpp:165] Memory required for data: 1863690304
I0121 19:02:18.908035 11644 layer_factory.hpp:77] Creating layer seg_relu5_3
I0121 19:02:18.908041 11644 net.cpp:100] Creating Layer seg_relu5_3
I0121 19:02:18.908042 11644 net.cpp:434] seg_relu5_3 <- seg5_3
I0121 19:02:18.908046 11644 net.cpp:395] seg_relu5_3 -> seg5_3 (in-place)
I0121 19:02:18.908219 11644 net.cpp:150] Setting up seg_relu5_3
I0121 19:02:18.908227 11644 net.cpp:157] Top shape: 8 512 38 38 (5914624)
I0121 19:02:18.908229 11644 net.cpp:165] Memory required for data: 1887348800
I0121 19:02:18.908231 11644 layer_factory.hpp:77] Creating layer seg_pool5
I0121 19:02:18.908237 11644 net.cpp:100] Creating Layer seg_pool5
I0121 19:02:18.908241 11644 net.cpp:434] seg_pool5 <- seg5_3
I0121 19:02:18.908243 11644 net.cpp:408] seg_pool5 -> seg_pool5
I0121 19:02:18.908306 11644 net.cpp:150] Setting up seg_pool5
I0121 19:02:18.908311 11644 net.cpp:157] Top shape: 8 512 38 38 (5914624)
I0121 19:02:18.908313 11644 net.cpp:165] Memory required for data: 1911007296
I0121 19:02:18.908315 11644 layer_factory.hpp:77] Creating layer seg6
I0121 19:02:18.908323 11644 net.cpp:100] Creating Layer seg6
I0121 19:02:18.908325 11644 net.cpp:434] seg6 <- seg_pool5
I0121 19:02:18.908329 11644 net.cpp:408] seg6 -> seg6
I0121 19:02:18.933816 11644 net.cpp:150] Setting up seg6
I0121 19:02:18.933841 11644 net.cpp:157] Top shape: 8 1024 38 38 (11829248)
I0121 19:02:18.933845 11644 net.cpp:165] Memory required for data: 1958324288
I0121 19:02:18.933852 11644 layer_factory.hpp:77] Creating layer seg_relu6
I0121 19:02:18.933861 11644 net.cpp:100] Creating Layer seg_relu6
I0121 19:02:18.933864 11644 net.cpp:434] seg_relu6 <- seg6
I0121 19:02:18.933872 11644 net.cpp:395] seg_relu6 -> seg6 (in-place)
I0121 19:02:18.934411 11644 net.cpp:150] Setting up seg_relu6
I0121 19:02:18.934422 11644 net.cpp:157] Top shape: 8 1024 38 38 (11829248)
I0121 19:02:18.934423 11644 net.cpp:165] Memory required for data: 2005641280
I0121 19:02:18.934427 11644 layer_factory.hpp:77] Creating layer seg_drop6
I0121 19:02:18.934432 11644 net.cpp:100] Creating Layer seg_drop6
I0121 19:02:18.934435 11644 net.cpp:434] seg_drop6 <- seg6
I0121 19:02:18.934439 11644 net.cpp:395] seg_drop6 -> seg6 (in-place)
I0121 19:02:18.934468 11644 net.cpp:150] Setting up seg_drop6
I0121 19:02:18.934473 11644 net.cpp:157] Top shape: 8 1024 38 38 (11829248)
I0121 19:02:18.934474 11644 net.cpp:165] Memory required for data: 2052958272
I0121 19:02:18.934476 11644 layer_factory.hpp:77] Creating layer seg7
I0121 19:02:18.934485 11644 net.cpp:100] Creating Layer seg7
I0121 19:02:18.934487 11644 net.cpp:434] seg7 <- seg6
I0121 19:02:18.934491 11644 net.cpp:408] seg7 -> seg7
I0121 19:02:18.941051 11644 net.cpp:150] Setting up seg7
I0121 19:02:18.941064 11644 net.cpp:157] Top shape: 8 1024 38 38 (11829248)
I0121 19:02:18.941066 11644 net.cpp:165] Memory required for data: 2100275264
I0121 19:02:18.941072 11644 layer_factory.hpp:77] Creating layer seg_relu7
I0121 19:02:18.941076 11644 net.cpp:100] Creating Layer seg_relu7
I0121 19:02:18.941079 11644 net.cpp:434] seg_relu7 <- seg7
I0121 19:02:18.941083 11644 net.cpp:395] seg_relu7 -> seg7 (in-place)
I0121 19:02:18.941231 11644 net.cpp:150] Setting up seg_relu7
I0121 19:02:18.941239 11644 net.cpp:157] Top shape: 8 1024 38 38 (11829248)
I0121 19:02:18.941241 11644 net.cpp:165] Memory required for data: 2147592256
I0121 19:02:18.941244 11644 layer_factory.hpp:77] Creating layer seg7_seg_relu7_0_split
I0121 19:02:18.941249 11644 net.cpp:100] Creating Layer seg7_seg_relu7_0_split
I0121 19:02:18.941251 11644 net.cpp:434] seg7_seg_relu7_0_split <- seg7
I0121 19:02:18.941256 11644 net.cpp:408] seg7_seg_relu7_0_split -> seg7_seg_relu7_0_split_0
I0121 19:02:18.941260 11644 net.cpp:408] seg7_seg_relu7_0_split -> seg7_seg_relu7_0_split_1
I0121 19:02:18.941293 11644 net.cpp:150] Setting up seg7_seg_relu7_0_split
I0121 19:02:18.941298 11644 net.cpp:157] Top shape: 8 1024 38 38 (11829248)
I0121 19:02:18.941300 11644 net.cpp:157] Top shape: 8 1024 38 38 (11829248)
I0121 19:02:18.941303 11644 net.cpp:165] Memory required for data: 2242226240
I0121 19:02:18.941304 11644 layer_factory.hpp:77] Creating layer seg_drop7
I0121 19:02:18.941308 11644 net.cpp:100] Creating Layer seg_drop7
I0121 19:02:18.941310 11644 net.cpp:434] seg_drop7 <- seg7_seg_relu7_0_split_0
I0121 19:02:18.941314 11644 net.cpp:408] seg_drop7 -> seg7d
I0121 19:02:18.941340 11644 net.cpp:150] Setting up seg_drop7
I0121 19:02:18.941344 11644 net.cpp:157] Top shape: 8 1024 38 38 (11829248)
I0121 19:02:18.941346 11644 net.cpp:165] Memory required for data: 2289543232
I0121 19:02:18.941349 11644 layer_factory.hpp:77] Creating layer seg
I0121 19:02:18.941355 11644 net.cpp:100] Creating Layer seg
I0121 19:02:18.941357 11644 net.cpp:434] seg <- seg7d
I0121 19:02:18.941361 11644 net.cpp:408] seg -> seg
I0121 19:02:18.942410 11644 net.cpp:150] Setting up seg
I0121 19:02:18.942437 11644 net.cpp:157] Top shape: 8 21 38 38 (242592)
I0121 19:02:18.942440 11644 net.cpp:165] Memory required for data: 2290513600
I0121 19:02:18.942445 11644 layer_factory.hpp:77] Creating layer seg_seg_0_split
I0121 19:02:18.942451 11644 net.cpp:100] Creating Layer seg_seg_0_split
I0121 19:02:18.942452 11644 net.cpp:434] seg_seg_0_split <- seg
I0121 19:02:18.942456 11644 net.cpp:408] seg_seg_0_split -> seg_seg_0_split_0
I0121 19:02:18.942462 11644 net.cpp:408] seg_seg_0_split -> seg_seg_0_split_1
I0121 19:02:18.942495 11644 net.cpp:150] Setting up seg_seg_0_split
I0121 19:02:18.942499 11644 net.cpp:157] Top shape: 8 21 38 38 (242592)
I0121 19:02:18.942502 11644 net.cpp:157] Top shape: 8 21 38 38 (242592)
I0121 19:02:18.942503 11644 net.cpp:165] Memory required for data: 2292454336
I0121 19:02:18.942505 11644 layer_factory.hpp:77] Creating layer seg_gt
I0121 19:02:18.942510 11644 net.cpp:100] Creating Layer seg_gt
I0121 19:02:18.942512 11644 net.cpp:434] seg_gt <- label_data_1_split_0
I0121 19:02:18.942517 11644 net.cpp:434] seg_gt <- seg_seg_0_split_0
I0121 19:02:18.942519 11644 net.cpp:408] seg_gt -> seg_gt
I0121 19:02:18.942546 11644 net.cpp:150] Setting up seg_gt
I0121 19:02:18.942550 11644 net.cpp:157] Top shape: 8 1 38 38 (11552)
I0121 19:02:18.942553 11644 net.cpp:165] Memory required for data: 2292500544
I0121 19:02:18.942555 11644 layer_factory.hpp:77] Creating layer seg_loss
I0121 19:02:18.942560 11644 net.cpp:100] Creating Layer seg_loss
I0121 19:02:18.942562 11644 net.cpp:434] seg_loss <- seg_seg_0_split_1
I0121 19:02:18.942566 11644 net.cpp:434] seg_loss <- seg_gt
I0121 19:02:18.942569 11644 net.cpp:408] seg_loss -> seg_loss
I0121 19:02:18.942577 11644 layer_factory.hpp:77] Creating layer seg_loss
I0121 19:02:18.946370 11644 net.cpp:150] Setting up seg_loss
I0121 19:02:18.946384 11644 net.cpp:157] Top shape: (1)
I0121 19:02:18.946388 11644 net.cpp:160]     with loss weight 0.1
I0121 19:02:18.946403 11644 net.cpp:165] Memory required for data: 2292500548
I0121 19:02:18.946406 11644 layer_factory.hpp:77] Creating layer seg_to_det_conv
I0121 19:02:18.946416 11644 net.cpp:100] Creating Layer seg_to_det_conv
I0121 19:02:18.946419 11644 net.cpp:434] seg_to_det_conv <- seg7_seg_relu7_0_split_1
I0121 19:02:18.946424 11644 net.cpp:408] seg_to_det_conv -> seg_to_det_conv
I0121 19:02:18.950265 11644 net.cpp:150] Setting up seg_to_det_conv
I0121 19:02:18.950278 11644 net.cpp:157] Top shape: 8 512 38 38 (5914624)
I0121 19:02:18.950281 11644 net.cpp:165] Memory required for data: 2316159044
I0121 19:02:18.950291 11644 layer_factory.hpp:77] Creating layer mult_conv4_3
I0121 19:02:18.950299 11644 net.cpp:100] Creating Layer mult_conv4_3
I0121 19:02:18.950302 11644 net.cpp:434] mult_conv4_3 <- conv4_3_ori_relu4_3_0_split_1
I0121 19:02:18.950305 11644 net.cpp:434] mult_conv4_3 <- seg_to_det_conv
I0121 19:02:18.950310 11644 net.cpp:408] mult_conv4_3 -> conv4_3_t
I0121 19:02:18.950337 11644 net.cpp:150] Setting up mult_conv4_3
I0121 19:02:18.950343 11644 net.cpp:157] Top shape: 8 512 38 38 (5914624)
I0121 19:02:18.950345 11644 net.cpp:165] Memory required for data: 2339817540
I0121 19:02:18.950347 11644 layer_factory.hpp:77] Creating layer conv4_3_t_mult_conv4_3_0_split
I0121 19:02:18.950351 11644 net.cpp:100] Creating Layer conv4_3_t_mult_conv4_3_0_split
I0121 19:02:18.950353 11644 net.cpp:434] conv4_3_t_mult_conv4_3_0_split <- conv4_3_t
I0121 19:02:18.950357 11644 net.cpp:408] conv4_3_t_mult_conv4_3_0_split -> conv4_3_t_mult_conv4_3_0_split_0
I0121 19:02:18.950361 11644 net.cpp:408] conv4_3_t_mult_conv4_3_0_split -> conv4_3_t_mult_conv4_3_0_split_1
I0121 19:02:18.950390 11644 net.cpp:150] Setting up conv4_3_t_mult_conv4_3_0_split
I0121 19:02:18.950394 11644 net.cpp:157] Top shape: 8 512 38 38 (5914624)
I0121 19:02:18.950397 11644 net.cpp:157] Top shape: 8 512 38 38 (5914624)
I0121 19:02:18.950398 11644 net.cpp:165] Memory required for data: 2387134532
I0121 19:02:18.950400 11644 layer_factory.hpp:77] Creating layer conv4_3_s
I0121 19:02:18.950405 11644 net.cpp:100] Creating Layer conv4_3_s
I0121 19:02:18.950419 11644 net.cpp:434] conv4_3_s <- conv4_3_t_mult_conv4_3_0_split_0
I0121 19:02:18.950424 11644 net.cpp:408] conv4_3_s -> conv4_3_s
I0121 19:02:18.950592 11644 net.cpp:150] Setting up conv4_3_s
I0121 19:02:18.950603 11644 net.cpp:157] Top shape: 8 512 1 1 (4096)
I0121 19:02:18.950604 11644 net.cpp:165] Memory required for data: 2387150916
I0121 19:02:18.950606 11644 layer_factory.hpp:77] Creating layer conv4_3_fc1
I0121 19:02:18.950614 11644 net.cpp:100] Creating Layer conv4_3_fc1
I0121 19:02:18.950616 11644 net.cpp:434] conv4_3_fc1 <- conv4_3_s
I0121 19:02:18.950621 11644 net.cpp:408] conv4_3_fc1 -> conv4_3_fc1
I0121 19:02:18.952225 11644 net.cpp:150] Setting up conv4_3_fc1
I0121 19:02:18.952237 11644 net.cpp:157] Top shape: 8 128 1 1 (1024)
I0121 19:02:18.952239 11644 net.cpp:165] Memory required for data: 2387155012
I0121 19:02:18.952245 11644 layer_factory.hpp:77] Creating layer conv4_3_relu
I0121 19:02:18.952250 11644 net.cpp:100] Creating Layer conv4_3_relu
I0121 19:02:18.952252 11644 net.cpp:434] conv4_3_relu <- conv4_3_fc1
I0121 19:02:18.952256 11644 net.cpp:395] conv4_3_relu -> conv4_3_fc1 (in-place)
I0121 19:02:18.952620 11644 net.cpp:150] Setting up conv4_3_relu
I0121 19:02:18.952630 11644 net.cpp:157] Top shape: 8 128 1 1 (1024)
I0121 19:02:18.952632 11644 net.cpp:165] Memory required for data: 2387159108
I0121 19:02:18.952636 11644 layer_factory.hpp:77] Creating layer conv4_3_fc2
I0121 19:02:18.952651 11644 net.cpp:100] Creating Layer conv4_3_fc2
I0121 19:02:18.952652 11644 net.cpp:434] conv4_3_fc2 <- conv4_3_fc1
I0121 19:02:18.952657 11644 net.cpp:408] conv4_3_fc2 -> conv4_3_fc2
I0121 19:02:18.953812 11644 net.cpp:150] Setting up conv4_3_fc2
I0121 19:02:18.953824 11644 net.cpp:157] Top shape: 8 512 1 1 (4096)
I0121 19:02:18.953826 11644 net.cpp:165] Memory required for data: 2387175492
I0121 19:02:18.953830 11644 layer_factory.hpp:77] Creating layer conv4_3_sig
I0121 19:02:18.953836 11644 net.cpp:100] Creating Layer conv4_3_sig
I0121 19:02:18.953838 11644 net.cpp:434] conv4_3_sig <- conv4_3_fc2
I0121 19:02:18.953842 11644 net.cpp:395] conv4_3_sig -> conv4_3_fc2 (in-place)
I0121 19:02:18.953977 11644 net.cpp:150] Setting up conv4_3_sig
I0121 19:02:18.953985 11644 net.cpp:157] Top shape: 8 512 1 1 (4096)
I0121 19:02:18.953987 11644 net.cpp:165] Memory required for data: 2387191876
I0121 19:02:18.953990 11644 layer_factory.hpp:77] Creating layer conv4_3_reshape
I0121 19:02:18.953996 11644 net.cpp:100] Creating Layer conv4_3_reshape
I0121 19:02:18.953999 11644 net.cpp:434] conv4_3_reshape <- conv4_3_fc2
I0121 19:02:18.954004 11644 net.cpp:408] conv4_3_reshape -> conv4_3_reshape
I0121 19:02:18.954033 11644 net.cpp:150] Setting up conv4_3_reshape
I0121 19:02:18.954037 11644 net.cpp:157] Top shape: 8 512 (4096)
I0121 19:02:18.954040 11644 net.cpp:165] Memory required for data: 2387208260
I0121 19:02:18.954041 11644 layer_factory.hpp:77] Creating layer conv4_3_scale
I0121 19:02:18.954047 11644 net.cpp:100] Creating Layer conv4_3_scale
I0121 19:02:18.954049 11644 net.cpp:434] conv4_3_scale <- conv4_3_t_mult_conv4_3_0_split_1
I0121 19:02:18.954052 11644 net.cpp:434] conv4_3_scale <- conv4_3_reshape
I0121 19:02:18.954056 11644 net.cpp:408] conv4_3_scale -> conv4_3
I0121 19:02:18.954115 11644 net.cpp:150] Setting up conv4_3_scale
I0121 19:02:18.954120 11644 net.cpp:157] Top shape: 8 512 38 38 (5914624)
I0121 19:02:18.954123 11644 net.cpp:165] Memory required for data: 2410866756
I0121 19:02:18.954124 11644 layer_factory.hpp:77] Creating layer conv4_3_conv4_3_scale_0_split
I0121 19:02:18.954128 11644 net.cpp:100] Creating Layer conv4_3_conv4_3_scale_0_split
I0121 19:02:18.954129 11644 net.cpp:434] conv4_3_conv4_3_scale_0_split <- conv4_3
I0121 19:02:18.954133 11644 net.cpp:408] conv4_3_conv4_3_scale_0_split -> conv4_3_conv4_3_scale_0_split_0
I0121 19:02:18.954138 11644 net.cpp:408] conv4_3_conv4_3_scale_0_split -> conv4_3_conv4_3_scale_0_split_1
I0121 19:02:18.954166 11644 net.cpp:150] Setting up conv4_3_conv4_3_scale_0_split
I0121 19:02:18.954169 11644 net.cpp:157] Top shape: 8 512 38 38 (5914624)
I0121 19:02:18.954183 11644 net.cpp:157] Top shape: 8 512 38 38 (5914624)
I0121 19:02:18.954185 11644 net.cpp:165] Memory required for data: 2458183748
I0121 19:02:18.954187 11644 layer_factory.hpp:77] Creating layer pool4
I0121 19:02:18.954192 11644 net.cpp:100] Creating Layer pool4
I0121 19:02:18.954195 11644 net.cpp:434] pool4 <- conv4_3_conv4_3_scale_0_split_0
I0121 19:02:18.954198 11644 net.cpp:408] pool4 -> pool4
I0121 19:02:18.954229 11644 net.cpp:150] Setting up pool4
I0121 19:02:18.954233 11644 net.cpp:157] Top shape: 8 512 19 19 (1478656)
I0121 19:02:18.954236 11644 net.cpp:165] Memory required for data: 2464098372
I0121 19:02:18.954237 11644 layer_factory.hpp:77] Creating layer conv5_1
I0121 19:02:18.954244 11644 net.cpp:100] Creating Layer conv5_1
I0121 19:02:18.954246 11644 net.cpp:434] conv5_1 <- pool4
I0121 19:02:18.954252 11644 net.cpp:408] conv5_1 -> conv5_1
I0121 19:02:18.967694 11644 net.cpp:150] Setting up conv5_1
I0121 19:02:18.967712 11644 net.cpp:157] Top shape: 8 512 19 19 (1478656)
I0121 19:02:18.967715 11644 net.cpp:165] Memory required for data: 2470012996
I0121 19:02:18.967721 11644 layer_factory.hpp:77] Creating layer relu5_1
I0121 19:02:18.967727 11644 net.cpp:100] Creating Layer relu5_1
I0121 19:02:18.967731 11644 net.cpp:434] relu5_1 <- conv5_1
I0121 19:02:18.967736 11644 net.cpp:395] relu5_1 -> conv5_1 (in-place)
I0121 19:02:18.967874 11644 net.cpp:150] Setting up relu5_1
I0121 19:02:18.967881 11644 net.cpp:157] Top shape: 8 512 19 19 (1478656)
I0121 19:02:18.967885 11644 net.cpp:165] Memory required for data: 2475927620
I0121 19:02:18.967886 11644 layer_factory.hpp:77] Creating layer conv5_2
I0121 19:02:18.967895 11644 net.cpp:100] Creating Layer conv5_2
I0121 19:02:18.967898 11644 net.cpp:434] conv5_2 <- conv5_1
I0121 19:02:18.967902 11644 net.cpp:408] conv5_2 -> conv5_2
I0121 19:02:18.981397 11644 net.cpp:150] Setting up conv5_2
I0121 19:02:18.981413 11644 net.cpp:157] Top shape: 8 512 19 19 (1478656)
I0121 19:02:18.981416 11644 net.cpp:165] Memory required for data: 2481842244
I0121 19:02:18.981423 11644 layer_factory.hpp:77] Creating layer relu5_2
I0121 19:02:18.981428 11644 net.cpp:100] Creating Layer relu5_2
I0121 19:02:18.981432 11644 net.cpp:434] relu5_2 <- conv5_2
I0121 19:02:18.981437 11644 net.cpp:395] relu5_2 -> conv5_2 (in-place)
I0121 19:02:18.981835 11644 net.cpp:150] Setting up relu5_2
I0121 19:02:18.981847 11644 net.cpp:157] Top shape: 8 512 19 19 (1478656)
I0121 19:02:18.981848 11644 net.cpp:165] Memory required for data: 2487756868
I0121 19:02:18.981851 11644 layer_factory.hpp:77] Creating layer conv5_3
I0121 19:02:18.981860 11644 net.cpp:100] Creating Layer conv5_3
I0121 19:02:18.981863 11644 net.cpp:434] conv5_3 <- conv5_2
I0121 19:02:18.981868 11644 net.cpp:408] conv5_3 -> conv5_3
I0121 19:02:18.996039 11644 net.cpp:150] Setting up conv5_3
I0121 19:02:18.996055 11644 net.cpp:157] Top shape: 8 512 19 19 (1478656)
I0121 19:02:18.996058 11644 net.cpp:165] Memory required for data: 2493671492
I0121 19:02:18.996065 11644 layer_factory.hpp:77] Creating layer relu5_3
I0121 19:02:18.996073 11644 net.cpp:100] Creating Layer relu5_3
I0121 19:02:18.996075 11644 net.cpp:434] relu5_3 <- conv5_3
I0121 19:02:18.996079 11644 net.cpp:395] relu5_3 -> conv5_3 (in-place)
I0121 19:02:18.996222 11644 net.cpp:150] Setting up relu5_3
I0121 19:02:18.996229 11644 net.cpp:157] Top shape: 8 512 19 19 (1478656)
I0121 19:02:18.996232 11644 net.cpp:165] Memory required for data: 2499586116
I0121 19:02:18.996233 11644 layer_factory.hpp:77] Creating layer pool5
I0121 19:02:18.996246 11644 net.cpp:100] Creating Layer pool5
I0121 19:02:18.996249 11644 net.cpp:434] pool5 <- conv5_3
I0121 19:02:18.996253 11644 net.cpp:408] pool5 -> pool5
I0121 19:02:18.996291 11644 net.cpp:150] Setting up pool5
I0121 19:02:18.996296 11644 net.cpp:157] Top shape: 8 512 19 19 (1478656)
I0121 19:02:18.996299 11644 net.cpp:165] Memory required for data: 2505500740
I0121 19:02:18.996300 11644 layer_factory.hpp:77] Creating layer fc6
I0121 19:02:18.996315 11644 net.cpp:100] Creating Layer fc6
I0121 19:02:18.996317 11644 net.cpp:434] fc6 <- pool5
I0121 19:02:18.996340 11644 net.cpp:408] fc6 -> fc6
I0121 19:02:19.021854 11644 net.cpp:150] Setting up fc6
I0121 19:02:19.021878 11644 net.cpp:157] Top shape: 8 1024 19 19 (2957312)
I0121 19:02:19.021881 11644 net.cpp:165] Memory required for data: 2517329988
I0121 19:02:19.021888 11644 layer_factory.hpp:77] Creating layer relu6
I0121 19:02:19.021896 11644 net.cpp:100] Creating Layer relu6
I0121 19:02:19.021899 11644 net.cpp:434] relu6 <- fc6
I0121 19:02:19.021905 11644 net.cpp:395] relu6 -> fc6 (in-place)
I0121 19:02:19.022106 11644 net.cpp:150] Setting up relu6
I0121 19:02:19.022115 11644 net.cpp:157] Top shape: 8 1024 19 19 (2957312)
I0121 19:02:19.022119 11644 net.cpp:165] Memory required for data: 2529159236
I0121 19:02:19.022121 11644 layer_factory.hpp:77] Creating layer fc7
I0121 19:02:19.022130 11644 net.cpp:100] Creating Layer fc7
I0121 19:02:19.022133 11644 net.cpp:434] fc7 <- fc6
I0121 19:02:19.022136 11644 net.cpp:408] fc7 -> fc7_t
I0121 19:02:19.030153 11644 net.cpp:150] Setting up fc7
I0121 19:02:19.030166 11644 net.cpp:157] Top shape: 8 1024 19 19 (2957312)
I0121 19:02:19.030169 11644 net.cpp:165] Memory required for data: 2540988484
I0121 19:02:19.030174 11644 layer_factory.hpp:77] Creating layer relu7
I0121 19:02:19.030179 11644 net.cpp:100] Creating Layer relu7
I0121 19:02:19.030182 11644 net.cpp:434] relu7 <- fc7_t
I0121 19:02:19.030186 11644 net.cpp:395] relu7 -> fc7_t (in-place)
I0121 19:02:19.030580 11644 net.cpp:150] Setting up relu7
I0121 19:02:19.030592 11644 net.cpp:157] Top shape: 8 1024 19 19 (2957312)
I0121 19:02:19.030594 11644 net.cpp:165] Memory required for data: 2552817732
I0121 19:02:19.030596 11644 layer_factory.hpp:77] Creating layer fc7_t_relu7_0_split
I0121 19:02:19.030602 11644 net.cpp:100] Creating Layer fc7_t_relu7_0_split
I0121 19:02:19.030606 11644 net.cpp:434] fc7_t_relu7_0_split <- fc7_t
I0121 19:02:19.030609 11644 net.cpp:408] fc7_t_relu7_0_split -> fc7_t_relu7_0_split_0
I0121 19:02:19.030614 11644 net.cpp:408] fc7_t_relu7_0_split -> fc7_t_relu7_0_split_1
I0121 19:02:19.030658 11644 net.cpp:150] Setting up fc7_t_relu7_0_split
I0121 19:02:19.030663 11644 net.cpp:157] Top shape: 8 1024 19 19 (2957312)
I0121 19:02:19.030665 11644 net.cpp:157] Top shape: 8 1024 19 19 (2957312)
I0121 19:02:19.030666 11644 net.cpp:165] Memory required for data: 2576476228
I0121 19:02:19.030668 11644 layer_factory.hpp:77] Creating layer fc7_s
I0121 19:02:19.030674 11644 net.cpp:100] Creating Layer fc7_s
I0121 19:02:19.030678 11644 net.cpp:434] fc7_s <- fc7_t_relu7_0_split_0
I0121 19:02:19.030680 11644 net.cpp:408] fc7_s -> fc7_s
I0121 19:02:19.030833 11644 net.cpp:150] Setting up fc7_s
I0121 19:02:19.030843 11644 net.cpp:157] Top shape: 8 1024 1 1 (8192)
I0121 19:02:19.030844 11644 net.cpp:165] Memory required for data: 2576508996
I0121 19:02:19.030846 11644 layer_factory.hpp:77] Creating layer fc7_fc1
I0121 19:02:19.030854 11644 net.cpp:100] Creating Layer fc7_fc1
I0121 19:02:19.030856 11644 net.cpp:434] fc7_fc1 <- fc7_s
I0121 19:02:19.030861 11644 net.cpp:408] fc7_fc1 -> fc7_fc1
I0121 19:02:19.032892 11644 net.cpp:150] Setting up fc7_fc1
I0121 19:02:19.032909 11644 net.cpp:157] Top shape: 8 256 1 1 (2048)
I0121 19:02:19.032913 11644 net.cpp:165] Memory required for data: 2576517188
I0121 19:02:19.032918 11644 layer_factory.hpp:77] Creating layer fc7_relu
I0121 19:02:19.032922 11644 net.cpp:100] Creating Layer fc7_relu
I0121 19:02:19.032925 11644 net.cpp:434] fc7_relu <- fc7_fc1
I0121 19:02:19.032929 11644 net.cpp:395] fc7_relu -> fc7_fc1 (in-place)
I0121 19:02:19.033068 11644 net.cpp:150] Setting up fc7_relu
I0121 19:02:19.033077 11644 net.cpp:157] Top shape: 8 256 1 1 (2048)
I0121 19:02:19.033078 11644 net.cpp:165] Memory required for data: 2576525380
I0121 19:02:19.033082 11644 layer_factory.hpp:77] Creating layer fc7_fc2
I0121 19:02:19.033088 11644 net.cpp:100] Creating Layer fc7_fc2
I0121 19:02:19.033090 11644 net.cpp:434] fc7_fc2 <- fc7_fc1
I0121 19:02:19.033094 11644 net.cpp:408] fc7_fc2 -> fc7_fc2
I0121 19:02:19.035815 11644 net.cpp:150] Setting up fc7_fc2
I0121 19:02:19.035843 11644 net.cpp:157] Top shape: 8 1024 1 1 (8192)
I0121 19:02:19.035845 11644 net.cpp:165] Memory required for data: 2576558148
I0121 19:02:19.035851 11644 layer_factory.hpp:77] Creating layer fc7_sig
I0121 19:02:19.035856 11644 net.cpp:100] Creating Layer fc7_sig
I0121 19:02:19.035859 11644 net.cpp:434] fc7_sig <- fc7_fc2
I0121 19:02:19.035862 11644 net.cpp:395] fc7_sig -> fc7_fc2 (in-place)
I0121 19:02:19.036002 11644 net.cpp:150] Setting up fc7_sig
I0121 19:02:19.036010 11644 net.cpp:157] Top shape: 8 1024 1 1 (8192)
I0121 19:02:19.036012 11644 net.cpp:165] Memory required for data: 2576590916
I0121 19:02:19.036015 11644 layer_factory.hpp:77] Creating layer fc7_reshape
I0121 19:02:19.036020 11644 net.cpp:100] Creating Layer fc7_reshape
I0121 19:02:19.036023 11644 net.cpp:434] fc7_reshape <- fc7_fc2
I0121 19:02:19.036027 11644 net.cpp:408] fc7_reshape -> fc7_reshape
I0121 19:02:19.036062 11644 net.cpp:150] Setting up fc7_reshape
I0121 19:02:19.036074 11644 net.cpp:157] Top shape: 8 1024 (8192)
I0121 19:02:19.036077 11644 net.cpp:165] Memory required for data: 2576623684
I0121 19:02:19.036078 11644 layer_factory.hpp:77] Creating layer fc7_scale
I0121 19:02:19.036083 11644 net.cpp:100] Creating Layer fc7_scale
I0121 19:02:19.036085 11644 net.cpp:434] fc7_scale <- fc7_t_relu7_0_split_1
I0121 19:02:19.036089 11644 net.cpp:434] fc7_scale <- fc7_reshape
I0121 19:02:19.036092 11644 net.cpp:408] fc7_scale -> fc7
I0121 19:02:19.036145 11644 net.cpp:150] Setting up fc7_scale
I0121 19:02:19.036150 11644 net.cpp:157] Top shape: 8 1024 19 19 (2957312)
I0121 19:02:19.036152 11644 net.cpp:165] Memory required for data: 2588452932
I0121 19:02:19.036154 11644 layer_factory.hpp:77] Creating layer fc7_fc7_scale_0_split
I0121 19:02:19.036159 11644 net.cpp:100] Creating Layer fc7_fc7_scale_0_split
I0121 19:02:19.036160 11644 net.cpp:434] fc7_fc7_scale_0_split <- fc7
I0121 19:02:19.036164 11644 net.cpp:408] fc7_fc7_scale_0_split -> fc7_fc7_scale_0_split_0
I0121 19:02:19.036170 11644 net.cpp:408] fc7_fc7_scale_0_split -> fc7_fc7_scale_0_split_1
I0121 19:02:19.036173 11644 net.cpp:408] fc7_fc7_scale_0_split -> fc7_fc7_scale_0_split_2
I0121 19:02:19.036177 11644 net.cpp:408] fc7_fc7_scale_0_split -> fc7_fc7_scale_0_split_3
I0121 19:02:19.036224 11644 net.cpp:150] Setting up fc7_fc7_scale_0_split
I0121 19:02:19.036228 11644 net.cpp:157] Top shape: 8 1024 19 19 (2957312)
I0121 19:02:19.036231 11644 net.cpp:157] Top shape: 8 1024 19 19 (2957312)
I0121 19:02:19.036233 11644 net.cpp:157] Top shape: 8 1024 19 19 (2957312)
I0121 19:02:19.036237 11644 net.cpp:157] Top shape: 8 1024 19 19 (2957312)
I0121 19:02:19.036238 11644 net.cpp:165] Memory required for data: 2635769924
I0121 19:02:19.036240 11644 layer_factory.hpp:77] Creating layer conv6_1
I0121 19:02:19.036247 11644 net.cpp:100] Creating Layer conv6_1
I0121 19:02:19.036249 11644 net.cpp:434] conv6_1 <- fc7_fc7_scale_0_split_0
I0121 19:02:19.036253 11644 net.cpp:408] conv6_1 -> conv6_1
I0121 19:02:19.038251 11644 net.cpp:150] Setting up conv6_1
I0121 19:02:19.038262 11644 net.cpp:157] Top shape: 8 256 19 19 (739328)
I0121 19:02:19.038265 11644 net.cpp:165] Memory required for data: 2638727236
I0121 19:02:19.038270 11644 layer_factory.hpp:77] Creating layer conv6_1_relu
I0121 19:02:19.038275 11644 net.cpp:100] Creating Layer conv6_1_relu
I0121 19:02:19.038277 11644 net.cpp:434] conv6_1_relu <- conv6_1
I0121 19:02:19.038281 11644 net.cpp:395] conv6_1_relu -> conv6_1 (in-place)
I0121 19:02:19.038667 11644 net.cpp:150] Setting up conv6_1_relu
I0121 19:02:19.038678 11644 net.cpp:157] Top shape: 8 256 19 19 (739328)
I0121 19:02:19.038681 11644 net.cpp:165] Memory required for data: 2641684548
I0121 19:02:19.038683 11644 layer_factory.hpp:77] Creating layer conv6_2
I0121 19:02:19.038691 11644 net.cpp:100] Creating Layer conv6_2
I0121 19:02:19.038694 11644 net.cpp:434] conv6_2 <- conv6_1
I0121 19:02:19.038699 11644 net.cpp:408] conv6_2 -> conv6_2_t
I0121 19:02:19.046190 11644 net.cpp:150] Setting up conv6_2
I0121 19:02:19.046202 11644 net.cpp:157] Top shape: 8 512 10 10 (409600)
I0121 19:02:19.046217 11644 net.cpp:165] Memory required for data: 2643322948
I0121 19:02:19.046222 11644 layer_factory.hpp:77] Creating layer conv6_2_relu
I0121 19:02:19.046228 11644 net.cpp:100] Creating Layer conv6_2_relu
I0121 19:02:19.046232 11644 net.cpp:434] conv6_2_relu <- conv6_2_t
I0121 19:02:19.046236 11644 net.cpp:395] conv6_2_relu -> conv6_2_t (in-place)
I0121 19:02:19.046386 11644 net.cpp:150] Setting up conv6_2_relu
I0121 19:02:19.046396 11644 net.cpp:157] Top shape: 8 512 10 10 (409600)
I0121 19:02:19.046398 11644 net.cpp:165] Memory required for data: 2644961348
I0121 19:02:19.046401 11644 layer_factory.hpp:77] Creating layer conv6_2_t_conv6_2_relu_0_split
I0121 19:02:19.046406 11644 net.cpp:100] Creating Layer conv6_2_t_conv6_2_relu_0_split
I0121 19:02:19.046407 11644 net.cpp:434] conv6_2_t_conv6_2_relu_0_split <- conv6_2_t
I0121 19:02:19.046411 11644 net.cpp:408] conv6_2_t_conv6_2_relu_0_split -> conv6_2_t_conv6_2_relu_0_split_0
I0121 19:02:19.046416 11644 net.cpp:408] conv6_2_t_conv6_2_relu_0_split -> conv6_2_t_conv6_2_relu_0_split_1
I0121 19:02:19.046455 11644 net.cpp:150] Setting up conv6_2_t_conv6_2_relu_0_split
I0121 19:02:19.046460 11644 net.cpp:157] Top shape: 8 512 10 10 (409600)
I0121 19:02:19.046463 11644 net.cpp:157] Top shape: 8 512 10 10 (409600)
I0121 19:02:19.046464 11644 net.cpp:165] Memory required for data: 2648238148
I0121 19:02:19.046466 11644 layer_factory.hpp:77] Creating layer conv6_2_s
I0121 19:02:19.046473 11644 net.cpp:100] Creating Layer conv6_2_s
I0121 19:02:19.046474 11644 net.cpp:434] conv6_2_s <- conv6_2_t_conv6_2_relu_0_split_0
I0121 19:02:19.046478 11644 net.cpp:408] conv6_2_s -> conv6_2_s
I0121 19:02:19.046633 11644 net.cpp:150] Setting up conv6_2_s
I0121 19:02:19.046641 11644 net.cpp:157] Top shape: 8 512 1 1 (4096)
I0121 19:02:19.046643 11644 net.cpp:165] Memory required for data: 2648254532
I0121 19:02:19.046645 11644 layer_factory.hpp:77] Creating layer conv6_2_fc1
I0121 19:02:19.046653 11644 net.cpp:100] Creating Layer conv6_2_fc1
I0121 19:02:19.046655 11644 net.cpp:434] conv6_2_fc1 <- conv6_2_s
I0121 19:02:19.046659 11644 net.cpp:408] conv6_2_fc1 -> conv6_2_fc1
I0121 19:02:19.047837 11644 net.cpp:150] Setting up conv6_2_fc1
I0121 19:02:19.047847 11644 net.cpp:157] Top shape: 8 128 1 1 (1024)
I0121 19:02:19.047850 11644 net.cpp:165] Memory required for data: 2648258628
I0121 19:02:19.047857 11644 layer_factory.hpp:77] Creating layer conv6_2_relu
I0121 19:02:19.047860 11644 net.cpp:100] Creating Layer conv6_2_relu
I0121 19:02:19.047863 11644 net.cpp:434] conv6_2_relu <- conv6_2_fc1
I0121 19:02:19.047868 11644 net.cpp:395] conv6_2_relu -> conv6_2_fc1 (in-place)
I0121 19:02:19.048266 11644 net.cpp:150] Setting up conv6_2_relu
I0121 19:02:19.048277 11644 net.cpp:157] Top shape: 8 128 1 1 (1024)
I0121 19:02:19.048280 11644 net.cpp:165] Memory required for data: 2648262724
I0121 19:02:19.048282 11644 layer_factory.hpp:77] Creating layer conv6_2_fc2
I0121 19:02:19.048290 11644 net.cpp:100] Creating Layer conv6_2_fc2
I0121 19:02:19.048293 11644 net.cpp:434] conv6_2_fc2 <- conv6_2_fc1
I0121 19:02:19.048297 11644 net.cpp:408] conv6_2_fc2 -> conv6_2_fc2
I0121 19:02:19.049511 11644 net.cpp:150] Setting up conv6_2_fc2
I0121 19:02:19.049523 11644 net.cpp:157] Top shape: 8 512 1 1 (4096)
I0121 19:02:19.049525 11644 net.cpp:165] Memory required for data: 2648279108
I0121 19:02:19.049531 11644 layer_factory.hpp:77] Creating layer conv6_2_sig
I0121 19:02:19.049536 11644 net.cpp:100] Creating Layer conv6_2_sig
I0121 19:02:19.049538 11644 net.cpp:434] conv6_2_sig <- conv6_2_fc2
I0121 19:02:19.049542 11644 net.cpp:395] conv6_2_sig -> conv6_2_fc2 (in-place)
I0121 19:02:19.049690 11644 net.cpp:150] Setting up conv6_2_sig
I0121 19:02:19.049698 11644 net.cpp:157] Top shape: 8 512 1 1 (4096)
I0121 19:02:19.049700 11644 net.cpp:165] Memory required for data: 2648295492
I0121 19:02:19.049703 11644 layer_factory.hpp:77] Creating layer conv6_2_reshape
I0121 19:02:19.049707 11644 net.cpp:100] Creating Layer conv6_2_reshape
I0121 19:02:19.049710 11644 net.cpp:434] conv6_2_reshape <- conv6_2_fc2
I0121 19:02:19.049726 11644 net.cpp:408] conv6_2_reshape -> conv6_2_reshape
I0121 19:02:19.049754 11644 net.cpp:150] Setting up conv6_2_reshape
I0121 19:02:19.049758 11644 net.cpp:157] Top shape: 8 512 (4096)
I0121 19:02:19.049760 11644 net.cpp:165] Memory required for data: 2648311876
I0121 19:02:19.049762 11644 layer_factory.hpp:77] Creating layer conv6_2_scale
I0121 19:02:19.049767 11644 net.cpp:100] Creating Layer conv6_2_scale
I0121 19:02:19.049769 11644 net.cpp:434] conv6_2_scale <- conv6_2_t_conv6_2_relu_0_split_1
I0121 19:02:19.049772 11644 net.cpp:434] conv6_2_scale <- conv6_2_reshape
I0121 19:02:19.049777 11644 net.cpp:408] conv6_2_scale -> conv6_2
I0121 19:02:19.049831 11644 net.cpp:150] Setting up conv6_2_scale
I0121 19:02:19.049835 11644 net.cpp:157] Top shape: 8 512 10 10 (409600)
I0121 19:02:19.049837 11644 net.cpp:165] Memory required for data: 2649950276
I0121 19:02:19.049839 11644 layer_factory.hpp:77] Creating layer conv6_2_conv6_2_scale_0_split
I0121 19:02:19.049844 11644 net.cpp:100] Creating Layer conv6_2_conv6_2_scale_0_split
I0121 19:02:19.049845 11644 net.cpp:434] conv6_2_conv6_2_scale_0_split <- conv6_2
I0121 19:02:19.049849 11644 net.cpp:408] conv6_2_conv6_2_scale_0_split -> conv6_2_conv6_2_scale_0_split_0
I0121 19:02:19.049854 11644 net.cpp:408] conv6_2_conv6_2_scale_0_split -> conv6_2_conv6_2_scale_0_split_1
I0121 19:02:19.049859 11644 net.cpp:408] conv6_2_conv6_2_scale_0_split -> conv6_2_conv6_2_scale_0_split_2
I0121 19:02:19.049862 11644 net.cpp:408] conv6_2_conv6_2_scale_0_split -> conv6_2_conv6_2_scale_0_split_3
I0121 19:02:19.049911 11644 net.cpp:150] Setting up conv6_2_conv6_2_scale_0_split
I0121 19:02:19.049914 11644 net.cpp:157] Top shape: 8 512 10 10 (409600)
I0121 19:02:19.049917 11644 net.cpp:157] Top shape: 8 512 10 10 (409600)
I0121 19:02:19.049921 11644 net.cpp:157] Top shape: 8 512 10 10 (409600)
I0121 19:02:19.049922 11644 net.cpp:157] Top shape: 8 512 10 10 (409600)
I0121 19:02:19.049924 11644 net.cpp:165] Memory required for data: 2656503876
I0121 19:02:19.049926 11644 layer_factory.hpp:77] Creating layer conv7_1
I0121 19:02:19.049933 11644 net.cpp:100] Creating Layer conv7_1
I0121 19:02:19.049937 11644 net.cpp:434] conv7_1 <- conv6_2_conv6_2_scale_0_split_0
I0121 19:02:19.049940 11644 net.cpp:408] conv7_1 -> conv7_1
I0121 19:02:19.051125 11644 net.cpp:150] Setting up conv7_1
I0121 19:02:19.051136 11644 net.cpp:157] Top shape: 8 128 10 10 (102400)
I0121 19:02:19.051139 11644 net.cpp:165] Memory required for data: 2656913476
I0121 19:02:19.051144 11644 layer_factory.hpp:77] Creating layer conv7_1_relu
I0121 19:02:19.051148 11644 net.cpp:100] Creating Layer conv7_1_relu
I0121 19:02:19.051151 11644 net.cpp:434] conv7_1_relu <- conv7_1
I0121 19:02:19.051156 11644 net.cpp:395] conv7_1_relu -> conv7_1 (in-place)
I0121 19:02:19.051295 11644 net.cpp:150] Setting up conv7_1_relu
I0121 19:02:19.051302 11644 net.cpp:157] Top shape: 8 128 10 10 (102400)
I0121 19:02:19.051304 11644 net.cpp:165] Memory required for data: 2657323076
I0121 19:02:19.051306 11644 layer_factory.hpp:77] Creating layer conv7_2
I0121 19:02:19.051314 11644 net.cpp:100] Creating Layer conv7_2
I0121 19:02:19.051316 11644 net.cpp:434] conv7_2 <- conv7_1
I0121 19:02:19.051321 11644 net.cpp:408] conv7_2 -> conv7_2_t
I0121 19:02:19.054211 11644 net.cpp:150] Setting up conv7_2
I0121 19:02:19.054224 11644 net.cpp:157] Top shape: 8 256 5 5 (51200)
I0121 19:02:19.054225 11644 net.cpp:165] Memory required for data: 2657527876
I0121 19:02:19.054231 11644 layer_factory.hpp:77] Creating layer conv7_2_relu
I0121 19:02:19.054236 11644 net.cpp:100] Creating Layer conv7_2_relu
I0121 19:02:19.054239 11644 net.cpp:434] conv7_2_relu <- conv7_2_t
I0121 19:02:19.054244 11644 net.cpp:395] conv7_2_relu -> conv7_2_t (in-place)
I0121 19:02:19.054642 11644 net.cpp:150] Setting up conv7_2_relu
I0121 19:02:19.054653 11644 net.cpp:157] Top shape: 8 256 5 5 (51200)
I0121 19:02:19.054656 11644 net.cpp:165] Memory required for data: 2657732676
I0121 19:02:19.054658 11644 layer_factory.hpp:77] Creating layer conv7_2_t_conv7_2_relu_0_split
I0121 19:02:19.054673 11644 net.cpp:100] Creating Layer conv7_2_t_conv7_2_relu_0_split
I0121 19:02:19.054677 11644 net.cpp:434] conv7_2_t_conv7_2_relu_0_split <- conv7_2_t
I0121 19:02:19.054682 11644 net.cpp:408] conv7_2_t_conv7_2_relu_0_split -> conv7_2_t_conv7_2_relu_0_split_0
I0121 19:02:19.054687 11644 net.cpp:408] conv7_2_t_conv7_2_relu_0_split -> conv7_2_t_conv7_2_relu_0_split_1
I0121 19:02:19.054726 11644 net.cpp:150] Setting up conv7_2_t_conv7_2_relu_0_split
I0121 19:02:19.054731 11644 net.cpp:157] Top shape: 8 256 5 5 (51200)
I0121 19:02:19.054734 11644 net.cpp:157] Top shape: 8 256 5 5 (51200)
I0121 19:02:19.054735 11644 net.cpp:165] Memory required for data: 2658142276
I0121 19:02:19.054738 11644 layer_factory.hpp:77] Creating layer conv7_2_s
I0121 19:02:19.054744 11644 net.cpp:100] Creating Layer conv7_2_s
I0121 19:02:19.054745 11644 net.cpp:434] conv7_2_s <- conv7_2_t_conv7_2_relu_0_split_0
I0121 19:02:19.054749 11644 net.cpp:408] conv7_2_s -> conv7_2_s
I0121 19:02:19.054904 11644 net.cpp:150] Setting up conv7_2_s
I0121 19:02:19.054913 11644 net.cpp:157] Top shape: 8 256 1 1 (2048)
I0121 19:02:19.054914 11644 net.cpp:165] Memory required for data: 2658150468
I0121 19:02:19.054917 11644 layer_factory.hpp:77] Creating layer conv7_2_fc1
I0121 19:02:19.054924 11644 net.cpp:100] Creating Layer conv7_2_fc1
I0121 19:02:19.054927 11644 net.cpp:434] conv7_2_fc1 <- conv7_2_s
I0121 19:02:19.054932 11644 net.cpp:408] conv7_2_fc1 -> conv7_2_fc1
I0121 19:02:19.055913 11644 net.cpp:150] Setting up conv7_2_fc1
I0121 19:02:19.055924 11644 net.cpp:157] Top shape: 8 64 1 1 (512)
I0121 19:02:19.055927 11644 net.cpp:165] Memory required for data: 2658152516
I0121 19:02:19.055940 11644 layer_factory.hpp:77] Creating layer conv7_2_relu
I0121 19:02:19.055946 11644 net.cpp:100] Creating Layer conv7_2_relu
I0121 19:02:19.055949 11644 net.cpp:434] conv7_2_relu <- conv7_2_fc1
I0121 19:02:19.055953 11644 net.cpp:395] conv7_2_relu -> conv7_2_fc1 (in-place)
I0121 19:02:19.056092 11644 net.cpp:150] Setting up conv7_2_relu
I0121 19:02:19.056100 11644 net.cpp:157] Top shape: 8 64 1 1 (512)
I0121 19:02:19.056102 11644 net.cpp:165] Memory required for data: 2658154564
I0121 19:02:19.056105 11644 layer_factory.hpp:77] Creating layer conv7_2_fc2
I0121 19:02:19.056113 11644 net.cpp:100] Creating Layer conv7_2_fc2
I0121 19:02:19.056114 11644 net.cpp:434] conv7_2_fc2 <- conv7_2_fc1
I0121 19:02:19.056119 11644 net.cpp:408] conv7_2_fc2 -> conv7_2_fc2
I0121 19:02:19.057390 11644 net.cpp:150] Setting up conv7_2_fc2
I0121 19:02:19.057402 11644 net.cpp:157] Top shape: 8 256 1 1 (2048)
I0121 19:02:19.057404 11644 net.cpp:165] Memory required for data: 2658162756
I0121 19:02:19.057410 11644 layer_factory.hpp:77] Creating layer conv7_2_sig
I0121 19:02:19.057415 11644 net.cpp:100] Creating Layer conv7_2_sig
I0121 19:02:19.057417 11644 net.cpp:434] conv7_2_sig <- conv7_2_fc2
I0121 19:02:19.057422 11644 net.cpp:395] conv7_2_sig -> conv7_2_fc2 (in-place)
I0121 19:02:19.057576 11644 net.cpp:150] Setting up conv7_2_sig
I0121 19:02:19.057585 11644 net.cpp:157] Top shape: 8 256 1 1 (2048)
I0121 19:02:19.057587 11644 net.cpp:165] Memory required for data: 2658170948
I0121 19:02:19.057590 11644 layer_factory.hpp:77] Creating layer conv7_2_reshape
I0121 19:02:19.057595 11644 net.cpp:100] Creating Layer conv7_2_reshape
I0121 19:02:19.057598 11644 net.cpp:434] conv7_2_reshape <- conv7_2_fc2
I0121 19:02:19.057602 11644 net.cpp:408] conv7_2_reshape -> conv7_2_reshape
I0121 19:02:19.057631 11644 net.cpp:150] Setting up conv7_2_reshape
I0121 19:02:19.057634 11644 net.cpp:157] Top shape: 8 256 (2048)
I0121 19:02:19.057636 11644 net.cpp:165] Memory required for data: 2658179140
I0121 19:02:19.057638 11644 layer_factory.hpp:77] Creating layer conv7_2_scale
I0121 19:02:19.057644 11644 net.cpp:100] Creating Layer conv7_2_scale
I0121 19:02:19.057647 11644 net.cpp:434] conv7_2_scale <- conv7_2_t_conv7_2_relu_0_split_1
I0121 19:02:19.057651 11644 net.cpp:434] conv7_2_scale <- conv7_2_reshape
I0121 19:02:19.057654 11644 net.cpp:408] conv7_2_scale -> conv7_2
I0121 19:02:19.057713 11644 net.cpp:150] Setting up conv7_2_scale
I0121 19:02:19.057734 11644 net.cpp:157] Top shape: 8 256 5 5 (51200)
I0121 19:02:19.057735 11644 net.cpp:165] Memory required for data: 2658383940
I0121 19:02:19.057737 11644 layer_factory.hpp:77] Creating layer conv7_2_conv7_2_scale_0_split
I0121 19:02:19.057744 11644 net.cpp:100] Creating Layer conv7_2_conv7_2_scale_0_split
I0121 19:02:19.057745 11644 net.cpp:434] conv7_2_conv7_2_scale_0_split <- conv7_2
I0121 19:02:19.057750 11644 net.cpp:408] conv7_2_conv7_2_scale_0_split -> conv7_2_conv7_2_scale_0_split_0
I0121 19:02:19.057755 11644 net.cpp:408] conv7_2_conv7_2_scale_0_split -> conv7_2_conv7_2_scale_0_split_1
I0121 19:02:19.057760 11644 net.cpp:408] conv7_2_conv7_2_scale_0_split -> conv7_2_conv7_2_scale_0_split_2
I0121 19:02:19.057763 11644 net.cpp:408] conv7_2_conv7_2_scale_0_split -> conv7_2_conv7_2_scale_0_split_3
I0121 19:02:19.057819 11644 net.cpp:150] Setting up conv7_2_conv7_2_scale_0_split
I0121 19:02:19.057829 11644 net.cpp:157] Top shape: 8 256 5 5 (51200)
I0121 19:02:19.057832 11644 net.cpp:157] Top shape: 8 256 5 5 (51200)
I0121 19:02:19.057834 11644 net.cpp:157] Top shape: 8 256 5 5 (51200)
I0121 19:02:19.057837 11644 net.cpp:157] Top shape: 8 256 5 5 (51200)
I0121 19:02:19.057838 11644 net.cpp:165] Memory required for data: 2659203140
I0121 19:02:19.057840 11644 layer_factory.hpp:77] Creating layer conv8_1
I0121 19:02:19.057855 11644 net.cpp:100] Creating Layer conv8_1
I0121 19:02:19.057858 11644 net.cpp:434] conv8_1 <- conv7_2_conv7_2_scale_0_split_0
I0121 19:02:19.057864 11644 net.cpp:408] conv8_1 -> conv8_1
I0121 19:02:19.058936 11644 net.cpp:150] Setting up conv8_1
I0121 19:02:19.058948 11644 net.cpp:157] Top shape: 8 128 5 5 (25600)
I0121 19:02:19.058951 11644 net.cpp:165] Memory required for data: 2659305540
I0121 19:02:19.058956 11644 layer_factory.hpp:77] Creating layer conv8_1_relu
I0121 19:02:19.058961 11644 net.cpp:100] Creating Layer conv8_1_relu
I0121 19:02:19.058964 11644 net.cpp:434] conv8_1_relu <- conv8_1
I0121 19:02:19.058967 11644 net.cpp:395] conv8_1_relu -> conv8_1 (in-place)
I0121 19:02:19.059375 11644 net.cpp:150] Setting up conv8_1_relu
I0121 19:02:19.059386 11644 net.cpp:157] Top shape: 8 128 5 5 (25600)
I0121 19:02:19.059388 11644 net.cpp:165] Memory required for data: 2659407940
I0121 19:02:19.059391 11644 layer_factory.hpp:77] Creating layer conv8_2
I0121 19:02:19.059401 11644 net.cpp:100] Creating Layer conv8_2
I0121 19:02:19.059403 11644 net.cpp:434] conv8_2 <- conv8_1
I0121 19:02:19.059408 11644 net.cpp:408] conv8_2 -> conv8_2_t
I0121 19:02:19.062593 11644 net.cpp:150] Setting up conv8_2
I0121 19:02:19.062608 11644 net.cpp:157] Top shape: 8 256 3 3 (18432)
I0121 19:02:19.062610 11644 net.cpp:165] Memory required for data: 2659481668
I0121 19:02:19.062615 11644 layer_factory.hpp:77] Creating layer conv8_2_relu
I0121 19:02:19.062620 11644 net.cpp:100] Creating Layer conv8_2_relu
I0121 19:02:19.062623 11644 net.cpp:434] conv8_2_relu <- conv8_2_t
I0121 19:02:19.062628 11644 net.cpp:395] conv8_2_relu -> conv8_2_t (in-place)
I0121 19:02:19.062796 11644 net.cpp:150] Setting up conv8_2_relu
I0121 19:02:19.062805 11644 net.cpp:157] Top shape: 8 256 3 3 (18432)
I0121 19:02:19.062808 11644 net.cpp:165] Memory required for data: 2659555396
I0121 19:02:19.062809 11644 layer_factory.hpp:77] Creating layer conv8_2_t_conv8_2_relu_0_split
I0121 19:02:19.062814 11644 net.cpp:100] Creating Layer conv8_2_t_conv8_2_relu_0_split
I0121 19:02:19.062818 11644 net.cpp:434] conv8_2_t_conv8_2_relu_0_split <- conv8_2_t
I0121 19:02:19.062821 11644 net.cpp:408] conv8_2_t_conv8_2_relu_0_split -> conv8_2_t_conv8_2_relu_0_split_0
I0121 19:02:19.062826 11644 net.cpp:408] conv8_2_t_conv8_2_relu_0_split -> conv8_2_t_conv8_2_relu_0_split_1
I0121 19:02:19.062868 11644 net.cpp:150] Setting up conv8_2_t_conv8_2_relu_0_split
I0121 19:02:19.062872 11644 net.cpp:157] Top shape: 8 256 3 3 (18432)
I0121 19:02:19.062875 11644 net.cpp:157] Top shape: 8 256 3 3 (18432)
I0121 19:02:19.062877 11644 net.cpp:165] Memory required for data: 2659702852
I0121 19:02:19.062880 11644 layer_factory.hpp:77] Creating layer conv8_2_s
I0121 19:02:19.062896 11644 net.cpp:100] Creating Layer conv8_2_s
I0121 19:02:19.062899 11644 net.cpp:434] conv8_2_s <- conv8_2_t_conv8_2_relu_0_split_0
I0121 19:02:19.062902 11644 net.cpp:408] conv8_2_s -> conv8_2_s
I0121 19:02:19.063074 11644 net.cpp:150] Setting up conv8_2_s
I0121 19:02:19.063083 11644 net.cpp:157] Top shape: 8 256 1 1 (2048)
I0121 19:02:19.063086 11644 net.cpp:165] Memory required for data: 2659711044
I0121 19:02:19.063089 11644 layer_factory.hpp:77] Creating layer conv8_2_fc1
I0121 19:02:19.063097 11644 net.cpp:100] Creating Layer conv8_2_fc1
I0121 19:02:19.063099 11644 net.cpp:434] conv8_2_fc1 <- conv8_2_s
I0121 19:02:19.063104 11644 net.cpp:408] conv8_2_fc1 -> conv8_2_fc1
I0121 19:02:19.064139 11644 net.cpp:150] Setting up conv8_2_fc1
I0121 19:02:19.064151 11644 net.cpp:157] Top shape: 8 64 1 1 (512)
I0121 19:02:19.064153 11644 net.cpp:165] Memory required for data: 2659713092
I0121 19:02:19.064157 11644 layer_factory.hpp:77] Creating layer conv8_2_relu
I0121 19:02:19.064163 11644 net.cpp:100] Creating Layer conv8_2_relu
I0121 19:02:19.064165 11644 net.cpp:434] conv8_2_relu <- conv8_2_fc1
I0121 19:02:19.064170 11644 net.cpp:395] conv8_2_relu -> conv8_2_fc1 (in-place)
I0121 19:02:19.064580 11644 net.cpp:150] Setting up conv8_2_relu
I0121 19:02:19.064590 11644 net.cpp:157] Top shape: 8 64 1 1 (512)
I0121 19:02:19.064592 11644 net.cpp:165] Memory required for data: 2659715140
I0121 19:02:19.064595 11644 layer_factory.hpp:77] Creating layer conv8_2_fc2
I0121 19:02:19.064604 11644 net.cpp:100] Creating Layer conv8_2_fc2
I0121 19:02:19.064606 11644 net.cpp:434] conv8_2_fc2 <- conv8_2_fc1
I0121 19:02:19.064611 11644 net.cpp:408] conv8_2_fc2 -> conv8_2_fc2
I0121 19:02:19.065654 11644 net.cpp:150] Setting up conv8_2_fc2
I0121 19:02:19.065665 11644 net.cpp:157] Top shape: 8 256 1 1 (2048)
I0121 19:02:19.065668 11644 net.cpp:165] Memory required for data: 2659723332
I0121 19:02:19.065672 11644 layer_factory.hpp:77] Creating layer conv8_2_sig
I0121 19:02:19.065680 11644 net.cpp:100] Creating Layer conv8_2_sig
I0121 19:02:19.065682 11644 net.cpp:434] conv8_2_sig <- conv8_2_fc2
I0121 19:02:19.065685 11644 net.cpp:395] conv8_2_sig -> conv8_2_fc2 (in-place)
I0121 19:02:19.065840 11644 net.cpp:150] Setting up conv8_2_sig
I0121 19:02:19.065850 11644 net.cpp:157] Top shape: 8 256 1 1 (2048)
I0121 19:02:19.065851 11644 net.cpp:165] Memory required for data: 2659731524
I0121 19:02:19.065853 11644 layer_factory.hpp:77] Creating layer conv8_2_reshape
I0121 19:02:19.065858 11644 net.cpp:100] Creating Layer conv8_2_reshape
I0121 19:02:19.065861 11644 net.cpp:434] conv8_2_reshape <- conv8_2_fc2
I0121 19:02:19.065866 11644 net.cpp:408] conv8_2_reshape -> conv8_2_reshape
I0121 19:02:19.065894 11644 net.cpp:150] Setting up conv8_2_reshape
I0121 19:02:19.065898 11644 net.cpp:157] Top shape: 8 256 (2048)
I0121 19:02:19.065901 11644 net.cpp:165] Memory required for data: 2659739716
I0121 19:02:19.065902 11644 layer_factory.hpp:77] Creating layer conv8_2_scale
I0121 19:02:19.065908 11644 net.cpp:100] Creating Layer conv8_2_scale
I0121 19:02:19.065912 11644 net.cpp:434] conv8_2_scale <- conv8_2_t_conv8_2_relu_0_split_1
I0121 19:02:19.065914 11644 net.cpp:434] conv8_2_scale <- conv8_2_reshape
I0121 19:02:19.065919 11644 net.cpp:408] conv8_2_scale -> conv8_2
I0121 19:02:19.065984 11644 net.cpp:150] Setting up conv8_2_scale
I0121 19:02:19.065994 11644 net.cpp:157] Top shape: 8 256 3 3 (18432)
I0121 19:02:19.065996 11644 net.cpp:165] Memory required for data: 2659813444
I0121 19:02:19.066010 11644 layer_factory.hpp:77] Creating layer conv8_2_conv8_2_scale_0_split
I0121 19:02:19.066015 11644 net.cpp:100] Creating Layer conv8_2_conv8_2_scale_0_split
I0121 19:02:19.066017 11644 net.cpp:434] conv8_2_conv8_2_scale_0_split <- conv8_2
I0121 19:02:19.066021 11644 net.cpp:408] conv8_2_conv8_2_scale_0_split -> conv8_2_conv8_2_scale_0_split_0
I0121 19:02:19.066026 11644 net.cpp:408] conv8_2_conv8_2_scale_0_split -> conv8_2_conv8_2_scale_0_split_1
I0121 19:02:19.066031 11644 net.cpp:408] conv8_2_conv8_2_scale_0_split -> conv8_2_conv8_2_scale_0_split_2
I0121 19:02:19.066046 11644 net.cpp:408] conv8_2_conv8_2_scale_0_split -> conv8_2_conv8_2_scale_0_split_3
I0121 19:02:19.066104 11644 net.cpp:150] Setting up conv8_2_conv8_2_scale_0_split
I0121 19:02:19.066108 11644 net.cpp:157] Top shape: 8 256 3 3 (18432)
I0121 19:02:19.066110 11644 net.cpp:157] Top shape: 8 256 3 3 (18432)
I0121 19:02:19.066113 11644 net.cpp:157] Top shape: 8 256 3 3 (18432)
I0121 19:02:19.066117 11644 net.cpp:157] Top shape: 8 256 3 3 (18432)
I0121 19:02:19.066118 11644 net.cpp:165] Memory required for data: 2660108356
I0121 19:02:19.066120 11644 layer_factory.hpp:77] Creating layer conv9_1
I0121 19:02:19.066128 11644 net.cpp:100] Creating Layer conv9_1
I0121 19:02:19.066130 11644 net.cpp:434] conv9_1 <- conv8_2_conv8_2_scale_0_split_0
I0121 19:02:19.066135 11644 net.cpp:408] conv9_1 -> conv9_1
I0121 19:02:19.067241 11644 net.cpp:150] Setting up conv9_1
I0121 19:02:19.067252 11644 net.cpp:157] Top shape: 8 128 3 3 (9216)
I0121 19:02:19.067255 11644 net.cpp:165] Memory required for data: 2660145220
I0121 19:02:19.067260 11644 layer_factory.hpp:77] Creating layer conv9_1_relu
I0121 19:02:19.067265 11644 net.cpp:100] Creating Layer conv9_1_relu
I0121 19:02:19.067267 11644 net.cpp:434] conv9_1_relu <- conv9_1
I0121 19:02:19.067273 11644 net.cpp:395] conv9_1_relu -> conv9_1 (in-place)
I0121 19:02:19.067426 11644 net.cpp:150] Setting up conv9_1_relu
I0121 19:02:19.067433 11644 net.cpp:157] Top shape: 8 128 3 3 (9216)
I0121 19:02:19.067435 11644 net.cpp:165] Memory required for data: 2660182084
I0121 19:02:19.067438 11644 layer_factory.hpp:77] Creating layer conv9_2
I0121 19:02:19.067446 11644 net.cpp:100] Creating Layer conv9_2
I0121 19:02:19.067450 11644 net.cpp:434] conv9_2 <- conv9_1
I0121 19:02:19.067454 11644 net.cpp:408] conv9_2 -> conv9_2_t
I0121 19:02:19.070672 11644 net.cpp:150] Setting up conv9_2
I0121 19:02:19.070684 11644 net.cpp:157] Top shape: 8 256 1 1 (2048)
I0121 19:02:19.070686 11644 net.cpp:165] Memory required for data: 2660190276
I0121 19:02:19.070691 11644 layer_factory.hpp:77] Creating layer conv9_2_relu
I0121 19:02:19.070696 11644 net.cpp:100] Creating Layer conv9_2_relu
I0121 19:02:19.070699 11644 net.cpp:434] conv9_2_relu <- conv9_2_t
I0121 19:02:19.070704 11644 net.cpp:395] conv9_2_relu -> conv9_2_t (in-place)
I0121 19:02:19.071122 11644 net.cpp:150] Setting up conv9_2_relu
I0121 19:02:19.071133 11644 net.cpp:157] Top shape: 8 256 1 1 (2048)
I0121 19:02:19.071135 11644 net.cpp:165] Memory required for data: 2660198468
I0121 19:02:19.071138 11644 layer_factory.hpp:77] Creating layer conv9_2_t_conv9_2_relu_0_split
I0121 19:02:19.071143 11644 net.cpp:100] Creating Layer conv9_2_t_conv9_2_relu_0_split
I0121 19:02:19.071147 11644 net.cpp:434] conv9_2_t_conv9_2_relu_0_split <- conv9_2_t
I0121 19:02:19.071152 11644 net.cpp:408] conv9_2_t_conv9_2_relu_0_split -> conv9_2_t_conv9_2_relu_0_split_0
I0121 19:02:19.071157 11644 net.cpp:408] conv9_2_t_conv9_2_relu_0_split -> conv9_2_t_conv9_2_relu_0_split_1
I0121 19:02:19.071200 11644 net.cpp:150] Setting up conv9_2_t_conv9_2_relu_0_split
I0121 19:02:19.071208 11644 net.cpp:157] Top shape: 8 256 1 1 (2048)
I0121 19:02:19.071210 11644 net.cpp:157] Top shape: 8 256 1 1 (2048)
I0121 19:02:19.071213 11644 net.cpp:165] Memory required for data: 2660214852
I0121 19:02:19.071214 11644 layer_factory.hpp:77] Creating layer conv9_2_s
I0121 19:02:19.071220 11644 net.cpp:100] Creating Layer conv9_2_s
I0121 19:02:19.071223 11644 net.cpp:434] conv9_2_s <- conv9_2_t_conv9_2_relu_0_split_0
I0121 19:02:19.071225 11644 net.cpp:408] conv9_2_s -> conv9_2_s
I0121 19:02:19.071400 11644 net.cpp:150] Setting up conv9_2_s
I0121 19:02:19.071408 11644 net.cpp:157] Top shape: 8 256 1 1 (2048)
I0121 19:02:19.071410 11644 net.cpp:165] Memory required for data: 2660223044
I0121 19:02:19.071413 11644 layer_factory.hpp:77] Creating layer conv9_2_fc1
I0121 19:02:19.071420 11644 net.cpp:100] Creating Layer conv9_2_fc1
I0121 19:02:19.071424 11644 net.cpp:434] conv9_2_fc1 <- conv9_2_s
I0121 19:02:19.071429 11644 net.cpp:408] conv9_2_fc1 -> conv9_2_fc1
I0121 19:02:19.072492 11644 net.cpp:150] Setting up conv9_2_fc1
I0121 19:02:19.072504 11644 net.cpp:157] Top shape: 8 64 1 1 (512)
I0121 19:02:19.072505 11644 net.cpp:165] Memory required for data: 2660225092
I0121 19:02:19.072510 11644 layer_factory.hpp:77] Creating layer conv9_2_relu
I0121 19:02:19.072515 11644 net.cpp:100] Creating Layer conv9_2_relu
I0121 19:02:19.072518 11644 net.cpp:434] conv9_2_relu <- conv9_2_fc1
I0121 19:02:19.072523 11644 net.cpp:395] conv9_2_relu -> conv9_2_fc1 (in-place)
I0121 19:02:19.072676 11644 net.cpp:150] Setting up conv9_2_relu
I0121 19:02:19.072685 11644 net.cpp:157] Top shape: 8 64 1 1 (512)
I0121 19:02:19.072688 11644 net.cpp:165] Memory required for data: 2660227140
I0121 19:02:19.072691 11644 layer_factory.hpp:77] Creating layer conv9_2_fc2
I0121 19:02:19.072700 11644 net.cpp:100] Creating Layer conv9_2_fc2
I0121 19:02:19.072702 11644 net.cpp:434] conv9_2_fc2 <- conv9_2_fc1
I0121 19:02:19.072707 11644 net.cpp:408] conv9_2_fc2 -> conv9_2_fc2
I0121 19:02:19.073761 11644 net.cpp:150] Setting up conv9_2_fc2
I0121 19:02:19.073776 11644 net.cpp:157] Top shape: 8 256 1 1 (2048)
I0121 19:02:19.073777 11644 net.cpp:165] Memory required for data: 2660235332
I0121 19:02:19.073782 11644 layer_factory.hpp:77] Creating layer conv9_2_sig
I0121 19:02:19.073788 11644 net.cpp:100] Creating Layer conv9_2_sig
I0121 19:02:19.073791 11644 net.cpp:434] conv9_2_sig <- conv9_2_fc2
I0121 19:02:19.073794 11644 net.cpp:395] conv9_2_sig -> conv9_2_fc2 (in-place)
I0121 19:02:19.073947 11644 net.cpp:150] Setting up conv9_2_sig
I0121 19:02:19.073956 11644 net.cpp:157] Top shape: 8 256 1 1 (2048)
I0121 19:02:19.073958 11644 net.cpp:165] Memory required for data: 2660243524
I0121 19:02:19.073961 11644 layer_factory.hpp:77] Creating layer conv9_2_reshape
I0121 19:02:19.073966 11644 net.cpp:100] Creating Layer conv9_2_reshape
I0121 19:02:19.073969 11644 net.cpp:434] conv9_2_reshape <- conv9_2_fc2
I0121 19:02:19.073973 11644 net.cpp:408] conv9_2_reshape -> conv9_2_reshape
I0121 19:02:19.074003 11644 net.cpp:150] Setting up conv9_2_reshape
I0121 19:02:19.074007 11644 net.cpp:157] Top shape: 8 256 (2048)
I0121 19:02:19.074009 11644 net.cpp:165] Memory required for data: 2660251716
I0121 19:02:19.074012 11644 layer_factory.hpp:77] Creating layer conv9_2_scale
I0121 19:02:19.074028 11644 net.cpp:100] Creating Layer conv9_2_scale
I0121 19:02:19.074030 11644 net.cpp:434] conv9_2_scale <- conv9_2_t_conv9_2_relu_0_split_1
I0121 19:02:19.074034 11644 net.cpp:434] conv9_2_scale <- conv9_2_reshape
I0121 19:02:19.074038 11644 net.cpp:408] conv9_2_scale -> conv9_2
I0121 19:02:19.074105 11644 net.cpp:150] Setting up conv9_2_scale
I0121 19:02:19.074111 11644 net.cpp:157] Top shape: 8 256 1 1 (2048)
I0121 19:02:19.074115 11644 net.cpp:165] Memory required for data: 2660259908
I0121 19:02:19.074116 11644 layer_factory.hpp:77] Creating layer conv9_2_conv9_2_scale_0_split
I0121 19:02:19.074121 11644 net.cpp:100] Creating Layer conv9_2_conv9_2_scale_0_split
I0121 19:02:19.074123 11644 net.cpp:434] conv9_2_conv9_2_scale_0_split <- conv9_2
I0121 19:02:19.074127 11644 net.cpp:408] conv9_2_conv9_2_scale_0_split -> conv9_2_conv9_2_scale_0_split_0
I0121 19:02:19.074133 11644 net.cpp:408] conv9_2_conv9_2_scale_0_split -> conv9_2_conv9_2_scale_0_split_1
I0121 19:02:19.074137 11644 net.cpp:408] conv9_2_conv9_2_scale_0_split -> conv9_2_conv9_2_scale_0_split_2
I0121 19:02:19.074182 11644 net.cpp:150] Setting up conv9_2_conv9_2_scale_0_split
I0121 19:02:19.074185 11644 net.cpp:157] Top shape: 8 256 1 1 (2048)
I0121 19:02:19.074188 11644 net.cpp:157] Top shape: 8 256 1 1 (2048)
I0121 19:02:19.074190 11644 net.cpp:157] Top shape: 8 256 1 1 (2048)
I0121 19:02:19.074193 11644 net.cpp:165] Memory required for data: 2660284484
I0121 19:02:19.074194 11644 layer_factory.hpp:77] Creating layer conv4_3_norm
I0121 19:02:19.074200 11644 net.cpp:100] Creating Layer conv4_3_norm
I0121 19:02:19.074203 11644 net.cpp:434] conv4_3_norm <- conv4_3_conv4_3_scale_0_split_1
I0121 19:02:19.074208 11644 net.cpp:408] conv4_3_norm -> conv4_3_norm
I0121 19:02:19.074350 11644 net.cpp:150] Setting up conv4_3_norm
I0121 19:02:19.074368 11644 net.cpp:157] Top shape: 8 512 38 38 (5914624)
I0121 19:02:19.074370 11644 net.cpp:165] Memory required for data: 2683942980
I0121 19:02:19.074374 11644 layer_factory.hpp:77] Creating layer conv4_3_norm_conv4_3_norm_0_split
I0121 19:02:19.074379 11644 net.cpp:100] Creating Layer conv4_3_norm_conv4_3_norm_0_split
I0121 19:02:19.074383 11644 net.cpp:434] conv4_3_norm_conv4_3_norm_0_split <- conv4_3_norm
I0121 19:02:19.074386 11644 net.cpp:408] conv4_3_norm_conv4_3_norm_0_split -> conv4_3_norm_conv4_3_norm_0_split_0
I0121 19:02:19.074390 11644 net.cpp:408] conv4_3_norm_conv4_3_norm_0_split -> conv4_3_norm_conv4_3_norm_0_split_1
I0121 19:02:19.074395 11644 net.cpp:408] conv4_3_norm_conv4_3_norm_0_split -> conv4_3_norm_conv4_3_norm_0_split_2
I0121 19:02:19.074440 11644 net.cpp:150] Setting up conv4_3_norm_conv4_3_norm_0_split
I0121 19:02:19.074443 11644 net.cpp:157] Top shape: 8 512 38 38 (5914624)
I0121 19:02:19.074446 11644 net.cpp:157] Top shape: 8 512 38 38 (5914624)
I0121 19:02:19.074450 11644 net.cpp:157] Top shape: 8 512 38 38 (5914624)
I0121 19:02:19.074450 11644 net.cpp:165] Memory required for data: 2754918468
I0121 19:02:19.074452 11644 layer_factory.hpp:77] Creating layer conv4_3_norm_mbox_loc
I0121 19:02:19.074462 11644 net.cpp:100] Creating Layer conv4_3_norm_mbox_loc
I0121 19:02:19.074465 11644 net.cpp:434] conv4_3_norm_mbox_loc <- conv4_3_norm_conv4_3_norm_0_split_0
I0121 19:02:19.074470 11644 net.cpp:408] conv4_3_norm_mbox_loc -> conv4_3_norm_mbox_loc
I0121 19:02:19.076020 11644 net.cpp:150] Setting up conv4_3_norm_mbox_loc
I0121 19:02:19.076032 11644 net.cpp:157] Top shape: 8 16 38 38 (184832)
I0121 19:02:19.076035 11644 net.cpp:165] Memory required for data: 2755657796
I0121 19:02:19.076040 11644 layer_factory.hpp:77] Creating layer conv4_3_norm_mbox_loc_perm
I0121 19:02:19.076047 11644 net.cpp:100] Creating Layer conv4_3_norm_mbox_loc_perm
I0121 19:02:19.076050 11644 net.cpp:434] conv4_3_norm_mbox_loc_perm <- conv4_3_norm_mbox_loc
I0121 19:02:19.076056 11644 net.cpp:408] conv4_3_norm_mbox_loc_perm -> conv4_3_norm_mbox_loc_perm
I0121 19:02:19.076165 11644 net.cpp:150] Setting up conv4_3_norm_mbox_loc_perm
I0121 19:02:19.076172 11644 net.cpp:157] Top shape: 8 38 38 16 (184832)
I0121 19:02:19.076175 11644 net.cpp:165] Memory required for data: 2756397124
I0121 19:02:19.076177 11644 layer_factory.hpp:77] Creating layer conv4_3_norm_mbox_loc_flat
I0121 19:02:19.076184 11644 net.cpp:100] Creating Layer conv4_3_norm_mbox_loc_flat
I0121 19:02:19.076187 11644 net.cpp:434] conv4_3_norm_mbox_loc_flat <- conv4_3_norm_mbox_loc_perm
I0121 19:02:19.076192 11644 net.cpp:408] conv4_3_norm_mbox_loc_flat -> conv4_3_norm_mbox_loc_flat
I0121 19:02:19.076218 11644 net.cpp:150] Setting up conv4_3_norm_mbox_loc_flat
I0121 19:02:19.076222 11644 net.cpp:157] Top shape: 8 23104 (184832)
I0121 19:02:19.076225 11644 net.cpp:165] Memory required for data: 2757136452
I0121 19:02:19.076226 11644 layer_factory.hpp:77] Creating layer conv4_3_norm_mbox_conf
I0121 19:02:19.076236 11644 net.cpp:100] Creating Layer conv4_3_norm_mbox_conf
I0121 19:02:19.076238 11644 net.cpp:434] conv4_3_norm_mbox_conf <- conv4_3_norm_conv4_3_norm_0_split_1
I0121 19:02:19.076243 11644 net.cpp:408] conv4_3_norm_mbox_conf -> conv4_3_norm_mbox_conf
I0121 19:02:19.079879 11644 net.cpp:150] Setting up conv4_3_norm_mbox_conf
I0121 19:02:19.079893 11644 net.cpp:157] Top shape: 8 84 38 38 (970368)
I0121 19:02:19.079895 11644 net.cpp:165] Memory required for data: 2761017924
I0121 19:02:19.079901 11644 layer_factory.hpp:77] Creating layer conv4_3_norm_mbox_conf_perm
I0121 19:02:19.079908 11644 net.cpp:100] Creating Layer conv4_3_norm_mbox_conf_perm
I0121 19:02:19.079911 11644 net.cpp:434] conv4_3_norm_mbox_conf_perm <- conv4_3_norm_mbox_conf
I0121 19:02:19.079917 11644 net.cpp:408] conv4_3_norm_mbox_conf_perm -> conv4_3_norm_mbox_conf_perm
I0121 19:02:19.080019 11644 net.cpp:150] Setting up conv4_3_norm_mbox_conf_perm
I0121 19:02:19.080026 11644 net.cpp:157] Top shape: 8 38 38 84 (970368)
I0121 19:02:19.080039 11644 net.cpp:165] Memory required for data: 2764899396
I0121 19:02:19.080041 11644 layer_factory.hpp:77] Creating layer conv4_3_norm_mbox_conf_flat
I0121 19:02:19.080046 11644 net.cpp:100] Creating Layer conv4_3_norm_mbox_conf_flat
I0121 19:02:19.080049 11644 net.cpp:434] conv4_3_norm_mbox_conf_flat <- conv4_3_norm_mbox_conf_perm
I0121 19:02:19.080054 11644 net.cpp:408] conv4_3_norm_mbox_conf_flat -> conv4_3_norm_mbox_conf_flat
I0121 19:02:19.080080 11644 net.cpp:150] Setting up conv4_3_norm_mbox_conf_flat
I0121 19:02:19.080085 11644 net.cpp:157] Top shape: 8 121296 (970368)
I0121 19:02:19.080085 11644 net.cpp:165] Memory required for data: 2768780868
I0121 19:02:19.080088 11644 layer_factory.hpp:77] Creating layer conv4_3_norm_mbox_priorbox
I0121 19:02:19.080102 11644 net.cpp:100] Creating Layer conv4_3_norm_mbox_priorbox
I0121 19:02:19.080104 11644 net.cpp:434] conv4_3_norm_mbox_priorbox <- conv4_3_norm_conv4_3_norm_0_split_2
I0121 19:02:19.080107 11644 net.cpp:434] conv4_3_norm_mbox_priorbox <- data_data_0_split_1
I0121 19:02:19.080112 11644 net.cpp:408] conv4_3_norm_mbox_priorbox -> conv4_3_norm_mbox_priorbox
I0121 19:02:19.080140 11644 net.cpp:150] Setting up conv4_3_norm_mbox_priorbox
I0121 19:02:19.080144 11644 net.cpp:157] Top shape: 1 2 23104 (46208)
I0121 19:02:19.080147 11644 net.cpp:165] Memory required for data: 2768965700
I0121 19:02:19.080148 11644 layer_factory.hpp:77] Creating layer fc7_mbox_loc
I0121 19:02:19.080157 11644 net.cpp:100] Creating Layer fc7_mbox_loc
I0121 19:02:19.080159 11644 net.cpp:434] fc7_mbox_loc <- fc7_fc7_scale_0_split_1
I0121 19:02:19.080164 11644 net.cpp:408] fc7_mbox_loc -> fc7_mbox_loc
I0121 19:02:19.082361 11644 net.cpp:150] Setting up fc7_mbox_loc
I0121 19:02:19.082375 11644 net.cpp:157] Top shape: 8 24 19 19 (69312)
I0121 19:02:19.082377 11644 net.cpp:165] Memory required for data: 2769242948
I0121 19:02:19.082382 11644 layer_factory.hpp:77] Creating layer fc7_mbox_loc_perm
I0121 19:02:19.082388 11644 net.cpp:100] Creating Layer fc7_mbox_loc_perm
I0121 19:02:19.082391 11644 net.cpp:434] fc7_mbox_loc_perm <- fc7_mbox_loc
I0121 19:02:19.082396 11644 net.cpp:408] fc7_mbox_loc_perm -> fc7_mbox_loc_perm
I0121 19:02:19.082499 11644 net.cpp:150] Setting up fc7_mbox_loc_perm
I0121 19:02:19.082509 11644 net.cpp:157] Top shape: 8 19 19 24 (69312)
I0121 19:02:19.082510 11644 net.cpp:165] Memory required for data: 2769520196
I0121 19:02:19.082512 11644 layer_factory.hpp:77] Creating layer fc7_mbox_loc_flat
I0121 19:02:19.082516 11644 net.cpp:100] Creating Layer fc7_mbox_loc_flat
I0121 19:02:19.082520 11644 net.cpp:434] fc7_mbox_loc_flat <- fc7_mbox_loc_perm
I0121 19:02:19.082523 11644 net.cpp:408] fc7_mbox_loc_flat -> fc7_mbox_loc_flat
I0121 19:02:19.082545 11644 net.cpp:150] Setting up fc7_mbox_loc_flat
I0121 19:02:19.082550 11644 net.cpp:157] Top shape: 8 8664 (69312)
I0121 19:02:19.082551 11644 net.cpp:165] Memory required for data: 2769797444
I0121 19:02:19.082553 11644 layer_factory.hpp:77] Creating layer fc7_mbox_conf
I0121 19:02:19.082564 11644 net.cpp:100] Creating Layer fc7_mbox_conf
I0121 19:02:19.082566 11644 net.cpp:434] fc7_mbox_conf <- fc7_fc7_scale_0_split_2
I0121 19:02:19.082571 11644 net.cpp:408] fc7_mbox_conf -> fc7_mbox_conf
I0121 19:02:19.091352 11644 net.cpp:150] Setting up fc7_mbox_conf
I0121 19:02:19.091367 11644 net.cpp:157] Top shape: 8 126 19 19 (363888)
I0121 19:02:19.091370 11644 net.cpp:165] Memory required for data: 2771252996
I0121 19:02:19.091377 11644 layer_factory.hpp:77] Creating layer fc7_mbox_conf_perm
I0121 19:02:19.091383 11644 net.cpp:100] Creating Layer fc7_mbox_conf_perm
I0121 19:02:19.091387 11644 net.cpp:434] fc7_mbox_conf_perm <- fc7_mbox_conf
I0121 19:02:19.091390 11644 net.cpp:408] fc7_mbox_conf_perm -> fc7_mbox_conf_perm
I0121 19:02:19.091495 11644 net.cpp:150] Setting up fc7_mbox_conf_perm
I0121 19:02:19.091500 11644 net.cpp:157] Top shape: 8 19 19 126 (363888)
I0121 19:02:19.091502 11644 net.cpp:165] Memory required for data: 2772708548
I0121 19:02:19.091504 11644 layer_factory.hpp:77] Creating layer fc7_mbox_conf_flat
I0121 19:02:19.091522 11644 net.cpp:100] Creating Layer fc7_mbox_conf_flat
I0121 19:02:19.091526 11644 net.cpp:434] fc7_mbox_conf_flat <- fc7_mbox_conf_perm
I0121 19:02:19.091529 11644 net.cpp:408] fc7_mbox_conf_flat -> fc7_mbox_conf_flat
I0121 19:02:19.091557 11644 net.cpp:150] Setting up fc7_mbox_conf_flat
I0121 19:02:19.091562 11644 net.cpp:157] Top shape: 8 45486 (363888)
I0121 19:02:19.091563 11644 net.cpp:165] Memory required for data: 2774164100
I0121 19:02:19.091565 11644 layer_factory.hpp:77] Creating layer fc7_mbox_priorbox
I0121 19:02:19.091572 11644 net.cpp:100] Creating Layer fc7_mbox_priorbox
I0121 19:02:19.091575 11644 net.cpp:434] fc7_mbox_priorbox <- fc7_fc7_scale_0_split_3
I0121 19:02:19.091578 11644 net.cpp:434] fc7_mbox_priorbox <- data_data_0_split_2
I0121 19:02:19.091583 11644 net.cpp:408] fc7_mbox_priorbox -> fc7_mbox_priorbox
I0121 19:02:19.091609 11644 net.cpp:150] Setting up fc7_mbox_priorbox
I0121 19:02:19.091612 11644 net.cpp:157] Top shape: 1 2 8664 (17328)
I0121 19:02:19.091614 11644 net.cpp:165] Memory required for data: 2774233412
I0121 19:02:19.091616 11644 layer_factory.hpp:77] Creating layer conv6_2_mbox_loc
I0121 19:02:19.091624 11644 net.cpp:100] Creating Layer conv6_2_mbox_loc
I0121 19:02:19.091629 11644 net.cpp:434] conv6_2_mbox_loc <- conv6_2_conv6_2_scale_0_split_1
I0121 19:02:19.091636 11644 net.cpp:408] conv6_2_mbox_loc -> conv6_2_mbox_loc
I0121 19:02:19.093367 11644 net.cpp:150] Setting up conv6_2_mbox_loc
I0121 19:02:19.093380 11644 net.cpp:157] Top shape: 8 24 10 10 (19200)
I0121 19:02:19.093384 11644 net.cpp:165] Memory required for data: 2774310212
I0121 19:02:19.093389 11644 layer_factory.hpp:77] Creating layer conv6_2_mbox_loc_perm
I0121 19:02:19.093394 11644 net.cpp:100] Creating Layer conv6_2_mbox_loc_perm
I0121 19:02:19.093396 11644 net.cpp:434] conv6_2_mbox_loc_perm <- conv6_2_mbox_loc
I0121 19:02:19.093402 11644 net.cpp:408] conv6_2_mbox_loc_perm -> conv6_2_mbox_loc_perm
I0121 19:02:19.093509 11644 net.cpp:150] Setting up conv6_2_mbox_loc_perm
I0121 19:02:19.093518 11644 net.cpp:157] Top shape: 8 10 10 24 (19200)
I0121 19:02:19.093519 11644 net.cpp:165] Memory required for data: 2774387012
I0121 19:02:19.093521 11644 layer_factory.hpp:77] Creating layer conv6_2_mbox_loc_flat
I0121 19:02:19.093526 11644 net.cpp:100] Creating Layer conv6_2_mbox_loc_flat
I0121 19:02:19.093528 11644 net.cpp:434] conv6_2_mbox_loc_flat <- conv6_2_mbox_loc_perm
I0121 19:02:19.093533 11644 net.cpp:408] conv6_2_mbox_loc_flat -> conv6_2_mbox_loc_flat
I0121 19:02:19.093556 11644 net.cpp:150] Setting up conv6_2_mbox_loc_flat
I0121 19:02:19.093559 11644 net.cpp:157] Top shape: 8 2400 (19200)
I0121 19:02:19.093561 11644 net.cpp:165] Memory required for data: 2774463812
I0121 19:02:19.093564 11644 layer_factory.hpp:77] Creating layer conv6_2_mbox_conf
I0121 19:02:19.093572 11644 net.cpp:100] Creating Layer conv6_2_mbox_conf
I0121 19:02:19.093575 11644 net.cpp:434] conv6_2_mbox_conf <- conv6_2_conv6_2_scale_0_split_2
I0121 19:02:19.093580 11644 net.cpp:408] conv6_2_mbox_conf -> conv6_2_mbox_conf
I0121 19:02:19.098099 11644 net.cpp:150] Setting up conv6_2_mbox_conf
I0121 19:02:19.098114 11644 net.cpp:157] Top shape: 8 126 10 10 (100800)
I0121 19:02:19.098116 11644 net.cpp:165] Memory required for data: 2774867012
I0121 19:02:19.098121 11644 layer_factory.hpp:77] Creating layer conv6_2_mbox_conf_perm
I0121 19:02:19.098126 11644 net.cpp:100] Creating Layer conv6_2_mbox_conf_perm
I0121 19:02:19.098130 11644 net.cpp:434] conv6_2_mbox_conf_perm <- conv6_2_mbox_conf
I0121 19:02:19.098135 11644 net.cpp:408] conv6_2_mbox_conf_perm -> conv6_2_mbox_conf_perm
I0121 19:02:19.098242 11644 net.cpp:150] Setting up conv6_2_mbox_conf_perm
I0121 19:02:19.098249 11644 net.cpp:157] Top shape: 8 10 10 126 (100800)
I0121 19:02:19.098251 11644 net.cpp:165] Memory required for data: 2775270212
I0121 19:02:19.098254 11644 layer_factory.hpp:77] Creating layer conv6_2_mbox_conf_flat
I0121 19:02:19.098258 11644 net.cpp:100] Creating Layer conv6_2_mbox_conf_flat
I0121 19:02:19.098260 11644 net.cpp:434] conv6_2_mbox_conf_flat <- conv6_2_mbox_conf_perm
I0121 19:02:19.098276 11644 net.cpp:408] conv6_2_mbox_conf_flat -> conv6_2_mbox_conf_flat
I0121 19:02:19.098304 11644 net.cpp:150] Setting up conv6_2_mbox_conf_flat
I0121 19:02:19.098309 11644 net.cpp:157] Top shape: 8 12600 (100800)
I0121 19:02:19.098310 11644 net.cpp:165] Memory required for data: 2775673412
I0121 19:02:19.098314 11644 layer_factory.hpp:77] Creating layer conv6_2_mbox_priorbox
I0121 19:02:19.098317 11644 net.cpp:100] Creating Layer conv6_2_mbox_priorbox
I0121 19:02:19.098320 11644 net.cpp:434] conv6_2_mbox_priorbox <- conv6_2_conv6_2_scale_0_split_3
I0121 19:02:19.098323 11644 net.cpp:434] conv6_2_mbox_priorbox <- data_data_0_split_3
I0121 19:02:19.098330 11644 net.cpp:408] conv6_2_mbox_priorbox -> conv6_2_mbox_priorbox
I0121 19:02:19.098354 11644 net.cpp:150] Setting up conv6_2_mbox_priorbox
I0121 19:02:19.098357 11644 net.cpp:157] Top shape: 1 2 2400 (4800)
I0121 19:02:19.098359 11644 net.cpp:165] Memory required for data: 2775692612
I0121 19:02:19.098361 11644 layer_factory.hpp:77] Creating layer conv7_2_mbox_loc
I0121 19:02:19.098369 11644 net.cpp:100] Creating Layer conv7_2_mbox_loc
I0121 19:02:19.098372 11644 net.cpp:434] conv7_2_mbox_loc <- conv7_2_conv7_2_scale_0_split_1
I0121 19:02:19.098376 11644 net.cpp:408] conv7_2_mbox_loc -> conv7_2_mbox_loc
I0121 19:02:19.100584 11644 net.cpp:150] Setting up conv7_2_mbox_loc
I0121 19:02:19.100597 11644 net.cpp:157] Top shape: 8 24 5 5 (4800)
I0121 19:02:19.100600 11644 net.cpp:165] Memory required for data: 2775711812
I0121 19:02:19.100605 11644 layer_factory.hpp:77] Creating layer conv7_2_mbox_loc_perm
I0121 19:02:19.100610 11644 net.cpp:100] Creating Layer conv7_2_mbox_loc_perm
I0121 19:02:19.100613 11644 net.cpp:434] conv7_2_mbox_loc_perm <- conv7_2_mbox_loc
I0121 19:02:19.100620 11644 net.cpp:408] conv7_2_mbox_loc_perm -> conv7_2_mbox_loc_perm
I0121 19:02:19.100725 11644 net.cpp:150] Setting up conv7_2_mbox_loc_perm
I0121 19:02:19.100733 11644 net.cpp:157] Top shape: 8 5 5 24 (4800)
I0121 19:02:19.100734 11644 net.cpp:165] Memory required for data: 2775731012
I0121 19:02:19.100736 11644 layer_factory.hpp:77] Creating layer conv7_2_mbox_loc_flat
I0121 19:02:19.100742 11644 net.cpp:100] Creating Layer conv7_2_mbox_loc_flat
I0121 19:02:19.100745 11644 net.cpp:434] conv7_2_mbox_loc_flat <- conv7_2_mbox_loc_perm
I0121 19:02:19.100749 11644 net.cpp:408] conv7_2_mbox_loc_flat -> conv7_2_mbox_loc_flat
I0121 19:02:19.100772 11644 net.cpp:150] Setting up conv7_2_mbox_loc_flat
I0121 19:02:19.100775 11644 net.cpp:157] Top shape: 8 600 (4800)
I0121 19:02:19.100777 11644 net.cpp:165] Memory required for data: 2775750212
I0121 19:02:19.100780 11644 layer_factory.hpp:77] Creating layer conv7_2_mbox_conf
I0121 19:02:19.100788 11644 net.cpp:100] Creating Layer conv7_2_mbox_conf
I0121 19:02:19.100790 11644 net.cpp:434] conv7_2_mbox_conf <- conv7_2_conv7_2_scale_0_split_2
I0121 19:02:19.100795 11644 net.cpp:408] conv7_2_mbox_conf -> conv7_2_mbox_conf
I0121 19:02:19.105134 11644 net.cpp:150] Setting up conv7_2_mbox_conf
I0121 19:02:19.105147 11644 net.cpp:157] Top shape: 8 126 5 5 (25200)
I0121 19:02:19.105150 11644 net.cpp:165] Memory required for data: 2775851012
I0121 19:02:19.105156 11644 layer_factory.hpp:77] Creating layer conv7_2_mbox_conf_perm
I0121 19:02:19.105163 11644 net.cpp:100] Creating Layer conv7_2_mbox_conf_perm
I0121 19:02:19.105167 11644 net.cpp:434] conv7_2_mbox_conf_perm <- conv7_2_mbox_conf
I0121 19:02:19.105172 11644 net.cpp:408] conv7_2_mbox_conf_perm -> conv7_2_mbox_conf_perm
I0121 19:02:19.105281 11644 net.cpp:150] Setting up conv7_2_mbox_conf_perm
I0121 19:02:19.105289 11644 net.cpp:157] Top shape: 8 5 5 126 (25200)
I0121 19:02:19.105291 11644 net.cpp:165] Memory required for data: 2775951812
I0121 19:02:19.105293 11644 layer_factory.hpp:77] Creating layer conv7_2_mbox_conf_flat
I0121 19:02:19.105298 11644 net.cpp:100] Creating Layer conv7_2_mbox_conf_flat
I0121 19:02:19.105300 11644 net.cpp:434] conv7_2_mbox_conf_flat <- conv7_2_mbox_conf_perm
I0121 19:02:19.105304 11644 net.cpp:408] conv7_2_mbox_conf_flat -> conv7_2_mbox_conf_flat
I0121 19:02:19.105345 11644 net.cpp:150] Setting up conv7_2_mbox_conf_flat
I0121 19:02:19.105350 11644 net.cpp:157] Top shape: 8 3150 (25200)
I0121 19:02:19.105351 11644 net.cpp:165] Memory required for data: 2776052612
I0121 19:02:19.105353 11644 layer_factory.hpp:77] Creating layer conv7_2_mbox_priorbox
I0121 19:02:19.105360 11644 net.cpp:100] Creating Layer conv7_2_mbox_priorbox
I0121 19:02:19.105362 11644 net.cpp:434] conv7_2_mbox_priorbox <- conv7_2_conv7_2_scale_0_split_3
I0121 19:02:19.105365 11644 net.cpp:434] conv7_2_mbox_priorbox <- data_data_0_split_4
I0121 19:02:19.105370 11644 net.cpp:408] conv7_2_mbox_priorbox -> conv7_2_mbox_priorbox
I0121 19:02:19.105396 11644 net.cpp:150] Setting up conv7_2_mbox_priorbox
I0121 19:02:19.105401 11644 net.cpp:157] Top shape: 1 2 600 (1200)
I0121 19:02:19.105402 11644 net.cpp:165] Memory required for data: 2776057412
I0121 19:02:19.105404 11644 layer_factory.hpp:77] Creating layer conv8_2_mbox_loc
I0121 19:02:19.105412 11644 net.cpp:100] Creating Layer conv8_2_mbox_loc
I0121 19:02:19.105414 11644 net.cpp:434] conv8_2_mbox_loc <- conv8_2_conv8_2_scale_0_split_1
I0121 19:02:19.105419 11644 net.cpp:408] conv8_2_mbox_loc -> conv8_2_mbox_loc
I0121 19:02:19.106848 11644 net.cpp:150] Setting up conv8_2_mbox_loc
I0121 19:02:19.106859 11644 net.cpp:157] Top shape: 8 16 3 3 (1152)
I0121 19:02:19.106863 11644 net.cpp:165] Memory required for data: 2776062020
I0121 19:02:19.106868 11644 layer_factory.hpp:77] Creating layer conv8_2_mbox_loc_perm
I0121 19:02:19.106873 11644 net.cpp:100] Creating Layer conv8_2_mbox_loc_perm
I0121 19:02:19.106876 11644 net.cpp:434] conv8_2_mbox_loc_perm <- conv8_2_mbox_loc
I0121 19:02:19.106883 11644 net.cpp:408] conv8_2_mbox_loc_perm -> conv8_2_mbox_loc_perm
I0121 19:02:19.106984 11644 net.cpp:150] Setting up conv8_2_mbox_loc_perm
I0121 19:02:19.106992 11644 net.cpp:157] Top shape: 8 3 3 16 (1152)
I0121 19:02:19.106992 11644 net.cpp:165] Memory required for data: 2776066628
I0121 19:02:19.106995 11644 layer_factory.hpp:77] Creating layer conv8_2_mbox_loc_flat
I0121 19:02:19.107000 11644 net.cpp:100] Creating Layer conv8_2_mbox_loc_flat
I0121 19:02:19.107003 11644 net.cpp:434] conv8_2_mbox_loc_flat <- conv8_2_mbox_loc_perm
I0121 19:02:19.107007 11644 net.cpp:408] conv8_2_mbox_loc_flat -> conv8_2_mbox_loc_flat
I0121 19:02:19.107030 11644 net.cpp:150] Setting up conv8_2_mbox_loc_flat
I0121 19:02:19.107034 11644 net.cpp:157] Top shape: 8 144 (1152)
I0121 19:02:19.107036 11644 net.cpp:165] Memory required for data: 2776071236
I0121 19:02:19.107038 11644 layer_factory.hpp:77] Creating layer conv8_2_mbox_conf
I0121 19:02:19.107046 11644 net.cpp:100] Creating Layer conv8_2_mbox_conf
I0121 19:02:19.107049 11644 net.cpp:434] conv8_2_mbox_conf <- conv8_2_conv8_2_scale_0_split_2
I0121 19:02:19.107054 11644 net.cpp:408] conv8_2_mbox_conf -> conv8_2_mbox_conf
I0121 19:02:19.109143 11644 net.cpp:150] Setting up conv8_2_mbox_conf
I0121 19:02:19.109155 11644 net.cpp:157] Top shape: 8 84 3 3 (6048)
I0121 19:02:19.109158 11644 net.cpp:165] Memory required for data: 2776095428
I0121 19:02:19.109163 11644 layer_factory.hpp:77] Creating layer conv8_2_mbox_conf_perm
I0121 19:02:19.109169 11644 net.cpp:100] Creating Layer conv8_2_mbox_conf_perm
I0121 19:02:19.109171 11644 net.cpp:434] conv8_2_mbox_conf_perm <- conv8_2_mbox_conf
I0121 19:02:19.109176 11644 net.cpp:408] conv8_2_mbox_conf_perm -> conv8_2_mbox_conf_perm
I0121 19:02:19.109284 11644 net.cpp:150] Setting up conv8_2_mbox_conf_perm
I0121 19:02:19.109293 11644 net.cpp:157] Top shape: 8 3 3 84 (6048)
I0121 19:02:19.109295 11644 net.cpp:165] Memory required for data: 2776119620
I0121 19:02:19.109297 11644 layer_factory.hpp:77] Creating layer conv8_2_mbox_conf_flat
I0121 19:02:19.109304 11644 net.cpp:100] Creating Layer conv8_2_mbox_conf_flat
I0121 19:02:19.109306 11644 net.cpp:434] conv8_2_mbox_conf_flat <- conv8_2_mbox_conf_perm
I0121 19:02:19.109313 11644 net.cpp:408] conv8_2_mbox_conf_flat -> conv8_2_mbox_conf_flat
I0121 19:02:19.109336 11644 net.cpp:150] Setting up conv8_2_mbox_conf_flat
I0121 19:02:19.109339 11644 net.cpp:157] Top shape: 8 756 (6048)
I0121 19:02:19.109354 11644 net.cpp:165] Memory required for data: 2776143812
I0121 19:02:19.109356 11644 layer_factory.hpp:77] Creating layer conv8_2_mbox_priorbox
I0121 19:02:19.109362 11644 net.cpp:100] Creating Layer conv8_2_mbox_priorbox
I0121 19:02:19.109364 11644 net.cpp:434] conv8_2_mbox_priorbox <- conv8_2_conv8_2_scale_0_split_3
I0121 19:02:19.109369 11644 net.cpp:434] conv8_2_mbox_priorbox <- data_data_0_split_5
I0121 19:02:19.109374 11644 net.cpp:408] conv8_2_mbox_priorbox -> conv8_2_mbox_priorbox
I0121 19:02:19.109401 11644 net.cpp:150] Setting up conv8_2_mbox_priorbox
I0121 19:02:19.109405 11644 net.cpp:157] Top shape: 1 2 144 (288)
I0121 19:02:19.109407 11644 net.cpp:165] Memory required for data: 2776144964
I0121 19:02:19.109410 11644 layer_factory.hpp:77] Creating layer conv9_2_mbox_loc
I0121 19:02:19.109418 11644 net.cpp:100] Creating Layer conv9_2_mbox_loc
I0121 19:02:19.109421 11644 net.cpp:434] conv9_2_mbox_loc <- conv9_2_conv9_2_scale_0_split_0
I0121 19:02:19.109426 11644 net.cpp:408] conv9_2_mbox_loc -> conv9_2_mbox_loc
I0121 19:02:19.110595 11644 net.cpp:150] Setting up conv9_2_mbox_loc
I0121 19:02:19.110608 11644 net.cpp:157] Top shape: 8 16 1 1 (128)
I0121 19:02:19.110610 11644 net.cpp:165] Memory required for data: 2776145476
I0121 19:02:19.110615 11644 layer_factory.hpp:77] Creating layer conv9_2_mbox_loc_perm
I0121 19:02:19.110621 11644 net.cpp:100] Creating Layer conv9_2_mbox_loc_perm
I0121 19:02:19.110625 11644 net.cpp:434] conv9_2_mbox_loc_perm <- conv9_2_mbox_loc
I0121 19:02:19.110628 11644 net.cpp:408] conv9_2_mbox_loc_perm -> conv9_2_mbox_loc_perm
I0121 19:02:19.110734 11644 net.cpp:150] Setting up conv9_2_mbox_loc_perm
I0121 19:02:19.110741 11644 net.cpp:157] Top shape: 8 1 1 16 (128)
I0121 19:02:19.110744 11644 net.cpp:165] Memory required for data: 2776145988
I0121 19:02:19.110746 11644 layer_factory.hpp:77] Creating layer conv9_2_mbox_loc_flat
I0121 19:02:19.110751 11644 net.cpp:100] Creating Layer conv9_2_mbox_loc_flat
I0121 19:02:19.110754 11644 net.cpp:434] conv9_2_mbox_loc_flat <- conv9_2_mbox_loc_perm
I0121 19:02:19.110757 11644 net.cpp:408] conv9_2_mbox_loc_flat -> conv9_2_mbox_loc_flat
I0121 19:02:19.110781 11644 net.cpp:150] Setting up conv9_2_mbox_loc_flat
I0121 19:02:19.110785 11644 net.cpp:157] Top shape: 8 16 (128)
I0121 19:02:19.110787 11644 net.cpp:165] Memory required for data: 2776146500
I0121 19:02:19.110790 11644 layer_factory.hpp:77] Creating layer conv9_2_mbox_conf
I0121 19:02:19.110796 11644 net.cpp:100] Creating Layer conv9_2_mbox_conf
I0121 19:02:19.110798 11644 net.cpp:434] conv9_2_mbox_conf <- conv9_2_conv9_2_scale_0_split_1
I0121 19:02:19.110805 11644 net.cpp:408] conv9_2_mbox_conf -> conv9_2_mbox_conf
I0121 19:02:19.112926 11644 net.cpp:150] Setting up conv9_2_mbox_conf
I0121 19:02:19.112936 11644 net.cpp:157] Top shape: 8 84 1 1 (672)
I0121 19:02:19.112939 11644 net.cpp:165] Memory required for data: 2776149188
I0121 19:02:19.112944 11644 layer_factory.hpp:77] Creating layer conv9_2_mbox_conf_perm
I0121 19:02:19.112951 11644 net.cpp:100] Creating Layer conv9_2_mbox_conf_perm
I0121 19:02:19.112952 11644 net.cpp:434] conv9_2_mbox_conf_perm <- conv9_2_mbox_conf
I0121 19:02:19.112959 11644 net.cpp:408] conv9_2_mbox_conf_perm -> conv9_2_mbox_conf_perm
I0121 19:02:19.113070 11644 net.cpp:150] Setting up conv9_2_mbox_conf_perm
I0121 19:02:19.113076 11644 net.cpp:157] Top shape: 8 1 1 84 (672)
I0121 19:02:19.113078 11644 net.cpp:165] Memory required for data: 2776151876
I0121 19:02:19.113080 11644 layer_factory.hpp:77] Creating layer conv9_2_mbox_conf_flat
I0121 19:02:19.113085 11644 net.cpp:100] Creating Layer conv9_2_mbox_conf_flat
I0121 19:02:19.113087 11644 net.cpp:434] conv9_2_mbox_conf_flat <- conv9_2_mbox_conf_perm
I0121 19:02:19.113092 11644 net.cpp:408] conv9_2_mbox_conf_flat -> conv9_2_mbox_conf_flat
I0121 19:02:19.113116 11644 net.cpp:150] Setting up conv9_2_mbox_conf_flat
I0121 19:02:19.113121 11644 net.cpp:157] Top shape: 8 84 (672)
I0121 19:02:19.113121 11644 net.cpp:165] Memory required for data: 2776154564
I0121 19:02:19.113137 11644 layer_factory.hpp:77] Creating layer conv9_2_mbox_priorbox
I0121 19:02:19.113142 11644 net.cpp:100] Creating Layer conv9_2_mbox_priorbox
I0121 19:02:19.113145 11644 net.cpp:434] conv9_2_mbox_priorbox <- conv9_2_conv9_2_scale_0_split_2
I0121 19:02:19.113148 11644 net.cpp:434] conv9_2_mbox_priorbox <- data_data_0_split_6
I0121 19:02:19.113153 11644 net.cpp:408] conv9_2_mbox_priorbox -> conv9_2_mbox_priorbox
I0121 19:02:19.113183 11644 net.cpp:150] Setting up conv9_2_mbox_priorbox
I0121 19:02:19.113188 11644 net.cpp:157] Top shape: 1 2 16 (32)
I0121 19:02:19.113188 11644 net.cpp:165] Memory required for data: 2776154692
I0121 19:02:19.113190 11644 layer_factory.hpp:77] Creating layer mbox_loc
I0121 19:02:19.113196 11644 net.cpp:100] Creating Layer mbox_loc
I0121 19:02:19.113199 11644 net.cpp:434] mbox_loc <- conv4_3_norm_mbox_loc_flat
I0121 19:02:19.113204 11644 net.cpp:434] mbox_loc <- fc7_mbox_loc_flat
I0121 19:02:19.113206 11644 net.cpp:434] mbox_loc <- conv6_2_mbox_loc_flat
I0121 19:02:19.113209 11644 net.cpp:434] mbox_loc <- conv7_2_mbox_loc_flat
I0121 19:02:19.113211 11644 net.cpp:434] mbox_loc <- conv8_2_mbox_loc_flat
I0121 19:02:19.113214 11644 net.cpp:434] mbox_loc <- conv9_2_mbox_loc_flat
I0121 19:02:19.113219 11644 net.cpp:408] mbox_loc -> mbox_loc
I0121 19:02:19.113245 11644 net.cpp:150] Setting up mbox_loc
I0121 19:02:19.113250 11644 net.cpp:157] Top shape: 8 34928 (279424)
I0121 19:02:19.113252 11644 net.cpp:165] Memory required for data: 2777272388
I0121 19:02:19.113255 11644 layer_factory.hpp:77] Creating layer mbox_conf
I0121 19:02:19.113260 11644 net.cpp:100] Creating Layer mbox_conf
I0121 19:02:19.113262 11644 net.cpp:434] mbox_conf <- conv4_3_norm_mbox_conf_flat
I0121 19:02:19.113265 11644 net.cpp:434] mbox_conf <- fc7_mbox_conf_flat
I0121 19:02:19.113268 11644 net.cpp:434] mbox_conf <- conv6_2_mbox_conf_flat
I0121 19:02:19.113271 11644 net.cpp:434] mbox_conf <- conv7_2_mbox_conf_flat
I0121 19:02:19.113274 11644 net.cpp:434] mbox_conf <- conv8_2_mbox_conf_flat
I0121 19:02:19.113276 11644 net.cpp:434] mbox_conf <- conv9_2_mbox_conf_flat
I0121 19:02:19.113279 11644 net.cpp:408] mbox_conf -> mbox_conf
I0121 19:02:19.113301 11644 net.cpp:150] Setting up mbox_conf
I0121 19:02:19.113306 11644 net.cpp:157] Top shape: 8 183372 (1466976)
I0121 19:02:19.113307 11644 net.cpp:165] Memory required for data: 2783140292
I0121 19:02:19.113309 11644 layer_factory.hpp:77] Creating layer mbox_priorbox
I0121 19:02:19.113313 11644 net.cpp:100] Creating Layer mbox_priorbox
I0121 19:02:19.113317 11644 net.cpp:434] mbox_priorbox <- conv4_3_norm_mbox_priorbox
I0121 19:02:19.113319 11644 net.cpp:434] mbox_priorbox <- fc7_mbox_priorbox
I0121 19:02:19.113322 11644 net.cpp:434] mbox_priorbox <- conv6_2_mbox_priorbox
I0121 19:02:19.113324 11644 net.cpp:434] mbox_priorbox <- conv7_2_mbox_priorbox
I0121 19:02:19.113327 11644 net.cpp:434] mbox_priorbox <- conv8_2_mbox_priorbox
I0121 19:02:19.113329 11644 net.cpp:434] mbox_priorbox <- conv9_2_mbox_priorbox
I0121 19:02:19.113332 11644 net.cpp:408] mbox_priorbox -> mbox_priorbox
I0121 19:02:19.113354 11644 net.cpp:150] Setting up mbox_priorbox
I0121 19:02:19.113358 11644 net.cpp:157] Top shape: 1 2 34928 (69856)
I0121 19:02:19.113360 11644 net.cpp:165] Memory required for data: 2783419716
I0121 19:02:19.113363 11644 layer_factory.hpp:77] Creating layer mbox_loss
I0121 19:02:19.113374 11644 net.cpp:100] Creating Layer mbox_loss
I0121 19:02:19.113378 11644 net.cpp:434] mbox_loss <- mbox_loc
I0121 19:02:19.113380 11644 net.cpp:434] mbox_loss <- mbox_conf
I0121 19:02:19.113382 11644 net.cpp:434] mbox_loss <- mbox_priorbox
…
state {
  phase: TEST
}
layer {
  name: "data"
  type: "AnnotatedData"
  top: "data"
  top: "label"
  include {
    phase: TEST
  }
  transform_param {
    mean_value: 104
    mean_value: 117
    mean_value: 123
    resize_param {
      prob: 1
      resize_mode: WARP
      height: 300
      width: 300
      interp_mode: LINEAR
    }
  }
  data_param {
    source: "examples/VOC0712/VOC0712_test_lmdb"
    batch_size: 8
    backend: LMDB
  }
  annotated_data_param {
    batch_sampler {
    }
    label_map_file: "data/VOC0712/labelmap_voc.prototxt"
  }
}
layer {
  name: "conv1_1"
  type: "Convolution"
  bottom: "data"
  top: "conv1_1"
  param {
    lr_mult: 1
    decay_mult: 1
  }
  param {
    lr_mult: 2
    decay_mult: 0
  }
  convolution_param {
    num_output: 64
    pad: 1
    kernel_size: 3
    weight_filler {
      type: "xavier"
    }
    bias_filler {
      type: "constant"
      value: 0
    }
  }
}
layer {
  name: "relu1_1"
  type: "ReLU"
  bottom: "conv1_1"
  top: "conv1_1"
}
layer {
  name: "conv1_2"
  type: "Convolution"
  bottom: "conv1_1"
  top: "conv1_2"
  param {
    lr_mult: 1
    decay_mult: 1
  }
  param {
    lr_mult: 2
    decay_mult: 0
  }
  convolution_param {
    num_output: 64
    pad: 1
    kernel_size: 3
    weight_filler {
      type: "xavier"
    }
    bias_filler {
      type: "constant"
      value: 0
    }
  }
}
layer {
  name: "relu1_2"
  type: "ReLU"
  bottom: "conv1_2"
  top: "conv1_2"
}
layer {
  name: "pool1"
  type: "Pooling"
  bottom: "conv1_2"
  top: "pool1"
  pooling_param {
    pool: MAX
    kernel_size: 2
    stride: 2
  }
}
layer {
  name: "conv2_1"
  type: "Convolution"
  bottom: "pool1"
  top: "conv2_1"
  param {
    lr_mult: 1
    decay_mult: 1
  }
  param {
    lr_mult: 2
    decay_mult: 0
  }
  convolution_param {
    num_output: 128
    pad: 1
    kernel_size: 3
    weight_filler {
      type: "xavier"
    }
    bias_filler {
      type: "constant"
      value: 0
    }
  }
}
layer {
  name: "relu2_1"
  type: "ReLU"
  bottom: "conv2_1"
  top: "conv2_1"
}
layer {
  name: "conv2_2"
  type: "Convolution"
  bottom: "conv2_1"
  top: "conv2_2"
  param {
    lr_mult: 1
    decay_mult: 1
  }
  param {
    lr_mult: 2
    decay_mult: 0
  }
  convolution_param {
    num_output: 128
    pad: 1
    kernel_size: 3
    weight_filler {
      type: "xavier"
    }
    bias_filler {
      type: "constant"
      value: 0
    }
  }
}
layer {
  name: "relu2_2"
  type: "ReLU"
  bottom: "conv2_2"
  top: "conv2_2"
}
layer {
  name: "pool2"
  type: "Pooling"
  bottom: "conv2_2"
  top: "pool2"
  pooling_param {
    pool: MAX
    kernel_size: 2
    stride: 2
  }
}
layer {
  name: "conv3_1"
  type: "Convolution"
  bottom: "pool2"
  top: "conv3_1"
  param {
    lr_mult: 1
    decay_mult: 1
  }
  param {
    lr_mult: 2
    decay_mult: 0
  }
  convolution_param {
    num_output: 256
    pad: 1
    kernel_size: 3
    weight_filler {
      type: "xavier"
    }
    bias_filler {
      type: "constant"
      value: 0
    }
  }
}
layer {
  name: "relu3_1"
  type: "ReLU"
  bottom: "conv3_1"
  top: "conv3_1"
}
layer {
  name: "conv3_2"
  type: "Convolution"
  bottom: "conv3_1"
  top: "conv3_2"
  param {
    lr_mult: 1
    decay_mult: 1
  }
  param {
    lr_mult: 2
    decay_mult: 0
  }
  convolution_param {
    num_output: 256
    pad: 1
    kernel_size: 3
    weight_filler {
      type: "xavier"
    }
    bias_filler {
      type: "constant"
      value: 0
    }
  }
}
layer {
  name: "relu3_2"
  type: "ReLU"
  bottom: "conv3_2"
  top: "conv3_2"
}
layer {
  name: "conv3_3"
  type: "Convolution"
  bottom: "conv3_2"
  top: "conv3_3"
  param {
    lr_mult: 1
    decay_mult: 1
  }
  param {
    lr_mult: 2
    decay_mult: 0
  }
  convolution_param {
    num_output: 256
    pad: 1
    kernel_size: 3
    weight_filler {
      type: "xavier"
    }
    bias_filler {
      type: "constant"
      value: 0
    }
  }
}
layer {
  name: "relu3_3"
  type: "ReLU"
  bottom: "conv3_3"
  top: "conv3_3"
}
layer {
  name: "pool3"
  type: "Pooling"
  bottom: "conv3_3"
  top: "pool3"
  pooling_param {
    pool: MAX
    kernel_size: 2
    stride: 2
  }
}
layer {
  name: "conv4_1"
  type: "Convolution"
  bottom: "pool3"
  top: "conv4_1"
  param {
    lr_mult: 1
    decay_mult: 1
  }
  param {
    lr_mult: 2
    decay_mult: 0
  }
  convolution_param {
    num_output: 512
    pad: 1
    kernel_size: 3
    weight_filler {
      type: "xavier"
    }
    bias_filler {
      type: "constant"
      value: 0
    }
  }
}
layer {
  name: "relu4_1"
  type: "ReLU"
  bottom: "conv4_1"
  top: "conv4_1"
}
layer {
  name: "conv4_2"
  type: "Convolution"
  bottom: "conv4_1"
  top: "conv4_2"
  param {
    lr_mult: 1
    decay_mult: 1
  }
  param {
    lr_mult: 2
    decay_mult: 0
  }
  convolution_param {
    num_output: 512
    pad: 1
    kernel_size: 3
    weight_filler {
      type: "xavier"
    }
    bias_filler {
      type: "constant"
      value: 0
    }
  }
}
layer {
  name: "relu4_2"
  type: "ReLU"
  bottom: "conv4_2"
  top: "conv4_2"
}
layer {
  name: "conv4_3"
  type: "Convolution"
  bottom: "conv4_2"
  top: "conv4_3_ori"
  param {
    lr_mult: 1
    decay_mult: 1
  }
  param {
    lr_mult: 2
    decay_mult: 0
  }
  convolution_param {
    num_output: 512
    pad: 1
    kernel_size: 3
    weight_filler {
      type: "xavier"
    }
    bias_filler {
      type: "constant"
      value: 0
    }
  }
}
layer {
  name: "relu4_3"
  type: "ReLU"
  bottom: "conv4_3_ori"
  top: "conv4_3_ori"
}
layer {
  name: "seg_pool4"
  type: "Pooling"
  bottom: "conv4_3_ori"
  top: "seg_pool4"
  pooling_param {
    pool: MAX
    kernel_size: 3
    stride: 1
    pad: 1
  }
}
layer {
  name: "seg5_1"
  type: "Convolution"
  bottom: "seg_pool4"
  top: "seg5_1"
  param {
    lr_mult: 1
    decay_mult: 1
  }
  param {
    lr_mult: 2
    decay_mult: 0
  }
  convolution_param {
    num_output: 512
    pad: 2
    kernel_size: 3
    weight_filler {
      type: "xavier"
    }
    bias_filler {
      type: "constant"
      value: 0
    }
    dilation: 2
  }
}
layer {
  name: "seg_relu5_1"
  type: "ReLU"
  bottom: "seg5_1"
  top: "seg5_1"
}
layer {
  name: "seg5_2"
  type: "Convolution"
  bottom: "seg5_1"
  top: "seg5_2"
  param {
    lr_mult: 1
    decay_mult: 1
  }
  param {
    lr_mult: 2
    decay_mult: 0
  }
  convolution_param {
    num_output: 512
    pad: 2
    kernel_size: 3
    weight_filler {
      type: "xavier"
    }
    bias_filler {
      type: "constant"
      value: 0
    }
    dilation: 2
  }
}
layer {
  name: "seg_relu5_2"
  type: "ReLU"
  bottom: "seg5_2"
  top: "seg5_2"
}
layer {
  name: "seg5_3"
  type: "Convolution"
  bottom: "seg5_2"
  top: "seg5_3"
  param {
    lr_mult: 1
    decay_mult: 1
  }
  param {
    lr_mult: 2
    decay_mult: 0
  }
  convolution_param {
    num_output: 512
    pad: 2
    kernel_size: 3
    weight_filler {
      type: "xavier"
    }
    bias_filler {
      type: "constant"
      value: 0
    }
    dilation: 2
  }
}
layer {
  name: "seg_relu5_3"
  type: "ReLU"
  bottom: "seg5_3"
  top: "seg5_3"
}
layer {
  name: "seg_pool5"
  type: "Pooling"
  bottom: "seg5_3"
  top: "seg_pool5"
  pooling_param {
    pool: MAX
    kernel_size: 3
    stride: 1
    pad: 1
  }
}
layer {
  name: "seg6"
  type: "Convolution"
  bottom: "seg_pool5"
  top: "seg6"
  param {
    lr_mult: 1
    decay_mult: 1
  }
  param {
    lr_mult: 2
    decay_mult: 0
  }
  convolution_param {
    num_output: 1024
    pad: 4
    kernel_size: 3
    weight_filler {
      type: "xavier"
    }
    bias_filler {
      type: "constant"
      value: 0
    }
    dilation: 4
  }
}
layer {
  name: "seg_relu6"
  type: "ReLU"
  bottom: "seg6"
  top: "seg6"
}
layer {
  name: "seg_drop6"
  type: "Dropout"
  bottom: "seg6"
  top: "seg6"
  dropout_param {
    dropout_ratio: 0.5
  }
}
layer {
  name: "seg7"
  type: "Convolution"
  bottom: "seg6"
  top: "seg7"
  param {
    lr_mult: 1
    decay_mult: 1
  }
  param {
    lr_mult: 2
    decay_mult: 0
  }
  convolution_param {
    num_output: 1024
    kernel_size: 1
    weight_filler {
      type: "xavier"
    }
    bias_filler {
      type: "constant"
      value: 0
    }
  }
}
layer {
  name: "seg_relu7"
  type: "ReLU"
  bottom: "seg7"
  top: "seg7"
}
layer {
  name: "seg_to_det_conv"
  type: "Convolution"
  bottom: "seg7"
  top: "seg_to_det_conv"
  param {
    lr_mult: 1
    decay_mult: 1
  }
  param {
    lr_mult: 2
    decay_mult: 0
  }
  propagate_down: false
  convolution_param {
    num_output: 512
    pad: 0
    kernel_size: 1
    stride: 1
    weight_filler {
      type: "xavier"
    }
    bias_filler {
      type: "constant"
      value: 0
    }
  }
}
layer {
  name: "mult_conv4_3"
  type: "Eltwise"
  bottom: "conv4_3_ori"
  bottom: "seg_to_det_conv"
  top: "conv4_3_t"
  eltwise_param {
    operation: PROD
  }
}
layer {
  name: "conv4_3_s"
  type: "Pooling"
  bottom: "conv4_3_t"
  top: "conv4_3_s"
  pooling_param {
    pool: AVE
    global_pooling: true
  }
}
layer {
  name: "conv4_3_fc1"
  type: "Convolution"
  bottom: "conv4_3_s"
  top: "conv4_3_fc1"
  param {
    lr_mult: 1
    decay_mult: 1
  }
  param {
    lr_mult: 2
    decay_mult: 0
  }
  convolution_param {
    num_output: 128
    kernel_size: 1
    stride: 1
    weight_filler {
      type: "xavier"
    }
    bias_filler {
      type: "constant"
      value: 0
    }
  }
}
layer {
  name: "conv4_3_relu"
  type: "ReLU"
  bottom: "conv4_3_fc1"
  top: "conv4_3_fc1"
}
layer {
  name: "conv4_3_fc2"
  type: "Convolution"
  bottom: "conv4_3_fc1"
  top: "conv4_3_fc2"
  param {
    lr_mult: 1
    decay_mult: 1
  }
  param {
    lr_mult: 2
    decay_mult: 0
  }
  convolution_param {
    num_output: 512
    kernel_size: 1
    stride: 1
    weight_filler {
      type: "xavier"
    }
    bias_filler {
      type: "constant"
      value: 0
    }
  }
}
layer {
  name: "conv4_3_sig"
  type: "Sigmoid"
  bottom: "conv4_3_fc2"
  top: "conv4_3_fc2"
}
layer {
  name: "conv4_3_reshape"
  type: "Reshape"
  bottom: "conv4_3_fc2"
  top: "conv4_3_reshape"
  reshape_param {
    shape {
      dim: 0
      dim: 0
    }
  }
}
layer {
  name: "conv4_3_scale"
  type: "Scale"
  bottom: "conv4_3_t"
  bottom: "conv4_3_reshape"
  top: "conv4_3"
  scale_param {
    axis: 0
    bias_term: false
  }
}
layer {
  name: "pool4"
  type: "Pooling"
  bottom: "conv4_3"
  top: "pool4"
  pooling_param {
    pool: MAX
    kernel_size: 2
    stride: 2
  }
}
layer {
  name: "conv5_1"
  type: "Convolution"
  bottom: "pool4"
  top: "conv5_1"
  param {
    lr_mult: 1
    decay_mult: 1
  }
  param {
    lr_mult: 2
    decay_mult: 0
  }
  convolution_param {
    num_output: 512
    pad: 1
    kernel_size: 3
    weight_filler {
      type: "xavier"
    }
    bias_filler {
      type: "constant"
      value: 0
    }
    dilation: 1
  }
}
layer {
  name: "relu5_1"
  type: "ReLU"
  bottom: "conv5_1"
  top: "conv5_1"
}
layer {
  name: "conv5_2"
  type: "Convolution"
  bottom: "conv5_1"
  top: "conv5_2"
  param {
    lr_mult: 1
    decay_mult: 1
  }
  param {
    lr_mult: 2
    decay_mult: 0
  }
  convolution_param {
    num_output: 512
    pad: 1
    kernel_size: 3
    weight_filler {
      type: "xavier"
    }
    bias_filler {
      type: "constant"
      value: 0
    }
    dilation: 1
  }
}
layer {
  name: "relu5_2"
  type: "ReLU"
  bottom: "conv5_2"
  top: "conv5_2"
}
layer {
  name: "conv5_3"
  type: "Convolution"
  bottom: "conv5_2"
  top: "conv5_3"
  param {
    lr_mult: 1
    decay_mult: 1
  }
  param {
    lr_mult: 2
    decay_mult: 0
  }
  convolution_param {
    num_output: 512
    pad: 1
    kernel_size: 3
    weight_filler {
      type: "xavier"
    }
    bias_filler {
      type: "constant"
      value: 0
    }
    dilation: 1
  }
}
layer {
  name: "relu5_3"
  type: "ReLU"
  bottom: "conv5_3"
  top: "conv5_3"
}
layer {
  name: "pool5"
  type: "Pooling"
  bottom: "conv5_3"
  top: "pool5"
  pooling_param {
    pool: MAX
    kernel_size: 3
    stride: 1
    pad: 1
  }
}
layer {
  name: "fc6"
  type: "Convolution"
  bottom: "pool5"
  top: "fc6"
  param {
    lr_mult: 1
    decay_mult: 1
  }
  param {
    lr_mult: 2
    decay_mult: 0
  }
  convolution_param {
    num_output: 1024
    pad: 6
    kernel_size: 3
    weight_filler {
      type: "xavier"
    }
    bias_filler {
      type: "constant"
      value: 0
    }
    dilation: 6
  }
}
layer {
  name: "relu6"
  type: "ReLU"
  bottom: "fc6"
  top: "fc6"
}
layer {
  name: "fc7"
  type: "Convolution"
  bottom: "fc6"
  top: "fc7_t"
  param {
    lr_mult: 1
    decay_mult: 1
  }
  param {
    lr_mult: 2
    decay_mult: 0
  }
  convolution_param {
    num_output: 1024
    kernel_size: 1
    weight_filler {
      type: "xavier"
    }
    bias_filler {
      type: "constant"
      value: 0
    }
  }
}
layer {
  name: "relu7"
  type: "ReLU"
  bottom: "fc7_t"
  top: "fc7_t"
}
layer {
  name: "fc7_s"
  type: "Pooling"
  bottom: "fc7_t"
  top: "fc7_s"
  pooling_param {
    pool: AVE
    global_pooling: true
  }
}
layer {
  name: "fc7_fc1"
  type: "Convolution"
  bottom: "fc7_s"
  top: "fc7_fc1"
  param {
    lr_mult: 1
    decay_mult: 1
  }
  param {
    lr_mult: 2
    decay_mult: 0
  }
  convolution_param {
    num_output: 256
    kernel_size: 1
    stride: 1
    weight_filler {
      type: "xavier"
    }
    bias_filler {
      type: "constant"
      value: 0
    }
  }
}
layer {
  name: "fc7_relu"
  type: "ReLU"
  bottom: "fc7_fc1"
  top: "fc7_fc1"
}
layer {
  name: "fc7_fc2"
  type: "Convolution"
  bottom: "fc7_fc1"
  top: "fc7_fc2"
  param {
    lr_mult: 1
    decay_mult: 1
  }
  param {
    lr_mult: 2
    decay_mult: 0
  }
  convolution_param {
    num_output: 1024
    kernel_size: 1
    stride: 1
    weight_filler {
      type: "xavier"
    }
    bias_filler {
      type: "constant"
      value: 0
    }
  }
}
layer {
  name: "fc7_sig"
  type: "Sigmoid"
  bottom: "fc7_fc2"
  top: "fc7_fc2"
}
layer {
  name: "fc7_reshape"
  type: "Reshape"
  bottom: "fc7_fc2"
  top: "fc7_reshape"
  reshape_param {
    shape {
      dim: 0
      dim: 0
    }
  }
}
layer {
  name: "fc7_scale"
  type: "Scale"
  bottom: "fc7_t"
  bottom: "fc7_reshape"
  top: "fc7"
  scale_param {
    axis: 0
    bias_term: false
  }
}
layer {
  name: "conv6_1"
  type: "Convolution"
  bottom: "fc7"
  top: "conv6_1"
  param {
    lr_mult: 1
    decay_mult: 1
  }
  param {
    lr_mult: 2
    decay_mult: 0
  }
  convolution_param {
    num_output: 256
    pad: 0
    kernel_size: 1
    stride: 1
    weight_filler {
      type: "xavier"
    }
    bias_filler {
      type: "constant"
      value: 0
    }
  }
}
layer {
  name: "conv6_1_relu"
  type: "ReLU"
  bottom: "conv6_1"
  top: "conv6_1"
}
layer {
  name: "conv6_2"
  type: "Convolution"
  bottom: "conv6_1"
  top: "conv6_2_t"
  param {
    lr_mult: 1
    decay_mult: 1
  }
  param {
    lr_mult: 2
    decay_mult: 0
  }
  convolution_param {
    num_output: 512
    pad: 1
    kernel_size: 3
    stride: 2
    weight_filler {
      type: "xavier"
    }
    bias_filler {
      type: "constant"
      value: 0
    }
  }
}
layer {
  name: "conv6_2_relu"
  type: "ReLU"
  bottom: "conv6_2_t"
  top: "conv6_2_t"
}
layer {
  name: "conv6_2_s"
  type: "Pooling"
  bottom: "conv6_2_t"
  top: "conv6_2_s"
  pooling_param {
    pool: AVE
    global_pooling: true
  }
}
layer {
  name: "conv6_2_fc1"
  type: "Convolution"
  bottom: "conv6_2_s"
  top: "conv6_2_fc1"
  param {
    lr_mult: 1
    decay_mult: 1
  }
  param {
    lr_mult: 2
    decay_mult: 0
  }
  convolution_param {
    num_output: 128
    kernel_size: 1
    stride: 1
    weight_filler {
      type: "xavier"
    }
    bias_filler {
      type: "constant"
      value: 0
    }
  }
}
layer {
  name: "conv6_2_relu"
  type: "ReLU"
  bottom: "conv6_2_fc1"
  top: "conv6_2_fc1"
}
layer {
  name: "conv6_2_fc2"
  type: "Convolution"
  bottom: "conv6_2_fc1"
  top: "conv6_2_fc2"
  param {
    lr_mult: 1
    decay_mult: 1
  }
  param {
    lr_mult: 2
    decay_mult: 0
  }
  convolution_param {
    num_output: 512
    kernel_size: 1
    stride: 1
    weight_filler {
      type: "xavier"
    }
    bias_filler {
      type: "constant"
      value: 0
    }
  }
}
layer {
  name: "conv6_2_sig"
  type: "Sigmoid"
  bottom: "conv6_2_fc2"
  top: "conv6_2_fc2"
}
layer {
  name: "conv6_2_reshape"
  type: "Reshape"
  bottom: "conv6_2_fc2"
  top: "conv6_2_reshape"
  reshape_param {
    shape {
      dim: 0
      dim: 0
    }
  }
}
layer {
  name: "conv6_2_scale"
  type: "Scale"
  bottom: "conv6_2_t"
  bottom: "conv6_2_reshape"
  top: "conv6_2"
  scale_param {
    axis: 0
    bias_term: false
  }
}
layer {
  name: "conv7_1"
  type: "Convolution"
  bottom: "conv6_2"
  top: "conv7_1"
  param {
    lr_mult: 1
    decay_mult: 1
  }
  param {
    lr_mult: 2
    decay_mult: 0
  }
  convolution_param {
    num_output: 128
    pad: 0
    kernel_size: 1
    stride: 1
    weight_filler {
      type: "xavier"
    }
    bias_filler {
      type: "constant"
      value: 0
    }
  }
}
layer {
  name: "conv7_1_relu"
  type: "ReLU"
  bottom: "conv7_1"
  top: "conv7_1"
}
layer {
  name: "conv7_2"
  type: "Convolution"
  bottom: "conv7_1"
  top: "conv7_2_t"
  param {
    lr_mult: 1
    decay_mult: 1
  }
  param {
    lr_mult: 2
    decay_mult: 0
  }
  convolution_param {
    num_output: 256
    pad: 1
    kernel_size: 3
    stride: 2
    weight_filler {
      type: "xavier"
    }
    bias_filler {
      type: "constant"
      value: 0
    }
  }
}
layer {
  name: "conv7_2_relu"
  type: "ReLU"
  bottom: "conv7_2_t"
  top: "conv7_2_t"
}
layer {
  name: "conv7_2_s"
  type: "Pooling"
  bottom: "conv7_2_t"
  top: "conv7_2_s"
  pooling_param {
    pool: AVE
    global_pooling: true
  }
}
layer {
  name: "conv7_2_fc1"
  type: "Convolution"
  bottom: "conv7_2_s"
  top: "conv7_2_fc1"
  param {
    lr_mult: 1
    decay_mult: 1
  }
  param {
    lr_mult: 2
    decay_mult: 0
  }
  convolution_param {
    num_output: 64
    kernel_size: 1
    stride: 1
    weight_filler {
      type: "xavier"
    }
    bias_filler {
      type: "constant"
      value: 0
    }
  }
}
layer {
  name: "conv7_2_relu"
  type: "ReLU"
  bottom: "conv7_2_fc1"
  top: "conv7_2_fc1"
}
layer {
  name: "conv7_2_fc2"
  type: "Convolution"
  bottom: "conv7_2_fc1"
  top: "conv7_2_fc2"
  param {
    lr_mult: 1
    decay_mult: 1
  }
  param {
    lr_mult: 2
    decay_mult: 0
  }
  convolution_param {
    num_output: 256
    kernel_size: 1
    stride: 1
    weight_filler {
      type: "xavier"
    }
    bias_filler {
      type: "constant"
      value: 0
    }
  }
}
layer {
  name: "conv7_2_sig"
  type: "Sigmoid"
  bottom: "conv7_2_fc2"
  top: "conv7_2_fc2"
}
layer {
  name: "conv7_2_reshape"
  type: "Reshape"
  bottom: "conv7_2_fc2"
  top: "conv7_2_reshape"
  reshape_param {
    shape {
      dim: 0
      dim: 0
    }
  }
}
layer {
  name: "conv7_2_scale"
  type: "Scale"
  bottom: "conv7_2_t"
  bottom: "conv7_2_reshape"
  top: "conv7_2"
  scale_param {
    axis: 0
    bias_term: false
  }
}
layer {
  name: "conv8_1"
  type: "Convolution"
  bottom: "conv7_2"
  top: "conv8_1"
  param {
    lr_mult: 1
    decay_mult: 1
  }
  param {
    lr_mult: 2
    decay_mult: 0
  }
  convolution_param {
    num_output: 128
    pad: 0
    kernel_size: 1
    stride: 1
    weight_filler {
      type: "xavier"
    }
    bias_filler {
      type: "constant"
      value: 0
    }
  }
}
layer {
  name: "conv8_1_relu"
  type: "ReLU"
  bottom: "conv8_1"
  top: "conv8_1"
}
layer {
  name: "conv8_2"
  type: "Convolution"
  bottom: "conv8_1"
  top: "conv8_2_t"
  param {
    lr_mult: 1
    decay_mult: 1
  }
  param {
    lr_mult: 2
    decay_mult: 0
  }
  convolution_param {
    num_output: 256
    pad: 0
    kernel_size: 3
    stride: 1
    weight_filler {
      type: "xavier"
    }
    bias_filler {
      type: "constant"
      value: 0
    }
  }
}
layer {
  name: "conv8_2_relu"
  type: "ReLU"
  bottom: "conv8_2_t"
  top: "conv8_2_t"
}
layer {
  name: "conv8_2_s"
  type: "Pooling"
  bottom: "conv8_2_t"
  top: "conv8_2_s"
  pooling_param {
    pool: AVE
    global_pooling: true
  }
}
layer {
  name: "conv8_2_fc1"
  type: "Convolution"
  bottom: "conv8_2_s"
  top: "conv8_2_fc1"
  param {
    lr_mult: 1
    decay_mult: 1
  }
  param {
    lr_mult: 2
    decay_mult: 0
  }
  convolution_param {
    num_output: 64
    kernel_size: 1
    stride: 1
    weight_filler {
      type: "xavier"
    }
    bias_filler {
      type: "constant"
      value: 0
    }
  }
}
layer {
  name: "conv8_2_relu"
  type: "ReLU"
  bottom: "conv8_2_fc1"
  top: "conv8_2_fc1"
}
layer {
  name: "conv8_2_fc2"
  type: "Convolution"
  bottom: "conv8_2_fc1"
  top: "conv8_2_fc2"
  param {
    lr_mult: 1
    decay_mult: 1
  }
  param {
    lr_mult: 2
    decay_mult: 0
  }
  convolution_param {
    num_output: 256
    kernel_size: 1
    stride: 1
    weight_filler {
      type: "xavier"
    }
    bias_filler {
      type: "constant"
      value: 0
    }
  }
}
layer {
  name: "conv8_2_sig"
  type: "Sigmoid"
  bottom: "conv8_2_fc2"
  top: "conv8_2_fc2"
}
layer {
  name: "conv8_2_reshape"
  type: "Reshape"
  bottom: "conv8_2_fc2"
  top: "conv8_2_reshape"
  reshape_param {
    shape {
      dim: 0
      dim: 0
    }
  }
}
layer {
  name: "conv8_2_scale"
  type: "Scale"
  bottom: "conv8_2_t"
  bottom: "conv8_2_reshape"
  top: "conv8_2"
  scale_param {
    axis: 0
    bias_term: false
  }
}
layer {
  name: "conv9_1"
  type: "Convolution"
  bottom: "conv8_2"
  top: "conv9_1"
  param {
    lr_mult: 1
    decay_mult: 1
  }
  param {
    lr_mult: 2
    decay_mult: 0
  }
  convolution_param {
    num_output: 128
    pad: 0
    kernel_size: 1
    stride: 1
    weight_filler {
      type: "xavier"
    }
    bias_filler {
      type: "constant"
      value: 0
    }
  }
}
layer {
  name: "conv9_1_relu"
  type: "ReLU"
  bottom: "conv9_1"
  top: "conv9_1"
}
layer {
  name: "conv9_2"
  type: "Convolution"
  bottom: "conv9_1"
  top: "conv9_2_t"
  param {
    lr_mult: 1
    decay_mult: 1
  }
  param {
    lr_mult: 2
    decay_mult: 0
  }
  convolution_param {
    num_output: 256
    pad: 0
    kernel_size: 3
    stride: 1
    weight_filler {
      type: "xavier"
    }
    bias_filler {
      type: "constant"
      value: 0
    }
  }
}
layer {
  name: "conv9_2_relu"
  type: "ReLU"
  bottom: "conv9_2_t"
  top: "conv9_2_t"
}
layer {
  name: "conv9_2_s"
  type: "Pooling"
  bottom: "conv9_2_t"
  top: "conv9_2_s"
  pooling_param {
    pool: AVE
    global_pooling: true
  }
}
layer {
  name: "conv9_2_fc1"
  type: "Convolution"
  bottom: "conv9_2_s"
  top: "conv9_2_fc1"
  param {
    lr_mult: 1
    decay_mult: 1
  }
  param {
    lr_mult: 2
    decay_mult: 0
  }
  convolution_param {
    num_output: 64
    kernel_size: 1
    stride: 1
    weight_filler {
      type: "xavier"
    }
…
I0121 19:02:19.452527 11644 net.cpp:157] Top shape: 8 64 1 1 (512)
I0121 19:02:19.452529 11644 net.cpp:165] Memory required for data: 2513242176
I0121 19:02:19.452534 11644 layer_factory.hpp:77] Creating layer conv7_2_relu
I0121 19:02:19.452539 11644 net.cpp:100] Creating Layer conv7_2_relu
I0121 19:02:19.452543 11644 net.cpp:434] conv7_2_relu <- conv7_2_fc1
I0121 19:02:19.452546 11644 net.cpp:395] conv7_2_relu -> conv7_2_fc1 (in-place)
I0121 19:02:19.452719 11644 net.cpp:150] Setting up conv7_2_relu
I0121 19:02:19.452728 11644 net.cpp:157] Top shape: 8 64 1 1 (512)
I0121 19:02:19.452740 11644 net.cpp:165] Memory required for data: 2513244224
I0121 19:02:19.452742 11644 layer_factory.hpp:77] Creating layer conv7_2_fc2
I0121 19:02:19.452751 11644 net.cpp:100] Creating Layer conv7_2_fc2
I0121 19:02:19.452754 11644 net.cpp:434] conv7_2_fc2 <- conv7_2_fc1
I0121 19:02:19.452759 11644 net.cpp:408] conv7_2_fc2 -> conv7_2_fc2
I0121 19:02:19.454025 11644 net.cpp:150] Setting up conv7_2_fc2
I0121 19:02:19.454036 11644 net.cpp:157] Top shape: 8 256 1 1 (2048)
I0121 19:02:19.454040 11644 net.cpp:165] Memory required for data: 2513252416
I0121 19:02:19.454053 11644 layer_factory.hpp:77] Creating layer conv7_2_sig
I0121 19:02:19.454058 11644 net.cpp:100] Creating Layer conv7_2_sig
I0121 19:02:19.454061 11644 net.cpp:434] conv7_2_sig <- conv7_2_fc2
I0121 19:02:19.454064 11644 net.cpp:395] conv7_2_sig -> conv7_2_fc2 (in-place)
I0121 19:02:19.454566 11644 net.cpp:150] Setting up conv7_2_sig
I0121 19:02:19.454576 11644 net.cpp:157] Top shape: 8 256 1 1 (2048)
I0121 19:02:19.454578 11644 net.cpp:165] Memory required for data: 2513260608
I0121 19:02:19.454581 11644 layer_factory.hpp:77] Creating layer conv7_2_reshape
I0121 19:02:19.454586 11644 net.cpp:100] Creating Layer conv7_2_reshape
I0121 19:02:19.454589 11644 net.cpp:434] conv7_2_reshape <- conv7_2_fc2
I0121 19:02:19.454594 11644 net.cpp:408] conv7_2_reshape -> conv7_2_reshape
I0121 19:02:19.454635 11644 net.cpp:150] Setting up conv7_2_reshape
I0121 19:02:19.454643 11644 net.cpp:157] Top shape: 8 256 (2048)
I0121 19:02:19.454644 11644 net.cpp:165] Memory required for data: 2513268800
I0121 19:02:19.454645 11644 layer_factory.hpp:77] Creating layer conv7_2_scale
I0121 19:02:19.454650 11644 net.cpp:100] Creating Layer conv7_2_scale
I0121 19:02:19.454653 11644 net.cpp:434] conv7_2_scale <- conv7_2_t_conv7_2_relu_0_split_1
I0121 19:02:19.454656 11644 net.cpp:434] conv7_2_scale <- conv7_2_reshape
I0121 19:02:19.454660 11644 net.cpp:408] conv7_2_scale -> conv7_2
I0121 19:02:19.454746 11644 net.cpp:150] Setting up conv7_2_scale
I0121 19:02:19.454751 11644 net.cpp:157] Top shape: 8 256 5 5 (51200)
I0121 19:02:19.454752 11644 net.cpp:165] Memory required for data: 2513473600
I0121 19:02:19.454754 11644 layer_factory.hpp:77] Creating layer conv7_2_conv7_2_scale_0_split
I0121 19:02:19.454759 11644 net.cpp:100] Creating Layer conv7_2_conv7_2_scale_0_split
I0121 19:02:19.454761 11644 net.cpp:434] conv7_2_conv7_2_scale_0_split <- conv7_2
I0121 19:02:19.454766 11644 net.cpp:408] conv7_2_conv7_2_scale_0_split -> conv7_2_conv7_2_scale_0_split_0
I0121 19:02:19.454771 11644 net.cpp:408] conv7_2_conv7_2_scale_0_split -> conv7_2_conv7_2_scale_0_split_1
I0121 19:02:19.454777 11644 net.cpp:408] conv7_2_conv7_2_scale_0_split -> conv7_2_conv7_2_scale_0_split_2
I0121 19:02:19.454780 11644 net.cpp:408] conv7_2_conv7_2_scale_0_split -> conv7_2_conv7_2_scale_0_split_3
I0121 19:02:19.454854 11644 net.cpp:150] Setting up conv7_2_conv7_2_scale_0_split
I0121 19:02:19.454857 11644 net.cpp:157] Top shape: 8 256 5 5 (51200)
I0121 19:02:19.454860 11644 net.cpp:157] Top shape: 8 256 5 5 (51200)
I0121 19:02:19.454862 11644 net.cpp:157] Top shape: 8 256 5 5 (51200)
I0121 19:02:19.454865 11644 net.cpp:157] Top shape: 8 256 5 5 (51200)
I0121 19:02:19.454866 11644 net.cpp:165] Memory required for data: 2514292800
I0121 19:02:19.454869 11644 layer_factory.hpp:77] Creating layer conv8_1
I0121 19:02:19.454877 11644 net.cpp:100] Creating Layer conv8_1
I0121 19:02:19.454879 11644 net.cpp:434] conv8_1 <- conv7_2_conv7_2_scale_0_split_0
I0121 19:02:19.454885 11644 net.cpp:408] conv8_1 -> conv8_1
I0121 19:02:19.456183 11644 net.cpp:150] Setting up conv8_1
I0121 19:02:19.456195 11644 net.cpp:157] Top shape: 8 128 5 5 (25600)
I0121 19:02:19.456197 11644 net.cpp:165] Memory required for data: 2514395200
I0121 19:02:19.456202 11644 layer_factory.hpp:77] Creating layer conv8_1_relu
I0121 19:02:19.456208 11644 net.cpp:100] Creating Layer conv8_1_relu
I0121 19:02:19.456212 11644 net.cpp:434] conv8_1_relu <- conv8_1
I0121 19:02:19.456215 11644 net.cpp:395] conv8_1_relu -> conv8_1 (in-place)
I0121 19:02:19.456404 11644 net.cpp:150] Setting up conv8_1_relu
I0121 19:02:19.456413 11644 net.cpp:157] Top shape: 8 128 5 5 (25600)
I0121 19:02:19.456416 11644 net.cpp:165] Memory required for data: 2514497600
I0121 19:02:19.456418 11644 layer_factory.hpp:77] Creating layer conv8_2
I0121 19:02:19.456427 11644 net.cpp:100] Creating Layer conv8_2
I0121 19:02:19.456431 11644 net.cpp:434] conv8_2 <- conv8_1
I0121 19:02:19.456435 11644 net.cpp:408] conv8_2 -> conv8_2_t
I0121 19:02:19.459976 11644 net.cpp:150] Setting up conv8_2
I0121 19:02:19.459988 11644 net.cpp:157] Top shape: 8 256 3 3 (18432)
I0121 19:02:19.459991 11644 net.cpp:165] Memory required for data: 2514571328
I0121 19:02:19.459996 11644 layer_factory.hpp:77] Creating layer conv8_2_relu
I0121 19:02:19.460002 11644 net.cpp:100] Creating Layer conv8_2_relu
I0121 19:02:19.460005 11644 net.cpp:434] conv8_2_relu <- conv8_2_t
I0121 19:02:19.460009 11644 net.cpp:395] conv8_2_relu -> conv8_2_t (in-place)
I0121 19:02:19.460196 11644 net.cpp:150] Setting up conv8_2_relu
I0121 19:02:19.460204 11644 net.cpp:157] Top shape: 8 256 3 3 (18432)
I0121 19:02:19.460206 11644 net.cpp:165] Memory required for data: 2514645056
I0121 19:02:19.460209 11644 layer_factory.hpp:77] Creating layer conv8_2_t_conv8_2_relu_0_split
I0121 19:02:19.460213 11644 net.cpp:100] Creating Layer conv8_2_t_conv8_2_relu_0_split
I0121 19:02:19.460216 11644 net.cpp:434] conv8_2_t_conv8_2_relu_0_split <- conv8_2_t
I0121 19:02:19.460220 11644 net.cpp:408] conv8_2_t_conv8_2_relu_0_split -> conv8_2_t_conv8_2_relu_0_split_0
I0121 19:02:19.460227 11644 net.cpp:408] conv8_2_t_conv8_2_relu_0_split -> conv8_2_t_conv8_2_relu_0_split_1
I0121 19:02:19.460285 11644 net.cpp:150] Setting up conv8_2_t_conv8_2_relu_0_split
I0121 19:02:19.460291 11644 net.cpp:157] Top shape: 8 256 3 3 (18432)
I0121 19:02:19.460294 11644 net.cpp:157] Top shape: 8 256 3 3 (18432)
I0121 19:02:19.460296 11644 net.cpp:165] Memory required for data: 2514792512
I0121 19:02:19.460299 11644 layer_factory.hpp:77] Creating layer conv8_2_s
I0121 19:02:19.460302 11644 net.cpp:100] Creating Layer conv8_2_s
I0121 19:02:19.460305 11644 net.cpp:434] conv8_2_s <- conv8_2_t_conv8_2_relu_0_split_0
I0121 19:02:19.460310 11644 net.cpp:408] conv8_2_s -> conv8_2_s
I0121 19:02:19.460857 11644 net.cpp:150] Setting up conv8_2_s
I0121 19:02:19.460867 11644 net.cpp:157] Top shape: 8 256 1 1 (2048)
I0121 19:02:19.460870 11644 net.cpp:165] Memory required for data: 2514800704
I0121 19:02:19.460873 11644 layer_factory.hpp:77] Creating layer conv8_2_fc1
I0121 19:02:19.460881 11644 net.cpp:100] Creating Layer conv8_2_fc1
I0121 19:02:19.460885 11644 net.cpp:434] conv8_2_fc1 <- conv8_2_s
I0121 19:02:19.460891 11644 net.cpp:408] conv8_2_fc1 -> conv8_2_fc1
I0121 19:02:19.462189 11644 net.cpp:150] Setting up conv8_2_fc1
I0121 19:02:19.462200 11644 net.cpp:157] Top shape: 8 64 1 1 (512)
I0121 19:02:19.462203 11644 net.cpp:165] Memory required for data: 2514802752
I0121 19:02:19.462208 11644 layer_factory.hpp:77] Creating layer conv8_2_relu
I0121 19:02:19.462213 11644 net.cpp:100] Creating Layer conv8_2_relu
I0121 19:02:19.462215 11644 net.cpp:434] conv8_2_relu <- conv8_2_fc1
I0121 19:02:19.462220 11644 net.cpp:395] conv8_2_relu -> conv8_2_fc1 (in-place)
I0121 19:02:19.462402 11644 net.cpp:150] Setting up conv8_2_relu
I0121 19:02:19.462412 11644 net.cpp:157] Top shape: 8 64 1 1 (512)
I0121 19:02:19.462414 11644 net.cpp:165] Memory required for data: 2514804800
I0121 19:02:19.462416 11644 layer_factory.hpp:77] Creating layer conv8_2_fc2
I0121 19:02:19.462424 11644 net.cpp:100] Creating Layer conv8_2_fc2
I0121 19:02:19.462427 11644 net.cpp:434] conv8_2_fc2 <- conv8_2_fc1
I0121 19:02:19.462431 11644 net.cpp:408] conv8_2_fc2 -> conv8_2_fc2
I0121 19:02:19.463696 11644 net.cpp:150] Setting up conv8_2_fc2
I0121 19:02:19.463707 11644 net.cpp:157] Top shape: 8 256 1 1 (2048)
I0121 19:02:19.463711 11644 net.cpp:165] Memory required for data: 2514812992
I0121 19:02:19.463716 11644 layer_factory.hpp:77] Creating layer conv8_2_sig
I0121 19:02:19.463721 11644 net.cpp:100] Creating Layer conv8_2_sig
I0121 19:02:19.463734 11644 net.cpp:434] conv8_2_sig <- conv8_2_fc2
I0121 19:02:19.463740 11644 net.cpp:395] conv8_2_sig -> conv8_2_fc2 (in-place)
I0121 19:02:19.463917 11644 net.cpp:150] Setting up conv8_2_sig
I0121 19:02:19.463925 11644 net.cpp:157] Top shape: 8 256 1 1 (2048)
I0121 19:02:19.463928 11644 net.cpp:165] Memory required for data: 2514821184
I0121 19:02:19.463932 11644 layer_factory.hpp:77] Creating layer conv8_2_reshape
I0121 19:02:19.463940 11644 net.cpp:100] Creating Layer conv8_2_reshape
I0121 19:02:19.463943 11644 net.cpp:434] conv8_2_reshape <- conv8_2_fc2
I0121 19:02:19.463948 11644 net.cpp:408] conv8_2_reshape -> conv8_2_reshape
I0121 19:02:19.463989 11644 net.cpp:150] Setting up conv8_2_reshape
I0121 19:02:19.463994 11644 net.cpp:157] Top shape: 8 256 (2048)
I0121 19:02:19.463995 11644 net.cpp:165] Memory required for data: 2514829376
I0121 19:02:19.463997 11644 layer_factory.hpp:77] Creating layer conv8_2_scale
I0121 19:02:19.464004 11644 net.cpp:100] Creating Layer conv8_2_scale
I0121 19:02:19.464006 11644 net.cpp:434] conv8_2_scale <- conv8_2_t_conv8_2_relu_0_split_1
I0121 19:02:19.464010 11644 net.cpp:434] conv8_2_scale <- conv8_2_reshape
I0121 19:02:19.464012 11644 net.cpp:408] conv8_2_scale -> conv8_2
I0121 19:02:19.464154 11644 net.cpp:150] Setting up conv8_2_scale
I0121 19:02:19.464162 11644 net.cpp:157] Top shape: 8 256 3 3 (18432)
I0121 19:02:19.464164 11644 net.cpp:165] Memory required for data: 2514903104
I0121 19:02:19.464166 11644 layer_factory.hpp:77] Creating layer conv8_2_conv8_2_scale_0_split
I0121 19:02:19.464172 11644 net.cpp:100] Creating Layer conv8_2_conv8_2_scale_0_split
I0121 19:02:19.464175 11644 net.cpp:434] conv8_2_conv8_2_scale_0_split <- conv8_2
I0121 19:02:19.464180 11644 net.cpp:408] conv8_2_conv8_2_scale_0_split -> conv8_2_conv8_2_scale_0_split_0
I0121 19:02:19.464185 11644 net.cpp:408] conv8_2_conv8_2_scale_0_split -> conv8_2_conv8_2_scale_0_split_1
I0121 19:02:19.464190 11644 net.cpp:408] conv8_2_conv8_2_scale_0_split -> conv8_2_conv8_2_scale_0_split_2
I0121 19:02:19.464195 11644 net.cpp:408] conv8_2_conv8_2_scale_0_split -> conv8_2_conv8_2_scale_0_split_3
I0121 19:02:19.464282 11644 net.cpp:150] Setting up conv8_2_conv8_2_scale_0_split
I0121 19:02:19.464300 11644 net.cpp:157] Top shape: 8 256 3 3 (18432)
I0121 19:02:19.464306 11644 net.cpp:157] Top shape: 8 256 3 3 (18432)
I0121 19:02:19.464309 11644 net.cpp:157] Top shape: 8 256 3 3 (18432)
I0121 19:02:19.464311 11644 net.cpp:157] Top shape: 8 256 3 3 (18432)
I0121 19:02:19.464313 11644 net.cpp:165] Memory required for data: 2515198016
I0121 19:02:19.464316 11644 layer_factory.hpp:77] Creating layer conv9_1
I0121 19:02:19.464326 11644 net.cpp:100] Creating Layer conv9_1
I0121 19:02:19.464329 11644 net.cpp:434] conv9_1 <- conv8_2_conv8_2_scale_0_split_0
I0121 19:02:19.464334 11644 net.cpp:408] conv9_1 -> conv9_1
I0121 19:02:19.465687 11644 net.cpp:150] Setting up conv9_1
I0121 19:02:19.465700 11644 net.cpp:157] Top shape: 8 128 3 3 (9216)
I0121 19:02:19.465703 11644 net.cpp:165] Memory required for data: 2515234880
I0121 19:02:19.465708 11644 layer_factory.hpp:77] Creating layer conv9_1_relu
I0121 19:02:19.465713 11644 net.cpp:100] Creating Layer conv9_1_relu
I0121 19:02:19.465715 11644 net.cpp:434] conv9_1_relu <- conv9_1
I0121 19:02:19.465719 11644 net.cpp:395] conv9_1_relu -> conv9_1 (in-place)
I0121 19:02:19.465904 11644 net.cpp:150] Setting up conv9_1_relu
I0121 19:02:19.465914 11644 net.cpp:157] Top shape: 8 128 3 3 (9216)
I0121 19:02:19.465915 11644 net.cpp:165] Memory required for data: 2515271744
I0121 19:02:19.465917 11644 layer_factory.hpp:77] Creating layer conv9_2
I0121 19:02:19.465925 11644 net.cpp:100] Creating Layer conv9_2
I0121 19:02:19.465929 11644 net.cpp:434] conv9_2 <- conv9_1
I0121 19:02:19.465934 11644 net.cpp:408] conv9_2 -> conv9_2_t
I0121 19:02:19.469494 11644 net.cpp:150] Setting up conv9_2
I0121 19:02:19.469508 11644 net.cpp:157] Top shape: 8 256 1 1 (2048)
I0121 19:02:19.469511 11644 net.cpp:165] Memory required for data: 2515279936
I0121 19:02:19.469517 11644 layer_factory.hpp:77] Creating layer conv9_2_relu
I0121 19:02:19.469532 11644 net.cpp:100] Creating Layer conv9_2_relu
I0121 19:02:19.469534 11644 net.cpp:434] conv9_2_relu <- conv9_2_t
I0121 19:02:19.469540 11644 net.cpp:395] conv9_2_relu -> conv9_2_t (in-place)
I0121 19:02:19.470052 11644 net.cpp:150] Setting up conv9_2_relu
I0121 19:02:19.470062 11644 net.cpp:157] Top shape: 8 256 1 1 (2048)
I0121 19:02:19.470064 11644 net.cpp:165] Memory required for data: 2515288128
I0121 19:02:19.470067 11644 layer_factory.hpp:77] Creating layer conv9_2_t_conv9_2_relu_0_split
I0121 19:02:19.470072 11644 net.cpp:100] Creating Layer conv9_2_t_conv9_2_relu_0_split
I0121 19:02:19.470075 11644 net.cpp:434] conv9_2_t_conv9_2_relu_0_split <- conv9_2_t
I0121 19:02:19.470080 11644 net.cpp:408] conv9_2_t_conv9_2_relu_0_split -> conv9_2_t_conv9_2_relu_0_split_0
I0121 19:02:19.470086 11644 net.cpp:408] conv9_2_t_conv9_2_relu_0_split -> conv9_2_t_conv9_2_relu_0_split_1
I0121 19:02:19.470147 11644 net.cpp:150] Setting up conv9_2_t_conv9_2_relu_0_split
I0121 19:02:19.470157 11644 net.cpp:157] Top shape: 8 256 1 1 (2048)
I0121 19:02:19.470162 11644 net.cpp:157] Top shape: 8 256 1 1 (2048)
I0121 19:02:19.470165 11644 net.cpp:165] Memory required for data: 2515304512
I0121 19:02:19.470168 11644 layer_factory.hpp:77] Creating layer conv9_2_s
I0121 19:02:19.470175 11644 net.cpp:100] Creating Layer conv9_2_s
I0121 19:02:19.470180 11644 net.cpp:434] conv9_2_s <- conv9_2_t_conv9_2_relu_0_split_0
I0121 19:02:19.470188 11644 net.cpp:408] conv9_2_s -> conv9_2_s
I0121 19:02:19.470408 11644 net.cpp:150] Setting up conv9_2_s
I0121 19:02:19.470417 11644 net.cpp:157] Top shape: 8 256 1 1 (2048)
I0121 19:02:19.470419 11644 net.cpp:165] Memory required for data: 2515312704
I0121 19:02:19.470422 11644 layer_factory.hpp:77] Creating layer conv9_2_fc1
I0121 19:02:19.470430 11644 net.cpp:100] Creating Layer conv9_2_fc1
I0121 19:02:19.470433 11644 net.cpp:434] conv9_2_fc1 <- conv9_2_s
I0121 19:02:19.470438 11644 net.cpp:408] conv9_2_fc1 -> conv9_2_fc1
I0121 19:02:19.471758 11644 net.cpp:150] Setting up conv9_2_fc1
I0121 19:02:19.471771 11644 net.cpp:157] Top shape: 8 64 1 1 (512)
I0121 19:02:19.471772 11644 net.cpp:165] Memory required for data: 2515314752
I0121 19:02:19.471777 11644 layer_factory.hpp:77] Creating layer conv9_2_relu
I0121 19:02:19.471783 11644 net.cpp:100] Creating Layer conv9_2_relu
I0121 19:02:19.471786 11644 net.cpp:434] conv9_2_relu <- conv9_2_fc1
I0121 19:02:19.471789 11644 net.cpp:395] conv9_2_relu -> conv9_2_fc1 (in-place)
I0121 19:02:19.471977 11644 net.cpp:150] Setting up conv9_2_relu
I0121 19:02:19.471987 11644 net.cpp:157] Top shape: 8 64 1 1 (512)
I0121 19:02:19.471988 11644 net.cpp:165] Memory required for data: 2515316800
I0121 19:02:19.471990 11644 layer_factory.hpp:77] Creating layer conv9_2_fc2
I0121 19:02:19.471998 11644 net.cpp:100] Creating Layer conv9_2_fc2
I0121 19:02:19.472002 11644 net.cpp:434] conv9_2_fc2 <- conv9_2_fc1
I0121 19:02:19.472007 11644 net.cpp:408] conv9_2_fc2 -> conv9_2_fc2
I0121 19:02:19.473318 11644 net.cpp:150] Setting up conv9_2_fc2
I0121 19:02:19.473330 11644 net.cpp:157] Top shape: 8 256 1 1 (2048)
I0121 19:02:19.473333 11644 net.cpp:165] Memory required for data: 2515324992
I0121 19:02:19.473338 11644 layer_factory.hpp:77] Creating layer conv9_2_sig
I0121 19:02:19.473345 11644 net.cpp:100] Creating Layer conv9_2_sig
I0121 19:02:19.473348 11644 net.cpp:434] conv9_2_sig <- conv9_2_fc2
I0121 19:02:19.473352 11644 net.cpp:395] conv9_2_sig -> conv9_2_fc2 (in-place)
I0121 19:02:19.473867 11644 net.cpp:150] Setting up conv9_2_sig
I0121 19:02:19.473879 11644 net.cpp:157] Top shape: 8 256 1 1 (2048)
I0121 19:02:19.473881 11644 net.cpp:165] Memory required for data: 2515333184
I0121 19:02:19.473884 11644 layer_factory.hpp:77] Creating layer conv9_2_reshape
I0121 19:02:19.473889 11644 net.cpp:100] Creating Layer conv9_2_reshape
I0121 19:02:19.473892 11644 net.cpp:434] conv9_2_reshape <- conv9_2_fc2
I0121 19:02:19.473897 11644 net.cpp:408] conv9_2_reshape -> conv9_2_reshape
I0121 19:02:19.473937 11644 net.cpp:150] Setting up conv9_2_reshape
I0121 19:02:19.473954 11644 net.cpp:157] Top shape: 8 256 (2048)
I0121 19:02:19.473956 11644 net.cpp:165] Memory required for data: 2515341376
I0121 19:02:19.473958 11644 layer_factory.hpp:77] Creating layer conv9_2_scale
I0121 19:02:19.473963 11644 net.cpp:100] Creating Layer conv9_2_scale
I0121 19:02:19.473966 11644 net.cpp:434] conv9_2_scale <- conv9_2_t_conv9_2_relu_0_split_1
I0121 19:02:19.473969 11644 net.cpp:434] conv9_2_scale <- conv9_2_reshape
I0121 19:02:19.473973 11644 net.cpp:408] conv9_2_scale -> conv9_2
I0121 19:02:19.474092 11644 net.cpp:150] Setting up conv9_2_scale
I0121 19:02:19.474100 11644 net.cpp:157] Top shape: 8 256 1 1 (2048)
I0121 19:02:19.474103 11644 net.cpp:165] Memory required for data: 2515349568
I0121 19:02:19.474107 11644 layer_factory.hpp:77] Creating layer conv9_2_conv9_2_scale_0_split
I0121 19:02:19.474112 11644 net.cpp:100] Creating Layer conv9_2_conv9_2_scale_0_split
I0121 19:02:19.474114 11644 net.cpp:434] conv9_2_conv9_2_scale_0_split <- conv9_2
I0121 19:02:19.474119 11644 net.cpp:408] conv9_2_conv9_2_scale_0_split -> conv9_2_conv9_2_scale_0_split_0
I0121 19:02:19.474124 11644 net.cpp:408] conv9_2_conv9_2_scale_0_split -> conv9_2_conv9_2_scale_0_split_1
I0121 19:02:19.474128 11644 net.cpp:408] conv9_2_conv9_2_scale_0_split -> conv9_2_conv9_2_scale_0_split_2
I0121 19:02:19.474203 11644 net.cpp:150] Setting up conv9_2_conv9_2_scale_0_split
I0121 19:02:19.474210 11644 net.cpp:157] Top shape: 8 256 1 1 (2048)
I0121 19:02:19.474212 11644 net.cpp:157] Top shape: 8 256 1 1 (2048)
I0121 19:02:19.474215 11644 net.cpp:157] Top shape: 8 256 1 1 (2048)
I0121 19:02:19.474217 11644 net.cpp:165] Memory required for data: 2515374144
I0121 19:02:19.474220 11644 layer_factory.hpp:77] Creating layer conv4_3_norm
I0121 19:02:19.474226 11644 net.cpp:100] Creating Layer conv4_3_norm
I0121 19:02:19.474229 11644 net.cpp:434] conv4_3_norm <- conv4_3_conv4_3_scale_0_split_1
I0121 19:02:19.474234 11644 net.cpp:408] conv4_3_norm -> conv4_3_norm
I0121 19:02:19.474467 11644 net.cpp:150] Setting up conv4_3_norm
I0121 19:02:19.474473 11644 net.cpp:157] Top shape: 8 512 38 38 (5914624)
I0121 19:02:19.474476 11644 net.cpp:165] Memory required for data: 2539032640
I0121 19:02:19.474480 11644 layer_factory.hpp:77] Creating layer conv4_3_norm_conv4_3_norm_0_split
I0121 19:02:19.474488 11644 net.cpp:100] Creating Layer conv4_3_norm_conv4_3_norm_0_split
I0121 19:02:19.474489 11644 net.cpp:434] conv4_3_norm_conv4_3_norm_0_split <- conv4_3_norm
I0121 19:02:19.474493 11644 net.cpp:408] conv4_3_norm_conv4_3_norm_0_split -> conv4_3_norm_conv4_3_norm_0_split_0
I0121 19:02:19.474498 11644 net.cpp:408] conv4_3_norm_conv4_3_norm_0_split -> conv4_3_norm_conv4_3_norm_0_split_1
I0121 19:02:19.474503 11644 net.cpp:408] conv4_3_norm_conv4_3_norm_0_split -> conv4_3_norm_conv4_3_norm_0_split_2
I0121 19:02:19.474565 11644 net.cpp:150] Setting up conv4_3_norm_conv4_3_norm_0_split
I0121 19:02:19.474572 11644 net.cpp:157] Top shape: 8 512 38 38 (5914624)
I0121 19:02:19.474576 11644 net.cpp:157] Top shape: 8 512 38 38 (5914624)
I0121 19:02:19.474581 11644 net.cpp:157] Top shape: 8 512 38 38 (5914624)
I0121 19:02:19.474582 11644 net.cpp:165] Memory required for data: 2610008128
I0121 19:02:19.474586 11644 layer_factory.hpp:77] Creating layer conv4_3_norm_mbox_loc
I0121 19:02:19.474596 11644 net.cpp:100] Creating Layer conv4_3_norm_mbox_loc
I0121 19:02:19.474598 11644 net.cpp:434] conv4_3_norm_mbox_loc <- conv4_3_norm_conv4_3_norm_0_split_0
I0121 19:02:19.474603 11644 net.cpp:408] conv4_3_norm_mbox_loc -> conv4_3_norm_mbox_loc
I0121 19:02:19.476460 11644 net.cpp:150] Setting up conv4_3_norm_mbox_loc
I0121 19:02:19.476474 11644 net.cpp:157] Top shape: 8 16 38 38 (184832)
I0121 19:02:19.476475 11644 net.cpp:165] Memory required for data: 2610747456
I0121 19:02:19.476481 11644 layer_factory.hpp:77] Creating layer conv4_3_norm_mbox_loc_perm
I0121 19:02:19.476488 11644 net.cpp:100] Creating Layer conv4_3_norm_mbox_loc_perm
I0121 19:02:19.476491 11644 net.cpp:434] conv4_3_norm_mbox_loc_perm <- conv4_3_norm_mbox_loc
I0121 19:02:19.476505 11644 net.cpp:408] conv4_3_norm_mbox_loc_perm -> conv4_3_norm_mbox_loc_perm
I0121 19:02:19.476680 11644 net.cpp:150] Setting up conv4_3_norm_mbox_loc_perm
I0121 19:02:19.476691 11644 net.cpp:157] Top shape: 8 38 38 16 (184832)
I0121 19:02:19.476692 11644 net.cpp:165] Memory required for data: 2611486784
I0121 19:02:19.476694 11644 layer_factory.hpp:77] Creating layer conv4_3_norm_mbox_loc_flat
I0121 19:02:19.476699 11644 net.cpp:100] Creating Layer conv4_3_norm_mbox_loc_flat
I0121 19:02:19.476703 11644 net.cpp:434] conv4_3_norm_mbox_loc_flat <- conv4_3_norm_mbox_loc_perm
I0121 19:02:19.476708 11644 net.cpp:408] conv4_3_norm_mbox_loc_flat -> conv4_3_norm_mbox_loc_flat
I0121 19:02:19.476742 11644 net.cpp:150] Setting up conv4_3_norm_mbox_loc_flat
I0121 19:02:19.476747 11644 net.cpp:157] Top shape: 8 23104 (184832)
I0121 19:02:19.476749 11644 net.cpp:165] Memory required for data: 2612226112
I0121 19:02:19.476752 11644 layer_factory.hpp:77] Creating layer conv4_3_norm_mbox_conf
I0121 19:02:19.476771 11644 net.cpp:100] Creating Layer conv4_3_norm_mbox_conf
I0121 19:02:19.476774 11644 net.cpp:434] conv4_3_norm_mbox_conf <- conv4_3_norm_conv4_3_norm_0_split_1
I0121 19:02:19.476781 11644 net.cpp:408] conv4_3_norm_mbox_conf -> conv4_3_norm_mbox_conf
I0121 19:02:19.480814 11644 net.cpp:150] Setting up conv4_3_norm_mbox_conf
I0121 19:02:19.480830 11644 net.cpp:157] Top shape: 8 84 38 38 (970368)
I0121 19:02:19.480834 11644 net.cpp:165] Memory required for data: 2616107584
I0121 19:02:19.480839 11644 layer_factory.hpp:77] Creating layer conv4_3_norm_mbox_conf_perm
I0121 19:02:19.480844 11644 net.cpp:100] Creating Layer conv4_3_norm_mbox_conf_perm
I0121 19:02:19.480847 11644 net.cpp:434] conv4_3_norm_mbox_conf_perm <- conv4_3_norm_mbox_conf
I0121 19:02:19.480852 11644 net.cpp:408] conv4_3_norm_mbox_conf_perm -> conv4_3_norm_mbox_conf_perm
I0121 19:02:19.481009 11644 net.cpp:150] Setting up conv4_3_norm_mbox_conf_perm
I0121 19:02:19.481017 11644 net.cpp:157] Top shape: 8 38 38 84 (970368)
I0121 19:02:19.481019 11644 net.cpp:165] Memory required for data: 2619989056
I0121 19:02:19.481021 11644 layer_factory.hpp:77] Creating layer conv4_3_norm_mbox_conf_flat
I0121 19:02:19.481027 11644 net.cpp:100] Creating Layer conv4_3_norm_mbox_conf_flat
I0121 19:02:19.481029 11644 net.cpp:434] conv4_3_norm_mbox_conf_flat <- conv4_3_norm_mbox_conf_perm
I0121 19:02:19.481034 11644 net.cpp:408] conv4_3_norm_mbox_conf_flat -> conv4_3_norm_mbox_conf_flat
I0121 19:02:19.481065 11644 net.cpp:150] Setting up conv4_3_norm_mbox_conf_flat
I0121 19:02:19.481070 11644 net.cpp:157] Top shape: 8 121296 (970368)
I0121 19:02:19.481071 11644 net.cpp:165] Memory required for data: 2623870528
I0121 19:02:19.481073 11644 layer_factory.hpp:77] Creating layer conv4_3_norm_mbox_priorbox
I0121 19:02:19.481081 11644 net.cpp:100] Creating Layer conv4_3_norm_mbox_priorbox
I0121 19:02:19.481083 11644 net.cpp:434] conv4_3_norm_mbox_priorbox <- conv4_3_norm_conv4_3_norm_0_split_2
I0121 19:02:19.481086 11644 net.cpp:434] conv4_3_norm_mbox_priorbox <- data_data_0_split_1
I0121 19:02:19.481091 11644 net.cpp:408] conv4_3_norm_mbox_priorbox -> conv4_3_norm_mbox_priorbox
I0121 19:02:19.481124 11644 net.cpp:150] Setting up conv4_3_norm_mbox_priorbox
I0121 19:02:19.481129 11644 net.cpp:157] Top shape: 1 2 23104 (46208)
I0121 19:02:19.481132 11644 net.cpp:165] Memory required for data: 2624055360
I0121 19:02:19.481132 11644 layer_factory.hpp:77] Creating layer fc7_mbox_loc
I0121 19:02:19.481142 11644 net.cpp:100] Creating Layer fc7_mbox_loc
I0121 19:02:19.481146 11644 net.cpp:434] fc7_mbox_loc <- fc7_fc7_scale_0_split_1
I0121 19:02:19.481154 11644 net.cpp:408] fc7_mbox_loc -> fc7_mbox_loc
I0121 19:02:19.483701 11644 net.cpp:150] Setting up fc7_mbox_loc
I0121 19:02:19.483713 11644 net.cpp:157] Top shape: 8 24 19 19 (69312)
I0121 19:02:19.483716 11644 net.cpp:165] Memory required for data: 2624332608
I0121 19:02:19.483721 11644 layer_factory.hpp:77] Creating layer fc7_mbox_loc_perm
I0121 19:02:19.483726 11644 net.cpp:100] Creating Layer fc7_mbox_loc_perm
I0121 19:02:19.483729 11644 net.cpp:434] fc7_mbox_loc_perm <- fc7_mbox_loc
I0121 19:02:19.483747 11644 net.cpp:408] fc7_mbox_loc_perm -> fc7_mbox_loc_perm
I0121 19:02:19.483891 11644 net.cpp:150] Setting up fc7_mbox_loc_perm
I0121 19:02:19.483898 11644 net.cpp:157] Top shape: 8 19 19 24 (69312)
I0121 19:02:19.483901 11644 net.cpp:165] Memory required for data: 2624609856
I0121 19:02:19.483902 11644 layer_factory.hpp:77] Creating layer fc7_mbox_loc_flat
I0121 19:02:19.483906 11644 net.cpp:100] Creating Layer fc7_mbox_loc_flat
I0121 19:02:19.483909 11644 net.cpp:434] fc7_mbox_loc_flat <- fc7_mbox_loc_perm
I0121 19:02:19.483916 11644 net.cpp:408] fc7_mbox_loc_flat -> fc7_mbox_loc_flat
I0121 19:02:19.483949 11644 net.cpp:150] Setting up fc7_mbox_loc_flat
I0121 19:02:19.483953 11644 net.cpp:157] Top shape: 8 8664 (69312)
I0121 19:02:19.483955 11644 net.cpp:165] Memory required for data: 2624887104
I0121 19:02:19.483958 11644 layer_factory.hpp:77] Creating layer fc7_mbox_conf
I0121 19:02:19.483965 11644 net.cpp:100] Creating Layer fc7_mbox_conf
I0121 19:02:19.483968 11644 net.cpp:434] fc7_mbox_conf <- fc7_fc7_scale_0_split_2
I0121 19:02:19.483973 11644 net.cpp:408] fc7_mbox_conf -> fc7_mbox_conf
I0121 19:02:19.491865 11644 net.cpp:150] Setting up fc7_mbox_conf
I0121 19:02:19.491878 11644 net.cpp:157] Top shape: 8 126 19 19 (363888)
I0121 19:02:19.491880 11644 net.cpp:165] Memory required for data: 2626342656
I0121 19:02:19.491885 11644 layer_factory.hpp:77] Creating layer fc7_mbox_conf_perm
I0121 19:02:19.491891 11644 net.cpp:100] Creating Layer fc7_mbox_conf_perm
I0121 19:02:19.491895 11644 net.cpp:434] fc7_mbox_conf_perm <- fc7_mbox_conf
I0121 19:02:19.491899 11644 net.cpp:408] fc7_mbox_conf_perm -> fc7_mbox_conf_perm
I0121 19:02:19.492043 11644 net.cpp:150] Setting up fc7_mbox_conf_perm
I0121 19:02:19.492050 11644 net.cpp:157] Top shape: 8 19 19 126 (363888)
I0121 19:02:19.492053 11644 net.cpp:165] Memory required for data: 2627798208
I0121 19:02:19.492055 11644 layer_factory.hpp:77] Creating layer fc7_mbox_conf_flat
I0121 19:02:19.492063 11644 net.cpp:100] Creating Layer fc7_mbox_conf_flat
I0121 19:02:19.492064 11644 net.cpp:434] fc7_mbox_conf_flat <- fc7_mbox_conf_perm
I0121 19:02:19.492069 11644 net.cpp:408] fc7_mbox_conf_flat -> fc7_mbox_conf_flat
I0121 19:02:19.492101 11644 net.cpp:150] Setting up fc7_mbox_conf_flat
I0121 19:02:19.492105 11644 net.cpp:157] Top shape: 8 45486 (363888)
I0121 19:02:19.492106 11644 net.cpp:165] Memory required for data: 2629253760
I0121 19:02:19.492110 11644 layer_factory.hpp:77] Creating layer fc7_mbox_priorbox
I0121 19:02:19.492115 11644 net.cpp:100] Creating Layer fc7_mbox_priorbox
I0121 19:02:19.492117 11644 net.cpp:434] fc7_mbox_priorbox <- fc7_fc7_scale_0_split_3
I0121 19:02:19.492120 11644 net.cpp:434] fc7_mbox_priorbox <- data_data_0_split_2
I0121 19:02:19.492125 11644 net.cpp:408] fc7_mbox_priorbox -> fc7_mbox_priorbox
I0121 19:02:19.492179 11644 net.cpp:150] Setting up fc7_mbox_priorbox
I0121 19:02:19.492184 11644 net.cpp:157] Top shape: 1 2 8664 (17328)
I0121 19:02:19.492187 11644 net.cpp:165] Memory required for data: 2629323072
I0121 19:02:19.492188 11644 layer_factory.hpp:77] Creating layer conv6_2_mbox_loc
I0121 19:02:19.492197 11644 net.cpp:100] Creating Layer conv6_2_mbox_loc
I0121 19:02:19.492202 11644 net.cpp:434] conv6_2_mbox_loc <- conv6_2_conv6_2_scale_0_split_1
I0121 19:02:19.492209 11644 net.cpp:408] conv6_2_mbox_loc -> conv6_2_mbox_loc
I0121 19:02:19.494297 11644 net.cpp:150] Setting up conv6_2_mbox_loc
I0121 19:02:19.494309 11644 net.cpp:157] Top shape: 8 24 10 10 (19200)
I0121 19:02:19.494312 11644 net.cpp:165] Memory required for data: 2629399872
I0121 19:02:19.494316 11644 layer_factory.hpp:77] Creating layer conv6_2_mbox_loc_perm
I0121 19:02:19.494323 11644 net.cpp:100] Creating Layer conv6_2_mbox_loc_perm
I0121 19:02:19.494326 11644 net.cpp:434] conv6_2_mbox_loc_perm <- conv6_2_mbox_loc
I0121 19:02:19.494330 11644 net.cpp:408] conv6_2_mbox_loc_perm -> conv6_2_mbox_loc_perm
I0121 19:02:19.494475 11644 net.cpp:150] Setting up conv6_2_mbox_loc_perm
I0121 19:02:19.494483 11644 net.cpp:157] Top shape: 8 10 10 24 (19200)
I0121 19:02:19.494496 11644 net.cpp:165] Memory required for data: 2629476672
I0121 19:02:19.494498 11644 layer_factory.hpp:77] Creating layer conv6_2_mbox_loc_flat
I0121 19:02:19.494504 11644 net.cpp:100] Creating Layer conv6_2_mbox_loc_flat
I0121 19:02:19.494508 11644 net.cpp:434] conv6_2_mbox_loc_flat <- conv6_2_mbox_loc_perm
I0121 19:02:19.494510 11644 net.cpp:408] conv6_2_mbox_loc_flat -> conv6_2_mbox_loc_flat
I0121 19:02:19.494546 11644 net.cpp:150] Setting up conv6_2_mbox_loc_flat
I0121 19:02:19.494550 11644 net.cpp:157] Top shape: 8 2400 (19200)
I0121 19:02:19.494554 11644 net.cpp:165] Memory required for data: 2629553472
I0121 19:02:19.494554 11644 layer_factory.hpp:77] Creating layer conv6_2_mbox_conf
I0121 19:02:19.494562 11644 net.cpp:100] Creating Layer conv6_2_mbox_conf
I0121 19:02:19.494565 11644 net.cpp:434] conv6_2_mbox_conf <- conv6_2_conv6_2_scale_0_split_2
I0121 19:02:19.494570 11644 net.cpp:408] conv6_2_mbox_conf -> conv6_2_mbox_conf
I0121 19:02:19.499451 11644 net.cpp:150] Setting up conv6_2_mbox_conf
I0121 19:02:19.499464 11644 net.cpp:157] Top shape: 8 126 10 10 (100800)
I0121 19:02:19.499466 11644 net.cpp:165] Memory required for data: 2629956672
I0121 19:02:19.499472 11644 layer_factory.hpp:77] Creating layer conv6_2_mbox_conf_perm
I0121 19:02:19.499480 11644 net.cpp:100] Creating Layer conv6_2_mbox_conf_perm
I0121 19:02:19.499481 11644 net.cpp:434] conv6_2_mbox_conf_perm <- conv6_2_mbox_conf
I0121 19:02:19.499487 11644 net.cpp:408] conv6_2_mbox_conf_perm -> conv6_2_mbox_conf_perm
I0121 19:02:19.499644 11644 net.cpp:150] Setting up conv6_2_mbox_conf_perm
I0121 19:02:19.499652 11644 net.cpp:157] Top shape: 8 10 10 126 (100800)
I0121 19:02:19.499655 11644 net.cpp:165] Memory required for data: 2630359872
I0121 19:02:19.499656 11644 layer_factory.hpp:77] Creating layer conv6_2_mbox_conf_flat
I0121 19:02:19.499662 11644 net.cpp:100] Creating Layer conv6_2_mbox_conf_flat
I0121 19:02:19.499665 11644 net.cpp:434] conv6_2_mbox_conf_flat <- conv6_2_mbox_conf_perm
I0121 19:02:19.499668 11644 net.cpp:408] conv6_2_mbox_conf_flat -> conv6_2_mbox_conf_flat
I0121 19:02:19.499702 11644 net.cpp:150] Setting up conv6_2_mbox_conf_flat
I0121 19:02:19.499706 11644 net.cpp:157] Top shape: 8 12600 (100800)
I0121 19:02:19.499708 11644 net.cpp:165] Memory required for data: 2630763072
I0121 19:02:19.499711 11644 layer_factory.hpp:77] Creating layer conv6_2_mbox_priorbox
I0121 19:02:19.499716 11644 net.cpp:100] Creating Layer conv6_2_mbox_priorbox
I0121 19:02:19.499719 11644 net.cpp:434] conv6_2_mbox_priorbox <- conv6_2_conv6_2_scale_0_split_3
I0121 19:02:19.499722 11644 net.cpp:434] conv6_2_mbox_priorbox <- data_data_0_split_3
I0121 19:02:19.499727 11644 net.cpp:408] conv6_2_mbox_priorbox -> conv6_2_mbox_priorbox
I0121 19:02:19.499760 11644 net.cpp:150] Setting up conv6_2_mbox_priorbox
I0121 19:02:19.499764 11644 net.cpp:157] Top shape: 1 2 2400 (4800)
I0121 19:02:19.499766 11644 net.cpp:165] Memory required for data: 2630782272
I0121 19:02:19.499768 11644 layer_factory.hpp:77] Creating layer conv7_2_mbox_loc
I0121 19:02:19.499776 11644 net.cpp:100] Creating Layer conv7_2_mbox_loc
I0121 19:02:19.499780 11644 net.cpp:434] conv7_2_mbox_loc <- conv7_2_conv7_2_scale_0_split_1
I0121 19:02:19.499785 11644 net.cpp:408] conv7_2_mbox_loc -> conv7_2_mbox_loc
I0121 19:02:19.501319 11644 net.cpp:150] Setting up conv7_2_mbox_loc
I0121 19:02:19.501332 11644 net.cpp:157] Top shape: 8 24 5 5 (4800)
I0121 19:02:19.501334 11644 net.cpp:165] Memory required for data: 2630801472
I0121 19:02:19.501339 11644 layer_factory.hpp:77] Creating layer conv7_2_mbox_loc_perm
I0121 19:02:19.501346 11644 net.cpp:100] Creating Layer conv7_2_mbox_loc_perm
I0121 19:02:19.501349 11644 net.cpp:434] conv7_2_mbox_loc_perm <- conv7_2_mbox_loc
I0121 19:02:19.501353 11644 net.cpp:408] conv7_2_mbox_loc_perm -> conv7_2_mbox_loc_perm
I0121 19:02:19.501507 11644 net.cpp:150] Setting up conv7_2_mbox_loc_perm
I0121 19:02:19.501514 11644 net.cpp:157] Top shape: 8 5 5 24 (4800)
I0121 19:02:19.501516 11644 net.cpp:165] Memory required for data: 2630820672
I0121 19:02:19.501529 11644 layer_factory.hpp:77] Creating layer conv7_2_mbox_loc_flat
I0121 19:02:19.501536 11644 net.cpp:100] Creating Layer conv7_2_mbox_loc_flat
I0121 19:02:19.501538 11644 net.cpp:434] conv7_2_mbox_loc_flat <- conv7_2_mbox_loc_perm
I0121 19:02:19.501543 11644 net.cpp:408] conv7_2_mbox_loc_flat -> conv7_2_mbox_loc_flat
I0121 19:02:19.501577 11644 net.cpp:150] Setting up conv7_2_mbox_loc_flat
I0121 19:02:19.501581 11644 net.cpp:157] Top shape: 8 600 (4800)
I0121 19:02:19.501583 11644 net.cpp:165] Memory required for data: 2630839872
I0121 19:02:19.501585 11644 layer_factory.hpp:77] Creating layer conv7_2_mbox_conf
I0121 19:02:19.501593 11644 net.cpp:100] Creating Layer conv7_2_mbox_conf
I0121 19:02:19.501597 11644 net.cpp:434] conv7_2_mbox_conf <- conv7_2_conv7_2_scale_0_split_2
I0121 19:02:19.501605 11644 net.cpp:408] conv7_2_mbox_conf -> conv7_2_mbox_conf
I0121 19:02:19.506095 11644 net.cpp:150] Setting up conv7_2_mbox_conf
I0121 19:02:19.506110 11644 net.cpp:157] Top shape: 8 126 5 5 (25200)
I0121 19:02:19.506114 11644 net.cpp:165] Memory required for data: 2630940672
I0121 19:02:19.506119 11644 layer_factory.hpp:77] Creating layer conv7_2_mbox_conf_perm
I0121 19:02:19.506124 11644 net.cpp:100] Creating Layer conv7_2_mbox_conf_perm
I0121 19:02:19.506127 11644 net.cpp:434] conv7_2_mbox_conf_perm <- conv7_2_mbox_conf
I0121 19:02:19.506132 11644 net.cpp:408] conv7_2_mbox_conf_perm -> conv7_2_mbox_conf_perm
I0121 19:02:19.506309 11644 net.cpp:150] Setting up conv7_2_mbox_conf_perm
I0121 19:02:19.506317 11644 net.cpp:157] Top shape: 8 5 5 126 (25200)
I0121 19:02:19.506319 11644 net.cpp:165] Memory required for data: 2631041472
I0121 19:02:19.506322 11644 layer_factory.hpp:77] Creating layer conv7_2_mbox_conf_flat
I0121 19:02:19.506327 11644 net.cpp:100] Creating Layer conv7_2_mbox_conf_flat
I0121 19:02:19.506330 11644 net.cpp:434] conv7_2_mbox_conf_flat <- conv7_2_mbox_conf_perm
I0121 19:02:19.506335 11644 net.cpp:408] conv7_2_mbox_conf_flat -> conv7_2_mbox_conf_flat
I0121 19:02:19.506369 11644 net.cpp:150] Setting up conv7_2_mbox_conf_flat
I0121 19:02:19.506372 11644 net.cpp:157] Top shape: 8 3150 (25200)
I0121 19:02:19.506374 11644 net.cpp:165] Memory required for data: 2631142272
I0121 19:02:19.506376 11644 layer_factory.hpp:77] Creating layer conv7_2_mbox_priorbox
I0121 19:02:19.506382 11644 net.cpp:100] Creating Layer conv7_2_mbox_priorbox
I0121 19:02:19.506386 11644 net.cpp:434] conv7_2_mbox_priorbox <- conv7_2_conv7_2_scale_0_split_3
I0121 19:02:19.506388 11644 net.cpp:434] conv7_2_mbox_priorbox <- data_data_0_split_4
I0121 19:02:19.506393 11644 net.cpp:408] conv7_2_mbox_priorbox -> conv7_2_mbox_priorbox
I0121 19:02:19.506429 11644 net.cpp:150] Setting up conv7_2_mbox_priorbox
I0121 19:02:19.506435 11644 net.cpp:157] Top shape: 1 2 600 (1200)
I0121 19:02:19.506438 11644 net.cpp:165] Memory required for data: 2631147072
I0121 19:02:19.506443 11644 layer_factory.hpp:77] Creating layer conv8_2_mbox_loc
I0121 19:02:19.506455 11644 net.cpp:100] Creating Layer conv8_2_mbox_loc
I0121 19:02:19.506460 11644 net.cpp:434] conv8_2_mbox_loc <- conv8_2_conv8_2_scale_0_split_1
I0121 19:02:19.506467 11644 net.cpp:408] conv8_2_mbox_loc -> conv8_2_mbox_loc
I0121 19:02:19.507925 11644 net.cpp:150] Setting up conv8_2_mbox_loc
I0121 19:02:19.507936 11644 net.cpp:157] Top shape: 8 16 3 3 (1152)
I0121 19:02:19.507938 11644 net.cpp:165] Memory required for data: 2631151680
I0121 19:02:19.507943 11644 layer_factory.hpp:77] Creating layer conv8_2_mbox_loc_perm
I0121 19:02:19.507949 11644 net.cpp:100] Creating Layer conv8_2_mbox_loc_perm
I0121 19:02:19.507952 11644 net.cpp:434] conv8_2_mbox_loc_perm <- conv8_2_mbox_loc
I0121 19:02:19.507957 11644 net.cpp:408] conv8_2_mbox_loc_perm -> conv8_2_mbox_loc_perm
I0121 19:02:19.508097 11644 net.cpp:150] Setting up conv8_2_mbox_loc_perm
I0121 19:02:19.508105 11644 net.cpp:157] Top shape: 8 3 3 16 (1152)
I0121 19:02:19.508107 11644 net.cpp:165] Memory required for data: 2631156288
I0121 19:02:19.508110 11644 layer_factory.hpp:77] Creating layer conv8_2_mbox_loc_flat
I0121 19:02:19.508126 11644 net.cpp:100] Creating Layer conv8_2_mbox_loc_flat
I0121 19:02:19.508129 11644 net.cpp:434] conv8_2_mbox_loc_flat <- conv8_2_mbox_loc_perm
I0121 19:02:19.508133 11644 net.cpp:408] conv8_2_mbox_loc_flat -> conv8_2_mbox_loc_flat
I0121 19:02:19.508168 11644 net.cpp:150] Setting up conv8_2_mbox_loc_flat
I0121 19:02:19.508172 11644 net.cpp:157] Top shape: 8 144 (1152)
I0121 19:02:19.508174 11644 net.cpp:165] Memory required for data: 2631160896
I0121 19:02:19.508177 11644 layer_factory.hpp:77] Creating layer conv8_2_mbox_conf
I0121 19:02:19.508185 11644 net.cpp:100] Creating Layer conv8_2_mbox_conf
I0121 19:02:19.508188 11644 net.cpp:434] conv8_2_mbox_conf <- conv8_2_conv8_2_scale_0_split_2
I0121 19:02:19.508193 11644 net.cpp:408] conv8_2_mbox_conf -> conv8_2_mbox_conf
I0121 19:02:19.510563 11644 net.cpp:150] Setting up conv8_2_mbox_conf
I0121 19:02:19.510576 11644 net.cpp:157] Top shape: 8 84 3 3 (6048)
I0121 19:02:19.510577 11644 net.cpp:165] Memory required for data: 2631185088
I0121 19:02:19.510583 11644 layer_factory.hpp:77] Creating layer conv8_2_mbox_conf_perm
I0121 19:02:19.510588 11644 net.cpp:100] Creating Layer conv8_2_mbox_conf_perm
I0121 19:02:19.510591 11644 net.cpp:434] conv8_2_mbox_conf_perm <- conv8_2_mbox_conf
I0121 19:02:19.510596 11644 net.cpp:408] conv8_2_mbox_conf_perm -> conv8_2_mbox_conf_perm
I0121 19:02:19.510746 11644 net.cpp:150] Setting up conv8_2_mbox_conf_perm
I0121 19:02:19.510754 11644 net.cpp:157] Top shape: 8 3 3 84 (6048)
I0121 19:02:19.510757 11644 net.cpp:165] Memory required for data: 2631209280
I0121 19:02:19.510761 11644 layer_factory.hpp:77] Creating layer conv8_2_mbox_conf_flat
I0121 19:02:19.510767 11644 net.cpp:100] Creating Layer conv8_2_mbox_conf_flat
I0121 19:02:19.510771 11644 net.cpp:434] conv8_2_mbox_conf_flat <- conv8_2_mbox_conf_perm
I0121 19:02:19.510774 11644 net.cpp:408] conv8_2_mbox_conf_flat -> conv8_2_mbox_conf_flat
I0121 19:02:19.510809 11644 net.cpp:150] Setting up conv8_2_mbox_conf_flat
I0121 19:02:19.510813 11644 net.cpp:157] Top shape: 8 756 (6048)
I0121 19:02:19.510815 11644 net.cpp:165] Memory required for data: 2631233472
I0121 19:02:19.510818 11644 layer_factory.hpp:77] Creating layer conv8_2_mbox_priorbox
I0121 19:02:19.510824 11644 net.cpp:100] Creating Layer conv8_2_mbox_priorbox
I0121 19:02:19.510828 11644 net.cpp:434] conv8_2_mbox_priorbox <- conv8_2_conv8_2_scale_0_split_3
I0121 19:02:19.510830 11644 net.cpp:434] conv8_2_mbox_priorbox <- data_data_0_split_5
I0121 19:02:19.510835 11644 net.cpp:408] conv8_2_mbox_priorbox -> conv8_2_mbox_priorbox
I0121 19:02:19.510870 11644 net.cpp:150] Setting up conv8_2_mbox_priorbox
I0121 19:02:19.510877 11644 net.cpp:157] Top shape: 1 2 144 (288)
I0121 19:02:19.510879 11644 net.cpp:165] Memory required for data: 2631234624
I0121 19:02:19.510881 11644 layer_factory.hpp:77] Creating layer conv9_2_mbox_loc
I0121 19:02:19.510891 11644 net.cpp:100] Creating Layer conv9_2_mbox_loc
I0121 19:02:19.510895 11644 net.cpp:434] conv9_2_mbox_loc <- conv9_2_conv9_2_scale_0_split_0
I0121 19:02:19.510900 11644 net.cpp:408] conv9_2_mbox_loc -> conv9_2_mbox_loc
I0121 19:02:19.512357 11644 net.cpp:150] Setting up conv9_2_mbox_loc
I0121 19:02:19.512368 11644 net.cpp:157] Top shape: 8 16 1 1 (128)
I0121 19:02:19.512372 11644 net.cpp:165] Memory required for data: 2631235136
I0121 19:02:19.512377 11644 layer_factory.hpp:77] Creating layer conv9_2_mbox_loc_perm
I0121 19:02:19.512384 11644 net.cpp:100] Creating Layer conv9_2_mbox_loc_perm
I0121 19:02:19.512387 11644 net.cpp:434] conv9_2_mbox_loc_perm <- conv9_2_mbox_loc
I0121 19:02:19.512392 11644 net.cpp:408] conv9_2_mbox_loc_perm -> conv9_2_mbox_loc_perm
I0121 19:02:19.512534 11644 net.cpp:150] Setting up conv9_2_mbox_loc_perm
I0121 19:02:19.512542 11644 net.cpp:157] Top shape: 8 1 1 16 (128)
I0121 19:02:19.512543 11644 net.cpp:165] Memory required for data: 2631235648
I0121 19:02:19.512547 11644 layer_factory.hpp:77] Creating layer conv9_2_mbox_loc_flat
I0121 19:02:19.512552 11644 net.cpp:100] Creating Layer conv9_2_mbox_loc_flat
I0121 19:02:19.512553 11644 net.cpp:434] conv9_2_mbox_loc_flat <- conv9_2_mbox_loc_perm
I0121 19:02:19.512567 11644 net.cpp:408] conv9_2_mbox_loc_flat -> conv9_2_mbox_loc_flat
I0121 19:02:19.512604 11644 net.cpp:150] Setting up conv9_2_mbox_loc_flat
I0121 19:02:19.512609 11644 net.cpp:157] Top shape: 8 16 (128)
I0121 19:02:19.512609 11644 net.cpp:165] Memory required for data: 2631236160
I0121 19:02:19.512611 11644 layer_factory.hpp:77] Creating layer conv9_2_mbox_conf
I0121 19:02:19.512620 11644 net.cpp:100] Creating Layer conv9_2_mbox_conf
I0121 19:02:19.512624 11644 net.cpp:434] conv9_2_mbox_conf <- conv9_2_conv9_2_scale_0_split_1
I0121 19:02:19.512629 11644 net.cpp:408] conv9_2_mbox_conf -> conv9_2_mbox_conf
I0121 19:02:19.515012 11644 net.cpp:150] Setting up conv9_2_mbox_conf
I0121 19:02:19.515023 11644 net.cpp:157] Top shape: 8 84 1 1 (672)
I0121 19:02:19.515025 11644 net.cpp:165] Memory required for data: 2631238848
I0121 19:02:19.515030 11644 layer_factory.hpp:77] Creating layer conv9_2_mbox_conf_perm
I0121 19:02:19.515035 11644 net.cpp:100] Creating Layer conv9_2_mbox_conf_perm
I0121 19:02:19.515038 11644 net.cpp:434] conv9_2_mbox_conf_perm <- conv9_2_mbox_conf
I0121 19:02:19.515045 11644 net.cpp:408] conv9_2_mbox_conf_perm -> conv9_2_mbox_conf_perm
I0121 19:02:19.515194 11644 net.cpp:150] Setting up conv9_2_mbox_conf_perm
I0121 19:02:19.515202 11644 net.cpp:157] Top shape: 8 1 1 84 (672)
I0121 19:02:19.515203 11644 net.cpp:165] Memory required for data: 2631241536
I0121 19:02:19.515205 11644 layer_factory.hpp:77] Creating layer conv9_2_mbox_conf_flat
I0121 19:02:19.515209 11644 net.cpp:100] Creating Layer conv9_2_mbox_conf_flat
I0121 19:02:19.515213 11644 net.cpp:434] conv9_2_mbox_conf_flat <- conv9_2_mbox_conf_perm
I0121 19:02:19.515218 11644 net.cpp:408] conv9_2_mbox_conf_flat -> conv9_2_mbox_conf_flat
I0121 19:02:19.515250 11644 net.cpp:150] Setting up conv9_2_mbox_conf_flat
I0121 19:02:19.515254 11644 net.cpp:157] Top shape: 8 84 (672)
I0121 19:02:19.515256 11644 net.cpp:165] Memory required for data: 2631244224
I0121 19:02:19.515259 11644 layer_factory.hpp:77] Creating layer conv9_2_mbox_priorbox
I0121 19:02:19.515264 11644 net.cpp:100] Creating Layer conv9_2_mbox_priorbox
I0121 19:02:19.515265 11644 net.cpp:434] conv9_2_mbox_priorbox <- conv9_2_conv9_2_scale_0_split_2
I0121 19:02:19.515269 11644 net.cpp:434] conv9_2_mbox_priorbox <- data_data_0_split_6
I0121 19:02:19.515274 11644 net.cpp:408] conv9_2_mbox_priorbox -> conv9_2_mbox_priorbox
I0121 19:02:19.515308 11644 net.cpp:150] Setting up conv9_2_mbox_priorbox
I0121 19:02:19.515312 11644 net.cpp:157] Top shape: 1 2 16 (32)
I0121 19:02:19.515314 11644 net.cpp:165] Memory required for data: 2631244352
I0121 19:02:19.515318 11644 layer_factory.hpp:77] Creating layer mbox_loc
I0121 19:02:19.515326 11644 net.cpp:100] Creating Layer mbox_loc
I0121 19:02:19.515331 11644 net.cpp:434] mbox_loc <- conv4_3_norm_mbox_loc_flat
I0121 19:02:19.515333 11644 net.cpp:434] mbox_loc <- fc7_mbox_loc_flat
I0121 19:02:19.515337 11644 net.cpp:434] mbox_loc <- conv6_2_mbox_loc_flat
I0121 19:02:19.515341 11644 net.cpp:434] mbox_loc <- conv7_2_mbox_loc_flat
I0121 19:02:19.515342 11644 net.cpp:434] mbox_loc <- conv8_2_mbox_loc_flat
I0121 19:02:19.515344 11644 net.cpp:434] mbox_loc <- conv9_2_mbox_loc_flat
I0121 19:02:19.515350 11644 net.cpp:408] mbox_loc -> mbox_loc
I0121 19:02:19.515389 11644 net.cpp:150] Setting up mbox_loc
I0121 19:02:19.515394 11644 net.cpp:157] Top shape: 8 34928 (279424)
I0121 19:02:19.515396 11644 net.cpp:165] Memory required for data: 2632362048
I0121 19:02:19.515399 11644 layer_factory.hpp:77] Creating layer mbox_conf
I0121 19:02:19.515404 11644 net.cpp:100] Creating Layer mbox_conf
I0121 19:02:19.515406 11644 net.cpp:434] mbox_conf <- conv4_3_norm_mbox_conf_flat
I0121 19:02:19.515410 11644 net.cpp:434] mbox_conf <- fc7_mbox_conf_flat
I0121 19:02:19.515413 11644 net.cpp:434] mbox_conf <- conv6_2_mbox_conf_flat
I0121 19:02:19.515415 11644 net.cpp:434] mbox_conf <- conv7_2_mbox_conf_flat
I0121 19:02:19.515419 11644 net.cpp:434] mbox_conf <- conv8_2_mbox_conf_flat
I0121 19:02:19.515420 11644 net.cpp:434] mbox_conf <- conv9_2_mbox_conf_flat
I0121 19:02:19.515436 11644 net.cpp:408] mbox_conf -> mbox_conf
I0121 19:02:19.515475 11644 net.cpp:150] Setting up mbox_conf
I0121 19:02:19.515480 11644 net.cpp:157] Top shape: 8 183372 (1466976)
I0121 19:02:19.515482 11644 net.cpp:165] Memory required for data: 2638229952
I0121 19:02:19.515485 11644 layer_factory.hpp:77] Creating layer mbox_priorbox
I0121 19:02:19.515491 11644 net.cpp:100] Creating Layer mbox_priorbox
I0121 19:02:19.515492 11644 net.cpp:434] mbox_priorbox <- conv4_3_norm_mbox_priorbox
I0121 19:02:19.515496 11644 net.cpp:434] mbox_priorbox <- fc7_mbox_priorbox
I0121 19:02:19.515501 11644 net.cpp:434] mbox_priorbox <- conv6_2_mbox_priorbox
I0121 19:02:19.515504 11644 net.cpp:434] mbox_priorbox <- conv7_2_mbox_priorbox
I0121 19:02:19.515507 11644 net.cpp:434] mbox_priorbox <- conv8_2_mbox_priorbox
I0121 19:02:19.515511 11644 net.cpp:434] mbox_priorbox <- conv9_2_mbox_priorbox
I0121 19:02:19.515514 11644 net.cpp:408] mbox_priorbox -> mbox_priorbox
I0121 19:02:19.515547 11644 net.cpp:150] Setting up mbox_priorbox
I0121 19:02:19.515552 11644 net.cpp:157] Top shape: 1 2 34928 (69856)
I0121 19:02:19.515554 11644 net.cpp:165] Memory required for data: 2638509376
I0121 19:02:19.515558 11644 layer_factory.hpp:77] Creating layer mbox_conf_reshape
I0121 19:02:19.515565 11644 net.cpp:100] Creating Layer mbox_conf_reshape
I0121 19:02:19.515568 11644 net.cpp:434] mbox_conf_reshape <- mbox_conf
I0121 19:02:19.515576 11644 net.cpp:408] mbox_conf_reshape -> mbox_conf_reshape
I0121 19:02:19.515627 11644 net.cpp:150] Setting up mbox_conf_reshape
I0121 19:02:19.515633 11644 net.cpp:157] Top shape: 8 8732 21 (1466976)
I0121 19:02:19.515635 11644 net.cpp:165] Memory required for data: 2644377280
I0121 19:02:19.515636 11644 layer_factory.hpp:77] Creating layer mbox_conf_softmax
I0121 19:02:19.515642 11644 net.cpp:100] Creating Layer mbox_conf_softmax
I0121 19:02:19.515645 11644 net.cpp:434] mbox_conf_softmax <- mbox_conf_reshape
I0121 19:02:19.515651 11644 net.cpp:408] mbox_conf_softmax -> mbox_conf_softmax
I0121 19:02:19.515947 11644 net.cpp:150] Setting up mbox_conf_softmax
I0121 19:02:19.515955 11644 net.cpp:157] Top shape: 8 8732 21 (1466976)
I0121 19:02:19.515957 11644 net.cpp:165] Memory required for data: 2650245184
I0121 19:02:19.515959 11644 layer_factory.hpp:77] Creating layer mbox_conf_flatten
I0121 19:02:19.515964 11644 net.cpp:100] Creating Layer mbox_conf_flatten
I0121 19:02:19.515967 11644 net.cpp:434] mbox_conf_flatten <- mbox_conf_softmax
I0121 19:02:19.515972 11644 net.cpp:408] mbox_conf_flatten -> mbox_conf_flatten
I0121 19:02:19.516008 11644 net.cpp:150] Setting up mbox_conf_flatten
I0121 19:02:19.516012 11644 net.cpp:157] Top shape: 8 183372 (1466976)
I0121 19:02:19.516014 11644 net.cpp:165] Memory required for data: 2656113088
I0121 19:02:19.516016 11644 layer_factory.hpp:77] Creating layer detection_out
I0121 19:02:19.516034 11644 net.cpp:100] Creating Layer detection_out
I0121 19:02:19.516036 11644 net.cpp:434] detection_out <- mbox_loc
I0121 19:02:19.516041 11644 net.cpp:434] detection_out <- mbox_conf_flatten
I0121 19:02:19.516042 11644 net.cpp:434] detection_out <- mbox_priorbox
I0121 19:02:19.516047 11644 net.cpp:408] detection_out -> detection_out
I0121 19:02:19.518756 11644 net.cpp:150] Setting up detection_out
I0121 19:02:19.518769 11644 net.cpp:157] Top shape: 1 1 1 7 (7)
I0121 19:02:19.518770 11644 net.cpp:165] Memory required for data: 2656113116
I0121 19:02:19.518774 11644 layer_factory.hpp:77] Creating layer detection_eval
I0121 19:02:19.518780 11644 net.cpp:100] Creating Layer detection_eval
I0121 19:02:19.518784 11644 net.cpp:434] detection_eval <- detection_out
I0121 19:02:19.518786 11644 net.cpp:434] detection_eval <- label
I0121 19:02:19.518790 11644 net.cpp:408] detection_eval -> detection_eval
I0121 19:02:19.519629 11644 net.cpp:150] Setting up detection_eval
I0121 19:02:19.519636 11644 net.cpp:157] Top shape: 1 1 21 5 (105)
I0121 19:02:19.519639 11644 net.cpp:165] Memory required for data: 2656113536
I0121 19:02:19.519640 11644 net.cpp:228] detection_eval does not need backward computation.
I0121 19:02:19.519654 11644 net.cpp:228] detection_out does not need backward computation.
I0121 19:02:19.519657 11644 net.cpp:228] mbox_conf_flatten does not need backward computation.
I0121 19:02:19.519659 11644 net.cpp:228] mbox_conf_softmax does not need backward computation.
…
