…
      sampler {
        min_scale: 0.3
        max_scale: 1
        min_aspect_ratio: 0.5
        max_aspect_ratio: 2
      }
      sample_constraint {
        min_jaccard_overlap: 0.9
      }
      max_sample: 1
      max_trials: 50
    }
    batch_sampler {
      sampler {
        min_scale: 0.3
        max_scale: 1
        min_aspect_ratio: 0.5
        max_aspect_ratio: 2
      }
      sample_constraint {
        max_jaccard_overlap: 1
      }
      max_sample: 1
      max_trials: 50
    }
    label_map_file: "data/VOC0712/labelmap_voc.prototxt"
  }
}
layer {
  name: "conv1_1"
  type: "Convolution"
  bottom: "data"
  top: "conv1_1"
  param {
    lr_mult: 1
    decay_mult: 1
  }
  param {
    lr_mult: 2
    decay_mult: 0
  }
  convolution_param {
    num_output: 64
    pad: 1
    kernel_size: 3
    weight_filler {
      type: "xavier"
    }
    bias_filler {
      type: "constant"
      value: 0
    }
  }
}
layer {
  name: "relu1_1"
  type: "ReLU"
  bottom: "conv1_1"
  top: "conv1_1"
}
layer {
  name: "conv1_2"
  type: "Convolution"
  bottom: "conv1_1"
  top: "conv1_2"
  param {
    lr_mult: 1
    decay_mult: 1
  }
  param {
    lr_mult: 2
    decay_mult: 0
  }
  convolution_param {
    num_output: 64
    pad: 1
    kernel_size: 3
    weight_filler {
      type: "xavier"
    }
    bias_filler {
      type: "constant"
      value: 0
    }
  }
}
layer {
  name: "relu1_2"
  type: "ReLU"
  bottom: "conv1_2"
  top: "conv1_2"
}
layer {
  name: "pool1"
  type: "Pooling"
  bottom: "conv1_2"
  top: "pool1"
  pooling_param {
    pool: MAX
    kernel_size: 2
    stride: 2
  }
}
layer {
  name: "conv2_1"
  type: "Convolution"
  bottom: "pool1"
  top: "conv2_1"
  param {
    lr_mult: 1
    decay_mult: 1
  }
  param {
    lr_mult: 2
    decay_mult: 0
  }
  convolution_param {
    num_output: 128
    pad: 1
    kernel_size: 3
    weight_filler {
      type: "xavier"
    }
    bias_filler {
      type: "constant"
      value: 0
    }
  }
}
layer {
  name: "relu2_1"
  type: "ReLU"
  bottom: "conv2_1"
  top: "conv2_1"
}
layer {
  name: "conv2_2"
  type: "Convolution"
  bottom: "conv2_1"
  top: "conv2_2"
  param {
    lr_mult: 1
    decay_mult: 1
  }
  param {
    lr_mult: 2
    decay_mult: 0
  }
  convolution_param {
    num_output: 128
    pad: 1
    kernel_size: 3
    weight_filler {
      type: "xavier"
    }
    bias_filler {
      type: "constant"
      value: 0
    }
  }
}
layer {
  name: "relu2_2"
  type: "ReLU"
  bottom: "conv2_2"
  top: "conv2_2"
}
layer {
  name: "pool2"
  type: "Pooling"
  bottom: "conv2_2"
  top: "pool2"
  pooling_param {
    pool: MAX
    kernel_size: 2
    stride: 2
  }
}
layer {
  name: "conv3_1"
  type: "Convolution"
  bottom: "pool2"
  top: "conv3_1"
  param {
    lr_mult: 1
    decay_mult: 1
  }
  param {
    lr_mult: 2
    decay_mult: 0
  }
  convolution_param {
    num_output: 256
    pad: 1
    kernel_size: 3
    weight_filler {
      type: "xavier"
    }
    bias_filler {
      type: "constant"
      value: 0
    }
  }
}
layer {
  name: "relu3_1"
  type: "ReLU"
  bottom: "conv3_1"
  top: "conv3_1"
}
layer {
  name: "conv3_2"
  type: "Convolution"
  bottom: "conv3_1"
  top: "conv3_2"
  param {
    lr_mult: 1
    decay_mult: 1
  }
  param {
    lr_mult: 2
    decay_mult: 0
  }
  convolution_param {
    num_output: 256
    pad: 1
    kernel_size: 3
    weight_filler {
      type: "xavier"
    }
    bias_filler {
      type: "constant"
      value: 0
    }
  }
}
layer {
  name: "relu3_2"
  type: "ReLU"
  bottom: "conv3_2"
  top: "conv3_2"
}
layer {
  name: "conv3_3"
  type: "Convolution"
  bottom: "conv3_2"
  top: "conv3_3"
  param {
    lr_mult: 1
    decay_mult: 1
  }
  param {
    lr_mult: 2
    decay_mult: 0
  }
  convolution_param {
    num_output: 256
    pad: 1
    kernel_size: 3
    weight_filler {
      type: "xavier"
    }
    bias_filler {
      type: "constant"
      value: 0
    }
  }
}
layer {
  name: "relu3_3"
  type: "ReLU"
  bottom: "conv3_3"
  top: "conv3_3"
}
layer {
  name: "pool3"
  type: "Pooling"
  bottom: "conv3_3"
  top: "pool3"
  pooling_param {
    pool: MAX
    kernel_size: 2
    stride: 2
  }
}
layer {
  name: "conv4_1"
  type: "Convolution"
  bottom: "pool3"
  top: "conv4_1"
  param {
    lr_mult: 1
    decay_mult: 1
  }
  param {
    lr_mult: 2
    decay_mult: 0
  }
  convolution_param {
    num_output: 512
    pad: 1
    kernel_size: 3
    weight_filler {
      type: "xavier"
    }
    bias_filler {
      type: "constant"
      value: 0
    }
  }
}
layer {
  name: "relu4_1"
  type: "ReLU"
  bottom: "conv4_1"
  top: "conv4_1"
}
layer {
  name: "conv4_2"
  type: "Convolution"
  bottom: "conv4_1"
  top: "conv4_2"
  param {
    lr_mult: 1
    decay_mult: 1
  }
  param {
    lr_mult: 2
    decay_mult: 0
  }
  convolution_param {
    num_output: 512
    pad: 1
    kernel_size: 3
    weight_filler {
      type: "xavier"
    }
    bias_filler {
      type: "constant"
      value: 0
    }
  }
}
layer {
  name: "relu4_2"
  type: "ReLU"
  bottom: "conv4_2"
  top: "conv4_2"
}
layer {
  name: "conv4_3"
  type: "Convolution"
  bottom: "conv4_2"
  top: "conv4_3_ori"
  param {
    lr_mult: 1
    decay_mult: 1
  }
  param {
    lr_mult: 2
    decay_mult: 0
  }
  convolution_param {
    num_output: 512
    pad: 1
    kernel_size: 3
    weight_filler {
      type: "xavier"
    }
    bias_filler {
      type: "constant"
      value: 0
    }
  }
}
layer {
  name: "relu4_3"
  type: "ReLU"
  bottom: "conv4_3_ori"
  top: "conv4_3_ori"
}
layer {
  name: "seg_pool4"
  type: "Pooling"
  bottom: "conv4_3_ori"
  top: "seg_pool4"
  pooling_param {
    pool: MAX
    kernel_size: 3
    stride: 1
    pad: 1
  }
}
layer {
  name: "seg5_1"
  type: "Convolution"
  bottom: "seg_pool4"
  top: "seg5_1"
  param {
    lr_mult: 1
    decay_mult: 1
  }
  param {
    lr_mult: 2
    decay_mult: 0
  }
  convolution_param {
    num_output: 512
    pad: 2
    kernel_size: 3
    weight_filler {
      type: "xavier"
    }
    bias_filler {
      type: "constant"
      value: 0
    }
    dilation: 2
  }
}
layer {
  name: "seg_relu5_1"
  type: "ReLU"
  bottom: "seg5_1"
  top: "seg5_1"
}
layer {
  name: "seg5_2"
  type: "Convolution"
  bottom: "seg5_1"
  top: "seg5_2"
  param {
    lr_mult: 1
    decay_mult: 1
  }
  param {
    lr_mult: 2
    decay_mult: 0
  }
  convolution_param {
    num_output: 512
    pad: 2
    kernel_size: 3
    weight_filler {
      type: "xavier"
    }
    bias_filler {
      type: "constant"
      value: 0
    }
    dilation: 2
  }
}
layer {
  name: "seg_relu5_2"
  type: "ReLU"
  bottom: "seg5_2"
  top: "seg5_2"
}
layer {
  name: "seg5_3"
  type: "Convolution"
  bottom: "seg5_2"
  top: "seg5_3"
  param {
    lr_mult: 1
    decay_mult: 1
  }
  param {
    lr_mult: 2
    decay_mult: 0
  }
  convolution_param {
    num_output: 512
    pad: 2
    kernel_size: 3
    weight_filler {
      type: "xavier"
    }
    bias_filler {
      type: "constant"
      value: 0
    }
    dilation: 2
  }
}
layer {
  name: "seg_relu5_3"
  type: "ReLU"
  bottom: "seg5_3"
  top: "seg5_3"
}
layer {
  name: "seg_pool5"
  type: "Pooling"
  bottom: "seg5_3"
  top: "seg_pool5"
  pooling_param {
    pool: MAX
    kernel_size: 3
    stride: 1
    pad: 1
  }
}
layer {
  name: "seg6"
  type: "Convolution"
  bottom: "seg_pool5"
  top: "seg6"
  param {
    lr_mult: 1
    decay_mult: 1
  }
  param {
    lr_mult: 2
    decay_mult: 0
  }
  convolution_param {
    num_output: 1024
    pad: 4
    kernel_size: 3
    weight_filler {
      type: "xavier"
    }
    bias_filler {
      type: "constant"
      value: 0
    }
    dilation: 4
  }
}
layer {
  name: "seg_relu6"
  type: "ReLU"
  bottom: "seg6"
  top: "seg6"
}
layer {
  name: "seg_drop6"
  type: "Dropout"
  bottom: "seg6"
  top: "seg6"
  dropout_param {
    dropout_ratio: 0.5
  }
}
layer {
  name: "seg7"
  type: "Convolution"
  bottom: "seg6"
  top: "seg7"
  param {
    lr_mult: 1
    decay_mult: 1
  }
  param {
    lr_mult: 2
    decay_mult: 0
  }
  convolution_param {
    num_output: 1024
    kernel_size: 1
    weight_filler {
      type: "xavier"
    }
    bias_filler {
      type: "constant"
      value: 0
    }
  }
}
layer {
  name: "seg_relu7"
  type: "ReLU"
  bottom: "seg7"
  top: "seg7"
}
layer {
  name: "seg_drop7"
  type: "Dropout"
  bottom: "seg7"
  top: "seg7d"
  dropout_param {
    dropout_ratio: 0.5
  }
}
layer {
  name: "seg"
  type: "Convolution"
  bottom: "seg7d"
  top: "seg"
  param {
    lr_mult: 10
    decay_mult: 1
  }
  param {
    lr_mult: 20
    decay_mult: 0
  }
  convolution_param {
    num_output: 21
    kernel_size: 1
    weight_filler {
      type: "gaussian"
      std: 0.01
    }
    bias_filler {
      type: "constant"
      value: 0
    }
  }
}
layer {
  name: "seg_gt"
  type: "SegGt"
  bottom: "label"
  bottom: "seg"
  top: "seg_gt"
  seggt_param {
    background_label_id: 0
    use_difficult_gt: true
  }
}
layer {
  name: "seg_loss"
  type: "SoftmaxWithLoss"
  bottom: "seg"
  bottom: "seg_gt"
  top: "seg_loss"
  loss_weight: 0.1
  propagate_down: true
  propagate_down: false
  softmax_param {
    axis: 1
  }
}
layer {
  name: "seg_to_det_conv"
  type: "Convolution"
  bottom: "seg7"
  top: "seg_to_det_conv"
  param {
    lr_mult: 1
    decay_mult: 1
  }
  param {
    lr_mult: 2
    decay_mult: 0
  }
  convolution_param {
    num_output: 512
    pad: 0
    kernel_size: 1
    stride: 1
    weight_filler {
      type: "xavier"
    }
    bias_filler {
      type: "constant"
      value: 0
    }
  }
}
layer {
  name: "mult_conv4_3"
  type: "Eltwise"
  bottom: "conv4_3_ori"
  bottom: "seg_to_det_conv"
  top: "conv4_3_t"
  eltwise_param {
    operation: PROD
  }
}
layer {
  name: "conv4_3_s"
  type: "Pooling"
  bottom: "conv4_3_t"
  top: "conv4_3_s"
  pooling_param {
    pool: AVE
    global_pooling: true
  }
}
layer {
  name: "conv4_3_fc1"
  type: "Convolution"
  bottom: "conv4_3_s"
  top: "conv4_3_fc1"
  param {
    lr_mult: 1
    decay_mult: 1
  }
  param {
    lr_mult: 2
    decay_mult: 0
  }
  convolution_param {
    num_output: 128
    kernel_size: 1
    stride: 1
    weight_filler {
      type: "xavier"
    }
    bias_filler {
      type: "constant"
      value: 0
    }
  }
}
layer {
  name: "conv4_3_relu"
  type: "ReLU"
  bottom: "conv4_3_fc1"
  top: "conv4_3_fc1"
}
layer {
  name: "conv4_3_fc2"
  type: "Convolution"
  bottom: "conv4_3_fc1"
  top: "conv4_3_fc2"
  param {
    lr_mult: 1
    decay_mult: 1
  }
  param {
    lr_mult: 2
    decay_mult: 0
  }
  convolution_param {
    num_output: 512
    kernel_size: 1
    stride: 1
    weight_filler {
      type: "xavier"
    }
    bias_filler {
      type: "constant"
      value: 0
    }
  }
}
layer {
  name: "conv4_3_sig"
  type: "Sigmoid"
  bottom: "conv4_3_fc2"
  top: "conv4_3_fc2"
}
layer {
  name: "conv4_3_reshape"
  type: "Reshape"
  bottom: "conv4_3_fc2"
  top: "conv4_3_reshape"
  reshape_param {
    shape {
      dim: 0
      dim: 0
    }
  }
}
layer {
  name: "conv4_3_scale"
  type: "Scale"
  bottom: "conv4_3_t"
  bottom: "conv4_3_reshape"
  top: "conv4_3"
  scale_param {
    axis: 0
    bias_term: false
  }
}
layer {
  name: "pool4"
  type: "Pooling"
  bottom: "conv4_3"
  top: "pool4"
  pooling_param {
    pool: MAX
    kernel_size: 2
    stride: 2
  }
}
layer {
  name: "conv5_1"
  type: "Convolution"
  bottom: "pool4"
  top: "conv5_1"
  param {
    lr_mult: 1
    decay_mult: 1
  }
  param {
    lr_mult: 2
    decay_mult: 0
  }
  convolution_param {
    num_output: 512
    pad: 1
    kernel_size: 3
    weight_filler {
      type: "xavier"
    }
    bias_filler {
      type: "constant"
      value: 0
    }
    dilation: 1
  }
}
layer {
  name: "relu5_1"
  type: "ReLU"
  bottom: "conv5_1"
  top: "conv5_1"
}
layer {
  name: "conv5_2"
  type: "Convolution"
  bottom: "conv5_1"
  top: "conv5_2"
  param {
    lr_mult: 1
    decay_mult: 1
  }
  param {
    lr_mult: 2
    decay_mult: 0
  }
  convolution_param {
    num_output: 512
    pad: 1
    kernel_size: 3
    weight_filler {
      type: "xavier"
    }
    bias_filler {
      type: "constant"
      value: 0
    }
    dilation: 1
  }
}
layer {
  name: "relu5_2"
  type: "ReLU"
  bottom: "conv5_2"
  top: "conv5_2"
}
layer {
  name: "conv5_3"
  type: "Convolution"
  bottom: "conv5_2"
  top: "conv5_3"
  param {
    lr_mult: 1
    decay_mult: 1
  }
  param {
    lr_mult: 2
    decay_mult: 0
  }
  convolution_param {
    num_output: 512
    pad: 1
    kernel_size: 3
    weight_filler {
      type: "xavier"
    }
    bias_filler {
      type: "constant"
      value: 0
    }
    dilation: 1
  }
}
layer {
  name: "relu5_3"
  type: "ReLU"
  bottom: "conv5_3"
  top: "conv5_3"
}
layer {
  name: "pool5"
  type: "Pooling"
  bottom: "conv5_3"
  top: "pool5"
  pooling_param {
    pool: MAX
    kernel_size: 3
    stride: 1
    pad: 1
  }
}
layer {
  name: "fc6"
  type: "Convolution"
  bottom: "pool5"
  top: "fc6"
  param {
    lr_mult: 1
    decay_mult: 1
  }
  param {
    lr_mult: 2
    decay_mult: 0
  }
  convolution_param {
    num_output: 1024
    pad: 6
    kernel_size: 3
    weight_filler {
      type: "xavier"
    }
    bias_filler {
      type: "constant"
      value: 0
    }
    dilation: 6
  }
}
layer {
  name: "relu6"
  type: "ReLU"
  bottom: "fc6"
  top: "fc6"
}
layer {
  name: "fc7"
  type: "Convolution"
  bottom: "fc6"
  top: "fc7_t"
  param {
    lr_mult: 1
    decay_mult: 1
  }
  param {
    lr_mult: 2
    decay_mult: 0
  }
  convolution_param {
    num_output: 1024
    kernel_size: 1
    weight_filler {
      type: "xavier"
    }
    bias_filler {
      type: "constant"
      value: 0
    }
  }
}
layer {
  name: "relu7"
  type: "ReLU"
  bottom: "fc7_t"
  top: "fc7_t"
}
layer {
  name: "fc7_s"
  type: "Pooling"
  bottom: "fc7_t"
  top: "fc7_s"
  pooling_param {
    pool: AVE
    global_pooling: true
  }
}
layer {
  name: "fc7_fc1"
  type: "Convolution"
  bottom: "fc7_s"
  top: "fc7_fc1"
  param {
    lr_mult: 1
    decay_mult: 1
  }
  param {
    lr_mult: 2
    decay_mult: 0
  }
  convolution_param {
    num_output: 256
    kernel_size: 1
    stride: 1
    weight_filler {
      type: "xavier"
    }
    bias_filler {
      type: "constant"
      value: 0
    }
  }
}
layer {
  name: "fc7_relu"
  type: "ReLU"
  bottom: "fc7_fc1"
  top: "fc7_fc1"
}
layer {
  name: "fc7_fc2"
  type: "Convolution"
  bottom: "fc7_fc1"
  top: "fc7_fc2"
  param {
    lr_mult: 1
    decay_mult: 1
  }
  param {
    lr_mult: 2
    decay_mult: 0
  }
  convolution_param {
    num_output: 1024
    kernel_size: 1
    stride: 1
    weight_filler {
      type: "xavier"
    }
    bias_filler {
      type: "constant"
      value: 0
    }
  }
}
layer {
  name: "fc7_sig"
  type: "Sigmoid"
  bottom: "fc7_fc2"
  top: "fc7_fc2"
}
layer {
  name: "fc7_reshape"
  type: "Reshape"
  bottom: "fc7_fc2"
  top: "fc7_reshape"
  reshape_param {
    shape {
      dim: 0
      dim: 0
    }
  }
}
layer {
  name: "fc7_scale"
  type: "Scale"
  bottom: "fc7_t"
  bottom: "fc7_reshape"
  top: "fc7"
  scale_param {
    axis: 0
    bias_term: false
  }
}
layer {
  name: "conv6_1"
  type: "Convolution"
  bottom: "fc7"
  top: "conv6_1"
  param {
    lr_mult: 1
    decay_mult: 1
  }
  param {
    lr_mult: 2
    decay_mult: 0
  }
  convolution_param {
    num_output: 256
    pad: 0
    kernel_size: 1
    stride: 1
    weight_filler {
      type: "xavier"
    }
    bias_filler {
      type: "constant"
      value: 0
    }
  }
}
layer {
  name: "conv6_1_relu"
  type: "ReLU"
  bottom: "conv6_1"
  top: "conv6_1"
}
layer {
  name: "conv6_2"
  type: "Convolution"
  bottom: "conv6_1"
  top: "conv6_2_t"
  param {
    lr_mult: 1
    decay_mult: 1
  }
  param {
    lr_mult: 2
    decay_mult: 0
  }
  convolution_param {
    num_output: 512
    pad: 1
    kernel_size: 3
    stride: 2
    weight_filler {
      type: "xavier"
    }
    bias_filler {
      type: "constant"
      value: 0
    }
  }
}
layer {
  name: "conv6_2_relu"
  type: "ReLU"
  bottom: "conv6_2_t"
  top: "conv6_2_t"
}
layer {
  name: "conv6_2_s"
  type: "Pooling"
  bottom: "conv6_2_t"
  top: "conv6_2_s"
  pooling_param {
    pool: AVE
    global_pooling: true
  }
}
layer {
  name: "conv6_2_fc1"
  type: "Convolution"
  bottom: "conv6_2_s"
  top: "conv6_2_fc1"
  param {
    lr_mult: 1
    decay_mult: 1
  }
  param {
    lr_mult: 2
    decay_mult: 0
  }
  convolution_param {
    num_output: 128
    kernel_size: 1
    stride: 1
    weight_filler {
      type: "xavier"
    }
    bias_filler {
      type: "constant"
      value: 0
    }
  }
}
layer {
  name: "conv6_2_relu"
  type: "ReLU"
  bottom: "conv6_2_fc1"
  top: "conv6_2_fc1"
}
layer {
  name: "conv6_2_fc2"
  type: "Convolution"
  bottom: "conv6_2_fc1"
  top: "conv6_2_fc2"
  param {
    lr_mult: 1
    decay_mult: 1
  }
  param {
    lr_mult: 2
    decay_mult: 0
  }
  convolution_param {
    num_output: 512
    kernel_size: 1
    stride: 1
    weight_filler {
      type: "xavier"
    }
    bias_filler {
      type: "constant"
      value: 0
    }
  }
}
layer {
  name: "conv6_2_sig"
  type: "Sigmoid"
  bottom: "conv6_2_fc2"
  top: "conv6_2_fc2"
}
layer {
  name: "conv6_2_reshape"
  type: "Reshape"
  bottom: "conv6_2_fc2"
  top: "conv6_2_reshape"
  reshape_param {
    shape {
      dim: 0
      dim: 0
    }
  }
}
layer {
  name: "conv6_2_scale"
  type: "Scale"
  bottom: "conv6_2_t"
  bottom: "conv6_2_reshape"
  top: "conv6_2"
  scale_param {
    axis: 0
    bias_term: false
  }
}
layer {
  name: "conv7_1"
  type: "Convolution"
  bottom: "conv6_2"
  top: "conv7_1"
  param {
    lr_mult: 1
    decay_mult: 1
  }
  param {
    lr_mult: 2
    decay_mult: 0
  }
  convolution_param {
    num_output: 128
    pad: 0
    kernel_size: 1
    stride: 1
    weight_filler {
      type: "xavier"
    }
    bias_filler {
      type: "constant"
      value: 0
    }
  }
}
layer {
  name: "conv7_1_relu"
  type: "ReLU"
  bottom: "conv7_1"
  top: "conv7_1"
}
layer {
  name: "conv7_2"
  type: "Convolution"
  bottom: "conv7_1"
  top: "conv7_2_t"
  param {
    lr_mult: 1
    decay_mult: 1
  }
  param {
    lr_mult: 2
    decay_mult: 0
  }
  convolution_param {
    num_output: 256
    pad: 1
    kernel_size: 3
    stride: 2
    weight_filler {
      type: "xavier"
    }
    bias_filler {
      type: "constant"
      value: 0
    }
  }
}
layer {
  name: "conv7_2_relu"
  type: "ReLU"
  bottom: "conv7_2_t"
  top: "conv7_2_t"
}
layer {
  name: "conv7_2_s"
  type: "Pooling"
  bottom: "conv7_2_t"
  top: "conv7_2_s"
  pooling_param {
    pool: AVE
    global_pooling: true
  }
}
layer {
  name: "conv7_2_fc1"
  type: "Convolution"
  bottom: "conv7_2_s"
  top: "conv7_2_fc1"
  param {
    lr_mult: 1
    decay_mult: 1
  }
  param {
    lr_mult: 2
    decay_mult: 0
  }
  convolution_param {
    num_output: 64
    kernel_size: 1
    stride: 1
    weight_filler {
      type: "xavier"
    }
    bias_filler {
      type: "constant"
      value: 0
    }
  }
}
layer {
  name: "conv7_2_relu"
  type: "ReLU"
  bottom: "conv7_2_fc1"
  top: "conv7_2_fc1"
}
layer {
  name: "conv7_2_fc2"
  type: "Convolution"
  bottom: "conv7_2_fc1"
  top: "conv7_2_fc2"
  param {
    lr_mult: 1
    decay_mult: 1
  }
  param {
    lr_mult: 2
    decay_mult: 0
  }
  convolution_param {
    num_output: 256
    kernel_size: 1
    stride: 1
    weight_filler {
      type: "xavier"
    }
    bias_filler {
      type: "constant"
      value: 0
    }
  }
}
layer {
  name: "conv7_2_sig"
  type: "Sigmoid"
  bottom: "conv7_2_fc2"
  top: "conv7_2_fc2"
}
layer {
  name: "conv7_2_reshape"
  type: "Reshape"
  bottom: "conv7_2_fc2"
  top: "conv7_2_reshape"
  reshape_param {
    shape {
      dim: 0
      dim: 0
    }
  }
}
layer {
  name: "conv7_2_scale"
  type: "Scale"
  bottom: "conv7_2_t"
  bottom: "conv7_2_reshape"
  top: "conv7_2"
  scale_param {
    axis: 0
    bias_term: false
  }
}
layer {
  name: "conv8_1"
  type: "Convolution"
  bottom: "conv7_2"
  top: "conv8_1"
  param {
    lr_mult: 1
    decay_mult: 1
  }
  param {
    lr_mult: 2
    decay_mult: 0
  }
  convolution_param {
    num_output: 128
    pad: 0
    kernel_size: 1
    stride: 1
    weight_filler {
      type: "xavier"
    }
    bias_filler {
      type: "constant"
      value: 0
    }
  }
}
layer {
  name: "conv8_1_relu"
  type: "ReLU"
  bottom: "conv8_1"
  top: "conv8_1"
}
layer {
  name: "conv8_2"
  type: "Convolution"
  bottom: "conv8_1"
  top: "conv8_2_t"
  param {
    lr_mult: 1
    decay_mult: 1
  }
  param {
    lr_mult: 2
    decay_mult: 0
  }
  convolution_param {
    num_output: 256
    pad: 0
    kernel_size: 3
    stride: 1
    weight_filler {
      type: "xavier"
    }
    bias_filler {
      type: "constant"
      value: 0
    }
  }
}
layer {
  name: "conv8_2_relu"
  type: "ReLU"
  bottom: "conv8_2_t"
  top: "conv8_2_t"
}
layer {
  name: "conv8_2_s"
  type: "Pooling"
  bottom: "conv8_2_t"
  top: "conv8_2_s"
  pooling_param {
    pool: AVE
    global_pooling: true
  }
}
layer {
  name: "conv8_2_fc1"
  type: "Convolution"
  bottom: "conv8_2_s"
  top: "conv8_2_fc1"
  param {
    lr_mult: 1
    decay_mult: 1
  }
  param {
    lr_mult: 2
    decay_mult: 0
  }
  convolution_param {
    num_output: 64
    kernel_size: 1
    stride: 1
    weight_filler {
      type: "xavier"
    }
    bias_filler {
      type: "constant"
      value: 0
    }
  }
}
layer {
  name: "conv8_2_relu"
  type: "ReLU"
  bottom: "conv8_2_fc1"
  top: "conv8_2_fc1"
}
layer {
  name: "conv8_2_fc2"
  type: "Convolution"
  bottom: "conv8_2_fc1"
  top: "conv8_2_fc2"
  param {
    lr_mult: 1
    decay_mult: 1
  }
  param {
    lr_mult: 2
    decay_mult: 0
  }
  convolution_param {
    num_output: 256
    kernel_size: 1
    stride: 1
    weight_filler {
      type: "xavier"
    }
    bias_filler {
      type: "constant"
      value: 0
    }
  }
}
layer {
  name: "conv8_2_sig"
  type: "Sigmoid"
  bottom: "conv8_2_fc2"
  top: "conv8_2_fc2"
}
layer {
  name: "conv8_2_reshape"
  type: "Reshape"
  bottom: "conv8_2_fc2"
  top: "conv8_2_reshape"
  reshape_param {
    shape {
      dim: 0
      dim: 0
    }
  }
}
layer {
  name: "conv8_2_scale"
  type: "Scale"
  bottom: "conv8_2_t"
  bottom: "conv8_2_reshape"
  top: "conv8_2"
  scale_param {
    axis: 0
    bias_term: false
  }
}
layer {
  name: "conv9_1"
  type: "Convolution"
  bottom: "conv8_2"
  top: "conv9_1"
  param {
    lr_mult: 1
    decay_mult: 1
  }
  param {
    lr_mult: 2
    decay_mult: 0
  }
  convolution_param {
    num_output: 128
    pad: 0
    kernel_size: 1
    stride: 1
    weight_filler {
      type: "xavier"
    }
    bias_filler {
      type: "constant"
      value: 0
    }
  }
}
layer {
  name: "conv9_1_relu"
  type: "ReLU"
  bottom: "conv9_1"
  top: "conv9_1"
}
layer {
  name: "conv9_2"
  type: "Convolution"
  bottom: "conv9_1"
  top: "conv9_2_t"
  param {
    lr_mult: 1
    decay_mult: 1
  }
  param {
    lr_mult: 2
    decay_mult: 0
  }
  convolution_param {
    num_output: 256
    pad: 0
    kernel_size: 3
    stride: 1
    weight_filler {
      type: "xavier"
    }
    bias_filler {
      type: "constant"
      value: 0
    }
  }
}
layer {
  name: "conv9_2_relu"
  type: "ReLU"
  bottom: "conv9_2_t"
  top: "conv9_2_t"
}
layer {
  name: "conv9_2_s"
  type: "Pooling"
  bottom: "conv9_2_t"
  top: "conv9_2_s"
  pooling_param {
    pool: AVE
    global_pooling: true
  }
}
layer {
  name: "conv9_2_fc1"
  type: "Convolution"
  bottom: "conv9_2_s"
  top: "conv9_2_fc1"
  param {
    lr_mult: 1
    decay_mult: 1
  }
  param {
    lr_mult: 2
    decay_mult: 0
  }
  convolution_param {
    num_output: 64
    kernel_size: 1
    stride: 1
    weight_filler {
      type: "xavier"
    }
    bias_filler {
      type: "constant"
      value: 0
    }
  }
}
layer {
  name: "conv9_2_relu"
  type: "ReLU"
  bottom: "conv9_2_fc1"
  top: "conv9_2_fc1"
}
layer {
  name: "conv9_2_fc2"
  type: "Convolution"
  bottom: "conv9_2_fc1"
  top: "conv9_2_fc2"
  param {
    lr_mult: 1
    decay_mult: 1
  }
  param {
    lr_mult: 2
    decay_mult: 0
  }
  convolution_param {
    num_output: 256
    kernel_size: 1
    stride: 1
    weight_filler {
      type: "xavier"
    }
    bias_filler {
      type: "constant"
      value: 0
    }
  }
}
layer {
  name: "conv9_2_sig"
  type: "Sigmoid"
  bottom: "conv9_2_fc2"
  top: "conv9_2_fc2"
}
layer {
  name: "conv9_2_reshape"
  type: "Reshape"
  bottom: "conv9_2_fc2"
  top: "conv9_2_reshape"
  reshape_param {
    shape {
      dim: 0
      dim: 0
    }
  }
}
layer {
  name: "conv9_2_scale"
  type: "Scale"
  bottom: "conv9_2_t"
  bottom: "conv9_2_reshape"
  top: "conv9_2"
  scale_param {
    axis: 0
    bias_term: false
  }
}
layer {
  name: "conv4_3_norm"
  type: "Normalize"
  bottom: "conv4_3"
  top: "conv4_3_norm"
  norm_param {
    across_spatial: false
    scale_filler {
      type: "constant"
      value: 20
    }
    channel_shared: false
  }
}
layer {
  name: "conv4_3_norm_mbox_loc"
  type: "Convolution"
  bottom: "conv4_3_norm"
  top: "conv4_3_norm_mbox_loc"
  param {
    lr_mult: 1
    decay_mult: 1
  }
  param {
    lr_mult: 2
    decay_mult: 0
  }
  convolution_param {
    num_output: 16
    pad: 1
    kernel_size: 3
    stride: 1
    weight_filler {
      type: "xavier"
    }
    bias_filler {
      type: "constant"
      value: 0
    }
  }
}
layer {
  name: "conv4_3_norm_mbox_loc_perm"
  type: "Permute"
  bottom: "conv4_3_norm_mbox_loc"
  top: "conv4_3_norm_mbox_loc_perm"
  permute_param {
    order: 0
    order: 2
    order: 3
    order: 1
  }
}
layer {
  name: "conv4_3_norm_mbox_loc_flat"
  type: "Flatten"
  bottom: "conv4_3_norm_mbox_loc_perm"
  top: "conv4_3_norm_mbox_loc_flat"
  flatten_param {
    axis: 1
  }
}
layer {
  name: "conv4_3_norm_mbox_conf"
  type: "Convolution"
  bottom: "conv4_3_norm"
  top: "conv4_3_norm_mbox_conf"
  param {
    lr_mult: 1
    decay_mult: 1
  }
  param {
    lr_mult: 2
    decay_mult: 0
  }
  convolution_param {
    num_output: 84
    pad: 1
    kernel_size: 3
    stride: 1
    weight_filler {
      type: "xavier"
    }
    bias_filler {
      type: "constant"
      value: 0
    }
  }
}
layer {
  name: "conv4_3_norm_mbox_conf_perm"
  type: "Permute"
  bottom: "conv4_3_norm_mbox_conf"
  top: "conv4_3_norm_mbox_conf_perm"
  permute_param {
    order: 0
    order: 2
    order: 3
    order: 1
  }
}
layer {
  name: "conv4_3_norm_mbox_conf_flat"
  type: "Flatten"
  bottom: "conv4_3_norm_mbox_conf_perm"
  top: "conv4_3_norm_mbox_conf_flat"
  flatten_param {
    axis: 1
  }
}
layer {
  name: "conv4_3_norm_mbox_priorbox"
  type: "PriorBox"
  bottom: "conv4_3_norm"
  bottom: "data"
  top: "conv4_3_norm_mbox_priorbox"
  prior_box_param {
    min_size: 30
    max_size: 60
    aspect_ratio: 2
    flip: true
    clip: false
    variance: 0.1
    variance: 0.1
    variance: 0.2
    variance: 0.2
    step: 8
    offset: 0.5
  }
}
layer {
  name: "fc7_mbox_loc"
  type: "Convolution"
  bottom: "fc7"
  top: "fc7_mbox_loc"
  param {
    lr_mult: 1
    decay_mult: 1
  }
  param {
    lr_mult: 2
    decay_mult: 0
  }
  convolution_param {
    num_output: 24
    pad: 1
    kernel_size: 3
    stride: 1
    weight_filler {
      type: "xavier"
    }
    bias_filler {
      type: "constant"
      value: 0
    }
  }
}
layer {
  name: "fc7_mbox_loc_perm"
  type: "Permute"
  bottom: "fc7_mbox_loc"
  top: "fc7_mbox_loc_perm"
  permute_param {
    order: 0
    order: 2
    order: 3
    order: 1
  }
}
layer {
  name: "fc7_mbox_loc_flat"
  type: "Flatten"
  bottom: "fc7_mbox_loc_perm"
  top: "fc7_mbox_loc_flat"
  flatten_param {
    axis: 1
  }
}
layer {
  name: "fc7_mbox_conf"
  type: "Convolution"
  bottom: "fc7"
  top: "fc7_mbox_conf"
  param {
    lr_mult: 1
    decay_mult: 1
  }
  param {
    lr_mult: 2
    decay_mult: 0
  }
  convolution_param {
    num_output: 126
    pad: 1
    kernel_size: 3
    stride: 1
    weight_filler {
      type: "xavier"
    }
    bias_filler {
      type: "constant"
      value: 0
    }
I0120 22:52:40.974951 11395 layer_factory.hpp:77] Creating layer data
I0120 22:52:40.975368 11395 net.cpp:100] Creating Layer data
I0120 22:52:40.975395 11395 net.cpp:408] data -> data
I0120 22:52:40.975437 11395 net.cpp:408] data -> label
I0120 22:52:40.976850 11401 db_lmdb.cpp:35] Opened lmdb examples/VOC0712/VOC0712_trainval_lmdb
I0120 22:52:40.989575 11395 annotated_data_layer.cpp:62] output data size: 8,3,300,300
I0120 22:52:41.004029 11395 net.cpp:150] Setting up data
I0120 22:52:41.004056 11395 net.cpp:157] Top shape: 8 3 300 300 (2160000)
I0120 22:52:41.004060 11395 net.cpp:157] Top shape: 1 1 22 8 (176)
I0120 22:52:41.004061 11395 net.cpp:165] Memory required for data: 8640704
I0120 22:52:41.004071 11395 layer_factory.hpp:77] Creating layer data_data_0_split
I0120 22:52:41.004086 11395 net.cpp:100] Creating Layer data_data_0_split
I0120 22:52:41.004091 11395 net.cpp:434] data_data_0_split <- data
I0120 22:52:41.004103 11395 net.cpp:408] data_data_0_split -> data_data_0_split_0
I0120 22:52:41.004113 11395 net.cpp:408] data_data_0_split -> data_data_0_split_1
I0120 22:52:41.004118 11395 net.cpp:408] data_data_0_split -> data_data_0_split_2
I0120 22:52:41.004123 11395 net.cpp:408] data_data_0_split -> data_data_0_split_3
I0120 22:52:41.004127 11395 net.cpp:408] data_data_0_split -> data_data_0_split_4
I0120 22:52:41.004132 11395 net.cpp:408] data_data_0_split -> data_data_0_split_5
I0120 22:52:41.004137 11395 net.cpp:408] data_data_0_split -> data_data_0_split_6
I0120 22:52:41.004240 11395 net.cpp:150] Setting up data_data_0_split
I0120 22:52:41.004245 11395 net.cpp:157] Top shape: 8 3 300 300 (2160000)
I0120 22:52:41.004247 11395 net.cpp:157] Top shape: 8 3 300 300 (2160000)
I0120 22:52:41.004251 11395 net.cpp:157] Top shape: 8 3 300 300 (2160000)
I0120 22:52:41.004253 11395 net.cpp:157] Top shape: 8 3 300 300 (2160000)
I0120 22:52:41.004278 11395 net.cpp:157] Top shape: 8 3 300 300 (2160000)
I0120 22:52:41.004282 11395 net.cpp:157] Top shape: 8 3 300 300 (2160000)
I0120 22:52:41.004288 11395 net.cpp:157] Top shape: 8 3 300 300 (2160000)
I0120 22:52:41.004290 11395 net.cpp:165] Memory required for data: 69120704
I0120 22:52:41.004293 11395 layer_factory.hpp:77] Creating layer label_data_1_split
I0120 22:52:41.004300 11395 net.cpp:100] Creating Layer label_data_1_split
I0120 22:52:41.004304 11395 net.cpp:434] label_data_1_split <- label
I0120 22:52:41.004312 11395 net.cpp:408] label_data_1_split -> label_data_1_split_0
I0120 22:52:41.004320 11395 net.cpp:408] label_data_1_split -> label_data_1_split_1
I0120 22:52:41.004382 11395 net.cpp:150] Setting up label_data_1_split
I0120 22:52:41.004389 11395 net.cpp:157] Top shape: 1 1 22 8 (176)
I0120 22:52:41.004390 11395 net.cpp:157] Top shape: 1 1 22 8 (176)
I0120 22:52:41.004392 11395 net.cpp:165] Memory required for data: 69122112
I0120 22:52:41.004396 11395 layer_factory.hpp:77] Creating layer conv1_1
I0120 22:52:41.004416 11395 net.cpp:100] Creating Layer conv1_1
I0120 22:52:41.004420 11395 net.cpp:434] conv1_1 <- data_data_0_split_0
I0120 22:52:41.004431 11395 net.cpp:408] conv1_1 -> conv1_1
I0120 22:52:41.114943 11402 blocking_queue.cpp:50] Waiting for data
I0120 22:52:41.422260 11395 net.cpp:150] Setting up conv1_1
I0120 22:52:41.422286 11395 net.cpp:157] Top shape: 8 64 300 300 (46080000)
I0120 22:52:41.422289 11395 net.cpp:165] Memory required for data: 253442112
I0120 22:52:41.422307 11395 layer_factory.hpp:77] Creating layer relu1_1
I0120 22:52:41.422319 11395 net.cpp:100] Creating Layer relu1_1
I0120 22:52:41.422322 11395 net.cpp:434] relu1_1 <- conv1_1
I0120 22:52:41.422327 11395 net.cpp:395] relu1_1 -> conv1_1 (in-place)
I0120 22:52:41.422724 11395 net.cpp:150] Setting up relu1_1
I0120 22:52:41.422735 11395 net.cpp:157] Top shape: 8 64 300 300 (46080000)
I0120 22:52:41.422739 11395 net.cpp:165] Memory required for data: 437762112
I0120 22:52:41.422740 11395 layer_factory.hpp:77] Creating layer conv1_2
I0120 22:52:41.422751 11395 net.cpp:100] Creating Layer conv1_2
I0120 22:52:41.422755 11395 net.cpp:434] conv1_2 <- conv1_1
I0120 22:52:41.422760 11395 net.cpp:408] conv1_2 -> conv1_2
I0120 22:52:41.424546 11395 net.cpp:150] Setting up conv1_2
I0120 22:52:41.424557 11395 net.cpp:157] Top shape: 8 64 300 300 (46080000)
I0120 22:52:41.424561 11395 net.cpp:165] Memory required for data: 622082112
I0120 22:52:41.424568 11395 layer_factory.hpp:77] Creating layer relu1_2
I0120 22:52:41.424573 11395 net.cpp:100] Creating Layer relu1_2
I0120 22:52:41.424576 11395 net.cpp:434] relu1_2 <- conv1_2
I0120 22:52:41.424580 11395 net.cpp:395] relu1_2 -> conv1_2 (in-place)
I0120 22:52:41.424721 11395 net.cpp:150] Setting up relu1_2
I0120 22:52:41.424731 11395 net.cpp:157] Top shape: 8 64 300 300 (46080000)
I0120 22:52:41.424736 11395 net.cpp:165] Memory required for data: 806402112
I0120 22:52:41.424741 11395 layer_factory.hpp:77] Creating layer pool1
I0120 22:52:41.424748 11395 net.cpp:100] Creating Layer pool1
I0120 22:52:41.424752 11395 net.cpp:434] pool1 <- conv1_2
I0120 22:52:41.424757 11395 net.cpp:408] pool1 -> pool1
I0120 22:52:41.424803 11395 net.cpp:150] Setting up pool1
I0120 22:52:41.424808 11395 net.cpp:157] Top shape: 8 64 150 150 (11520000)
I0120 22:52:41.424810 11395 net.cpp:165] Memory required for data: 852482112
I0120 22:52:41.424813 11395 layer_factory.hpp:77] Creating layer conv2_1
I0120 22:52:41.424821 11395 net.cpp:100] Creating Layer conv2_1
I0120 22:52:41.424824 11395 net.cpp:434] conv2_1 <- pool1
I0120 22:52:41.424827 11395 net.cpp:408] conv2_1 -> conv2_1
I0120 22:52:41.426024 11395 net.cpp:150] Setting up conv2_1
I0120 22:52:41.426038 11395 net.cpp:157] Top shape: 8 128 150 150 (23040000)
I0120 22:52:41.426039 11395 net.cpp:165] Memory required for data: 944642112
I0120 22:52:41.426048 11395 layer_factory.hpp:77] Creating layer relu2_1
I0120 22:52:41.426051 11395 net.cpp:100] Creating Layer relu2_1
I0120 22:52:41.426054 11395 net.cpp:434] relu2_1 <- conv2_1
I0120 22:52:41.426081 11395 net.cpp:395] relu2_1 -> conv2_1 (in-place)
I0120 22:52:41.426241 11395 net.cpp:150] Setting up relu2_1
I0120 22:52:41.426250 11395 net.cpp:157] Top shape: 8 128 150 150 (23040000)
I0120 22:52:41.426254 11395 net.cpp:165] Memory required for data: 1036802112
I0120 22:52:41.426255 11395 layer_factory.hpp:77] Creating layer conv2_2
I0120 22:52:41.426264 11395 net.cpp:100] Creating Layer conv2_2
I0120 22:52:41.426265 11395 net.cpp:434] conv2_2 <- conv2_1
I0120 22:52:41.426271 11395 net.cpp:408] conv2_2 -> conv2_2
I0120 22:52:41.427989 11395 net.cpp:150] Setting up conv2_2
I0120 22:52:41.428000 11395 net.cpp:157] Top shape: 8 128 150 150 (23040000)
I0120 22:52:41.428004 11395 net.cpp:165] Memory required for data: 1128962112
I0120 22:52:41.428009 11395 layer_factory.hpp:77] Creating layer relu2_2
I0120 22:52:41.428014 11395 net.cpp:100] Creating Layer relu2_2
I0120 22:52:41.428016 11395 net.cpp:434] relu2_2 <- conv2_2
I0120 22:52:41.428020 11395 net.cpp:395] relu2_2 -> conv2_2 (in-place)
I0120 22:52:41.428395 11395 net.cpp:150] Setting up relu2_2
I0120 22:52:41.428406 11395 net.cpp:157] Top shape: 8 128 150 150 (23040000)
I0120 22:52:41.428409 11395 net.cpp:165] Memory required for data: 1221122112
I0120 22:52:41.428411 11395 layer_factory.hpp:77] Creating layer pool2
I0120 22:52:41.428417 11395 net.cpp:100] Creating Layer pool2
I0120 22:52:41.428421 11395 net.cpp:434] pool2 <- conv2_2
I0120 22:52:41.428424 11395 net.cpp:408] pool2 -> pool2
I0120 22:52:41.428462 11395 net.cpp:150] Setting up pool2
I0120 22:52:41.428467 11395 net.cpp:157] Top shape: 8 128 75 75 (5760000)
I0120 22:52:41.428469 11395 net.cpp:165] Memory required for data: 1244162112
I0120 22:52:41.428472 11395 layer_factory.hpp:77] Creating layer conv3_1
I0120 22:52:41.428478 11395 net.cpp:100] Creating Layer conv3_1
I0120 22:52:41.428481 11395 net.cpp:434] conv3_1 <- pool2
I0120 22:52:41.428485 11395 net.cpp:408] conv3_1 -> conv3_1
I0120 22:52:41.432240 11395 net.cpp:150] Setting up conv3_1
I0120 22:52:41.432252 11395 net.cpp:157] Top shape: 8 256 75 75 (11520000)
I0120 22:52:41.432255 11395 net.cpp:165] Memory required for data: 1290242112
I0120 22:52:41.432263 11395 layer_factory.hpp:77] Creating layer relu3_1
I0120 22:52:41.432268 11395 net.cpp:100] Creating Layer relu3_1
I0120 22:52:41.432272 11395 net.cpp:434] relu3_1 <- conv3_1
I0120 22:52:41.432276 11395 net.cpp:395] relu3_1 -> conv3_1 (in-place)
I0120 22:52:41.432440 11395 net.cpp:150] Setting up relu3_1
I0120 22:52:41.432451 11395 net.cpp:157] Top shape: 8 256 75 75 (11520000)
I0120 22:52:41.432454 11395 net.cpp:165] Memory required for data: 1336322112
I0120 22:52:41.432457 11395 layer_factory.hpp:77] Creating layer conv3_2
I0120 22:52:41.432466 11395 net.cpp:100] Creating Layer conv3_2
I0120 22:52:41.432468 11395 net.cpp:434] conv3_2 <- conv3_1
I0120 22:52:41.432473 11395 net.cpp:408] conv3_2 -> conv3_2
I0120 22:52:41.436938 11395 net.cpp:150] Setting up conv3_2
I0120 22:52:41.436950 11395 net.cpp:157] Top shape: 8 256 75 75 (11520000)
I0120 22:52:41.436952 11395 net.cpp:165] Memory required for data: 1382402112
I0120 22:52:41.436959 11395 layer_factory.hpp:77] Creating layer relu3_2
I0120 22:52:41.436966 11395 net.cpp:100] Creating Layer relu3_2
I0120 22:52:41.436969 11395 net.cpp:434] relu3_2 <- conv3_2
I0120 22:52:41.436972 11395 net.cpp:395] relu3_2 -> conv3_2 (in-place)
I0120 22:52:41.437121 11395 net.cpp:150] Setting up relu3_2
I0120 22:52:41.437130 11395 net.cpp:157] Top shape: 8 256 75 75 (11520000)
I0120 22:52:41.437132 11395 net.cpp:165] Memory required for data: 1428482112
I0120 22:52:41.437135 11395 layer_factory.hpp:77] Creating layer conv3_3
I0120 22:52:41.437142 11395 net.cpp:100] Creating Layer conv3_3
I0120 22:52:41.437145 11395 net.cpp:434] conv3_3 <- conv3_2
I0120 22:52:41.437150 11395 net.cpp:408] conv3_3 -> conv3_3
I0120 22:52:41.441552 11395 net.cpp:150] Setting up conv3_3
I0120 22:52:41.441565 11395 net.cpp:157] Top shape: 8 256 75 75 (11520000)
I0120 22:52:41.441567 11395 net.cpp:165] Memory required for data: 1474562112
I0120 22:52:41.441588 11395 layer_factory.hpp:77] Creating layer relu3_3
I0120 22:52:41.441594 11395 net.cpp:100] Creating Layer relu3_3
I0120 22:52:41.441596 11395 net.cpp:434] relu3_3 <- conv3_3
I0120 22:52:41.441601 11395 net.cpp:395] relu3_3 -> conv3_3 (in-place)
I0120 22:52:41.441752 11395 net.cpp:150] Setting up relu3_3
I0120 22:52:41.441761 11395 net.cpp:157] Top shape: 8 256 75 75 (11520000)
I0120 22:52:41.441762 11395 net.cpp:165] Memory required for data: 1520642112
I0120 22:52:41.441766 11395 layer_factory.hpp:77] Creating layer pool3
I0120 22:52:41.441771 11395 net.cpp:100] Creating Layer pool3
I0120 22:52:41.441772 11395 net.cpp:434] pool3 <- conv3_3
I0120 22:52:41.441777 11395 net.cpp:408] pool3 -> pool3
I0120 22:52:41.441830 11395 net.cpp:150] Setting up pool3
I0120 22:52:41.441838 11395 net.cpp:157] Top shape: 8 256 38 38 (2957312)
I0120 22:52:41.441841 11395 net.cpp:165] Memory required for data: 1532471360
I0120 22:52:41.441843 11395 layer_factory.hpp:77] Creating layer conv4_1
I0120 22:52:41.441854 11395 net.cpp:100] Creating Layer conv4_1
I0120 22:52:41.441859 11395 net.cpp:434] conv4_1 <- pool3
I0120 22:52:41.441865 11395 net.cpp:408] conv4_1 -> conv4_1
I0120 22:52:41.449965 11395 net.cpp:150] Setting up conv4_1
I0120 22:52:41.449980 11395 net.cpp:157] Top shape: 8 512 38 38 (5914624)
I0120 22:52:41.449981 11395 net.cpp:165] Memory required for data: 1556129856
I0120 22:52:41.449988 11395 layer_factory.hpp:77] Creating layer relu4_1
I0120 22:52:41.449993 11395 net.cpp:100] Creating Layer relu4_1
I0120 22:52:41.449996 11395 net.cpp:434] relu4_1 <- conv4_1
I0120 22:52:41.450001 11395 net.cpp:395] relu4_1 -> conv4_1 (in-place)
I0120 22:52:41.450366 11395 net.cpp:150] Setting up relu4_1
I0120 22:52:41.450377 11395 net.cpp:157] Top shape: 8 512 38 38 (5914624)
I0120 22:52:41.450381 11395 net.cpp:165] Memory required for data: 1579788352
I0120 22:52:41.450382 11395 layer_factory.hpp:77] Creating layer conv4_2
I0120 22:52:41.450390 11395 net.cpp:100] Creating Layer conv4_2
I0120 22:52:41.450393 11395 net.cpp:434] conv4_2 <- conv4_1
I0120 22:52:41.450398 11395 net.cpp:408] conv4_2 -> conv4_2
I0120 22:52:41.463717 11395 net.cpp:150] Setting up conv4_2
I0120 22:52:41.463732 11395 net.cpp:157] Top shape: 8 512 38 38 (5914624)
I0120 22:52:41.463735 11395 net.cpp:165] Memory required for data: 1603446848
I0120 22:52:41.463747 11395 layer_factory.hpp:77] Creating layer relu4_2
I0120 22:52:41.463752 11395 net.cpp:100] Creating Layer relu4_2
I0120 22:52:41.463757 11395 net.cpp:434] relu4_2 <- conv4_2
I0120 22:52:41.463760 11395 net.cpp:395] relu4_2 -> conv4_2 (in-place)
I0120 22:52:41.463912 11395 net.cpp:150] Setting up relu4_2
I0120 22:52:41.463920 11395 net.cpp:157] Top shape: 8 512 38 38 (5914624)
I0120 22:52:41.463922 11395 net.cpp:165] Memory required for data: 1627105344
I0120 22:52:41.463925 11395 layer_factory.hpp:77] Creating layer conv4_3
I0120 22:52:41.463933 11395 net.cpp:100] Creating Layer conv4_3
I0120 22:52:41.463937 11395 net.cpp:434] conv4_3 <- conv4_2
I0120 22:52:41.463940 11395 net.cpp:408] conv4_3 -> conv4_3_ori
I0120 22:52:41.477283 11395 net.cpp:150] Setting up conv4_3
I0120 22:52:41.477301 11395 net.cpp:157] Top shape: 8 512 38 38 (5914624)
I0120 22:52:41.477303 11395 net.cpp:165] Memory required for data: 1650763840
I0120 22:52:41.477310 11395 layer_factory.hpp:77] Creating layer relu4_3
I0120 22:52:41.477318 11395 net.cpp:100] Creating Layer relu4_3
I0120 22:52:41.477320 11395 net.cpp:434] relu4_3 <- conv4_3_ori
I0120 22:52:41.477324 11395 net.cpp:395] relu4_3 -> conv4_3_ori (in-place)
I0120 22:52:41.477476 11395 net.cpp:150] Setting up relu4_3
I0120 22:52:41.477484 11395 net.cpp:157] Top shape: 8 512 38 38 (5914624)
I0120 22:52:41.477488 11395 net.cpp:165] Memory required for data: 1674422336
I0120 22:52:41.477489 11395 layer_factory.hpp:77] Creating layer conv4_3_ori_relu4_3_0_split
I0120 22:52:41.477494 11395 net.cpp:100] Creating Layer conv4_3_ori_relu4_3_0_split
I0120 22:52:41.477496 11395 net.cpp:434] conv4_3_ori_relu4_3_0_split <- conv4_3_ori
I0120 22:52:41.477501 11395 net.cpp:408] conv4_3_ori_relu4_3_0_split -> conv4_3_ori_relu4_3_0_split_0
I0120 22:52:41.477532 11395 net.cpp:408] conv4_3_ori_relu4_3_0_split -> conv4_3_ori_relu4_3_0_split_1
I0120 22:52:41.477582 11395 net.cpp:150] Setting up conv4_3_ori_relu4_3_0_split
I0120 22:52:41.477591 11395 net.cpp:157] Top shape: 8 512 38 38 (5914624)
I0120 22:52:41.477596 11395 net.cpp:157] Top shape: 8 512 38 38 (5914624)
I0120 22:52:41.477598 11395 net.cpp:165] Memory required for data: 1721739328
I0120 22:52:41.477602 11395 layer_factory.hpp:77] Creating layer seg_pool4
I0120 22:52:41.477609 11395 net.cpp:100] Creating Layer seg_pool4
I0120 22:52:41.477613 11395 net.cpp:434] seg_pool4 <- conv4_3_ori_relu4_3_0_split_0
I0120 22:52:41.477617 11395 net.cpp:408] seg_pool4 -> seg_pool4
I0120 22:52:41.477654 11395 net.cpp:150] Setting up seg_pool4
I0120 22:52:41.477658 11395 net.cpp:157] Top shape: 8 512 38 38 (5914624)
I0120 22:52:41.477661 11395 net.cpp:165] Memory required for data: 1745397824
I0120 22:52:41.477663 11395 layer_factory.hpp:77] Creating layer seg5_1
I0120 22:52:41.477671 11395 net.cpp:100] Creating Layer seg5_1
I0120 22:52:41.477674 11395 net.cpp:434] seg5_1 <- seg_pool4
I0120 22:52:41.477679 11395 net.cpp:408] seg5_1 -> seg5_1
I0120 22:52:41.490310 11395 net.cpp:150] Setting up seg5_1
I0120 22:52:41.490327 11395 net.cpp:157] Top shape: 8 512 38 38 (5914624)
I0120 22:52:41.490329 11395 net.cpp:165] Memory required for data: 1769056320
I0120 22:52:41.490337 11395 layer_factory.hpp:77] Creating layer seg_relu5_1
I0120 22:52:41.490344 11395 net.cpp:100] Creating Layer seg_relu5_1
I0120 22:52:41.490346 11395 net.cpp:434] seg_relu5_1 <- seg5_1
I0120 22:52:41.490350 11395 net.cpp:395] seg_relu5_1 -> seg5_1 (in-place)
I0120 22:52:41.490810 11395 net.cpp:150] Setting up seg_relu5_1
I0120 22:52:41.490821 11395 net.cpp:157] Top shape: 8 512 38 38 (5914624)
I0120 22:52:41.490823 11395 net.cpp:165] Memory required for data: 1792714816
I0120 22:52:41.490826 11395 layer_factory.hpp:77] Creating layer seg5_2
I0120 22:52:41.490836 11395 net.cpp:100] Creating Layer seg5_2
I0120 22:52:41.490839 11395 net.cpp:434] seg5_2 <- seg5_1
I0120 22:52:41.490844 11395 net.cpp:408] seg5_2 -> seg5_2
I0120 22:52:41.503458 11395 net.cpp:150] Setting up seg5_2
I0120 22:52:41.503475 11395 net.cpp:157] Top shape: 8 512 38 38 (5914624)
I0120 22:52:41.503479 11395 net.cpp:165] Memory required for data: 1816373312
I0120 22:52:41.503484 11395 layer_factory.hpp:77] Creating layer seg_relu5_2
I0120 22:52:41.503489 11395 net.cpp:100] Creating Layer seg_relu5_2
I0120 22:52:41.503492 11395 net.cpp:434] seg_relu5_2 <- seg5_2
I0120 22:52:41.503497 11395 net.cpp:395] seg_relu5_2 -> seg5_2 (in-place)
I0120 22:52:41.503706 11395 net.cpp:150] Setting up seg_relu5_2
I0120 22:52:41.503717 11395 net.cpp:157] Top shape: 8 512 38 38 (5914624)
I0120 22:52:41.503720 11395 net.cpp:165] Memory required for data: 1840031808
I0120 22:52:41.503722 11395 layer_factory.hpp:77] Creating layer seg5_3
I0120 22:52:41.503736 11395 net.cpp:100] Creating Layer seg5_3
I0120 22:52:41.503739 11395 net.cpp:434] seg5_3 <- seg5_2
I0120 22:52:41.503744 11395 net.cpp:408] seg5_3 -> seg5_3
I0120 22:52:41.516407 11395 net.cpp:150] Setting up seg5_3
I0120 22:52:41.516422 11395 net.cpp:157] Top shape: 8 512 38 38 (5914624)
I0120 22:52:41.516423 11395 net.cpp:165] Memory required for data: 1863690304
I0120 22:52:41.516430 11395 layer_factory.hpp:77] Creating layer seg_relu5_3
I0120 22:52:41.516436 11395 net.cpp:100] Creating Layer seg_relu5_3
I0120 22:52:41.516439 11395 net.cpp:434] seg_relu5_3 <- seg5_3
I0120 22:52:41.516443 11395 net.cpp:395] seg_relu5_3 -> seg5_3 (in-place)
I0120 22:52:41.516644 11395 net.cpp:150] Setting up seg_relu5_3
I0120 22:52:41.516656 11395 net.cpp:157] Top shape: 8 512 38 38 (5914624)
I0120 22:52:41.516660 11395 net.cpp:165] Memory required for data: 1887348800
I0120 22:52:41.516664 11395 layer_factory.hpp:77] Creating layer seg_pool5
I0120 22:52:41.516672 11395 net.cpp:100] Creating Layer seg_pool5
I0120 22:52:41.516676 11395 net.cpp:434] seg_pool5 <- seg5_3
I0120 22:52:41.516683 11395 net.cpp:408] seg_pool5 -> seg_pool5
I0120 22:52:41.516752 11395 net.cpp:150] Setting up seg_pool5
I0120 22:52:41.516760 11395 net.cpp:157] Top shape: 8 512 38 38 (5914624)
I0120 22:52:41.516763 11395 net.cpp:165] Memory required for data: 1911007296
I0120 22:52:41.516767 11395 layer_factory.hpp:77] Creating layer seg6
I0120 22:52:41.516782 11395 net.cpp:100] Creating Layer seg6
I0120 22:52:41.516788 11395 net.cpp:434] seg6 <- seg_pool5
I0120 22:52:41.516793 11395 net.cpp:408] seg6 -> seg6
I0120 22:52:41.542551 11395 net.cpp:150] Setting up seg6
I0120 22:52:41.542579 11395 net.cpp:157] Top shape: 8 1024 38 38 (11829248)
I0120 22:52:41.542582 11395 net.cpp:165] Memory required for data: 1958324288
I0120 22:52:41.542590 11395 layer_factory.hpp:77] Creating layer seg_relu6
I0120 22:52:41.542598 11395 net.cpp:100] Creating Layer seg_relu6
I0120 22:52:41.542603 11395 net.cpp:434] seg_relu6 <- seg6
I0120 22:52:41.542611 11395 net.cpp:395] seg_relu6 -> seg6 (in-place)
I0120 22:52:41.543190 11395 net.cpp:150] Setting up seg_relu6
I0120 22:52:41.543201 11395 net.cpp:157] Top shape: 8 1024 38 38 (11829248)
I0120 22:52:41.543205 11395 net.cpp:165] Memory required for data: 2005641280
I0120 22:52:41.543207 11395 layer_factory.hpp:77] Creating layer seg_drop6
I0120 22:52:41.543213 11395 net.cpp:100] Creating Layer seg_drop6
I0120 22:52:41.543216 11395 net.cpp:434] seg_drop6 <- seg6
I0120 22:52:41.543221 11395 net.cpp:395] seg_drop6 -> seg6 (in-place)
I0120 22:52:41.543252 11395 net.cpp:150] Setting up seg_drop6
I0120 22:52:41.543258 11395 net.cpp:157] Top shape: 8 1024 38 38 (11829248)
I0120 22:52:41.543260 11395 net.cpp:165] Memory required for data: 2052958272
I0120 22:52:41.543262 11395 layer_factory.hpp:77] Creating layer seg7
I0120 22:52:41.543272 11395 net.cpp:100] Creating Layer seg7
I0120 22:52:41.543274 11395 net.cpp:434] seg7 <- seg6
I0120 22:52:41.543279 11395 net.cpp:408] seg7 -> seg7
I0120 22:52:41.549978 11395 net.cpp:150] Setting up seg7
I0120 22:52:41.549991 11395 net.cpp:157] Top shape: 8 1024 38 38 (11829248)
I0120 22:52:41.549993 11395 net.cpp:165] Memory required for data: 2100275264
I0120 22:52:41.550000 11395 layer_factory.hpp:77] Creating layer seg_relu7
I0120 22:52:41.550005 11395 net.cpp:100] Creating Layer seg_relu7
I0120 22:52:41.550009 11395 net.cpp:434] seg_relu7 <- seg7
I0120 22:52:41.550014 11395 net.cpp:395] seg_relu7 -> seg7 (in-place)
I0120 22:52:41.550179 11395 net.cpp:150] Setting up seg_relu7
I0120 22:52:41.550186 11395 net.cpp:157] Top shape: 8 1024 38 38 (11829248)
I0120 22:52:41.550189 11395 net.cpp:165] Memory required for data: 2147592256
I0120 22:52:41.550191 11395 layer_factory.hpp:77] Creating layer seg7_seg_relu7_0_split
I0120 22:52:41.550199 11395 net.cpp:100] Creating Layer seg7_seg_relu7_0_split
I0120 22:52:41.550202 11395 net.cpp:434] seg7_seg_relu7_0_split <- seg7
I0120 22:52:41.550210 11395 net.cpp:408] seg7_seg_relu7_0_split -> seg7_seg_relu7_0_split_0
I0120 22:52:41.550217 11395 net.cpp:408] seg7_seg_relu7_0_split -> seg7_seg_relu7_0_split_1
I0120 22:52:41.550273 11395 net.cpp:150] Setting up seg7_seg_relu7_0_split
I0120 22:52:41.550282 11395 net.cpp:157] Top shape: 8 1024 38 38 (11829248)
I0120 22:52:41.550287 11395 net.cpp:157] Top shape: 8 1024 38 38 (11829248)
I0120 22:52:41.550289 11395 net.cpp:165] Memory required for data: 2242226240
I0120 22:52:41.550292 11395 layer_factory.hpp:77] Creating layer seg_drop7
I0120 22:52:41.550298 11395 net.cpp:100] Creating Layer seg_drop7
I0120 22:52:41.550303 11395 net.cpp:434] seg_drop7 <- seg7_seg_relu7_0_split_0
I0120 22:52:41.550310 11395 net.cpp:408] seg_drop7 -> seg7d
I0120 22:52:41.550359 11395 net.cpp:150] Setting up seg_drop7
I0120 22:52:41.550367 11395 net.cpp:157] Top shape: 8 1024 38 38 (11829248)
I0120 22:52:41.550370 11395 net.cpp:165] Memory required for data: 2289543232
I0120 22:52:41.550374 11395 layer_factory.hpp:77] Creating layer seg
I0120 22:52:41.550384 11395 net.cpp:100] Creating Layer seg
I0120 22:52:41.550388 11395 net.cpp:434] seg <- seg7d
I0120 22:52:41.550393 11395 net.cpp:408] seg -> seg
I0120 22:52:41.551551 11395 net.cpp:150] Setting up seg
I0120 22:52:41.551578 11395 net.cpp:157] Top shape: 8 21 38 38 (242592)
I0120 22:52:41.551580 11395 net.cpp:165] Memory required for data: 2290513600
I0120 22:52:41.551586 11395 layer_factory.hpp:77] Creating layer seg_seg_0_split
I0120 22:52:41.551590 11395 net.cpp:100] Creating Layer seg_seg_0_split
I0120 22:52:41.551594 11395 net.cpp:434] seg_seg_0_split <- seg
I0120 22:52:41.551599 11395 net.cpp:408] seg_seg_0_split -> seg_seg_0_split_0
I0120 22:52:41.551604 11395 net.cpp:408] seg_seg_0_split -> seg_seg_0_split_1
I0120 22:52:41.551640 11395 net.cpp:150] Setting up seg_seg_0_split
I0120 22:52:41.551645 11395 net.cpp:157] Top shape: 8 21 38 38 (242592)
I0120 22:52:41.551647 11395 net.cpp:157] Top shape: 8 21 38 38 (242592)
I0120 22:52:41.551651 11395 net.cpp:165] Memory required for data: 2292454336
I0120 22:52:41.551652 11395 layer_factory.hpp:77] Creating layer seg_gt
I0120 22:52:41.551658 11395 net.cpp:100] Creating Layer seg_gt
I0120 22:52:41.551661 11395 net.cpp:434] seg_gt <- label_data_1_split_0
I0120 22:52:41.551664 11395 net.cpp:434] seg_gt <- seg_seg_0_split_0
I0120 22:52:41.551667 11395 net.cpp:408] seg_gt -> seg_gt
I0120 22:52:41.551697 11395 net.cpp:150] Setting up seg_gt
I0120 22:52:41.551702 11395 net.cpp:157] Top shape: 8 1 38 38 (11552)
I0120 22:52:41.551705 11395 net.cpp:165] Memory required for data: 2292500544
I0120 22:52:41.551707 11395 layer_factory.hpp:77] Creating layer seg_loss
I0120 22:52:41.551713 11395 net.cpp:100] Creating Layer seg_loss
I0120 22:52:41.551715 11395 net.cpp:434] seg_loss <- seg_seg_0_split_1
I0120 22:52:41.551719 11395 net.cpp:434] seg_loss <- seg_gt
I0120 22:52:41.551723 11395 net.cpp:408] seg_loss -> seg_loss
I0120 22:52:41.551733 11395 layer_factory.hpp:77] Creating layer seg_loss
I0120 22:52:41.552861 11395 net.cpp:150] Setting up seg_loss
I0120 22:52:41.552872 11395 net.cpp:157] Top shape: (1)
I0120 22:52:41.552875 11395 net.cpp:160]     with loss weight 0.1
I0120 22:52:41.552891 11395 net.cpp:165] Memory required for data: 2292500548
I0120 22:52:41.552893 11395 layer_factory.hpp:77] Creating layer seg_to_det_conv
I0120 22:52:41.552911 11395 net.cpp:100] Creating Layer seg_to_det_conv
I0120 22:52:41.552916 11395 net.cpp:434] seg_to_det_conv <- seg7_seg_relu7_0_split_1
I0120 22:52:41.552920 11395 net.cpp:408] seg_to_det_conv -> seg_to_det_conv
I0120 22:52:41.556841 11395 net.cpp:150] Setting up seg_to_det_conv
I0120 22:52:41.556855 11395 net.cpp:157] Top shape: 8 512 38 38 (5914624)
I0120 22:52:41.556857 11395 net.cpp:165] Memory required for data: 2316159044
I0120 22:52:41.556867 11395 layer_factory.hpp:77] Creating layer mult_conv4_3
I0120 22:52:41.556874 11395 net.cpp:100] Creating Layer mult_conv4_3
I0120 22:52:41.556877 11395 net.cpp:434] mult_conv4_3 <- conv4_3_ori_relu4_3_0_split_1
I0120 22:52:41.556881 11395 net.cpp:434] mult_conv4_3 <- seg_to_det_conv
I0120 22:52:41.556886 11395 net.cpp:408] mult_conv4_3 -> conv4_3_t
I0120 22:52:41.556921 11395 net.cpp:150] Setting up mult_conv4_3
I0120 22:52:41.556928 11395 net.cpp:157] Top shape: 8 512 38 38 (5914624)
I0120 22:52:41.556931 11395 net.cpp:165] Memory required for data: 2339817540
I0120 22:52:41.556932 11395 layer_factory.hpp:77] Creating layer conv4_3_t_mult_conv4_3_0_split
I0120 22:52:41.556937 11395 net.cpp:100] Creating Layer conv4_3_t_mult_conv4_3_0_split
I0120 22:52:41.556939 11395 net.cpp:434] conv4_3_t_mult_conv4_3_0_split <- conv4_3_t
I0120 22:52:41.556944 11395 net.cpp:408] conv4_3_t_mult_conv4_3_0_split -> conv4_3_t_mult_conv4_3_0_split_0
I0120 22:52:41.556949 11395 net.cpp:408] conv4_3_t_mult_conv4_3_0_split -> conv4_3_t_mult_conv4_3_0_split_1
I0120 22:52:41.556982 11395 net.cpp:150] Setting up conv4_3_t_mult_conv4_3_0_split
I0120 22:52:41.556988 11395 net.cpp:157] Top shape: 8 512 38 38 (5914624)
I0120 22:52:41.556990 11395 net.cpp:157] Top shape: 8 512 38 38 (5914624)
I0120 22:52:41.556999 11395 net.cpp:165] Memory required for data: 2387134532
I0120 22:52:41.557001 11395 layer_factory.hpp:77] Creating layer conv4_3_s
I0120 22:52:41.557008 11395 net.cpp:100] Creating Layer conv4_3_s
I0120 22:52:41.557021 11395 net.cpp:434] conv4_3_s <- conv4_3_t_mult_conv4_3_0_split_0
I0120 22:52:41.557029 11395 net.cpp:408] conv4_3_s -> conv4_3_s
I0120 22:52:41.557250 11395 net.cpp:150] Setting up conv4_3_s
I0120 22:52:41.557260 11395 net.cpp:157] Top shape: 8 512 1 1 (4096)
I0120 22:52:41.557263 11395 net.cpp:165] Memory required for data: 2387150916
I0120 22:52:41.557266 11395 layer_factory.hpp:77] Creating layer conv4_3_fc1
I0120 22:52:41.557274 11395 net.cpp:100] Creating Layer conv4_3_fc1
I0120 22:52:41.557277 11395 net.cpp:434] conv4_3_fc1 <- conv4_3_s
I0120 22:52:41.557283 11395 net.cpp:408] conv4_3_fc1 -> conv4_3_fc1
I0120 22:52:41.559875 11395 net.cpp:150] Setting up conv4_3_fc1
I0120 22:52:41.559890 11395 net.cpp:157] Top shape: 8 128 1 1 (1024)
I0120 22:52:41.559893 11395 net.cpp:165] Memory required for data: 2387155012
I0120 22:52:41.559900 11395 layer_factory.hpp:77] Creating layer conv4_3_relu
I0120 22:52:41.559904 11395 net.cpp:100] Creating Layer conv4_3_relu
I0120 22:52:41.559907 11395 net.cpp:434] conv4_3_relu <- conv4_3_fc1
I0120 22:52:41.559911 11395 net.cpp:395] conv4_3_relu -> conv4_3_fc1 (in-place)
I0120 22:52:41.560305 11395 net.cpp:150] Setting up conv4_3_relu
I0120 22:52:41.560317 11395 net.cpp:157] Top shape: 8 128 1 1 (1024)
I0120 22:52:41.560319 11395 net.cpp:165] Memory required for data: 2387159108
I0120 22:52:41.560322 11395 layer_factory.hpp:77] Creating layer conv4_3_fc2
I0120 22:52:41.560330 11395 net.cpp:100] Creating Layer conv4_3_fc2
I0120 22:52:41.560333 11395 net.cpp:434] conv4_3_fc2 <- conv4_3_fc1
I0120 22:52:41.560340 11395 net.cpp:408] conv4_3_fc2 -> conv4_3_fc2
I0120 22:52:41.561616 11395 net.cpp:150] Setting up conv4_3_fc2
I0120 22:52:41.561630 11395 net.cpp:157] Top shape: 8 512 1 1 (4096)
I0120 22:52:41.561632 11395 net.cpp:165] Memory required for data: 2387175492
I0120 22:52:41.561637 11395 layer_factory.hpp:77] Creating layer conv4_3_sig
I0120 22:52:41.561642 11395 net.cpp:100] Creating Layer conv4_3_sig
I0120 22:52:41.561645 11395 net.cpp:434] conv4_3_sig <- conv4_3_fc2
I0120 22:52:41.561650 11395 net.cpp:395] conv4_3_sig -> conv4_3_fc2 (in-place)
I0120 22:52:41.561803 11395 net.cpp:150] Setting up conv4_3_sig
I0120 22:52:41.561815 11395 net.cpp:157] Top shape: 8 512 1 1 (4096)
I0120 22:52:41.561820 11395 net.cpp:165] Memory required for data: 2387191876
I0120 22:52:41.561823 11395 layer_factory.hpp:77] Creating layer conv4_3_reshape
I0120 22:52:41.561835 11395 net.cpp:100] Creating Layer conv4_3_reshape
I0120 22:52:41.561838 11395 net.cpp:434] conv4_3_reshape <- conv4_3_fc2
I0120 22:52:41.561846 11395 net.cpp:408] conv4_3_reshape -> conv4_3_reshape
I0120 22:52:41.561883 11395 net.cpp:150] Setting up conv4_3_reshape
I0120 22:52:41.561887 11395 net.cpp:157] Top shape: 8 512 (4096)
I0120 22:52:41.561889 11395 net.cpp:165] Memory required for data: 2387208260
I0120 22:52:41.561892 11395 layer_factory.hpp:77] Creating layer conv4_3_scale
I0120 22:52:41.561897 11395 net.cpp:100] Creating Layer conv4_3_scale
I0120 22:52:41.561900 11395 net.cpp:434] conv4_3_scale <- conv4_3_t_mult_conv4_3_0_split_1
I0120 22:52:41.561903 11395 net.cpp:434] conv4_3_scale <- conv4_3_reshape
I0120 22:52:41.561909 11395 net.cpp:408] conv4_3_scale -> conv4_3
I0120 22:52:41.561997 11395 net.cpp:150] Setting up conv4_3_scale
I0120 22:52:41.562005 11395 net.cpp:157] Top shape: 8 512 38 38 (5914624)
I0120 22:52:41.562007 11395 net.cpp:165] Memory required for data: 2410866756
I0120 22:52:41.562011 11395 layer_factory.hpp:77] Creating layer conv4_3_conv4_3_scale_0_split
I0120 22:52:41.562016 11395 net.cpp:100] Creating Layer conv4_3_conv4_3_scale_0_split
I0120 22:52:41.562018 11395 net.cpp:434] conv4_3_conv4_3_scale_0_split <- conv4_3
I0120 22:52:41.562022 11395 net.cpp:408] conv4_3_conv4_3_scale_0_split -> conv4_3_conv4_3_scale_0_split_0
I0120 22:52:41.562032 11395 net.cpp:408] conv4_3_conv4_3_scale_0_split -> conv4_3_conv4_3_scale_0_split_1
I0120 22:52:41.562081 11395 net.cpp:150] Setting up conv4_3_conv4_3_scale_0_split
I0120 22:52:41.562088 11395 net.cpp:157] Top shape: 8 512 38 38 (5914624)
I0120 22:52:41.562105 11395 net.cpp:157] Top shape: 8 512 38 38 (5914624)
I0120 22:52:41.562110 11395 net.cpp:165] Memory required for data: 2458183748
I0120 22:52:41.562114 11395 layer_factory.hpp:77] Creating layer pool4
I0120 22:52:41.562121 11395 net.cpp:100] Creating Layer pool4
I0120 22:52:41.562124 11395 net.cpp:434] pool4 <- conv4_3_conv4_3_scale_0_split_0
I0120 22:52:41.562129 11395 net.cpp:408] pool4 -> pool4
I0120 22:52:41.562166 11395 net.cpp:150] Setting up pool4
I0120 22:52:41.562170 11395 net.cpp:157] Top shape: 8 512 19 19 (1478656)
I0120 22:52:41.562172 11395 net.cpp:165] Memory required for data: 2464098372
I0120 22:52:41.562175 11395 layer_factory.hpp:77] Creating layer conv5_1
I0120 22:52:41.562185 11395 net.cpp:100] Creating Layer conv5_1
I0120 22:52:41.562186 11395 net.cpp:434] conv5_1 <- pool4
I0120 22:52:41.562191 11395 net.cpp:408] conv5_1 -> conv5_1
I0120 22:52:41.575733 11395 net.cpp:150] Setting up conv5_1
I0120 22:52:41.575752 11395 net.cpp:157] Top shape: 8 512 19 19 (1478656)
I0120 22:52:41.575755 11395 net.cpp:165] Memory required for data: 2470012996
I0120 22:52:41.575762 11395 layer_factory.hpp:77] Creating layer relu5_1
I0120 22:52:41.575768 11395 net.cpp:100] Creating Layer relu5_1
I0120 22:52:41.575772 11395 net.cpp:434] relu5_1 <- conv5_1
I0120 22:52:41.575775 11395 net.cpp:395] relu5_1 -> conv5_1 (in-place)
I0120 22:52:41.575958 11395 net.cpp:150] Setting up relu5_1
I0120 22:52:41.575969 11395 net.cpp:157] Top shape: 8 512 19 19 (1478656)
I0120 22:52:41.575973 11395 net.cpp:165] Memory required for data: 2475927620
I0120 22:52:41.575974 11395 layer_factory.hpp:77] Creating layer conv5_2
I0120 22:52:41.575984 11395 net.cpp:100] Creating Layer conv5_2
I0120 22:52:41.575987 11395 net.cpp:434] conv5_2 <- conv5_1
I0120 22:52:41.575992 11395 net.cpp:408] conv5_2 -> conv5_2
I0120 22:52:41.590108 11395 net.cpp:150] Setting up conv5_2
I0120 22:52:41.590126 11395 net.cpp:157] Top shape: 8 512 19 19 (1478656)
I0120 22:52:41.590129 11395 net.cpp:165] Memory required for data: 2481842244
I0120 22:52:41.590135 11395 layer_factory.hpp:77] Creating layer relu5_2
I0120 22:52:41.590142 11395 net.cpp:100] Creating Layer relu5_2
I0120 22:52:41.590144 11395 net.cpp:434] relu5_2 <- conv5_2
I0120 22:52:41.590150 11395 net.cpp:395] relu5_2 -> conv5_2 (in-place)
I0120 22:52:41.590590 11395 net.cpp:150] Setting up relu5_2
I0120 22:52:41.590601 11395 net.cpp:157] Top shape: 8 512 19 19 (1478656)
I0120 22:52:41.590605 11395 net.cpp:165] Memory required for data: 2487756868
I0120 22:52:41.590607 11395 layer_factory.hpp:77] Creating layer conv5_3
I0120 22:52:41.590617 11395 net.cpp:100] Creating Layer conv5_3
I0120 22:52:41.590620 11395 net.cpp:434] conv5_3 <- conv5_2
I0120 22:52:41.590626 11395 net.cpp:408] conv5_3 -> conv5_3
I0120 22:52:41.604077 11395 net.cpp:150] Setting up conv5_3
I0120 22:52:41.604094 11395 net.cpp:157] Top shape: 8 512 19 19 (1478656)
I0120 22:52:41.604097 11395 net.cpp:165] Memory required for data: 2493671492
I0120 22:52:41.604104 11395 layer_factory.hpp:77] Creating layer relu5_3
I0120 22:52:41.604112 11395 net.cpp:100] Creating Layer relu5_3
I0120 22:52:41.604115 11395 net.cpp:434] relu5_3 <- conv5_3
I0120 22:52:41.604120 11395 net.cpp:395] relu5_3 -> conv5_3 (in-place)
I0120 22:52:41.604280 11395 net.cpp:150] Setting up relu5_3
I0120 22:52:41.604290 11395 net.cpp:157] Top shape: 8 512 19 19 (1478656)
I0120 22:52:41.604292 11395 net.cpp:165] Memory required for data: 2499586116
I0120 22:52:41.604295 11395 layer_factory.hpp:77] Creating layer pool5
I0120 22:52:41.604310 11395 net.cpp:100] Creating Layer pool5
I0120 22:52:41.604313 11395 net.cpp:434] pool5 <- conv5_3
I0120 22:52:41.604317 11395 net.cpp:408] pool5 -> pool5
I0120 22:52:41.604367 11395 net.cpp:150] Setting up pool5
I0120 22:52:41.604374 11395 net.cpp:157] Top shape: 8 512 19 19 (1478656)
I0120 22:52:41.604377 11395 net.cpp:165] Memory required for data: 2505500740
I0120 22:52:41.604380 11395 layer_factory.hpp:77] Creating layer fc6
I0120 22:52:41.604393 11395 net.cpp:100] Creating Layer fc6
I0120 22:52:41.604396 11395 net.cpp:434] fc6 <- pool5
I0120 22:52:41.604431 11395 net.cpp:408] fc6 -> fc6
I0120 22:52:41.630028 11395 net.cpp:150] Setting up fc6
I0120 22:52:41.630055 11395 net.cpp:157] Top shape: 8 1024 19 19 (2957312)
I0120 22:52:41.630059 11395 net.cpp:165] Memory required for data: 2517329988
I0120 22:52:41.630066 11395 layer_factory.hpp:77] Creating layer relu6
I0120 22:52:41.630075 11395 net.cpp:100] Creating Layer relu6
I0120 22:52:41.630079 11395 net.cpp:434] relu6 <- fc6
I0120 22:52:41.630087 11395 net.cpp:395] relu6 -> fc6 (in-place)
I0120 22:52:41.630340 11395 net.cpp:150] Setting up relu6
I0120 22:52:41.630350 11395 net.cpp:157] Top shape: 8 1024 19 19 (2957312)
I0120 22:52:41.630352 11395 net.cpp:165] Memory required for data: 2529159236
I0120 22:52:41.630354 11395 layer_factory.hpp:77] Creating layer fc7
I0120 22:52:41.630368 11395 net.cpp:100] Creating Layer fc7
I0120 22:52:41.630372 11395 net.cpp:434] fc7 <- fc6
I0120 22:52:41.630376 11395 net.cpp:408] fc7 -> fc7_t
I0120 22:52:41.637193 11395 net.cpp:150] Setting up fc7
I0120 22:52:41.637207 11395 net.cpp:157] Top shape: 8 1024 19 19 (2957312)
I0120 22:52:41.637209 11395 net.cpp:165] Memory required for data: 2540988484
I0120 22:52:41.637215 11395 layer_factory.hpp:77] Creating layer relu7
I0120 22:52:41.637219 11395 net.cpp:100] Creating Layer relu7
I0120 22:52:41.637225 11395 net.cpp:434] relu7 <- fc7_t
I0120 22:52:41.637228 11395 net.cpp:395] relu7 -> fc7_t (in-place)
I0120 22:52:41.638942 11395 net.cpp:150] Setting up relu7
I0120 22:52:41.638954 11395 net.cpp:157] Top shape: 8 1024 19 19 (2957312)
I0120 22:52:41.638957 11395 net.cpp:165] Memory required for data: 2552817732
I0120 22:52:41.638959 11395 layer_factory.hpp:77] Creating layer fc7_t_relu7_0_split
I0120 22:52:41.638967 11395 net.cpp:100] Creating Layer fc7_t_relu7_0_split
I0120 22:52:41.638969 11395 net.cpp:434] fc7_t_relu7_0_split <- fc7_t
I0120 22:52:41.638973 11395 net.cpp:408] fc7_t_relu7_0_split -> fc7_t_relu7_0_split_0
I0120 22:52:41.638979 11395 net.cpp:408] fc7_t_relu7_0_split -> fc7_t_relu7_0_split_1
I0120 22:52:41.639021 11395 net.cpp:150] Setting up fc7_t_relu7_0_split
I0120 22:52:41.639025 11395 net.cpp:157] Top shape: 8 1024 19 19 (2957312)
I0120 22:52:41.639029 11395 net.cpp:157] Top shape: 8 1024 19 19 (2957312)
I0120 22:52:41.639030 11395 net.cpp:165] Memory required for data: 2576476228
I0120 22:52:41.639032 11395 layer_factory.hpp:77] Creating layer fc7_s
I0120 22:52:41.639039 11395 net.cpp:100] Creating Layer fc7_s
I0120 22:52:41.639041 11395 net.cpp:434] fc7_s <- fc7_t_relu7_0_split_0
I0120 22:52:41.639045 11395 net.cpp:408] fc7_s -> fc7_s
I0120 22:52:41.639240 11395 net.cpp:150] Setting up fc7_s
I0120 22:52:41.639250 11395 net.cpp:157] Top shape: 8 1024 1 1 (8192)
I0120 22:52:41.639253 11395 net.cpp:165] Memory required for data: 2576508996
I0120 22:52:41.639256 11395 layer_factory.hpp:77] Creating layer fc7_fc1
I0120 22:52:41.639266 11395 net.cpp:100] Creating Layer fc7_fc1
I0120 22:52:41.639268 11395 net.cpp:434] fc7_fc1 <- fc7_s
I0120 22:52:41.639274 11395 net.cpp:408] fc7_fc1 -> fc7_fc1
I0120 22:52:41.641439 11395 net.cpp:150] Setting up fc7_fc1
I0120 22:52:41.641451 11395 net.cpp:157] Top shape: 8 256 1 1 (2048)
I0120 22:52:41.641454 11395 net.cpp:165] Memory required for data: 2576517188
I0120 22:52:41.641460 11395 layer_factory.hpp:77] Creating layer fc7_relu
I0120 22:52:41.641465 11395 net.cpp:100] Creating Layer fc7_relu
I0120 22:52:41.641468 11395 net.cpp:434] fc7_relu <- fc7_fc1
I0120 22:52:41.641474 11395 net.cpp:395] fc7_relu -> fc7_fc1 (in-place)
I0120 22:52:41.641635 11395 net.cpp:150] Setting up fc7_relu
I0120 22:52:41.641644 11395 net.cpp:157] Top shape: 8 256 1 1 (2048)
I0120 22:52:41.641645 11395 net.cpp:165] Memory required for data: 2576525380
I0120 22:52:41.641649 11395 layer_factory.hpp:77] Creating layer fc7_fc2
I0120 22:52:41.641656 11395 net.cpp:100] Creating Layer fc7_fc2
I0120 22:52:41.641659 11395 net.cpp:434] fc7_fc2 <- fc7_fc1
I0120 22:52:41.641664 11395 net.cpp:408] fc7_fc2 -> fc7_fc2
I0120 22:52:41.644513 11395 net.cpp:150] Setting up fc7_fc2
I0120 22:52:41.644542 11395 net.cpp:157] Top shape: 8 1024 1 1 (8192)
I0120 22:52:41.644546 11395 net.cpp:165] Memory required for data: 2576558148
I0120 22:52:41.644551 11395 layer_factory.hpp:77] Creating layer fc7_sig
I0120 22:52:41.644556 11395 net.cpp:100] Creating Layer fc7_sig
I0120 22:52:41.644558 11395 net.cpp:434] fc7_sig <- fc7_fc2
I0120 22:52:41.644562 11395 net.cpp:395] fc7_sig -> fc7_fc2 (in-place)
I0120 22:52:41.644724 11395 net.cpp:150] Setting up fc7_sig
I0120 22:52:41.644732 11395 net.cpp:157] Top shape: 8 1024 1 1 (8192)
I0120 22:52:41.644735 11395 net.cpp:165] Memory required for data: 2576590916
I0120 22:52:41.644737 11395 layer_factory.hpp:77] Creating layer fc7_reshape
I0120 22:52:41.644743 11395 net.cpp:100] Creating Layer fc7_reshape
I0120 22:52:41.644745 11395 net.cpp:434] fc7_reshape <- fc7_fc2
I0120 22:52:41.644750 11395 net.cpp:408] fc7_reshape -> fc7_reshape
I0120 22:52:41.644795 11395 net.cpp:150] Setting up fc7_reshape
I0120 22:52:41.644800 11395 net.cpp:157] Top shape: 8 1024 (8192)
I0120 22:52:41.644803 11395 net.cpp:165] Memory required for data: 2576623684
I0120 22:52:41.644805 11395 layer_factory.hpp:77] Creating layer fc7_scale
I0120 22:52:41.644812 11395 net.cpp:100] Creating Layer fc7_scale
I0120 22:52:41.644814 11395 net.cpp:434] fc7_scale <- fc7_t_relu7_0_split_1
I0120 22:52:41.644817 11395 net.cpp:434] fc7_scale <- fc7_reshape
I0120 22:52:41.644824 11395 net.cpp:408] fc7_scale -> fc7
I0120 22:52:41.644922 11395 net.cpp:150] Setting up fc7_scale
I0120 22:52:41.644929 11395 net.cpp:157] Top shape: 8 1024 19 19 (2957312)
I0120 22:52:41.644930 11395 net.cpp:165] Memory required for data: 2588452932
I0120 22:52:41.644933 11395 layer_factory.hpp:77] Creating layer fc7_fc7_scale_0_split
I0120 22:52:41.644942 11395 net.cpp:100] Creating Layer fc7_fc7_scale_0_split
I0120 22:52:41.644946 11395 net.cpp:434] fc7_fc7_scale_0_split <- fc7
I0120 22:52:41.644953 11395 net.cpp:408] fc7_fc7_scale_0_split -> fc7_fc7_scale_0_split_0
I0120 22:52:41.644963 11395 net.cpp:408] fc7_fc7_scale_0_split -> fc7_fc7_scale_0_split_1
I0120 22:52:41.644969 11395 net.cpp:408] fc7_fc7_scale_0_split -> fc7_fc7_scale_0_split_2
I0120 22:52:41.644975 11395 net.cpp:408] fc7_fc7_scale_0_split -> fc7_fc7_scale_0_split_3
I0120 22:52:41.645064 11395 net.cpp:150] Setting up fc7_fc7_scale_0_split
I0120 22:52:41.645071 11395 net.cpp:157] Top shape: 8 1024 19 19 (2957312)
I0120 22:52:41.645073 11395 net.cpp:157] Top shape: 8 1024 19 19 (2957312)
I0120 22:52:41.645076 11395 net.cpp:157] Top shape: 8 1024 19 19 (2957312)
I0120 22:52:41.645078 11395 net.cpp:157] Top shape: 8 1024 19 19 (2957312)
I0120 22:52:41.645081 11395 net.cpp:165] Memory required for data: 2635769924
I0120 22:52:41.645082 11395 layer_factory.hpp:77] Creating layer conv6_1
I0120 22:52:41.645092 11395 net.cpp:100] Creating Layer conv6_1
I0120 22:52:41.645093 11395 net.cpp:434] conv6_1 <- fc7_fc7_scale_0_split_0
I0120 22:52:41.645099 11395 net.cpp:408] conv6_1 -> conv6_1
I0120 22:52:41.647205 11395 net.cpp:150] Setting up conv6_1
I0120 22:52:41.647218 11395 net.cpp:157] Top shape: 8 256 19 19 (739328)
I0120 22:52:41.647220 11395 net.cpp:165] Memory required for data: 2638727236
I0120 22:52:41.647227 11395 layer_factory.hpp:77] Creating layer conv6_1_relu
I0120 22:52:41.647230 11395 net.cpp:100] Creating Layer conv6_1_relu
I0120 22:52:41.647233 11395 net.cpp:434] conv6_1_relu <- conv6_1
I0120 22:52:41.647238 11395 net.cpp:395] conv6_1_relu -> conv6_1 (in-place)
I0120 22:52:41.647660 11395 net.cpp:150] Setting up conv6_1_relu
I0120 22:52:41.647671 11395 net.cpp:157] Top shape: 8 256 19 19 (739328)
I0120 22:52:41.647673 11395 net.cpp:165] Memory required for data: 2641684548
I0120 22:52:41.647675 11395 layer_factory.hpp:77] Creating layer conv6_2
I0120 22:52:41.647686 11395 net.cpp:100] Creating Layer conv6_2
I0120 22:52:41.647688 11395 net.cpp:434] conv6_2 <- conv6_1
I0120 22:52:41.647693 11395 net.cpp:408] conv6_2 -> conv6_2_t
I0120 22:52:41.655285 11395 net.cpp:150] Setting up conv6_2
I0120 22:52:41.655297 11395 net.cpp:157] Top shape: 8 512 10 10 (409600)
I0120 22:52:41.655313 11395 net.cpp:165] Memory required for data: 2643322948
I0120 22:52:41.655319 11395 layer_factory.hpp:77] Creating layer conv6_2_relu
I0120 22:52:41.655325 11395 net.cpp:100] Creating Layer conv6_2_relu
I0120 22:52:41.655328 11395 net.cpp:434] conv6_2_relu <- conv6_2_t
I0120 22:52:41.655333 11395 net.cpp:395] conv6_2_relu -> conv6_2_t (in-place)
I0120 22:52:41.655525 11395 net.cpp:150] Setting up conv6_2_relu
I0120 22:52:41.655534 11395 net.cpp:157] Top shape: 8 512 10 10 (409600)
I0120 22:52:41.655536 11395 net.cpp:165] Memory required for data: 2644961348
I0120 22:52:41.655539 11395 layer_factory.hpp:77] Creating layer conv6_2_t_conv6_2_relu_0_split
I0120 22:52:41.655545 11395 net.cpp:100] Creating Layer conv6_2_t_conv6_2_relu_0_split
I0120 22:52:41.655547 11395 net.cpp:434] conv6_2_t_conv6_2_relu_0_split <- conv6_2_t
I0120 22:52:41.655552 11395 net.cpp:408] conv6_2_t_conv6_2_relu_0_split -> conv6_2_t_conv6_2_relu_0_split_0
I0120 22:52:41.655560 11395 net.cpp:408] conv6_2_t_conv6_2_relu_0_split -> conv6_2_t_conv6_2_relu_0_split_1
I0120 22:52:41.655604 11395 net.cpp:150] Setting up conv6_2_t_conv6_2_relu_0_split
I0120 22:52:41.655609 11395 net.cpp:157] Top shape: 8 512 10 10 (409600)
I0120 22:52:41.655612 11395 net.cpp:157] Top shape: 8 512 10 10 (409600)
I0120 22:52:41.655614 11395 net.cpp:165] Memory required for data: 2648238148
I0120 22:52:41.655616 11395 layer_factory.hpp:77] Creating layer conv6_2_s
I0120 22:52:41.655622 11395 net.cpp:100] Creating Layer conv6_2_s
I0120 22:52:41.655623 11395 net.cpp:434] conv6_2_s <- conv6_2_t_conv6_2_relu_0_split_0
I0120 22:52:41.655628 11395 net.cpp:408] conv6_2_s -> conv6_2_s
I0120 22:52:41.655833 11395 net.cpp:150] Setting up conv6_2_s
I0120 22:52:41.655841 11395 net.cpp:157] Top shape: 8 512 1 1 (4096)
I0120 22:52:41.655843 11395 net.cpp:165] Memory required for data: 2648254532
I0120 22:52:41.655846 11395 layer_factory.hpp:77] Creating layer conv6_2_fc1
I0120 22:52:41.655855 11395 net.cpp:100] Creating Layer conv6_2_fc1
I0120 22:52:41.655858 11395 net.cpp:434] conv6_2_fc1 <- conv6_2_s
I0120 22:52:41.655864 11395 net.cpp:408] conv6_2_fc1 -> conv6_2_fc1
I0120 22:52:41.657167 11395 net.cpp:150] Setting up conv6_2_fc1
I0120 22:52:41.657179 11395 net.cpp:157] Top shape: 8 128 1 1 (1024)
I0120 22:52:41.657181 11395 net.cpp:165] Memory required for data: 2648258628
I0120 22:52:41.657186 11395 layer_factory.hpp:77] Creating layer conv6_2_relu
I0120 22:52:41.657192 11395 net.cpp:100] Creating Layer conv6_2_relu
I0120 22:52:41.657194 11395 net.cpp:434] conv6_2_relu <- conv6_2_fc1
I0120 22:52:41.657199 11395 net.cpp:395] conv6_2_relu -> conv6_2_fc1 (in-place)
I0120 22:52:41.659090 11395 net.cpp:150] Setting up conv6_2_relu
I0120 22:52:41.659103 11395 net.cpp:157] Top shape: 8 128 1 1 (1024)
I0120 22:52:41.659106 11395 net.cpp:165] Memory required for data: 2648262724
I0120 22:52:41.659108 11395 layer_factory.hpp:77] Creating layer conv6_2_fc2
I0120 22:52:41.659119 11395 net.cpp:100] Creating Layer conv6_2_fc2
I0120 22:52:41.659123 11395 net.cpp:434] conv6_2_fc2 <- conv6_2_fc1
I0120 22:52:41.659128 11395 net.cpp:408] conv6_2_fc2 -> conv6_2_fc2
I0120 22:52:41.660465 11395 net.cpp:150] Setting up conv6_2_fc2
I0120 22:52:41.660478 11395 net.cpp:157] Top shape: 8 512 1 1 (4096)
I0120 22:52:41.660481 11395 net.cpp:165] Memory required for data: 2648279108
I0120 22:52:41.660486 11395 layer_factory.hpp:77] Creating layer conv6_2_sig
I0120 22:52:41.660491 11395 net.cpp:100] Creating Layer conv6_2_sig
I0120 22:52:41.660493 11395 net.cpp:434] conv6_2_sig <- conv6_2_fc2
I0120 22:52:41.660498 11395 net.cpp:395] conv6_2_sig -> conv6_2_fc2 (in-place)
I0120 22:52:41.660671 11395 net.cpp:150] Setting up conv6_2_sig
I0120 22:52:41.660686 11395 net.cpp:157] Top shape: 8 512 1 1 (4096)
I0120 22:52:41.660688 11395 net.cpp:165] Memory required for data: 2648295492
I0120 22:52:41.660691 11395 layer_factory.hpp:77] Creating layer conv6_2_reshape
I0120 22:52:41.660697 11395 net.cpp:100] Creating Layer conv6_2_reshape
I0120 22:52:41.660699 11395 net.cpp:434] conv6_2_reshape <- conv6_2_fc2
I0120 22:52:41.660717 11395 net.cpp:408] conv6_2_reshape -> conv6_2_reshape
I0120 22:52:41.660751 11395 net.cpp:150] Setting up conv6_2_reshape
I0120 22:52:41.660756 11395 net.cpp:157] Top shape: 8 512 (4096)
I0120 22:52:41.660758 11395 net.cpp:165] Memory required for data: 2648311876
I0120 22:52:41.660759 11395 layer_factory.hpp:77] Creating layer conv6_2_scale
I0120 22:52:41.660765 11395 net.cpp:100] Creating Layer conv6_2_scale
I0120 22:52:41.660768 11395 net.cpp:434] conv6_2_scale <- conv6_2_t_conv6_2_relu_0_split_1
I0120 22:52:41.660771 11395 net.cpp:434] conv6_2_scale <- conv6_2_reshape
I0120 22:52:41.660775 11395 net.cpp:408] conv6_2_scale -> conv6_2
I0120 22:52:41.660857 11395 net.cpp:150] Setting up conv6_2_scale
I0120 22:52:41.660864 11395 net.cpp:157] Top shape: 8 512 10 10 (409600)
I0120 22:52:41.660867 11395 net.cpp:165] Memory required for data: 2649950276
I0120 22:52:41.660871 11395 layer_factory.hpp:77] Creating layer conv6_2_conv6_2_scale_0_split
I0120 22:52:41.660877 11395 net.cpp:100] Creating Layer conv6_2_conv6_2_scale_0_split
I0120 22:52:41.660881 11395 net.cpp:434] conv6_2_conv6_2_scale_0_split <- conv6_2
I0120 22:52:41.660889 11395 net.cpp:408] conv6_2_conv6_2_scale_0_split -> conv6_2_conv6_2_scale_0_split_0
I0120 22:52:41.660897 11395 net.cpp:408] conv6_2_conv6_2_scale_0_split -> conv6_2_conv6_2_scale_0_split_1
I0120 22:52:41.660902 11395 net.cpp:408] conv6_2_conv6_2_scale_0_split -> conv6_2_conv6_2_scale_0_split_2
I0120 22:52:41.660915 11395 net.cpp:408] conv6_2_conv6_2_scale_0_split -> conv6_2_conv6_2_scale_0_split_3
I0120 22:52:41.660980 11395 net.cpp:150] Setting up conv6_2_conv6_2_scale_0_split
I0120 22:52:41.660986 11395 net.cpp:157] Top shape: 8 512 10 10 (409600)
I0120 22:52:41.660992 11395 net.cpp:157] Top shape: 8 512 10 10 (409600)
I0120 22:52:41.660996 11395 net.cpp:157] Top shape: 8 512 10 10 (409600)
I0120 22:52:41.661000 11395 net.cpp:157] Top shape: 8 512 10 10 (409600)
I0120 22:52:41.661003 11395 net.cpp:165] Memory required for data: 2656503876
I0120 22:52:41.661006 11395 layer_factory.hpp:77] Creating layer conv7_1
I0120 22:52:41.661015 11395 net.cpp:100] Creating Layer conv7_1
I0120 22:52:41.661017 11395 net.cpp:434] conv7_1 <- conv6_2_conv6_2_scale_0_split_0
I0120 22:52:41.661026 11395 net.cpp:408] conv7_1 -> conv7_1
I0120 22:52:41.662324 11395 net.cpp:150] Setting up conv7_1
I0120 22:52:41.662336 11395 net.cpp:157] Top shape: 8 128 10 10 (102400)
I0120 22:52:41.662338 11395 net.cpp:165] Memory required for data: 2656913476
I0120 22:52:41.662343 11395 layer_factory.hpp:77] Creating layer conv7_1_relu
I0120 22:52:41.662350 11395 net.cpp:100] Creating Layer conv7_1_relu
I0120 22:52:41.662353 11395 net.cpp:434] conv7_1_relu <- conv7_1
I0120 22:52:41.662356 11395 net.cpp:395] conv7_1_relu -> conv7_1 (in-place)
I0120 22:52:41.662523 11395 net.cpp:150] Setting up conv7_1_relu
I0120 22:52:41.662533 11395 net.cpp:157] Top shape: 8 128 10 10 (102400)
I0120 22:52:41.662535 11395 net.cpp:165] Memory required for data: 2657323076
I0120 22:52:41.662537 11395 layer_factory.hpp:77] Creating layer conv7_2
I0120 22:52:41.662546 11395 net.cpp:100] Creating Layer conv7_2
I0120 22:52:41.662549 11395 net.cpp:434] conv7_2 <- conv7_1
I0120 22:52:41.662555 11395 net.cpp:408] conv7_2 -> conv7_2_t
I0120 22:52:41.665554 11395 net.cpp:150] Setting up conv7_2
I0120 22:52:41.665567 11395 net.cpp:157] Top shape: 8 256 5 5 (51200)
I0120 22:52:41.665570 11395 net.cpp:165] Memory required for data: 2657527876
I0120 22:52:41.665575 11395 layer_factory.hpp:77] Creating layer conv7_2_relu
I0120 22:52:41.665580 11395 net.cpp:100] Creating Layer conv7_2_relu
I0120 22:52:41.665583 11395 net.cpp:434] conv7_2_relu <- conv7_2_t
I0120 22:52:41.665588 11395 net.cpp:395] conv7_2_relu -> conv7_2_t (in-place)
I0120 22:52:41.666015 11395 net.cpp:150] Setting up conv7_2_relu
I0120 22:52:41.666026 11395 net.cpp:157] Top shape: 8 256 5 5 (51200)
I0120 22:52:41.666028 11395 net.cpp:165] Memory required for data: 2657732676
I0120 22:52:41.666031 11395 layer_factory.hpp:77] Creating layer conv7_2_t_conv7_2_relu_0_split
I0120 22:52:41.666048 11395 net.cpp:100] Creating Layer conv7_2_t_conv7_2_relu_0_split
I0120 22:52:41.666050 11395 net.cpp:434] conv7_2_t_conv7_2_relu_0_split <- conv7_2_t
I0120 22:52:41.666054 11395 net.cpp:408] conv7_2_t_conv7_2_relu_0_split -> conv7_2_t_conv7_2_relu_0_split_0
I0120 22:52:41.666061 11395 net.cpp:408] conv7_2_t_conv7_2_relu_0_split -> conv7_2_t_conv7_2_relu_0_split_1
I0120 22:52:41.666105 11395 net.cpp:150] Setting up conv7_2_t_conv7_2_relu_0_split
I0120 22:52:41.666118 11395 net.cpp:157] Top shape: 8 256 5 5 (51200)
I0120 22:52:41.666121 11395 net.cpp:157] Top shape: 8 256 5 5 (51200)
I0120 22:52:41.666123 11395 net.cpp:165] Memory required for data: 2658142276
I0120 22:52:41.666126 11395 layer_factory.hpp:77] Creating layer conv7_2_s
I0120 22:52:41.666132 11395 net.cpp:100] Creating Layer conv7_2_s
I0120 22:52:41.666134 11395 net.cpp:434] conv7_2_s <- conv7_2_t_conv7_2_relu_0_split_0
I0120 22:52:41.666138 11395 net.cpp:408] conv7_2_s -> conv7_2_s
I0120 22:52:41.666350 11395 net.cpp:150] Setting up conv7_2_s
I0120 22:52:41.666362 11395 net.cpp:157] Top shape: 8 256 1 1 (2048)
I0120 22:52:41.666363 11395 net.cpp:165] Memory required for data: 2658150468
I0120 22:52:41.666366 11395 layer_factory.hpp:77] Creating layer conv7_2_fc1
I0120 22:52:41.666375 11395 net.cpp:100] Creating Layer conv7_2_fc1
I0120 22:52:41.666378 11395 net.cpp:434] conv7_2_fc1 <- conv7_2_s
I0120 22:52:41.666384 11395 net.cpp:408] conv7_2_fc1 -> conv7_2_fc1
I0120 22:52:41.667481 11395 net.cpp:150] Setting up conv7_2_fc1
I0120 22:52:41.667492 11395 net.cpp:157] Top shape: 8 64 1 1 (512)
I0120 22:52:41.667495 11395 net.cpp:165] Memory required for data: 2658152516
I0120 22:52:41.667508 11395 layer_factory.hpp:77] Creating layer conv7_2_relu
I0120 22:52:41.667515 11395 net.cpp:100] Creating Layer conv7_2_relu
I0120 22:52:41.667517 11395 net.cpp:434] conv7_2_relu <- conv7_2_fc1
I0120 22:52:41.667520 11395 net.cpp:395] conv7_2_relu -> conv7_2_fc1 (in-place)
I0120 22:52:41.667695 11395 net.cpp:150] Setting up conv7_2_relu
I0120 22:52:41.667706 11395 net.cpp:157] Top shape: 8 64 1 1 (512)
I0120 22:52:41.667707 11395 net.cpp:165] Memory required for data: 2658154564
I0120 22:52:41.667711 11395 layer_factory.hpp:77] Creating layer conv7_2_fc2
I0120 22:52:41.667718 11395 net.cpp:100] Creating Layer conv7_2_fc2
I0120 22:52:41.667722 11395 net.cpp:434] conv7_2_fc2 <- conv7_2_fc1
I0120 22:52:41.667727 11395 net.cpp:408] conv7_2_fc2 -> conv7_2_fc2
I0120 22:52:41.669091 11395 net.cpp:150] Setting up conv7_2_fc2
I0120 22:52:41.669103 11395 net.cpp:157] Top shape: 8 256 1 1 (2048)
I0120 22:52:41.669106 11395 net.cpp:165] Memory required for data: 2658162756
I0120 22:52:41.669111 11395 layer_factory.hpp:77] Creating layer conv7_2_sig
I0120 22:52:41.669116 11395 net.cpp:100] Creating Layer conv7_2_sig
I0120 22:52:41.669119 11395 net.cpp:434] conv7_2_sig <- conv7_2_fc2
I0120 22:52:41.669124 11395 net.cpp:395] conv7_2_sig -> conv7_2_fc2 (in-place)
I0120 22:52:41.669299 11395 net.cpp:150] Setting up conv7_2_sig
I0120 22:52:41.669308 11395 net.cpp:157] Top shape: 8 256 1 1 (2048)
I0120 22:52:41.669311 11395 net.cpp:165] Memory required for data: 2658170948
I0120 22:52:41.669313 11395 layer_factory.hpp:77] Creating layer conv7_2_reshape
I0120 22:52:41.669318 11395 net.cpp:100] Creating Layer conv7_2_reshape
I0120 22:52:41.669320 11395 net.cpp:434] conv7_2_reshape <- conv7_2_fc2
I0120 22:52:41.669325 11395 net.cpp:408] conv7_2_reshape -> conv7_2_reshape
I0120 22:52:41.669355 11395 net.cpp:150] Setting up conv7_2_reshape
I0120 22:52:41.669359 11395 net.cpp:157] Top shape: 8 256 (2048)
I0120 22:52:41.669361 11395 net.cpp:165] Memory required for data: 2658179140
I0120 22:52:41.669363 11395 layer_factory.hpp:77] Creating layer conv7_2_scale
I0120 22:52:41.669369 11395 net.cpp:100] Creating Layer conv7_2_scale
I0120 22:52:41.669373 11395 net.cpp:434] conv7_2_scale <- conv7_2_t_conv7_2_relu_0_split_1
I0120 22:52:41.669375 11395 net.cpp:434] conv7_2_scale <- conv7_2_reshape
I0120 22:52:41.669380 11395 net.cpp:408] conv7_2_scale -> conv7_2
I0120 22:52:41.669467 11395 net.cpp:150] Setting up conv7_2_scale
I0120 22:52:41.669488 11395 net.cpp:157] Top shape: 8 256 5 5 (51200)
I0120 22:52:41.669490 11395 net.cpp:165] Memory required for data: 2658383940
I0120 22:52:41.669493 11395 layer_factory.hpp:77] Creating layer conv7_2_conv7_2_scale_0_split
I0120 22:52:41.669498 11395 net.cpp:100] Creating Layer conv7_2_conv7_2_scale_0_split
I0120 22:52:41.669500 11395 net.cpp:434] conv7_2_conv7_2_scale_0_split <- conv7_2
I0120 22:52:41.669505 11395 net.cpp:408] conv7_2_conv7_2_scale_0_split -> conv7_2_conv7_2_scale_0_split_0
I0120 22:52:41.669512 11395 net.cpp:408] conv7_2_conv7_2_scale_0_split -> conv7_2_conv7_2_scale_0_split_1
I0120 22:52:41.669515 11395 net.cpp:408] conv7_2_conv7_2_scale_0_split -> conv7_2_conv7_2_scale_0_split_2
I0120 22:52:41.669520 11395 net.cpp:408] conv7_2_conv7_2_scale_0_split -> conv7_2_conv7_2_scale_0_split_3
I0120 22:52:41.669598 11395 net.cpp:150] Setting up conv7_2_conv7_2_scale_0_split
I0120 22:52:41.669606 11395 net.cpp:157] Top shape: 8 256 5 5 (51200)
I0120 22:52:41.669610 11395 net.cpp:157] Top shape: 8 256 5 5 (51200)
I0120 22:52:41.669612 11395 net.cpp:157] Top shape: 8 256 5 5 (51200)
I0120 22:52:41.669615 11395 net.cpp:157] Top shape: 8 256 5 5 (51200)
I0120 22:52:41.669616 11395 net.cpp:165] Memory required for data: 2659203140
I0120 22:52:41.669618 11395 layer_factory.hpp:77] Creating layer conv8_1
I0120 22:52:41.669627 11395 net.cpp:100] Creating Layer conv8_1
I0120 22:52:41.669631 11395 net.cpp:434] conv8_1 <- conv7_2_conv7_2_scale_0_split_0
I0120 22:52:41.669638 11395 net.cpp:408] conv8_1 -> conv8_1
I0120 22:52:41.670765 11395 net.cpp:150] Setting up conv8_1
I0120 22:52:41.670776 11395 net.cpp:157] Top shape: 8 128 5 5 (25600)
I0120 22:52:41.670779 11395 net.cpp:165] Memory required for data: 2659305540
I0120 22:52:41.670784 11395 layer_factory.hpp:77] Creating layer conv8_1_relu
I0120 22:52:41.670789 11395 net.cpp:100] Creating Layer conv8_1_relu
I0120 22:52:41.670792 11395 net.cpp:434] conv8_1_relu <- conv8_1
I0120 22:52:41.670797 11395 net.cpp:395] conv8_1_relu -> conv8_1 (in-place)
I0120 22:52:41.671224 11395 net.cpp:150] Setting up conv8_1_relu
I0120 22:52:41.671236 11395 net.cpp:157] Top shape: 8 128 5 5 (25600)
I0120 22:52:41.671238 11395 net.cpp:165] Memory required for data: 2659407940
I0120 22:52:41.671241 11395 layer_factory.hpp:77] Creating layer conv8_2
I0120 22:52:41.671250 11395 net.cpp:100] Creating Layer conv8_2
I0120 22:52:41.671253 11395 net.cpp:434] conv8_2 <- conv8_1
I0120 22:52:41.671260 11395 net.cpp:408] conv8_2 -> conv8_2_t
I0120 22:52:41.674515 11395 net.cpp:150] Setting up conv8_2
I0120 22:52:41.674526 11395 net.cpp:157] Top shape: 8 256 3 3 (18432)
I0120 22:52:41.674530 11395 net.cpp:165] Memory required for data: 2659481668
I0120 22:52:41.674535 11395 layer_factory.hpp:77] Creating layer conv8_2_relu
I0120 22:52:41.674540 11395 net.cpp:100] Creating Layer conv8_2_relu
I0120 22:52:41.674542 11395 net.cpp:434] conv8_2_relu <- conv8_2_t
I0120 22:52:41.674548 11395 net.cpp:395] conv8_2_relu -> conv8_2_t (in-place)
I0120 22:52:41.674733 11395 net.cpp:150] Setting up conv8_2_relu
I0120 22:52:41.674743 11395 net.cpp:157] Top shape: 8 256 3 3 (18432)
I0120 22:52:41.674746 11395 net.cpp:165] Memory required for data: 2659555396
I0120 22:52:41.674748 11395 layer_factory.hpp:77] Creating layer conv8_2_t_conv8_2_relu_0_split
I0120 22:52:41.674752 11395 net.cpp:100] Creating Layer conv8_2_t_conv8_2_relu_0_split
I0120 22:52:41.674756 11395 net.cpp:434] conv8_2_t_conv8_2_relu_0_split <- conv8_2_t
I0120 22:52:41.674760 11395 net.cpp:408] conv8_2_t_conv8_2_relu_0_split -> conv8_2_t_conv8_2_relu_0_split_0
I0120 22:52:41.674767 11395 net.cpp:408] conv8_2_t_conv8_2_relu_0_split -> conv8_2_t_conv8_2_relu_0_split_1
I0120 22:52:41.674809 11395 net.cpp:150] Setting up conv8_2_t_conv8_2_relu_0_split
I0120 22:52:41.674814 11395 net.cpp:157] Top shape: 8 256 3 3 (18432)
I0120 22:52:41.674816 11395 net.cpp:157] Top shape: 8 256 3 3 (18432)
I0120 22:52:41.674818 11395 net.cpp:165] Memory required for data: 2659702852
I0120 22:52:41.674820 11395 layer_factory.hpp:77] Creating layer conv8_2_s
I0120 22:52:41.674840 11395 net.cpp:100] Creating Layer conv8_2_s
I0120 22:52:41.674846 11395 net.cpp:434] conv8_2_s <- conv8_2_t_conv8_2_relu_0_split_0
I0120 22:52:41.674855 11395 net.cpp:408] conv8_2_s -> conv8_2_s
I0120 22:52:41.675062 11395 net.cpp:150] Setting up conv8_2_s
I0120 22:52:41.675072 11395 net.cpp:157] Top shape: 8 256 1 1 (2048)
I0120 22:52:41.675076 11395 net.cpp:165] Memory required for data: 2659711044
I0120 22:52:41.675078 11395 layer_factory.hpp:77] Creating layer conv8_2_fc1
I0120 22:52:41.675086 11395 net.cpp:100] Creating Layer conv8_2_fc1
I0120 22:52:41.675089 11395 net.cpp:434] conv8_2_fc1 <- conv8_2_s
I0120 22:52:41.675094 11395 net.cpp:408] conv8_2_fc1 -> conv8_2_fc1
I0120 22:52:41.676183 11395 net.cpp:150] Setting up conv8_2_fc1
I0120 22:52:41.676194 11395 net.cpp:157] Top shape: 8 64 1 1 (512)
I0120 22:52:41.676198 11395 net.cpp:165] Memory required for data: 2659713092
I0120 22:52:41.676203 11395 layer_factory.hpp:77] Creating layer conv8_2_relu
I0120 22:52:41.676208 11395 net.cpp:100] Creating Layer conv8_2_relu
I0120 22:52:41.676210 11395 net.cpp:434] conv8_2_relu <- conv8_2_fc1
I0120 22:52:41.676215 11395 net.cpp:395] conv8_2_relu -> conv8_2_fc1 (in-place)
I0120 22:52:41.676656 11395 net.cpp:150] Setting up conv8_2_relu
I0120 22:52:41.676666 11395 net.cpp:157] Top shape: 8 64 1 1 (512)
I0120 22:52:41.676668 11395 net.cpp:165] Memory required for data: 2659715140
I0120 22:52:41.676671 11395 layer_factory.hpp:77] Creating layer conv8_2_fc2
I0120 22:52:41.676679 11395 net.cpp:100] Creating Layer conv8_2_fc2
I0120 22:52:41.676682 11395 net.cpp:434] conv8_2_fc2 <- conv8_2_fc1
I0120 22:52:41.676688 11395 net.cpp:408] conv8_2_fc2 -> conv8_2_fc2
I0120 22:52:41.679283 11395 net.cpp:150] Setting up conv8_2_fc2
I0120 22:52:41.679297 11395 net.cpp:157] Top shape: 8 256 1 1 (2048)
I0120 22:52:41.679301 11395 net.cpp:165] Memory required for data: 2659723332
I0120 22:52:41.679306 11395 layer_factory.hpp:77] Creating layer conv8_2_sig
I0120 22:52:41.679311 11395 net.cpp:100] Creating Layer conv8_2_sig
I0120 22:52:41.679313 11395 net.cpp:434] conv8_2_sig <- conv8_2_fc2
I0120 22:52:41.679319 11395 net.cpp:395] conv8_2_sig -> conv8_2_fc2 (in-place)
I0120 22:52:41.679497 11395 net.cpp:150] Setting up conv8_2_sig
I0120 22:52:41.679507 11395 net.cpp:157] Top shape: 8 256 1 1 (2048)
I0120 22:52:41.679508 11395 net.cpp:165] Memory required for data: 2659731524
I0120 22:52:41.679512 11395 layer_factory.hpp:77] Creating layer conv8_2_reshape
I0120 22:52:41.679518 11395 net.cpp:100] Creating Layer conv8_2_reshape
I0120 22:52:41.679522 11395 net.cpp:434] conv8_2_reshape <- conv8_2_fc2
I0120 22:52:41.679527 11395 net.cpp:408] conv8_2_reshape -> conv8_2_reshape
I0120 22:52:41.679558 11395 net.cpp:150] Setting up conv8_2_reshape
I0120 22:52:41.679563 11395 net.cpp:157] Top shape: 8 256 (2048)
I0120 22:52:41.679563 11395 net.cpp:165] Memory required for data: 2659739716
I0120 22:52:41.679565 11395 layer_factory.hpp:77] Creating layer conv8_2_scale
I0120 22:52:41.679572 11395 net.cpp:100] Creating Layer conv8_2_scale
I0120 22:52:41.679574 11395 net.cpp:434] conv8_2_scale <- conv8_2_t_conv8_2_relu_0_split_1
I0120 22:52:41.679577 11395 net.cpp:434] conv8_2_scale <- conv8_2_reshape
I0120 22:52:41.679581 11395 net.cpp:408] conv8_2_scale -> conv8_2
I0120 22:52:41.679658 11395 net.cpp:150] Setting up conv8_2_scale
I0120 22:52:41.679666 11395 net.cpp:157] Top shape: 8 256 3 3 (18432)
I0120 22:52:41.679668 11395 net.cpp:165] Memory required for data: 2659813444
I0120 22:52:41.679671 11395 layer_factory.hpp:77] Creating layer conv8_2_conv8_2_scale_0_split
I0120 22:52:41.679677 11395 net.cpp:100] Creating Layer conv8_2_conv8_2_scale_0_split
I0120 22:52:41.679679 11395 net.cpp:434] conv8_2_conv8_2_scale_0_split <- conv8_2
I0120 22:52:41.679687 11395 net.cpp:408] conv8_2_conv8_2_scale_0_split -> conv8_2_conv8_2_scale_0_split_0
I0120 22:52:41.679694 11395 net.cpp:408] conv8_2_conv8_2_scale_0_split -> conv8_2_conv8_2_scale_0_split_1
I0120 22:52:41.679699 11395 net.cpp:408] conv8_2_conv8_2_scale_0_split -> conv8_2_conv8_2_scale_0_split_2
I0120 22:52:41.679715 11395 net.cpp:408] conv8_2_conv8_2_scale_0_split -> conv8_2_conv8_2_scale_0_split_3
I0120 22:52:41.679778 11395 net.cpp:150] Setting up conv8_2_conv8_2_scale_0_split
I0120 22:52:41.679788 11395 net.cpp:157] Top shape: 8 256 3 3 (18432)
I0120 22:52:41.679792 11395 net.cpp:157] Top shape: 8 256 3 3 (18432)
I0120 22:52:41.679795 11395 net.cpp:157] Top shape: 8 256 3 3 (18432)
I0120 22:52:41.679797 11395 net.cpp:157] Top shape: 8 256 3 3 (18432)
I0120 22:52:41.679798 11395 net.cpp:165] Memory required for data: 2660108356
I0120 22:52:41.679801 11395 layer_factory.hpp:77] Creating layer conv9_1
I0120 22:52:41.679811 11395 net.cpp:100] Creating Layer conv9_1
I0120 22:52:41.679814 11395 net.cpp:434] conv9_1 <- conv8_2_conv8_2_scale_0_split_0
I0120 22:52:41.679819 11395 net.cpp:408] conv9_1 -> conv9_1
I0120 22:52:41.681015 11395 net.cpp:150] Setting up conv9_1
I0120 22:52:41.681027 11395 net.cpp:157] Top shape: 8 128 3 3 (9216)
I0120 22:52:41.681030 11395 net.cpp:165] Memory required for data: 2660145220
I0120 22:52:41.681035 11395 layer_factory.hpp:77] Creating layer conv9_1_relu
I0120 22:52:41.681042 11395 net.cpp:100] Creating Layer conv9_1_relu
I0120 22:52:41.681046 11395 net.cpp:434] conv9_1_relu <- conv9_1
I0120 22:52:41.681048 11395 net.cpp:395] conv9_1_relu -> conv9_1 (in-place)
I0120 22:52:41.681218 11395 net.cpp:150] Setting up conv9_1_relu
I0120 22:52:41.681227 11395 net.cpp:157] Top shape: 8 128 3 3 (9216)
I0120 22:52:41.681229 11395 net.cpp:165] Memory required for data: 2660182084
I0120 22:52:41.681232 11395 layer_factory.hpp:77] Creating layer conv9_2
I0120 22:52:41.681241 11395 net.cpp:100] Creating Layer conv9_2
I0120 22:52:41.681246 11395 net.cpp:434] conv9_2 <- conv9_1
I0120 22:52:41.681252 11395 net.cpp:408] conv9_2 -> conv9_2_t
I0120 22:52:41.684514 11395 net.cpp:150] Setting up conv9_2
I0120 22:52:41.684525 11395 net.cpp:157] Top shape: 8 256 1 1 (2048)
I0120 22:52:41.684528 11395 net.cpp:165] Memory required for data: 2660190276
I0120 22:52:41.684533 11395 layer_factory.hpp:77] Creating layer conv9_2_relu
I0120 22:52:41.684540 11395 net.cpp:100] Creating Layer conv9_2_relu
I0120 22:52:41.684542 11395 net.cpp:434] conv9_2_relu <- conv9_2_t
I0120 22:52:41.684546 11395 net.cpp:395] conv9_2_relu -> conv9_2_t (in-place)
I0120 22:52:41.685001 11395 net.cpp:150] Setting up conv9_2_relu
I0120 22:52:41.685014 11395 net.cpp:157] Top shape: 8 256 1 1 (2048)
I0120 22:52:41.685016 11395 net.cpp:165] Memory required for data: 2660198468
I0120 22:52:41.685019 11395 layer_factory.hpp:77] Creating layer conv9_2_t_conv9_2_relu_0_split
I0120 22:52:41.685024 11395 net.cpp:100] Creating Layer conv9_2_t_conv9_2_relu_0_split
I0120 22:52:41.685026 11395 net.cpp:434] conv9_2_t_conv9_2_relu_0_split <- conv9_2_t
I0120 22:52:41.685031 11395 net.cpp:408] conv9_2_t_conv9_2_relu_0_split -> conv9_2_t_conv9_2_relu_0_split_0
I0120 22:52:41.685039 11395 net.cpp:408] conv9_2_t_conv9_2_relu_0_split -> conv9_2_t_conv9_2_relu_0_split_1
I0120 22:52:41.685084 11395 net.cpp:150] Setting up conv9_2_t_conv9_2_relu_0_split
I0120 22:52:41.685089 11395 net.cpp:157] Top shape: 8 256 1 1 (2048)
I0120 22:52:41.685092 11395 net.cpp:157] Top shape: 8 256 1 1 (2048)
I0120 22:52:41.685094 11395 net.cpp:165] Memory required for data: 2660214852
I0120 22:52:41.685096 11395 layer_factory.hpp:77] Creating layer conv9_2_s
I0120 22:52:41.685101 11395 net.cpp:100] Creating Layer conv9_2_s
I0120 22:52:41.685103 11395 net.cpp:434] conv9_2_s <- conv9_2_t_conv9_2_relu_0_split_0
I0120 22:52:41.685109 11395 net.cpp:408] conv9_2_s -> conv9_2_s
I0120 22:52:41.685312 11395 net.cpp:150] Setting up conv9_2_s
I0120 22:52:41.685322 11395 net.cpp:157] Top shape: 8 256 1 1 (2048)
I0120 22:52:41.685323 11395 net.cpp:165] Memory required for data: 2660223044
I0120 22:52:41.685326 11395 layer_factory.hpp:77] Creating layer conv9_2_fc1
I0120 22:52:41.685335 11395 net.cpp:100] Creating Layer conv9_2_fc1
I0120 22:52:41.685338 11395 net.cpp:434] conv9_2_fc1 <- conv9_2_s
I0120 22:52:41.685343 11395 net.cpp:408] conv9_2_fc1 -> conv9_2_fc1
I0120 22:52:41.686480 11395 net.cpp:150] Setting up conv9_2_fc1
I0120 22:52:41.686491 11395 net.cpp:157] Top shape: 8 64 1 1 (512)
I0120 22:52:41.686493 11395 net.cpp:165] Memory required for data: 2660225092
I0120 22:52:41.686498 11395 layer_factory.hpp:77] Creating layer conv9_2_relu
I0120 22:52:41.686503 11395 net.cpp:100] Creating Layer conv9_2_relu
I0120 22:52:41.686506 11395 net.cpp:434] conv9_2_relu <- conv9_2_fc1
I0120 22:52:41.686511 11395 net.cpp:395] conv9_2_relu -> conv9_2_fc1 (in-place)
I0120 22:52:41.686681 11395 net.cpp:150] Setting up conv9_2_relu
I0120 22:52:41.686691 11395 net.cpp:157] Top shape: 8 64 1 1 (512)
I0120 22:52:41.686693 11395 net.cpp:165] Memory required for data: 2660227140
I0120 22:52:41.686695 11395 layer_factory.hpp:77] Creating layer conv9_2_fc2
I0120 22:52:41.686704 11395 net.cpp:100] Creating Layer conv9_2_fc2
I0120 22:52:41.686708 11395 net.cpp:434] conv9_2_fc2 <- conv9_2_fc1
I0120 22:52:41.686714 11395 net.cpp:408] conv9_2_fc2 -> conv9_2_fc2
I0120 22:52:41.687809 11395 net.cpp:150] Setting up conv9_2_fc2
I0120 22:52:41.687821 11395 net.cpp:157] Top shape: 8 256 1 1 (2048)
I0120 22:52:41.687824 11395 net.cpp:165] Memory required for data: 2660235332
I0120 22:52:41.687829 11395 layer_factory.hpp:77] Creating layer conv9_2_sig
I0120 22:52:41.687835 11395 net.cpp:100] Creating Layer conv9_2_sig
I0120 22:52:41.687839 11395 net.cpp:434] conv9_2_sig <- conv9_2_fc2
I0120 22:52:41.687842 11395 net.cpp:395] conv9_2_sig -> conv9_2_fc2 (in-place)
I0120 22:52:41.688009 11395 net.cpp:150] Setting up conv9_2_sig
I0120 22:52:41.688017 11395 net.cpp:157] Top shape: 8 256 1 1 (2048)
I0120 22:52:41.688019 11395 net.cpp:165] Memory required for data: 2660243524
I0120 22:52:41.688022 11395 layer_factory.hpp:77] Creating layer conv9_2_reshape
I0120 22:52:41.688028 11395 net.cpp:100] Creating Layer conv9_2_reshape
I0120 22:52:41.688031 11395 net.cpp:434] conv9_2_reshape <- conv9_2_fc2
I0120 22:52:41.688036 11395 net.cpp:408] conv9_2_reshape -> conv9_2_reshape
I0120 22:52:41.688066 11395 net.cpp:150] Setting up conv9_2_reshape
I0120 22:52:41.688069 11395 net.cpp:157] Top shape: 8 256 (2048)
I0120 22:52:41.688071 11395 net.cpp:165] Memory required for data: 2660251716
I0120 22:52:41.688073 11395 layer_factory.hpp:77] Creating layer conv9_2_scale
I0120 22:52:41.688092 11395 net.cpp:100] Creating Layer conv9_2_scale
I0120 22:52:41.688096 11395 net.cpp:434] conv9_2_scale <- conv9_2_t_conv9_2_relu_0_split_1
I0120 22:52:41.688098 11395 net.cpp:434] conv9_2_scale <- conv9_2_reshape
I0120 22:52:41.688102 11395 net.cpp:408] conv9_2_scale -> conv9_2
I0120 22:52:41.688192 11395 net.cpp:150] Setting up conv9_2_scale
I0120 22:52:41.688202 11395 net.cpp:157] Top shape: 8 256 1 1 (2048)
I0120 22:52:41.688205 11395 net.cpp:165] Memory required for data: 2660259908
I0120 22:52:41.688207 11395 layer_factory.hpp:77] Creating layer conv9_2_conv9_2_scale_0_split
I0120 22:52:41.688212 11395 net.cpp:100] Creating Layer conv9_2_conv9_2_scale_0_split
I0120 22:52:41.688215 11395 net.cpp:434] conv9_2_conv9_2_scale_0_split <- conv9_2
I0120 22:52:41.688220 11395 net.cpp:408] conv9_2_conv9_2_scale_0_split -> conv9_2_conv9_2_scale_0_split_0
I0120 22:52:41.688225 11395 net.cpp:408] conv9_2_conv9_2_scale_0_split -> conv9_2_conv9_2_scale_0_split_1
I0120 22:52:41.688230 11395 net.cpp:408] conv9_2_conv9_2_scale_0_split -> conv9_2_conv9_2_scale_0_split_2
I0120 22:52:41.688278 11395 net.cpp:150] Setting up conv9_2_conv9_2_scale_0_split
I0120 22:52:41.688282 11395 net.cpp:157] Top shape: 8 256 1 1 (2048)
I0120 22:52:41.688285 11395 net.cpp:157] Top shape: 8 256 1 1 (2048)
I0120 22:52:41.688290 11395 net.cpp:157] Top shape: 8 256 1 1 (2048)
I0120 22:52:41.688293 11395 net.cpp:165] Memory required for data: 2660284484
I0120 22:52:41.688297 11395 layer_factory.hpp:77] Creating layer conv4_3_norm
I0120 22:52:41.688305 11395 net.cpp:100] Creating Layer conv4_3_norm
I0120 22:52:41.688311 11395 net.cpp:434] conv4_3_norm <- conv4_3_conv4_3_scale_0_split_1
I0120 22:52:41.688318 11395 net.cpp:408] conv4_3_norm -> conv4_3_norm
I0120 22:52:41.688498 11395 net.cpp:150] Setting up conv4_3_norm
I0120 22:52:41.688516 11395 net.cpp:157] Top shape: 8 512 38 38 (5914624)
I0120 22:52:41.688519 11395 net.cpp:165] Memory required for data: 2683942980
I0120 22:52:41.688524 11395 layer_factory.hpp:77] Creating layer conv4_3_norm_conv4_3_norm_0_split
I0120 22:52:41.688527 11395 net.cpp:100] Creating Layer conv4_3_norm_conv4_3_norm_0_split
I0120 22:52:41.688529 11395 net.cpp:434] conv4_3_norm_conv4_3_norm_0_split <- conv4_3_norm
I0120 22:52:41.688535 11395 net.cpp:408] conv4_3_norm_conv4_3_norm_0_split -> conv4_3_norm_conv4_3_norm_0_split_0
I0120 22:52:41.688540 11395 net.cpp:408] conv4_3_norm_conv4_3_norm_0_split -> conv4_3_norm_conv4_3_norm_0_split_1
I0120 22:52:41.688544 11395 net.cpp:408] conv4_3_norm_conv4_3_norm_0_split -> conv4_3_norm_conv4_3_norm_0_split_2
I0120 22:52:41.688590 11395 net.cpp:150] Setting up conv4_3_norm_conv4_3_norm_0_split
I0120 22:52:41.688594 11395 net.cpp:157] Top shape: 8 512 38 38 (5914624)
I0120 22:52:41.688597 11395 net.cpp:157] Top shape: 8 512 38 38 (5914624)
I0120 22:52:41.688599 11395 net.cpp:157] Top shape: 8 512 38 38 (5914624)
I0120 22:52:41.688601 11395 net.cpp:165] Memory required for data: 2754918468
I0120 22:52:41.688603 11395 layer_factory.hpp:77] Creating layer conv4_3_norm_mbox_loc
I0120 22:52:41.688613 11395 net.cpp:100] Creating Layer conv4_3_norm_mbox_loc
I0120 22:52:41.688616 11395 net.cpp:434] conv4_3_norm_mbox_loc <- conv4_3_norm_conv4_3_norm_0_split_0
I0120 22:52:41.688621 11395 net.cpp:408] conv4_3_norm_mbox_loc -> conv4_3_norm_mbox_loc
I0120 22:52:41.690238 11395 net.cpp:150] Setting up conv4_3_norm_mbox_loc
I0120 22:52:41.690250 11395 net.cpp:157] Top shape: 8 16 38 38 (184832)
I0120 22:52:41.690253 11395 net.cpp:165] Memory required for data: 2755657796
I0120 22:52:41.690258 11395 layer_factory.hpp:77] Creating layer conv4_3_norm_mbox_loc_perm
I0120 22:52:41.690266 11395 net.cpp:100] Creating Layer conv4_3_norm_mbox_loc_perm
I0120 22:52:41.690269 11395 net.cpp:434] conv4_3_norm_mbox_loc_perm <- conv4_3_norm_mbox_loc
I0120 22:52:41.690274 11395 net.cpp:408] conv4_3_norm_mbox_loc_perm -> conv4_3_norm_mbox_loc_perm
I0120 22:52:41.690383 11395 net.cpp:150] Setting up conv4_3_norm_mbox_loc_perm
I0120 22:52:41.690393 11395 net.cpp:157] Top shape: 8 38 38 16 (184832)
I0120 22:52:41.690397 11395 net.cpp:165] Memory required for data: 2756397124
I0120 22:52:41.690402 11395 layer_factory.hpp:77] Creating layer conv4_3_norm_mbox_loc_flat
I0120 22:52:41.690407 11395 net.cpp:100] Creating Layer conv4_3_norm_mbox_loc_flat
I0120 22:52:41.690410 11395 net.cpp:434] conv4_3_norm_mbox_loc_flat <- conv4_3_norm_mbox_loc_perm
I0120 22:52:41.690416 11395 net.cpp:408] conv4_3_norm_mbox_loc_flat -> conv4_3_norm_mbox_loc_flat
I0120 22:52:41.690446 11395 net.cpp:150] Setting up conv4_3_norm_mbox_loc_flat
I0120 22:52:41.690450 11395 net.cpp:157] Top shape: 8 23104 (184832)
I0120 22:52:41.690454 11395 net.cpp:165] Memory required for data: 2757136452
I0120 22:52:41.690455 11395 layer_factory.hpp:77] Creating layer conv4_3_norm_mbox_conf
I0120 22:52:41.690464 11395 net.cpp:100] Creating Layer conv4_3_norm_mbox_conf
I0120 22:52:41.690466 11395 net.cpp:434] conv4_3_norm_mbox_conf <- conv4_3_norm_conv4_3_norm_0_split_1
I0120 22:52:41.690472 11395 net.cpp:408] conv4_3_norm_mbox_conf -> conv4_3_norm_mbox_conf
I0120 22:52:41.694178 11395 net.cpp:150] Setting up conv4_3_norm_mbox_conf
I0120 22:52:41.694192 11395 net.cpp:157] Top shape: 8 84 38 38 (970368)
I0120 22:52:41.694195 11395 net.cpp:165] Memory required for data: 2761017924
I0120 22:52:41.694201 11395 layer_factory.hpp:77] Creating layer conv4_3_norm_mbox_conf_perm
I0120 22:52:41.694206 11395 net.cpp:100] Creating Layer conv4_3_norm_mbox_conf_perm
I0120 22:52:41.694209 11395 net.cpp:434] conv4_3_norm_mbox_conf_perm <- conv4_3_norm_mbox_conf
I0120 22:52:41.694214 11395 net.cpp:408] conv4_3_norm_mbox_conf_perm -> conv4_3_norm_mbox_conf_perm
I0120 22:52:41.694325 11395 net.cpp:150] Setting up conv4_3_norm_mbox_conf_perm
I0120 22:52:41.694336 11395 net.cpp:157] Top shape: 8 38 38 84 (970368)
I0120 22:52:41.694353 11395 net.cpp:165] Memory required for data: 2764899396
I0120 22:52:41.694358 11395 layer_factory.hpp:77] Creating layer conv4_3_norm_mbox_conf_flat
I0120 22:52:41.694365 11395 net.cpp:100] Creating Layer conv4_3_norm_mbox_conf_flat
I0120 22:52:41.694366 11395 net.cpp:434] conv4_3_norm_mbox_conf_flat <- conv4_3_norm_mbox_conf_perm
I0120 22:52:41.694372 11395 net.cpp:408] conv4_3_norm_mbox_conf_flat -> conv4_3_norm_mbox_conf_flat
I0120 22:52:41.694401 11395 net.cpp:150] Setting up conv4_3_norm_mbox_conf_flat
I0120 22:52:41.694406 11395 net.cpp:157] Top shape: 8 121296 (970368)
I0120 22:52:41.694408 11395 net.cpp:165] Memory required for data: 2768780868
I0120 22:52:41.694411 11395 layer_factory.hpp:77] Creating layer conv4_3_norm_mbox_priorbox
I0120 22:52:41.694417 11395 net.cpp:100] Creating Layer conv4_3_norm_mbox_priorbox
I0120 22:52:41.694420 11395 net.cpp:434] conv4_3_norm_mbox_priorbox <- conv4_3_norm_conv4_3_norm_0_split_2
I0120 22:52:41.694423 11395 net.cpp:434] conv4_3_norm_mbox_priorbox <- data_data_0_split_1
I0120 22:52:41.694428 11395 net.cpp:408] conv4_3_norm_mbox_priorbox -> conv4_3_norm_mbox_priorbox
I0120 22:52:41.694463 11395 net.cpp:150] Setting up conv4_3_norm_mbox_priorbox
I0120 22:52:41.694469 11395 net.cpp:157] Top shape: 1 2 23104 (46208)
I0120 22:52:41.694470 11395 net.cpp:165] Memory required for data: 2768965700
I0120 22:52:41.694473 11395 layer_factory.hpp:77] Creating layer fc7_mbox_loc
I0120 22:52:41.694480 11395 net.cpp:100] Creating Layer fc7_mbox_loc
I0120 22:52:41.694484 11395 net.cpp:434] fc7_mbox_loc <- fc7_fc7_scale_0_split_1
I0120 22:52:41.694489 11395 net.cpp:408] fc7_mbox_loc -> fc7_mbox_loc
I0120 22:52:41.696744 11395 net.cpp:150] Setting up fc7_mbox_loc
I0120 22:52:41.696755 11395 net.cpp:157] Top shape: 8 24 19 19 (69312)
I0120 22:52:41.696758 11395 net.cpp:165] Memory required for data: 2769242948
I0120 22:52:41.696763 11395 layer_factory.hpp:77] Creating layer fc7_mbox_loc_perm
I0120 22:52:41.696770 11395 net.cpp:100] Creating Layer fc7_mbox_loc_perm
I0120 22:52:41.696774 11395 net.cpp:434] fc7_mbox_loc_perm <- fc7_mbox_loc
I0120 22:52:41.696777 11395 net.cpp:408] fc7_mbox_loc_perm -> fc7_mbox_loc_perm
I0120 22:52:41.696884 11395 net.cpp:150] Setting up fc7_mbox_loc_perm
I0120 22:52:41.696892 11395 net.cpp:157] Top shape: 8 19 19 24 (69312)
I0120 22:52:41.696894 11395 net.cpp:165] Memory required for data: 2769520196
I0120 22:52:41.696897 11395 layer_factory.hpp:77] Creating layer fc7_mbox_loc_flat
I0120 22:52:41.696900 11395 net.cpp:100] Creating Layer fc7_mbox_loc_flat
I0120 22:52:41.696903 11395 net.cpp:434] fc7_mbox_loc_flat <- fc7_mbox_loc_perm
I0120 22:52:41.696914 11395 net.cpp:408] fc7_mbox_loc_flat -> fc7_mbox_loc_flat
I0120 22:52:41.696946 11395 net.cpp:150] Setting up fc7_mbox_loc_flat
I0120 22:52:41.696952 11395 net.cpp:157] Top shape: 8 8664 (69312)
I0120 22:52:41.696954 11395 net.cpp:165] Memory required for data: 2769797444
I0120 22:52:41.696956 11395 layer_factory.hpp:77] Creating layer fc7_mbox_conf
I0120 22:52:41.696967 11395 net.cpp:100] Creating Layer fc7_mbox_conf
I0120 22:52:41.696970 11395 net.cpp:434] fc7_mbox_conf <- fc7_fc7_scale_0_split_2
I0120 22:52:41.696976 11395 net.cpp:408] fc7_mbox_conf -> fc7_mbox_conf
I0120 22:52:41.705018 11395 net.cpp:150] Setting up fc7_mbox_conf
I0120 22:52:41.705034 11395 net.cpp:157] Top shape: 8 126 19 19 (363888)
I0120 22:52:41.705036 11395 net.cpp:165] Memory required for data: 2771252996
I0120 22:52:41.705041 11395 layer_factory.hpp:77] Creating layer fc7_mbox_conf_perm
I0120 22:52:41.705046 11395 net.cpp:100] Creating Layer fc7_mbox_conf_perm
I0120 22:52:41.705050 11395 net.cpp:434] fc7_mbox_conf_perm <- fc7_mbox_conf
I0120 22:52:41.705055 11395 net.cpp:408] fc7_mbox_conf_perm -> fc7_mbox_conf_perm
I0120 22:52:41.705183 11395 net.cpp:150] Setting up fc7_mbox_conf_perm
I0120 22:52:41.705189 11395 net.cpp:157] Top shape: 8 19 19 126 (363888)
I0120 22:52:41.705193 11395 net.cpp:165] Memory required for data: 2772708548
I0120 22:52:41.705194 11395 layer_factory.hpp:77] Creating layer fc7_mbox_conf_flat
I0120 22:52:41.705209 11395 net.cpp:100] Creating Layer fc7_mbox_conf_flat
I0120 22:52:41.705212 11395 net.cpp:434] fc7_mbox_conf_flat <- fc7_mbox_conf_perm
I0120 22:52:41.705219 11395 net.cpp:408] fc7_mbox_conf_flat -> fc7_mbox_conf_flat
I0120 22:52:41.705256 11395 net.cpp:150] Setting up fc7_mbox_conf_flat
I0120 22:52:41.705265 11395 net.cpp:157] Top shape: 8 45486 (363888)
I0120 22:52:41.705266 11395 net.cpp:165] Memory required for data: 2774164100
I0120 22:52:41.705268 11395 layer_factory.hpp:77] Creating layer fc7_mbox_priorbox
I0120 22:52:41.705277 11395 net.cpp:100] Creating Layer fc7_mbox_priorbox
I0120 22:52:41.705281 11395 net.cpp:434] fc7_mbox_priorbox <- fc7_fc7_scale_0_split_3
I0120 22:52:41.705287 11395 net.cpp:434] fc7_mbox_priorbox <- data_data_0_split_2
I0120 22:52:41.705294 11395 net.cpp:408] fc7_mbox_priorbox -> fc7_mbox_priorbox
I0120 22:52:41.705324 11395 net.cpp:150] Setting up fc7_mbox_priorbox
I0120 22:52:41.705328 11395 net.cpp:157] Top shape: 1 2 8664 (17328)
I0120 22:52:41.705330 11395 net.cpp:165] Memory required for data: 2774233412
I0120 22:52:41.705333 11395 layer_factory.hpp:77] Creating layer conv6_2_mbox_loc
I0120 22:52:41.705346 11395 net.cpp:100] Creating Layer conv6_2_mbox_loc
I0120 22:52:41.705351 11395 net.cpp:434] conv6_2_mbox_loc <- conv6_2_conv6_2_scale_0_split_1
I0120 22:52:41.705356 11395 net.cpp:408] conv6_2_mbox_loc -> conv6_2_mbox_loc
I0120 22:52:41.707137 11395 net.cpp:150] Setting up conv6_2_mbox_loc
I0120 22:52:41.707149 11395 net.cpp:157] Top shape: 8 24 10 10 (19200)
I0120 22:52:41.707151 11395 net.cpp:165] Memory required for data: 2774310212
I0120 22:52:41.707156 11395 layer_factory.hpp:77] Creating layer conv6_2_mbox_loc_perm
I0120 22:52:41.707165 11395 net.cpp:100] Creating Layer conv6_2_mbox_loc_perm
I0120 22:52:41.707166 11395 net.cpp:434] conv6_2_mbox_loc_perm <- conv6_2_mbox_loc
I0120 22:52:41.707171 11395 net.cpp:408] conv6_2_mbox_loc_perm -> conv6_2_mbox_loc_perm
I0120 22:52:41.707293 11395 net.cpp:150] Setting up conv6_2_mbox_loc_perm
I0120 22:52:41.707305 11395 net.cpp:157] Top shape: 8 10 10 24 (19200)
I0120 22:52:41.707309 11395 net.cpp:165] Memory required for data: 2774387012
I0120 22:52:41.707312 11395 layer_factory.hpp:77] Creating layer conv6_2_mbox_loc_flat
I0120 22:52:41.707317 11395 net.cpp:100] Creating Layer conv6_2_mbox_loc_flat
I0120 22:52:41.707322 11395 net.cpp:434] conv6_2_mbox_loc_flat <- conv6_2_mbox_loc_perm
I0120 22:52:41.707327 11395 net.cpp:408] conv6_2_mbox_loc_flat -> conv6_2_mbox_loc_flat
I0120 22:52:41.707358 11395 net.cpp:150] Setting up conv6_2_mbox_loc_flat
I0120 22:52:41.707362 11395 net.cpp:157] Top shape: 8 2400 (19200)
I0120 22:52:41.707365 11395 net.cpp:165] Memory required for data: 2774463812
I0120 22:52:41.707366 11395 layer_factory.hpp:77] Creating layer conv6_2_mbox_conf
I0120 22:52:41.707375 11395 net.cpp:100] Creating Layer conv6_2_mbox_conf
I0120 22:52:41.707376 11395 net.cpp:434] conv6_2_mbox_conf <- conv6_2_conv6_2_scale_0_split_2
I0120 22:52:41.707383 11395 net.cpp:408] conv6_2_mbox_conf -> conv6_2_mbox_conf
I0120 22:52:41.711971 11395 net.cpp:150] Setting up conv6_2_mbox_conf
I0120 22:52:41.711983 11395 net.cpp:157] Top shape: 8 126 10 10 (100800)
I0120 22:52:41.711985 11395 net.cpp:165] Memory required for data: 2774867012
I0120 22:52:41.711992 11395 layer_factory.hpp:77] Creating layer conv6_2_mbox_conf_perm
I0120 22:52:41.711999 11395 net.cpp:100] Creating Layer conv6_2_mbox_conf_perm
I0120 22:52:41.712002 11395 net.cpp:434] conv6_2_mbox_conf_perm <- conv6_2_mbox_conf
I0120 22:52:41.712007 11395 net.cpp:408] conv6_2_mbox_conf_perm -> conv6_2_mbox_conf_perm
I0120 22:52:41.712124 11395 net.cpp:150] Setting up conv6_2_mbox_conf_perm
I0120 22:52:41.712136 11395 net.cpp:157] Top shape: 8 10 10 126 (100800)
I0120 22:52:41.712139 11395 net.cpp:165] Memory required for data: 2775270212
I0120 22:52:41.712142 11395 layer_factory.hpp:77] Creating layer conv6_2_mbox_conf_flat
I0120 22:52:41.712152 11395 net.cpp:100] Creating Layer conv6_2_mbox_conf_flat
I0120 22:52:41.712157 11395 net.cpp:434] conv6_2_mbox_conf_flat <- conv6_2_mbox_conf_perm
I0120 22:52:41.712173 11395 net.cpp:408] conv6_2_mbox_conf_flat -> conv6_2_mbox_conf_flat
I0120 22:52:41.712204 11395 net.cpp:150] Setting up conv6_2_mbox_conf_flat
I0120 22:52:41.712210 11395 net.cpp:157] Top shape: 8 12600 (100800)
I0120 22:52:41.712213 11395 net.cpp:165] Memory required for data: 2775673412
I0120 22:52:41.712214 11395 layer_factory.hpp:77] Creating layer conv6_2_mbox_priorbox
I0120 22:52:41.712220 11395 net.cpp:100] Creating Layer conv6_2_mbox_priorbox
I0120 22:52:41.712224 11395 net.cpp:434] conv6_2_mbox_priorbox <- conv6_2_conv6_2_scale_0_split_3
I0120 22:52:41.712229 11395 net.cpp:434] conv6_2_mbox_priorbox <- data_data_0_split_3
I0120 22:52:41.712236 11395 net.cpp:408] conv6_2_mbox_priorbox -> conv6_2_mbox_priorbox
I0120 22:52:41.712275 11395 net.cpp:150] Setting up conv6_2_mbox_priorbox
I0120 22:52:41.712281 11395 net.cpp:157] Top shape: 1 2 2400 (4800)
I0120 22:52:41.712282 11395 net.cpp:165] Memory required for data: 2775692612
I0120 22:52:41.712285 11395 layer_factory.hpp:77] Creating layer conv7_2_mbox_loc
I0120 22:52:41.712293 11395 net.cpp:100] Creating Layer conv7_2_mbox_loc
I0120 22:52:41.712297 11395 net.cpp:434] conv7_2_mbox_loc <- conv7_2_conv7_2_scale_0_split_1
I0120 22:52:41.712306 11395 net.cpp:408] conv7_2_mbox_loc -> conv7_2_mbox_loc
I0120 22:52:41.714596 11395 net.cpp:150] Setting up conv7_2_mbox_loc
I0120 22:52:41.714607 11395 net.cpp:157] Top shape: 8 24 5 5 (4800)
I0120 22:52:41.714610 11395 net.cpp:165] Memory required for data: 2775711812
I0120 22:52:41.714615 11395 layer_factory.hpp:77] Creating layer conv7_2_mbox_loc_perm
I0120 22:52:41.714622 11395 net.cpp:100] Creating Layer conv7_2_mbox_loc_perm
I0120 22:52:41.714625 11395 net.cpp:434] conv7_2_mbox_loc_perm <- conv7_2_mbox_loc
I0120 22:52:41.714630 11395 net.cpp:408] conv7_2_mbox_loc_perm -> conv7_2_mbox_loc_perm
I0120 22:52:41.714745 11395 net.cpp:150] Setting up conv7_2_mbox_loc_perm
I0120 22:52:41.714751 11395 net.cpp:157] Top shape: 8 5 5 24 (4800)
I0120 22:52:41.714753 11395 net.cpp:165] Memory required for data: 2775731012
I0120 22:52:41.714756 11395 layer_factory.hpp:77] Creating layer conv7_2_mbox_loc_flat
I0120 22:52:41.714761 11395 net.cpp:100] Creating Layer conv7_2_mbox_loc_flat
I0120 22:52:41.714762 11395 net.cpp:434] conv7_2_mbox_loc_flat <- conv7_2_mbox_loc_perm
I0120 22:52:41.714767 11395 net.cpp:408] conv7_2_mbox_loc_flat -> conv7_2_mbox_loc_flat
I0120 22:52:41.714799 11395 net.cpp:150] Setting up conv7_2_mbox_loc_flat
I0120 22:52:41.714803 11395 net.cpp:157] Top shape: 8 600 (4800)
I0120 22:52:41.714805 11395 net.cpp:165] Memory required for data: 2775750212
I0120 22:52:41.714807 11395 layer_factory.hpp:77] Creating layer conv7_2_mbox_conf
I0120 22:52:41.714817 11395 net.cpp:100] Creating Layer conv7_2_mbox_conf
I0120 22:52:41.714819 11395 net.cpp:434] conv7_2_mbox_conf <- conv7_2_conv7_2_scale_0_split_2
I0120 22:52:41.714824 11395 net.cpp:408] conv7_2_mbox_conf -> conv7_2_mbox_conf
I0120 22:52:41.718768 11395 net.cpp:150] Setting up conv7_2_mbox_conf
I0120 22:52:41.718781 11395 net.cpp:157] Top shape: 8 126 5 5 (25200)
I0120 22:52:41.718785 11395 net.cpp:165] Memory required for data: 2775851012
I0120 22:52:41.718789 11395 layer_factory.hpp:77] Creating layer conv7_2_mbox_conf_perm
I0120 22:52:41.718794 11395 net.cpp:100] Creating Layer conv7_2_mbox_conf_perm
I0120 22:52:41.718798 11395 net.cpp:434] conv7_2_mbox_conf_perm <- conv7_2_mbox_conf
I0120 22:52:41.718804 11395 net.cpp:408] conv7_2_mbox_conf_perm -> conv7_2_mbox_conf_perm
I0120 22:52:41.718922 11395 net.cpp:150] Setting up conv7_2_mbox_conf_perm
I0120 22:52:41.718930 11395 net.cpp:157] Top shape: 8 5 5 126 (25200)
I0120 22:52:41.718932 11395 net.cpp:165] Memory required for data: 2775951812
I0120 22:52:41.718935 11395 layer_factory.hpp:77] Creating layer conv7_2_mbox_conf_flat
I0120 22:52:41.718940 11395 net.cpp:100] Creating Layer conv7_2_mbox_conf_flat
I0120 22:52:41.718941 11395 net.cpp:434] conv7_2_mbox_conf_flat <- conv7_2_mbox_conf_perm
I0120 22:52:41.718946 11395 net.cpp:408] conv7_2_mbox_conf_flat -> conv7_2_mbox_conf_flat
I0120 22:52:41.718994 11395 net.cpp:150] Setting up conv7_2_mbox_conf_flat
I0120 22:52:41.719000 11395 net.cpp:157] Top shape: 8 3150 (25200)
I0120 22:52:41.719002 11395 net.cpp:165] Memory required for data: 2776052612
I0120 22:52:41.719005 11395 layer_factory.hpp:77] Creating layer conv7_2_mbox_priorbox
I0120 22:52:41.719010 11395 net.cpp:100] Creating Layer conv7_2_mbox_priorbox
I0120 22:52:41.719013 11395 net.cpp:434] conv7_2_mbox_priorbox <- conv7_2_conv7_2_scale_0_split_3
I0120 22:52:41.719017 11395 net.cpp:434] conv7_2_mbox_priorbox <- data_data_0_split_4
I0120 22:52:41.719022 11395 net.cpp:408] conv7_2_mbox_priorbox -> conv7_2_mbox_priorbox
I0120 22:52:41.719061 11395 net.cpp:150] Setting up conv7_2_mbox_priorbox
I0120 22:52:41.719069 11395 net.cpp:157] Top shape: 1 2 600 (1200)
I0120 22:52:41.719071 11395 net.cpp:165] Memory required for data: 2776057412
I0120 22:52:41.719075 11395 layer_factory.hpp:77] Creating layer conv8_2_mbox_loc
I0120 22:52:41.719085 11395 net.cpp:100] Creating Layer conv8_2_mbox_loc
I0120 22:52:41.719090 11395 net.cpp:434] conv8_2_mbox_loc <- conv8_2_conv8_2_scale_0_split_1
I0120 22:52:41.719097 11395 net.cpp:408] conv8_2_mbox_loc -> conv8_2_mbox_loc
I0120 22:52:41.720620 11395 net.cpp:150] Setting up conv8_2_mbox_loc
I0120 22:52:41.720631 11395 net.cpp:157] Top shape: 8 16 3 3 (1152)
I0120 22:52:41.720633 11395 net.cpp:165] Memory required for data: 2776062020
I0120 22:52:41.720638 11395 layer_factory.hpp:77] Creating layer conv8_2_mbox_loc_perm
I0120 22:52:41.720646 11395 net.cpp:100] Creating Layer conv8_2_mbox_loc_perm
I0120 22:52:41.720649 11395 net.cpp:434] conv8_2_mbox_loc_perm <- conv8_2_mbox_loc
I0120 22:52:41.720654 11395 net.cpp:408] conv8_2_mbox_loc_perm -> conv8_2_mbox_loc_perm
I0120 22:52:41.720760 11395 net.cpp:150] Setting up conv8_2_mbox_loc_perm
I0120 22:52:41.720770 11395 net.cpp:157] Top shape: 8 3 3 16 (1152)
I0120 22:52:41.720772 11395 net.cpp:165] Memory required for data: 2776066628
I0120 22:52:41.720774 11395 layer_factory.hpp:77] Creating layer conv8_2_mbox_loc_flat
I0120 22:52:41.720780 11395 net.cpp:100] Creating Layer conv8_2_mbox_loc_flat
I0120 22:52:41.720783 11395 net.cpp:434] conv8_2_mbox_loc_flat <- conv8_2_mbox_loc_perm
I0120 22:52:41.720787 11395 net.cpp:408] conv8_2_mbox_loc_flat -> conv8_2_mbox_loc_flat
I0120 22:52:41.720813 11395 net.cpp:150] Setting up conv8_2_mbox_loc_flat
I0120 22:52:41.720818 11395 net.cpp:157] Top shape: 8 144 (1152)
I0120 22:52:41.720819 11395 net.cpp:165] Memory required for data: 2776071236
I0120 22:52:41.720821 11395 layer_factory.hpp:77] Creating layer conv8_2_mbox_conf
I0120 22:52:41.720829 11395 net.cpp:100] Creating Layer conv8_2_mbox_conf
I0120 22:52:41.720832 11395 net.cpp:434] conv8_2_mbox_conf <- conv8_2_conv8_2_scale_0_split_2
I0120 22:52:41.720839 11395 net.cpp:408] conv8_2_mbox_conf -> conv8_2_mbox_conf
I0120 22:52:41.722996 11395 net.cpp:150] Setting up conv8_2_mbox_conf
I0120 22:52:41.723008 11395 net.cpp:157] Top shape: 8 84 3 3 (6048)
I0120 22:52:41.723011 11395 net.cpp:165] Memory required for data: 2776095428
I0120 22:52:41.723016 11395 layer_factory.hpp:77] Creating layer conv8_2_mbox_conf_perm
I0120 22:52:41.723023 11395 net.cpp:100] Creating Layer conv8_2_mbox_conf_perm
I0120 22:52:41.723026 11395 net.cpp:434] conv8_2_mbox_conf_perm <- conv8_2_mbox_conf
I0120 22:52:41.723031 11395 net.cpp:408] conv8_2_mbox_conf_perm -> conv8_2_mbox_conf_perm
I0120 22:52:41.723158 11395 net.cpp:150] Setting up conv8_2_mbox_conf_perm
I0120 22:52:41.723165 11395 net.cpp:157] Top shape: 8 3 3 84 (6048)
I0120 22:52:41.723167 11395 net.cpp:165] Memory required for data: 2776119620
I0120 22:52:41.723170 11395 layer_factory.hpp:77] Creating layer conv8_2_mbox_conf_flat
I0120 22:52:41.723176 11395 net.cpp:100] Creating Layer conv8_2_mbox_conf_flat
I0120 22:52:41.723179 11395 net.cpp:434] conv8_2_mbox_conf_flat <- conv8_2_mbox_conf_perm
I0120 22:52:41.723183 11395 net.cpp:408] conv8_2_mbox_conf_flat -> conv8_2_mbox_conf_flat
I0120 22:52:41.723212 11395 net.cpp:150] Setting up conv8_2_mbox_conf_flat
I0120 22:52:41.723217 11395 net.cpp:157] Top shape: 8 756 (6048)
I0120 22:52:41.723229 11395 net.cpp:165] Memory required for data: 2776143812
I0120 22:52:41.723232 11395 layer_factory.hpp:77] Creating layer conv8_2_mbox_priorbox
I0120 22:52:41.723238 11395 net.cpp:100] Creating Layer conv8_2_mbox_priorbox
I0120 22:52:41.723242 11395 net.cpp:434] conv8_2_mbox_priorbox <- conv8_2_conv8_2_scale_0_split_3
I0120 22:52:41.723245 11395 net.cpp:434] conv8_2_mbox_priorbox <- data_data_0_split_5
I0120 22:52:41.723251 11395 net.cpp:408] conv8_2_mbox_priorbox -> conv8_2_mbox_priorbox
I0120 22:52:41.723294 11395 net.cpp:150] Setting up conv8_2_mbox_priorbox
I0120 22:52:41.723299 11395 net.cpp:157] Top shape: 1 2 144 (288)
I0120 22:52:41.723300 11395 net.cpp:165] Memory required for data: 2776144964
I0120 22:52:41.723302 11395 layer_factory.hpp:77] Creating layer conv9_2_mbox_loc
I0120 22:52:41.723311 11395 net.cpp:100] Creating Layer conv9_2_mbox_loc
I0120 22:52:41.723315 11395 net.cpp:434] conv9_2_mbox_loc <- conv9_2_conv9_2_scale_0_split_0
I0120 22:52:41.723320 11395 net.cpp:408] conv9_2_mbox_loc -> conv9_2_mbox_loc
I0120 22:52:41.724570 11395 net.cpp:150] Setting up conv9_2_mbox_loc
I0120 22:52:41.724581 11395 net.cpp:157] Top shape: 8 16 1 1 (128)
I0120 22:52:41.724584 11395 net.cpp:165] Memory required for data: 2776145476
I0120 22:52:41.724589 11395 layer_factory.hpp:77] Creating layer conv9_2_mbox_loc_perm
I0120 22:52:41.724596 11395 net.cpp:100] Creating Layer conv9_2_mbox_loc_perm
I0120 22:52:41.724597 11395 net.cpp:434] conv9_2_mbox_loc_perm <- conv9_2_mbox_loc
I0120 22:52:41.724603 11395 net.cpp:408] conv9_2_mbox_loc_perm -> conv9_2_mbox_loc_perm
I0120 22:52:41.724740 11395 net.cpp:150] Setting up conv9_2_mbox_loc_perm
I0120 22:52:41.724748 11395 net.cpp:157] Top shape: 8 1 1 16 (128)
I0120 22:52:41.724750 11395 net.cpp:165] Memory required for data: 2776145988
I0120 22:52:41.724753 11395 layer_factory.hpp:77] Creating layer conv9_2_mbox_loc_flat
I0120 22:52:41.724758 11395 net.cpp:100] Creating Layer conv9_2_mbox_loc_flat
I0120 22:52:41.724761 11395 net.cpp:434] conv9_2_mbox_loc_flat <- conv9_2_mbox_loc_perm
I0120 22:52:41.724766 11395 net.cpp:408] conv9_2_mbox_loc_flat -> conv9_2_mbox_loc_flat
I0120 22:52:41.724792 11395 net.cpp:150] Setting up conv9_2_mbox_loc_flat
I0120 22:52:41.724797 11395 net.cpp:157] Top shape: 8 16 (128)
I0120 22:52:41.724797 11395 net.cpp:165] Memory required for data: 2776146500
I0120 22:52:41.724799 11395 layer_factory.hpp:77] Creating layer conv9_2_mbox_conf
I0120 22:52:41.724809 11395 net.cpp:100] Creating Layer conv9_2_mbox_conf
I0120 22:52:41.724812 11395 net.cpp:434] conv9_2_mbox_conf <- conv9_2_conv9_2_scale_0_split_1
I0120 22:52:41.724817 11395 net.cpp:408] conv9_2_mbox_conf -> conv9_2_mbox_conf
I0120 22:52:41.726999 11395 net.cpp:150] Setting up conv9_2_mbox_conf
I0120 22:52:41.727010 11395 net.cpp:157] Top shape: 8 84 1 1 (672)
I0120 22:52:41.727013 11395 net.cpp:165] Memory required for data: 2776149188
I0120 22:52:41.727018 11395 layer_factory.hpp:77] Creating layer conv9_2_mbox_conf_perm
I0120 22:52:41.727025 11395 net.cpp:100] Creating Layer conv9_2_mbox_conf_perm
I0120 22:52:41.727028 11395 net.cpp:434] conv9_2_mbox_conf_perm <- conv9_2_mbox_conf
I0120 22:52:41.727035 11395 net.cpp:408] conv9_2_mbox_conf_perm -> conv9_2_mbox_conf_perm
I0120 22:52:41.727159 11395 net.cpp:150] Setting up conv9_2_mbox_conf_perm
I0120 22:52:41.727165 11395 net.cpp:157] Top shape: 8 1 1 84 (672)
I0120 22:52:41.727169 11395 net.cpp:165] Memory required for data: 2776151876
I0120 22:52:41.727170 11395 layer_factory.hpp:77] Creating layer conv9_2_mbox_conf_flat
I0120 22:52:41.727175 11395 net.cpp:100] Creating Layer conv9_2_mbox_conf_flat
I0120 22:52:41.727179 11395 net.cpp:434] conv9_2_mbox_conf_flat <- conv9_2_mbox_conf_perm
I0120 22:52:41.727182 11395 net.cpp:408] conv9_2_mbox_conf_flat -> conv9_2_mbox_conf_flat
I0120 22:52:41.727210 11395 net.cpp:150] Setting up conv9_2_mbox_conf_flat
I0120 22:52:41.727213 11395 net.cpp:157] Top shape: 8 84 (672)
I0120 22:52:41.727216 11395 net.cpp:165] Memory required for data: 2776154564
I0120 22:52:41.727231 11395 layer_factory.hpp:77] Creating layer conv9_2_mbox_priorbox
I0120 22:52:41.727236 11395 net.cpp:100] Creating Layer conv9_2_mbox_priorbox
I0120 22:52:41.727239 11395 net.cpp:434] conv9_2_mbox_priorbox <- conv9_2_conv9_2_scale_0_split_2
I0120 22:52:41.727243 11395 net.cpp:434] conv9_2_mbox_priorbox <- data_data_0_split_6
I0120 22:52:41.727249 11395 net.cpp:408] conv9_2_mbox_priorbox -> conv9_2_mbox_priorbox
I0120 22:52:41.727284 11395 net.cpp:150] Setting up conv9_2_mbox_priorbox
I0120 22:52:41.727291 11395 net.cpp:157] Top shape: 1 2 16 (32)
I0120 22:52:41.727293 11395 net.cpp:165] Memory required for data: 2776154692
I0120 22:52:41.727298 11395 layer_factory.hpp:77] Creating layer mbox_loc
I0120 22:52:41.727308 11395 net.cpp:100] Creating Layer mbox_loc
I0120 22:52:41.727313 11395 net.cpp:434] mbox_loc <- conv4_3_norm_mbox_loc_flat
I0120 22:52:41.727319 11395 net.cpp:434] mbox_loc <- fc7_mbox_loc_flat
I0120 22:52:41.727322 11395 net.cpp:434] mbox_loc <- conv6_2_mbox_loc_flat
I0120 22:52:41.727325 11395 net.cpp:434] mbox_loc <- conv7_2_mbox_loc_flat
I0120 22:52:41.727327 11395 net.cpp:434] mbox_loc <- conv8_2_mbox_loc_flat
I0120 22:52:41.727330 11395 net.cpp:434] mbox_loc <- conv9_2_mbox_loc_flat
I0120 22:52:41.727334 11395 net.cpp:408] mbox_loc -> mbox_loc
I0120 22:52:41.727368 11395 net.cpp:150] Setting up mbox_loc
I0120 22:52:41.727372 11395 net.cpp:157] Top shape: 8 34928 (279424)
I0120 22:52:41.727375 11395 net.cpp:165] Memory required for data: 2777272388
I0120 22:52:41.727377 11395 layer_factory.hpp:77] Creating layer mbox_conf
I0120 22:52:41.727381 11395 net.cpp:100] Creating Layer mbox_conf
I0120 22:52:41.727385 11395 net.cpp:434] mbox_conf <- conv4_3_norm_mbox_conf_flat
I0120 22:52:41.727388 11395 net.cpp:434] mbox_conf <- fc7_mbox_conf_flat
I0120 22:52:41.727392 11395 net.cpp:434] mbox_conf <- conv6_2_mbox_conf_flat
I0120 22:52:41.727394 11395 net.cpp:434] mbox_conf <- conv7_2_mbox_conf_flat
I0120 22:52:41.727397 11395 net.cpp:434] mbox_conf <- conv8_2_mbox_conf_flat
I0120 22:52:41.727401 11395 net.cpp:434] mbox_conf <- conv9_2_mbox_conf_flat
I0120 22:52:41.727406 11395 net.cpp:408] mbox_conf -> mbox_conf
I0120 22:52:41.727430 11395 net.cpp:150] Setting up mbox_conf
I0120 22:52:41.727434 11395 net.cpp:157] Top shape: 8 183372 (1466976)
I0120 22:52:41.727437 11395 net.cpp:165] Memory required for data: 2783140292
I0120 22:52:41.727438 11395 layer_factory.hpp:77] Creating layer mbox_priorbox
I0120 22:52:41.727442 11395 net.cpp:100] Creating Layer mbox_priorbox
I0120 22:52:41.727444 11395 net.cpp:434] mbox_priorbox <- conv4_3_norm_mbox_priorbox
I0120 22:52:41.727447 11395 net.cpp:434] mbox_priorbox <- fc7_mbox_priorbox
I0120 22:52:41.727450 11395 net.cpp:434] mbox_priorbox <- conv6_2_mbox_priorbox
I0120 22:52:41.727453 11395 net.cpp:434] mbox_priorbox <- conv7_2_mbox_priorbox
I0120 22:52:41.727455 11395 net.cpp:434] mbox_priorbox <- conv8_2_mbox_priorbox
I0120 22:52:41.727458 11395 net.cpp:434] mbox_priorbox <- conv9_2_mbox_priorbox
I0120 22:52:41.727463 11395 net.cpp:408] mbox_priorbox -> mbox_priorbox
I0120 22:52:41.727491 11395 net.cpp:150] Setting up mbox_priorbox
I0120 22:52:41.727495 11395 net.cpp:157] Top shape: 1 2 34928 (69856)
I0120 22:52:41.727497 11395 net.cpp:165] Memory required for data: 2783419716
I0120 22:52:41.727500 11395 layer_factory.hpp:77] Creating layer mbox_loss
I0120 22:52:41.727509 11395 net.cpp:100] Creating Layer mbox_loss
I0120 22:52:41.727510 11395 net.cpp:434] mbox_loss <- mbox_loc
I0120 22:52:41.727514 11395 net.cpp:434] mbox_loss <- mbox_conf
I0120 22:52:41.727516 11395 net.cpp:434] mbox_loss <- mbox_priorbox
…
state {
  phase: TEST
}
layer {
  name: "data"
  type: "AnnotatedData"
  top: "data"
  top: "label"
  include {
    phase: TEST
  }
  transform_param {
    mean_value: 104
    mean_value: 117
    mean_value: 123
    resize_param {
      prob: 1
      resize_mode: WARP
      height: 300
      width: 300
      interp_mode: LINEAR
    }
  }
  data_param {
    source: "examples/VOC0712/VOC0712_test_lmdb"
    batch_size: 8
    backend: LMDB
  }
  annotated_data_param {
    batch_sampler {
    }
    label_map_file: "data/VOC0712/labelmap_voc.prototxt"
  }
}
layer {
  name: "conv1_1"
  type: "Convolution"
  bottom: "data"
  top: "conv1_1"
  param {
    lr_mult: 1
    decay_mult: 1
  }
  param {
    lr_mult: 2
    decay_mult: 0
  }
  convolution_param {
    num_output: 64
    pad: 1
    kernel_size: 3
    weight_filler {
      type: "xavier"
    }
    bias_filler {
      type: "constant"
      value: 0
    }
  }
}
layer {
  name: "relu1_1"
  type: "ReLU"
  bottom: "conv1_1"
  top: "conv1_1"
}
layer {
  name: "conv1_2"
  type: "Convolution"
  bottom: "conv1_1"
  top: "conv1_2"
  param {
    lr_mult: 1
    decay_mult: 1
  }
  param {
    lr_mult: 2
    decay_mult: 0
  }
  convolution_param {
    num_output: 64
    pad: 1
    kernel_size: 3
    weight_filler {
      type: "xavier"
    }
    bias_filler {
      type: "constant"
      value: 0
    }
  }
}
layer {
  name: "relu1_2"
  type: "ReLU"
  bottom: "conv1_2"
  top: "conv1_2"
}
layer {
  name: "pool1"
  type: "Pooling"
  bottom: "conv1_2"
  top: "pool1"
  pooling_param {
    pool: MAX
    kernel_size: 2
    stride: 2
  }
}
layer {
  name: "conv2_1"
  type: "Convolution"
  bottom: "pool1"
  top: "conv2_1"
  param {
    lr_mult: 1
    decay_mult: 1
  }
  param {
    lr_mult: 2
    decay_mult: 0
  }
  convolution_param {
    num_output: 128
    pad: 1
    kernel_size: 3
    weight_filler {
      type: "xavier"
    }
    bias_filler {
      type: "constant"
      value: 0
    }
  }
}
layer {
  name: "relu2_1"
  type: "ReLU"
  bottom: "conv2_1"
  top: "conv2_1"
}
layer {
  name: "conv2_2"
  type: "Convolution"
  bottom: "conv2_1"
  top: "conv2_2"
  param {
    lr_mult: 1
    decay_mult: 1
  }
  param {
    lr_mult: 2
    decay_mult: 0
  }
  convolution_param {
    num_output: 128
    pad: 1
    kernel_size: 3
    weight_filler {
      type: "xavier"
    }
    bias_filler {
      type: "constant"
      value: 0
    }
  }
}
layer {
  name: "relu2_2"
  type: "ReLU"
  bottom: "conv2_2"
  top: "conv2_2"
}
layer {
  name: "pool2"
  type: "Pooling"
  bottom: "conv2_2"
  top: "pool2"
  pooling_param {
    pool: MAX
    kernel_size: 2
    stride: 2
  }
}
layer {
  name: "conv3_1"
  type: "Convolution"
  bottom: "pool2"
  top: "conv3_1"
  param {
    lr_mult: 1
    decay_mult: 1
  }
  param {
    lr_mult: 2
    decay_mult: 0
  }
  convolution_param {
    num_output: 256
    pad: 1
    kernel_size: 3
    weight_filler {
      type: "xavier"
    }
    bias_filler {
      type: "constant"
      value: 0
    }
  }
}
layer {
  name: "relu3_1"
  type: "ReLU"
  bottom: "conv3_1"
  top: "conv3_1"
}
layer {
  name: "conv3_2"
  type: "Convolution"
  bottom: "conv3_1"
  top: "conv3_2"
  param {
    lr_mult: 1
    decay_mult: 1
  }
  param {
    lr_mult: 2
    decay_mult: 0
  }
  convolution_param {
    num_output: 256
    pad: 1
    kernel_size: 3
    weight_filler {
      type: "xavier"
    }
    bias_filler {
      type: "constant"
      value: 0
    }
  }
}
layer {
  name: "relu3_2"
  type: "ReLU"
  bottom: "conv3_2"
  top: "conv3_2"
}
layer {
  name: "conv3_3"
  type: "Convolution"
  bottom: "conv3_2"
  top: "conv3_3"
  param {
    lr_mult: 1
    decay_mult: 1
  }
  param {
    lr_mult: 2
    decay_mult: 0
  }
  convolution_param {
    num_output: 256
    pad: 1
    kernel_size: 3
    weight_filler {
      type: "xavier"
    }
    bias_filler {
      type: "constant"
      value: 0
    }
  }
}
layer {
  name: "relu3_3"
  type: "ReLU"
  bottom: "conv3_3"
  top: "conv3_3"
}
layer {
  name: "pool3"
  type: "Pooling"
  bottom: "conv3_3"
  top: "pool3"
  pooling_param {
    pool: MAX
    kernel_size: 2
    stride: 2
  }
}
layer {
  name: "conv4_1"
  type: "Convolution"
  bottom: "pool3"
  top: "conv4_1"
  param {
    lr_mult: 1
    decay_mult: 1
  }
  param {
    lr_mult: 2
    decay_mult: 0
  }
  convolution_param {
    num_output: 512
    pad: 1
    kernel_size: 3
    weight_filler {
      type: "xavier"
    }
    bias_filler {
      type: "constant"
      value: 0
    }
  }
}
layer {
  name: "relu4_1"
  type: "ReLU"
  bottom: "conv4_1"
  top: "conv4_1"
}
layer {
  name: "conv4_2"
  type: "Convolution"
  bottom: "conv4_1"
  top: "conv4_2"
  param {
    lr_mult: 1
    decay_mult: 1
  }
  param {
    lr_mult: 2
    decay_mult: 0
  }
  convolution_param {
    num_output: 512
    pad: 1
    kernel_size: 3
    weight_filler {
      type: "xavier"
    }
    bias_filler {
      type: "constant"
      value: 0
    }
  }
}
layer {
  name: "relu4_2"
  type: "ReLU"
  bottom: "conv4_2"
  top: "conv4_2"
}
layer {
  name: "conv4_3"
  type: "Convolution"
  bottom: "conv4_2"
  top: "conv4_3_ori"
  param {
    lr_mult: 1
    decay_mult: 1
  }
  param {
    lr_mult: 2
    decay_mult: 0
  }
  convolution_param {
    num_output: 512
    pad: 1
    kernel_size: 3
    weight_filler {
      type: "xavier"
    }
    bias_filler {
      type: "constant"
      value: 0
    }
  }
}
layer {
  name: "relu4_3"
  type: "ReLU"
  bottom: "conv4_3_ori"
  top: "conv4_3_ori"
}
layer {
  name: "seg_pool4"
  type: "Pooling"
  bottom: "conv4_3_ori"
  top: "seg_pool4"
  pooling_param {
    pool: MAX
    kernel_size: 3
    stride: 1
    pad: 1
  }
}
layer {
  name: "seg5_1"
  type: "Convolution"
  bottom: "seg_pool4"
  top: "seg5_1"
  param {
    lr_mult: 1
    decay_mult: 1
  }
  param {
    lr_mult: 2
    decay_mult: 0
  }
  convolution_param {
    num_output: 512
    pad: 2
    kernel_size: 3
    weight_filler {
      type: "xavier"
    }
    bias_filler {
      type: "constant"
      value: 0
    }
    dilation: 2
  }
}
layer {
  name: "seg_relu5_1"
  type: "ReLU"
  bottom: "seg5_1"
  top: "seg5_1"
}
layer {
  name: "seg5_2"
  type: "Convolution"
  bottom: "seg5_1"
  top: "seg5_2"
  param {
    lr_mult: 1
    decay_mult: 1
  }
  param {
    lr_mult: 2
    decay_mult: 0
  }
  convolution_param {
    num_output: 512
    pad: 2
    kernel_size: 3
    weight_filler {
      type: "xavier"
    }
    bias_filler {
      type: "constant"
      value: 0
    }
    dilation: 2
  }
}
layer {
  name: "seg_relu5_2"
  type: "ReLU"
  bottom: "seg5_2"
  top: "seg5_2"
}
layer {
  name: "seg5_3"
  type: "Convolution"
  bottom: "seg5_2"
  top: "seg5_3"
  param {
    lr_mult: 1
    decay_mult: 1
  }
  param {
    lr_mult: 2
    decay_mult: 0
  }
  convolution_param {
    num_output: 512
    pad: 2
    kernel_size: 3
    weight_filler {
      type: "xavier"
    }
    bias_filler {
      type: "constant"
      value: 0
    }
    dilation: 2
  }
}
layer {
  name: "seg_relu5_3"
  type: "ReLU"
  bottom: "seg5_3"
  top: "seg5_3"
}
layer {
  name: "seg_pool5"
  type: "Pooling"
  bottom: "seg5_3"
  top: "seg_pool5"
  pooling_param {
    pool: MAX
    kernel_size: 3
    stride: 1
    pad: 1
  }
}
layer {
  name: "seg6"
  type: "Convolution"
  bottom: "seg_pool5"
  top: "seg6"
  param {
    lr_mult: 1
    decay_mult: 1
  }
  param {
    lr_mult: 2
    decay_mult: 0
  }
  convolution_param {
    num_output: 1024
    pad: 4
    kernel_size: 3
    weight_filler {
      type: "xavier"
    }
    bias_filler {
      type: "constant"
      value: 0
    }
    dilation: 4
  }
}
layer {
  name: "seg_relu6"
  type: "ReLU"
  bottom: "seg6"
  top: "seg6"
}
layer {
  name: "seg_drop6"
  type: "Dropout"
  bottom: "seg6"
  top: "seg6"
  dropout_param {
    dropout_ratio: 0.5
  }
}
layer {
  name: "seg7"
  type: "Convolution"
  bottom: "seg6"
  top: "seg7"
  param {
    lr_mult: 1
    decay_mult: 1
  }
  param {
    lr_mult: 2
    decay_mult: 0
  }
  convolution_param {
    num_output: 1024
    kernel_size: 1
    weight_filler {
      type: "xavier"
    }
    bias_filler {
      type: "constant"
      value: 0
    }
  }
}
layer {
  name: "seg_relu7"
  type: "ReLU"
  bottom: "seg7"
  top: "seg7"
}
layer {
  name: "seg_to_det_conv"
  type: "Convolution"
  bottom: "seg7"
  top: "seg_to_det_conv"
  param {
    lr_mult: 1
    decay_mult: 1
  }
  param {
    lr_mult: 2
    decay_mult: 0
  }
  propagate_down: false
  convolution_param {
    num_output: 512
    pad: 0
    kernel_size: 1
    stride: 1
    weight_filler {
      type: "xavier"
    }
    bias_filler {
      type: "constant"
      value: 0
    }
  }
}
layer {
  name: "mult_conv4_3"
  type: "Eltwise"
  bottom: "conv4_3_ori"
  bottom: "seg_to_det_conv"
  top: "conv4_3_t"
  eltwise_param {
    operation: PROD
  }
}
layer {
  name: "conv4_3_s"
  type: "Pooling"
  bottom: "conv4_3_t"
  top: "conv4_3_s"
  pooling_param {
    pool: AVE
    global_pooling: true
  }
}
layer {
  name: "conv4_3_fc1"
  type: "Convolution"
  bottom: "conv4_3_s"
  top: "conv4_3_fc1"
  param {
    lr_mult: 1
    decay_mult: 1
  }
  param {
    lr_mult: 2
    decay_mult: 0
  }
  convolution_param {
    num_output: 128
    kernel_size: 1
    stride: 1
    weight_filler {
      type: "xavier"
    }
    bias_filler {
      type: "constant"
      value: 0
    }
  }
}
layer {
  name: "conv4_3_relu"
  type: "ReLU"
  bottom: "conv4_3_fc1"
  top: "conv4_3_fc1"
}
layer {
  name: "conv4_3_fc2"
  type: "Convolution"
  bottom: "conv4_3_fc1"
  top: "conv4_3_fc2"
  param {
    lr_mult: 1
    decay_mult: 1
  }
  param {
    lr_mult: 2
    decay_mult: 0
  }
  convolution_param {
    num_output: 512
    kernel_size: 1
    stride: 1
    weight_filler {
      type: "xavier"
    }
    bias_filler {
      type: "constant"
      value: 0
    }
  }
}
layer {
  name: "conv4_3_sig"
  type: "Sigmoid"
  bottom: "conv4_3_fc2"
  top: "conv4_3_fc2"
}
layer {
  name: "conv4_3_reshape"
  type: "Reshape"
  bottom: "conv4_3_fc2"
  top: "conv4_3_reshape"
  reshape_param {
    shape {
      dim: 0
      dim: 0
    }
  }
}
layer {
  name: "conv4_3_scale"
  type: "Scale"
  bottom: "conv4_3_t"
  bottom: "conv4_3_reshape"
  top: "conv4_3"
  scale_param {
    axis: 0
    bias_term: false
  }
}
layer {
  name: "pool4"
  type: "Pooling"
  bottom: "conv4_3"
  top: "pool4"
  pooling_param {
    pool: MAX
    kernel_size: 2
    stride: 2
  }
}
layer {
  name: "conv5_1"
  type: "Convolution"
  bottom: "pool4"
  top: "conv5_1"
  param {
    lr_mult: 1
    decay_mult: 1
  }
  param {
    lr_mult: 2
    decay_mult: 0
  }
  convolution_param {
    num_output: 512
    pad: 1
    kernel_size: 3
    weight_filler {
      type: "xavier"
    }
    bias_filler {
      type: "constant"
      value: 0
    }
    dilation: 1
  }
}
layer {
  name: "relu5_1"
  type: "ReLU"
  bottom: "conv5_1"
  top: "conv5_1"
}
layer {
  name: "conv5_2"
  type: "Convolution"
  bottom: "conv5_1"
  top: "conv5_2"
  param {
    lr_mult: 1
    decay_mult: 1
  }
  param {
    lr_mult: 2
    decay_mult: 0
  }
  convolution_param {
    num_output: 512
    pad: 1
    kernel_size: 3
    weight_filler {
      type: "xavier"
    }
    bias_filler {
      type: "constant"
      value: 0
    }
    dilation: 1
  }
}
layer {
  name: "relu5_2"
  type: "ReLU"
  bottom: "conv5_2"
  top: "conv5_2"
}
layer {
  name: "conv5_3"
  type: "Convolution"
  bottom: "conv5_2"
  top: "conv5_3"
  param {
    lr_mult: 1
    decay_mult: 1
  }
  param {
    lr_mult: 2
    decay_mult: 0
  }
  convolution_param {
    num_output: 512
    pad: 1
    kernel_size: 3
    weight_filler {
      type: "xavier"
    }
    bias_filler {
      type: "constant"
      value: 0
    }
    dilation: 1
  }
}
layer {
  name: "relu5_3"
  type: "ReLU"
  bottom: "conv5_3"
  top: "conv5_3"
}
layer {
  name: "pool5"
  type: "Pooling"
  bottom: "conv5_3"
  top: "pool5"
  pooling_param {
    pool: MAX
    kernel_size: 3
    stride: 1
    pad: 1
  }
}
layer {
  name: "fc6"
  type: "Convolution"
  bottom: "pool5"
  top: "fc6"
  param {
    lr_mult: 1
    decay_mult: 1
  }
  param {
    lr_mult: 2
    decay_mult: 0
  }
  convolution_param {
    num_output: 1024
    pad: 6
    kernel_size: 3
    weight_filler {
      type: "xavier"
    }
    bias_filler {
      type: "constant"
      value: 0
    }
    dilation: 6
  }
}
layer {
  name: "relu6"
  type: "ReLU"
  bottom: "fc6"
  top: "fc6"
}
layer {
  name: "fc7"
  type: "Convolution"
  bottom: "fc6"
  top: "fc7_t"
  param {
    lr_mult: 1
    decay_mult: 1
  }
  param {
    lr_mult: 2
    decay_mult: 0
  }
  convolution_param {
    num_output: 1024
    kernel_size: 1
    weight_filler {
      type: "xavier"
    }
    bias_filler {
      type: "constant"
      value: 0
    }
  }
}
layer {
  name: "relu7"
  type: "ReLU"
  bottom: "fc7_t"
  top: "fc7_t"
}
layer {
  name: "fc7_s"
  type: "Pooling"
  bottom: "fc7_t"
  top: "fc7_s"
  pooling_param {
    pool: AVE
    global_pooling: true
  }
}
layer {
  name: "fc7_fc1"
  type: "Convolution"
  bottom: "fc7_s"
  top: "fc7_fc1"
  param {
    lr_mult: 1
    decay_mult: 1
  }
  param {
    lr_mult: 2
    decay_mult: 0
  }
  convolution_param {
    num_output: 256
    kernel_size: 1
    stride: 1
    weight_filler {
      type: "xavier"
    }
    bias_filler {
      type: "constant"
      value: 0
    }
  }
}
layer {
  name: "fc7_relu"
  type: "ReLU"
  bottom: "fc7_fc1"
  top: "fc7_fc1"
}
layer {
  name: "fc7_fc2"
  type: "Convolution"
  bottom: "fc7_fc1"
  top: "fc7_fc2"
  param {
    lr_mult: 1
    decay_mult: 1
  }
  param {
    lr_mult: 2
    decay_mult: 0
  }
  convolution_param {
    num_output: 1024
    kernel_size: 1
    stride: 1
    weight_filler {
      type: "xavier"
    }
    bias_filler {
      type: "constant"
      value: 0
    }
  }
}
layer {
  name: "fc7_sig"
  type: "Sigmoid"
  bottom: "fc7_fc2"
  top: "fc7_fc2"
}
layer {
  name: "fc7_reshape"
  type: "Reshape"
  bottom: "fc7_fc2"
  top: "fc7_reshape"
  reshape_param {
    shape {
      dim: 0
      dim: 0
    }
  }
}
layer {
  name: "fc7_scale"
  type: "Scale"
  bottom: "fc7_t"
  bottom: "fc7_reshape"
  top: "fc7"
  scale_param {
    axis: 0
    bias_term: false
  }
}
layer {
  name: "conv6_1"
  type: "Convolution"
  bottom: "fc7"
  top: "conv6_1"
  param {
    lr_mult: 1
    decay_mult: 1
  }
  param {
    lr_mult: 2
    decay_mult: 0
  }
  convolution_param {
    num_output: 256
    pad: 0
    kernel_size: 1
    stride: 1
    weight_filler {
      type: "xavier"
    }
    bias_filler {
      type: "constant"
      value: 0
    }
  }
}
layer {
  name: "conv6_1_relu"
  type: "ReLU"
  bottom: "conv6_1"
  top: "conv6_1"
}
layer {
  name: "conv6_2"
  type: "Convolution"
  bottom: "conv6_1"
  top: "conv6_2_t"
  param {
    lr_mult: 1
    decay_mult: 1
  }
  param {
    lr_mult: 2
    decay_mult: 0
  }
  convolution_param {
    num_output: 512
    pad: 1
    kernel_size: 3
    stride: 2
    weight_filler {
      type: "xavier"
    }
    bias_filler {
      type: "constant"
      value: 0
    }
  }
}
layer {
  name: "conv6_2_relu"
  type: "ReLU"
  bottom: "conv6_2_t"
  top: "conv6_2_t"
}
layer {
  name: "conv6_2_s"
  type: "Pooling"
  bottom: "conv6_2_t"
  top: "conv6_2_s"
  pooling_param {
    pool: AVE
    global_pooling: true
  }
}
layer {
  name: "conv6_2_fc1"
  type: "Convolution"
  bottom: "conv6_2_s"
  top: "conv6_2_fc1"
  param {
    lr_mult: 1
    decay_mult: 1
  }
  param {
    lr_mult: 2
    decay_mult: 0
  }
  convolution_param {
    num_output: 128
    kernel_size: 1
    stride: 1
    weight_filler {
      type: "xavier"
    }
    bias_filler {
      type: "constant"
      value: 0
    }
  }
}
layer {
  name: "conv6_2_relu"
  type: "ReLU"
  bottom: "conv6_2_fc1"
  top: "conv6_2_fc1"
}
layer {
  name: "conv6_2_fc2"
  type: "Convolution"
  bottom: "conv6_2_fc1"
  top: "conv6_2_fc2"
  param {
    lr_mult: 1
    decay_mult: 1
  }
  param {
    lr_mult: 2
    decay_mult: 0
  }
  convolution_param {
    num_output: 512
    kernel_size: 1
    stride: 1
    weight_filler {
      type: "xavier"
    }
    bias_filler {
      type: "constant"
      value: 0
    }
  }
}
layer {
  name: "conv6_2_sig"
  type: "Sigmoid"
  bottom: "conv6_2_fc2"
  top: "conv6_2_fc2"
}
layer {
  name: "conv6_2_reshape"
  type: "Reshape"
  bottom: "conv6_2_fc2"
  top: "conv6_2_reshape"
  reshape_param {
    shape {
      dim: 0
      dim: 0
    }
  }
}
layer {
  name: "conv6_2_scale"
  type: "Scale"
  bottom: "conv6_2_t"
  bottom: "conv6_2_reshape"
  top: "conv6_2"
  scale_param {
    axis: 0
    bias_term: false
  }
}
layer {
  name: "conv7_1"
  type: "Convolution"
  bottom: "conv6_2"
  top: "conv7_1"
  param {
    lr_mult: 1
    decay_mult: 1
  }
  param {
    lr_mult: 2
    decay_mult: 0
  }
  convolution_param {
    num_output: 128
    pad: 0
    kernel_size: 1
    stride: 1
    weight_filler {
      type: "xavier"
    }
    bias_filler {
      type: "constant"
      value: 0
    }
  }
}
layer {
  name: "conv7_1_relu"
  type: "ReLU"
  bottom: "conv7_1"
  top: "conv7_1"
}
layer {
  name: "conv7_2"
  type: "Convolution"
  bottom: "conv7_1"
  top: "conv7_2_t"
  param {
    lr_mult: 1
    decay_mult: 1
  }
  param {
    lr_mult: 2
    decay_mult: 0
  }
  convolution_param {
    num_output: 256
    pad: 1
    kernel_size: 3
    stride: 2
    weight_filler {
      type: "xavier"
    }
    bias_filler {
      type: "constant"
      value: 0
    }
  }
}
layer {
  name: "conv7_2_relu"
  type: "ReLU"
  bottom: "conv7_2_t"
  top: "conv7_2_t"
}
layer {
  name: "conv7_2_s"
  type: "Pooling"
  bottom: "conv7_2_t"
  top: "conv7_2_s"
  pooling_param {
    pool: AVE
    global_pooling: true
  }
}
layer {
  name: "conv7_2_fc1"
  type: "Convolution"
  bottom: "conv7_2_s"
  top: "conv7_2_fc1"
  param {
    lr_mult: 1
    decay_mult: 1
  }
  param {
    lr_mult: 2
    decay_mult: 0
  }
  convolution_param {
    num_output: 64
    kernel_size: 1
    stride: 1
    weight_filler {
      type: "xavier"
    }
    bias_filler {
      type: "constant"
      value: 0
    }
  }
}
layer {
  name: "conv7_2_relu"
  type: "ReLU"
  bottom: "conv7_2_fc1"
  top: "conv7_2_fc1"
}
layer {
  name: "conv7_2_fc2"
  type: "Convolution"
  bottom: "conv7_2_fc1"
  top: "conv7_2_fc2"
  param {
    lr_mult: 1
    decay_mult: 1
  }
  param {
    lr_mult: 2
    decay_mult: 0
  }
  convolution_param {
    num_output: 256
    kernel_size: 1
    stride: 1
    weight_filler {
      type: "xavier"
    }
    bias_filler {
      type: "constant"
      value: 0
    }
  }
}
layer {
  name: "conv7_2_sig"
  type: "Sigmoid"
  bottom: "conv7_2_fc2"
  top: "conv7_2_fc2"
}
layer {
  name: "conv7_2_reshape"
  type: "Reshape"
  bottom: "conv7_2_fc2"
  top: "conv7_2_reshape"
  reshape_param {
    shape {
      dim: 0
      dim: 0
    }
  }
}
layer {
  name: "conv7_2_scale"
  type: "Scale"
  bottom: "conv7_2_t"
  bottom: "conv7_2_reshape"
  top: "conv7_2"
  scale_param {
    axis: 0
    bias_term: false
  }
}
layer {
  name: "conv8_1"
  type: "Convolution"
  bottom: "conv7_2"
  top: "conv8_1"
  param {
    lr_mult: 1
    decay_mult: 1
  }
  param {
    lr_mult: 2
    decay_mult: 0
  }
  convolution_param {
    num_output: 128
    pad: 0
    kernel_size: 1
    stride: 1
    weight_filler {
      type: "xavier"
    }
    bias_filler {
      type: "constant"
      value: 0
    }
  }
}
layer {
  name: "conv8_1_relu"
  type: "ReLU"
  bottom: "conv8_1"
  top: "conv8_1"
}
layer {
  name: "conv8_2"
  type: "Convolution"
  bottom: "conv8_1"
  top: "conv8_2_t"
  param {
    lr_mult: 1
    decay_mult: 1
  }
  param {
    lr_mult: 2
    decay_mult: 0
  }
  convolution_param {
    num_output: 256
    pad: 0
    kernel_size: 3
    stride: 1
    weight_filler {
      type: "xavier"
    }
    bias_filler {
      type: "constant"
      value: 0
    }
  }
}
layer {
  name: "conv8_2_relu"
  type: "ReLU"
  bottom: "conv8_2_t"
  top: "conv8_2_t"
}
layer {
  name: "conv8_2_s"
  type: "Pooling"
  bottom: "conv8_2_t"
  top: "conv8_2_s"
  pooling_param {
    pool: AVE
    global_pooling: true
  }
}
layer {
  name: "conv8_2_fc1"
  type: "Convolution"
  bottom: "conv8_2_s"
  top: "conv8_2_fc1"
  param {
    lr_mult: 1
    decay_mult: 1
  }
  param {
    lr_mult: 2
    decay_mult: 0
  }
  convolution_param {
    num_output: 64
    kernel_size: 1
    stride: 1
    weight_filler {
      type: "xavier"
    }
    bias_filler {
      type: "constant"
      value: 0
    }
  }
}
layer {
  name: "conv8_2_relu"
  type: "ReLU"
  bottom: "conv8_2_fc1"
  top: "conv8_2_fc1"
}
layer {
  name: "conv8_2_fc2"
  type: "Convolution"
  bottom: "conv8_2_fc1"
  top: "conv8_2_fc2"
  param {
    lr_mult: 1
    decay_mult: 1
  }
  param {
    lr_mult: 2
    decay_mult: 0
  }
  convolution_param {
    num_output: 256
    kernel_size: 1
    stride: 1
    weight_filler {
      type: "xavier"
    }
    bias_filler {
      type: "constant"
      value: 0
    }
  }
}
layer {
  name: "conv8_2_sig"
  type: "Sigmoid"
  bottom: "conv8_2_fc2"
  top: "conv8_2_fc2"
}
layer {
  name: "conv8_2_reshape"
  type: "Reshape"
  bottom: "conv8_2_fc2"
  top: "conv8_2_reshape"
  reshape_param {
    shape {
      dim: 0
      dim: 0
    }
  }
}
layer {
  name: "conv8_2_scale"
  type: "Scale"
  bottom: "conv8_2_t"
  bottom: "conv8_2_reshape"
  top: "conv8_2"
  scale_param {
    axis: 0
    bias_term: false
  }
}
layer {
  name: "conv9_1"
  type: "Convolution"
  bottom: "conv8_2"
  top: "conv9_1"
  param {
    lr_mult: 1
    decay_mult: 1
  }
  param {
    lr_mult: 2
    decay_mult: 0
  }
  convolution_param {
    num_output: 128
    pad: 0
    kernel_size: 1
    stride: 1
    weight_filler {
      type: "xavier"
    }
    bias_filler {
      type: "constant"
      value: 0
    }
  }
}
layer {
  name: "conv9_1_relu"
  type: "ReLU"
  bottom: "conv9_1"
  top: "conv9_1"
}
layer {
  name: "conv9_2"
  type: "Convolution"
  bottom: "conv9_1"
  top: "conv9_2_t"
  param {
    lr_mult: 1
    decay_mult: 1
  }
  param {
    lr_mult: 2
    decay_mult: 0
  }
  convolution_param {
    num_output: 256
    pad: 0
    kernel_size: 3
    stride: 1
    weight_filler {
      type: "xavier"
    }
    bias_filler {
      type: "constant"
      value: 0
    }
  }
}
layer {
  name: "conv9_2_relu"
  type: "ReLU"
  bottom: "conv9_2_t"
  top: "conv9_2_t"
}
layer {
  name: "conv9_2_s"
  type: "Pooling"
  bottom: "conv9_2_t"
  top: "conv9_2_s"
  pooling_param {
    pool: AVE
    global_pooling: true
  }
}
layer {
  name: "conv9_2_fc1"
  type: "Convolution"
  bottom: "conv9_2_s"
  top: "conv9_2_fc1"
  param {
    lr_mult: 1
    decay_mult: 1
  }
  param {
    lr_mult: 2
    decay_mult: 0
  }
  convolution_param {
    num_output: 64
    kernel_size: 1
    stride: 1
    weight_filler {
      type: "xavier"
    }
…
I0120 22:52:42.000664 11395 net.cpp:157] Top shape: 8 64 1 1 (512)
I0120 22:52:42.000669 11395 net.cpp:165] Memory required for data: 2513242176
I0120 22:52:42.000676 11395 layer_factory.hpp:77] Creating layer conv7_2_relu
I0120 22:52:42.000685 11395 net.cpp:100] Creating Layer conv7_2_relu
I0120 22:52:42.000690 11395 net.cpp:434] conv7_2_relu <- conv7_2_fc1
I0120 22:52:42.000699 11395 net.cpp:395] conv7_2_relu -> conv7_2_fc1 (in-place)
I0120 22:52:42.000880 11395 net.cpp:150] Setting up conv7_2_relu
I0120 22:52:42.000887 11395 net.cpp:157] Top shape: 8 64 1 1 (512)
I0120 22:52:42.000913 11395 net.cpp:165] Memory required for data: 2513244224
I0120 22:52:42.000918 11395 layer_factory.hpp:77] Creating layer conv7_2_fc2
I0120 22:52:42.000931 11395 net.cpp:100] Creating Layer conv7_2_fc2
I0120 22:52:42.000936 11395 net.cpp:434] conv7_2_fc2 <- conv7_2_fc1
I0120 22:52:42.000943 11395 net.cpp:408] conv7_2_fc2 -> conv7_2_fc2
I0120 22:52:42.002176 11395 net.cpp:150] Setting up conv7_2_fc2
I0120 22:52:42.002188 11395 net.cpp:157] Top shape: 8 256 1 1 (2048)
I0120 22:52:42.002192 11395 net.cpp:165] Memory required for data: 2513252416
I0120 22:52:42.002212 11395 layer_factory.hpp:77] Creating layer conv7_2_sig
I0120 22:52:42.002220 11395 net.cpp:100] Creating Layer conv7_2_sig
I0120 22:52:42.002230 11395 net.cpp:434] conv7_2_sig <- conv7_2_fc2
I0120 22:52:42.002236 11395 net.cpp:395] conv7_2_sig -> conv7_2_fc2 (in-place)
I0120 22:52:42.002723 11395 net.cpp:150] Setting up conv7_2_sig
I0120 22:52:42.002737 11395 net.cpp:157] Top shape: 8 256 1 1 (2048)
I0120 22:52:42.002740 11395 net.cpp:165] Memory required for data: 2513260608
I0120 22:52:42.002745 11395 layer_factory.hpp:77] Creating layer conv7_2_reshape
I0120 22:52:42.002753 11395 net.cpp:100] Creating Layer conv7_2_reshape
I0120 22:52:42.002756 11395 net.cpp:434] conv7_2_reshape <- conv7_2_fc2
I0120 22:52:42.002768 11395 net.cpp:408] conv7_2_reshape -> conv7_2_reshape
I0120 22:52:42.002811 11395 net.cpp:150] Setting up conv7_2_reshape
I0120 22:52:42.002818 11395 net.cpp:157] Top shape: 8 256 (2048)
I0120 22:52:42.002821 11395 net.cpp:165] Memory required for data: 2513268800
I0120 22:52:42.002825 11395 layer_factory.hpp:77] Creating layer conv7_2_scale
I0120 22:52:42.002835 11395 net.cpp:100] Creating Layer conv7_2_scale
I0120 22:52:42.002840 11395 net.cpp:434] conv7_2_scale <- conv7_2_t_conv7_2_relu_0_split_1
I0120 22:52:42.002846 11395 net.cpp:434] conv7_2_scale <- conv7_2_reshape
I0120 22:52:42.002852 11395 net.cpp:408] conv7_2_scale -> conv7_2
I0120 22:52:42.002944 11395 net.cpp:150] Setting up conv7_2_scale
I0120 22:52:42.002952 11395 net.cpp:157] Top shape: 8 256 5 5 (51200)
I0120 22:52:42.002955 11395 net.cpp:165] Memory required for data: 2513473600
I0120 22:52:42.002959 11395 layer_factory.hpp:77] Creating layer conv7_2_conv7_2_scale_0_split
I0120 22:52:42.002967 11395 net.cpp:100] Creating Layer conv7_2_conv7_2_scale_0_split
I0120 22:52:42.002971 11395 net.cpp:434] conv7_2_conv7_2_scale_0_split <- conv7_2
I0120 22:52:42.002979 11395 net.cpp:408] conv7_2_conv7_2_scale_0_split -> conv7_2_conv7_2_scale_0_split_0
I0120 22:52:42.002987 11395 net.cpp:408] conv7_2_conv7_2_scale_0_split -> conv7_2_conv7_2_scale_0_split_1
I0120 22:52:42.002995 11395 net.cpp:408] conv7_2_conv7_2_scale_0_split -> conv7_2_conv7_2_scale_0_split_2
I0120 22:52:42.003001 11395 net.cpp:408] conv7_2_conv7_2_scale_0_split -> conv7_2_conv7_2_scale_0_split_3
I0120 22:52:42.003085 11395 net.cpp:150] Setting up conv7_2_conv7_2_scale_0_split
I0120 22:52:42.003093 11395 net.cpp:157] Top shape: 8 256 5 5 (51200)
I0120 22:52:42.003098 11395 net.cpp:157] Top shape: 8 256 5 5 (51200)
I0120 22:52:42.003103 11395 net.cpp:157] Top shape: 8 256 5 5 (51200)
I0120 22:52:42.003106 11395 net.cpp:157] Top shape: 8 256 5 5 (51200)
I0120 22:52:42.003109 11395 net.cpp:165] Memory required for data: 2514292800
I0120 22:52:42.003113 11395 layer_factory.hpp:77] Creating layer conv8_1
I0120 22:52:42.003124 11395 net.cpp:100] Creating Layer conv8_1
I0120 22:52:42.003129 11395 net.cpp:434] conv8_1 <- conv7_2_conv7_2_scale_0_split_0
I0120 22:52:42.003136 11395 net.cpp:408] conv8_1 -> conv8_1
I0120 22:52:42.004408 11395 net.cpp:150] Setting up conv8_1
I0120 22:52:42.004420 11395 net.cpp:157] Top shape: 8 128 5 5 (25600)
I0120 22:52:42.004423 11395 net.cpp:165] Memory required for data: 2514395200
I0120 22:52:42.004431 11395 layer_factory.hpp:77] Creating layer conv8_1_relu
I0120 22:52:42.004438 11395 net.cpp:100] Creating Layer conv8_1_relu
I0120 22:52:42.004442 11395 net.cpp:434] conv8_1_relu <- conv8_1
I0120 22:52:42.004449 11395 net.cpp:395] conv8_1_relu -> conv8_1 (in-place)
I0120 22:52:42.004639 11395 net.cpp:150] Setting up conv8_1_relu
I0120 22:52:42.004648 11395 net.cpp:157] Top shape: 8 128 5 5 (25600)
I0120 22:52:42.004652 11395 net.cpp:165] Memory required for data: 2514497600
I0120 22:52:42.004657 11395 layer_factory.hpp:77] Creating layer conv8_2
I0120 22:52:42.004667 11395 net.cpp:100] Creating Layer conv8_2
I0120 22:52:42.004673 11395 net.cpp:434] conv8_2 <- conv8_1
I0120 22:52:42.004680 11395 net.cpp:408] conv8_2 -> conv8_2_t
I0120 22:52:42.008090 11395 net.cpp:150] Setting up conv8_2
I0120 22:52:42.008102 11395 net.cpp:157] Top shape: 8 256 3 3 (18432)
I0120 22:52:42.008106 11395 net.cpp:165] Memory required for data: 2514571328
I0120 22:52:42.008113 11395 layer_factory.hpp:77] Creating layer conv8_2_relu
I0120 22:52:42.008123 11395 net.cpp:100] Creating Layer conv8_2_relu
I0120 22:52:42.008128 11395 net.cpp:434] conv8_2_relu <- conv8_2_t
I0120 22:52:42.008134 11395 net.cpp:395] conv8_2_relu -> conv8_2_t (in-place)
I0120 22:52:42.008328 11395 net.cpp:150] Setting up conv8_2_relu
I0120 22:52:42.008337 11395 net.cpp:157] Top shape: 8 256 3 3 (18432)
I0120 22:52:42.008342 11395 net.cpp:165] Memory required for data: 2514645056
I0120 22:52:42.008344 11395 layer_factory.hpp:77] Creating layer conv8_2_t_conv8_2_relu_0_split
I0120 22:52:42.008352 11395 net.cpp:100] Creating Layer conv8_2_t_conv8_2_relu_0_split
I0120 22:52:42.008358 11395 net.cpp:434] conv8_2_t_conv8_2_relu_0_split <- conv8_2_t
I0120 22:52:42.008365 11395 net.cpp:408] conv8_2_t_conv8_2_relu_0_split -> conv8_2_t_conv8_2_relu_0_split_0
I0120 22:52:42.008373 11395 net.cpp:408] conv8_2_t_conv8_2_relu_0_split -> conv8_2_t_conv8_2_relu_0_split_1
I0120 22:52:42.008440 11395 net.cpp:150] Setting up conv8_2_t_conv8_2_relu_0_split
I0120 22:52:42.008450 11395 net.cpp:157] Top shape: 8 256 3 3 (18432)
I0120 22:52:42.008455 11395 net.cpp:157] Top shape: 8 256 3 3 (18432)
I0120 22:52:42.008458 11395 net.cpp:165] Memory required for data: 2514792512
I0120 22:52:42.008461 11395 layer_factory.hpp:77] Creating layer conv8_2_s
I0120 22:52:42.008468 11395 net.cpp:100] Creating Layer conv8_2_s
I0120 22:52:42.008473 11395 net.cpp:434] conv8_2_s <- conv8_2_t_conv8_2_relu_0_split_0
I0120 22:52:42.008479 11395 net.cpp:408] conv8_2_s -> conv8_2_s
I0120 22:52:42.008997 11395 net.cpp:150] Setting up conv8_2_s
I0120 22:52:42.009011 11395 net.cpp:157] Top shape: 8 256 1 1 (2048)
I0120 22:52:42.009014 11395 net.cpp:165] Memory required for data: 2514800704
I0120 22:52:42.009018 11395 layer_factory.hpp:77] Creating layer conv8_2_fc1
I0120 22:52:42.009030 11395 net.cpp:100] Creating Layer conv8_2_fc1
I0120 22:52:42.009034 11395 net.cpp:434] conv8_2_fc1 <- conv8_2_s
I0120 22:52:42.009042 11395 net.cpp:408] conv8_2_fc1 -> conv8_2_fc1
I0120 22:52:42.010277 11395 net.cpp:150] Setting up conv8_2_fc1
I0120 22:52:42.010288 11395 net.cpp:157] Top shape: 8 64 1 1 (512)
I0120 22:52:42.010290 11395 net.cpp:165] Memory required for data: 2514802752
I0120 22:52:42.010299 11395 layer_factory.hpp:77] Creating layer conv8_2_relu
I0120 22:52:42.010306 11395 net.cpp:100] Creating Layer conv8_2_relu
I0120 22:52:42.010311 11395 net.cpp:434] conv8_2_relu <- conv8_2_fc1
I0120 22:52:42.010318 11395 net.cpp:395] conv8_2_relu -> conv8_2_fc1 (in-place)
I0120 22:52:42.010499 11395 net.cpp:150] Setting up conv8_2_relu
I0120 22:52:42.010506 11395 net.cpp:157] Top shape: 8 64 1 1 (512)
I0120 22:52:42.010509 11395 net.cpp:165] Memory required for data: 2514804800
I0120 22:52:42.010514 11395 layer_factory.hpp:77] Creating layer conv8_2_fc2
I0120 22:52:42.010524 11395 net.cpp:100] Creating Layer conv8_2_fc2
I0120 22:52:42.010530 11395 net.cpp:434] conv8_2_fc2 <- conv8_2_fc1
I0120 22:52:42.010537 11395 net.cpp:408] conv8_2_fc2 -> conv8_2_fc2
I0120 22:52:42.011766 11395 net.cpp:150] Setting up conv8_2_fc2
I0120 22:52:42.011778 11395 net.cpp:157] Top shape: 8 256 1 1 (2048)
I0120 22:52:42.011781 11395 net.cpp:165] Memory required for data: 2514812992
I0120 22:52:42.011790 11395 layer_factory.hpp:77] Creating layer conv8_2_sig
I0120 22:52:42.011795 11395 net.cpp:100] Creating Layer conv8_2_sig
I0120 22:52:42.011813 11395 net.cpp:434] conv8_2_sig <- conv8_2_fc2
I0120 22:52:42.011821 11395 net.cpp:395] conv8_2_sig -> conv8_2_fc2 (in-place)
I0120 22:52:42.011998 11395 net.cpp:150] Setting up conv8_2_sig
I0120 22:52:42.012007 11395 net.cpp:157] Top shape: 8 256 1 1 (2048)
I0120 22:52:42.012012 11395 net.cpp:165] Memory required for data: 2514821184
I0120 22:52:42.012015 11395 layer_factory.hpp:77] Creating layer conv8_2_reshape
I0120 22:52:42.012023 11395 net.cpp:100] Creating Layer conv8_2_reshape
I0120 22:52:42.012027 11395 net.cpp:434] conv8_2_reshape <- conv8_2_fc2
I0120 22:52:42.012034 11395 net.cpp:408] conv8_2_reshape -> conv8_2_reshape
I0120 22:52:42.012078 11395 net.cpp:150] Setting up conv8_2_reshape
I0120 22:52:42.012084 11395 net.cpp:157] Top shape: 8 256 (2048)
I0120 22:52:42.012087 11395 net.cpp:165] Memory required for data: 2514829376
I0120 22:52:42.012091 11395 layer_factory.hpp:77] Creating layer conv8_2_scale
I0120 22:52:42.012099 11395 net.cpp:100] Creating Layer conv8_2_scale
I0120 22:52:42.012104 11395 net.cpp:434] conv8_2_scale <- conv8_2_t_conv8_2_relu_0_split_1
I0120 22:52:42.012109 11395 net.cpp:434] conv8_2_scale <- conv8_2_reshape
I0120 22:52:42.012115 11395 net.cpp:408] conv8_2_scale -> conv8_2
I0120 22:52:42.012210 11395 net.cpp:150] Setting up conv8_2_scale
I0120 22:52:42.012217 11395 net.cpp:157] Top shape: 8 256 3 3 (18432)
I0120 22:52:42.012221 11395 net.cpp:165] Memory required for data: 2514903104
I0120 22:52:42.012225 11395 layer_factory.hpp:77] Creating layer conv8_2_conv8_2_scale_0_split
I0120 22:52:42.012233 11395 net.cpp:100] Creating Layer conv8_2_conv8_2_scale_0_split
I0120 22:52:42.012238 11395 net.cpp:434] conv8_2_conv8_2_scale_0_split <- conv8_2
I0120 22:52:42.012244 11395 net.cpp:408] conv8_2_conv8_2_scale_0_split -> conv8_2_conv8_2_scale_0_split_0
I0120 22:52:42.012253 11395 net.cpp:408] conv8_2_conv8_2_scale_0_split -> conv8_2_conv8_2_scale_0_split_1
I0120 22:52:42.012259 11395 net.cpp:408] conv8_2_conv8_2_scale_0_split -> conv8_2_conv8_2_scale_0_split_2
I0120 22:52:42.012266 11395 net.cpp:408] conv8_2_conv8_2_scale_0_split -> conv8_2_conv8_2_scale_0_split_3
I0120 22:52:42.012351 11395 net.cpp:150] Setting up conv8_2_conv8_2_scale_0_split
I0120 22:52:42.012358 11395 net.cpp:157] Top shape: 8 256 3 3 (18432)
I0120 22:52:42.012363 11395 net.cpp:157] Top shape: 8 256 3 3 (18432)
I0120 22:52:42.012367 11395 net.cpp:157] Top shape: 8 256 3 3 (18432)
I0120 22:52:42.012372 11395 net.cpp:157] Top shape: 8 256 3 3 (18432)
I0120 22:52:42.012375 11395 net.cpp:165] Memory required for data: 2515198016
I0120 22:52:42.012378 11395 layer_factory.hpp:77] Creating layer conv9_1
I0120 22:52:42.012392 11395 net.cpp:100] Creating Layer conv9_1
I0120 22:52:42.012395 11395 net.cpp:434] conv9_1 <- conv8_2_conv8_2_scale_0_split_0
I0120 22:52:42.012405 11395 net.cpp:408] conv9_1 -> conv9_1
I0120 22:52:42.013700 11395 net.cpp:150] Setting up conv9_1
I0120 22:52:42.013712 11395 net.cpp:157] Top shape: 8 128 3 3 (9216)
I0120 22:52:42.013715 11395 net.cpp:165] Memory required for data: 2515234880
I0120 22:52:42.013723 11395 layer_factory.hpp:77] Creating layer conv9_1_relu
I0120 22:52:42.013736 11395 net.cpp:100] Creating Layer conv9_1_relu
I0120 22:52:42.013739 11395 net.cpp:434] conv9_1_relu <- conv9_1
I0120 22:52:42.013746 11395 net.cpp:395] conv9_1_relu -> conv9_1 (in-place)
I0120 22:52:42.013926 11395 net.cpp:150] Setting up conv9_1_relu
I0120 22:52:42.013934 11395 net.cpp:157] Top shape: 8 128 3 3 (9216)
I0120 22:52:42.013937 11395 net.cpp:165] Memory required for data: 2515271744
I0120 22:52:42.013941 11395 layer_factory.hpp:77] Creating layer conv9_2
I0120 22:52:42.013955 11395 net.cpp:100] Creating Layer conv9_2
I0120 22:52:42.013959 11395 net.cpp:434] conv9_2 <- conv9_1
I0120 22:52:42.013968 11395 net.cpp:408] conv9_2 -> conv9_2_t
I0120 22:52:42.017370 11395 net.cpp:150] Setting up conv9_2
I0120 22:52:42.017383 11395 net.cpp:157] Top shape: 8 256 1 1 (2048)
I0120 22:52:42.017390 11395 net.cpp:165] Memory required for data: 2515279936
I0120 22:52:42.017397 11395 layer_factory.hpp:77] Creating layer conv9_2_relu
I0120 22:52:42.017416 11395 net.cpp:100] Creating Layer conv9_2_relu
I0120 22:52:42.017421 11395 net.cpp:434] conv9_2_relu <- conv9_2_t
I0120 22:52:42.017426 11395 net.cpp:395] conv9_2_relu -> conv9_2_t (in-place)
I0120 22:52:42.017913 11395 net.cpp:150] Setting up conv9_2_relu
I0120 22:52:42.017926 11395 net.cpp:157] Top shape: 8 256 1 1 (2048)
I0120 22:52:42.017930 11395 net.cpp:165] Memory required for data: 2515288128
I0120 22:52:42.017935 11395 layer_factory.hpp:77] Creating layer conv9_2_t_conv9_2_relu_0_split
I0120 22:52:42.017941 11395 net.cpp:100] Creating Layer conv9_2_t_conv9_2_relu_0_split
I0120 22:52:42.017946 11395 net.cpp:434] conv9_2_t_conv9_2_relu_0_split <- conv9_2_t
I0120 22:52:42.017953 11395 net.cpp:408] conv9_2_t_conv9_2_relu_0_split -> conv9_2_t_conv9_2_relu_0_split_0
I0120 22:52:42.017962 11395 net.cpp:408] conv9_2_t_conv9_2_relu_0_split -> conv9_2_t_conv9_2_relu_0_split_1
I0120 22:52:42.018028 11395 net.cpp:150] Setting up conv9_2_t_conv9_2_relu_0_split
I0120 22:52:42.018035 11395 net.cpp:157] Top shape: 8 256 1 1 (2048)
I0120 22:52:42.018040 11395 net.cpp:157] Top shape: 8 256 1 1 (2048)
I0120 22:52:42.018043 11395 net.cpp:165] Memory required for data: 2515304512
I0120 22:52:42.018046 11395 layer_factory.hpp:77] Creating layer conv9_2_s
I0120 22:52:42.018056 11395 net.cpp:100] Creating Layer conv9_2_s
I0120 22:52:42.018061 11395 net.cpp:434] conv9_2_s <- conv9_2_t_conv9_2_relu_0_split_0
I0120 22:52:42.018069 11395 net.cpp:408] conv9_2_s -> conv9_2_s
I0120 22:52:42.018270 11395 net.cpp:150] Setting up conv9_2_s
I0120 22:52:42.018278 11395 net.cpp:157] Top shape: 8 256 1 1 (2048)
I0120 22:52:42.018281 11395 net.cpp:165] Memory required for data: 2515312704
I0120 22:52:42.018285 11395 layer_factory.hpp:77] Creating layer conv9_2_fc1
I0120 22:52:42.018296 11395 net.cpp:100] Creating Layer conv9_2_fc1
I0120 22:52:42.018301 11395 net.cpp:434] conv9_2_fc1 <- conv9_2_s
I0120 22:52:42.018309 11395 net.cpp:408] conv9_2_fc1 -> conv9_2_fc1
I0120 22:52:42.019559 11395 net.cpp:150] Setting up conv9_2_fc1
I0120 22:52:42.019572 11395 net.cpp:157] Top shape: 8 64 1 1 (512)
I0120 22:52:42.019574 11395 net.cpp:165] Memory required for data: 2515314752
I0120 22:52:42.019582 11395 layer_factory.hpp:77] Creating layer conv9_2_relu
I0120 22:52:42.019589 11395 net.cpp:100] Creating Layer conv9_2_relu
I0120 22:52:42.019594 11395 net.cpp:434] conv9_2_relu <- conv9_2_fc1
I0120 22:52:42.019600 11395 net.cpp:395] conv9_2_relu -> conv9_2_fc1 (in-place)
I0120 22:52:42.019783 11395 net.cpp:150] Setting up conv9_2_relu
I0120 22:52:42.019793 11395 net.cpp:157] Top shape: 8 64 1 1 (512)
I0120 22:52:42.019794 11395 net.cpp:165] Memory required for data: 2515316800
I0120 22:52:42.019798 11395 layer_factory.hpp:77] Creating layer conv9_2_fc2
I0120 22:52:42.019810 11395 net.cpp:100] Creating Layer conv9_2_fc2
I0120 22:52:42.019815 11395 net.cpp:434] conv9_2_fc2 <- conv9_2_fc1
I0120 22:52:42.019822 11395 net.cpp:408] conv9_2_fc2 -> conv9_2_fc2
I0120 22:52:42.021066 11395 net.cpp:150] Setting up conv9_2_fc2
I0120 22:52:42.021078 11395 net.cpp:157] Top shape: 8 256 1 1 (2048)
I0120 22:52:42.021082 11395 net.cpp:165] Memory required for data: 2515324992
I0120 22:52:42.021090 11395 layer_factory.hpp:77] Creating layer conv9_2_sig
I0120 22:52:42.021096 11395 net.cpp:100] Creating Layer conv9_2_sig
I0120 22:52:42.021101 11395 net.cpp:434] conv9_2_sig <- conv9_2_fc2
I0120 22:52:42.021108 11395 net.cpp:395] conv9_2_sig -> conv9_2_fc2 (in-place)
I0120 22:52:42.021605 11395 net.cpp:150] Setting up conv9_2_sig
I0120 22:52:42.021631 11395 net.cpp:157] Top shape: 8 256 1 1 (2048)
I0120 22:52:42.021636 11395 net.cpp:165] Memory required for data: 2515333184
I0120 22:52:42.021639 11395 layer_factory.hpp:77] Creating layer conv9_2_reshape
I0120 22:52:42.021662 11395 net.cpp:100] Creating Layer conv9_2_reshape
I0120 22:52:42.021667 11395 net.cpp:434] conv9_2_reshape <- conv9_2_fc2
I0120 22:52:42.021674 11395 net.cpp:408] conv9_2_reshape -> conv9_2_reshape
I0120 22:52:42.021719 11395 net.cpp:150] Setting up conv9_2_reshape
I0120 22:52:42.021736 11395 net.cpp:157] Top shape: 8 256 (2048)
I0120 22:52:42.021739 11395 net.cpp:165] Memory required for data: 2515341376
I0120 22:52:42.021744 11395 layer_factory.hpp:77] Creating layer conv9_2_scale
I0120 22:52:42.021752 11395 net.cpp:100] Creating Layer conv9_2_scale
I0120 22:52:42.021757 11395 net.cpp:434] conv9_2_scale <- conv9_2_t_conv9_2_relu_0_split_1
I0120 22:52:42.021762 11395 net.cpp:434] conv9_2_scale <- conv9_2_reshape
I0120 22:52:42.021769 11395 net.cpp:408] conv9_2_scale -> conv9_2
I0120 22:52:42.021864 11395 net.cpp:150] Setting up conv9_2_scale
I0120 22:52:42.021872 11395 net.cpp:157] Top shape: 8 256 1 1 (2048)
I0120 22:52:42.021875 11395 net.cpp:165] Memory required for data: 2515349568
I0120 22:52:42.021879 11395 layer_factory.hpp:77] Creating layer conv9_2_conv9_2_scale_0_split
I0120 22:52:42.021888 11395 net.cpp:100] Creating Layer conv9_2_conv9_2_scale_0_split
I0120 22:52:42.021891 11395 net.cpp:434] conv9_2_conv9_2_scale_0_split <- conv9_2
I0120 22:52:42.021898 11395 net.cpp:408] conv9_2_conv9_2_scale_0_split -> conv9_2_conv9_2_scale_0_split_0
I0120 22:52:42.021908 11395 net.cpp:408] conv9_2_conv9_2_scale_0_split -> conv9_2_conv9_2_scale_0_split_1
I0120 22:52:42.021914 11395 net.cpp:408] conv9_2_conv9_2_scale_0_split -> conv9_2_conv9_2_scale_0_split_2
I0120 22:52:42.021986 11395 net.cpp:150] Setting up conv9_2_conv9_2_scale_0_split
I0120 22:52:42.021994 11395 net.cpp:157] Top shape: 8 256 1 1 (2048)
I0120 22:52:42.021998 11395 net.cpp:157] Top shape: 8 256 1 1 (2048)
I0120 22:52:42.022003 11395 net.cpp:157] Top shape: 8 256 1 1 (2048)
I0120 22:52:42.022006 11395 net.cpp:165] Memory required for data: 2515374144
I0120 22:52:42.022009 11395 layer_factory.hpp:77] Creating layer conv4_3_norm
I0120 22:52:42.022017 11395 net.cpp:100] Creating Layer conv4_3_norm
I0120 22:52:42.022024 11395 net.cpp:434] conv4_3_norm <- conv4_3_conv4_3_scale_0_split_1
I0120 22:52:42.022030 11395 net.cpp:408] conv4_3_norm -> conv4_3_norm
I0120 22:52:42.022225 11395 net.cpp:150] Setting up conv4_3_norm
I0120 22:52:42.022233 11395 net.cpp:157] Top shape: 8 512 38 38 (5914624)
I0120 22:52:42.022236 11395 net.cpp:165] Memory required for data: 2539032640
I0120 22:52:42.022243 11395 layer_factory.hpp:77] Creating layer conv4_3_norm_conv4_3_norm_0_split
I0120 22:52:42.022248 11395 net.cpp:100] Creating Layer conv4_3_norm_conv4_3_norm_0_split
I0120 22:52:42.022251 11395 net.cpp:434] conv4_3_norm_conv4_3_norm_0_split <- conv4_3_norm
I0120 22:52:42.022258 11395 net.cpp:408] conv4_3_norm_conv4_3_norm_0_split -> conv4_3_norm_conv4_3_norm_0_split_0
I0120 22:52:42.022265 11395 net.cpp:408] conv4_3_norm_conv4_3_norm_0_split -> conv4_3_norm_conv4_3_norm_0_split_1
I0120 22:52:42.022271 11395 net.cpp:408] conv4_3_norm_conv4_3_norm_0_split -> conv4_3_norm_conv4_3_norm_0_split_2
I0120 22:52:42.022338 11395 net.cpp:150] Setting up conv4_3_norm_conv4_3_norm_0_split
I0120 22:52:42.022346 11395 net.cpp:157] Top shape: 8 512 38 38 (5914624)
I0120 22:52:42.022351 11395 net.cpp:157] Top shape: 8 512 38 38 (5914624)
I0120 22:52:42.022354 11395 net.cpp:157] Top shape: 8 512 38 38 (5914624)
I0120 22:52:42.022357 11395 net.cpp:165] Memory required for data: 2610008128
I0120 22:52:42.022361 11395 layer_factory.hpp:77] Creating layer conv4_3_norm_mbox_loc
I0120 22:52:42.022372 11395 net.cpp:100] Creating Layer conv4_3_norm_mbox_loc
I0120 22:52:42.022375 11395 net.cpp:434] conv4_3_norm_mbox_loc <- conv4_3_norm_conv4_3_norm_0_split_0
I0120 22:52:42.022383 11395 net.cpp:408] conv4_3_norm_mbox_loc -> conv4_3_norm_mbox_loc
I0120 22:52:42.024150 11395 net.cpp:150] Setting up conv4_3_norm_mbox_loc
I0120 22:52:42.024163 11395 net.cpp:157] Top shape: 8 16 38 38 (184832)
I0120 22:52:42.024166 11395 net.cpp:165] Memory required for data: 2610747456
I0120 22:52:42.024173 11395 layer_factory.hpp:77] Creating layer conv4_3_norm_mbox_loc_perm
I0120 22:52:42.024183 11395 net.cpp:100] Creating Layer conv4_3_norm_mbox_loc_perm
I0120 22:52:42.024188 11395 net.cpp:434] conv4_3_norm_mbox_loc_perm <- conv4_3_norm_mbox_loc
I0120 22:52:42.024205 11395 net.cpp:408] conv4_3_norm_mbox_loc_perm -> conv4_3_norm_mbox_loc_perm
I0120 22:52:42.024353 11395 net.cpp:150] Setting up conv4_3_norm_mbox_loc_perm
I0120 22:52:42.024363 11395 net.cpp:157] Top shape: 8 38 38 16 (184832)
I0120 22:52:42.024365 11395 net.cpp:165] Memory required for data: 2611486784
I0120 22:52:42.024369 11395 layer_factory.hpp:77] Creating layer conv4_3_norm_mbox_loc_flat
I0120 22:52:42.024376 11395 net.cpp:100] Creating Layer conv4_3_norm_mbox_loc_flat
I0120 22:52:42.024381 11395 net.cpp:434] conv4_3_norm_mbox_loc_flat <- conv4_3_norm_mbox_loc_perm
I0120 22:52:42.024389 11395 net.cpp:408] conv4_3_norm_mbox_loc_flat -> conv4_3_norm_mbox_loc_flat
I0120 22:52:42.024428 11395 net.cpp:150] Setting up conv4_3_norm_mbox_loc_flat
I0120 22:52:42.024435 11395 net.cpp:157] Top shape: 8 23104 (184832)
I0120 22:52:42.024440 11395 net.cpp:165] Memory required for data: 2612226112
I0120 22:52:42.024442 11395 layer_factory.hpp:77] Creating layer conv4_3_norm_mbox_conf
I0120 22:52:42.024469 11395 net.cpp:100] Creating Layer conv4_3_norm_mbox_conf
I0120 22:52:42.024473 11395 net.cpp:434] conv4_3_norm_mbox_conf <- conv4_3_norm_conv4_3_norm_0_split_1
I0120 22:52:42.024482 11395 net.cpp:408] conv4_3_norm_mbox_conf -> conv4_3_norm_mbox_conf
I0120 22:52:42.028321 11395 net.cpp:150] Setting up conv4_3_norm_mbox_conf
I0120 22:52:42.028333 11395 net.cpp:157] Top shape: 8 84 38 38 (970368)
I0120 22:52:42.028337 11395 net.cpp:165] Memory required for data: 2616107584
I0120 22:52:42.028347 11395 layer_factory.hpp:77] Creating layer conv4_3_norm_mbox_conf_perm
I0120 22:52:42.028357 11395 net.cpp:100] Creating Layer conv4_3_norm_mbox_conf_perm
I0120 22:52:42.028362 11395 net.cpp:434] conv4_3_norm_mbox_conf_perm <- conv4_3_norm_mbox_conf
I0120 22:52:42.028368 11395 net.cpp:408] conv4_3_norm_mbox_conf_perm -> conv4_3_norm_mbox_conf_perm
I0120 22:52:42.028514 11395 net.cpp:150] Setting up conv4_3_norm_mbox_conf_perm
I0120 22:52:42.028522 11395 net.cpp:157] Top shape: 8 38 38 84 (970368)
I0120 22:52:42.028525 11395 net.cpp:165] Memory required for data: 2619989056
I0120 22:52:42.028529 11395 layer_factory.hpp:77] Creating layer conv4_3_norm_mbox_conf_flat
I0120 22:52:42.028537 11395 net.cpp:100] Creating Layer conv4_3_norm_mbox_conf_flat
I0120 22:52:42.028542 11395 net.cpp:434] conv4_3_norm_mbox_conf_flat <- conv4_3_norm_mbox_conf_perm
I0120 22:52:42.028548 11395 net.cpp:408] conv4_3_norm_mbox_conf_flat -> conv4_3_norm_mbox_conf_flat
I0120 22:52:42.028586 11395 net.cpp:150] Setting up conv4_3_norm_mbox_conf_flat
I0120 22:52:42.028594 11395 net.cpp:157] Top shape: 8 121296 (970368)
I0120 22:52:42.028596 11395 net.cpp:165] Memory required for data: 2623870528
I0120 22:52:42.028600 11395 layer_factory.hpp:77] Creating layer conv4_3_norm_mbox_priorbox
I0120 22:52:42.028609 11395 net.cpp:100] Creating Layer conv4_3_norm_mbox_priorbox
I0120 22:52:42.028614 11395 net.cpp:434] conv4_3_norm_mbox_priorbox <- conv4_3_norm_conv4_3_norm_0_split_2
I0120 22:52:42.028620 11395 net.cpp:434] conv4_3_norm_mbox_priorbox <- data_data_0_split_1
I0120 22:52:42.028626 11395 net.cpp:408] conv4_3_norm_mbox_priorbox -> conv4_3_norm_mbox_priorbox
I0120 22:52:42.028668 11395 net.cpp:150] Setting up conv4_3_norm_mbox_priorbox
I0120 22:52:42.028676 11395 net.cpp:157] Top shape: 1 2 23104 (46208)
I0120 22:52:42.028679 11395 net.cpp:165] Memory required for data: 2624055360
I0120 22:52:42.028682 11395 layer_factory.hpp:77] Creating layer fc7_mbox_loc
I0120 22:52:42.028693 11395 net.cpp:100] Creating Layer fc7_mbox_loc
I0120 22:52:42.028698 11395 net.cpp:434] fc7_mbox_loc <- fc7_fc7_scale_0_split_1
I0120 22:52:42.028707 11395 net.cpp:408] fc7_mbox_loc -> fc7_mbox_loc
I0120 22:52:42.031129 11395 net.cpp:150] Setting up fc7_mbox_loc
I0120 22:52:42.031143 11395 net.cpp:157] Top shape: 8 24 19 19 (69312)
I0120 22:52:42.031147 11395 net.cpp:165] Memory required for data: 2624332608
I0120 22:52:42.031155 11395 layer_factory.hpp:77] Creating layer fc7_mbox_loc_perm
I0120 22:52:42.031162 11395 net.cpp:100] Creating Layer fc7_mbox_loc_perm
I0120 22:52:42.031167 11395 net.cpp:434] fc7_mbox_loc_perm <- fc7_mbox_loc
I0120 22:52:42.031186 11395 net.cpp:408] fc7_mbox_loc_perm -> fc7_mbox_loc_perm
I0120 22:52:42.031329 11395 net.cpp:150] Setting up fc7_mbox_loc_perm
I0120 22:52:42.031339 11395 net.cpp:157] Top shape: 8 19 19 24 (69312)
I0120 22:52:42.031342 11395 net.cpp:165] Memory required for data: 2624609856
I0120 22:52:42.031347 11395 layer_factory.hpp:77] Creating layer fc7_mbox_loc_flat
I0120 22:52:42.031353 11395 net.cpp:100] Creating Layer fc7_mbox_loc_flat
I0120 22:52:42.031358 11395 net.cpp:434] fc7_mbox_loc_flat <- fc7_mbox_loc_perm
I0120 22:52:42.031364 11395 net.cpp:408] fc7_mbox_loc_flat -> fc7_mbox_loc_flat
I0120 22:52:42.031404 11395 net.cpp:150] Setting up fc7_mbox_loc_flat
I0120 22:52:42.031411 11395 net.cpp:157] Top shape: 8 8664 (69312)
I0120 22:52:42.031414 11395 net.cpp:165] Memory required for data: 2624887104
I0120 22:52:42.031417 11395 layer_factory.hpp:77] Creating layer fc7_mbox_conf
I0120 22:52:42.031430 11395 net.cpp:100] Creating Layer fc7_mbox_conf
I0120 22:52:42.031435 11395 net.cpp:434] fc7_mbox_conf <- fc7_fc7_scale_0_split_2
I0120 22:52:42.031441 11395 net.cpp:408] fc7_mbox_conf -> fc7_mbox_conf
I0120 22:52:42.039646 11395 net.cpp:150] Setting up fc7_mbox_conf
I0120 22:52:42.039662 11395 net.cpp:157] Top shape: 8 126 19 19 (363888)
I0120 22:52:42.039665 11395 net.cpp:165] Memory required for data: 2626342656
I0120 22:52:42.039674 11395 layer_factory.hpp:77] Creating layer fc7_mbox_conf_perm
I0120 22:52:42.039683 11395 net.cpp:100] Creating Layer fc7_mbox_conf_perm
I0120 22:52:42.039688 11395 net.cpp:434] fc7_mbox_conf_perm <- fc7_mbox_conf
I0120 22:52:42.039695 11395 net.cpp:408] fc7_mbox_conf_perm -> fc7_mbox_conf_perm
I0120 22:52:42.039849 11395 net.cpp:150] Setting up fc7_mbox_conf_perm
I0120 22:52:42.039858 11395 net.cpp:157] Top shape: 8 19 19 126 (363888)
I0120 22:52:42.039862 11395 net.cpp:165] Memory required for data: 2627798208
I0120 22:52:42.039865 11395 layer_factory.hpp:77] Creating layer fc7_mbox_conf_flat
I0120 22:52:42.039871 11395 net.cpp:100] Creating Layer fc7_mbox_conf_flat
I0120 22:52:42.039875 11395 net.cpp:434] fc7_mbox_conf_flat <- fc7_mbox_conf_perm
I0120 22:52:42.039883 11395 net.cpp:408] fc7_mbox_conf_flat -> fc7_mbox_conf_flat
I0120 22:52:42.039925 11395 net.cpp:150] Setting up fc7_mbox_conf_flat
I0120 22:52:42.039932 11395 net.cpp:157] Top shape: 8 45486 (363888)
I0120 22:52:42.039935 11395 net.cpp:165] Memory required for data: 2629253760
I0120 22:52:42.039939 11395 layer_factory.hpp:77] Creating layer fc7_mbox_priorbox
I0120 22:52:42.039947 11395 net.cpp:100] Creating Layer fc7_mbox_priorbox
I0120 22:52:42.039950 11395 net.cpp:434] fc7_mbox_priorbox <- fc7_fc7_scale_0_split_3
I0120 22:52:42.039955 11395 net.cpp:434] fc7_mbox_priorbox <- data_data_0_split_2
I0120 22:52:42.039963 11395 net.cpp:408] fc7_mbox_priorbox -> fc7_mbox_priorbox
I0120 22:52:42.040024 11395 net.cpp:150] Setting up fc7_mbox_priorbox
I0120 22:52:42.040031 11395 net.cpp:157] Top shape: 1 2 8664 (17328)
I0120 22:52:42.040035 11395 net.cpp:165] Memory required for data: 2629323072
I0120 22:52:42.040040 11395 layer_factory.hpp:77] Creating layer conv6_2_mbox_loc
I0120 22:52:42.040050 11395 net.cpp:100] Creating Layer conv6_2_mbox_loc
I0120 22:52:42.040053 11395 net.cpp:434] conv6_2_mbox_loc <- conv6_2_conv6_2_scale_0_split_1
I0120 22:52:42.040062 11395 net.cpp:408] conv6_2_mbox_loc -> conv6_2_mbox_loc
I0120 22:52:42.042042 11395 net.cpp:150] Setting up conv6_2_mbox_loc
I0120 22:52:42.042055 11395 net.cpp:157] Top shape: 8 24 10 10 (19200)
I0120 22:52:42.042058 11395 net.cpp:165] Memory required for data: 2629399872
I0120 22:52:42.042066 11395 layer_factory.hpp:77] Creating layer conv6_2_mbox_loc_perm
I0120 22:52:42.042074 11395 net.cpp:100] Creating Layer conv6_2_mbox_loc_perm
I0120 22:52:42.042079 11395 net.cpp:434] conv6_2_mbox_loc_perm <- conv6_2_mbox_loc
I0120 22:52:42.042088 11395 net.cpp:408] conv6_2_mbox_loc_perm -> conv6_2_mbox_loc_perm
I0120 22:52:42.042239 11395 net.cpp:150] Setting up conv6_2_mbox_loc_perm
I0120 22:52:42.042250 11395 net.cpp:157] Top shape: 8 10 10 24 (19200)
I0120 22:52:42.042268 11395 net.cpp:165] Memory required for data: 2629476672
I0120 22:52:42.042273 11395 layer_factory.hpp:77] Creating layer conv6_2_mbox_loc_flat
I0120 22:52:42.042279 11395 net.cpp:100] Creating Layer conv6_2_mbox_loc_flat
I0120 22:52:42.042284 11395 net.cpp:434] conv6_2_mbox_loc_flat <- conv6_2_mbox_loc_perm
I0120 22:52:42.042291 11395 net.cpp:408] conv6_2_mbox_loc_flat -> conv6_2_mbox_loc_flat
I0120 22:52:42.042332 11395 net.cpp:150] Setting up conv6_2_mbox_loc_flat
I0120 22:52:42.042340 11395 net.cpp:157] Top shape: 8 2400 (19200)
I0120 22:52:42.042342 11395 net.cpp:165] Memory required for data: 2629553472
I0120 22:52:42.042346 11395 layer_factory.hpp:77] Creating layer conv6_2_mbox_conf
I0120 22:52:42.042359 11395 net.cpp:100] Creating Layer conv6_2_mbox_conf
I0120 22:52:42.042363 11395 net.cpp:434] conv6_2_mbox_conf <- conv6_2_conv6_2_scale_0_split_2
I0120 22:52:42.042372 11395 net.cpp:408] conv6_2_mbox_conf -> conv6_2_mbox_conf
I0120 22:52:42.047063 11395 net.cpp:150] Setting up conv6_2_mbox_conf
I0120 22:52:42.047076 11395 net.cpp:157] Top shape: 8 126 10 10 (100800)
I0120 22:52:42.047080 11395 net.cpp:165] Memory required for data: 2629956672
I0120 22:52:42.047088 11395 layer_factory.hpp:77] Creating layer conv6_2_mbox_conf_perm
I0120 22:52:42.047097 11395 net.cpp:100] Creating Layer conv6_2_mbox_conf_perm
I0120 22:52:42.047101 11395 net.cpp:434] conv6_2_mbox_conf_perm <- conv6_2_mbox_conf
I0120 22:52:42.047108 11395 net.cpp:408] conv6_2_mbox_conf_perm -> conv6_2_mbox_conf_perm
I0120 22:52:42.047261 11395 net.cpp:150] Setting up conv6_2_mbox_conf_perm
I0120 22:52:42.047269 11395 net.cpp:157] Top shape: 8 10 10 126 (100800)
I0120 22:52:42.047272 11395 net.cpp:165] Memory required for data: 2630359872
I0120 22:52:42.047276 11395 layer_factory.hpp:77] Creating layer conv6_2_mbox_conf_flat
I0120 22:52:42.047282 11395 net.cpp:100] Creating Layer conv6_2_mbox_conf_flat
I0120 22:52:42.047286 11395 net.cpp:434] conv6_2_mbox_conf_flat <- conv6_2_mbox_conf_perm
I0120 22:52:42.047294 11395 net.cpp:408] conv6_2_mbox_conf_flat -> conv6_2_mbox_conf_flat
I0120 22:52:42.047334 11395 net.cpp:150] Setting up conv6_2_mbox_conf_flat
I0120 22:52:42.047343 11395 net.cpp:157] Top shape: 8 12600 (100800)
I0120 22:52:42.047345 11395 net.cpp:165] Memory required for data: 2630763072
I0120 22:52:42.047348 11395 layer_factory.hpp:77] Creating layer conv6_2_mbox_priorbox
I0120 22:52:42.047355 11395 net.cpp:100] Creating Layer conv6_2_mbox_priorbox
I0120 22:52:42.047366 11395 net.cpp:434] conv6_2_mbox_priorbox <- conv6_2_conv6_2_scale_0_split_3
I0120 22:52:42.047371 11395 net.cpp:434] conv6_2_mbox_priorbox <- data_data_0_split_3
I0120 22:52:42.047379 11395 net.cpp:408] conv6_2_mbox_priorbox -> conv6_2_mbox_priorbox
I0120 22:52:42.047422 11395 net.cpp:150] Setting up conv6_2_mbox_priorbox
I0120 22:52:42.047430 11395 net.cpp:157] Top shape: 1 2 2400 (4800)
I0120 22:52:42.047432 11395 net.cpp:165] Memory required for data: 2630782272
I0120 22:52:42.047436 11395 layer_factory.hpp:77] Creating layer conv7_2_mbox_loc
I0120 22:52:42.047448 11395 net.cpp:100] Creating Layer conv7_2_mbox_loc
I0120 22:52:42.047453 11395 net.cpp:434] conv7_2_mbox_loc <- conv7_2_conv7_2_scale_0_split_1
I0120 22:52:42.047461 11395 net.cpp:408] conv7_2_mbox_loc -> conv7_2_mbox_loc
I0120 22:52:42.048918 11395 net.cpp:150] Setting up conv7_2_mbox_loc
I0120 22:52:42.048930 11395 net.cpp:157] Top shape: 8 24 5 5 (4800)
I0120 22:52:42.048934 11395 net.cpp:165] Memory required for data: 2630801472
I0120 22:52:42.048941 11395 layer_factory.hpp:77] Creating layer conv7_2_mbox_loc_perm
I0120 22:52:42.048954 11395 net.cpp:100] Creating Layer conv7_2_mbox_loc_perm
I0120 22:52:42.048959 11395 net.cpp:434] conv7_2_mbox_loc_perm <- conv7_2_mbox_loc
I0120 22:52:42.048964 11395 net.cpp:408] conv7_2_mbox_loc_perm -> conv7_2_mbox_loc_perm
I0120 22:52:42.049114 11395 net.cpp:150] Setting up conv7_2_mbox_loc_perm
I0120 22:52:42.049121 11395 net.cpp:157] Top shape: 8 5 5 24 (4800)
I0120 22:52:42.049124 11395 net.cpp:165] Memory required for data: 2630820672
I0120 22:52:42.049139 11395 layer_factory.hpp:77] Creating layer conv7_2_mbox_loc_flat
I0120 22:52:42.049146 11395 net.cpp:100] Creating Layer conv7_2_mbox_loc_flat
I0120 22:52:42.049150 11395 net.cpp:434] conv7_2_mbox_loc_flat <- conv7_2_mbox_loc_perm
I0120 22:52:42.049159 11395 net.cpp:408] conv7_2_mbox_loc_flat -> conv7_2_mbox_loc_flat
I0120 22:52:42.049201 11395 net.cpp:150] Setting up conv7_2_mbox_loc_flat
I0120 22:52:42.049207 11395 net.cpp:157] Top shape: 8 600 (4800)
I0120 22:52:42.049211 11395 net.cpp:165] Memory required for data: 2630839872
I0120 22:52:42.049213 11395 layer_factory.hpp:77] Creating layer conv7_2_mbox_conf
I0120 22:52:42.049226 11395 net.cpp:100] Creating Layer conv7_2_mbox_conf
I0120 22:52:42.049230 11395 net.cpp:434] conv7_2_mbox_conf <- conv7_2_conv7_2_scale_0_split_2
I0120 22:52:42.049239 11395 net.cpp:408] conv7_2_mbox_conf -> conv7_2_mbox_conf
I0120 22:52:42.052979 11395 net.cpp:150] Setting up conv7_2_mbox_conf
I0120 22:52:42.052992 11395 net.cpp:157] Top shape: 8 126 5 5 (25200)
I0120 22:52:42.052996 11395 net.cpp:165] Memory required for data: 2630940672
I0120 22:52:42.053004 11395 layer_factory.hpp:77] Creating layer conv7_2_mbox_conf_perm
I0120 22:52:42.053014 11395 net.cpp:100] Creating Layer conv7_2_mbox_conf_perm
I0120 22:52:42.053020 11395 net.cpp:434] conv7_2_mbox_conf_perm <- conv7_2_mbox_conf
I0120 22:52:42.053025 11395 net.cpp:408] conv7_2_mbox_conf_perm -> conv7_2_mbox_conf_perm
I0120 22:52:42.053179 11395 net.cpp:150] Setting up conv7_2_mbox_conf_perm
I0120 22:52:42.053187 11395 net.cpp:157] Top shape: 8 5 5 126 (25200)
I0120 22:52:42.053190 11395 net.cpp:165] Memory required for data: 2631041472
I0120 22:52:42.053194 11395 layer_factory.hpp:77] Creating layer conv7_2_mbox_conf_flat
I0120 22:52:42.053200 11395 net.cpp:100] Creating Layer conv7_2_mbox_conf_flat
I0120 22:52:42.053205 11395 net.cpp:434] conv7_2_mbox_conf_flat <- conv7_2_mbox_conf_perm
I0120 22:52:42.053212 11395 net.cpp:408] conv7_2_mbox_conf_flat -> conv7_2_mbox_conf_flat
I0120 22:52:42.053254 11395 net.cpp:150] Setting up conv7_2_mbox_conf_flat
I0120 22:52:42.053261 11395 net.cpp:157] Top shape: 8 3150 (25200)
I0120 22:52:42.053263 11395 net.cpp:165] Memory required for data: 2631142272
I0120 22:52:42.053267 11395 layer_factory.hpp:77] Creating layer conv7_2_mbox_priorbox
I0120 22:52:42.053275 11395 net.cpp:100] Creating Layer conv7_2_mbox_priorbox
I0120 22:52:42.053278 11395 net.cpp:434] conv7_2_mbox_priorbox <- conv7_2_conv7_2_scale_0_split_3
I0120 22:52:42.053283 11395 net.cpp:434] conv7_2_mbox_priorbox <- data_data_0_split_4
I0120 22:52:42.053292 11395 net.cpp:408] conv7_2_mbox_priorbox -> conv7_2_mbox_priorbox
I0120 22:52:42.053335 11395 net.cpp:150] Setting up conv7_2_mbox_priorbox
I0120 22:52:42.053341 11395 net.cpp:157] Top shape: 1 2 600 (1200)
I0120 22:52:42.053344 11395 net.cpp:165] Memory required for data: 2631147072
I0120 22:52:42.053349 11395 layer_factory.hpp:77] Creating layer conv8_2_mbox_loc
I0120 22:52:42.053360 11395 net.cpp:100] Creating Layer conv8_2_mbox_loc
I0120 22:52:42.053364 11395 net.cpp:434] conv8_2_mbox_loc <- conv8_2_conv8_2_scale_0_split_1
I0120 22:52:42.053373 11395 net.cpp:408] conv8_2_mbox_loc -> conv8_2_mbox_loc
I0120 22:52:42.054740 11395 net.cpp:150] Setting up conv8_2_mbox_loc
I0120 22:52:42.054754 11395 net.cpp:157] Top shape: 8 16 3 3 (1152)
I0120 22:52:42.054757 11395 net.cpp:165] Memory required for data: 2631151680
I0120 22:52:42.054764 11395 layer_factory.hpp:77] Creating layer conv8_2_mbox_loc_perm
I0120 22:52:42.054772 11395 net.cpp:100] Creating Layer conv8_2_mbox_loc_perm
I0120 22:52:42.054777 11395 net.cpp:434] conv8_2_mbox_loc_perm <- conv8_2_mbox_loc
I0120 22:52:42.054785 11395 net.cpp:408] conv8_2_mbox_loc_perm -> conv8_2_mbox_loc_perm
I0120 22:52:42.054931 11395 net.cpp:150] Setting up conv8_2_mbox_loc_perm
I0120 22:52:42.054939 11395 net.cpp:157] Top shape: 8 3 3 16 (1152)
I0120 22:52:42.054942 11395 net.cpp:165] Memory required for data: 2631156288
I0120 22:52:42.054945 11395 layer_factory.hpp:77] Creating layer conv8_2_mbox_loc_flat
I0120 22:52:42.054965 11395 net.cpp:100] Creating Layer conv8_2_mbox_loc_flat
I0120 22:52:42.054970 11395 net.cpp:434] conv8_2_mbox_loc_flat <- conv8_2_mbox_loc_perm
I0120 22:52:42.054976 11395 net.cpp:408] conv8_2_mbox_loc_flat -> conv8_2_mbox_loc_flat
I0120 22:52:42.055017 11395 net.cpp:150] Setting up conv8_2_mbox_loc_flat
I0120 22:52:42.055024 11395 net.cpp:157] Top shape: 8 144 (1152)
I0120 22:52:42.055028 11395 net.cpp:165] Memory required for data: 2631160896
I0120 22:52:42.055032 11395 layer_factory.hpp:77] Creating layer conv8_2_mbox_conf
I0120 22:52:42.055044 11395 net.cpp:100] Creating Layer conv8_2_mbox_conf
I0120 22:52:42.055049 11395 net.cpp:434] conv8_2_mbox_conf <- conv8_2_conv8_2_scale_0_split_2
I0120 22:52:42.055058 11395 net.cpp:408] conv8_2_mbox_conf -> conv8_2_mbox_conf
I0120 22:52:42.057348 11395 net.cpp:150] Setting up conv8_2_mbox_conf
I0120 22:52:42.057359 11395 net.cpp:157] Top shape: 8 84 3 3 (6048)
I0120 22:52:42.057363 11395 net.cpp:165] Memory required for data: 2631185088
I0120 22:52:42.057371 11395 layer_factory.hpp:77] Creating layer conv8_2_mbox_conf_perm
I0120 22:52:42.057380 11395 net.cpp:100] Creating Layer conv8_2_mbox_conf_perm
I0120 22:52:42.057385 11395 net.cpp:434] conv8_2_mbox_conf_perm <- conv8_2_mbox_conf
I0120 22:52:42.057394 11395 net.cpp:408] conv8_2_mbox_conf_perm -> conv8_2_mbox_conf_perm
I0120 22:52:42.057549 11395 net.cpp:150] Setting up conv8_2_mbox_conf_perm
I0120 22:52:42.057557 11395 net.cpp:157] Top shape: 8 3 3 84 (6048)
I0120 22:52:42.057559 11395 net.cpp:165] Memory required for data: 2631209280
I0120 22:52:42.057564 11395 layer_factory.hpp:77] Creating layer conv8_2_mbox_conf_flat
I0120 22:52:42.057572 11395 net.cpp:100] Creating Layer conv8_2_mbox_conf_flat
I0120 22:52:42.057576 11395 net.cpp:434] conv8_2_mbox_conf_flat <- conv8_2_mbox_conf_perm
I0120 22:52:42.057582 11395 net.cpp:408] conv8_2_mbox_conf_flat -> conv8_2_mbox_conf_flat
I0120 22:52:42.057623 11395 net.cpp:150] Setting up conv8_2_mbox_conf_flat
I0120 22:52:42.057629 11395 net.cpp:157] Top shape: 8 756 (6048)
I0120 22:52:42.057632 11395 net.cpp:165] Memory required for data: 2631233472
I0120 22:52:42.057636 11395 layer_factory.hpp:77] Creating layer conv8_2_mbox_priorbox
I0120 22:52:42.057646 11395 net.cpp:100] Creating Layer conv8_2_mbox_priorbox
I0120 22:52:42.057651 11395 net.cpp:434] conv8_2_mbox_priorbox <- conv8_2_conv8_2_scale_0_split_3
I0120 22:52:42.057656 11395 net.cpp:434] conv8_2_mbox_priorbox <- data_data_0_split_5
I0120 22:52:42.057663 11395 net.cpp:408] conv8_2_mbox_priorbox -> conv8_2_mbox_priorbox
I0120 22:52:42.057704 11395 net.cpp:150] Setting up conv8_2_mbox_priorbox
I0120 22:52:42.057711 11395 net.cpp:157] Top shape: 1 2 144 (288)
I0120 22:52:42.057714 11395 net.cpp:165] Memory required for data: 2631234624
I0120 22:52:42.057718 11395 layer_factory.hpp:77] Creating layer conv9_2_mbox_loc
I0120 22:52:42.057731 11395 net.cpp:100] Creating Layer conv9_2_mbox_loc
I0120 22:52:42.057737 11395 net.cpp:434] conv9_2_mbox_loc <- conv9_2_conv9_2_scale_0_split_0
I0120 22:52:42.057744 11395 net.cpp:408] conv9_2_mbox_loc -> conv9_2_mbox_loc
I0120 22:52:42.059288 11395 net.cpp:150] Setting up conv9_2_mbox_loc
I0120 22:52:42.059298 11395 net.cpp:157] Top shape: 8 16 1 1 (128)
I0120 22:52:42.059303 11395 net.cpp:165] Memory required for data: 2631235136
I0120 22:52:42.059310 11395 layer_factory.hpp:77] Creating layer conv9_2_mbox_loc_perm
I0120 22:52:42.059319 11395 net.cpp:100] Creating Layer conv9_2_mbox_loc_perm
I0120 22:52:42.059322 11395 net.cpp:434] conv9_2_mbox_loc_perm <- conv9_2_mbox_loc
I0120 22:52:42.059331 11395 net.cpp:408] conv9_2_mbox_loc_perm -> conv9_2_mbox_loc_perm
I0120 22:52:42.059480 11395 net.cpp:150] Setting up conv9_2_mbox_loc_perm
I0120 22:52:42.059489 11395 net.cpp:157] Top shape: 8 1 1 16 (128)
I0120 22:52:42.059491 11395 net.cpp:165] Memory required for data: 2631235648
I0120 22:52:42.059495 11395 layer_factory.hpp:77] Creating layer conv9_2_mbox_loc_flat
I0120 22:52:42.059501 11395 net.cpp:100] Creating Layer conv9_2_mbox_loc_flat
I0120 22:52:42.059505 11395 net.cpp:434] conv9_2_mbox_loc_flat <- conv9_2_mbox_loc_perm
I0120 22:52:42.059523 11395 net.cpp:408] conv9_2_mbox_loc_flat -> conv9_2_mbox_loc_flat
I0120 22:52:42.059566 11395 net.cpp:150] Setting up conv9_2_mbox_loc_flat
I0120 22:52:42.059572 11395 net.cpp:157] Top shape: 8 16 (128)
I0120 22:52:42.059576 11395 net.cpp:165] Memory required for data: 2631236160
I0120 22:52:42.059578 11395 layer_factory.hpp:77] Creating layer conv9_2_mbox_conf
I0120 22:52:42.059590 11395 net.cpp:100] Creating Layer conv9_2_mbox_conf
I0120 22:52:42.059595 11395 net.cpp:434] conv9_2_mbox_conf <- conv9_2_conv9_2_scale_0_split_1
I0120 22:52:42.059603 11395 net.cpp:408] conv9_2_mbox_conf -> conv9_2_mbox_conf
I0120 22:52:42.061921 11395 net.cpp:150] Setting up conv9_2_mbox_conf
I0120 22:52:42.061934 11395 net.cpp:157] Top shape: 8 84 1 1 (672)
I0120 22:52:42.061939 11395 net.cpp:165] Memory required for data: 2631238848
I0120 22:52:42.061945 11395 layer_factory.hpp:77] Creating layer conv9_2_mbox_conf_perm
I0120 22:52:42.061954 11395 net.cpp:100] Creating Layer conv9_2_mbox_conf_perm
I0120 22:52:42.061959 11395 net.cpp:434] conv9_2_mbox_conf_perm <- conv9_2_mbox_conf
I0120 22:52:42.061966 11395 net.cpp:408] conv9_2_mbox_conf_perm -> conv9_2_mbox_conf_perm
I0120 22:52:42.062134 11395 net.cpp:150] Setting up conv9_2_mbox_conf_perm
I0120 22:52:42.062141 11395 net.cpp:157] Top shape: 8 1 1 84 (672)
I0120 22:52:42.062145 11395 net.cpp:165] Memory required for data: 2631241536
I0120 22:52:42.062149 11395 layer_factory.hpp:77] Creating layer conv9_2_mbox_conf_flat
I0120 22:52:42.062156 11395 net.cpp:100] Creating Layer conv9_2_mbox_conf_flat
I0120 22:52:42.062160 11395 net.cpp:434] conv9_2_mbox_conf_flat <- conv9_2_mbox_conf_perm
I0120 22:52:42.062168 11395 net.cpp:408] conv9_2_mbox_conf_flat -> conv9_2_mbox_conf_flat
I0120 22:52:42.062209 11395 net.cpp:150] Setting up conv9_2_mbox_conf_flat
I0120 22:52:42.062216 11395 net.cpp:157] Top shape: 8 84 (672)
I0120 22:52:42.062218 11395 net.cpp:165] Memory required for data: 2631244224
I0120 22:52:42.062222 11395 layer_factory.hpp:77] Creating layer conv9_2_mbox_priorbox
I0120 22:52:42.062232 11395 net.cpp:100] Creating Layer conv9_2_mbox_priorbox
I0120 22:52:42.062235 11395 net.cpp:434] conv9_2_mbox_priorbox <- conv9_2_conv9_2_scale_0_split_2
I0120 22:52:42.062240 11395 net.cpp:434] conv9_2_mbox_priorbox <- data_data_0_split_6
I0120 22:52:42.062248 11395 net.cpp:408] conv9_2_mbox_priorbox -> conv9_2_mbox_priorbox
I0120 22:52:42.062289 11395 net.cpp:150] Setting up conv9_2_mbox_priorbox
I0120 22:52:42.062296 11395 net.cpp:157] Top shape: 1 2 16 (32)
I0120 22:52:42.062299 11395 net.cpp:165] Memory required for data: 2631244352
I0120 22:52:42.062304 11395 layer_factory.hpp:77] Creating layer mbox_loc
I0120 22:52:42.062314 11395 net.cpp:100] Creating Layer mbox_loc
I0120 22:52:42.062317 11395 net.cpp:434] mbox_loc <- conv4_3_norm_mbox_loc_flat
I0120 22:52:42.062324 11395 net.cpp:434] mbox_loc <- fc7_mbox_loc_flat
I0120 22:52:42.062328 11395 net.cpp:434] mbox_loc <- conv6_2_mbox_loc_flat
I0120 22:52:42.062332 11395 net.cpp:434] mbox_loc <- conv7_2_mbox_loc_flat
I0120 22:52:42.062336 11395 net.cpp:434] mbox_loc <- conv8_2_mbox_loc_flat
I0120 22:52:42.062340 11395 net.cpp:434] mbox_loc <- conv9_2_mbox_loc_flat
I0120 22:52:42.062348 11395 net.cpp:408] mbox_loc -> mbox_loc
I0120 22:52:42.062391 11395 net.cpp:150] Setting up mbox_loc
I0120 22:52:42.062398 11395 net.cpp:157] Top shape: 8 34928 (279424)
I0120 22:52:42.062402 11395 net.cpp:165] Memory required for data: 2632362048
I0120 22:52:42.062405 11395 layer_factory.hpp:77] Creating layer mbox_conf
I0120 22:52:42.062414 11395 net.cpp:100] Creating Layer mbox_conf
I0120 22:52:42.062418 11395 net.cpp:434] mbox_conf <- conv4_3_norm_mbox_conf_flat
I0120 22:52:42.062423 11395 net.cpp:434] mbox_conf <- fc7_mbox_conf_flat
I0120 22:52:42.062428 11395 net.cpp:434] mbox_conf <- conv6_2_mbox_conf_flat
I0120 22:52:42.062433 11395 net.cpp:434] mbox_conf <- conv7_2_mbox_conf_flat
I0120 22:52:42.062436 11395 net.cpp:434] mbox_conf <- conv8_2_mbox_conf_flat
I0120 22:52:42.062440 11395 net.cpp:434] mbox_conf <- conv9_2_mbox_conf_flat
I0120 22:52:42.062458 11395 net.cpp:408] mbox_conf -> mbox_conf
I0120 22:52:42.062499 11395 net.cpp:150] Setting up mbox_conf
I0120 22:52:42.062505 11395 net.cpp:157] Top shape: 8 183372 (1466976)
I0120 22:52:42.062508 11395 net.cpp:165] Memory required for data: 2638229952
I0120 22:52:42.062512 11395 layer_factory.hpp:77] Creating layer mbox_priorbox
I0120 22:52:42.062520 11395 net.cpp:100] Creating Layer mbox_priorbox
I0120 22:52:42.062522 11395 net.cpp:434] mbox_priorbox <- conv4_3_norm_mbox_priorbox
I0120 22:52:42.062527 11395 net.cpp:434] mbox_priorbox <- fc7_mbox_priorbox
I0120 22:52:42.062532 11395 net.cpp:434] mbox_priorbox <- conv6_2_mbox_priorbox
I0120 22:52:42.062536 11395 net.cpp:434] mbox_priorbox <- conv7_2_mbox_priorbox
I0120 22:52:42.062539 11395 net.cpp:434] mbox_priorbox <- conv8_2_mbox_priorbox
I0120 22:52:42.062542 11395 net.cpp:434] mbox_priorbox <- conv9_2_mbox_priorbox
I0120 22:52:42.062551 11395 net.cpp:408] mbox_priorbox -> mbox_priorbox
I0120 22:52:42.062602 11395 net.cpp:150] Setting up mbox_priorbox
I0120 22:52:42.062608 11395 net.cpp:157] Top shape: 1 2 34928 (69856)
I0120 22:52:42.062611 11395 net.cpp:165] Memory required for data: 2638509376
I0120 22:52:42.062615 11395 layer_factory.hpp:77] Creating layer mbox_conf_reshape
I0120 22:52:42.062623 11395 net.cpp:100] Creating Layer mbox_conf_reshape
I0120 22:52:42.062626 11395 net.cpp:434] mbox_conf_reshape <- mbox_conf
I0120 22:52:42.062638 11395 net.cpp:408] mbox_conf_reshape -> mbox_conf_reshape
I0120 22:52:42.062678 11395 net.cpp:150] Setting up mbox_conf_reshape
I0120 22:52:42.062687 11395 net.cpp:157] Top shape: 8 8732 21 (1466976)
I0120 22:52:42.062691 11395 net.cpp:165] Memory required for data: 2644377280
I0120 22:52:42.062695 11395 layer_factory.hpp:77] Creating layer mbox_conf_softmax
I0120 22:52:42.062702 11395 net.cpp:100] Creating Layer mbox_conf_softmax
I0120 22:52:42.062706 11395 net.cpp:434] mbox_conf_softmax <- mbox_conf_reshape
I0120 22:52:42.062711 11395 net.cpp:408] mbox_conf_softmax -> mbox_conf_softmax
I0120 22:52:42.062984 11395 net.cpp:150] Setting up mbox_conf_softmax
I0120 22:52:42.062994 11395 net.cpp:157] Top shape: 8 8732 21 (1466976)
I0120 22:52:42.062999 11395 net.cpp:165] Memory required for data: 2650245184
I0120 22:52:42.063001 11395 layer_factory.hpp:77] Creating layer mbox_conf_flatten
I0120 22:52:42.063009 11395 net.cpp:100] Creating Layer mbox_conf_flatten
I0120 22:52:42.063012 11395 net.cpp:434] mbox_conf_flatten <- mbox_conf_softmax
I0120 22:52:42.063020 11395 net.cpp:408] mbox_conf_flatten -> mbox_conf_flatten
I0120 22:52:42.063060 11395 net.cpp:150] Setting up mbox_conf_flatten
I0120 22:52:42.063066 11395 net.cpp:157] Top shape: 8 183372 (1466976)
I0120 22:52:42.063069 11395 net.cpp:165] Memory required for data: 2656113088
I0120 22:52:42.063073 11395 layer_factory.hpp:77] Creating layer detection_out
I0120 22:52:42.063091 11395 net.cpp:100] Creating Layer detection_out
I0120 22:52:42.063097 11395 net.cpp:434] detection_out <- mbox_loc
I0120 22:52:42.063102 11395 net.cpp:434] detection_out <- mbox_conf_flatten
I0120 22:52:42.063105 11395 net.cpp:434] detection_out <- mbox_priorbox
I0120 22:52:42.063112 11395 net.cpp:408] detection_out -> detection_out
I0120 22:52:42.064729 11395 net.cpp:150] Setting up detection_out
I0120 22:52:42.064740 11395 net.cpp:157] Top shape: 1 1 1 7 (7)
I0120 22:52:42.064743 11395 net.cpp:165] Memory required for data: 2656113116
I0120 22:52:42.064748 11395 layer_factory.hpp:77] Creating layer detection_eval
I0120 22:52:42.064755 11395 net.cpp:100] Creating Layer detection_eval
I0120 22:52:42.064760 11395 net.cpp:434] detection_eval <- detection_out
I0120 22:52:42.064765 11395 net.cpp:434] detection_eval <- label
I0120 22:52:42.064771 11395 net.cpp:408] detection_eval -> detection_eval
I0120 22:52:42.065600 11395 net.cpp:150] Setting up detection_eval
I0120 22:52:42.065609 11395 net.cpp:157] Top shape: 1 1 21 5 (105)
I0120 22:52:42.065613 11395 net.cpp:165] Memory required for data: 2656113536
I0120 22:52:42.065616 11395 net.cpp:228] detection_eval does not need backward computation.
I0120 22:52:42.065632 11395 net.cpp:228] detection_out does not need backward computation.
I0120 22:52:42.065639 11395 net.cpp:228] mbox_conf_flatten does not need backward computation.
I0120 22:52:42.065642 11395 net.cpp:228] mbox_conf_softmax does not need backward computation.
…
