…
      sampler {
        min_scale: 0.3
        max_scale: 1
        min_aspect_ratio: 0.5
        max_aspect_ratio: 2
      }
      sample_constraint {
        min_jaccard_overlap: 0.9
      }
      max_sample: 1
      max_trials: 50
    }
    batch_sampler {
      sampler {
        min_scale: 0.3
        max_scale: 1
        min_aspect_ratio: 0.5
        max_aspect_ratio: 2
      }
      sample_constraint {
        max_jaccard_overlap: 1
      }
      max_sample: 1
      max_trials: 50
    }
    label_map_file: "data/coco/labelmap_coco.prototxt"
  }
}
layer {
  name: "conv1_1"
  type: "Convolution"
  bottom: "data"
  top: "conv1_1"
  param {
    lr_mult: 0.1
    decay_mult: 1
  }
  param {
    lr_mult: 0.2
    decay_mult: 0
  }
  convolution_param {
    num_output: 64
    pad: 1
    kernel_size: 3
    weight_filler {
      type: "xavier"
    }
    bias_filler {
      type: "constant"
      value: 0
    }
  }
}
layer {
  name: "relu1_1"
  type: "ReLU"
  bottom: "conv1_1"
  top: "conv1_1"
}
layer {
  name: "conv1_2"
  type: "Convolution"
  bottom: "conv1_1"
  top: "conv1_2"
  param {
    lr_mult: 0.1
    decay_mult: 1
  }
  param {
    lr_mult: 0.2
    decay_mult: 0
  }
  convolution_param {
    num_output: 64
    pad: 1
    kernel_size: 3
    weight_filler {
      type: "xavier"
    }
    bias_filler {
      type: "constant"
      value: 0
    }
  }
}
layer {
  name: "relu1_2"
  type: "ReLU"
  bottom: "conv1_2"
  top: "conv1_2"
}
layer {
  name: "pool1"
  type: "Pooling"
  bottom: "conv1_2"
  top: "pool1"
  pooling_param {
    pool: MAX
    kernel_size: 2
    stride: 2
  }
}
layer {
  name: "conv2_1"
  type: "Convolution"
  bottom: "pool1"
  top: "conv2_1"
  param {
    lr_mult: 0.1
    decay_mult: 1
  }
  param {
    lr_mult: 0.2
    decay_mult: 0
  }
  convolution_param {
    num_output: 128
    pad: 1
    kernel_size: 3
    weight_filler {
      type: "xavier"
    }
    bias_filler {
      type: "constant"
      value: 0
    }
  }
}
layer {
  name: "relu2_1"
  type: "ReLU"
  bottom: "conv2_1"
  top: "conv2_1"
}
layer {
  name: "conv2_2"
  type: "Convolution"
  bottom: "conv2_1"
  top: "conv2_2"
  param {
    lr_mult: 0.1
    decay_mult: 1
  }
  param {
    lr_mult: 0.2
    decay_mult: 0
  }
  convolution_param {
    num_output: 128
    pad: 1
    kernel_size: 3
    weight_filler {
      type: "xavier"
    }
    bias_filler {
      type: "constant"
      value: 0
    }
  }
}
layer {
  name: "relu2_2"
  type: "ReLU"
  bottom: "conv2_2"
  top: "conv2_2"
}
layer {
  name: "pool2"
  type: "Pooling"
  bottom: "conv2_2"
  top: "pool2"
  pooling_param {
    pool: MAX
    kernel_size: 2
    stride: 2
  }
}
layer {
  name: "conv3_1"
  type: "Convolution"
  bottom: "pool2"
  top: "conv3_1"
  param {
    lr_mult: 0.1
    decay_mult: 1
  }
  param {
    lr_mult: 0.2
    decay_mult: 0
  }
  convolution_param {
    num_output: 256
    pad: 1
    kernel_size: 3
    weight_filler {
      type: "xavier"
    }
    bias_filler {
      type: "constant"
      value: 0
    }
  }
}
layer {
  name: "relu3_1"
  type: "ReLU"
  bottom: "conv3_1"
  top: "conv3_1"
}
layer {
  name: "conv3_2"
  type: "Convolution"
  bottom: "conv3_1"
  top: "conv3_2"
  param {
    lr_mult: 0.1
    decay_mult: 1
  }
  param {
    lr_mult: 0.2
    decay_mult: 0
  }
  convolution_param {
    num_output: 256
    pad: 1
    kernel_size: 3
    weight_filler {
      type: "xavier"
    }
    bias_filler {
      type: "constant"
      value: 0
    }
  }
}
layer {
  name: "relu3_2"
  type: "ReLU"
  bottom: "conv3_2"
  top: "conv3_2"
}
layer {
  name: "conv3_3"
  type: "Convolution"
  bottom: "conv3_2"
  top: "conv3_3"
  param {
    lr_mult: 0.1
    decay_mult: 1
  }
  param {
    lr_mult: 0.2
    decay_mult: 0
  }
  convolution_param {
    num_output: 256
    pad: 1
    kernel_size: 3
    weight_filler {
      type: "xavier"
    }
    bias_filler {
      type: "constant"
      value: 0
    }
  }
}
layer {
  name: "relu3_3"
  type: "ReLU"
  bottom: "conv3_3"
  top: "conv3_3"
}
layer {
  name: "pool3"
  type: "Pooling"
  bottom: "conv3_3"
  top: "pool3"
  pooling_param {
    pool: MAX
    kernel_size: 2
    stride: 2
  }
}
layer {
  name: "conv4_1"
  type: "Convolution"
  bottom: "pool3"
  top: "conv4_1"
  param {
    lr_mult: 0.1
    decay_mult: 1
  }
  param {
    lr_mult: 0.2
    decay_mult: 0
  }
  convolution_param {
    num_output: 512
    pad: 1
    kernel_size: 3
    weight_filler {
      type: "xavier"
    }
    bias_filler {
      type: "constant"
      value: 0
    }
  }
}
layer {
  name: "relu4_1"
  type: "ReLU"
  bottom: "conv4_1"
  top: "conv4_1"
}
layer {
  name: "conv4_2"
  type: "Convolution"
  bottom: "conv4_1"
  top: "conv4_2"
  param {
    lr_mult: 0.1
    decay_mult: 1
  }
  param {
    lr_mult: 0.2
    decay_mult: 0
  }
  convolution_param {
    num_output: 512
    pad: 1
    kernel_size: 3
    weight_filler {
      type: "xavier"
    }
    bias_filler {
      type: "constant"
      value: 0
    }
  }
}
layer {
  name: "relu4_2"
  type: "ReLU"
  bottom: "conv4_2"
  top: "conv4_2"
}
layer {
  name: "conv4_3"
  type: "Convolution"
  bottom: "conv4_2"
  top: "conv4_3_ori"
  param {
    lr_mult: 0.1
    decay_mult: 1
  }
  param {
    lr_mult: 0.2
    decay_mult: 0
  }
  convolution_param {
    num_output: 512
    pad: 1
    kernel_size: 3
    weight_filler {
      type: "xavier"
    }
    bias_filler {
      type: "constant"
      value: 0
    }
  }
}
layer {
  name: "relu4_3"
  type: "ReLU"
  bottom: "conv4_3_ori"
  top: "conv4_3_ori"
}
layer {
  name: "seg_pool4"
  type: "Pooling"
  bottom: "conv4_3_ori"
  top: "seg_pool4"
  pooling_param {
    pool: MAX
    kernel_size: 3
    stride: 1
    pad: 1
  }
}
layer {
  name: "seg5_1"
  type: "Convolution"
  bottom: "seg_pool4"
  top: "seg5_1"
  param {
    lr_mult: 1
    decay_mult: 1
  }
  param {
    lr_mult: 2
    decay_mult: 0
  }
  convolution_param {
    num_output: 512
    pad: 2
    kernel_size: 3
    weight_filler {
      type: "xavier"
    }
    bias_filler {
      type: "constant"
      value: 0
    }
    dilation: 2
  }
}
layer {
  name: "seg_relu5_1"
  type: "ReLU"
  bottom: "seg5_1"
  top: "seg5_1"
}
layer {
  name: "seg5_2"
  type: "Convolution"
  bottom: "seg5_1"
  top: "seg5_2"
  param {
    lr_mult: 1
    decay_mult: 1
  }
  param {
    lr_mult: 2
    decay_mult: 0
  }
  convolution_param {
    num_output: 512
    pad: 2
    kernel_size: 3
    weight_filler {
      type: "xavier"
    }
    bias_filler {
      type: "constant"
      value: 0
    }
    dilation: 2
  }
}
layer {
  name: "seg_relu5_2"
  type: "ReLU"
  bottom: "seg5_2"
  top: "seg5_2"
}
layer {
  name: "seg5_3"
  type: "Convolution"
  bottom: "seg5_2"
  top: "seg5_3"
  param {
    lr_mult: 1
    decay_mult: 1
  }
  param {
    lr_mult: 2
    decay_mult: 0
  }
  convolution_param {
    num_output: 512
    pad: 2
    kernel_size: 3
    weight_filler {
      type: "xavier"
    }
    bias_filler {
      type: "constant"
      value: 0
    }
    dilation: 2
  }
}
layer {
  name: "seg_relu5_3"
  type: "ReLU"
  bottom: "seg5_3"
  top: "seg5_3"
}
layer {
  name: "seg_pool5"
  type: "Pooling"
  bottom: "seg5_3"
  top: "seg_pool5"
  pooling_param {
    pool: MAX
    kernel_size: 3
    stride: 1
    pad: 1
  }
}
layer {
  name: "seg6"
  type: "Convolution"
  bottom: "seg_pool5"
  top: "seg6"
  param {
    lr_mult: 1
    decay_mult: 1
  }
  param {
    lr_mult: 2
    decay_mult: 0
  }
  convolution_param {
    num_output: 1024
    pad: 4
    kernel_size: 3
    weight_filler {
      type: "xavier"
    }
    bias_filler {
      type: "constant"
      value: 0
    }
    dilation: 4
  }
}
layer {
  name: "seg_relu6"
  type: "ReLU"
  bottom: "seg6"
  top: "seg6"
}
layer {
  name: "seg_drop6"
  type: "Dropout"
  bottom: "seg6"
  top: "seg6"
  dropout_param {
    dropout_ratio: 0.5
  }
}
layer {
  name: "seg7"
  type: "Convolution"
  bottom: "seg6"
  top: "seg7"
  param {
    lr_mult: 1
    decay_mult: 1
  }
  param {
    lr_mult: 2
    decay_mult: 0
  }
  convolution_param {
    num_output: 1024
    kernel_size: 1
    weight_filler {
      type: "xavier"
    }
    bias_filler {
      type: "constant"
      value: 0
    }
  }
}
layer {
  name: "seg_relu7"
  type: "ReLU"
  bottom: "seg7"
  top: "seg7"
}
layer {
  name: "seg_drop7"
  type: "Dropout"
  bottom: "seg7"
  top: "seg7d"
  dropout_param {
    dropout_ratio: 0.5
  }
}
layer {
  name: "seg_new"
  type: "Convolution"
  bottom: "seg7d"
  top: "seg"
  param {
    lr_mult: 10
    decay_mult: 1
  }
  param {
    lr_mult: 20
    decay_mult: 0
  }
  convolution_param {
    num_output: 81
    kernel_size: 1
    weight_filler {
      type: "gaussian"
      std: 0.01
    }
    bias_filler {
      type: "constant"
      value: 0
    }
  }
}
layer {
  name: "seg_gt"
  type: "SegGt"
  bottom: "label"
  bottom: "seg"
  top: "seg_gt"
  seggt_param {
    background_label_id: 0
    use_difficult_gt: true
  }
}
layer {
  name: "seg_loss"
  type: "SoftmaxWithLoss"
  bottom: "seg"
  bottom: "seg_gt"
  top: "seg_loss"
  loss_weight: 0.1
  propagate_down: true
  propagate_down: false
  softmax_param {
    axis: 1
  }
}
layer {
  name: "seg_to_det_conv"
  type: "Convolution"
  bottom: "seg7"
  top: "seg_to_det_conv"
  param {
    lr_mult: 1
    decay_mult: 1
  }
  param {
    lr_mult: 2
    decay_mult: 0
  }
  convolution_param {
    num_output: 512
    pad: 0
    kernel_size: 1
    stride: 1
    weight_filler {
      type: "xavier"
    }
    bias_filler {
      type: "constant"
      value: 0
    }
  }
}
layer {
  name: "mult_conv4_3"
  type: "Eltwise"
  bottom: "conv4_3_ori"
  bottom: "seg_to_det_conv"
  top: "conv4_3_t"
  eltwise_param {
    operation: PROD
  }
}
layer {
  name: "conv4_3_s"
  type: "Pooling"
  bottom: "conv4_3_t"
  top: "conv4_3_s"
  pooling_param {
    pool: AVE
    global_pooling: true
  }
}
layer {
  name: "conv4_3_fc1"
  type: "Convolution"
  bottom: "conv4_3_s"
  top: "conv4_3_fc1"
  param {
    lr_mult: 1
    decay_mult: 1
  }
  param {
    lr_mult: 2
    decay_mult: 0
  }
  convolution_param {
    num_output: 128
    kernel_size: 1
    stride: 1
    weight_filler {
      type: "xavier"
    }
    bias_filler {
      type: "constant"
      value: 0
    }
  }
}
layer {
  name: "conv4_3_relu"
  type: "ReLU"
  bottom: "conv4_3_fc1"
  top: "conv4_3_fc1"
}
layer {
  name: "conv4_3_fc2"
  type: "Convolution"
  bottom: "conv4_3_fc1"
  top: "conv4_3_fc2"
  param {
    lr_mult: 1
    decay_mult: 1
  }
  param {
    lr_mult: 2
    decay_mult: 0
  }
  convolution_param {
    num_output: 512
    kernel_size: 1
    stride: 1
    weight_filler {
      type: "xavier"
    }
    bias_filler {
      type: "constant"
      value: 0
    }
  }
}
layer {
  name: "conv4_3_sig"
  type: "Sigmoid"
  bottom: "conv4_3_fc2"
  top: "conv4_3_fc2"
}
layer {
  name: "conv4_3_reshape"
  type: "Reshape"
  bottom: "conv4_3_fc2"
  top: "conv4_3_reshape"
  reshape_param {
    shape {
      dim: 0
      dim: 0
    }
  }
}
layer {
  name: "conv4_3_scale"
  type: "Scale"
  bottom: "conv4_3_t"
  bottom: "conv4_3_reshape"
  top: "conv4_3"
  scale_param {
    axis: 0
    bias_term: false
  }
}
layer {
  name: "pool4"
  type: "Pooling"
  bottom: "conv4_3"
  top: "pool4"
  pooling_param {
    pool: MAX
    kernel_size: 2
    stride: 2
  }
}
layer {
  name: "conv5_1"
  type: "Convolution"
  bottom: "pool4"
  top: "conv5_1"
  param {
    lr_mult: 1
    decay_mult: 1
  }
  param {
    lr_mult: 2
    decay_mult: 0
  }
  convolution_param {
    num_output: 512
    pad: 1
    kernel_size: 3
    weight_filler {
      type: "xavier"
    }
    bias_filler {
      type: "constant"
      value: 0
    }
    dilation: 1
  }
}
layer {
  name: "relu5_1"
  type: "ReLU"
  bottom: "conv5_1"
  top: "conv5_1"
}
layer {
  name: "conv5_2"
  type: "Convolution"
  bottom: "conv5_1"
  top: "conv5_2"
  param {
    lr_mult: 1
    decay_mult: 1
  }
  param {
    lr_mult: 2
    decay_mult: 0
  }
  convolution_param {
    num_output: 512
    pad: 1
    kernel_size: 3
    weight_filler {
      type: "xavier"
    }
    bias_filler {
      type: "constant"
      value: 0
    }
    dilation: 1
  }
}
layer {
  name: "relu5_2"
  type: "ReLU"
  bottom: "conv5_2"
  top: "conv5_2"
}
layer {
  name: "conv5_3"
  type: "Convolution"
  bottom: "conv5_2"
  top: "conv5_3"
  param {
    lr_mult: 1
    decay_mult: 1
  }
  param {
    lr_mult: 2
    decay_mult: 0
  }
  convolution_param {
    num_output: 512
    pad: 1
    kernel_size: 3
    weight_filler {
      type: "xavier"
    }
    bias_filler {
      type: "constant"
      value: 0
    }
    dilation: 1
  }
}
layer {
  name: "relu5_3"
  type: "ReLU"
  bottom: "conv5_3"
  top: "conv5_3"
}
layer {
  name: "pool5"
  type: "Pooling"
  bottom: "conv5_3"
  top: "pool5"
  pooling_param {
    pool: MAX
    kernel_size: 3
    stride: 1
    pad: 1
  }
}
layer {
  name: "fc6"
  type: "Convolution"
  bottom: "pool5"
  top: "fc6"
  param {
    lr_mult: 1
    decay_mult: 1
  }
  param {
    lr_mult: 2
    decay_mult: 0
  }
  convolution_param {
    num_output: 1024
    pad: 6
    kernel_size: 3
    weight_filler {
      type: "xavier"
    }
    bias_filler {
      type: "constant"
      value: 0
    }
    dilation: 6
  }
}
layer {
  name: "relu6"
  type: "ReLU"
  bottom: "fc6"
  top: "fc6"
}
layer {
  name: "fc7"
  type: "Convolution"
  bottom: "fc6"
  top: "fc7_t"
  param {
    lr_mult: 1
    decay_mult: 1
  }
  param {
    lr_mult: 2
    decay_mult: 0
  }
  convolution_param {
    num_output: 1024
    kernel_size: 1
    weight_filler {
      type: "xavier"
    }
    bias_filler {
      type: "constant"
      value: 0
    }
  }
}
layer {
  name: "relu7"
  type: "ReLU"
  bottom: "fc7_t"
  top: "fc7_t"
}
layer {
  name: "fc7_s"
  type: "Pooling"
  bottom: "fc7_t"
  top: "fc7_s"
  pooling_param {
    pool: AVE
    global_pooling: true
  }
}
layer {
  name: "fc7_fc1"
  type: "Convolution"
  bottom: "fc7_s"
  top: "fc7_fc1"
  param {
    lr_mult: 1
    decay_mult: 1
  }
  param {
    lr_mult: 2
    decay_mult: 0
  }
  convolution_param {
    num_output: 256
    kernel_size: 1
    stride: 1
    weight_filler {
      type: "xavier"
    }
    bias_filler {
      type: "constant"
      value: 0
    }
  }
}
layer {
  name: "fc7_relu"
  type: "ReLU"
  bottom: "fc7_fc1"
  top: "fc7_fc1"
}
layer {
  name: "fc7_fc2"
  type: "Convolution"
  bottom: "fc7_fc1"
  top: "fc7_fc2"
  param {
    lr_mult: 1
    decay_mult: 1
  }
  param {
    lr_mult: 2
    decay_mult: 0
  }
  convolution_param {
    num_output: 1024
    kernel_size: 1
    stride: 1
    weight_filler {
      type: "xavier"
    }
    bias_filler {
      type: "constant"
      value: 0
    }
  }
}
layer {
  name: "fc7_sig"
  type: "Sigmoid"
  bottom: "fc7_fc2"
  top: "fc7_fc2"
}
layer {
  name: "fc7_reshape"
  type: "Reshape"
  bottom: "fc7_fc2"
  top: "fc7_reshape"
  reshape_param {
    shape {
      dim: 0
      dim: 0
    }
  }
}
layer {
  name: "fc7_scale"
  type: "Scale"
  bottom: "fc7_t"
  bottom: "fc7_reshape"
  top: "fc7"
  scale_param {
    axis: 0
    bias_term: false
  }
}
layer {
  name: "conv6_1_new"
  type: "Convolution"
  bottom: "fc7"
  top: "conv6_1"
  param {
    lr_mult: 1
    decay_mult: 1
  }
  param {
    lr_mult: 2
    decay_mult: 0
  }
  convolution_param {
    num_output: 256
    pad: 0
    kernel_size: 1
    stride: 1
    weight_filler {
      type: "xavier"
    }
    bias_filler {
      type: "constant"
      value: 0
    }
  }
}
layer {
  name: "conv6_1_relu"
  type: "ReLU"
  bottom: "conv6_1"
  top: "conv6_1"
}
layer {
  name: "conv6_2_new"
  type: "Convolution"
  bottom: "conv6_1"
  top: "conv6_2_t"
  param {
    lr_mult: 1
    decay_mult: 1
  }
  param {
    lr_mult: 2
    decay_mult: 0
  }
  convolution_param {
    num_output: 512
    pad: 1
    kernel_size: 3
    stride: 2
    weight_filler {
      type: "xavier"
    }
    bias_filler {
      type: "constant"
      value: 0
    }
  }
}
layer {
  name: "conv6_2_relu"
  type: "ReLU"
  bottom: "conv6_2_t"
  top: "conv6_2_t"
}
layer {
  name: "conv6_2_s"
  type: "Pooling"
  bottom: "conv6_2_t"
  top: "conv6_2_s"
  pooling_param {
    pool: AVE
    global_pooling: true
  }
}
layer {
  name: "conv6_2_fc1"
  type: "Convolution"
  bottom: "conv6_2_s"
  top: "conv6_2_fc1"
  param {
    lr_mult: 1
    decay_mult: 1
  }
  param {
    lr_mult: 2
    decay_mult: 0
  }
  convolution_param {
    num_output: 128
    kernel_size: 1
    stride: 1
    weight_filler {
      type: "xavier"
    }
    bias_filler {
      type: "constant"
      value: 0
    }
  }
}
layer {
  name: "conv6_2_relu"
  type: "ReLU"
  bottom: "conv6_2_fc1"
  top: "conv6_2_fc1"
}
layer {
  name: "conv6_2_fc2"
  type: "Convolution"
  bottom: "conv6_2_fc1"
  top: "conv6_2_fc2"
  param {
    lr_mult: 1
    decay_mult: 1
  }
  param {
    lr_mult: 2
    decay_mult: 0
  }
  convolution_param {
    num_output: 512
    kernel_size: 1
    stride: 1
    weight_filler {
      type: "xavier"
    }
    bias_filler {
      type: "constant"
      value: 0
    }
  }
}
layer {
  name: "conv6_2_sig"
  type: "Sigmoid"
  bottom: "conv6_2_fc2"
  top: "conv6_2_fc2"
}
layer {
  name: "conv6_2_reshape"
  type: "Reshape"
  bottom: "conv6_2_fc2"
  top: "conv6_2_reshape"
  reshape_param {
    shape {
      dim: 0
      dim: 0
    }
  }
}
layer {
  name: "conv6_2_scale"
  type: "Scale"
  bottom: "conv6_2_t"
  bottom: "conv6_2_reshape"
  top: "conv6_2"
  scale_param {
    axis: 0
    bias_term: false
  }
}
layer {
  name: "conv7_1_new"
  type: "Convolution"
  bottom: "conv6_2"
  top: "conv7_1"
  param {
    lr_mult: 1
    decay_mult: 1
  }
  param {
    lr_mult: 2
    decay_mult: 0
  }
  convolution_param {
    num_output: 128
    pad: 0
    kernel_size: 1
    stride: 1
    weight_filler {
      type: "xavier"
    }
    bias_filler {
      type: "constant"
      value: 0
    }
  }
}
layer {
  name: "conv7_1_relu"
  type: "ReLU"
  bottom: "conv7_1"
  top: "conv7_1"
}
layer {
  name: "conv7_2_new"
  type: "Convolution"
  bottom: "conv7_1"
  top: "conv7_2_t"
  param {
    lr_mult: 1
    decay_mult: 1
  }
  param {
    lr_mult: 2
    decay_mult: 0
  }
  convolution_param {
    num_output: 256
    pad: 1
    kernel_size: 3
    stride: 2
    weight_filler {
      type: "xavier"
    }
    bias_filler {
      type: "constant"
      value: 0
    }
  }
}
layer {
  name: "conv7_2_relu"
  type: "ReLU"
  bottom: "conv7_2_t"
  top: "conv7_2_t"
}
layer {
  name: "conv7_2_s"
  type: "Pooling"
  bottom: "conv7_2_t"
  top: "conv7_2_s"
  pooling_param {
    pool: AVE
    global_pooling: true
  }
}
layer {
  name: "conv7_2_fc1"
  type: "Convolution"
  bottom: "conv7_2_s"
  top: "conv7_2_fc1"
  param {
    lr_mult: 1
    decay_mult: 1
  }
  param {
    lr_mult: 2
    decay_mult: 0
  }
  convolution_param {
    num_output: 64
    kernel_size: 1
    stride: 1
    weight_filler {
      type: "xavier"
    }
    bias_filler {
      type: "constant"
      value: 0
    }
  }
}
layer {
  name: "conv7_2_relu"
  type: "ReLU"
  bottom: "conv7_2_fc1"
  top: "conv7_2_fc1"
}
layer {
  name: "conv7_2_fc2"
  type: "Convolution"
  bottom: "conv7_2_fc1"
  top: "conv7_2_fc2"
  param {
    lr_mult: 1
    decay_mult: 1
  }
  param {
    lr_mult: 2
    decay_mult: 0
  }
  convolution_param {
    num_output: 256
    kernel_size: 1
    stride: 1
    weight_filler {
      type: "xavier"
    }
    bias_filler {
      type: "constant"
      value: 0
    }
  }
}
layer {
  name: "conv7_2_sig"
  type: "Sigmoid"
  bottom: "conv7_2_fc2"
  top: "conv7_2_fc2"
}
layer {
  name: "conv7_2_reshape"
  type: "Reshape"
  bottom: "conv7_2_fc2"
  top: "conv7_2_reshape"
  reshape_param {
    shape {
      dim: 0
      dim: 0
    }
  }
}
layer {
  name: "conv7_2_scale"
  type: "Scale"
  bottom: "conv7_2_t"
  bottom: "conv7_2_reshape"
  top: "conv7_2"
  scale_param {
    axis: 0
    bias_term: false
  }
}
layer {
  name: "conv8_1_new"
  type: "Convolution"
  bottom: "conv7_2"
  top: "conv8_1"
  param {
    lr_mult: 1
    decay_mult: 1
  }
  param {
    lr_mult: 2
    decay_mult: 0
  }
  convolution_param {
    num_output: 128
    pad: 0
    kernel_size: 1
    stride: 1
    weight_filler {
      type: "xavier"
    }
    bias_filler {
      type: "constant"
      value: 0
    }
  }
}
layer {
  name: "conv8_1_relu"
  type: "ReLU"
  bottom: "conv8_1"
  top: "conv8_1"
}
layer {
  name: "conv8_2_new"
  type: "Convolution"
  bottom: "conv8_1"
  top: "conv8_2_t"
  param {
    lr_mult: 1
    decay_mult: 1
  }
  param {
    lr_mult: 2
    decay_mult: 0
  }
  convolution_param {
    num_output: 256
    pad: 1
    kernel_size: 3
    stride: 2
    weight_filler {
      type: "xavier"
    }
    bias_filler {
      type: "constant"
      value: 0
    }
  }
}
layer {
  name: "conv8_2_relu"
  type: "ReLU"
  bottom: "conv8_2_t"
  top: "conv8_2_t"
}
layer {
  name: "conv8_2_s"
  type: "Pooling"
  bottom: "conv8_2_t"
  top: "conv8_2_s"
  pooling_param {
    pool: AVE
    global_pooling: true
  }
}
layer {
  name: "conv8_2_fc1"
  type: "Convolution"
  bottom: "conv8_2_s"
  top: "conv8_2_fc1"
  param {
    lr_mult: 1
    decay_mult: 1
  }
  param {
    lr_mult: 2
    decay_mult: 0
  }
  convolution_param {
    num_output: 64
    kernel_size: 1
    stride: 1
    weight_filler {
      type: "xavier"
    }
    bias_filler {
      type: "constant"
      value: 0
    }
  }
}
layer {
  name: "conv8_2_relu"
  type: "ReLU"
  bottom: "conv8_2_fc1"
  top: "conv8_2_fc1"
}
layer {
  name: "conv8_2_fc2"
  type: "Convolution"
  bottom: "conv8_2_fc1"
  top: "conv8_2_fc2"
  param {
    lr_mult: 1
    decay_mult: 1
  }
  param {
    lr_mult: 2
    decay_mult: 0
  }
  convolution_param {
    num_output: 256
    kernel_size: 1
    stride: 1
    weight_filler {
      type: "xavier"
    }
    bias_filler {
      type: "constant"
      value: 0
    }
  }
}
layer {
  name: "conv8_2_sig"
  type: "Sigmoid"
  bottom: "conv8_2_fc2"
  top: "conv8_2_fc2"
}
layer {
  name: "conv8_2_reshape"
  type: "Reshape"
  bottom: "conv8_2_fc2"
  top: "conv8_2_reshape"
  reshape_param {
    shape {
      dim: 0
      dim: 0
    }
  }
}
layer {
  name: "conv8_2_scale"
  type: "Scale"
  bottom: "conv8_2_t"
  bottom: "conv8_2_reshape"
  top: "conv8_2"
  scale_param {
    axis: 0
    bias_term: false
  }
}
layer {
  name: "conv9_1_new"
  type: "Convolution"
  bottom: "conv8_2"
  top: "conv9_1"
  param {
    lr_mult: 1
    decay_mult: 1
  }
  param {
    lr_mult: 2
    decay_mult: 0
  }
  convolution_param {
    num_output: 128
    pad: 0
    kernel_size: 1
    stride: 1
    weight_filler {
      type: "xavier"
    }
    bias_filler {
      type: "constant"
      value: 0
    }
  }
}
layer {
  name: "conv9_1_relu"
  type: "ReLU"
  bottom: "conv9_1"
  top: "conv9_1"
}
layer {
  name: "conv9_2_new"
  type: "Convolution"
  bottom: "conv9_1"
  top: "conv9_2_t"
  param {
    lr_mult: 1
    decay_mult: 1
  }
  param {
    lr_mult: 2
    decay_mult: 0
  }
  convolution_param {
    num_output: 256
    pad: 1
    kernel_size: 3
    stride: 2
    weight_filler {
      type: "xavier"
    }
    bias_filler {
      type: "constant"
      value: 0
    }
  }
}
layer {
  name: "conv9_2_relu"
  type: "ReLU"
  bottom: "conv9_2_t"
  top: "conv9_2_t"
}
layer {
  name: "conv9_2_s"
  type: "Pooling"
  bottom: "conv9_2_t"
  top: "conv9_2_s"
  pooling_param {
    pool: AVE
    global_pooling: true
  }
}
layer {
  name: "conv9_2_fc1"
  type: "Convolution"
  bottom: "conv9_2_s"
  top: "conv9_2_fc1"
  param {
    lr_mult: 1
    decay_mult: 1
  }
  param {
    lr_mult: 2
    decay_mult: 0
  }
  convolution_param {
    num_output: 64
    kernel_size: 1
    stride: 1
    weight_filler {
      type: "xavier"
    }
    bias_filler {
      type: "constant"
      value: 0
    }
  }
}
layer {
  name: "conv9_2_relu"
  type: "ReLU"
  bottom: "conv9_2_fc1"
  top: "conv9_2_fc1"
}
layer {
  name: "conv9_2_fc2"
  type: "Convolution"
  bottom: "conv9_2_fc1"
  top: "conv9_2_fc2"
  param {
    lr_mult: 1
    decay_mult: 1
  }
  param {
    lr_mult: 2
    decay_mult: 0
  }
  convolution_param {
    num_output: 256
    kernel_size: 1
    stride: 1
    weight_filler {
      type: "xavier"
    }
    bias_filler {
      type: "constant"
      value: 0
    }
  }
}
layer {
  name: "conv9_2_sig"
  type: "Sigmoid"
  bottom: "conv9_2_fc2"
  top: "conv9_2_fc2"
}
layer {
  name: "conv9_2_reshape"
  type: "Reshape"
  bottom: "conv9_2_fc2"
  top: "conv9_2_reshape"
  reshape_param {
    shape {
      dim: 0
      dim: 0
    }
  }
}
layer {
  name: "conv9_2_scale"
  type: "Scale"
  bottom: "conv9_2_t"
  bottom: "conv9_2_reshape"
  top: "conv9_2"
  scale_param {
    axis: 0
    bias_term: false
  }
}
layer {
  name: "conv10_1_new"
  type: "Convolution"
  bottom: "conv9_2"
  top: "conv10_1"
  param {
    lr_mult: 1
    decay_mult: 1
  }
  param {
    lr_mult: 2
    decay_mult: 0
  }
  convolution_param {
    num_output: 128
    pad: 0
    kernel_size: 1
    stride: 1
    weight_filler {
      type: "xavier"
    }
    bias_filler {
      type: "constant"
      value: 0
    }
  }
}
layer {
  name: "conv10_1_relu"
  type: "ReLU"
  bottom: "conv10_1"
  top: "conv10_1"
}
layer {
  name: "conv10_2_new"
  type: "Convolution"
  bottom: "conv10_1"
  top: "conv10_2_t"
  param {
    lr_mult: 1
    decay_mult: 1
  }
  param {
    lr_mult: 2
    decay_mult: 0
  }
  convolution_param {
    num_output: 256
    pad: 1
    kernel_size: 4
    stride: 1
    weight_filler {
      type: "xavier"
    }
    bias_filler {
      type: "constant"
      value: 0
    }
  }
}
layer {
  name: "conv10_2_relu"
  type: "ReLU"
  bottom: "conv10_2_t"
  top: "conv10_2_t"
}
layer {
  name: "conv10_2_s"
  type: "Pooling"
  bottom: "conv10_2_t"
  top: "conv10_2_s"
  pooling_param {
    pool: AVE
    global_pooling: true
  }
}
layer {
  name: "conv10_2_fc1"
  type: "Convolution"
  bottom: "conv10_2_s"
  top: "conv10_2_fc1"
  param {
    lr_mult: 1
    decay_mult: 1
  }
  param {
    lr_mult: 2
    decay_mult: 0
  }
  convolution_param {
    num_output: 64
    kernel_size: 1
    stride: 1
    weight_filler {
      type: "xavier"
    }
    bias_filler {
      type: "constant"
      value: 0
    }
  }
}
layer {
  name: "conv10_2_relu"
  type: "ReLU"
  bottom: "conv10_2_fc1"
  top: "conv10_2_fc1"
}
layer {
  name: "conv10_2_fc2"
  type: "Convolution"
  bottom: "conv10_2_fc1"
  top: "conv10_2_fc2"
  param {
    lr_mult: 1
    decay_mult: 1
  }
  param {
    lr_mult: 2
    decay_mult: 0
  }
  convolution_param {
    num_output: 256
    kernel_size: 1
    stride: 1
    weight_filler {
      type: "xavier"
    }
    bias_filler {
      type: "constant"
      value: 0
    }
  }
}
layer {
  name: "conv10_2_sig"
  type: "Sigmoid"
  bottom: "conv10_2_fc2"
  top: "conv10_2_fc2"
}
layer {
  name: "conv10_2_reshape"
  type: "Reshape"
  bottom: "conv10_2_fc2"
  top: "conv10_2_reshape"
  reshape_param {
    shape {
      dim: 0
      dim: 0
    }
  }
}
layer {
  name: "conv10_2_scale"
  type: "Scale"
  bottom: "conv10_2_t"
  bottom: "conv10_2_reshape"
  top: "conv10_2"
  scale_param {
    axis: 0
    bias_term: false
  }
}
layer {
  name: "conv4_3_norm_new"
  type: "Normalize"
  bottom: "conv4_3"
  top: "conv4_3_norm"
  norm_param {
    across_spatial: false
    scale_filler {
      type: "constant"
      value: 20
    }
    channel_shared: false
  }
}
layer {
  name: "conv4_3_norm_mbox_loc_new"
  type: "Convolution"
  bottom: "conv4_3_norm"
  top: "conv4_3_norm_mbox_loc"
  param {
    lr_mult: 1
    decay_mult: 1
  }
  param {
    lr_mult: 2
    decay_mult: 0
  }
  convolution_param {
    num_output: 16
    pad: 1
    kernel_size: 3
    stride: 1
    weight_filler {
      type: "xavier"
    }
    bias_filler {
      type: "constant"
      value: 0
    }
  }
}
layer {
  name: "conv4_3_norm_mbox_loc_perm_new"
  type: "Permute"
  bottom: "conv4_3_norm_mbox_loc"
  top: "conv4_3_norm_mbox_lo
I0306 16:11:55.953017  9434 layer_factory.hpp:77] Creating layer data
I0306 16:11:55.953395  9434 net.cpp:100] Creating Layer data
I0306 16:11:55.953413  9434 net.cpp:408] data -> data
I0306 16:11:55.953447  9434 net.cpp:408] data -> label
I0306 16:11:55.954553  9440 db_lmdb.cpp:35] Opened lmdb examples/coco/coco_train_lmdb
I0306 16:11:55.966786  9434 annotated_data_layer.cpp:62] output data size: 8,3,512,512
I0306 16:11:55.997124  9434 net.cpp:150] Setting up data
I0306 16:11:55.997153  9434 net.cpp:157] Top shape: 8 3 512 512 (6291456)
I0306 16:11:55.997157  9434 net.cpp:157] Top shape: 1 1 22 8 (176)
I0306 16:11:55.997160  9434 net.cpp:165] Memory required for data: 25166528
I0306 16:11:55.997172  9434 layer_factory.hpp:77] Creating layer data_data_0_split
I0306 16:11:55.997187  9434 net.cpp:100] Creating Layer data_data_0_split
I0306 16:11:55.997198  9434 net.cpp:434] data_data_0_split <- data
I0306 16:11:55.997215  9434 net.cpp:408] data_data_0_split -> data_data_0_split_0
I0306 16:11:55.997231  9434 net.cpp:408] data_data_0_split -> data_data_0_split_1
I0306 16:11:55.997241  9434 net.cpp:408] data_data_0_split -> data_data_0_split_2
I0306 16:11:55.997251  9434 net.cpp:408] data_data_0_split -> data_data_0_split_3
I0306 16:11:55.997257  9434 net.cpp:408] data_data_0_split -> data_data_0_split_4
I0306 16:11:55.997264  9434 net.cpp:408] data_data_0_split -> data_data_0_split_5
I0306 16:11:55.997272  9434 net.cpp:408] data_data_0_split -> data_data_0_split_6
I0306 16:11:55.997282  9434 net.cpp:408] data_data_0_split -> data_data_0_split_7
I0306 16:11:55.997370  9434 net.cpp:150] Setting up data_data_0_split
I0306 16:11:55.997380  9434 net.cpp:157] Top shape: 8 3 512 512 (6291456)
I0306 16:11:55.997386  9434 net.cpp:157] Top shape: 8 3 512 512 (6291456)
I0306 16:11:55.997395  9434 net.cpp:157] Top shape: 8 3 512 512 (6291456)
I0306 16:11:55.997418  9434 net.cpp:157] Top shape: 8 3 512 512 (6291456)
I0306 16:11:55.997424  9434 net.cpp:157] Top shape: 8 3 512 512 (6291456)
I0306 16:11:55.997431  9434 net.cpp:157] Top shape: 8 3 512 512 (6291456)
I0306 16:11:55.997440  9434 net.cpp:157] Top shape: 8 3 512 512 (6291456)
I0306 16:11:55.997447  9434 net.cpp:157] Top shape: 8 3 512 512 (6291456)
I0306 16:11:55.997453  9434 net.cpp:165] Memory required for data: 226493120
I0306 16:11:55.997459  9434 layer_factory.hpp:77] Creating layer label_data_1_split
I0306 16:11:55.997470  9434 net.cpp:100] Creating Layer label_data_1_split
I0306 16:11:55.997478  9434 net.cpp:434] label_data_1_split <- label
I0306 16:11:55.997485  9434 net.cpp:408] label_data_1_split -> label_data_1_split_0
I0306 16:11:55.997496  9434 net.cpp:408] label_data_1_split -> label_data_1_split_1
I0306 16:11:55.997530  9434 net.cpp:150] Setting up label_data_1_split
I0306 16:11:55.997539  9434 net.cpp:157] Top shape: 1 1 22 8 (176)
I0306 16:11:55.997545  9434 net.cpp:157] Top shape: 1 1 22 8 (176)
I0306 16:11:55.997548  9434 net.cpp:165] Memory required for data: 226494528
I0306 16:11:55.997555  9434 layer_factory.hpp:77] Creating layer conv1_1
I0306 16:11:55.997575  9434 net.cpp:100] Creating Layer conv1_1
I0306 16:11:55.997586  9434 net.cpp:434] conv1_1 <- data_data_0_split_0
I0306 16:11:55.997593  9434 net.cpp:408] conv1_1 -> conv1_1
I0306 16:11:56.021627  9441 blocking_queue.cpp:50] Waiting for data
I0306 16:11:56.419745  9434 net.cpp:150] Setting up conv1_1
I0306 16:11:56.419771  9434 net.cpp:157] Top shape: 8 64 512 512 (134217728)
I0306 16:11:56.419777  9434 net.cpp:165] Memory required for data: 763365440
I0306 16:11:56.419797  9434 layer_factory.hpp:77] Creating layer relu1_1
I0306 16:11:56.419814  9434 net.cpp:100] Creating Layer relu1_1
I0306 16:11:56.419823  9434 net.cpp:434] relu1_1 <- conv1_1
I0306 16:11:56.419836  9434 net.cpp:395] relu1_1 -> conv1_1 (in-place)
I0306 16:11:56.419999  9434 net.cpp:150] Setting up relu1_1
I0306 16:11:56.420008  9434 net.cpp:157] Top shape: 8 64 512 512 (134217728)
I0306 16:11:56.420012  9434 net.cpp:165] Memory required for data: 1300236352
I0306 16:11:56.420017  9434 layer_factory.hpp:77] Creating layer conv1_2
I0306 16:11:56.420029  9434 net.cpp:100] Creating Layer conv1_2
I0306 16:11:56.420035  9434 net.cpp:434] conv1_2 <- conv1_1
I0306 16:11:56.420042  9434 net.cpp:408] conv1_2 -> conv1_2
I0306 16:11:56.422112  9434 net.cpp:150] Setting up conv1_2
I0306 16:11:56.422132  9434 net.cpp:157] Top shape: 8 64 512 512 (134217728)
I0306 16:11:56.422139  9434 net.cpp:165] Memory required for data: 1837107264
I0306 16:11:56.422153  9434 layer_factory.hpp:77] Creating layer relu1_2
I0306 16:11:56.422168  9434 net.cpp:100] Creating Layer relu1_2
I0306 16:11:56.422178  9434 net.cpp:434] relu1_2 <- conv1_2
I0306 16:11:56.422186  9434 net.cpp:395] relu1_2 -> conv1_2 (in-place)
I0306 16:11:56.422416  9434 net.cpp:150] Setting up relu1_2
I0306 16:11:56.422431  9434 net.cpp:157] Top shape: 8 64 512 512 (134217728)
I0306 16:11:56.422437  9434 net.cpp:165] Memory required for data: 2373978176
I0306 16:11:56.422446  9434 layer_factory.hpp:77] Creating layer pool1
I0306 16:11:56.422458  9434 net.cpp:100] Creating Layer pool1
I0306 16:11:56.422466  9434 net.cpp:434] pool1 <- conv1_2
I0306 16:11:56.422477  9434 net.cpp:408] pool1 -> pool1
I0306 16:11:56.422533  9434 net.cpp:150] Setting up pool1
I0306 16:11:56.422545  9434 net.cpp:157] Top shape: 8 64 256 256 (33554432)
I0306 16:11:56.422552  9434 net.cpp:165] Memory required for data: 2508195904
I0306 16:11:56.422561  9434 layer_factory.hpp:77] Creating layer conv2_1
I0306 16:11:56.422577  9434 net.cpp:100] Creating Layer conv2_1
I0306 16:11:56.422587  9434 net.cpp:434] conv2_1 <- pool1
I0306 16:11:56.422596  9434 net.cpp:408] conv2_1 -> conv2_1
I0306 16:11:56.425050  9434 net.cpp:150] Setting up conv2_1
I0306 16:11:56.425068  9434 net.cpp:157] Top shape: 8 128 256 256 (67108864)
I0306 16:11:56.425072  9434 net.cpp:165] Memory required for data: 2776631360
I0306 16:11:56.425086  9434 layer_factory.hpp:77] Creating layer relu2_1
I0306 16:11:56.425112  9434 net.cpp:100] Creating Layer relu2_1
I0306 16:11:56.425117  9434 net.cpp:434] relu2_1 <- conv2_1
I0306 16:11:56.425125  9434 net.cpp:395] relu2_1 -> conv2_1 (in-place)
I0306 16:11:56.425580  9434 net.cpp:150] Setting up relu2_1
I0306 16:11:56.425591  9434 net.cpp:157] Top shape: 8 128 256 256 (67108864)
I0306 16:11:56.425597  9434 net.cpp:165] Memory required for data: 3045066816
I0306 16:11:56.425606  9434 layer_factory.hpp:77] Creating layer conv2_2
I0306 16:11:56.425617  9434 net.cpp:100] Creating Layer conv2_2
I0306 16:11:56.425626  9434 net.cpp:434] conv2_2 <- conv2_1
I0306 16:11:56.425634  9434 net.cpp:408] conv2_2 -> conv2_2
I0306 16:11:56.427505  9434 net.cpp:150] Setting up conv2_2
I0306 16:11:56.427520  9434 net.cpp:157] Top shape: 8 128 256 256 (67108864)
I0306 16:11:56.427525  9434 net.cpp:165] Memory required for data: 3313502272
I0306 16:11:56.427534  9434 layer_factory.hpp:77] Creating layer relu2_2
I0306 16:11:56.427542  9434 net.cpp:100] Creating Layer relu2_2
I0306 16:11:56.427548  9434 net.cpp:434] relu2_2 <- conv2_2
I0306 16:11:56.427557  9434 net.cpp:395] relu2_2 -> conv2_2 (in-place)
I0306 16:11:56.427706  9434 net.cpp:150] Setting up relu2_2
I0306 16:11:56.427716  9434 net.cpp:157] Top shape: 8 128 256 256 (67108864)
I0306 16:11:56.427721  9434 net.cpp:165] Memory required for data: 3581937728
I0306 16:11:56.427728  9434 layer_factory.hpp:77] Creating layer pool2
I0306 16:11:56.427737  9434 net.cpp:100] Creating Layer pool2
I0306 16:11:56.427745  9434 net.cpp:434] pool2 <- conv2_2
I0306 16:11:56.427752  9434 net.cpp:408] pool2 -> pool2
I0306 16:11:56.427798  9434 net.cpp:150] Setting up pool2
I0306 16:11:56.427806  9434 net.cpp:157] Top shape: 8 128 128 128 (16777216)
I0306 16:11:56.427814  9434 net.cpp:165] Memory required for data: 3649046592
I0306 16:11:56.427819  9434 layer_factory.hpp:77] Creating layer conv3_1
I0306 16:11:56.427829  9434 net.cpp:100] Creating Layer conv3_1
I0306 16:11:56.427835  9434 net.cpp:434] conv3_1 <- pool2
I0306 16:11:56.427845  9434 net.cpp:408] conv3_1 -> conv3_1
I0306 16:11:56.431064  9434 net.cpp:150] Setting up conv3_1
I0306 16:11:56.431079  9434 net.cpp:157] Top shape: 8 256 128 128 (33554432)
I0306 16:11:56.431083  9434 net.cpp:165] Memory required for data: 3783264320
I0306 16:11:56.431093  9434 layer_factory.hpp:77] Creating layer relu3_1
I0306 16:11:56.431107  9434 net.cpp:100] Creating Layer relu3_1
I0306 16:11:56.431110  9434 net.cpp:434] relu3_1 <- conv3_1
I0306 16:11:56.431118  9434 net.cpp:395] relu3_1 -> conv3_1 (in-place)
I0306 16:11:56.431268  9434 net.cpp:150] Setting up relu3_1
I0306 16:11:56.431280  9434 net.cpp:157] Top shape: 8 256 128 128 (33554432)
I0306 16:11:56.431284  9434 net.cpp:165] Memory required for data: 3917482048
I0306 16:11:56.431289  9434 layer_factory.hpp:77] Creating layer conv3_2
I0306 16:11:56.431299  9434 net.cpp:100] Creating Layer conv3_2
I0306 16:11:56.431308  9434 net.cpp:434] conv3_2 <- conv3_1
I0306 16:11:56.431315  9434 net.cpp:408] conv3_2 -> conv3_2
I0306 16:11:56.435760  9434 net.cpp:150] Setting up conv3_2
I0306 16:11:56.435773  9434 net.cpp:157] Top shape: 8 256 128 128 (33554432)
I0306 16:11:56.435778  9434 net.cpp:165] Memory required for data: 4051699776
I0306 16:11:56.435786  9434 layer_factory.hpp:77] Creating layer relu3_2
I0306 16:11:56.435798  9434 net.cpp:100] Creating Layer relu3_2
I0306 16:11:56.435809  9434 net.cpp:434] relu3_2 <- conv3_2
I0306 16:11:56.435817  9434 net.cpp:395] relu3_2 -> conv3_2 (in-place)
I0306 16:11:56.436261  9434 net.cpp:150] Setting up relu3_2
I0306 16:11:56.436273  9434 net.cpp:157] Top shape: 8 256 128 128 (33554432)
I0306 16:11:56.436278  9434 net.cpp:165] Memory required for data: 4185917504
I0306 16:11:56.436285  9434 layer_factory.hpp:77] Creating layer conv3_3
I0306 16:11:56.436297  9434 net.cpp:100] Creating Layer conv3_3
I0306 16:11:56.436305  9434 net.cpp:434] conv3_3 <- conv3_2
I0306 16:11:56.436311  9434 net.cpp:408] conv3_3 -> conv3_3
I0306 16:11:56.440887  9434 net.cpp:150] Setting up conv3_3
I0306 16:11:56.440927  9434 net.cpp:157] Top shape: 8 256 128 128 (33554432)
I0306 16:11:56.440932  9434 net.cpp:165] Memory required for data: 4320135232
I0306 16:11:56.440940  9434 layer_factory.hpp:77] Creating layer relu3_3
I0306 16:11:56.440953  9434 net.cpp:100] Creating Layer relu3_3
I0306 16:11:56.440960  9434 net.cpp:434] relu3_3 <- conv3_3
I0306 16:11:56.440971  9434 net.cpp:395] relu3_3 -> conv3_3 (in-place)
I0306 16:11:56.441119  9434 net.cpp:150] Setting up relu3_3
I0306 16:11:56.441129  9434 net.cpp:157] Top shape: 8 256 128 128 (33554432)
I0306 16:11:56.441133  9434 net.cpp:165] Memory required for data: 4454352960
I0306 16:11:56.441138  9434 layer_factory.hpp:77] Creating layer pool3
I0306 16:11:56.441148  9434 net.cpp:100] Creating Layer pool3
I0306 16:11:56.441154  9434 net.cpp:434] pool3 <- conv3_3
I0306 16:11:56.441159  9434 net.cpp:408] pool3 -> pool3
I0306 16:11:56.441200  9434 net.cpp:150] Setting up pool3
I0306 16:11:56.441208  9434 net.cpp:157] Top shape: 8 256 64 64 (8388608)
I0306 16:11:56.441213  9434 net.cpp:165] Memory required for data: 4487907392
I0306 16:11:56.441221  9434 layer_factory.hpp:77] Creating layer conv4_1
I0306 16:11:56.441231  9434 net.cpp:100] Creating Layer conv4_1
I0306 16:11:56.441238  9434 net.cpp:434] conv4_1 <- pool3
I0306 16:11:56.441247  9434 net.cpp:408] conv4_1 -> conv4_1
I0306 16:11:56.451124  9434 net.cpp:150] Setting up conv4_1
I0306 16:11:56.451150  9434 net.cpp:157] Top shape: 8 512 64 64 (16777216)
I0306 16:11:56.451155  9434 net.cpp:165] Memory required for data: 4555016256
I0306 16:11:56.451169  9434 layer_factory.hpp:77] Creating layer relu4_1
I0306 16:11:56.451179  9434 net.cpp:100] Creating Layer relu4_1
I0306 16:11:56.451191  9434 net.cpp:434] relu4_1 <- conv4_1
I0306 16:11:56.451201  9434 net.cpp:395] relu4_1 -> conv4_1 (in-place)
I0306 16:11:56.451356  9434 net.cpp:150] Setting up relu4_1
I0306 16:11:56.451367  9434 net.cpp:157] Top shape: 8 512 64 64 (16777216)
I0306 16:11:56.451375  9434 net.cpp:165] Memory required for data: 4622125120
I0306 16:11:56.451380  9434 layer_factory.hpp:77] Creating layer conv4_2
I0306 16:11:56.451397  9434 net.cpp:100] Creating Layer conv4_2
I0306 16:11:56.451406  9434 net.cpp:434] conv4_2 <- conv4_1
I0306 16:11:56.451417  9434 net.cpp:408] conv4_2 -> conv4_2
I0306 16:11:56.469650  9434 net.cpp:150] Setting up conv4_2
I0306 16:11:56.469676  9434 net.cpp:157] Top shape: 8 512 64 64 (16777216)
I0306 16:11:56.469682  9434 net.cpp:165] Memory required for data: 4689233984
I0306 16:11:56.469703  9434 layer_factory.hpp:77] Creating layer relu4_2
I0306 16:11:56.469718  9434 net.cpp:100] Creating Layer relu4_2
I0306 16:11:56.469732  9434 net.cpp:434] relu4_2 <- conv4_2
I0306 16:11:56.469745  9434 net.cpp:395] relu4_2 -> conv4_2 (in-place)
I0306 16:11:56.469913  9434 net.cpp:150] Setting up relu4_2
I0306 16:11:56.469926  9434 net.cpp:157] Top shape: 8 512 64 64 (16777216)
I0306 16:11:56.469933  9434 net.cpp:165] Memory required for data: 4756342848
I0306 16:11:56.469939  9434 layer_factory.hpp:77] Creating layer conv4_3
I0306 16:11:56.469957  9434 net.cpp:100] Creating Layer conv4_3
I0306 16:11:56.469965  9434 net.cpp:434] conv4_3 <- conv4_2
I0306 16:11:56.469980  9434 net.cpp:408] conv4_3 -> conv4_3_ori
I0306 16:11:56.482939  9434 net.cpp:150] Setting up conv4_3
I0306 16:11:56.482964  9434 net.cpp:157] Top shape: 8 512 64 64 (16777216)
I0306 16:11:56.482969  9434 net.cpp:165] Memory required for data: 4823451712
I0306 16:11:56.482981  9434 layer_factory.hpp:77] Creating layer relu4_3
I0306 16:11:56.482993  9434 net.cpp:100] Creating Layer relu4_3
I0306 16:11:56.483006  9434 net.cpp:434] relu4_3 <- conv4_3_ori
I0306 16:11:56.483016  9434 net.cpp:395] relu4_3 -> conv4_3_ori (in-place)
I0306 16:11:56.483485  9434 net.cpp:150] Setting up relu4_3
I0306 16:11:56.483499  9434 net.cpp:157] Top shape: 8 512 64 64 (16777216)
I0306 16:11:56.483503  9434 net.cpp:165] Memory required for data: 4890560576
I0306 16:11:56.483510  9434 layer_factory.hpp:77] Creating layer conv4_3_ori_relu4_3_0_split
I0306 16:11:56.483520  9434 net.cpp:100] Creating Layer conv4_3_ori_relu4_3_0_split
I0306 16:11:56.483546  9434 net.cpp:434] conv4_3_ori_relu4_3_0_split <- conv4_3_ori
I0306 16:11:56.483556  9434 net.cpp:408] conv4_3_ori_relu4_3_0_split -> conv4_3_ori_relu4_3_0_split_0
I0306 16:11:56.483568  9434 net.cpp:408] conv4_3_ori_relu4_3_0_split -> conv4_3_ori_relu4_3_0_split_1
I0306 16:11:56.483619  9434 net.cpp:150] Setting up conv4_3_ori_relu4_3_0_split
I0306 16:11:56.483630  9434 net.cpp:157] Top shape: 8 512 64 64 (16777216)
I0306 16:11:56.483638  9434 net.cpp:157] Top shape: 8 512 64 64 (16777216)
I0306 16:11:56.483644  9434 net.cpp:165] Memory required for data: 5024778304
I0306 16:11:56.483654  9434 layer_factory.hpp:77] Creating layer seg_pool4
I0306 16:11:56.483664  9434 net.cpp:100] Creating Layer seg_pool4
I0306 16:11:56.483672  9434 net.cpp:434] seg_pool4 <- conv4_3_ori_relu4_3_0_split_0
I0306 16:11:56.483688  9434 net.cpp:408] seg_pool4 -> seg_pool4
I0306 16:11:56.483738  9434 net.cpp:150] Setting up seg_pool4
I0306 16:11:56.483749  9434 net.cpp:157] Top shape: 8 512 64 64 (16777216)
I0306 16:11:56.483754  9434 net.cpp:165] Memory required for data: 5091887168
I0306 16:11:56.483759  9434 layer_factory.hpp:77] Creating layer seg5_1
I0306 16:11:56.483772  9434 net.cpp:100] Creating Layer seg5_1
I0306 16:11:56.483780  9434 net.cpp:434] seg5_1 <- seg_pool4
I0306 16:11:56.483793  9434 net.cpp:408] seg5_1 -> seg5_1
I0306 16:11:56.496209  9434 net.cpp:150] Setting up seg5_1
I0306 16:11:56.496237  9434 net.cpp:157] Top shape: 8 512 64 64 (16777216)
I0306 16:11:56.496243  9434 net.cpp:165] Memory required for data: 5158996032
I0306 16:11:56.496256  9434 layer_factory.hpp:77] Creating layer seg_relu5_1
I0306 16:11:56.496268  9434 net.cpp:100] Creating Layer seg_relu5_1
I0306 16:11:56.496281  9434 net.cpp:434] seg_relu5_1 <- seg5_1
I0306 16:11:56.496295  9434 net.cpp:395] seg_relu5_1 -> seg5_1 (in-place)
I0306 16:11:56.496505  9434 net.cpp:150] Setting up seg_relu5_1
I0306 16:11:56.496515  9434 net.cpp:157] Top shape: 8 512 64 64 (16777216)
I0306 16:11:56.496521  9434 net.cpp:165] Memory required for data: 5226104896
I0306 16:11:56.496527  9434 layer_factory.hpp:77] Creating layer seg5_2
I0306 16:11:56.496551  9434 net.cpp:100] Creating Layer seg5_2
I0306 16:11:56.496568  9434 net.cpp:434] seg5_2 <- seg5_1
I0306 16:11:56.496580  9434 net.cpp:408] seg5_2 -> seg5_2
I0306 16:11:56.509030  9434 net.cpp:150] Setting up seg5_2
I0306 16:11:56.509053  9434 net.cpp:157] Top shape: 8 512 64 64 (16777216)
I0306 16:11:56.509060  9434 net.cpp:165] Memory required for data: 5293213760
I0306 16:11:56.509075  9434 layer_factory.hpp:77] Creating layer seg_relu5_2
I0306 16:11:56.509091  9434 net.cpp:100] Creating Layer seg_relu5_2
I0306 16:11:56.509100  9434 net.cpp:434] seg_relu5_2 <- seg5_2
I0306 16:11:56.509112  9434 net.cpp:395] seg_relu5_2 -> seg5_2 (in-place)
I0306 16:11:56.509312  9434 net.cpp:150] Setting up seg_relu5_2
I0306 16:11:56.509326  9434 net.cpp:157] Top shape: 8 512 64 64 (16777216)
I0306 16:11:56.509335  9434 net.cpp:165] Memory required for data: 5360322624
I0306 16:11:56.509344  9434 layer_factory.hpp:77] Creating layer seg5_3
I0306 16:11:56.509372  9434 net.cpp:100] Creating Layer seg5_3
I0306 16:11:56.509385  9434 net.cpp:434] seg5_3 <- seg5_2
I0306 16:11:56.509395  9434 net.cpp:408] seg5_3 -> seg5_3
I0306 16:11:56.521289  9434 net.cpp:150] Setting up seg5_3
I0306 16:11:56.521311  9434 net.cpp:157] Top shape: 8 512 64 64 (16777216)
I0306 16:11:56.521317  9434 net.cpp:165] Memory required for data: 5427431488
I0306 16:11:56.521329  9434 layer_factory.hpp:77] Creating layer seg_relu5_3
I0306 16:11:56.521342  9434 net.cpp:100] Creating Layer seg_relu5_3
I0306 16:11:56.521353  9434 net.cpp:434] seg_relu5_3 <- seg5_3
I0306 16:11:56.521368  9434 net.cpp:395] seg_relu5_3 -> seg5_3 (in-place)
I0306 16:11:56.521960  9434 net.cpp:150] Setting up seg_relu5_3
I0306 16:11:56.521980  9434 net.cpp:157] Top shape: 8 512 64 64 (16777216)
I0306 16:11:56.521988  9434 net.cpp:165] Memory required for data: 5494540352
I0306 16:11:56.521997  9434 layer_factory.hpp:77] Creating layer seg_pool5
I0306 16:11:56.522029  9434 net.cpp:100] Creating Layer seg_pool5
I0306 16:11:56.522039  9434 net.cpp:434] seg_pool5 <- seg5_3
I0306 16:11:56.522053  9434 net.cpp:408] seg_pool5 -> seg_pool5
I0306 16:11:56.522109  9434 net.cpp:150] Setting up seg_pool5
I0306 16:11:56.522125  9434 net.cpp:157] Top shape: 8 512 64 64 (16777216)
I0306 16:11:56.522130  9434 net.cpp:165] Memory required for data: 5561649216
I0306 16:11:56.522140  9434 layer_factory.hpp:77] Creating layer seg6
I0306 16:11:56.522166  9434 net.cpp:100] Creating Layer seg6
I0306 16:11:56.522181  9434 net.cpp:434] seg6 <- seg_pool5
I0306 16:11:56.522195  9434 net.cpp:408] seg6 -> seg6
I0306 16:11:56.550711  9434 net.cpp:150] Setting up seg6
I0306 16:11:56.550748  9434 net.cpp:157] Top shape: 8 1024 64 64 (33554432)
I0306 16:11:56.550755  9434 net.cpp:165] Memory required for data: 5695866944
I0306 16:11:56.550768  9434 layer_factory.hpp:77] Creating layer seg_relu6
I0306 16:11:56.550787  9434 net.cpp:100] Creating Layer seg_relu6
I0306 16:11:56.550801  9434 net.cpp:434] seg_relu6 <- seg6
I0306 16:11:56.550814  9434 net.cpp:395] seg_relu6 -> seg6 (in-place)
I0306 16:11:56.551084  9434 net.cpp:150] Setting up seg_relu6
I0306 16:11:56.551096  9434 net.cpp:157] Top shape: 8 1024 64 64 (33554432)
I0306 16:11:56.551102  9434 net.cpp:165] Memory required for data: 5830084672
I0306 16:11:56.551110  9434 layer_factory.hpp:77] Creating layer seg_drop6
I0306 16:11:56.551120  9434 net.cpp:100] Creating Layer seg_drop6
I0306 16:11:56.551126  9434 net.cpp:434] seg_drop6 <- seg6
I0306 16:11:56.551134  9434 net.cpp:395] seg_drop6 -> seg6 (in-place)
I0306 16:11:56.551175  9434 net.cpp:150] Setting up seg_drop6
I0306 16:11:56.551214  9434 net.cpp:157] Top shape: 8 1024 64 64 (33554432)
I0306 16:11:56.551246  9434 net.cpp:165] Memory required for data: 5964302400
I0306 16:11:56.551256  9434 layer_factory.hpp:77] Creating layer seg7
I0306 16:11:56.551275  9434 net.cpp:100] Creating Layer seg7
I0306 16:11:56.551283  9434 net.cpp:434] seg7 <- seg6
I0306 16:11:56.551300  9434 net.cpp:408] seg7 -> seg7
I0306 16:11:56.557731  9434 net.cpp:150] Setting up seg7
I0306 16:11:56.557745  9434 net.cpp:157] Top shape: 8 1024 64 64 (33554432)
I0306 16:11:56.557749  9434 net.cpp:165] Memory required for data: 6098520128
I0306 16:11:56.557757  9434 layer_factory.hpp:77] Creating layer seg_relu7
I0306 16:11:56.557765  9434 net.cpp:100] Creating Layer seg_relu7
I0306 16:11:56.557772  9434 net.cpp:434] seg_relu7 <- seg7
I0306 16:11:56.557777  9434 net.cpp:395] seg_relu7 -> seg7 (in-place)
I0306 16:11:56.557915  9434 net.cpp:150] Setting up seg_relu7
I0306 16:11:56.557924  9434 net.cpp:157] Top shape: 8 1024 64 64 (33554432)
I0306 16:11:56.557930  9434 net.cpp:165] Memory required for data: 6232737856
I0306 16:11:56.557937  9434 layer_factory.hpp:77] Creating layer seg7_seg_relu7_0_split
I0306 16:11:56.557945  9434 net.cpp:100] Creating Layer seg7_seg_relu7_0_split
I0306 16:11:56.557950  9434 net.cpp:434] seg7_seg_relu7_0_split <- seg7
I0306 16:11:56.557960  9434 net.cpp:408] seg7_seg_relu7_0_split -> seg7_seg_relu7_0_split_0
I0306 16:11:56.557981  9434 net.cpp:408] seg7_seg_relu7_0_split -> seg7_seg_relu7_0_split_1
I0306 16:11:56.558022  9434 net.cpp:150] Setting up seg7_seg_relu7_0_split
I0306 16:11:56.558037  9434 net.cpp:157] Top shape: 8 1024 64 64 (33554432)
I0306 16:11:56.558046  9434 net.cpp:157] Top shape: 8 1024 64 64 (33554432)
I0306 16:11:56.558050  9434 net.cpp:165] Memory required for data: 6501173312
I0306 16:11:56.558058  9434 layer_factory.hpp:77] Creating layer seg_drop7
I0306 16:11:56.558079  9434 net.cpp:100] Creating Layer seg_drop7
I0306 16:11:56.558087  9434 net.cpp:434] seg_drop7 <- seg7_seg_relu7_0_split_0
I0306 16:11:56.558105  9434 net.cpp:408] seg_drop7 -> seg7d
I0306 16:11:56.558149  9434 net.cpp:150] Setting up seg_drop7
I0306 16:11:56.558161  9434 net.cpp:157] Top shape: 8 1024 64 64 (33554432)
I0306 16:11:56.558181  9434 net.cpp:165] Memory required for data: 6635391040
I0306 16:11:56.558192  9434 layer_factory.hpp:77] Creating layer seg_new
I0306 16:11:56.558231  9434 net.cpp:100] Creating Layer seg_new
I0306 16:11:56.558239  9434 net.cpp:434] seg_new <- seg7d
I0306 16:11:56.558249  9434 net.cpp:408] seg_new -> seg
I0306 16:11:56.560595  9434 net.cpp:150] Setting up seg_new
I0306 16:11:56.560612  9434 net.cpp:157] Top shape: 8 81 64 64 (2654208)
I0306 16:11:56.560618  9434 net.cpp:165] Memory required for data: 6646007872
I0306 16:11:56.560628  9434 layer_factory.hpp:77] Creating layer seg_seg_new_0_split
I0306 16:11:56.560642  9434 net.cpp:100] Creating Layer seg_seg_new_0_split
I0306 16:11:56.560650  9434 net.cpp:434] seg_seg_new_0_split <- seg
I0306 16:11:56.560667  9434 net.cpp:408] seg_seg_new_0_split -> seg_seg_new_0_split_0
I0306 16:11:56.560683  9434 net.cpp:408] seg_seg_new_0_split -> seg_seg_new_0_split_1
I0306 16:11:56.560730  9434 net.cpp:150] Setting up seg_seg_new_0_split
I0306 16:11:56.560741  9434 net.cpp:157] Top shape: 8 81 64 64 (2654208)
I0306 16:11:56.560750  9434 net.cpp:157] Top shape: 8 81 64 64 (2654208)
I0306 16:11:56.560755  9434 net.cpp:165] Memory required for data: 6667241536
I0306 16:11:56.560767  9434 layer_factory.hpp:77] Creating layer seg_gt
I0306 16:11:56.560778  9434 net.cpp:100] Creating Layer seg_gt
I0306 16:11:56.560793  9434 net.cpp:434] seg_gt <- label_data_1_split_0
I0306 16:11:56.560801  9434 net.cpp:434] seg_gt <- seg_seg_new_0_split_0
I0306 16:11:56.560813  9434 net.cpp:408] seg_gt -> seg_gt
I0306 16:11:56.560858  9434 net.cpp:150] Setting up seg_gt
I0306 16:11:56.560875  9434 net.cpp:157] Top shape: 8 1 64 64 (32768)
I0306 16:11:56.560885  9434 net.cpp:165] Memory required for data: 6667372608
I0306 16:11:56.560894  9434 layer_factory.hpp:77] Creating layer seg_loss
I0306 16:11:56.560912  9434 net.cpp:100] Creating Layer seg_loss
I0306 16:11:56.560925  9434 net.cpp:434] seg_loss <- seg_seg_new_0_split_1
I0306 16:11:56.560940  9434 net.cpp:434] seg_loss <- seg_gt
I0306 16:11:56.560950  9434 net.cpp:408] seg_loss -> seg_loss
I0306 16:11:56.560968  9434 layer_factory.hpp:77] Creating layer seg_loss
I0306 16:11:56.565181  9434 net.cpp:150] Setting up seg_loss
I0306 16:11:56.565204  9434 net.cpp:157] Top shape: (1)
I0306 16:11:56.565209  9434 net.cpp:160]     with loss weight 0.1
I0306 16:11:56.565240  9434 net.cpp:165] Memory required for data: 6667372612
I0306 16:11:56.565253  9434 layer_factory.hpp:77] Creating layer seg_to_det_conv
I0306 16:11:56.565269  9434 net.cpp:100] Creating Layer seg_to_det_conv
I0306 16:11:56.565279  9434 net.cpp:434] seg_to_det_conv <- seg7_seg_relu7_0_split_1
I0306 16:11:56.565289  9434 net.cpp:408] seg_to_det_conv -> seg_to_det_conv
I0306 16:11:56.569808  9434 net.cpp:150] Setting up seg_to_det_conv
I0306 16:11:56.569825  9434 net.cpp:157] Top shape: 8 512 64 64 (16777216)
I0306 16:11:56.569830  9434 net.cpp:165] Memory required for data: 6734481476
I0306 16:11:56.569850  9434 layer_factory.hpp:77] Creating layer mult_conv4_3
I0306 16:11:56.569862  9434 net.cpp:100] Creating Layer mult_conv4_3
I0306 16:11:56.569870  9434 net.cpp:434] mult_conv4_3 <- conv4_3_ori_relu4_3_0_split_1
I0306 16:11:56.569885  9434 net.cpp:434] mult_conv4_3 <- seg_to_det_conv
I0306 16:11:56.569895  9434 net.cpp:408] mult_conv4_3 -> conv4_3_t
I0306 16:11:56.569937  9434 net.cpp:150] Setting up mult_conv4_3
I0306 16:11:56.569949  9434 net.cpp:157] Top shape: 8 512 64 64 (16777216)
I0306 16:11:56.569955  9434 net.cpp:165] Memory required for data: 6801590340
I0306 16:11:56.569965  9434 layer_factory.hpp:77] Creating layer conv4_3_t_mult_conv4_3_0_split
I0306 16:11:56.569977  9434 net.cpp:100] Creating Layer conv4_3_t_mult_conv4_3_0_split
I0306 16:11:56.569993  9434 net.cpp:434] conv4_3_t_mult_conv4_3_0_split <- conv4_3_t
I0306 16:11:56.570005  9434 net.cpp:408] conv4_3_t_mult_conv4_3_0_split -> conv4_3_t_mult_conv4_3_0_split_0
I0306 16:11:56.570025  9434 net.cpp:408] conv4_3_t_mult_conv4_3_0_split -> conv4_3_t_mult_conv4_3_0_split_1
I0306 16:11:56.570070  9434 net.cpp:150] Setting up conv4_3_t_mult_conv4_3_0_split
I0306 16:11:56.570088  9434 net.cpp:157] Top shape: 8 512 64 64 (16777216)
I0306 16:11:56.570104  9434 net.cpp:157] Top shape: 8 512 64 64 (16777216)
I0306 16:11:56.570134  9434 net.cpp:165] Memory required for data: 6935808068
I0306 16:11:56.570147  9434 layer_factory.hpp:77] Creating layer conv4_3_s
I0306 16:11:56.570159  9434 net.cpp:100] Creating Layer conv4_3_s
I0306 16:11:56.570168  9434 net.cpp:434] conv4_3_s <- conv4_3_t_mult_conv4_3_0_split_0
I0306 16:11:56.570184  9434 net.cpp:408] conv4_3_s -> conv4_3_s
I0306 16:11:56.570391  9434 net.cpp:150] Setting up conv4_3_s
I0306 16:11:56.570408  9434 net.cpp:157] Top shape: 8 512 1 1 (4096)
I0306 16:11:56.570416  9434 net.cpp:165] Memory required for data: 6935824452
I0306 16:11:56.570422  9434 layer_factory.hpp:77] Creating layer conv4_3_fc1
I0306 16:11:56.570436  9434 net.cpp:100] Creating Layer conv4_3_fc1
I0306 16:11:56.570446  9434 net.cpp:434] conv4_3_fc1 <- conv4_3_s
I0306 16:11:56.570457  9434 net.cpp:408] conv4_3_fc1 -> conv4_3_fc1
I0306 16:11:56.571976  9434 net.cpp:150] Setting up conv4_3_fc1
I0306 16:11:56.571991  9434 net.cpp:157] Top shape: 8 128 1 1 (1024)
I0306 16:11:56.571996  9434 net.cpp:165] Memory required for data: 6935828548
I0306 16:11:56.572010  9434 layer_factory.hpp:77] Creating layer conv4_3_relu
I0306 16:11:56.572027  9434 net.cpp:100] Creating Layer conv4_3_relu
I0306 16:11:56.572053  9434 net.cpp:434] conv4_3_relu <- conv4_3_fc1
I0306 16:11:56.572062  9434 net.cpp:395] conv4_3_relu -> conv4_3_fc1 (in-place)
I0306 16:11:56.572221  9434 net.cpp:150] Setting up conv4_3_relu
I0306 16:11:56.572233  9434 net.cpp:157] Top shape: 8 128 1 1 (1024)
I0306 16:11:56.572239  9434 net.cpp:165] Memory required for data: 6935832644
I0306 16:11:56.572245  9434 layer_factory.hpp:77] Creating layer conv4_3_fc2
I0306 16:11:56.572263  9434 net.cpp:100] Creating Layer conv4_3_fc2
I0306 16:11:56.572274  9434 net.cpp:434] conv4_3_fc2 <- conv4_3_fc1
I0306 16:11:56.572284  9434 net.cpp:408] conv4_3_fc2 -> conv4_3_fc2
I0306 16:11:56.573812  9434 net.cpp:150] Setting up conv4_3_fc2
I0306 16:11:56.573824  9434 net.cpp:157] Top shape: 8 512 1 1 (4096)
I0306 16:11:56.573830  9434 net.cpp:165] Memory required for data: 6935849028
I0306 16:11:56.573842  9434 layer_factory.hpp:77] Creating layer conv4_3_sig
I0306 16:11:56.573858  9434 net.cpp:100] Creating Layer conv4_3_sig
I0306 16:11:56.573864  9434 net.cpp:434] conv4_3_sig <- conv4_3_fc2
I0306 16:11:56.573897  9434 net.cpp:395] conv4_3_sig -> conv4_3_fc2 (in-place)
I0306 16:11:56.574048  9434 net.cpp:150] Setting up conv4_3_sig
I0306 16:11:56.574065  9434 net.cpp:157] Top shape: 8 512 1 1 (4096)
I0306 16:11:56.574071  9434 net.cpp:165] Memory required for data: 6935865412
I0306 16:11:56.574081  9434 layer_factory.hpp:77] Creating layer conv4_3_reshape
I0306 16:11:56.574097  9434 net.cpp:100] Creating Layer conv4_3_reshape
I0306 16:11:56.574110  9434 net.cpp:434] conv4_3_reshape <- conv4_3_fc2
I0306 16:11:56.574122  9434 net.cpp:408] conv4_3_reshape -> conv4_3_reshape
I0306 16:11:56.574168  9434 net.cpp:150] Setting up conv4_3_reshape
I0306 16:11:56.574193  9434 net.cpp:157] Top shape: 8 512 (4096)
I0306 16:11:56.574203  9434 net.cpp:165] Memory required for data: 6935881796
I0306 16:11:56.574210  9434 layer_factory.hpp:77] Creating layer conv4_3_scale
I0306 16:11:56.574228  9434 net.cpp:100] Creating Layer conv4_3_scale
I0306 16:11:56.574240  9434 net.cpp:434] conv4_3_scale <- conv4_3_t_mult_conv4_3_0_split_1
I0306 16:11:56.574254  9434 net.cpp:434] conv4_3_scale <- conv4_3_reshape
I0306 16:11:56.574270  9434 net.cpp:408] conv4_3_scale -> conv4_3
I0306 16:11:56.574367  9434 net.cpp:150] Setting up conv4_3_scale
I0306 16:11:56.574383  9434 net.cpp:157] Top shape: 8 512 64 64 (16777216)
I0306 16:11:56.574391  9434 net.cpp:165] Memory required for data: 7002990660
I0306 16:11:56.574399  9434 layer_factory.hpp:77] Creating layer conv4_3_conv4_3_scale_0_split
I0306 16:11:56.574410  9434 net.cpp:100] Creating Layer conv4_3_conv4_3_scale_0_split
I0306 16:11:56.574419  9434 net.cpp:434] conv4_3_conv4_3_scale_0_split <- conv4_3
I0306 16:11:56.574429  9434 net.cpp:408] conv4_3_conv4_3_scale_0_split -> conv4_3_conv4_3_scale_0_split_0
I0306 16:11:56.574455  9434 net.cpp:408] conv4_3_conv4_3_scale_0_split -> conv4_3_conv4_3_scale_0_split_1
I0306 16:11:56.574503  9434 net.cpp:150] Setting up conv4_3_conv4_3_scale_0_split
I0306 16:11:56.574514  9434 net.cpp:157] Top shape: 8 512 64 64 (16777216)
I0306 16:11:56.574523  9434 net.cpp:157] Top shape: 8 512 64 64 (16777216)
I0306 16:11:56.574528  9434 net.cpp:165] Memory required for data: 7137208388
I0306 16:11:56.574535  9434 layer_factory.hpp:77] Creating layer pool4
I0306 16:11:56.574548  9434 net.cpp:100] Creating Layer pool4
I0306 16:11:56.574559  9434 net.cpp:434] pool4 <- conv4_3_conv4_3_scale_0_split_0
I0306 16:11:56.574578  9434 net.cpp:408] pool4 -> pool4
I0306 16:11:56.574617  9434 net.cpp:150] Setting up pool4
I0306 16:11:56.574627  9434 net.cpp:157] Top shape: 8 512 32 32 (4194304)
I0306 16:11:56.574631  9434 net.cpp:165] Memory required for data: 7153985604
I0306 16:11:56.574637  9434 layer_factory.hpp:77] Creating layer conv5_1
I0306 16:11:56.574661  9434 net.cpp:100] Creating Layer conv5_1
I0306 16:11:56.574673  9434 net.cpp:434] conv5_1 <- pool4
I0306 16:11:56.574687  9434 net.cpp:408] conv5_1 -> conv5_1
I0306 16:11:56.587698  9434 net.cpp:150] Setting up conv5_1
I0306 16:11:56.587716  9434 net.cpp:157] Top shape: 8 512 32 32 (4194304)
I0306 16:11:56.587723  9434 net.cpp:165] Memory required for data: 7170762820
I0306 16:11:56.587735  9434 layer_factory.hpp:77] Creating layer relu5_1
I0306 16:11:56.587746  9434 net.cpp:100] Creating Layer relu5_1
I0306 16:11:56.587762  9434 net.cpp:434] relu5_1 <- conv5_1
I0306 16:11:56.587776  9434 net.cpp:395] relu5_1 -> conv5_1 (in-place)
I0306 16:11:56.588312  9434 net.cpp:150] Setting up relu5_1
I0306 16:11:56.588327  9434 net.cpp:157] Top shape: 8 512 32 32 (4194304)
I0306 16:11:56.588333  9434 net.cpp:165] Memory required for data: 7187540036
I0306 16:11:56.588340  9434 layer_factory.hpp:77] Creating layer conv5_2
I0306 16:11:56.588363  9434 net.cpp:100] Creating Layer conv5_2
I0306 16:11:56.588384  9434 net.cpp:434] conv5_2 <- conv5_1
I0306 16:11:56.588402  9434 net.cpp:408] conv5_2 -> conv5_2
I0306 16:11:56.601171  9434 net.cpp:150] Setting up conv5_2
I0306 16:11:56.601191  9434 net.cpp:157] Top shape: 8 512 32 32 (4194304)
I0306 16:11:56.601194  9434 net.cpp:165] Memory required for data: 7204317252
I0306 16:11:56.601207  9434 layer_factory.hpp:77] Creating layer relu5_2
I0306 16:11:56.601219  9434 net.cpp:100] Creating Layer relu5_2
I0306 16:11:56.601233  9434 net.cpp:434] relu5_2 <- conv5_2
I0306 16:11:56.601243  9434 net.cpp:395] relu5_2 -> conv5_2 (in-place)
I0306 16:11:56.601397  9434 net.cpp:150] Setting up relu5_2
I0306 16:11:56.601408  9434 net.cpp:157] Top shape: 8 512 32 32 (4194304)
I0306 16:11:56.601411  9434 net.cpp:165] Memory required for data: 7221094468
I0306 16:11:56.601416  9434 layer_factory.hpp:77] Creating layer conv5_3
I0306 16:11:56.601433  9434 net.cpp:100] Creating Layer conv5_3
I0306 16:11:56.601441  9434 net.cpp:434] conv5_3 <- conv5_2
I0306 16:11:56.601456  9434 net.cpp:408] conv5_3 -> conv5_3
I0306 16:11:56.614727  9434 net.cpp:150] Setting up conv5_3
I0306 16:11:56.614744  9434 net.cpp:157] Top shape: 8 512 32 32 (4194304)
I0306 16:11:56.614749  9434 net.cpp:165] Memory required for data: 7237871684
I0306 16:11:56.614759  9434 layer_factory.hpp:77] Creating layer relu5_3
I0306 16:11:56.614769  9434 net.cpp:100] Creating Layer relu5_3
I0306 16:11:56.614778  9434 net.cpp:434] relu5_3 <- conv5_3
I0306 16:11:56.614789  9434 net.cpp:395] relu5_3 -> conv5_3 (in-place)
I0306 16:11:56.614948  9434 net.cpp:150] Setting up relu5_3
I0306 16:11:56.614960  9434 net.cpp:157] Top shape: 8 512 32 32 (4194304)
I0306 16:11:56.614974  9434 net.cpp:165] Memory required for data: 7254648900
I0306 16:11:56.614981  9434 layer_factory.hpp:77] Creating layer pool5
I0306 16:11:56.615010  9434 net.cpp:100] Creating Layer pool5
I0306 16:11:56.615018  9434 net.cpp:434] pool5 <- conv5_3
I0306 16:11:56.615030  9434 net.cpp:408] pool5 -> pool5
I0306 16:11:56.615077  9434 net.cpp:150] Setting up pool5
I0306 16:11:56.615088  9434 net.cpp:157] Top shape: 8 512 32 32 (4194304)
I0306 16:11:56.615119  9434 net.cpp:165] Memory required for data: 7271426116
I0306 16:11:56.615130  9434 layer_factory.hpp:77] Creating layer fc6
I0306 16:11:56.615147  9434 net.cpp:100] Creating Layer fc6
I0306 16:11:56.615157  9434 net.cpp:434] fc6 <- pool5
I0306 16:11:56.615170  9434 net.cpp:408] fc6 -> fc6
I0306 16:11:56.639288  9434 net.cpp:150] Setting up fc6
I0306 16:11:56.639318  9434 net.cpp:157] Top shape: 8 1024 32 32 (8388608)
I0306 16:11:56.639323  9434 net.cpp:165] Memory required for data: 7304980548
I0306 16:11:56.639335  9434 layer_factory.hpp:77] Creating layer relu6
I0306 16:11:56.639346  9434 net.cpp:100] Creating Layer relu6
I0306 16:11:56.639355  9434 net.cpp:434] relu6 <- fc6
I0306 16:11:56.639372  9434 net.cpp:395] relu6 -> fc6 (in-place)
I0306 16:11:56.640028  9434 net.cpp:150] Setting up relu6
I0306 16:11:56.640045  9434 net.cpp:157] Top shape: 8 1024 32 32 (8388608)
I0306 16:11:56.640050  9434 net.cpp:165] Memory required for data: 7338534980
I0306 16:11:56.640055  9434 layer_factory.hpp:77] Creating layer fc7
I0306 16:11:56.640071  9434 net.cpp:100] Creating Layer fc7
I0306 16:11:56.640080  9434 net.cpp:434] fc7 <- fc6
I0306 16:11:56.640089  9434 net.cpp:408] fc7 -> fc7_t
I0306 16:11:56.647006  9434 net.cpp:150] Setting up fc7
I0306 16:11:56.647020  9434 net.cpp:157] Top shape: 8 1024 32 32 (8388608)
I0306 16:11:56.647025  9434 net.cpp:165] Memory required for data: 7372089412
I0306 16:11:56.647037  9434 layer_factory.hpp:77] Creating layer relu7
I0306 16:11:56.647048  9434 net.cpp:100] Creating Layer relu7
I0306 16:11:56.647056  9434 net.cpp:434] relu7 <- fc7_t
I0306 16:11:56.647074  9434 net.cpp:395] relu7 -> fc7_t (in-place)
I0306 16:11:56.647218  9434 net.cpp:150] Setting up relu7
I0306 16:11:56.647235  9434 net.cpp:157] Top shape: 8 1024 32 32 (8388608)
I0306 16:11:56.647244  9434 net.cpp:165] Memory required for data: 7405643844
I0306 16:11:56.647250  9434 layer_factory.hpp:77] Creating layer fc7_t_relu7_0_split
I0306 16:11:56.647265  9434 net.cpp:100] Creating Layer fc7_t_relu7_0_split
I0306 16:11:56.647275  9434 net.cpp:434] fc7_t_relu7_0_split <- fc7_t
I0306 16:11:56.647284  9434 net.cpp:408] fc7_t_relu7_0_split -> fc7_t_relu7_0_split_0
I0306 16:11:56.647297  9434 net.cpp:408] fc7_t_relu7_0_split -> fc7_t_relu7_0_split_1
I0306 16:11:56.647341  9434 net.cpp:150] Setting up fc7_t_relu7_0_split
I0306 16:11:56.647351  9434 net.cpp:157] Top shape: 8 1024 32 32 (8388608)
I0306 16:11:56.647359  9434 net.cpp:157] Top shape: 8 1024 32 32 (8388608)
I0306 16:11:56.647372  9434 net.cpp:165] Memory required for data: 7472752708
I0306 16:11:56.647378  9434 layer_factory.hpp:77] Creating layer fc7_s
I0306 16:11:56.647397  9434 net.cpp:100] Creating Layer fc7_s
I0306 16:11:56.647404  9434 net.cpp:434] fc7_s <- fc7_t_relu7_0_split_0
I0306 16:11:56.647418  9434 net.cpp:408] fc7_s -> fc7_s
I0306 16:11:56.647579  9434 net.cpp:150] Setting up fc7_s
I0306 16:11:56.647588  9434 net.cpp:157] Top shape: 8 1024 1 1 (8192)
I0306 16:11:56.647593  9434 net.cpp:165] Memory required for data: 7472785476
I0306 16:11:56.647598  9434 layer_factory.hpp:77] Creating layer fc7_fc1
I0306 16:11:56.647611  9434 net.cpp:100] Creating Layer fc7_fc1
I0306 16:11:56.647619  9434 net.cpp:434] fc7_fc1 <- fc7_s
I0306 16:11:56.647627  9434 net.cpp:408] fc7_fc1 -> fc7_fc1
I0306 16:11:56.649616  9434 net.cpp:150] Setting up fc7_fc1
I0306 16:11:56.649628  9434 net.cpp:157] Top shape: 8 256 1 1 (2048)
I0306 16:11:56.649632  9434 net.cpp:165] Memory required for data: 7472793668
I0306 16:11:56.649643  9434 layer_factory.hpp:77] Creating layer fc7_relu
I0306 16:11:56.649657  9434 net.cpp:100] Creating Layer fc7_relu
I0306 16:11:56.649664  9434 net.cpp:434] fc7_relu <- fc7_fc1
I0306 16:11:56.649675  9434 net.cpp:395] fc7_relu -> fc7_fc1 (in-place)
I0306 16:11:56.650151  9434 net.cpp:150] Setting up fc7_relu
I0306 16:11:56.650163  9434 net.cpp:157] Top shape: 8 256 1 1 (2048)
I0306 16:11:56.650169  9434 net.cpp:165] Memory required for data: 7472801860
I0306 16:11:56.650174  9434 layer_factory.hpp:77] Creating layer fc7_fc2
I0306 16:11:56.650204  9434 net.cpp:100] Creating Layer fc7_fc2
I0306 16:11:56.650214  9434 net.cpp:434] fc7_fc2 <- fc7_fc1
I0306 16:11:56.650223  9434 net.cpp:408] fc7_fc2 -> fc7_fc2
I0306 16:11:56.653019  9434 net.cpp:150] Setting up fc7_fc2
I0306 16:11:56.653034  9434 net.cpp:157] Top shape: 8 1024 1 1 (8192)
I0306 16:11:56.653041  9434 net.cpp:165] Memory required for data: 7472834628
I0306 16:11:56.653053  9434 layer_factory.hpp:77] Creating layer fc7_sig
I0306 16:11:56.653066  9434 net.cpp:100] Creating Layer fc7_sig
I0306 16:11:56.653077  9434 net.cpp:434] fc7_sig <- fc7_fc2
I0306 16:11:56.653085  9434 net.cpp:395] fc7_sig -> fc7_fc2 (in-place)
I0306 16:11:56.653235  9434 net.cpp:150] Setting up fc7_sig
I0306 16:11:56.653247  9434 net.cpp:157] Top shape: 8 1024 1 1 (8192)
I0306 16:11:56.653251  9434 net.cpp:165] Memory required for data: 7472867396
I0306 16:11:56.653257  9434 layer_factory.hpp:77] Creating layer fc7_reshape
I0306 16:11:56.653270  9434 net.cpp:100] Creating Layer fc7_reshape
I0306 16:11:56.653280  9434 net.cpp:434] fc7_reshape <- fc7_fc2
I0306 16:11:56.653290  9434 net.cpp:408] fc7_reshape -> fc7_reshape
I0306 16:11:56.653328  9434 net.cpp:150] Setting up fc7_reshape
I0306 16:11:56.653336  9434 net.cpp:157] Top shape: 8 1024 (8192)
I0306 16:11:56.653339  9434 net.cpp:165] Memory required for data: 7472900164
I0306 16:11:56.653344  9434 layer_factory.hpp:77] Creating layer fc7_scale
I0306 16:11:56.653357  9434 net.cpp:100] Creating Layer fc7_scale
I0306 16:11:56.653370  9434 net.cpp:434] fc7_scale <- fc7_t_relu7_0_split_1
I0306 16:11:56.653381  9434 net.cpp:434] fc7_scale <- fc7_reshape
I0306 16:11:56.653389  9434 net.cpp:408] fc7_scale -> fc7
I0306 16:11:56.653453  9434 net.cpp:150] Setting up fc7_scale
I0306 16:11:56.653462  9434 net.cpp:157] Top shape: 8 1024 32 32 (8388608)
I0306 16:11:56.653466  9434 net.cpp:165] Memory required for data: 7506454596
I0306 16:11:56.653471  9434 layer_factory.hpp:77] Creating layer fc7_fc7_scale_0_split
I0306 16:11:56.653496  9434 net.cpp:100] Creating Layer fc7_fc7_scale_0_split
I0306 16:11:56.653501  9434 net.cpp:434] fc7_fc7_scale_0_split <- fc7
I0306 16:11:56.653518  9434 net.cpp:408] fc7_fc7_scale_0_split -> fc7_fc7_scale_0_split_0
I0306 16:11:56.653533  9434 net.cpp:408] fc7_fc7_scale_0_split -> fc7_fc7_scale_0_split_1
I0306 16:11:56.653545  9434 net.cpp:408] fc7_fc7_scale_0_split -> fc7_fc7_scale_0_split_2
I0306 16:11:56.653566  9434 net.cpp:408] fc7_fc7_scale_0_split -> fc7_fc7_scale_0_split_3
I0306 16:11:56.653625  9434 net.cpp:150] Setting up fc7_fc7_scale_0_split
I0306 16:11:56.653636  9434 net.cpp:157] Top shape: 8 1024 32 32 (8388608)
I0306 16:11:56.653642  9434 net.cpp:157] Top shape: 8 1024 32 32 (8388608)
I0306 16:11:56.653656  9434 net.cpp:157] Top shape: 8 1024 32 32 (8388608)
I0306 16:11:56.653671  9434 net.cpp:157] Top shape: 8 1024 32 32 (8388608)
I0306 16:11:56.653676  9434 net.cpp:165] Memory required for data: 7640672324
I0306 16:11:56.653688  9434 layer_factory.hpp:77] Creating layer conv6_1_new
I0306 16:11:56.653703  9434 net.cpp:100] Creating Layer conv6_1_new
I0306 16:11:56.653713  9434 net.cpp:434] conv6_1_new <- fc7_fc7_scale_0_split_0
I0306 16:11:56.653720  9434 net.cpp:408] conv6_1_new -> conv6_1
I0306 16:11:56.656373  9434 net.cpp:150] Setting up conv6_1_new
I0306 16:11:56.656386  9434 net.cpp:157] Top shape: 8 256 32 32 (2097152)
I0306 16:11:56.656390  9434 net.cpp:165] Memory required for data: 7649060932
I0306 16:11:56.656400  9434 layer_factory.hpp:77] Creating layer conv6_1_relu
I0306 16:11:56.656412  9434 net.cpp:100] Creating Layer conv6_1_relu
I0306 16:11:56.656419  9434 net.cpp:434] conv6_1_relu <- conv6_1
I0306 16:11:56.656433  9434 net.cpp:395] conv6_1_relu -> conv6_1 (in-place)
I0306 16:11:56.656575  9434 net.cpp:150] Setting up conv6_1_relu
I0306 16:11:56.656584  9434 net.cpp:157] Top shape: 8 256 32 32 (2097152)
I0306 16:11:56.656589  9434 net.cpp:165] Memory required for data: 7657449540
I0306 16:11:56.656594  9434 layer_factory.hpp:77] Creating layer conv6_2_new
I0306 16:11:56.656617  9434 net.cpp:100] Creating Layer conv6_2_new
I0306 16:11:56.656637  9434 net.cpp:434] conv6_2_new <- conv6_1
I0306 16:11:56.656651  9434 net.cpp:408] conv6_2_new -> conv6_2_t
I0306 16:11:56.664124  9434 net.cpp:150] Setting up conv6_2_new
I0306 16:11:56.664137  9434 net.cpp:157] Top shape: 8 512 16 16 (1048576)
I0306 16:11:56.664144  9434 net.cpp:165] Memory required for data: 7661643844
I0306 16:11:56.664153  9434 layer_factory.hpp:77] Creating layer conv6_2_relu
I0306 16:11:56.664163  9434 net.cpp:100] Creating Layer conv6_2_relu
I0306 16:11:56.664170  9434 net.cpp:434] conv6_2_relu <- conv6_2_t
I0306 16:11:56.664189  9434 net.cpp:395] conv6_2_relu -> conv6_2_t (in-place)
I0306 16:11:56.664327  9434 net.cpp:150] Setting up conv6_2_relu
I0306 16:11:56.664336  9434 net.cpp:157] Top shape: 8 512 16 16 (1048576)
I0306 16:11:56.664340  9434 net.cpp:165] Memory required for data: 7665838148
I0306 16:11:56.664361  9434 layer_factory.hpp:77] Creating layer conv6_2_t_conv6_2_relu_0_split
I0306 16:11:56.664371  9434 net.cpp:100] Creating Layer conv6_2_t_conv6_2_relu_0_split
I0306 16:11:56.664381  9434 net.cpp:434] conv6_2_t_conv6_2_relu_0_split <- conv6_2_t
I0306 16:11:56.664391  9434 net.cpp:408] conv6_2_t_conv6_2_relu_0_split -> conv6_2_t_conv6_2_relu_0_split_0
I0306 16:11:56.664404  9434 net.cpp:408] conv6_2_t_conv6_2_relu_0_split -> conv6_2_t_conv6_2_relu_0_split_1
I0306 16:11:56.664439  9434 net.cpp:150] Setting up conv6_2_t_conv6_2_relu_0_split
I0306 16:11:56.664448  9434 net.cpp:157] Top shape: 8 512 16 16 (1048576)
I0306 16:11:56.664458  9434 net.cpp:157] Top shape: 8 512 16 16 (1048576)
I0306 16:11:56.664468  9434 net.cpp:165] Memory required for data: 7674226756
I0306 16:11:56.664477  9434 layer_factory.hpp:77] Creating layer conv6_2_s
I0306 16:11:56.664494  9434 net.cpp:100] Creating Layer conv6_2_s
I0306 16:11:56.664502  9434 net.cpp:434] conv6_2_s <- conv6_2_t_conv6_2_relu_0_split_0
I0306 16:11:56.664515  9434 net.cpp:408] conv6_2_s -> conv6_2_s
I0306 16:11:56.665012  9434 net.cpp:150] Setting up conv6_2_s
I0306 16:11:56.665024  9434 net.cpp:157] Top shape: 8 512 1 1 (4096)
I0306 16:11:56.665029  9434 net.cpp:165] Memory required for data: 7674243140
I0306 16:11:56.665035  9434 layer_factory.hpp:77] Creating layer conv6_2_fc1
I0306 16:11:56.665047  9434 net.cpp:100] Creating Layer conv6_2_fc1
I0306 16:11:56.665055  9434 net.cpp:434] conv6_2_fc1 <- conv6_2_s
I0306 16:11:56.665066  9434 net.cpp:408] conv6_2_fc1 -> conv6_2_fc1
I0306 16:11:56.666293  9434 net.cpp:150] Setting up conv6_2_fc1
I0306 16:11:56.666306  9434 net.cpp:157] Top shape: 8 128 1 1 (1024)
I0306 16:11:56.666311  9434 net.cpp:165] Memory required for data: 7674247236
I0306 16:11:56.666321  9434 layer_factory.hpp:77] Creating layer conv6_2_relu
I0306 16:11:56.666357  9434 net.cpp:100] Creating Layer conv6_2_relu
I0306 16:11:56.666366  9434 net.cpp:434] conv6_2_relu <- conv6_2_fc1
I0306 16:11:56.666376  9434 net.cpp:395] conv6_2_relu -> conv6_2_fc1 (in-place)
I0306 16:11:56.666522  9434 net.cpp:150] Setting up conv6_2_relu
I0306 16:11:56.666535  9434 net.cpp:157] Top shape: 8 128 1 1 (1024)
I0306 16:11:56.666546  9434 net.cpp:165] Memory required for data: 7674251332
I0306 16:11:56.666553  9434 layer_factory.hpp:77] Creating layer conv6_2_fc2
I0306 16:11:56.666571  9434 net.cpp:100] Creating Layer conv6_2_fc2
I0306 16:11:56.666586  9434 net.cpp:434] conv6_2_fc2 <- conv6_2_fc1
I0306 16:11:56.666596  9434 net.cpp:408] conv6_2_fc2 -> conv6_2_fc2
I0306 16:11:56.667846  9434 net.cpp:150] Setting up conv6_2_fc2
I0306 16:11:56.667860  9434 net.cpp:157] Top shape: 8 512 1 1 (4096)
I0306 16:11:56.667865  9434 net.cpp:165] Memory required for data: 7674267716
I0306 16:11:56.667873  9434 layer_factory.hpp:77] Creating layer conv6_2_sig
I0306 16:11:56.667891  9434 net.cpp:100] Creating Layer conv6_2_sig
I0306 16:11:56.667897  9434 net.cpp:434] conv6_2_sig <- conv6_2_fc2
I0306 16:11:56.667912  9434 net.cpp:395] conv6_2_sig -> conv6_2_fc2 (in-place)
I0306 16:11:56.668064  9434 net.cpp:150] Setting up conv6_2_sig
I0306 16:11:56.668076  9434 net.cpp:157] Top shape: 8 512 1 1 (4096)
I0306 16:11:56.668097  9434 net.cpp:165] Memory required for data: 7674284100
I0306 16:11:56.668102  9434 layer_factory.hpp:77] Creating layer conv6_2_reshape
I0306 16:11:56.668112  9434 net.cpp:100] Creating Layer conv6_2_reshape
I0306 16:11:56.668126  9434 net.cpp:434] conv6_2_reshape <- conv6_2_fc2
I0306 16:11:56.668136  9434 net.cpp:408] conv6_2_reshape -> conv6_2_reshape
I0306 16:11:56.668172  9434 net.cpp:150] Setting up conv6_2_reshape
I0306 16:11:56.668184  9434 net.cpp:157] Top shape: 8 512 (4096)
I0306 16:11:56.668187  9434 net.cpp:165] Memory required for data: 7674300484
I0306 16:11:56.668193  9434 layer_factory.hpp:77] Creating layer conv6_2_scale
I0306 16:11:56.668208  9434 net.cpp:100] Creating Layer conv6_2_scale
I0306 16:11:56.668218  9434 net.cpp:434] conv6_2_scale <- conv6_2_t_conv6_2_relu_0_split_1
I0306 16:11:56.668229  9434 net.cpp:434] conv6_2_scale <- conv6_2_reshape
I0306 16:11:56.668246  9434 net.cpp:408] conv6_2_scale -> conv6_2
I0306 16:11:56.668313  9434 net.cpp:150] Setting up conv6_2_scale
I0306 16:11:56.668326  9434 net.cpp:157] Top shape: 8 512 16 16 (1048576)
I0306 16:11:56.668334  9434 net.cpp:165] Memory required for data: 7678494788
I0306 16:11:56.668340  9434 layer_factory.hpp:77] Creating layer conv6_2_conv6_2_scale_0_split
I0306 16:11:56.668354  9434 net.cpp:100] Creating Layer conv6_2_conv6_2_scale_0_split
I0306 16:11:56.668362  9434 net.cpp:434] conv6_2_conv6_2_scale_0_split <- conv6_2
I0306 16:11:56.668376  9434 net.cpp:408] conv6_2_conv6_2_scale_0_split -> conv6_2_conv6_2_scale_0_split_0
I0306 16:11:56.668390  9434 net.cpp:408] conv6_2_conv6_2_scale_0_split -> conv6_2_conv6_2_scale_0_split_1
I0306 16:11:56.668413  9434 net.cpp:408] conv6_2_conv6_2_scale_0_split -> conv6_2_conv6_2_scale_0_split_2
I0306 16:11:56.668423  9434 net.cpp:408] conv6_2_conv6_2_scale_0_split -> conv6_2_conv6_2_scale_0_split_3
I0306 16:11:56.668478  9434 net.cpp:150] Setting up conv6_2_conv6_2_scale_0_split
I0306 16:11:56.668490  9434 net.cpp:157] Top shape: 8 512 16 16 (1048576)
I0306 16:11:56.668496  9434 net.cpp:157] Top shape: 8 512 16 16 (1048576)
I0306 16:11:56.668503  9434 net.cpp:157] Top shape: 8 512 16 16 (1048576)
I0306 16:11:56.668514  9434 net.cpp:157] Top shape: 8 512 16 16 (1048576)
I0306 16:11:56.668520  9434 net.cpp:165] Memory required for data: 7695272004
I0306 16:11:56.668526  9434 layer_factory.hpp:77] Creating layer conv7_1_new
I0306 16:11:56.668551  9434 net.cpp:100] Creating Layer conv7_1_new
I0306 16:11:56.668562  9434 net.cpp:434] conv7_1_new <- conv6_2_conv6_2_scale_0_split_0
I0306 16:11:56.668577  9434 net.cpp:408] conv7_1_new -> conv7_1
I0306 16:11:56.669800  9434 net.cpp:150] Setting up conv7_1_new
I0306 16:11:56.669813  9434 net.cpp:157] Top shape: 8 128 16 16 (262144)
I0306 16:11:56.669817  9434 net.cpp:165] Memory required for data: 7696320580
I0306 16:11:56.669827  9434 layer_factory.hpp:77] Creating layer conv7_1_relu
I0306 16:11:56.669837  9434 net.cpp:100] Creating Layer conv7_1_relu
I0306 16:11:56.669848  9434 net.cpp:434] conv7_1_relu <- conv7_1
I0306 16:11:56.669857  9434 net.cpp:395] conv7_1_relu -> conv7_1 (in-place)
I0306 16:11:56.670344  9434 net.cpp:150] Setting up conv7_1_relu
I0306 16:11:56.670356  9434 net.cpp:157] Top shape: 8 128 16 16 (262144)
I0306 16:11:56.670361  9434 net.cpp:165] Memory required for data: 7697369156
I0306 16:11:56.670367  9434 layer_factory.hpp:77] Creating layer conv7_2_new
I0306 16:11:56.670380  9434 net.cpp:100] Creating Layer conv7_2_new
I0306 16:11:56.670388  9434 net.cpp:434] conv7_2_new <- conv7_1
I0306 16:11:56.670398  9434 net.cpp:408] conv7_2_new -> conv7_2_t
I0306 16:11:56.673610  9434 net.cpp:150] Setting up conv7_2_new
I0306 16:11:56.673624  9434 net.cpp:157] Top shape: 8 256 8 8 (131072)
I0306 16:11:56.673629  9434 net.cpp:165] Memory required for data: 7697893444
I0306 16:11:56.673640  9434 layer_factory.hpp:77] Creating layer conv7_2_relu
I0306 16:11:56.673650  9434 net.cpp:100] Creating Layer conv7_2_relu
I0306 16:11:56.673662  9434 net.cpp:434] conv7_2_relu <- conv7_2_t
I0306 16:11:56.673671  9434 net.cpp:395] conv7_2_relu -> conv7_2_t (in-place)
I0306 16:11:56.673840  9434 net.cpp:150] Setting up conv7_2_relu
I0306 16:11:56.673849  9434 net.cpp:157] Top shape: 8 256 8 8 (131072)
I0306 16:11:56.673853  9434 net.cpp:165] Memory required for data: 7698417732
I0306 16:11:56.673861  9434 layer_factory.hpp:77] Creating layer conv7_2_t_conv7_2_relu_0_split
I0306 16:11:56.673872  9434 net.cpp:100] Creating Layer conv7_2_t_conv7_2_relu_0_split
I0306 16:11:56.673878  9434 net.cpp:434] conv7_2_t_conv7_2_relu_0_split <- conv7_2_t
I0306 16:11:56.673893  9434 net.cpp:408] conv7_2_t_conv7_2_relu_0_split -> conv7_2_t_conv7_2_relu_0_split_0
I0306 16:11:56.673907  9434 net.cpp:408] conv7_2_t_conv7_2_relu_0_split -> conv7_2_t_conv7_2_relu_0_split_1
I0306 16:11:56.673949  9434 net.cpp:150] Setting up conv7_2_t_conv7_2_relu_0_split
I0306 16:11:56.673959  9434 net.cpp:157] Top shape: 8 256 8 8 (131072)
I0306 16:11:56.673966  9434 net.cpp:157] Top shape: 8 256 8 8 (131072)
I0306 16:11:56.673971  9434 net.cpp:165] Memory required for data: 7699466308
I0306 16:11:56.673982  9434 layer_factory.hpp:77] Creating layer conv7_2_s
I0306 16:11:56.673992  9434 net.cpp:100] Creating Layer conv7_2_s
I0306 16:11:56.674003  9434 net.cpp:434] conv7_2_s <- conv7_2_t_conv7_2_relu_0_split_0
I0306 16:11:56.674013  9434 net.cpp:408] conv7_2_s -> conv7_2_s
I0306 16:11:56.674187  9434 net.cpp:150] Setting up conv7_2_s
I0306 16:11:56.674197  9434 net.cpp:157] Top shape: 8 256 1 1 (2048)
I0306 16:11:56.674201  9434 net.cpp:165] Memory required for data: 7699474500
I0306 16:11:56.674207  9434 layer_factory.hpp:77] Creating layer conv7_2_fc1
I0306 16:11:56.674221  9434 net.cpp:100] Creating Layer conv7_2_fc1
I0306 16:11:56.674230  9434 net.cpp:434] conv7_2_fc1 <- conv7_2_s
I0306 16:11:56.674242  9434 net.cpp:408] conv7_2_fc1 -> conv7_2_fc1
I0306 16:11:56.675402  9434 net.cpp:150] Setting up conv7_2_fc1
I0306 16:11:56.675415  9434 net.cpp:157] Top shape: 8 64 1 1 (512)
I0306 16:11:56.675420  9434 net.cpp:165] Memory required for data: 7699476548
I0306 16:11:56.675438  9434 layer_factory.hpp:77] Creating layer conv7_2_relu
I0306 16:11:56.675449  9434 net.cpp:100] Creating Layer conv7_2_relu
I0306 16:11:56.675457  9434 net.cpp:434] conv7_2_relu <- conv7_2_fc1
I0306 16:11:56.675470  9434 net.cpp:395] conv7_2_relu -> conv7_2_fc1 (in-place)
I0306 16:11:56.675958  9434 net.cpp:150] Setting up conv7_2_relu
I0306 16:11:56.675971  9434 net.cpp:157] Top shape: 8 64 1 1 (512)
I0306 16:11:56.675976  9434 net.cpp:165] Memory required for data: 7699478596
I0306 16:11:56.675981  9434 layer_factory.hpp:77] Creating layer conv7_2_fc2
I0306 16:11:56.675992  9434 net.cpp:100] Creating Layer conv7_2_fc2
I0306 16:11:56.676002  9434 net.cpp:434] conv7_2_fc2 <- conv7_2_fc1
I0306 16:11:56.676015  9434 net.cpp:408] conv7_2_fc2 -> conv7_2_fc2
I0306 16:11:56.677379  9434 net.cpp:150] Setting up conv7_2_fc2
I0306 16:11:56.677392  9434 net.cpp:157] Top shape: 8 256 1 1 (2048)
I0306 16:11:56.677398  9434 net.cpp:165] Memory required for data: 7699486788
I0306 16:11:56.677408  9434 layer_factory.hpp:77] Creating layer conv7_2_sig
I0306 16:11:56.677423  9434 net.cpp:100] Creating Layer conv7_2_sig
I0306 16:11:56.677430  9434 net.cpp:434] conv7_2_sig <- conv7_2_fc2
I0306 16:11:56.677443  9434 net.cpp:395] conv7_2_sig -> conv7_2_fc2 (in-place)
I0306 16:11:56.677592  9434 net.cpp:150] Setting up conv7_2_sig
I0306 16:11:56.677603  9434 net.cpp:157] Top shape: 8 256 1 1 (2048)
I0306 16:11:56.677608  9434 net.cpp:165] Memory required for data: 7699494980
I0306 16:11:56.677614  9434 layer_factory.hpp:77] Creating layer conv7_2_reshape
I0306 16:11:56.677624  9434 net.cpp:100] Creating Layer conv7_2_reshape
I0306 16:11:56.677635  9434 net.cpp:434] conv7_2_reshape <- conv7_2_fc2
I0306 16:11:56.677642  9434 net.cpp:408] conv7_2_reshape -> conv7_2_reshape
I0306 16:11:56.677676  9434 net.cpp:150] Setting up conv7_2_reshape
I0306 16:11:56.677685  9434 net.cpp:157] Top shape: 8 256 (2048)
I0306 16:11:56.677690  9434 net.cpp:165] Memory required for data: 7699503172
I0306 16:11:56.677695  9434 layer_factory.hpp:77] Creating layer conv7_2_scale
I0306 16:11:56.677717  9434 net.cpp:100] Creating Layer conv7_2_scale
I0306 16:11:56.677726  9434 net.cpp:434] conv7_2_scale <- conv7_2_t_conv7_2_relu_0_split_1
I0306 16:11:56.677736  9434 net.cpp:434] conv7_2_scale <- conv7_2_reshape
I0306 16:11:56.677750  9434 net.cpp:408] conv7_2_scale -> conv7_2
I0306 16:11:56.677821  9434 net.cpp:150] Setting up conv7_2_scale
I0306 16:11:56.677836  9434 net.cpp:157] Top shape: 8 256 8 8 (131072)
I0306 16:11:56.677841  9434 net.cpp:165] Memory required for data: 7700027460
I0306 16:11:56.677846  9434 layer_factory.hpp:77] Creating layer conv7_2_conv7_2_scale_0_split
I0306 16:11:56.677855  9434 net.cpp:100] Creating Layer conv7_2_conv7_2_scale_0_split
I0306 16:11:56.677870  9434 net.cpp:434] conv7_2_conv7_2_scale_0_split <- conv7_2
I0306 16:11:56.677877  9434 net.cpp:408] conv7_2_conv7_2_scale_0_split -> conv7_2_conv7_2_scale_0_split_0
I0306 16:11:56.677894  9434 net.cpp:408] conv7_2_conv7_2_scale_0_split -> conv7_2_conv7_2_scale_0_split_1
I0306 16:11:56.677911  9434 net.cpp:408] conv7_2_conv7_2_scale_0_split -> conv7_2_conv7_2_scale_0_split_2
I0306 16:11:56.677922  9434 net.cpp:408] conv7_2_conv7_2_scale_0_split -> conv7_2_conv7_2_scale_0_split_3
I0306 16:11:56.677983  9434 net.cpp:150] Setting up conv7_2_conv7_2_scale_0_split
I0306 16:11:56.677999  9434 net.cpp:157] Top shape: 8 256 8 8 (131072)
I0306 16:11:56.678006  9434 net.cpp:157] Top shape: 8 256 8 8 (131072)
I0306 16:11:56.678020  9434 net.cpp:157] Top shape: 8 256 8 8 (131072)
I0306 16:11:56.678025  9434 net.cpp:157] Top shape: 8 256 8 8 (131072)
I0306 16:11:56.678037  9434 net.cpp:165] Memory required for data: 7702124612
I0306 16:11:56.678056  9434 layer_factory.hpp:77] Creating layer conv8_1_new
I0306 16:11:56.678067  9434 net.cpp:100] Creating Layer conv8_1_new
I0306 16:11:56.678076  9434 net.cpp:434] conv8_1_new <- conv7_2_conv7_2_scale_0_split_0
I0306 16:11:56.678087  9434 net.cpp:408] conv8_1_new -> conv8_1
I0306 16:11:56.680163  9434 net.cpp:150] Setting up conv8_1_new
I0306 16:11:56.680177  9434 net.cpp:157] Top shape: 8 128 8 8 (65536)
I0306 16:11:56.680181  9434 net.cpp:165] Memory required for data: 7702386756
I0306 16:11:56.680191  9434 layer_factory.hpp:77] Creating layer conv8_1_relu
I0306 16:11:56.680203  9434 net.cpp:100] Creating Layer conv8_1_relu
I0306 16:11:56.680214  9434 net.cpp:434] conv8_1_relu <- conv8_1
I0306 16:11:56.680227  9434 net.cpp:395] conv8_1_relu -> conv8_1 (in-place)
I0306 16:11:56.680372  9434 net.cpp:150] Setting up conv8_1_relu
I0306 16:11:56.680385  9434 net.cpp:157] Top shape: 8 128 8 8 (65536)
I0306 16:11:56.680398  9434 net.cpp:165] Memory required for data: 7702648900
I0306 16:11:56.680407  9434 layer_factory.hpp:77] Creating layer conv8_2_new
I0306 16:11:56.680425  9434 net.cpp:100] Creating Layer conv8_2_new
I0306 16:11:56.680434  9434 net.cpp:434] conv8_2_new <- conv8_1
I0306 16:11:56.680444  9434 net.cpp:408] conv8_2_new -> conv8_2_t
I0306 16:11:56.683953  9434 net.cpp:150] Setting up conv8_2_new
I0306 16:11:56.683966  9434 net.cpp:157] Top shape: 8 256 4 4 (32768)
I0306 16:11:56.683974  9434 net.cpp:165] Memory required for data: 7702779972
I0306 16:11:56.683984  9434 layer_factory.hpp:77] Creating layer conv8_2_relu
I0306 16:11:56.683995  9434 net.cpp:100] Creating Layer conv8_2_relu
I0306 16:11:56.684002  9434 net.cpp:434] conv8_2_relu <- conv8_2_t
I0306 16:11:56.684012  9434 net.cpp:395] conv8_2_relu -> conv8_2_t (in-place)
I0306 16:11:56.684152  9434 net.cpp:150] Setting up conv8_2_relu
I0306 16:11:56.684166  9434 net.cpp:157] Top shape: 8 256 4 4 (32768)
I0306 16:11:56.684171  9434 net.cpp:165] Memory required for data: 7702911044
I0306 16:11:56.684180  9434 layer_factory.hpp:77] Creating layer conv8_2_t_conv8_2_relu_0_split
I0306 16:11:56.684192  9434 net.cpp:100] Creating Layer conv8_2_t_conv8_2_relu_0_split
I0306 16:11:56.684201  9434 net.cpp:434] conv8_2_t_conv8_2_relu_0_split <- conv8_2_t
I0306 16:11:56.684211  9434 net.cpp:408] conv8_2_t_conv8_2_relu_0_split -> conv8_2_t_conv8_2_relu_0_split_0
I0306 16:11:56.684226  9434 net.cpp:408] conv8_2_t_conv8_2_relu_0_split -> conv8_2_t_conv8_2_relu_0_split_1
I0306 16:11:56.684288  9434 net.cpp:150] Setting up conv8_2_t_conv8_2_relu_0_split
I0306 16:11:56.684298  9434 net.cpp:157] Top shape: 8 256 4 4 (32768)
I0306 16:11:56.684309  9434 net.cpp:157] Top shape: 8 256 4 4 (32768)
I0306 16:11:56.684316  9434 net.cpp:165] Memory required for data: 7703173188
I0306 16:11:56.684324  9434 layer_factory.hpp:77] Creating layer conv8_2_s
I0306 16:11:56.684339  9434 net.cpp:100] Creating Layer conv8_2_s
I0306 16:11:56.684347  9434 net.cpp:434] conv8_2_s <- conv8_2_t_conv8_2_relu_0_split_0
I0306 16:11:56.684360  9434 net.cpp:408] conv8_2_s -> conv8_2_s
I0306 16:11:56.684866  9434 net.cpp:150] Setting up conv8_2_s
I0306 16:11:56.684878  9434 net.cpp:157] Top shape: 8 256 1 1 (2048)
I0306 16:11:56.684882  9434 net.cpp:165] Memory required for data: 7703181380
I0306 16:11:56.684888  9434 layer_factory.hpp:77] Creating layer conv8_2_fc1
I0306 16:11:56.684904  9434 net.cpp:100] Creating Layer conv8_2_fc1
I0306 16:11:56.684911  9434 net.cpp:434] conv8_2_fc1 <- conv8_2_s
I0306 16:11:56.684921  9434 net.cpp:408] conv8_2_fc1 -> conv8_2_fc1
I0306 16:11:56.685967  9434 net.cpp:150] Setting up conv8_2_fc1
I0306 16:11:56.685987  9434 net.cpp:157] Top shape: 8 64 1 1 (512)
I0306 16:11:56.685992  9434 net.cpp:165] Memory required for data: 7703183428
I0306 16:11:56.686002  9434 layer_factory.hpp:77] Creating layer conv8_2_relu
I0306 16:11:56.686017  9434 net.cpp:100] Creating Layer conv8_2_relu
I0306 16:11:56.686023  9434 net.cpp:434] conv8_2_relu <- conv8_2_fc1
I0306 16:11:56.686040  9434 net.cpp:395] conv8_2_relu -> conv8_2_fc1 (in-place)
I0306 16:11:56.686202  9434 net.cpp:150] Setting up conv8_2_relu
I0306 16:11:56.686213  9434 net.cpp:157] Top shape: 8 64 1 1 (512)
I0306 16:11:56.686216  9434 net.cpp:165] Memory required for data: 7703185476
I0306 16:11:56.686221  9434 layer_factory.hpp:77] Creating layer conv8_2_fc2
I0306 16:11:56.686239  9434 net.cpp:100] Creating Layer conv8_2_fc2
I0306 16:11:56.686246  9434 net.cpp:434] conv8_2_fc2 <- conv8_2_fc1
I0306 16:11:56.686257  9434 net.cpp:408] conv8_2_fc2 -> conv8_2_fc2
I0306 16:11:56.687366  9434 net.cpp:150] Setting up conv8_2_fc2
I0306 16:11:56.687378  9434 net.cpp:157] Top shape: 8 256 1 1 (2048)
I0306 16:11:56.687383  9434 net.cpp:165] Memory required for data: 7703193668
I0306 16:11:56.687394  9434 layer_factory.hpp:77] Creating layer conv8_2_sig
I0306 16:11:56.687408  9434 net.cpp:100] Creating Layer conv8_2_sig
I0306 16:11:56.687414  9434 net.cpp:434] conv8_2_sig <- conv8_2_fc2
I0306 16:11:56.687427  9434 net.cpp:395] conv8_2_sig -> conv8_2_fc2 (in-place)
I0306 16:11:56.687587  9434 net.cpp:150] Setting up conv8_2_sig
I0306 16:11:56.687599  9434 net.cpp:157] Top shape: 8 256 1 1 (2048)
I0306 16:11:56.687603  9434 net.cpp:165] Memory required for data: 7703201860
I0306 16:11:56.687609  9434 layer_factory.hpp:77] Creating layer conv8_2_reshape
I0306 16:11:56.687621  9434 net.cpp:100] Creating Layer conv8_2_reshape
I0306 16:11:56.687633  9434 net.cpp:434] conv8_2_reshape <- conv8_2_fc2
I0306 16:11:56.687641  9434 net.cpp:408] conv8_2_reshape -> conv8_2_reshape
I0306 16:11:56.687680  9434 net.cpp:150] Setting up conv8_2_reshape
I0306 16:11:56.687688  9434 net.cpp:157] Top shape: 8 256 (2048)
I0306 16:11:56.687692  9434 net.cpp:165] Memory required for data: 7703210052
I0306 16:11:56.687697  9434 layer_factory.hpp:77] Creating layer conv8_2_scale
I0306 16:11:56.687716  9434 net.cpp:100] Creating Layer conv8_2_scale
I0306 16:11:56.687722  9434 net.cpp:434] conv8_2_scale <- conv8_2_t_conv8_2_relu_0_split_1
I0306 16:11:56.687731  9434 net.cpp:434] conv8_2_scale <- conv8_2_reshape
I0306 16:11:56.687747  9434 net.cpp:408] conv8_2_scale -> conv8_2
I0306 16:11:56.687826  9434 net.cpp:150] Setting up conv8_2_scale
I0306 16:11:56.687835  9434 net.cpp:157] Top shape: 8 256 4 4 (32768)
I0306 16:11:56.687841  9434 net.cpp:165] Memory required for data: 7703341124
I0306 16:11:56.687849  9434 layer_factory.hpp:77] Creating layer conv8_2_conv8_2_scale_0_split
I0306 16:11:56.687860  9434 net.cpp:100] Creating Layer conv8_2_conv8_2_scale_0_split
I0306 16:11:56.687885  9434 net.cpp:434] conv8_2_conv8_2_scale_0_split <- conv8_2
I0306 16:11:56.687901  9434 net.cpp:408] conv8_2_conv8_2_scale_0_split -> conv8_2_conv8_2_scale_0_split_0
I0306 16:11:56.687914  9434 net.cpp:408] conv8_2_conv8_2_scale_0_split -> conv8_2_conv8_2_scale_0_split_1
I0306 16:11:56.687930  9434 net.cpp:408] conv8_2_conv8_2_scale_0_split -> conv8_2_conv8_2_scale_0_split_2
I0306 16:11:56.687942  9434 net.cpp:408] conv8_2_conv8_2_scale_0_split -> conv8_2_conv8_2_scale_0_split_3
I0306 16:11:56.688011  9434 net.cpp:150] Setting up conv8_2_conv8_2_scale_0_split
I0306 16:11:56.688019  9434 net.cpp:157] Top shape: 8 256 4 4 (32768)
I0306 16:11:56.688024  9434 net.cpp:157] Top shape: 8 256 4 4 (32768)
I0306 16:11:56.688031  9434 net.cpp:157] Top shape: 8 256 4 4 (32768)
I0306 16:11:56.688045  9434 net.cpp:157] Top shape: 8 256 4 4 (32768)
I0306 16:11:56.688050  9434 net.cpp:165] Memory required for data: 7703865412
I0306 16:11:56.688060  9434 layer_factory.hpp:77] Creating layer conv9_1_new
I0306 16:11:56.688083  9434 net.cpp:100] Creating Layer conv9_1_new
I0306 16:11:56.688093  9434 net.cpp:434] conv9_1_new <- conv8_2_conv8_2_scale_0_split_0
I0306 16:11:56.688108  9434 net.cpp:408] conv9_1_new -> conv9_1
I0306 16:11:56.689267  9434 net.cpp:150] Setting up conv9_1_new
I0306 16:11:56.689280  9434 net.cpp:157] Top shape: 8 128 4 4 (16384)
I0306 16:11:56.689283  9434 net.cpp:165] Memory required for data: 7703930948
I0306 16:11:56.689293  9434 layer_factory.hpp:77] Creating layer conv9_1_relu
I0306 16:11:56.689308  9434 net.cpp:100] Creating Layer conv9_1_relu
I0306 16:11:56.689314  9434 net.cpp:434] conv9_1_relu <- conv9_1
I0306 16:11:56.689328  9434 net.cpp:395] conv9_1_relu -> conv9_1 (in-place)
I0306 16:11:56.689823  9434 net.cpp:150] Setting up conv9_1_relu
I0306 16:11:56.689836  9434 net.cpp:157] Top shape: 8 128 4 4 (16384)
I0306 16:11:56.689842  9434 net.cpp:165] Memory required for data: 7703996484
I0306 16:11:56.689847  9434 layer_factory.hpp:77] Creating layer conv9_2_new
I0306 16:11:56.689862  9434 net.cpp:100] Creating Layer conv9_2_new
I0306 16:11:56.689869  9434 net.cpp:434] conv9_2_new <- conv9_1
I0306 16:11:56.689879  9434 net.cpp:408] conv9_2_new -> conv9_2_t
I0306 16:11:56.692879  9434 net.cpp:150] Setting up conv9_2_new
I0306 16:11:56.692891  9434 net.cpp:157] Top shape: 8 256 2 2 (8192)
I0306 16:11:56.692896  9434 net.cpp:165] Memory required for data: 7704029252
I0306 16:11:56.692908  9434 layer_factory.hpp:77] Creating layer conv9_2_relu
I0306 16:11:56.692916  9434 net.cpp:100] Creating Layer conv9_2_relu
I0306 16:11:56.692924  9434 net.cpp:434] conv9_2_relu <- conv9_2_t
I0306 16:11:56.692934  9434 net.cpp:395] conv9_2_relu -> conv9_2_t (in-place)
I0306 16:11:56.693101  9434 net.cpp:150] Setting up conv9_2_relu
I0306 16:11:56.693111  9434 net.cpp:157] Top shape: 8 256 2 2 (8192)
I0306 16:11:56.693116  9434 net.cpp:165] Memory required for data: 7704062020
I0306 16:11:56.693122  9434 layer_factory.hpp:77] Creating layer conv9_2_t_conv9_2_relu_0_split
I0306 16:11:56.693135  9434 net.cpp:100] Creating Layer conv9_2_t_conv9_2_relu_0_split
I0306 16:11:56.693145  9434 net.cpp:434] conv9_2_t_conv9_2_relu_0_split <- conv9_2_t
I0306 16:11:56.693155  9434 net.cpp:408] conv9_2_t_conv9_2_relu_0_split -> conv9_2_t_conv9_2_relu_0_split_0
I0306 16:11:56.693168  9434 net.cpp:408] conv9_2_t_conv9_2_relu_0_split -> conv9_2_t_conv9_2_relu_0_split_1
I0306 16:11:56.693218  9434 net.cpp:150] Setting up conv9_2_t_conv9_2_relu_0_split
I0306 16:11:56.693230  9434 net.cpp:157] Top shape: 8 256 2 2 (8192)
I0306 16:11:56.693239  9434 net.cpp:157] Top shape: 8 256 2 2 (8192)
I0306 16:11:56.693245  9434 net.cpp:165] Memory required for data: 7704127556
I0306 16:11:56.693251  9434 layer_factory.hpp:77] Creating layer conv9_2_s
I0306 16:11:56.693267  9434 net.cpp:100] Creating Layer conv9_2_s
I0306 16:11:56.693277  9434 net.cpp:434] conv9_2_s <- conv9_2_t_conv9_2_relu_0_split_0
I0306 16:11:56.693289  9434 net.cpp:408] conv9_2_s -> conv9_2_s
I0306 16:11:56.693467  9434 net.cpp:150] Setting up conv9_2_s
I0306 16:11:56.693487  9434 net.cpp:157] Top shape: 8 256 1 1 (2048)
I0306 16:11:56.693492  9434 net.cpp:165] Memory required for data: 7704135748
I0306 16:11:56.693500  9434 layer_factory.hpp:77] Creating layer conv9_2_fc1
I0306 16:11:56.693517  9434 net.cpp:100] Creating Layer conv9_2_fc1
I0306 16:11:56.693527  9434 net.cpp:434] conv9_2_fc1 <- conv9_2_s
I0306 16:11:56.693538  9434 net.cpp:408] conv9_2_fc1 -> conv9_2_fc1
I0306 16:11:56.694658  9434 net.cpp:150] Setting up conv9_2_fc1
I0306 16:11:56.694671  9434 net.cpp:157] Top shape: 8 64 1 1 (512)
I0306 16:11:56.694675  9434 net.cpp:165] Memory required for data: 7704137796
I0306 16:11:56.694684  9434 layer_factory.hpp:77] Creating layer conv9_2_relu
I0306 16:11:56.694697  9434 net.cpp:100] Creating Layer conv9_2_relu
I0306 16:11:56.694710  9434 net.cpp:434] conv9_2_relu <- conv9_2_fc1
I0306 16:11:56.694720  9434 net.cpp:395] conv9_2_relu -> conv9_2_fc1 (in-place)
I0306 16:11:56.695250  9434 net.cpp:150] Setting up conv9_2_relu
I0306 16:11:56.695264  9434 net.cpp:157] Top shape: 8 64 1 1 (512)
I0306 16:11:56.695269  9434 net.cpp:165] Memory required for data: 7704139844
I0306 16:11:56.695274  9434 layer_factory.hpp:77] Creating layer conv9_2_fc2
I0306 16:11:56.695289  9434 net.cpp:100] Creating Layer conv9_2_fc2
I0306 16:11:56.695298  9434 net.cpp:434] conv9_2_fc2 <- conv9_2_fc1
I0306 16:11:56.695308  9434 net.cpp:408] conv9_2_fc2 -> conv9_2_fc2
I0306 16:11:56.696425  9434 net.cpp:150] Setting up conv9_2_fc2
I0306 16:11:56.696437  9434 net.cpp:157] Top shape: 8 256 1 1 (2048)
I0306 16:11:56.696442  9434 net.cpp:165] Memory required for data: 7704148036
I0306 16:11:56.696454  9434 layer_factory.hpp:77] Creating layer conv9_2_sig
I0306 16:11:56.696465  9434 net.cpp:100] Creating Layer conv9_2_sig
I0306 16:11:56.696470  9434 net.cpp:434] conv9_2_sig <- conv9_2_fc2
I0306 16:11:56.696485  9434 net.cpp:395] conv9_2_sig -> conv9_2_fc2 (in-place)
I0306 16:11:56.696655  9434 net.cpp:150] Setting up conv9_2_sig
I0306 16:11:56.696666  9434 net.cpp:157] Top shape: 8 256 1 1 (2048)
I0306 16:11:56.696669  9434 net.cpp:165] Memory required for data: 7704156228
I0306 16:11:56.696674  9434 layer_factory.hpp:77] Creating layer conv9_2_reshape
I0306 16:11:56.696687  9434 net.cpp:100] Creating Layer conv9_2_reshape
I0306 16:11:56.696698  9434 net.cpp:434] conv9_2_reshape <- conv9_2_fc2
I0306 16:11:56.696708  9434 net.cpp:408] conv9_2_reshape -> conv9_2_reshape
I0306 16:11:56.696746  9434 net.cpp:150] Setting up conv9_2_reshape
I0306 16:11:56.696753  9434 net.cpp:157] Top shape: 8 256 (2048)
I0306 16:11:56.696758  9434 net.cpp:165] Memory required for data: 7704164420
I0306 16:11:56.696763  9434 layer_factory.hpp:77] Creating layer conv9_2_scale
I0306 16:11:56.696790  9434 net.cpp:100] Creating Layer conv9_2_scale
I0306 16:11:56.696801  9434 net.cpp:434] conv9_2_scale <- conv9_2_t_conv9_2_relu_0_split_1
I0306 16:11:56.696811  9434 net.cpp:434] conv9_2_scale <- conv9_2_reshape
I0306 16:11:56.696823  9434 net.cpp:408] conv9_2_scale -> conv9_2
I0306 16:11:56.696892  9434 net.cpp:150] Setting up conv9_2_scale
I0306 16:11:56.696900  9434 net.cpp:157] Top shape: 8 256 2 2 (8192)
I0306 16:11:56.696905  9434 net.cpp:165] Memory required for data: 7704197188
I0306 16:11:56.696913  9434 layer_factory.hpp:77] Creating layer conv9_2_conv9_2_scale_0_split
I0306 16:11:56.696928  9434 net.cpp:100] Creating Layer conv9_2_conv9_2_scale_0_split
I0306 16:11:56.696938  9434 net.cpp:434] conv9_2_conv9_2_scale_0_split <- conv9_2
I0306 16:11:56.696949  9434 net.cpp:408] conv9_2_conv9_2_scale_0_split -> conv9_2_conv9_2_scale_0_split_0
I0306 16:11:56.696967  9434 net.cpp:408] conv9_2_conv9_2_scale_0_split -> conv9_2_conv9_2_scale_0_split_1
I0306 16:11:56.696979  9434 net.cpp:408] conv9_2_conv9_2_scale_0_split -> conv9_2_conv9_2_scale_0_split_2
I0306 16:11:56.696990  9434 net.cpp:408] conv9_2_conv9_2_scale_0_split -> conv9_2_conv9_2_scale_0_split_3
I0306 16:11:56.697057  9434 net.cpp:150] Setting up conv9_2_conv9_2_scale_0_split
I0306 16:11:56.697067  9434 net.cpp:157] Top shape: 8 256 2 2 (8192)
I0306 16:11:56.697089  9434 net.cpp:157] Top shape: 8 256 2 2 (8192)
I0306 16:11:56.697098  9434 net.cpp:157] Top shape: 8 256 2 2 (8192)
I0306 16:11:56.697104  9434 net.cpp:157] Top shape: 8 256 2 2 (8192)
I0306 16:11:56.697110  9434 net.cpp:165] Memory required for data: 7704328260
I0306 16:11:56.697120  9434 layer_factory.hpp:77] Creating layer conv10_1_new
I0306 16:11:56.697142  9434 net.cpp:100] Creating Layer conv10_1_new
I0306 16:11:56.697154  9434 net.cpp:434] conv10_1_new <- conv9_2_conv9_2_scale_0_split_0
I0306 16:11:56.697168  9434 net.cpp:408] conv10_1_new -> conv10_1
I0306 16:11:56.698352  9434 net.cpp:150] Setting up conv10_1_new
I0306 16:11:56.698365  9434 net.cpp:157] Top shape: 8 128 2 2 (4096)
I0306 16:11:56.698369  9434 net.cpp:165] Memory required for data: 7704344644
I0306 16:11:56.698379  9434 layer_factory.hpp:77] Creating layer conv10_1_relu
I0306 16:11:56.698391  9434 net.cpp:100] Creating Layer conv10_1_relu
I0306 16:11:56.698398  9434 net.cpp:434] conv10_1_relu <- conv10_1
I0306 16:11:56.698405  9434 net.cpp:395] conv10_1_relu -> conv10_1 (in-place)
I0306 16:11:56.698568  9434 net.cpp:150] Setting up conv10_1_relu
I0306 16:11:56.698583  9434 net.cpp:157] Top shape: 8 128 2 2 (4096)
I0306 16:11:56.698588  9434 net.cpp:165] Memory required for data: 7704361028
I0306 16:11:56.698593  9434 layer_factory.hpp:77] Creating layer conv10_2_new
I0306 16:11:56.698609  9434 net.cpp:100] Creating Layer conv10_2_new
I0306 16:11:56.698619  9434 net.cpp:434] conv10_2_new <- conv10_1
I0306 16:11:56.698629  9434 net.cpp:408] conv10_2_new -> conv10_2_t
I0306 16:11:56.703038  9434 net.cpp:150] Setting up conv10_2_new
I0306 16:11:56.703052  9434 net.cpp:157] Top shape: 8 256 1 1 (2048)
I0306 16:11:56.703056  9434 net.cpp:165] Memory required for data: 7704369220
I0306 16:11:56.703065  9434 layer_factory.hpp:77] Creating layer conv10_2_relu
I0306 16:11:56.703076  9434 net.cpp:100] Creating Layer conv10_2_relu
I0306 16:11:56.703088  9434 net.cpp:434] conv10_2_relu <- conv10_2_t
I0306 16:11:56.703095  9434 net.cpp:395] conv10_2_relu -> conv10_2_t (in-place)
I0306 16:11:56.703261  9434 net.cpp:150] Setting up conv10_2_relu
I0306 16:11:56.703275  9434 net.cpp:157] Top shape: 8 256 1 1 (2048)
I0306 16:11:56.703281  9434 net.cpp:165] Memory required for data: 7704377412
I0306 16:11:56.703289  9434 layer_factory.hpp:77] Creating layer conv10_2_t_conv10_2_relu_0_split
I0306 16:11:56.703300  9434 net.cpp:100] Creating Layer conv10_2_t_conv10_2_relu_0_split
I0306 16:11:56.703307  9434 net.cpp:434] conv10_2_t_conv10_2_relu_0_split <- conv10_2_t
I0306 16:11:56.703320  9434 net.cpp:408] conv10_2_t_conv10_2_relu_0_split -> conv10_2_t_conv10_2_relu_0_split_0
I0306 16:11:56.703336  9434 net.cpp:408] conv10_2_t_conv10_2_relu_0_split -> conv10_2_t_conv10_2_relu_0_split_1
I0306 16:11:56.703385  9434 net.cpp:150] Setting up conv10_2_t_conv10_2_relu_0_split
I0306 16:11:56.703397  9434 net.cpp:157] Top shape: 8 256 1 1 (2048)
I0306 16:11:56.703402  9434 net.cpp:157] Top shape: 8 256 1 1 (2048)
I0306 16:11:56.703410  9434 net.cpp:165] Memory required for data: 7704393796
I0306 16:11:56.703419  9434 layer_factory.hpp:77] Creating layer conv10_2_s
I0306 16:11:56.703433  9434 net.cpp:100] Creating Layer conv10_2_s
I0306 16:11:56.703445  9434 net.cpp:434] conv10_2_s <- conv10_2_t_conv10_2_relu_0_split_0
I0306 16:11:56.703456  9434 net.cpp:408] conv10_2_s -> conv10_2_s
I0306 16:11:56.703984  9434 net.cpp:150] Setting up conv10_2_s
I0306 16:11:56.703997  9434 net.cpp:157] Top shape: 8 256 1 1 (2048)
I0306 16:11:56.704002  9434 net.cpp:165] Memory required for data: 7704401988
I0306 16:11:56.704007  9434 layer_factory.hpp:77] Creating layer conv10_2_fc1
I0306 16:11:56.704021  9434 net.cpp:100] Creating Layer conv10_2_fc1
I0306 16:11:56.704028  9434 net.cpp:434] conv10_2_fc1 <- conv10_2_s
I0306 16:11:56.704043  9434 net.cpp:408] conv10_2_fc1 -> conv10_2_fc1
I0306 16:11:56.705193  9434 net.cpp:150] Setting up conv10_2_fc1
I0306 16:11:56.705206  9434 net.cpp:157] Top shape: 8 64 1 1 (512)
I0306 16:11:56.705210  9434 net.cpp:165] Memory required for data: 7704404036
I0306 16:11:56.705233  9434 layer_factory.hpp:77] Creating layer conv10_2_relu
I0306 16:11:56.705247  9434 net.cpp:100] Creating Layer conv10_2_relu
I0306 16:11:56.705260  9434 net.cpp:434] conv10_2_relu <- conv10_2_fc1
I0306 16:11:56.705269  9434 net.cpp:395] conv10_2_relu -> conv10_2_fc1 (in-place)
I0306 16:11:56.705438  9434 net.cpp:150] Setting up conv10_2_relu
I0306 16:11:56.705449  9434 net.cpp:157] Top shape: 8 64 1 1 (512)
I0306 16:11:56.705454  9434 net.cpp:165] Memory required for data: 7704406084
I0306 16:11:56.705461  9434 layer_factory.hpp:77] Creating layer conv10_2_fc2
I0306 16:11:56.705476  9434 net.cpp:100] Creating Layer conv10_2_fc2
I0306 16:11:56.705487  9434 net.cpp:434] conv10_2_fc2 <- conv10_2_fc1
I0306 16:11:56.705502  9434 net.cpp:408] conv10_2_fc2 -> conv10_2_fc2
I0306 16:11:56.706648  9434 net.cpp:150] Setting up conv10_2_fc2
I0306 16:11:56.706660  9434 net.cpp:157] Top shape: 8 256 1 1 (2048)
I0306 16:11:56.706665  9434 net.cpp:165] Memory required for data: 7704414276
I0306 16:11:56.706676  9434 layer_factory.hpp:77] Creating layer conv10_2_sig
I0306 16:11:56.706687  9434 net.cpp:100] Creating Layer conv10_2_sig
I0306 16:11:56.706693  9434 net.cpp:434] conv10_2_sig <- conv10_2_fc2
I0306 16:11:56.706703  9434 net.cpp:395] conv10_2_sig -> conv10_2_fc2 (in-place)
I0306 16:11:56.706874  9434 net.cpp:150] Setting up conv10_2_sig
I0306 16:11:56.706884  9434 net.cpp:157] Top shape: 8 256 1 1 (2048)
I0306 16:11:56.706888  9434 net.cpp:165] Memory required for data: 7704422468
I0306 16:11:56.706894  9434 layer_factory.hpp:77] Creating layer conv10_2_reshape
I0306 16:11:56.706907  9434 net.cpp:100] Creating Layer conv10_2_reshape
I0306 16:11:56.706914  9434 net.cpp:434] conv10_2_reshape <- conv10_2_fc2
I0306 16:11:56.706925  9434 net.cpp:408] conv10_2_reshape -> conv10_2_reshape
I0306 16:11:56.706964  9434 net.cpp:150] Setting up conv10_2_reshape
I0306 16:11:56.706971  9434 net.cpp:157] Top shape: 8 256 (2048)
I0306 16:11:56.706976  9434 net.cpp:165] Memory required for data: 7704430660
I0306 16:11:56.706981  9434 layer_factory.hpp:77] Creating layer conv10_2_scale
I0306 16:11:56.707000  9434 net.cpp:100] Creating Layer conv10_2_scale
I0306 16:11:56.707018  9434 net.cpp:434] conv10_2_scale <- conv10_2_t_conv10_2_relu_0_split_1
I0306 16:11:56.707029  9434 net.cpp:434] conv10_2_scale <- conv10_2_reshape
I0306 16:11:56.707046  9434 net.cpp:408] conv10_2_scale -> conv10_2
I0306 16:11:56.707120  9434 net.cpp:150] Setting up conv10_2_scale
I0306 16:11:56.707135  9434 net.cpp:157] Top shape: 8 256 1 1 (2048)
I0306 16:11:56.707140  9434 net.cpp:165] Memory required for data: 7704438852
I0306 16:11:56.707149  9434 layer_factory.hpp:77] Creating layer conv10_2_conv10_2_scale_0_split
I0306 16:11:56.707160  9434 net.cpp:100] Creating Layer conv10_2_conv10_2_scale_0_split
I0306 16:11:56.707173  9434 net.cpp:434] conv10_2_conv10_2_scale_0_split <- conv10_2
I0306 16:11:56.707185  9434 net.cpp:408] conv10_2_conv10_2_scale_0_split -> conv10_2_conv10_2_scale_0_split_0
I0306 16:11:56.707201  9434 net.cpp:408] conv10_2_conv10_2_scale_0_split -> conv10_2_conv10_2_scale_0_split_1
I0306 16:11:56.707216  9434 net.cpp:408] conv10_2_conv10_2_scale_0_split -> conv10_2_conv10_2_scale_0_split_2
I0306 16:11:56.707278  9434 net.cpp:150] Setting up conv10_2_conv10_2_scale_0_split
I0306 16:11:56.707290  9434 net.cpp:157] Top shape: 8 256 1 1 (2048)
I0306 16:11:56.707298  9434 net.cpp:157] Top shape: 8 256 1 1 (2048)
I0306 16:11:56.707304  9434 net.cpp:157] Top shape: 8 256 1 1 (2048)
I0306 16:11:56.707330  9434 net.cpp:165] Memory required for data: 7704463428
I0306 16:11:56.707335  9434 layer_factory.hpp:77] Creating layer conv4_3_norm_new
I0306 16:11:56.707352  9434 net.cpp:100] Creating Layer conv4_3_norm_new
I0306 16:11:56.707360  9434 net.cpp:434] conv4_3_norm_new <- conv4_3_conv4_3_scale_0_split_1
I0306 16:11:56.707384  9434 net.cpp:408] conv4_3_norm_new -> conv4_3_norm
I0306 16:11:56.707541  9434 net.cpp:150] Setting up conv4_3_norm_new
I0306 16:11:56.707551  9434 net.cpp:157] Top shape: 8 512 64 64 (16777216)
I0306 16:11:56.707571  9434 net.cpp:165] Memory required for data: 7771572292
I0306 16:11:56.707583  9434 layer_factory.hpp:77] Creating layer conv4_3_norm_conv4_3_norm_new_0_split
I0306 16:11:56.707594  9434 net.cpp:100] Creating Layer conv4_3_norm_conv4_3_norm_new_0_split
I0306 16:11:56.707605  9434 net.cpp:434] conv4_3_norm_conv4_3_norm_new_0_split <- conv4_3_norm
I0306 16:11:56.707619  9434 net.cpp:408] conv4_3_norm_conv4_3_norm_new_0_split -> conv4_3_norm_conv4_3_norm_new_0_split_0
I0306 16:11:56.707633  9434 net.cpp:408] conv4_3_norm_conv4_3_norm_new_0_split -> conv4_3_norm_conv4_3_norm_new_0_split_1
I0306 16:11:56.707645  9434 net.cpp:408] conv4_3_norm_conv4_3_norm_new_0_split -> conv4_3_norm_conv4_3_norm_new_0_split_2
I0306 16:11:56.707700  9434 net.cpp:150] Setting up conv4_3_norm_conv4_3_norm_new_0_split
I0306 16:11:56.707713  9434 net.cpp:157] Top shape: 8 512 64 64 (16777216)
I0306 16:11:56.707722  9434 net.cpp:157] Top shape: 8 512 64 64 (16777216)
I0306 16:11:56.707729  9434 net.cpp:157] Top shape: 8 512 64 64 (16777216)
I0306 16:11:56.707736  9434 net.cpp:165] Memory required for data: 7972898884
I0306 16:11:56.707746  9434 layer_factory.hpp:77] Creating layer conv4_3_norm_mbox_loc_new
I0306 16:11:56.707764  9434 net.cpp:100] Creating Layer conv4_3_norm_mbox_loc_new
I0306 16:11:56.707779  9434 net.cpp:434] conv4_3_norm_mbox_loc_new <- conv4_3_norm_conv4_3_norm_new_0_split_0
I0306 16:11:56.707798  9434 net.cpp:408] conv4_3_norm_mbox_loc_new -> conv4_3_norm_mbox_loc
I0306 16:11:56.709481  9434 net.cpp:150] Setting up conv4_3_norm_mbox_loc_new
I0306 16:11:56.709496  9434 net.cpp:157] Top shape: 8 16 64 64 (524288)
I0306 16:11:56.709499  9434 net.cpp:165] Memory required for data: 7974996036
I0306 16:11:56.709508  9434 layer_factory.hpp:77] Creating layer conv4_3_norm_mbox_loc_perm_new
I0306 16:11:56.709525  9434 net.cpp:100] Creating Layer conv4_3_norm_mbox_loc_perm_new
I0306 16:11:56.709538  9434 net.cpp:434] conv4_3_norm_mbox_loc_perm_new <- conv4_3_norm_mbox_loc
I0306 16:11:56.709548  9434 net.cpp:408] conv4_3_norm_mbox_loc_perm_new -> conv4_3_norm_mbox_loc_perm
I0306 16:11:56.709661  9434 net.cpp:150] Setting up conv4_3_norm_mbox_loc_perm_new
I0306 16:11:56.709669  9434 net.cpp:157] Top shape: 8 64 64 16 (524288)
I0306 16:11:56.709676  9434 net.cpp:165] Memory required for data: 7977093188
I0306 16:11:56.709679  9434 layer_factory.hpp:77] Creating layer conv4_3_norm_mbox_loc_flat_new
I0306 16:11:56.709693  9434 net.cpp:100] Creating Layer conv4_3_norm_mbox_loc_flat_new
I0306 16:11:56.709717  9434 net.cpp:434] conv4_3_norm_mbox_loc_flat_new <- conv4_3_norm_mbox_loc_perm
I0306 16:11:56.709728  9434 net.cpp:408] conv4_3_norm_mbox_loc_flat_new -> conv4_3_norm_mbox_loc_flat
I0306 16:11:56.709766  9434 net.cpp:150] Setting up conv4_3_norm_mbox_loc_flat_new
I0306 16:11:56.709774  9434 net.cpp:157] Top shape: 8 65536 (524288)
I0306 16:11:56.709782  9434 net.cpp:165] Memory required for data: 7979190340
I0306 16:11:56.709790  9434 layer_factory.hpp:77] Creating layer conv4_3_norm_mbox_conf_new
I0306 16:11:56.709810  9434 net.cpp:100] Creating Layer conv4_3_norm_mbox_conf_new
I0306 16:11:56.709826  9434 net.cpp:434] conv4_3_norm_mbox_conf_new <- conv4_3_norm_conv4_3_norm_new_0_split_1
I0306 16:11:56.709841  9434 net.cpp:408] conv4_3_norm_mbox_conf_new -> conv4_3_norm_mbox_conf
I0306 16:11:56.723883  9434 net.cpp:150] Setting up conv4_3_norm_mbox_conf_new
I0306 16:11:56.723898  9434 net.cpp:157] Top shape: 8 324 64 64 (10616832)
I0306 16:11:56.723903  9434 net.cpp:165] Memory required for data: 8021657668
I0306 16:11:56.723913  9434 layer_factory.hpp:77] Creating layer conv4_3_norm_mbox_conf_perm_new
I0306 16:11:56.723922  9434 net.cpp:100] Creating Layer conv4_3_norm_mbox_conf_perm_new
I0306 16:11:56.723932  9434 net.cpp:434] conv4_3_norm_mbox_conf_perm_new <- conv4_3_norm_mbox_conf
I0306 16:11:56.723942  9434 net.cpp:408] conv4_3_norm_mbox_conf_perm_new -> conv4_3_norm_mbox_conf_perm
I0306 16:11:56.724051  9434 net.cpp:150] Setting up conv4_3_norm_mbox_conf_perm_new
I0306 16:11:56.724059  9434 net.cpp:157] Top shape: 8 64 64 324 (10616832)
I0306 16:11:56.724078  9434 net.cpp:165] Memory required for data: 8064124996
I0306 16:11:56.724087  9434 layer_factory.hpp:77] Creating layer conv4_3_norm_mbox_conf_flat_new
I0306 16:11:56.724098  9434 net.cpp:100] Creating Layer conv4_3_norm_mbox_conf_flat_new
I0306 16:11:56.724117  9434 net.cpp:434] conv4_3_norm_mbox_conf_flat_new <- conv4_3_norm_mbox_conf_perm
I0306 16:11:56.724134  9434 net.cpp:408] conv4_3_norm_mbox_conf_flat_new -> conv4_3_norm_mbox_conf_flat
I0306 16:11:56.724166  9434 net.cpp:150] Setting up conv4_3_norm_mbox_conf_flat_new
I0306 16:11:56.724177  9434 net.cpp:157] Top shape: 8 1327104 (10616832)
I0306 16:11:56.724182  9434 net.cpp:165] Memory required for data: 8106592324
I0306 16:11:56.724186  9434 layer_factory.hpp:77] Creating layer conv4_3_norm_mbox_priorbox_new
I0306 16:11:56.724202  9434 net.cpp:100] Creating Layer conv4_3_norm_mbox_priorbox_new
I0306 16:11:56.724212  9434 net.cpp:434] conv4_3_norm_mbox_priorbox_new <- conv4_3_norm_conv4_3_norm_new_0_split_2
I0306 16:11:56.724220  9434 net.cpp:434] conv4_3_norm_mbox_priorbox_new <- data_data_0_split_1
I0306 16:11:56.724236  9434 net.cpp:408] conv4_3_norm_mbox_priorbox_new -> conv4_3_norm_mbox_priorbox
I0306 16:11:56.724274  9434 net.cpp:150] Setting up conv4_3_norm_mbox_priorbox_new
I0306 16:11:56.724282  9434 net.cpp:157] Top shape: 1 2 65536 (131072)
I0306 16:11:56.724288  9434 net.cpp:165] Memory required for data: 8107116612
I0306 16:11:56.724292  9434 layer_factory.hpp:77] Creating layer fc7_mbox_loc_new
I0306 16:11:56.724311  9434 net.cpp:100] Creating Layer fc7_mbox_loc_new
I0306 16:11:56.724318  9434 net.cpp:434] fc7_mbox_loc_new <- fc7_fc7_scale_0_split_1
I0306 16:11:56.724333  9434 net.cpp:408] fc7_mbox_loc_new -> fc7_mbox_loc
I0306 16:11:56.726651  9434 net.cpp:150] Setting up fc7_mbox_loc_new
I0306 16:11:56.726666  9434 net.cpp:157] Top shape: 8 24 32 32 (196608)
I0306 16:11:56.726673  9434 net.cpp:165] Memory required for data: 8107903044
I0306 16:11:56.726683  9434 layer_factory.hpp:77] Creating layer fc7_mbox_loc_perm_new
I0306 16:11:56.726698  9434 net.cpp:100] Creating Layer fc7_mbox_loc_perm_new
I0306 16:11:56.726703  9434 net.cpp:434] fc7_mbox_loc_perm_new <- fc7_mbox_loc
I0306 16:11:56.726717  9434 net.cpp:408] fc7_mbox_loc_perm_new -> fc7_mbox_loc_perm
I0306 16:11:56.726825  9434 net.cpp:150] Setting up fc7_mbox_loc_perm_new
I0306 16:11:56.726833  9434 net.cpp:157] Top shape: 8 32 32 24 (196608)
I0306 16:11:56.726837  9434 net.cpp:165] Memory required for data: 8108689476
I0306 16:11:56.726842  9434 layer_factory.hpp:77] Creating layer fc7_mbox_loc_flat_new
I0306 16:11:56.726855  9434 net.cpp:100] Creating Layer fc7_mbox_loc_flat_new
I0306 16:11:56.726861  9434 net.cpp:434] fc7_mbox_loc_flat_new <- fc7_mbox_loc_perm
I0306 16:11:56.726879  9434 net.cpp:408] fc7_mbox_loc_flat_new -> fc7_mbox_loc_flat
I0306 16:11:56.726918  9434 net.cpp:150] Setting up fc7_mbox_loc_flat_new
I0306 16:11:56.726927  9434 net.cpp:157] Top shape: 8 24576 (196608)
I0306 16:11:56.726932  9434 net.cpp:165] Memory required for data: 8109475908
I0306 16:11:56.726938  9434 layer_factory.hpp:77] Creating layer fc7_mbox_conf_new
I0306 16:11:56.726953  9434 net.cpp:100] Creating Layer fc7_mbox_conf_new
I0306 16:11:56.726961  9434 net.cpp:434] fc7_mbox_conf_new <- fc7_fc7_scale_0_split_2
I0306 16:11:56.726975  9434 net.cpp:408] fc7_mbox_conf_new -> fc7_mbox_conf
I0306 16:11:56.751379  9434 net.cpp:150] Setting up fc7_mbox_conf_new
I0306 16:11:56.751405  9434 net.cpp:157] Top shape: 8 486 32 32 (3981312)
I0306 16:11:56.751408  9434 net.cpp:165] Memory required for data: 8125401156
I0306 16:11:56.751418  9434 layer_factory.hpp:77] Creating layer fc7_mbox_conf_perm_new
I0306 16:11:56.751430  9434 net.cpp:100] Creating Layer fc7_mbox_conf_perm_new
I0306 16:11:56.751440  9434 net.cpp:434] fc7_mbox_conf_perm_new <- fc7_mbox_conf
I0306 16:11:56.751448  9434 net.cpp:408] fc7_mbox_conf_perm_new -> fc7_mbox_conf_perm
I0306 16:11:56.751559  9434 net.cpp:150] Setting up fc7_mbox_conf_perm_new
I0306 16:11:56.751567  9434 net.cpp:157] Top shape: 8 32 32 486 (3981312)
I0306 16:11:56.751591  9434 net.cpp:165] Memory required for data: 8141326404
I0306 16:11:56.751598  9434 layer_factory.hpp:77] Creating layer fc7_mbox_conf_flat_new
I0306 16:11:56.751610  9434 net.cpp:100] Creating Layer fc7_mbox_conf_flat_new
I0306 16:11:56.751617  9434 net.cpp:434] fc7_mbox_conf_flat_new <- fc7_mbox_conf_perm
I0306 16:11:56.751629  9434 net.cpp:408] fc7_mbox_conf_flat_new -> fc7_mbox_conf_flat
I0306 16:11:56.751660  9434 net.cpp:150] Setting up fc7_mbox_conf_flat_new
I0306 16:11:56.751667  9434 net.cpp:157] Top shape: 8 497664 (3981312)
I0306 16:11:56.751672  9434 net.cpp:165] Memory required for data: 8157251652
I0306 16:11:56.751677  9434 layer_factory.hpp:77] Creating layer fc7_mbox_priorbox_new
I0306 16:11:56.751688  9434 net.cpp:100] Creating Layer fc7_mbox_priorbox_new
I0306 16:11:56.751695  9434 net.cpp:434] fc7_mbox_priorbox_new <- fc7_fc7_scale_0_split_3
I0306 16:11:56.751703  9434 net.cpp:434] fc7_mbox_priorbox_new <- data_data_0_split_2
I0306 16:11:56.751716  9434 net.cpp:408] fc7_mbox_priorbox_new -> fc7_mbox_priorbox
I0306 16:11:56.751765  9434 net.cpp:150] Setting up fc7_mbox_priorbox_new
I0306 16:11:56.751775  9434 net.cpp:157] Top shape: 1 2 24576 (49152)
I0306 16:11:56.751778  9434 net.cpp:165] Memory required for data: 8157448260
I0306 16:11:56.751785  9434 layer_factory.hpp:77] Creating layer conv6_2_mbox_loc_new
I0306 16:11:56.751801  9434 net.cpp:100] Creating Layer conv6_2_mbox_loc_new
I0306 16:11:56.751809  9434 net.cpp:434] conv6_2_mbox_loc_new <- conv6_2_conv6_2_scale_0_split_1
I0306 16:11:56.751822  9434 net.cpp:408] conv6_2_mbox_loc_new -> conv6_2_mbox_loc
I0306 16:11:56.753681  9434 net.cpp:150] Setting up conv6_2_mbox_loc_new
I0306 16:11:56.753695  9434 net.cpp:157] Top shape: 8 24 16 16 (49152)
I0306 16:11:56.753698  9434 net.cpp:165] Memory required for data: 8157644868
I0306 16:11:56.753706  9434 layer_factory.hpp:77] Creating layer conv6_2_mbox_loc_perm_new
I0306 16:11:56.753720  9434 net.cpp:100] Creating Layer conv6_2_mbox_loc_perm_new
I0306 16:11:56.753729  9434 net.cpp:434] conv6_2_mbox_loc_perm_new <- conv6_2_mbox_loc
I0306 16:11:56.753744  9434 net.cpp:408] conv6_2_mbox_loc_perm_new -> conv6_2_mbox_loc_perm
I0306 16:11:56.753856  9434 net.cpp:150] Setting up conv6_2_mbox_loc_perm_new
I0306 16:11:56.753868  9434 net.cpp:157] Top shape: 8 16 16 24 (49152)
I0306 16:11:56.753875  9434 net.cpp:165] Memory required for data: 8157841476
I0306 16:11:56.753877  9434 layer_factory.hpp:77] Creating layer conv6_2_mbox_loc_flat_new
I0306 16:11:56.753885  9434 net.cpp:100] Creating Layer conv6_2_mbox_loc_flat_new
I0306 16:11:56.753890  9434 net.cpp:434] conv6_2_mbox_loc_flat_new <- conv6_2_mbox_loc_perm
I0306 16:11:56.753898  9434 net.cpp:408] conv6_2_mbox_loc_flat_new -> conv6_2_mbox_loc_flat
I0306 16:11:56.753924  9434 net.cpp:150] Setting up conv6_2_mbox_loc_flat_new
I0306 16:11:56.753939  9434 net.cpp:157] Top shape: 8 6144 (49152)
I0306 16:11:56.753950  9434 net.cpp:165] Memory required for data: 8158038084
I0306 16:11:56.753958  9434 layer_factory.hpp:77] Creating layer conv6_2_mbox_conf_new
I0306 16:11:56.753970  9434 net.cpp:100] Creating Layer conv6_2_mbox_conf_new
I0306 16:11:56.753979  9434 net.cpp:434] conv6_2_mbox_conf_new <- conv6_2_conv6_2_scale_0_split_2
I0306 16:11:56.753986  9434 net.cpp:408] conv6_2_mbox_conf_new -> conv6_2_mbox_conf
I0306 16:11:56.766683  9434 net.cpp:150] Setting up conv6_2_mbox_conf_new
I0306 16:11:56.766698  9434 net.cpp:157] Top shape: 8 486 16 16 (995328)
I0306 16:11:56.766702  9434 net.cpp:165] Memory required for data: 8162019396
I0306 16:11:56.766710  9434 layer_factory.hpp:77] Creating layer conv6_2_mbox_conf_perm_new
I0306 16:11:56.766721  9434 net.cpp:100] Creating Layer conv6_2_mbox_conf_perm_new
I0306 16:11:56.766727  9434 net.cpp:434] conv6_2_mbox_conf_perm_new <- conv6_2_mbox_conf
I0306 16:11:56.766736  9434 net.cpp:408] conv6_2_mbox_conf_perm_new -> conv6_2_mbox_conf_perm
I0306 16:11:56.766834  9434 net.cpp:150] Setting up conv6_2_mbox_conf_perm_new
I0306 16:11:56.766844  9434 net.cpp:157] Top shape: 8 16 16 486 (995328)
I0306 16:11:56.766865  9434 net.cpp:165] Memory required for data: 8166000708
I0306 16:11:56.766873  9434 layer_factory.hpp:77] Creating layer conv6_2_mbox_conf_flat_new
I0306 16:11:56.766881  9434 net.cpp:100] Creating Layer conv6_2_mbox_conf_flat_new
I0306 16:11:56.766891  9434 net.cpp:434] conv6_2_mbox_conf_flat_new <- conv6_2_mbox_conf_perm
I0306 16:11:56.766899  9434 net.cpp:408] conv6_2_mbox_conf_flat_new -> conv6_2_mbox_conf_flat
I0306 16:11:56.766932  9434 net.cpp:150] Setting up conv6_2_mbox_conf_flat_new
I0306 16:11:56.766939  9434 net.cpp:157] Top shape: 8 124416 (995328)
I0306 16:11:56.766942  9434 net.cpp:165] Memory required for data: 8169982020
I0306 16:11:56.766948  9434 layer_factory.hpp:77] Creating layer conv6_2_mbox_priorbox_new
I0306 16:11:56.766966  9434 net.cpp:100] Creating Layer conv6_2_mbox_priorbox_new
I0306 16:11:56.766979  9434 net.cpp:434] conv6_2_mbox_priorbox_new <- conv6_2_conv6_2_scale_0_split_3
I0306 16:11:56.766989  9434 net.cpp:434] conv6_2_mbox_priorbox_new <- data_data_0_split_3
I0306 16:11:56.767000  9434 net.cpp:408] conv6_2_mbox_priorbox_new -> conv6_2_mbox_priorbox
I0306 16:11:56.767036  9434 net.cpp:150] Setting up conv6_2_mbox_priorbox_new
I0306 16:11:56.767043  9434 net.cpp:157] Top shape: 1 2 6144 (12288)
I0306 16:11:56.767053  9434 net.cpp:165] Memory required for data: 8170031172
I0306 16:11:56.767057  9434 layer_factory.hpp:77] Creating layer conv7_2_mbox_loc_new
I0306 16:11:56.767071  9434 net.cpp:100] Creating Layer conv7_2_mbox_loc_new
I0306 16:11:56.767079  9434 net.cpp:434] conv7_2_mbox_loc_new <- conv7_2_conv7_2_scale_0_split_1
I0306 16:11:56.767089  9434 net.cpp:408] conv7_2_mbox_loc_new -> conv7_2_mbox_loc
I0306 16:11:56.768731  9434 net.cpp:150] Setting up conv7_2_mbox_loc_new
I0306 16:11:56.768743  9434 net.cpp:157] Top shape: 8 24 8 8 (12288)
I0306 16:11:56.768748  9434 net.cpp:165] Memory required for data: 8170080324
I0306 16:11:56.768757  9434 layer_factory.hpp:77] Creating layer conv7_2_mbox_loc_perm_new
I0306 16:11:56.768771  9434 net.cpp:100] Creating Layer conv7_2_mbox_loc_perm_new
I0306 16:11:56.768784  9434 net.cpp:434] conv7_2_mbox_loc_perm_new <- conv7_2_mbox_loc
I0306 16:11:56.768791  9434 net.cpp:408] conv7_2_mbox_loc_perm_new -> conv7_2_mbox_loc_perm
I0306 16:11:56.768908  9434 net.cpp:150] Setting up conv7_2_mbox_loc_perm_new
I0306 16:11:56.768918  9434 net.cpp:157] Top shape: 8 8 8 24 (12288)
I0306 16:11:56.768921  9434 net.cpp:165] Memory required for data: 8170129476
I0306 16:11:56.768929  9434 layer_factory.hpp:77] Creating layer conv7_2_mbox_loc_flat_new
I0306 16:11:56.768944  9434 net.cpp:100] Creating Layer conv7_2_mbox_loc_flat_new
I0306 16:11:56.768951  9434 net.cpp:434] conv7_2_mbox_loc_flat_new <- conv7_2_mbox_loc_perm
I0306 16:11:56.768965  9434 net.cpp:408] conv7_2_mbox_loc_flat_new -> conv7_2_mbox_loc_flat
I0306 16:11:56.768998  9434 net.cpp:150] Setting up conv7_2_mbox_loc_flat_new
I0306 16:11:56.769007  9434 net.cpp:157] Top shape: 8 1536 (12288)
I0306 16:11:56.769016  9434 net.cpp:165] Memory required for data: 8170178628
I0306 16:11:56.769021  9434 layer_factory.hpp:77] Creating layer conv7_2_mbox_conf_new
I0306 16:11:56.769034  9434 net.cpp:100] Creating Layer conv7_2_mbox_conf_new
I0306 16:11:56.769042  9434 net.cpp:434] conv7_2_mbox_conf_new <- conv7_2_conv7_2_scale_0_split_2
I0306 16:11:56.769048  9434 net.cpp:408] conv7_2_mbox_conf_new -> conv7_2_mbox_conf
I0306 16:11:56.776156  9434 net.cpp:150] Setting up conv7_2_mbox_conf_new
I0306 16:11:56.776170  9434 net.cpp:157] Top shape: 8 486 8 8 (248832)
I0306 16:11:56.776175  9434 net.cpp:165] Memory required for data: 8171173956
I0306 16:11:56.776180  9434 layer_factory.hpp:77] Creating layer conv7_2_mbox_conf_perm_new
I0306 16:11:56.776190  9434 net.cpp:100] Creating Layer conv7_2_mbox_conf_perm_new
I0306 16:11:56.776197  9434 net.cpp:434] conv7_2_mbox_conf_perm_new <- conv7_2_mbox_conf
I0306 16:11:56.776206  9434 net.cpp:408] conv7_2_mbox_conf_perm_new -> conv7_2_mbox_conf_perm
I0306 16:11:56.776309  9434 net.cpp:150] Setting up conv7_2_mbox_conf_perm_new
I0306 16:11:56.776335  9434 net.cpp:157] Top shape: 8 8 8 486 (248832)
I0306 16:11:56.776341  9434 net.cpp:165] Memory required for data: 8172169284
I0306 16:11:56.776345  9434 layer_factory.hpp:77] Creating layer conv7_2_mbox_conf_flat_new
I0306 16:11:56.776353  9434 net.cpp:100] Creating Layer conv7_2_mbox_conf_flat_new
I0306 16:11:56.776360  9434 net.cpp:434] conv7_2_mbox_conf_flat_new <- conv7_2_mbox_conf_perm
I0306 16:11:56.776366  9434 net.cpp:408] conv7_2_mbox_conf_flat_new -> conv7_2_mbox_conf_flat
I0306 16:11:56.776397  9434 net.cpp:150] Setting up conv7_2_mbox_conf_flat_new
I0306 16:11:56.776408  9434 net.cpp:157] Top shape: 8 31104 (248832)
I0306 16:11:56.776412  9434 net.cpp:165] Memory required for data: 8173164612
I0306 16:11:56.776417  9434 layer_factory.hpp:77] Creating layer conv7_2_mbox_priorbox_new
I0306 16:11:56.776425  9434 net.cpp:100] Creating Layer conv7_2_mbox_priorbox_new
I0306 16:11:56.776432  9434 net.cpp:434] conv7_2_mbox_priorbox_new <- conv7_2_conv7_2_scale_0_split_3
I0306 16:11:56.776440  9434 net.cpp:434] conv7_2_mbox_priorbox_new <- data_data_0_split_4
I0306 16:11:56.776450  9434 net.cpp:408] conv7_2_mbox_priorbox_new -> conv7_2_mbox_priorbox
I0306 16:11:56.776484  9434 net.cpp:150] Setting up conv7_2_mbox_priorbox_new
I0306 16:11:56.776491  9434 net.cpp:157] Top shape: 1 2 1536 (3072)
I0306 16:11:56.776495  9434 net.cpp:165] Memory required for data: 8173176900
I0306 16:11:56.776502  9434 layer_factory.hpp:77] Creating layer conv8_2_mbox_loc_new
I0306 16:11:56.776512  9434 net.cpp:100] Creating Layer conv8_2_mbox_loc_new
I0306 16:11:56.776525  9434 net.cpp:434] conv8_2_mbox_loc_new <- conv8_2_conv8_2_scale_0_split_1
I0306 16:11:56.776535  9434 net.cpp:408] conv8_2_mbox_loc_new -> conv8_2_mbox_loc
I0306 16:11:56.777832  9434 net.cpp:150] Setting up conv8_2_mbox_loc_new
I0306 16:11:56.777844  9434 net.cpp:157] Top shape: 8 24 4 4 (3072)
I0306 16:11:56.777848  9434 net.cpp:165] Memory required for data: 8173189188
I0306 16:11:56.777855  9434 layer_factory.hpp:77] Creating layer conv8_2_mbox_loc_perm_new
I0306 16:11:56.777865  9434 net.cpp:100] Creating Layer conv8_2_mbox_loc_perm_new
I0306 16:11:56.777876  9434 net.cpp:434] conv8_2_mbox_loc_perm_new <- conv8_2_mbox_loc
I0306 16:11:56.777884  9434 net.cpp:408] conv8_2_mbox_loc_perm_new -> conv8_2_mbox_loc_perm
I0306 16:11:56.777992  9434 net.cpp:150] Setting up conv8_2_mbox_loc_perm_new
I0306 16:11:56.777999  9434 net.cpp:157] Top shape: 8 4 4 24 (3072)
I0306 16:11:56.778007  9434 net.cpp:165] Memory required for data: 8173201476
I0306 16:11:56.778012  9434 layer_factory.hpp:77] Creating layer conv8_2_mbox_loc_flat_new
I0306 16:11:56.778019  9434 net.cpp:100] Creating Layer conv8_2_mbox_loc_flat_new
I0306 16:11:56.778024  9434 net.cpp:434] conv8_2_mbox_loc_flat_new <- conv8_2_mbox_loc_perm
I0306 16:11:56.778036  9434 net.cpp:408] conv8_2_mbox_loc_flat_new -> conv8_2_mbox_loc_flat
I0306 16:11:56.778069  9434 net.cpp:150] Setting up conv8_2_mbox_loc_flat_new
I0306 16:11:56.778075  9434 net.cpp:157] Top shape: 8 384 (3072)
I0306 16:11:56.778079  9434 net.cpp:165] Memory required for data: 8173213764
I0306 16:11:56.778084  9434 layer_factory.hpp:77] Creating layer conv8_2_mbox_conf_new
I0306 16:11:56.778095  9434 net.cpp:100] Creating Layer conv8_2_mbox_conf_new
I0306 16:11:56.778100  9434 net.cpp:434] conv8_2_mbox_conf_new <- conv8_2_conv8_2_scale_0_split_2
I0306 16:11:56.778110  9434 net.cpp:408] conv8_2_mbox_conf_new -> conv8_2_mbox_conf
I0306 16:11:56.788556  9434 net.cpp:150] Setting up conv8_2_mbox_conf_new
I0306 16:11:56.788570  9434 net.cpp:157] Top shape: 8 486 4 4 (62208)
I0306 16:11:56.788574  9434 net.cpp:165] Memory required for data: 8173462596
I0306 16:11:56.788580  9434 layer_factory.hpp:77] Creating layer conv8_2_mbox_conf_perm_new
I0306 16:11:56.788592  9434 net.cpp:100] Creating Layer conv8_2_mbox_conf_perm_new
I0306 16:11:56.788599  9434 net.cpp:434] conv8_2_mbox_conf_perm_new <- conv8_2_mbox_conf
I0306 16:11:56.788606  9434 net.cpp:408] conv8_2_mbox_conf_perm_new -> conv8_2_mbox_conf_perm
I0306 16:11:56.788712  9434 net.cpp:150] Setting up conv8_2_mbox_conf_perm_new
I0306 16:11:56.788730  9434 net.cpp:157] Top shape: 8 4 4 486 (62208)
I0306 16:11:56.788734  9434 net.cpp:165] Memory required for data: 8173711428
I0306 16:11:56.788738  9434 layer_factory.hpp:77] Creating layer conv8_2_mbox_conf_flat_new
I0306 16:11:56.788744  9434 net.cpp:100] Creating Layer conv8_2_mbox_conf_flat_new
I0306 16:11:56.788751  9434 net.cpp:434] conv8_2_mbox_conf_flat_new <- conv8_2_mbox_conf_perm
I0306 16:11:56.788758  9434 net.cpp:408] conv8_2_mbox_conf_flat_new -> conv8_2_mbox_conf_flat
I0306 16:11:56.788792  9434 net.cpp:150] Setting up conv8_2_mbox_conf_flat_new
I0306 16:11:56.788800  9434 net.cpp:157] Top shape: 8 7776 (62208)
I0306 16:11:56.788802  9434 net.cpp:165] Memory required for data: 8173960260
I0306 16:11:56.788806  9434 layer_factory.hpp:77] Creating layer conv8_2_mbox_priorbox_new
I0306 16:11:56.788813  9434 net.cpp:100] Creating Layer conv8_2_mbox_priorbox_new
I0306 16:11:56.788820  9434 net.cpp:434] conv8_2_mbox_priorbox_new <- conv8_2_conv8_2_scale_0_split_3
I0306 16:11:56.788827  9434 net.cpp:434] conv8_2_mbox_priorbox_new <- data_data_0_split_5
I0306 16:11:56.788836  9434 net.cpp:408] conv8_2_mbox_priorbox_new -> conv8_2_mbox_priorbox
I0306 16:11:56.788864  9434 net.cpp:150] Setting up conv8_2_mbox_priorbox_new
I0306 16:11:56.788872  9434 net.cpp:157] Top shape: 1 2 384 (768)
I0306 16:11:56.788878  9434 net.cpp:165] Memory required for data: 8173963332
I0306 16:11:56.788887  9434 layer_factory.hpp:77] Creating layer conv9_2_mbox_loc_new
I0306 16:11:56.788898  9434 net.cpp:100] Creating Layer conv9_2_mbox_loc_new
I0306 16:11:56.788911  9434 net.cpp:434] conv9_2_mbox_loc_new <- conv9_2_conv9_2_scale_0_split_1
I0306 16:11:56.788918  9434 net.cpp:408] conv9_2_mbox_loc_new -> conv9_2_mbox_loc
I0306 16:11:56.790132  9434 net.cpp:150] Setting up conv9_2_mbox_loc_new
I0306 16:11:56.790143  9434 net.cpp:157] Top shape: 8 16 2 2 (512)
I0306 16:11:56.790148  9434 net.cpp:165] Memory required for data: 8173965380
I0306 16:11:56.790156  9434 layer_factory.hpp:77] Creating layer conv9_2_mbox_loc_perm_new
I0306 16:11:56.790165  9434 net.cpp:100] Creating Layer conv9_2_mbox_loc_perm_new
I0306 16:11:56.790171  9434 net.cpp:434] conv9_2_mbox_loc_perm_new <- conv9_2_mbox_loc
I0306 16:11:56.790180  9434 net.cpp:408] conv9_2_mbox_loc_perm_new -> conv9_2_mbox_loc_perm
I0306 16:11:56.790280  9434 net.cpp:150] Setting up conv9_2_mbox_loc_perm_new
I0306 16:11:56.790290  9434 net.cpp:157] Top shape: 8 2 2 16 (512)
I0306 16:11:56.790295  9434 net.cpp:165] Memory required for data: 8173967428
I0306 16:11:56.790298  9434 layer_factory.hpp:77] Creating layer conv9_2_mbox_loc_flat_new
I0306 16:11:56.790307  9434 net.cpp:100] Creating Layer conv9_2_mbox_loc_flat_new
I0306 16:11:56.790313  9434 net.cpp:434] conv9_2_mbox_loc_flat_new <- conv9_2_mbox_loc_perm
I0306 16:11:56.790323  9434 net.cpp:408] conv9_2_mbox_loc_flat_new -> conv9_2_mbox_loc_flat
I0306 16:11:56.790385  9434 net.cpp:150] Setting up conv9_2_mbox_loc_flat_new
I0306 16:11:56.790392  9434 net.cpp:157] Top shape: 8 64 (512)
I0306 16:11:56.790398  9434 net.cpp:165] Memory required for data: 8173969476
I0306 16:11:56.790402  9434 layer_factory.hpp:77] Creating layer conv9_2_mbox_conf_new
I0306 16:11:56.790416  9434 net.cpp:100] Creating Layer conv9_2_mbox_conf_new
I0306 16:11:56.790421  9434 net.cpp:434] conv9_2_mbox_conf_new <- conv9_2_conv9_2_scale_0_split_2
I0306 16:11:56.790432  9434 net.cpp:408] conv9_2_mbox_conf_new -> conv9_2_mbox_conf
I0306 16:11:56.796299  9434 net.cpp:150] Setting up conv9_2_mbox_conf_new
I0306 16:11:56.796311  9434 net.cpp:157] Top shape: 8 324 2 2 (10368)
I0306 16:11:56.796315  9434 net.cpp:165] Memory required for data: 8174010948
I0306 16:11:56.796324  9434 layer_factory.hpp:77] Creating layer conv9_2_mbox_conf_perm_new
I0306 16:11:56.796334  9434 net.cpp:100] Creating Layer conv9_2_mbox_conf_perm_new
I0306 16:11:56.796342  9434 net.cpp:434] conv9_2_mbox_conf_perm_new <- conv9_2_mbox_conf
I0306 16:11:56.796349  9434 net.cpp:408] conv9_2_mbox_conf_perm_new -> conv9_2_mbox_conf_perm
I0306 16:11:56.796468  9434 net.cpp:150] Setting up conv9_2_mbox_conf_perm_new
I0306 16:11:56.796476  9434 net.cpp:157] Top shape: 8 2 2 324 (10368)
I0306 16:11:56.796481  9434 net.cpp:165] Memory required for data: 8174052420
I0306 16:11:56.796489  9434 layer_factory.hpp:77] Creating layer conv9_2_mbox_conf_flat_new
I0306 16:11:56.796496  9434 net.cpp:100] Creating Layer conv9_2_mbox_conf_flat_new
I0306 16:11:56.796507  9434 net.cpp:434] conv9_2_mbox_conf_flat_new <- conv9_2_mbox_conf_perm
I0306 16:11:56.796515  9434 net.cpp:408] conv9_2_mbox_conf_flat_new -> conv9_2_mbox_conf_flat
I0306 16:11:56.796550  9434 net.cpp:150] Setting up conv9_2_mbox_conf_flat_new
I0306 16:11:56.796561  9434 net.cpp:157] Top shape: 8 1296 (10368)
I0306 16:11:56.796566  9434 net.cpp:165] Memory required for data: 8174093892
I0306 16:11:56.796571  9434 layer_factory.hpp:77] Creating layer conv9_2_mbox_priorbox_new
I0306 16:11:56.796582  9434 net.cpp:100] Creating Layer conv9_2_mbox_priorbox_new
I0306 16:11:56.796591  9434 net.cpp:434] conv9_2_mbox_priorbox_new <- conv9_2_conv9_2_scale_0_split_3
I0306 16:11:56.796596  9434 net.cpp:434] conv9_2_mbox_priorbox_new <- data_data_0_split_6
I0306 16:11:56.796604  9434 net.cpp:408] conv9_2_mbox_priorbox_new -> conv9_2_mbox_priorbox
I0306 16:11:56.796633  9434 net.cpp:150] Setting up conv9_2_mbox_priorbox_new
I0306 16:11:56.796643  9434 net.cpp:157] Top shape: 1 2 64 (128)
I0306 16:11:56.796650  9434 net.cpp:165] Memory required for data: 8174094404
I0306 16:11:56.796656  9434 layer_factory.hpp:77] Creating layer conv10_2_mbox_loc_new
I0306 16:11:56.796667  9434 net.cpp:100] Creating Layer conv10_2_mbox_loc_new
I0306 16:11:56.796676  9434 net.cpp:434] conv10_2_mbox_loc_new <- conv10_2_conv10_2_scale_0_split_0
I0306 16:11:56.796687  9434 net.cpp:408] conv10_2_mbox_loc_new -> conv10_2_mbox_loc
I0306 16:11:56.797904  9434 net.cpp:150] Setting up conv10_2_mbox_loc_new
I0306 16:11:56.797914  9434 net.cpp:157] Top shape: 8 16 1 1 (128)
I0306 16:11:56.797917  9434 net.cpp:165] Memory required for data: 8174094916
I0306 16:11:56.797924  9434 layer_factory.hpp:77] Creating layer conv10_2_mbox_loc_perm_new
I0306 16:11:56.797935  9434 net.cpp:100] Creating Layer conv10_2_mbox_loc_perm_new
I0306 16:11:56.797941  9434 net.cpp:434] conv10_2_mbox_loc_perm_new <- conv10_2_mbox_loc
I0306 16:11:56.797946  9434 net.cpp:408] conv10_2_mbox_loc_perm_new -> conv10_2_mbox_loc_perm
I0306 16:11:56.798048  9434 net.cpp:150] Setting up conv10_2_mbox_loc_perm_new
I0306 16:11:56.798056  9434 net.cpp:157] Top shape: 8 1 1 16 (128)
I0306 16:11:56.798060  9434 net.cpp:165] Memory required for data: 8174095428
I0306 16:11:56.798064  9434 layer_factory.hpp:77] Creating layer conv10_2_mbox_loc_flat_new
I0306 16:11:56.798076  9434 net.cpp:100] Creating Layer conv10_2_mbox_loc_flat_new
I0306 16:11:56.798081  9434 net.cpp:434] conv10_2_mbox_loc_flat_new <- conv10_2_mbox_loc_perm
I0306 16:11:56.798089  9434 net.cpp:408] conv10_2_mbox_loc_flat_new -> conv10_2_mbox_loc_flat
I0306 16:11:56.798127  9434 net.cpp:150] Setting up conv10_2_mbox_loc_flat_new
I0306 16:11:56.798136  9434 net.cpp:157] Top shape: 8 16 (128)
I0306 16:11:56.798142  9434 net.cpp:165] Memory required for data: 8174095940
I0306 16:11:56.798147  9434 layer_factory.hpp:77] Creating layer conv10_2_mbox_conf_new
I0306 16:11:56.798156  9434 net.cpp:100] Creating Layer conv10_2_mbox_conf_new
I0306 16:11:56.798163  9434 net.cpp:434] conv10_2_mbox_conf_new <- conv10_2_conv10_2_scale_0_split_1
I0306 16:11:56.798171  9434 net.cpp:408] conv10_2_mbox_conf_new -> conv10_2_mbox_conf
I0306 16:11:56.805171  9434 net.cpp:150] Setting up conv10_2_mbox_conf_new
I0306 16:11:56.805183  9434 net.cpp:157] Top shape: 8 324 1 1 (2592)
I0306 16:11:56.805187  9434 net.cpp:165] Memory required for data: 8174106308
I0306 16:11:56.805197  9434 layer_factory.hpp:77] Creating layer conv10_2_mbox_conf_perm_new
I0306 16:11:56.805205  9434 net.cpp:100] Creating Layer conv10_2_mbox_conf_perm_new
I0306 16:11:56.805210  9434 net.cpp:434] conv10_2_mbox_conf_perm_new <- conv10_2_mbox_conf
I0306 16:11:56.805218  9434 net.cpp:408] conv10_2_mbox_conf_perm_new -> conv10_2_mbox_conf_perm
I0306 16:11:56.805336  9434 net.cpp:150] Setting up conv10_2_mbox_conf_perm_new
I0306 16:11:56.805346  9434 net.cpp:157] Top shape: 8 1 1 324 (2592)
I0306 16:11:56.805351  9434 net.cpp:165] Memory required for data: 8174116676
I0306 16:11:56.805354  9434 layer_factory.hpp:77] Creating layer conv10_2_mbox_conf_flat_new
I0306 16:11:56.805366  9434 net.cpp:100] Creating Layer conv10_2_mbox_conf_flat_new
I0306 16:11:56.805371  9434 net.cpp:434] conv10_2_mbox_conf_flat_new <- conv10_2_mbox_conf_perm
I0306 16:11:56.805377  9434 net.cpp:408] conv10_2_mbox_conf_flat_new -> conv10_2_mbox_conf_flat
I0306 16:11:56.805409  9434 net.cpp:150] Setting up conv10_2_mbox_conf_flat_new
I0306 16:11:56.805418  9434 net.cpp:157] Top shape: 8 324 (2592)
I0306 16:11:56.805423  9434 net.cpp:165] Memory required for data: 8174127044
I0306 16:11:56.805426  9434 layer_factory.hpp:77] Creating layer conv10_2_mbox_priorbox_new
I0306 16:11:56.805438  9434 net.cpp:100] Creating Layer conv10_2_mbox_priorbox_new
I0306 16:11:56.805444  9434 net.cpp:434] conv10_2_mbox_priorbox_new <- conv10_2_conv10_2_scale_0_split_2
I0306 16:11:56.805449  9434 net.cpp:434] conv10_2_mbox_priorbox_new <- data_data_0_split_7
I0306 16:11:56.805457  9434 net.cpp:408] conv10_2_mbox_priorbox_new -> conv10_2_mbox_priorbox
I0306 16:11:56.805487  9434 net.cpp:150] Setting up conv10_2_mbox_priorbox_new
I0306 16:11:56.805497  9434 net.cpp:157] Top shape: 1 2 16 (32)
I0306 16:11:56.805501  9434 net.cpp:165] Memory required for data: 8174127172
I0306 16:11:56.805507  9434 layer_factory.hpp:77] Creating layer mbox_loc
I0306 16:11:56.805521  9434 net.cpp:100] Creating Layer mbox_loc
I0306 16:11:56.805532  9434 net.cpp:434] mbox_loc <- conv4_3_norm_mbox_loc_flat
I0306 16:11:56.805541  9434 net.cpp:434] mbox_loc <- fc7_mbox_loc_flat
I0306 16:11:56.805548  9434 net.cpp:434] mbox_loc <- conv6_2_mbox_loc_flat
I0306 16:11:56.805555  9434 net.cpp:434] mbox_loc <- conv7_2_mbox_loc_flat
I0306 16:11:56.805562  9434 net.cpp:434] mbox_loc <- conv8_2_mbox_loc_flat
I0306 16:11:56.805567  9434 net.cpp:434] mbox_loc <- conv9_2_mbox_loc_flat
I0306 16:11:56.805577  9434 net.cpp:434] mbox_loc <- conv10_2_mbox_loc_flat
I0306 16:11:56.805585  9434 net.cpp:408] mbox_loc -> mbox_loc
I0306 16:11:56.805619  9434 net.cpp:150] Setting up mbox_loc
I0306 16:11:56.805634  9434 net.cpp:157] Top shape: 8 98256 (786048)
I0306 16:11:56.805639  9434 net.cpp:165] Memory required for data: 8177271364
I0306 16:11:56.805644  9434 layer_factory.hpp:77] Creating layer mbox_conf
I0306 16:11:56.805654  9434 net.cpp:100] Creating Layer mbox_conf
I0306 16:11:56.805661  9434 net.cpp:434] mbox_conf <- conv4_3_norm_mbox_conf_flat
I0306 16:11:56.805668  9434 net.cpp:434] mbox_conf <- fc7_mbox_conf_flat
I0306 16:11:56.805675  9434 net.cpp:434] mbox_conf <- conv6_2_mbox_conf_flat
I0306 16:11:56.805680  9434 net.cpp:434] mbox_conf <- conv7_2_mbox_conf_flat
I0306 16:11:56.805687  9434 net.cpp:434] mbox_conf <- conv8_2_mbox_conf_flat
I0306 16:11:56.805692  9434 net.cpp:434] mbox_conf <- conv9_2_mbox_conf_flat
I0306 16:11:56.805701  9434 net.cpp:434] mbox_conf <- conv10_2_mbox_conf_flat
I0306 16:11:56.805714  9434 net.cpp:408] mbox_conf -> mbox_conf
I0306 16:11:56.805740  9434 net.cpp:150] Setting up mbox_conf
I0306 16:11:56.805750  9434 net.cpp:157] Top shape: 8 1989684 (15917472)
I0306 16:11:56.805753  9434 net.cpp:165] Memory required for data: 8240941252
I0306 16:11:56.805760  9434 layer_factory.hpp:77] Creating layer mbox_priorbox
I0306 16:11:56.805769  9434 net.cpp:100] Creating Layer mbox_priorbox
I0306 16:11:56.805776  9434 net.cpp:434] mbox_priorbox <- conv4_3_norm_mbox_priorbox
I0306 16:11:56.805786  9434 net.cpp:434] mbox_priorbox <- fc7_mbox_priorbox
I0306 16:11:56.805794  9434 net.cpp:434] mbox_priorbox <- conv6_2_mbox_priorbox
I0306 16:11:56.805804  9434 net.cpp:434] mbox_priorbox <- conv7_2_mbox_priorbox
I0306 16:11:56.805810  9434 net.cpp:434] mbox_priorbox <- conv8_2_mbox_priorbox
I0306 16:11:56.805816  9434 net.cpp:434] mbox_priorbox <- conv9_2_mbox_priorbox
I0306 16:11:56.805830  9434 net.cpp:434] mbox_priorbox <- conv10_2_mbox_priorbox
I0306 16:11:56.805840  9434 net.cpp:408] mbox_priorbox -> mbox_priorbox
I0306 16:11:56.805868  9434 net.cpp:150] Setting up mbox_priorbox
I0306 16:11:56.805877  9434 net.cpp:157] Top shape: 1 2 98256 (196512)
I0306 16:11:56.805882  9434 net.cpp:165] Memory required for data: 8241727300
I0306 16:11:56.805886  9434 layer_factory.hpp:77] Creating layer mbox_loss
I0306 16:11:56.805902  9434 net.cpp:100] Creating Layer mbox_loss
I0306 16:11:56.805913  9434 net.cpp:434] mbox_loss <- mbox_loc
I0306 16:11:56.805922  9434 net.cpp:434] mbox_loss <- mbox_conf
I0306 16:11:56.805930  9434 net.cpp:434] mbox_loss <- mbox_priorbox
…
layer {
  name: "data"
  type: "AnnotatedData"
  top: "data"
  top: "label"
  include {
    phase: TEST
  }
  transform_param {
    mean_value: 104
    mean_value: 117
    mean_value: 123
    force_color: true
    resize_param {
      prob: 1
      resize_mode: WARP
      height: 512
      width: 512
      interp_mode: LINEAR
    }
  }
  data_param {
    source: "examples/coco/coco_test-dev2017_lmdb"
    batch_size: 8
    backend: LMDB
  }
  annotated_data_param {
    batch_sampler {
    }
    label_map_file: "data/coco/labelmap_coco.prototxt"
  }
}
layer {
  name: "conv1_1"
  type: "Convolution"
  bottom: "data"
  top: "conv1_1"
  param {
    lr_mult: 1
    decay_mult: 1
  }
  param {
    lr_mult: 2
    decay_mult: 0
  }
  convolution_param {
    num_output: 64
    pad: 1
    kernel_size: 3
    weight_filler {
      type: "xavier"
    }
    bias_filler {
      type: "constant"
      value: 0
    }
  }
}
layer {
  name: "relu1_1"
  type: "ReLU"
  bottom: "conv1_1"
  top: "conv1_1"
}
layer {
  name: "conv1_2"
  type: "Convolution"
  bottom: "conv1_1"
  top: "conv1_2"
  param {
    lr_mult: 1
    decay_mult: 1
  }
  param {
    lr_mult: 2
    decay_mult: 0
  }
  convolution_param {
    num_output: 64
    pad: 1
    kernel_size: 3
    weight_filler {
      type: "xavier"
    }
    bias_filler {
      type: "constant"
      value: 0
    }
  }
}
layer {
  name: "relu1_2"
  type: "ReLU"
  bottom: "conv1_2"
  top: "conv1_2"
}
layer {
  name: "pool1"
  type: "Pooling"
  bottom: "conv1_2"
  top: "pool1"
  pooling_param {
    pool: MAX
    kernel_size: 2
    stride: 2
  }
}
layer {
  name: "conv2_1"
  type: "Convolution"
  bottom: "pool1"
  top: "conv2_1"
  param {
    lr_mult: 1
    decay_mult: 1
  }
  param {
    lr_mult: 2
    decay_mult: 0
  }
  convolution_param {
    num_output: 128
    pad: 1
    kernel_size: 3
    weight_filler {
      type: "xavier"
    }
    bias_filler {
      type: "constant"
      value: 0
    }
  }
}
layer {
  name: "relu2_1"
  type: "ReLU"
  bottom: "conv2_1"
  top: "conv2_1"
}
layer {
  name: "conv2_2"
  type: "Convolution"
  bottom: "conv2_1"
  top: "conv2_2"
  param {
    lr_mult: 1
    decay_mult: 1
  }
  param {
    lr_mult: 2
    decay_mult: 0
  }
  convolution_param {
    num_output: 128
    pad: 1
    kernel_size: 3
    weight_filler {
      type: "xavier"
    }
    bias_filler {
      type: "constant"
      value: 0
    }
  }
}
layer {
  name: "relu2_2"
  type: "ReLU"
  bottom: "conv2_2"
  top: "conv2_2"
}
layer {
  name: "pool2"
  type: "Pooling"
  bottom: "conv2_2"
  top: "pool2"
  pooling_param {
    pool: MAX
    kernel_size: 2
    stride: 2
  }
}
layer {
  name: "conv3_1"
  type: "Convolution"
  bottom: "pool2"
  top: "conv3_1"
  param {
    lr_mult: 1
    decay_mult: 1
  }
  param {
    lr_mult: 2
    decay_mult: 0
  }
  convolution_param {
    num_output: 256
    pad: 1
    kernel_size: 3
    weight_filler {
      type: "xavier"
    }
    bias_filler {
      type: "constant"
      value: 0
    }
  }
}
layer {
  name: "relu3_1"
  type: "ReLU"
  bottom: "conv3_1"
  top: "conv3_1"
}
layer {
  name: "conv3_2"
  type: "Convolution"
  bottom: "conv3_1"
  top: "conv3_2"
  param {
    lr_mult: 1
    decay_mult: 1
  }
  param {
    lr_mult: 2
    decay_mult: 0
  }
  convolution_param {
    num_output: 256
    pad: 1
    kernel_size: 3
    weight_filler {
      type: "xavier"
    }
    bias_filler {
      type: "constant"
      value: 0
    }
  }
}
layer {
  name: "relu3_2"
  type: "ReLU"
  bottom: "conv3_2"
  top: "conv3_2"
}
layer {
  name: "conv3_3"
  type: "Convolution"
  bottom: "conv3_2"
  top: "conv3_3"
  param {
    lr_mult: 1
    decay_mult: 1
  }
  param {
    lr_mult: 2
    decay_mult: 0
  }
  convolution_param {
    num_output: 256
    pad: 1
    kernel_size: 3
    weight_filler {
      type: "xavier"
    }
    bias_filler {
      type: "constant"
      value: 0
    }
  }
}
layer {
  name: "relu3_3"
  type: "ReLU"
  bottom: "conv3_3"
  top: "conv3_3"
}
layer {
  name: "pool3"
  type: "Pooling"
  bottom: "conv3_3"
  top: "pool3"
  pooling_param {
    pool: MAX
    kernel_size: 2
    stride: 2
  }
}
layer {
  name: "conv4_1"
  type: "Convolution"
  bottom: "pool3"
  top: "conv4_1"
  param {
    lr_mult: 1
    decay_mult: 1
  }
  param {
    lr_mult: 2
    decay_mult: 0
  }
  convolution_param {
    num_output: 512
    pad: 1
    kernel_size: 3
    weight_filler {
      type: "xavier"
    }
    bias_filler {
      type: "constant"
      value: 0
    }
  }
}
layer {
  name: "relu4_1"
  type: "ReLU"
  bottom: "conv4_1"
  top: "conv4_1"
}
layer {
  name: "conv4_2"
  type: "Convolution"
  bottom: "conv4_1"
  top: "conv4_2"
  param {
    lr_mult: 1
    decay_mult: 1
  }
  param {
    lr_mult: 2
    decay_mult: 0
  }
  convolution_param {
    num_output: 512
    pad: 1
    kernel_size: 3
    weight_filler {
      type: "xavier"
    }
    bias_filler {
      type: "constant"
      value: 0
    }
  }
}
layer {
  name: "relu4_2"
  type: "ReLU"
  bottom: "conv4_2"
  top: "conv4_2"
}
layer {
  name: "conv4_3"
  type: "Convolution"
  bottom: "conv4_2"
  top: "conv4_3_ori"
  param {
    lr_mult: 1
    decay_mult: 1
  }
  param {
    lr_mult: 2
    decay_mult: 0
  }
  convolution_param {
    num_output: 512
    pad: 1
    kernel_size: 3
    weight_filler {
      type: "xavier"
    }
    bias_filler {
      type: "constant"
      value: 0
    }
  }
}
layer {
  name: "relu4_3"
  type: "ReLU"
  bottom: "conv4_3_ori"
  top: "conv4_3_ori"
}
layer {
  name: "seg_pool4"
  type: "Pooling"
  bottom: "conv4_3_ori"
  top: "seg_pool4"
  pooling_param {
    pool: MAX
    kernel_size: 3
    stride: 1
    pad: 1
  }
}
layer {
  name: "seg5_1"
  type: "Convolution"
  bottom: "seg_pool4"
  top: "seg5_1"
  param {
    lr_mult: 1
    decay_mult: 1
  }
  param {
    lr_mult: 2
    decay_mult: 0
  }
  convolution_param {
    num_output: 512
    pad: 2
    kernel_size: 3
    weight_filler {
      type: "xavier"
    }
    bias_filler {
      type: "constant"
      value: 0
    }
    dilation: 2
  }
}
layer {
  name: "seg_relu5_1"
  type: "ReLU"
  bottom: "seg5_1"
  top: "seg5_1"
}
layer {
  name: "seg5_2"
  type: "Convolution"
  bottom: "seg5_1"
  top: "seg5_2"
  param {
    lr_mult: 1
    decay_mult: 1
  }
  param {
    lr_mult: 2
    decay_mult: 0
  }
  convolution_param {
    num_output: 512
    pad: 2
    kernel_size: 3
    weight_filler {
      type: "xavier"
    }
    bias_filler {
      type: "constant"
      value: 0
    }
    dilation: 2
  }
}
layer {
  name: "seg_relu5_2"
  type: "ReLU"
  bottom: "seg5_2"
  top: "seg5_2"
}
layer {
  name: "seg5_3"
  type: "Convolution"
  bottom: "seg5_2"
  top: "seg5_3"
  param {
    lr_mult: 1
    decay_mult: 1
  }
  param {
    lr_mult: 2
    decay_mult: 0
  }
  convolution_param {
    num_output: 512
    pad: 2
    kernel_size: 3
    weight_filler {
      type: "xavier"
    }
    bias_filler {
      type: "constant"
      value: 0
    }
    dilation: 2
  }
}
layer {
  name: "seg_relu5_3"
  type: "ReLU"
  bottom: "seg5_3"
  top: "seg5_3"
}
layer {
  name: "seg_pool5"
  type: "Pooling"
  bottom: "seg5_3"
  top: "seg_pool5"
  pooling_param {
    pool: MAX
    kernel_size: 3
    stride: 1
    pad: 1
  }
}
layer {
  name: "seg6"
  type: "Convolution"
  bottom: "seg_pool5"
  top: "seg6"
  param {
    lr_mult: 1
    decay_mult: 1
  }
  param {
    lr_mult: 2
    decay_mult: 0
  }
  convolution_param {
    num_output: 1024
    pad: 4
    kernel_size: 3
    weight_filler {
      type: "xavier"
    }
    bias_filler {
      type: "constant"
      value: 0
    }
    dilation: 4
  }
}
layer {
  name: "seg_relu6"
  type: "ReLU"
  bottom: "seg6"
  top: "seg6"
}
layer {
  name: "seg_drop6"
  type: "Dropout"
  bottom: "seg6"
  top: "seg6"
  dropout_param {
    dropout_ratio: 0.5
  }
}
layer {
  name: "seg7"
  type: "Convolution"
  bottom: "seg6"
  top: "seg7"
  param {
    lr_mult: 1
    decay_mult: 1
  }
  param {
    lr_mult: 2
    decay_mult: 0
  }
  convolution_param {
    num_output: 1024
    kernel_size: 1
    weight_filler {
      type: "xavier"
    }
    bias_filler {
      type: "constant"
      value: 0
    }
  }
}
layer {
  name: "seg_relu7"
  type: "ReLU"
  bottom: "seg7"
  top: "seg7"
}
layer {
  name: "seg_to_det_conv"
  type: "Convolution"
  bottom: "seg7"
  top: "seg_to_det_conv"
  param {
    lr_mult: 1
    decay_mult: 1
  }
  param {
    lr_mult: 2
    decay_mult: 0
  }
  propagate_down: false
  convolution_param {
    num_output: 512
    pad: 0
    kernel_size: 1
    stride: 1
    weight_filler {
      type: "xavier"
    }
    bias_filler {
      type: "constant"
      value: 0
    }
  }
}
layer {
  name: "mult_conv4_3"
  type: "Eltwise"
  bottom: "conv4_3_ori"
  bottom: "seg_to_det_conv"
  top: "conv4_3_t"
  eltwise_param {
    operation: PROD
  }
}
layer {
  name: "conv4_3_s"
  type: "Pooling"
  bottom: "conv4_3_t"
  top: "conv4_3_s"
  pooling_param {
    pool: AVE
    global_pooling: true
  }
}
layer {
  name: "conv4_3_fc1"
  type: "Convolution"
  bottom: "conv4_3_s"
  top: "conv4_3_fc1"
  param {
    lr_mult: 1
    decay_mult: 1
  }
  param {
    lr_mult: 2
    decay_mult: 0
  }
  convolution_param {
    num_output: 128
    kernel_size: 1
…
I0306 16:11:57.147449  9434 net.cpp:395] conv9_2_relu -> conv9_2_t (in-place)
I0306 16:11:57.151253  9434 net.cpp:150] Setting up conv9_2_relu
I0306 16:11:57.151265  9434 net.cpp:157] Top shape: 8 256 2 2 (8192)
I0306 16:11:57.151270  9434 net.cpp:165] Memory required for data: 7269425184
I0306 16:11:57.151275  9434 layer_factory.hpp:77] Creating layer conv9_2_t_conv9_2_relu_0_split
I0306 16:11:57.151299  9434 net.cpp:100] Creating Layer conv9_2_t_conv9_2_relu_0_split
I0306 16:11:57.151304  9434 net.cpp:434] conv9_2_t_conv9_2_relu_0_split <- conv9_2_t
I0306 16:11:57.151314  9434 net.cpp:408] conv9_2_t_conv9_2_relu_0_split -> conv9_2_t_conv9_2_relu_0_split_0
I0306 16:11:57.151324  9434 net.cpp:408] conv9_2_t_conv9_2_relu_0_split -> conv9_2_t_conv9_2_relu_0_split_1
I0306 16:11:57.151379  9434 net.cpp:150] Setting up conv9_2_t_conv9_2_relu_0_split
I0306 16:11:57.151387  9434 net.cpp:157] Top shape: 8 256 2 2 (8192)
I0306 16:11:57.151393  9434 net.cpp:157] Top shape: 8 256 2 2 (8192)
I0306 16:11:57.151398  9434 net.cpp:165] Memory required for data: 7269490720
I0306 16:11:57.151406  9434 layer_factory.hpp:77] Creating layer conv9_2_s
I0306 16:11:57.151413  9434 net.cpp:100] Creating Layer conv9_2_s
I0306 16:11:57.151418  9434 net.cpp:434] conv9_2_s <- conv9_2_t_conv9_2_relu_0_split_0
I0306 16:11:57.151427  9434 net.cpp:408] conv9_2_s -> conv9_2_s
I0306 16:11:57.151620  9434 net.cpp:150] Setting up conv9_2_s
I0306 16:11:57.151633  9434 net.cpp:157] Top shape: 8 256 1 1 (2048)
I0306 16:11:57.151638  9434 net.cpp:165] Memory required for data: 7269498912
I0306 16:11:57.151643  9434 layer_factory.hpp:77] Creating layer conv9_2_fc1
I0306 16:11:57.151652  9434 net.cpp:100] Creating Layer conv9_2_fc1
I0306 16:11:57.151659  9434 net.cpp:434] conv9_2_fc1 <- conv9_2_s
I0306 16:11:57.151669  9434 net.cpp:408] conv9_2_fc1 -> conv9_2_fc1
I0306 16:11:57.152992  9434 net.cpp:150] Setting up conv9_2_fc1
I0306 16:11:57.153004  9434 net.cpp:157] Top shape: 8 64 1 1 (512)
I0306 16:11:57.153008  9434 net.cpp:165] Memory required for data: 7269500960
I0306 16:11:57.153017  9434 layer_factory.hpp:77] Creating layer conv9_2_relu
I0306 16:11:57.153024  9434 net.cpp:100] Creating Layer conv9_2_relu
I0306 16:11:57.153033  9434 net.cpp:434] conv9_2_relu <- conv9_2_fc1
I0306 16:11:57.153043  9434 net.cpp:395] conv9_2_relu -> conv9_2_fc1 (in-place)
I0306 16:11:57.153219  9434 net.cpp:150] Setting up conv9_2_relu
I0306 16:11:57.153229  9434 net.cpp:157] Top shape: 8 64 1 1 (512)
I0306 16:11:57.153235  9434 net.cpp:165] Memory required for data: 7269503008
I0306 16:11:57.153244  9434 layer_factory.hpp:77] Creating layer conv9_2_fc2
I0306 16:11:57.153256  9434 net.cpp:100] Creating Layer conv9_2_fc2
I0306 16:11:57.153264  9434 net.cpp:434] conv9_2_fc2 <- conv9_2_fc1
I0306 16:11:57.153272  9434 net.cpp:408] conv9_2_fc2 -> conv9_2_fc2
I0306 16:11:57.154999  9434 net.cpp:150] Setting up conv9_2_fc2
I0306 16:11:57.155011  9434 net.cpp:157] Top shape: 8 256 1 1 (2048)
I0306 16:11:57.155015  9434 net.cpp:165] Memory required for data: 7269511200
I0306 16:11:57.155022  9434 layer_factory.hpp:77] Creating layer conv9_2_sig
I0306 16:11:57.155030  9434 net.cpp:100] Creating Layer conv9_2_sig
I0306 16:11:57.155037  9434 net.cpp:434] conv9_2_sig <- conv9_2_fc2
I0306 16:11:57.155050  9434 net.cpp:395] conv9_2_sig -> conv9_2_fc2 (in-place)
I0306 16:11:57.155232  9434 net.cpp:150] Setting up conv9_2_sig
I0306 16:11:57.155242  9434 net.cpp:157] Top shape: 8 256 1 1 (2048)
I0306 16:11:57.155247  9434 net.cpp:165] Memory required for data: 7269519392
I0306 16:11:57.155251  9434 layer_factory.hpp:77] Creating layer conv9_2_reshape
I0306 16:11:57.155261  9434 net.cpp:100] Creating Layer conv9_2_reshape
I0306 16:11:57.155269  9434 net.cpp:434] conv9_2_reshape <- conv9_2_fc2
I0306 16:11:57.155277  9434 net.cpp:408] conv9_2_reshape -> conv9_2_reshape
I0306 16:11:57.155318  9434 net.cpp:150] Setting up conv9_2_reshape
I0306 16:11:57.155328  9434 net.cpp:157] Top shape: 8 256 (2048)
I0306 16:11:57.155330  9434 net.cpp:165] Memory required for data: 7269527584
I0306 16:11:57.155335  9434 layer_factory.hpp:77] Creating layer conv9_2_scale
I0306 16:11:57.155344  9434 net.cpp:100] Creating Layer conv9_2_scale
I0306 16:11:57.155349  9434 net.cpp:434] conv9_2_scale <- conv9_2_t_conv9_2_relu_0_split_1
I0306 16:11:57.155359  9434 net.cpp:434] conv9_2_scale <- conv9_2_reshape
I0306 16:11:57.155365  9434 net.cpp:408] conv9_2_scale -> conv9_2
I0306 16:11:57.155468  9434 net.cpp:150] Setting up conv9_2_scale
I0306 16:11:57.155479  9434 net.cpp:157] Top shape: 8 256 2 2 (8192)
I0306 16:11:57.155485  9434 net.cpp:165] Memory required for data: 7269560352
I0306 16:11:57.155494  9434 layer_factory.hpp:77] Creating layer conv9_2_conv9_2_scale_0_split
I0306 16:11:57.155503  9434 net.cpp:100] Creating Layer conv9_2_conv9_2_scale_0_split
I0306 16:11:57.155508  9434 net.cpp:434] conv9_2_conv9_2_scale_0_split <- conv9_2
I0306 16:11:57.155520  9434 net.cpp:408] conv9_2_conv9_2_scale_0_split -> conv9_2_conv9_2_scale_0_split_0
I0306 16:11:57.155530  9434 net.cpp:408] conv9_2_conv9_2_scale_0_split -> conv9_2_conv9_2_scale_0_split_1
I0306 16:11:57.155544  9434 net.cpp:408] conv9_2_conv9_2_scale_0_split -> conv9_2_conv9_2_scale_0_split_2
I0306 16:11:57.155551  9434 net.cpp:408] conv9_2_conv9_2_scale_0_split -> conv9_2_conv9_2_scale_0_split_3
I0306 16:11:57.155632  9434 net.cpp:150] Setting up conv9_2_conv9_2_scale_0_split
I0306 16:11:57.155642  9434 net.cpp:157] Top shape: 8 256 2 2 (8192)
I0306 16:11:57.155649  9434 net.cpp:157] Top shape: 8 256 2 2 (8192)
I0306 16:11:57.155654  9434 net.cpp:157] Top shape: 8 256 2 2 (8192)
I0306 16:11:57.155663  9434 net.cpp:157] Top shape: 8 256 2 2 (8192)
I0306 16:11:57.155668  9434 net.cpp:165] Memory required for data: 7269691424
I0306 16:11:57.155673  9434 layer_factory.hpp:77] Creating layer conv10_1_new
I0306 16:11:57.155684  9434 net.cpp:100] Creating Layer conv10_1_new
I0306 16:11:57.155694  9434 net.cpp:434] conv10_1_new <- conv9_2_conv9_2_scale_0_split_0
I0306 16:11:57.155701  9434 net.cpp:408] conv10_1_new -> conv10_1
I0306 16:11:57.157408  9434 net.cpp:150] Setting up conv10_1_new
I0306 16:11:57.157424  9434 net.cpp:157] Top shape: 8 128 2 2 (4096)
I0306 16:11:57.157430  9434 net.cpp:165] Memory required for data: 7269707808
I0306 16:11:57.157438  9434 layer_factory.hpp:77] Creating layer conv10_1_relu
I0306 16:11:57.157449  9434 net.cpp:100] Creating Layer conv10_1_relu
I0306 16:11:57.157459  9434 net.cpp:434] conv10_1_relu <- conv10_1
I0306 16:11:57.157474  9434 net.cpp:395] conv10_1_relu -> conv10_1 (in-place)
I0306 16:11:57.158123  9434 net.cpp:150] Setting up conv10_1_relu
I0306 16:11:57.158138  9434 net.cpp:157] Top shape: 8 128 2 2 (4096)
I0306 16:11:57.158143  9434 net.cpp:165] Memory required for data: 7269724192
I0306 16:11:57.158149  9434 layer_factory.hpp:77] Creating layer conv10_2_new
I0306 16:11:57.158165  9434 net.cpp:100] Creating Layer conv10_2_new
I0306 16:11:57.158176  9434 net.cpp:434] conv10_2_new <- conv10_1
I0306 16:11:57.158195  9434 net.cpp:408] conv10_2_new -> conv10_2_t
I0306 16:11:57.162569  9434 net.cpp:150] Setting up conv10_2_new
I0306 16:11:57.162582  9434 net.cpp:157] Top shape: 8 256 1 1 (2048)
I0306 16:11:57.162586  9434 net.cpp:165] Memory required for data: 7269732384
I0306 16:11:57.162595  9434 layer_factory.hpp:77] Creating layer conv10_2_relu
I0306 16:11:57.162607  9434 net.cpp:100] Creating Layer conv10_2_relu
I0306 16:11:57.162616  9434 net.cpp:434] conv10_2_relu <- conv10_2_t
I0306 16:11:57.162629  9434 net.cpp:395] conv10_2_relu -> conv10_2_t (in-place)
I0306 16:11:57.162842  9434 net.cpp:150] Setting up conv10_2_relu
I0306 16:11:57.162852  9434 net.cpp:157] Top shape: 8 256 1 1 (2048)
I0306 16:11:57.162856  9434 net.cpp:165] Memory required for data: 7269740576
I0306 16:11:57.162866  9434 layer_factory.hpp:77] Creating layer conv10_2_t_conv10_2_relu_0_split
I0306 16:11:57.162878  9434 net.cpp:100] Creating Layer conv10_2_t_conv10_2_relu_0_split
I0306 16:11:57.162885  9434 net.cpp:434] conv10_2_t_conv10_2_relu_0_split <- conv10_2_t
I0306 16:11:57.162899  9434 net.cpp:408] conv10_2_t_conv10_2_relu_0_split -> conv10_2_t_conv10_2_relu_0_split_0
I0306 16:11:57.162912  9434 net.cpp:408] conv10_2_t_conv10_2_relu_0_split -> conv10_2_t_conv10_2_relu_0_split_1
I0306 16:11:57.162983  9434 net.cpp:150] Setting up conv10_2_t_conv10_2_relu_0_split
I0306 16:11:57.162992  9434 net.cpp:157] Top shape: 8 256 1 1 (2048)
I0306 16:11:57.162997  9434 net.cpp:157] Top shape: 8 256 1 1 (2048)
I0306 16:11:57.163022  9434 net.cpp:165] Memory required for data: 7269756960
I0306 16:11:57.163028  9434 layer_factory.hpp:77] Creating layer conv10_2_s
I0306 16:11:57.163053  9434 net.cpp:100] Creating Layer conv10_2_s
I0306 16:11:57.163064  9434 net.cpp:434] conv10_2_s <- conv10_2_t_conv10_2_relu_0_split_0
I0306 16:11:57.163070  9434 net.cpp:408] conv10_2_s -> conv10_2_s
I0306 16:11:57.163275  9434 net.cpp:150] Setting up conv10_2_s
I0306 16:11:57.163285  9434 net.cpp:157] Top shape: 8 256 1 1 (2048)
I0306 16:11:57.163288  9434 net.cpp:165] Memory required for data: 7269765152
I0306 16:11:57.163292  9434 layer_factory.hpp:77] Creating layer conv10_2_fc1
I0306 16:11:57.163305  9434 net.cpp:100] Creating Layer conv10_2_fc1
I0306 16:11:57.163313  9434 net.cpp:434] conv10_2_fc1 <- conv10_2_s
I0306 16:11:57.163322  9434 net.cpp:408] conv10_2_fc1 -> conv10_2_fc1
I0306 16:11:57.164675  9434 net.cpp:150] Setting up conv10_2_fc1
I0306 16:11:57.164687  9434 net.cpp:157] Top shape: 8 64 1 1 (512)
I0306 16:11:57.164691  9434 net.cpp:165] Memory required for data: 7269767200
I0306 16:11:57.164698  9434 layer_factory.hpp:77] Creating layer conv10_2_relu
I0306 16:11:57.164712  9434 net.cpp:100] Creating Layer conv10_2_relu
I0306 16:11:57.164719  9434 net.cpp:434] conv10_2_relu <- conv10_2_fc1
I0306 16:11:57.164736  9434 net.cpp:395] conv10_2_relu -> conv10_2_fc1 (in-place)
I0306 16:11:57.165333  9434 net.cpp:150] Setting up conv10_2_relu
I0306 16:11:57.165345  9434 net.cpp:157] Top shape: 8 64 1 1 (512)
I0306 16:11:57.165349  9434 net.cpp:165] Memory required for data: 7269769248
I0306 16:11:57.165354  9434 layer_factory.hpp:77] Creating layer conv10_2_fc2
I0306 16:11:57.165370  9434 net.cpp:100] Creating Layer conv10_2_fc2
I0306 16:11:57.165380  9434 net.cpp:434] conv10_2_fc2 <- conv10_2_fc1
I0306 16:11:57.165395  9434 net.cpp:408] conv10_2_fc2 -> conv10_2_fc2
I0306 16:11:57.166760  9434 net.cpp:150] Setting up conv10_2_fc2
I0306 16:11:57.166774  9434 net.cpp:157] Top shape: 8 256 1 1 (2048)
I0306 16:11:57.166777  9434 net.cpp:165] Memory required for data: 7269777440
I0306 16:11:57.166785  9434 layer_factory.hpp:77] Creating layer conv10_2_sig
I0306 16:11:57.166800  9434 net.cpp:100] Creating Layer conv10_2_sig
I0306 16:11:57.166810  9434 net.cpp:434] conv10_2_sig <- conv10_2_fc2
I0306 16:11:57.166827  9434 net.cpp:395] conv10_2_sig -> conv10_2_fc2 (in-place)
I0306 16:11:57.167021  9434 net.cpp:150] Setting up conv10_2_sig
I0306 16:11:57.167029  9434 net.cpp:157] Top shape: 8 256 1 1 (2048)
I0306 16:11:57.167033  9434 net.cpp:165] Memory required for data: 7269785632
I0306 16:11:57.167038  9434 layer_factory.hpp:77] Creating layer conv10_2_reshape
I0306 16:11:57.167053  9434 net.cpp:100] Creating Layer conv10_2_reshape
I0306 16:11:57.167058  9434 net.cpp:434] conv10_2_reshape <- conv10_2_fc2
I0306 16:11:57.167074  9434 net.cpp:408] conv10_2_reshape -> conv10_2_reshape
I0306 16:11:57.167119  9434 net.cpp:150] Setting up conv10_2_reshape
I0306 16:11:57.167126  9434 net.cpp:157] Top shape: 8 256 (2048)
I0306 16:11:57.167130  9434 net.cpp:165] Memory required for data: 7269793824
I0306 16:11:57.167136  9434 layer_factory.hpp:77] Creating layer conv10_2_scale
I0306 16:11:57.167155  9434 net.cpp:100] Creating Layer conv10_2_scale
I0306 16:11:57.167170  9434 net.cpp:434] conv10_2_scale <- conv10_2_t_conv10_2_relu_0_split_1
I0306 16:11:57.167183  9434 net.cpp:434] conv10_2_scale <- conv10_2_reshape
I0306 16:11:57.167201  9434 net.cpp:408] conv10_2_scale -> conv10_2
I0306 16:11:57.167310  9434 net.cpp:150] Setting up conv10_2_scale
I0306 16:11:57.167318  9434 net.cpp:157] Top shape: 8 256 1 1 (2048)
I0306 16:11:57.167321  9434 net.cpp:165] Memory required for data: 7269802016
I0306 16:11:57.167325  9434 layer_factory.hpp:77] Creating layer conv10_2_conv10_2_scale_0_split
I0306 16:11:57.167338  9434 net.cpp:100] Creating Layer conv10_2_conv10_2_scale_0_split
I0306 16:11:57.167343  9434 net.cpp:434] conv10_2_conv10_2_scale_0_split <- conv10_2
I0306 16:11:57.167362  9434 net.cpp:408] conv10_2_conv10_2_scale_0_split -> conv10_2_conv10_2_scale_0_split_0
I0306 16:11:57.167385  9434 net.cpp:408] conv10_2_conv10_2_scale_0_split -> conv10_2_conv10_2_scale_0_split_1
I0306 16:11:57.167392  9434 net.cpp:408] conv10_2_conv10_2_scale_0_split -> conv10_2_conv10_2_scale_0_split_2
I0306 16:11:57.167465  9434 net.cpp:150] Setting up conv10_2_conv10_2_scale_0_split
I0306 16:11:57.167474  9434 net.cpp:157] Top shape: 8 256 1 1 (2048)
I0306 16:11:57.167477  9434 net.cpp:157] Top shape: 8 256 1 1 (2048)
I0306 16:11:57.167484  9434 net.cpp:157] Top shape: 8 256 1 1 (2048)
I0306 16:11:57.167495  9434 net.cpp:165] Memory required for data: 7269826592
I0306 16:11:57.167501  9434 layer_factory.hpp:77] Creating layer conv4_3_norm_new
I0306 16:11:57.167522  9434 net.cpp:100] Creating Layer conv4_3_norm_new
I0306 16:11:57.167536  9434 net.cpp:434] conv4_3_norm_new <- conv4_3_conv4_3_scale_0_split_1
I0306 16:11:57.167551  9434 net.cpp:408] conv4_3_norm_new -> conv4_3_norm
I0306 16:11:57.167752  9434 net.cpp:150] Setting up conv4_3_norm_new
I0306 16:11:57.167759  9434 net.cpp:157] Top shape: 8 512 64 64 (16777216)
I0306 16:11:57.167763  9434 net.cpp:165] Memory required for data: 7336935456
I0306 16:11:57.167773  9434 layer_factory.hpp:77] Creating layer conv4_3_norm_conv4_3_norm_new_0_split
I0306 16:11:57.167785  9434 net.cpp:100] Creating Layer conv4_3_norm_conv4_3_norm_new_0_split
I0306 16:11:57.167793  9434 net.cpp:434] conv4_3_norm_conv4_3_norm_new_0_split <- conv4_3_norm
I0306 16:11:57.167804  9434 net.cpp:408] conv4_3_norm_conv4_3_norm_new_0_split -> conv4_3_norm_conv4_3_norm_new_0_split_0
I0306 16:11:57.167814  9434 net.cpp:408] conv4_3_norm_conv4_3_norm_new_0_split -> conv4_3_norm_conv4_3_norm_new_0_split_1
I0306 16:11:57.167831  9434 net.cpp:408] conv4_3_norm_conv4_3_norm_new_0_split -> conv4_3_norm_conv4_3_norm_new_0_split_2
I0306 16:11:57.167917  9434 net.cpp:150] Setting up conv4_3_norm_conv4_3_norm_new_0_split
I0306 16:11:57.167924  9434 net.cpp:157] Top shape: 8 512 64 64 (16777216)
I0306 16:11:57.167928  9434 net.cpp:157] Top shape: 8 512 64 64 (16777216)
I0306 16:11:57.167934  9434 net.cpp:157] Top shape: 8 512 64 64 (16777216)
I0306 16:11:57.167943  9434 net.cpp:165] Memory required for data: 7538262048
I0306 16:11:57.167948  9434 layer_factory.hpp:77] Creating layer conv4_3_norm_mbox_loc_new
I0306 16:11:57.167969  9434 net.cpp:100] Creating Layer conv4_3_norm_mbox_loc_new
I0306 16:11:57.167981  9434 net.cpp:434] conv4_3_norm_mbox_loc_new <- conv4_3_norm_conv4_3_norm_new_0_split_0
I0306 16:11:57.167995  9434 net.cpp:408] conv4_3_norm_mbox_loc_new -> conv4_3_norm_mbox_loc
I0306 16:11:57.175221  9434 net.cpp:150] Setting up conv4_3_norm_mbox_loc_new
I0306 16:11:57.175233  9434 net.cpp:157] Top shape: 8 16 64 64 (524288)
I0306 16:11:57.175237  9434 net.cpp:165] Memory required for data: 7540359200
I0306 16:11:57.175245  9434 layer_factory.hpp:77] Creating layer conv4_3_norm_mbox_loc_perm_new
I0306 16:11:57.175256  9434 net.cpp:100] Creating Layer conv4_3_norm_mbox_loc_perm_new
I0306 16:11:57.175264  9434 net.cpp:434] conv4_3_norm_mbox_loc_perm_new <- conv4_3_norm_mbox_loc
I0306 16:11:57.175274  9434 net.cpp:408] conv4_3_norm_mbox_loc_perm_new -> conv4_3_norm_mbox_loc_perm
I0306 16:11:57.175431  9434 net.cpp:150] Setting up conv4_3_norm_mbox_loc_perm_new
I0306 16:11:57.175438  9434 net.cpp:157] Top shape: 8 64 64 16 (524288)
I0306 16:11:57.175442  9434 net.cpp:165] Memory required for data: 7542456352
I0306 16:11:57.175448  9434 layer_factory.hpp:77] Creating layer conv4_3_norm_mbox_loc_flat_new
I0306 16:11:57.175460  9434 net.cpp:100] Creating Layer conv4_3_norm_mbox_loc_flat_new
I0306 16:11:57.175478  9434 net.cpp:434] conv4_3_norm_mbox_loc_flat_new <- conv4_3_norm_mbox_loc_perm
I0306 16:11:57.175492  9434 net.cpp:408] conv4_3_norm_mbox_loc_flat_new -> conv4_3_norm_mbox_loc_flat
I0306 16:11:57.175537  9434 net.cpp:150] Setting up conv4_3_norm_mbox_loc_flat_new
I0306 16:11:57.175545  9434 net.cpp:157] Top shape: 8 65536 (524288)
I0306 16:11:57.175551  9434 net.cpp:165] Memory required for data: 7544553504
I0306 16:11:57.175555  9434 layer_factory.hpp:77] Creating layer conv4_3_norm_mbox_conf_new
I0306 16:11:57.175588  9434 net.cpp:100] Creating Layer conv4_3_norm_mbox_conf_new
I0306 16:11:57.175595  9434 net.cpp:434] conv4_3_norm_mbox_conf_new <- conv4_3_norm_conv4_3_norm_new_0_split_1
I0306 16:11:57.175606  9434 net.cpp:408] conv4_3_norm_mbox_conf_new -> conv4_3_norm_mbox_conf
I0306 16:11:57.184739  9434 net.cpp:150] Setting up conv4_3_norm_mbox_conf_new
I0306 16:11:57.184754  9434 net.cpp:157] Top shape: 8 324 64 64 (10616832)
I0306 16:11:57.184758  9434 net.cpp:165] Memory required for data: 7587020832
I0306 16:11:57.184765  9434 layer_factory.hpp:77] Creating layer conv4_3_norm_mbox_conf_perm_new
I0306 16:11:57.184775  9434 net.cpp:100] Creating Layer conv4_3_norm_mbox_conf_perm_new
I0306 16:11:57.184785  9434 net.cpp:434] conv4_3_norm_mbox_conf_perm_new <- conv4_3_norm_mbox_conf
I0306 16:11:57.184798  9434 net.cpp:408] conv4_3_norm_mbox_conf_perm_new -> conv4_3_norm_mbox_conf_perm
I0306 16:11:57.184950  9434 net.cpp:150] Setting up conv4_3_norm_mbox_conf_perm_new
I0306 16:11:57.184958  9434 net.cpp:157] Top shape: 8 64 64 324 (10616832)
I0306 16:11:57.184962  9434 net.cpp:165] Memory required for data: 7629488160
I0306 16:11:57.184967  9434 layer_factory.hpp:77] Creating layer conv4_3_norm_mbox_conf_flat_new
I0306 16:11:57.184979  9434 net.cpp:100] Creating Layer conv4_3_norm_mbox_conf_flat_new
I0306 16:11:57.184989  9434 net.cpp:434] conv4_3_norm_mbox_conf_flat_new <- conv4_3_norm_mbox_conf_perm
I0306 16:11:57.185003  9434 net.cpp:408] conv4_3_norm_mbox_conf_flat_new -> conv4_3_norm_mbox_conf_flat
I0306 16:11:57.185042  9434 net.cpp:150] Setting up conv4_3_norm_mbox_conf_flat_new
I0306 16:11:57.185050  9434 net.cpp:157] Top shape: 8 1327104 (10616832)
I0306 16:11:57.185053  9434 net.cpp:165] Memory required for data: 7671955488
I0306 16:11:57.185058  9434 layer_factory.hpp:77] Creating layer conv4_3_norm_mbox_priorbox_new
I0306 16:11:57.185070  9434 net.cpp:100] Creating Layer conv4_3_norm_mbox_priorbox_new
I0306 16:11:57.185079  9434 net.cpp:434] conv4_3_norm_mbox_priorbox_new <- conv4_3_norm_conv4_3_norm_new_0_split_2
I0306 16:11:57.185094  9434 net.cpp:434] conv4_3_norm_mbox_priorbox_new <- data_data_0_split_1
I0306 16:11:57.185114  9434 net.cpp:408] conv4_3_norm_mbox_priorbox_new -> conv4_3_norm_mbox_priorbox
I0306 16:11:57.185171  9434 net.cpp:150] Setting up conv4_3_norm_mbox_priorbox_new
I0306 16:11:57.185179  9434 net.cpp:157] Top shape: 1 2 65536 (131072)
I0306 16:11:57.185184  9434 net.cpp:165] Memory required for data: 7672479776
I0306 16:11:57.185189  9434 layer_factory.hpp:77] Creating layer fc7_mbox_loc_new
I0306 16:11:57.185210  9434 net.cpp:100] Creating Layer fc7_mbox_loc_new
I0306 16:11:57.185225  9434 net.cpp:434] fc7_mbox_loc_new <- fc7_fc7_scale_0_split_1
I0306 16:11:57.185233  9434 net.cpp:408] fc7_mbox_loc_new -> fc7_mbox_loc
I0306 16:11:57.187948  9434 net.cpp:150] Setting up fc7_mbox_loc_new
I0306 16:11:57.187963  9434 net.cpp:157] Top shape: 8 24 32 32 (196608)
I0306 16:11:57.187968  9434 net.cpp:165] Memory required for data: 7673266208
I0306 16:11:57.187973  9434 layer_factory.hpp:77] Creating layer fc7_mbox_loc_perm_new
I0306 16:11:57.187983  9434 net.cpp:100] Creating Layer fc7_mbox_loc_perm_new
I0306 16:11:57.187994  9434 net.cpp:434] fc7_mbox_loc_perm_new <- fc7_mbox_loc
I0306 16:11:57.188005  9434 net.cpp:408] fc7_mbox_loc_perm_new -> fc7_mbox_loc_perm
I0306 16:11:57.188169  9434 net.cpp:150] Setting up fc7_mbox_loc_perm_new
I0306 16:11:57.188181  9434 net.cpp:157] Top shape: 8 32 32 24 (196608)
I0306 16:11:57.188189  9434 net.cpp:165] Memory required for data: 7674052640
I0306 16:11:57.188197  9434 layer_factory.hpp:77] Creating layer fc7_mbox_loc_flat_new
I0306 16:11:57.188206  9434 net.cpp:100] Creating Layer fc7_mbox_loc_flat_new
I0306 16:11:57.188215  9434 net.cpp:434] fc7_mbox_loc_flat_new <- fc7_mbox_loc_perm
I0306 16:11:57.188231  9434 net.cpp:408] fc7_mbox_loc_flat_new -> fc7_mbox_loc_flat
I0306 16:11:57.188287  9434 net.cpp:150] Setting up fc7_mbox_loc_flat_new
I0306 16:11:57.188297  9434 net.cpp:157] Top shape: 8 24576 (196608)
I0306 16:11:57.188300  9434 net.cpp:165] Memory required for data: 7674839072
I0306 16:11:57.188328  9434 layer_factory.hpp:77] Creating layer fc7_mbox_conf_new
I0306 16:11:57.188350  9434 net.cpp:100] Creating Layer fc7_mbox_conf_new
I0306 16:11:57.188361  9434 net.cpp:434] fc7_mbox_conf_new <- fc7_fc7_scale_0_split_2
I0306 16:11:57.188374  9434 net.cpp:408] fc7_mbox_conf_new -> fc7_mbox_conf
I0306 16:11:57.212802  9434 net.cpp:150] Setting up fc7_mbox_conf_new
I0306 16:11:57.212824  9434 net.cpp:157] Top shape: 8 486 32 32 (3981312)
I0306 16:11:57.212828  9434 net.cpp:165] Memory required for data: 7690764320
I0306 16:11:57.212839  9434 layer_factory.hpp:77] Creating layer fc7_mbox_conf_perm_new
I0306 16:11:57.212859  9434 net.cpp:100] Creating Layer fc7_mbox_conf_perm_new
I0306 16:11:57.212872  9434 net.cpp:434] fc7_mbox_conf_perm_new <- fc7_mbox_conf
I0306 16:11:57.212888  9434 net.cpp:408] fc7_mbox_conf_perm_new -> fc7_mbox_conf_perm
I0306 16:11:57.213057  9434 net.cpp:150] Setting up fc7_mbox_conf_perm_new
I0306 16:11:57.213065  9434 net.cpp:157] Top shape: 8 32 32 486 (3981312)
I0306 16:11:57.213069  9434 net.cpp:165] Memory required for data: 7706689568
I0306 16:11:57.213076  9434 layer_factory.hpp:77] Creating layer fc7_mbox_conf_flat_new
I0306 16:11:57.213091  9434 net.cpp:100] Creating Layer fc7_mbox_conf_flat_new
I0306 16:11:57.213100  9434 net.cpp:434] fc7_mbox_conf_flat_new <- fc7_mbox_conf_perm
I0306 16:11:57.213109  9434 net.cpp:408] fc7_mbox_conf_flat_new -> fc7_mbox_conf_flat
I0306 16:11:57.213165  9434 net.cpp:150] Setting up fc7_mbox_conf_flat_new
I0306 16:11:57.213177  9434 net.cpp:157] Top shape: 8 497664 (3981312)
I0306 16:11:57.213181  9434 net.cpp:165] Memory required for data: 7722614816
I0306 16:11:57.213187  9434 layer_factory.hpp:77] Creating layer fc7_mbox_priorbox_new
I0306 16:11:57.213198  9434 net.cpp:100] Creating Layer fc7_mbox_priorbox_new
I0306 16:11:57.213212  9434 net.cpp:434] fc7_mbox_priorbox_new <- fc7_fc7_scale_0_split_3
I0306 16:11:57.213227  9434 net.cpp:434] fc7_mbox_priorbox_new <- data_data_0_split_2
I0306 16:11:57.213234  9434 net.cpp:408] fc7_mbox_priorbox_new -> fc7_mbox_priorbox
I0306 16:11:57.213294  9434 net.cpp:150] Setting up fc7_mbox_priorbox_new
I0306 16:11:57.213304  9434 net.cpp:157] Top shape: 1 2 24576 (49152)
I0306 16:11:57.213311  9434 net.cpp:165] Memory required for data: 7722811424
I0306 16:11:57.213317  9434 layer_factory.hpp:77] Creating layer conv6_2_mbox_loc_new
I0306 16:11:57.213333  9434 net.cpp:100] Creating Layer conv6_2_mbox_loc_new
I0306 16:11:57.213346  9434 net.cpp:434] conv6_2_mbox_loc_new <- conv6_2_conv6_2_scale_0_split_1
I0306 16:11:57.213359  9434 net.cpp:408] conv6_2_mbox_loc_new -> conv6_2_mbox_loc
I0306 16:11:57.215566  9434 net.cpp:150] Setting up conv6_2_mbox_loc_new
I0306 16:11:57.215579  9434 net.cpp:157] Top shape: 8 24 16 16 (49152)
I0306 16:11:57.215584  9434 net.cpp:165] Memory required for data: 7723008032
I0306 16:11:57.215593  9434 layer_factory.hpp:77] Creating layer conv6_2_mbox_loc_perm_new
I0306 16:11:57.215608  9434 net.cpp:100] Creating Layer conv6_2_mbox_loc_perm_new
I0306 16:11:57.215626  9434 net.cpp:434] conv6_2_mbox_loc_perm_new <- conv6_2_mbox_loc
I0306 16:11:57.215637  9434 net.cpp:408] conv6_2_mbox_loc_perm_new -> conv6_2_mbox_loc_perm
I0306 16:11:57.215801  9434 net.cpp:150] Setting up conv6_2_mbox_loc_perm_new
I0306 16:11:57.215809  9434 net.cpp:157] Top shape: 8 16 16 24 (49152)
I0306 16:11:57.215814  9434 net.cpp:165] Memory required for data: 7723204640
I0306 16:11:57.215819  9434 layer_factory.hpp:77] Creating layer conv6_2_mbox_loc_flat_new
I0306 16:11:57.215827  9434 net.cpp:100] Creating Layer conv6_2_mbox_loc_flat_new
I0306 16:11:57.215840  9434 net.cpp:434] conv6_2_mbox_loc_flat_new <- conv6_2_mbox_loc_perm
I0306 16:11:57.215848  9434 net.cpp:408] conv6_2_mbox_loc_flat_new -> conv6_2_mbox_loc_flat
I0306 16:11:57.215893  9434 net.cpp:150] Setting up conv6_2_mbox_loc_flat_new
I0306 16:11:57.215901  9434 net.cpp:157] Top shape: 8 6144 (49152)
I0306 16:11:57.215905  9434 net.cpp:165] Memory required for data: 7723401248
I0306 16:11:57.215934  9434 layer_factory.hpp:77] Creating layer conv6_2_mbox_conf_new
I0306 16:11:57.215946  9434 net.cpp:100] Creating Layer conv6_2_mbox_conf_new
I0306 16:11:57.215951  9434 net.cpp:434] conv6_2_mbox_conf_new <- conv6_2_conv6_2_scale_0_split_2
I0306 16:11:57.215961  9434 net.cpp:408] conv6_2_mbox_conf_new -> conv6_2_mbox_conf
I0306 16:11:57.228724  9434 net.cpp:150] Setting up conv6_2_mbox_conf_new
I0306 16:11:57.228739  9434 net.cpp:157] Top shape: 8 486 16 16 (995328)
I0306 16:11:57.228742  9434 net.cpp:165] Memory required for data: 7727382560
I0306 16:11:57.228749  9434 layer_factory.hpp:77] Creating layer conv6_2_mbox_conf_perm_new
I0306 16:11:57.228761  9434 net.cpp:100] Creating Layer conv6_2_mbox_conf_perm_new
I0306 16:11:57.228771  9434 net.cpp:434] conv6_2_mbox_conf_perm_new <- conv6_2_mbox_conf
I0306 16:11:57.228782  9434 net.cpp:408] conv6_2_mbox_conf_perm_new -> conv6_2_mbox_conf_perm
I0306 16:11:57.228938  9434 net.cpp:150] Setting up conv6_2_mbox_conf_perm_new
I0306 16:11:57.228946  9434 net.cpp:157] Top shape: 8 16 16 486 (995328)
I0306 16:11:57.228950  9434 net.cpp:165] Memory required for data: 7731363872
I0306 16:11:57.228955  9434 layer_factory.hpp:77] Creating layer conv6_2_mbox_conf_flat_new
I0306 16:11:57.228963  9434 net.cpp:100] Creating Layer conv6_2_mbox_conf_flat_new
I0306 16:11:57.228972  9434 net.cpp:434] conv6_2_mbox_conf_flat_new <- conv6_2_mbox_conf_perm
I0306 16:11:57.228987  9434 net.cpp:408] conv6_2_mbox_conf_flat_new -> conv6_2_mbox_conf_flat
I0306 16:11:57.229032  9434 net.cpp:150] Setting up conv6_2_mbox_conf_flat_new
I0306 16:11:57.229039  9434 net.cpp:157] Top shape: 8 124416 (995328)
I0306 16:11:57.229043  9434 net.cpp:165] Memory required for data: 7735345184
I0306 16:11:57.229045  9434 layer_factory.hpp:77] Creating layer conv6_2_mbox_priorbox_new
I0306 16:11:57.229054  9434 net.cpp:100] Creating Layer conv6_2_mbox_priorbox_new
I0306 16:11:57.229065  9434 net.cpp:434] conv6_2_mbox_priorbox_new <- conv6_2_conv6_2_scale_0_split_3
I0306 16:11:57.229084  9434 net.cpp:434] conv6_2_mbox_priorbox_new <- data_data_0_split_3
I0306 16:11:57.229099  9434 net.cpp:408] conv6_2_mbox_priorbox_new -> conv6_2_mbox_priorbox
I0306 16:11:57.229151  9434 net.cpp:150] Setting up conv6_2_mbox_priorbox_new
I0306 16:11:57.229159  9434 net.cpp:157] Top shape: 1 2 6144 (12288)
I0306 16:11:57.229163  9434 net.cpp:165] Memory required for data: 7735394336
I0306 16:11:57.229169  9434 layer_factory.hpp:77] Creating layer conv7_2_mbox_loc_new
I0306 16:11:57.229187  9434 net.cpp:100] Creating Layer conv7_2_mbox_loc_new
I0306 16:11:57.229203  9434 net.cpp:434] conv7_2_mbox_loc_new <- conv7_2_conv7_2_scale_0_split_1
I0306 16:11:57.229216  9434 net.cpp:408] conv7_2_mbox_loc_new -> conv7_2_mbox_loc
I0306 16:11:57.231184  9434 net.cpp:150] Setting up conv7_2_mbox_loc_new
I0306 16:11:57.231199  9434 net.cpp:157] Top shape: 8 24 8 8 (12288)
I0306 16:11:57.231204  9434 net.cpp:165] Memory required for data: 7735443488
I0306 16:11:57.231211  9434 layer_factory.hpp:77] Creating layer conv7_2_mbox_loc_perm_new
I0306 16:11:57.231225  9434 net.cpp:100] Creating Layer conv7_2_mbox_loc_perm_new
I0306 16:11:57.231230  9434 net.cpp:434] conv7_2_mbox_loc_perm_new <- conv7_2_mbox_loc
I0306 16:11:57.231245  9434 net.cpp:408] conv7_2_mbox_loc_perm_new -> conv7_2_mbox_loc_perm
I0306 16:11:57.231400  9434 net.cpp:150] Setting up conv7_2_mbox_loc_perm_new
I0306 16:11:57.231408  9434 net.cpp:157] Top shape: 8 8 8 24 (12288)
I0306 16:11:57.231412  9434 net.cpp:165] Memory required for data: 7735492640
I0306 16:11:57.231420  9434 layer_factory.hpp:77] Creating layer conv7_2_mbox_loc_flat_new
I0306 16:11:57.231427  9434 net.cpp:100] Creating Layer conv7_2_mbox_loc_flat_new
I0306 16:11:57.231436  9434 net.cpp:434] conv7_2_mbox_loc_flat_new <- conv7_2_mbox_loc_perm
I0306 16:11:57.231459  9434 net.cpp:408] conv7_2_mbox_loc_flat_new -> conv7_2_mbox_loc_flat
I0306 16:11:57.231505  9434 net.cpp:150] Setting up conv7_2_mbox_loc_flat_new
I0306 16:11:57.231513  9434 net.cpp:157] Top shape: 8 1536 (12288)
I0306 16:11:57.231515  9434 net.cpp:165] Memory required for data: 7735541792
I0306 16:11:57.231539  9434 layer_factory.hpp:77] Creating layer conv7_2_mbox_conf_new
I0306 16:11:57.231564  9434 net.cpp:100] Creating Layer conv7_2_mbox_conf_new
I0306 16:11:57.231576  9434 net.cpp:434] conv7_2_mbox_conf_new <- conv7_2_conv7_2_scale_0_split_2
I0306 16:11:57.231592  9434 net.cpp:408] conv7_2_mbox_conf_new -> conv7_2_mbox_conf
I0306 16:11:57.239207  9434 net.cpp:150] Setting up conv7_2_mbox_conf_new
I0306 16:11:57.239222  9434 net.cpp:157] Top shape: 8 486 8 8 (248832)
I0306 16:11:57.239226  9434 net.cpp:165] Memory required for data: 7736537120
I0306 16:11:57.239233  9434 layer_factory.hpp:77] Creating layer conv7_2_mbox_conf_perm_new
I0306 16:11:57.239250  9434 net.cpp:100] Creating Layer conv7_2_mbox_conf_perm_new
I0306 16:11:57.239257  9434 net.cpp:434] conv7_2_mbox_conf_perm_new <- conv7_2_mbox_conf
I0306 16:11:57.239271  9434 net.cpp:408] conv7_2_mbox_conf_perm_new -> conv7_2_mbox_conf_perm
I0306 16:11:57.239428  9434 net.cpp:150] Setting up conv7_2_mbox_conf_perm_new
I0306 16:11:57.239439  9434 net.cpp:157] Top shape: 8 8 8 486 (248832)
I0306 16:11:57.239444  9434 net.cpp:165] Memory required for data: 7737532448
I0306 16:11:57.239447  9434 layer_factory.hpp:77] Creating layer conv7_2_mbox_conf_flat_new
I0306 16:11:57.239452  9434 net.cpp:100] Creating Layer conv7_2_mbox_conf_flat_new
I0306 16:11:57.239459  9434 net.cpp:434] conv7_2_mbox_conf_flat_new <- conv7_2_mbox_conf_perm
I0306 16:11:57.239470  9434 net.cpp:408] conv7_2_mbox_conf_flat_new -> conv7_2_mbox_conf_flat
I0306 16:11:57.239521  9434 net.cpp:150] Setting up conv7_2_mbox_conf_flat_new
I0306 16:11:57.239526  9434 net.cpp:157] Top shape: 8 31104 (248832)
I0306 16:11:57.239531  9434 net.cpp:165] Memory required for data: 7738527776
I0306 16:11:57.239536  9434 layer_factory.hpp:77] Creating layer conv7_2_mbox_priorbox_new
I0306 16:11:57.239550  9434 net.cpp:100] Creating Layer conv7_2_mbox_priorbox_new
I0306 16:11:57.239564  9434 net.cpp:434] conv7_2_mbox_priorbox_new <- conv7_2_conv7_2_scale_0_split_3
I0306 16:11:57.239578  9434 net.cpp:434] conv7_2_mbox_priorbox_new <- data_data_0_split_4
I0306 16:11:57.239589  9434 net.cpp:408] conv7_2_mbox_priorbox_new -> conv7_2_mbox_priorbox
I0306 16:11:57.239642  9434 net.cpp:150] Setting up conv7_2_mbox_priorbox_new
I0306 16:11:57.239652  9434 net.cpp:157] Top shape: 1 2 1536 (3072)
I0306 16:11:57.239657  9434 net.cpp:165] Memory required for data: 7738540064
I0306 16:11:57.239661  9434 layer_factory.hpp:77] Creating layer conv8_2_mbox_loc_new
I0306 16:11:57.239672  9434 net.cpp:100] Creating Layer conv8_2_mbox_loc_new
I0306 16:11:57.239686  9434 net.cpp:434] conv8_2_mbox_loc_new <- conv8_2_conv8_2_scale_0_split_1
I0306 16:11:57.239698  9434 net.cpp:408] conv8_2_mbox_loc_new -> conv8_2_mbox_loc
I0306 16:11:57.241263  9434 net.cpp:150] Setting up conv8_2_mbox_loc_new
I0306 16:11:57.241274  9434 net.cpp:157] Top shape: 8 24 4 4 (3072)
I0306 16:11:57.241278  9434 net.cpp:165] Memory required for data: 7738552352
I0306 16:11:57.241284  9434 layer_factory.hpp:77] Creating layer conv8_2_mbox_loc_perm_new
I0306 16:11:57.241302  9434 net.cpp:100] Creating Layer conv8_2_mbox_loc_perm_new
I0306 16:11:57.241312  9434 net.cpp:434] conv8_2_mbox_loc_perm_new <- conv8_2_mbox_loc
I0306 16:11:57.241325  9434 net.cpp:408] conv8_2_mbox_loc_perm_new -> conv8_2_mbox_loc_perm
I0306 16:11:57.241475  9434 net.cpp:150] Setting up conv8_2_mbox_loc_perm_new
I0306 16:11:57.241482  9434 net.cpp:157] Top shape: 8 4 4 24 (3072)
I0306 16:11:57.241487  9434 net.cpp:165] Memory required for data: 7738564640
I0306 16:11:57.241489  9434 layer_factory.hpp:77] Creating layer conv8_2_mbox_loc_flat_new
I0306 16:11:57.241497  9434 net.cpp:100] Creating Layer conv8_2_mbox_loc_flat_new
I0306 16:11:57.241504  9434 net.cpp:434] conv8_2_mbox_loc_flat_new <- conv8_2_mbox_loc_perm
I0306 16:11:57.241513  9434 net.cpp:408] conv8_2_mbox_loc_flat_new -> conv8_2_mbox_loc_flat
I0306 16:11:57.241559  9434 net.cpp:150] Setting up conv8_2_mbox_loc_flat_new
I0306 16:11:57.241567  9434 net.cpp:157] Top shape: 8 384 (3072)
I0306 16:11:57.241588  9434 net.cpp:165] Memory required for data: 7738576928
I0306 16:11:57.241595  9434 layer_factory.hpp:77] Creating layer conv8_2_mbox_conf_new
I0306 16:11:57.241621  9434 net.cpp:100] Creating Layer conv8_2_mbox_conf_new
I0306 16:11:57.241638  9434 net.cpp:434] conv8_2_mbox_conf_new <- conv8_2_conv8_2_scale_0_split_2
I0306 16:11:57.241652  9434 net.cpp:408] conv8_2_mbox_conf_new -> conv8_2_mbox_conf
I0306 16:11:57.249315  9434 net.cpp:150] Setting up conv8_2_mbox_conf_new
I0306 16:11:57.249331  9434 net.cpp:157] Top shape: 8 486 4 4 (62208)
I0306 16:11:57.249336  9434 net.cpp:165] Memory required for data: 7738825760
I0306 16:11:57.249343  9434 layer_factory.hpp:77] Creating layer conv8_2_mbox_conf_perm_new
I0306 16:11:57.249353  9434 net.cpp:100] Creating Layer conv8_2_mbox_conf_perm_new
I0306 16:11:57.249366  9434 net.cpp:434] conv8_2_mbox_conf_perm_new <- conv8_2_mbox_conf
I0306 16:11:57.249373  9434 net.cpp:408] conv8_2_mbox_conf_perm_new -> conv8_2_mbox_conf_perm
I0306 16:11:57.249541  9434 net.cpp:150] Setting up conv8_2_mbox_conf_perm_new
I0306 16:11:57.249549  9434 net.cpp:157] Top shape: 8 4 4 486 (62208)
I0306 16:11:57.249553  9434 net.cpp:165] Memory required for data: 7739074592
I0306 16:11:57.249559  9434 layer_factory.hpp:77] Creating layer conv8_2_mbox_conf_flat_new
I0306 16:11:57.249567  9434 net.cpp:100] Creating Layer conv8_2_mbox_conf_flat_new
I0306 16:11:57.249580  9434 net.cpp:434] conv8_2_mbox_conf_flat_new <- conv8_2_mbox_conf_perm
I0306 16:11:57.249590  9434 net.cpp:408] conv8_2_mbox_conf_flat_new -> conv8_2_mbox_conf_flat
I0306 16:11:57.249634  9434 net.cpp:150] Setting up conv8_2_mbox_conf_flat_new
I0306 16:11:57.249640  9434 net.cpp:157] Top shape: 8 7776 (62208)
I0306 16:11:57.249644  9434 net.cpp:165] Memory required for data: 7739323424
I0306 16:11:57.249649  9434 layer_factory.hpp:77] Creating layer conv8_2_mbox_priorbox_new
I0306 16:11:57.249657  9434 net.cpp:100] Creating Layer conv8_2_mbox_priorbox_new
I0306 16:11:57.249668  9434 net.cpp:434] conv8_2_mbox_priorbox_new <- conv8_2_conv8_2_scale_0_split_3
I0306 16:11:57.249681  9434 net.cpp:434] conv8_2_mbox_priorbox_new <- data_data_0_split_5
I0306 16:11:57.249694  9434 net.cpp:408] conv8_2_mbox_priorbox_new -> conv8_2_mbox_priorbox
I0306 16:11:57.249743  9434 net.cpp:150] Setting up conv8_2_mbox_priorbox_new
I0306 16:11:57.249756  9434 net.cpp:157] Top shape: 1 2 384 (768)
I0306 16:11:57.249764  9434 net.cpp:165] Memory required for data: 7739326496
I0306 16:11:57.249773  9434 layer_factory.hpp:77] Creating layer conv9_2_mbox_loc_new
I0306 16:11:57.249788  9434 net.cpp:100] Creating Layer conv9_2_mbox_loc_new
I0306 16:11:57.249800  9434 net.cpp:434] conv9_2_mbox_loc_new <- conv9_2_conv9_2_scale_0_split_1
I0306 16:11:57.249814  9434 net.cpp:408] conv9_2_mbox_loc_new -> conv9_2_mbox_loc
I0306 16:11:57.251410  9434 net.cpp:150] Setting up conv9_2_mbox_loc_new
I0306 16:11:57.251423  9434 net.cpp:157] Top shape: 8 16 2 2 (512)
I0306 16:11:57.251428  9434 net.cpp:165] Memory required for data: 7739328544
I0306 16:11:57.251435  9434 layer_factory.hpp:77] Creating layer conv9_2_mbox_loc_perm_new
I0306 16:11:57.251446  9434 net.cpp:100] Creating Layer conv9_2_mbox_loc_perm_new
I0306 16:11:57.251453  9434 net.cpp:434] conv9_2_mbox_loc_perm_new <- conv9_2_mbox_loc
I0306 16:11:57.251466  9434 net.cpp:408] conv9_2_mbox_loc_perm_new -> conv9_2_mbox_loc_perm
I0306 16:11:57.251617  9434 net.cpp:150] Setting up conv9_2_mbox_loc_perm_new
I0306 16:11:57.251626  9434 net.cpp:157] Top shape: 8 2 2 16 (512)
I0306 16:11:57.251631  9434 net.cpp:165] Memory required for data: 7739330592
I0306 16:11:57.251634  9434 layer_factory.hpp:77] Creating layer conv9_2_mbox_loc_flat_new
I0306 16:11:57.251639  9434 net.cpp:100] Creating Layer conv9_2_mbox_loc_flat_new
I0306 16:11:57.251646  9434 net.cpp:434] conv9_2_mbox_loc_flat_new <- conv9_2_mbox_loc_perm
I0306 16:11:57.251662  9434 net.cpp:408] conv9_2_mbox_loc_flat_new -> conv9_2_mbox_loc_flat
I0306 16:11:57.251706  9434 net.cpp:150] Setting up conv9_2_mbox_loc_flat_new
I0306 16:11:57.251727  9434 net.cpp:157] Top shape: 8 64 (512)
I0306 16:11:57.251731  9434 net.cpp:165] Memory required for data: 7739332640
I0306 16:11:57.251735  9434 layer_factory.hpp:77] Creating layer conv9_2_mbox_conf_new
I0306 16:11:57.251745  9434 net.cpp:100] Creating Layer conv9_2_mbox_conf_new
I0306 16:11:57.251754  9434 net.cpp:434] conv9_2_mbox_conf_new <- conv9_2_conv9_2_scale_0_split_2
I0306 16:11:57.251770  9434 net.cpp:408] conv9_2_mbox_conf_new -> conv9_2_mbox_conf
I0306 16:11:57.258986  9434 net.cpp:150] Setting up conv9_2_mbox_conf_new
I0306 16:11:57.259006  9434 net.cpp:157] Top shape: 8 324 2 2 (10368)
I0306 16:11:57.259009  9434 net.cpp:165] Memory required for data: 7739374112
I0306 16:11:57.259017  9434 layer_factory.hpp:77] Creating layer conv9_2_mbox_conf_perm_new
I0306 16:11:57.259027  9434 net.cpp:100] Creating Layer conv9_2_mbox_conf_perm_new
I0306 16:11:57.259042  9434 net.cpp:434] conv9_2_mbox_conf_perm_new <- conv9_2_mbox_conf
I0306 16:11:57.259052  9434 net.cpp:408] conv9_2_mbox_conf_perm_new -> conv9_2_mbox_conf_perm
I0306 16:11:57.259212  9434 net.cpp:150] Setting up conv9_2_mbox_conf_perm_new
I0306 16:11:57.259222  9434 net.cpp:157] Top shape: 8 2 2 324 (10368)
I0306 16:11:57.259227  9434 net.cpp:165] Memory required for data: 7739415584
I0306 16:11:57.259230  9434 layer_factory.hpp:77] Creating layer conv9_2_mbox_conf_flat_new
I0306 16:11:57.259239  9434 net.cpp:100] Creating Layer conv9_2_mbox_conf_flat_new
I0306 16:11:57.259251  9434 net.cpp:434] conv9_2_mbox_conf_flat_new <- conv9_2_mbox_conf_perm
I0306 16:11:57.259260  9434 net.cpp:408] conv9_2_mbox_conf_flat_new -> conv9_2_mbox_conf_flat
I0306 16:11:57.259308  9434 net.cpp:150] Setting up conv9_2_mbox_conf_flat_new
I0306 16:11:57.259316  9434 net.cpp:157] Top shape: 8 1296 (10368)
I0306 16:11:57.259321  9434 net.cpp:165] Memory required for data: 7739457056
I0306 16:11:57.259325  9434 layer_factory.hpp:77] Creating layer conv9_2_mbox_priorbox_new
I0306 16:11:57.259335  9434 net.cpp:100] Creating Layer conv9_2_mbox_priorbox_new
I0306 16:11:57.259340  9434 net.cpp:434] conv9_2_mbox_priorbox_new <- conv9_2_conv9_2_scale_0_split_3
I0306 16:11:57.259352  9434 net.cpp:434] conv9_2_mbox_priorbox_new <- data_data_0_split_6
I0306 16:11:57.259366  9434 net.cpp:408] conv9_2_mbox_priorbox_new -> conv9_2_mbox_priorbox
I0306 16:11:57.259423  9434 net.cpp:150] Setting up conv9_2_mbox_priorbox_new
I0306 16:11:57.259433  9434 net.cpp:157] Top shape: 1 2 64 (128)
I0306 16:11:57.259436  9434 net.cpp:165] Memory required for data: 7739457568
I0306 16:11:57.259443  9434 layer_factory.hpp:77] Creating layer conv10_2_mbox_loc_new
I0306 16:11:57.259457  9434 net.cpp:100] Creating Layer conv10_2_mbox_loc_new
I0306 16:11:57.259467  9434 net.cpp:434] conv10_2_mbox_loc_new <- conv10_2_conv10_2_scale_0_split_0
I0306 16:11:57.259482  9434 net.cpp:408] conv10_2_mbox_loc_new -> conv10_2_mbox_loc
I0306 16:11:57.261984  9434 net.cpp:150] Setting up conv10_2_mbox_loc_new
I0306 16:11:57.261999  9434 net.cpp:157] Top shape: 8 16 1 1 (128)
I0306 16:11:57.262004  9434 net.cpp:165] Memory required for data: 7739458080
I0306 16:11:57.262012  9434 layer_factory.hpp:77] Creating layer conv10_2_mbox_loc_perm_new
I0306 16:11:57.262028  9434 net.cpp:100] Creating Layer conv10_2_mbox_loc_perm_new
I0306 16:11:57.262038  9434 net.cpp:434] conv10_2_mbox_loc_perm_new <- conv10_2_mbox_loc
I0306 16:11:57.262046  9434 net.cpp:408] conv10_2_mbox_loc_perm_new -> conv10_2_mbox_loc_perm
I0306 16:11:57.262197  9434 net.cpp:150] Setting up conv10_2_mbox_loc_perm_new
I0306 16:11:57.262207  9434 net.cpp:157] Top shape: 8 1 1 16 (128)
I0306 16:11:57.262210  9434 net.cpp:165] Memory required for data: 7739458592
I0306 16:11:57.262213  9434 layer_factory.hpp:77] Creating layer conv10_2_mbox_loc_flat_new
I0306 16:11:57.262223  9434 net.cpp:100] Creating Layer conv10_2_mbox_loc_flat_new
I0306 16:11:57.262231  9434 net.cpp:434] conv10_2_mbox_loc_flat_new <- conv10_2_mbox_loc_perm
I0306 16:11:57.262241  9434 net.cpp:408] conv10_2_mbox_loc_flat_new -> conv10_2_mbox_loc_flat
I0306 16:11:57.262287  9434 net.cpp:150] Setting up conv10_2_mbox_loc_flat_new
I0306 16:11:57.262310  9434 net.cpp:157] Top shape: 8 16 (128)
I0306 16:11:57.262315  9434 net.cpp:165] Memory required for data: 7739459104
I0306 16:11:57.262320  9434 layer_factory.hpp:77] Creating layer conv10_2_mbox_conf_new
I0306 16:11:57.262351  9434 net.cpp:100] Creating Layer conv10_2_mbox_conf_new
I0306 16:11:57.262362  9434 net.cpp:434] conv10_2_mbox_conf_new <- conv10_2_conv10_2_scale_0_split_1
I0306 16:11:57.262375  9434 net.cpp:408] conv10_2_mbox_conf_new -> conv10_2_mbox_conf
I0306 16:11:57.268474  9434 net.cpp:150] Setting up conv10_2_mbox_conf_new
I0306 16:11:57.268497  9434 net.cpp:157] Top shape: 8 324 1 1 (2592)
I0306 16:11:57.268501  9434 net.cpp:165] Memory required for data: 7739469472
I0306 16:11:57.268512  9434 layer_factory.hpp:77] Creating layer conv10_2_mbox_conf_perm_new
I0306 16:11:57.268527  9434 net.cpp:100] Creating Layer conv10_2_mbox_conf_perm_new
I0306 16:11:57.268537  9434 net.cpp:434] conv10_2_mbox_conf_perm_new <- conv10_2_mbox_conf
I0306 16:11:57.268549  9434 net.cpp:408] conv10_2_mbox_conf_perm_new -> conv10_2_mbox_conf_perm
I0306 16:11:57.268718  9434 net.cpp:150] Setting up conv10_2_mbox_conf_perm_new
I0306 16:11:57.268726  9434 net.cpp:157] Top shape: 8 1 1 324 (2592)
I0306 16:11:57.268730  9434 net.cpp:165] Memory required for data: 7739479840
I0306 16:11:57.268734  9434 layer_factory.hpp:77] Creating layer conv10_2_mbox_conf_flat_new
I0306 16:11:57.268743  9434 net.cpp:100] Creating Layer conv10_2_mbox_conf_flat_new
I0306 16:11:57.268755  9434 net.cpp:434] conv10_2_mbox_conf_flat_new <- conv10_2_mbox_conf_perm
I0306 16:11:57.268767  9434 net.cpp:408] conv10_2_mbox_conf_flat_new -> conv10_2_mbox_conf_flat
I0306 16:11:57.268818  9434 net.cpp:150] Setting up conv10_2_mbox_conf_flat_new
I0306 16:11:57.268827  9434 net.cpp:157] Top shape: 8 324 (2592)
I0306 16:11:57.268832  9434 net.cpp:165] Memory required for data: 7739490208
I0306 16:11:57.268836  9434 layer_factory.hpp:77] Creating layer conv10_2_mbox_priorbox_new
I0306 16:11:57.268847  9434 net.cpp:100] Creating Layer conv10_2_mbox_priorbox_new
I0306 16:11:57.268857  9434 net.cpp:434] conv10_2_mbox_priorbox_new <- conv10_2_conv10_2_scale_0_split_2
I0306 16:11:57.268869  9434 net.cpp:434] conv10_2_mbox_priorbox_new <- data_data_0_split_7
I0306 16:11:57.268877  9434 net.cpp:408] conv10_2_mbox_priorbox_new -> conv10_2_mbox_priorbox
I0306 16:11:57.268934  9434 net.cpp:150] Setting up conv10_2_mbox_priorbox_new
I0306 16:11:57.268949  9434 net.cpp:157] Top shape: 1 2 16 (32)
I0306 16:11:57.268954  9434 net.cpp:165] Memory required for data: 7739490336
I0306 16:11:57.268959  9434 layer_factory.hpp:77] Creating layer mbox_loc
I0306 16:11:57.268966  9434 net.cpp:100] Creating Layer mbox_loc
I0306 16:11:57.268977  9434 net.cpp:434] mbox_loc <- conv4_3_norm_mbox_loc_flat
I0306 16:11:57.268986  9434 net.cpp:434] mbox_loc <- fc7_mbox_loc_flat
I0306 16:11:57.268998  9434 net.cpp:434] mbox_loc <- conv6_2_mbox_loc_flat
I0306 16:11:57.269009  9434 net.cpp:434] mbox_loc <- conv7_2_mbox_loc_flat
I0306 16:11:57.269019  9434 net.cpp:434] mbox_loc <- conv8_2_mbox_loc_flat
I0306 16:11:57.269032  9434 net.cpp:434] mbox_loc <- conv9_2_mbox_loc_flat
I0306 16:11:57.269040  9434 net.cpp:434] mbox_loc <- conv10_2_mbox_loc_flat
I0306 16:11:57.269052  9434 net.cpp:408] mbox_loc -> mbox_loc
I0306 16:11:57.269098  9434 net.cpp:150] Setting up mbox_loc
I0306 16:11:57.269105  9434 net.cpp:157] Top shape: 8 98256 (786048)
I0306 16:11:57.269109  9434 net.cpp:165] Memory required for data: 7742634528
I0306 16:11:57.269115  9434 layer_factory.hpp:77] Creating layer mbox_conf
I0306 16:11:57.269124  9434 net.cpp:100] Creating Layer mbox_conf
I0306 16:11:57.269129  9434 net.cpp:434] mbox_conf <- conv4_3_norm_mbox_conf_flat
I0306 16:11:57.269140  9434 net.cpp:434] mbox_conf <- fc7_mbox_conf_flat
I0306 16:11:57.269145  9434 net.cpp:434] mbox_conf <- conv6_2_mbox_conf_flat
I0306 16:11:57.269156  9434 net.cpp:434] mbox_conf <- conv7_2_mbox_conf_flat
I0306 16:11:57.269166  9434 net.cpp:434] mbox_conf <- conv8_2_mbox_conf_flat
I0306 16:11:57.269194  9434 net.cpp:434] mbox_conf <- conv9_2_mbox_conf_flat
I0306 16:11:57.269202  9434 net.cpp:434] mbox_conf <- conv10_2_mbox_conf_flat
I0306 16:11:57.269212  9434 net.cpp:408] mbox_conf -> mbox_conf
I0306 16:11:57.269258  9434 net.cpp:150] Setting up mbox_conf
I0306 16:11:57.269266  9434 net.cpp:157] Top shape: 8 1989684 (15917472)
I0306 16:11:57.269273  9434 net.cpp:165] Memory required for data: 7806304416
I0306 16:11:57.269278  9434 layer_factory.hpp:77] Creating layer mbox_priorbox
I0306 16:11:57.269284  9434 net.cpp:100] Creating Layer mbox_priorbox
I0306 16:11:57.269290  9434 net.cpp:434] mbox_priorbox <- conv4_3_norm_mbox_priorbox
I0306 16:11:57.269309  9434 net.cpp:434] mbox_priorbox <- fc7_mbox_priorbox
I0306 16:11:57.269321  9434 net.cpp:434] mbox_priorbox <- conv6_2_mbox_priorbox
I0306 16:11:57.269328  9434 net.cpp:434] mbox_priorbox <- conv7_2_mbox_priorbox
I0306 16:11:57.269335  9434 net.cpp:434] mbox_priorbox <- conv8_2_mbox_priorbox
I0306 16:11:57.269343  9434 net.cpp:434] mbox_priorbox <- conv9_2_mbox_priorbox
I0306 16:11:57.269353  9434 net.cpp:434] mbox_priorbox <- conv10_2_mbox_priorbox
I0306 16:11:57.269362  9434 net.cpp:408] mbox_priorbox -> mbox_priorbox
I0306 16:11:57.269409  9434 net.cpp:150] Setting up mbox_priorbox
I0306 16:11:57.269420  9434 net.cpp:157] Top shape: 1 2 98256 (196512)
I0306 16:11:57.269428  9434 net.cpp:165] Memory required for data: 7807090464
I0306 16:11:57.269433  9434 layer_factory.hpp:77] Creating layer mbox_conf_reshape
I0306 16:11:57.269443  9434 net.cpp:100] Creating Layer mbox_conf_reshape
I0306 16:11:57.269448  9434 net.cpp:434] mbox_conf_reshape <- mbox_conf
I0306 16:11:57.269459  9434 net.cpp:408] mbox_conf_reshape -> mbox_conf_reshape
I0306 16:11:57.269506  9434 net.cpp:150] Setting up mbox_conf_reshape
I0306 16:11:57.269515  9434 net.cpp:157] Top shape: 8 24564 81 (15917472)
I0306 16:11:57.269520  9434 net.cpp:165] Memory required for data: 7870760352
I0306 16:11:57.269526  9434 layer_factory.hpp:77] Creating layer mbox_conf_softmax
I0306 16:11:57.269536  9434 net.cpp:100] Creating Layer mbox_conf_softmax
I0306 16:11:57.269549  9434 net.cpp:434] mbox_conf_softmax <- mbox_conf_reshape
I0306 16:11:57.269562  9434 net.cpp:408] mbox_conf_softmax -> mbox_conf_softmax
I0306 16:11:57.269876  9434 net.cpp:150] Setting up mbox_conf_softmax
I0306 16:11:57.269884  9434 net.cpp:157] Top shape: 8 24564 81 (15917472)
I0306 16:11:57.269888  9434 net.cpp:165] Memory required for data: 7934430240
I0306 16:11:57.269893  9434 layer_factory.hpp:77] Creating layer mbox_conf_flatten
I0306 16:11:57.269902  9434 net.cpp:100] Creating Layer mbox_conf_flatten
I0306 16:11:57.269912  9434 net.cpp:434] mbox_conf_flatten <- mbox_conf_softmax
I0306 16:11:57.269924  9434 net.cpp:408] mbox_conf_flatten -> mbox_conf_flatten
I0306 16:11:57.269965  9434 net.cpp:150] Setting up mbox_conf_flatten
I0306 16:11:57.269973  9434 net.cpp:157] Top shape: 8 1989684 (15917472)
I0306 16:11:57.269978  9434 net.cpp:165] Memory required for data: 7998100128
I0306 16:11:57.269980  9434 layer_factory.hpp:77] Creating layer detection_out
I0306 16:11:57.269999  9434 net.cpp:100] Creating Layer detection_out
I0306 16:11:57.270007  9434 net.cpp:434] detection_out <- mbox_loc
I0306 16:11:57.270020  9434 net.cpp:434] detection_out <- mbox_conf_flatten
I0306 16:11:57.270025  9434 net.cpp:434] detection_out <- mbox_priorbox
I0306 16:11:57.270036  9434 net.cpp:408] detection_out -> detection_out
I0306 16:11:57.274230  9434 net.cpp:150] Setting up detection_out
I0306 16:11:57.274243  9434 net.cpp:157] Top shape: 1 1 1 7 (7)
I0306 16:11:57.274247  9434 net.cpp:165] Memory required for data: 7998100156
I0306 16:11:57.274252  9434 layer_factory.hpp:77] Creating layer detection_eval
I0306 16:11:57.274260  9434 net.cpp:100] Creating Layer detection_eval
I0306 16:11:57.274271  9434 net.cpp:434] detection_eval <- detection_out
I0306 16:11:57.274279  9434 net.cpp:434] detection_eval <- label
I0306 16:11:57.274292  9434 net.cpp:408] detection_eval -> detection_eval
I0306 16:11:57.278117  9434 net.cpp:150] Setting up detection_eval
I0306 16:11:57.278141  9434 net.cpp:157] Top shape: 1 1 81 5 (405)
I0306 16:11:57.278146  9434 net.cpp:165] Memory required for data: 7998101776
I0306 16:11:57.278151  9434 net.cpp:228] detection_eval does not need backward computation.
I0306 16:11:57.278162  9434 net.cpp:228] detection_out does not need backward computation.
I0306 16:11:57.278168  9434 net.cpp:228] mbox_conf_flatten does not need backward computation.
I0306 16:11:57.278178  9434 net.cpp:228] mbox_conf_softmax does not need backward computation.
…
