…
      sampler {
        min_scale: 0.3
        max_scale: 1
        min_aspect_ratio: 0.5
        max_aspect_ratio: 2
      }
      sample_constraint {
        min_jaccard_overlap: 0.9
      }
      max_sample: 1
      max_trials: 50
    }
    batch_sampler {
      sampler {
        min_scale: 0.3
        max_scale: 1
        min_aspect_ratio: 0.5
        max_aspect_ratio: 2
      }
      sample_constraint {
        max_jaccard_overlap: 1
      }
      max_sample: 1
      max_trials: 50
    }
    label_map_file: "data/coco/labelmap_coco.prototxt"
  }
}
layer {
  name: "conv1_1"
  type: "Convolution"
  bottom: "data"
  top: "conv1_1"
  param {
    lr_mult: 0.1
    decay_mult: 1
  }
  param {
    lr_mult: 0.2
    decay_mult: 0
  }
  convolution_param {
    num_output: 64
    pad: 1
    kernel_size: 3
    weight_filler {
      type: "xavier"
    }
    bias_filler {
      type: "constant"
      value: 0
    }
  }
}
layer {
  name: "relu1_1"
  type: "ReLU"
  bottom: "conv1_1"
  top: "conv1_1"
}
layer {
  name: "conv1_2"
  type: "Convolution"
  bottom: "conv1_1"
  top: "conv1_2"
  param {
    lr_mult: 0.1
    decay_mult: 1
  }
  param {
    lr_mult: 0.2
    decay_mult: 0
  }
  convolution_param {
    num_output: 64
    pad: 1
    kernel_size: 3
    weight_filler {
      type: "xavier"
    }
    bias_filler {
      type: "constant"
      value: 0
    }
  }
}
layer {
  name: "relu1_2"
  type: "ReLU"
  bottom: "conv1_2"
  top: "conv1_2"
}
layer {
  name: "pool1"
  type: "Pooling"
  bottom: "conv1_2"
  top: "pool1"
  pooling_param {
    pool: MAX
    kernel_size: 2
    stride: 2
  }
}
layer {
  name: "conv2_1"
  type: "Convolution"
  bottom: "pool1"
  top: "conv2_1"
  param {
    lr_mult: 0.1
    decay_mult: 1
  }
  param {
    lr_mult: 0.2
    decay_mult: 0
  }
  convolution_param {
    num_output: 128
    pad: 1
    kernel_size: 3
    weight_filler {
      type: "xavier"
    }
    bias_filler {
      type: "constant"
      value: 0
    }
  }
}
layer {
  name: "relu2_1"
  type: "ReLU"
  bottom: "conv2_1"
  top: "conv2_1"
}
layer {
  name: "conv2_2"
  type: "Convolution"
  bottom: "conv2_1"
  top: "conv2_2"
  param {
    lr_mult: 0.1
    decay_mult: 1
  }
  param {
    lr_mult: 0.2
    decay_mult: 0
  }
  convolution_param {
    num_output: 128
    pad: 1
    kernel_size: 3
    weight_filler {
      type: "xavier"
    }
    bias_filler {
      type: "constant"
      value: 0
    }
  }
}
layer {
  name: "relu2_2"
  type: "ReLU"
  bottom: "conv2_2"
  top: "conv2_2"
}
layer {
  name: "pool2"
  type: "Pooling"
  bottom: "conv2_2"
  top: "pool2"
  pooling_param {
    pool: MAX
    kernel_size: 2
    stride: 2
  }
}
layer {
  name: "conv3_1"
  type: "Convolution"
  bottom: "pool2"
  top: "conv3_1"
  param {
    lr_mult: 0.1
    decay_mult: 1
  }
  param {
    lr_mult: 0.2
    decay_mult: 0
  }
  convolution_param {
    num_output: 256
    pad: 1
    kernel_size: 3
    weight_filler {
      type: "xavier"
    }
    bias_filler {
      type: "constant"
      value: 0
    }
  }
}
layer {
  name: "relu3_1"
  type: "ReLU"
  bottom: "conv3_1"
  top: "conv3_1"
}
layer {
  name: "conv3_2"
  type: "Convolution"
  bottom: "conv3_1"
  top: "conv3_2"
  param {
    lr_mult: 0.1
    decay_mult: 1
  }
  param {
    lr_mult: 0.2
    decay_mult: 0
  }
  convolution_param {
    num_output: 256
    pad: 1
    kernel_size: 3
    weight_filler {
      type: "xavier"
    }
    bias_filler {
      type: "constant"
      value: 0
    }
  }
}
layer {
  name: "relu3_2"
  type: "ReLU"
  bottom: "conv3_2"
  top: "conv3_2"
}
layer {
  name: "conv3_3"
  type: "Convolution"
  bottom: "conv3_2"
  top: "conv3_3"
  param {
    lr_mult: 0.1
    decay_mult: 1
  }
  param {
    lr_mult: 0.2
    decay_mult: 0
  }
  convolution_param {
    num_output: 256
    pad: 1
    kernel_size: 3
    weight_filler {
      type: "xavier"
    }
    bias_filler {
      type: "constant"
      value: 0
    }
  }
}
layer {
  name: "relu3_3"
  type: "ReLU"
  bottom: "conv3_3"
  top: "conv3_3"
}
layer {
  name: "pool3"
  type: "Pooling"
  bottom: "conv3_3"
  top: "pool3"
  pooling_param {
    pool: MAX
    kernel_size: 2
    stride: 2
  }
}
layer {
  name: "conv4_1"
  type: "Convolution"
  bottom: "pool3"
  top: "conv4_1"
  param {
    lr_mult: 0.1
    decay_mult: 1
  }
  param {
    lr_mult: 0.2
    decay_mult: 0
  }
  convolution_param {
    num_output: 512
    pad: 1
    kernel_size: 3
    weight_filler {
      type: "xavier"
    }
    bias_filler {
      type: "constant"
      value: 0
    }
  }
}
layer {
  name: "relu4_1"
  type: "ReLU"
  bottom: "conv4_1"
  top: "conv4_1"
}
layer {
  name: "conv4_2"
  type: "Convolution"
  bottom: "conv4_1"
  top: "conv4_2"
  param {
    lr_mult: 0.1
    decay_mult: 1
  }
  param {
    lr_mult: 0.2
    decay_mult: 0
  }
  convolution_param {
    num_output: 512
    pad: 1
    kernel_size: 3
    weight_filler {
      type: "xavier"
    }
    bias_filler {
      type: "constant"
      value: 0
    }
  }
}
layer {
  name: "relu4_2"
  type: "ReLU"
  bottom: "conv4_2"
  top: "conv4_2"
}
layer {
  name: "conv4_3"
  type: "Convolution"
  bottom: "conv4_2"
  top: "conv4_3_ori"
  param {
    lr_mult: 0.1
    decay_mult: 1
  }
  param {
    lr_mult: 0.2
    decay_mult: 0
  }
  convolution_param {
    num_output: 512
    pad: 1
    kernel_size: 3
    weight_filler {
      type: "xavier"
    }
    bias_filler {
      type: "constant"
      value: 0
    }
  }
}
layer {
  name: "relu4_3"
  type: "ReLU"
  bottom: "conv4_3_ori"
  top: "conv4_3_ori"
}
layer {
  name: "seg_pool4"
  type: "Pooling"
  bottom: "conv4_3_ori"
  top: "seg_pool4"
  pooling_param {
    pool: MAX
    kernel_size: 3
    stride: 1
    pad: 1
  }
}
layer {
  name: "seg5_1"
  type: "Convolution"
  bottom: "seg_pool4"
  top: "seg5_1"
  param {
    lr_mult: 1
    decay_mult: 1
  }
  param {
    lr_mult: 2
    decay_mult: 0
  }
  convolution_param {
    num_output: 512
    pad: 2
    kernel_size: 3
    weight_filler {
      type: "xavier"
    }
    bias_filler {
      type: "constant"
      value: 0
    }
    dilation: 2
  }
}
layer {
  name: "seg_relu5_1"
  type: "ReLU"
  bottom: "seg5_1"
  top: "seg5_1"
}
layer {
  name: "seg5_2"
  type: "Convolution"
  bottom: "seg5_1"
  top: "seg5_2"
  param {
    lr_mult: 1
    decay_mult: 1
  }
  param {
    lr_mult: 2
    decay_mult: 0
  }
  convolution_param {
    num_output: 512
    pad: 2
    kernel_size: 3
    weight_filler {
      type: "xavier"
    }
    bias_filler {
      type: "constant"
      value: 0
    }
    dilation: 2
  }
}
layer {
  name: "seg_relu5_2"
  type: "ReLU"
  bottom: "seg5_2"
  top: "seg5_2"
}
layer {
  name: "seg5_3"
  type: "Convolution"
  bottom: "seg5_2"
  top: "seg5_3"
  param {
    lr_mult: 1
    decay_mult: 1
  }
  param {
    lr_mult: 2
    decay_mult: 0
  }
  convolution_param {
    num_output: 512
    pad: 2
    kernel_size: 3
    weight_filler {
      type: "xavier"
    }
    bias_filler {
      type: "constant"
      value: 0
    }
    dilation: 2
  }
}
layer {
  name: "seg_relu5_3"
  type: "ReLU"
  bottom: "seg5_3"
  top: "seg5_3"
}
layer {
  name: "seg_pool5"
  type: "Pooling"
  bottom: "seg5_3"
  top: "seg_pool5"
  pooling_param {
    pool: MAX
    kernel_size: 3
    stride: 1
    pad: 1
  }
}
layer {
  name: "seg6"
  type: "Convolution"
  bottom: "seg_pool5"
  top: "seg6"
  param {
    lr_mult: 1
    decay_mult: 1
  }
  param {
    lr_mult: 2
    decay_mult: 0
  }
  convolution_param {
    num_output: 1024
    pad: 4
    kernel_size: 3
    weight_filler {
      type: "xavier"
    }
    bias_filler {
      type: "constant"
      value: 0
    }
    dilation: 4
  }
}
layer {
  name: "seg_relu6"
  type: "ReLU"
  bottom: "seg6"
  top: "seg6"
}
layer {
  name: "seg_drop6"
  type: "Dropout"
  bottom: "seg6"
  top: "seg6"
  dropout_param {
    dropout_ratio: 0.5
  }
}
layer {
  name: "seg7"
  type: "Convolution"
  bottom: "seg6"
  top: "seg7"
  param {
    lr_mult: 1
    decay_mult: 1
  }
  param {
    lr_mult: 2
    decay_mult: 0
  }
  convolution_param {
    num_output: 1024
    kernel_size: 1
    weight_filler {
      type: "xavier"
    }
    bias_filler {
      type: "constant"
      value: 0
    }
  }
}
layer {
  name: "seg_relu7"
  type: "ReLU"
  bottom: "seg7"
  top: "seg7"
}
layer {
  name: "seg_drop7"
  type: "Dropout"
  bottom: "seg7"
  top: "seg7d"
  dropout_param {
    dropout_ratio: 0.5
  }
}
layer {
  name: "seg"
  type: "Convolution"
  bottom: "seg7d"
  top: "seg"
  param {
    lr_mult: 10
    decay_mult: 1
  }
  param {
    lr_mult: 20
    decay_mult: 0
  }
  convolution_param {
    num_output: 81
    kernel_size: 1
    weight_filler {
      type: "gaussian"
      std: 0.01
    }
    bias_filler {
      type: "constant"
      value: 0
    }
  }
}
layer {
  name: "seg_gt"
  type: "SegGt"
  bottom: "label"
  bottom: "seg"
  top: "seg_gt"
  seggt_param {
    background_label_id: 0
    use_difficult_gt: true
  }
}
layer {
  name: "seg_loss"
  type: "SoftmaxWithLoss"
  bottom: "seg"
  bottom: "seg_gt"
  top: "seg_loss"
  loss_weight: 0.1
  propagate_down: true
  propagate_down: false
  softmax_param {
    axis: 1
  }
}
layer {
  name: "seg_to_det_conv"
  type: "Convolution"
  bottom: "seg7"
  top: "seg_to_det_conv"
  param {
    lr_mult: 1
    decay_mult: 1
  }
  param {
    lr_mult: 2
    decay_mult: 0
  }
  convolution_param {
    num_output: 512
    pad: 0
    kernel_size: 1
    stride: 1
    weight_filler {
      type: "xavier"
    }
    bias_filler {
      type: "constant"
      value: 0
    }
  }
}
layer {
  name: "mult_conv4_3"
  type: "Eltwise"
  bottom: "conv4_3_ori"
  bottom: "seg_to_det_conv"
  top: "conv4_3_t"
  eltwise_param {
    operation: PROD
  }
}
layer {
  name: "conv4_3_s"
  type: "Pooling"
  bottom: "conv4_3_t"
  top: "conv4_3_s"
  pooling_param {
    pool: AVE
    global_pooling: true
  }
}
layer {
  name: "conv4_3_fc1"
  type: "Convolution"
  bottom: "conv4_3_s"
  top: "conv4_3_fc1"
  param {
    lr_mult: 1
    decay_mult: 1
  }
  param {
    lr_mult: 2
    decay_mult: 0
  }
  convolution_param {
    num_output: 128
    kernel_size: 1
    stride: 1
    weight_filler {
      type: "xavier"
    }
    bias_filler {
      type: "constant"
      value: 0
    }
  }
}
layer {
  name: "conv4_3_relu"
  type: "ReLU"
  bottom: "conv4_3_fc1"
  top: "conv4_3_fc1"
}
layer {
  name: "conv4_3_fc2"
  type: "Convolution"
  bottom: "conv4_3_fc1"
  top: "conv4_3_fc2"
  param {
    lr_mult: 1
    decay_mult: 1
  }
  param {
    lr_mult: 2
    decay_mult: 0
  }
  convolution_param {
    num_output: 512
    kernel_size: 1
    stride: 1
    weight_filler {
      type: "xavier"
    }
    bias_filler {
      type: "constant"
      value: 0
    }
  }
}
layer {
  name: "conv4_3_sig"
  type: "Sigmoid"
  bottom: "conv4_3_fc2"
  top: "conv4_3_fc2"
}
layer {
  name: "conv4_3_reshape"
  type: "Reshape"
  bottom: "conv4_3_fc2"
  top: "conv4_3_reshape"
  reshape_param {
    shape {
      dim: 0
      dim: 0
    }
  }
}
layer {
  name: "conv4_3_scale"
  type: "Scale"
  bottom: "conv4_3_t"
  bottom: "conv4_3_reshape"
  top: "conv4_3"
  scale_param {
    axis: 0
    bias_term: false
  }
}
layer {
  name: "pool4"
  type: "Pooling"
  bottom: "conv4_3"
  top: "pool4"
  pooling_param {
    pool: MAX
    kernel_size: 2
    stride: 2
  }
}
layer {
  name: "conv5_1"
  type: "Convolution"
  bottom: "pool4"
  top: "conv5_1"
  param {
    lr_mult: 1
    decay_mult: 1
  }
  param {
    lr_mult: 2
    decay_mult: 0
  }
  convolution_param {
    num_output: 512
    pad: 1
    kernel_size: 3
    weight_filler {
      type: "xavier"
    }
    bias_filler {
      type: "constant"
      value: 0
    }
    dilation: 1
  }
}
layer {
  name: "relu5_1"
  type: "ReLU"
  bottom: "conv5_1"
  top: "conv5_1"
}
layer {
  name: "conv5_2"
  type: "Convolution"
  bottom: "conv5_1"
  top: "conv5_2"
  param {
    lr_mult: 1
    decay_mult: 1
  }
  param {
    lr_mult: 2
    decay_mult: 0
  }
  convolution_param {
    num_output: 512
    pad: 1
    kernel_size: 3
    weight_filler {
      type: "xavier"
    }
    bias_filler {
      type: "constant"
      value: 0
    }
    dilation: 1
  }
}
layer {
  name: "relu5_2"
  type: "ReLU"
  bottom: "conv5_2"
  top: "conv5_2"
}
layer {
  name: "conv5_3"
  type: "Convolution"
  bottom: "conv5_2"
  top: "conv5_3"
  param {
    lr_mult: 1
    decay_mult: 1
  }
  param {
    lr_mult: 2
    decay_mult: 0
  }
  convolution_param {
    num_output: 512
    pad: 1
    kernel_size: 3
    weight_filler {
      type: "xavier"
    }
    bias_filler {
      type: "constant"
      value: 0
    }
    dilation: 1
  }
}
layer {
  name: "relu5_3"
  type: "ReLU"
  bottom: "conv5_3"
  top: "conv5_3"
}
layer {
  name: "pool5"
  type: "Pooling"
  bottom: "conv5_3"
  top: "pool5"
  pooling_param {
    pool: MAX
    kernel_size: 3
    stride: 1
    pad: 1
  }
}
layer {
  name: "fc6"
  type: "Convolution"
  bottom: "pool5"
  top: "fc6"
  param {
    lr_mult: 1
    decay_mult: 1
  }
  param {
    lr_mult: 2
    decay_mult: 0
  }
  convolution_param {
    num_output: 1024
    pad: 6
    kernel_size: 3
    weight_filler {
      type: "xavier"
    }
    bias_filler {
      type: "constant"
      value: 0
    }
    dilation: 6
  }
}
layer {
  name: "relu6"
  type: "ReLU"
  bottom: "fc6"
  top: "fc6"
}
layer {
  name: "fc7"
  type: "Convolution"
  bottom: "fc6"
  top: "fc7_t"
  param {
    lr_mult: 1
    decay_mult: 1
  }
  param {
    lr_mult: 2
    decay_mult: 0
  }
  convolution_param {
    num_output: 1024
    kernel_size: 1
    weight_filler {
      type: "xavier"
    }
    bias_filler {
      type: "constant"
      value: 0
    }
  }
}
layer {
  name: "relu7"
  type: "ReLU"
  bottom: "fc7_t"
  top: "fc7_t"
}
layer {
  name: "fc7_s"
  type: "Pooling"
  bottom: "fc7_t"
  top: "fc7_s"
  pooling_param {
    pool: AVE
    global_pooling: true
  }
}
layer {
  name: "fc7_fc1"
  type: "Convolution"
  bottom: "fc7_s"
  top: "fc7_fc1"
  param {
    lr_mult: 1
    decay_mult: 1
  }
  param {
    lr_mult: 2
    decay_mult: 0
  }
  convolution_param {
    num_output: 256
    kernel_size: 1
    stride: 1
    weight_filler {
      type: "xavier"
    }
    bias_filler {
      type: "constant"
      value: 0
    }
  }
}
layer {
  name: "fc7_relu"
  type: "ReLU"
  bottom: "fc7_fc1"
  top: "fc7_fc1"
}
layer {
  name: "fc7_fc2"
  type: "Convolution"
  bottom: "fc7_fc1"
  top: "fc7_fc2"
  param {
    lr_mult: 1
    decay_mult: 1
  }
  param {
    lr_mult: 2
    decay_mult: 0
  }
  convolution_param {
    num_output: 1024
    kernel_size: 1
    stride: 1
    weight_filler {
      type: "xavier"
    }
    bias_filler {
      type: "constant"
      value: 0
    }
  }
}
layer {
  name: "fc7_sig"
  type: "Sigmoid"
  bottom: "fc7_fc2"
  top: "fc7_fc2"
}
layer {
  name: "fc7_reshape"
  type: "Reshape"
  bottom: "fc7_fc2"
  top: "fc7_reshape"
  reshape_param {
    shape {
      dim: 0
      dim: 0
    }
  }
}
layer {
  name: "fc7_scale"
  type: "Scale"
  bottom: "fc7_t"
  bottom: "fc7_reshape"
  top: "fc7"
  scale_param {
    axis: 0
    bias_term: false
  }
}
layer {
  name: "conv6_1"
  type: "Convolution"
  bottom: "fc7"
  top: "conv6_1"
  param {
    lr_mult: 1
    decay_mult: 1
  }
  param {
    lr_mult: 2
    decay_mult: 0
  }
  convolution_param {
    num_output: 256
    pad: 0
    kernel_size: 1
    stride: 1
    weight_filler {
      type: "xavier"
    }
    bias_filler {
      type: "constant"
      value: 0
    }
  }
}
layer {
  name: "conv6_1_relu"
  type: "ReLU"
  bottom: "conv6_1"
  top: "conv6_1"
}
layer {
  name: "conv6_2"
  type: "Convolution"
  bottom: "conv6_1"
  top: "conv6_2_t"
  param {
    lr_mult: 1
    decay_mult: 1
  }
  param {
    lr_mult: 2
    decay_mult: 0
  }
  convolution_param {
    num_output: 512
    pad: 1
    kernel_size: 3
    stride: 2
    weight_filler {
      type: "xavier"
    }
    bias_filler {
      type: "constant"
      value: 0
    }
  }
}
layer {
  name: "conv6_2_relu"
  type: "ReLU"
  bottom: "conv6_2_t"
  top: "conv6_2_t"
}
layer {
  name: "conv6_2_s"
  type: "Pooling"
  bottom: "conv6_2_t"
  top: "conv6_2_s"
  pooling_param {
    pool: AVE
    global_pooling: true
  }
}
layer {
  name: "conv6_2_fc1"
  type: "Convolution"
  bottom: "conv6_2_s"
  top: "conv6_2_fc1"
  param {
    lr_mult: 1
    decay_mult: 1
  }
  param {
    lr_mult: 2
    decay_mult: 0
  }
  convolution_param {
    num_output: 128
    kernel_size: 1
    stride: 1
    weight_filler {
      type: "xavier"
    }
    bias_filler {
      type: "constant"
      value: 0
    }
  }
}
layer {
  name: "conv6_2_relu"
  type: "ReLU"
  bottom: "conv6_2_fc1"
  top: "conv6_2_fc1"
}
layer {
  name: "conv6_2_fc2"
  type: "Convolution"
  bottom: "conv6_2_fc1"
  top: "conv6_2_fc2"
  param {
    lr_mult: 1
    decay_mult: 1
  }
  param {
    lr_mult: 2
    decay_mult: 0
  }
  convolution_param {
    num_output: 512
    kernel_size: 1
    stride: 1
    weight_filler {
      type: "xavier"
    }
    bias_filler {
      type: "constant"
      value: 0
    }
  }
}
layer {
  name: "conv6_2_sig"
  type: "Sigmoid"
  bottom: "conv6_2_fc2"
  top: "conv6_2_fc2"
}
layer {
  name: "conv6_2_reshape"
  type: "Reshape"
  bottom: "conv6_2_fc2"
  top: "conv6_2_reshape"
  reshape_param {
    shape {
      dim: 0
      dim: 0
    }
  }
}
layer {
  name: "conv6_2_scale"
  type: "Scale"
  bottom: "conv6_2_t"
  bottom: "conv6_2_reshape"
  top: "conv6_2"
  scale_param {
    axis: 0
    bias_term: false
  }
}
layer {
  name: "conv7_1"
  type: "Convolution"
  bottom: "conv6_2"
  top: "conv7_1"
  param {
    lr_mult: 1
    decay_mult: 1
  }
  param {
    lr_mult: 2
    decay_mult: 0
  }
  convolution_param {
    num_output: 128
    pad: 0
    kernel_size: 1
    stride: 1
    weight_filler {
      type: "xavier"
    }
    bias_filler {
      type: "constant"
      value: 0
    }
  }
}
layer {
  name: "conv7_1_relu"
  type: "ReLU"
  bottom: "conv7_1"
  top: "conv7_1"
}
layer {
  name: "conv7_2"
  type: "Convolution"
  bottom: "conv7_1"
  top: "conv7_2_t"
  param {
    lr_mult: 1
    decay_mult: 1
  }
  param {
    lr_mult: 2
    decay_mult: 0
  }
  convolution_param {
    num_output: 256
    pad: 1
    kernel_size: 3
    stride: 2
    weight_filler {
      type: "xavier"
    }
    bias_filler {
      type: "constant"
      value: 0
    }
  }
}
layer {
  name: "conv7_2_relu"
  type: "ReLU"
  bottom: "conv7_2_t"
  top: "conv7_2_t"
}
layer {
  name: "conv7_2_s"
  type: "Pooling"
  bottom: "conv7_2_t"
  top: "conv7_2_s"
  pooling_param {
    pool: AVE
    global_pooling: true
  }
}
layer {
  name: "conv7_2_fc1"
  type: "Convolution"
  bottom: "conv7_2_s"
  top: "conv7_2_fc1"
  param {
    lr_mult: 1
    decay_mult: 1
  }
  param {
    lr_mult: 2
    decay_mult: 0
  }
  convolution_param {
    num_output: 64
    kernel_size: 1
    stride: 1
    weight_filler {
      type: "xavier"
    }
    bias_filler {
      type: "constant"
      value: 0
    }
  }
}
layer {
  name: "conv7_2_relu"
  type: "ReLU"
  bottom: "conv7_2_fc1"
  top: "conv7_2_fc1"
}
layer {
  name: "conv7_2_fc2"
  type: "Convolution"
  bottom: "conv7_2_fc1"
  top: "conv7_2_fc2"
  param {
    lr_mult: 1
    decay_mult: 1
  }
  param {
    lr_mult: 2
    decay_mult: 0
  }
  convolution_param {
    num_output: 256
    kernel_size: 1
    stride: 1
    weight_filler {
      type: "xavier"
    }
    bias_filler {
      type: "constant"
      value: 0
    }
  }
}
layer {
  name: "conv7_2_sig"
  type: "Sigmoid"
  bottom: "conv7_2_fc2"
  top: "conv7_2_fc2"
}
layer {
  name: "conv7_2_reshape"
  type: "Reshape"
  bottom: "conv7_2_fc2"
  top: "conv7_2_reshape"
  reshape_param {
    shape {
      dim: 0
      dim: 0
    }
  }
}
layer {
  name: "conv7_2_scale"
  type: "Scale"
  bottom: "conv7_2_t"
  bottom: "conv7_2_reshape"
  top: "conv7_2"
  scale_param {
    axis: 0
    bias_term: false
  }
}
layer {
  name: "conv8_1"
  type: "Convolution"
  bottom: "conv7_2"
  top: "conv8_1"
  param {
    lr_mult: 1
    decay_mult: 1
  }
  param {
    lr_mult: 2
    decay_mult: 0
  }
  convolution_param {
    num_output: 128
    pad: 0
    kernel_size: 1
    stride: 1
    weight_filler {
      type: "xavier"
    }
    bias_filler {
      type: "constant"
      value: 0
    }
  }
}
layer {
  name: "conv8_1_relu"
  type: "ReLU"
  bottom: "conv8_1"
  top: "conv8_1"
}
layer {
  name: "conv8_2"
  type: "Convolution"
  bottom: "conv8_1"
  top: "conv8_2_t"
  param {
    lr_mult: 1
    decay_mult: 1
  }
  param {
    lr_mult: 2
    decay_mult: 0
  }
  convolution_param {
    num_output: 256
    pad: 0
    kernel_size: 3
    stride: 1
    weight_filler {
      type: "xavier"
    }
    bias_filler {
      type: "constant"
      value: 0
    }
  }
}
layer {
  name: "conv8_2_relu"
  type: "ReLU"
  bottom: "conv8_2_t"
  top: "conv8_2_t"
}
layer {
  name: "conv8_2_s"
  type: "Pooling"
  bottom: "conv8_2_t"
  top: "conv8_2_s"
  pooling_param {
    pool: AVE
    global_pooling: true
  }
}
layer {
  name: "conv8_2_fc1"
  type: "Convolution"
  bottom: "conv8_2_s"
  top: "conv8_2_fc1"
  param {
    lr_mult: 1
    decay_mult: 1
  }
  param {
    lr_mult: 2
    decay_mult: 0
  }
  convolution_param {
    num_output: 64
    kernel_size: 1
    stride: 1
    weight_filler {
      type: "xavier"
    }
    bias_filler {
      type: "constant"
      value: 0
    }
  }
}
layer {
  name: "conv8_2_relu"
  type: "ReLU"
  bottom: "conv8_2_fc1"
  top: "conv8_2_fc1"
}
layer {
  name: "conv8_2_fc2"
  type: "Convolution"
  bottom: "conv8_2_fc1"
  top: "conv8_2_fc2"
  param {
    lr_mult: 1
    decay_mult: 1
  }
  param {
    lr_mult: 2
    decay_mult: 0
  }
  convolution_param {
    num_output: 256
    kernel_size: 1
    stride: 1
    weight_filler {
      type: "xavier"
    }
    bias_filler {
      type: "constant"
      value: 0
    }
  }
}
layer {
  name: "conv8_2_sig"
  type: "Sigmoid"
  bottom: "conv8_2_fc2"
  top: "conv8_2_fc2"
}
layer {
  name: "conv8_2_reshape"
  type: "Reshape"
  bottom: "conv8_2_fc2"
  top: "conv8_2_reshape"
  reshape_param {
    shape {
      dim: 0
      dim: 0
    }
  }
}
layer {
  name: "conv8_2_scale"
  type: "Scale"
  bottom: "conv8_2_t"
  bottom: "conv8_2_reshape"
  top: "conv8_2"
  scale_param {
    axis: 0
    bias_term: false
  }
}
layer {
  name: "conv9_1"
  type: "Convolution"
  bottom: "conv8_2"
  top: "conv9_1"
  param {
    lr_mult: 1
    decay_mult: 1
  }
  param {
    lr_mult: 2
    decay_mult: 0
  }
  convolution_param {
    num_output: 128
    pad: 0
    kernel_size: 1
    stride: 1
    weight_filler {
      type: "xavier"
    }
    bias_filler {
      type: "constant"
      value: 0
    }
  }
}
layer {
  name: "conv9_1_relu"
  type: "ReLU"
  bottom: "conv9_1"
  top: "conv9_1"
}
layer {
  name: "conv9_2"
  type: "Convolution"
  bottom: "conv9_1"
  top: "conv9_2_t"
  param {
    lr_mult: 1
    decay_mult: 1
  }
  param {
    lr_mult: 2
    decay_mult: 0
  }
  convolution_param {
    num_output: 256
    pad: 0
    kernel_size: 3
    stride: 1
    weight_filler {
      type: "xavier"
    }
    bias_filler {
      type: "constant"
      value: 0
    }
  }
}
layer {
  name: "conv9_2_relu"
  type: "ReLU"
  bottom: "conv9_2_t"
  top: "conv9_2_t"
}
layer {
  name: "conv9_2_s"
  type: "Pooling"
  bottom: "conv9_2_t"
  top: "conv9_2_s"
  pooling_param {
    pool: AVE
    global_pooling: true
  }
}
layer {
  name: "conv9_2_fc1"
  type: "Convolution"
  bottom: "conv9_2_s"
  top: "conv9_2_fc1"
  param {
    lr_mult: 1
    decay_mult: 1
  }
  param {
    lr_mult: 2
    decay_mult: 0
  }
  convolution_param {
    num_output: 64
    kernel_size: 1
    stride: 1
    weight_filler {
      type: "xavier"
    }
    bias_filler {
      type: "constant"
      value: 0
    }
  }
}
layer {
  name: "conv9_2_relu"
  type: "ReLU"
  bottom: "conv9_2_fc1"
  top: "conv9_2_fc1"
}
layer {
  name: "conv9_2_fc2"
  type: "Convolution"
  bottom: "conv9_2_fc1"
  top: "conv9_2_fc2"
  param {
    lr_mult: 1
    decay_mult: 1
  }
  param {
    lr_mult: 2
    decay_mult: 0
  }
  convolution_param {
    num_output: 256
    kernel_size: 1
    stride: 1
    weight_filler {
      type: "xavier"
    }
    bias_filler {
      type: "constant"
      value: 0
    }
  }
}
layer {
  name: "conv9_2_sig"
  type: "Sigmoid"
  bottom: "conv9_2_fc2"
  top: "conv9_2_fc2"
}
layer {
  name: "conv9_2_reshape"
  type: "Reshape"
  bottom: "conv9_2_fc2"
  top: "conv9_2_reshape"
  reshape_param {
    shape {
      dim: 0
      dim: 0
    }
  }
}
layer {
  name: "conv9_2_scale"
  type: "Scale"
  bottom: "conv9_2_t"
  bottom: "conv9_2_reshape"
  top: "conv9_2"
  scale_param {
    axis: 0
    bias_term: false
  }
}
layer {
  name: "conv4_3_norm"
  type: "Normalize"
  bottom: "conv4_3"
  top: "conv4_3_norm"
  norm_param {
    across_spatial: false
    scale_filler {
      type: "constant"
      value: 20
    }
    channel_shared: false
  }
}
layer {
  name: "conv4_3_norm_mbox_loc"
  type: "Convolution"
  bottom: "conv4_3_norm"
  top: "conv4_3_norm_mbox_loc"
  param {
    lr_mult: 1
    decay_mult: 1
  }
  param {
    lr_mult: 2
    decay_mult: 0
  }
  convolution_param {
    num_output: 16
    pad: 1
    kernel_size: 3
    stride: 1
    weight_filler {
      type: "xavier"
    }
    bias_filler {
      type: "constant"
      value: 0
    }
  }
}
layer {
  name: "conv4_3_norm_mbox_loc_perm"
  type: "Permute"
  bottom: "conv4_3_norm_mbox_loc"
  top: "conv4_3_norm_mbox_loc_perm"
  permute_param {
    order: 0
    order: 2
    order: 3
    order: 1
  }
}
layer {
  name: "conv4_3_norm_mbox_loc_flat"
  type: "Flatten"
  bottom: "conv4_3_norm_mbox_loc_perm"
  top: "conv4_3_norm_mbox_loc_flat"
  flatten_param {
    axis: 1
  }
}
layer {
  name: "conv4_3_norm_mbox_conf"
  type: "Convolution"
  bottom: "conv4_3_norm"
  top: "conv4_3_norm_mbox_conf"
  param {
    lr_mult: 1
    decay_mult: 1
  }
  param {
    lr_mult: 2
    decay_mult: 0
  }
  convolution_param {
    num_output: 324
    pad: 1
    kernel_size: 3
    stride: 1
    weight_filler {
      type: "xavier"
    }
    bias_filler {
      type: "constant"
      value: 0
    }
  }
}
layer {
  name: "conv4_3_norm_mbox_conf_perm"
  type: "Permute"
  bottom: "conv4_3_norm_mbox_conf"
  top: "conv4_3_norm_mbox_conf_perm"
  permute_param {
    order: 0
    order: 2
    order: 3
    order: 1
  }
}
layer {
  name: "conv4_3_norm_mbox_conf_flat"
  type: "Flatten"
  bottom: "conv4_3_norm_mbox_conf_perm"
  top: "conv4_3_norm_mbox_conf_flat"
  flatten_param {
    axis: 1
  }
}
layer {
  name: "conv4_3_norm_mbox_priorbox"
  type: "PriorBox"
  bottom: "conv4_3_norm"
  bottom: "data"
  top: "conv4_3_norm_mbox_priorbox"
  prior_box_param {
    min_size: 21
    max_size: 45
    aspect_ratio: 2
    flip: true
    clip: false
    variance: 0.1
    variance: 0.1
    variance: 0.2
    variance: 0.2
    step: 8
    offset: 0.5
  }
}
layer {
  name: "fc7_mbox_loc"
  type: "Convolution"
  bottom: "fc7"
  top: "fc7_mbox_loc"
  param {
    lr_mult: 1
    decay_mult: 1
  }
  param {
    lr_mult: 2
    decay_mult: 0
  }
  convolution_param {
    num_output: 24
    pad: 1
    kernel_size: 3
    stride: 1
    weight_filler {
      type: "xavier"
    }
    bias_filler {
      type: "constant"
      value: 0
    }
  }
}
layer {
  name: "fc7_mbox_loc_perm"
  type: "Permute"
  bottom: "fc7_mbox_loc"
  top: "fc7_mbox_loc_perm"
  permute_param {
    order: 0
    order: 2
    order: 3
    order: 1
  }
}
layer {
  name: "fc7_mbox_loc_flat"
  type: "Flatten"
  bottom: "fc7_mbox_loc_perm"
  top: "fc7_mbox_loc_flat"
  flatten_param {
    axis: 1
  }
}
layer {
  name: "fc7_mbox_conf"
  type: "Convolution"
  bottom: "fc7"
  top: "fc7_mbox_conf"
  param {
    lr_mult: 1
    decay_mult: 1
  }
  param {
    lr_mult: 2
    decay_mult: 0
  }
  convolution_param {
    num_output: 486
    pad: 1
    kernel_size: 3
    stride: 1
    weight_filler {
      type: "xavier"
    }
    bias_fil
I0302 22:41:31.517938  2269 layer_factory.hpp:77] Creating layer data
I0302 22:41:31.518553  2269 net.cpp:100] Creating Layer data
I0302 22:41:31.518570  2269 net.cpp:408] data -> data
I0302 22:41:31.518604  2269 net.cpp:408] data -> label
I0302 22:41:31.519615  2275 db_lmdb.cpp:35] Opened lmdb examples/coco/coco_train_lmdb
I0302 22:41:31.539180  2269 annotated_data_layer.cpp:62] output data size: 8,3,300,300
I0302 22:41:31.556164  2269 net.cpp:150] Setting up data
I0302 22:41:31.556196  2269 net.cpp:157] Top shape: 8 3 300 300 (2160000)
I0302 22:41:31.556203  2269 net.cpp:157] Top shape: 1 1 22 8 (176)
I0302 22:41:31.556208  2269 net.cpp:165] Memory required for data: 8640704
I0302 22:41:31.556221  2269 layer_factory.hpp:77] Creating layer data_data_0_split
I0302 22:41:31.556246  2269 net.cpp:100] Creating Layer data_data_0_split
I0302 22:41:31.556257  2269 net.cpp:434] data_data_0_split <- data
I0302 22:41:31.556280  2269 net.cpp:408] data_data_0_split -> data_data_0_split_0
I0302 22:41:31.556299  2269 net.cpp:408] data_data_0_split -> data_data_0_split_1
I0302 22:41:31.556314  2269 net.cpp:408] data_data_0_split -> data_data_0_split_2
I0302 22:41:31.556327  2269 net.cpp:408] data_data_0_split -> data_data_0_split_3
I0302 22:41:31.556339  2269 net.cpp:408] data_data_0_split -> data_data_0_split_4
I0302 22:41:31.556365  2269 net.cpp:408] data_data_0_split -> data_data_0_split_5
I0302 22:41:31.556385  2269 net.cpp:408] data_data_0_split -> data_data_0_split_6
I0302 22:41:31.556532  2269 net.cpp:150] Setting up data_data_0_split
I0302 22:41:31.556550  2269 net.cpp:157] Top shape: 8 3 300 300 (2160000)
I0302 22:41:31.556558  2269 net.cpp:157] Top shape: 8 3 300 300 (2160000)
I0302 22:41:31.556568  2269 net.cpp:157] Top shape: 8 3 300 300 (2160000)
I0302 22:41:31.556577  2269 net.cpp:157] Top shape: 8 3 300 300 (2160000)
I0302 22:41:31.556610  2269 net.cpp:157] Top shape: 8 3 300 300 (2160000)
I0302 22:41:31.556627  2269 net.cpp:157] Top shape: 8 3 300 300 (2160000)
I0302 22:41:31.556646  2269 net.cpp:157] Top shape: 8 3 300 300 (2160000)
I0302 22:41:31.556653  2269 net.cpp:165] Memory required for data: 69120704
I0302 22:41:31.556661  2269 layer_factory.hpp:77] Creating layer label_data_1_split
I0302 22:41:31.556679  2269 net.cpp:100] Creating Layer label_data_1_split
I0302 22:41:31.556696  2269 net.cpp:434] label_data_1_split <- label
I0302 22:41:31.556711  2269 net.cpp:408] label_data_1_split -> label_data_1_split_0
I0302 22:41:31.556730  2269 net.cpp:408] label_data_1_split -> label_data_1_split_1
I0302 22:41:31.556792  2269 net.cpp:150] Setting up label_data_1_split
I0302 22:41:31.556807  2269 net.cpp:157] Top shape: 1 1 22 8 (176)
I0302 22:41:31.556818  2269 net.cpp:157] Top shape: 1 1 22 8 (176)
I0302 22:41:31.556828  2269 net.cpp:165] Memory required for data: 69122112
I0302 22:41:31.556838  2269 layer_factory.hpp:77] Creating layer conv1_1
I0302 22:41:31.556875  2269 net.cpp:100] Creating Layer conv1_1
I0302 22:41:31.556885  2269 net.cpp:434] conv1_1 <- data_data_0_split_0
I0302 22:41:31.556900  2269 net.cpp:408] conv1_1 -> conv1_1
I0302 22:41:31.701813  2276 blocking_queue.cpp:50] Waiting for data
I0302 22:41:31.991444  2269 net.cpp:150] Setting up conv1_1
I0302 22:41:31.991473  2269 net.cpp:157] Top shape: 8 64 300 300 (46080000)
I0302 22:41:31.991479  2269 net.cpp:165] Memory required for data: 253442112
I0302 22:41:31.991503  2269 layer_factory.hpp:77] Creating layer relu1_1
I0302 22:41:31.991523  2269 net.cpp:100] Creating Layer relu1_1
I0302 22:41:31.991533  2269 net.cpp:434] relu1_1 <- conv1_1
I0302 22:41:31.991547  2269 net.cpp:395] relu1_1 -> conv1_1 (in-place)
I0302 22:41:31.991722  2269 net.cpp:150] Setting up relu1_1
I0302 22:41:31.991736  2269 net.cpp:157] Top shape: 8 64 300 300 (46080000)
I0302 22:41:31.991746  2269 net.cpp:165] Memory required for data: 437762112
I0302 22:41:31.991753  2269 layer_factory.hpp:77] Creating layer conv1_2
I0302 22:41:31.991773  2269 net.cpp:100] Creating Layer conv1_2
I0302 22:41:31.991781  2269 net.cpp:434] conv1_2 <- conv1_1
I0302 22:41:31.991793  2269 net.cpp:408] conv1_2 -> conv1_2
I0302 22:41:31.993680  2269 net.cpp:150] Setting up conv1_2
I0302 22:41:31.993698  2269 net.cpp:157] Top shape: 8 64 300 300 (46080000)
I0302 22:41:31.993705  2269 net.cpp:165] Memory required for data: 622082112
I0302 22:41:31.993718  2269 layer_factory.hpp:77] Creating layer relu1_2
I0302 22:41:31.993736  2269 net.cpp:100] Creating Layer relu1_2
I0302 22:41:31.993746  2269 net.cpp:434] relu1_2 <- conv1_2
I0302 22:41:31.993757  2269 net.cpp:395] relu1_2 -> conv1_2 (in-place)
I0302 22:41:31.993912  2269 net.cpp:150] Setting up relu1_2
I0302 22:41:31.993924  2269 net.cpp:157] Top shape: 8 64 300 300 (46080000)
I0302 22:41:31.993933  2269 net.cpp:165] Memory required for data: 806402112
I0302 22:41:31.993943  2269 layer_factory.hpp:77] Creating layer pool1
I0302 22:41:31.993959  2269 net.cpp:100] Creating Layer pool1
I0302 22:41:31.993971  2269 net.cpp:434] pool1 <- conv1_2
I0302 22:41:31.993986  2269 net.cpp:408] pool1 -> pool1
I0302 22:41:31.994050  2269 net.cpp:150] Setting up pool1
I0302 22:41:31.994062  2269 net.cpp:157] Top shape: 8 64 150 150 (11520000)
I0302 22:41:31.994071  2269 net.cpp:165] Memory required for data: 852482112
I0302 22:41:31.994081  2269 layer_factory.hpp:77] Creating layer conv2_1
I0302 22:41:31.994101  2269 net.cpp:100] Creating Layer conv2_1
I0302 22:41:31.994109  2269 net.cpp:434] conv2_1 <- pool1
I0302 22:41:31.994128  2269 net.cpp:408] conv2_1 -> conv2_1
I0302 22:41:31.995386  2269 net.cpp:150] Setting up conv2_1
I0302 22:41:31.995404  2269 net.cpp:157] Top shape: 8 128 150 150 (23040000)
I0302 22:41:31.995410  2269 net.cpp:165] Memory required for data: 944642112
I0302 22:41:31.995429  2269 layer_factory.hpp:77] Creating layer relu2_1
I0302 22:41:31.995441  2269 net.cpp:100] Creating Layer relu2_1
I0302 22:41:31.995451  2269 net.cpp:434] relu2_1 <- conv2_1
I0302 22:41:31.995484  2269 net.cpp:395] relu2_1 -> conv2_1 (in-place)
I0302 22:41:31.997509  2269 net.cpp:150] Setting up relu2_1
I0302 22:41:31.997524  2269 net.cpp:157] Top shape: 8 128 150 150 (23040000)
I0302 22:41:31.997530  2269 net.cpp:165] Memory required for data: 1036802112
I0302 22:41:31.997537  2269 layer_factory.hpp:77] Creating layer conv2_2
I0302 22:41:31.997551  2269 net.cpp:100] Creating Layer conv2_2
I0302 22:41:31.997563  2269 net.cpp:434] conv2_2 <- conv2_1
I0302 22:41:31.997577  2269 net.cpp:408] conv2_2 -> conv2_2
I0302 22:41:31.999454  2269 net.cpp:150] Setting up conv2_2
I0302 22:41:31.999472  2269 net.cpp:157] Top shape: 8 128 150 150 (23040000)
I0302 22:41:31.999480  2269 net.cpp:165] Memory required for data: 1128962112
I0302 22:41:31.999491  2269 layer_factory.hpp:77] Creating layer relu2_2
I0302 22:41:31.999505  2269 net.cpp:100] Creating Layer relu2_2
I0302 22:41:31.999519  2269 net.cpp:434] relu2_2 <- conv2_2
I0302 22:41:31.999531  2269 net.cpp:395] relu2_2 -> conv2_2 (in-place)
I0302 22:41:31.999706  2269 net.cpp:150] Setting up relu2_2
I0302 22:41:31.999719  2269 net.cpp:157] Top shape: 8 128 150 150 (23040000)
I0302 22:41:31.999727  2269 net.cpp:165] Memory required for data: 1221122112
I0302 22:41:31.999734  2269 layer_factory.hpp:77] Creating layer pool2
I0302 22:41:31.999755  2269 net.cpp:100] Creating Layer pool2
I0302 22:41:31.999763  2269 net.cpp:434] pool2 <- conv2_2
I0302 22:41:31.999779  2269 net.cpp:408] pool2 -> pool2
I0302 22:41:31.999832  2269 net.cpp:150] Setting up pool2
I0302 22:41:31.999850  2269 net.cpp:157] Top shape: 8 128 75 75 (5760000)
I0302 22:41:31.999855  2269 net.cpp:165] Memory required for data: 1244162112
I0302 22:41:31.999863  2269 layer_factory.hpp:77] Creating layer conv3_1
I0302 22:41:31.999883  2269 net.cpp:100] Creating Layer conv3_1
I0302 22:41:31.999894  2269 net.cpp:434] conv3_1 <- pool2
I0302 22:41:31.999912  2269 net.cpp:408] conv3_1 -> conv3_1
I0302 22:41:32.004925  2269 net.cpp:150] Setting up conv3_1
I0302 22:41:32.004940  2269 net.cpp:157] Top shape: 8 256 75 75 (11520000)
I0302 22:41:32.004947  2269 net.cpp:165] Memory required for data: 1290242112
I0302 22:41:32.004962  2269 layer_factory.hpp:77] Creating layer relu3_1
I0302 22:41:32.004978  2269 net.cpp:100] Creating Layer relu3_1
I0302 22:41:32.004986  2269 net.cpp:434] relu3_1 <- conv3_1
I0302 22:41:32.005007  2269 net.cpp:395] relu3_1 -> conv3_1 (in-place)
I0302 22:41:32.005179  2269 net.cpp:150] Setting up relu3_1
I0302 22:41:32.005195  2269 net.cpp:157] Top shape: 8 256 75 75 (11520000)
I0302 22:41:32.005201  2269 net.cpp:165] Memory required for data: 1336322112
I0302 22:41:32.005210  2269 layer_factory.hpp:77] Creating layer conv3_2
I0302 22:41:32.005226  2269 net.cpp:100] Creating Layer conv3_2
I0302 22:41:32.005239  2269 net.cpp:434] conv3_2 <- conv3_1
I0302 22:41:32.005255  2269 net.cpp:408] conv3_2 -> conv3_2
I0302 22:41:32.009716  2269 net.cpp:150] Setting up conv3_2
I0302 22:41:32.009732  2269 net.cpp:157] Top shape: 8 256 75 75 (11520000)
I0302 22:41:32.009738  2269 net.cpp:165] Memory required for data: 1382402112
I0302 22:41:32.009749  2269 layer_factory.hpp:77] Creating layer relu3_2
I0302 22:41:32.009770  2269 net.cpp:100] Creating Layer relu3_2
I0302 22:41:32.009785  2269 net.cpp:434] relu3_2 <- conv3_2
I0302 22:41:32.009801  2269 net.cpp:395] relu3_2 -> conv3_2 (in-place)
I0302 22:41:32.010272  2269 net.cpp:150] Setting up relu3_2
I0302 22:41:32.010288  2269 net.cpp:157] Top shape: 8 256 75 75 (11520000)
I0302 22:41:32.010295  2269 net.cpp:165] Memory required for data: 1428482112
I0302 22:41:32.010303  2269 layer_factory.hpp:77] Creating layer conv3_3
I0302 22:41:32.010319  2269 net.cpp:100] Creating Layer conv3_3
I0302 22:41:32.010362  2269 net.cpp:434] conv3_3 <- conv3_2
I0302 22:41:32.010380  2269 net.cpp:408] conv3_3 -> conv3_3
I0302 22:41:32.014871  2269 net.cpp:150] Setting up conv3_3
I0302 22:41:32.014889  2269 net.cpp:157] Top shape: 8 256 75 75 (11520000)
I0302 22:41:32.014897  2269 net.cpp:165] Memory required for data: 1474562112
I0302 22:41:32.014906  2269 layer_factory.hpp:77] Creating layer relu3_3
I0302 22:41:32.014932  2269 net.cpp:100] Creating Layer relu3_3
I0302 22:41:32.014942  2269 net.cpp:434] relu3_3 <- conv3_3
I0302 22:41:32.014953  2269 net.cpp:395] relu3_3 -> conv3_3 (in-place)
I0302 22:41:32.015128  2269 net.cpp:150] Setting up relu3_3
I0302 22:41:32.015142  2269 net.cpp:157] Top shape: 8 256 75 75 (11520000)
I0302 22:41:32.015151  2269 net.cpp:165] Memory required for data: 1520642112
I0302 22:41:32.015157  2269 layer_factory.hpp:77] Creating layer pool3
I0302 22:41:32.015169  2269 net.cpp:100] Creating Layer pool3
I0302 22:41:32.015183  2269 net.cpp:434] pool3 <- conv3_3
I0302 22:41:32.015193  2269 net.cpp:408] pool3 -> pool3
I0302 22:41:32.015247  2269 net.cpp:150] Setting up pool3
I0302 22:41:32.015261  2269 net.cpp:157] Top shape: 8 256 38 38 (2957312)
I0302 22:41:32.015267  2269 net.cpp:165] Memory required for data: 1532471360
I0302 22:41:32.015281  2269 layer_factory.hpp:77] Creating layer conv4_1
I0302 22:41:32.015303  2269 net.cpp:100] Creating Layer conv4_1
I0302 22:41:32.015318  2269 net.cpp:434] conv4_1 <- pool3
I0302 22:41:32.015336  2269 net.cpp:408] conv4_1 -> conv4_1
I0302 22:41:32.026708  2269 net.cpp:150] Setting up conv4_1
I0302 22:41:32.026727  2269 net.cpp:157] Top shape: 8 512 38 38 (5914624)
I0302 22:41:32.026733  2269 net.cpp:165] Memory required for data: 1556129856
I0302 22:41:32.026743  2269 layer_factory.hpp:77] Creating layer relu4_1
I0302 22:41:32.026757  2269 net.cpp:100] Creating Layer relu4_1
I0302 22:41:32.026767  2269 net.cpp:434] relu4_1 <- conv4_1
I0302 22:41:32.026783  2269 net.cpp:395] relu4_1 -> conv4_1 (in-place)
I0302 22:41:32.026958  2269 net.cpp:150] Setting up relu4_1
I0302 22:41:32.026970  2269 net.cpp:157] Top shape: 8 512 38 38 (5914624)
I0302 22:41:32.026980  2269 net.cpp:165] Memory required for data: 1579788352
I0302 22:41:32.026986  2269 layer_factory.hpp:77] Creating layer conv4_2
I0302 22:41:32.027001  2269 net.cpp:100] Creating Layer conv4_2
I0302 22:41:32.027014  2269 net.cpp:434] conv4_2 <- conv4_1
I0302 22:41:32.027027  2269 net.cpp:408] conv4_2 -> conv4_2
I0302 22:41:32.039739  2269 net.cpp:150] Setting up conv4_2
I0302 22:41:32.039758  2269 net.cpp:157] Top shape: 8 512 38 38 (5914624)
I0302 22:41:32.039763  2269 net.cpp:165] Memory required for data: 1603446848
I0302 22:41:32.039783  2269 layer_factory.hpp:77] Creating layer relu4_2
I0302 22:41:32.039798  2269 net.cpp:100] Creating Layer relu4_2
I0302 22:41:32.039810  2269 net.cpp:434] relu4_2 <- conv4_2
I0302 22:41:32.039829  2269 net.cpp:395] relu4_2 -> conv4_2 (in-place)
I0302 22:41:32.039997  2269 net.cpp:150] Setting up relu4_2
I0302 22:41:32.040010  2269 net.cpp:157] Top shape: 8 512 38 38 (5914624)
I0302 22:41:32.040016  2269 net.cpp:165] Memory required for data: 1627105344
I0302 22:41:32.040022  2269 layer_factory.hpp:77] Creating layer conv4_3
I0302 22:41:32.040050  2269 net.cpp:100] Creating Layer conv4_3
I0302 22:41:32.040061  2269 net.cpp:434] conv4_3 <- conv4_2
I0302 22:41:32.040076  2269 net.cpp:408] conv4_3 -> conv4_3_ori
I0302 22:41:32.052798  2269 net.cpp:150] Setting up conv4_3
I0302 22:41:32.052816  2269 net.cpp:157] Top shape: 8 512 38 38 (5914624)
I0302 22:41:32.052822  2269 net.cpp:165] Memory required for data: 1650763840
I0302 22:41:32.052834  2269 layer_factory.hpp:77] Creating layer relu4_3
I0302 22:41:32.052844  2269 net.cpp:100] Creating Layer relu4_3
I0302 22:41:32.052856  2269 net.cpp:434] relu4_3 <- conv4_3_ori
I0302 22:41:32.052872  2269 net.cpp:395] relu4_3 -> conv4_3_ori (in-place)
I0302 22:41:32.053364  2269 net.cpp:150] Setting up relu4_3
I0302 22:41:32.053377  2269 net.cpp:157] Top shape: 8 512 38 38 (5914624)
I0302 22:41:32.053385  2269 net.cpp:165] Memory required for data: 1674422336
I0302 22:41:32.053392  2269 layer_factory.hpp:77] Creating layer conv4_3_ori_relu4_3_0_split
I0302 22:41:32.053406  2269 net.cpp:100] Creating Layer conv4_3_ori_relu4_3_0_split
I0302 22:41:32.053416  2269 net.cpp:434] conv4_3_ori_relu4_3_0_split <- conv4_3_ori
I0302 22:41:32.053426  2269 net.cpp:408] conv4_3_ori_relu4_3_0_split -> conv4_3_ori_relu4_3_0_split_0
I0302 22:41:32.053462  2269 net.cpp:408] conv4_3_ori_relu4_3_0_split -> conv4_3_ori_relu4_3_0_split_1
I0302 22:41:32.053505  2269 net.cpp:150] Setting up conv4_3_ori_relu4_3_0_split
I0302 22:41:32.053517  2269 net.cpp:157] Top shape: 8 512 38 38 (5914624)
I0302 22:41:32.053529  2269 net.cpp:157] Top shape: 8 512 38 38 (5914624)
I0302 22:41:32.053540  2269 net.cpp:165] Memory required for data: 1721739328
I0302 22:41:32.053550  2269 layer_factory.hpp:77] Creating layer seg_pool4
I0302 22:41:32.053563  2269 net.cpp:100] Creating Layer seg_pool4
I0302 22:41:32.053576  2269 net.cpp:434] seg_pool4 <- conv4_3_ori_relu4_3_0_split_0
I0302 22:41:32.053586  2269 net.cpp:408] seg_pool4 -> seg_pool4
I0302 22:41:32.053637  2269 net.cpp:150] Setting up seg_pool4
I0302 22:41:32.053650  2269 net.cpp:157] Top shape: 8 512 38 38 (5914624)
I0302 22:41:32.053659  2269 net.cpp:165] Memory required for data: 1745397824
I0302 22:41:32.053670  2269 layer_factory.hpp:77] Creating layer seg5_1
I0302 22:41:32.053692  2269 net.cpp:100] Creating Layer seg5_1
I0302 22:41:32.053707  2269 net.cpp:434] seg5_1 <- seg_pool4
I0302 22:41:32.053722  2269 net.cpp:408] seg5_1 -> seg5_1
I0302 22:41:32.065616  2269 net.cpp:150] Setting up seg5_1
I0302 22:41:32.065634  2269 net.cpp:157] Top shape: 8 512 38 38 (5914624)
I0302 22:41:32.065640  2269 net.cpp:165] Memory required for data: 1769056320
I0302 22:41:32.065651  2269 layer_factory.hpp:77] Creating layer seg_relu5_1
I0302 22:41:32.065661  2269 net.cpp:100] Creating Layer seg_relu5_1
I0302 22:41:32.065667  2269 net.cpp:434] seg_relu5_1 <- seg5_1
I0302 22:41:32.065681  2269 net.cpp:395] seg_relu5_1 -> seg5_1 (in-place)
I0302 22:41:32.065871  2269 net.cpp:150] Setting up seg_relu5_1
I0302 22:41:32.065886  2269 net.cpp:157] Top shape: 8 512 38 38 (5914624)
I0302 22:41:32.065892  2269 net.cpp:165] Memory required for data: 1792714816
I0302 22:41:32.065901  2269 layer_factory.hpp:77] Creating layer seg5_2
I0302 22:41:32.065918  2269 net.cpp:100] Creating Layer seg5_2
I0302 22:41:32.065933  2269 net.cpp:434] seg5_2 <- seg5_1
I0302 22:41:32.065948  2269 net.cpp:408] seg5_2 -> seg5_2
I0302 22:41:32.077898  2269 net.cpp:150] Setting up seg5_2
I0302 22:41:32.077914  2269 net.cpp:157] Top shape: 8 512 38 38 (5914624)
I0302 22:41:32.077922  2269 net.cpp:165] Memory required for data: 1816373312
I0302 22:41:32.077932  2269 layer_factory.hpp:77] Creating layer seg_relu5_2
I0302 22:41:32.077945  2269 net.cpp:100] Creating Layer seg_relu5_2
I0302 22:41:32.077962  2269 net.cpp:434] seg_relu5_2 <- seg5_2
I0302 22:41:32.077978  2269 net.cpp:395] seg_relu5_2 -> seg5_2 (in-place)
I0302 22:41:32.078176  2269 net.cpp:150] Setting up seg_relu5_2
I0302 22:41:32.078191  2269 net.cpp:157] Top shape: 8 512 38 38 (5914624)
I0302 22:41:32.078200  2269 net.cpp:165] Memory required for data: 1840031808
I0302 22:41:32.078207  2269 layer_factory.hpp:77] Creating layer seg5_3
I0302 22:41:32.078232  2269 net.cpp:100] Creating Layer seg5_3
I0302 22:41:32.078241  2269 net.cpp:434] seg5_3 <- seg5_2
I0302 22:41:32.078256  2269 net.cpp:408] seg5_3 -> seg5_3
I0302 22:41:32.090204  2269 net.cpp:150] Setting up seg5_3
I0302 22:41:32.090222  2269 net.cpp:157] Top shape: 8 512 38 38 (5914624)
I0302 22:41:32.090229  2269 net.cpp:165] Memory required for data: 1863690304
I0302 22:41:32.090241  2269 layer_factory.hpp:77] Creating layer seg_relu5_3
I0302 22:41:32.090252  2269 net.cpp:100] Creating Layer seg_relu5_3
I0302 22:41:32.090260  2269 net.cpp:434] seg_relu5_3 <- seg5_3
I0302 22:41:32.090276  2269 net.cpp:395] seg_relu5_3 -> seg5_3 (in-place)
I0302 22:41:32.090869  2269 net.cpp:150] Setting up seg_relu5_3
I0302 22:41:32.090893  2269 net.cpp:157] Top shape: 8 512 38 38 (5914624)
I0302 22:41:32.090904  2269 net.cpp:165] Memory required for data: 1887348800
I0302 22:41:32.090912  2269 layer_factory.hpp:77] Creating layer seg_pool5
I0302 22:41:32.090927  2269 net.cpp:100] Creating Layer seg_pool5
I0302 22:41:32.090946  2269 net.cpp:434] seg_pool5 <- seg5_3
I0302 22:41:32.090960  2269 net.cpp:408] seg_pool5 -> seg_pool5
I0302 22:41:32.091027  2269 net.cpp:150] Setting up seg_pool5
I0302 22:41:32.091047  2269 net.cpp:157] Top shape: 8 512 38 38 (5914624)
I0302 22:41:32.091054  2269 net.cpp:165] Memory required for data: 1911007296
I0302 22:41:32.091061  2269 layer_factory.hpp:77] Creating layer seg6
I0302 22:41:32.091079  2269 net.cpp:100] Creating Layer seg6
I0302 22:41:32.091094  2269 net.cpp:434] seg6 <- seg_pool5
I0302 22:41:32.091110  2269 net.cpp:408] seg6 -> seg6
I0302 22:41:32.115211  2269 net.cpp:150] Setting up seg6
I0302 22:41:32.115240  2269 net.cpp:157] Top shape: 8 1024 38 38 (11829248)
I0302 22:41:32.115247  2269 net.cpp:165] Memory required for data: 1958324288
I0302 22:41:32.115257  2269 layer_factory.hpp:77] Creating layer seg_relu6
I0302 22:41:32.115268  2269 net.cpp:100] Creating Layer seg_relu6
I0302 22:41:32.115274  2269 net.cpp:434] seg_relu6 <- seg6
I0302 22:41:32.115288  2269 net.cpp:395] seg_relu6 -> seg6 (in-place)
I0302 22:41:32.115501  2269 net.cpp:150] Setting up seg_relu6
I0302 22:41:32.115514  2269 net.cpp:157] Top shape: 8 1024 38 38 (11829248)
I0302 22:41:32.115520  2269 net.cpp:165] Memory required for data: 2005641280
I0302 22:41:32.115531  2269 layer_factory.hpp:77] Creating layer seg_drop6
I0302 22:41:32.115545  2269 net.cpp:100] Creating Layer seg_drop6
I0302 22:41:32.115552  2269 net.cpp:434] seg_drop6 <- seg6
I0302 22:41:32.115566  2269 net.cpp:395] seg_drop6 -> seg6 (in-place)
I0302 22:41:32.115599  2269 net.cpp:150] Setting up seg_drop6
I0302 22:41:32.115607  2269 net.cpp:157] Top shape: 8 1024 38 38 (11829248)
I0302 22:41:32.115612  2269 net.cpp:165] Memory required for data: 2052958272
I0302 22:41:32.115618  2269 layer_factory.hpp:77] Creating layer seg7
I0302 22:41:32.115645  2269 net.cpp:100] Creating Layer seg7
I0302 22:41:32.115651  2269 net.cpp:434] seg7 <- seg6
I0302 22:41:32.115664  2269 net.cpp:408] seg7 -> seg7
I0302 22:41:32.122254  2269 net.cpp:150] Setting up seg7
I0302 22:41:32.122269  2269 net.cpp:157] Top shape: 8 1024 38 38 (11829248)
I0302 22:41:32.122274  2269 net.cpp:165] Memory required for data: 2100275264
I0302 22:41:32.122283  2269 layer_factory.hpp:77] Creating layer seg_relu7
I0302 22:41:32.122297  2269 net.cpp:100] Creating Layer seg_relu7
I0302 22:41:32.122304  2269 net.cpp:434] seg_relu7 <- seg7
I0302 22:41:32.122311  2269 net.cpp:395] seg_relu7 -> seg7 (in-place)
I0302 22:41:32.122491  2269 net.cpp:150] Setting up seg_relu7
I0302 22:41:32.122503  2269 net.cpp:157] Top shape: 8 1024 38 38 (11829248)
I0302 22:41:32.122508  2269 net.cpp:165] Memory required for data: 2147592256
I0302 22:41:32.122512  2269 layer_factory.hpp:77] Creating layer seg7_seg_relu7_0_split
I0302 22:41:32.122521  2269 net.cpp:100] Creating Layer seg7_seg_relu7_0_split
I0302 22:41:32.122532  2269 net.cpp:434] seg7_seg_relu7_0_split <- seg7
I0302 22:41:32.122542  2269 net.cpp:408] seg7_seg_relu7_0_split -> seg7_seg_relu7_0_split_0
I0302 22:41:32.122555  2269 net.cpp:408] seg7_seg_relu7_0_split -> seg7_seg_relu7_0_split_1
I0302 22:41:32.122599  2269 net.cpp:150] Setting up seg7_seg_relu7_0_split
I0302 22:41:32.122606  2269 net.cpp:157] Top shape: 8 1024 38 38 (11829248)
I0302 22:41:32.122613  2269 net.cpp:157] Top shape: 8 1024 38 38 (11829248)
I0302 22:41:32.122623  2269 net.cpp:165] Memory required for data: 2242226240
I0302 22:41:32.122630  2269 layer_factory.hpp:77] Creating layer seg_drop7
I0302 22:41:32.122640  2269 net.cpp:100] Creating Layer seg_drop7
I0302 22:41:32.122648  2269 net.cpp:434] seg_drop7 <- seg7_seg_relu7_0_split_0
I0302 22:41:32.122658  2269 net.cpp:408] seg_drop7 -> seg7d
I0302 22:41:32.122694  2269 net.cpp:150] Setting up seg_drop7
I0302 22:41:32.122700  2269 net.cpp:157] Top shape: 8 1024 38 38 (11829248)
I0302 22:41:32.122705  2269 net.cpp:165] Memory required for data: 2289543232
I0302 22:41:32.122709  2269 layer_factory.hpp:77] Creating layer seg
I0302 22:41:32.122723  2269 net.cpp:100] Creating Layer seg
I0302 22:41:32.122733  2269 net.cpp:434] seg <- seg7d
I0302 22:41:32.122745  2269 net.cpp:408] seg -> seg
I0302 22:41:32.124356  2269 net.cpp:150] Setting up seg
I0302 22:41:32.124382  2269 net.cpp:157] Top shape: 8 81 38 38 (935712)
I0302 22:41:32.124387  2269 net.cpp:165] Memory required for data: 2293286080
I0302 22:41:32.124397  2269 layer_factory.hpp:77] Creating layer seg_seg_0_split
I0302 22:41:32.124408  2269 net.cpp:100] Creating Layer seg_seg_0_split
I0302 22:41:32.124413  2269 net.cpp:434] seg_seg_0_split <- seg
I0302 22:41:32.124423  2269 net.cpp:408] seg_seg_0_split -> seg_seg_0_split_0
I0302 22:41:32.124436  2269 net.cpp:408] seg_seg_0_split -> seg_seg_0_split_1
I0302 22:41:32.124475  2269 net.cpp:150] Setting up seg_seg_0_split
I0302 22:41:32.124483  2269 net.cpp:157] Top shape: 8 81 38 38 (935712)
I0302 22:41:32.124490  2269 net.cpp:157] Top shape: 8 81 38 38 (935712)
I0302 22:41:32.124498  2269 net.cpp:165] Memory required for data: 2300771776
I0302 22:41:32.124503  2269 layer_factory.hpp:77] Creating layer seg_gt
I0302 22:41:32.124512  2269 net.cpp:100] Creating Layer seg_gt
I0302 22:41:32.124523  2269 net.cpp:434] seg_gt <- label_data_1_split_0
I0302 22:41:32.124531  2269 net.cpp:434] seg_gt <- seg_seg_0_split_0
I0302 22:41:32.124539  2269 net.cpp:408] seg_gt -> seg_gt
I0302 22:41:32.124573  2269 net.cpp:150] Setting up seg_gt
I0302 22:41:32.124584  2269 net.cpp:157] Top shape: 8 1 38 38 (11552)
I0302 22:41:32.124591  2269 net.cpp:165] Memory required for data: 2300817984
I0302 22:41:32.124595  2269 layer_factory.hpp:77] Creating layer seg_loss
I0302 22:41:32.124606  2269 net.cpp:100] Creating Layer seg_loss
I0302 22:41:32.124616  2269 net.cpp:434] seg_loss <- seg_seg_0_split_1
I0302 22:41:32.124625  2269 net.cpp:434] seg_loss <- seg_gt
I0302 22:41:32.124634  2269 net.cpp:408] seg_loss -> seg_loss
I0302 22:41:32.124649  2269 layer_factory.hpp:77] Creating layer seg_loss
I0302 22:41:32.126677  2269 net.cpp:150] Setting up seg_loss
I0302 22:41:32.126690  2269 net.cpp:157] Top shape: (1)
I0302 22:41:32.126695  2269 net.cpp:160]     with loss weight 0.1
I0302 22:41:32.126718  2269 net.cpp:165] Memory required for data: 2300817988
I0302 22:41:32.126722  2269 layer_factory.hpp:77] Creating layer seg_to_det_conv
I0302 22:41:32.126737  2269 net.cpp:100] Creating Layer seg_to_det_conv
I0302 22:41:32.126745  2269 net.cpp:434] seg_to_det_conv <- seg7_seg_relu7_0_split_1
I0302 22:41:32.126756  2269 net.cpp:408] seg_to_det_conv -> seg_to_det_conv
I0302 22:41:32.130645  2269 net.cpp:150] Setting up seg_to_det_conv
I0302 22:41:32.130659  2269 net.cpp:157] Top shape: 8 512 38 38 (5914624)
I0302 22:41:32.130664  2269 net.cpp:165] Memory required for data: 2324476484
I0302 22:41:32.130681  2269 layer_factory.hpp:77] Creating layer mult_conv4_3
I0302 22:41:32.130692  2269 net.cpp:100] Creating Layer mult_conv4_3
I0302 22:41:32.130704  2269 net.cpp:434] mult_conv4_3 <- conv4_3_ori_relu4_3_0_split_1
I0302 22:41:32.130712  2269 net.cpp:434] mult_conv4_3 <- seg_to_det_conv
I0302 22:41:32.130723  2269 net.cpp:408] mult_conv4_3 -> conv4_3_t
I0302 22:41:32.130754  2269 net.cpp:150] Setting up mult_conv4_3
I0302 22:41:32.130764  2269 net.cpp:157] Top shape: 8 512 38 38 (5914624)
I0302 22:41:32.130769  2269 net.cpp:165] Memory required for data: 2348134980
I0302 22:41:32.130774  2269 layer_factory.hpp:77] Creating layer conv4_3_t_mult_conv4_3_0_split
I0302 22:41:32.130789  2269 net.cpp:100] Creating Layer conv4_3_t_mult_conv4_3_0_split
I0302 22:41:32.130798  2269 net.cpp:434] conv4_3_t_mult_conv4_3_0_split <- conv4_3_t
I0302 22:41:32.130808  2269 net.cpp:408] conv4_3_t_mult_conv4_3_0_split -> conv4_3_t_mult_conv4_3_0_split_0
I0302 22:41:32.130821  2269 net.cpp:408] conv4_3_t_mult_conv4_3_0_split -> conv4_3_t_mult_conv4_3_0_split_1
I0302 22:41:32.130856  2269 net.cpp:150] Setting up conv4_3_t_mult_conv4_3_0_split
I0302 22:41:32.130868  2269 net.cpp:157] Top shape: 8 512 38 38 (5914624)
I0302 22:41:32.130874  2269 net.cpp:157] Top shape: 8 512 38 38 (5914624)
I0302 22:41:32.130879  2269 net.cpp:165] Memory required for data: 2395451972
I0302 22:41:32.130889  2269 layer_factory.hpp:77] Creating layer conv4_3_s
I0302 22:41:32.130905  2269 net.cpp:100] Creating Layer conv4_3_s
I0302 22:41:32.130926  2269 net.cpp:434] conv4_3_s <- conv4_3_t_mult_conv4_3_0_split_0
I0302 22:41:32.130936  2269 net.cpp:408] conv4_3_s -> conv4_3_s
I0302 22:41:32.131116  2269 net.cpp:150] Setting up conv4_3_s
I0302 22:41:32.131126  2269 net.cpp:157] Top shape: 8 512 1 1 (4096)
I0302 22:41:32.131130  2269 net.cpp:165] Memory required for data: 2395468356
I0302 22:41:32.131134  2269 layer_factory.hpp:77] Creating layer conv4_3_fc1
I0302 22:41:32.131150  2269 net.cpp:100] Creating Layer conv4_3_fc1
I0302 22:41:32.131157  2269 net.cpp:434] conv4_3_fc1 <- conv4_3_s
I0302 22:41:32.131168  2269 net.cpp:408] conv4_3_fc1 -> conv4_3_fc1
I0302 22:41:32.133641  2269 net.cpp:150] Setting up conv4_3_fc1
I0302 22:41:32.133653  2269 net.cpp:157] Top shape: 8 128 1 1 (1024)
I0302 22:41:32.133658  2269 net.cpp:165] Memory required for data: 2395472452
I0302 22:41:32.133667  2269 layer_factory.hpp:77] Creating layer conv4_3_relu
I0302 22:41:32.133677  2269 net.cpp:100] Creating Layer conv4_3_relu
I0302 22:41:32.133682  2269 net.cpp:434] conv4_3_relu <- conv4_3_fc1
I0302 22:41:32.133693  2269 net.cpp:395] conv4_3_relu -> conv4_3_fc1 (in-place)
I0302 22:41:32.133868  2269 net.cpp:150] Setting up conv4_3_relu
I0302 22:41:32.133877  2269 net.cpp:157] Top shape: 8 128 1 1 (1024)
I0302 22:41:32.133882  2269 net.cpp:165] Memory required for data: 2395476548
I0302 22:41:32.133886  2269 layer_factory.hpp:77] Creating layer conv4_3_fc2
I0302 22:41:32.133899  2269 net.cpp:100] Creating Layer conv4_3_fc2
I0302 22:41:32.133906  2269 net.cpp:434] conv4_3_fc2 <- conv4_3_fc1
I0302 22:41:32.133915  2269 net.cpp:408] conv4_3_fc2 -> conv4_3_fc2
I0302 22:41:32.135212  2269 net.cpp:150] Setting up conv4_3_fc2
I0302 22:41:32.135226  2269 net.cpp:157] Top shape: 8 512 1 1 (4096)
I0302 22:41:32.135231  2269 net.cpp:165] Memory required for data: 2395492932
I0302 22:41:32.135241  2269 layer_factory.hpp:77] Creating layer conv4_3_sig
I0302 22:41:32.135251  2269 net.cpp:100] Creating Layer conv4_3_sig
I0302 22:41:32.135257  2269 net.cpp:434] conv4_3_sig <- conv4_3_fc2
I0302 22:41:32.135267  2269 net.cpp:395] conv4_3_sig -> conv4_3_fc2 (in-place)
I0302 22:41:32.135421  2269 net.cpp:150] Setting up conv4_3_sig
I0302 22:41:32.135429  2269 net.cpp:157] Top shape: 8 512 1 1 (4096)
I0302 22:41:32.135433  2269 net.cpp:165] Memory required for data: 2395509316
I0302 22:41:32.135437  2269 layer_factory.hpp:77] Creating layer conv4_3_reshape
I0302 22:41:32.135449  2269 net.cpp:100] Creating Layer conv4_3_reshape
I0302 22:41:32.135457  2269 net.cpp:434] conv4_3_reshape <- conv4_3_fc2
I0302 22:41:32.135466  2269 net.cpp:408] conv4_3_reshape -> conv4_3_reshape
I0302 22:41:32.135506  2269 net.cpp:150] Setting up conv4_3_reshape
I0302 22:41:32.135512  2269 net.cpp:157] Top shape: 8 512 (4096)
I0302 22:41:32.135517  2269 net.cpp:165] Memory required for data: 2395525700
I0302 22:41:32.135522  2269 layer_factory.hpp:77] Creating layer conv4_3_scale
I0302 22:41:32.135534  2269 net.cpp:100] Creating Layer conv4_3_scale
I0302 22:41:32.135540  2269 net.cpp:434] conv4_3_scale <- conv4_3_t_mult_conv4_3_0_split_1
I0302 22:41:32.135555  2269 net.cpp:434] conv4_3_scale <- conv4_3_reshape
I0302 22:41:32.135567  2269 net.cpp:408] conv4_3_scale -> conv4_3
I0302 22:41:32.135637  2269 net.cpp:150] Setting up conv4_3_scale
I0302 22:41:32.135648  2269 net.cpp:157] Top shape: 8 512 38 38 (5914624)
I0302 22:41:32.135658  2269 net.cpp:165] Memory required for data: 2419184196
I0302 22:41:32.135663  2269 layer_factory.hpp:77] Creating layer conv4_3_conv4_3_scale_0_split
I0302 22:41:32.135673  2269 net.cpp:100] Creating Layer conv4_3_conv4_3_scale_0_split
I0302 22:41:32.135680  2269 net.cpp:434] conv4_3_conv4_3_scale_0_split <- conv4_3
I0302 22:41:32.135689  2269 net.cpp:408] conv4_3_conv4_3_scale_0_split -> conv4_3_conv4_3_scale_0_split_0
I0302 22:41:32.135705  2269 net.cpp:408] conv4_3_conv4_3_scale_0_split -> conv4_3_conv4_3_scale_0_split_1
I0302 22:41:32.135742  2269 net.cpp:150] Setting up conv4_3_conv4_3_scale_0_split
I0302 22:41:32.135749  2269 net.cpp:157] Top shape: 8 512 38 38 (5914624)
I0302 22:41:32.135768  2269 net.cpp:157] Top shape: 8 512 38 38 (5914624)
I0302 22:41:32.135773  2269 net.cpp:165] Memory required for data: 2466501188
I0302 22:41:32.135779  2269 layer_factory.hpp:77] Creating layer pool4
I0302 22:41:32.135789  2269 net.cpp:100] Creating Layer pool4
I0302 22:41:32.135802  2269 net.cpp:434] pool4 <- conv4_3_conv4_3_scale_0_split_0
I0302 22:41:32.135816  2269 net.cpp:408] pool4 -> pool4
I0302 22:41:32.135859  2269 net.cpp:150] Setting up pool4
I0302 22:41:32.135867  2269 net.cpp:157] Top shape: 8 512 19 19 (1478656)
I0302 22:41:32.135871  2269 net.cpp:165] Memory required for data: 2472415812
I0302 22:41:32.135884  2269 layer_factory.hpp:77] Creating layer conv5_1
I0302 22:41:32.135900  2269 net.cpp:100] Creating Layer conv5_1
I0302 22:41:32.135907  2269 net.cpp:434] conv5_1 <- pool4
I0302 22:41:32.135918  2269 net.cpp:408] conv5_1 -> conv5_1
I0302 22:41:32.148694  2269 net.cpp:150] Setting up conv5_1
I0302 22:41:32.148712  2269 net.cpp:157] Top shape: 8 512 19 19 (1478656)
I0302 22:41:32.148716  2269 net.cpp:165] Memory required for data: 2478330436
I0302 22:41:32.148726  2269 layer_factory.hpp:77] Creating layer relu5_1
I0302 22:41:32.148739  2269 net.cpp:100] Creating Layer relu5_1
I0302 22:41:32.148748  2269 net.cpp:434] relu5_1 <- conv5_1
I0302 22:41:32.148756  2269 net.cpp:395] relu5_1 -> conv5_1 (in-place)
I0302 22:41:32.149235  2269 net.cpp:150] Setting up relu5_1
I0302 22:41:32.149248  2269 net.cpp:157] Top shape: 8 512 19 19 (1478656)
I0302 22:41:32.149253  2269 net.cpp:165] Memory required for data: 2484245060
I0302 22:41:32.149257  2269 layer_factory.hpp:77] Creating layer conv5_2
I0302 22:41:32.149276  2269 net.cpp:100] Creating Layer conv5_2
I0302 22:41:32.149281  2269 net.cpp:434] conv5_2 <- conv5_1
I0302 22:41:32.149291  2269 net.cpp:408] conv5_2 -> conv5_2
I0302 22:41:32.163180  2269 net.cpp:150] Setting up conv5_2
I0302 22:41:32.163200  2269 net.cpp:157] Top shape: 8 512 19 19 (1478656)
I0302 22:41:32.163205  2269 net.cpp:165] Memory required for data: 2490159684
I0302 22:41:32.163215  2269 layer_factory.hpp:77] Creating layer relu5_2
I0302 22:41:32.163228  2269 net.cpp:100] Creating Layer relu5_2
I0302 22:41:32.163241  2269 net.cpp:434] relu5_2 <- conv5_2
I0302 22:41:32.163254  2269 net.cpp:395] relu5_2 -> conv5_2 (in-place)
I0302 22:41:32.163417  2269 net.cpp:150] Setting up relu5_2
I0302 22:41:32.163427  2269 net.cpp:157] Top shape: 8 512 19 19 (1478656)
I0302 22:41:32.163432  2269 net.cpp:165] Memory required for data: 2496074308
I0302 22:41:32.163439  2269 layer_factory.hpp:77] Creating layer conv5_3
I0302 22:41:32.163453  2269 net.cpp:100] Creating Layer conv5_3
I0302 22:41:32.163461  2269 net.cpp:434] conv5_3 <- conv5_2
I0302 22:41:32.163475  2269 net.cpp:408] conv5_3 -> conv5_3
I0302 22:41:32.176234  2269 net.cpp:150] Setting up conv5_3
I0302 22:41:32.176252  2269 net.cpp:157] Top shape: 8 512 19 19 (1478656)
I0302 22:41:32.176256  2269 net.cpp:165] Memory required for data: 2501988932
I0302 22:41:32.176270  2269 layer_factory.hpp:77] Creating layer relu5_3
I0302 22:41:32.176280  2269 net.cpp:100] Creating Layer relu5_3
I0302 22:41:32.176291  2269 net.cpp:434] relu5_3 <- conv5_3
I0302 22:41:32.176300  2269 net.cpp:395] relu5_3 -> conv5_3 (in-place)
I0302 22:41:32.176465  2269 net.cpp:150] Setting up relu5_3
I0302 22:41:32.176476  2269 net.cpp:157] Top shape: 8 512 19 19 (1478656)
I0302 22:41:32.176479  2269 net.cpp:165] Memory required for data: 2507903556
I0302 22:41:32.176486  2269 layer_factory.hpp:77] Creating layer pool5
I0302 22:41:32.176511  2269 net.cpp:100] Creating Layer pool5
I0302 22:41:32.176517  2269 net.cpp:434] pool5 <- conv5_3
I0302 22:41:32.176528  2269 net.cpp:408] pool5 -> pool5
I0302 22:41:32.176578  2269 net.cpp:150] Setting up pool5
I0302 22:41:32.176589  2269 net.cpp:157] Top shape: 8 512 19 19 (1478656)
I0302 22:41:32.176594  2269 net.cpp:165] Memory required for data: 2513818180
I0302 22:41:32.176602  2269 layer_factory.hpp:77] Creating layer fc6
I0302 22:41:32.176626  2269 net.cpp:100] Creating Layer fc6
I0302 22:41:32.176640  2269 net.cpp:434] fc6 <- pool5
I0302 22:41:32.176673  2269 net.cpp:408] fc6 -> fc6
I0302 22:41:32.200680  2269 net.cpp:150] Setting up fc6
I0302 22:41:32.200709  2269 net.cpp:157] Top shape: 8 1024 19 19 (2957312)
I0302 22:41:32.200716  2269 net.cpp:165] Memory required for data: 2525647428
I0302 22:41:32.200726  2269 layer_factory.hpp:77] Creating layer relu6
I0302 22:41:32.200738  2269 net.cpp:100] Creating Layer relu6
I0302 22:41:32.200749  2269 net.cpp:434] relu6 <- fc6
I0302 22:41:32.200765  2269 net.cpp:395] relu6 -> fc6 (in-place)
I0302 22:41:32.201448  2269 net.cpp:150] Setting up relu6
I0302 22:41:32.201460  2269 net.cpp:157] Top shape: 8 1024 19 19 (2957312)
I0302 22:41:32.201465  2269 net.cpp:165] Memory required for data: 2537476676
I0302 22:41:32.201472  2269 layer_factory.hpp:77] Creating layer fc7
I0302 22:41:32.201488  2269 net.cpp:100] Creating Layer fc7
I0302 22:41:32.201498  2269 net.cpp:434] fc7 <- fc6
I0302 22:41:32.201512  2269 net.cpp:408] fc7 -> fc7_t
I0302 22:41:32.208295  2269 net.cpp:150] Setting up fc7
I0302 22:41:32.208308  2269 net.cpp:157] Top shape: 8 1024 19 19 (2957312)
I0302 22:41:32.208313  2269 net.cpp:165] Memory required for data: 2549305924
I0302 22:41:32.208323  2269 layer_factory.hpp:77] Creating layer relu7
I0302 22:41:32.208336  2269 net.cpp:100] Creating Layer relu7
I0302 22:41:32.208348  2269 net.cpp:434] relu7 <- fc7_t
I0302 22:41:32.208356  2269 net.cpp:395] relu7 -> fc7_t (in-place)
I0302 22:41:32.208516  2269 net.cpp:150] Setting up relu7
I0302 22:41:32.208528  2269 net.cpp:157] Top shape: 8 1024 19 19 (2957312)
I0302 22:41:32.208534  2269 net.cpp:165] Memory required for data: 2561135172
I0302 22:41:32.208542  2269 layer_factory.hpp:77] Creating layer fc7_t_relu7_0_split
I0302 22:41:32.208556  2269 net.cpp:100] Creating Layer fc7_t_relu7_0_split
I0302 22:41:32.208566  2269 net.cpp:434] fc7_t_relu7_0_split <- fc7_t
I0302 22:41:32.208577  2269 net.cpp:408] fc7_t_relu7_0_split -> fc7_t_relu7_0_split_0
I0302 22:41:32.208591  2269 net.cpp:408] fc7_t_relu7_0_split -> fc7_t_relu7_0_split_1
I0302 22:41:32.208633  2269 net.cpp:150] Setting up fc7_t_relu7_0_split
I0302 22:41:32.208648  2269 net.cpp:157] Top shape: 8 1024 19 19 (2957312)
I0302 22:41:32.208654  2269 net.cpp:157] Top shape: 8 1024 19 19 (2957312)
I0302 22:41:32.208663  2269 net.cpp:165] Memory required for data: 2584793668
I0302 22:41:32.208678  2269 layer_factory.hpp:77] Creating layer fc7_s
I0302 22:41:32.208696  2269 net.cpp:100] Creating Layer fc7_s
I0302 22:41:32.208706  2269 net.cpp:434] fc7_s <- fc7_t_relu7_0_split_0
I0302 22:41:32.208720  2269 net.cpp:408] fc7_s -> fc7_s
I0302 22:41:32.208899  2269 net.cpp:150] Setting up fc7_s
I0302 22:41:32.208909  2269 net.cpp:157] Top shape: 8 1024 1 1 (8192)
I0302 22:41:32.208914  2269 net.cpp:165] Memory required for data: 2584826436
I0302 22:41:32.208920  2269 layer_factory.hpp:77] Creating layer fc7_fc1
I0302 22:41:32.208935  2269 net.cpp:100] Creating Layer fc7_fc1
I0302 22:41:32.208942  2269 net.cpp:434] fc7_fc1 <- fc7_s
I0302 22:41:32.208953  2269 net.cpp:408] fc7_fc1 -> fc7_fc1
I0302 22:41:32.213873  2269 net.cpp:150] Setting up fc7_fc1
I0302 22:41:32.213887  2269 net.cpp:157] Top shape: 8 256 1 1 (2048)
I0302 22:41:32.213894  2269 net.cpp:165] Memory required for data: 2584834628
I0302 22:41:32.213906  2269 layer_factory.hpp:77] Creating layer fc7_relu
I0302 22:41:32.213922  2269 net.cpp:100] Creating Layer fc7_relu
I0302 22:41:32.213928  2269 net.cpp:434] fc7_relu <- fc7_fc1
I0302 22:41:32.213946  2269 net.cpp:395] fc7_relu -> fc7_fc1 (in-place)
I0302 22:41:32.214457  2269 net.cpp:150] Setting up fc7_relu
I0302 22:41:32.214469  2269 net.cpp:157] Top shape: 8 256 1 1 (2048)
I0302 22:41:32.214474  2269 net.cpp:165] Memory required for data: 2584842820
I0302 22:41:32.214480  2269 layer_factory.hpp:77] Creating layer fc7_fc2
I0302 22:41:32.214493  2269 net.cpp:100] Creating Layer fc7_fc2
I0302 22:41:32.214504  2269 net.cpp:434] fc7_fc2 <- fc7_fc1
I0302 22:41:32.214515  2269 net.cpp:408] fc7_fc2 -> fc7_fc2
I0302 22:41:32.216603  2269 net.cpp:150] Setting up fc7_fc2
I0302 22:41:32.216617  2269 net.cpp:157] Top shape: 8 1024 1 1 (8192)
I0302 22:41:32.216644  2269 net.cpp:165] Memory required for data: 2584875588
I0302 22:41:32.216655  2269 layer_factory.hpp:77] Creating layer fc7_sig
I0302 22:41:32.216670  2269 net.cpp:100] Creating Layer fc7_sig
I0302 22:41:32.216675  2269 net.cpp:434] fc7_sig <- fc7_fc2
I0302 22:41:32.216689  2269 net.cpp:395] fc7_sig -> fc7_fc2 (in-place)
I0302 22:41:32.216850  2269 net.cpp:150] Setting up fc7_sig
I0302 22:41:32.216861  2269 net.cpp:157] Top shape: 8 1024 1 1 (8192)
I0302 22:41:32.216866  2269 net.cpp:165] Memory required for data: 2584908356
I0302 22:41:32.216871  2269 layer_factory.hpp:77] Creating layer fc7_reshape
I0302 22:41:32.216883  2269 net.cpp:100] Creating Layer fc7_reshape
I0302 22:41:32.216894  2269 net.cpp:434] fc7_reshape <- fc7_fc2
I0302 22:41:32.216907  2269 net.cpp:408] fc7_reshape -> fc7_reshape
I0302 22:41:32.216954  2269 net.cpp:150] Setting up fc7_reshape
I0302 22:41:32.216964  2269 net.cpp:157] Top shape: 8 1024 (8192)
I0302 22:41:32.216969  2269 net.cpp:165] Memory required for data: 2584941124
I0302 22:41:32.216975  2269 layer_factory.hpp:77] Creating layer fc7_scale
I0302 22:41:32.216989  2269 net.cpp:100] Creating Layer fc7_scale
I0302 22:41:32.217005  2269 net.cpp:434] fc7_scale <- fc7_t_relu7_0_split_1
I0302 22:41:32.217016  2269 net.cpp:434] fc7_scale <- fc7_reshape
I0302 22:41:32.217025  2269 net.cpp:408] fc7_scale -> fc7
I0302 22:41:32.217093  2269 net.cpp:150] Setting up fc7_scale
I0302 22:41:32.217104  2269 net.cpp:157] Top shape: 8 1024 19 19 (2957312)
I0302 22:41:32.217113  2269 net.cpp:165] Memory required for data: 2596770372
I0302 22:41:32.217119  2269 layer_factory.hpp:77] Creating layer fc7_fc7_scale_0_split
I0302 22:41:32.217129  2269 net.cpp:100] Creating Layer fc7_fc7_scale_0_split
I0302 22:41:32.217140  2269 net.cpp:434] fc7_fc7_scale_0_split <- fc7
I0302 22:41:32.217155  2269 net.cpp:408] fc7_fc7_scale_0_split -> fc7_fc7_scale_0_split_0
I0302 22:41:32.217173  2269 net.cpp:408] fc7_fc7_scale_0_split -> fc7_fc7_scale_0_split_1
I0302 22:41:32.217181  2269 net.cpp:408] fc7_fc7_scale_0_split -> fc7_fc7_scale_0_split_2
I0302 22:41:32.217192  2269 net.cpp:408] fc7_fc7_scale_0_split -> fc7_fc7_scale_0_split_3
I0302 22:41:32.217257  2269 net.cpp:150] Setting up fc7_fc7_scale_0_split
I0302 22:41:32.217268  2269 net.cpp:157] Top shape: 8 1024 19 19 (2957312)
I0302 22:41:32.217274  2269 net.cpp:157] Top shape: 8 1024 19 19 (2957312)
I0302 22:41:32.217281  2269 net.cpp:157] Top shape: 8 1024 19 19 (2957312)
I0302 22:41:32.217293  2269 net.cpp:157] Top shape: 8 1024 19 19 (2957312)
I0302 22:41:32.217303  2269 net.cpp:165] Memory required for data: 2644087364
I0302 22:41:32.217308  2269 layer_factory.hpp:77] Creating layer conv6_1
I0302 22:41:32.217327  2269 net.cpp:100] Creating Layer conv6_1
I0302 22:41:32.217339  2269 net.cpp:434] conv6_1 <- fc7_fc7_scale_0_split_0
I0302 22:41:32.217350  2269 net.cpp:408] conv6_1 -> conv6_1
I0302 22:41:32.220208  2269 net.cpp:150] Setting up conv6_1
I0302 22:41:32.220221  2269 net.cpp:157] Top shape: 8 256 19 19 (739328)
I0302 22:41:32.220227  2269 net.cpp:165] Memory required for data: 2647044676
I0302 22:41:32.220237  2269 layer_factory.hpp:77] Creating layer conv6_1_relu
I0302 22:41:32.220254  2269 net.cpp:100] Creating Layer conv6_1_relu
I0302 22:41:32.220260  2269 net.cpp:434] conv6_1_relu <- conv6_1
I0302 22:41:32.220274  2269 net.cpp:395] conv6_1_relu -> conv6_1 (in-place)
I0302 22:41:32.220439  2269 net.cpp:150] Setting up conv6_1_relu
I0302 22:41:32.220450  2269 net.cpp:157] Top shape: 8 256 19 19 (739328)
I0302 22:41:32.220454  2269 net.cpp:165] Memory required for data: 2650001988
I0302 22:41:32.220463  2269 layer_factory.hpp:77] Creating layer conv6_2
I0302 22:41:32.220481  2269 net.cpp:100] Creating Layer conv6_2
I0302 22:41:32.220490  2269 net.cpp:434] conv6_2 <- conv6_1
I0302 22:41:32.220507  2269 net.cpp:408] conv6_2 -> conv6_2_t
I0302 22:41:32.229118  2269 net.cpp:150] Setting up conv6_2
I0302 22:41:32.229131  2269 net.cpp:157] Top shape: 8 512 10 10 (409600)
I0302 22:41:32.229136  2269 net.cpp:165] Memory required for data: 2651640388
I0302 22:41:32.229161  2269 layer_factory.hpp:77] Creating layer conv6_2_relu
I0302 22:41:32.229177  2269 net.cpp:100] Creating Layer conv6_2_relu
I0302 22:41:32.229188  2269 net.cpp:434] conv6_2_relu <- conv6_2_t
I0302 22:41:32.229198  2269 net.cpp:395] conv6_2_relu -> conv6_2_t (in-place)
I0302 22:41:32.229384  2269 net.cpp:150] Setting up conv6_2_relu
I0302 22:41:32.229395  2269 net.cpp:157] Top shape: 8 512 10 10 (409600)
I0302 22:41:32.229399  2269 net.cpp:165] Memory required for data: 2653278788
I0302 22:41:32.229404  2269 layer_factory.hpp:77] Creating layer conv6_2_t_conv6_2_relu_0_split
I0302 22:41:32.229418  2269 net.cpp:100] Creating Layer conv6_2_t_conv6_2_relu_0_split
I0302 22:41:32.229425  2269 net.cpp:434] conv6_2_t_conv6_2_relu_0_split <- conv6_2_t
I0302 22:41:32.229439  2269 net.cpp:408] conv6_2_t_conv6_2_relu_0_split -> conv6_2_t_conv6_2_relu_0_split_0
I0302 22:41:32.229451  2269 net.cpp:408] conv6_2_t_conv6_2_relu_0_split -> conv6_2_t_conv6_2_relu_0_split_1
I0302 22:41:32.229506  2269 net.cpp:150] Setting up conv6_2_t_conv6_2_relu_0_split
I0302 22:41:32.229518  2269 net.cpp:157] Top shape: 8 512 10 10 (409600)
I0302 22:41:32.229528  2269 net.cpp:157] Top shape: 8 512 10 10 (409600)
I0302 22:41:32.229537  2269 net.cpp:165] Memory required for data: 2656555588
I0302 22:41:32.229547  2269 layer_factory.hpp:77] Creating layer conv6_2_s
I0302 22:41:32.229568  2269 net.cpp:100] Creating Layer conv6_2_s
I0302 22:41:32.229576  2269 net.cpp:434] conv6_2_s <- conv6_2_t_conv6_2_relu_0_split_0
I0302 22:41:32.229586  2269 net.cpp:408] conv6_2_s -> conv6_2_s
I0302 22:41:32.230106  2269 net.cpp:150] Setting up conv6_2_s
I0302 22:41:32.230120  2269 net.cpp:157] Top shape: 8 512 1 1 (4096)
I0302 22:41:32.230124  2269 net.cpp:165] Memory required for data: 2656571972
I0302 22:41:32.230130  2269 layer_factory.hpp:77] Creating layer conv6_2_fc1
I0302 22:41:32.230147  2269 net.cpp:100] Creating Layer conv6_2_fc1
I0302 22:41:32.230157  2269 net.cpp:434] conv6_2_fc1 <- conv6_2_s
I0302 22:41:32.230168  2269 net.cpp:408] conv6_2_fc1 -> conv6_2_fc1
I0302 22:41:32.233645  2269 net.cpp:150] Setting up conv6_2_fc1
I0302 22:41:32.233659  2269 net.cpp:157] Top shape: 8 128 1 1 (1024)
I0302 22:41:32.233664  2269 net.cpp:165] Memory required for data: 2656576068
I0302 22:41:32.233672  2269 layer_factory.hpp:77] Creating layer conv6_2_relu
I0302 22:41:32.233685  2269 net.cpp:100] Creating Layer conv6_2_relu
I0302 22:41:32.233695  2269 net.cpp:434] conv6_2_relu <- conv6_2_fc1
I0302 22:41:32.233705  2269 net.cpp:395] conv6_2_relu -> conv6_2_fc1 (in-place)
I0302 22:41:32.233875  2269 net.cpp:150] Setting up conv6_2_relu
I0302 22:41:32.233886  2269 net.cpp:157] Top shape: 8 128 1 1 (1024)
I0302 22:41:32.233891  2269 net.cpp:165] Memory required for data: 2656580164
I0302 22:41:32.233897  2269 layer_factory.hpp:77] Creating layer conv6_2_fc2
I0302 22:41:32.233914  2269 net.cpp:100] Creating Layer conv6_2_fc2
I0302 22:41:32.233927  2269 net.cpp:434] conv6_2_fc2 <- conv6_2_fc1
I0302 22:41:32.233937  2269 net.cpp:408] conv6_2_fc2 -> conv6_2_fc2
I0302 22:41:32.235289  2269 net.cpp:150] Setting up conv6_2_fc2
I0302 22:41:32.235302  2269 net.cpp:157] Top shape: 8 512 1 1 (4096)
I0302 22:41:32.235307  2269 net.cpp:165] Memory required for data: 2656596548
I0302 22:41:32.235316  2269 layer_factory.hpp:77] Creating layer conv6_2_sig
I0302 22:41:32.235330  2269 net.cpp:100] Creating Layer conv6_2_sig
I0302 22:41:32.235339  2269 net.cpp:434] conv6_2_sig <- conv6_2_fc2
I0302 22:41:32.235354  2269 net.cpp:395] conv6_2_sig -> conv6_2_fc2 (in-place)
I0302 22:41:32.235519  2269 net.cpp:150] Setting up conv6_2_sig
I0302 22:41:32.235530  2269 net.cpp:157] Top shape: 8 512 1 1 (4096)
I0302 22:41:32.235534  2269 net.cpp:165] Memory required for data: 2656612932
I0302 22:41:32.235539  2269 layer_factory.hpp:77] Creating layer conv6_2_reshape
I0302 22:41:32.235551  2269 net.cpp:100] Creating Layer conv6_2_reshape
I0302 22:41:32.235560  2269 net.cpp:434] conv6_2_reshape <- conv6_2_fc2
I0302 22:41:32.235571  2269 net.cpp:408] conv6_2_reshape -> conv6_2_reshape
I0302 22:41:32.235625  2269 net.cpp:150] Setting up conv6_2_reshape
I0302 22:41:32.235635  2269 net.cpp:157] Top shape: 8 512 (4096)
I0302 22:41:32.235641  2269 net.cpp:165] Memory required for data: 2656629316
I0302 22:41:32.235648  2269 layer_factory.hpp:77] Creating layer conv6_2_scale
I0302 22:41:32.235664  2269 net.cpp:100] Creating Layer conv6_2_scale
I0302 22:41:32.235677  2269 net.cpp:434] conv6_2_scale <- conv6_2_t_conv6_2_relu_0_split_1
I0302 22:41:32.235687  2269 net.cpp:434] conv6_2_scale <- conv6_2_reshape
I0302 22:41:32.235702  2269 net.cpp:408] conv6_2_scale -> conv6_2
I0302 22:41:32.235769  2269 net.cpp:150] Setting up conv6_2_scale
I0302 22:41:32.235786  2269 net.cpp:157] Top shape: 8 512 10 10 (409600)
I0302 22:41:32.235792  2269 net.cpp:165] Memory required for data: 2658267716
I0302 22:41:32.235800  2269 layer_factory.hpp:77] Creating layer conv6_2_conv6_2_scale_0_split
I0302 22:41:32.235810  2269 net.cpp:100] Creating Layer conv6_2_conv6_2_scale_0_split
I0302 22:41:32.235818  2269 net.cpp:434] conv6_2_conv6_2_scale_0_split <- conv6_2
I0302 22:41:32.235833  2269 net.cpp:408] conv6_2_conv6_2_scale_0_split -> conv6_2_conv6_2_scale_0_split_0
I0302 22:41:32.235848  2269 net.cpp:408] conv6_2_conv6_2_scale_0_split -> conv6_2_conv6_2_scale_0_split_1
I0302 22:41:32.235864  2269 net.cpp:408] conv6_2_conv6_2_scale_0_split -> conv6_2_conv6_2_scale_0_split_2
I0302 22:41:32.235873  2269 net.cpp:408] conv6_2_conv6_2_scale_0_split -> conv6_2_conv6_2_scale_0_split_3
I0302 22:41:32.235944  2269 net.cpp:150] Setting up conv6_2_conv6_2_scale_0_split
I0302 22:41:32.235954  2269 net.cpp:157] Top shape: 8 512 10 10 (409600)
I0302 22:41:32.235960  2269 net.cpp:157] Top shape: 8 512 10 10 (409600)
I0302 22:41:32.235965  2269 net.cpp:157] Top shape: 8 512 10 10 (409600)
I0302 22:41:32.235978  2269 net.cpp:157] Top shape: 8 512 10 10 (409600)
I0302 22:41:32.235986  2269 net.cpp:165] Memory required for data: 2664821316
I0302 22:41:32.235996  2269 layer_factory.hpp:77] Creating layer conv7_1
I0302 22:41:32.236018  2269 net.cpp:100] Creating Layer conv7_1
I0302 22:41:32.236037  2269 net.cpp:434] conv7_1 <- conv6_2_conv6_2_scale_0_split_0
I0302 22:41:32.236050  2269 net.cpp:408] conv7_1 -> conv7_1
I0302 22:41:32.237361  2269 net.cpp:150] Setting up conv7_1
I0302 22:41:32.237375  2269 net.cpp:157] Top shape: 8 128 10 10 (102400)
I0302 22:41:32.237382  2269 net.cpp:165] Memory required for data: 2665230916
I0302 22:41:32.237391  2269 layer_factory.hpp:77] Creating layer conv7_1_relu
I0302 22:41:32.237408  2269 net.cpp:100] Creating Layer conv7_1_relu
I0302 22:41:32.237414  2269 net.cpp:434] conv7_1_relu <- conv7_1
I0302 22:41:32.237426  2269 net.cpp:395] conv7_1_relu -> conv7_1 (in-place)
I0302 22:41:32.237928  2269 net.cpp:150] Setting up conv7_1_relu
I0302 22:41:32.237942  2269 net.cpp:157] Top shape: 8 128 10 10 (102400)
I0302 22:41:32.237947  2269 net.cpp:165] Memory required for data: 2665640516
I0302 22:41:32.237952  2269 layer_factory.hpp:77] Creating layer conv7_2
I0302 22:41:32.237969  2269 net.cpp:100] Creating Layer conv7_2
I0302 22:41:32.237977  2269 net.cpp:434] conv7_2 <- conv7_1
I0302 22:41:32.237989  2269 net.cpp:408] conv7_2 -> conv7_2_t
I0302 22:41:32.241011  2269 net.cpp:150] Setting up conv7_2
I0302 22:41:32.241026  2269 net.cpp:157] Top shape: 8 256 5 5 (51200)
I0302 22:41:32.241031  2269 net.cpp:165] Memory required for data: 2665845316
I0302 22:41:32.241042  2269 layer_factory.hpp:77] Creating layer conv7_2_relu
I0302 22:41:32.241058  2269 net.cpp:100] Creating Layer conv7_2_relu
I0302 22:41:32.241065  2269 net.cpp:434] conv7_2_relu <- conv7_2_t
I0302 22:41:32.241075  2269 net.cpp:395] conv7_2_relu -> conv7_2_t (in-place)
I0302 22:41:32.241240  2269 net.cpp:150] Setting up conv7_2_relu
I0302 22:41:32.241250  2269 net.cpp:157] Top shape: 8 256 5 5 (51200)
I0302 22:41:32.241255  2269 net.cpp:165] Memory required for data: 2666050116
I0302 22:41:32.241261  2269 layer_factory.hpp:77] Creating layer conv7_2_t_conv7_2_relu_0_split
I0302 22:41:32.241271  2269 net.cpp:100] Creating Layer conv7_2_t_conv7_2_relu_0_split
I0302 22:41:32.241293  2269 net.cpp:434] conv7_2_t_conv7_2_relu_0_split <- conv7_2_t
I0302 22:41:32.241303  2269 net.cpp:408] conv7_2_t_conv7_2_relu_0_split -> conv7_2_t_conv7_2_relu_0_split_0
I0302 22:41:32.241317  2269 net.cpp:408] conv7_2_t_conv7_2_relu_0_split -> conv7_2_t_conv7_2_relu_0_split_1
I0302 22:41:32.241369  2269 net.cpp:150] Setting up conv7_2_t_conv7_2_relu_0_split
I0302 22:41:32.241382  2269 net.cpp:157] Top shape: 8 256 5 5 (51200)
I0302 22:41:32.241389  2269 net.cpp:157] Top shape: 8 256 5 5 (51200)
I0302 22:41:32.241396  2269 net.cpp:165] Memory required for data: 2666459716
I0302 22:41:32.241405  2269 layer_factory.hpp:77] Creating layer conv7_2_s
I0302 22:41:32.241418  2269 net.cpp:100] Creating Layer conv7_2_s
I0302 22:41:32.241430  2269 net.cpp:434] conv7_2_s <- conv7_2_t_conv7_2_relu_0_split_0
I0302 22:41:32.241438  2269 net.cpp:408] conv7_2_s -> conv7_2_s
I0302 22:41:32.241616  2269 net.cpp:150] Setting up conv7_2_s
I0302 22:41:32.241626  2269 net.cpp:157] Top shape: 8 256 1 1 (2048)
I0302 22:41:32.241631  2269 net.cpp:165] Memory required for data: 2666467908
I0302 22:41:32.241636  2269 layer_factory.hpp:77] Creating layer conv7_2_fc1
I0302 22:41:32.241653  2269 net.cpp:100] Creating Layer conv7_2_fc1
I0302 22:41:32.241663  2269 net.cpp:434] conv7_2_fc1 <- conv7_2_s
I0302 22:41:32.241678  2269 net.cpp:408] conv7_2_fc1 -> conv7_2_fc1
I0302 22:41:32.242820  2269 net.cpp:150] Setting up conv7_2_fc1
I0302 22:41:32.242835  2269 net.cpp:157] Top shape: 8 64 1 1 (512)
I0302 22:41:32.242839  2269 net.cpp:165] Memory required for data: 2666469956
I0302 22:41:32.242864  2269 layer_factory.hpp:77] Creating layer conv7_2_relu
I0302 22:41:32.242877  2269 net.cpp:100] Creating Layer conv7_2_relu
I0302 22:41:32.242882  2269 net.cpp:434] conv7_2_relu <- conv7_2_fc1
I0302 22:41:32.242893  2269 net.cpp:395] conv7_2_relu -> conv7_2_fc1 (in-place)
I0302 22:41:32.243393  2269 net.cpp:150] Setting up conv7_2_relu
I0302 22:41:32.243407  2269 net.cpp:157] Top shape: 8 64 1 1 (512)
I0302 22:41:32.243410  2269 net.cpp:165] Memory required for data: 2666472004
I0302 22:41:32.243417  2269 layer_factory.hpp:77] Creating layer conv7_2_fc2
I0302 22:41:32.243434  2269 net.cpp:100] Creating Layer conv7_2_fc2
I0302 22:41:32.243444  2269 net.cpp:434] conv7_2_fc2 <- conv7_2_fc1
I0302 22:41:32.243458  2269 net.cpp:408] conv7_2_fc2 -> conv7_2_fc2
I0302 22:41:32.244916  2269 net.cpp:150] Setting up conv7_2_fc2
I0302 22:41:32.244930  2269 net.cpp:157] Top shape: 8 256 1 1 (2048)
I0302 22:41:32.244935  2269 net.cpp:165] Memory required for data: 2666480196
I0302 22:41:32.244946  2269 layer_factory.hpp:77] Creating layer conv7_2_sig
I0302 22:41:32.244958  2269 net.cpp:100] Creating Layer conv7_2_sig
I0302 22:41:32.244966  2269 net.cpp:434] conv7_2_sig <- conv7_2_fc2
I0302 22:41:32.244978  2269 net.cpp:395] conv7_2_sig -> conv7_2_fc2 (in-place)
I0302 22:41:32.245144  2269 net.cpp:150] Setting up conv7_2_sig
I0302 22:41:32.245154  2269 net.cpp:157] Top shape: 8 256 1 1 (2048)
I0302 22:41:32.245158  2269 net.cpp:165] Memory required for data: 2666488388
I0302 22:41:32.245164  2269 layer_factory.hpp:77] Creating layer conv7_2_reshape
I0302 22:41:32.245172  2269 net.cpp:100] Creating Layer conv7_2_reshape
I0302 22:41:32.245182  2269 net.cpp:434] conv7_2_reshape <- conv7_2_fc2
I0302 22:41:32.245193  2269 net.cpp:408] conv7_2_reshape -> conv7_2_reshape
I0302 22:41:32.245236  2269 net.cpp:150] Setting up conv7_2_reshape
I0302 22:41:32.245244  2269 net.cpp:157] Top shape: 8 256 (2048)
I0302 22:41:32.245254  2269 net.cpp:165] Memory required for data: 2666496580
I0302 22:41:32.245261  2269 layer_factory.hpp:77] Creating layer conv7_2_scale
I0302 22:41:32.245272  2269 net.cpp:100] Creating Layer conv7_2_scale
I0302 22:41:32.245295  2269 net.cpp:434] conv7_2_scale <- conv7_2_t_conv7_2_relu_0_split_1
I0302 22:41:32.245309  2269 net.cpp:434] conv7_2_scale <- conv7_2_reshape
I0302 22:41:32.245326  2269 net.cpp:408] conv7_2_scale -> conv7_2
I0302 22:41:32.245398  2269 net.cpp:150] Setting up conv7_2_scale
I0302 22:41:32.245416  2269 net.cpp:157] Top shape: 8 256 5 5 (51200)
I0302 22:41:32.245421  2269 net.cpp:165] Memory required for data: 2666701380
I0302 22:41:32.245429  2269 layer_factory.hpp:77] Creating layer conv7_2_conv7_2_scale_0_split
I0302 22:41:32.245440  2269 net.cpp:100] Creating Layer conv7_2_conv7_2_scale_0_split
I0302 22:41:32.245452  2269 net.cpp:434] conv7_2_conv7_2_scale_0_split <- conv7_2
I0302 22:41:32.245467  2269 net.cpp:408] conv7_2_conv7_2_scale_0_split -> conv7_2_conv7_2_scale_0_split_0
I0302 22:41:32.245483  2269 net.cpp:408] conv7_2_conv7_2_scale_0_split -> conv7_2_conv7_2_scale_0_split_1
I0302 22:41:32.245496  2269 net.cpp:408] conv7_2_conv7_2_scale_0_split -> conv7_2_conv7_2_scale_0_split_2
I0302 22:41:32.245507  2269 net.cpp:408] conv7_2_conv7_2_scale_0_split -> conv7_2_conv7_2_scale_0_split_3
I0302 22:41:32.245584  2269 net.cpp:150] Setting up conv7_2_conv7_2_scale_0_split
I0302 22:41:32.245591  2269 net.cpp:157] Top shape: 8 256 5 5 (51200)
I0302 22:41:32.245599  2269 net.cpp:157] Top shape: 8 256 5 5 (51200)
I0302 22:41:32.245604  2269 net.cpp:157] Top shape: 8 256 5 5 (51200)
I0302 22:41:32.245618  2269 net.cpp:157] Top shape: 8 256 5 5 (51200)
I0302 22:41:32.245625  2269 net.cpp:165] Memory required for data: 2667520580
I0302 22:41:32.245640  2269 layer_factory.hpp:77] Creating layer conv8_1
I0302 22:41:32.245661  2269 net.cpp:100] Creating Layer conv8_1
I0302 22:41:32.245671  2269 net.cpp:434] conv8_1 <- conv7_2_conv7_2_scale_0_split_0
I0302 22:41:32.245687  2269 net.cpp:408] conv8_1 -> conv8_1
I0302 22:41:32.246897  2269 net.cpp:150] Setting up conv8_1
I0302 22:41:32.246912  2269 net.cpp:157] Top shape: 8 128 5 5 (25600)
I0302 22:41:32.246917  2269 net.cpp:165] Memory required for data: 2667622980
I0302 22:41:32.246927  2269 layer_factory.hpp:77] Creating layer conv8_1_relu
I0302 22:41:32.246940  2269 net.cpp:100] Creating Layer conv8_1_relu
I0302 22:41:32.246947  2269 net.cpp:434] conv8_1_relu <- conv8_1
I0302 22:41:32.246960  2269 net.cpp:395] conv8_1_relu -> conv8_1 (in-place)
I0302 22:41:32.247126  2269 net.cpp:150] Setting up conv8_1_relu
I0302 22:41:32.247136  2269 net.cpp:157] Top shape: 8 128 5 5 (25600)
I0302 22:41:32.247140  2269 net.cpp:165] Memory required for data: 2667725380
I0302 22:41:32.247148  2269 layer_factory.hpp:77] Creating layer conv8_2
I0302 22:41:32.247166  2269 net.cpp:100] Creating Layer conv8_2
I0302 22:41:32.247176  2269 net.cpp:434] conv8_2 <- conv8_1
I0302 22:41:32.247189  2269 net.cpp:408] conv8_2 -> conv8_2_t
I0302 22:41:32.250545  2269 net.cpp:150] Setting up conv8_2
I0302 22:41:32.250558  2269 net.cpp:157] Top shape: 8 256 3 3 (18432)
I0302 22:41:32.250563  2269 net.cpp:165] Memory required for data: 2667799108
I0302 22:41:32.250573  2269 layer_factory.hpp:77] Creating layer conv8_2_relu
I0302 22:41:32.250586  2269 net.cpp:100] Creating Layer conv8_2_relu
I0302 22:41:32.250596  2269 net.cpp:434] conv8_2_relu <- conv8_2_t
I0302 22:41:32.250609  2269 net.cpp:395] conv8_2_relu -> conv8_2_t (in-place)
I0302 22:41:32.250788  2269 net.cpp:150] Setting up conv8_2_relu
I0302 22:41:32.250800  2269 net.cpp:157] Top shape: 8 256 3 3 (18432)
I0302 22:41:32.250807  2269 net.cpp:165] Memory required for data: 2667872836
I0302 22:41:32.250813  2269 layer_factory.hpp:77] Creating layer conv8_2_t_conv8_2_relu_0_split
I0302 22:41:32.250825  2269 net.cpp:100] Creating Layer conv8_2_t_conv8_2_relu_0_split
I0302 22:41:32.250839  2269 net.cpp:434] conv8_2_t_conv8_2_relu_0_split <- conv8_2_t
I0302 22:41:32.250852  2269 net.cpp:408] conv8_2_t_conv8_2_relu_0_split -> conv8_2_t_conv8_2_relu_0_split_0
I0302 22:41:32.250867  2269 net.cpp:408] conv8_2_t_conv8_2_relu_0_split -> conv8_2_t_conv8_2_relu_0_split_1
I0302 22:41:32.250916  2269 net.cpp:150] Setting up conv8_2_t_conv8_2_relu_0_split
I0302 22:41:32.250927  2269 net.cpp:157] Top shape: 8 256 3 3 (18432)
I0302 22:41:32.250933  2269 net.cpp:157] Top shape: 8 256 3 3 (18432)
I0302 22:41:32.250947  2269 net.cpp:165] Memory required for data: 2668020292
I0302 22:41:32.250958  2269 layer_factory.hpp:77] Creating layer conv8_2_s
I0302 22:41:32.250982  2269 net.cpp:100] Creating Layer conv8_2_s
I0302 22:41:32.250989  2269 net.cpp:434] conv8_2_s <- conv8_2_t_conv8_2_relu_0_split_0
I0302 22:41:32.250998  2269 net.cpp:408] conv8_2_s -> conv8_2_s
I0302 22:41:32.253667  2269 net.cpp:150] Setting up conv8_2_s
I0302 22:41:32.253681  2269 net.cpp:157] Top shape: 8 256 1 1 (2048)
I0302 22:41:32.253685  2269 net.cpp:165] Memory required for data: 2668028484
I0302 22:41:32.253691  2269 layer_factory.hpp:77] Creating layer conv8_2_fc1
I0302 22:41:32.253710  2269 net.cpp:100] Creating Layer conv8_2_fc1
I0302 22:41:32.253718  2269 net.cpp:434] conv8_2_fc1 <- conv8_2_s
I0302 22:41:32.253727  2269 net.cpp:408] conv8_2_fc1 -> conv8_2_fc1
I0302 22:41:32.254889  2269 net.cpp:150] Setting up conv8_2_fc1
I0302 22:41:32.254902  2269 net.cpp:157] Top shape: 8 64 1 1 (512)
I0302 22:41:32.254907  2269 net.cpp:165] Memory required for data: 2668030532
I0302 22:41:32.254917  2269 layer_factory.hpp:77] Creating layer conv8_2_relu
I0302 22:41:32.254930  2269 net.cpp:100] Creating Layer conv8_2_relu
I0302 22:41:32.254936  2269 net.cpp:434] conv8_2_relu <- conv8_2_fc1
I0302 22:41:32.254948  2269 net.cpp:395] conv8_2_relu -> conv8_2_fc1 (in-place)
I0302 22:41:32.255113  2269 net.cpp:150] Setting up conv8_2_relu
I0302 22:41:32.255123  2269 net.cpp:157] Top shape: 8 64 1 1 (512)
I0302 22:41:32.255128  2269 net.cpp:165] Memory required for data: 2668032580
I0302 22:41:32.255136  2269 layer_factory.hpp:77] Creating layer conv8_2_fc2
I0302 22:41:32.255151  2269 net.cpp:100] Creating Layer conv8_2_fc2
I0302 22:41:32.255161  2269 net.cpp:434] conv8_2_fc2 <- conv8_2_fc1
I0302 22:41:32.255172  2269 net.cpp:408] conv8_2_fc2 -> conv8_2_fc2
I0302 22:41:32.256304  2269 net.cpp:150] Setting up conv8_2_fc2
I0302 22:41:32.256316  2269 net.cpp:157] Top shape: 8 256 1 1 (2048)
I0302 22:41:32.256321  2269 net.cpp:165] Memory required for data: 2668040772
I0302 22:41:32.256328  2269 layer_factory.hpp:77] Creating layer conv8_2_sig
I0302 22:41:32.256340  2269 net.cpp:100] Creating Layer conv8_2_sig
I0302 22:41:32.256351  2269 net.cpp:434] conv8_2_sig <- conv8_2_fc2
I0302 22:41:32.256359  2269 net.cpp:395] conv8_2_sig -> conv8_2_fc2 (in-place)
I0302 22:41:32.256525  2269 net.cpp:150] Setting up conv8_2_sig
I0302 22:41:32.256536  2269 net.cpp:157] Top shape: 8 256 1 1 (2048)
I0302 22:41:32.256541  2269 net.cpp:165] Memory required for data: 2668048964
I0302 22:41:32.256548  2269 layer_factory.hpp:77] Creating layer conv8_2_reshape
I0302 22:41:32.256559  2269 net.cpp:100] Creating Layer conv8_2_reshape
I0302 22:41:32.256572  2269 net.cpp:434] conv8_2_reshape <- conv8_2_fc2
I0302 22:41:32.256580  2269 net.cpp:408] conv8_2_reshape -> conv8_2_reshape
I0302 22:41:32.256620  2269 net.cpp:150] Setting up conv8_2_reshape
I0302 22:41:32.256629  2269 net.cpp:157] Top shape: 8 256 (2048)
I0302 22:41:32.256635  2269 net.cpp:165] Memory required for data: 2668057156
I0302 22:41:32.256644  2269 layer_factory.hpp:77] Creating layer conv8_2_scale
I0302 22:41:32.256651  2269 net.cpp:100] Creating Layer conv8_2_scale
I0302 22:41:32.256664  2269 net.cpp:434] conv8_2_scale <- conv8_2_t_conv8_2_relu_0_split_1
I0302 22:41:32.256676  2269 net.cpp:434] conv8_2_scale <- conv8_2_reshape
I0302 22:41:32.256690  2269 net.cpp:408] conv8_2_scale -> conv8_2
I0302 22:41:32.256772  2269 net.cpp:150] Setting up conv8_2_scale
I0302 22:41:32.256791  2269 net.cpp:157] Top shape: 8 256 3 3 (18432)
I0302 22:41:32.256798  2269 net.cpp:165] Memory required for data: 2668130884
I0302 22:41:32.256805  2269 layer_factory.hpp:77] Creating layer conv8_2_conv8_2_scale_0_split
I0302 22:41:32.256819  2269 net.cpp:100] Creating Layer conv8_2_conv8_2_scale_0_split
I0302 22:41:32.256825  2269 net.cpp:434] conv8_2_conv8_2_scale_0_split <- conv8_2
I0302 22:41:32.256841  2269 net.cpp:408] conv8_2_conv8_2_scale_0_split -> conv8_2_conv8_2_scale_0_split_0
I0302 22:41:32.256860  2269 net.cpp:408] conv8_2_conv8_2_scale_0_split -> conv8_2_conv8_2_scale_0_split_1
I0302 22:41:32.256875  2269 net.cpp:408] conv8_2_conv8_2_scale_0_split -> conv8_2_conv8_2_scale_0_split_2
I0302 22:41:32.256896  2269 net.cpp:408] conv8_2_conv8_2_scale_0_split -> conv8_2_conv8_2_scale_0_split_3
I0302 22:41:32.256969  2269 net.cpp:150] Setting up conv8_2_conv8_2_scale_0_split
I0302 22:41:32.256978  2269 net.cpp:157] Top shape: 8 256 3 3 (18432)
I0302 22:41:32.256984  2269 net.cpp:157] Top shape: 8 256 3 3 (18432)
I0302 22:41:32.256990  2269 net.cpp:157] Top shape: 8 256 3 3 (18432)
I0302 22:41:32.257006  2269 net.cpp:157] Top shape: 8 256 3 3 (18432)
I0302 22:41:32.257019  2269 net.cpp:165] Memory required for data: 2668425796
I0302 22:41:32.257025  2269 layer_factory.hpp:77] Creating layer conv9_1
I0302 22:41:32.257040  2269 net.cpp:100] Creating Layer conv9_1
I0302 22:41:32.257052  2269 net.cpp:434] conv9_1 <- conv8_2_conv8_2_scale_0_split_0
I0302 22:41:32.257071  2269 net.cpp:408] conv9_1 -> conv9_1
I0302 22:41:32.258261  2269 net.cpp:150] Setting up conv9_1
I0302 22:41:32.258275  2269 net.cpp:157] Top shape: 8 128 3 3 (9216)
I0302 22:41:32.258280  2269 net.cpp:165] Memory required for data: 2668462660
I0302 22:41:32.258289  2269 layer_factory.hpp:77] Creating layer conv9_1_relu
I0302 22:41:32.258306  2269 net.cpp:100] Creating Layer conv9_1_relu
I0302 22:41:32.258316  2269 net.cpp:434] conv9_1_relu <- conv9_1
I0302 22:41:32.258352  2269 net.cpp:395] conv9_1_relu -> conv9_1 (in-place)
I0302 22:41:32.258858  2269 net.cpp:150] Setting up conv9_1_relu
I0302 22:41:32.258872  2269 net.cpp:157] Top shape: 8 128 3 3 (9216)
I0302 22:41:32.258875  2269 net.cpp:165] Memory required for data: 2668499524
I0302 22:41:32.258882  2269 layer_factory.hpp:77] Creating layer conv9_2
I0302 22:41:32.258898  2269 net.cpp:100] Creating Layer conv9_2
I0302 22:41:32.258908  2269 net.cpp:434] conv9_2 <- conv9_1
I0302 22:41:32.258919  2269 net.cpp:408] conv9_2 -> conv9_2_t
I0302 22:41:32.262267  2269 net.cpp:150] Setting up conv9_2
I0302 22:41:32.262280  2269 net.cpp:157] Top shape: 8 256 1 1 (2048)
I0302 22:41:32.262285  2269 net.cpp:165] Memory required for data: 2668507716
I0302 22:41:32.262296  2269 layer_factory.hpp:77] Creating layer conv9_2_relu
I0302 22:41:32.262311  2269 net.cpp:100] Creating Layer conv9_2_relu
I0302 22:41:32.262320  2269 net.cpp:434] conv9_2_relu <- conv9_2_t
I0302 22:41:32.262367  2269 net.cpp:395] conv9_2_relu -> conv9_2_t (in-place)
I0302 22:41:32.262549  2269 net.cpp:150] Setting up conv9_2_relu
I0302 22:41:32.262560  2269 net.cpp:157] Top shape: 8 256 1 1 (2048)
I0302 22:41:32.262564  2269 net.cpp:165] Memory required for data: 2668515908
I0302 22:41:32.262569  2269 layer_factory.hpp:77] Creating layer conv9_2_t_conv9_2_relu_0_split
I0302 22:41:32.262580  2269 net.cpp:100] Creating Layer conv9_2_t_conv9_2_relu_0_split
I0302 22:41:32.262603  2269 net.cpp:434] conv9_2_t_conv9_2_relu_0_split <- conv9_2_t
I0302 22:41:32.262616  2269 net.cpp:408] conv9_2_t_conv9_2_relu_0_split -> conv9_2_t_conv9_2_relu_0_split_0
I0302 22:41:32.262629  2269 net.cpp:408] conv9_2_t_conv9_2_relu_0_split -> conv9_2_t_conv9_2_relu_0_split_1
I0302 22:41:32.262679  2269 net.cpp:150] Setting up conv9_2_t_conv9_2_relu_0_split
I0302 22:41:32.262694  2269 net.cpp:157] Top shape: 8 256 1 1 (2048)
I0302 22:41:32.262704  2269 net.cpp:157] Top shape: 8 256 1 1 (2048)
I0302 22:41:32.262711  2269 net.cpp:165] Memory required for data: 2668532292
I0302 22:41:32.262715  2269 layer_factory.hpp:77] Creating layer conv9_2_s
I0302 22:41:32.262732  2269 net.cpp:100] Creating Layer conv9_2_s
I0302 22:41:32.262740  2269 net.cpp:434] conv9_2_s <- conv9_2_t_conv9_2_relu_0_split_0
I0302 22:41:32.262753  2269 net.cpp:408] conv9_2_s -> conv9_2_s
I0302 22:41:32.262935  2269 net.cpp:150] Setting up conv9_2_s
I0302 22:41:32.262945  2269 net.cpp:157] Top shape: 8 256 1 1 (2048)
I0302 22:41:32.262950  2269 net.cpp:165] Memory required for data: 2668540484
I0302 22:41:32.262955  2269 layer_factory.hpp:77] Creating layer conv9_2_fc1
I0302 22:41:32.262970  2269 net.cpp:100] Creating Layer conv9_2_fc1
I0302 22:41:32.262984  2269 net.cpp:434] conv9_2_fc1 <- conv9_2_s
I0302 22:41:32.262995  2269 net.cpp:408] conv9_2_fc1 -> conv9_2_fc1
I0302 22:41:32.264140  2269 net.cpp:150] Setting up conv9_2_fc1
I0302 22:41:32.264163  2269 net.cpp:157] Top shape: 8 64 1 1 (512)
I0302 22:41:32.264168  2269 net.cpp:165] Memory required for data: 2668542532
I0302 22:41:32.264179  2269 layer_factory.hpp:77] Creating layer conv9_2_relu
I0302 22:41:32.264191  2269 net.cpp:100] Creating Layer conv9_2_relu
I0302 22:41:32.264200  2269 net.cpp:434] conv9_2_relu <- conv9_2_fc1
I0302 22:41:32.264214  2269 net.cpp:395] conv9_2_relu -> conv9_2_fc1 (in-place)
I0302 22:41:32.264720  2269 net.cpp:150] Setting up conv9_2_relu
I0302 22:41:32.264734  2269 net.cpp:157] Top shape: 8 64 1 1 (512)
I0302 22:41:32.264737  2269 net.cpp:165] Memory required for data: 2668544580
I0302 22:41:32.264744  2269 layer_factory.hpp:77] Creating layer conv9_2_fc2
I0302 22:41:32.264761  2269 net.cpp:100] Creating Layer conv9_2_fc2
I0302 22:41:32.264768  2269 net.cpp:434] conv9_2_fc2 <- conv9_2_fc1
I0302 22:41:32.264780  2269 net.cpp:408] conv9_2_fc2 -> conv9_2_fc2
I0302 22:41:32.265923  2269 net.cpp:150] Setting up conv9_2_fc2
I0302 22:41:32.265935  2269 net.cpp:157] Top shape: 8 256 1 1 (2048)
I0302 22:41:32.265940  2269 net.cpp:165] Memory required for data: 2668552772
I0302 22:41:32.265949  2269 layer_factory.hpp:77] Creating layer conv9_2_sig
I0302 22:41:32.265961  2269 net.cpp:100] Creating Layer conv9_2_sig
I0302 22:41:32.265969  2269 net.cpp:434] conv9_2_sig <- conv9_2_fc2
I0302 22:41:32.265980  2269 net.cpp:395] conv9_2_sig -> conv9_2_fc2 (in-place)
I0302 22:41:32.266149  2269 net.cpp:150] Setting up conv9_2_sig
I0302 22:41:32.266160  2269 net.cpp:157] Top shape: 8 256 1 1 (2048)
I0302 22:41:32.266165  2269 net.cpp:165] Memory required for data: 2668560964
I0302 22:41:32.266170  2269 layer_factory.hpp:77] Creating layer conv9_2_reshape
I0302 22:41:32.266181  2269 net.cpp:100] Creating Layer conv9_2_reshape
I0302 22:41:32.266194  2269 net.cpp:434] conv9_2_reshape <- conv9_2_fc2
I0302 22:41:32.266206  2269 net.cpp:408] conv9_2_reshape -> conv9_2_reshape
I0302 22:41:32.266252  2269 net.cpp:150] Setting up conv9_2_reshape
I0302 22:41:32.266263  2269 net.cpp:157] Top shape: 8 256 (2048)
I0302 22:41:32.266269  2269 net.cpp:165] Memory required for data: 2668569156
I0302 22:41:32.266275  2269 layer_factory.hpp:77] Creating layer conv9_2_scale
I0302 22:41:32.266305  2269 net.cpp:100] Creating Layer conv9_2_scale
I0302 22:41:32.266316  2269 net.cpp:434] conv9_2_scale <- conv9_2_t_conv9_2_relu_0_split_1
I0302 22:41:32.266351  2269 net.cpp:434] conv9_2_scale <- conv9_2_reshape
I0302 22:41:32.266358  2269 net.cpp:408] conv9_2_scale -> conv9_2
I0302 22:41:32.266432  2269 net.cpp:150] Setting up conv9_2_scale
I0302 22:41:32.266439  2269 net.cpp:157] Top shape: 8 256 1 1 (2048)
I0302 22:41:32.266445  2269 net.cpp:165] Memory required for data: 2668577348
I0302 22:41:32.266453  2269 layer_factory.hpp:77] Creating layer conv9_2_conv9_2_scale_0_split
I0302 22:41:32.266464  2269 net.cpp:100] Creating Layer conv9_2_conv9_2_scale_0_split
I0302 22:41:32.266474  2269 net.cpp:434] conv9_2_conv9_2_scale_0_split <- conv9_2
I0302 22:41:32.266492  2269 net.cpp:408] conv9_2_conv9_2_scale_0_split -> conv9_2_conv9_2_scale_0_split_0
I0302 22:41:32.266505  2269 net.cpp:408] conv9_2_conv9_2_scale_0_split -> conv9_2_conv9_2_scale_0_split_1
I0302 22:41:32.266516  2269 net.cpp:408] conv9_2_conv9_2_scale_0_split -> conv9_2_conv9_2_scale_0_split_2
I0302 22:41:32.266577  2269 net.cpp:150] Setting up conv9_2_conv9_2_scale_0_split
I0302 22:41:32.266587  2269 net.cpp:157] Top shape: 8 256 1 1 (2048)
I0302 22:41:32.266597  2269 net.cpp:157] Top shape: 8 256 1 1 (2048)
I0302 22:41:32.266607  2269 net.cpp:157] Top shape: 8 256 1 1 (2048)
I0302 22:41:32.266620  2269 net.cpp:165] Memory required for data: 2668601924
I0302 22:41:32.266628  2269 layer_factory.hpp:77] Creating layer conv4_3_norm
I0302 22:41:32.266640  2269 net.cpp:100] Creating Layer conv4_3_norm
I0302 22:41:32.266654  2269 net.cpp:434] conv4_3_norm <- conv4_3_conv4_3_scale_0_split_1
I0302 22:41:32.266662  2269 net.cpp:408] conv4_3_norm -> conv4_3_norm
I0302 22:41:32.266825  2269 net.cpp:150] Setting up conv4_3_norm
I0302 22:41:32.266842  2269 net.cpp:157] Top shape: 8 512 38 38 (5914624)
I0302 22:41:32.266849  2269 net.cpp:165] Memory required for data: 2692260420
I0302 22:41:32.266860  2269 layer_factory.hpp:77] Creating layer conv4_3_norm_conv4_3_norm_0_split
I0302 22:41:32.266873  2269 net.cpp:100] Creating Layer conv4_3_norm_conv4_3_norm_0_split
I0302 22:41:32.266880  2269 net.cpp:434] conv4_3_norm_conv4_3_norm_0_split <- conv4_3_norm
I0302 22:41:32.266892  2269 net.cpp:408] conv4_3_norm_conv4_3_norm_0_split -> conv4_3_norm_conv4_3_norm_0_split_0
I0302 22:41:32.266909  2269 net.cpp:408] conv4_3_norm_conv4_3_norm_0_split -> conv4_3_norm_conv4_3_norm_0_split_1
I0302 22:41:32.266921  2269 net.cpp:408] conv4_3_norm_conv4_3_norm_0_split -> conv4_3_norm_conv4_3_norm_0_split_2
I0302 22:41:32.266975  2269 net.cpp:150] Setting up conv4_3_norm_conv4_3_norm_0_split
I0302 22:41:32.266984  2269 net.cpp:157] Top shape: 8 512 38 38 (5914624)
I0302 22:41:32.266990  2269 net.cpp:157] Top shape: 8 512 38 38 (5914624)
I0302 22:41:32.267001  2269 net.cpp:157] Top shape: 8 512 38 38 (5914624)
I0302 22:41:32.267006  2269 net.cpp:165] Memory required for data: 2763235908
I0302 22:41:32.267019  2269 layer_factory.hpp:77] Creating layer conv4_3_norm_mbox_loc
I0302 22:41:32.267032  2269 net.cpp:100] Creating Layer conv4_3_norm_mbox_loc
I0302 22:41:32.267043  2269 net.cpp:434] conv4_3_norm_mbox_loc <- conv4_3_norm_conv4_3_norm_0_split_0
I0302 22:41:32.267055  2269 net.cpp:408] conv4_3_norm_mbox_loc -> conv4_3_norm_mbox_loc
I0302 22:41:32.268772  2269 net.cpp:150] Setting up conv4_3_norm_mbox_loc
I0302 22:41:32.268785  2269 net.cpp:157] Top shape: 8 16 38 38 (184832)
I0302 22:41:32.268791  2269 net.cpp:165] Memory required for data: 2763975236
I0302 22:41:32.268802  2269 layer_factory.hpp:77] Creating layer conv4_3_norm_mbox_loc_perm
I0302 22:41:32.268815  2269 net.cpp:100] Creating Layer conv4_3_norm_mbox_loc_perm
I0302 22:41:32.268826  2269 net.cpp:434] conv4_3_norm_mbox_loc_perm <- conv4_3_norm_mbox_loc
I0302 22:41:32.268837  2269 net.cpp:408] conv4_3_norm_mbox_loc_perm -> conv4_3_norm_mbox_loc_perm
I0302 22:41:32.268951  2269 net.cpp:150] Setting up conv4_3_norm_mbox_loc_perm
I0302 22:41:32.268959  2269 net.cpp:157] Top shape: 8 38 38 16 (184832)
I0302 22:41:32.268962  2269 net.cpp:165] Memory required for data: 2764714564
I0302 22:41:32.268970  2269 layer_factory.hpp:77] Creating layer conv4_3_norm_mbox_loc_flat
I0302 22:41:32.268982  2269 net.cpp:100] Creating Layer conv4_3_norm_mbox_loc_flat
I0302 22:41:32.268993  2269 net.cpp:434] conv4_3_norm_mbox_loc_flat <- conv4_3_norm_mbox_loc_perm
I0302 22:41:32.269004  2269 net.cpp:408] conv4_3_norm_mbox_loc_flat -> conv4_3_norm_mbox_loc_flat
I0302 22:41:32.269039  2269 net.cpp:150] Setting up conv4_3_norm_mbox_loc_flat
I0302 22:41:32.269047  2269 net.cpp:157] Top shape: 8 23104 (184832)
I0302 22:41:32.269053  2269 net.cpp:165] Memory required for data: 2765453892
I0302 22:41:32.269058  2269 layer_factory.hpp:77] Creating layer conv4_3_norm_mbox_conf
I0302 22:41:32.269085  2269 net.cpp:100] Creating Layer conv4_3_norm_mbox_conf
I0302 22:41:32.269098  2269 net.cpp:434] conv4_3_norm_mbox_conf <- conv4_3_norm_conv4_3_norm_0_split_1
I0302 22:41:32.269110  2269 net.cpp:408] conv4_3_norm_mbox_conf -> conv4_3_norm_mbox_conf
I0302 22:41:32.277796  2269 net.cpp:150] Setting up conv4_3_norm_mbox_conf
I0302 22:41:32.277812  2269 net.cpp:157] Top shape: 8 324 38 38 (3742848)
I0302 22:41:32.277817  2269 net.cpp:165] Memory required for data: 2780425284
I0302 22:41:32.277825  2269 layer_factory.hpp:77] Creating layer conv4_3_norm_mbox_conf_perm
I0302 22:41:32.277838  2269 net.cpp:100] Creating Layer conv4_3_norm_mbox_conf_perm
I0302 22:41:32.277846  2269 net.cpp:434] conv4_3_norm_mbox_conf_perm <- conv4_3_norm_mbox_conf
I0302 22:41:32.277858  2269 net.cpp:408] conv4_3_norm_mbox_conf_perm -> conv4_3_norm_mbox_conf_perm
I0302 22:41:32.277966  2269 net.cpp:150] Setting up conv4_3_norm_mbox_conf_perm
I0302 22:41:32.277974  2269 net.cpp:157] Top shape: 8 38 38 324 (3742848)
I0302 22:41:32.277981  2269 net.cpp:165] Memory required for data: 2795396676
I0302 22:41:32.278000  2269 layer_factory.hpp:77] Creating layer conv4_3_norm_mbox_conf_flat
I0302 22:41:32.278013  2269 net.cpp:100] Creating Layer conv4_3_norm_mbox_conf_flat
I0302 22:41:32.278028  2269 net.cpp:434] conv4_3_norm_mbox_conf_flat <- conv4_3_norm_mbox_conf_perm
I0302 22:41:32.278043  2269 net.cpp:408] conv4_3_norm_mbox_conf_flat -> conv4_3_norm_mbox_conf_flat
I0302 22:41:32.278082  2269 net.cpp:150] Setting up conv4_3_norm_mbox_conf_flat
I0302 22:41:32.278096  2269 net.cpp:157] Top shape: 8 467856 (3742848)
I0302 22:41:32.278102  2269 net.cpp:165] Memory required for data: 2810368068
I0302 22:41:32.278110  2269 layer_factory.hpp:77] Creating layer conv4_3_norm_mbox_priorbox
I0302 22:41:32.278127  2269 net.cpp:100] Creating Layer conv4_3_norm_mbox_priorbox
I0302 22:41:32.278138  2269 net.cpp:434] conv4_3_norm_mbox_priorbox <- conv4_3_norm_conv4_3_norm_0_split_2
I0302 22:41:32.278152  2269 net.cpp:434] conv4_3_norm_mbox_priorbox <- data_data_0_split_1
I0302 22:41:32.278167  2269 net.cpp:408] conv4_3_norm_mbox_priorbox -> conv4_3_norm_mbox_priorbox
I0302 22:41:32.278220  2269 net.cpp:150] Setting up conv4_3_norm_mbox_priorbox
I0302 22:41:32.278234  2269 net.cpp:157] Top shape: 1 2 23104 (46208)
I0302 22:41:32.278239  2269 net.cpp:165] Memory required for data: 2810552900
I0302 22:41:32.278247  2269 layer_factory.hpp:77] Creating layer fc7_mbox_loc
I0302 22:41:32.278262  2269 net.cpp:100] Creating Layer fc7_mbox_loc
I0302 22:41:32.278270  2269 net.cpp:434] fc7_mbox_loc <- fc7_fc7_scale_0_split_1
I0302 22:41:32.278281  2269 net.cpp:408] fc7_mbox_loc -> fc7_mbox_loc
I0302 22:41:32.282438  2269 net.cpp:150] Setting up fc7_mbox_loc
I0302 22:41:32.282450  2269 net.cpp:157] Top shape: 8 24 19 19 (69312)
I0302 22:41:32.282455  2269 net.cpp:165] Memory required for data: 2810830148
I0302 22:41:32.282464  2269 layer_factory.hpp:77] Creating layer fc7_mbox_loc_perm
I0302 22:41:32.282477  2269 net.cpp:100] Creating Layer fc7_mbox_loc_perm
I0302 22:41:32.282486  2269 net.cpp:434] fc7_mbox_loc_perm <- fc7_mbox_loc
I0302 22:41:32.282505  2269 net.cpp:408] fc7_mbox_loc_perm -> fc7_mbox_loc_perm
I0302 22:41:32.282613  2269 net.cpp:150] Setting up fc7_mbox_loc_perm
I0302 22:41:32.282624  2269 net.cpp:157] Top shape: 8 19 19 24 (69312)
I0302 22:41:32.282627  2269 net.cpp:165] Memory required for data: 2811107396
I0302 22:41:32.282634  2269 layer_factory.hpp:77] Creating layer fc7_mbox_loc_flat
I0302 22:41:32.282640  2269 net.cpp:100] Creating Layer fc7_mbox_loc_flat
I0302 22:41:32.282656  2269 net.cpp:434] fc7_mbox_loc_flat <- fc7_mbox_loc_perm
I0302 22:41:32.282670  2269 net.cpp:408] fc7_mbox_loc_flat -> fc7_mbox_loc_flat
I0302 22:41:32.282706  2269 net.cpp:150] Setting up fc7_mbox_loc_flat
I0302 22:41:32.282716  2269 net.cpp:157] Top shape: 8 8664 (69312)
I0302 22:41:32.282721  2269 net.cpp:165] Memory required for data: 2811384644
I0302 22:41:32.282729  2269 layer_factory.hpp:77] Creating layer fc7_mbox_conf
I0302 22:41:32.282747  2269 net.cpp:100] Creating Layer fc7_mbox_conf
I0302 22:41:32.282760  2269 net.cpp:434] fc7_mbox_conf <- fc7_fc7_scale_0_split_2
I0302 22:41:32.282774  2269 net.cpp:408] fc7_mbox_conf -> fc7_mbox_conf
I0302 22:41:32.306787  2269 net.cpp:150] Setting up fc7_mbox_conf
I0302 22:41:32.306813  2269 net.cpp:157] Top shape: 8 486 19 19 (1403568)
I0302 22:41:32.306818  2269 net.cpp:165] Memory required for data: 2816998916
I0302 22:41:32.306830  2269 layer_factory.hpp:77] Creating layer fc7_mbox_conf_perm
I0302 22:41:32.306844  2269 net.cpp:100] Creating Layer fc7_mbox_conf_perm
I0302 22:41:32.306852  2269 net.cpp:434] fc7_mbox_conf_perm <- fc7_mbox_conf
I0302 22:41:32.306867  2269 net.cpp:408] fc7_mbox_conf_perm -> fc7_mbox_conf_perm
I0302 22:41:32.306980  2269 net.cpp:150] Setting up fc7_mbox_conf_perm
I0302 22:41:32.306991  2269 net.cpp:157] Top shape: 8 19 19 486 (1403568)
I0302 22:41:32.306998  2269 net.cpp:165] Memory required for data: 2822613188
I0302 22:41:32.307008  2269 layer_factory.hpp:77] Creating layer fc7_mbox_conf_flat
I0302 22:41:32.307018  2269 net.cpp:100] Creating Layer fc7_mbox_conf_flat
I0302 22:41:32.307045  2269 net.cpp:434] fc7_mbox_conf_flat <- fc7_mbox_conf_perm
I0302 22:41:32.307059  2269 net.cpp:408] fc7_mbox_conf_flat -> fc7_mbox_conf_flat
I0302 22:41:32.307101  2269 net.cpp:150] Setting up fc7_mbox_conf_flat
I0302 22:41:32.307114  2269 net.cpp:157] Top shape: 8 175446 (1403568)
I0302 22:41:32.307122  2269 net.cpp:165] Memory required for data: 2828227460
I0302 22:41:32.307132  2269 layer_factory.hpp:77] Creating layer fc7_mbox_priorbox
I0302 22:41:32.307152  2269 net.cpp:100] Creating Layer fc7_mbox_priorbox
I0302 22:41:32.307158  2269 net.cpp:434] fc7_mbox_priorbox <- fc7_fc7_scale_0_split_3
I0302 22:41:32.307168  2269 net.cpp:434] fc7_mbox_priorbox <- data_data_0_split_2
I0302 22:41:32.307185  2269 net.cpp:408] fc7_mbox_priorbox -> fc7_mbox_priorbox
I0302 22:41:32.307225  2269 net.cpp:150] Setting up fc7_mbox_priorbox
I0302 22:41:32.307237  2269 net.cpp:157] Top shape: 1 2 8664 (17328)
I0302 22:41:32.307248  2269 net.cpp:165] Memory required for data: 2828296772
I0302 22:41:32.307255  2269 layer_factory.hpp:77] Creating layer conv6_2_mbox_loc
I0302 22:41:32.307274  2269 net.cpp:100] Creating Layer conv6_2_mbox_loc
I0302 22:41:32.307286  2269 net.cpp:434] conv6_2_mbox_loc <- conv6_2_conv6_2_scale_0_split_1
I0302 22:41:32.307299  2269 net.cpp:408] conv6_2_mbox_loc -> conv6_2_mbox_loc
I0302 22:41:32.309227  2269 net.cpp:150] Setting up conv6_2_mbox_loc
I0302 22:41:32.309242  2269 net.cpp:157] Top shape: 8 24 10 10 (19200)
I0302 22:41:32.309247  2269 net.cpp:165] Memory required for data: 2828373572
I0302 22:41:32.309255  2269 layer_factory.hpp:77] Creating layer conv6_2_mbox_loc_perm
I0302 22:41:32.309270  2269 net.cpp:100] Creating Layer conv6_2_mbox_loc_perm
I0302 22:41:32.309285  2269 net.cpp:434] conv6_2_mbox_loc_perm <- conv6_2_mbox_loc
I0302 22:41:32.309298  2269 net.cpp:408] conv6_2_mbox_loc_perm -> conv6_2_mbox_loc_perm
I0302 22:41:32.309418  2269 net.cpp:150] Setting up conv6_2_mbox_loc_perm
I0302 22:41:32.309428  2269 net.cpp:157] Top shape: 8 10 10 24 (19200)
I0302 22:41:32.309432  2269 net.cpp:165] Memory required for data: 2828450372
I0302 22:41:32.309438  2269 layer_factory.hpp:77] Creating layer conv6_2_mbox_loc_flat
I0302 22:41:32.309453  2269 net.cpp:100] Creating Layer conv6_2_mbox_loc_flat
I0302 22:41:32.309460  2269 net.cpp:434] conv6_2_mbox_loc_flat <- conv6_2_mbox_loc_perm
I0302 22:41:32.309485  2269 net.cpp:408] conv6_2_mbox_loc_flat -> conv6_2_mbox_loc_flat
I0302 22:41:32.309520  2269 net.cpp:150] Setting up conv6_2_mbox_loc_flat
I0302 22:41:32.309530  2269 net.cpp:157] Top shape: 8 2400 (19200)
I0302 22:41:32.309533  2269 net.cpp:165] Memory required for data: 2828527172
I0302 22:41:32.309540  2269 layer_factory.hpp:77] Creating layer conv6_2_mbox_conf
I0302 22:41:32.309563  2269 net.cpp:100] Creating Layer conv6_2_mbox_conf
I0302 22:41:32.309574  2269 net.cpp:434] conv6_2_mbox_conf <- conv6_2_conv6_2_scale_0_split_2
I0302 22:41:32.309587  2269 net.cpp:408] conv6_2_mbox_conf -> conv6_2_mbox_conf
I0302 22:41:32.321915  2269 net.cpp:150] Setting up conv6_2_mbox_conf
I0302 22:41:32.321933  2269 net.cpp:157] Top shape: 8 486 10 10 (388800)
I0302 22:41:32.321936  2269 net.cpp:165] Memory required for data: 2830082372
I0302 22:41:32.321946  2269 layer_factory.hpp:77] Creating layer conv6_2_mbox_conf_perm
I0302 22:41:32.321956  2269 net.cpp:100] Creating Layer conv6_2_mbox_conf_perm
I0302 22:41:32.321969  2269 net.cpp:434] conv6_2_mbox_conf_perm <- conv6_2_mbox_conf
I0302 22:41:32.321982  2269 net.cpp:408] conv6_2_mbox_conf_perm -> conv6_2_mbox_conf_perm
I0302 22:41:32.322094  2269 net.cpp:150] Setting up conv6_2_mbox_conf_perm
I0302 22:41:32.322104  2269 net.cpp:157] Top shape: 8 10 10 486 (388800)
I0302 22:41:32.322110  2269 net.cpp:165] Memory required for data: 2831637572
I0302 22:41:32.322120  2269 layer_factory.hpp:77] Creating layer conv6_2_mbox_conf_flat
I0302 22:41:32.322129  2269 net.cpp:100] Creating Layer conv6_2_mbox_conf_flat
I0302 22:41:32.322145  2269 net.cpp:434] conv6_2_mbox_conf_flat <- conv6_2_mbox_conf_perm
I0302 22:41:32.322185  2269 net.cpp:408] conv6_2_mbox_conf_flat -> conv6_2_mbox_conf_flat
I0302 22:41:32.322219  2269 net.cpp:150] Setting up conv6_2_mbox_conf_flat
I0302 22:41:32.322233  2269 net.cpp:157] Top shape: 8 48600 (388800)
I0302 22:41:32.322239  2269 net.cpp:165] Memory required for data: 2833192772
I0302 22:41:32.322250  2269 layer_factory.hpp:77] Creating layer conv6_2_mbox_priorbox
I0302 22:41:32.322270  2269 net.cpp:100] Creating Layer conv6_2_mbox_priorbox
I0302 22:41:32.322279  2269 net.cpp:434] conv6_2_mbox_priorbox <- conv6_2_conv6_2_scale_0_split_3
I0302 22:41:32.322289  2269 net.cpp:434] conv6_2_mbox_priorbox <- data_data_0_split_3
I0302 22:41:32.322307  2269 net.cpp:408] conv6_2_mbox_priorbox -> conv6_2_mbox_priorbox
I0302 22:41:32.322360  2269 net.cpp:150] Setting up conv6_2_mbox_priorbox
I0302 22:41:32.322368  2269 net.cpp:157] Top shape: 1 2 2400 (4800)
I0302 22:41:32.322376  2269 net.cpp:165] Memory required for data: 2833211972
I0302 22:41:32.322382  2269 layer_factory.hpp:77] Creating layer conv7_2_mbox_loc
I0302 22:41:32.322408  2269 net.cpp:100] Creating Layer conv7_2_mbox_loc
I0302 22:41:32.322423  2269 net.cpp:434] conv7_2_mbox_loc <- conv7_2_conv7_2_scale_0_split_1
I0302 22:41:32.322437  2269 net.cpp:408] conv7_2_mbox_loc -> conv7_2_mbox_loc
I0302 22:41:32.325841  2269 net.cpp:150] Setting up conv7_2_mbox_loc
I0302 22:41:32.325855  2269 net.cpp:157] Top shape: 8 24 5 5 (4800)
I0302 22:41:32.325860  2269 net.cpp:165] Memory required for data: 2833231172
I0302 22:41:32.325868  2269 layer_factory.hpp:77] Creating layer conv7_2_mbox_loc_perm
I0302 22:41:32.325883  2269 net.cpp:100] Creating Layer conv7_2_mbox_loc_perm
I0302 22:41:32.325896  2269 net.cpp:434] conv7_2_mbox_loc_perm <- conv7_2_mbox_loc
I0302 22:41:32.325908  2269 net.cpp:408] conv7_2_mbox_loc_perm -> conv7_2_mbox_loc_perm
I0302 22:41:32.326030  2269 net.cpp:150] Setting up conv7_2_mbox_loc_perm
I0302 22:41:32.326038  2269 net.cpp:157] Top shape: 8 5 5 24 (4800)
I0302 22:41:32.326043  2269 net.cpp:165] Memory required for data: 2833250372
I0302 22:41:32.326050  2269 layer_factory.hpp:77] Creating layer conv7_2_mbox_loc_flat
I0302 22:41:32.326058  2269 net.cpp:100] Creating Layer conv7_2_mbox_loc_flat
I0302 22:41:32.326076  2269 net.cpp:434] conv7_2_mbox_loc_flat <- conv7_2_mbox_loc_perm
I0302 22:41:32.326087  2269 net.cpp:408] conv7_2_mbox_loc_flat -> conv7_2_mbox_loc_flat
I0302 22:41:32.326131  2269 net.cpp:150] Setting up conv7_2_mbox_loc_flat
I0302 22:41:32.326141  2269 net.cpp:157] Top shape: 8 600 (4800)
I0302 22:41:32.326148  2269 net.cpp:165] Memory required for data: 2833269572
I0302 22:41:32.326151  2269 layer_factory.hpp:77] Creating layer conv7_2_mbox_conf
I0302 22:41:32.326169  2269 net.cpp:100] Creating Layer conv7_2_mbox_conf
I0302 22:41:32.326184  2269 net.cpp:434] conv7_2_mbox_conf <- conv7_2_conv7_2_scale_0_split_2
I0302 22:41:32.326200  2269 net.cpp:408] conv7_2_mbox_conf -> conv7_2_mbox_conf
I0302 22:41:32.333446  2269 net.cpp:150] Setting up conv7_2_mbox_conf
I0302 22:41:32.333461  2269 net.cpp:157] Top shape: 8 486 5 5 (97200)
I0302 22:41:32.333464  2269 net.cpp:165] Memory required for data: 2833658372
I0302 22:41:32.333475  2269 layer_factory.hpp:77] Creating layer conv7_2_mbox_conf_perm
I0302 22:41:32.333490  2269 net.cpp:100] Creating Layer conv7_2_mbox_conf_perm
I0302 22:41:32.333501  2269 net.cpp:434] conv7_2_mbox_conf_perm <- conv7_2_mbox_conf
I0302 22:41:32.333515  2269 net.cpp:408] conv7_2_mbox_conf_perm -> conv7_2_mbox_conf_perm
I0302 22:41:32.333634  2269 net.cpp:150] Setting up conv7_2_mbox_conf_perm
I0302 22:41:32.333643  2269 net.cpp:157] Top shape: 8 5 5 486 (97200)
I0302 22:41:32.333650  2269 net.cpp:165] Memory required for data: 2834047172
I0302 22:41:32.333654  2269 layer_factory.hpp:77] Creating layer conv7_2_mbox_conf_flat
I0302 22:41:32.333669  2269 net.cpp:100] Creating Layer conv7_2_mbox_conf_flat
I0302 22:41:32.333680  2269 net.cpp:434] conv7_2_mbox_conf_flat <- conv7_2_mbox_conf_perm
I0302 22:41:32.333698  2269 net.cpp:408] conv7_2_mbox_conf_flat -> conv7_2_mbox_conf_flat
I0302 22:41:32.333748  2269 net.cpp:150] Setting up conv7_2_mbox_conf_flat
I0302 22:41:32.333760  2269 net.cpp:157] Top shape: 8 12150 (97200)
I0302 22:41:32.333766  2269 net.cpp:165] Memory required for data: 2834435972
I0302 22:41:32.333773  2269 layer_factory.hpp:77] Creating layer conv7_2_mbox_priorbox
I0302 22:41:32.333791  2269 net.cpp:100] Creating Layer conv7_2_mbox_priorbox
I0302 22:41:32.333804  2269 net.cpp:434] conv7_2_mbox_priorbox <- conv7_2_conv7_2_scale_0_split_3
I0302 22:41:32.333817  2269 net.cpp:434] conv7_2_mbox_priorbox <- data_data_0_split_4
I0302 22:41:32.333832  2269 net.cpp:408] conv7_2_mbox_priorbox -> conv7_2_mbox_priorbox
I0302 22:41:32.333868  2269 net.cpp:150] Setting up conv7_2_mbox_priorbox
I0302 22:41:32.333883  2269 net.cpp:157] Top shape: 1 2 600 (1200)
I0302 22:41:32.333889  2269 net.cpp:165] Memory required for data: 2834440772
I0302 22:41:32.333896  2269 layer_factory.hpp:77] Creating layer conv8_2_mbox_loc
I0302 22:41:32.333914  2269 net.cpp:100] Creating Layer conv8_2_mbox_loc
I0302 22:41:32.333921  2269 net.cpp:434] conv8_2_mbox_loc <- conv8_2_conv8_2_scale_0_split_1
I0302 22:41:32.333943  2269 net.cpp:408] conv8_2_mbox_loc -> conv8_2_mbox_loc
I0302 22:41:32.335592  2269 net.cpp:150] Setting up conv8_2_mbox_loc
I0302 22:41:32.335604  2269 net.cpp:157] Top shape: 8 16 3 3 (1152)
I0302 22:41:32.335610  2269 net.cpp:165] Memory required for data: 2834445380
I0302 22:41:32.335620  2269 layer_factory.hpp:77] Creating layer conv8_2_mbox_loc_perm
I0302 22:41:32.335636  2269 net.cpp:100] Creating Layer conv8_2_mbox_loc_perm
I0302 22:41:32.335644  2269 net.cpp:434] conv8_2_mbox_loc_perm <- conv8_2_mbox_loc
I0302 22:41:32.335654  2269 net.cpp:408] conv8_2_mbox_loc_perm -> conv8_2_mbox_loc_perm
I0302 22:41:32.335762  2269 net.cpp:150] Setting up conv8_2_mbox_loc_perm
I0302 22:41:32.335770  2269 net.cpp:157] Top shape: 8 3 3 16 (1152)
I0302 22:41:32.335774  2269 net.cpp:165] Memory required for data: 2834449988
I0302 22:41:32.335780  2269 layer_factory.hpp:77] Creating layer conv8_2_mbox_loc_flat
I0302 22:41:32.335791  2269 net.cpp:100] Creating Layer conv8_2_mbox_loc_flat
I0302 22:41:32.335803  2269 net.cpp:434] conv8_2_mbox_loc_flat <- conv8_2_mbox_loc_perm
I0302 22:41:32.335819  2269 net.cpp:408] conv8_2_mbox_loc_flat -> conv8_2_mbox_loc_flat
I0302 22:41:32.335855  2269 net.cpp:150] Setting up conv8_2_mbox_loc_flat
I0302 22:41:32.335861  2269 net.cpp:157] Top shape: 8 144 (1152)
I0302 22:41:32.335866  2269 net.cpp:165] Memory required for data: 2834454596
I0302 22:41:32.335872  2269 layer_factory.hpp:77] Creating layer conv8_2_mbox_conf
I0302 22:41:32.335888  2269 net.cpp:100] Creating Layer conv8_2_mbox_conf
I0302 22:41:32.335901  2269 net.cpp:434] conv8_2_mbox_conf <- conv8_2_conv8_2_scale_0_split_2
I0302 22:41:32.335916  2269 net.cpp:408] conv8_2_mbox_conf -> conv8_2_mbox_conf
I0302 22:41:32.341388  2269 net.cpp:150] Setting up conv8_2_mbox_conf
I0302 22:41:32.341404  2269 net.cpp:157] Top shape: 8 324 3 3 (23328)
I0302 22:41:32.341410  2269 net.cpp:165] Memory required for data: 2834547908
I0302 22:41:32.341420  2269 layer_factory.hpp:77] Creating layer conv8_2_mbox_conf_perm
I0302 22:41:32.341434  2269 net.cpp:100] Creating Layer conv8_2_mbox_conf_perm
I0302 22:41:32.341444  2269 net.cpp:434] conv8_2_mbox_conf_perm <- conv8_2_mbox_conf
I0302 22:41:32.341457  2269 net.cpp:408] conv8_2_mbox_conf_perm -> conv8_2_mbox_conf_perm
I0302 22:41:32.341573  2269 net.cpp:150] Setting up conv8_2_mbox_conf_perm
I0302 22:41:32.341581  2269 net.cpp:157] Top shape: 8 3 3 324 (23328)
I0302 22:41:32.341586  2269 net.cpp:165] Memory required for data: 2834641220
I0302 22:41:32.341591  2269 layer_factory.hpp:77] Creating layer conv8_2_mbox_conf_flat
I0302 22:41:32.341599  2269 net.cpp:100] Creating Layer conv8_2_mbox_conf_flat
I0302 22:41:32.341615  2269 net.cpp:434] conv8_2_mbox_conf_flat <- conv8_2_mbox_conf_perm
I0302 22:41:32.341629  2269 net.cpp:408] conv8_2_mbox_conf_flat -> conv8_2_mbox_conf_flat
I0302 22:41:32.341665  2269 net.cpp:150] Setting up conv8_2_mbox_conf_flat
I0302 22:41:32.341672  2269 net.cpp:157] Top shape: 8 2916 (23328)
I0302 22:41:32.341694  2269 net.cpp:165] Memory required for data: 2834734532
I0302 22:41:32.341706  2269 layer_factory.hpp:77] Creating layer conv8_2_mbox_priorbox
I0302 22:41:32.341720  2269 net.cpp:100] Creating Layer conv8_2_mbox_priorbox
I0302 22:41:32.341729  2269 net.cpp:434] conv8_2_mbox_priorbox <- conv8_2_conv8_2_scale_0_split_3
I0302 22:41:32.341744  2269 net.cpp:434] conv8_2_mbox_priorbox <- data_data_0_split_5
I0302 22:41:32.341768  2269 net.cpp:408] conv8_2_mbox_priorbox -> conv8_2_mbox_priorbox
I0302 22:41:32.341804  2269 net.cpp:150] Setting up conv8_2_mbox_priorbox
I0302 22:41:32.341810  2269 net.cpp:157] Top shape: 1 2 144 (288)
I0302 22:41:32.341820  2269 net.cpp:165] Memory required for data: 2834735684
I0302 22:41:32.341828  2269 layer_factory.hpp:77] Creating layer conv9_2_mbox_loc
I0302 22:41:32.341852  2269 net.cpp:100] Creating Layer conv9_2_mbox_loc
I0302 22:41:32.341862  2269 net.cpp:434] conv9_2_mbox_loc <- conv9_2_conv9_2_scale_0_split_0
I0302 22:41:32.341873  2269 net.cpp:408] conv9_2_mbox_loc -> conv9_2_mbox_loc
I0302 22:41:32.343169  2269 net.cpp:150] Setting up conv9_2_mbox_loc
I0302 22:41:32.343183  2269 net.cpp:157] Top shape: 8 16 1 1 (128)
I0302 22:41:32.343188  2269 net.cpp:165] Memory required for data: 2834736196
I0302 22:41:32.343196  2269 layer_factory.hpp:77] Creating layer conv9_2_mbox_loc_perm
I0302 22:41:32.343212  2269 net.cpp:100] Creating Layer conv9_2_mbox_loc_perm
I0302 22:41:32.343225  2269 net.cpp:434] conv9_2_mbox_loc_perm <- conv9_2_mbox_loc
I0302 22:41:32.343237  2269 net.cpp:408] conv9_2_mbox_loc_perm -> conv9_2_mbox_loc_perm
I0302 22:41:32.343351  2269 net.cpp:150] Setting up conv9_2_mbox_loc_perm
I0302 22:41:32.343360  2269 net.cpp:157] Top shape: 8 1 1 16 (128)
I0302 22:41:32.343364  2269 net.cpp:165] Memory required for data: 2834736708
I0302 22:41:32.343369  2269 layer_factory.hpp:77] Creating layer conv9_2_mbox_loc_flat
I0302 22:41:32.343380  2269 net.cpp:100] Creating Layer conv9_2_mbox_loc_flat
I0302 22:41:32.343400  2269 net.cpp:434] conv9_2_mbox_loc_flat <- conv9_2_mbox_loc_perm
I0302 22:41:32.343411  2269 net.cpp:408] conv9_2_mbox_loc_flat -> conv9_2_mbox_loc_flat
I0302 22:41:32.343447  2269 net.cpp:150] Setting up conv9_2_mbox_loc_flat
I0302 22:41:32.343456  2269 net.cpp:157] Top shape: 8 16 (128)
I0302 22:41:32.343461  2269 net.cpp:165] Memory required for data: 2834737220
I0302 22:41:32.343466  2269 layer_factory.hpp:77] Creating layer conv9_2_mbox_conf
I0302 22:41:32.343483  2269 net.cpp:100] Creating Layer conv9_2_mbox_conf
I0302 22:41:32.343494  2269 net.cpp:434] conv9_2_mbox_conf <- conv9_2_conv9_2_scale_0_split_1
I0302 22:41:32.343514  2269 net.cpp:408] conv9_2_mbox_conf -> conv9_2_mbox_conf
I0302 22:41:32.349032  2269 net.cpp:150] Setting up conv9_2_mbox_conf
I0302 22:41:32.349046  2269 net.cpp:157] Top shape: 8 324 1 1 (2592)
I0302 22:41:32.349050  2269 net.cpp:165] Memory required for data: 2834747588
I0302 22:41:32.349061  2269 layer_factory.hpp:77] Creating layer conv9_2_mbox_conf_perm
I0302 22:41:32.349078  2269 net.cpp:100] Creating Layer conv9_2_mbox_conf_perm
I0302 22:41:32.349084  2269 net.cpp:434] conv9_2_mbox_conf_perm <- conv9_2_mbox_conf
I0302 22:41:32.349093  2269 net.cpp:408] conv9_2_mbox_conf_perm -> conv9_2_mbox_conf_perm
I0302 22:41:32.349215  2269 net.cpp:150] Setting up conv9_2_mbox_conf_perm
I0302 22:41:32.349222  2269 net.cpp:157] Top shape: 8 1 1 324 (2592)
I0302 22:41:32.349227  2269 net.cpp:165] Memory required for data: 2834757956
I0302 22:41:32.349232  2269 layer_factory.hpp:77] Creating layer conv9_2_mbox_conf_flat
I0302 22:41:32.349244  2269 net.cpp:100] Creating Layer conv9_2_mbox_conf_flat
I0302 22:41:32.349257  2269 net.cpp:434] conv9_2_mbox_conf_flat <- conv9_2_mbox_conf_perm
I0302 22:41:32.349267  2269 net.cpp:408] conv9_2_mbox_conf_flat -> conv9_2_mbox_conf_flat
I0302 22:41:32.349309  2269 net.cpp:150] Setting up conv9_2_mbox_conf_flat
I0302 22:41:32.349318  2269 net.cpp:157] Top shape: 8 324 (2592)
I0302 22:41:32.349323  2269 net.cpp:165] Memory required for data: 2834768324
I0302 22:41:32.349345  2269 layer_factory.hpp:77] Creating layer conv9_2_mbox_priorbox
I0302 22:41:32.349366  2269 net.cpp:100] Creating Layer conv9_2_mbox_priorbox
I0302 22:41:32.349377  2269 net.cpp:434] conv9_2_mbox_priorbox <- conv9_2_conv9_2_scale_0_split_2
I0302 22:41:32.349396  2269 net.cpp:434] conv9_2_mbox_priorbox <- data_data_0_split_6
I0302 22:41:32.349406  2269 net.cpp:408] conv9_2_mbox_priorbox -> conv9_2_mbox_priorbox
I0302 22:41:32.349452  2269 net.cpp:150] Setting up conv9_2_mbox_priorbox
I0302 22:41:32.349469  2269 net.cpp:157] Top shape: 1 2 16 (32)
I0302 22:41:32.349476  2269 net.cpp:165] Memory required for data: 2834768452
I0302 22:41:32.349483  2269 layer_factory.hpp:77] Creating layer mbox_loc
I0302 22:41:32.349495  2269 net.cpp:100] Creating Layer mbox_loc
I0302 22:41:32.349508  2269 net.cpp:434] mbox_loc <- conv4_3_norm_mbox_loc_flat
I0302 22:41:32.349519  2269 net.cpp:434] mbox_loc <- fc7_mbox_loc_flat
I0302 22:41:32.349527  2269 net.cpp:434] mbox_loc <- conv6_2_mbox_loc_flat
I0302 22:41:32.349539  2269 net.cpp:434] mbox_loc <- conv7_2_mbox_loc_flat
I0302 22:41:32.349560  2269 net.cpp:434] mbox_loc <- conv8_2_mbox_loc_flat
I0302 22:41:32.349575  2269 net.cpp:434] mbox_loc <- conv9_2_mbox_loc_flat
I0302 22:41:32.349592  2269 net.cpp:408] mbox_loc -> mbox_loc
I0302 22:41:32.349637  2269 net.cpp:150] Setting up mbox_loc
I0302 22:41:32.349653  2269 net.cpp:157] Top shape: 8 34928 (279424)
I0302 22:41:32.349663  2269 net.cpp:165] Memory required for data: 2835886148
I0302 22:41:32.349673  2269 layer_factory.hpp:77] Creating layer mbox_conf
I0302 22:41:32.349689  2269 net.cpp:100] Creating Layer mbox_conf
I0302 22:41:32.349704  2269 net.cpp:434] mbox_conf <- conv4_3_norm_mbox_conf_flat
I0302 22:41:32.349714  2269 net.cpp:434] mbox_conf <- fc7_mbox_conf_flat
I0302 22:41:32.349725  2269 net.cpp:434] mbox_conf <- conv6_2_mbox_conf_flat
I0302 22:41:32.349731  2269 net.cpp:434] mbox_conf <- conv7_2_mbox_conf_flat
I0302 22:41:32.349746  2269 net.cpp:434] mbox_conf <- conv8_2_mbox_conf_flat
I0302 22:41:32.349757  2269 net.cpp:434] mbox_conf <- conv9_2_mbox_conf_flat
I0302 22:41:32.349777  2269 net.cpp:408] mbox_conf -> mbox_conf
I0302 22:41:32.349814  2269 net.cpp:150] Setting up mbox_conf
I0302 22:41:32.349823  2269 net.cpp:157] Top shape: 8 707292 (5658336)
I0302 22:41:32.349829  2269 net.cpp:165] Memory required for data: 2858519492
I0302 22:41:32.349835  2269 layer_factory.hpp:77] Creating layer mbox_priorbox
I0302 22:41:32.349848  2269 net.cpp:100] Creating Layer mbox_priorbox
I0302 22:41:32.349858  2269 net.cpp:434] mbox_priorbox <- conv4_3_norm_mbox_priorbox
I0302 22:41:32.349875  2269 net.cpp:434] mbox_priorbox <- fc7_mbox_priorbox
I0302 22:41:32.349885  2269 net.cpp:434] mbox_priorbox <- conv6_2_mbox_priorbox
I0302 22:41:32.349900  2269 net.cpp:434] mbox_priorbox <- conv7_2_mbox_priorbox
I0302 22:41:32.349910  2269 net.cpp:434] mbox_priorbox <- conv8_2_mbox_priorbox
I0302 22:41:32.349922  2269 net.cpp:434] mbox_priorbox <- conv9_2_mbox_priorbox
I0302 22:41:32.349936  2269 net.cpp:408] mbox_priorbox -> mbox_priorbox
I0302 22:41:32.349977  2269 net.cpp:150] Setting up mbox_priorbox
I0302 22:41:32.349989  2269 net.cpp:157] Top shape: 1 2 34928 (69856)
I0302 22:41:32.349995  2269 net.cpp:165] Memory required for data: 2858798916
I0302 22:41:32.350003  2269 layer_factory.hpp:77] Creating layer mbox_loss
I0302 22:41:32.350021  2269 net.cpp:100] Creating Layer mbox_loss
I0302 22:41:32.350033  2269 net.cpp:434] mbox_loss <- mbox_loc
I0302 22:41:32.350046  2269 net.cpp:434] mbox_loss <- mbox_conf
I0302 22:41:32.350056  2269 net.cpp:434] mbox_loss <- mbox_priorbox
…
layer {
  name: "data"
  type: "AnnotatedData"
  top: "data"
  top: "label"
  include {
    phase: TEST
  }
  transform_param {
    mean_value: 104
    mean_value: 117
    mean_value: 123
    force_color: true
    resize_param {
      prob: 1
      resize_mode: WARP
      height: 300
      width: 300
      interp_mode: LINEAR
    }
  }
  data_param {
    source: "examples/coco/coco_test-dev2017_lmdb"
    batch_size: 8
    backend: LMDB
  }
  annotated_data_param {
    batch_sampler {
    }
    label_map_file: "data/coco/labelmap_coco.prototxt"
  }
}
layer {
  name: "conv1_1"
  type: "Convolution"
  bottom: "data"
  top: "conv1_1"
  param {
    lr_mult: 1
    decay_mult: 1
  }
  param {
    lr_mult: 2
    decay_mult: 0
  }
  convolution_param {
    num_output: 64
    pad: 1
    kernel_size: 3
    weight_filler {
      type: "xavier"
    }
    bias_filler {
      type: "constant"
      value: 0
    }
  }
}
layer {
  name: "relu1_1"
  type: "ReLU"
  bottom: "conv1_1"
  top: "conv1_1"
}
layer {
  name: "conv1_2"
  type: "Convolution"
  bottom: "conv1_1"
  top: "conv1_2"
  param {
    lr_mult: 1
    decay_mult: 1
  }
  param {
    lr_mult: 2
    decay_mult: 0
  }
  convolution_param {
    num_output: 64
    pad: 1
    kernel_size: 3
    weight_filler {
      type: "xavier"
    }
    bias_filler {
      type: "constant"
      value: 0
    }
  }
}
layer {
  name: "relu1_2"
  type: "ReLU"
  bottom: "conv1_2"
  top: "conv1_2"
}
layer {
  name: "pool1"
  type: "Pooling"
  bottom: "conv1_2"
  top: "pool1"
  pooling_param {
    pool: MAX
    kernel_size: 2
    stride: 2
  }
}
layer {
  name: "conv2_1"
  type: "Convolution"
  bottom: "pool1"
  top: "conv2_1"
  param {
    lr_mult: 1
    decay_mult: 1
  }
  param {
    lr_mult: 2
    decay_mult: 0
  }
  convolution_param {
    num_output: 128
    pad: 1
    kernel_size: 3
    weight_filler {
      type: "xavier"
    }
    bias_filler {
      type: "constant"
      value: 0
    }
  }
}
layer {
  name: "relu2_1"
  type: "ReLU"
  bottom: "conv2_1"
  top: "conv2_1"
}
layer {
  name: "conv2_2"
  type: "Convolution"
  bottom: "conv2_1"
  top: "conv2_2"
  param {
    lr_mult: 1
    decay_mult: 1
  }
  param {
    lr_mult: 2
    decay_mult: 0
  }
  convolution_param {
    num_output: 128
    pad: 1
    kernel_size: 3
    weight_filler {
      type: "xavier"
    }
    bias_filler {
      type: "constant"
      value: 0
    }
  }
}
layer {
  name: "relu2_2"
  type: "ReLU"
  bottom: "conv2_2"
  top: "conv2_2"
}
layer {
  name: "pool2"
  type: "Pooling"
  bottom: "conv2_2"
  top: "pool2"
  pooling_param {
    pool: MAX
    kernel_size: 2
    stride: 2
  }
}
layer {
  name: "conv3_1"
  type: "Convolution"
  bottom: "pool2"
  top: "conv3_1"
  param {
    lr_mult: 1
    decay_mult: 1
  }
  param {
    lr_mult: 2
    decay_mult: 0
  }
  convolution_param {
    num_output: 256
    pad: 1
    kernel_size: 3
    weight_filler {
      type: "xavier"
    }
    bias_filler {
      type: "constant"
      value: 0
    }
  }
}
layer {
  name: "relu3_1"
  type: "ReLU"
  bottom: "conv3_1"
  top: "conv3_1"
}
layer {
  name: "conv3_2"
  type: "Convolution"
  bottom: "conv3_1"
  top: "conv3_2"
  param {
    lr_mult: 1
    decay_mult: 1
  }
  param {
    lr_mult: 2
    decay_mult: 0
  }
  convolution_param {
    num_output: 256
    pad: 1
    kernel_size: 3
    weight_filler {
      type: "xavier"
    }
    bias_filler {
      type: "constant"
      value: 0
    }
  }
}
layer {
  name: "relu3_2"
  type: "ReLU"
  bottom: "conv3_2"
  top: "conv3_2"
}
layer {
  name: "conv3_3"
  type: "Convolution"
  bottom: "conv3_2"
  top: "conv3_3"
  param {
    lr_mult: 1
    decay_mult: 1
  }
  param {
    lr_mult: 2
    decay_mult: 0
  }
  convolution_param {
    num_output: 256
    pad: 1
    kernel_size: 3
    weight_filler {
      type: "xavier"
    }
    bias_filler {
      type: "constant"
      value: 0
    }
  }
}
layer {
  name: "relu3_3"
  type: "ReLU"
  bottom: "conv3_3"
  top: "conv3_3"
}
layer {
  name: "pool3"
  type: "Pooling"
  bottom: "conv3_3"
  top: "pool3"
  pooling_param {
    pool: MAX
    kernel_size: 2
    stride: 2
  }
}
layer {
  name: "conv4_1"
  type: "Convolution"
  bottom: "pool3"
  top: "conv4_1"
  param {
    lr_mult: 1
    decay_mult: 1
  }
  param {
    lr_mult: 2
    decay_mult: 0
  }
  convolution_param {
    num_output: 512
    pad: 1
    kernel_size: 3
    weight_filler {
      type: "xavier"
    }
    bias_filler {
      type: "constant"
      value: 0
    }
  }
}
layer {
  name: "relu4_1"
  type: "ReLU"
  bottom: "conv4_1"
  top: "conv4_1"
}
layer {
  name: "conv4_2"
  type: "Convolution"
  bottom: "conv4_1"
  top: "conv4_2"
  param {
    lr_mult: 1
    decay_mult: 1
  }
  param {
    lr_mult: 2
    decay_mult: 0
  }
  convolution_param {
    num_output: 512
    pad: 1
    kernel_size: 3
    weight_filler {
      type: "xavier"
    }
    bias_filler {
      type: "constant"
      value: 0
    }
  }
}
layer {
  name: "relu4_2"
  type: "ReLU"
  bottom: "conv4_2"
  top: "conv4_2"
}
layer {
  name: "conv4_3"
  type: "Convolution"
  bottom: "conv4_2"
  top: "conv4_3_ori"
  param {
    lr_mult: 1
    decay_mult: 1
  }
  param {
    lr_mult: 2
    decay_mult: 0
  }
  convolution_param {
    num_output: 512
    pad: 1
    kernel_size: 3
    weight_filler {
      type: "xavier"
    }
    bias_filler {
      type: "constant"
      value: 0
    }
  }
}
layer {
  name: "relu4_3"
  type: "ReLU"
  bottom: "conv4_3_ori"
  top: "conv4_3_ori"
}
layer {
  name: "seg_pool4"
  type: "Pooling"
  bottom: "conv4_3_ori"
  top: "seg_pool4"
  pooling_param {
    pool: MAX
    kernel_size: 3
    stride: 1
    pad: 1
  }
}
layer {
  name: "seg5_1"
  type: "Convolution"
  bottom: "seg_pool4"
  top: "seg5_1"
  param {
    lr_mult: 1
    decay_mult: 1
  }
  param {
    lr_mult: 2
    decay_mult: 0
  }
  convolution_param {
    num_output: 512
    pad: 2
    kernel_size: 3
    weight_filler {
      type: "xavier"
    }
    bias_filler {
      type: "constant"
      value: 0
    }
    dilation: 2
  }
}
layer {
  name: "seg_relu5_1"
  type: "ReLU"
  bottom: "seg5_1"
  top: "seg5_1"
}
layer {
  name: "seg5_2"
  type: "Convolution"
  bottom: "seg5_1"
  top: "seg5_2"
  param {
    lr_mult: 1
    decay_mult: 1
  }
  param {
    lr_mult: 2
    decay_mult: 0
  }
  convolution_param {
    num_output: 512
    pad: 2
    kernel_size: 3
    weight_filler {
      type: "xavier"
    }
    bias_filler {
      type: "constant"
      value: 0
    }
    dilation: 2
  }
}
layer {
  name: "seg_relu5_2"
  type: "ReLU"
  bottom: "seg5_2"
  top: "seg5_2"
}
layer {
  name: "seg5_3"
  type: "Convolution"
  bottom: "seg5_2"
  top: "seg5_3"
  param {
    lr_mult: 1
    decay_mult: 1
  }
  param {
    lr_mult: 2
    decay_mult: 0
  }
  convolution_param {
    num_output: 512
    pad: 2
    kernel_size: 3
    weight_filler {
      type: "xavier"
    }
    bias_filler {
      type: "constant"
      value: 0
    }
    dilation: 2
  }
}
layer {
  name: "seg_relu5_3"
  type: "ReLU"
  bottom: "seg5_3"
  top: "seg5_3"
}
layer {
  name: "seg_pool5"
  type: "Pooling"
  bottom: "seg5_3"
  top: "seg_pool5"
  pooling_param {
    pool: MAX
    kernel_size: 3
    stride: 1
    pad: 1
  }
}
layer {
  name: "seg6"
  type: "Convolution"
  bottom: "seg_pool5"
  top: "seg6"
  param {
    lr_mult: 1
    decay_mult: 1
  }
  param {
    lr_mult: 2
    decay_mult: 0
  }
  convolution_param {
    num_output: 1024
    pad: 4
    kernel_size: 3
    weight_filler {
      type: "xavier"
    }
    bias_filler {
      type: "constant"
      value: 0
    }
    dilation: 4
  }
}
layer {
  name: "seg_relu6"
  type: "ReLU"
  bottom: "seg6"
  top: "seg6"
}
layer {
  name: "seg_drop6"
  type: "Dropout"
  bottom: "seg6"
  top: "seg6"
  dropout_param {
    dropout_ratio: 0.5
  }
}
layer {
  name: "seg7"
  type: "Convolution"
  bottom: "seg6"
  top: "seg7"
  param {
    lr_mult: 1
    decay_mult: 1
  }
  param {
    lr_mult: 2
    decay_mult: 0
  }
  convolution_param {
    num_output: 1024
    kernel_size: 1
    weight_filler {
      type: "xavier"
    }
    bias_filler {
      type: "constant"
      value: 0
    }
  }
}
layer {
  name: "seg_relu7"
  type: "ReLU"
  bottom: "seg7"
  top: "seg7"
}
layer {
  name: "seg_to_det_conv"
  type: "Convolution"
  bottom: "seg7"
  top: "seg_to_det_conv"
  param {
    lr_mult: 1
    decay_mult: 1
  }
  param {
    lr_mult: 2
    decay_mult: 0
  }
  propagate_down: false
  convolution_param {
    num_output: 512
    pad: 0
    kernel_size: 1
    stride: 1
    weight_filler {
      type: "xavier"
    }
    bias_filler {
      type: "constant"
      value: 0
    }
  }
}
layer {
  name: "mult_conv4_3"
  type: "Eltwise"
  bottom: "conv4_3_ori"
  bottom: "seg_to_det_conv"
  top: "conv4_3_t"
  eltwise_param {
    operation: PROD
  }
}
layer {
  name: "conv4_3_s"
  type: "Pooling"
  bottom: "conv4_3_t"
  top: "conv4_3_s"
  pooling_param {
    pool: AVE
    global_pooling: true
  }
}
layer {
  name: "conv4_3_fc1"
  type: "Convolution"
  bottom: "conv4_3_s"
  top: "conv4_3_fc1"
  param {
    lr_mult: 1
    decay_mult: 1
  }
  param {
    lr_mult: 2
    decay_mult: 0
  }
  convolution_param {
    num_output: 128
    kernel_size: 1
    stride: 1
    weight_filler {
      type: "xavier"
    }
    bias_filler {
      type: "constant"
      value: 0
    }
  }
}
layer {
  name: "conv4_3_relu"
  type: "ReLU"
  bottom: "conv4_3_fc1"
  top: "conv4_3_fc1"
}
layer {
  name: "conv4_3_fc2"
  type: "Convolution"
  bottom: "conv4_3_fc1"
  top: "conv4_3_fc2"
  param {
    lr_mult: 1
    decay_mult: 1
  }
  param {
    lr_mult: 2
    decay_mult: 0
  }
  convolution_param {
    num_output: 512
    kernel_size: 1
    stride: 1
    weight_filler {
      type: "xavier"
    }
    bias_filler {
      type: "constant"
      value: 0
    }
  }
}
layer {
  name: "conv4_3_sig"
  type: "Sigmoid"
  bottom: "conv4_3_fc2"
  top: "conv4_3_fc2"
}
layer {
  name: "conv4_3_reshape"
  type: "Reshape"
  bottom: "conv4_3_fc2"
  top: "conv4_3_reshape"
  reshape_param {
    shape {
      dim: 0
      dim: 0
    }
  }
}
layer {
  name: "conv4_3_scale"
  type: "Scale"
  bottom: "conv4_3_t"
  bottom: "conv4_3_reshape"
  top: "conv4_3"
  scale_param {
    axis: 0
    bias_term: false
  }
}
layer {
  name: "pool4"
  type: "Pooling"
  bottom: "conv4_3"
  top: "pool4"
  pooling_param {
    pool: MAX
    kernel_size: 2
    stride: 2
  }
}
layer {
  name: "conv5_1"
  type: "Convolution"
  bottom: "pool4"
  top: "conv5_1"
  param {
    lr_mult: 1
    decay_mult: 1
  }
  param {
    lr_mult: 2
    decay_mult: 0
  }
  convolution_param {
    num_output: 512
    pad: 1
    kernel_size: 3
    weight_filler {
      type: "xavier"
    }
    bias_filler {
      type: "constant"
      value: 0
    }
    dilation: 1
  }
}
layer {
  name: "relu5_1"
  type: "ReLU"
  bottom: "conv5_1"
  top: "conv5_1"
}
layer {
  name: "conv5_2"
  type: "Convolution"
  bottom: "conv5_1"
  top: "conv5_2"
  param {
    lr_mult: 1
    decay_mult: 1
  }
  param {
    lr_mult: 2
    decay_mult: 0
  }
  convolution_param {
    num_output: 512
    pad: 1
    kernel_size: 3
    weight_filler {
      type: "xavier"
    }
    bias_filler {
      type: "constant"
      value: 0
    }
    dilation: 1
  }
}
layer {
  name: "relu5_2"
  type: "ReLU"
  bottom: "conv5_2"
  top: "conv5_2"
}
layer {
  name: "conv5_3"
  type: "Convolution"
  bottom: "conv5_2"
  top: "conv5_3"
  param {
    lr_mult: 1
    decay_mult: 1
  }
  param {
    lr_mult: 2
    decay_mult: 0
  }
  convolution_param {
    num_output: 512
    pad: 1
    kernel_size: 3
    weight_filler {
      type: "xavier"
    }
    bias_filler {
      type: "constant"
      value: 0
    }
    dilation: 1
  }
}
layer {
  name: "relu5_3"
  type: "ReLU"
  bottom: "conv5_3"
  top: "conv5_3"
}
layer {
  name: "pool5"
  type: "Pooling"
  bottom: "conv5_3"
  top: "pool5"
  pooling_param {
    pool: MAX
    kernel_size: 3
    stride: 1
    pad: 1
  }
}
layer {
  name: "fc6"
  type: "Convolution"
  bottom: "pool5"
  top: "fc6"
  param {
    lr_mult: 1
    decay_mult: 1
  }
  param {
    lr_mult: 2
    decay_mult: 0
  }
  convolution_param {
    num_output: 1024
    pad: 6
    kernel_size: 3
    weight_filler {
      type: "xavier"
    }
    bias_filler {
      type: "constant"
      value: 0
    }
    dilation: 6
  }
}
layer {
  name: "relu6"
  type: "ReLU"
  bottom: "fc6"
  top: "fc6"
}
layer {
  name: "fc7"
  type: "Convolution"
  bottom: "fc6"
  top: "fc7_t"
  param {
    lr_mult: 1
    decay_mult: 1
  }
  param {
    lr_mult: 2
    decay_mult: 0
  }
  convolution_param {
    num_output: 1024
    kernel_size: 1
    weight_filler {
      type: "xavier"
    }
    bias_filler {
      type: "constant"
      value: 0
    }
  }
}
layer {
  name: "relu7"
  type: "ReLU"
  bottom: "fc7_t"
  top: "fc7_t"
}
layer {
  name: "fc7_s"
  type: "Pooling"
  bottom: "fc7_t"
  top: "fc7_s"
  pooling_param {
    pool: AVE
    global_pooling: true
  }
}
layer {
  name: "fc7_fc1"
  type: "Convolution"
  bottom: "fc7_s"
  top: "fc7_fc1"
  param {
    lr_mult: 1
    decay_mult: 1
  }
  param {
    lr_mult: 2
    decay_mult: 0
  }
  convolution_param {
    num_output: 256
    kernel_size: 1
    stride: 1
    weight_filler {
      type: "xavier"
    }
    bias_filler {
      type: "constant"
      value: 0
    }
  }
}
layer {
  name: "fc7_relu"
  type: "ReLU"
  bottom: "fc7_fc1"
  top: "fc7_fc1"
}
layer {
  name: "fc7_fc2"
  type: "Convolution"
  bottom: "fc7_fc1"
  top: "fc7_fc2"
  param {
    lr_mult: 1
    decay_mult: 1
  }
  param {
    lr_mult: 2
    decay_mult: 0
  }
  convolution_param {
    num_output: 1024
    kernel_size: 1
    stride: 1
    weight_filler {
      type: "xavier"
    }
    bias_filler {
      type: "constant"
      value: 0
    }
  }
}
layer {
  name: "fc7_sig"
  type: "Sigmoid"
  bottom: "fc7_fc2"
  top: "fc7_fc2"
}
layer {
  name: "fc7_reshape"
  type: "Reshape"
  bottom: "fc7_fc2"
  top: "fc7_reshape"
  reshape_param {
    shape {
      dim: 0
      dim: 0
    }
  }
}
layer {
  name: "fc7_scale"
  type: "Scale"
  bottom: "fc7_t"
  bottom: "fc7_reshape"
  top: "fc7"
  scale_param {
    axis: 0
    bias_term: false
  }
}
layer {
  name: "conv6_1"
  type: "Convolution"
  bottom: "fc7"
  top: "conv6_1"
  param {
    lr_mult: 1
    decay_mult: 1
  }
  param {
    lr_mult: 2
    decay_mult: 0
  }
  convolution_param {
    num_output: 256
    pad: 0
    kernel_size: 1
    stride: 1
    weight_filler {
      type: "xavier"
    }
    bias_filler {
      type: "constant"
      value: 0
    }
  }
}
layer {
  name: "conv6_1_relu"
  type: "ReLU"
  bottom: "conv6_1"
  top: "conv6_1"
}
layer {
  name: "conv6_2"
  type: "Convolution"
  bottom: "conv6_1"
  top: "conv6_2_t"
  param {
    lr_mult: 1
    decay_mult: 1
  }
  param {
    lr_mult: 2
    decay_mult: 0
  }
  convolution_param {
    num_output: 512
    pad: 1
    kernel_size: 3
    stride: 2
    weight_filler {
      type: "xavier"
    }
    bias_filler {
      type: "constant"
      value: 0
    }
  }
}
layer {
  name: "conv6_2_relu"
  type: "ReLU"
  bottom: "conv6_2_t"
  top: "conv6_2_t"
}
layer {
  name: "conv6_2_s"
  type: "Pooling"
  bottom: "conv6_2_t"
  top: "conv6_2_s"
  pooling_param {
    pool: AVE
    global_pooling: true
  }
}
layer {
  name: "conv6_2_fc1"
  type: "Convolution"
  bottom: "conv6_2_s"
  top: "conv6_2_fc1"
  param {
    lr_mult: 1
    decay_mult: 1
  }
  param {
    lr_mult: 2
    decay_mult: 0
  }
  convolution_param {
    num_output: 128
    kernel_size: 1
    stride: 1
    weight_filler {
      type: "xavier"
    }
    bias_filler {
      type: "constant"
      value: 0
    }
  }
}
layer {
  name: "conv6_2_relu"
  type: "ReLU"
  bottom: "conv6_2_fc1"
  top: "conv6_2_fc1"
}
layer {
  name: "conv6_2_fc2"
  type: "Convolution"
  bottom: "conv6_2_fc1"
  top: "conv6_2_fc2"
  param {
    lr_mult: 1
    decay_mult: 1
  }
  param {
    lr_mult: 2
    decay_mult: 0
  }
  convolution_param {
    num_output: 512
    kernel_size: 1
    stride: 1
    weight_filler {
      type: "xavier"
    }
    bias_filler {
      type: "constant"
      value: 0
    }
  }
}
layer {
  name: "conv6_2_sig"
  type: "Sigmoid"
  bottom: "conv6_2_fc2"
  top: "conv6_2_fc2"
}
layer {
  name: "conv6_2_reshape"
  type: "Reshape"
  bottom: "conv6_2_fc2"
  top: "conv6_2_reshape"
  reshape_param {
    shape {
      dim: 0
      dim: 0
    }
  }
}
layer {
  name: "conv6_2_scale"
  type: "Scale"
  bottom: "conv6_2_t"
  bottom: "conv6_2_reshape"
  top: "conv6_2"
  scale_param {
    axis: 0
    bias_term: false
  }
}
layer {
  name: "conv7_1"
  type: "Convolution"
  bottom: "conv6_2"
  top: "conv7_1"
  param {
    lr_mult: 1
    decay_mult: 1
  }
  param {
    lr_mult: 2
    decay_mult: 0
  }
  convolution_param {
    num_output: 128
    pad: 0
    kernel_size: 1
    stride: 1
    weight_filler {
      type: "xavier"
    }
    bias_filler {
      type: "constant"
      value: 0
    }
  }
}
layer {
  name: "conv7_1_relu"
  type: "ReLU"
  bottom: "conv7_1"
  top: "conv7_1"
}
layer {
  name: "conv7_2"
  type: "Convolution"
  bottom: "conv7_1"
  top: "conv7_2_t"
  param {
    lr_mult: 1
    decay_mult: 1
  }
  param {
    lr_mult: 2
    decay_mult: 0
  }
  convolution_param {
    num_output: 256
    pad: 1
    kernel_size: 3
    stride: 2
    weight_filler {
      type: "xavier"
    }
    bias_filler {
      type: "constant"
      value: 0
    }
  }
}
layer {
  name: "conv7_2_relu"
  type: "ReLU"
  bottom: "conv7_2_t"
  top: "conv7_2_t"
}
layer {
  name: "conv7_2_s"
  type: "Pooling"
  bottom: "conv7_2_t"
  top: "conv7_2_s"
  pooling_param {
    pool: AVE
    global_pooling: true
  }
}
layer {
  name: "conv7_2_fc1"
  type: "Convolution"
  bottom: "conv7_2_s"
  top: "conv7_2_fc1"
  param {
    lr_mult: 1
    decay_mult: 1
  }
  param {
    lr_mult: 2
    decay_mult: 0
  }
  convolution_param {
    num_output: 64
    kernel_size: 1
    stride: 1
    weight_filler {
      type: "xavier"
    }
    bias_filler {
      type: "constant"
      value: 0
    }
  }
}
layer {
  name: "conv7_2_relu"
  type: "ReLU"
  bottom: "conv7_2_fc1"
  top: "conv7_2_fc1"
}
layer {
  name: "conv7_2_fc2"
  type: "Convolution"
  bottom: "conv7_2_fc1"
  top: "conv7_2_fc2"
  param {
    lr_mult: 1
    decay_mult: 1
  }
  param {
    lr_mult: 2
    decay_mult: 0
  }
  convolution_param {
    num_output: 256
    kernel_size: 1
    stride: 1
    weight_filler {
      type: "xavier"
    }
    bias_filler {
      type: "constant"
      value: 0
    }
  }
}
layer {
  name: "conv7_2_sig"
  type: "Sigmoid"
  bottom: "conv7_2_fc2"
  top: "conv7_2_fc2"
}
layer {
  name: "conv7_2_reshape"
  type: "Reshape"
  bottom: "conv7_2_fc2"
  top: "conv7_2_reshape"
  reshape_param {
    shape {
      dim: 0
      dim: 0
    }
  }
}
layer {
  name: "conv7_2_scale"
  type: "Scale"
  bottom: "conv7_2_t"
  bottom: "conv7_2_reshape"
  top: "conv7_2"
  scale_param {
    axis: 0
    bias_term: false
  }
}
layer {
  name: "conv8_1"
  type: "Convolution"
  bottom: "conv7_2"
  top: "conv8_1"
  param {
    lr_mult: 1
    decay_mult: 1
  }
  param {
    lr_mult: 2
    decay_mult: 0
  }
  convolution_param {
    num_output: 128
    pad: 0
    kernel_size: 1
    stride: 1
    weight_filler {
      type: "xavier"
    }
    bias_filler {
      type: "constant"
      value: 0
    }
  }
}
layer {
  name: "conv8_1_relu"
  type: "ReLU"
  bottom: "conv8_1"
  top: "conv8_1"
}
layer {
  name: "conv8_2"
  type: "Convolution"
  bottom: "conv8_1"
  top: "conv8_2_t"
  param {
    lr_mult: 1
    decay_mult: 1
  }
  param {
    lr_mult: 2
    decay_mult: 0
  }
  convolution_param {
    num_output: 256
    pad: 0
    kernel_size: 3
    stride: 1
    weight_filler {
      type: "xavier"
    }
    bias_filler {
      type: "constant"
      value: 0
    }
  }
}
layer {
  name: "conv8_2_relu"
  type: "ReLU"
  bottom: "conv8_2_t"
  top: "conv8_2_t"
}
layer {
  name: "conv8_2_s"
  type: "Pooling"
  bottom: "conv8_2_t"
  top: "conv8_2_s"
  pooling_param {
    pool: AVE
    global_pooling: true
  }
}
layer {
  name: "conv8_2_fc1"
  type: "Convolution"
  bottom: "conv8_2_s"
  top: "conv8_2_fc1"
  param {
    lr_mult: 1
    decay_mult: 1
  }
  param {
    lr_mult: 2
    decay_mult: 0
  }
  convolution_param {
    num_output: 64
    kernel_size: 1
    stride: 1
    weight_filler {
      type: "xavier"
    }
    bias_filler {
      type: "constant"
      value: 0
    }
  }
}
layer {
  name: "conv8_2_relu"
  type: "ReLU"
  bottom: "conv8_2_fc1"
  top: "conv8_2_fc1"
}
layer {
  name: "conv8_2_fc2"
  type: "Convolution"
  bottom: "conv8_2_fc1"
  top: "conv8_2_fc2"
  param {
    lr_mult: 1
    decay_mult: 1
  }
  param {
    lr_mult: 2
    decay_mult: 0
  }
  convolution_param {
    num_output: 256
    kernel_size: 1
    stride: 1
    weight_filler {
      type: "xavier"
    }
    bias_filler {
      type: "constant"
      value: 0
    }
  }
}
layer {
  name: "conv8_2_sig"
  type: "Sigmoid"
  bottom: "conv8_2_fc2"
  top: "conv8_2_fc2"
}
layer {
  name: "conv8_2_reshape"
  type: "Reshape"
  bottom: "conv8_2_fc2"
  top: "conv8_2_reshape"
  reshape_param {
    shape {
      dim: 0
      dim: 0
    }
  }
}
layer {
  name: "conv8_2_scale"
  type: "Scale"
  bottom: "conv8_2_t"
  bottom: "conv8_2_reshape"
  top: "conv8_2"
  scale_param {
    axis: 0
    bias_term: false
  }
}
layer {
  name: "conv9_1"
  type: "Convolution"
  bottom: "conv8_2"
  top: "conv9_1"
  param {
    lr_mult: 1
    decay_mult: 1
  }
  param {
    lr_mult: 2
    decay_mult: 0
  }
  convolution_param {
    num_output: 128
    pad: 0
    kernel_size: 1
    stride: 1
    weight_filler {
      type: "xavier"
    }
    bias_filler {
      type: "constant"
      value: 0
    }
  }
}
layer {
  name: "conv9_1_relu"
  type: "ReLU"
  bottom: "conv9_1"
  top: "conv9_1"
}
layer {
  name: "conv9_2"
  type: "Convolution"
  bottom: "conv9_1"
  top: "conv9_2_t"
  param {
    lr_mult: 1
    decay_mult: 1
  }
  param {
    lr_mult: 2
    decay_mult: 0
  }
  convolution_param {
    num_output: 256
    pad: 0
    kernel_size: 3
    stride: 1
    weight_filler {
      type: "xavier"
    }
    bias_filler {
      type: "constant"
      value: 0
    }
  }
}
layer {
  name: "conv9_2_relu"
  type: "ReLU"
  bottom: "conv9_2_t"
  top: "conv9_2_t"
}
layer {
  name: "conv9_2_s"
  type: "Pooling"
  bottom: "conv9_2_t"
  top: "conv9_2_s"
  pooling_param {
    pool: AVE
    global_pooling: true
  }
}
layer {
  name: "conv9_2_fc1"
  type: "Convolution"
  bottom: "conv9_2_s"
  top: "conv9_2_fc1"
  param {
    lr_mult: 1
    decay_mult: 1
  }
  param {
    lr_mult: 2
    decay_mult: 0
  }
  convolution_param {
    num_output: 64
    kernel_size: 1
    stride: 1
    weight_filler {
      type: "xavier"
    }
…
I0302 22:41:32.620471  2269 net.cpp:157] Top shape: 8 64 1 1 (512)
I0302 22:41:32.620474  2269 net.cpp:165] Memory required for data: 2513242144
I0302 22:41:32.620483  2269 layer_factory.hpp:77] Creating layer conv7_2_relu
I0302 22:41:32.620497  2269 net.cpp:100] Creating Layer conv7_2_relu
I0302 22:41:32.620507  2269 net.cpp:434] conv7_2_relu <- conv7_2_fc1
I0302 22:41:32.620522  2269 net.cpp:395] conv7_2_relu -> conv7_2_fc1 (in-place)
I0302 22:41:32.621089  2269 net.cpp:150] Setting up conv7_2_relu
I0302 22:41:32.621103  2269 net.cpp:157] Top shape: 8 64 1 1 (512)
I0302 22:41:32.621124  2269 net.cpp:165] Memory required for data: 2513244192
I0302 22:41:32.621130  2269 layer_factory.hpp:77] Creating layer conv7_2_fc2
I0302 22:41:32.621147  2269 net.cpp:100] Creating Layer conv7_2_fc2
I0302 22:41:32.621156  2269 net.cpp:434] conv7_2_fc2 <- conv7_2_fc1
I0302 22:41:32.621170  2269 net.cpp:408] conv7_2_fc2 -> conv7_2_fc2
I0302 22:41:32.622469  2269 net.cpp:150] Setting up conv7_2_fc2
I0302 22:41:32.622483  2269 net.cpp:157] Top shape: 8 256 1 1 (2048)
I0302 22:41:32.622489  2269 net.cpp:165] Memory required for data: 2513252384
I0302 22:41:32.622510  2269 layer_factory.hpp:77] Creating layer conv7_2_sig
I0302 22:41:32.622520  2269 net.cpp:100] Creating Layer conv7_2_sig
I0302 22:41:32.622526  2269 net.cpp:434] conv7_2_sig <- conv7_2_fc2
I0302 22:41:32.622539  2269 net.cpp:395] conv7_2_sig -> conv7_2_fc2 (in-place)
I0302 22:41:32.622725  2269 net.cpp:150] Setting up conv7_2_sig
I0302 22:41:32.622736  2269 net.cpp:157] Top shape: 8 256 1 1 (2048)
I0302 22:41:32.622740  2269 net.cpp:165] Memory required for data: 2513260576
I0302 22:41:32.622746  2269 layer_factory.hpp:77] Creating layer conv7_2_reshape
I0302 22:41:32.622756  2269 net.cpp:100] Creating Layer conv7_2_reshape
I0302 22:41:32.622767  2269 net.cpp:434] conv7_2_reshape <- conv7_2_fc2
I0302 22:41:32.622777  2269 net.cpp:408] conv7_2_reshape -> conv7_2_reshape
I0302 22:41:32.622823  2269 net.cpp:150] Setting up conv7_2_reshape
I0302 22:41:32.622833  2269 net.cpp:157] Top shape: 8 256 (2048)
I0302 22:41:32.622838  2269 net.cpp:165] Memory required for data: 2513268768
I0302 22:41:32.622843  2269 layer_factory.hpp:77] Creating layer conv7_2_scale
I0302 22:41:32.622859  2269 net.cpp:100] Creating Layer conv7_2_scale
I0302 22:41:32.622869  2269 net.cpp:434] conv7_2_scale <- conv7_2_t_conv7_2_relu_0_split_1
I0302 22:41:32.622880  2269 net.cpp:434] conv7_2_scale <- conv7_2_reshape
I0302 22:41:32.622896  2269 net.cpp:408] conv7_2_scale -> conv7_2
I0302 22:41:32.622997  2269 net.cpp:150] Setting up conv7_2_scale
I0302 22:41:32.623005  2269 net.cpp:157] Top shape: 8 256 5 5 (51200)
I0302 22:41:32.623010  2269 net.cpp:165] Memory required for data: 2513473568
I0302 22:41:32.623015  2269 layer_factory.hpp:77] Creating layer conv7_2_conv7_2_scale_0_split
I0302 22:41:32.623028  2269 net.cpp:100] Creating Layer conv7_2_conv7_2_scale_0_split
I0302 22:41:32.623034  2269 net.cpp:434] conv7_2_conv7_2_scale_0_split <- conv7_2
I0302 22:41:32.623042  2269 net.cpp:408] conv7_2_conv7_2_scale_0_split -> conv7_2_conv7_2_scale_0_split_0
I0302 22:41:32.623057  2269 net.cpp:408] conv7_2_conv7_2_scale_0_split -> conv7_2_conv7_2_scale_0_split_1
I0302 22:41:32.623069  2269 net.cpp:408] conv7_2_conv7_2_scale_0_split -> conv7_2_conv7_2_scale_0_split_2
I0302 22:41:32.623082  2269 net.cpp:408] conv7_2_conv7_2_scale_0_split -> conv7_2_conv7_2_scale_0_split_3
I0302 22:41:32.623160  2269 net.cpp:150] Setting up conv7_2_conv7_2_scale_0_split
I0302 22:41:32.623169  2269 net.cpp:157] Top shape: 8 256 5 5 (51200)
I0302 22:41:32.623178  2269 net.cpp:157] Top shape: 8 256 5 5 (51200)
I0302 22:41:32.623188  2269 net.cpp:157] Top shape: 8 256 5 5 (51200)
I0302 22:41:32.623194  2269 net.cpp:157] Top shape: 8 256 5 5 (51200)
I0302 22:41:32.623204  2269 net.cpp:165] Memory required for data: 2514292768
I0302 22:41:32.623214  2269 layer_factory.hpp:77] Creating layer conv8_1
I0302 22:41:32.623230  2269 net.cpp:100] Creating Layer conv8_1
I0302 22:41:32.623245  2269 net.cpp:434] conv8_1 <- conv7_2_conv7_2_scale_0_split_0
I0302 22:41:32.623257  2269 net.cpp:408] conv8_1 -> conv8_1
I0302 22:41:32.624610  2269 net.cpp:150] Setting up conv8_1
I0302 22:41:32.624624  2269 net.cpp:157] Top shape: 8 128 5 5 (25600)
I0302 22:41:32.624629  2269 net.cpp:165] Memory required for data: 2514395168
I0302 22:41:32.624637  2269 layer_factory.hpp:77] Creating layer conv8_1_relu
I0302 22:41:32.624652  2269 net.cpp:100] Creating Layer conv8_1_relu
I0302 22:41:32.624661  2269 net.cpp:434] conv8_1_relu <- conv8_1
I0302 22:41:32.624672  2269 net.cpp:395] conv8_1_relu -> conv8_1 (in-place)
I0302 22:41:32.624862  2269 net.cpp:150] Setting up conv8_1_relu
I0302 22:41:32.624873  2269 net.cpp:157] Top shape: 8 128 5 5 (25600)
I0302 22:41:32.624877  2269 net.cpp:165] Memory required for data: 2514497568
I0302 22:41:32.624881  2269 layer_factory.hpp:77] Creating layer conv8_2
I0302 22:41:32.624897  2269 net.cpp:100] Creating Layer conv8_2
I0302 22:41:32.624907  2269 net.cpp:434] conv8_2 <- conv8_1
I0302 22:41:32.624922  2269 net.cpp:408] conv8_2 -> conv8_2_t
I0302 22:41:32.628789  2269 net.cpp:150] Setting up conv8_2
I0302 22:41:32.628803  2269 net.cpp:157] Top shape: 8 256 3 3 (18432)
I0302 22:41:32.628808  2269 net.cpp:165] Memory required for data: 2514571296
I0302 22:41:32.628818  2269 layer_factory.hpp:77] Creating layer conv8_2_relu
I0302 22:41:32.628824  2269 net.cpp:100] Creating Layer conv8_2_relu
I0302 22:41:32.628834  2269 net.cpp:434] conv8_2_relu <- conv8_2_t
I0302 22:41:32.628849  2269 net.cpp:395] conv8_2_relu -> conv8_2_t (in-place)
I0302 22:41:32.629429  2269 net.cpp:150] Setting up conv8_2_relu
I0302 22:41:32.629443  2269 net.cpp:157] Top shape: 8 256 3 3 (18432)
I0302 22:41:32.629448  2269 net.cpp:165] Memory required for data: 2514645024
I0302 22:41:32.629456  2269 layer_factory.hpp:77] Creating layer conv8_2_t_conv8_2_relu_0_split
I0302 22:41:32.629465  2269 net.cpp:100] Creating Layer conv8_2_t_conv8_2_relu_0_split
I0302 22:41:32.629475  2269 net.cpp:434] conv8_2_t_conv8_2_relu_0_split <- conv8_2_t
I0302 22:41:32.629490  2269 net.cpp:408] conv8_2_t_conv8_2_relu_0_split -> conv8_2_t_conv8_2_relu_0_split_0
I0302 22:41:32.629505  2269 net.cpp:408] conv8_2_t_conv8_2_relu_0_split -> conv8_2_t_conv8_2_relu_0_split_1
I0302 22:41:32.629566  2269 net.cpp:150] Setting up conv8_2_t_conv8_2_relu_0_split
I0302 22:41:32.629582  2269 net.cpp:157] Top shape: 8 256 3 3 (18432)
I0302 22:41:32.629592  2269 net.cpp:157] Top shape: 8 256 3 3 (18432)
I0302 22:41:32.629603  2269 net.cpp:165] Memory required for data: 2514792480
I0302 22:41:32.629609  2269 layer_factory.hpp:77] Creating layer conv8_2_s
I0302 22:41:32.629626  2269 net.cpp:100] Creating Layer conv8_2_s
I0302 22:41:32.629632  2269 net.cpp:434] conv8_2_s <- conv8_2_t_conv8_2_relu_0_split_0
I0302 22:41:32.629647  2269 net.cpp:408] conv8_2_s -> conv8_2_s
I0302 22:41:32.629854  2269 net.cpp:150] Setting up conv8_2_s
I0302 22:41:32.629864  2269 net.cpp:157] Top shape: 8 256 1 1 (2048)
I0302 22:41:32.629869  2269 net.cpp:165] Memory required for data: 2514800672
I0302 22:41:32.629875  2269 layer_factory.hpp:77] Creating layer conv8_2_fc1
I0302 22:41:32.629889  2269 net.cpp:100] Creating Layer conv8_2_fc1
I0302 22:41:32.629896  2269 net.cpp:434] conv8_2_fc1 <- conv8_2_s
I0302 22:41:32.629909  2269 net.cpp:408] conv8_2_fc1 -> conv8_2_fc1
I0302 22:41:32.631237  2269 net.cpp:150] Setting up conv8_2_fc1
I0302 22:41:32.631249  2269 net.cpp:157] Top shape: 8 64 1 1 (512)
I0302 22:41:32.631253  2269 net.cpp:165] Memory required for data: 2514802720
I0302 22:41:32.631261  2269 layer_factory.hpp:77] Creating layer conv8_2_relu
I0302 22:41:32.631274  2269 net.cpp:100] Creating Layer conv8_2_relu
I0302 22:41:32.631283  2269 net.cpp:434] conv8_2_relu <- conv8_2_fc1
I0302 22:41:32.631295  2269 net.cpp:395] conv8_2_relu -> conv8_2_fc1 (in-place)
I0302 22:41:32.631474  2269 net.cpp:150] Setting up conv8_2_relu
I0302 22:41:32.631484  2269 net.cpp:157] Top shape: 8 64 1 1 (512)
I0302 22:41:32.631489  2269 net.cpp:165] Memory required for data: 2514804768
I0302 22:41:32.631494  2269 layer_factory.hpp:77] Creating layer conv8_2_fc2
I0302 22:41:32.631512  2269 net.cpp:100] Creating Layer conv8_2_fc2
I0302 22:41:32.631523  2269 net.cpp:434] conv8_2_fc2 <- conv8_2_fc1
I0302 22:41:32.631534  2269 net.cpp:408] conv8_2_fc2 -> conv8_2_fc2
I0302 22:41:32.632820  2269 net.cpp:150] Setting up conv8_2_fc2
I0302 22:41:32.632833  2269 net.cpp:157] Top shape: 8 256 1 1 (2048)
I0302 22:41:32.632838  2269 net.cpp:165] Memory required for data: 2514812960
I0302 22:41:32.632849  2269 layer_factory.hpp:77] Creating layer conv8_2_sig
I0302 22:41:32.632864  2269 net.cpp:100] Creating Layer conv8_2_sig
I0302 22:41:32.632887  2269 net.cpp:434] conv8_2_sig <- conv8_2_fc2
I0302 22:41:32.632899  2269 net.cpp:395] conv8_2_sig -> conv8_2_fc2 (in-place)
I0302 22:41:32.633078  2269 net.cpp:150] Setting up conv8_2_sig
I0302 22:41:32.633090  2269 net.cpp:157] Top shape: 8 256 1 1 (2048)
I0302 22:41:32.633093  2269 net.cpp:165] Memory required for data: 2514821152
I0302 22:41:32.633100  2269 layer_factory.hpp:77] Creating layer conv8_2_reshape
I0302 22:41:32.633114  2269 net.cpp:100] Creating Layer conv8_2_reshape
I0302 22:41:32.633127  2269 net.cpp:434] conv8_2_reshape <- conv8_2_fc2
I0302 22:41:32.633136  2269 net.cpp:408] conv8_2_reshape -> conv8_2_reshape
I0302 22:41:32.633184  2269 net.cpp:150] Setting up conv8_2_reshape
I0302 22:41:32.633193  2269 net.cpp:157] Top shape: 8 256 (2048)
I0302 22:41:32.633199  2269 net.cpp:165] Memory required for data: 2514829344
I0302 22:41:32.633204  2269 layer_factory.hpp:77] Creating layer conv8_2_scale
I0302 22:41:32.633219  2269 net.cpp:100] Creating Layer conv8_2_scale
I0302 22:41:32.633225  2269 net.cpp:434] conv8_2_scale <- conv8_2_t_conv8_2_relu_0_split_1
I0302 22:41:32.633234  2269 net.cpp:434] conv8_2_scale <- conv8_2_reshape
I0302 22:41:32.633247  2269 net.cpp:408] conv8_2_scale -> conv8_2
I0302 22:41:32.633340  2269 net.cpp:150] Setting up conv8_2_scale
I0302 22:41:32.633353  2269 net.cpp:157] Top shape: 8 256 3 3 (18432)
I0302 22:41:32.633358  2269 net.cpp:165] Memory required for data: 2514903072
I0302 22:41:32.633363  2269 layer_factory.hpp:77] Creating layer conv8_2_conv8_2_scale_0_split
I0302 22:41:32.633374  2269 net.cpp:100] Creating Layer conv8_2_conv8_2_scale_0_split
I0302 22:41:32.633385  2269 net.cpp:434] conv8_2_conv8_2_scale_0_split <- conv8_2
I0302 22:41:32.633399  2269 net.cpp:408] conv8_2_conv8_2_scale_0_split -> conv8_2_conv8_2_scale_0_split_0
I0302 22:41:32.633414  2269 net.cpp:408] conv8_2_conv8_2_scale_0_split -> conv8_2_conv8_2_scale_0_split_1
I0302 22:41:32.633432  2269 net.cpp:408] conv8_2_conv8_2_scale_0_split -> conv8_2_conv8_2_scale_0_split_2
I0302 22:41:32.633443  2269 net.cpp:408] conv8_2_conv8_2_scale_0_split -> conv8_2_conv8_2_scale_0_split_3
I0302 22:41:32.633529  2269 net.cpp:150] Setting up conv8_2_conv8_2_scale_0_split
I0302 22:41:32.633538  2269 net.cpp:157] Top shape: 8 256 3 3 (18432)
I0302 22:41:32.633543  2269 net.cpp:157] Top shape: 8 256 3 3 (18432)
I0302 22:41:32.633549  2269 net.cpp:157] Top shape: 8 256 3 3 (18432)
I0302 22:41:32.633559  2269 net.cpp:157] Top shape: 8 256 3 3 (18432)
I0302 22:41:32.633566  2269 net.cpp:165] Memory required for data: 2515197984
I0302 22:41:32.633574  2269 layer_factory.hpp:77] Creating layer conv9_1
I0302 22:41:32.633594  2269 net.cpp:100] Creating Layer conv9_1
I0302 22:41:32.633599  2269 net.cpp:434] conv9_1 <- conv8_2_conv8_2_scale_0_split_0
I0302 22:41:32.633610  2269 net.cpp:408] conv9_1 -> conv9_1
I0302 22:41:32.634974  2269 net.cpp:150] Setting up conv9_1
I0302 22:41:32.634989  2269 net.cpp:157] Top shape: 8 128 3 3 (9216)
I0302 22:41:32.634994  2269 net.cpp:165] Memory required for data: 2515234848
I0302 22:41:32.635005  2269 layer_factory.hpp:77] Creating layer conv9_1_relu
I0302 22:41:32.635016  2269 net.cpp:100] Creating Layer conv9_1_relu
I0302 22:41:32.635025  2269 net.cpp:434] conv9_1_relu <- conv9_1
I0302 22:41:32.635038  2269 net.cpp:395] conv9_1_relu -> conv9_1 (in-place)
I0302 22:41:32.635604  2269 net.cpp:150] Setting up conv9_1_relu
I0302 22:41:32.635618  2269 net.cpp:157] Top shape: 8 128 3 3 (9216)
I0302 22:41:32.635622  2269 net.cpp:165] Memory required for data: 2515271712
I0302 22:41:32.635628  2269 layer_factory.hpp:77] Creating layer conv9_2
I0302 22:41:32.635643  2269 net.cpp:100] Creating Layer conv9_2
I0302 22:41:32.635653  2269 net.cpp:434] conv9_2 <- conv9_1
I0302 22:41:32.635665  2269 net.cpp:408] conv9_2 -> conv9_2_t
I0302 22:41:32.639284  2269 net.cpp:150] Setting up conv9_2
I0302 22:41:32.639297  2269 net.cpp:157] Top shape: 8 256 1 1 (2048)
I0302 22:41:32.639303  2269 net.cpp:165] Memory required for data: 2515279904
I0302 22:41:32.639314  2269 layer_factory.hpp:77] Creating layer conv9_2_relu
I0302 22:41:32.639336  2269 net.cpp:100] Creating Layer conv9_2_relu
I0302 22:41:32.639343  2269 net.cpp:434] conv9_2_relu <- conv9_2_t
I0302 22:41:32.639353  2269 net.cpp:395] conv9_2_relu -> conv9_2_t (in-place)
I0302 22:41:32.639546  2269 net.cpp:150] Setting up conv9_2_relu
I0302 22:41:32.639557  2269 net.cpp:157] Top shape: 8 256 1 1 (2048)
I0302 22:41:32.639561  2269 net.cpp:165] Memory required for data: 2515288096
I0302 22:41:32.639566  2269 layer_factory.hpp:77] Creating layer conv9_2_t_conv9_2_relu_0_split
I0302 22:41:32.639575  2269 net.cpp:100] Creating Layer conv9_2_t_conv9_2_relu_0_split
I0302 22:41:32.639585  2269 net.cpp:434] conv9_2_t_conv9_2_relu_0_split <- conv9_2_t
I0302 22:41:32.639595  2269 net.cpp:408] conv9_2_t_conv9_2_relu_0_split -> conv9_2_t_conv9_2_relu_0_split_0
I0302 22:41:32.639612  2269 net.cpp:408] conv9_2_t_conv9_2_relu_0_split -> conv9_2_t_conv9_2_relu_0_split_1
I0302 22:41:32.639675  2269 net.cpp:150] Setting up conv9_2_t_conv9_2_relu_0_split
I0302 22:41:32.639688  2269 net.cpp:157] Top shape: 8 256 1 1 (2048)
I0302 22:41:32.639699  2269 net.cpp:157] Top shape: 8 256 1 1 (2048)
I0302 22:41:32.639708  2269 net.cpp:165] Memory required for data: 2515304480
I0302 22:41:32.639715  2269 layer_factory.hpp:77] Creating layer conv9_2_s
I0302 22:41:32.639726  2269 net.cpp:100] Creating Layer conv9_2_s
I0302 22:41:32.639740  2269 net.cpp:434] conv9_2_s <- conv9_2_t_conv9_2_relu_0_split_0
I0302 22:41:32.639750  2269 net.cpp:408] conv9_2_s -> conv9_2_s
I0302 22:41:32.639956  2269 net.cpp:150] Setting up conv9_2_s
I0302 22:41:32.639967  2269 net.cpp:157] Top shape: 8 256 1 1 (2048)
I0302 22:41:32.639971  2269 net.cpp:165] Memory required for data: 2515312672
I0302 22:41:32.639977  2269 layer_factory.hpp:77] Creating layer conv9_2_fc1
I0302 22:41:32.639992  2269 net.cpp:100] Creating Layer conv9_2_fc1
I0302 22:41:32.639999  2269 net.cpp:434] conv9_2_fc1 <- conv9_2_s
I0302 22:41:32.640013  2269 net.cpp:408] conv9_2_fc1 -> conv9_2_fc1
I0302 22:41:32.641317  2269 net.cpp:150] Setting up conv9_2_fc1
I0302 22:41:32.641330  2269 net.cpp:157] Top shape: 8 64 1 1 (512)
I0302 22:41:32.641335  2269 net.cpp:165] Memory required for data: 2515314720
I0302 22:41:32.641343  2269 layer_factory.hpp:77] Creating layer conv9_2_relu
I0302 22:41:32.641360  2269 net.cpp:100] Creating Layer conv9_2_relu
I0302 22:41:32.641366  2269 net.cpp:434] conv9_2_relu <- conv9_2_fc1
I0302 22:41:32.641377  2269 net.cpp:395] conv9_2_relu -> conv9_2_fc1 (in-place)
I0302 22:41:32.641954  2269 net.cpp:150] Setting up conv9_2_relu
I0302 22:41:32.641968  2269 net.cpp:157] Top shape: 8 64 1 1 (512)
I0302 22:41:32.641973  2269 net.cpp:165] Memory required for data: 2515316768
I0302 22:41:32.641980  2269 layer_factory.hpp:77] Creating layer conv9_2_fc2
I0302 22:41:32.641995  2269 net.cpp:100] Creating Layer conv9_2_fc2
I0302 22:41:32.642004  2269 net.cpp:434] conv9_2_fc2 <- conv9_2_fc1
I0302 22:41:32.642015  2269 net.cpp:408] conv9_2_fc2 -> conv9_2_fc2
I0302 22:41:32.643334  2269 net.cpp:150] Setting up conv9_2_fc2
I0302 22:41:32.643348  2269 net.cpp:157] Top shape: 8 256 1 1 (2048)
I0302 22:41:32.643354  2269 net.cpp:165] Memory required for data: 2515324960
I0302 22:41:32.643362  2269 layer_factory.hpp:77] Creating layer conv9_2_sig
I0302 22:41:32.643375  2269 net.cpp:100] Creating Layer conv9_2_sig
I0302 22:41:32.643381  2269 net.cpp:434] conv9_2_sig <- conv9_2_fc2
I0302 22:41:32.643390  2269 net.cpp:395] conv9_2_sig -> conv9_2_fc2 (in-place)
I0302 22:41:32.643568  2269 net.cpp:150] Setting up conv9_2_sig
I0302 22:41:32.643579  2269 net.cpp:157] Top shape: 8 256 1 1 (2048)
I0302 22:41:32.643584  2269 net.cpp:165] Memory required for data: 2515333152
I0302 22:41:32.643589  2269 layer_factory.hpp:77] Creating layer conv9_2_reshape
I0302 22:41:32.643601  2269 net.cpp:100] Creating Layer conv9_2_reshape
I0302 22:41:32.643611  2269 net.cpp:434] conv9_2_reshape <- conv9_2_fc2
I0302 22:41:32.643623  2269 net.cpp:408] conv9_2_reshape -> conv9_2_reshape
I0302 22:41:32.643671  2269 net.cpp:150] Setting up conv9_2_reshape
I0302 22:41:32.643688  2269 net.cpp:157] Top shape: 8 256 (2048)
I0302 22:41:32.643695  2269 net.cpp:165] Memory required for data: 2515341344
I0302 22:41:32.643700  2269 layer_factory.hpp:77] Creating layer conv9_2_scale
I0302 22:41:32.643721  2269 net.cpp:100] Creating Layer conv9_2_scale
I0302 22:41:32.643731  2269 net.cpp:434] conv9_2_scale <- conv9_2_t_conv9_2_relu_0_split_1
I0302 22:41:32.643740  2269 net.cpp:434] conv9_2_scale <- conv9_2_reshape
I0302 22:41:32.643755  2269 net.cpp:408] conv9_2_scale -> conv9_2
I0302 22:41:32.643858  2269 net.cpp:150] Setting up conv9_2_scale
I0302 22:41:32.643867  2269 net.cpp:157] Top shape: 8 256 1 1 (2048)
I0302 22:41:32.643872  2269 net.cpp:165] Memory required for data: 2515349536
I0302 22:41:32.643877  2269 layer_factory.hpp:77] Creating layer conv9_2_conv9_2_scale_0_split
I0302 22:41:32.643885  2269 net.cpp:100] Creating Layer conv9_2_conv9_2_scale_0_split
I0302 22:41:32.643894  2269 net.cpp:434] conv9_2_conv9_2_scale_0_split <- conv9_2
I0302 22:41:32.643905  2269 net.cpp:408] conv9_2_conv9_2_scale_0_split -> conv9_2_conv9_2_scale_0_split_0
I0302 22:41:32.643923  2269 net.cpp:408] conv9_2_conv9_2_scale_0_split -> conv9_2_conv9_2_scale_0_split_1
I0302 22:41:32.643934  2269 net.cpp:408] conv9_2_conv9_2_scale_0_split -> conv9_2_conv9_2_scale_0_split_2
I0302 22:41:32.644008  2269 net.cpp:150] Setting up conv9_2_conv9_2_scale_0_split
I0302 22:41:32.644019  2269 net.cpp:157] Top shape: 8 256 1 1 (2048)
I0302 22:41:32.644026  2269 net.cpp:157] Top shape: 8 256 1 1 (2048)
I0302 22:41:32.644033  2269 net.cpp:157] Top shape: 8 256 1 1 (2048)
I0302 22:41:32.644042  2269 net.cpp:165] Memory required for data: 2515374112
I0302 22:41:32.644049  2269 layer_factory.hpp:77] Creating layer conv4_3_norm
I0302 22:41:32.644065  2269 net.cpp:100] Creating Layer conv4_3_norm
I0302 22:41:32.644076  2269 net.cpp:434] conv4_3_norm <- conv4_3_conv4_3_scale_0_split_1
I0302 22:41:32.644089  2269 net.cpp:408] conv4_3_norm -> conv4_3_norm
I0302 22:41:32.644281  2269 net.cpp:150] Setting up conv4_3_norm
I0302 22:41:32.644289  2269 net.cpp:157] Top shape: 8 512 38 38 (5914624)
I0302 22:41:32.644294  2269 net.cpp:165] Memory required for data: 2539032608
I0302 22:41:32.644302  2269 layer_factory.hpp:77] Creating layer conv4_3_norm_conv4_3_norm_0_split
I0302 22:41:32.644312  2269 net.cpp:100] Creating Layer conv4_3_norm_conv4_3_norm_0_split
I0302 22:41:32.644317  2269 net.cpp:434] conv4_3_norm_conv4_3_norm_0_split <- conv4_3_norm
I0302 22:41:32.644335  2269 net.cpp:408] conv4_3_norm_conv4_3_norm_0_split -> conv4_3_norm_conv4_3_norm_0_split_0
I0302 22:41:32.644346  2269 net.cpp:408] conv4_3_norm_conv4_3_norm_0_split -> conv4_3_norm_conv4_3_norm_0_split_1
I0302 22:41:32.644358  2269 net.cpp:408] conv4_3_norm_conv4_3_norm_0_split -> conv4_3_norm_conv4_3_norm_0_split_2
I0302 22:41:32.644424  2269 net.cpp:150] Setting up conv4_3_norm_conv4_3_norm_0_split
I0302 22:41:32.644438  2269 net.cpp:157] Top shape: 8 512 38 38 (5914624)
I0302 22:41:32.644444  2269 net.cpp:157] Top shape: 8 512 38 38 (5914624)
I0302 22:41:32.644449  2269 net.cpp:157] Top shape: 8 512 38 38 (5914624)
I0302 22:41:32.644454  2269 net.cpp:165] Memory required for data: 2610008096
I0302 22:41:32.644465  2269 layer_factory.hpp:77] Creating layer conv4_3_norm_mbox_loc
I0302 22:41:32.644485  2269 net.cpp:100] Creating Layer conv4_3_norm_mbox_loc
I0302 22:41:32.644493  2269 net.cpp:434] conv4_3_norm_mbox_loc <- conv4_3_norm_conv4_3_norm_0_split_0
I0302 22:41:32.644511  2269 net.cpp:408] conv4_3_norm_mbox_loc -> conv4_3_norm_mbox_loc
I0302 22:41:32.646436  2269 net.cpp:150] Setting up conv4_3_norm_mbox_loc
I0302 22:41:32.646450  2269 net.cpp:157] Top shape: 8 16 38 38 (184832)
I0302 22:41:32.646455  2269 net.cpp:165] Memory required for data: 2610747424
I0302 22:41:32.646464  2269 layer_factory.hpp:77] Creating layer conv4_3_norm_mbox_loc_perm
I0302 22:41:32.646478  2269 net.cpp:100] Creating Layer conv4_3_norm_mbox_loc_perm
I0302 22:41:32.646486  2269 net.cpp:434] conv4_3_norm_mbox_loc_perm <- conv4_3_norm_mbox_loc
I0302 22:41:32.646512  2269 net.cpp:408] conv4_3_norm_mbox_loc_perm -> conv4_3_norm_mbox_loc_perm
I0302 22:41:32.646656  2269 net.cpp:150] Setting up conv4_3_norm_mbox_loc_perm
I0302 22:41:32.646667  2269 net.cpp:157] Top shape: 8 38 38 16 (184832)
I0302 22:41:32.646672  2269 net.cpp:165] Memory required for data: 2611486752
I0302 22:41:32.646678  2269 layer_factory.hpp:77] Creating layer conv4_3_norm_mbox_loc_flat
I0302 22:41:32.646694  2269 net.cpp:100] Creating Layer conv4_3_norm_mbox_loc_flat
I0302 22:41:32.646703  2269 net.cpp:434] conv4_3_norm_mbox_loc_flat <- conv4_3_norm_mbox_loc_perm
I0302 22:41:32.646718  2269 net.cpp:408] conv4_3_norm_mbox_loc_flat -> conv4_3_norm_mbox_loc_flat
I0302 22:41:32.646770  2269 net.cpp:150] Setting up conv4_3_norm_mbox_loc_flat
I0302 22:41:32.646778  2269 net.cpp:157] Top shape: 8 23104 (184832)
I0302 22:41:32.646785  2269 net.cpp:165] Memory required for data: 2612226080
I0302 22:41:32.646791  2269 layer_factory.hpp:77] Creating layer conv4_3_norm_mbox_conf
I0302 22:41:32.646821  2269 net.cpp:100] Creating Layer conv4_3_norm_mbox_conf
I0302 22:41:32.646834  2269 net.cpp:434] conv4_3_norm_mbox_conf <- conv4_3_norm_conv4_3_norm_0_split_1
I0302 22:41:32.646844  2269 net.cpp:408] conv4_3_norm_mbox_conf -> conv4_3_norm_mbox_conf
I0302 22:41:32.655650  2269 net.cpp:150] Setting up conv4_3_norm_mbox_conf
I0302 22:41:32.655668  2269 net.cpp:157] Top shape: 8 324 38 38 (3742848)
I0302 22:41:32.655673  2269 net.cpp:165] Memory required for data: 2627197472
I0302 22:41:32.655683  2269 layer_factory.hpp:77] Creating layer conv4_3_norm_mbox_conf_perm
I0302 22:41:32.655692  2269 net.cpp:100] Creating Layer conv4_3_norm_mbox_conf_perm
I0302 22:41:32.655704  2269 net.cpp:434] conv4_3_norm_mbox_conf_perm <- conv4_3_norm_mbox_conf
I0302 22:41:32.655714  2269 net.cpp:408] conv4_3_norm_mbox_conf_perm -> conv4_3_norm_mbox_conf_perm
I0302 22:41:32.655858  2269 net.cpp:150] Setting up conv4_3_norm_mbox_conf_perm
I0302 22:41:32.655869  2269 net.cpp:157] Top shape: 8 38 38 324 (3742848)
I0302 22:41:32.655872  2269 net.cpp:165] Memory required for data: 2642168864
I0302 22:41:32.655877  2269 layer_factory.hpp:77] Creating layer conv4_3_norm_mbox_conf_flat
I0302 22:41:32.655891  2269 net.cpp:100] Creating Layer conv4_3_norm_mbox_conf_flat
I0302 22:41:32.655899  2269 net.cpp:434] conv4_3_norm_mbox_conf_flat <- conv4_3_norm_mbox_conf_perm
I0302 22:41:32.655915  2269 net.cpp:408] conv4_3_norm_mbox_conf_flat -> conv4_3_norm_mbox_conf_flat
I0302 22:41:32.655954  2269 net.cpp:150] Setting up conv4_3_norm_mbox_conf_flat
I0302 22:41:32.655963  2269 net.cpp:157] Top shape: 8 467856 (3742848)
I0302 22:41:32.655968  2269 net.cpp:165] Memory required for data: 2657140256
I0302 22:41:32.655972  2269 layer_factory.hpp:77] Creating layer conv4_3_norm_mbox_priorbox
I0302 22:41:32.655992  2269 net.cpp:100] Creating Layer conv4_3_norm_mbox_priorbox
I0302 22:41:32.655999  2269 net.cpp:434] conv4_3_norm_mbox_priorbox <- conv4_3_norm_conv4_3_norm_0_split_2
I0302 22:41:32.656009  2269 net.cpp:434] conv4_3_norm_mbox_priorbox <- data_data_0_split_1
I0302 22:41:32.656028  2269 net.cpp:408] conv4_3_norm_mbox_priorbox -> conv4_3_norm_mbox_priorbox
I0302 22:41:32.656075  2269 net.cpp:150] Setting up conv4_3_norm_mbox_priorbox
I0302 22:41:32.656085  2269 net.cpp:157] Top shape: 1 2 23104 (46208)
I0302 22:41:32.656090  2269 net.cpp:165] Memory required for data: 2657325088
I0302 22:41:32.656095  2269 layer_factory.hpp:77] Creating layer fc7_mbox_loc
I0302 22:41:32.656111  2269 net.cpp:100] Creating Layer fc7_mbox_loc
I0302 22:41:32.656122  2269 net.cpp:434] fc7_mbox_loc <- fc7_fc7_scale_0_split_1
I0302 22:41:32.656133  2269 net.cpp:408] fc7_mbox_loc -> fc7_mbox_loc
I0302 22:41:32.658694  2269 net.cpp:150] Setting up fc7_mbox_loc
I0302 22:41:32.658710  2269 net.cpp:157] Top shape: 8 24 19 19 (69312)
I0302 22:41:32.658716  2269 net.cpp:165] Memory required for data: 2657602336
I0302 22:41:32.658726  2269 layer_factory.hpp:77] Creating layer fc7_mbox_loc_perm
I0302 22:41:32.658740  2269 net.cpp:100] Creating Layer fc7_mbox_loc_perm
I0302 22:41:32.658746  2269 net.cpp:434] fc7_mbox_loc_perm <- fc7_mbox_loc
I0302 22:41:32.658772  2269 net.cpp:408] fc7_mbox_loc_perm -> fc7_mbox_loc_perm
I0302 22:41:32.658915  2269 net.cpp:150] Setting up fc7_mbox_loc_perm
I0302 22:41:32.658924  2269 net.cpp:157] Top shape: 8 19 19 24 (69312)
I0302 22:41:32.658929  2269 net.cpp:165] Memory required for data: 2657879584
I0302 22:41:32.658934  2269 layer_factory.hpp:77] Creating layer fc7_mbox_loc_flat
I0302 22:41:32.658942  2269 net.cpp:100] Creating Layer fc7_mbox_loc_flat
I0302 22:41:32.658955  2269 net.cpp:434] fc7_mbox_loc_flat <- fc7_mbox_loc_perm
I0302 22:41:32.658965  2269 net.cpp:408] fc7_mbox_loc_flat -> fc7_mbox_loc_flat
I0302 22:41:32.659010  2269 net.cpp:150] Setting up fc7_mbox_loc_flat
I0302 22:41:32.659018  2269 net.cpp:157] Top shape: 8 8664 (69312)
I0302 22:41:32.659024  2269 net.cpp:165] Memory required for data: 2658156832
I0302 22:41:32.659029  2269 layer_factory.hpp:77] Creating layer fc7_mbox_conf
I0302 22:41:32.659044  2269 net.cpp:100] Creating Layer fc7_mbox_conf
I0302 22:41:32.659057  2269 net.cpp:434] fc7_mbox_conf <- fc7_fc7_scale_0_split_2
I0302 22:41:32.659070  2269 net.cpp:408] fc7_mbox_conf -> fc7_mbox_conf
I0302 22:41:32.682989  2269 net.cpp:150] Setting up fc7_mbox_conf
I0302 22:41:32.683017  2269 net.cpp:157] Top shape: 8 486 19 19 (1403568)
I0302 22:41:32.683022  2269 net.cpp:165] Memory required for data: 2663771104
I0302 22:41:32.683033  2269 layer_factory.hpp:77] Creating layer fc7_mbox_conf_perm
I0302 22:41:32.683045  2269 net.cpp:100] Creating Layer fc7_mbox_conf_perm
I0302 22:41:32.683056  2269 net.cpp:434] fc7_mbox_conf_perm <- fc7_mbox_conf
I0302 22:41:32.683071  2269 net.cpp:408] fc7_mbox_conf_perm -> fc7_mbox_conf_perm
I0302 22:41:32.683229  2269 net.cpp:150] Setting up fc7_mbox_conf_perm
I0302 22:41:32.683240  2269 net.cpp:157] Top shape: 8 19 19 486 (1403568)
I0302 22:41:32.683249  2269 net.cpp:165] Memory required for data: 2669385376
I0302 22:41:32.683255  2269 layer_factory.hpp:77] Creating layer fc7_mbox_conf_flat
I0302 22:41:32.683267  2269 net.cpp:100] Creating Layer fc7_mbox_conf_flat
I0302 22:41:32.683277  2269 net.cpp:434] fc7_mbox_conf_flat <- fc7_mbox_conf_perm
I0302 22:41:32.683290  2269 net.cpp:408] fc7_mbox_conf_flat -> fc7_mbox_conf_flat
I0302 22:41:32.683331  2269 net.cpp:150] Setting up fc7_mbox_conf_flat
I0302 22:41:32.683341  2269 net.cpp:157] Top shape: 8 175446 (1403568)
I0302 22:41:32.683346  2269 net.cpp:165] Memory required for data: 2674999648
I0302 22:41:32.683352  2269 layer_factory.hpp:77] Creating layer fc7_mbox_priorbox
I0302 22:41:32.683367  2269 net.cpp:100] Creating Layer fc7_mbox_priorbox
I0302 22:41:32.683377  2269 net.cpp:434] fc7_mbox_priorbox <- fc7_fc7_scale_0_split_3
I0302 22:41:32.683387  2269 net.cpp:434] fc7_mbox_priorbox <- data_data_0_split_2
I0302 22:41:32.683401  2269 net.cpp:408] fc7_mbox_priorbox -> fc7_mbox_priorbox
I0302 22:41:32.683472  2269 net.cpp:150] Setting up fc7_mbox_priorbox
I0302 22:41:32.683481  2269 net.cpp:157] Top shape: 1 2 8664 (17328)
I0302 22:41:32.683485  2269 net.cpp:165] Memory required for data: 2675068960
I0302 22:41:32.683491  2269 layer_factory.hpp:77] Creating layer conv6_2_mbox_loc
I0302 22:41:32.683509  2269 net.cpp:100] Creating Layer conv6_2_mbox_loc
I0302 22:41:32.683519  2269 net.cpp:434] conv6_2_mbox_loc <- conv6_2_conv6_2_scale_0_split_1
I0302 22:41:32.683531  2269 net.cpp:408] conv6_2_mbox_loc -> conv6_2_mbox_loc
I0302 22:41:32.686934  2269 net.cpp:150] Setting up conv6_2_mbox_loc
I0302 22:41:32.686949  2269 net.cpp:157] Top shape: 8 24 10 10 (19200)
I0302 22:41:32.686955  2269 net.cpp:165] Memory required for data: 2675145760
I0302 22:41:32.686966  2269 layer_factory.hpp:77] Creating layer conv6_2_mbox_loc_perm
I0302 22:41:32.686980  2269 net.cpp:100] Creating Layer conv6_2_mbox_loc_perm
I0302 22:41:32.686985  2269 net.cpp:434] conv6_2_mbox_loc_perm <- conv6_2_mbox_loc
I0302 22:41:32.686996  2269 net.cpp:408] conv6_2_mbox_loc_perm -> conv6_2_mbox_loc_perm
I0302 22:41:32.687141  2269 net.cpp:150] Setting up conv6_2_mbox_loc_perm
I0302 22:41:32.687151  2269 net.cpp:157] Top shape: 8 10 10 24 (19200)
I0302 22:41:32.687175  2269 net.cpp:165] Memory required for data: 2675222560
I0302 22:41:32.687180  2269 layer_factory.hpp:77] Creating layer conv6_2_mbox_loc_flat
I0302 22:41:32.687192  2269 net.cpp:100] Creating Layer conv6_2_mbox_loc_flat
I0302 22:41:32.687206  2269 net.cpp:434] conv6_2_mbox_loc_flat <- conv6_2_mbox_loc_perm
I0302 22:41:32.687216  2269 net.cpp:408] conv6_2_mbox_loc_flat -> conv6_2_mbox_loc_flat
I0302 22:41:32.687256  2269 net.cpp:150] Setting up conv6_2_mbox_loc_flat
I0302 22:41:32.687265  2269 net.cpp:157] Top shape: 8 2400 (19200)
I0302 22:41:32.687273  2269 net.cpp:165] Memory required for data: 2675299360
I0302 22:41:32.687280  2269 layer_factory.hpp:77] Creating layer conv6_2_mbox_conf
I0302 22:41:32.687300  2269 net.cpp:100] Creating Layer conv6_2_mbox_conf
I0302 22:41:32.687314  2269 net.cpp:434] conv6_2_mbox_conf <- conv6_2_conv6_2_scale_0_split_2
I0302 22:41:32.687327  2269 net.cpp:408] conv6_2_mbox_conf -> conv6_2_mbox_conf
I0302 22:41:32.699887  2269 net.cpp:150] Setting up conv6_2_mbox_conf
I0302 22:41:32.699908  2269 net.cpp:157] Top shape: 8 486 10 10 (388800)
I0302 22:41:32.699913  2269 net.cpp:165] Memory required for data: 2676854560
I0302 22:41:32.699923  2269 layer_factory.hpp:77] Creating layer conv6_2_mbox_conf_perm
I0302 22:41:32.699935  2269 net.cpp:100] Creating Layer conv6_2_mbox_conf_perm
I0302 22:41:32.699947  2269 net.cpp:434] conv6_2_mbox_conf_perm <- conv6_2_mbox_conf
I0302 22:41:32.699959  2269 net.cpp:408] conv6_2_mbox_conf_perm -> conv6_2_mbox_conf_perm
I0302 22:41:32.700109  2269 net.cpp:150] Setting up conv6_2_mbox_conf_perm
I0302 22:41:32.700119  2269 net.cpp:157] Top shape: 8 10 10 486 (388800)
I0302 22:41:32.700125  2269 net.cpp:165] Memory required for data: 2678409760
I0302 22:41:32.700132  2269 layer_factory.hpp:77] Creating layer conv6_2_mbox_conf_flat
I0302 22:41:32.700145  2269 net.cpp:100] Creating Layer conv6_2_mbox_conf_flat
I0302 22:41:32.700160  2269 net.cpp:434] conv6_2_mbox_conf_flat <- conv6_2_mbox_conf_perm
I0302 22:41:32.700170  2269 net.cpp:408] conv6_2_mbox_conf_flat -> conv6_2_mbox_conf_flat
I0302 22:41:32.700215  2269 net.cpp:150] Setting up conv6_2_mbox_conf_flat
I0302 22:41:32.700224  2269 net.cpp:157] Top shape: 8 48600 (388800)
I0302 22:41:32.700230  2269 net.cpp:165] Memory required for data: 2679964960
I0302 22:41:32.700237  2269 layer_factory.hpp:77] Creating layer conv6_2_mbox_priorbox
I0302 22:41:32.700256  2269 net.cpp:100] Creating Layer conv6_2_mbox_priorbox
I0302 22:41:32.700265  2269 net.cpp:434] conv6_2_mbox_priorbox <- conv6_2_conv6_2_scale_0_split_3
I0302 22:41:32.700278  2269 net.cpp:434] conv6_2_mbox_priorbox <- data_data_0_split_3
I0302 22:41:32.700294  2269 net.cpp:408] conv6_2_mbox_priorbox -> conv6_2_mbox_priorbox
I0302 22:41:32.700347  2269 net.cpp:150] Setting up conv6_2_mbox_priorbox
I0302 22:41:32.700356  2269 net.cpp:157] Top shape: 1 2 2400 (4800)
I0302 22:41:32.700361  2269 net.cpp:165] Memory required for data: 2679984160
I0302 22:41:32.700366  2269 layer_factory.hpp:77] Creating layer conv7_2_mbox_loc
I0302 22:41:32.700387  2269 net.cpp:100] Creating Layer conv7_2_mbox_loc
I0302 22:41:32.700398  2269 net.cpp:434] conv7_2_mbox_loc <- conv7_2_conv7_2_scale_0_split_1
I0302 22:41:32.700413  2269 net.cpp:408] conv7_2_mbox_loc -> conv7_2_mbox_loc
I0302 22:41:32.702719  2269 net.cpp:150] Setting up conv7_2_mbox_loc
I0302 22:41:32.702733  2269 net.cpp:157] Top shape: 8 24 5 5 (4800)
I0302 22:41:32.702739  2269 net.cpp:165] Memory required for data: 2680003360
I0302 22:41:32.702750  2269 layer_factory.hpp:77] Creating layer conv7_2_mbox_loc_perm
I0302 22:41:32.702769  2269 net.cpp:100] Creating Layer conv7_2_mbox_loc_perm
I0302 22:41:32.702782  2269 net.cpp:434] conv7_2_mbox_loc_perm <- conv7_2_mbox_loc
I0302 22:41:32.702797  2269 net.cpp:408] conv7_2_mbox_loc_perm -> conv7_2_mbox_loc_perm
I0302 22:41:32.702955  2269 net.cpp:150] Setting up conv7_2_mbox_loc_perm
I0302 22:41:32.702966  2269 net.cpp:157] Top shape: 8 5 5 24 (4800)
I0302 22:41:32.702973  2269 net.cpp:165] Memory required for data: 2680022560
I0302 22:41:32.702998  2269 layer_factory.hpp:77] Creating layer conv7_2_mbox_loc_flat
I0302 22:41:32.703012  2269 net.cpp:100] Creating Layer conv7_2_mbox_loc_flat
I0302 22:41:32.703027  2269 net.cpp:434] conv7_2_mbox_loc_flat <- conv7_2_mbox_loc_perm
I0302 22:41:32.703037  2269 net.cpp:408] conv7_2_mbox_loc_flat -> conv7_2_mbox_loc_flat
I0302 22:41:32.703083  2269 net.cpp:150] Setting up conv7_2_mbox_loc_flat
I0302 22:41:32.703094  2269 net.cpp:157] Top shape: 8 600 (4800)
I0302 22:41:32.703100  2269 net.cpp:165] Memory required for data: 2680041760
I0302 22:41:32.703109  2269 layer_factory.hpp:77] Creating layer conv7_2_mbox_conf
I0302 22:41:32.703130  2269 net.cpp:100] Creating Layer conv7_2_mbox_conf
I0302 22:41:32.703140  2269 net.cpp:434] conv7_2_mbox_conf <- conv7_2_conv7_2_scale_0_split_2
I0302 22:41:32.703153  2269 net.cpp:408] conv7_2_mbox_conf -> conv7_2_mbox_conf
I0302 22:41:32.710888  2269 net.cpp:150] Setting up conv7_2_mbox_conf
I0302 22:41:32.710903  2269 net.cpp:157] Top shape: 8 486 5 5 (97200)
I0302 22:41:32.710908  2269 net.cpp:165] Memory required for data: 2680430560
I0302 22:41:32.710921  2269 layer_factory.hpp:77] Creating layer conv7_2_mbox_conf_perm
I0302 22:41:32.710934  2269 net.cpp:100] Creating Layer conv7_2_mbox_conf_perm
I0302 22:41:32.710944  2269 net.cpp:434] conv7_2_mbox_conf_perm <- conv7_2_mbox_conf
I0302 22:41:32.710955  2269 net.cpp:408] conv7_2_mbox_conf_perm -> conv7_2_mbox_conf_perm
I0302 22:41:32.711107  2269 net.cpp:150] Setting up conv7_2_mbox_conf_perm
I0302 22:41:32.711120  2269 net.cpp:157] Top shape: 8 5 5 486 (97200)
I0302 22:41:32.711125  2269 net.cpp:165] Memory required for data: 2680819360
I0302 22:41:32.711130  2269 layer_factory.hpp:77] Creating layer conv7_2_mbox_conf_flat
I0302 22:41:32.711138  2269 net.cpp:100] Creating Layer conv7_2_mbox_conf_flat
I0302 22:41:32.711153  2269 net.cpp:434] conv7_2_mbox_conf_flat <- conv7_2_mbox_conf_perm
I0302 22:41:32.711167  2269 net.cpp:408] conv7_2_mbox_conf_flat -> conv7_2_mbox_conf_flat
I0302 22:41:32.711211  2269 net.cpp:150] Setting up conv7_2_mbox_conf_flat
I0302 22:41:32.711218  2269 net.cpp:157] Top shape: 8 12150 (97200)
I0302 22:41:32.711225  2269 net.cpp:165] Memory required for data: 2681208160
I0302 22:41:32.711232  2269 layer_factory.hpp:77] Creating layer conv7_2_mbox_priorbox
I0302 22:41:32.711247  2269 net.cpp:100] Creating Layer conv7_2_mbox_priorbox
I0302 22:41:32.711257  2269 net.cpp:434] conv7_2_mbox_priorbox <- conv7_2_conv7_2_scale_0_split_3
I0302 22:41:32.711274  2269 net.cpp:434] conv7_2_mbox_priorbox <- data_data_0_split_4
I0302 22:41:32.711289  2269 net.cpp:408] conv7_2_mbox_priorbox -> conv7_2_mbox_priorbox
I0302 22:41:32.711334  2269 net.cpp:150] Setting up conv7_2_mbox_priorbox
I0302 22:41:32.711344  2269 net.cpp:157] Top shape: 1 2 600 (1200)
I0302 22:41:32.711356  2269 net.cpp:165] Memory required for data: 2681212960
I0302 22:41:32.711364  2269 layer_factory.hpp:77] Creating layer conv8_2_mbox_loc
I0302 22:41:32.711387  2269 net.cpp:100] Creating Layer conv8_2_mbox_loc
I0302 22:41:32.711395  2269 net.cpp:434] conv8_2_mbox_loc <- conv8_2_conv8_2_scale_0_split_1
I0302 22:41:32.711405  2269 net.cpp:408] conv8_2_mbox_loc -> conv8_2_mbox_loc
I0302 22:41:32.712857  2269 net.cpp:150] Setting up conv8_2_mbox_loc
I0302 22:41:32.712869  2269 net.cpp:157] Top shape: 8 16 3 3 (1152)
I0302 22:41:32.712873  2269 net.cpp:165] Memory required for data: 2681217568
I0302 22:41:32.712885  2269 layer_factory.hpp:77] Creating layer conv8_2_mbox_loc_perm
I0302 22:41:32.712901  2269 net.cpp:100] Creating Layer conv8_2_mbox_loc_perm
I0302 22:41:32.712915  2269 net.cpp:434] conv8_2_mbox_loc_perm <- conv8_2_mbox_loc
I0302 22:41:32.712932  2269 net.cpp:408] conv8_2_mbox_loc_perm -> conv8_2_mbox_loc_perm
I0302 22:41:32.713089  2269 net.cpp:150] Setting up conv8_2_mbox_loc_perm
I0302 22:41:32.713099  2269 net.cpp:157] Top shape: 8 3 3 16 (1152)
I0302 22:41:32.713104  2269 net.cpp:165] Memory required for data: 2681222176
I0302 22:41:32.713106  2269 layer_factory.hpp:77] Creating layer conv8_2_mbox_loc_flat
I0302 22:41:32.713129  2269 net.cpp:100] Creating Layer conv8_2_mbox_loc_flat
I0302 22:41:32.713137  2269 net.cpp:434] conv8_2_mbox_loc_flat <- conv8_2_mbox_loc_perm
I0302 22:41:32.713151  2269 net.cpp:408] conv8_2_mbox_loc_flat -> conv8_2_mbox_loc_flat
I0302 22:41:32.713194  2269 net.cpp:150] Setting up conv8_2_mbox_loc_flat
I0302 22:41:32.713203  2269 net.cpp:157] Top shape: 8 144 (1152)
I0302 22:41:32.713208  2269 net.cpp:165] Memory required for data: 2681226784
I0302 22:41:32.713217  2269 layer_factory.hpp:77] Creating layer conv8_2_mbox_conf
I0302 22:41:32.713232  2269 net.cpp:100] Creating Layer conv8_2_mbox_conf
I0302 22:41:32.713248  2269 net.cpp:434] conv8_2_mbox_conf <- conv8_2_conv8_2_scale_0_split_2
I0302 22:41:32.713265  2269 net.cpp:408] conv8_2_mbox_conf -> conv8_2_mbox_conf
I0302 22:41:32.718896  2269 net.cpp:150] Setting up conv8_2_mbox_conf
I0302 22:41:32.718910  2269 net.cpp:157] Top shape: 8 324 3 3 (23328)
I0302 22:41:32.718915  2269 net.cpp:165] Memory required for data: 2681320096
I0302 22:41:32.718930  2269 layer_factory.hpp:77] Creating layer conv8_2_mbox_conf_perm
I0302 22:41:32.718943  2269 net.cpp:100] Creating Layer conv8_2_mbox_conf_perm
I0302 22:41:32.718957  2269 net.cpp:434] conv8_2_mbox_conf_perm <- conv8_2_mbox_conf
I0302 22:41:32.718971  2269 net.cpp:408] conv8_2_mbox_conf_perm -> conv8_2_mbox_conf_perm
I0302 22:41:32.719135  2269 net.cpp:150] Setting up conv8_2_mbox_conf_perm
I0302 22:41:32.719144  2269 net.cpp:157] Top shape: 8 3 3 324 (23328)
I0302 22:41:32.719149  2269 net.cpp:165] Memory required for data: 2681413408
I0302 22:41:32.719161  2269 layer_factory.hpp:77] Creating layer conv8_2_mbox_conf_flat
I0302 22:41:32.719177  2269 net.cpp:100] Creating Layer conv8_2_mbox_conf_flat
I0302 22:41:32.719190  2269 net.cpp:434] conv8_2_mbox_conf_flat <- conv8_2_mbox_conf_perm
I0302 22:41:32.719205  2269 net.cpp:408] conv8_2_mbox_conf_flat -> conv8_2_mbox_conf_flat
I0302 22:41:32.719249  2269 net.cpp:150] Setting up conv8_2_mbox_conf_flat
I0302 22:41:32.719257  2269 net.cpp:157] Top shape: 8 2916 (23328)
I0302 22:41:32.719262  2269 net.cpp:165] Memory required for data: 2681506720
I0302 22:41:32.719269  2269 layer_factory.hpp:77] Creating layer conv8_2_mbox_priorbox
I0302 22:41:32.719290  2269 net.cpp:100] Creating Layer conv8_2_mbox_priorbox
I0302 22:41:32.719305  2269 net.cpp:434] conv8_2_mbox_priorbox <- conv8_2_conv8_2_scale_0_split_3
I0302 22:41:32.719317  2269 net.cpp:434] conv8_2_mbox_priorbox <- data_data_0_split_5
I0302 22:41:32.719332  2269 net.cpp:408] conv8_2_mbox_priorbox -> conv8_2_mbox_priorbox
I0302 22:41:32.719386  2269 net.cpp:150] Setting up conv8_2_mbox_priorbox
I0302 22:41:32.719395  2269 net.cpp:157] Top shape: 1 2 144 (288)
I0302 22:41:32.719403  2269 net.cpp:165] Memory required for data: 2681507872
I0302 22:41:32.719413  2269 layer_factory.hpp:77] Creating layer conv9_2_mbox_loc
I0302 22:41:32.719432  2269 net.cpp:100] Creating Layer conv9_2_mbox_loc
I0302 22:41:32.719440  2269 net.cpp:434] conv9_2_mbox_loc <- conv9_2_conv9_2_scale_0_split_0
I0302 22:41:32.719449  2269 net.cpp:408] conv9_2_mbox_loc -> conv9_2_mbox_loc
I0302 22:41:32.720881  2269 net.cpp:150] Setting up conv9_2_mbox_loc
I0302 22:41:32.720893  2269 net.cpp:157] Top shape: 8 16 1 1 (128)
I0302 22:41:32.720897  2269 net.cpp:165] Memory required for data: 2681508384
I0302 22:41:32.720906  2269 layer_factory.hpp:77] Creating layer conv9_2_mbox_loc_perm
I0302 22:41:32.720917  2269 net.cpp:100] Creating Layer conv9_2_mbox_loc_perm
I0302 22:41:32.720926  2269 net.cpp:434] conv9_2_mbox_loc_perm <- conv9_2_mbox_loc
I0302 22:41:32.720934  2269 net.cpp:408] conv9_2_mbox_loc_perm -> conv9_2_mbox_loc_perm
I0302 22:41:32.721071  2269 net.cpp:150] Setting up conv9_2_mbox_loc_perm
I0302 22:41:32.721077  2269 net.cpp:157] Top shape: 8 1 1 16 (128)
I0302 22:41:32.721081  2269 net.cpp:165] Memory required for data: 2681508896
I0302 22:41:32.721086  2269 layer_factory.hpp:77] Creating layer conv9_2_mbox_loc_flat
I0302 22:41:32.721096  2269 net.cpp:100] Creating Layer conv9_2_mbox_loc_flat
I0302 22:41:32.721101  2269 net.cpp:434] conv9_2_mbox_loc_flat <- conv9_2_mbox_loc_perm
I0302 22:41:32.721122  2269 net.cpp:408] conv9_2_mbox_loc_flat -> conv9_2_mbox_loc_flat
I0302 22:41:32.721158  2269 net.cpp:150] Setting up conv9_2_mbox_loc_flat
I0302 22:41:32.721163  2269 net.cpp:157] Top shape: 8 16 (128)
I0302 22:41:32.721168  2269 net.cpp:165] Memory required for data: 2681509408
I0302 22:41:32.721171  2269 layer_factory.hpp:77] Creating layer conv9_2_mbox_conf
I0302 22:41:32.721184  2269 net.cpp:100] Creating Layer conv9_2_mbox_conf
I0302 22:41:32.721191  2269 net.cpp:434] conv9_2_mbox_conf <- conv9_2_conv9_2_scale_0_split_1
I0302 22:41:32.721202  2269 net.cpp:408] conv9_2_mbox_conf -> conv9_2_mbox_conf
I0302 22:41:32.726881  2269 net.cpp:150] Setting up conv9_2_mbox_conf
I0302 22:41:32.726897  2269 net.cpp:157] Top shape: 8 324 1 1 (2592)
I0302 22:41:32.726902  2269 net.cpp:165] Memory required for data: 2681519776
I0302 22:41:32.726909  2269 layer_factory.hpp:77] Creating layer conv9_2_mbox_conf_perm
I0302 22:41:32.726918  2269 net.cpp:100] Creating Layer conv9_2_mbox_conf_perm
I0302 22:41:32.726927  2269 net.cpp:434] conv9_2_mbox_conf_perm <- conv9_2_mbox_conf
I0302 22:41:32.726936  2269 net.cpp:408] conv9_2_mbox_conf_perm -> conv9_2_mbox_conf_perm
I0302 22:41:32.727077  2269 net.cpp:150] Setting up conv9_2_mbox_conf_perm
I0302 22:41:32.727084  2269 net.cpp:157] Top shape: 8 1 1 324 (2592)
I0302 22:41:32.727088  2269 net.cpp:165] Memory required for data: 2681530144
I0302 22:41:32.727094  2269 layer_factory.hpp:77] Creating layer conv9_2_mbox_conf_flat
I0302 22:41:32.727102  2269 net.cpp:100] Creating Layer conv9_2_mbox_conf_flat
I0302 22:41:32.727113  2269 net.cpp:434] conv9_2_mbox_conf_flat <- conv9_2_mbox_conf_perm
I0302 22:41:32.727124  2269 net.cpp:408] conv9_2_mbox_conf_flat -> conv9_2_mbox_conf_flat
I0302 22:41:32.727157  2269 net.cpp:150] Setting up conv9_2_mbox_conf_flat
I0302 22:41:32.727164  2269 net.cpp:157] Top shape: 8 324 (2592)
I0302 22:41:32.727167  2269 net.cpp:165] Memory required for data: 2681540512
I0302 22:41:32.727174  2269 layer_factory.hpp:77] Creating layer conv9_2_mbox_priorbox
I0302 22:41:32.727180  2269 net.cpp:100] Creating Layer conv9_2_mbox_priorbox
I0302 22:41:32.727186  2269 net.cpp:434] conv9_2_mbox_priorbox <- conv9_2_conv9_2_scale_0_split_2
I0302 22:41:32.727195  2269 net.cpp:434] conv9_2_mbox_priorbox <- data_data_0_split_6
I0302 22:41:32.727208  2269 net.cpp:408] conv9_2_mbox_priorbox -> conv9_2_mbox_priorbox
I0302 22:41:32.727243  2269 net.cpp:150] Setting up conv9_2_mbox_priorbox
I0302 22:41:32.727253  2269 net.cpp:157] Top shape: 1 2 16 (32)
I0302 22:41:32.727260  2269 net.cpp:165] Memory required for data: 2681540640
I0302 22:41:32.727264  2269 layer_factory.hpp:77] Creating layer mbox_loc
I0302 22:41:32.727274  2269 net.cpp:100] Creating Layer mbox_loc
I0302 22:41:32.727280  2269 net.cpp:434] mbox_loc <- conv4_3_norm_mbox_loc_flat
I0302 22:41:32.727289  2269 net.cpp:434] mbox_loc <- fc7_mbox_loc_flat
I0302 22:41:32.727296  2269 net.cpp:434] mbox_loc <- conv6_2_mbox_loc_flat
I0302 22:41:32.727303  2269 net.cpp:434] mbox_loc <- conv7_2_mbox_loc_flat
I0302 22:41:32.727309  2269 net.cpp:434] mbox_loc <- conv8_2_mbox_loc_flat
I0302 22:41:32.727315  2269 net.cpp:434] mbox_loc <- conv9_2_mbox_loc_flat
I0302 22:41:32.727327  2269 net.cpp:408] mbox_loc -> mbox_loc
I0302 22:41:32.727363  2269 net.cpp:150] Setting up mbox_loc
I0302 22:41:32.727375  2269 net.cpp:157] Top shape: 8 34928 (279424)
I0302 22:41:32.727382  2269 net.cpp:165] Memory required for data: 2682658336
I0302 22:41:32.727386  2269 layer_factory.hpp:77] Creating layer mbox_conf
I0302 22:41:32.727394  2269 net.cpp:100] Creating Layer mbox_conf
I0302 22:41:32.727401  2269 net.cpp:434] mbox_conf <- conv4_3_norm_mbox_conf_flat
I0302 22:41:32.727409  2269 net.cpp:434] mbox_conf <- fc7_mbox_conf_flat
I0302 22:41:32.727417  2269 net.cpp:434] mbox_conf <- conv6_2_mbox_conf_flat
I0302 22:41:32.727423  2269 net.cpp:434] mbox_conf <- conv7_2_mbox_conf_flat
I0302 22:41:32.727432  2269 net.cpp:434] mbox_conf <- conv8_2_mbox_conf_flat
I0302 22:41:32.727452  2269 net.cpp:434] mbox_conf <- conv9_2_mbox_conf_flat
I0302 22:41:32.727461  2269 net.cpp:408] mbox_conf -> mbox_conf
I0302 22:41:32.727504  2269 net.cpp:150] Setting up mbox_conf
I0302 22:41:32.727517  2269 net.cpp:157] Top shape: 8 707292 (5658336)
I0302 22:41:32.727520  2269 net.cpp:165] Memory required for data: 2705291680
I0302 22:41:32.727530  2269 layer_factory.hpp:77] Creating layer mbox_priorbox
I0302 22:41:32.727547  2269 net.cpp:100] Creating Layer mbox_priorbox
I0302 22:41:32.727555  2269 net.cpp:434] mbox_priorbox <- conv4_3_norm_mbox_priorbox
I0302 22:41:32.727561  2269 net.cpp:434] mbox_priorbox <- fc7_mbox_priorbox
I0302 22:41:32.727571  2269 net.cpp:434] mbox_priorbox <- conv6_2_mbox_priorbox
I0302 22:41:32.727586  2269 net.cpp:434] mbox_priorbox <- conv7_2_mbox_priorbox
I0302 22:41:32.727592  2269 net.cpp:434] mbox_priorbox <- conv8_2_mbox_priorbox
I0302 22:41:32.727596  2269 net.cpp:434] mbox_priorbox <- conv9_2_mbox_priorbox
I0302 22:41:32.727610  2269 net.cpp:408] mbox_priorbox -> mbox_priorbox
I0302 22:41:32.727654  2269 net.cpp:150] Setting up mbox_priorbox
I0302 22:41:32.727661  2269 net.cpp:157] Top shape: 1 2 34928 (69856)
I0302 22:41:32.727665  2269 net.cpp:165] Memory required for data: 2705571104
I0302 22:41:32.727674  2269 layer_factory.hpp:77] Creating layer mbox_conf_reshape
I0302 22:41:32.727684  2269 net.cpp:100] Creating Layer mbox_conf_reshape
I0302 22:41:32.727691  2269 net.cpp:434] mbox_conf_reshape <- mbox_conf
I0302 22:41:32.727699  2269 net.cpp:408] mbox_conf_reshape -> mbox_conf_reshape
I0302 22:41:32.727744  2269 net.cpp:150] Setting up mbox_conf_reshape
I0302 22:41:32.727751  2269 net.cpp:157] Top shape: 8 8732 81 (5658336)
I0302 22:41:32.727754  2269 net.cpp:165] Memory required for data: 2728204448
I0302 22:41:32.727761  2269 layer_factory.hpp:77] Creating layer mbox_conf_softmax
I0302 22:41:32.727775  2269 net.cpp:100] Creating Layer mbox_conf_softmax
I0302 22:41:32.727782  2269 net.cpp:434] mbox_conf_softmax <- mbox_conf_reshape
I0302 22:41:32.727802  2269 net.cpp:408] mbox_conf_softmax -> mbox_conf_softmax
I0302 22:41:32.728086  2269 net.cpp:150] Setting up mbox_conf_softmax
I0302 22:41:32.728096  2269 net.cpp:157] Top shape: 8 8732 81 (5658336)
I0302 22:41:32.728101  2269 net.cpp:165] Memory required for data: 2750837792
I0302 22:41:32.728104  2269 layer_factory.hpp:77] Creating layer mbox_conf_flatten
I0302 22:41:32.728114  2269 net.cpp:100] Creating Layer mbox_conf_flatten
I0302 22:41:32.728127  2269 net.cpp:434] mbox_conf_flatten <- mbox_conf_softmax
I0302 22:41:32.728138  2269 net.cpp:408] mbox_conf_flatten -> mbox_conf_flatten
I0302 22:41:32.728183  2269 net.cpp:150] Setting up mbox_conf_flatten
I0302 22:41:32.728193  2269 net.cpp:157] Top shape: 8 707292 (5658336)
I0302 22:41:32.728199  2269 net.cpp:165] Memory required for data: 2773471136
I0302 22:41:32.728210  2269 layer_factory.hpp:77] Creating layer detection_out
I0302 22:41:32.728229  2269 net.cpp:100] Creating Layer detection_out
I0302 22:41:32.728236  2269 net.cpp:434] detection_out <- mbox_loc
I0302 22:41:32.728243  2269 net.cpp:434] detection_out <- mbox_conf_flatten
I0302 22:41:32.728260  2269 net.cpp:434] detection_out <- mbox_priorbox
I0302 22:41:32.728273  2269 net.cpp:408] detection_out -> detection_out
I0302 22:41:32.732339  2269 net.cpp:150] Setting up detection_out
I0302 22:41:32.732352  2269 net.cpp:157] Top shape: 1 1 1 7 (7)
I0302 22:41:32.732357  2269 net.cpp:165] Memory required for data: 2773471164
I0302 22:41:32.732362  2269 layer_factory.hpp:77] Creating layer detection_eval
I0302 22:41:32.732372  2269 net.cpp:100] Creating Layer detection_eval
I0302 22:41:32.732378  2269 net.cpp:434] detection_eval <- detection_out
I0302 22:41:32.732390  2269 net.cpp:434] detection_eval <- label
I0302 22:41:32.732398  2269 net.cpp:408] detection_eval -> detection_eval
I0302 22:41:32.735478  2269 net.cpp:150] Setting up detection_eval
I0302 22:41:32.735488  2269 net.cpp:157] Top shape: 1 1 81 5 (405)
I0302 22:41:32.735491  2269 net.cpp:165] Memory required for data: 2773472784
I0302 22:41:32.735510  2269 net.cpp:228] detection_eval does not need backward computation.
I0302 22:41:32.735518  2269 net.cpp:228] detection_out does not need backward computation.
I0302 22:41:32.735534  2269 net.cpp:228] mbox_conf_flatten does not need backward computation.
I0302 22:41:32.735545  2269 net.cpp:228] mbox_conf_softmax does not need backward computation.
…
