…
      sampler {
        min_scale: 0.3
        max_scale: 1
        min_aspect_ratio: 0.5
        max_aspect_ratio: 2
      }
      sample_constraint {
        min_jaccard_overlap: 0.9
      }
      max_sample: 1
      max_trials: 50
    }
    batch_sampler {
      sampler {
        min_scale: 0.3
        max_scale: 1
        min_aspect_ratio: 0.5
        max_aspect_ratio: 2
      }
      sample_constraint {
        max_jaccard_overlap: 1
      }
      max_sample: 1
      max_trials: 50
    }
    label_map_file: "data/VOC0712/labelmap_voc.prototxt"
  }
}
layer {
  name: "conv1_1"
  type: "Convolution"
  bottom: "data"
  top: "conv1_1"
  param {
    lr_mult: 1
    decay_mult: 1
  }
  param {
    lr_mult: 2
    decay_mult: 0
  }
  convolution_param {
    num_output: 64
    pad: 1
    kernel_size: 3
    weight_filler {
      type: "xavier"
    }
    bias_filler {
      type: "constant"
      value: 0
    }
  }
}
layer {
  name: "relu1_1"
  type: "ReLU"
  bottom: "conv1_1"
  top: "conv1_1"
}
layer {
  name: "conv1_2"
  type: "Convolution"
  bottom: "conv1_1"
  top: "conv1_2"
  param {
    lr_mult: 1
    decay_mult: 1
  }
  param {
    lr_mult: 2
    decay_mult: 0
  }
  convolution_param {
    num_output: 64
    pad: 1
    kernel_size: 3
    weight_filler {
      type: "xavier"
    }
    bias_filler {
      type: "constant"
      value: 0
    }
  }
}
layer {
  name: "relu1_2"
  type: "ReLU"
  bottom: "conv1_2"
  top: "conv1_2"
}
layer {
  name: "pool1"
  type: "Pooling"
  bottom: "conv1_2"
  top: "pool1"
  pooling_param {
    pool: MAX
    kernel_size: 2
    stride: 2
  }
}
layer {
  name: "conv2_1"
  type: "Convolution"
  bottom: "pool1"
  top: "conv2_1"
  param {
    lr_mult: 1
    decay_mult: 1
  }
  param {
    lr_mult: 2
    decay_mult: 0
  }
  convolution_param {
    num_output: 128
    pad: 1
    kernel_size: 3
    weight_filler {
      type: "xavier"
    }
    bias_filler {
      type: "constant"
      value: 0
    }
  }
}
layer {
  name: "relu2_1"
  type: "ReLU"
  bottom: "conv2_1"
  top: "conv2_1"
}
layer {
  name: "conv2_2"
  type: "Convolution"
  bottom: "conv2_1"
  top: "conv2_2"
  param {
    lr_mult: 1
    decay_mult: 1
  }
  param {
    lr_mult: 2
    decay_mult: 0
  }
  convolution_param {
    num_output: 128
    pad: 1
    kernel_size: 3
    weight_filler {
      type: "xavier"
    }
    bias_filler {
      type: "constant"
      value: 0
    }
  }
}
layer {
  name: "relu2_2"
  type: "ReLU"
  bottom: "conv2_2"
  top: "conv2_2"
}
layer {
  name: "pool2"
  type: "Pooling"
  bottom: "conv2_2"
  top: "pool2"
  pooling_param {
    pool: MAX
    kernel_size: 2
    stride: 2
  }
}
layer {
  name: "conv3_1"
  type: "Convolution"
  bottom: "pool2"
  top: "conv3_1"
  param {
    lr_mult: 1
    decay_mult: 1
  }
  param {
    lr_mult: 2
    decay_mult: 0
  }
  convolution_param {
    num_output: 256
    pad: 1
    kernel_size: 3
    weight_filler {
      type: "xavier"
    }
    bias_filler {
      type: "constant"
      value: 0
    }
  }
}
layer {
  name: "relu3_1"
  type: "ReLU"
  bottom: "conv3_1"
  top: "conv3_1"
}
layer {
  name: "conv3_2"
  type: "Convolution"
  bottom: "conv3_1"
  top: "conv3_2"
  param {
    lr_mult: 1
    decay_mult: 1
  }
  param {
    lr_mult: 2
    decay_mult: 0
  }
  convolution_param {
    num_output: 256
    pad: 1
    kernel_size: 3
    weight_filler {
      type: "xavier"
    }
    bias_filler {
      type: "constant"
      value: 0
    }
  }
}
layer {
  name: "relu3_2"
  type: "ReLU"
  bottom: "conv3_2"
  top: "conv3_2"
}
layer {
  name: "conv3_3"
  type: "Convolution"
  bottom: "conv3_2"
  top: "conv3_3"
  param {
    lr_mult: 1
    decay_mult: 1
  }
  param {
    lr_mult: 2
    decay_mult: 0
  }
  convolution_param {
    num_output: 256
    pad: 1
    kernel_size: 3
    weight_filler {
      type: "xavier"
    }
    bias_filler {
      type: "constant"
      value: 0
    }
  }
}
layer {
  name: "relu3_3"
  type: "ReLU"
  bottom: "conv3_3"
  top: "conv3_3"
}
layer {
  name: "pool3"
  type: "Pooling"
  bottom: "conv3_3"
  top: "pool3"
  pooling_param {
    pool: MAX
    kernel_size: 2
    stride: 2
  }
}
layer {
  name: "conv4_1"
  type: "Convolution"
  bottom: "pool3"
  top: "conv4_1"
  param {
    lr_mult: 1
    decay_mult: 1
  }
  param {
    lr_mult: 2
    decay_mult: 0
  }
  convolution_param {
    num_output: 512
    pad: 1
    kernel_size: 3
    weight_filler {
      type: "xavier"
    }
    bias_filler {
      type: "constant"
      value: 0
    }
  }
}
layer {
  name: "relu4_1"
  type: "ReLU"
  bottom: "conv4_1"
  top: "conv4_1"
}
layer {
  name: "conv4_2"
  type: "Convolution"
  bottom: "conv4_1"
  top: "conv4_2"
  param {
    lr_mult: 1
    decay_mult: 1
  }
  param {
    lr_mult: 2
    decay_mult: 0
  }
  convolution_param {
    num_output: 512
    pad: 1
    kernel_size: 3
    weight_filler {
      type: "xavier"
    }
    bias_filler {
      type: "constant"
      value: 0
    }
  }
}
layer {
  name: "relu4_2"
  type: "ReLU"
  bottom: "conv4_2"
  top: "conv4_2"
}
layer {
  name: "conv4_3"
  type: "Convolution"
  bottom: "conv4_2"
  top: "conv4_3_ori"
  param {
    lr_mult: 1
    decay_mult: 1
  }
  param {
    lr_mult: 2
    decay_mult: 0
  }
  convolution_param {
    num_output: 512
    pad: 1
    kernel_size: 3
    weight_filler {
      type: "xavier"
    }
    bias_filler {
      type: "constant"
      value: 0
    }
  }
}
layer {
  name: "relu4_3"
  type: "ReLU"
  bottom: "conv4_3_ori"
  top: "conv4_3_ori"
}
layer {
  name: "seg_pool4"
  type: "Pooling"
  bottom: "conv4_3_ori"
  top: "seg_pool4"
  pooling_param {
    pool: MAX
    kernel_size: 3
    stride: 1
    pad: 1
  }
}
layer {
  name: "seg5_1"
  type: "Convolution"
  bottom: "seg_pool4"
  top: "seg5_1"
  param {
    lr_mult: 1
    decay_mult: 1
  }
  param {
    lr_mult: 2
    decay_mult: 0
  }
  convolution_param {
    num_output: 512
    pad: 2
    kernel_size: 3
    weight_filler {
      type: "xavier"
    }
    bias_filler {
      type: "constant"
      value: 0
    }
    dilation: 2
  }
}
layer {
  name: "seg_relu5_1"
  type: "ReLU"
  bottom: "seg5_1"
  top: "seg5_1"
}
layer {
  name: "seg5_2"
  type: "Convolution"
  bottom: "seg5_1"
  top: "seg5_2"
  param {
    lr_mult: 1
    decay_mult: 1
  }
  param {
    lr_mult: 2
    decay_mult: 0
  }
  convolution_param {
    num_output: 512
    pad: 2
    kernel_size: 3
    weight_filler {
      type: "xavier"
    }
    bias_filler {
      type: "constant"
      value: 0
    }
    dilation: 2
  }
}
layer {
  name: "seg_relu5_2"
  type: "ReLU"
  bottom: "seg5_2"
  top: "seg5_2"
}
layer {
  name: "seg5_3"
  type: "Convolution"
  bottom: "seg5_2"
  top: "seg5_3"
  param {
    lr_mult: 1
    decay_mult: 1
  }
  param {
    lr_mult: 2
    decay_mult: 0
  }
  convolution_param {
    num_output: 512
    pad: 2
    kernel_size: 3
    weight_filler {
      type: "xavier"
    }
    bias_filler {
      type: "constant"
      value: 0
    }
    dilation: 2
  }
}
layer {
  name: "seg_relu5_3"
  type: "ReLU"
  bottom: "seg5_3"
  top: "seg5_3"
}
layer {
  name: "seg_pool5"
  type: "Pooling"
  bottom: "seg5_3"
  top: "seg_pool5"
  pooling_param {
    pool: MAX
    kernel_size: 3
    stride: 1
    pad: 1
  }
}
layer {
  name: "seg6"
  type: "Convolution"
  bottom: "seg_pool5"
  top: "seg6"
  param {
    lr_mult: 1
    decay_mult: 1
  }
  param {
    lr_mult: 2
    decay_mult: 0
  }
  convolution_param {
    num_output: 1024
    pad: 4
    kernel_size: 3
    weight_filler {
      type: "xavier"
    }
    bias_filler {
      type: "constant"
      value: 0
    }
    dilation: 4
  }
}
layer {
  name: "seg_relu6"
  type: "ReLU"
  bottom: "seg6"
  top: "seg6"
}
layer {
  name: "seg_drop6"
  type: "Dropout"
  bottom: "seg6"
  top: "seg6"
  dropout_param {
    dropout_ratio: 0.5
  }
}
layer {
  name: "seg7"
  type: "Convolution"
  bottom: "seg6"
  top: "seg7"
  param {
    lr_mult: 1
    decay_mult: 1
  }
  param {
    lr_mult: 2
    decay_mult: 0
  }
  convolution_param {
    num_output: 1024
    kernel_size: 1
    weight_filler {
      type: "xavier"
    }
    bias_filler {
      type: "constant"
      value: 0
    }
  }
}
layer {
  name: "seg_relu7"
  type: "ReLU"
  bottom: "seg7"
  top: "seg7"
}
layer {
  name: "seg_drop7"
  type: "Dropout"
  bottom: "seg7"
  top: "seg7d"
  dropout_param {
    dropout_ratio: 0.5
  }
}
layer {
  name: "seg_new"
  type: "Convolution"
  bottom: "seg7d"
  top: "seg"
  param {
    lr_mult: 10
    decay_mult: 1
  }
  param {
    lr_mult: 20
    decay_mult: 0
  }
  convolution_param {
    num_output: 21
    kernel_size: 1
    weight_filler {
      type: "gaussian"
      std: 0.01
    }
    bias_filler {
      type: "constant"
      value: 0
    }
  }
}
layer {
  name: "seg_gt"
  type: "SegGt"
  bottom: "label"
  bottom: "seg"
  top: "seg_gt"
  seggt_param {
    background_label_id: 0
    use_difficult_gt: true
  }
}
layer {
  name: "seg_loss"
  type: "SoftmaxWithLoss"
  bottom: "seg"
  bottom: "seg_gt"
  top: "seg_loss"
  loss_weight: 0.1
  propagate_down: true
  propagate_down: false
  softmax_param {
    axis: 1
  }
}
layer {
  name: "seg_to_det_conv"
  type: "Convolution"
  bottom: "seg7"
  top: "seg_to_det_conv"
  param {
    lr_mult: 1
    decay_mult: 1
  }
  param {
    lr_mult: 2
    decay_mult: 0
  }
  convolution_param {
    num_output: 512
    pad: 0
    kernel_size: 1
    stride: 1
    weight_filler {
      type: "xavier"
    }
    bias_filler {
      type: "constant"
      value: 0
    }
  }
}
layer {
  name: "mult_conv4_3"
  type: "Eltwise"
  bottom: "conv4_3_ori"
  bottom: "seg_to_det_conv"
  top: "conv4_3_t"
  eltwise_param {
    operation: PROD
  }
}
layer {
  name: "conv4_3_s"
  type: "Pooling"
  bottom: "conv4_3_t"
  top: "conv4_3_s"
  pooling_param {
    pool: AVE
    global_pooling: true
  }
}
layer {
  name: "conv4_3_fc1"
  type: "Convolution"
  bottom: "conv4_3_s"
  top: "conv4_3_fc1"
  param {
    lr_mult: 1
    decay_mult: 1
  }
  param {
    lr_mult: 2
    decay_mult: 0
  }
  convolution_param {
    num_output: 128
    kernel_size: 1
    stride: 1
    weight_filler {
      type: "xavier"
    }
    bias_filler {
      type: "constant"
      value: 0
    }
  }
}
layer {
  name: "conv4_3_relu"
  type: "ReLU"
  bottom: "conv4_3_fc1"
  top: "conv4_3_fc1"
}
layer {
  name: "conv4_3_fc2"
  type: "Convolution"
  bottom: "conv4_3_fc1"
  top: "conv4_3_fc2"
  param {
    lr_mult: 1
    decay_mult: 1
  }
  param {
    lr_mult: 2
    decay_mult: 0
  }
  convolution_param {
    num_output: 512
    kernel_size: 1
    stride: 1
    weight_filler {
      type: "xavier"
    }
    bias_filler {
      type: "constant"
      value: 0
    }
  }
}
layer {
  name: "conv4_3_sig"
  type: "Sigmoid"
  bottom: "conv4_3_fc2"
  top: "conv4_3_fc2"
}
layer {
  name: "conv4_3_reshape"
  type: "Reshape"
  bottom: "conv4_3_fc2"
  top: "conv4_3_reshape"
  reshape_param {
    shape {
      dim: 0
      dim: 0
    }
  }
}
layer {
  name: "conv4_3_scale"
  type: "Scale"
  bottom: "conv4_3_t"
  bottom: "conv4_3_reshape"
  top: "conv4_3"
  scale_param {
    axis: 0
    bias_term: false
  }
}
layer {
  name: "pool4"
  type: "Pooling"
  bottom: "conv4_3"
  top: "pool4"
  pooling_param {
    pool: MAX
    kernel_size: 2
    stride: 2
  }
}
layer {
  name: "conv5_1"
  type: "Convolution"
  bottom: "pool4"
  top: "conv5_1"
  param {
    lr_mult: 1
    decay_mult: 1
  }
  param {
    lr_mult: 2
    decay_mult: 0
  }
  convolution_param {
    num_output: 512
    pad: 1
    kernel_size: 3
    weight_filler {
      type: "xavier"
    }
    bias_filler {
      type: "constant"
      value: 0
    }
    dilation: 1
  }
}
layer {
  name: "relu5_1"
  type: "ReLU"
  bottom: "conv5_1"
  top: "conv5_1"
}
layer {
  name: "conv5_2"
  type: "Convolution"
  bottom: "conv5_1"
  top: "conv5_2"
  param {
    lr_mult: 1
    decay_mult: 1
  }
  param {
    lr_mult: 2
    decay_mult: 0
  }
  convolution_param {
    num_output: 512
    pad: 1
    kernel_size: 3
    weight_filler {
      type: "xavier"
    }
    bias_filler {
      type: "constant"
      value: 0
    }
    dilation: 1
  }
}
layer {
  name: "relu5_2"
  type: "ReLU"
  bottom: "conv5_2"
  top: "conv5_2"
}
layer {
  name: "conv5_3"
  type: "Convolution"
  bottom: "conv5_2"
  top: "conv5_3"
  param {
    lr_mult: 1
    decay_mult: 1
  }
  param {
    lr_mult: 2
    decay_mult: 0
  }
  convolution_param {
    num_output: 512
    pad: 1
    kernel_size: 3
    weight_filler {
      type: "xavier"
    }
    bias_filler {
      type: "constant"
      value: 0
    }
    dilation: 1
  }
}
layer {
  name: "relu5_3"
  type: "ReLU"
  bottom: "conv5_3"
  top: "conv5_3"
}
layer {
  name: "pool5"
  type: "Pooling"
  bottom: "conv5_3"
  top: "pool5"
  pooling_param {
    pool: MAX
    kernel_size: 3
    stride: 1
    pad: 1
  }
}
layer {
  name: "fc6"
  type: "Convolution"
  bottom: "pool5"
  top: "fc6"
  param {
    lr_mult: 1
    decay_mult: 1
  }
  param {
    lr_mult: 2
    decay_mult: 0
  }
  convolution_param {
    num_output: 1024
    pad: 6
    kernel_size: 3
    weight_filler {
      type: "xavier"
    }
    bias_filler {
      type: "constant"
      value: 0
    }
    dilation: 6
  }
}
layer {
  name: "relu6"
  type: "ReLU"
  bottom: "fc6"
  top: "fc6"
}
layer {
  name: "fc7"
  type: "Convolution"
  bottom: "fc6"
  top: "fc7_t"
  param {
    lr_mult: 1
    decay_mult: 1
  }
  param {
    lr_mult: 2
    decay_mult: 0
  }
  convolution_param {
    num_output: 1024
    kernel_size: 1
    weight_filler {
      type: "xavier"
    }
    bias_filler {
      type: "constant"
      value: 0
    }
  }
}
layer {
  name: "relu7"
  type: "ReLU"
  bottom: "fc7_t"
  top: "fc7_t"
}
layer {
  name: "fc7_s"
  type: "Pooling"
  bottom: "fc7_t"
  top: "fc7_s"
  pooling_param {
    pool: AVE
    global_pooling: true
  }
}
layer {
  name: "fc7_fc1"
  type: "Convolution"
  bottom: "fc7_s"
  top: "fc7_fc1"
  param {
    lr_mult: 1
    decay_mult: 1
  }
  param {
    lr_mult: 2
    decay_mult: 0
  }
  convolution_param {
    num_output: 256
    kernel_size: 1
    stride: 1
    weight_filler {
      type: "xavier"
    }
    bias_filler {
      type: "constant"
      value: 0
    }
  }
}
layer {
  name: "fc7_relu"
  type: "ReLU"
  bottom: "fc7_fc1"
  top: "fc7_fc1"
}
layer {
  name: "fc7_fc2"
  type: "Convolution"
  bottom: "fc7_fc1"
  top: "fc7_fc2"
  param {
    lr_mult: 1
    decay_mult: 1
  }
  param {
    lr_mult: 2
    decay_mult: 0
  }
  convolution_param {
    num_output: 1024
    kernel_size: 1
    stride: 1
    weight_filler {
      type: "xavier"
    }
    bias_filler {
      type: "constant"
      value: 0
    }
  }
}
layer {
  name: "fc7_sig"
  type: "Sigmoid"
  bottom: "fc7_fc2"
  top: "fc7_fc2"
}
layer {
  name: "fc7_reshape"
  type: "Reshape"
  bottom: "fc7_fc2"
  top: "fc7_reshape"
  reshape_param {
    shape {
      dim: 0
      dim: 0
    }
  }
}
layer {
  name: "fc7_scale"
  type: "Scale"
  bottom: "fc7_t"
  bottom: "fc7_reshape"
  top: "fc7"
  scale_param {
    axis: 0
    bias_term: false
  }
}
layer {
  name: "conv6_1"
  type: "Convolution"
  bottom: "fc7"
  top: "conv6_1"
  param {
    lr_mult: 1
    decay_mult: 1
  }
  param {
    lr_mult: 2
    decay_mult: 0
  }
  convolution_param {
    num_output: 256
    pad: 0
    kernel_size: 1
    stride: 1
    weight_filler {
      type: "xavier"
    }
    bias_filler {
      type: "constant"
      value: 0
    }
  }
}
layer {
  name: "conv6_1_relu"
  type: "ReLU"
  bottom: "conv6_1"
  top: "conv6_1"
}
layer {
  name: "conv6_2"
  type: "Convolution"
  bottom: "conv6_1"
  top: "conv6_2_t"
  param {
    lr_mult: 1
    decay_mult: 1
  }
  param {
    lr_mult: 2
    decay_mult: 0
  }
  convolution_param {
    num_output: 512
    pad: 1
    kernel_size: 3
    stride: 2
    weight_filler {
      type: "xavier"
    }
    bias_filler {
      type: "constant"
      value: 0
    }
  }
}
layer {
  name: "conv6_2_relu"
  type: "ReLU"
  bottom: "conv6_2_t"
  top: "conv6_2_t"
}
layer {
  name: "conv6_2_s"
  type: "Pooling"
  bottom: "conv6_2_t"
  top: "conv6_2_s"
  pooling_param {
    pool: AVE
    global_pooling: true
  }
}
layer {
  name: "conv6_2_fc1"
  type: "Convolution"
  bottom: "conv6_2_s"
  top: "conv6_2_fc1"
  param {
    lr_mult: 1
    decay_mult: 1
  }
  param {
    lr_mult: 2
    decay_mult: 0
  }
  convolution_param {
    num_output: 128
    kernel_size: 1
    stride: 1
    weight_filler {
      type: "xavier"
    }
    bias_filler {
      type: "constant"
      value: 0
    }
  }
}
layer {
  name: "conv6_2_relu"
  type: "ReLU"
  bottom: "conv6_2_fc1"
  top: "conv6_2_fc1"
}
layer {
  name: "conv6_2_fc2"
  type: "Convolution"
  bottom: "conv6_2_fc1"
  top: "conv6_2_fc2"
  param {
    lr_mult: 1
    decay_mult: 1
  }
  param {
    lr_mult: 2
    decay_mult: 0
  }
  convolution_param {
    num_output: 512
    kernel_size: 1
    stride: 1
    weight_filler {
      type: "xavier"
    }
    bias_filler {
      type: "constant"
      value: 0
    }
  }
}
layer {
  name: "conv6_2_sig"
  type: "Sigmoid"
  bottom: "conv6_2_fc2"
  top: "conv6_2_fc2"
}
layer {
  name: "conv6_2_reshape"
  type: "Reshape"
  bottom: "conv6_2_fc2"
  top: "conv6_2_reshape"
  reshape_param {
    shape {
      dim: 0
      dim: 0
    }
  }
}
layer {
  name: "conv6_2_scale"
  type: "Scale"
  bottom: "conv6_2_t"
  bottom: "conv6_2_reshape"
  top: "conv6_2"
  scale_param {
    axis: 0
    bias_term: false
  }
}
layer {
  name: "conv7_1"
  type: "Convolution"
  bottom: "conv6_2"
  top: "conv7_1"
  param {
    lr_mult: 1
    decay_mult: 1
  }
  param {
    lr_mult: 2
    decay_mult: 0
  }
  convolution_param {
    num_output: 128
    pad: 0
    kernel_size: 1
    stride: 1
    weight_filler {
      type: "xavier"
    }
    bias_filler {
      type: "constant"
      value: 0
    }
  }
}
layer {
  name: "conv7_1_relu"
  type: "ReLU"
  bottom: "conv7_1"
  top: "conv7_1"
}
layer {
  name: "conv7_2"
  type: "Convolution"
  bottom: "conv7_1"
  top: "conv7_2_t"
  param {
    lr_mult: 1
    decay_mult: 1
  }
  param {
    lr_mult: 2
    decay_mult: 0
  }
  convolution_param {
    num_output: 256
    pad: 1
    kernel_size: 3
    stride: 2
    weight_filler {
      type: "xavier"
    }
    bias_filler {
      type: "constant"
      value: 0
    }
  }
}
layer {
  name: "conv7_2_relu"
  type: "ReLU"
  bottom: "conv7_2_t"
  top: "conv7_2_t"
}
layer {
  name: "conv7_2_s"
  type: "Pooling"
  bottom: "conv7_2_t"
  top: "conv7_2_s"
  pooling_param {
    pool: AVE
    global_pooling: true
  }
}
layer {
  name: "conv7_2_fc1"
  type: "Convolution"
  bottom: "conv7_2_s"
  top: "conv7_2_fc1"
  param {
    lr_mult: 1
    decay_mult: 1
  }
  param {
    lr_mult: 2
    decay_mult: 0
  }
  convolution_param {
    num_output: 64
    kernel_size: 1
    stride: 1
    weight_filler {
      type: "xavier"
    }
    bias_filler {
      type: "constant"
      value: 0
    }
  }
}
layer {
  name: "conv7_2_relu"
  type: "ReLU"
  bottom: "conv7_2_fc1"
  top: "conv7_2_fc1"
}
layer {
  name: "conv7_2_fc2"
  type: "Convolution"
  bottom: "conv7_2_fc1"
  top: "conv7_2_fc2"
  param {
    lr_mult: 1
    decay_mult: 1
  }
  param {
    lr_mult: 2
    decay_mult: 0
  }
  convolution_param {
    num_output: 256
    kernel_size: 1
    stride: 1
    weight_filler {
      type: "xavier"
    }
    bias_filler {
      type: "constant"
      value: 0
    }
  }
}
layer {
  name: "conv7_2_sig"
  type: "Sigmoid"
  bottom: "conv7_2_fc2"
  top: "conv7_2_fc2"
}
layer {
  name: "conv7_2_reshape"
  type: "Reshape"
  bottom: "conv7_2_fc2"
  top: "conv7_2_reshape"
  reshape_param {
    shape {
      dim: 0
      dim: 0
    }
  }
}
layer {
  name: "conv7_2_scale"
  type: "Scale"
  bottom: "conv7_2_t"
  bottom: "conv7_2_reshape"
  top: "conv7_2"
  scale_param {
    axis: 0
    bias_term: false
  }
}
layer {
  name: "conv8_1"
  type: "Convolution"
  bottom: "conv7_2"
  top: "conv8_1"
  param {
    lr_mult: 1
    decay_mult: 1
  }
  param {
    lr_mult: 2
    decay_mult: 0
  }
  convolution_param {
    num_output: 128
    pad: 0
    kernel_size: 1
    stride: 1
    weight_filler {
      type: "xavier"
    }
    bias_filler {
      type: "constant"
      value: 0
    }
  }
}
layer {
  name: "conv8_1_relu"
  type: "ReLU"
  bottom: "conv8_1"
  top: "conv8_1"
}
layer {
  name: "conv8_2"
  type: "Convolution"
  bottom: "conv8_1"
  top: "conv8_2_t"
  param {
    lr_mult: 1
    decay_mult: 1
  }
  param {
    lr_mult: 2
    decay_mult: 0
  }
  convolution_param {
    num_output: 256
    pad: 1
    kernel_size: 3
    stride: 2
    weight_filler {
      type: "xavier"
    }
    bias_filler {
      type: "constant"
      value: 0
    }
  }
}
layer {
  name: "conv8_2_relu"
  type: "ReLU"
  bottom: "conv8_2_t"
  top: "conv8_2_t"
}
layer {
  name: "conv8_2_s"
  type: "Pooling"
  bottom: "conv8_2_t"
  top: "conv8_2_s"
  pooling_param {
    pool: AVE
    global_pooling: true
  }
}
layer {
  name: "conv8_2_fc1"
  type: "Convolution"
  bottom: "conv8_2_s"
  top: "conv8_2_fc1"
  param {
    lr_mult: 1
    decay_mult: 1
  }
  param {
    lr_mult: 2
    decay_mult: 0
  }
  convolution_param {
    num_output: 64
    kernel_size: 1
    stride: 1
    weight_filler {
      type: "xavier"
    }
    bias_filler {
      type: "constant"
      value: 0
    }
  }
}
layer {
  name: "conv8_2_relu"
  type: "ReLU"
  bottom: "conv8_2_fc1"
  top: "conv8_2_fc1"
}
layer {
  name: "conv8_2_fc2"
  type: "Convolution"
  bottom: "conv8_2_fc1"
  top: "conv8_2_fc2"
  param {
    lr_mult: 1
    decay_mult: 1
  }
  param {
    lr_mult: 2
    decay_mult: 0
  }
  convolution_param {
    num_output: 256
    kernel_size: 1
    stride: 1
    weight_filler {
      type: "xavier"
    }
    bias_filler {
      type: "constant"
      value: 0
    }
  }
}
layer {
  name: "conv8_2_sig"
  type: "Sigmoid"
  bottom: "conv8_2_fc2"
  top: "conv8_2_fc2"
}
layer {
  name: "conv8_2_reshape"
  type: "Reshape"
  bottom: "conv8_2_fc2"
  top: "conv8_2_reshape"
  reshape_param {
    shape {
      dim: 0
      dim: 0
    }
  }
}
layer {
  name: "conv8_2_scale"
  type: "Scale"
  bottom: "conv8_2_t"
  bottom: "conv8_2_reshape"
  top: "conv8_2"
  scale_param {
    axis: 0
    bias_term: false
  }
}
layer {
  name: "conv9_1"
  type: "Convolution"
  bottom: "conv8_2"
  top: "conv9_1"
  param {
    lr_mult: 1
    decay_mult: 1
  }
  param {
    lr_mult: 2
    decay_mult: 0
  }
  convolution_param {
    num_output: 128
    pad: 0
    kernel_size: 1
    stride: 1
    weight_filler {
      type: "xavier"
    }
    bias_filler {
      type: "constant"
      value: 0
    }
  }
}
layer {
  name: "conv9_1_relu"
  type: "ReLU"
  bottom: "conv9_1"
  top: "conv9_1"
}
layer {
  name: "conv9_2"
  type: "Convolution"
  bottom: "conv9_1"
  top: "conv9_2_t"
  param {
    lr_mult: 1
    decay_mult: 1
  }
  param {
    lr_mult: 2
    decay_mult: 0
  }
  convolution_param {
    num_output: 256
    pad: 1
    kernel_size: 3
    stride: 2
    weight_filler {
      type: "xavier"
    }
    bias_filler {
      type: "constant"
      value: 0
    }
  }
}
layer {
  name: "conv9_2_relu"
  type: "ReLU"
  bottom: "conv9_2_t"
  top: "conv9_2_t"
}
layer {
  name: "conv9_2_s"
  type: "Pooling"
  bottom: "conv9_2_t"
  top: "conv9_2_s"
  pooling_param {
    pool: AVE
    global_pooling: true
  }
}
layer {
  name: "conv9_2_fc1"
  type: "Convolution"
  bottom: "conv9_2_s"
  top: "conv9_2_fc1"
  param {
    lr_mult: 1
    decay_mult: 1
  }
  param {
    lr_mult: 2
    decay_mult: 0
  }
  convolution_param {
    num_output: 64
    kernel_size: 1
    stride: 1
    weight_filler {
      type: "xavier"
    }
    bias_filler {
      type: "constant"
      value: 0
    }
  }
}
layer {
  name: "conv9_2_relu"
  type: "ReLU"
  bottom: "conv9_2_fc1"
  top: "conv9_2_fc1"
}
layer {
  name: "conv9_2_fc2"
  type: "Convolution"
  bottom: "conv9_2_fc1"
  top: "conv9_2_fc2"
  param {
    lr_mult: 1
    decay_mult: 1
  }
  param {
    lr_mult: 2
    decay_mult: 0
  }
  convolution_param {
    num_output: 256
    kernel_size: 1
    stride: 1
    weight_filler {
      type: "xavier"
    }
    bias_filler {
      type: "constant"
      value: 0
    }
  }
}
layer {
  name: "conv9_2_sig"
  type: "Sigmoid"
  bottom: "conv9_2_fc2"
  top: "conv9_2_fc2"
}
layer {
  name: "conv9_2_reshape"
  type: "Reshape"
  bottom: "conv9_2_fc2"
  top: "conv9_2_reshape"
  reshape_param {
    shape {
      dim: 0
      dim: 0
    }
  }
}
layer {
  name: "conv9_2_scale"
  type: "Scale"
  bottom: "conv9_2_t"
  bottom: "conv9_2_reshape"
  top: "conv9_2"
  scale_param {
    axis: 0
    bias_term: false
  }
}
layer {
  name: "conv10_1"
  type: "Convolution"
  bottom: "conv9_2"
  top: "conv10_1"
  param {
    lr_mult: 1
    decay_mult: 1
  }
  param {
    lr_mult: 2
    decay_mult: 0
  }
  convolution_param {
    num_output: 128
    pad: 0
    kernel_size: 1
    stride: 1
    weight_filler {
      type: "xavier"
    }
    bias_filler {
      type: "constant"
      value: 0
    }
  }
}
layer {
  name: "conv10_1_relu"
  type: "ReLU"
  bottom: "conv10_1"
  top: "conv10_1"
}
layer {
  name: "conv10_2"
  type: "Convolution"
  bottom: "conv10_1"
  top: "conv10_2_t"
  param {
    lr_mult: 1
    decay_mult: 1
  }
  param {
    lr_mult: 2
    decay_mult: 0
  }
  convolution_param {
    num_output: 256
    pad: 1
    kernel_size: 4
    stride: 1
    weight_filler {
      type: "xavier"
    }
    bias_filler {
      type: "constant"
      value: 0
    }
  }
}
layer {
  name: "conv10_2_relu"
  type: "ReLU"
  bottom: "conv10_2_t"
  top: "conv10_2_t"
}
layer {
  name: "conv10_2_s"
  type: "Pooling"
  bottom: "conv10_2_t"
  top: "conv10_2_s"
  pooling_param {
    pool: AVE
    global_pooling: true
  }
}
layer {
  name: "conv10_2_fc1"
  type: "Convolution"
  bottom: "conv10_2_s"
  top: "conv10_2_fc1"
  param {
    lr_mult: 1
    decay_mult: 1
  }
  param {
    lr_mult: 2
    decay_mult: 0
  }
  convolution_param {
    num_output: 64
    kernel_size: 1
    stride: 1
    weight_filler {
      type: "xavier"
    }
    bias_filler {
      type: "constant"
      value: 0
    }
  }
}
layer {
  name: "conv10_2_relu"
  type: "ReLU"
  bottom: "conv10_2_fc1"
  top: "conv10_2_fc1"
}
layer {
  name: "conv10_2_fc2"
  type: "Convolution"
  bottom: "conv10_2_fc1"
  top: "conv10_2_fc2"
  param {
    lr_mult: 1
    decay_mult: 1
  }
  param {
    lr_mult: 2
    decay_mult: 0
  }
  convolution_param {
    num_output: 256
    kernel_size: 1
    stride: 1
    weight_filler {
      type: "xavier"
    }
    bias_filler {
      type: "constant"
      value: 0
    }
  }
}
layer {
  name: "conv10_2_sig"
  type: "Sigmoid"
  bottom: "conv10_2_fc2"
  top: "conv10_2_fc2"
}
layer {
  name: "conv10_2_reshape"
  type: "Reshape"
  bottom: "conv10_2_fc2"
  top: "conv10_2_reshape"
  reshape_param {
    shape {
      dim: 0
      dim: 0
    }
  }
}
layer {
  name: "conv10_2_scale"
  type: "Scale"
  bottom: "conv10_2_t"
  bottom: "conv10_2_reshape"
  top: "conv10_2"
  scale_param {
    axis: 0
    bias_term: false
  }
}
layer {
  name: "conv4_3_norm"
  type: "Normalize"
  bottom: "conv4_3"
  top: "conv4_3_norm"
  norm_param {
    across_spatial: false
    scale_filler {
      type: "constant"
      value: 20
    }
    channel_shared: false
  }
}
layer {
  name: "conv4_3_norm_mbox_loc"
  type: "Convolution"
  bottom: "conv4_3_norm"
  top: "conv4_3_norm_mbox_loc"
  param {
    lr_mult: 1
    decay_mult: 1
  }
  param {
    lr_mult: 2
    decay_mult: 0
  }
  convolution_param {
    num_output: 16
    pad: 1
    kernel_size: 3
    stride: 1
    weight_filler {
      type: "xavier"
    }
    bias_filler {
      type: "constant"
      value: 0
    }
  }
}
layer {
  name: "conv4_3_norm_mbox_loc_perm"
  type: "Permute"
  bottom: "conv4_3_norm_mbox_loc"
  top: "conv4_3_norm_mbox_loc_perm"
  permute_param {
    order: 0
    order: 2
    order: 3
    order: 1
  }
}
layer {
 
I0309 23:11:38.246570 12883 layer_factory.hpp:77] Creating layer data
I0309 23:11:38.246940 12883 net.cpp:100] Creating Layer data
I0309 23:11:38.246956 12883 net.cpp:408] data -> data
I0309 23:11:38.246986 12883 net.cpp:408] data -> label
I0309 23:11:38.249241 12889 db_lmdb.cpp:35] Opened lmdb examples/VOC0712/VOC0712_trainvaltest_lmdb
I0309 23:11:38.259498 12883 annotated_data_layer.cpp:62] output data size: 8,3,512,512
I0309 23:11:38.290210 12883 net.cpp:150] Setting up data
I0309 23:11:38.290233 12883 net.cpp:157] Top shape: 8 3 512 512 (6291456)
I0309 23:11:38.290238 12883 net.cpp:157] Top shape: 1 1 2 8 (16)
I0309 23:11:38.290241 12883 net.cpp:165] Memory required for data: 25165888
I0309 23:11:38.290252 12883 layer_factory.hpp:77] Creating layer data_data_0_split
I0309 23:11:38.290266 12883 net.cpp:100] Creating Layer data_data_0_split
I0309 23:11:38.290277 12883 net.cpp:434] data_data_0_split <- data
I0309 23:11:38.290295 12883 net.cpp:408] data_data_0_split -> data_data_0_split_0
I0309 23:11:38.290311 12883 net.cpp:408] data_data_0_split -> data_data_0_split_1
I0309 23:11:38.290354 12883 net.cpp:408] data_data_0_split -> data_data_0_split_2
I0309 23:11:38.290364 12883 net.cpp:408] data_data_0_split -> data_data_0_split_3
I0309 23:11:38.290372 12883 net.cpp:408] data_data_0_split -> data_data_0_split_4
I0309 23:11:38.290381 12883 net.cpp:408] data_data_0_split -> data_data_0_split_5
I0309 23:11:38.290390 12883 net.cpp:408] data_data_0_split -> data_data_0_split_6
I0309 23:11:38.290397 12883 net.cpp:408] data_data_0_split -> data_data_0_split_7
I0309 23:11:38.290500 12883 net.cpp:150] Setting up data_data_0_split
I0309 23:11:38.290509 12883 net.cpp:157] Top shape: 8 3 512 512 (6291456)
I0309 23:11:38.290514 12883 net.cpp:157] Top shape: 8 3 512 512 (6291456)
I0309 23:11:38.290541 12883 net.cpp:157] Top shape: 8 3 512 512 (6291456)
I0309 23:11:38.290552 12883 net.cpp:157] Top shape: 8 3 512 512 (6291456)
I0309 23:11:38.290560 12883 net.cpp:157] Top shape: 8 3 512 512 (6291456)
I0309 23:11:38.290567 12883 net.cpp:157] Top shape: 8 3 512 512 (6291456)
I0309 23:11:38.290571 12883 net.cpp:157] Top shape: 8 3 512 512 (6291456)
I0309 23:11:38.290575 12883 net.cpp:157] Top shape: 8 3 512 512 (6291456)
I0309 23:11:38.290580 12883 net.cpp:165] Memory required for data: 226492480
I0309 23:11:38.290583 12883 layer_factory.hpp:77] Creating layer label_data_1_split
I0309 23:11:38.290590 12883 net.cpp:100] Creating Layer label_data_1_split
I0309 23:11:38.290593 12883 net.cpp:434] label_data_1_split <- label
I0309 23:11:38.290601 12883 net.cpp:408] label_data_1_split -> label_data_1_split_0
I0309 23:11:38.290609 12883 net.cpp:408] label_data_1_split -> label_data_1_split_1
I0309 23:11:38.290644 12883 net.cpp:150] Setting up label_data_1_split
I0309 23:11:38.290652 12883 net.cpp:157] Top shape: 1 1 2 8 (16)
I0309 23:11:38.290657 12883 net.cpp:157] Top shape: 1 1 2 8 (16)
I0309 23:11:38.290662 12883 net.cpp:165] Memory required for data: 226492608
I0309 23:11:38.290668 12883 layer_factory.hpp:77] Creating layer conv1_1
I0309 23:11:38.290684 12883 net.cpp:100] Creating Layer conv1_1
I0309 23:11:38.290689 12883 net.cpp:434] conv1_1 <- data_data_0_split_0
I0309 23:11:38.290697 12883 net.cpp:408] conv1_1 -> conv1_1
I0309 23:11:38.351544 12890 blocking_queue.cpp:50] Waiting for data
I0309 23:11:38.696231 12883 net.cpp:150] Setting up conv1_1
I0309 23:11:38.696254 12883 net.cpp:157] Top shape: 8 64 512 512 (134217728)
I0309 23:11:38.696259 12883 net.cpp:165] Memory required for data: 763363520
I0309 23:11:38.696275 12883 layer_factory.hpp:77] Creating layer relu1_1
I0309 23:11:38.696288 12883 net.cpp:100] Creating Layer relu1_1
I0309 23:11:38.696293 12883 net.cpp:434] relu1_1 <- conv1_1
I0309 23:11:38.696300 12883 net.cpp:395] relu1_1 -> conv1_1 (in-place)
I0309 23:11:38.696476 12883 net.cpp:150] Setting up relu1_1
I0309 23:11:38.696488 12883 net.cpp:157] Top shape: 8 64 512 512 (134217728)
I0309 23:11:38.696493 12883 net.cpp:165] Memory required for data: 1300234432
I0309 23:11:38.696497 12883 layer_factory.hpp:77] Creating layer conv1_2
I0309 23:11:38.696509 12883 net.cpp:100] Creating Layer conv1_2
I0309 23:11:38.696514 12883 net.cpp:434] conv1_2 <- conv1_1
I0309 23:11:38.696521 12883 net.cpp:408] conv1_2 -> conv1_2
I0309 23:11:38.698626 12883 net.cpp:150] Setting up conv1_2
I0309 23:11:38.698639 12883 net.cpp:157] Top shape: 8 64 512 512 (134217728)
I0309 23:11:38.698643 12883 net.cpp:165] Memory required for data: 1837105344
I0309 23:11:38.698652 12883 layer_factory.hpp:77] Creating layer relu1_2
I0309 23:11:38.698659 12883 net.cpp:100] Creating Layer relu1_2
I0309 23:11:38.698665 12883 net.cpp:434] relu1_2 <- conv1_2
I0309 23:11:38.698680 12883 net.cpp:395] relu1_2 -> conv1_2 (in-place)
I0309 23:11:38.698842 12883 net.cpp:150] Setting up relu1_2
I0309 23:11:38.698853 12883 net.cpp:157] Top shape: 8 64 512 512 (134217728)
I0309 23:11:38.698855 12883 net.cpp:165] Memory required for data: 2373976256
I0309 23:11:38.698859 12883 layer_factory.hpp:77] Creating layer pool1
I0309 23:11:38.698866 12883 net.cpp:100] Creating Layer pool1
I0309 23:11:38.698875 12883 net.cpp:434] pool1 <- conv1_2
I0309 23:11:38.698882 12883 net.cpp:408] pool1 -> pool1
I0309 23:11:38.698930 12883 net.cpp:150] Setting up pool1
I0309 23:11:38.698937 12883 net.cpp:157] Top shape: 8 64 256 256 (33554432)
I0309 23:11:38.698942 12883 net.cpp:165] Memory required for data: 2508193984
I0309 23:11:38.698947 12883 layer_factory.hpp:77] Creating layer conv2_1
I0309 23:11:38.698957 12883 net.cpp:100] Creating Layer conv2_1
I0309 23:11:38.698966 12883 net.cpp:434] conv2_1 <- pool1
I0309 23:11:38.698973 12883 net.cpp:408] conv2_1 -> conv2_1
I0309 23:11:38.701195 12883 net.cpp:150] Setting up conv2_1
I0309 23:11:38.701208 12883 net.cpp:157] Top shape: 8 128 256 256 (67108864)
I0309 23:11:38.701211 12883 net.cpp:165] Memory required for data: 2776629440
I0309 23:11:38.701241 12883 layer_factory.hpp:77] Creating layer relu2_1
I0309 23:11:38.701248 12883 net.cpp:100] Creating Layer relu2_1
I0309 23:11:38.701252 12883 net.cpp:434] relu2_1 <- conv2_1
I0309 23:11:38.701259 12883 net.cpp:395] relu2_1 -> conv2_1 (in-place)
I0309 23:11:38.701699 12883 net.cpp:150] Setting up relu2_1
I0309 23:11:38.701710 12883 net.cpp:157] Top shape: 8 128 256 256 (67108864)
I0309 23:11:38.701714 12883 net.cpp:165] Memory required for data: 3045064896
I0309 23:11:38.701719 12883 layer_factory.hpp:77] Creating layer conv2_2
I0309 23:11:38.701728 12883 net.cpp:100] Creating Layer conv2_2
I0309 23:11:38.701733 12883 net.cpp:434] conv2_2 <- conv2_1
I0309 23:11:38.701741 12883 net.cpp:408] conv2_2 -> conv2_2
I0309 23:11:38.703559 12883 net.cpp:150] Setting up conv2_2
I0309 23:11:38.703574 12883 net.cpp:157] Top shape: 8 128 256 256 (67108864)
I0309 23:11:38.703578 12883 net.cpp:165] Memory required for data: 3313500352
I0309 23:11:38.703584 12883 layer_factory.hpp:77] Creating layer relu2_2
I0309 23:11:38.703591 12883 net.cpp:100] Creating Layer relu2_2
I0309 23:11:38.703596 12883 net.cpp:434] relu2_2 <- conv2_2
I0309 23:11:38.703601 12883 net.cpp:395] relu2_2 -> conv2_2 (in-place)
I0309 23:11:38.703753 12883 net.cpp:150] Setting up relu2_2
I0309 23:11:38.703761 12883 net.cpp:157] Top shape: 8 128 256 256 (67108864)
I0309 23:11:38.703765 12883 net.cpp:165] Memory required for data: 3581935808
I0309 23:11:38.703769 12883 layer_factory.hpp:77] Creating layer pool2
I0309 23:11:38.703776 12883 net.cpp:100] Creating Layer pool2
I0309 23:11:38.703779 12883 net.cpp:434] pool2 <- conv2_2
I0309 23:11:38.703785 12883 net.cpp:408] pool2 -> pool2
I0309 23:11:38.703826 12883 net.cpp:150] Setting up pool2
I0309 23:11:38.703833 12883 net.cpp:157] Top shape: 8 128 128 128 (16777216)
I0309 23:11:38.703835 12883 net.cpp:165] Memory required for data: 3649044672
I0309 23:11:38.703840 12883 layer_factory.hpp:77] Creating layer conv3_1
I0309 23:11:38.703847 12883 net.cpp:100] Creating Layer conv3_1
I0309 23:11:38.703851 12883 net.cpp:434] conv3_1 <- pool2
I0309 23:11:38.703856 12883 net.cpp:408] conv3_1 -> conv3_1
I0309 23:11:38.707417 12883 net.cpp:150] Setting up conv3_1
I0309 23:11:38.707430 12883 net.cpp:157] Top shape: 8 256 128 128 (33554432)
I0309 23:11:38.707433 12883 net.cpp:165] Memory required for data: 3783262400
I0309 23:11:38.707444 12883 layer_factory.hpp:77] Creating layer relu3_1
I0309 23:11:38.707451 12883 net.cpp:100] Creating Layer relu3_1
I0309 23:11:38.707455 12883 net.cpp:434] relu3_1 <- conv3_1
I0309 23:11:38.707460 12883 net.cpp:395] relu3_1 -> conv3_1 (in-place)
I0309 23:11:38.707615 12883 net.cpp:150] Setting up relu3_1
I0309 23:11:38.707625 12883 net.cpp:157] Top shape: 8 256 128 128 (33554432)
I0309 23:11:38.707628 12883 net.cpp:165] Memory required for data: 3917480128
I0309 23:11:38.707631 12883 layer_factory.hpp:77] Creating layer conv3_2
I0309 23:11:38.707641 12883 net.cpp:100] Creating Layer conv3_2
I0309 23:11:38.707645 12883 net.cpp:434] conv3_2 <- conv3_1
I0309 23:11:38.707651 12883 net.cpp:408] conv3_2 -> conv3_2
I0309 23:11:38.711915 12883 net.cpp:150] Setting up conv3_2
I0309 23:11:38.711927 12883 net.cpp:157] Top shape: 8 256 128 128 (33554432)
I0309 23:11:38.711931 12883 net.cpp:165] Memory required for data: 4051697856
I0309 23:11:38.711938 12883 layer_factory.hpp:77] Creating layer relu3_2
I0309 23:11:38.711947 12883 net.cpp:100] Creating Layer relu3_2
I0309 23:11:38.711951 12883 net.cpp:434] relu3_2 <- conv3_2
I0309 23:11:38.711958 12883 net.cpp:395] relu3_2 -> conv3_2 (in-place)
I0309 23:11:38.712383 12883 net.cpp:150] Setting up relu3_2
I0309 23:11:38.712394 12883 net.cpp:157] Top shape: 8 256 128 128 (33554432)
I0309 23:11:38.712397 12883 net.cpp:165] Memory required for data: 4185915584
I0309 23:11:38.712402 12883 layer_factory.hpp:77] Creating layer conv3_3
I0309 23:11:38.712411 12883 net.cpp:100] Creating Layer conv3_3
I0309 23:11:38.712415 12883 net.cpp:434] conv3_3 <- conv3_2
I0309 23:11:38.712422 12883 net.cpp:408] conv3_3 -> conv3_3
I0309 23:11:38.717573 12883 net.cpp:150] Setting up conv3_3
I0309 23:11:38.717586 12883 net.cpp:157] Top shape: 8 256 128 128 (33554432)
I0309 23:11:38.717589 12883 net.cpp:165] Memory required for data: 4320133312
I0309 23:11:38.717595 12883 layer_factory.hpp:77] Creating layer relu3_3
I0309 23:11:38.717602 12883 net.cpp:100] Creating Layer relu3_3
I0309 23:11:38.717607 12883 net.cpp:434] relu3_3 <- conv3_3
I0309 23:11:38.717612 12883 net.cpp:395] relu3_3 -> conv3_3 (in-place)
I0309 23:11:38.717761 12883 net.cpp:150] Setting up relu3_3
I0309 23:11:38.717770 12883 net.cpp:157] Top shape: 8 256 128 128 (33554432)
I0309 23:11:38.717773 12883 net.cpp:165] Memory required for data: 4454351040
I0309 23:11:38.717777 12883 layer_factory.hpp:77] Creating layer pool3
I0309 23:11:38.717783 12883 net.cpp:100] Creating Layer pool3
I0309 23:11:38.717788 12883 net.cpp:434] pool3 <- conv3_3
I0309 23:11:38.717793 12883 net.cpp:408] pool3 -> pool3
I0309 23:11:38.717828 12883 net.cpp:150] Setting up pool3
I0309 23:11:38.717835 12883 net.cpp:157] Top shape: 8 256 64 64 (8388608)
I0309 23:11:38.717839 12883 net.cpp:165] Memory required for data: 4487905472
I0309 23:11:38.717841 12883 layer_factory.hpp:77] Creating layer conv4_1
I0309 23:11:38.717850 12883 net.cpp:100] Creating Layer conv4_1
I0309 23:11:38.717855 12883 net.cpp:434] conv4_1 <- pool3
I0309 23:11:38.717861 12883 net.cpp:408] conv4_1 -> conv4_1
I0309 23:11:38.725682 12883 net.cpp:150] Setting up conv4_1
I0309 23:11:38.725697 12883 net.cpp:157] Top shape: 8 512 64 64 (16777216)
I0309 23:11:38.725699 12883 net.cpp:165] Memory required for data: 4555014336
I0309 23:11:38.725708 12883 layer_factory.hpp:77] Creating layer relu4_1
I0309 23:11:38.725714 12883 net.cpp:100] Creating Layer relu4_1
I0309 23:11:38.725719 12883 net.cpp:434] relu4_1 <- conv4_1
I0309 23:11:38.725725 12883 net.cpp:395] relu4_1 -> conv4_1 (in-place)
I0309 23:11:38.725879 12883 net.cpp:150] Setting up relu4_1
I0309 23:11:38.725889 12883 net.cpp:157] Top shape: 8 512 64 64 (16777216)
I0309 23:11:38.725893 12883 net.cpp:165] Memory required for data: 4622123200
I0309 23:11:38.725895 12883 layer_factory.hpp:77] Creating layer conv4_2
I0309 23:11:38.725905 12883 net.cpp:100] Creating Layer conv4_2
I0309 23:11:38.725909 12883 net.cpp:434] conv4_2 <- conv4_1
I0309 23:11:38.725917 12883 net.cpp:408] conv4_2 -> conv4_2
I0309 23:11:38.738862 12883 net.cpp:150] Setting up conv4_2
I0309 23:11:38.738880 12883 net.cpp:157] Top shape: 8 512 64 64 (16777216)
I0309 23:11:38.738884 12883 net.cpp:165] Memory required for data: 4689232064
I0309 23:11:38.738896 12883 layer_factory.hpp:77] Creating layer relu4_2
I0309 23:11:38.738906 12883 net.cpp:100] Creating Layer relu4_2
I0309 23:11:38.738916 12883 net.cpp:434] relu4_2 <- conv4_2
I0309 23:11:38.738921 12883 net.cpp:395] relu4_2 -> conv4_2 (in-place)
I0309 23:11:38.739076 12883 net.cpp:150] Setting up relu4_2
I0309 23:11:38.739085 12883 net.cpp:157] Top shape: 8 512 64 64 (16777216)
I0309 23:11:38.739089 12883 net.cpp:165] Memory required for data: 4756340928
I0309 23:11:38.739094 12883 layer_factory.hpp:77] Creating layer conv4_3
I0309 23:11:38.739105 12883 net.cpp:100] Creating Layer conv4_3
I0309 23:11:38.739111 12883 net.cpp:434] conv4_3 <- conv4_2
I0309 23:11:38.739120 12883 net.cpp:408] conv4_3 -> conv4_3_ori
I0309 23:11:38.751783 12883 net.cpp:150] Setting up conv4_3
I0309 23:11:38.751802 12883 net.cpp:157] Top shape: 8 512 64 64 (16777216)
I0309 23:11:38.751806 12883 net.cpp:165] Memory required for data: 4823449792
I0309 23:11:38.751814 12883 layer_factory.hpp:77] Creating layer relu4_3
I0309 23:11:38.751822 12883 net.cpp:100] Creating Layer relu4_3
I0309 23:11:38.751827 12883 net.cpp:434] relu4_3 <- conv4_3_ori
I0309 23:11:38.751837 12883 net.cpp:395] relu4_3 -> conv4_3_ori (in-place)
I0309 23:11:38.752303 12883 net.cpp:150] Setting up relu4_3
I0309 23:11:38.752315 12883 net.cpp:157] Top shape: 8 512 64 64 (16777216)
I0309 23:11:38.752321 12883 net.cpp:165] Memory required for data: 4890558656
I0309 23:11:38.752326 12883 layer_factory.hpp:77] Creating layer conv4_3_ori_relu4_3_0_split
I0309 23:11:38.752354 12883 net.cpp:100] Creating Layer conv4_3_ori_relu4_3_0_split
I0309 23:11:38.752358 12883 net.cpp:434] conv4_3_ori_relu4_3_0_split <- conv4_3_ori
I0309 23:11:38.752364 12883 net.cpp:408] conv4_3_ori_relu4_3_0_split -> conv4_3_ori_relu4_3_0_split_0
I0309 23:11:38.752372 12883 net.cpp:408] conv4_3_ori_relu4_3_0_split -> conv4_3_ori_relu4_3_0_split_1
I0309 23:11:38.752411 12883 net.cpp:150] Setting up conv4_3_ori_relu4_3_0_split
I0309 23:11:38.752421 12883 net.cpp:157] Top shape: 8 512 64 64 (16777216)
I0309 23:11:38.752427 12883 net.cpp:157] Top shape: 8 512 64 64 (16777216)
I0309 23:11:38.752434 12883 net.cpp:165] Memory required for data: 5024776384
I0309 23:11:38.752439 12883 layer_factory.hpp:77] Creating layer seg_pool4
I0309 23:11:38.752449 12883 net.cpp:100] Creating Layer seg_pool4
I0309 23:11:38.752454 12883 net.cpp:434] seg_pool4 <- conv4_3_ori_relu4_3_0_split_0
I0309 23:11:38.752467 12883 net.cpp:408] seg_pool4 -> seg_pool4
I0309 23:11:38.752521 12883 net.cpp:150] Setting up seg_pool4
I0309 23:11:38.752527 12883 net.cpp:157] Top shape: 8 512 64 64 (16777216)
I0309 23:11:38.752532 12883 net.cpp:165] Memory required for data: 5091885248
I0309 23:11:38.752535 12883 layer_factory.hpp:77] Creating layer seg5_1
I0309 23:11:38.752547 12883 net.cpp:100] Creating Layer seg5_1
I0309 23:11:38.752553 12883 net.cpp:434] seg5_1 <- seg_pool4
I0309 23:11:38.752564 12883 net.cpp:408] seg5_1 -> seg5_1
I0309 23:11:38.764396 12883 net.cpp:150] Setting up seg5_1
I0309 23:11:38.764417 12883 net.cpp:157] Top shape: 8 512 64 64 (16777216)
I0309 23:11:38.764421 12883 net.cpp:165] Memory required for data: 5158994112
I0309 23:11:38.764430 12883 layer_factory.hpp:77] Creating layer seg_relu5_1
I0309 23:11:38.764436 12883 net.cpp:100] Creating Layer seg_relu5_1
I0309 23:11:38.764441 12883 net.cpp:434] seg_relu5_1 <- seg5_1
I0309 23:11:38.764449 12883 net.cpp:395] seg_relu5_1 -> seg5_1 (in-place)
I0309 23:11:38.764641 12883 net.cpp:150] Setting up seg_relu5_1
I0309 23:11:38.764650 12883 net.cpp:157] Top shape: 8 512 64 64 (16777216)
I0309 23:11:38.764654 12883 net.cpp:165] Memory required for data: 5226102976
I0309 23:11:38.764658 12883 layer_factory.hpp:77] Creating layer seg5_2
I0309 23:11:38.764668 12883 net.cpp:100] Creating Layer seg5_2
I0309 23:11:38.764675 12883 net.cpp:434] seg5_2 <- seg5_1
I0309 23:11:38.764684 12883 net.cpp:408] seg5_2 -> seg5_2
I0309 23:11:38.777212 12883 net.cpp:150] Setting up seg5_2
I0309 23:11:38.777232 12883 net.cpp:157] Top shape: 8 512 64 64 (16777216)
I0309 23:11:38.777236 12883 net.cpp:165] Memory required for data: 5293211840
I0309 23:11:38.777243 12883 layer_factory.hpp:77] Creating layer seg_relu5_2
I0309 23:11:38.777252 12883 net.cpp:100] Creating Layer seg_relu5_2
I0309 23:11:38.777258 12883 net.cpp:434] seg_relu5_2 <- seg5_2
I0309 23:11:38.777264 12883 net.cpp:395] seg_relu5_2 -> seg5_2 (in-place)
I0309 23:11:38.777456 12883 net.cpp:150] Setting up seg_relu5_2
I0309 23:11:38.777465 12883 net.cpp:157] Top shape: 8 512 64 64 (16777216)
I0309 23:11:38.777469 12883 net.cpp:165] Memory required for data: 5360320704
I0309 23:11:38.777472 12883 layer_factory.hpp:77] Creating layer seg5_3
I0309 23:11:38.777489 12883 net.cpp:100] Creating Layer seg5_3
I0309 23:11:38.777493 12883 net.cpp:434] seg5_3 <- seg5_2
I0309 23:11:38.777500 12883 net.cpp:408] seg5_3 -> seg5_3
I0309 23:11:38.789374 12883 net.cpp:150] Setting up seg5_3
I0309 23:11:38.789394 12883 net.cpp:157] Top shape: 8 512 64 64 (16777216)
I0309 23:11:38.789399 12883 net.cpp:165] Memory required for data: 5427429568
I0309 23:11:38.789409 12883 layer_factory.hpp:77] Creating layer seg_relu5_3
I0309 23:11:38.789417 12883 net.cpp:100] Creating Layer seg_relu5_3
I0309 23:11:38.789424 12883 net.cpp:434] seg_relu5_3 <- seg5_3
I0309 23:11:38.789432 12883 net.cpp:395] seg_relu5_3 -> seg5_3 (in-place)
I0309 23:11:38.790691 12883 net.cpp:150] Setting up seg_relu5_3
I0309 23:11:38.790704 12883 net.cpp:157] Top shape: 8 512 64 64 (16777216)
I0309 23:11:38.790709 12883 net.cpp:165] Memory required for data: 5494538432
I0309 23:11:38.790735 12883 layer_factory.hpp:77] Creating layer seg_pool5
I0309 23:11:38.790743 12883 net.cpp:100] Creating Layer seg_pool5
I0309 23:11:38.790747 12883 net.cpp:434] seg_pool5 <- seg5_3
I0309 23:11:38.790753 12883 net.cpp:408] seg_pool5 -> seg_pool5
I0309 23:11:38.790792 12883 net.cpp:150] Setting up seg_pool5
I0309 23:11:38.790801 12883 net.cpp:157] Top shape: 8 512 64 64 (16777216)
I0309 23:11:38.790804 12883 net.cpp:165] Memory required for data: 5561647296
I0309 23:11:38.790807 12883 layer_factory.hpp:77] Creating layer seg6
I0309 23:11:38.790818 12883 net.cpp:100] Creating Layer seg6
I0309 23:11:38.790830 12883 net.cpp:434] seg6 <- seg_pool5
I0309 23:11:38.790839 12883 net.cpp:408] seg6 -> seg6
I0309 23:11:38.814416 12883 net.cpp:150] Setting up seg6
I0309 23:11:38.814440 12883 net.cpp:157] Top shape: 8 1024 64 64 (33554432)
I0309 23:11:38.814445 12883 net.cpp:165] Memory required for data: 5695865024
I0309 23:11:38.814453 12883 layer_factory.hpp:77] Creating layer seg_relu6
I0309 23:11:38.814463 12883 net.cpp:100] Creating Layer seg_relu6
I0309 23:11:38.814471 12883 net.cpp:434] seg_relu6 <- seg6
I0309 23:11:38.814477 12883 net.cpp:395] seg_relu6 -> seg6 (in-place)
I0309 23:11:38.814693 12883 net.cpp:150] Setting up seg_relu6
I0309 23:11:38.814703 12883 net.cpp:157] Top shape: 8 1024 64 64 (33554432)
I0309 23:11:38.814707 12883 net.cpp:165] Memory required for data: 5830082752
I0309 23:11:38.814712 12883 layer_factory.hpp:77] Creating layer seg_drop6
I0309 23:11:38.814719 12883 net.cpp:100] Creating Layer seg_drop6
I0309 23:11:38.814728 12883 net.cpp:434] seg_drop6 <- seg6
I0309 23:11:38.814733 12883 net.cpp:395] seg_drop6 -> seg6 (in-place)
I0309 23:11:38.814766 12883 net.cpp:150] Setting up seg_drop6
I0309 23:11:38.814775 12883 net.cpp:157] Top shape: 8 1024 64 64 (33554432)
I0309 23:11:38.814784 12883 net.cpp:165] Memory required for data: 5964300480
I0309 23:11:38.814790 12883 layer_factory.hpp:77] Creating layer seg7
I0309 23:11:38.814800 12883 net.cpp:100] Creating Layer seg7
I0309 23:11:38.814810 12883 net.cpp:434] seg7 <- seg6
I0309 23:11:38.814819 12883 net.cpp:408] seg7 -> seg7
I0309 23:11:38.821182 12883 net.cpp:150] Setting up seg7
I0309 23:11:38.821194 12883 net.cpp:157] Top shape: 8 1024 64 64 (33554432)
I0309 23:11:38.821198 12883 net.cpp:165] Memory required for data: 6098518208
I0309 23:11:38.821205 12883 layer_factory.hpp:77] Creating layer seg_relu7
I0309 23:11:38.821213 12883 net.cpp:100] Creating Layer seg_relu7
I0309 23:11:38.821216 12883 net.cpp:434] seg_relu7 <- seg7
I0309 23:11:38.821223 12883 net.cpp:395] seg_relu7 -> seg7 (in-place)
I0309 23:11:38.821369 12883 net.cpp:150] Setting up seg_relu7
I0309 23:11:38.821379 12883 net.cpp:157] Top shape: 8 1024 64 64 (33554432)
I0309 23:11:38.821383 12883 net.cpp:165] Memory required for data: 6232735936
I0309 23:11:38.821388 12883 layer_factory.hpp:77] Creating layer seg7_seg_relu7_0_split
I0309 23:11:38.821399 12883 net.cpp:100] Creating Layer seg7_seg_relu7_0_split
I0309 23:11:38.821408 12883 net.cpp:434] seg7_seg_relu7_0_split <- seg7
I0309 23:11:38.821416 12883 net.cpp:408] seg7_seg_relu7_0_split -> seg7_seg_relu7_0_split_0
I0309 23:11:38.821429 12883 net.cpp:408] seg7_seg_relu7_0_split -> seg7_seg_relu7_0_split_1
I0309 23:11:38.821465 12883 net.cpp:150] Setting up seg7_seg_relu7_0_split
I0309 23:11:38.821472 12883 net.cpp:157] Top shape: 8 1024 64 64 (33554432)
I0309 23:11:38.821475 12883 net.cpp:157] Top shape: 8 1024 64 64 (33554432)
I0309 23:11:38.821480 12883 net.cpp:165] Memory required for data: 6501171392
I0309 23:11:38.821485 12883 layer_factory.hpp:77] Creating layer seg_drop7
I0309 23:11:38.821491 12883 net.cpp:100] Creating Layer seg_drop7
I0309 23:11:38.821496 12883 net.cpp:434] seg_drop7 <- seg7_seg_relu7_0_split_0
I0309 23:11:38.821503 12883 net.cpp:408] seg_drop7 -> seg7d
I0309 23:11:38.821535 12883 net.cpp:150] Setting up seg_drop7
I0309 23:11:38.821544 12883 net.cpp:157] Top shape: 8 1024 64 64 (33554432)
I0309 23:11:38.821550 12883 net.cpp:165] Memory required for data: 6635389120
I0309 23:11:38.821563 12883 layer_factory.hpp:77] Creating layer seg_new
I0309 23:11:38.821593 12883 net.cpp:100] Creating Layer seg_new
I0309 23:11:38.821597 12883 net.cpp:434] seg_new <- seg7d
I0309 23:11:38.821602 12883 net.cpp:408] seg_new -> seg
I0309 23:11:38.822711 12883 net.cpp:150] Setting up seg_new
I0309 23:11:38.822724 12883 net.cpp:157] Top shape: 8 21 64 64 (688128)
I0309 23:11:38.822727 12883 net.cpp:165] Memory required for data: 6638141632
I0309 23:11:38.822733 12883 layer_factory.hpp:77] Creating layer seg_seg_new_0_split
I0309 23:11:38.822742 12883 net.cpp:100] Creating Layer seg_seg_new_0_split
I0309 23:11:38.822748 12883 net.cpp:434] seg_seg_new_0_split <- seg
I0309 23:11:38.822753 12883 net.cpp:408] seg_seg_new_0_split -> seg_seg_new_0_split_0
I0309 23:11:38.822759 12883 net.cpp:408] seg_seg_new_0_split -> seg_seg_new_0_split_1
I0309 23:11:38.822791 12883 net.cpp:150] Setting up seg_seg_new_0_split
I0309 23:11:38.822799 12883 net.cpp:157] Top shape: 8 21 64 64 (688128)
I0309 23:11:38.822803 12883 net.cpp:157] Top shape: 8 21 64 64 (688128)
I0309 23:11:38.822808 12883 net.cpp:165] Memory required for data: 6643646656
I0309 23:11:38.822811 12883 layer_factory.hpp:77] Creating layer seg_gt
I0309 23:11:38.822819 12883 net.cpp:100] Creating Layer seg_gt
I0309 23:11:38.822824 12883 net.cpp:434] seg_gt <- label_data_1_split_0
I0309 23:11:38.822829 12883 net.cpp:434] seg_gt <- seg_seg_new_0_split_0
I0309 23:11:38.822836 12883 net.cpp:408] seg_gt -> seg_gt
I0309 23:11:38.822868 12883 net.cpp:150] Setting up seg_gt
I0309 23:11:38.822878 12883 net.cpp:157] Top shape: 8 1 64 64 (32768)
I0309 23:11:38.822885 12883 net.cpp:165] Memory required for data: 6643777728
I0309 23:11:38.822895 12883 layer_factory.hpp:77] Creating layer seg_loss
I0309 23:11:38.822906 12883 net.cpp:100] Creating Layer seg_loss
I0309 23:11:38.822912 12883 net.cpp:434] seg_loss <- seg_seg_new_0_split_1
I0309 23:11:38.822921 12883 net.cpp:434] seg_loss <- seg_gt
I0309 23:11:38.822928 12883 net.cpp:408] seg_loss -> seg_loss
I0309 23:11:38.822939 12883 layer_factory.hpp:77] Creating layer seg_loss
I0309 23:11:38.824651 12883 net.cpp:150] Setting up seg_loss
I0309 23:11:38.824662 12883 net.cpp:157] Top shape: (1)
I0309 23:11:38.824666 12883 net.cpp:160]     with loss weight 0.1
I0309 23:11:38.824689 12883 net.cpp:165] Memory required for data: 6643777732
I0309 23:11:38.824694 12883 layer_factory.hpp:77] Creating layer seg_to_det_conv
I0309 23:11:38.824703 12883 net.cpp:100] Creating Layer seg_to_det_conv
I0309 23:11:38.824708 12883 net.cpp:434] seg_to_det_conv <- seg7_seg_relu7_0_split_1
I0309 23:11:38.824717 12883 net.cpp:408] seg_to_det_conv -> seg_to_det_conv
I0309 23:11:38.828467 12883 net.cpp:150] Setting up seg_to_det_conv
I0309 23:11:38.828480 12883 net.cpp:157] Top shape: 8 512 64 64 (16777216)
I0309 23:11:38.828485 12883 net.cpp:165] Memory required for data: 6710886596
I0309 23:11:38.828498 12883 layer_factory.hpp:77] Creating layer mult_conv4_3
I0309 23:11:38.828510 12883 net.cpp:100] Creating Layer mult_conv4_3
I0309 23:11:38.828516 12883 net.cpp:434] mult_conv4_3 <- conv4_3_ori_relu4_3_0_split_1
I0309 23:11:38.828521 12883 net.cpp:434] mult_conv4_3 <- seg_to_det_conv
I0309 23:11:38.828527 12883 net.cpp:408] mult_conv4_3 -> conv4_3_t
I0309 23:11:38.828553 12883 net.cpp:150] Setting up mult_conv4_3
I0309 23:11:38.828562 12883 net.cpp:157] Top shape: 8 512 64 64 (16777216)
I0309 23:11:38.828565 12883 net.cpp:165] Memory required for data: 6777995460
I0309 23:11:38.828569 12883 layer_factory.hpp:77] Creating layer conv4_3_t_mult_conv4_3_0_split
I0309 23:11:38.828577 12883 net.cpp:100] Creating Layer conv4_3_t_mult_conv4_3_0_split
I0309 23:11:38.828579 12883 net.cpp:434] conv4_3_t_mult_conv4_3_0_split <- conv4_3_t
I0309 23:11:38.828584 12883 net.cpp:408] conv4_3_t_mult_conv4_3_0_split -> conv4_3_t_mult_conv4_3_0_split_0
I0309 23:11:38.828593 12883 net.cpp:408] conv4_3_t_mult_conv4_3_0_split -> conv4_3_t_mult_conv4_3_0_split_1
I0309 23:11:38.828631 12883 net.cpp:150] Setting up conv4_3_t_mult_conv4_3_0_split
I0309 23:11:38.828649 12883 net.cpp:157] Top shape: 8 512 64 64 (16777216)
I0309 23:11:38.828667 12883 net.cpp:157] Top shape: 8 512 64 64 (16777216)
I0309 23:11:38.828677 12883 net.cpp:165] Memory required for data: 6912213188
I0309 23:11:38.828682 12883 layer_factory.hpp:77] Creating layer conv4_3_s
I0309 23:11:38.828691 12883 net.cpp:100] Creating Layer conv4_3_s
I0309 23:11:38.828696 12883 net.cpp:434] conv4_3_s <- conv4_3_t_mult_conv4_3_0_split_0
I0309 23:11:38.828703 12883 net.cpp:408] conv4_3_s -> conv4_3_s
I0309 23:11:38.828882 12883 net.cpp:150] Setting up conv4_3_s
I0309 23:11:38.828891 12883 net.cpp:157] Top shape: 8 512 1 1 (4096)
I0309 23:11:38.828894 12883 net.cpp:165] Memory required for data: 6912229572
I0309 23:11:38.828899 12883 layer_factory.hpp:77] Creating layer conv4_3_fc1
I0309 23:11:38.828910 12883 net.cpp:100] Creating Layer conv4_3_fc1
I0309 23:11:38.828915 12883 net.cpp:434] conv4_3_fc1 <- conv4_3_s
I0309 23:11:38.828923 12883 net.cpp:408] conv4_3_fc1 -> conv4_3_fc1
I0309 23:11:38.830431 12883 net.cpp:150] Setting up conv4_3_fc1
I0309 23:11:38.830446 12883 net.cpp:157] Top shape: 8 128 1 1 (1024)
I0309 23:11:38.830449 12883 net.cpp:165] Memory required for data: 6912233668
I0309 23:11:38.830456 12883 layer_factory.hpp:77] Creating layer conv4_3_relu
I0309 23:11:38.830464 12883 net.cpp:100] Creating Layer conv4_3_relu
I0309 23:11:38.830468 12883 net.cpp:434] conv4_3_relu <- conv4_3_fc1
I0309 23:11:38.830474 12883 net.cpp:395] conv4_3_relu -> conv4_3_fc1 (in-place)
I0309 23:11:38.830647 12883 net.cpp:150] Setting up conv4_3_relu
I0309 23:11:38.830658 12883 net.cpp:157] Top shape: 8 128 1 1 (1024)
I0309 23:11:38.830662 12883 net.cpp:165] Memory required for data: 6912237764
I0309 23:11:38.830665 12883 layer_factory.hpp:77] Creating layer conv4_3_fc2
I0309 23:11:38.830678 12883 net.cpp:100] Creating Layer conv4_3_fc2
I0309 23:11:38.830688 12883 net.cpp:434] conv4_3_fc2 <- conv4_3_fc1
I0309 23:11:38.830695 12883 net.cpp:408] conv4_3_fc2 -> conv4_3_fc2
I0309 23:11:38.832192 12883 net.cpp:150] Setting up conv4_3_fc2
I0309 23:11:38.832204 12883 net.cpp:157] Top shape: 8 512 1 1 (4096)
I0309 23:11:38.832208 12883 net.cpp:165] Memory required for data: 6912254148
I0309 23:11:38.832214 12883 layer_factory.hpp:77] Creating layer conv4_3_sig
I0309 23:11:38.832221 12883 net.cpp:100] Creating Layer conv4_3_sig
I0309 23:11:38.832224 12883 net.cpp:434] conv4_3_sig <- conv4_3_fc2
I0309 23:11:38.832232 12883 net.cpp:395] conv4_3_sig -> conv4_3_fc2 (in-place)
I0309 23:11:38.832377 12883 net.cpp:150] Setting up conv4_3_sig
I0309 23:11:38.832386 12883 net.cpp:157] Top shape: 8 512 1 1 (4096)
I0309 23:11:38.832389 12883 net.cpp:165] Memory required for data: 6912270532
I0309 23:11:38.832393 12883 layer_factory.hpp:77] Creating layer conv4_3_reshape
I0309 23:11:38.832401 12883 net.cpp:100] Creating Layer conv4_3_reshape
I0309 23:11:38.832406 12883 net.cpp:434] conv4_3_reshape <- conv4_3_fc2
I0309 23:11:38.832412 12883 net.cpp:408] conv4_3_reshape -> conv4_3_reshape
I0309 23:11:38.832442 12883 net.cpp:150] Setting up conv4_3_reshape
I0309 23:11:38.832448 12883 net.cpp:157] Top shape: 8 512 (4096)
I0309 23:11:38.832451 12883 net.cpp:165] Memory required for data: 6912286916
I0309 23:11:38.832455 12883 layer_factory.hpp:77] Creating layer conv4_3_scale
I0309 23:11:38.832461 12883 net.cpp:100] Creating Layer conv4_3_scale
I0309 23:11:38.832465 12883 net.cpp:434] conv4_3_scale <- conv4_3_t_mult_conv4_3_0_split_1
I0309 23:11:38.832470 12883 net.cpp:434] conv4_3_scale <- conv4_3_reshape
I0309 23:11:38.832476 12883 net.cpp:408] conv4_3_scale -> conv4_3
I0309 23:11:38.832540 12883 net.cpp:150] Setting up conv4_3_scale
I0309 23:11:38.832546 12883 net.cpp:157] Top shape: 8 512 64 64 (16777216)
I0309 23:11:38.832551 12883 net.cpp:165] Memory required for data: 6979395780
I0309 23:11:38.832554 12883 layer_factory.hpp:77] Creating layer conv4_3_conv4_3_scale_0_split
I0309 23:11:38.832561 12883 net.cpp:100] Creating Layer conv4_3_conv4_3_scale_0_split
I0309 23:11:38.832566 12883 net.cpp:434] conv4_3_conv4_3_scale_0_split <- conv4_3
I0309 23:11:38.832571 12883 net.cpp:408] conv4_3_conv4_3_scale_0_split -> conv4_3_conv4_3_scale_0_split_0
I0309 23:11:38.832593 12883 net.cpp:408] conv4_3_conv4_3_scale_0_split -> conv4_3_conv4_3_scale_0_split_1
I0309 23:11:38.832635 12883 net.cpp:150] Setting up conv4_3_conv4_3_scale_0_split
I0309 23:11:38.832643 12883 net.cpp:157] Top shape: 8 512 64 64 (16777216)
I0309 23:11:38.832648 12883 net.cpp:157] Top shape: 8 512 64 64 (16777216)
I0309 23:11:38.832649 12883 net.cpp:165] Memory required for data: 7113613508
I0309 23:11:38.832653 12883 layer_factory.hpp:77] Creating layer pool4
I0309 23:11:38.832659 12883 net.cpp:100] Creating Layer pool4
I0309 23:11:38.832664 12883 net.cpp:434] pool4 <- conv4_3_conv4_3_scale_0_split_0
I0309 23:11:38.832670 12883 net.cpp:408] pool4 -> pool4
I0309 23:11:38.832710 12883 net.cpp:150] Setting up pool4
I0309 23:11:38.832717 12883 net.cpp:157] Top shape: 8 512 32 32 (4194304)
I0309 23:11:38.832720 12883 net.cpp:165] Memory required for data: 7130390724
I0309 23:11:38.832723 12883 layer_factory.hpp:77] Creating layer conv5_1
I0309 23:11:38.832736 12883 net.cpp:100] Creating Layer conv5_1
I0309 23:11:38.832739 12883 net.cpp:434] conv5_1 <- pool4
I0309 23:11:38.832744 12883 net.cpp:408] conv5_1 -> conv5_1
I0309 23:11:38.845517 12883 net.cpp:150] Setting up conv5_1
I0309 23:11:38.845537 12883 net.cpp:157] Top shape: 8 512 32 32 (4194304)
I0309 23:11:38.845541 12883 net.cpp:165] Memory required for data: 7147167940
I0309 23:11:38.845548 12883 layer_factory.hpp:77] Creating layer relu5_1
I0309 23:11:38.845557 12883 net.cpp:100] Creating Layer relu5_1
I0309 23:11:38.845564 12883 net.cpp:434] relu5_1 <- conv5_1
I0309 23:11:38.845571 12883 net.cpp:395] relu5_1 -> conv5_1 (in-place)
I0309 23:11:38.846050 12883 net.cpp:150] Setting up relu5_1
I0309 23:11:38.846062 12883 net.cpp:157] Top shape: 8 512 32 32 (4194304)
I0309 23:11:38.846066 12883 net.cpp:165] Memory required for data: 7163945156
I0309 23:11:38.846071 12883 layer_factory.hpp:77] Creating layer conv5_2
I0309 23:11:38.846084 12883 net.cpp:100] Creating Layer conv5_2
I0309 23:11:38.846091 12883 net.cpp:434] conv5_2 <- conv5_1
I0309 23:11:38.846101 12883 net.cpp:408] conv5_2 -> conv5_2
I0309 23:11:38.862484 12883 net.cpp:150] Setting up conv5_2
I0309 23:11:38.862504 12883 net.cpp:157] Top shape: 8 512 32 32 (4194304)
I0309 23:11:38.862509 12883 net.cpp:165] Memory required for data: 7180722372
I0309 23:11:38.862515 12883 layer_factory.hpp:77] Creating layer relu5_2
I0309 23:11:38.862524 12883 net.cpp:100] Creating Layer relu5_2
I0309 23:11:38.862531 12883 net.cpp:434] relu5_2 <- conv5_2
I0309 23:11:38.862538 12883 net.cpp:395] relu5_2 -> conv5_2 (in-place)
I0309 23:11:38.862689 12883 net.cpp:150] Setting up relu5_2
I0309 23:11:38.862697 12883 net.cpp:157] Top shape: 8 512 32 32 (4194304)
I0309 23:11:38.862701 12883 net.cpp:165] Memory required for data: 7197499588
I0309 23:11:38.862706 12883 layer_factory.hpp:77] Creating layer conv5_3
I0309 23:11:38.862718 12883 net.cpp:100] Creating Layer conv5_3
I0309 23:11:38.862726 12883 net.cpp:434] conv5_3 <- conv5_2
I0309 23:11:38.862737 12883 net.cpp:408] conv5_3 -> conv5_3
I0309 23:11:38.875500 12883 net.cpp:150] Setting up conv5_3
I0309 23:11:38.875519 12883 net.cpp:157] Top shape: 8 512 32 32 (4194304)
I0309 23:11:38.875524 12883 net.cpp:165] Memory required for data: 7214276804
I0309 23:11:38.875530 12883 layer_factory.hpp:77] Creating layer relu5_3
I0309 23:11:38.875538 12883 net.cpp:100] Creating Layer relu5_3
I0309 23:11:38.875547 12883 net.cpp:434] relu5_3 <- conv5_3
I0309 23:11:38.875555 12883 net.cpp:395] relu5_3 -> conv5_3 (in-place)
I0309 23:11:38.875706 12883 net.cpp:150] Setting up relu5_3
I0309 23:11:38.875716 12883 net.cpp:157] Top shape: 8 512 32 32 (4194304)
I0309 23:11:38.875720 12883 net.cpp:165] Memory required for data: 7231054020
I0309 23:11:38.875725 12883 layer_factory.hpp:77] Creating layer pool5
I0309 23:11:38.875738 12883 net.cpp:100] Creating Layer pool5
I0309 23:11:38.875744 12883 net.cpp:434] pool5 <- conv5_3
I0309 23:11:38.875752 12883 net.cpp:408] pool5 -> pool5
I0309 23:11:38.875797 12883 net.cpp:150] Setting up pool5
I0309 23:11:38.875828 12883 net.cpp:157] Top shape: 8 512 32 32 (4194304)
I0309 23:11:38.875835 12883 net.cpp:165] Memory required for data: 7247831236
I0309 23:11:38.875840 12883 layer_factory.hpp:77] Creating layer fc6
I0309 23:11:38.875851 12883 net.cpp:100] Creating Layer fc6
I0309 23:11:38.875859 12883 net.cpp:434] fc6 <- pool5
I0309 23:11:38.875866 12883 net.cpp:408] fc6 -> fc6
I0309 23:11:38.899392 12883 net.cpp:150] Setting up fc6
I0309 23:11:38.899416 12883 net.cpp:157] Top shape: 8 1024 32 32 (8388608)
I0309 23:11:38.899420 12883 net.cpp:165] Memory required for data: 7281385668
I0309 23:11:38.899428 12883 layer_factory.hpp:77] Creating layer relu6
I0309 23:11:38.899440 12883 net.cpp:100] Creating Layer relu6
I0309 23:11:38.899446 12883 net.cpp:434] relu6 <- fc6
I0309 23:11:38.899454 12883 net.cpp:395] relu6 -> fc6 (in-place)
I0309 23:11:38.900091 12883 net.cpp:150] Setting up relu6
I0309 23:11:38.900104 12883 net.cpp:157] Top shape: 8 1024 32 32 (8388608)
I0309 23:11:38.900107 12883 net.cpp:165] Memory required for data: 7314940100
I0309 23:11:38.900111 12883 layer_factory.hpp:77] Creating layer fc7
I0309 23:11:38.900123 12883 net.cpp:100] Creating Layer fc7
I0309 23:11:38.900131 12883 net.cpp:434] fc7 <- fc6
I0309 23:11:38.900140 12883 net.cpp:408] fc7 -> fc7_t
I0309 23:11:38.906487 12883 net.cpp:150] Setting up fc7
I0309 23:11:38.906499 12883 net.cpp:157] Top shape: 8 1024 32 32 (8388608)
I0309 23:11:38.906504 12883 net.cpp:165] Memory required for data: 7348494532
I0309 23:11:38.906512 12883 layer_factory.hpp:77] Creating layer relu7
I0309 23:11:38.906520 12883 net.cpp:100] Creating Layer relu7
I0309 23:11:38.906524 12883 net.cpp:434] relu7 <- fc7_t
I0309 23:11:38.906532 12883 net.cpp:395] relu7 -> fc7_t (in-place)
I0309 23:11:38.906683 12883 net.cpp:150] Setting up relu7
I0309 23:11:38.906692 12883 net.cpp:157] Top shape: 8 1024 32 32 (8388608)
I0309 23:11:38.906697 12883 net.cpp:165] Memory required for data: 7382048964
I0309 23:11:38.906700 12883 layer_factory.hpp:77] Creating layer fc7_t_relu7_0_split
I0309 23:11:38.906720 12883 net.cpp:100] Creating Layer fc7_t_relu7_0_split
I0309 23:11:38.906725 12883 net.cpp:434] fc7_t_relu7_0_split <- fc7_t
I0309 23:11:38.906739 12883 net.cpp:408] fc7_t_relu7_0_split -> fc7_t_relu7_0_split_0
I0309 23:11:38.906747 12883 net.cpp:408] fc7_t_relu7_0_split -> fc7_t_relu7_0_split_1
I0309 23:11:38.906782 12883 net.cpp:150] Setting up fc7_t_relu7_0_split
I0309 23:11:38.906790 12883 net.cpp:157] Top shape: 8 1024 32 32 (8388608)
I0309 23:11:38.906795 12883 net.cpp:157] Top shape: 8 1024 32 32 (8388608)
I0309 23:11:38.906800 12883 net.cpp:165] Memory required for data: 7449157828
I0309 23:11:38.906805 12883 layer_factory.hpp:77] Creating layer fc7_s
I0309 23:11:38.906814 12883 net.cpp:100] Creating Layer fc7_s
I0309 23:11:38.906821 12883 net.cpp:434] fc7_s <- fc7_t_relu7_0_split_0
I0309 23:11:38.906828 12883 net.cpp:408] fc7_s -> fc7_s
I0309 23:11:38.907012 12883 net.cpp:150] Setting up fc7_s
I0309 23:11:38.907021 12883 net.cpp:157] Top shape: 8 1024 1 1 (8192)
I0309 23:11:38.907025 12883 net.cpp:165] Memory required for data: 7449190596
I0309 23:11:38.907034 12883 layer_factory.hpp:77] Creating layer fc7_fc1
I0309 23:11:38.907043 12883 net.cpp:100] Creating Layer fc7_fc1
I0309 23:11:38.907052 12883 net.cpp:434] fc7_fc1 <- fc7_s
I0309 23:11:38.907058 12883 net.cpp:408] fc7_fc1 -> fc7_fc1
I0309 23:11:38.909780 12883 net.cpp:150] Setting up fc7_fc1
I0309 23:11:38.909791 12883 net.cpp:157] Top shape: 8 256 1 1 (2048)
I0309 23:11:38.909795 12883 net.cpp:165] Memory required for data: 7449198788
I0309 23:11:38.909801 12883 layer_factory.hpp:77] Creating layer fc7_relu
I0309 23:11:38.909811 12883 net.cpp:100] Creating Layer fc7_relu
I0309 23:11:38.909816 12883 net.cpp:434] fc7_relu <- fc7_fc1
I0309 23:11:38.909821 12883 net.cpp:395] fc7_relu -> fc7_fc1 (in-place)
I0309 23:11:38.910310 12883 net.cpp:150] Setting up fc7_relu
I0309 23:11:38.910334 12883 net.cpp:157] Top shape: 8 256 1 1 (2048)
I0309 23:11:38.910341 12883 net.cpp:165] Memory required for data: 7449206980
I0309 23:11:38.910344 12883 layer_factory.hpp:77] Creating layer fc7_fc2
I0309 23:11:38.910372 12883 net.cpp:100] Creating Layer fc7_fc2
I0309 23:11:38.910382 12883 net.cpp:434] fc7_fc2 <- fc7_fc1
I0309 23:11:38.910387 12883 net.cpp:408] fc7_fc2 -> fc7_fc2
I0309 23:11:38.912391 12883 net.cpp:150] Setting up fc7_fc2
I0309 23:11:38.912403 12883 net.cpp:157] Top shape: 8 1024 1 1 (8192)
I0309 23:11:38.912407 12883 net.cpp:165] Memory required for data: 7449239748
I0309 23:11:38.912415 12883 layer_factory.hpp:77] Creating layer fc7_sig
I0309 23:11:38.912432 12883 net.cpp:100] Creating Layer fc7_sig
I0309 23:11:38.912439 12883 net.cpp:434] fc7_sig <- fc7_fc2
I0309 23:11:38.912444 12883 net.cpp:395] fc7_sig -> fc7_fc2 (in-place)
I0309 23:11:38.912593 12883 net.cpp:150] Setting up fc7_sig
I0309 23:11:38.912602 12883 net.cpp:157] Top shape: 8 1024 1 1 (8192)
I0309 23:11:38.912607 12883 net.cpp:165] Memory required for data: 7449272516
I0309 23:11:38.912612 12883 layer_factory.hpp:77] Creating layer fc7_reshape
I0309 23:11:38.912623 12883 net.cpp:100] Creating Layer fc7_reshape
I0309 23:11:38.912631 12883 net.cpp:434] fc7_reshape <- fc7_fc2
I0309 23:11:38.912636 12883 net.cpp:408] fc7_reshape -> fc7_reshape
I0309 23:11:38.912663 12883 net.cpp:150] Setting up fc7_reshape
I0309 23:11:38.912668 12883 net.cpp:157] Top shape: 8 1024 (8192)
I0309 23:11:38.912672 12883 net.cpp:165] Memory required for data: 7449305284
I0309 23:11:38.912674 12883 layer_factory.hpp:77] Creating layer fc7_scale
I0309 23:11:38.912680 12883 net.cpp:100] Creating Layer fc7_scale
I0309 23:11:38.912684 12883 net.cpp:434] fc7_scale <- fc7_t_relu7_0_split_1
I0309 23:11:38.912688 12883 net.cpp:434] fc7_scale <- fc7_reshape
I0309 23:11:38.912693 12883 net.cpp:408] fc7_scale -> fc7
I0309 23:11:38.912753 12883 net.cpp:150] Setting up fc7_scale
I0309 23:11:38.912760 12883 net.cpp:157] Top shape: 8 1024 32 32 (8388608)
I0309 23:11:38.912762 12883 net.cpp:165] Memory required for data: 7482859716
I0309 23:11:38.912766 12883 layer_factory.hpp:77] Creating layer fc7_fc7_scale_0_split
I0309 23:11:38.912772 12883 net.cpp:100] Creating Layer fc7_fc7_scale_0_split
I0309 23:11:38.912776 12883 net.cpp:434] fc7_fc7_scale_0_split <- fc7
I0309 23:11:38.912781 12883 net.cpp:408] fc7_fc7_scale_0_split -> fc7_fc7_scale_0_split_0
I0309 23:11:38.912787 12883 net.cpp:408] fc7_fc7_scale_0_split -> fc7_fc7_scale_0_split_1
I0309 23:11:38.912793 12883 net.cpp:408] fc7_fc7_scale_0_split -> fc7_fc7_scale_0_split_2
I0309 23:11:38.912798 12883 net.cpp:408] fc7_fc7_scale_0_split -> fc7_fc7_scale_0_split_3
I0309 23:11:38.912849 12883 net.cpp:150] Setting up fc7_fc7_scale_0_split
I0309 23:11:38.912854 12883 net.cpp:157] Top shape: 8 1024 32 32 (8388608)
I0309 23:11:38.912858 12883 net.cpp:157] Top shape: 8 1024 32 32 (8388608)
I0309 23:11:38.912861 12883 net.cpp:157] Top shape: 8 1024 32 32 (8388608)
I0309 23:11:38.912864 12883 net.cpp:157] Top shape: 8 1024 32 32 (8388608)
I0309 23:11:38.912868 12883 net.cpp:165] Memory required for data: 7617077444
I0309 23:11:38.912871 12883 layer_factory.hpp:77] Creating layer conv6_1
I0309 23:11:38.912879 12883 net.cpp:100] Creating Layer conv6_1
I0309 23:11:38.912883 12883 net.cpp:434] conv6_1 <- fc7_fc7_scale_0_split_0
I0309 23:11:38.912888 12883 net.cpp:408] conv6_1 -> conv6_1
I0309 23:11:38.915753 12883 net.cpp:150] Setting up conv6_1
I0309 23:11:38.915766 12883 net.cpp:157] Top shape: 8 256 32 32 (2097152)
I0309 23:11:38.915769 12883 net.cpp:165] Memory required for data: 7625466052
I0309 23:11:38.915777 12883 layer_factory.hpp:77] Creating layer conv6_1_relu
I0309 23:11:38.915788 12883 net.cpp:100] Creating Layer conv6_1_relu
I0309 23:11:38.915792 12883 net.cpp:434] conv6_1_relu <- conv6_1
I0309 23:11:38.915799 12883 net.cpp:395] conv6_1_relu -> conv6_1 (in-place)
I0309 23:11:38.915951 12883 net.cpp:150] Setting up conv6_1_relu
I0309 23:11:38.915961 12883 net.cpp:157] Top shape: 8 256 32 32 (2097152)
I0309 23:11:38.915966 12883 net.cpp:165] Memory required for data: 7633854660
I0309 23:11:38.915969 12883 layer_factory.hpp:77] Creating layer conv6_2
I0309 23:11:38.915978 12883 net.cpp:100] Creating Layer conv6_2
I0309 23:11:38.916004 12883 net.cpp:434] conv6_2 <- conv6_1
I0309 23:11:38.916014 12883 net.cpp:408] conv6_2 -> conv6_2_t
I0309 23:11:38.928036 12883 net.cpp:150] Setting up conv6_2
I0309 23:11:38.928051 12883 net.cpp:157] Top shape: 8 512 16 16 (1048576)
I0309 23:11:38.928056 12883 net.cpp:165] Memory required for data: 7638048964
I0309 23:11:38.928062 12883 layer_factory.hpp:77] Creating layer conv6_2_relu
I0309 23:11:38.928068 12883 net.cpp:100] Creating Layer conv6_2_relu
I0309 23:11:38.928077 12883 net.cpp:434] conv6_2_relu <- conv6_2_t
I0309 23:11:38.928084 12883 net.cpp:395] conv6_2_relu -> conv6_2_t (in-place)
I0309 23:11:38.928236 12883 net.cpp:150] Setting up conv6_2_relu
I0309 23:11:38.928244 12883 net.cpp:157] Top shape: 8 512 16 16 (1048576)
I0309 23:11:38.928248 12883 net.cpp:165] Memory required for data: 7642243268
I0309 23:11:38.928252 12883 layer_factory.hpp:77] Creating layer conv6_2_t_conv6_2_relu_0_split
I0309 23:11:38.928261 12883 net.cpp:100] Creating Layer conv6_2_t_conv6_2_relu_0_split
I0309 23:11:38.928267 12883 net.cpp:434] conv6_2_t_conv6_2_relu_0_split <- conv6_2_t
I0309 23:11:38.928278 12883 net.cpp:408] conv6_2_t_conv6_2_relu_0_split -> conv6_2_t_conv6_2_relu_0_split_0
I0309 23:11:38.928287 12883 net.cpp:408] conv6_2_t_conv6_2_relu_0_split -> conv6_2_t_conv6_2_relu_0_split_1
I0309 23:11:38.928326 12883 net.cpp:150] Setting up conv6_2_t_conv6_2_relu_0_split
I0309 23:11:38.928333 12883 net.cpp:157] Top shape: 8 512 16 16 (1048576)
I0309 23:11:38.928337 12883 net.cpp:157] Top shape: 8 512 16 16 (1048576)
I0309 23:11:38.928342 12883 net.cpp:165] Memory required for data: 7650631876
I0309 23:11:38.928346 12883 layer_factory.hpp:77] Creating layer conv6_2_s
I0309 23:11:38.928352 12883 net.cpp:100] Creating Layer conv6_2_s
I0309 23:11:38.928359 12883 net.cpp:434] conv6_2_s <- conv6_2_t_conv6_2_relu_0_split_0
I0309 23:11:38.928369 12883 net.cpp:408] conv6_2_s -> conv6_2_s
I0309 23:11:38.928875 12883 net.cpp:150] Setting up conv6_2_s
I0309 23:11:38.928886 12883 net.cpp:157] Top shape: 8 512 1 1 (4096)
I0309 23:11:38.928890 12883 net.cpp:165] Memory required for data: 7650648260
I0309 23:11:38.928895 12883 layer_factory.hpp:77] Creating layer conv6_2_fc1
I0309 23:11:38.928905 12883 net.cpp:100] Creating Layer conv6_2_fc1
I0309 23:11:38.928911 12883 net.cpp:434] conv6_2_fc1 <- conv6_2_s
I0309 23:11:38.928920 12883 net.cpp:408] conv6_2_fc1 -> conv6_2_fc1
I0309 23:11:38.930140 12883 net.cpp:150] Setting up conv6_2_fc1
I0309 23:11:38.930151 12883 net.cpp:157] Top shape: 8 128 1 1 (1024)
I0309 23:11:38.930155 12883 net.cpp:165] Memory required for data: 7650652356
I0309 23:11:38.930163 12883 layer_factory.hpp:77] Creating layer conv6_2_relu
I0309 23:11:38.930174 12883 net.cpp:100] Creating Layer conv6_2_relu
I0309 23:11:38.930181 12883 net.cpp:434] conv6_2_relu <- conv6_2_fc1
I0309 23:11:38.930187 12883 net.cpp:395] conv6_2_relu -> conv6_2_fc1 (in-place)
I0309 23:11:38.930343 12883 net.cpp:150] Setting up conv6_2_relu
I0309 23:11:38.930354 12883 net.cpp:157] Top shape: 8 128 1 1 (1024)
I0309 23:11:38.930357 12883 net.cpp:165] Memory required for data: 7650656452
I0309 23:11:38.930362 12883 layer_factory.hpp:77] Creating layer conv6_2_fc2
I0309 23:11:38.930371 12883 net.cpp:100] Creating Layer conv6_2_fc2
I0309 23:11:38.930380 12883 net.cpp:434] conv6_2_fc2 <- conv6_2_fc1
I0309 23:11:38.930387 12883 net.cpp:408] conv6_2_fc2 -> conv6_2_fc2
I0309 23:11:38.931690 12883 net.cpp:150] Setting up conv6_2_fc2
I0309 23:11:38.931702 12883 net.cpp:157] Top shape: 8 512 1 1 (4096)
I0309 23:11:38.931707 12883 net.cpp:165] Memory required for data: 7650672836
I0309 23:11:38.931715 12883 layer_factory.hpp:77] Creating layer conv6_2_sig
I0309 23:11:38.931721 12883 net.cpp:100] Creating Layer conv6_2_sig
I0309 23:11:38.931725 12883 net.cpp:434] conv6_2_sig <- conv6_2_fc2
I0309 23:11:38.931732 12883 net.cpp:395] conv6_2_sig -> conv6_2_fc2 (in-place)
I0309 23:11:38.931879 12883 net.cpp:150] Setting up conv6_2_sig
I0309 23:11:38.931887 12883 net.cpp:157] Top shape: 8 512 1 1 (4096)
I0309 23:11:38.931907 12883 net.cpp:165] Memory required for data: 7650689220
I0309 23:11:38.931913 12883 layer_factory.hpp:77] Creating layer conv6_2_reshape
I0309 23:11:38.931921 12883 net.cpp:100] Creating Layer conv6_2_reshape
I0309 23:11:38.931931 12883 net.cpp:434] conv6_2_reshape <- conv6_2_fc2
I0309 23:11:38.931942 12883 net.cpp:408] conv6_2_reshape -> conv6_2_reshape
I0309 23:11:38.931972 12883 net.cpp:150] Setting up conv6_2_reshape
I0309 23:11:38.931978 12883 net.cpp:157] Top shape: 8 512 (4096)
I0309 23:11:38.931982 12883 net.cpp:165] Memory required for data: 7650705604
I0309 23:11:38.931984 12883 layer_factory.hpp:77] Creating layer conv6_2_scale
I0309 23:11:38.931991 12883 net.cpp:100] Creating Layer conv6_2_scale
I0309 23:11:38.931999 12883 net.cpp:434] conv6_2_scale <- conv6_2_t_conv6_2_relu_0_split_1
I0309 23:11:38.932005 12883 net.cpp:434] conv6_2_scale <- conv6_2_reshape
I0309 23:11:38.932011 12883 net.cpp:408] conv6_2_scale -> conv6_2
I0309 23:11:38.932081 12883 net.cpp:150] Setting up conv6_2_scale
I0309 23:11:38.932090 12883 net.cpp:157] Top shape: 8 512 16 16 (1048576)
I0309 23:11:38.932093 12883 net.cpp:165] Memory required for data: 7654899908
I0309 23:11:38.932099 12883 layer_factory.hpp:77] Creating layer conv6_2_conv6_2_scale_0_split
I0309 23:11:38.932108 12883 net.cpp:100] Creating Layer conv6_2_conv6_2_scale_0_split
I0309 23:11:38.932113 12883 net.cpp:434] conv6_2_conv6_2_scale_0_split <- conv6_2
I0309 23:11:38.932121 12883 net.cpp:408] conv6_2_conv6_2_scale_0_split -> conv6_2_conv6_2_scale_0_split_0
I0309 23:11:38.932135 12883 net.cpp:408] conv6_2_conv6_2_scale_0_split -> conv6_2_conv6_2_scale_0_split_1
I0309 23:11:38.932144 12883 net.cpp:408] conv6_2_conv6_2_scale_0_split -> conv6_2_conv6_2_scale_0_split_2
I0309 23:11:38.932152 12883 net.cpp:408] conv6_2_conv6_2_scale_0_split -> conv6_2_conv6_2_scale_0_split_3
I0309 23:11:38.932217 12883 net.cpp:150] Setting up conv6_2_conv6_2_scale_0_split
I0309 23:11:38.932224 12883 net.cpp:157] Top shape: 8 512 16 16 (1048576)
I0309 23:11:38.932229 12883 net.cpp:157] Top shape: 8 512 16 16 (1048576)
I0309 23:11:38.932234 12883 net.cpp:157] Top shape: 8 512 16 16 (1048576)
I0309 23:11:38.932238 12883 net.cpp:157] Top shape: 8 512 16 16 (1048576)
I0309 23:11:38.932245 12883 net.cpp:165] Memory required for data: 7671677124
I0309 23:11:38.932248 12883 layer_factory.hpp:77] Creating layer conv7_1
I0309 23:11:38.932271 12883 net.cpp:100] Creating Layer conv7_1
I0309 23:11:38.932282 12883 net.cpp:434] conv7_1 <- conv6_2_conv6_2_scale_0_split_0
I0309 23:11:38.932293 12883 net.cpp:408] conv7_1 -> conv7_1
I0309 23:11:38.934425 12883 net.cpp:150] Setting up conv7_1
I0309 23:11:38.934437 12883 net.cpp:157] Top shape: 8 128 16 16 (262144)
I0309 23:11:38.934442 12883 net.cpp:165] Memory required for data: 7672725700
I0309 23:11:38.934448 12883 layer_factory.hpp:77] Creating layer conv7_1_relu
I0309 23:11:38.934455 12883 net.cpp:100] Creating Layer conv7_1_relu
I0309 23:11:38.934460 12883 net.cpp:434] conv7_1_relu <- conv7_1
I0309 23:11:38.934468 12883 net.cpp:395] conv7_1_relu -> conv7_1 (in-place)
I0309 23:11:38.934972 12883 net.cpp:150] Setting up conv7_1_relu
I0309 23:11:38.934983 12883 net.cpp:157] Top shape: 8 128 16 16 (262144)
I0309 23:11:38.934986 12883 net.cpp:165] Memory required for data: 7673774276
I0309 23:11:38.934991 12883 layer_factory.hpp:77] Creating layer conv7_2
I0309 23:11:38.935001 12883 net.cpp:100] Creating Layer conv7_2
I0309 23:11:38.935009 12883 net.cpp:434] conv7_2 <- conv7_1
I0309 23:11:38.935015 12883 net.cpp:408] conv7_2 -> conv7_2_t
I0309 23:11:38.938259 12883 net.cpp:150] Setting up conv7_2
I0309 23:11:38.938271 12883 net.cpp:157] Top shape: 8 256 8 8 (131072)
I0309 23:11:38.938275 12883 net.cpp:165] Memory required for data: 7674298564
I0309 23:11:38.938284 12883 layer_factory.hpp:77] Creating layer conv7_2_relu
I0309 23:11:38.938293 12883 net.cpp:100] Creating Layer conv7_2_relu
I0309 23:11:38.938298 12883 net.cpp:434] conv7_2_relu <- conv7_2_t
I0309 23:11:38.938303 12883 net.cpp:395] conv7_2_relu -> conv7_2_t (in-place)
I0309 23:11:38.938483 12883 net.cpp:150] Setting up conv7_2_relu
I0309 23:11:38.938503 12883 net.cpp:157] Top shape: 8 256 8 8 (131072)
I0309 23:11:38.938508 12883 net.cpp:165] Memory required for data: 7674822852
I0309 23:11:38.938513 12883 layer_factory.hpp:77] Creating layer conv7_2_t_conv7_2_relu_0_split
I0309 23:11:38.938520 12883 net.cpp:100] Creating Layer conv7_2_t_conv7_2_relu_0_split
I0309 23:11:38.938525 12883 net.cpp:434] conv7_2_t_conv7_2_relu_0_split <- conv7_2_t
I0309 23:11:38.938532 12883 net.cpp:408] conv7_2_t_conv7_2_relu_0_split -> conv7_2_t_conv7_2_relu_0_split_0
I0309 23:11:38.938544 12883 net.cpp:408] conv7_2_t_conv7_2_relu_0_split -> conv7_2_t_conv7_2_relu_0_split_1
I0309 23:11:38.938583 12883 net.cpp:150] Setting up conv7_2_t_conv7_2_relu_0_split
I0309 23:11:38.938591 12883 net.cpp:157] Top shape: 8 256 8 8 (131072)
I0309 23:11:38.938594 12883 net.cpp:157] Top shape: 8 256 8 8 (131072)
I0309 23:11:38.938598 12883 net.cpp:165] Memory required for data: 7675871428
I0309 23:11:38.938601 12883 layer_factory.hpp:77] Creating layer conv7_2_s
I0309 23:11:38.938608 12883 net.cpp:100] Creating Layer conv7_2_s
I0309 23:11:38.938612 12883 net.cpp:434] conv7_2_s <- conv7_2_t_conv7_2_relu_0_split_0
I0309 23:11:38.938619 12883 net.cpp:408] conv7_2_s -> conv7_2_s
I0309 23:11:38.938793 12883 net.cpp:150] Setting up conv7_2_s
I0309 23:11:38.938802 12883 net.cpp:157] Top shape: 8 256 1 1 (2048)
I0309 23:11:38.938807 12883 net.cpp:165] Memory required for data: 7675879620
I0309 23:11:38.938810 12883 layer_factory.hpp:77] Creating layer conv7_2_fc1
I0309 23:11:38.938820 12883 net.cpp:100] Creating Layer conv7_2_fc1
I0309 23:11:38.938828 12883 net.cpp:434] conv7_2_fc1 <- conv7_2_s
I0309 23:11:38.938834 12883 net.cpp:408] conv7_2_fc1 -> conv7_2_fc1
I0309 23:11:38.939872 12883 net.cpp:150] Setting up conv7_2_fc1
I0309 23:11:38.939883 12883 net.cpp:157] Top shape: 8 64 1 1 (512)
I0309 23:11:38.939888 12883 net.cpp:165] Memory required for data: 7675881668
I0309 23:11:38.939900 12883 layer_factory.hpp:77] Creating layer conv7_2_relu
I0309 23:11:38.939910 12883 net.cpp:100] Creating Layer conv7_2_relu
I0309 23:11:38.939916 12883 net.cpp:434] conv7_2_relu <- conv7_2_fc1
I0309 23:11:38.939925 12883 net.cpp:395] conv7_2_relu -> conv7_2_fc1 (in-place)
I0309 23:11:38.940402 12883 net.cpp:150] Setting up conv7_2_relu
I0309 23:11:38.940413 12883 net.cpp:157] Top shape: 8 64 1 1 (512)
I0309 23:11:38.940418 12883 net.cpp:165] Memory required for data: 7675883716
I0309 23:11:38.940421 12883 layer_factory.hpp:77] Creating layer conv7_2_fc2
I0309 23:11:38.940433 12883 net.cpp:100] Creating Layer conv7_2_fc2
I0309 23:11:38.940443 12883 net.cpp:434] conv7_2_fc2 <- conv7_2_fc1
I0309 23:11:38.940451 12883 net.cpp:408] conv7_2_fc2 -> conv7_2_fc2
I0309 23:11:38.941885 12883 net.cpp:150] Setting up conv7_2_fc2
I0309 23:11:38.941898 12883 net.cpp:157] Top shape: 8 256 1 1 (2048)
I0309 23:11:38.941902 12883 net.cpp:165] Memory required for data: 7675891908
I0309 23:11:38.941910 12883 layer_factory.hpp:77] Creating layer conv7_2_sig
I0309 23:11:38.941915 12883 net.cpp:100] Creating Layer conv7_2_sig
I0309 23:11:38.941920 12883 net.cpp:434] conv7_2_sig <- conv7_2_fc2
I0309 23:11:38.941926 12883 net.cpp:395] conv7_2_sig -> conv7_2_fc2 (in-place)
I0309 23:11:38.942076 12883 net.cpp:150] Setting up conv7_2_sig
I0309 23:11:38.942085 12883 net.cpp:157] Top shape: 8 256 1 1 (2048)
I0309 23:11:38.942087 12883 net.cpp:165] Memory required for data: 7675900100
I0309 23:11:38.942091 12883 layer_factory.hpp:77] Creating layer conv7_2_reshape
I0309 23:11:38.942098 12883 net.cpp:100] Creating Layer conv7_2_reshape
I0309 23:11:38.942103 12883 net.cpp:434] conv7_2_reshape <- conv7_2_fc2
I0309 23:11:38.942113 12883 net.cpp:408] conv7_2_reshape -> conv7_2_reshape
I0309 23:11:38.942142 12883 net.cpp:150] Setting up conv7_2_reshape
I0309 23:11:38.942148 12883 net.cpp:157] Top shape: 8 256 (2048)
I0309 23:11:38.942152 12883 net.cpp:165] Memory required for data: 7675908292
I0309 23:11:38.942155 12883 layer_factory.hpp:77] Creating layer conv7_2_scale
I0309 23:11:38.942162 12883 net.cpp:100] Creating Layer conv7_2_scale
I0309 23:11:38.942178 12883 net.cpp:434] conv7_2_scale <- conv7_2_t_conv7_2_relu_0_split_1
I0309 23:11:38.942183 12883 net.cpp:434] conv7_2_scale <- conv7_2_reshape
I0309 23:11:38.942189 12883 net.cpp:408] conv7_2_scale -> conv7_2
I0309 23:11:38.942262 12883 net.cpp:150] Setting up conv7_2_scale
I0309 23:11:38.942270 12883 net.cpp:157] Top shape: 8 256 8 8 (131072)
I0309 23:11:38.942272 12883 net.cpp:165] Memory required for data: 7676432580
I0309 23:11:38.942276 12883 layer_factory.hpp:77] Creating layer conv7_2_conv7_2_scale_0_split
I0309 23:11:38.942282 12883 net.cpp:100] Creating Layer conv7_2_conv7_2_scale_0_split
I0309 23:11:38.942286 12883 net.cpp:434] conv7_2_conv7_2_scale_0_split <- conv7_2
I0309 23:11:38.942292 12883 net.cpp:408] conv7_2_conv7_2_scale_0_split -> conv7_2_conv7_2_scale_0_split_0
I0309 23:11:38.942302 12883 net.cpp:408] conv7_2_conv7_2_scale_0_split -> conv7_2_conv7_2_scale_0_split_1
I0309 23:11:38.942317 12883 net.cpp:408] conv7_2_conv7_2_scale_0_split -> conv7_2_conv7_2_scale_0_split_2
I0309 23:11:38.942350 12883 net.cpp:408] conv7_2_conv7_2_scale_0_split -> conv7_2_conv7_2_scale_0_split_3
I0309 23:11:38.942428 12883 net.cpp:150] Setting up conv7_2_conv7_2_scale_0_split
I0309 23:11:38.942441 12883 net.cpp:157] Top shape: 8 256 8 8 (131072)
I0309 23:11:38.942446 12883 net.cpp:157] Top shape: 8 256 8 8 (131072)
I0309 23:11:38.942450 12883 net.cpp:157] Top shape: 8 256 8 8 (131072)
I0309 23:11:38.942453 12883 net.cpp:157] Top shape: 8 256 8 8 (131072)
I0309 23:11:38.942457 12883 net.cpp:165] Memory required for data: 7678529732
I0309 23:11:38.942461 12883 layer_factory.hpp:77] Creating layer conv8_1
I0309 23:11:38.942471 12883 net.cpp:100] Creating Layer conv8_1
I0309 23:11:38.942473 12883 net.cpp:434] conv8_1 <- conv7_2_conv7_2_scale_0_split_0
I0309 23:11:38.942481 12883 net.cpp:408] conv8_1 -> conv8_1
I0309 23:11:38.944380 12883 net.cpp:150] Setting up conv8_1
I0309 23:11:38.944391 12883 net.cpp:157] Top shape: 8 128 8 8 (65536)
I0309 23:11:38.944394 12883 net.cpp:165] Memory required for data: 7678791876
I0309 23:11:38.944401 12883 layer_factory.hpp:77] Creating layer conv8_1_relu
I0309 23:11:38.944408 12883 net.cpp:100] Creating Layer conv8_1_relu
I0309 23:11:38.944413 12883 net.cpp:434] conv8_1_relu <- conv8_1
I0309 23:11:38.944420 12883 net.cpp:395] conv8_1_relu -> conv8_1 (in-place)
I0309 23:11:38.944571 12883 net.cpp:150] Setting up conv8_1_relu
I0309 23:11:38.944579 12883 net.cpp:157] Top shape: 8 128 8 8 (65536)
I0309 23:11:38.944582 12883 net.cpp:165] Memory required for data: 7679054020
I0309 23:11:38.944587 12883 layer_factory.hpp:77] Creating layer conv8_2
I0309 23:11:38.944602 12883 net.cpp:100] Creating Layer conv8_2
I0309 23:11:38.944607 12883 net.cpp:434] conv8_2 <- conv8_1
I0309 23:11:38.944614 12883 net.cpp:408] conv8_2 -> conv8_2_t
I0309 23:11:38.947576 12883 net.cpp:150] Setting up conv8_2
I0309 23:11:38.947588 12883 net.cpp:157] Top shape: 8 256 4 4 (32768)
I0309 23:11:38.947592 12883 net.cpp:165] Memory required for data: 7679185092
I0309 23:11:38.947599 12883 layer_factory.hpp:77] Creating layer conv8_2_relu
I0309 23:11:38.947604 12883 net.cpp:100] Creating Layer conv8_2_relu
I0309 23:11:38.947609 12883 net.cpp:434] conv8_2_relu <- conv8_2_t
I0309 23:11:38.947616 12883 net.cpp:395] conv8_2_relu -> conv8_2_t (in-place)
I0309 23:11:38.947767 12883 net.cpp:150] Setting up conv8_2_relu
I0309 23:11:38.947777 12883 net.cpp:157] Top shape: 8 256 4 4 (32768)
I0309 23:11:38.947779 12883 net.cpp:165] Memory required for data: 7679316164
I0309 23:11:38.947788 12883 layer_factory.hpp:77] Creating layer conv8_2_t_conv8_2_relu_0_split
I0309 23:11:38.947793 12883 net.cpp:100] Creating Layer conv8_2_t_conv8_2_relu_0_split
I0309 23:11:38.947798 12883 net.cpp:434] conv8_2_t_conv8_2_relu_0_split <- conv8_2_t
I0309 23:11:38.947803 12883 net.cpp:408] conv8_2_t_conv8_2_relu_0_split -> conv8_2_t_conv8_2_relu_0_split_0
I0309 23:11:38.947810 12883 net.cpp:408] conv8_2_t_conv8_2_relu_0_split -> conv8_2_t_conv8_2_relu_0_split_1
I0309 23:11:38.947849 12883 net.cpp:150] Setting up conv8_2_t_conv8_2_relu_0_split
I0309 23:11:38.947866 12883 net.cpp:157] Top shape: 8 256 4 4 (32768)
I0309 23:11:38.947871 12883 net.cpp:157] Top shape: 8 256 4 4 (32768)
I0309 23:11:38.947875 12883 net.cpp:165] Memory required for data: 7679578308
I0309 23:11:38.947878 12883 layer_factory.hpp:77] Creating layer conv8_2_s
I0309 23:11:38.947885 12883 net.cpp:100] Creating Layer conv8_2_s
I0309 23:11:38.947892 12883 net.cpp:434] conv8_2_s <- conv8_2_t_conv8_2_relu_0_split_0
I0309 23:11:38.947903 12883 net.cpp:408] conv8_2_s -> conv8_2_s
I0309 23:11:38.948416 12883 net.cpp:150] Setting up conv8_2_s
I0309 23:11:38.948426 12883 net.cpp:157] Top shape: 8 256 1 1 (2048)
I0309 23:11:38.948431 12883 net.cpp:165] Memory required for data: 7679586500
I0309 23:11:38.948434 12883 layer_factory.hpp:77] Creating layer conv8_2_fc1
I0309 23:11:38.948444 12883 net.cpp:100] Creating Layer conv8_2_fc1
I0309 23:11:38.948451 12883 net.cpp:434] conv8_2_fc1 <- conv8_2_s
I0309 23:11:38.948457 12883 net.cpp:408] conv8_2_fc1 -> conv8_2_fc1
I0309 23:11:38.949517 12883 net.cpp:150] Setting up conv8_2_fc1
I0309 23:11:38.949527 12883 net.cpp:157] Top shape: 8 64 1 1 (512)
I0309 23:11:38.949530 12883 net.cpp:165] Memory required for data: 7679588548
I0309 23:11:38.949537 12883 layer_factory.hpp:77] Creating layer conv8_2_relu
I0309 23:11:38.949544 12883 net.cpp:100] Creating Layer conv8_2_relu
I0309 23:11:38.949549 12883 net.cpp:434] conv8_2_relu <- conv8_2_fc1
I0309 23:11:38.949556 12883 net.cpp:395] conv8_2_relu -> conv8_2_fc1 (in-place)
I0309 23:11:38.949707 12883 net.cpp:150] Setting up conv8_2_relu
I0309 23:11:38.949717 12883 net.cpp:157] Top shape: 8 64 1 1 (512)
I0309 23:11:38.949719 12883 net.cpp:165] Memory required for data: 7679590596
I0309 23:11:38.949723 12883 layer_factory.hpp:77] Creating layer conv8_2_fc2
I0309 23:11:38.949744 12883 net.cpp:100] Creating Layer conv8_2_fc2
I0309 23:11:38.949750 12883 net.cpp:434] conv8_2_fc2 <- conv8_2_fc1
I0309 23:11:38.949756 12883 net.cpp:408] conv8_2_fc2 -> conv8_2_fc2
I0309 23:11:38.950831 12883 net.cpp:150] Setting up conv8_2_fc2
I0309 23:11:38.950842 12883 net.cpp:157] Top shape: 8 256 1 1 (2048)
I0309 23:11:38.950846 12883 net.cpp:165] Memory required for data: 7679598788
I0309 23:11:38.950852 12883 layer_factory.hpp:77] Creating layer conv8_2_sig
I0309 23:11:38.950858 12883 net.cpp:100] Creating Layer conv8_2_sig
I0309 23:11:38.950862 12883 net.cpp:434] conv8_2_sig <- conv8_2_fc2
I0309 23:11:38.950868 12883 net.cpp:395] conv8_2_sig -> conv8_2_fc2 (in-place)
I0309 23:11:38.951019 12883 net.cpp:150] Setting up conv8_2_sig
I0309 23:11:38.951026 12883 net.cpp:157] Top shape: 8 256 1 1 (2048)
I0309 23:11:38.951030 12883 net.cpp:165] Memory required for data: 7679606980
I0309 23:11:38.951035 12883 layer_factory.hpp:77] Creating layer conv8_2_reshape
I0309 23:11:38.951041 12883 net.cpp:100] Creating Layer conv8_2_reshape
I0309 23:11:38.951053 12883 net.cpp:434] conv8_2_reshape <- conv8_2_fc2
I0309 23:11:38.951059 12883 net.cpp:408] conv8_2_reshape -> conv8_2_reshape
I0309 23:11:38.951086 12883 net.cpp:150] Setting up conv8_2_reshape
I0309 23:11:38.951092 12883 net.cpp:157] Top shape: 8 256 (2048)
I0309 23:11:38.951097 12883 net.cpp:165] Memory required for data: 7679615172
I0309 23:11:38.951100 12883 layer_factory.hpp:77] Creating layer conv8_2_scale
I0309 23:11:38.951107 12883 net.cpp:100] Creating Layer conv8_2_scale
I0309 23:11:38.951112 12883 net.cpp:434] conv8_2_scale <- conv8_2_t_conv8_2_relu_0_split_1
I0309 23:11:38.951118 12883 net.cpp:434] conv8_2_scale <- conv8_2_reshape
I0309 23:11:38.951123 12883 net.cpp:408] conv8_2_scale -> conv8_2
I0309 23:11:38.951198 12883 net.cpp:150] Setting up conv8_2_scale
I0309 23:11:38.951205 12883 net.cpp:157] Top shape: 8 256 4 4 (32768)
I0309 23:11:38.951210 12883 net.cpp:165] Memory required for data: 7679746244
I0309 23:11:38.951215 12883 layer_factory.hpp:77] Creating layer conv8_2_conv8_2_scale_0_split
I0309 23:11:38.951221 12883 net.cpp:100] Creating Layer conv8_2_conv8_2_scale_0_split
I0309 23:11:38.951227 12883 net.cpp:434] conv8_2_conv8_2_scale_0_split <- conv8_2
I0309 23:11:38.951246 12883 net.cpp:408] conv8_2_conv8_2_scale_0_split -> conv8_2_conv8_2_scale_0_split_0
I0309 23:11:38.951254 12883 net.cpp:408] conv8_2_conv8_2_scale_0_split -> conv8_2_conv8_2_scale_0_split_1
I0309 23:11:38.951263 12883 net.cpp:408] conv8_2_conv8_2_scale_0_split -> conv8_2_conv8_2_scale_0_split_2
I0309 23:11:38.951277 12883 net.cpp:408] conv8_2_conv8_2_scale_0_split -> conv8_2_conv8_2_scale_0_split_3
I0309 23:11:38.951333 12883 net.cpp:150] Setting up conv8_2_conv8_2_scale_0_split
I0309 23:11:38.951344 12883 net.cpp:157] Top shape: 8 256 4 4 (32768)
I0309 23:11:38.951371 12883 net.cpp:157] Top shape: 8 256 4 4 (32768)
I0309 23:11:38.951376 12883 net.cpp:157] Top shape: 8 256 4 4 (32768)
I0309 23:11:38.951383 12883 net.cpp:157] Top shape: 8 256 4 4 (32768)
I0309 23:11:38.951388 12883 net.cpp:165] Memory required for data: 7680270532
I0309 23:11:38.951396 12883 layer_factory.hpp:77] Creating layer conv9_1
I0309 23:11:38.951407 12883 net.cpp:100] Creating Layer conv9_1
I0309 23:11:38.951414 12883 net.cpp:434] conv9_1 <- conv8_2_conv8_2_scale_0_split_0
I0309 23:11:38.951422 12883 net.cpp:408] conv9_1 -> conv9_1
I0309 23:11:38.952589 12883 net.cpp:150] Setting up conv9_1
I0309 23:11:38.952600 12883 net.cpp:157] Top shape: 8 128 4 4 (16384)
I0309 23:11:38.952605 12883 net.cpp:165] Memory required for data: 7680336068
I0309 23:11:38.952611 12883 layer_factory.hpp:77] Creating layer conv9_1_relu
I0309 23:11:38.952621 12883 net.cpp:100] Creating Layer conv9_1_relu
I0309 23:11:38.952627 12883 net.cpp:434] conv9_1_relu <- conv9_1
I0309 23:11:38.952637 12883 net.cpp:395] conv9_1_relu -> conv9_1 (in-place)
I0309 23:11:38.953152 12883 net.cpp:150] Setting up conv9_1_relu
I0309 23:11:38.953164 12883 net.cpp:157] Top shape: 8 128 4 4 (16384)
I0309 23:11:38.953168 12883 net.cpp:165] Memory required for data: 7680401604
I0309 23:11:38.953171 12883 layer_factory.hpp:77] Creating layer conv9_2
I0309 23:11:38.953181 12883 net.cpp:100] Creating Layer conv9_2
I0309 23:11:38.953192 12883 net.cpp:434] conv9_2 <- conv9_1
I0309 23:11:38.953202 12883 net.cpp:408] conv9_2 -> conv9_2_t
I0309 23:11:38.956238 12883 net.cpp:150] Setting up conv9_2
I0309 23:11:38.956249 12883 net.cpp:157] Top shape: 8 256 2 2 (8192)
I0309 23:11:38.956254 12883 net.cpp:165] Memory required for data: 7680434372
I0309 23:11:38.956262 12883 layer_factory.hpp:77] Creating layer conv9_2_relu
I0309 23:11:38.956271 12883 net.cpp:100] Creating Layer conv9_2_relu
I0309 23:11:38.956279 12883 net.cpp:434] conv9_2_relu <- conv9_2_t
I0309 23:11:38.956288 12883 net.cpp:395] conv9_2_relu -> conv9_2_t (in-place)
I0309 23:11:38.956454 12883 net.cpp:150] Setting up conv9_2_relu
I0309 23:11:38.956463 12883 net.cpp:157] Top shape: 8 256 2 2 (8192)
I0309 23:11:38.956473 12883 net.cpp:165] Memory required for data: 7680467140
I0309 23:11:38.956480 12883 layer_factory.hpp:77] Creating layer conv9_2_t_conv9_2_relu_0_split
I0309 23:11:38.956486 12883 net.cpp:100] Creating Layer conv9_2_t_conv9_2_relu_0_split
I0309 23:11:38.956490 12883 net.cpp:434] conv9_2_t_conv9_2_relu_0_split <- conv9_2_t
I0309 23:11:38.956498 12883 net.cpp:408] conv9_2_t_conv9_2_relu_0_split -> conv9_2_t_conv9_2_relu_0_split_0
I0309 23:11:38.956507 12883 net.cpp:408] conv9_2_t_conv9_2_relu_0_split -> conv9_2_t_conv9_2_relu_0_split_1
I0309 23:11:38.956549 12883 net.cpp:150] Setting up conv9_2_t_conv9_2_relu_0_split
I0309 23:11:38.956557 12883 net.cpp:157] Top shape: 8 256 2 2 (8192)
I0309 23:11:38.956560 12883 net.cpp:157] Top shape: 8 256 2 2 (8192)
I0309 23:11:38.956564 12883 net.cpp:165] Memory required for data: 7680532676
I0309 23:11:38.956570 12883 layer_factory.hpp:77] Creating layer conv9_2_s
I0309 23:11:38.956580 12883 net.cpp:100] Creating Layer conv9_2_s
I0309 23:11:38.956586 12883 net.cpp:434] conv9_2_s <- conv9_2_t_conv9_2_relu_0_split_0
I0309 23:11:38.956598 12883 net.cpp:408] conv9_2_s -> conv9_2_s
I0309 23:11:38.956789 12883 net.cpp:150] Setting up conv9_2_s
I0309 23:11:38.956799 12883 net.cpp:157] Top shape: 8 256 1 1 (2048)
I0309 23:11:38.956801 12883 net.cpp:165] Memory required for data: 7680540868
I0309 23:11:38.956820 12883 layer_factory.hpp:77] Creating layer conv9_2_fc1
I0309 23:11:38.956831 12883 net.cpp:100] Creating Layer conv9_2_fc1
I0309 23:11:38.956838 12883 net.cpp:434] conv9_2_fc1 <- conv9_2_s
I0309 23:11:38.956845 12883 net.cpp:408] conv9_2_fc1 -> conv9_2_fc1
I0309 23:11:38.957962 12883 net.cpp:150] Setting up conv9_2_fc1
I0309 23:11:38.957973 12883 net.cpp:157] Top shape: 8 64 1 1 (512)
I0309 23:11:38.957976 12883 net.cpp:165] Memory required for data: 7680542916
I0309 23:11:38.957984 12883 layer_factory.hpp:77] Creating layer conv9_2_relu
I0309 23:11:38.957991 12883 net.cpp:100] Creating Layer conv9_2_relu
I0309 23:11:38.957995 12883 net.cpp:434] conv9_2_relu <- conv9_2_fc1
I0309 23:11:38.958001 12883 net.cpp:395] conv9_2_relu -> conv9_2_fc1 (in-place)
I0309 23:11:38.958526 12883 net.cpp:150] Setting up conv9_2_relu
I0309 23:11:38.958539 12883 net.cpp:157] Top shape: 8 64 1 1 (512)
I0309 23:11:38.958544 12883 net.cpp:165] Memory required for data: 7680544964
I0309 23:11:38.958546 12883 layer_factory.hpp:77] Creating layer conv9_2_fc2
I0309 23:11:38.958559 12883 net.cpp:100] Creating Layer conv9_2_fc2
I0309 23:11:38.958564 12883 net.cpp:434] conv9_2_fc2 <- conv9_2_fc1
I0309 23:11:38.958572 12883 net.cpp:408] conv9_2_fc2 -> conv9_2_fc2
I0309 23:11:38.959727 12883 net.cpp:150] Setting up conv9_2_fc2
I0309 23:11:38.959738 12883 net.cpp:157] Top shape: 8 256 1 1 (2048)
I0309 23:11:38.959743 12883 net.cpp:165] Memory required for data: 7680553156
I0309 23:11:38.959749 12883 layer_factory.hpp:77] Creating layer conv9_2_sig
I0309 23:11:38.959758 12883 net.cpp:100] Creating Layer conv9_2_sig
I0309 23:11:38.959764 12883 net.cpp:434] conv9_2_sig <- conv9_2_fc2
I0309 23:11:38.959770 12883 net.cpp:395] conv9_2_sig -> conv9_2_fc2 (in-place)
I0309 23:11:38.959936 12883 net.cpp:150] Setting up conv9_2_sig
I0309 23:11:38.959945 12883 net.cpp:157] Top shape: 8 256 1 1 (2048)
I0309 23:11:38.959949 12883 net.cpp:165] Memory required for data: 7680561348
I0309 23:11:38.959954 12883 layer_factory.hpp:77] Creating layer conv9_2_reshape
I0309 23:11:38.959966 12883 net.cpp:100] Creating Layer conv9_2_reshape
I0309 23:11:38.959972 12883 net.cpp:434] conv9_2_reshape <- conv9_2_fc2
I0309 23:11:38.959980 12883 net.cpp:408] conv9_2_reshape -> conv9_2_reshape
I0309 23:11:38.960011 12883 net.cpp:150] Setting up conv9_2_reshape
I0309 23:11:38.960017 12883 net.cpp:157] Top shape: 8 256 (2048)
I0309 23:11:38.960021 12883 net.cpp:165] Memory required for data: 7680569540
I0309 23:11:38.960024 12883 layer_factory.hpp:77] Creating layer conv9_2_scale
I0309 23:11:38.960044 12883 net.cpp:100] Creating Layer conv9_2_scale
I0309 23:11:38.960052 12883 net.cpp:434] conv9_2_scale <- conv9_2_t_conv9_2_relu_0_split_1
I0309 23:11:38.960058 12883 net.cpp:434] conv9_2_scale <- conv9_2_reshape
I0309 23:11:38.960067 12883 net.cpp:408] conv9_2_scale -> conv9_2
I0309 23:11:38.960145 12883 net.cpp:150] Setting up conv9_2_scale
I0309 23:11:38.960153 12883 net.cpp:157] Top shape: 8 256 2 2 (8192)
I0309 23:11:38.960156 12883 net.cpp:165] Memory required for data: 7680602308
I0309 23:11:38.960160 12883 layer_factory.hpp:77] Creating layer conv9_2_conv9_2_scale_0_split
I0309 23:11:38.960168 12883 net.cpp:100] Creating Layer conv9_2_conv9_2_scale_0_split
I0309 23:11:38.960176 12883 net.cpp:434] conv9_2_conv9_2_scale_0_split <- conv9_2
I0309 23:11:38.960191 12883 net.cpp:408] conv9_2_conv9_2_scale_0_split -> conv9_2_conv9_2_scale_0_split_0
I0309 23:11:38.960208 12883 net.cpp:408] conv9_2_conv9_2_scale_0_split -> conv9_2_conv9_2_scale_0_split_1
I0309 23:11:38.960227 12883 net.cpp:408] conv9_2_conv9_2_scale_0_split -> conv9_2_conv9_2_scale_0_split_2
I0309 23:11:38.960237 12883 net.cpp:408] conv9_2_conv9_2_scale_0_split -> conv9_2_conv9_2_scale_0_split_3
I0309 23:11:38.960305 12883 net.cpp:150] Setting up conv9_2_conv9_2_scale_0_split
I0309 23:11:38.960315 12883 net.cpp:157] Top shape: 8 256 2 2 (8192)
I0309 23:11:38.960321 12883 net.cpp:157] Top shape: 8 256 2 2 (8192)
I0309 23:11:38.960326 12883 net.cpp:157] Top shape: 8 256 2 2 (8192)
I0309 23:11:38.960345 12883 net.cpp:157] Top shape: 8 256 2 2 (8192)
I0309 23:11:38.960348 12883 net.cpp:165] Memory required for data: 7680733380
I0309 23:11:38.960351 12883 layer_factory.hpp:77] Creating layer conv10_1
I0309 23:11:38.960366 12883 net.cpp:100] Creating Layer conv10_1
I0309 23:11:38.960373 12883 net.cpp:434] conv10_1 <- conv9_2_conv9_2_scale_0_split_0
I0309 23:11:38.960381 12883 net.cpp:408] conv10_1 -> conv10_1
I0309 23:11:38.961570 12883 net.cpp:150] Setting up conv10_1
I0309 23:11:38.961580 12883 net.cpp:157] Top shape: 8 128 2 2 (4096)
I0309 23:11:38.961585 12883 net.cpp:165] Memory required for data: 7680749764
I0309 23:11:38.961591 12883 layer_factory.hpp:77] Creating layer conv10_1_relu
I0309 23:11:38.961599 12883 net.cpp:100] Creating Layer conv10_1_relu
I0309 23:11:38.961617 12883 net.cpp:434] conv10_1_relu <- conv10_1
I0309 23:11:38.961629 12883 net.cpp:395] conv10_1_relu -> conv10_1 (in-place)
I0309 23:11:38.961803 12883 net.cpp:150] Setting up conv10_1_relu
I0309 23:11:38.961813 12883 net.cpp:157] Top shape: 8 128 2 2 (4096)
I0309 23:11:38.961817 12883 net.cpp:165] Memory required for data: 7680766148
I0309 23:11:38.961822 12883 layer_factory.hpp:77] Creating layer conv10_2
I0309 23:11:38.961829 12883 net.cpp:100] Creating Layer conv10_2
I0309 23:11:38.961838 12883 net.cpp:434] conv10_2 <- conv10_1
I0309 23:11:38.961844 12883 net.cpp:408] conv10_2 -> conv10_2_t
I0309 23:11:38.965785 12883 net.cpp:150] Setting up conv10_2
I0309 23:11:38.965795 12883 net.cpp:157] Top shape: 8 256 1 1 (2048)
I0309 23:11:38.965802 12883 net.cpp:165] Memory required for data: 7680774340
I0309 23:11:38.965811 12883 layer_factory.hpp:77] Creating layer conv10_2_relu
I0309 23:11:38.965816 12883 net.cpp:100] Creating Layer conv10_2_relu
I0309 23:11:38.965822 12883 net.cpp:434] conv10_2_relu <- conv10_2_t
I0309 23:11:38.965831 12883 net.cpp:395] conv10_2_relu -> conv10_2_t (in-place)
I0309 23:11:38.965999 12883 net.cpp:150] Setting up conv10_2_relu
I0309 23:11:38.966013 12883 net.cpp:157] Top shape: 8 256 1 1 (2048)
I0309 23:11:38.966018 12883 net.cpp:165] Memory required for data: 7680782532
I0309 23:11:38.966027 12883 layer_factory.hpp:77] Creating layer conv10_2_t_conv10_2_relu_0_split
I0309 23:11:38.966034 12883 net.cpp:100] Creating Layer conv10_2_t_conv10_2_relu_0_split
I0309 23:11:38.966040 12883 net.cpp:434] conv10_2_t_conv10_2_relu_0_split <- conv10_2_t
I0309 23:11:38.966048 12883 net.cpp:408] conv10_2_t_conv10_2_relu_0_split -> conv10_2_t_conv10_2_relu_0_split_0
I0309 23:11:38.966055 12883 net.cpp:408] conv10_2_t_conv10_2_relu_0_split -> conv10_2_t_conv10_2_relu_0_split_1
I0309 23:11:38.966099 12883 net.cpp:150] Setting up conv10_2_t_conv10_2_relu_0_split
I0309 23:11:38.966106 12883 net.cpp:157] Top shape: 8 256 1 1 (2048)
I0309 23:11:38.966109 12883 net.cpp:157] Top shape: 8 256 1 1 (2048)
I0309 23:11:38.966116 12883 net.cpp:165] Memory required for data: 7680798916
I0309 23:11:38.966122 12883 layer_factory.hpp:77] Creating layer conv10_2_s
I0309 23:11:38.966130 12883 net.cpp:100] Creating Layer conv10_2_s
I0309 23:11:38.966142 12883 net.cpp:434] conv10_2_s <- conv10_2_t_conv10_2_relu_0_split_0
I0309 23:11:38.966156 12883 net.cpp:408] conv10_2_s -> conv10_2_s
I0309 23:11:38.966711 12883 net.cpp:150] Setting up conv10_2_s
I0309 23:11:38.966722 12883 net.cpp:157] Top shape: 8 256 1 1 (2048)
I0309 23:11:38.966727 12883 net.cpp:165] Memory required for data: 7680807108
I0309 23:11:38.966732 12883 layer_factory.hpp:77] Creating layer conv10_2_fc1
I0309 23:11:38.966740 12883 net.cpp:100] Creating Layer conv10_2_fc1
I0309 23:11:38.966747 12883 net.cpp:434] conv10_2_fc1 <- conv10_2_s
I0309 23:11:38.966754 12883 net.cpp:408] conv10_2_fc1 -> conv10_2_fc1
I0309 23:11:38.967916 12883 net.cpp:150] Setting up conv10_2_fc1
I0309 23:11:38.967927 12883 net.cpp:157] Top shape: 8 64 1 1 (512)
I0309 23:11:38.967931 12883 net.cpp:165] Memory required for data: 7680809156
I0309 23:11:38.967941 12883 layer_factory.hpp:77] Creating layer conv10_2_relu
I0309 23:11:38.967952 12883 net.cpp:100] Creating Layer conv10_2_relu
I0309 23:11:38.967978 12883 net.cpp:434] conv10_2_relu <- conv10_2_fc1
I0309 23:11:38.967986 12883 net.cpp:395] conv10_2_relu -> conv10_2_fc1 (in-place)
I0309 23:11:38.968169 12883 net.cpp:150] Setting up conv10_2_relu
I0309 23:11:38.968179 12883 net.cpp:157] Top shape: 8 64 1 1 (512)
I0309 23:11:38.968183 12883 net.cpp:165] Memory required for data: 7680811204
I0309 23:11:38.968186 12883 layer_factory.hpp:77] Creating layer conv10_2_fc2
I0309 23:11:38.968195 12883 net.cpp:100] Creating Layer conv10_2_fc2
I0309 23:11:38.968200 12883 net.cpp:434] conv10_2_fc2 <- conv10_2_fc1
I0309 23:11:38.968207 12883 net.cpp:408] conv10_2_fc2 -> conv10_2_fc2
I0309 23:11:38.969353 12883 net.cpp:150] Setting up conv10_2_fc2
I0309 23:11:38.969364 12883 net.cpp:157] Top shape: 8 256 1 1 (2048)
I0309 23:11:38.969369 12883 net.cpp:165] Memory required for data: 7680819396
I0309 23:11:38.969377 12883 layer_factory.hpp:77] Creating layer conv10_2_sig
I0309 23:11:38.969385 12883 net.cpp:100] Creating Layer conv10_2_sig
I0309 23:11:38.969391 12883 net.cpp:434] conv10_2_sig <- conv10_2_fc2
I0309 23:11:38.969398 12883 net.cpp:395] conv10_2_sig -> conv10_2_fc2 (in-place)
I0309 23:11:38.969568 12883 net.cpp:150] Setting up conv10_2_sig
I0309 23:11:38.969583 12883 net.cpp:157] Top shape: 8 256 1 1 (2048)
I0309 23:11:38.969585 12883 net.cpp:165] Memory required for data: 7680827588
I0309 23:11:38.969589 12883 layer_factory.hpp:77] Creating layer conv10_2_reshape
I0309 23:11:38.969599 12883 net.cpp:100] Creating Layer conv10_2_reshape
I0309 23:11:38.969604 12883 net.cpp:434] conv10_2_reshape <- conv10_2_fc2
I0309 23:11:38.969610 12883 net.cpp:408] conv10_2_reshape -> conv10_2_reshape
I0309 23:11:38.969640 12883 net.cpp:150] Setting up conv10_2_reshape
I0309 23:11:38.969646 12883 net.cpp:157] Top shape: 8 256 (2048)
I0309 23:11:38.969650 12883 net.cpp:165] Memory required for data: 7680835780
I0309 23:11:38.969653 12883 layer_factory.hpp:77] Creating layer conv10_2_scale
I0309 23:11:38.969662 12883 net.cpp:100] Creating Layer conv10_2_scale
I0309 23:11:38.969668 12883 net.cpp:434] conv10_2_scale <- conv10_2_t_conv10_2_relu_0_split_1
I0309 23:11:38.969674 12883 net.cpp:434] conv10_2_scale <- conv10_2_reshape
I0309 23:11:38.969682 12883 net.cpp:408] conv10_2_scale -> conv10_2
I0309 23:11:38.969763 12883 net.cpp:150] Setting up conv10_2_scale
I0309 23:11:38.969769 12883 net.cpp:157] Top shape: 8 256 1 1 (2048)
I0309 23:11:38.969774 12883 net.cpp:165] Memory required for data: 7680843972
I0309 23:11:38.969777 12883 layer_factory.hpp:77] Creating layer conv10_2_conv10_2_scale_0_split
I0309 23:11:38.969784 12883 net.cpp:100] Creating Layer conv10_2_conv10_2_scale_0_split
I0309 23:11:38.969789 12883 net.cpp:434] conv10_2_conv10_2_scale_0_split <- conv10_2
I0309 23:11:38.969799 12883 net.cpp:408] conv10_2_conv10_2_scale_0_split -> conv10_2_conv10_2_scale_0_split_0
I0309 23:11:38.969828 12883 net.cpp:408] conv10_2_conv10_2_scale_0_split -> conv10_2_conv10_2_scale_0_split_1
I0309 23:11:38.969846 12883 net.cpp:408] conv10_2_conv10_2_scale_0_split -> conv10_2_conv10_2_scale_0_split_2
I0309 23:11:38.969907 12883 net.cpp:150] Setting up conv10_2_conv10_2_scale_0_split
I0309 23:11:38.969916 12883 net.cpp:157] Top shape: 8 256 1 1 (2048)
I0309 23:11:38.969920 12883 net.cpp:157] Top shape: 8 256 1 1 (2048)
I0309 23:11:38.969928 12883 net.cpp:157] Top shape: 8 256 1 1 (2048)
I0309 23:11:38.969936 12883 net.cpp:165] Memory required for data: 7680868548
I0309 23:11:38.969941 12883 layer_factory.hpp:77] Creating layer conv4_3_norm
I0309 23:11:38.969956 12883 net.cpp:100] Creating Layer conv4_3_norm
I0309 23:11:38.969966 12883 net.cpp:434] conv4_3_norm <- conv4_3_conv4_3_scale_0_split_1
I0309 23:11:38.969977 12883 net.cpp:408] conv4_3_norm -> conv4_3_norm
I0309 23:11:38.970135 12883 net.cpp:150] Setting up conv4_3_norm
I0309 23:11:38.970142 12883 net.cpp:157] Top shape: 8 512 64 64 (16777216)
I0309 23:11:38.970146 12883 net.cpp:165] Memory required for data: 7747977412
I0309 23:11:38.970155 12883 layer_factory.hpp:77] Creating layer conv4_3_norm_conv4_3_norm_0_split
I0309 23:11:38.970171 12883 net.cpp:100] Creating Layer conv4_3_norm_conv4_3_norm_0_split
I0309 23:11:38.970176 12883 net.cpp:434] conv4_3_norm_conv4_3_norm_0_split <- conv4_3_norm
I0309 23:11:38.970185 12883 net.cpp:408] conv4_3_norm_conv4_3_norm_0_split -> conv4_3_norm_conv4_3_norm_0_split_0
I0309 23:11:38.970193 12883 net.cpp:408] conv4_3_norm_conv4_3_norm_0_split -> conv4_3_norm_conv4_3_norm_0_split_1
I0309 23:11:38.970201 12883 net.cpp:408] conv4_3_norm_conv4_3_norm_0_split -> conv4_3_norm_conv4_3_norm_0_split_2
I0309 23:11:38.970247 12883 net.cpp:150] Setting up conv4_3_norm_conv4_3_norm_0_split
I0309 23:11:38.970257 12883 net.cpp:157] Top shape: 8 512 64 64 (16777216)
I0309 23:11:38.970264 12883 net.cpp:157] Top shape: 8 512 64 64 (16777216)
I0309 23:11:38.970274 12883 net.cpp:157] Top shape: 8 512 64 64 (16777216)
I0309 23:11:38.970281 12883 net.cpp:165] Memory required for data: 7949304004
I0309 23:11:38.970289 12883 layer_factory.hpp:77] Creating layer conv4_3_norm_mbox_loc
I0309 23:11:38.970300 12883 net.cpp:100] Creating Layer conv4_3_norm_mbox_loc
I0309 23:11:38.970309 12883 net.cpp:434] conv4_3_norm_mbox_loc <- conv4_3_norm_conv4_3_norm_0_split_0
I0309 23:11:38.970316 12883 net.cpp:408] conv4_3_norm_mbox_loc -> conv4_3_norm_mbox_loc
I0309 23:11:38.972051 12883 net.cpp:150] Setting up conv4_3_norm_mbox_loc
I0309 23:11:38.972062 12883 net.cpp:157] Top shape: 8 16 64 64 (524288)
I0309 23:11:38.972066 12883 net.cpp:165] Memory required for data: 7951401156
I0309 23:11:38.972074 12883 layer_factory.hpp:77] Creating layer conv4_3_norm_mbox_loc_perm
I0309 23:11:38.972084 12883 net.cpp:100] Creating Layer conv4_3_norm_mbox_loc_perm
I0309 23:11:38.972090 12883 net.cpp:434] conv4_3_norm_mbox_loc_perm <- conv4_3_norm_mbox_loc
I0309 23:11:38.972095 12883 net.cpp:408] conv4_3_norm_mbox_loc_perm -> conv4_3_norm_mbox_loc_perm
I0309 23:11:38.972201 12883 net.cpp:150] Setting up conv4_3_norm_mbox_loc_perm
I0309 23:11:38.972213 12883 net.cpp:157] Top shape: 8 64 64 16 (524288)
I0309 23:11:38.972219 12883 net.cpp:165] Memory required for data: 7953498308
I0309 23:11:38.972231 12883 layer_factory.hpp:77] Creating layer conv4_3_norm_mbox_loc_flat
I0309 23:11:38.972242 12883 net.cpp:100] Creating Layer conv4_3_norm_mbox_loc_flat
I0309 23:11:38.972246 12883 net.cpp:434] conv4_3_norm_mbox_loc_flat <- conv4_3_norm_mbox_loc_perm
I0309 23:11:38.972252 12883 net.cpp:408] conv4_3_norm_mbox_loc_flat -> conv4_3_norm_mbox_loc_flat
I0309 23:11:38.972280 12883 net.cpp:150] Setting up conv4_3_norm_mbox_loc_flat
I0309 23:11:38.972286 12883 net.cpp:157] Top shape: 8 65536 (524288)
I0309 23:11:38.972291 12883 net.cpp:165] Memory required for data: 7955595460
I0309 23:11:38.972295 12883 layer_factory.hpp:77] Creating layer conv4_3_norm_mbox_conf
I0309 23:11:38.972309 12883 net.cpp:100] Creating Layer conv4_3_norm_mbox_conf
I0309 23:11:38.972331 12883 net.cpp:434] conv4_3_norm_mbox_conf <- conv4_3_norm_conv4_3_norm_0_split_1
I0309 23:11:38.972339 12883 net.cpp:408] conv4_3_norm_mbox_conf -> conv4_3_norm_mbox_conf
I0309 23:11:38.976104 12883 net.cpp:150] Setting up conv4_3_norm_mbox_conf
I0309 23:11:38.976116 12883 net.cpp:157] Top shape: 8 84 64 64 (2752512)
I0309 23:11:38.976120 12883 net.cpp:165] Memory required for data: 7966605508
I0309 23:11:38.976128 12883 layer_factory.hpp:77] Creating layer conv4_3_norm_mbox_conf_perm
I0309 23:11:38.976140 12883 net.cpp:100] Creating Layer conv4_3_norm_mbox_conf_perm
I0309 23:11:38.976145 12883 net.cpp:434] conv4_3_norm_mbox_conf_perm <- conv4_3_norm_mbox_conf
I0309 23:11:38.976150 12883 net.cpp:408] conv4_3_norm_mbox_conf_perm -> conv4_3_norm_mbox_conf_perm
I0309 23:11:38.976269 12883 net.cpp:150] Setting up conv4_3_norm_mbox_conf_perm
I0309 23:11:38.976279 12883 net.cpp:157] Top shape: 8 64 64 84 (2752512)
I0309 23:11:38.976282 12883 net.cpp:165] Memory required for data: 7977615556
I0309 23:11:38.976286 12883 layer_factory.hpp:77] Creating layer conv4_3_norm_mbox_conf_flat
I0309 23:11:38.976297 12883 net.cpp:100] Creating Layer conv4_3_norm_mbox_conf_flat
I0309 23:11:38.976302 12883 net.cpp:434] conv4_3_norm_mbox_conf_flat <- conv4_3_norm_mbox_conf_perm
I0309 23:11:38.976320 12883 net.cpp:408] conv4_3_norm_mbox_conf_flat -> conv4_3_norm_mbox_conf_flat
I0309 23:11:38.976354 12883 net.cpp:150] Setting up conv4_3_norm_mbox_conf_flat
I0309 23:11:38.976362 12883 net.cpp:157] Top shape: 8 344064 (2752512)
I0309 23:11:38.976367 12883 net.cpp:165] Memory required for data: 7988625604
I0309 23:11:38.976372 12883 layer_factory.hpp:77] Creating layer conv4_3_norm_mbox_priorbox
I0309 23:11:38.976382 12883 net.cpp:100] Creating Layer conv4_3_norm_mbox_priorbox
I0309 23:11:38.976387 12883 net.cpp:434] conv4_3_norm_mbox_priorbox <- conv4_3_norm_conv4_3_norm_0_split_2
I0309 23:11:38.976392 12883 net.cpp:434] conv4_3_norm_mbox_priorbox <- data_data_0_split_1
I0309 23:11:38.976405 12883 net.cpp:408] conv4_3_norm_mbox_priorbox -> conv4_3_norm_mbox_priorbox
I0309 23:11:38.976449 12883 net.cpp:150] Setting up conv4_3_norm_mbox_priorbox
I0309 23:11:38.976460 12883 net.cpp:157] Top shape: 1 2 65536 (131072)
I0309 23:11:38.976464 12883 net.cpp:165] Memory required for data: 7989149892
I0309 23:11:38.976467 12883 layer_factory.hpp:77] Creating layer fc7_mbox_loc
I0309 23:11:38.976480 12883 net.cpp:100] Creating Layer fc7_mbox_loc
I0309 23:11:38.976487 12883 net.cpp:434] fc7_mbox_loc <- fc7_fc7_scale_0_split_1
I0309 23:11:38.976493 12883 net.cpp:408] fc7_mbox_loc -> fc7_mbox_loc
I0309 23:11:38.978801 12883 net.cpp:150] Setting up fc7_mbox_loc
I0309 23:11:38.978812 12883 net.cpp:157] Top shape: 8 24 32 32 (196608)
I0309 23:11:38.978816 12883 net.cpp:165] Memory required for data: 7989936324
I0309 23:11:38.978822 12883 layer_factory.hpp:77] Creating layer fc7_mbox_loc_perm
I0309 23:11:38.978829 12883 net.cpp:100] Creating Layer fc7_mbox_loc_perm
I0309 23:11:38.978835 12883 net.cpp:434] fc7_mbox_loc_perm <- fc7_mbox_loc
I0309 23:11:38.978842 12883 net.cpp:408] fc7_mbox_loc_perm -> fc7_mbox_loc_perm
I0309 23:11:38.978958 12883 net.cpp:150] Setting up fc7_mbox_loc_perm
I0309 23:11:38.978965 12883 net.cpp:157] Top shape: 8 32 32 24 (196608)
I0309 23:11:38.978969 12883 net.cpp:165] Memory required for data: 7990722756
I0309 23:11:38.978973 12883 layer_factory.hpp:77] Creating layer fc7_mbox_loc_flat
I0309 23:11:38.978981 12883 net.cpp:100] Creating Layer fc7_mbox_loc_flat
I0309 23:11:38.978989 12883 net.cpp:434] fc7_mbox_loc_flat <- fc7_mbox_loc_perm
I0309 23:11:38.978997 12883 net.cpp:408] fc7_mbox_loc_flat -> fc7_mbox_loc_flat
I0309 23:11:38.979027 12883 net.cpp:150] Setting up fc7_mbox_loc_flat
I0309 23:11:38.979034 12883 net.cpp:157] Top shape: 8 24576 (196608)
I0309 23:11:38.979038 12883 net.cpp:165] Memory required for data: 7991509188
I0309 23:11:38.979041 12883 layer_factory.hpp:77] Creating layer fc7_mbox_conf
I0309 23:11:38.979053 12883 net.cpp:100] Creating Layer fc7_mbox_conf
I0309 23:11:38.979059 12883 net.cpp:434] fc7_mbox_conf <- fc7_fc7_scale_0_split_2
I0309 23:11:38.979066 12883 net.cpp:408] fc7_mbox_conf -> fc7_mbox_conf
I0309 23:11:38.986693 12883 net.cpp:150] Setting up fc7_mbox_conf
I0309 23:11:38.986707 12883 net.cpp:157] Top shape: 8 126 32 32 (1032192)
I0309 23:11:38.986711 12883 net.cpp:165] Memory required for data: 7995637956
I0309 23:11:38.986717 12883 layer_factory.hpp:77] Creating layer fc7_mbox_conf_perm
I0309 23:11:38.986728 12883 net.cpp:100] Creating Layer fc7_mbox_conf_perm
I0309 23:11:38.986733 12883 net.cpp:434] fc7_mbox_conf_perm <- fc7_mbox_conf
I0309 23:11:38.986739 12883 net.cpp:408] fc7_mbox_conf_perm -> fc7_mbox_conf_perm
I0309 23:11:38.986843 12883 net.cpp:150] Setting up fc7_mbox_conf_perm
I0309 23:11:38.986852 12883 net.cpp:157] Top shape: 8 32 32 126 (1032192)
I0309 23:11:38.986858 12883 net.cpp:165] Memory required for data: 7999766724
I0309 23:11:38.986865 12883 layer_factory.hpp:77] Creating layer fc7_mbox_conf_flat
I0309 23:11:38.986877 12883 net.cpp:100] Creating Layer fc7_mbox_conf_flat
I0309 23:11:38.986888 12883 net.cpp:434] fc7_mbox_conf_flat <- fc7_mbox_conf_perm
I0309 23:11:38.986896 12883 net.cpp:408] fc7_mbox_conf_flat -> fc7_mbox_conf_flat
I0309 23:11:38.986929 12883 net.cpp:150] Setting up fc7_mbox_conf_flat
I0309 23:11:38.986950 12883 net.cpp:157] Top shape: 8 129024 (1032192)
I0309 23:11:38.986956 12883 net.cpp:165] Memory required for data: 8003895492
I0309 23:11:38.986964 12883 layer_factory.hpp:77] Creating layer fc7_mbox_priorbox
I0309 23:11:38.986979 12883 net.cpp:100] Creating Layer fc7_mbox_priorbox
I0309 23:11:38.986986 12883 net.cpp:434] fc7_mbox_priorbox <- fc7_fc7_scale_0_split_3
I0309 23:11:38.986991 12883 net.cpp:434] fc7_mbox_priorbox <- data_data_0_split_2
I0309 23:11:38.987000 12883 net.cpp:408] fc7_mbox_priorbox -> fc7_mbox_priorbox
I0309 23:11:38.987042 12883 net.cpp:150] Setting up fc7_mbox_priorbox
I0309 23:11:38.987051 12883 net.cpp:157] Top shape: 1 2 24576 (49152)
I0309 23:11:38.987053 12883 net.cpp:165] Memory required for data: 8004092100
I0309 23:11:38.987057 12883 layer_factory.hpp:77] Creating layer conv6_2_mbox_loc
I0309 23:11:38.987067 12883 net.cpp:100] Creating Layer conv6_2_mbox_loc
I0309 23:11:38.987072 12883 net.cpp:434] conv6_2_mbox_loc <- conv6_2_conv6_2_scale_0_split_1
I0309 23:11:38.987083 12883 net.cpp:408] conv6_2_mbox_loc -> conv6_2_mbox_loc
I0309 23:11:38.988965 12883 net.cpp:150] Setting up conv6_2_mbox_loc
I0309 23:11:38.988976 12883 net.cpp:157] Top shape: 8 24 16 16 (49152)
I0309 23:11:38.988979 12883 net.cpp:165] Memory required for data: 8004288708
I0309 23:11:38.988986 12883 layer_factory.hpp:77] Creating layer conv6_2_mbox_loc_perm
I0309 23:11:38.988994 12883 net.cpp:100] Creating Layer conv6_2_mbox_loc_perm
I0309 23:11:38.988999 12883 net.cpp:434] conv6_2_mbox_loc_perm <- conv6_2_mbox_loc
I0309 23:11:38.989008 12883 net.cpp:408] conv6_2_mbox_loc_perm -> conv6_2_mbox_loc_perm
I0309 23:11:38.989138 12883 net.cpp:150] Setting up conv6_2_mbox_loc_perm
I0309 23:11:38.989156 12883 net.cpp:157] Top shape: 8 16 16 24 (49152)
I0309 23:11:38.989162 12883 net.cpp:165] Memory required for data: 8004485316
I0309 23:11:38.989169 12883 layer_factory.hpp:77] Creating layer conv6_2_mbox_loc_flat
I0309 23:11:38.989176 12883 net.cpp:100] Creating Layer conv6_2_mbox_loc_flat
I0309 23:11:38.989181 12883 net.cpp:434] conv6_2_mbox_loc_flat <- conv6_2_mbox_loc_perm
I0309 23:11:38.989192 12883 net.cpp:408] conv6_2_mbox_loc_flat -> conv6_2_mbox_loc_flat
I0309 23:11:38.989225 12883 net.cpp:150] Setting up conv6_2_mbox_loc_flat
I0309 23:11:38.989234 12883 net.cpp:157] Top shape: 8 6144 (49152)
I0309 23:11:38.989238 12883 net.cpp:165] Memory required for data: 8004681924
I0309 23:11:38.989243 12883 layer_factory.hpp:77] Creating layer conv6_2_mbox_conf
I0309 23:11:38.989251 12883 net.cpp:100] Creating Layer conv6_2_mbox_conf
I0309 23:11:38.989256 12883 net.cpp:434] conv6_2_mbox_conf <- conv6_2_conv6_2_scale_0_split_2
I0309 23:11:38.989264 12883 net.cpp:408] conv6_2_mbox_conf -> conv6_2_mbox_conf
I0309 23:11:38.993826 12883 net.cpp:150] Setting up conv6_2_mbox_conf
I0309 23:11:38.993840 12883 net.cpp:157] Top shape: 8 126 16 16 (258048)
I0309 23:11:38.993844 12883 net.cpp:165] Memory required for data: 8005714116
I0309 23:11:38.993850 12883 layer_factory.hpp:77] Creating layer conv6_2_mbox_conf_perm
I0309 23:11:38.993858 12883 net.cpp:100] Creating Layer conv6_2_mbox_conf_perm
I0309 23:11:38.993863 12883 net.cpp:434] conv6_2_mbox_conf_perm <- conv6_2_mbox_conf
I0309 23:11:38.993870 12883 net.cpp:408] conv6_2_mbox_conf_perm -> conv6_2_mbox_conf_perm
I0309 23:11:38.993969 12883 net.cpp:150] Setting up conv6_2_mbox_conf_perm
I0309 23:11:38.993983 12883 net.cpp:157] Top shape: 8 16 16 126 (258048)
I0309 23:11:38.993988 12883 net.cpp:165] Memory required for data: 8006746308
I0309 23:11:38.993994 12883 layer_factory.hpp:77] Creating layer conv6_2_mbox_conf_flat
I0309 23:11:38.994006 12883 net.cpp:100] Creating Layer conv6_2_mbox_conf_flat
I0309 23:11:38.994019 12883 net.cpp:434] conv6_2_mbox_conf_flat <- conv6_2_mbox_conf_perm
I0309 23:11:38.994029 12883 net.cpp:408] conv6_2_mbox_conf_flat -> conv6_2_mbox_conf_flat
I0309 23:11:38.994061 12883 net.cpp:150] Setting up conv6_2_mbox_conf_flat
I0309 23:11:38.994069 12883 net.cpp:157] Top shape: 8 32256 (258048)
I0309 23:11:38.994077 12883 net.cpp:165] Memory required for data: 8007778500
I0309 23:11:38.994096 12883 layer_factory.hpp:77] Creating layer conv6_2_mbox_priorbox
I0309 23:11:38.994103 12883 net.cpp:100] Creating Layer conv6_2_mbox_priorbox
I0309 23:11:38.994109 12883 net.cpp:434] conv6_2_mbox_priorbox <- conv6_2_conv6_2_scale_0_split_3
I0309 23:11:38.994117 12883 net.cpp:434] conv6_2_mbox_priorbox <- data_data_0_split_3
I0309 23:11:38.994128 12883 net.cpp:408] conv6_2_mbox_priorbox -> conv6_2_mbox_priorbox
I0309 23:11:38.994171 12883 net.cpp:150] Setting up conv6_2_mbox_priorbox
I0309 23:11:38.994179 12883 net.cpp:157] Top shape: 1 2 6144 (12288)
I0309 23:11:38.994184 12883 net.cpp:165] Memory required for data: 8007827652
I0309 23:11:38.994186 12883 layer_factory.hpp:77] Creating layer conv7_2_mbox_loc
I0309 23:11:38.994195 12883 net.cpp:100] Creating Layer conv7_2_mbox_loc
I0309 23:11:38.994200 12883 net.cpp:434] conv7_2_mbox_loc <- conv7_2_conv7_2_scale_0_split_1
I0309 23:11:38.994206 12883 net.cpp:408] conv7_2_mbox_loc -> conv7_2_mbox_loc
I0309 23:11:38.996106 12883 net.cpp:150] Setting up conv7_2_mbox_loc
I0309 23:11:38.996119 12883 net.cpp:157] Top shape: 8 24 8 8 (12288)
I0309 23:11:38.996124 12883 net.cpp:165] Memory required for data: 8007876804
I0309 23:11:38.996130 12883 layer_factory.hpp:77] Creating layer conv7_2_mbox_loc_perm
I0309 23:11:38.996136 12883 net.cpp:100] Creating Layer conv7_2_mbox_loc_perm
I0309 23:11:38.996141 12883 net.cpp:434] conv7_2_mbox_loc_perm <- conv7_2_mbox_loc
I0309 23:11:38.996150 12883 net.cpp:408] conv7_2_mbox_loc_perm -> conv7_2_mbox_loc_perm
I0309 23:11:38.996268 12883 net.cpp:150] Setting up conv7_2_mbox_loc_perm
I0309 23:11:38.996275 12883 net.cpp:157] Top shape: 8 8 8 24 (12288)
I0309 23:11:38.996279 12883 net.cpp:165] Memory required for data: 8007925956
I0309 23:11:38.996284 12883 layer_factory.hpp:77] Creating layer conv7_2_mbox_loc_flat
I0309 23:11:38.996289 12883 net.cpp:100] Creating Layer conv7_2_mbox_loc_flat
I0309 23:11:38.996294 12883 net.cpp:434] conv7_2_mbox_loc_flat <- conv7_2_mbox_loc_perm
I0309 23:11:38.996301 12883 net.cpp:408] conv7_2_mbox_loc_flat -> conv7_2_mbox_loc_flat
I0309 23:11:38.996327 12883 net.cpp:150] Setting up conv7_2_mbox_loc_flat
I0309 23:11:38.996347 12883 net.cpp:157] Top shape: 8 1536 (12288)
I0309 23:11:38.996352 12883 net.cpp:165] Memory required for data: 8007975108
I0309 23:11:38.996357 12883 layer_factory.hpp:77] Creating layer conv7_2_mbox_conf
I0309 23:11:38.996371 12883 net.cpp:100] Creating Layer conv7_2_mbox_conf
I0309 23:11:38.996378 12883 net.cpp:434] conv7_2_mbox_conf <- conv7_2_conv7_2_scale_0_split_2
I0309 23:11:38.996384 12883 net.cpp:408] conv7_2_mbox_conf -> conv7_2_mbox_conf
I0309 23:11:38.999727 12883 net.cpp:150] Setting up conv7_2_mbox_conf
I0309 23:11:38.999742 12883 net.cpp:157] Top shape: 8 126 8 8 (64512)
I0309 23:11:38.999745 12883 net.cpp:165] Memory required for data: 8008233156
I0309 23:11:38.999752 12883 layer_factory.hpp:77] Creating layer conv7_2_mbox_conf_perm
I0309 23:11:38.999759 12883 net.cpp:100] Creating Layer conv7_2_mbox_conf_perm
I0309 23:11:38.999766 12883 net.cpp:434] conv7_2_mbox_conf_perm <- conv7_2_mbox_conf
I0309 23:11:38.999773 12883 net.cpp:408] conv7_2_mbox_conf_perm -> conv7_2_mbox_conf_perm
I0309 23:11:38.999894 12883 net.cpp:150] Setting up conv7_2_mbox_conf_perm
I0309 23:11:38.999904 12883 net.cpp:157] Top shape: 8 8 8 126 (64512)
I0309 23:11:38.999908 12883 net.cpp:165] Memory required for data: 8008491204
I0309 23:11:38.999913 12883 layer_factory.hpp:77] Creating layer conv7_2_mbox_conf_flat
I0309 23:11:38.999918 12883 net.cpp:100] Creating Layer conv7_2_mbox_conf_flat
I0309 23:11:38.999927 12883 net.cpp:434] conv7_2_mbox_conf_flat <- conv7_2_mbox_conf_perm
I0309 23:11:38.999933 12883 net.cpp:408] conv7_2_mbox_conf_flat -> conv7_2_mbox_conf_flat
I0309 23:11:38.999966 12883 net.cpp:150] Setting up conv7_2_mbox_conf_flat
I0309 23:11:38.999974 12883 net.cpp:157] Top shape: 8 8064 (64512)
I0309 23:11:38.999977 12883 net.cpp:165] Memory required for data: 8008749252
I0309 23:11:38.999981 12883 layer_factory.hpp:77] Creating layer conv7_2_mbox_priorbox
I0309 23:11:39.000000 12883 net.cpp:100] Creating Layer conv7_2_mbox_priorbox
I0309 23:11:39.000007 12883 net.cpp:434] conv7_2_mbox_priorbox <- conv7_2_conv7_2_scale_0_split_3
I0309 23:11:39.000013 12883 net.cpp:434] conv7_2_mbox_priorbox <- data_data_0_split_4
I0309 23:11:39.000020 12883 net.cpp:408] conv7_2_mbox_priorbox -> conv7_2_mbox_priorbox
I0309 23:11:39.000061 12883 net.cpp:150] Setting up conv7_2_mbox_priorbox
I0309 23:11:39.000069 12883 net.cpp:157] Top shape: 1 2 1536 (3072)
I0309 23:11:39.000072 12883 net.cpp:165] Memory required for data: 8008761540
I0309 23:11:39.000077 12883 layer_factory.hpp:77] Creating layer conv8_2_mbox_loc
I0309 23:11:39.000088 12883 net.cpp:100] Creating Layer conv8_2_mbox_loc
I0309 23:11:39.000095 12883 net.cpp:434] conv8_2_mbox_loc <- conv8_2_conv8_2_scale_0_split_1
I0309 23:11:39.000103 12883 net.cpp:408] conv8_2_mbox_loc -> conv8_2_mbox_loc
I0309 23:11:39.001433 12883 net.cpp:150] Setting up conv8_2_mbox_loc
I0309 23:11:39.001444 12883 net.cpp:157] Top shape: 8 24 4 4 (3072)
I0309 23:11:39.001448 12883 net.cpp:165] Memory required for data: 8008773828
I0309 23:11:39.001456 12883 layer_factory.hpp:77] Creating layer conv8_2_mbox_loc_perm
I0309 23:11:39.001466 12883 net.cpp:100] Creating Layer conv8_2_mbox_loc_perm
I0309 23:11:39.001472 12883 net.cpp:434] conv8_2_mbox_loc_perm <- conv8_2_mbox_loc
I0309 23:11:39.001478 12883 net.cpp:408] conv8_2_mbox_loc_perm -> conv8_2_mbox_loc_perm
I0309 23:11:39.001596 12883 net.cpp:150] Setting up conv8_2_mbox_loc_perm
I0309 23:11:39.001605 12883 net.cpp:157] Top shape: 8 4 4 24 (3072)
I0309 23:11:39.001607 12883 net.cpp:165] Memory required for data: 8008786116
I0309 23:11:39.001610 12883 layer_factory.hpp:77] Creating layer conv8_2_mbox_loc_flat
I0309 23:11:39.001619 12883 net.cpp:100] Creating Layer conv8_2_mbox_loc_flat
I0309 23:11:39.001626 12883 net.cpp:434] conv8_2_mbox_loc_flat <- conv8_2_mbox_loc_perm
I0309 23:11:39.001634 12883 net.cpp:408] conv8_2_mbox_loc_flat -> conv8_2_mbox_loc_flat
I0309 23:11:39.001670 12883 net.cpp:150] Setting up conv8_2_mbox_loc_flat
I0309 23:11:39.001678 12883 net.cpp:157] Top shape: 8 384 (3072)
I0309 23:11:39.001682 12883 net.cpp:165] Memory required for data: 8008798404
I0309 23:11:39.001687 12883 layer_factory.hpp:77] Creating layer conv8_2_mbox_conf
I0309 23:11:39.001699 12883 net.cpp:100] Creating Layer conv8_2_mbox_conf
I0309 23:11:39.001706 12883 net.cpp:434] conv8_2_mbox_conf <- conv8_2_conv8_2_scale_0_split_2
I0309 23:11:39.001714 12883 net.cpp:408] conv8_2_mbox_conf -> conv8_2_mbox_conf
I0309 23:11:39.005084 12883 net.cpp:150] Setting up conv8_2_mbox_conf
I0309 23:11:39.005096 12883 net.cpp:157] Top shape: 8 126 4 4 (16128)
I0309 23:11:39.005103 12883 net.cpp:165] Memory required for data: 8008862916
I0309 23:11:39.005111 12883 layer_factory.hpp:77] Creating layer conv8_2_mbox_conf_perm
I0309 23:11:39.005121 12883 net.cpp:100] Creating Layer conv8_2_mbox_conf_perm
I0309 23:11:39.005126 12883 net.cpp:434] conv8_2_mbox_conf_perm <- conv8_2_mbox_conf
I0309 23:11:39.005136 12883 net.cpp:408] conv8_2_mbox_conf_perm -> conv8_2_mbox_conf_perm
I0309 23:11:39.005259 12883 net.cpp:150] Setting up conv8_2_mbox_conf_perm
I0309 23:11:39.005267 12883 net.cpp:157] Top shape: 8 4 4 126 (16128)
I0309 23:11:39.005270 12883 net.cpp:165] Memory required for data: 8008927428
I0309 23:11:39.005276 12883 layer_factory.hpp:77] Creating layer conv8_2_mbox_conf_flat
I0309 23:11:39.005285 12883 net.cpp:100] Creating Layer conv8_2_mbox_conf_flat
I0309 23:11:39.005290 12883 net.cpp:434] conv8_2_mbox_conf_flat <- conv8_2_mbox_conf_perm
I0309 23:11:39.005300 12883 net.cpp:408] conv8_2_mbox_conf_flat -> conv8_2_mbox_conf_flat
I0309 23:11:39.005333 12883 net.cpp:150] Setting up conv8_2_mbox_conf_flat
I0309 23:11:39.005340 12883 net.cpp:157] Top shape: 8 2016 (16128)
I0309 23:11:39.005344 12883 net.cpp:165] Memory required for data: 8008991940
I0309 23:11:39.005347 12883 layer_factory.hpp:77] Creating layer conv8_2_mbox_priorbox
I0309 23:11:39.005354 12883 net.cpp:100] Creating Layer conv8_2_mbox_priorbox
I0309 23:11:39.005370 12883 net.cpp:434] conv8_2_mbox_priorbox <- conv8_2_conv8_2_scale_0_split_3
I0309 23:11:39.005376 12883 net.cpp:434] conv8_2_mbox_priorbox <- data_data_0_split_5
I0309 23:11:39.005383 12883 net.cpp:408] conv8_2_mbox_priorbox -> conv8_2_mbox_priorbox
I0309 23:11:39.005414 12883 net.cpp:150] Setting up conv8_2_mbox_priorbox
I0309 23:11:39.005425 12883 net.cpp:157] Top shape: 1 2 384 (768)
I0309 23:11:39.005434 12883 net.cpp:165] Memory required for data: 8008995012
I0309 23:11:39.005441 12883 layer_factory.hpp:77] Creating layer conv9_2_mbox_loc
I0309 23:11:39.005460 12883 net.cpp:100] Creating Layer conv9_2_mbox_loc
I0309 23:11:39.005465 12883 net.cpp:434] conv9_2_mbox_loc <- conv9_2_conv9_2_scale_0_split_1
I0309 23:11:39.005472 12883 net.cpp:408] conv9_2_mbox_loc -> conv9_2_mbox_loc
I0309 23:11:39.006741 12883 net.cpp:150] Setting up conv9_2_mbox_loc
I0309 23:11:39.006752 12883 net.cpp:157] Top shape: 8 16 2 2 (512)
I0309 23:11:39.006755 12883 net.cpp:165] Memory required for data: 8008997060
I0309 23:11:39.006762 12883 layer_factory.hpp:77] Creating layer conv9_2_mbox_loc_perm
I0309 23:11:39.006770 12883 net.cpp:100] Creating Layer conv9_2_mbox_loc_perm
I0309 23:11:39.006775 12883 net.cpp:434] conv9_2_mbox_loc_perm <- conv9_2_mbox_loc
I0309 23:11:39.006783 12883 net.cpp:408] conv9_2_mbox_loc_perm -> conv9_2_mbox_loc_perm
I0309 23:11:39.006884 12883 net.cpp:150] Setting up conv9_2_mbox_loc_perm
I0309 23:11:39.006896 12883 net.cpp:157] Top shape: 8 2 2 16 (512)
I0309 23:11:39.006901 12883 net.cpp:165] Memory required for data: 8008999108
I0309 23:11:39.006909 12883 layer_factory.hpp:77] Creating layer conv9_2_mbox_loc_flat
I0309 23:11:39.006918 12883 net.cpp:100] Creating Layer conv9_2_mbox_loc_flat
I0309 23:11:39.006927 12883 net.cpp:434] conv9_2_mbox_loc_flat <- conv9_2_mbox_loc_perm
I0309 23:11:39.006932 12883 net.cpp:408] conv9_2_mbox_loc_flat -> conv9_2_mbox_loc_flat
I0309 23:11:39.006959 12883 net.cpp:150] Setting up conv9_2_mbox_loc_flat
I0309 23:11:39.006966 12883 net.cpp:157] Top shape: 8 64 (512)
I0309 23:11:39.006971 12883 net.cpp:165] Memory required for data: 8009001156
I0309 23:11:39.006976 12883 layer_factory.hpp:77] Creating layer conv9_2_mbox_conf
I0309 23:11:39.006992 12883 net.cpp:100] Creating Layer conv9_2_mbox_conf
I0309 23:11:39.006997 12883 net.cpp:434] conv9_2_mbox_conf <- conv9_2_conv9_2_scale_0_split_2
I0309 23:11:39.007006 12883 net.cpp:408] conv9_2_mbox_conf -> conv9_2_mbox_conf
I0309 23:11:39.009274 12883 net.cpp:150] Setting up conv9_2_mbox_conf
I0309 23:11:39.009286 12883 net.cpp:157] Top shape: 8 84 2 2 (2688)
I0309 23:11:39.009290 12883 net.cpp:165] Memory required for data: 8009011908
I0309 23:11:39.009297 12883 layer_factory.hpp:77] Creating layer conv9_2_mbox_conf_perm
I0309 23:11:39.009305 12883 net.cpp:100] Creating Layer conv9_2_mbox_conf_perm
I0309 23:11:39.009311 12883 net.cpp:434] conv9_2_mbox_conf_perm <- conv9_2_mbox_conf
I0309 23:11:39.009317 12883 net.cpp:408] conv9_2_mbox_conf_perm -> conv9_2_mbox_conf_perm
I0309 23:11:39.009435 12883 net.cpp:150] Setting up conv9_2_mbox_conf_perm
I0309 23:11:39.009444 12883 net.cpp:157] Top shape: 8 2 2 84 (2688)
I0309 23:11:39.009449 12883 net.cpp:165] Memory required for data: 8009022660
I0309 23:11:39.009454 12883 layer_factory.hpp:77] Creating layer conv9_2_mbox_conf_flat
I0309 23:11:39.009460 12883 net.cpp:100] Creating Layer conv9_2_mbox_conf_flat
I0309 23:11:39.009465 12883 net.cpp:434] conv9_2_mbox_conf_flat <- conv9_2_mbox_conf_perm
I0309 23:11:39.009474 12883 net.cpp:408] conv9_2_mbox_conf_flat -> conv9_2_mbox_conf_flat
I0309 23:11:39.009510 12883 net.cpp:150] Setting up conv9_2_mbox_conf_flat
I0309 23:11:39.009516 12883 net.cpp:157] Top shape: 8 336 (2688)
I0309 23:11:39.009519 12883 net.cpp:165] Memory required for data: 8009033412
I0309 23:11:39.009523 12883 layer_factory.hpp:77] Creating layer conv9_2_mbox_priorbox
I0309 23:11:39.009529 12883 net.cpp:100] Creating Layer conv9_2_mbox_priorbox
I0309 23:11:39.009534 12883 net.cpp:434] conv9_2_mbox_priorbox <- conv9_2_conv9_2_scale_0_split_3
I0309 23:11:39.009553 12883 net.cpp:434] conv9_2_mbox_priorbox <- data_data_0_split_6
I0309 23:11:39.009560 12883 net.cpp:408] conv9_2_mbox_priorbox -> conv9_2_mbox_priorbox
I0309 23:11:39.009593 12883 net.cpp:150] Setting up conv9_2_mbox_priorbox
I0309 23:11:39.009608 12883 net.cpp:157] Top shape: 1 2 64 (128)
I0309 23:11:39.009621 12883 net.cpp:165] Memory required for data: 8009033924
I0309 23:11:39.009629 12883 layer_factory.hpp:77] Creating layer conv10_2_mbox_loc
I0309 23:11:39.009639 12883 net.cpp:100] Creating Layer conv10_2_mbox_loc
I0309 23:11:39.009644 12883 net.cpp:434] conv10_2_mbox_loc <- conv10_2_conv10_2_scale_0_split_0
I0309 23:11:39.009651 12883 net.cpp:408] conv10_2_mbox_loc -> conv10_2_mbox_loc
I0309 23:11:39.010908 12883 net.cpp:150] Setting up conv10_2_mbox_loc
I0309 23:11:39.010920 12883 net.cpp:157] Top shape: 8 16 1 1 (128)
I0309 23:11:39.010922 12883 net.cpp:165] Memory required for data: 8009034436
I0309 23:11:39.010928 12883 layer_factory.hpp:77] Creating layer conv10_2_mbox_loc_perm
I0309 23:11:39.010936 12883 net.cpp:100] Creating Layer conv10_2_mbox_loc_perm
I0309 23:11:39.010942 12883 net.cpp:434] conv10_2_mbox_loc_perm <- conv10_2_mbox_loc
I0309 23:11:39.010949 12883 net.cpp:408] conv10_2_mbox_loc_perm -> conv10_2_mbox_loc_perm
I0309 23:11:39.011051 12883 net.cpp:150] Setting up conv10_2_mbox_loc_perm
I0309 23:11:39.011065 12883 net.cpp:157] Top shape: 8 1 1 16 (128)
I0309 23:11:39.011070 12883 net.cpp:165] Memory required for data: 8009034948
I0309 23:11:39.011077 12883 layer_factory.hpp:77] Creating layer conv10_2_mbox_loc_flat
I0309 23:11:39.011086 12883 net.cpp:100] Creating Layer conv10_2_mbox_loc_flat
I0309 23:11:39.011093 12883 net.cpp:434] conv10_2_mbox_loc_flat <- conv10_2_mbox_loc_perm
I0309 23:11:39.011098 12883 net.cpp:408] conv10_2_mbox_loc_flat -> conv10_2_mbox_loc_flat
I0309 23:11:39.011127 12883 net.cpp:150] Setting up conv10_2_mbox_loc_flat
I0309 23:11:39.011137 12883 net.cpp:157] Top shape: 8 16 (128)
I0309 23:11:39.011142 12883 net.cpp:165] Memory required for data: 8009035460
I0309 23:11:39.011145 12883 layer_factory.hpp:77] Creating layer conv10_2_mbox_conf
I0309 23:11:39.011160 12883 net.cpp:100] Creating Layer conv10_2_mbox_conf
I0309 23:11:39.011170 12883 net.cpp:434] conv10_2_mbox_conf <- conv10_2_conv10_2_scale_0_split_1
I0309 23:11:39.011184 12883 net.cpp:408] conv10_2_mbox_conf -> conv10_2_mbox_conf
I0309 23:11:39.013394 12883 net.cpp:150] Setting up conv10_2_mbox_conf
I0309 23:11:39.013406 12883 net.cpp:157] Top shape: 8 84 1 1 (672)
I0309 23:11:39.013409 12883 net.cpp:165] Memory required for data: 8009038148
I0309 23:11:39.013417 12883 layer_factory.hpp:77] Creating layer conv10_2_mbox_conf_perm
I0309 23:11:39.013423 12883 net.cpp:100] Creating Layer conv10_2_mbox_conf_perm
I0309 23:11:39.013430 12883 net.cpp:434] conv10_2_mbox_conf_perm <- conv10_2_mbox_conf
I0309 23:11:39.013437 12883 net.cpp:408] conv10_2_mbox_conf_perm -> conv10_2_mbox_conf_perm
I0309 23:11:39.013551 12883 net.cpp:150] Setting up conv10_2_mbox_conf_perm
I0309 23:11:39.013562 12883 net.cpp:157] Top shape: 8 1 1 84 (672)
I0309 23:11:39.013572 12883 net.cpp:165] Memory required for data: 8009040836
I0309 23:11:39.013579 12883 layer_factory.hpp:77] Creating layer conv10_2_mbox_conf_flat
I0309 23:11:39.013587 12883 net.cpp:100] Creating Layer conv10_2_mbox_conf_flat
I0309 23:11:39.013593 12883 net.cpp:434] conv10_2_mbox_conf_flat <- conv10_2_mbox_conf_perm
I0309 23:11:39.013603 12883 net.cpp:408] conv10_2_mbox_conf_flat -> conv10_2_mbox_conf_flat
I0309 23:11:39.013633 12883 net.cpp:150] Setting up conv10_2_mbox_conf_flat
I0309 23:11:39.013659 12883 net.cpp:157] Top shape: 8 84 (672)
I0309 23:11:39.013661 12883 net.cpp:165] Memory required for data: 8009043524
I0309 23:11:39.013664 12883 layer_factory.hpp:77] Creating layer conv10_2_mbox_priorbox
I0309 23:11:39.013674 12883 net.cpp:100] Creating Layer conv10_2_mbox_priorbox
I0309 23:11:39.013682 12883 net.cpp:434] conv10_2_mbox_priorbox <- conv10_2_conv10_2_scale_0_split_2
I0309 23:11:39.013692 12883 net.cpp:434] conv10_2_mbox_priorbox <- data_data_0_split_7
I0309 23:11:39.013723 12883 net.cpp:408] conv10_2_mbox_priorbox -> conv10_2_mbox_priorbox
I0309 23:11:39.013758 12883 net.cpp:150] Setting up conv10_2_mbox_priorbox
I0309 23:11:39.013766 12883 net.cpp:157] Top shape: 1 2 16 (32)
I0309 23:11:39.013769 12883 net.cpp:165] Memory required for data: 8009043652
I0309 23:11:39.013775 12883 layer_factory.hpp:77] Creating layer mbox_loc
I0309 23:11:39.013787 12883 net.cpp:100] Creating Layer mbox_loc
I0309 23:11:39.013806 12883 net.cpp:434] mbox_loc <- conv4_3_norm_mbox_loc_flat
I0309 23:11:39.013818 12883 net.cpp:434] mbox_loc <- fc7_mbox_loc_flat
I0309 23:11:39.013826 12883 net.cpp:434] mbox_loc <- conv6_2_mbox_loc_flat
I0309 23:11:39.013833 12883 net.cpp:434] mbox_loc <- conv7_2_mbox_loc_flat
I0309 23:11:39.013840 12883 net.cpp:434] mbox_loc <- conv8_2_mbox_loc_flat
I0309 23:11:39.013846 12883 net.cpp:434] mbox_loc <- conv9_2_mbox_loc_flat
I0309 23:11:39.013851 12883 net.cpp:434] mbox_loc <- conv10_2_mbox_loc_flat
I0309 23:11:39.013860 12883 net.cpp:408] mbox_loc -> mbox_loc
I0309 23:11:39.013891 12883 net.cpp:150] Setting up mbox_loc
I0309 23:11:39.013905 12883 net.cpp:157] Top shape: 8 98256 (786048)
I0309 23:11:39.013907 12883 net.cpp:165] Memory required for data: 8012187844
I0309 23:11:39.013914 12883 layer_factory.hpp:77] Creating layer mbox_conf
I0309 23:11:39.013924 12883 net.cpp:100] Creating Layer mbox_conf
I0309 23:11:39.013932 12883 net.cpp:434] mbox_conf <- conv4_3_norm_mbox_conf_flat
I0309 23:11:39.013941 12883 net.cpp:434] mbox_conf <- fc7_mbox_conf_flat
I0309 23:11:39.013948 12883 net.cpp:434] mbox_conf <- conv6_2_mbox_conf_flat
I0309 23:11:39.013957 12883 net.cpp:434] mbox_conf <- conv7_2_mbox_conf_flat
I0309 23:11:39.013962 12883 net.cpp:434] mbox_conf <- conv8_2_mbox_conf_flat
I0309 23:11:39.013969 12883 net.cpp:434] mbox_conf <- conv9_2_mbox_conf_flat
I0309 23:11:39.013975 12883 net.cpp:434] mbox_conf <- conv10_2_mbox_conf_flat
I0309 23:11:39.013985 12883 net.cpp:408] mbox_conf -> mbox_conf
I0309 23:11:39.014017 12883 net.cpp:150] Setting up mbox_conf
I0309 23:11:39.014025 12883 net.cpp:157] Top shape: 8 515844 (4126752)
I0309 23:11:39.014029 12883 net.cpp:165] Memory required for data: 8028694852
I0309 23:11:39.014035 12883 layer_factory.hpp:77] Creating layer mbox_priorbox
I0309 23:11:39.014044 12883 net.cpp:100] Creating Layer mbox_priorbox
I0309 23:11:39.014050 12883 net.cpp:434] mbox_priorbox <- conv4_3_norm_mbox_priorbox
I0309 23:11:39.014062 12883 net.cpp:434] mbox_priorbox <- fc7_mbox_priorbox
I0309 23:11:39.014078 12883 net.cpp:434] mbox_priorbox <- conv6_2_mbox_priorbox
I0309 23:11:39.014091 12883 net.cpp:434] mbox_priorbox <- conv7_2_mbox_priorbox
I0309 23:11:39.014096 12883 net.cpp:434] mbox_priorbox <- conv8_2_mbox_priorbox
I0309 23:11:39.014102 12883 net.cpp:434] mbox_priorbox <- conv9_2_mbox_priorbox
I0309 23:11:39.014111 12883 net.cpp:434] mbox_priorbox <- conv10_2_mbox_priorbox
I0309 23:11:39.014120 12883 net.cpp:408] mbox_priorbox -> mbox_priorbox
I0309 23:11:39.014164 12883 net.cpp:150] Setting up mbox_priorbox
I0309 23:11:39.014178 12883 net.cpp:157] Top shape: 1 2 98256 (196512)
I0309 23:11:39.014189 12883 net.cpp:165] Memory required for data: 8029480900
I0309 23:11:39.014199 12883 layer_factory.hpp:77] Creating layer mbox_loss
I0309 23:11:39.014216 12883 net.cpp:100] Creating Layer mbox_loss
I0309 23:11:39.014223 12883 net.cpp:434] mbox_loss <- mbox_loc
I0309 23:11:39.014231 12883 net.cpp:434] mbox_loss <- mbox_conf
I0309 23:11:39.014236 12883 net.cpp:434] mbox_loss <- mbox_priorbox
…
I0309 23:11:39.018648 12883 solver.cpp:196] Creating test net (#0) specified by test_net file: models/VGGNet/VOC0712/DES512x512withCOCO_12/test12.prototxt
I0309 23:11:39.019507 12883 net.cpp:58] Initializing net from parameters: 
name: "VGG_VOC0712_SSD_512x512_ft_test"
state {
  phase: TEST
}
layer {
  name: "data"
  type: "Data"
  top: "data"
  include {
    phase: TEST
  }
  transform_param {
    mean_value: 104
    mean_value: 117
    mean_value: 123
    resize_param {
      prob: 1
      resize_mode: WARP
      height: 512
      width: 512
      interp_mode: LINEAR
    }
  }
  data_param {
    source: "examples/VOC0712/VOC2012_test_lmdb"
    batch_size: 1
    backend: LMDB
  }
}
layer {
  name: "conv1_1"
  type: "Convolution"
  bottom: "data"
  top: "conv1_1"
  param {
    lr_mult: 1
    decay_mult: 1
  }
  param {
    lr_mult: 2
    decay_mult: 0
  }
  convolution_param {
    num_output: 64
    pad: 1
    kernel_size: 3
    weight_filler {
      type: "xavier"
    }
    bias_filler {
      type: "constant"
      value: 0
    }
  }
}
layer {
  name: "relu1_1"
  type: "ReLU"
  bottom: "conv1_1"
  top: "conv1_1"
}
layer {
  name: "conv1_2"
  type: "Convolution"
  bottom: "conv1_1"
  top: "conv1_2"
  param {
    lr_mult: 1
    decay_mult: 1
  }
  param {
    lr_mult: 2
    decay_mult: 0
  }
  convolution_param {
    num_output: 64
    pad: 1
    kernel_size: 3
    weight_filler {
      type: "xavier"
    }
    bias_filler {
      type: "constant"
      value: 0
    }
  }
}
layer {
  name: "relu1_2"
  type: "ReLU"
  bottom: "conv1_2"
  top: "conv1_2"
}
layer {
  name: "pool1"
  type: "Pooling"
  bottom: "conv1_2"
  top: "pool1"
  pooling_param {
    pool: MAX
    kernel_size: 2
    stride: 2
  }
}
layer {
  name: "conv2_1"
  type: "Convolution"
  bottom: "pool1"
  top: "conv2_1"
  param {
    lr_mult: 1
    decay_mult: 1
  }
  param {
    lr_mult: 2
    decay_mult: 0
  }
  convolution_param {
    num_output: 128
    pad: 1
    kernel_size: 3
    weight_filler {
      type: "xavier"
    }
    bias_filler {
      type: "constant"
      value: 0
    }
  }
}
layer {
  name: "relu2_1"
  type: "ReLU"
  bottom: "conv2_1"
  top: "conv2_1"
}
layer {
  name: "conv2_2"
  type: "Convolution"
  bottom: "conv2_1"
  top: "conv2_2"
  param {
    lr_mult: 1
    decay_mult: 1
  }
  param {
    lr_mult: 2
    decay_mult: 0
  }
  convolution_param {
    num_output: 128
    pad: 1
    kernel_size: 3
    weight_filler {
      type: "xavier"
    }
    bias_filler {
      type: "constant"
      value: 0
    }
  }
}
layer {
  name: "relu2_2"
  type: "ReLU"
  bottom: "conv2_2"
  top: "conv2_2"
}
layer {
  name: "pool2"
  type: "Pooling"
  bottom: "conv2_2"
  top: "pool2"
  pooling_param {
    pool: MAX
    kernel_size: 2
    stride: 2
  }
}
layer {
  name: "conv3_1"
  type: "Convolution"
  bottom: "pool2"
  top: "conv3_1"
  param {
    lr_mult: 1
    decay_mult: 1
  }
  param {
    lr_mult: 2
    decay_mult: 0
  }
  convolution_param {
    num_output: 256
    pad: 1
    kernel_size: 3
    weight_filler {
      type: "xavier"
    }
    bias_filler {
      type: "constant"
      value: 0
    }
  }
}
layer {
  name: "relu3_1"
  type: "ReLU"
  bottom: "conv3_1"
  top: "conv3_1"
}
layer {
  name: "conv3_2"
  type: "Convolution"
  bottom: "conv3_1"
  top: "conv3_2"
  param {
    lr_mult: 1
    decay_mult: 1
  }
  param {
    lr_mult: 2
    decay_mult: 0
  }
  convolution_param {
    num_output: 256
    pad: 1
    kernel_size: 3
    weight_filler {
      type: "xavier"
    }
    bias_filler {
      type: "constant"
      value: 0
    }
  }
}
layer {
  name: "relu3_2"
  type: "ReLU"
  bottom: "conv3_2"
  top: "conv3_2"
}
layer {
  name: "conv3_3"
  type: "Convolution"
  bottom: "conv3_2"
  top: "conv3_3"
  param {
    lr_mult: 1
    decay_mult: 1
  }
  param {
    lr_mult: 2
    decay_mult: 0
  }
  convolution_param {
    num_output: 256
    pad: 1
    kernel_size: 3
    weight_filler {
      type: "xavier"
    }
    bias_filler {
      type: "constant"
      value: 0
    }
  }
}
layer {
  name: "relu3_3"
  type: "ReLU"
  bottom: "conv3_3"
  top: "conv3_3"
}
layer {
  name: "pool3"
  type: "Pooling"
  bottom: "conv3_3"
  top: "pool3"
  pooling_param {
    pool: MAX
    kernel_size: 2
    stride: 2
  }
}
layer {
  name: "conv4_1"
  type: "Convolution"
  bottom: "pool3"
  top: "conv4_1"
  param {
    lr_mult: 1
    decay_mult: 1
  }
  param {
    lr_mult: 2
    decay_mult: 0
  }
  convolution_param {
    num_output: 512
    pad: 1
    kernel_size: 3
    weight_filler {
      type: "xavier"
    }
    bias_filler {
      type: "constant"
      value: 0
    }
  }
}
layer {
  name: "relu4_1"
  type: "ReLU"
  bottom: "conv4_1"
  top: "conv4_1"
}
layer {
  name: "conv4_2"
  type: "Convolution"
  bottom: "conv4_1"
  top: "conv4_2"
  param {
    lr_mult: 1
    decay_mult: 1
  }
  param {
    lr_mult: 2
    decay_mult: 0
  }
  convolution_param {
    num_output: 512
    pad: 1
    kernel_size: 3
    weight_filler {
      type: "xavier"
    }
    bias_filler {
      type: "constant"
      value: 0
    }
  }
}
layer {
  name: "relu4_2"
  type: "ReLU"
  bottom: "conv4_2"
  top: "conv4_2"
}
layer {
  name: "conv4_3"
  type: "Convolution"
  bottom: "conv4_2"
  top: "conv4_3_ori"
  param {
    lr_mult: 1
    decay_mult: 1
  }
  param {
    lr_mult: 2
    decay_mult: 0
  }
  convolution_param {
    num_output: 512
    pad: 1
    kernel_size: 3
    weight_filler {
      type: "xavier"
    }
    bias_filler {
      type: "constant"
      value: 0
    }
  }
}
layer {
  name: "relu4_3"
  type: "ReLU"
  bottom: "conv4_3_ori"
  top: "conv4_3_ori"
}
layer {
  name: "seg_pool4"
  type: "Pooling"
  bottom: "conv4_3_ori"
  top: "seg_pool4"
  pooling_param {
    pool: MAX
    kernel_size: 3
    stride: 1
    pad: 1
  }
}
layer {
  name: "seg5_1"
  type: "Convolution"
  bottom: "seg_pool4"
  top: "seg5_1"
  param {
    lr_mult: 1
    decay_mult: 1
  }
  param {
    lr_mult: 2
    decay_mult: 0
  }
  convolution_param {
    num_output: 512
    pad: 2
    kernel_size: 3
    weight_filler {
      type: "xavier"
    }
    bias_filler {
      type: "constant"
      value: 0
    }
    dilation: 2
  }
}
layer {
  name: "seg_relu5_1"
  type: "ReLU"
  bottom: "seg5_1"
  top: "seg5_1"
}
layer {
  name: "seg5_2"
  type: "Convolution"
  bottom: "seg5_1"
  top: "seg5_2"
  param {
    lr_mult: 1
    decay_mult: 1
  }
  param {
    lr_mult: 2
    decay_mult: 0
  }
  convolution_param {
    num_output: 512
    pad: 2
    kernel_size: 3
    weight_filler {
      type: "xavier"
    }
    bias_filler {
      type: "constant"
      value: 0
    }
    dilation: 2
  }
}
layer {
  name: "seg_relu5_2"
  type: "ReLU"
  bottom: "seg5_2"
  top: "seg5_2"
}
layer {
  name: "seg5_3"
  type: "Convolution"
  bottom: "seg5_2"
  top: "seg5_3"
  param {
    lr_mult: 1
    decay_mult: 1
  }
  param {
    lr_mult: 2
    decay_mult: 0
  }
  convolution_param {
    num_output: 512
    pad: 2
    kernel_size: 3
    weight_filler {
      type: "xavier"
    }
    bias_filler {
      type: "constant"
      value: 0
    }
    dilation: 2
  }
}
layer {
  name: "seg_relu5_3"
  type: "ReLU"
  bottom: "seg5_3"
  top: "seg5_3"
}
layer {
  name: "seg_pool5"
  type: "Pooling"
  bottom: "seg5_3"
  top: "seg_pool5"
  pooling_param {
    pool: MAX
    kernel_size: 3
    stride: 1
    pad: 1
  }
}
layer {
  name: "seg6"
  type: "Convolution"
  bottom: "seg_pool5"
  top: "seg6"
  param {
    lr_mult: 1
    decay_mult: 1
  }
  param {
    lr_mult: 2
    decay_mult: 0
  }
  convolution_param {
    num_output: 1024
    pad: 4
    kernel_size: 3
    weight_filler {
      type: "xavier"
    }
    bias_filler {
      type: "constant"
      value: 0
    }
    dilation: 4
  }
}
layer {
  name: "seg_relu6"
  type: "ReLU"
  bottom: "seg6"
  top: "seg6"
}
layer {
  name: "seg_drop6"
  type: "Dropout"
  bottom: "seg6"
  top: "seg6"
  dropout_param {
    dropout_ratio: 0.5
  }
}
layer {
  name: "seg7"
  type: "Convolution"
  bottom: "seg6"
  top: "seg7"
  param {
    lr_mult: 1
    decay_mult: 1
  }
  param {
    lr_mult: 2
    decay_mult: 0
  }
  convolution_param {
    num_output: 1024
    kernel_size: 1
    weight_filler {
      type: "xavier"
    }
    bias_filler {
      type: "constant"
      value: 0
    }
  }
}
layer {
  name: "seg_relu7"
  type: "ReLU"
  bottom: "seg7"
  top: "seg7"
}
layer {
  name: "seg_to_det_conv"
  type: "Convolution"
  bottom: "seg7"
  top: "seg_to_det_conv"
  param {
    lr_mult: 1
    decay_mult: 1
  }
  param {
    lr_mult: 2
    decay_mult: 0
  }
  convolution_param {
    num_output: 512
    pad: 0
    kernel_size: 1
    stride: 1
    weight_filler {
      type: "xavier"
    }
    bias_filler {
      type: "constant"
      value: 0
    }
  }
}
layer {
  name: "mult_conv4_3"
  type: "Eltwise"
  bottom: "conv4_3_ori"
  bottom: "seg_to_det_conv"
  top: "conv4_3_t"
  eltwise_param {
    operation: PROD
  }
}
layer {
  name: "conv4_3_s"
  type: "Pooling"
  bottom: "conv4_3_t"
  top: "conv4_3_s"
  pooling_param {
    pool: AVE
    global_pooling: true
  }
}
layer {
  name: "conv4_3_fc1"
  type: "Convolution"
  bottom: "conv4_3_s"
  top: "conv4_3_fc1"
  param {
    lr_mult: 1
    decay_mult: 1
  }
  param {
    lr_mult: 2
    decay_mult: 0
  }
  convolution_param {
    num_output: 128
    kernel_size: 1
    stride: 1
    weight_filler {
      type: "xavier"
    }
    bias_filler {
      type: "constant"
      value: 0
    }
  }
}
layer {
  name: "conv4_3_relu"
  type: "ReLU"
  bottom: "conv4_3_fc1"
  top: "conv4_3_fc1"
}
layer {
  name: "conv4_3_fc2"
  type: "Convolution"
  bottom: "conv4_3_fc1"
  top: "conv4_3_fc2"
  param {
    lr_mult: 1
    decay_mult: 1
  }
  param {
    lr_mult: 2
    decay_mult: 0
  }
  convolution_param {
    num_output: 512
    kernel_size: 1
    stride: 1
    weight_filler {
      type: "xavier"
    }
    bias_filler {
      type: "constant"
      value: 0
    }
  }
}
layer {
  name: "conv4_3_sig"
  type: "Sigmoid"
  bottom: "conv4_3_fc2"
  top: "conv4_3_fc2"
}
layer {
  name: "conv4_3_reshape"
  type: "Reshape"
  bottom: "conv4_3_fc2"
  top: "conv4_3_reshape"
  reshape_param {
    shape {
      dim: 0
      dim: 0
    }
  }
}
layer {
  name: "conv4_3_scale"
  type: "Scale"
  bottom: "conv4_3_t"
  bottom: "conv4_3_reshape"
  top: "conv4_3"
  scale_param {
    axis: 0
    bias_term: false
  }
}
layer {
  name: "pool4"
  type: "Pooling"
  bottom: "conv4_3"
  top: "pool4"
  pooling_param {
    pool: MAX
    kernel_size: 2
    stride: 2
  }
}
…
I0309 23:11:39.336666 12883 net.cpp:157] Top shape: 1 256 4 4 (4096)
I0309 23:11:39.336676 12883 net.cpp:157] Top shape: 1 256 4 4 (4096)
I0309 23:11:39.336689 12883 net.cpp:165] Memory required for data: 908653568
I0309 23:11:39.336724 12883 layer_factory.hpp:77] Creating layer conv9_1
I0309 23:11:39.336751 12883 net.cpp:100] Creating Layer conv9_1
I0309 23:11:39.336768 12883 net.cpp:434] conv9_1 <- conv8_2_conv8_2_scale_0_split_0
I0309 23:11:39.336787 12883 net.cpp:408] conv9_1 -> conv9_1
I0309 23:11:39.339571 12883 net.cpp:150] Setting up conv9_1
I0309 23:11:39.339596 12883 net.cpp:157] Top shape: 1 128 4 4 (2048)
I0309 23:11:39.339604 12883 net.cpp:165] Memory required for data: 908661760
I0309 23:11:39.339617 12883 layer_factory.hpp:77] Creating layer conv9_1_relu
I0309 23:11:39.339634 12883 net.cpp:100] Creating Layer conv9_1_relu
I0309 23:11:39.339653 12883 net.cpp:434] conv9_1_relu <- conv9_1
I0309 23:11:39.339666 12883 net.cpp:395] conv9_1_relu -> conv9_1 (in-place)
I0309 23:11:39.340040 12883 net.cpp:150] Setting up conv9_1_relu
I0309 23:11:39.340055 12883 net.cpp:157] Top shape: 1 128 4 4 (2048)
I0309 23:11:39.340065 12883 net.cpp:165] Memory required for data: 908669952
I0309 23:11:39.340072 12883 layer_factory.hpp:77] Creating layer conv9_2
I0309 23:11:39.340092 12883 net.cpp:100] Creating Layer conv9_2
I0309 23:11:39.340106 12883 net.cpp:434] conv9_2 <- conv9_1
I0309 23:11:39.340128 12883 net.cpp:408] conv9_2 -> conv9_2_t
I0309 23:11:39.346786 12883 net.cpp:150] Setting up conv9_2
I0309 23:11:39.346819 12883 net.cpp:157] Top shape: 1 256 2 2 (1024)
I0309 23:11:39.346830 12883 net.cpp:165] Memory required for data: 908674048
I0309 23:11:39.346848 12883 layer_factory.hpp:77] Creating layer conv9_2_relu
I0309 23:11:39.346863 12883 net.cpp:100] Creating Layer conv9_2_relu
I0309 23:11:39.346881 12883 net.cpp:434] conv9_2_relu <- conv9_2_t
I0309 23:11:39.346895 12883 net.cpp:395] conv9_2_relu -> conv9_2_t (in-place)
I0309 23:11:39.347945 12883 net.cpp:150] Setting up conv9_2_relu
I0309 23:11:39.347967 12883 net.cpp:157] Top shape: 1 256 2 2 (1024)
I0309 23:11:39.347975 12883 net.cpp:165] Memory required for data: 908678144
I0309 23:11:39.347982 12883 layer_factory.hpp:77] Creating layer conv9_2_t_conv9_2_relu_0_split
I0309 23:11:39.348001 12883 net.cpp:100] Creating Layer conv9_2_t_conv9_2_relu_0_split
I0309 23:11:39.348016 12883 net.cpp:434] conv9_2_t_conv9_2_relu_0_split <- conv9_2_t
I0309 23:11:39.348037 12883 net.cpp:408] conv9_2_t_conv9_2_relu_0_split -> conv9_2_t_conv9_2_relu_0_split_0
I0309 23:11:39.348059 12883 net.cpp:408] conv9_2_t_conv9_2_relu_0_split -> conv9_2_t_conv9_2_relu_0_split_1
I0309 23:11:39.348172 12883 net.cpp:150] Setting up conv9_2_t_conv9_2_relu_0_split
I0309 23:11:39.348186 12883 net.cpp:157] Top shape: 1 256 2 2 (1024)
I0309 23:11:39.348196 12883 net.cpp:157] Top shape: 1 256 2 2 (1024)
I0309 23:11:39.348202 12883 net.cpp:165] Memory required for data: 908686336
I0309 23:11:39.348212 12883 layer_factory.hpp:77] Creating layer conv9_2_s
I0309 23:11:39.348233 12883 net.cpp:100] Creating Layer conv9_2_s
I0309 23:11:39.348250 12883 net.cpp:434] conv9_2_s <- conv9_2_t_conv9_2_relu_0_split_0
I0309 23:11:39.348270 12883 net.cpp:408] conv9_2_s -> conv9_2_s
I0309 23:11:39.348664 12883 net.cpp:150] Setting up conv9_2_s
I0309 23:11:39.348677 12883 net.cpp:157] Top shape: 1 256 1 1 (256)
I0309 23:11:39.348686 12883 net.cpp:165] Memory required for data: 908687360
I0309 23:11:39.348692 12883 layer_factory.hpp:77] Creating layer conv9_2_fc1
I0309 23:11:39.348712 12883 net.cpp:100] Creating Layer conv9_2_fc1
I0309 23:11:39.348729 12883 net.cpp:434] conv9_2_fc1 <- conv9_2_s
I0309 23:11:39.348749 12883 net.cpp:408] conv9_2_fc1 -> conv9_2_fc1
I0309 23:11:39.352784 12883 net.cpp:150] Setting up conv9_2_fc1
I0309 23:11:39.352807 12883 net.cpp:157] Top shape: 1 64 1 1 (64)
I0309 23:11:39.352814 12883 net.cpp:165] Memory required for data: 908687616
I0309 23:11:39.352825 12883 layer_factory.hpp:77] Creating layer conv9_2_relu
I0309 23:11:39.352838 12883 net.cpp:100] Creating Layer conv9_2_relu
I0309 23:11:39.352852 12883 net.cpp:434] conv9_2_relu <- conv9_2_fc1
I0309 23:11:39.352874 12883 net.cpp:395] conv9_2_relu -> conv9_2_fc1 (in-place)
I0309 23:11:39.353241 12883 net.cpp:150] Setting up conv9_2_relu
I0309 23:11:39.353273 12883 net.cpp:157] Top shape: 1 64 1 1 (64)
I0309 23:11:39.353282 12883 net.cpp:165] Memory required for data: 908687872
I0309 23:11:39.353288 12883 layer_factory.hpp:77] Creating layer conv9_2_fc2
I0309 23:11:39.353304 12883 net.cpp:100] Creating Layer conv9_2_fc2
I0309 23:11:39.353317 12883 net.cpp:434] conv9_2_fc2 <- conv9_2_fc1
I0309 23:11:39.353338 12883 net.cpp:408] conv9_2_fc2 -> conv9_2_fc2
I0309 23:11:39.356600 12883 net.cpp:150] Setting up conv9_2_fc2
I0309 23:11:39.356619 12883 net.cpp:157] Top shape: 1 256 1 1 (256)
I0309 23:11:39.356627 12883 net.cpp:165] Memory required for data: 908688896
I0309 23:11:39.356640 12883 layer_factory.hpp:77] Creating layer conv9_2_sig
I0309 23:11:39.356653 12883 net.cpp:100] Creating Layer conv9_2_sig
I0309 23:11:39.356665 12883 net.cpp:434] conv9_2_sig <- conv9_2_fc2
I0309 23:11:39.356691 12883 net.cpp:395] conv9_2_sig -> conv9_2_fc2 (in-place)
I0309 23:11:39.357074 12883 net.cpp:150] Setting up conv9_2_sig
I0309 23:11:39.357087 12883 net.cpp:157] Top shape: 1 256 1 1 (256)
I0309 23:11:39.357095 12883 net.cpp:165] Memory required for data: 908689920
I0309 23:11:39.357103 12883 layer_factory.hpp:77] Creating layer conv9_2_reshape
I0309 23:11:39.357118 12883 net.cpp:100] Creating Layer conv9_2_reshape
I0309 23:11:39.357131 12883 net.cpp:434] conv9_2_reshape <- conv9_2_fc2
I0309 23:11:39.357146 12883 net.cpp:408] conv9_2_reshape -> conv9_2_reshape
I0309 23:11:39.357223 12883 net.cpp:150] Setting up conv9_2_reshape
I0309 23:11:39.357241 12883 net.cpp:157] Top shape: 1 256 (256)
I0309 23:11:39.357254 12883 net.cpp:165] Memory required for data: 908690944
I0309 23:11:39.357260 12883 layer_factory.hpp:77] Creating layer conv9_2_scale
I0309 23:11:39.357270 12883 net.cpp:100] Creating Layer conv9_2_scale
I0309 23:11:39.357285 12883 net.cpp:434] conv9_2_scale <- conv9_2_t_conv9_2_relu_0_split_1
I0309 23:11:39.357300 12883 net.cpp:434] conv9_2_scale <- conv9_2_reshape
I0309 23:11:39.357317 12883 net.cpp:408] conv9_2_scale -> conv9_2
I0309 23:11:39.357491 12883 net.cpp:150] Setting up conv9_2_scale
I0309 23:11:39.357504 12883 net.cpp:157] Top shape: 1 256 2 2 (1024)
I0309 23:11:39.357513 12883 net.cpp:165] Memory required for data: 908695040
I0309 23:11:39.357519 12883 layer_factory.hpp:77] Creating layer conv9_2_conv9_2_scale_0_split
I0309 23:11:39.357535 12883 net.cpp:100] Creating Layer conv9_2_conv9_2_scale_0_split
I0309 23:11:39.357549 12883 net.cpp:434] conv9_2_conv9_2_scale_0_split <- conv9_2
I0309 23:11:39.357566 12883 net.cpp:408] conv9_2_conv9_2_scale_0_split -> conv9_2_conv9_2_scale_0_split_0
I0309 23:11:39.357580 12883 net.cpp:408] conv9_2_conv9_2_scale_0_split -> conv9_2_conv9_2_scale_0_split_1
I0309 23:11:39.357589 12883 net.cpp:408] conv9_2_conv9_2_scale_0_split -> conv9_2_conv9_2_scale_0_split_2
I0309 23:11:39.357601 12883 net.cpp:408] conv9_2_conv9_2_scale_0_split -> conv9_2_conv9_2_scale_0_split_3
I0309 23:11:39.357776 12883 net.cpp:150] Setting up conv9_2_conv9_2_scale_0_split
I0309 23:11:39.357787 12883 net.cpp:157] Top shape: 1 256 2 2 (1024)
I0309 23:11:39.357796 12883 net.cpp:157] Top shape: 1 256 2 2 (1024)
I0309 23:11:39.357806 12883 net.cpp:157] Top shape: 1 256 2 2 (1024)
I0309 23:11:39.357813 12883 net.cpp:157] Top shape: 1 256 2 2 (1024)
I0309 23:11:39.357820 12883 net.cpp:165] Memory required for data: 908711424
I0309 23:11:39.357831 12883 layer_factory.hpp:77] Creating layer conv10_1
I0309 23:11:39.357859 12883 net.cpp:100] Creating Layer conv10_1
I0309 23:11:39.357869 12883 net.cpp:434] conv10_1 <- conv9_2_conv9_2_scale_0_split_0
I0309 23:11:39.357880 12883 net.cpp:408] conv10_1 -> conv10_1
I0309 23:11:39.360427 12883 net.cpp:150] Setting up conv10_1
I0309 23:11:39.360447 12883 net.cpp:157] Top shape: 1 128 2 2 (512)
I0309 23:11:39.360458 12883 net.cpp:165] Memory required for data: 908713472
I0309 23:11:39.360472 12883 layer_factory.hpp:77] Creating layer conv10_1_relu
I0309 23:11:39.360494 12883 net.cpp:100] Creating Layer conv10_1_relu
I0309 23:11:39.360508 12883 net.cpp:434] conv10_1_relu <- conv10_1
I0309 23:11:39.360544 12883 net.cpp:395] conv10_1_relu -> conv10_1 (in-place)
I0309 23:11:39.366760 12883 net.cpp:150] Setting up conv10_1_relu
I0309 23:11:39.366777 12883 net.cpp:157] Top shape: 1 128 2 2 (512)
I0309 23:11:39.366786 12883 net.cpp:165] Memory required for data: 908715520
I0309 23:11:39.366792 12883 layer_factory.hpp:77] Creating layer conv10_2
I0309 23:11:39.366806 12883 net.cpp:100] Creating Layer conv10_2
I0309 23:11:39.366814 12883 net.cpp:434] conv10_2 <- conv10_1
I0309 23:11:39.366825 12883 net.cpp:408] conv10_2 -> conv10_2_t
I0309 23:11:39.373430 12883 net.cpp:150] Setting up conv10_2
I0309 23:11:39.373452 12883 net.cpp:157] Top shape: 1 256 1 1 (256)
I0309 23:11:39.373461 12883 net.cpp:165] Memory required for data: 908716544
I0309 23:11:39.373477 12883 layer_factory.hpp:77] Creating layer conv10_2_relu
I0309 23:11:39.373491 12883 net.cpp:100] Creating Layer conv10_2_relu
I0309 23:11:39.373502 12883 net.cpp:434] conv10_2_relu <- conv10_2_t
I0309 23:11:39.373514 12883 net.cpp:395] conv10_2_relu -> conv10_2_t (in-place)
I0309 23:11:39.373884 12883 net.cpp:150] Setting up conv10_2_relu
I0309 23:11:39.373900 12883 net.cpp:157] Top shape: 1 256 1 1 (256)
I0309 23:11:39.373906 12883 net.cpp:165] Memory required for data: 908717568
I0309 23:11:39.373914 12883 layer_factory.hpp:77] Creating layer conv10_2_t_conv10_2_relu_0_split
I0309 23:11:39.373929 12883 net.cpp:100] Creating Layer conv10_2_t_conv10_2_relu_0_split
I0309 23:11:39.373937 12883 net.cpp:434] conv10_2_t_conv10_2_relu_0_split <- conv10_2_t
I0309 23:11:39.373948 12883 net.cpp:408] conv10_2_t_conv10_2_relu_0_split -> conv10_2_t_conv10_2_relu_0_split_0
I0309 23:11:39.373960 12883 net.cpp:408] conv10_2_t_conv10_2_relu_0_split -> conv10_2_t_conv10_2_relu_0_split_1
I0309 23:11:39.374066 12883 net.cpp:150] Setting up conv10_2_t_conv10_2_relu_0_split
I0309 23:11:39.374081 12883 net.cpp:157] Top shape: 1 256 1 1 (256)
I0309 23:11:39.374090 12883 net.cpp:157] Top shape: 1 256 1 1 (256)
I0309 23:11:39.374096 12883 net.cpp:165] Memory required for data: 908719616
I0309 23:11:39.374106 12883 layer_factory.hpp:77] Creating layer conv10_2_s
I0309 23:11:39.374145 12883 net.cpp:100] Creating Layer conv10_2_s
I0309 23:11:39.374155 12883 net.cpp:434] conv10_2_s <- conv10_2_t_conv10_2_relu_0_split_0
I0309 23:11:39.374164 12883 net.cpp:408] conv10_2_s -> conv10_2_s
I0309 23:11:39.374606 12883 net.cpp:150] Setting up conv10_2_s
I0309 23:11:39.374622 12883 net.cpp:157] Top shape: 1 256 1 1 (256)
I0309 23:11:39.374629 12883 net.cpp:165] Memory required for data: 908720640
I0309 23:11:39.374635 12883 layer_factory.hpp:77] Creating layer conv10_2_fc1
I0309 23:11:39.374657 12883 net.cpp:100] Creating Layer conv10_2_fc1
I0309 23:11:39.374668 12883 net.cpp:434] conv10_2_fc1 <- conv10_2_s
I0309 23:11:39.374681 12883 net.cpp:408] conv10_2_fc1 -> conv10_2_fc1
I0309 23:11:39.376973 12883 net.cpp:150] Setting up conv10_2_fc1
I0309 23:11:39.376991 12883 net.cpp:157] Top shape: 1 64 1 1 (64)
I0309 23:11:39.376996 12883 net.cpp:165] Memory required for data: 908720896
I0309 23:11:39.377005 12883 layer_factory.hpp:77] Creating layer conv10_2_relu
I0309 23:11:39.377014 12883 net.cpp:100] Creating Layer conv10_2_relu
I0309 23:11:39.377022 12883 net.cpp:434] conv10_2_relu <- conv10_2_fc1
I0309 23:11:39.377030 12883 net.cpp:395] conv10_2_relu -> conv10_2_fc1 (in-place)
I0309 23:11:39.377863 12883 net.cpp:150] Setting up conv10_2_relu
I0309 23:11:39.377878 12883 net.cpp:157] Top shape: 1 64 1 1 (64)
I0309 23:11:39.377883 12883 net.cpp:165] Memory required for data: 908721152
I0309 23:11:39.377889 12883 layer_factory.hpp:77] Creating layer conv10_2_fc2
I0309 23:11:39.377907 12883 net.cpp:100] Creating Layer conv10_2_fc2
I0309 23:11:39.377914 12883 net.cpp:434] conv10_2_fc2 <- conv10_2_fc1
I0309 23:11:39.377928 12883 net.cpp:408] conv10_2_fc2 -> conv10_2_fc2
I0309 23:11:39.379935 12883 net.cpp:150] Setting up conv10_2_fc2
I0309 23:11:39.379951 12883 net.cpp:157] Top shape: 1 256 1 1 (256)
I0309 23:11:39.379954 12883 net.cpp:165] Memory required for data: 908722176
I0309 23:11:39.379992 12883 layer_factory.hpp:77] Creating layer conv10_2_sig
I0309 23:11:39.380002 12883 net.cpp:100] Creating Layer conv10_2_sig
I0309 23:11:39.380007 12883 net.cpp:434] conv10_2_sig <- conv10_2_fc2
I0309 23:11:39.380015 12883 net.cpp:395] conv10_2_sig -> conv10_2_fc2 (in-place)
I0309 23:11:39.380282 12883 net.cpp:150] Setting up conv10_2_sig
I0309 23:11:39.380293 12883 net.cpp:157] Top shape: 1 256 1 1 (256)
I0309 23:11:39.380298 12883 net.cpp:165] Memory required for data: 908723200
I0309 23:11:39.380302 12883 layer_factory.hpp:77] Creating layer conv10_2_reshape
I0309 23:11:39.380313 12883 net.cpp:100] Creating Layer conv10_2_reshape
I0309 23:11:39.380319 12883 net.cpp:434] conv10_2_reshape <- conv10_2_fc2
I0309 23:11:39.380328 12883 net.cpp:408] conv10_2_reshape -> conv10_2_reshape
I0309 23:11:39.380378 12883 net.cpp:150] Setting up conv10_2_reshape
I0309 23:11:39.380389 12883 net.cpp:157] Top shape: 1 256 (256)
I0309 23:11:39.380393 12883 net.cpp:165] Memory required for data: 908724224
I0309 23:11:39.380400 12883 layer_factory.hpp:77] Creating layer conv10_2_scale
I0309 23:11:39.380408 12883 net.cpp:100] Creating Layer conv10_2_scale
I0309 23:11:39.380417 12883 net.cpp:434] conv10_2_scale <- conv10_2_t_conv10_2_relu_0_split_1
I0309 23:11:39.380427 12883 net.cpp:434] conv10_2_scale <- conv10_2_reshape
I0309 23:11:39.380435 12883 net.cpp:408] conv10_2_scale -> conv10_2
I0309 23:11:39.380559 12883 net.cpp:150] Setting up conv10_2_scale
I0309 23:11:39.380570 12883 net.cpp:157] Top shape: 1 256 1 1 (256)
I0309 23:11:39.380574 12883 net.cpp:165] Memory required for data: 908725248
I0309 23:11:39.380579 12883 layer_factory.hpp:77] Creating layer conv10_2_conv10_2_scale_0_split
I0309 23:11:39.380587 12883 net.cpp:100] Creating Layer conv10_2_conv10_2_scale_0_split
I0309 23:11:39.380594 12883 net.cpp:434] conv10_2_conv10_2_scale_0_split <- conv10_2
I0309 23:11:39.380604 12883 net.cpp:408] conv10_2_conv10_2_scale_0_split -> conv10_2_conv10_2_scale_0_split_0
I0309 23:11:39.380616 12883 net.cpp:408] conv10_2_conv10_2_scale_0_split -> conv10_2_conv10_2_scale_0_split_1
I0309 23:11:39.380626 12883 net.cpp:408] conv10_2_conv10_2_scale_0_split -> conv10_2_conv10_2_scale_0_split_2
I0309 23:11:39.380715 12883 net.cpp:150] Setting up conv10_2_conv10_2_scale_0_split
I0309 23:11:39.380724 12883 net.cpp:157] Top shape: 1 256 1 1 (256)
I0309 23:11:39.380730 12883 net.cpp:157] Top shape: 1 256 1 1 (256)
I0309 23:11:39.380734 12883 net.cpp:157] Top shape: 1 256 1 1 (256)
I0309 23:11:39.380743 12883 net.cpp:165] Memory required for data: 908728320
I0309 23:11:39.380748 12883 layer_factory.hpp:77] Creating layer conv4_3_norm
I0309 23:11:39.380759 12883 net.cpp:100] Creating Layer conv4_3_norm
I0309 23:11:39.380769 12883 net.cpp:434] conv4_3_norm <- conv4_3_conv4_3_scale_0_split_1
I0309 23:11:39.380779 12883 net.cpp:408] conv4_3_norm -> conv4_3_norm
I0309 23:11:39.381057 12883 net.cpp:150] Setting up conv4_3_norm
I0309 23:11:39.381067 12883 net.cpp:157] Top shape: 1 512 64 64 (2097152)
I0309 23:11:39.381072 12883 net.cpp:165] Memory required for data: 917116928
I0309 23:11:39.381078 12883 layer_factory.hpp:77] Creating layer conv4_3_norm_conv4_3_norm_0_split
I0309 23:11:39.381089 12883 net.cpp:100] Creating Layer conv4_3_norm_conv4_3_norm_0_split
I0309 23:11:39.381098 12883 net.cpp:434] conv4_3_norm_conv4_3_norm_0_split <- conv4_3_norm
I0309 23:11:39.381105 12883 net.cpp:408] conv4_3_norm_conv4_3_norm_0_split -> conv4_3_norm_conv4_3_norm_0_split_0
I0309 23:11:39.381119 12883 net.cpp:408] conv4_3_norm_conv4_3_norm_0_split -> conv4_3_norm_conv4_3_norm_0_split_1
I0309 23:11:39.381129 12883 net.cpp:408] conv4_3_norm_conv4_3_norm_0_split -> conv4_3_norm_conv4_3_norm_0_split_2
I0309 23:11:39.381217 12883 net.cpp:150] Setting up conv4_3_norm_conv4_3_norm_0_split
I0309 23:11:39.381230 12883 net.cpp:157] Top shape: 1 512 64 64 (2097152)
I0309 23:11:39.381237 12883 net.cpp:157] Top shape: 1 512 64 64 (2097152)
I0309 23:11:39.381247 12883 net.cpp:157] Top shape: 1 512 64 64 (2097152)
I0309 23:11:39.381251 12883 net.cpp:165] Memory required for data: 942282752
I0309 23:11:39.381273 12883 layer_factory.hpp:77] Creating layer conv4_3_norm_mbox_loc
I0309 23:11:39.381287 12883 net.cpp:100] Creating Layer conv4_3_norm_mbox_loc
I0309 23:11:39.381295 12883 net.cpp:434] conv4_3_norm_mbox_loc <- conv4_3_norm_conv4_3_norm_0_split_0
I0309 23:11:39.381305 12883 net.cpp:408] conv4_3_norm_mbox_loc -> conv4_3_norm_mbox_loc
I0309 23:11:39.384197 12883 net.cpp:150] Setting up conv4_3_norm_mbox_loc
I0309 23:11:39.384217 12883 net.cpp:157] Top shape: 1 16 64 64 (65536)
I0309 23:11:39.384225 12883 net.cpp:165] Memory required for data: 942544896
I0309 23:11:39.384235 12883 layer_factory.hpp:77] Creating layer conv4_3_norm_mbox_loc_perm
I0309 23:11:39.384248 12883 net.cpp:100] Creating Layer conv4_3_norm_mbox_loc_perm
I0309 23:11:39.384255 12883 net.cpp:434] conv4_3_norm_mbox_loc_perm <- conv4_3_norm_mbox_loc
I0309 23:11:39.384263 12883 net.cpp:408] conv4_3_norm_mbox_loc_perm -> conv4_3_norm_mbox_loc_perm
I0309 23:11:39.384465 12883 net.cpp:150] Setting up conv4_3_norm_mbox_loc_perm
I0309 23:11:39.384475 12883 net.cpp:157] Top shape: 1 64 64 16 (65536)
I0309 23:11:39.384481 12883 net.cpp:165] Memory required for data: 942807040
I0309 23:11:39.384488 12883 layer_factory.hpp:77] Creating layer conv4_3_norm_mbox_loc_flat
I0309 23:11:39.384498 12883 net.cpp:100] Creating Layer conv4_3_norm_mbox_loc_flat
I0309 23:11:39.384506 12883 net.cpp:434] conv4_3_norm_mbox_loc_flat <- conv4_3_norm_mbox_loc_perm
I0309 23:11:39.384516 12883 net.cpp:408] conv4_3_norm_mbox_loc_flat -> conv4_3_norm_mbox_loc_flat
I0309 23:11:39.384559 12883 net.cpp:150] Setting up conv4_3_norm_mbox_loc_flat
I0309 23:11:39.384568 12883 net.cpp:157] Top shape: 1 65536 (65536)
I0309 23:11:39.384572 12883 net.cpp:165] Memory required for data: 943069184
I0309 23:11:39.384578 12883 layer_factory.hpp:77] Creating layer conv4_3_norm_mbox_conf
I0309 23:11:39.384595 12883 net.cpp:100] Creating Layer conv4_3_norm_mbox_conf
I0309 23:11:39.384603 12883 net.cpp:434] conv4_3_norm_mbox_conf <- conv4_3_norm_conv4_3_norm_0_split_1
I0309 23:11:39.384618 12883 net.cpp:408] conv4_3_norm_mbox_conf -> conv4_3_norm_mbox_conf
I0309 23:11:39.390583 12883 net.cpp:150] Setting up conv4_3_norm_mbox_conf
I0309 23:11:39.390600 12883 net.cpp:157] Top shape: 1 84 64 64 (344064)
I0309 23:11:39.390606 12883 net.cpp:165] Memory required for data: 944445440
I0309 23:11:39.390617 12883 layer_factory.hpp:77] Creating layer conv4_3_norm_mbox_conf_perm
I0309 23:11:39.390630 12883 net.cpp:100] Creating Layer conv4_3_norm_mbox_conf_perm
I0309 23:11:39.390636 12883 net.cpp:434] conv4_3_norm_mbox_conf_perm <- conv4_3_norm_mbox_conf
I0309 23:11:39.390650 12883 net.cpp:408] conv4_3_norm_mbox_conf_perm -> conv4_3_norm_mbox_conf_perm
I0309 23:11:39.390847 12883 net.cpp:150] Setting up conv4_3_norm_mbox_conf_perm
I0309 23:11:39.390858 12883 net.cpp:157] Top shape: 1 64 64 84 (344064)
I0309 23:11:39.390862 12883 net.cpp:165] Memory required for data: 945821696
I0309 23:11:39.390866 12883 layer_factory.hpp:77] Creating layer conv4_3_norm_mbox_conf_flat
I0309 23:11:39.390877 12883 net.cpp:100] Creating Layer conv4_3_norm_mbox_conf_flat
I0309 23:11:39.390882 12883 net.cpp:434] conv4_3_norm_mbox_conf_flat <- conv4_3_norm_mbox_conf_perm
I0309 23:11:39.390893 12883 net.cpp:408] conv4_3_norm_mbox_conf_flat -> conv4_3_norm_mbox_conf_flat
I0309 23:11:39.390936 12883 net.cpp:150] Setting up conv4_3_norm_mbox_conf_flat
I0309 23:11:39.390945 12883 net.cpp:157] Top shape: 1 344064 (344064)
I0309 23:11:39.390951 12883 net.cpp:165] Memory required for data: 947197952
I0309 23:11:39.390956 12883 layer_factory.hpp:77] Creating layer conv4_3_norm_mbox_priorbox
I0309 23:11:39.390971 12883 net.cpp:100] Creating Layer conv4_3_norm_mbox_priorbox
I0309 23:11:39.390981 12883 net.cpp:434] conv4_3_norm_mbox_priorbox <- conv4_3_norm_conv4_3_norm_0_split_2
I0309 23:11:39.390992 12883 net.cpp:434] conv4_3_norm_mbox_priorbox <- data_data_0_split_1
I0309 23:11:39.391002 12883 net.cpp:408] conv4_3_norm_mbox_priorbox -> conv4_3_norm_mbox_priorbox
I0309 23:11:39.391050 12883 net.cpp:150] Setting up conv4_3_norm_mbox_priorbox
I0309 23:11:39.391075 12883 net.cpp:157] Top shape: 1 2 65536 (131072)
I0309 23:11:39.391084 12883 net.cpp:165] Memory required for data: 947722240
I0309 23:11:39.391090 12883 layer_factory.hpp:77] Creating layer fc7_mbox_loc
I0309 23:11:39.391106 12883 net.cpp:100] Creating Layer fc7_mbox_loc
I0309 23:11:39.391114 12883 net.cpp:434] fc7_mbox_loc <- fc7_fc7_scale_0_split_1
I0309 23:11:39.391130 12883 net.cpp:408] fc7_mbox_loc -> fc7_mbox_loc
I0309 23:11:39.396343 12883 net.cpp:150] Setting up fc7_mbox_loc
I0309 23:11:39.396359 12883 net.cpp:157] Top shape: 1 24 32 32 (24576)
I0309 23:11:39.396363 12883 net.cpp:165] Memory required for data: 947820544
I0309 23:11:39.396373 12883 layer_factory.hpp:77] Creating layer fc7_mbox_loc_perm
I0309 23:11:39.396384 12883 net.cpp:100] Creating Layer fc7_mbox_loc_perm
I0309 23:11:39.396391 12883 net.cpp:434] fc7_mbox_loc_perm <- fc7_mbox_loc
I0309 23:11:39.396399 12883 net.cpp:408] fc7_mbox_loc_perm -> fc7_mbox_loc_perm
I0309 23:11:39.396589 12883 net.cpp:150] Setting up fc7_mbox_loc_perm
I0309 23:11:39.396598 12883 net.cpp:157] Top shape: 1 32 32 24 (24576)
I0309 23:11:39.396602 12883 net.cpp:165] Memory required for data: 947918848
I0309 23:11:39.396606 12883 layer_factory.hpp:77] Creating layer fc7_mbox_loc_flat
I0309 23:11:39.396615 12883 net.cpp:100] Creating Layer fc7_mbox_loc_flat
I0309 23:11:39.396621 12883 net.cpp:434] fc7_mbox_loc_flat <- fc7_mbox_loc_perm
I0309 23:11:39.396631 12883 net.cpp:408] fc7_mbox_loc_flat -> fc7_mbox_loc_flat
I0309 23:11:39.396672 12883 net.cpp:150] Setting up fc7_mbox_loc_flat
I0309 23:11:39.396680 12883 net.cpp:157] Top shape: 1 24576 (24576)
I0309 23:11:39.396684 12883 net.cpp:165] Memory required for data: 948017152
I0309 23:11:39.396688 12883 layer_factory.hpp:77] Creating layer fc7_mbox_conf
I0309 23:11:39.396699 12883 net.cpp:100] Creating Layer fc7_mbox_conf
I0309 23:11:39.396708 12883 net.cpp:434] fc7_mbox_conf <- fc7_fc7_scale_0_split_2
I0309 23:11:39.396721 12883 net.cpp:408] fc7_mbox_conf -> fc7_mbox_conf
I0309 23:11:39.407879 12883 net.cpp:150] Setting up fc7_mbox_conf
I0309 23:11:39.407896 12883 net.cpp:157] Top shape: 1 126 32 32 (129024)
I0309 23:11:39.407902 12883 net.cpp:165] Memory required for data: 948533248
I0309 23:11:39.407910 12883 layer_factory.hpp:77] Creating layer fc7_mbox_conf_perm
I0309 23:11:39.407920 12883 net.cpp:100] Creating Layer fc7_mbox_conf_perm
I0309 23:11:39.407927 12883 net.cpp:434] fc7_mbox_conf_perm <- fc7_mbox_conf
I0309 23:11:39.407937 12883 net.cpp:408] fc7_mbox_conf_perm -> fc7_mbox_conf_perm
I0309 23:11:39.408125 12883 net.cpp:150] Setting up fc7_mbox_conf_perm
I0309 23:11:39.408135 12883 net.cpp:157] Top shape: 1 32 32 126 (129024)
I0309 23:11:39.408140 12883 net.cpp:165] Memory required for data: 949049344
I0309 23:11:39.408146 12883 layer_factory.hpp:77] Creating layer fc7_mbox_conf_flat
I0309 23:11:39.408154 12883 net.cpp:100] Creating Layer fc7_mbox_conf_flat
I0309 23:11:39.408159 12883 net.cpp:434] fc7_mbox_conf_flat <- fc7_mbox_conf_perm
I0309 23:11:39.408167 12883 net.cpp:408] fc7_mbox_conf_flat -> fc7_mbox_conf_flat
I0309 23:11:39.408211 12883 net.cpp:150] Setting up fc7_mbox_conf_flat
I0309 23:11:39.408219 12883 net.cpp:157] Top shape: 1 129024 (129024)
I0309 23:11:39.408224 12883 net.cpp:165] Memory required for data: 949565440
I0309 23:11:39.408229 12883 layer_factory.hpp:77] Creating layer fc7_mbox_priorbox
I0309 23:11:39.408241 12883 net.cpp:100] Creating Layer fc7_mbox_priorbox
I0309 23:11:39.408247 12883 net.cpp:434] fc7_mbox_priorbox <- fc7_fc7_scale_0_split_3
I0309 23:11:39.408257 12883 net.cpp:434] fc7_mbox_priorbox <- data_data_0_split_2
I0309 23:11:39.408265 12883 net.cpp:408] fc7_mbox_priorbox -> fc7_mbox_priorbox
I0309 23:11:39.408311 12883 net.cpp:150] Setting up fc7_mbox_priorbox
I0309 23:11:39.408319 12883 net.cpp:157] Top shape: 1 2 24576 (49152)
I0309 23:11:39.408326 12883 net.cpp:165] Memory required for data: 949762048
I0309 23:11:39.408331 12883 layer_factory.hpp:77] Creating layer conv6_2_mbox_loc
I0309 23:11:39.408344 12883 net.cpp:100] Creating Layer conv6_2_mbox_loc
I0309 23:11:39.408371 12883 net.cpp:434] conv6_2_mbox_loc <- conv6_2_conv6_2_scale_0_split_1
I0309 23:11:39.408382 12883 net.cpp:408] conv6_2_mbox_loc -> conv6_2_mbox_loc
I0309 23:11:39.411304 12883 net.cpp:150] Setting up conv6_2_mbox_loc
I0309 23:11:39.411322 12883 net.cpp:157] Top shape: 1 24 16 16 (6144)
I0309 23:11:39.411327 12883 net.cpp:165] Memory required for data: 949786624
I0309 23:11:39.411336 12883 layer_factory.hpp:77] Creating layer conv6_2_mbox_loc_perm
I0309 23:11:39.411343 12883 net.cpp:100] Creating Layer conv6_2_mbox_loc_perm
I0309 23:11:39.411350 12883 net.cpp:434] conv6_2_mbox_loc_perm <- conv6_2_mbox_loc
I0309 23:11:39.411360 12883 net.cpp:408] conv6_2_mbox_loc_perm -> conv6_2_mbox_loc_perm
I0309 23:11:39.411538 12883 net.cpp:150] Setting up conv6_2_mbox_loc_perm
I0309 23:11:39.411550 12883 net.cpp:157] Top shape: 1 16 16 24 (6144)
I0309 23:11:39.411557 12883 net.cpp:165] Memory required for data: 949811200
I0309 23:11:39.411562 12883 layer_factory.hpp:77] Creating layer conv6_2_mbox_loc_flat
I0309 23:11:39.411573 12883 net.cpp:100] Creating Layer conv6_2_mbox_loc_flat
I0309 23:11:39.411581 12883 net.cpp:434] conv6_2_mbox_loc_flat <- conv6_2_mbox_loc_perm
I0309 23:11:39.411592 12883 net.cpp:408] conv6_2_mbox_loc_flat -> conv6_2_mbox_loc_flat
I0309 23:11:39.411648 12883 net.cpp:150] Setting up conv6_2_mbox_loc_flat
I0309 23:11:39.411659 12883 net.cpp:157] Top shape: 1 6144 (6144)
I0309 23:11:39.411664 12883 net.cpp:165] Memory required for data: 949835776
I0309 23:11:39.411672 12883 layer_factory.hpp:77] Creating layer conv6_2_mbox_conf
I0309 23:11:39.411687 12883 net.cpp:100] Creating Layer conv6_2_mbox_conf
I0309 23:11:39.411701 12883 net.cpp:434] conv6_2_mbox_conf <- conv6_2_conv6_2_scale_0_split_2
I0309 23:11:39.411716 12883 net.cpp:408] conv6_2_mbox_conf -> conv6_2_mbox_conf
I0309 23:11:39.419318 12883 net.cpp:150] Setting up conv6_2_mbox_conf
I0309 23:11:39.419337 12883 net.cpp:157] Top shape: 1 126 16 16 (32256)
I0309 23:11:39.419340 12883 net.cpp:165] Memory required for data: 949964800
I0309 23:11:39.419348 12883 layer_factory.hpp:77] Creating layer conv6_2_mbox_conf_perm
I0309 23:11:39.419359 12883 net.cpp:100] Creating Layer conv6_2_mbox_conf_perm
I0309 23:11:39.419365 12883 net.cpp:434] conv6_2_mbox_conf_perm <- conv6_2_mbox_conf
I0309 23:11:39.419374 12883 net.cpp:408] conv6_2_mbox_conf_perm -> conv6_2_mbox_conf_perm
I0309 23:11:39.419548 12883 net.cpp:150] Setting up conv6_2_mbox_conf_perm
I0309 23:11:39.419558 12883 net.cpp:157] Top shape: 1 16 16 126 (32256)
I0309 23:11:39.419561 12883 net.cpp:165] Memory required for data: 950093824
I0309 23:11:39.419565 12883 layer_factory.hpp:77] Creating layer conv6_2_mbox_conf_flat
I0309 23:11:39.419574 12883 net.cpp:100] Creating Layer conv6_2_mbox_conf_flat
I0309 23:11:39.419579 12883 net.cpp:434] conv6_2_mbox_conf_flat <- conv6_2_mbox_conf_perm
I0309 23:11:39.419587 12883 net.cpp:408] conv6_2_mbox_conf_flat -> conv6_2_mbox_conf_flat
I0309 23:11:39.419625 12883 net.cpp:150] Setting up conv6_2_mbox_conf_flat
I0309 23:11:39.419633 12883 net.cpp:157] Top shape: 1 32256 (32256)
I0309 23:11:39.419637 12883 net.cpp:165] Memory required for data: 950222848
I0309 23:11:39.419641 12883 layer_factory.hpp:77] Creating layer conv6_2_mbox_priorbox
I0309 23:11:39.419649 12883 net.cpp:100] Creating Layer conv6_2_mbox_priorbox
I0309 23:11:39.419654 12883 net.cpp:434] conv6_2_mbox_priorbox <- conv6_2_conv6_2_scale_0_split_3
I0309 23:11:39.419661 12883 net.cpp:434] conv6_2_mbox_priorbox <- data_data_0_split_3
I0309 23:11:39.419668 12883 net.cpp:408] conv6_2_mbox_priorbox -> conv6_2_mbox_priorbox
I0309 23:11:39.419709 12883 net.cpp:150] Setting up conv6_2_mbox_priorbox
I0309 23:11:39.419718 12883 net.cpp:157] Top shape: 1 2 6144 (12288)
I0309 23:11:39.419723 12883 net.cpp:165] Memory required for data: 950272000
I0309 23:11:39.419726 12883 layer_factory.hpp:77] Creating layer conv7_2_mbox_loc
I0309 23:11:39.419737 12883 net.cpp:100] Creating Layer conv7_2_mbox_loc
I0309 23:11:39.419744 12883 net.cpp:434] conv7_2_mbox_loc <- conv7_2_conv7_2_scale_0_split_1
I0309 23:11:39.419775 12883 net.cpp:408] conv7_2_mbox_loc -> conv7_2_mbox_loc
I0309 23:11:39.422276 12883 net.cpp:150] Setting up conv7_2_mbox_loc
I0309 23:11:39.422288 12883 net.cpp:157] Top shape: 1 24 8 8 (1536)
I0309 23:11:39.422292 12883 net.cpp:165] Memory required for data: 950278144
I0309 23:11:39.422302 12883 layer_factory.hpp:77] Creating layer conv7_2_mbox_loc_perm
I0309 23:11:39.422312 12883 net.cpp:100] Creating Layer conv7_2_mbox_loc_perm
I0309 23:11:39.422317 12883 net.cpp:434] conv7_2_mbox_loc_perm <- conv7_2_mbox_loc
I0309 23:11:39.422348 12883 net.cpp:408] conv7_2_mbox_loc_perm -> conv7_2_mbox_loc_perm
I0309 23:11:39.422530 12883 net.cpp:150] Setting up conv7_2_mbox_loc_perm
I0309 23:11:39.422538 12883 net.cpp:157] Top shape: 1 8 8 24 (1536)
I0309 23:11:39.422543 12883 net.cpp:165] Memory required for data: 950284288
I0309 23:11:39.422546 12883 layer_factory.hpp:77] Creating layer conv7_2_mbox_loc_flat
I0309 23:11:39.422554 12883 net.cpp:100] Creating Layer conv7_2_mbox_loc_flat
I0309 23:11:39.422559 12883 net.cpp:434] conv7_2_mbox_loc_flat <- conv7_2_mbox_loc_perm
I0309 23:11:39.422565 12883 net.cpp:408] conv7_2_mbox_loc_flat -> conv7_2_mbox_loc_flat
I0309 23:11:39.422602 12883 net.cpp:150] Setting up conv7_2_mbox_loc_flat
I0309 23:11:39.422610 12883 net.cpp:157] Top shape: 1 1536 (1536)
I0309 23:11:39.422614 12883 net.cpp:165] Memory required for data: 950290432
I0309 23:11:39.422618 12883 layer_factory.hpp:77] Creating layer conv7_2_mbox_conf
I0309 23:11:39.422629 12883 net.cpp:100] Creating Layer conv7_2_mbox_conf
I0309 23:11:39.422636 12883 net.cpp:434] conv7_2_mbox_conf <- conv7_2_conv7_2_scale_0_split_2
I0309 23:11:39.422646 12883 net.cpp:408] conv7_2_mbox_conf -> conv7_2_mbox_conf
I0309 23:11:39.428478 12883 net.cpp:150] Setting up conv7_2_mbox_conf
I0309 23:11:39.428493 12883 net.cpp:157] Top shape: 1 126 8 8 (8064)
I0309 23:11:39.428498 12883 net.cpp:165] Memory required for data: 950322688
I0309 23:11:39.428506 12883 layer_factory.hpp:77] Creating layer conv7_2_mbox_conf_perm
I0309 23:11:39.428516 12883 net.cpp:100] Creating Layer conv7_2_mbox_conf_perm
I0309 23:11:39.428521 12883 net.cpp:434] conv7_2_mbox_conf_perm <- conv7_2_mbox_conf
I0309 23:11:39.428529 12883 net.cpp:408] conv7_2_mbox_conf_perm -> conv7_2_mbox_conf_perm
I0309 23:11:39.428709 12883 net.cpp:150] Setting up conv7_2_mbox_conf_perm
I0309 23:11:39.428719 12883 net.cpp:157] Top shape: 1 8 8 126 (8064)
I0309 23:11:39.428721 12883 net.cpp:165] Memory required for data: 950354944
I0309 23:11:39.428726 12883 layer_factory.hpp:77] Creating layer conv7_2_mbox_conf_flat
I0309 23:11:39.428735 12883 net.cpp:100] Creating Layer conv7_2_mbox_conf_flat
I0309 23:11:39.428740 12883 net.cpp:434] conv7_2_mbox_conf_flat <- conv7_2_mbox_conf_perm
I0309 23:11:39.428746 12883 net.cpp:408] conv7_2_mbox_conf_flat -> conv7_2_mbox_conf_flat
I0309 23:11:39.428786 12883 net.cpp:150] Setting up conv7_2_mbox_conf_flat
I0309 23:11:39.428792 12883 net.cpp:157] Top shape: 1 8064 (8064)
I0309 23:11:39.428797 12883 net.cpp:165] Memory required for data: 950387200
I0309 23:11:39.428800 12883 layer_factory.hpp:77] Creating layer conv7_2_mbox_priorbox
I0309 23:11:39.428812 12883 net.cpp:100] Creating Layer conv7_2_mbox_priorbox
I0309 23:11:39.428817 12883 net.cpp:434] conv7_2_mbox_priorbox <- conv7_2_conv7_2_scale_0_split_3
I0309 23:11:39.428825 12883 net.cpp:434] conv7_2_mbox_priorbox <- data_data_0_split_4
I0309 23:11:39.428833 12883 net.cpp:408] conv7_2_mbox_priorbox -> conv7_2_mbox_priorbox
I0309 23:11:39.428872 12883 net.cpp:150] Setting up conv7_2_mbox_priorbox
I0309 23:11:39.428880 12883 net.cpp:157] Top shape: 1 2 1536 (3072)
I0309 23:11:39.428884 12883 net.cpp:165] Memory required for data: 950399488
I0309 23:11:39.428887 12883 layer_factory.hpp:77] Creating layer conv8_2_mbox_loc
I0309 23:11:39.428901 12883 net.cpp:100] Creating Layer conv8_2_mbox_loc
I0309 23:11:39.428907 12883 net.cpp:434] conv8_2_mbox_loc <- conv8_2_conv8_2_scale_0_split_1
I0309 23:11:39.428915 12883 net.cpp:408] conv8_2_mbox_loc -> conv8_2_mbox_loc
I0309 23:11:39.430932 12883 net.cpp:150] Setting up conv8_2_mbox_loc
I0309 23:11:39.430960 12883 net.cpp:157] Top shape: 1 24 4 4 (384)
I0309 23:11:39.430964 12883 net.cpp:165] Memory required for data: 950401024
I0309 23:11:39.430974 12883 layer_factory.hpp:77] Creating layer conv8_2_mbox_loc_perm
I0309 23:11:39.430984 12883 net.cpp:100] Creating Layer conv8_2_mbox_loc_perm
I0309 23:11:39.430991 12883 net.cpp:434] conv8_2_mbox_loc_perm <- conv8_2_mbox_loc
I0309 23:11:39.430999 12883 net.cpp:408] conv8_2_mbox_loc_perm -> conv8_2_mbox_loc_perm
I0309 23:11:39.431169 12883 net.cpp:150] Setting up conv8_2_mbox_loc_perm
I0309 23:11:39.431179 12883 net.cpp:157] Top shape: 1 4 4 24 (384)
I0309 23:11:39.431182 12883 net.cpp:165] Memory required for data: 950402560
I0309 23:11:39.431187 12883 layer_factory.hpp:77] Creating layer conv8_2_mbox_loc_flat
I0309 23:11:39.431193 12883 net.cpp:100] Creating Layer conv8_2_mbox_loc_flat
I0309 23:11:39.431198 12883 net.cpp:434] conv8_2_mbox_loc_flat <- conv8_2_mbox_loc_perm
I0309 23:11:39.431206 12883 net.cpp:408] conv8_2_mbox_loc_flat -> conv8_2_mbox_loc_flat
I0309 23:11:39.431242 12883 net.cpp:150] Setting up conv8_2_mbox_loc_flat
I0309 23:11:39.431251 12883 net.cpp:157] Top shape: 1 384 (384)
I0309 23:11:39.431257 12883 net.cpp:165] Memory required for data: 950404096
I0309 23:11:39.431262 12883 layer_factory.hpp:77] Creating layer conv8_2_mbox_conf
I0309 23:11:39.431272 12883 net.cpp:100] Creating Layer conv8_2_mbox_conf
I0309 23:11:39.431278 12883 net.cpp:434] conv8_2_mbox_conf <- conv8_2_conv8_2_scale_0_split_2
I0309 23:11:39.431288 12883 net.cpp:408] conv8_2_mbox_conf -> conv8_2_mbox_conf
I0309 23:11:39.436100 12883 net.cpp:150] Setting up conv8_2_mbox_conf
I0309 23:11:39.436116 12883 net.cpp:157] Top shape: 1 126 4 4 (2016)
I0309 23:11:39.436122 12883 net.cpp:165] Memory required for data: 950412160
I0309 23:11:39.436131 12883 layer_factory.hpp:77] Creating layer conv8_2_mbox_conf_perm
I0309 23:11:39.436141 12883 net.cpp:100] Creating Layer conv8_2_mbox_conf_perm
I0309 23:11:39.436146 12883 net.cpp:434] conv8_2_mbox_conf_perm <- conv8_2_mbox_conf
I0309 23:11:39.436158 12883 net.cpp:408] conv8_2_mbox_conf_perm -> conv8_2_mbox_conf_perm
I0309 23:11:39.436337 12883 net.cpp:150] Setting up conv8_2_mbox_conf_perm
I0309 23:11:39.436345 12883 net.cpp:157] Top shape: 1 4 4 126 (2016)
I0309 23:11:39.436348 12883 net.cpp:165] Memory required for data: 950420224
I0309 23:11:39.436352 12883 layer_factory.hpp:77] Creating layer conv8_2_mbox_conf_flat
I0309 23:11:39.436359 12883 net.cpp:100] Creating Layer conv8_2_mbox_conf_flat
I0309 23:11:39.436367 12883 net.cpp:434] conv8_2_mbox_conf_flat <- conv8_2_mbox_conf_perm
I0309 23:11:39.436373 12883 net.cpp:408] conv8_2_mbox_conf_flat -> conv8_2_mbox_conf_flat
I0309 23:11:39.436413 12883 net.cpp:150] Setting up conv8_2_mbox_conf_flat
I0309 23:11:39.436419 12883 net.cpp:157] Top shape: 1 2016 (2016)
I0309 23:11:39.436424 12883 net.cpp:165] Memory required for data: 950428288
I0309 23:11:39.436430 12883 layer_factory.hpp:77] Creating layer conv8_2_mbox_priorbox
I0309 23:11:39.436439 12883 net.cpp:100] Creating Layer conv8_2_mbox_priorbox
I0309 23:11:39.436444 12883 net.cpp:434] conv8_2_mbox_priorbox <- conv8_2_conv8_2_scale_0_split_3
I0309 23:11:39.436452 12883 net.cpp:434] conv8_2_mbox_priorbox <- data_data_0_split_5
I0309 23:11:39.436462 12883 net.cpp:408] conv8_2_mbox_priorbox -> conv8_2_mbox_priorbox
I0309 23:11:39.436507 12883 net.cpp:150] Setting up conv8_2_mbox_priorbox
I0309 23:11:39.436514 12883 net.cpp:157] Top shape: 1 2 384 (768)
I0309 23:11:39.436519 12883 net.cpp:165] Memory required for data: 950431360
I0309 23:11:39.436522 12883 layer_factory.hpp:77] Creating layer conv9_2_mbox_loc
I0309 23:11:39.436533 12883 net.cpp:100] Creating Layer conv9_2_mbox_loc
I0309 23:11:39.436539 12883 net.cpp:434] conv9_2_mbox_loc <- conv9_2_conv9_2_scale_0_split_1
I0309 23:11:39.436547 12883 net.cpp:408] conv9_2_mbox_loc -> conv9_2_mbox_loc
I0309 23:11:39.438506 12883 net.cpp:150] Setting up conv9_2_mbox_loc
I0309 23:11:39.438519 12883 net.cpp:157] Top shape: 1 16 2 2 (64)
I0309 23:11:39.438539 12883 net.cpp:165] Memory required for data: 950431616
I0309 23:11:39.438547 12883 layer_factory.hpp:77] Creating layer conv9_2_mbox_loc_perm
I0309 23:11:39.438560 12883 net.cpp:100] Creating Layer conv9_2_mbox_loc_perm
I0309 23:11:39.438566 12883 net.cpp:434] conv9_2_mbox_loc_perm <- conv9_2_mbox_loc
I0309 23:11:39.438576 12883 net.cpp:408] conv9_2_mbox_loc_perm -> conv9_2_mbox_loc_perm
I0309 23:11:39.438745 12883 net.cpp:150] Setting up conv9_2_mbox_loc_perm
I0309 23:11:39.438753 12883 net.cpp:157] Top shape: 1 2 2 16 (64)
I0309 23:11:39.438758 12883 net.cpp:165] Memory required for data: 950431872
I0309 23:11:39.438762 12883 layer_factory.hpp:77] Creating layer conv9_2_mbox_loc_flat
I0309 23:11:39.438771 12883 net.cpp:100] Creating Layer conv9_2_mbox_loc_flat
I0309 23:11:39.438776 12883 net.cpp:434] conv9_2_mbox_loc_flat <- conv9_2_mbox_loc_perm
I0309 23:11:39.438783 12883 net.cpp:408] conv9_2_mbox_loc_flat -> conv9_2_mbox_loc_flat
I0309 23:11:39.438822 12883 net.cpp:150] Setting up conv9_2_mbox_loc_flat
I0309 23:11:39.438830 12883 net.cpp:157] Top shape: 1 64 (64)
I0309 23:11:39.438833 12883 net.cpp:165] Memory required for data: 950432128
I0309 23:11:39.438839 12883 layer_factory.hpp:77] Creating layer conv9_2_mbox_conf
I0309 23:11:39.438853 12883 net.cpp:100] Creating Layer conv9_2_mbox_conf
I0309 23:11:39.438859 12883 net.cpp:434] conv9_2_mbox_conf <- conv9_2_conv9_2_scale_0_split_2
I0309 23:11:39.438865 12883 net.cpp:408] conv9_2_mbox_conf -> conv9_2_mbox_conf
I0309 23:11:39.442003 12883 net.cpp:150] Setting up conv9_2_mbox_conf
I0309 23:11:39.442018 12883 net.cpp:157] Top shape: 1 84 2 2 (336)
I0309 23:11:39.442023 12883 net.cpp:165] Memory required for data: 950433472
I0309 23:11:39.442031 12883 layer_factory.hpp:77] Creating layer conv9_2_mbox_conf_perm
I0309 23:11:39.442041 12883 net.cpp:100] Creating Layer conv9_2_mbox_conf_perm
I0309 23:11:39.442049 12883 net.cpp:434] conv9_2_mbox_conf_perm <- conv9_2_mbox_conf
I0309 23:11:39.442059 12883 net.cpp:408] conv9_2_mbox_conf_perm -> conv9_2_mbox_conf_perm
I0309 23:11:39.442234 12883 net.cpp:150] Setting up conv9_2_mbox_conf_perm
I0309 23:11:39.442243 12883 net.cpp:157] Top shape: 1 2 2 84 (336)
I0309 23:11:39.442248 12883 net.cpp:165] Memory required for data: 950434816
I0309 23:11:39.442253 12883 layer_factory.hpp:77] Creating layer conv9_2_mbox_conf_flat
I0309 23:11:39.442262 12883 net.cpp:100] Creating Layer conv9_2_mbox_conf_flat
I0309 23:11:39.442270 12883 net.cpp:434] conv9_2_mbox_conf_flat <- conv9_2_mbox_conf_perm
I0309 23:11:39.442278 12883 net.cpp:408] conv9_2_mbox_conf_flat -> conv9_2_mbox_conf_flat
I0309 23:11:39.442319 12883 net.cpp:150] Setting up conv9_2_mbox_conf_flat
I0309 23:11:39.442342 12883 net.cpp:157] Top shape: 1 336 (336)
I0309 23:11:39.442348 12883 net.cpp:165] Memory required for data: 950436160
I0309 23:11:39.442353 12883 layer_factory.hpp:77] Creating layer conv9_2_mbox_priorbox
I0309 23:11:39.442364 12883 net.cpp:100] Creating Layer conv9_2_mbox_priorbox
I0309 23:11:39.442370 12883 net.cpp:434] conv9_2_mbox_priorbox <- conv9_2_conv9_2_scale_0_split_3
I0309 23:11:39.442378 12883 net.cpp:434] conv9_2_mbox_priorbox <- data_data_0_split_6
I0309 23:11:39.442386 12883 net.cpp:408] conv9_2_mbox_priorbox -> conv9_2_mbox_priorbox
I0309 23:11:39.442430 12883 net.cpp:150] Setting up conv9_2_mbox_priorbox
I0309 23:11:39.442440 12883 net.cpp:157] Top shape: 1 2 64 (128)
I0309 23:11:39.442443 12883 net.cpp:165] Memory required for data: 950436672
I0309 23:11:39.442447 12883 layer_factory.hpp:77] Creating layer conv10_2_mbox_loc
I0309 23:11:39.442462 12883 net.cpp:100] Creating Layer conv10_2_mbox_loc
I0309 23:11:39.442471 12883 net.cpp:434] conv10_2_mbox_loc <- conv10_2_conv10_2_scale_0_split_0
I0309 23:11:39.442479 12883 net.cpp:408] conv10_2_mbox_loc -> conv10_2_mbox_loc
I0309 23:11:39.446295 12883 net.cpp:150] Setting up conv10_2_mbox_loc
I0309 23:11:39.446310 12883 net.cpp:157] Top shape: 1 16 1 1 (16)
I0309 23:11:39.446313 12883 net.cpp:165] Memory required for data: 950436736
I0309 23:11:39.446321 12883 layer_factory.hpp:77] Creating layer conv10_2_mbox_loc_perm
I0309 23:11:39.446368 12883 net.cpp:100] Creating Layer conv10_2_mbox_loc_perm
I0309 23:11:39.446377 12883 net.cpp:434] conv10_2_mbox_loc_perm <- conv10_2_mbox_loc
I0309 23:11:39.446385 12883 net.cpp:408] conv10_2_mbox_loc_perm -> conv10_2_mbox_loc_perm
I0309 23:11:39.446552 12883 net.cpp:150] Setting up conv10_2_mbox_loc_perm
I0309 23:11:39.446561 12883 net.cpp:157] Top shape: 1 1 1 16 (16)
I0309 23:11:39.446565 12883 net.cpp:165] Memory required for data: 950436800
I0309 23:11:39.446571 12883 layer_factory.hpp:77] Creating layer conv10_2_mbox_loc_flat
I0309 23:11:39.446583 12883 net.cpp:100] Creating Layer conv10_2_mbox_loc_flat
I0309 23:11:39.446590 12883 net.cpp:434] conv10_2_mbox_loc_flat <- conv10_2_mbox_loc_perm
I0309 23:11:39.446599 12883 net.cpp:408] conv10_2_mbox_loc_flat -> conv10_2_mbox_loc_flat
I0309 23:11:39.446635 12883 net.cpp:150] Setting up conv10_2_mbox_loc_flat
I0309 23:11:39.446642 12883 net.cpp:157] Top shape: 1 16 (16)
I0309 23:11:39.446646 12883 net.cpp:165] Memory required for data: 950436864
I0309 23:11:39.446651 12883 layer_factory.hpp:77] Creating layer conv10_2_mbox_conf
I0309 23:11:39.446665 12883 net.cpp:100] Creating Layer conv10_2_mbox_conf
I0309 23:11:39.446671 12883 net.cpp:434] conv10_2_mbox_conf <- conv10_2_conv10_2_scale_0_split_1
I0309 23:11:39.446679 12883 net.cpp:408] conv10_2_mbox_conf -> conv10_2_mbox_conf
I0309 23:11:39.449757 12883 net.cpp:150] Setting up conv10_2_mbox_conf
I0309 23:11:39.449770 12883 net.cpp:157] Top shape: 1 84 1 1 (84)
I0309 23:11:39.449775 12883 net.cpp:165] Memory required for data: 950437200
I0309 23:11:39.449787 12883 layer_factory.hpp:77] Creating layer conv10_2_mbox_conf_perm
I0309 23:11:39.449797 12883 net.cpp:100] Creating Layer conv10_2_mbox_conf_perm
I0309 23:11:39.449805 12883 net.cpp:434] conv10_2_mbox_conf_perm <- conv10_2_mbox_conf
I0309 23:11:39.449815 12883 net.cpp:408] conv10_2_mbox_conf_perm -> conv10_2_mbox_conf_perm
I0309 23:11:39.449992 12883 net.cpp:150] Setting up conv10_2_mbox_conf_perm
I0309 23:11:39.450001 12883 net.cpp:157] Top shape: 1 1 1 84 (84)
I0309 23:11:39.450004 12883 net.cpp:165] Memory required for data: 950437536
I0309 23:11:39.450009 12883 layer_factory.hpp:77] Creating layer conv10_2_mbox_conf_flat
I0309 23:11:39.450019 12883 net.cpp:100] Creating Layer conv10_2_mbox_conf_flat
I0309 23:11:39.450026 12883 net.cpp:434] conv10_2_mbox_conf_flat <- conv10_2_mbox_conf_perm
I0309 23:11:39.450034 12883 net.cpp:408] conv10_2_mbox_conf_flat -> conv10_2_mbox_conf_flat
I0309 23:11:39.450073 12883 net.cpp:150] Setting up conv10_2_mbox_conf_flat
I0309 23:11:39.450080 12883 net.cpp:157] Top shape: 1 84 (84)
I0309 23:11:39.450084 12883 net.cpp:165] Memory required for data: 950437872
I0309 23:11:39.450089 12883 layer_factory.hpp:77] Creating layer conv10_2_mbox_priorbox
I0309 23:11:39.450101 12883 net.cpp:100] Creating Layer conv10_2_mbox_priorbox
I0309 23:11:39.450110 12883 net.cpp:434] conv10_2_mbox_priorbox <- conv10_2_conv10_2_scale_0_split_2
I0309 23:11:39.450119 12883 net.cpp:434] conv10_2_mbox_priorbox <- data_data_0_split_7
I0309 23:11:39.450129 12883 net.cpp:408] conv10_2_mbox_priorbox -> conv10_2_mbox_priorbox
I0309 23:11:39.450175 12883 net.cpp:150] Setting up conv10_2_mbox_priorbox
I0309 23:11:39.450183 12883 net.cpp:157] Top shape: 1 2 16 (32)
I0309 23:11:39.450188 12883 net.cpp:165] Memory required for data: 950438000
I0309 23:11:39.450192 12883 layer_factory.hpp:77] Creating layer mbox_loc
I0309 23:11:39.450206 12883 net.cpp:100] Creating Layer mbox_loc
I0309 23:11:39.450215 12883 net.cpp:434] mbox_loc <- conv4_3_norm_mbox_loc_flat
I0309 23:11:39.450223 12883 net.cpp:434] mbox_loc <- fc7_mbox_loc_flat
I0309 23:11:39.450233 12883 net.cpp:434] mbox_loc <- conv6_2_mbox_loc_flat
I0309 23:11:39.450242 12883 net.cpp:434] mbox_loc <- conv7_2_mbox_loc_flat
I0309 23:11:39.450251 12883 net.cpp:434] mbox_loc <- conv8_2_mbox_loc_flat
I0309 23:11:39.450260 12883 net.cpp:434] mbox_loc <- conv9_2_mbox_loc_flat
I0309 23:11:39.450268 12883 net.cpp:434] mbox_loc <- conv10_2_mbox_loc_flat
I0309 23:11:39.450292 12883 net.cpp:408] mbox_loc -> mbox_loc
I0309 23:11:39.450356 12883 net.cpp:150] Setting up mbox_loc
I0309 23:11:39.450368 12883 net.cpp:157] Top shape: 1 98256 (98256)
I0309 23:11:39.450372 12883 net.cpp:165] Memory required for data: 950831024
I0309 23:11:39.450379 12883 layer_factory.hpp:77] Creating layer mbox_conf
I0309 23:11:39.450398 12883 net.cpp:100] Creating Layer mbox_conf
I0309 23:11:39.450409 12883 net.cpp:434] mbox_conf <- conv4_3_norm_mbox_conf_flat
I0309 23:11:39.450417 12883 net.cpp:434] mbox_conf <- fc7_mbox_conf_flat
I0309 23:11:39.450424 12883 net.cpp:434] mbox_conf <- conv6_2_mbox_conf_flat
I0309 23:11:39.450431 12883 net.cpp:434] mbox_conf <- conv7_2_mbox_conf_flat
I0309 23:11:39.450438 12883 net.cpp:434] mbox_conf <- conv8_2_mbox_conf_flat
I0309 23:11:39.450444 12883 net.cpp:434] mbox_conf <- conv9_2_mbox_conf_flat
I0309 23:11:39.450453 12883 net.cpp:434] mbox_conf <- conv10_2_mbox_conf_flat
I0309 23:11:39.450459 12883 net.cpp:408] mbox_conf -> mbox_conf
I0309 23:11:39.450500 12883 net.cpp:150] Setting up mbox_conf
I0309 23:11:39.450511 12883 net.cpp:157] Top shape: 1 515844 (515844)
I0309 23:11:39.450518 12883 net.cpp:165] Memory required for data: 952894400
I0309 23:11:39.450525 12883 layer_factory.hpp:77] Creating layer mbox_priorbox
I0309 23:11:39.450532 12883 net.cpp:100] Creating Layer mbox_priorbox
I0309 23:11:39.450541 12883 net.cpp:434] mbox_priorbox <- conv4_3_norm_mbox_priorbox
I0309 23:11:39.450552 12883 net.cpp:434] mbox_priorbox <- fc7_mbox_priorbox
I0309 23:11:39.450561 12883 net.cpp:434] mbox_priorbox <- conv6_2_mbox_priorbox
I0309 23:11:39.450567 12883 net.cpp:434] mbox_priorbox <- conv7_2_mbox_priorbox
I0309 23:11:39.450575 12883 net.cpp:434] mbox_priorbox <- conv8_2_mbox_priorbox
I0309 23:11:39.450580 12883 net.cpp:434] mbox_priorbox <- conv9_2_mbox_priorbox
I0309 23:11:39.450587 12883 net.cpp:434] mbox_priorbox <- conv10_2_mbox_priorbox
I0309 23:11:39.450599 12883 net.cpp:408] mbox_priorbox -> mbox_priorbox
I0309 23:11:39.450639 12883 net.cpp:150] Setting up mbox_priorbox
I0309 23:11:39.450646 12883 net.cpp:157] Top shape: 1 2 98256 (196512)
I0309 23:11:39.450651 12883 net.cpp:165] Memory required for data: 953680448
I0309 23:11:39.450656 12883 layer_factory.hpp:77] Creating layer mbox_conf_reshape
I0309 23:11:39.450664 12883 net.cpp:100] Creating Layer mbox_conf_reshape
I0309 23:11:39.450673 12883 net.cpp:434] mbox_conf_reshape <- mbox_conf
I0309 23:11:39.450685 12883 net.cpp:408] mbox_conf_reshape -> mbox_conf_reshape
I0309 23:11:39.450732 12883 net.cpp:150] Setting up mbox_conf_reshape
I0309 23:11:39.450742 12883 net.cpp:157] Top shape: 1 24564 21 (515844)
I0309 23:11:39.450747 12883 net.cpp:165] Memory required for data: 955743824
I0309 23:11:39.450753 12883 layer_factory.hpp:77] Creating layer mbox_conf_softmax
I0309 23:11:39.450763 12883 net.cpp:100] Creating Layer mbox_conf_softmax
I0309 23:11:39.450772 12883 net.cpp:434] mbox_conf_softmax <- mbox_conf_reshape
I0309 23:11:39.450781 12883 net.cpp:408] mbox_conf_softmax -> mbox_conf_softmax
I0309 23:11:39.451113 12883 net.cpp:150] Setting up mbox_conf_softmax
I0309 23:11:39.451124 12883 net.cpp:157] Top shape: 1 24564 21 (515844)
I0309 23:11:39.451128 12883 net.cpp:165] Memory required for data: 957807200
I0309 23:11:39.451135 12883 layer_factory.hpp:77] Creating layer mbox_conf_flatten
I0309 23:11:39.451143 12883 net.cpp:100] Creating Layer mbox_conf_flatten
I0309 23:11:39.451151 12883 net.cpp:434] mbox_conf_flatten <- mbox_conf_softmax
I0309 23:11:39.451162 12883 net.cpp:408] mbox_conf_flatten -> mbox_conf_flatten
I0309 23:11:39.451205 12883 net.cpp:150] Setting up mbox_conf_flatten
I0309 23:11:39.451215 12883 net.cpp:157] Top shape: 1 515844 (515844)
I0309 23:11:39.451218 12883 net.cpp:165] Memory required for data: 959870576
I0309 23:11:39.451225 12883 layer_factory.hpp:77] Creating layer detection_out
I0309 23:11:39.451247 12883 net.cpp:100] Creating Layer detection_out
I0309 23:11:39.451254 12883 net.cpp:434] detection_out <- mbox_loc
I0309 23:11:39.451263 12883 net.cpp:434] detection_out <- mbox_conf_flatten
I0309 23:11:39.451282 12883 net.cpp:434] detection_out <- mbox_priorbox
I0309 23:11:39.451294 12883 net.cpp:408] detection_out -> detection_out
I0309 23:11:39.454677 12883 net.cpp:150] Setting up detection_out
I0309 23:11:39.454691 12883 net.cpp:157] Top shape: 1 1 1 7 (7)
I0309 23:11:39.454696 12883 net.cpp:165] Memory required for data: 959870604
I0309 23:11:39.454704 12883 layer_factory.hpp:77] Creating layer slience
I0309 23:11:39.454712 12883 net.cpp:100] Creating Layer slience
I0309 23:11:39.454721 12883 net.cpp:434] slience <- detection_out
I0309 23:11:39.454730 12883 net.cpp:150] Setting up slience
I0309 23:11:39.454735 12883 net.cpp:165] Memory required for data: 959870604
…
