…
      sampler {
        min_scale: 0.3
        max_scale: 1
        min_aspect_ratio: 0.5
        max_aspect_ratio: 2
      }
      sample_constraint {
        min_jaccard_overlap: 0.9
      }
      max_sample: 1
      max_trials: 50
    }
    batch_sampler {
      sampler {
        min_scale: 0.3
        max_scale: 1
        min_aspect_ratio: 0.5
        max_aspect_ratio: 2
      }
      sample_constraint {
        max_jaccard_overlap: 1
      }
      max_sample: 1
      max_trials: 50
    }
    label_map_file: "data/VOC0712/labelmap_voc.prototxt"
  }
}
layer {
  name: "conv1_1"
  type: "Convolution"
  bottom: "data"
  top: "conv1_1"
  param {
    lr_mult: 1
    decay_mult: 1
  }
  param {
    lr_mult: 2
    decay_mult: 0
  }
  convolution_param {
    num_output: 64
    pad: 1
    kernel_size: 3
    weight_filler {
      type: "xavier"
    }
    bias_filler {
      type: "constant"
      value: 0
    }
  }
}
layer {
  name: "relu1_1"
  type: "ReLU"
  bottom: "conv1_1"
  top: "conv1_1"
}
layer {
  name: "conv1_2"
  type: "Convolution"
  bottom: "conv1_1"
  top: "conv1_2"
  param {
    lr_mult: 1
    decay_mult: 1
  }
  param {
    lr_mult: 2
    decay_mult: 0
  }
  convolution_param {
    num_output: 64
    pad: 1
    kernel_size: 3
    weight_filler {
      type: "xavier"
    }
    bias_filler {
      type: "constant"
      value: 0
    }
  }
}
layer {
  name: "relu1_2"
  type: "ReLU"
  bottom: "conv1_2"
  top: "conv1_2"
}
layer {
  name: "pool1"
  type: "Pooling"
  bottom: "conv1_2"
  top: "pool1"
  pooling_param {
    pool: MAX
    kernel_size: 2
    stride: 2
  }
}
layer {
  name: "conv2_1"
  type: "Convolution"
  bottom: "pool1"
  top: "conv2_1"
  param {
    lr_mult: 1
    decay_mult: 1
  }
  param {
    lr_mult: 2
    decay_mult: 0
  }
  convolution_param {
    num_output: 128
    pad: 1
    kernel_size: 3
    weight_filler {
      type: "xavier"
    }
    bias_filler {
      type: "constant"
      value: 0
    }
  }
}
layer {
  name: "relu2_1"
  type: "ReLU"
  bottom: "conv2_1"
  top: "conv2_1"
}
layer {
  name: "conv2_2"
  type: "Convolution"
  bottom: "conv2_1"
  top: "conv2_2"
  param {
    lr_mult: 1
    decay_mult: 1
  }
  param {
    lr_mult: 2
    decay_mult: 0
  }
  convolution_param {
    num_output: 128
    pad: 1
    kernel_size: 3
    weight_filler {
      type: "xavier"
    }
    bias_filler {
      type: "constant"
      value: 0
    }
  }
}
layer {
  name: "relu2_2"
  type: "ReLU"
  bottom: "conv2_2"
  top: "conv2_2"
}
layer {
  name: "pool2"
  type: "Pooling"
  bottom: "conv2_2"
  top: "pool2"
  pooling_param {
    pool: MAX
    kernel_size: 2
    stride: 2
  }
}
layer {
  name: "conv3_1"
  type: "Convolution"
  bottom: "pool2"
  top: "conv3_1"
  param {
    lr_mult: 1
    decay_mult: 1
  }
  param {
    lr_mult: 2
    decay_mult: 0
  }
  convolution_param {
    num_output: 256
    pad: 1
    kernel_size: 3
    weight_filler {
      type: "xavier"
    }
    bias_filler {
      type: "constant"
      value: 0
    }
  }
}
layer {
  name: "relu3_1"
  type: "ReLU"
  bottom: "conv3_1"
  top: "conv3_1"
}
layer {
  name: "conv3_2"
  type: "Convolution"
  bottom: "conv3_1"
  top: "conv3_2"
  param {
    lr_mult: 1
    decay_mult: 1
  }
  param {
    lr_mult: 2
    decay_mult: 0
  }
  convolution_param {
    num_output: 256
    pad: 1
    kernel_size: 3
    weight_filler {
      type: "xavier"
    }
    bias_filler {
      type: "constant"
      value: 0
    }
  }
}
layer {
  name: "relu3_2"
  type: "ReLU"
  bottom: "conv3_2"
  top: "conv3_2"
}
layer {
  name: "conv3_3"
  type: "Convolution"
  bottom: "conv3_2"
  top: "conv3_3"
  param {
    lr_mult: 1
    decay_mult: 1
  }
  param {
    lr_mult: 2
    decay_mult: 0
  }
  convolution_param {
    num_output: 256
    pad: 1
    kernel_size: 3
    weight_filler {
      type: "xavier"
    }
    bias_filler {
      type: "constant"
      value: 0
    }
  }
}
layer {
  name: "relu3_3"
  type: "ReLU"
  bottom: "conv3_3"
  top: "conv3_3"
}
layer {
  name: "pool3"
  type: "Pooling"
  bottom: "conv3_3"
  top: "pool3"
  pooling_param {
    pool: MAX
    kernel_size: 2
    stride: 2
  }
}
layer {
  name: "conv4_1"
  type: "Convolution"
  bottom: "pool3"
  top: "conv4_1"
  param {
    lr_mult: 1
    decay_mult: 1
  }
  param {
    lr_mult: 2
    decay_mult: 0
  }
  convolution_param {
    num_output: 512
    pad: 1
    kernel_size: 3
    weight_filler {
      type: "xavier"
    }
    bias_filler {
      type: "constant"
      value: 0
    }
  }
}
layer {
  name: "relu4_1"
  type: "ReLU"
  bottom: "conv4_1"
  top: "conv4_1"
}
layer {
  name: "conv4_2"
  type: "Convolution"
  bottom: "conv4_1"
  top: "conv4_2"
  param {
    lr_mult: 1
    decay_mult: 1
  }
  param {
    lr_mult: 2
    decay_mult: 0
  }
  convolution_param {
    num_output: 512
    pad: 1
    kernel_size: 3
    weight_filler {
      type: "xavier"
    }
    bias_filler {
      type: "constant"
      value: 0
    }
  }
}
layer {
  name: "relu4_2"
  type: "ReLU"
  bottom: "conv4_2"
  top: "conv4_2"
}
layer {
  name: "conv4_3"
  type: "Convolution"
  bottom: "conv4_2"
  top: "conv4_3_ori"
  param {
    lr_mult: 1
    decay_mult: 1
  }
  param {
    lr_mult: 2
    decay_mult: 0
  }
  convolution_param {
    num_output: 512
    pad: 1
    kernel_size: 3
    weight_filler {
      type: "xavier"
    }
    bias_filler {
      type: "constant"
      value: 0
    }
  }
}
layer {
  name: "relu4_3"
  type: "ReLU"
  bottom: "conv4_3_ori"
  top: "conv4_3_ori"
}
layer {
  name: "seg_pool4"
  type: "Pooling"
  bottom: "conv4_3_ori"
  top: "seg_pool4"
  pooling_param {
    pool: MAX
    kernel_size: 3
    stride: 1
    pad: 1
  }
}
layer {
  name: "seg5_1"
  type: "Convolution"
  bottom: "seg_pool4"
  top: "seg5_1"
  param {
    lr_mult: 1
    decay_mult: 1
  }
  param {
    lr_mult: 2
    decay_mult: 0
  }
  convolution_param {
    num_output: 512
    pad: 2
    kernel_size: 3
    weight_filler {
      type: "xavier"
    }
    bias_filler {
      type: "constant"
      value: 0
    }
    dilation: 2
  }
}
layer {
  name: "seg_relu5_1"
  type: "ReLU"
  bottom: "seg5_1"
  top: "seg5_1"
}
layer {
  name: "seg5_2"
  type: "Convolution"
  bottom: "seg5_1"
  top: "seg5_2"
  param {
    lr_mult: 1
    decay_mult: 1
  }
  param {
    lr_mult: 2
    decay_mult: 0
  }
  convolution_param {
    num_output: 512
    pad: 2
    kernel_size: 3
    weight_filler {
      type: "xavier"
    }
    bias_filler {
      type: "constant"
      value: 0
    }
    dilation: 2
  }
}
layer {
  name: "seg_relu5_2"
  type: "ReLU"
  bottom: "seg5_2"
  top: "seg5_2"
}
layer {
  name: "seg5_3"
  type: "Convolution"
  bottom: "seg5_2"
  top: "seg5_3"
  param {
    lr_mult: 1
    decay_mult: 1
  }
  param {
    lr_mult: 2
    decay_mult: 0
  }
  convolution_param {
    num_output: 512
    pad: 2
    kernel_size: 3
    weight_filler {
      type: "xavier"
    }
    bias_filler {
      type: "constant"
      value: 0
    }
    dilation: 2
  }
}
layer {
  name: "seg_relu5_3"
  type: "ReLU"
  bottom: "seg5_3"
  top: "seg5_3"
}
layer {
  name: "seg_pool5"
  type: "Pooling"
  bottom: "seg5_3"
  top: "seg_pool5"
  pooling_param {
    pool: MAX
    kernel_size: 3
    stride: 1
    pad: 1
  }
}
layer {
  name: "seg6"
  type: "Convolution"
  bottom: "seg_pool5"
  top: "seg6"
  param {
    lr_mult: 1
    decay_mult: 1
  }
  param {
    lr_mult: 2
    decay_mult: 0
  }
  convolution_param {
    num_output: 1024
    pad: 4
    kernel_size: 3
    weight_filler {
      type: "xavier"
    }
    bias_filler {
      type: "constant"
      value: 0
    }
    dilation: 4
  }
}
layer {
  name: "seg_relu6"
  type: "ReLU"
  bottom: "seg6"
  top: "seg6"
}
layer {
  name: "seg_drop6"
  type: "Dropout"
  bottom: "seg6"
  top: "seg6"
  dropout_param {
    dropout_ratio: 0.5
  }
}
layer {
  name: "seg7"
  type: "Convolution"
  bottom: "seg6"
  top: "seg7"
  param {
    lr_mult: 1
    decay_mult: 1
  }
  param {
    lr_mult: 2
    decay_mult: 0
  }
  convolution_param {
    num_output: 1024
    kernel_size: 1
    weight_filler {
      type: "xavier"
    }
    bias_filler {
      type: "constant"
      value: 0
    }
  }
}
layer {
  name: "seg_relu7"
  type: "ReLU"
  bottom: "seg7"
  top: "seg7"
}
layer {
  name: "seg_drop7"
  type: "Dropout"
  bottom: "seg7"
  top: "seg7d"
  dropout_param {
    dropout_ratio: 0.5
  }
}
layer {
  name: "seg_new"
  type: "Convolution"
  bottom: "seg7d"
  top: "seg"
  param {
    lr_mult: 10
    decay_mult: 1
  }
  param {
    lr_mult: 20
    decay_mult: 0
  }
  convolution_param {
    num_output: 21
    kernel_size: 1
    weight_filler {
      type: "gaussian"
      std: 0.01
    }
    bias_filler {
      type: "constant"
      value: 0
    }
  }
}
layer {
  name: "seg_gt"
  type: "SegGt"
  bottom: "label"
  bottom: "seg"
  top: "seg_gt"
  seggt_param {
    background_label_id: 0
    use_difficult_gt: true
  }
}
layer {
  name: "seg_loss"
  type: "SoftmaxWithLoss"
  bottom: "seg"
  bottom: "seg_gt"
  top: "seg_loss"
  loss_weight: 0.1
  propagate_down: true
  propagate_down: false
  softmax_param {
    axis: 1
  }
}
layer {
  name: "seg_to_det_conv"
  type: "Convolution"
  bottom: "seg7"
  top: "seg_to_det_conv"
  param {
    lr_mult: 1
    decay_mult: 1
  }
  param {
    lr_mult: 2
    decay_mult: 0
  }
  convolution_param {
    num_output: 512
    pad: 0
    kernel_size: 1
    stride: 1
    weight_filler {
      type: "xavier"
    }
    bias_filler {
      type: "constant"
      value: 0
    }
  }
}
layer {
  name: "mult_conv4_3"
  type: "Eltwise"
  bottom: "conv4_3_ori"
  bottom: "seg_to_det_conv"
  top: "conv4_3_t"
  eltwise_param {
    operation: PROD
  }
}
layer {
  name: "conv4_3_s"
  type: "Pooling"
  bottom: "conv4_3_t"
  top: "conv4_3_s"
  pooling_param {
    pool: AVE
    global_pooling: true
  }
}
layer {
  name: "conv4_3_fc1"
  type: "Convolution"
  bottom: "conv4_3_s"
  top: "conv4_3_fc1"
  param {
    lr_mult: 1
    decay_mult: 1
  }
  param {
    lr_mult: 2
    decay_mult: 0
  }
  convolution_param {
    num_output: 128
    kernel_size: 1
    stride: 1
    weight_filler {
      type: "xavier"
    }
    bias_filler {
      type: "constant"
      value: 0
    }
  }
}
layer {
  name: "conv4_3_relu"
  type: "ReLU"
  bottom: "conv4_3_fc1"
  top: "conv4_3_fc1"
}
layer {
  name: "conv4_3_fc2"
  type: "Convolution"
  bottom: "conv4_3_fc1"
  top: "conv4_3_fc2"
  param {
    lr_mult: 1
    decay_mult: 1
  }
  param {
    lr_mult: 2
    decay_mult: 0
  }
  convolution_param {
    num_output: 512
    kernel_size: 1
    stride: 1
    weight_filler {
      type: "xavier"
    }
    bias_filler {
      type: "constant"
      value: 0
    }
  }
}
layer {
  name: "conv4_3_sig"
  type: "Sigmoid"
  bottom: "conv4_3_fc2"
  top: "conv4_3_fc2"
}
layer {
  name: "conv4_3_reshape"
  type: "Reshape"
  bottom: "conv4_3_fc2"
  top: "conv4_3_reshape"
  reshape_param {
    shape {
      dim: 0
      dim: 0
    }
  }
}
layer {
  name: "conv4_3_scale"
  type: "Scale"
  bottom: "conv4_3_t"
  bottom: "conv4_3_reshape"
  top: "conv4_3"
  scale_param {
    axis: 0
    bias_term: false
  }
}
layer {
  name: "pool4"
  type: "Pooling"
  bottom: "conv4_3"
  top: "pool4"
  pooling_param {
    pool: MAX
    kernel_size: 2
    stride: 2
  }
}
layer {
  name: "conv5_1"
  type: "Convolution"
  bottom: "pool4"
  top: "conv5_1"
  param {
    lr_mult: 1
    decay_mult: 1
  }
  param {
    lr_mult: 2
    decay_mult: 0
  }
  convolution_param {
    num_output: 512
    pad: 1
    kernel_size: 3
    weight_filler {
      type: "xavier"
    }
    bias_filler {
      type: "constant"
      value: 0
    }
    dilation: 1
  }
}
layer {
  name: "relu5_1"
  type: "ReLU"
  bottom: "conv5_1"
  top: "conv5_1"
}
layer {
  name: "conv5_2"
  type: "Convolution"
  bottom: "conv5_1"
  top: "conv5_2"
  param {
    lr_mult: 1
    decay_mult: 1
  }
  param {
    lr_mult: 2
    decay_mult: 0
  }
  convolution_param {
    num_output: 512
    pad: 1
    kernel_size: 3
    weight_filler {
      type: "xavier"
    }
    bias_filler {
      type: "constant"
      value: 0
    }
    dilation: 1
  }
}
layer {
  name: "relu5_2"
  type: "ReLU"
  bottom: "conv5_2"
  top: "conv5_2"
}
layer {
  name: "conv5_3"
  type: "Convolution"
  bottom: "conv5_2"
  top: "conv5_3"
  param {
    lr_mult: 1
    decay_mult: 1
  }
  param {
    lr_mult: 2
    decay_mult: 0
  }
  convolution_param {
    num_output: 512
    pad: 1
    kernel_size: 3
    weight_filler {
      type: "xavier"
    }
    bias_filler {
      type: "constant"
      value: 0
    }
    dilation: 1
  }
}
layer {
  name: "relu5_3"
  type: "ReLU"
  bottom: "conv5_3"
  top: "conv5_3"
}
layer {
  name: "pool5"
  type: "Pooling"
  bottom: "conv5_3"
  top: "pool5"
  pooling_param {
    pool: MAX
    kernel_size: 3
    stride: 1
    pad: 1
  }
}
layer {
  name: "fc6"
  type: "Convolution"
  bottom: "pool5"
  top: "fc6"
  param {
    lr_mult: 1
    decay_mult: 1
  }
  param {
    lr_mult: 2
    decay_mult: 0
  }
  convolution_param {
    num_output: 1024
    pad: 6
    kernel_size: 3
    weight_filler {
      type: "xavier"
    }
    bias_filler {
      type: "constant"
      value: 0
    }
    dilation: 6
  }
}
layer {
  name: "relu6"
  type: "ReLU"
  bottom: "fc6"
  top: "fc6"
}
layer {
  name: "fc7"
  type: "Convolution"
  bottom: "fc6"
  top: "fc7_t"
  param {
    lr_mult: 1
    decay_mult: 1
  }
  param {
    lr_mult: 2
    decay_mult: 0
  }
  convolution_param {
    num_output: 1024
    kernel_size: 1
    weight_filler {
      type: "xavier"
    }
    bias_filler {
      type: "constant"
      value: 0
    }
  }
}
layer {
  name: "relu7"
  type: "ReLU"
  bottom: "fc7_t"
  top: "fc7_t"
}
layer {
  name: "fc7_s"
  type: "Pooling"
  bottom: "fc7_t"
  top: "fc7_s"
  pooling_param {
    pool: AVE
    global_pooling: true
  }
}
layer {
  name: "fc7_fc1"
  type: "Convolution"
  bottom: "fc7_s"
  top: "fc7_fc1"
  param {
    lr_mult: 1
    decay_mult: 1
  }
  param {
    lr_mult: 2
    decay_mult: 0
  }
  convolution_param {
    num_output: 256
    kernel_size: 1
    stride: 1
    weight_filler {
      type: "xavier"
    }
    bias_filler {
      type: "constant"
      value: 0
    }
  }
}
layer {
  name: "fc7_relu"
  type: "ReLU"
  bottom: "fc7_fc1"
  top: "fc7_fc1"
}
layer {
  name: "fc7_fc2"
  type: "Convolution"
  bottom: "fc7_fc1"
  top: "fc7_fc2"
  param {
    lr_mult: 1
    decay_mult: 1
  }
  param {
    lr_mult: 2
    decay_mult: 0
  }
  convolution_param {
    num_output: 1024
    kernel_size: 1
    stride: 1
    weight_filler {
      type: "xavier"
    }
    bias_filler {
      type: "constant"
      value: 0
    }
  }
}
layer {
  name: "fc7_sig"
  type: "Sigmoid"
  bottom: "fc7_fc2"
  top: "fc7_fc2"
}
layer {
  name: "fc7_reshape"
  type: "Reshape"
  bottom: "fc7_fc2"
  top: "fc7_reshape"
  reshape_param {
    shape {
      dim: 0
      dim: 0
    }
  }
}
layer {
  name: "fc7_scale"
  type: "Scale"
  bottom: "fc7_t"
  bottom: "fc7_reshape"
  top: "fc7"
  scale_param {
    axis: 0
    bias_term: false
  }
}
layer {
  name: "conv6_1"
  type: "Convolution"
  bottom: "fc7"
  top: "conv6_1"
  param {
    lr_mult: 1
    decay_mult: 1
  }
  param {
    lr_mult: 2
    decay_mult: 0
  }
  convolution_param {
    num_output: 256
    pad: 0
    kernel_size: 1
    stride: 1
    weight_filler {
      type: "xavier"
    }
    bias_filler {
      type: "constant"
      value: 0
    }
  }
}
layer {
  name: "conv6_1_relu"
  type: "ReLU"
  bottom: "conv6_1"
  top: "conv6_1"
}
layer {
  name: "conv6_2"
  type: "Convolution"
  bottom: "conv6_1"
  top: "conv6_2_t"
  param {
    lr_mult: 1
    decay_mult: 1
  }
  param {
    lr_mult: 2
    decay_mult: 0
  }
  convolution_param {
    num_output: 512
    pad: 1
    kernel_size: 3
    stride: 2
    weight_filler {
      type: "xavier"
    }
    bias_filler {
      type: "constant"
      value: 0
    }
  }
}
layer {
  name: "conv6_2_relu"
  type: "ReLU"
  bottom: "conv6_2_t"
  top: "conv6_2_t"
}
layer {
  name: "conv6_2_s"
  type: "Pooling"
  bottom: "conv6_2_t"
  top: "conv6_2_s"
  pooling_param {
    pool: AVE
    global_pooling: true
  }
}
layer {
  name: "conv6_2_fc1"
  type: "Convolution"
  bottom: "conv6_2_s"
  top: "conv6_2_fc1"
  param {
    lr_mult: 1
    decay_mult: 1
  }
  param {
    lr_mult: 2
    decay_mult: 0
  }
  convolution_param {
    num_output: 128
    kernel_size: 1
    stride: 1
    weight_filler {
      type: "xavier"
    }
    bias_filler {
      type: "constant"
      value: 0
    }
  }
}
layer {
  name: "conv6_2_relu"
  type: "ReLU"
  bottom: "conv6_2_fc1"
  top: "conv6_2_fc1"
}
layer {
  name: "conv6_2_fc2"
  type: "Convolution"
  bottom: "conv6_2_fc1"
  top: "conv6_2_fc2"
  param {
    lr_mult: 1
    decay_mult: 1
  }
  param {
    lr_mult: 2
    decay_mult: 0
  }
  convolution_param {
    num_output: 512
    kernel_size: 1
    stride: 1
    weight_filler {
      type: "xavier"
    }
    bias_filler {
      type: "constant"
      value: 0
    }
  }
}
layer {
  name: "conv6_2_sig"
  type: "Sigmoid"
  bottom: "conv6_2_fc2"
  top: "conv6_2_fc2"
}
layer {
  name: "conv6_2_reshape"
  type: "Reshape"
  bottom: "conv6_2_fc2"
  top: "conv6_2_reshape"
  reshape_param {
    shape {
      dim: 0
      dim: 0
    }
  }
}
layer {
  name: "conv6_2_scale"
  type: "Scale"
  bottom: "conv6_2_t"
  bottom: "conv6_2_reshape"
  top: "conv6_2"
  scale_param {
    axis: 0
    bias_term: false
  }
}
layer {
  name: "conv7_1"
  type: "Convolution"
  bottom: "conv6_2"
  top: "conv7_1"
  param {
    lr_mult: 1
    decay_mult: 1
  }
  param {
    lr_mult: 2
    decay_mult: 0
  }
  convolution_param {
    num_output: 128
    pad: 0
    kernel_size: 1
    stride: 1
    weight_filler {
      type: "xavier"
    }
    bias_filler {
      type: "constant"
      value: 0
    }
  }
}
layer {
  name: "conv7_1_relu"
  type: "ReLU"
  bottom: "conv7_1"
  top: "conv7_1"
}
layer {
  name: "conv7_2"
  type: "Convolution"
  bottom: "conv7_1"
  top: "conv7_2_t"
  param {
    lr_mult: 1
    decay_mult: 1
  }
  param {
    lr_mult: 2
    decay_mult: 0
  }
  convolution_param {
    num_output: 256
    pad: 1
    kernel_size: 3
    stride: 2
    weight_filler {
      type: "xavier"
    }
    bias_filler {
      type: "constant"
      value: 0
    }
  }
}
layer {
  name: "conv7_2_relu"
  type: "ReLU"
  bottom: "conv7_2_t"
  top: "conv7_2_t"
}
layer {
  name: "conv7_2_s"
  type: "Pooling"
  bottom: "conv7_2_t"
  top: "conv7_2_s"
  pooling_param {
    pool: AVE
    global_pooling: true
  }
}
layer {
  name: "conv7_2_fc1"
  type: "Convolution"
  bottom: "conv7_2_s"
  top: "conv7_2_fc1"
  param {
    lr_mult: 1
    decay_mult: 1
  }
  param {
    lr_mult: 2
    decay_mult: 0
  }
  convolution_param {
    num_output: 64
    kernel_size: 1
    stride: 1
    weight_filler {
      type: "xavier"
    }
    bias_filler {
      type: "constant"
      value: 0
    }
  }
}
layer {
  name: "conv7_2_relu"
  type: "ReLU"
  bottom: "conv7_2_fc1"
  top: "conv7_2_fc1"
}
layer {
  name: "conv7_2_fc2"
  type: "Convolution"
  bottom: "conv7_2_fc1"
  top: "conv7_2_fc2"
  param {
    lr_mult: 1
    decay_mult: 1
  }
  param {
    lr_mult: 2
    decay_mult: 0
  }
  convolution_param {
    num_output: 256
    kernel_size: 1
    stride: 1
    weight_filler {
      type: "xavier"
    }
    bias_filler {
      type: "constant"
      value: 0
    }
  }
}
layer {
  name: "conv7_2_sig"
  type: "Sigmoid"
  bottom: "conv7_2_fc2"
  top: "conv7_2_fc2"
}
layer {
  name: "conv7_2_reshape"
  type: "Reshape"
  bottom: "conv7_2_fc2"
  top: "conv7_2_reshape"
  reshape_param {
    shape {
      dim: 0
      dim: 0
    }
  }
}
layer {
  name: "conv7_2_scale"
  type: "Scale"
  bottom: "conv7_2_t"
  bottom: "conv7_2_reshape"
  top: "conv7_2"
  scale_param {
    axis: 0
    bias_term: false
  }
}
layer {
  name: "conv8_1"
  type: "Convolution"
  bottom: "conv7_2"
  top: "conv8_1"
  param {
    lr_mult: 1
    decay_mult: 1
  }
  param {
    lr_mult: 2
    decay_mult: 0
  }
  convolution_param {
    num_output: 128
    pad: 0
    kernel_size: 1
    stride: 1
    weight_filler {
      type: "xavier"
    }
    bias_filler {
      type: "constant"
      value: 0
    }
  }
}
layer {
  name: "conv8_1_relu"
  type: "ReLU"
  bottom: "conv8_1"
  top: "conv8_1"
}
layer {
  name: "conv8_2"
  type: "Convolution"
  bottom: "conv8_1"
  top: "conv8_2_t"
  param {
    lr_mult: 1
    decay_mult: 1
  }
  param {
    lr_mult: 2
    decay_mult: 0
  }
  convolution_param {
    num_output: 256
    pad: 1
    kernel_size: 3
    stride: 2
    weight_filler {
      type: "xavier"
    }
    bias_filler {
      type: "constant"
      value: 0
    }
  }
}
layer {
  name: "conv8_2_relu"
  type: "ReLU"
  bottom: "conv8_2_t"
  top: "conv8_2_t"
}
layer {
  name: "conv8_2_s"
  type: "Pooling"
  bottom: "conv8_2_t"
  top: "conv8_2_s"
  pooling_param {
    pool: AVE
    global_pooling: true
  }
}
layer {
  name: "conv8_2_fc1"
  type: "Convolution"
  bottom: "conv8_2_s"
  top: "conv8_2_fc1"
  param {
    lr_mult: 1
    decay_mult: 1
  }
  param {
    lr_mult: 2
    decay_mult: 0
  }
  convolution_param {
    num_output: 64
    kernel_size: 1
    stride: 1
    weight_filler {
      type: "xavier"
    }
    bias_filler {
      type: "constant"
      value: 0
    }
  }
}
layer {
  name: "conv8_2_relu"
  type: "ReLU"
  bottom: "conv8_2_fc1"
  top: "conv8_2_fc1"
}
layer {
  name: "conv8_2_fc2"
  type: "Convolution"
  bottom: "conv8_2_fc1"
  top: "conv8_2_fc2"
  param {
    lr_mult: 1
    decay_mult: 1
  }
  param {
    lr_mult: 2
    decay_mult: 0
  }
  convolution_param {
    num_output: 256
    kernel_size: 1
    stride: 1
    weight_filler {
      type: "xavier"
    }
    bias_filler {
      type: "constant"
      value: 0
    }
  }
}
layer {
  name: "conv8_2_sig"
  type: "Sigmoid"
  bottom: "conv8_2_fc2"
  top: "conv8_2_fc2"
}
layer {
  name: "conv8_2_reshape"
  type: "Reshape"
  bottom: "conv8_2_fc2"
  top: "conv8_2_reshape"
  reshape_param {
    shape {
      dim: 0
      dim: 0
    }
  }
}
layer {
  name: "conv8_2_scale"
  type: "Scale"
  bottom: "conv8_2_t"
  bottom: "conv8_2_reshape"
  top: "conv8_2"
  scale_param {
    axis: 0
    bias_term: false
  }
}
layer {
  name: "conv9_1"
  type: "Convolution"
  bottom: "conv8_2"
  top: "conv9_1"
  param {
    lr_mult: 1
    decay_mult: 1
  }
  param {
    lr_mult: 2
    decay_mult: 0
  }
  convolution_param {
    num_output: 128
    pad: 0
    kernel_size: 1
    stride: 1
    weight_filler {
      type: "xavier"
    }
    bias_filler {
      type: "constant"
      value: 0
    }
  }
}
layer {
  name: "conv9_1_relu"
  type: "ReLU"
  bottom: "conv9_1"
  top: "conv9_1"
}
layer {
  name: "conv9_2"
  type: "Convolution"
  bottom: "conv9_1"
  top: "conv9_2_t"
  param {
    lr_mult: 1
    decay_mult: 1
  }
  param {
    lr_mult: 2
    decay_mult: 0
  }
  convolution_param {
    num_output: 256
    pad: 1
    kernel_size: 3
    stride: 2
    weight_filler {
      type: "xavier"
    }
    bias_filler {
      type: "constant"
      value: 0
    }
  }
}
layer {
  name: "conv9_2_relu"
  type: "ReLU"
  bottom: "conv9_2_t"
  top: "conv9_2_t"
}
layer {
  name: "conv9_2_s"
  type: "Pooling"
  bottom: "conv9_2_t"
  top: "conv9_2_s"
  pooling_param {
    pool: AVE
    global_pooling: true
  }
}
layer {
  name: "conv9_2_fc1"
  type: "Convolution"
  bottom: "conv9_2_s"
  top: "conv9_2_fc1"
  param {
    lr_mult: 1
    decay_mult: 1
  }
  param {
    lr_mult: 2
    decay_mult: 0
  }
  convolution_param {
    num_output: 64
    kernel_size: 1
    stride: 1
    weight_filler {
      type: "xavier"
    }
    bias_filler {
      type: "constant"
      value: 0
    }
  }
}
layer {
  name: "conv9_2_relu"
  type: "ReLU"
  bottom: "conv9_2_fc1"
  top: "conv9_2_fc1"
}
layer {
  name: "conv9_2_fc2"
  type: "Convolution"
  bottom: "conv9_2_fc1"
  top: "conv9_2_fc2"
  param {
    lr_mult: 1
    decay_mult: 1
  }
  param {
    lr_mult: 2
    decay_mult: 0
  }
  convolution_param {
    num_output: 256
    kernel_size: 1
    stride: 1
    weight_filler {
      type: "xavier"
    }
    bias_filler {
      type: "constant"
      value: 0
    }
  }
}
layer {
  name: "conv9_2_sig"
  type: "Sigmoid"
  bottom: "conv9_2_fc2"
  top: "conv9_2_fc2"
}
layer {
  name: "conv9_2_reshape"
  type: "Reshape"
  bottom: "conv9_2_fc2"
  top: "conv9_2_reshape"
  reshape_param {
    shape {
      dim: 0
      dim: 0
    }
  }
}
layer {
  name: "conv9_2_scale"
  type: "Scale"
  bottom: "conv9_2_t"
  bottom: "conv9_2_reshape"
  top: "conv9_2"
  scale_param {
    axis: 0
    bias_term: false
  }
}
layer {
  name: "conv10_1"
  type: "Convolution"
  bottom: "conv9_2"
  top: "conv10_1"
  param {
    lr_mult: 1
    decay_mult: 1
  }
  param {
    lr_mult: 2
    decay_mult: 0
  }
  convolution_param {
    num_output: 128
    pad: 0
    kernel_size: 1
    stride: 1
    weight_filler {
      type: "xavier"
    }
    bias_filler {
      type: "constant"
      value: 0
    }
  }
}
layer {
  name: "conv10_1_relu"
  type: "ReLU"
  bottom: "conv10_1"
  top: "conv10_1"
}
layer {
  name: "conv10_2"
  type: "Convolution"
  bottom: "conv10_1"
  top: "conv10_2_t"
  param {
    lr_mult: 1
    decay_mult: 1
  }
  param {
    lr_mult: 2
    decay_mult: 0
  }
  convolution_param {
    num_output: 256
    pad: 1
    kernel_size: 4
    stride: 1
    weight_filler {
      type: "xavier"
    }
    bias_filler {
      type: "constant"
      value: 0
    }
  }
}
layer {
  name: "conv10_2_relu"
  type: "ReLU"
  bottom: "conv10_2_t"
  top: "conv10_2_t"
}
layer {
  name: "conv10_2_s"
  type: "Pooling"
  bottom: "conv10_2_t"
  top: "conv10_2_s"
  pooling_param {
    pool: AVE
    global_pooling: true
  }
}
layer {
  name: "conv10_2_fc1"
  type: "Convolution"
  bottom: "conv10_2_s"
  top: "conv10_2_fc1"
  param {
    lr_mult: 1
    decay_mult: 1
  }
  param {
    lr_mult: 2
    decay_mult: 0
  }
  convolution_param {
    num_output: 64
    kernel_size: 1
    stride: 1
    weight_filler {
      type: "xavier"
    }
    bias_filler {
      type: "constant"
      value: 0
    }
  }
}
layer {
  name: "conv10_2_relu"
  type: "ReLU"
  bottom: "conv10_2_fc1"
  top: "conv10_2_fc1"
}
layer {
  name: "conv10_2_fc2"
  type: "Convolution"
  bottom: "conv10_2_fc1"
  top: "conv10_2_fc2"
  param {
    lr_mult: 1
    decay_mult: 1
  }
  param {
    lr_mult: 2
    decay_mult: 0
  }
  convolution_param {
    num_output: 256
    kernel_size: 1
    stride: 1
    weight_filler {
      type: "xavier"
    }
    bias_filler {
      type: "constant"
      value: 0
    }
  }
}
layer {
  name: "conv10_2_sig"
  type: "Sigmoid"
  bottom: "conv10_2_fc2"
  top: "conv10_2_fc2"
}
layer {
  name: "conv10_2_reshape"
  type: "Reshape"
  bottom: "conv10_2_fc2"
  top: "conv10_2_reshape"
  reshape_param {
    shape {
      dim: 0
      dim: 0
    }
  }
}
layer {
  name: "conv10_2_scale"
  type: "Scale"
  bottom: "conv10_2_t"
  bottom: "conv10_2_reshape"
  top: "conv10_2"
  scale_param {
    axis: 0
    bias_term: false
  }
}
layer {
  name: "conv4_3_norm"
  type: "Normalize"
  bottom: "conv4_3"
  top: "conv4_3_norm"
  norm_param {
    across_spatial: false
    scale_filler {
      type: "constant"
      value: 20
    }
    channel_shared: false
  }
}
layer {
  name: "conv4_3_norm_mbox_loc"
  type: "Convolution"
  bottom: "conv4_3_norm"
  top: "conv4_3_norm_mbox_loc"
  param {
    lr_mult: 1
    decay_mult: 1
  }
  param {
    lr_mult: 2
    decay_mult: 0
  }
  convolution_param {
    num_output: 16
    pad: 1
    kernel_size: 3
    stride: 1
    weight_filler {
      type: "xavier"
    }
    bias_filler {
      type: "constant"
      value: 0
    }
  }
}
layer {
  name: "conv4_3_norm_mbox_loc_perm"
  type: "Permute"
  bottom: "conv4_3_norm_mbox_loc"
  top: "conv4_3_norm_mbox_loc_perm"
  permute_param {
    order: 0
    order: 2
    order: 3
    order: 1
  }
}
layer {
  name: 
I0227 14:27:44.027444 11709 layer_factory.hpp:77] Creating layer data
I0227 14:27:44.027801 11709 net.cpp:100] Creating Layer data
I0227 14:27:44.027817 11709 net.cpp:408] data -> data
I0227 14:27:44.027849 11709 net.cpp:408] data -> label
I0227 14:27:44.029114 11715 db_lmdb.cpp:35] Opened lmdb examples/VOC0712/VOC0712_trainval_lmdb
I0227 14:27:44.041669 11709 annotated_data_layer.cpp:62] output data size: 8,3,512,512
I0227 14:27:44.073858 11709 net.cpp:150] Setting up data
I0227 14:27:44.073885 11709 net.cpp:157] Top shape: 8 3 512 512 (6291456)
I0227 14:27:44.073891 11709 net.cpp:157] Top shape: 1 1 22 8 (176)
I0227 14:27:44.073894 11709 net.cpp:165] Memory required for data: 25166528
I0227 14:27:44.073909 11709 layer_factory.hpp:77] Creating layer data_data_0_split
I0227 14:27:44.073930 11709 net.cpp:100] Creating Layer data_data_0_split
I0227 14:27:44.073943 11709 net.cpp:434] data_data_0_split <- data
I0227 14:27:44.073966 11709 net.cpp:408] data_data_0_split -> data_data_0_split_0
I0227 14:27:44.073979 11709 net.cpp:408] data_data_0_split -> data_data_0_split_1
I0227 14:27:44.073995 11709 net.cpp:408] data_data_0_split -> data_data_0_split_2
I0227 14:27:44.074012 11709 net.cpp:408] data_data_0_split -> data_data_0_split_3
I0227 14:27:44.074023 11709 net.cpp:408] data_data_0_split -> data_data_0_split_4
I0227 14:27:44.074064 11709 net.cpp:408] data_data_0_split -> data_data_0_split_5
I0227 14:27:44.074091 11709 net.cpp:408] data_data_0_split -> data_data_0_split_6
I0227 14:27:44.074112 11709 net.cpp:408] data_data_0_split -> data_data_0_split_7
I0227 14:27:44.074230 11709 net.cpp:150] Setting up data_data_0_split
I0227 14:27:44.074240 11709 net.cpp:157] Top shape: 8 3 512 512 (6291456)
I0227 14:27:44.074244 11709 net.cpp:157] Top shape: 8 3 512 512 (6291456)
I0227 14:27:44.074281 11709 net.cpp:157] Top shape: 8 3 512 512 (6291456)
I0227 14:27:44.074290 11709 net.cpp:157] Top shape: 8 3 512 512 (6291456)
I0227 14:27:44.074298 11709 net.cpp:157] Top shape: 8 3 512 512 (6291456)
I0227 14:27:44.074314 11709 net.cpp:157] Top shape: 8 3 512 512 (6291456)
I0227 14:27:44.074363 11709 net.cpp:157] Top shape: 8 3 512 512 (6291456)
I0227 14:27:44.074370 11709 net.cpp:157] Top shape: 8 3 512 512 (6291456)
I0227 14:27:44.074378 11709 net.cpp:165] Memory required for data: 226493120
I0227 14:27:44.074384 11709 layer_factory.hpp:77] Creating layer label_data_1_split
I0227 14:27:44.074400 11709 net.cpp:100] Creating Layer label_data_1_split
I0227 14:27:44.074409 11709 net.cpp:434] label_data_1_split <- label
I0227 14:27:44.074421 11709 net.cpp:408] label_data_1_split -> label_data_1_split_0
I0227 14:27:44.074445 11709 net.cpp:408] label_data_1_split -> label_data_1_split_1
I0227 14:27:44.074484 11709 net.cpp:150] Setting up label_data_1_split
I0227 14:27:44.074496 11709 net.cpp:157] Top shape: 1 1 22 8 (176)
I0227 14:27:44.074504 11709 net.cpp:157] Top shape: 1 1 22 8 (176)
I0227 14:27:44.074512 11709 net.cpp:165] Memory required for data: 226494528
I0227 14:27:44.074522 11709 layer_factory.hpp:77] Creating layer conv1_1
I0227 14:27:44.074542 11709 net.cpp:100] Creating Layer conv1_1
I0227 14:27:44.074548 11709 net.cpp:434] conv1_1 <- data_data_0_split_0
I0227 14:27:44.074563 11709 net.cpp:408] conv1_1 -> conv1_1
I0227 14:27:44.112592 11716 blocking_queue.cpp:50] Waiting for data
I0227 14:27:44.509479 11709 net.cpp:150] Setting up conv1_1
I0227 14:27:44.509505 11709 net.cpp:157] Top shape: 8 64 512 512 (134217728)
I0227 14:27:44.509511 11709 net.cpp:165] Memory required for data: 763365440
I0227 14:27:44.509536 11709 layer_factory.hpp:77] Creating layer relu1_1
I0227 14:27:44.509552 11709 net.cpp:100] Creating Layer relu1_1
I0227 14:27:44.509567 11709 net.cpp:434] relu1_1 <- conv1_1
I0227 14:27:44.509582 11709 net.cpp:395] relu1_1 -> conv1_1 (in-place)
I0227 14:27:44.509739 11709 net.cpp:150] Setting up relu1_1
I0227 14:27:44.509752 11709 net.cpp:157] Top shape: 8 64 512 512 (134217728)
I0227 14:27:44.509758 11709 net.cpp:165] Memory required for data: 1300236352
I0227 14:27:44.509766 11709 layer_factory.hpp:77] Creating layer conv1_2
I0227 14:27:44.509786 11709 net.cpp:100] Creating Layer conv1_2
I0227 14:27:44.509795 11709 net.cpp:434] conv1_2 <- conv1_1
I0227 14:27:44.509810 11709 net.cpp:408] conv1_2 -> conv1_2
I0227 14:27:44.511813 11709 net.cpp:150] Setting up conv1_2
I0227 14:27:44.511828 11709 net.cpp:157] Top shape: 8 64 512 512 (134217728)
I0227 14:27:44.511834 11709 net.cpp:165] Memory required for data: 1837107264
I0227 14:27:44.511850 11709 layer_factory.hpp:77] Creating layer relu1_2
I0227 14:27:44.511864 11709 net.cpp:100] Creating Layer relu1_2
I0227 14:27:44.511871 11709 net.cpp:434] relu1_2 <- conv1_2
I0227 14:27:44.511888 11709 net.cpp:395] relu1_2 -> conv1_2 (in-place)
I0227 14:27:44.512030 11709 net.cpp:150] Setting up relu1_2
I0227 14:27:44.512045 11709 net.cpp:157] Top shape: 8 64 512 512 (134217728)
I0227 14:27:44.512053 11709 net.cpp:165] Memory required for data: 2373978176
I0227 14:27:44.512068 11709 layer_factory.hpp:77] Creating layer pool1
I0227 14:27:44.512085 11709 net.cpp:100] Creating Layer pool1
I0227 14:27:44.512097 11709 net.cpp:434] pool1 <- conv1_2
I0227 14:27:44.512110 11709 net.cpp:408] pool1 -> pool1
I0227 14:27:44.512162 11709 net.cpp:150] Setting up pool1
I0227 14:27:44.512173 11709 net.cpp:157] Top shape: 8 64 256 256 (33554432)
I0227 14:27:44.512181 11709 net.cpp:165] Memory required for data: 2508195904
I0227 14:27:44.512187 11709 layer_factory.hpp:77] Creating layer conv2_1
I0227 14:27:44.512203 11709 net.cpp:100] Creating Layer conv2_1
I0227 14:27:44.512212 11709 net.cpp:434] conv2_1 <- pool1
I0227 14:27:44.512228 11709 net.cpp:408] conv2_1 -> conv2_1
I0227 14:27:44.514485 11709 net.cpp:150] Setting up conv2_1
I0227 14:27:44.514500 11709 net.cpp:157] Top shape: 8 128 256 256 (67108864)
I0227 14:27:44.514506 11709 net.cpp:165] Memory required for data: 2776631360
I0227 14:27:44.514542 11709 layer_factory.hpp:77] Creating layer relu2_1
I0227 14:27:44.514554 11709 net.cpp:100] Creating Layer relu2_1
I0227 14:27:44.514561 11709 net.cpp:434] relu2_1 <- conv2_1
I0227 14:27:44.514575 11709 net.cpp:395] relu2_1 -> conv2_1 (in-place)
I0227 14:27:44.516535 11709 net.cpp:150] Setting up relu2_1
I0227 14:27:44.516548 11709 net.cpp:157] Top shape: 8 128 256 256 (67108864)
I0227 14:27:44.516553 11709 net.cpp:165] Memory required for data: 3045066816
I0227 14:27:44.516561 11709 layer_factory.hpp:77] Creating layer conv2_2
I0227 14:27:44.516578 11709 net.cpp:100] Creating Layer conv2_2
I0227 14:27:44.516588 11709 net.cpp:434] conv2_2 <- conv2_1
I0227 14:27:44.516600 11709 net.cpp:408] conv2_2 -> conv2_2
I0227 14:27:44.518393 11709 net.cpp:150] Setting up conv2_2
I0227 14:27:44.518406 11709 net.cpp:157] Top shape: 8 128 256 256 (67108864)
I0227 14:27:44.518414 11709 net.cpp:165] Memory required for data: 3313502272
I0227 14:27:44.518424 11709 layer_factory.hpp:77] Creating layer relu2_2
I0227 14:27:44.518435 11709 net.cpp:100] Creating Layer relu2_2
I0227 14:27:44.518442 11709 net.cpp:434] relu2_2 <- conv2_2
I0227 14:27:44.518456 11709 net.cpp:395] relu2_2 -> conv2_2 (in-place)
I0227 14:27:44.518602 11709 net.cpp:150] Setting up relu2_2
I0227 14:27:44.518612 11709 net.cpp:157] Top shape: 8 128 256 256 (67108864)
I0227 14:27:44.518620 11709 net.cpp:165] Memory required for data: 3581937728
I0227 14:27:44.518626 11709 layer_factory.hpp:77] Creating layer pool2
I0227 14:27:44.518641 11709 net.cpp:100] Creating Layer pool2
I0227 14:27:44.518648 11709 net.cpp:434] pool2 <- conv2_2
I0227 14:27:44.518661 11709 net.cpp:408] pool2 -> pool2
I0227 14:27:44.518697 11709 net.cpp:150] Setting up pool2
I0227 14:27:44.518707 11709 net.cpp:157] Top shape: 8 128 128 128 (16777216)
I0227 14:27:44.518710 11709 net.cpp:165] Memory required for data: 3649046592
I0227 14:27:44.518716 11709 layer_factory.hpp:77] Creating layer conv3_1
I0227 14:27:44.518731 11709 net.cpp:100] Creating Layer conv3_1
I0227 14:27:44.518743 11709 net.cpp:434] conv3_1 <- pool2
I0227 14:27:44.518754 11709 net.cpp:408] conv3_1 -> conv3_1
I0227 14:27:44.521898 11709 net.cpp:150] Setting up conv3_1
I0227 14:27:44.521914 11709 net.cpp:157] Top shape: 8 256 128 128 (33554432)
I0227 14:27:44.521919 11709 net.cpp:165] Memory required for data: 3783264320
I0227 14:27:44.521932 11709 layer_factory.hpp:77] Creating layer relu3_1
I0227 14:27:44.521945 11709 net.cpp:100] Creating Layer relu3_1
I0227 14:27:44.521952 11709 net.cpp:434] relu3_1 <- conv3_1
I0227 14:27:44.521960 11709 net.cpp:395] relu3_1 -> conv3_1 (in-place)
I0227 14:27:44.522168 11709 net.cpp:150] Setting up relu3_1
I0227 14:27:44.522181 11709 net.cpp:157] Top shape: 8 256 128 128 (33554432)
I0227 14:27:44.522187 11709 net.cpp:165] Memory required for data: 3917482048
I0227 14:27:44.522194 11709 layer_factory.hpp:77] Creating layer conv3_2
I0227 14:27:44.522208 11709 net.cpp:100] Creating Layer conv3_2
I0227 14:27:44.522220 11709 net.cpp:434] conv3_2 <- conv3_1
I0227 14:27:44.522230 11709 net.cpp:408] conv3_2 -> conv3_2
I0227 14:27:44.526753 11709 net.cpp:150] Setting up conv3_2
I0227 14:27:44.526765 11709 net.cpp:157] Top shape: 8 256 128 128 (33554432)
I0227 14:27:44.526772 11709 net.cpp:165] Memory required for data: 4051699776
I0227 14:27:44.526780 11709 layer_factory.hpp:77] Creating layer relu3_2
I0227 14:27:44.526788 11709 net.cpp:100] Creating Layer relu3_2
I0227 14:27:44.526795 11709 net.cpp:434] relu3_2 <- conv3_2
I0227 14:27:44.526805 11709 net.cpp:395] relu3_2 -> conv3_2 (in-place)
I0227 14:27:44.527242 11709 net.cpp:150] Setting up relu3_2
I0227 14:27:44.527253 11709 net.cpp:157] Top shape: 8 256 128 128 (33554432)
I0227 14:27:44.527257 11709 net.cpp:165] Memory required for data: 4185917504
I0227 14:27:44.527263 11709 layer_factory.hpp:77] Creating layer conv3_3
I0227 14:27:44.527273 11709 net.cpp:100] Creating Layer conv3_3
I0227 14:27:44.527279 11709 net.cpp:434] conv3_3 <- conv3_2
I0227 14:27:44.527287 11709 net.cpp:408] conv3_3 -> conv3_3
I0227 14:27:44.531630 11709 net.cpp:150] Setting up conv3_3
I0227 14:27:44.531644 11709 net.cpp:157] Top shape: 8 256 128 128 (33554432)
I0227 14:27:44.531648 11709 net.cpp:165] Memory required for data: 4320135232
I0227 14:27:44.531656 11709 layer_factory.hpp:77] Creating layer relu3_3
I0227 14:27:44.531667 11709 net.cpp:100] Creating Layer relu3_3
I0227 14:27:44.531673 11709 net.cpp:434] relu3_3 <- conv3_3
I0227 14:27:44.531679 11709 net.cpp:395] relu3_3 -> conv3_3 (in-place)
I0227 14:27:44.531824 11709 net.cpp:150] Setting up relu3_3
I0227 14:27:44.531834 11709 net.cpp:157] Top shape: 8 256 128 128 (33554432)
I0227 14:27:44.531841 11709 net.cpp:165] Memory required for data: 4454352960
I0227 14:27:44.531846 11709 layer_factory.hpp:77] Creating layer pool3
I0227 14:27:44.531855 11709 net.cpp:100] Creating Layer pool3
I0227 14:27:44.531860 11709 net.cpp:434] pool3 <- conv3_3
I0227 14:27:44.531869 11709 net.cpp:408] pool3 -> pool3
I0227 14:27:44.531905 11709 net.cpp:150] Setting up pool3
I0227 14:27:44.531918 11709 net.cpp:157] Top shape: 8 256 64 64 (8388608)
I0227 14:27:44.531921 11709 net.cpp:165] Memory required for data: 4487907392
I0227 14:27:44.531924 11709 layer_factory.hpp:77] Creating layer conv4_1
I0227 14:27:44.531932 11709 net.cpp:100] Creating Layer conv4_1
I0227 14:27:44.531937 11709 net.cpp:434] conv4_1 <- pool3
I0227 14:27:44.531944 11709 net.cpp:408] conv4_1 -> conv4_1
I0227 14:27:44.541141 11709 net.cpp:150] Setting up conv4_1
I0227 14:27:44.541154 11709 net.cpp:157] Top shape: 8 512 64 64 (16777216)
I0227 14:27:44.541158 11709 net.cpp:165] Memory required for data: 4555016256
I0227 14:27:44.541168 11709 layer_factory.hpp:77] Creating layer relu4_1
I0227 14:27:44.541175 11709 net.cpp:100] Creating Layer relu4_1
I0227 14:27:44.541182 11709 net.cpp:434] relu4_1 <- conv4_1
I0227 14:27:44.541190 11709 net.cpp:395] relu4_1 -> conv4_1 (in-place)
I0227 14:27:44.541337 11709 net.cpp:150] Setting up relu4_1
I0227 14:27:44.541345 11709 net.cpp:157] Top shape: 8 512 64 64 (16777216)
I0227 14:27:44.541349 11709 net.cpp:165] Memory required for data: 4622125120
I0227 14:27:44.541354 11709 layer_factory.hpp:77] Creating layer conv4_2
I0227 14:27:44.541368 11709 net.cpp:100] Creating Layer conv4_2
I0227 14:27:44.541374 11709 net.cpp:434] conv4_2 <- conv4_1
I0227 14:27:44.541380 11709 net.cpp:408] conv4_2 -> conv4_2
I0227 14:27:44.557178 11709 net.cpp:150] Setting up conv4_2
I0227 14:27:44.557195 11709 net.cpp:157] Top shape: 8 512 64 64 (16777216)
I0227 14:27:44.557199 11709 net.cpp:165] Memory required for data: 4689233984
I0227 14:27:44.557210 11709 layer_factory.hpp:77] Creating layer relu4_2
I0227 14:27:44.557217 11709 net.cpp:100] Creating Layer relu4_2
I0227 14:27:44.557224 11709 net.cpp:434] relu4_2 <- conv4_2
I0227 14:27:44.557229 11709 net.cpp:395] relu4_2 -> conv4_2 (in-place)
I0227 14:27:44.557374 11709 net.cpp:150] Setting up relu4_2
I0227 14:27:44.557381 11709 net.cpp:157] Top shape: 8 512 64 64 (16777216)
I0227 14:27:44.557385 11709 net.cpp:165] Memory required for data: 4756342848
I0227 14:27:44.557389 11709 layer_factory.hpp:77] Creating layer conv4_3
I0227 14:27:44.557404 11709 net.cpp:100] Creating Layer conv4_3
I0227 14:27:44.557410 11709 net.cpp:434] conv4_3 <- conv4_2
I0227 14:27:44.557416 11709 net.cpp:408] conv4_3 -> conv4_3_ori
I0227 14:27:44.576109 11709 net.cpp:150] Setting up conv4_3
I0227 14:27:44.576133 11709 net.cpp:157] Top shape: 8 512 64 64 (16777216)
I0227 14:27:44.576135 11709 net.cpp:165] Memory required for data: 4823451712
I0227 14:27:44.576144 11709 layer_factory.hpp:77] Creating layer relu4_3
I0227 14:27:44.576151 11709 net.cpp:100] Creating Layer relu4_3
I0227 14:27:44.576159 11709 net.cpp:434] relu4_3 <- conv4_3_ori
I0227 14:27:44.576166 11709 net.cpp:395] relu4_3 -> conv4_3_ori (in-place)
I0227 14:27:44.576628 11709 net.cpp:150] Setting up relu4_3
I0227 14:27:44.576639 11709 net.cpp:157] Top shape: 8 512 64 64 (16777216)
I0227 14:27:44.576643 11709 net.cpp:165] Memory required for data: 4890560576
I0227 14:27:44.576648 11709 layer_factory.hpp:77] Creating layer conv4_3_ori_relu4_3_0_split
I0227 14:27:44.576673 11709 net.cpp:100] Creating Layer conv4_3_ori_relu4_3_0_split
I0227 14:27:44.576678 11709 net.cpp:434] conv4_3_ori_relu4_3_0_split <- conv4_3_ori
I0227 14:27:44.576686 11709 net.cpp:408] conv4_3_ori_relu4_3_0_split -> conv4_3_ori_relu4_3_0_split_0
I0227 14:27:44.576695 11709 net.cpp:408] conv4_3_ori_relu4_3_0_split -> conv4_3_ori_relu4_3_0_split_1
I0227 14:27:44.576735 11709 net.cpp:150] Setting up conv4_3_ori_relu4_3_0_split
I0227 14:27:44.576742 11709 net.cpp:157] Top shape: 8 512 64 64 (16777216)
I0227 14:27:44.576746 11709 net.cpp:157] Top shape: 8 512 64 64 (16777216)
I0227 14:27:44.576750 11709 net.cpp:165] Memory required for data: 5024778304
I0227 14:27:44.576752 11709 layer_factory.hpp:77] Creating layer seg_pool4
I0227 14:27:44.576759 11709 net.cpp:100] Creating Layer seg_pool4
I0227 14:27:44.576766 11709 net.cpp:434] seg_pool4 <- conv4_3_ori_relu4_3_0_split_0
I0227 14:27:44.576773 11709 net.cpp:408] seg_pool4 -> seg_pool4
I0227 14:27:44.576804 11709 net.cpp:150] Setting up seg_pool4
I0227 14:27:44.576815 11709 net.cpp:157] Top shape: 8 512 64 64 (16777216)
I0227 14:27:44.576820 11709 net.cpp:165] Memory required for data: 5091887168
I0227 14:27:44.576823 11709 layer_factory.hpp:77] Creating layer seg5_1
I0227 14:27:44.576834 11709 net.cpp:100] Creating Layer seg5_1
I0227 14:27:44.576839 11709 net.cpp:434] seg5_1 <- seg_pool4
I0227 14:27:44.576845 11709 net.cpp:408] seg5_1 -> seg5_1
I0227 14:27:44.590389 11709 net.cpp:150] Setting up seg5_1
I0227 14:27:44.590416 11709 net.cpp:157] Top shape: 8 512 64 64 (16777216)
I0227 14:27:44.590420 11709 net.cpp:165] Memory required for data: 5158996032
I0227 14:27:44.590428 11709 layer_factory.hpp:77] Creating layer seg_relu5_1
I0227 14:27:44.590438 11709 net.cpp:100] Creating Layer seg_relu5_1
I0227 14:27:44.590445 11709 net.cpp:434] seg_relu5_1 <- seg5_1
I0227 14:27:44.590451 11709 net.cpp:395] seg_relu5_1 -> seg5_1 (in-place)
I0227 14:27:44.590661 11709 net.cpp:150] Setting up seg_relu5_1
I0227 14:27:44.590668 11709 net.cpp:157] Top shape: 8 512 64 64 (16777216)
I0227 14:27:44.590672 11709 net.cpp:165] Memory required for data: 5226104896
I0227 14:27:44.590677 11709 layer_factory.hpp:77] Creating layer seg5_2
I0227 14:27:44.590687 11709 net.cpp:100] Creating Layer seg5_2
I0227 14:27:44.590692 11709 net.cpp:434] seg5_2 <- seg5_1
I0227 14:27:44.590698 11709 net.cpp:408] seg5_2 -> seg5_2
I0227 14:27:44.603128 11709 net.cpp:150] Setting up seg5_2
I0227 14:27:44.603148 11709 net.cpp:157] Top shape: 8 512 64 64 (16777216)
I0227 14:27:44.603153 11709 net.cpp:165] Memory required for data: 5293213760
I0227 14:27:44.603164 11709 layer_factory.hpp:77] Creating layer seg_relu5_2
I0227 14:27:44.603173 11709 net.cpp:100] Creating Layer seg_relu5_2
I0227 14:27:44.603178 11709 net.cpp:434] seg_relu5_2 <- seg5_2
I0227 14:27:44.603188 11709 net.cpp:395] seg_relu5_2 -> seg5_2 (in-place)
I0227 14:27:44.603433 11709 net.cpp:150] Setting up seg_relu5_2
I0227 14:27:44.603443 11709 net.cpp:157] Top shape: 8 512 64 64 (16777216)
I0227 14:27:44.603446 11709 net.cpp:165] Memory required for data: 5360322624
I0227 14:27:44.603449 11709 layer_factory.hpp:77] Creating layer seg5_3
I0227 14:27:44.603466 11709 net.cpp:100] Creating Layer seg5_3
I0227 14:27:44.603472 11709 net.cpp:434] seg5_3 <- seg5_2
I0227 14:27:44.603478 11709 net.cpp:408] seg5_3 -> seg5_3
I0227 14:27:44.615375 11709 net.cpp:150] Setting up seg5_3
I0227 14:27:44.615392 11709 net.cpp:157] Top shape: 8 512 64 64 (16777216)
I0227 14:27:44.615396 11709 net.cpp:165] Memory required for data: 5427431488
I0227 14:27:44.615402 11709 layer_factory.hpp:77] Creating layer seg_relu5_3
I0227 14:27:44.615409 11709 net.cpp:100] Creating Layer seg_relu5_3
I0227 14:27:44.615413 11709 net.cpp:434] seg_relu5_3 <- seg5_3
I0227 14:27:44.615419 11709 net.cpp:395] seg_relu5_3 -> seg5_3 (in-place)
I0227 14:27:44.615969 11709 net.cpp:150] Setting up seg_relu5_3
I0227 14:27:44.615983 11709 net.cpp:157] Top shape: 8 512 64 64 (16777216)
I0227 14:27:44.615988 11709 net.cpp:165] Memory required for data: 5494540352
I0227 14:27:44.616013 11709 layer_factory.hpp:77] Creating layer seg_pool5
I0227 14:27:44.616020 11709 net.cpp:100] Creating Layer seg_pool5
I0227 14:27:44.616025 11709 net.cpp:434] seg_pool5 <- seg5_3
I0227 14:27:44.616035 11709 net.cpp:408] seg_pool5 -> seg_pool5
I0227 14:27:44.616076 11709 net.cpp:150] Setting up seg_pool5
I0227 14:27:44.616086 11709 net.cpp:157] Top shape: 8 512 64 64 (16777216)
I0227 14:27:44.616088 11709 net.cpp:165] Memory required for data: 5561649216
I0227 14:27:44.616092 11709 layer_factory.hpp:77] Creating layer seg6
I0227 14:27:44.616107 11709 net.cpp:100] Creating Layer seg6
I0227 14:27:44.616116 11709 net.cpp:434] seg6 <- seg_pool5
I0227 14:27:44.616123 11709 net.cpp:408] seg6 -> seg6
I0227 14:27:44.642745 11709 net.cpp:150] Setting up seg6
I0227 14:27:44.642768 11709 net.cpp:157] Top shape: 8 1024 64 64 (33554432)
I0227 14:27:44.642772 11709 net.cpp:165] Memory required for data: 5695866944
I0227 14:27:44.642781 11709 layer_factory.hpp:77] Creating layer seg_relu6
I0227 14:27:44.642793 11709 net.cpp:100] Creating Layer seg_relu6
I0227 14:27:44.642801 11709 net.cpp:434] seg_relu6 <- seg6
I0227 14:27:44.642807 11709 net.cpp:395] seg_relu6 -> seg6 (in-place)
I0227 14:27:44.643018 11709 net.cpp:150] Setting up seg_relu6
I0227 14:27:44.643028 11709 net.cpp:157] Top shape: 8 1024 64 64 (33554432)
I0227 14:27:44.643033 11709 net.cpp:165] Memory required for data: 5830084672
I0227 14:27:44.643036 11709 layer_factory.hpp:77] Creating layer seg_drop6
I0227 14:27:44.643043 11709 net.cpp:100] Creating Layer seg_drop6
I0227 14:27:44.643049 11709 net.cpp:434] seg_drop6 <- seg6
I0227 14:27:44.643062 11709 net.cpp:395] seg_drop6 -> seg6 (in-place)
I0227 14:27:44.643095 11709 net.cpp:150] Setting up seg_drop6
I0227 14:27:44.643105 11709 net.cpp:157] Top shape: 8 1024 64 64 (33554432)
I0227 14:27:44.643108 11709 net.cpp:165] Memory required for data: 5964302400
I0227 14:27:44.643112 11709 layer_factory.hpp:77] Creating layer seg7
I0227 14:27:44.643126 11709 net.cpp:100] Creating Layer seg7
I0227 14:27:44.643129 11709 net.cpp:434] seg7 <- seg6
I0227 14:27:44.643136 11709 net.cpp:408] seg7 -> seg7
I0227 14:27:44.650125 11709 net.cpp:150] Setting up seg7
I0227 14:27:44.650137 11709 net.cpp:157] Top shape: 8 1024 64 64 (33554432)
I0227 14:27:44.650141 11709 net.cpp:165] Memory required for data: 6098520128
I0227 14:27:44.650149 11709 layer_factory.hpp:77] Creating layer seg_relu7
I0227 14:27:44.650154 11709 net.cpp:100] Creating Layer seg_relu7
I0227 14:27:44.650159 11709 net.cpp:434] seg_relu7 <- seg7
I0227 14:27:44.650168 11709 net.cpp:395] seg_relu7 -> seg7 (in-place)
I0227 14:27:44.650321 11709 net.cpp:150] Setting up seg_relu7
I0227 14:27:44.650346 11709 net.cpp:157] Top shape: 8 1024 64 64 (33554432)
I0227 14:27:44.650351 11709 net.cpp:165] Memory required for data: 6232737856
I0227 14:27:44.650354 11709 layer_factory.hpp:77] Creating layer seg7_seg_relu7_0_split
I0227 14:27:44.650364 11709 net.cpp:100] Creating Layer seg7_seg_relu7_0_split
I0227 14:27:44.650372 11709 net.cpp:434] seg7_seg_relu7_0_split <- seg7
I0227 14:27:44.650382 11709 net.cpp:408] seg7_seg_relu7_0_split -> seg7_seg_relu7_0_split_0
I0227 14:27:44.650389 11709 net.cpp:408] seg7_seg_relu7_0_split -> seg7_seg_relu7_0_split_1
I0227 14:27:44.650427 11709 net.cpp:150] Setting up seg7_seg_relu7_0_split
I0227 14:27:44.650435 11709 net.cpp:157] Top shape: 8 1024 64 64 (33554432)
I0227 14:27:44.650441 11709 net.cpp:157] Top shape: 8 1024 64 64 (33554432)
I0227 14:27:44.650444 11709 net.cpp:165] Memory required for data: 6501173312
I0227 14:27:44.650449 11709 layer_factory.hpp:77] Creating layer seg_drop7
I0227 14:27:44.650456 11709 net.cpp:100] Creating Layer seg_drop7
I0227 14:27:44.650462 11709 net.cpp:434] seg_drop7 <- seg7_seg_relu7_0_split_0
I0227 14:27:44.650470 11709 net.cpp:408] seg_drop7 -> seg7d
I0227 14:27:44.650509 11709 net.cpp:150] Setting up seg_drop7
I0227 14:27:44.650516 11709 net.cpp:157] Top shape: 8 1024 64 64 (33554432)
I0227 14:27:44.650519 11709 net.cpp:165] Memory required for data: 6635391040
I0227 14:27:44.650523 11709 layer_factory.hpp:77] Creating layer seg_new
I0227 14:27:44.650571 11709 net.cpp:100] Creating Layer seg_new
I0227 14:27:44.650581 11709 net.cpp:434] seg_new <- seg7d
I0227 14:27:44.650586 11709 net.cpp:408] seg_new -> seg
I0227 14:27:44.652112 11709 net.cpp:150] Setting up seg_new
I0227 14:27:44.652125 11709 net.cpp:157] Top shape: 8 21 64 64 (688128)
I0227 14:27:44.652129 11709 net.cpp:165] Memory required for data: 6638143552
I0227 14:27:44.652134 11709 layer_factory.hpp:77] Creating layer seg_seg_new_0_split
I0227 14:27:44.652143 11709 net.cpp:100] Creating Layer seg_seg_new_0_split
I0227 14:27:44.652148 11709 net.cpp:434] seg_seg_new_0_split <- seg
I0227 14:27:44.652155 11709 net.cpp:408] seg_seg_new_0_split -> seg_seg_new_0_split_0
I0227 14:27:44.652164 11709 net.cpp:408] seg_seg_new_0_split -> seg_seg_new_0_split_1
I0227 14:27:44.652199 11709 net.cpp:150] Setting up seg_seg_new_0_split
I0227 14:27:44.652209 11709 net.cpp:157] Top shape: 8 21 64 64 (688128)
I0227 14:27:44.652212 11709 net.cpp:157] Top shape: 8 21 64 64 (688128)
I0227 14:27:44.652216 11709 net.cpp:165] Memory required for data: 6643648576
I0227 14:27:44.652220 11709 layer_factory.hpp:77] Creating layer seg_gt
I0227 14:27:44.652227 11709 net.cpp:100] Creating Layer seg_gt
I0227 14:27:44.652232 11709 net.cpp:434] seg_gt <- label_data_1_split_0
I0227 14:27:44.652240 11709 net.cpp:434] seg_gt <- seg_seg_new_0_split_0
I0227 14:27:44.652245 11709 net.cpp:408] seg_gt -> seg_gt
I0227 14:27:44.652277 11709 net.cpp:150] Setting up seg_gt
I0227 14:27:44.652289 11709 net.cpp:157] Top shape: 8 1 64 64 (32768)
I0227 14:27:44.652297 11709 net.cpp:165] Memory required for data: 6643779648
I0227 14:27:44.652302 11709 layer_factory.hpp:77] Creating layer seg_loss
I0227 14:27:44.652312 11709 net.cpp:100] Creating Layer seg_loss
I0227 14:27:44.652314 11709 net.cpp:434] seg_loss <- seg_seg_new_0_split_1
I0227 14:27:44.652319 11709 net.cpp:434] seg_loss <- seg_gt
I0227 14:27:44.652326 11709 net.cpp:408] seg_loss -> seg_loss
I0227 14:27:44.652339 11709 layer_factory.hpp:77] Creating layer seg_loss
I0227 14:27:44.654073 11709 net.cpp:150] Setting up seg_loss
I0227 14:27:44.654085 11709 net.cpp:157] Top shape: (1)
I0227 14:27:44.654090 11709 net.cpp:160]     with loss weight 0.1
I0227 14:27:44.654110 11709 net.cpp:165] Memory required for data: 6643779652
I0227 14:27:44.654114 11709 layer_factory.hpp:77] Creating layer seg_to_det_conv
I0227 14:27:44.654130 11709 net.cpp:100] Creating Layer seg_to_det_conv
I0227 14:27:44.654136 11709 net.cpp:434] seg_to_det_conv <- seg7_seg_relu7_0_split_1
I0227 14:27:44.654145 11709 net.cpp:408] seg_to_det_conv -> seg_to_det_conv
I0227 14:27:44.663055 11709 net.cpp:150] Setting up seg_to_det_conv
I0227 14:27:44.663067 11709 net.cpp:157] Top shape: 8 512 64 64 (16777216)
I0227 14:27:44.663071 11709 net.cpp:165] Memory required for data: 6710888516
I0227 14:27:44.663084 11709 layer_factory.hpp:77] Creating layer mult_conv4_3
I0227 14:27:44.663094 11709 net.cpp:100] Creating Layer mult_conv4_3
I0227 14:27:44.663103 11709 net.cpp:434] mult_conv4_3 <- conv4_3_ori_relu4_3_0_split_1
I0227 14:27:44.663108 11709 net.cpp:434] mult_conv4_3 <- seg_to_det_conv
I0227 14:27:44.663116 11709 net.cpp:408] mult_conv4_3 -> conv4_3_t
I0227 14:27:44.663147 11709 net.cpp:150] Setting up mult_conv4_3
I0227 14:27:44.663156 11709 net.cpp:157] Top shape: 8 512 64 64 (16777216)
I0227 14:27:44.663159 11709 net.cpp:165] Memory required for data: 6777997380
I0227 14:27:44.663166 11709 layer_factory.hpp:77] Creating layer conv4_3_t_mult_conv4_3_0_split
I0227 14:27:44.663172 11709 net.cpp:100] Creating Layer conv4_3_t_mult_conv4_3_0_split
I0227 14:27:44.663175 11709 net.cpp:434] conv4_3_t_mult_conv4_3_0_split <- conv4_3_t
I0227 14:27:44.663187 11709 net.cpp:408] conv4_3_t_mult_conv4_3_0_split -> conv4_3_t_mult_conv4_3_0_split_0
I0227 14:27:44.663197 11709 net.cpp:408] conv4_3_t_mult_conv4_3_0_split -> conv4_3_t_mult_conv4_3_0_split_1
I0227 14:27:44.663229 11709 net.cpp:150] Setting up conv4_3_t_mult_conv4_3_0_split
I0227 14:27:44.663239 11709 net.cpp:157] Top shape: 8 512 64 64 (16777216)
I0227 14:27:44.663257 11709 net.cpp:157] Top shape: 8 512 64 64 (16777216)
I0227 14:27:44.663262 11709 net.cpp:165] Memory required for data: 6912215108
I0227 14:27:44.663267 11709 layer_factory.hpp:77] Creating layer conv4_3_s
I0227 14:27:44.663275 11709 net.cpp:100] Creating Layer conv4_3_s
I0227 14:27:44.663280 11709 net.cpp:434] conv4_3_s <- conv4_3_t_mult_conv4_3_0_split_0
I0227 14:27:44.663286 11709 net.cpp:408] conv4_3_s -> conv4_3_s
I0227 14:27:44.663461 11709 net.cpp:150] Setting up conv4_3_s
I0227 14:27:44.663470 11709 net.cpp:157] Top shape: 8 512 1 1 (4096)
I0227 14:27:44.663475 11709 net.cpp:165] Memory required for data: 6912231492
I0227 14:27:44.663478 11709 layer_factory.hpp:77] Creating layer conv4_3_fc1
I0227 14:27:44.663487 11709 net.cpp:100] Creating Layer conv4_3_fc1
I0227 14:27:44.663493 11709 net.cpp:434] conv4_3_fc1 <- conv4_3_s
I0227 14:27:44.663501 11709 net.cpp:408] conv4_3_fc1 -> conv4_3_fc1
I0227 14:27:44.665057 11709 net.cpp:150] Setting up conv4_3_fc1
I0227 14:27:44.665071 11709 net.cpp:157] Top shape: 8 128 1 1 (1024)
I0227 14:27:44.665074 11709 net.cpp:165] Memory required for data: 6912235588
I0227 14:27:44.665081 11709 layer_factory.hpp:77] Creating layer conv4_3_relu
I0227 14:27:44.665089 11709 net.cpp:100] Creating Layer conv4_3_relu
I0227 14:27:44.665093 11709 net.cpp:434] conv4_3_relu <- conv4_3_fc1
I0227 14:27:44.665099 11709 net.cpp:395] conv4_3_relu -> conv4_3_fc1 (in-place)
I0227 14:27:44.665259 11709 net.cpp:150] Setting up conv4_3_relu
I0227 14:27:44.665268 11709 net.cpp:157] Top shape: 8 128 1 1 (1024)
I0227 14:27:44.665272 11709 net.cpp:165] Memory required for data: 6912239684
I0227 14:27:44.665275 11709 layer_factory.hpp:77] Creating layer conv4_3_fc2
I0227 14:27:44.665285 11709 net.cpp:100] Creating Layer conv4_3_fc2
I0227 14:27:44.665292 11709 net.cpp:434] conv4_3_fc2 <- conv4_3_fc1
I0227 14:27:44.665302 11709 net.cpp:408] conv4_3_fc2 -> conv4_3_fc2
I0227 14:27:44.666858 11709 net.cpp:150] Setting up conv4_3_fc2
I0227 14:27:44.666872 11709 net.cpp:157] Top shape: 8 512 1 1 (4096)
I0227 14:27:44.666877 11709 net.cpp:165] Memory required for data: 6912256068
I0227 14:27:44.666882 11709 layer_factory.hpp:77] Creating layer conv4_3_sig
I0227 14:27:44.666891 11709 net.cpp:100] Creating Layer conv4_3_sig
I0227 14:27:44.666896 11709 net.cpp:434] conv4_3_sig <- conv4_3_fc2
I0227 14:27:44.666903 11709 net.cpp:395] conv4_3_sig -> conv4_3_fc2 (in-place)
I0227 14:27:44.667055 11709 net.cpp:150] Setting up conv4_3_sig
I0227 14:27:44.667065 11709 net.cpp:157] Top shape: 8 512 1 1 (4096)
I0227 14:27:44.667069 11709 net.cpp:165] Memory required for data: 6912272452
I0227 14:27:44.667073 11709 layer_factory.hpp:77] Creating layer conv4_3_reshape
I0227 14:27:44.667079 11709 net.cpp:100] Creating Layer conv4_3_reshape
I0227 14:27:44.667084 11709 net.cpp:434] conv4_3_reshape <- conv4_3_fc2
I0227 14:27:44.667094 11709 net.cpp:408] conv4_3_reshape -> conv4_3_reshape
I0227 14:27:44.667125 11709 net.cpp:150] Setting up conv4_3_reshape
I0227 14:27:44.667131 11709 net.cpp:157] Top shape: 8 512 (4096)
I0227 14:27:44.667136 11709 net.cpp:165] Memory required for data: 6912288836
I0227 14:27:44.667140 11709 layer_factory.hpp:77] Creating layer conv4_3_scale
I0227 14:27:44.667148 11709 net.cpp:100] Creating Layer conv4_3_scale
I0227 14:27:44.667155 11709 net.cpp:434] conv4_3_scale <- conv4_3_t_mult_conv4_3_0_split_1
I0227 14:27:44.667161 11709 net.cpp:434] conv4_3_scale <- conv4_3_reshape
I0227 14:27:44.667167 11709 net.cpp:408] conv4_3_scale -> conv4_3
I0227 14:27:44.667227 11709 net.cpp:150] Setting up conv4_3_scale
I0227 14:27:44.667235 11709 net.cpp:157] Top shape: 8 512 64 64 (16777216)
I0227 14:27:44.667239 11709 net.cpp:165] Memory required for data: 6979397700
I0227 14:27:44.667243 11709 layer_factory.hpp:77] Creating layer conv4_3_conv4_3_scale_0_split
I0227 14:27:44.667250 11709 net.cpp:100] Creating Layer conv4_3_conv4_3_scale_0_split
I0227 14:27:44.667253 11709 net.cpp:434] conv4_3_conv4_3_scale_0_split <- conv4_3
I0227 14:27:44.667263 11709 net.cpp:408] conv4_3_conv4_3_scale_0_split -> conv4_3_conv4_3_scale_0_split_0
I0227 14:27:44.667285 11709 net.cpp:408] conv4_3_conv4_3_scale_0_split -> conv4_3_conv4_3_scale_0_split_1
I0227 14:27:44.667330 11709 net.cpp:150] Setting up conv4_3_conv4_3_scale_0_split
I0227 14:27:44.667338 11709 net.cpp:157] Top shape: 8 512 64 64 (16777216)
I0227 14:27:44.667345 11709 net.cpp:157] Top shape: 8 512 64 64 (16777216)
I0227 14:27:44.667351 11709 net.cpp:165] Memory required for data: 7113615428
I0227 14:27:44.667356 11709 layer_factory.hpp:77] Creating layer pool4
I0227 14:27:44.667361 11709 net.cpp:100] Creating Layer pool4
I0227 14:27:44.667366 11709 net.cpp:434] pool4 <- conv4_3_conv4_3_scale_0_split_0
I0227 14:27:44.667371 11709 net.cpp:408] pool4 -> pool4
I0227 14:27:44.667403 11709 net.cpp:150] Setting up pool4
I0227 14:27:44.667412 11709 net.cpp:157] Top shape: 8 512 32 32 (4194304)
I0227 14:27:44.667418 11709 net.cpp:165] Memory required for data: 7130392644
I0227 14:27:44.667421 11709 layer_factory.hpp:77] Creating layer conv5_1
I0227 14:27:44.667430 11709 net.cpp:100] Creating Layer conv5_1
I0227 14:27:44.667435 11709 net.cpp:434] conv5_1 <- pool4
I0227 14:27:44.667441 11709 net.cpp:408] conv5_1 -> conv5_1
I0227 14:27:44.680949 11709 net.cpp:150] Setting up conv5_1
I0227 14:27:44.680968 11709 net.cpp:157] Top shape: 8 512 32 32 (4194304)
I0227 14:27:44.680971 11709 net.cpp:165] Memory required for data: 7147169860
I0227 14:27:44.680979 11709 layer_factory.hpp:77] Creating layer relu5_1
I0227 14:27:44.680987 11709 net.cpp:100] Creating Layer relu5_1
I0227 14:27:44.680994 11709 net.cpp:434] relu5_1 <- conv5_1
I0227 14:27:44.681002 11709 net.cpp:395] relu5_1 -> conv5_1 (in-place)
I0227 14:27:44.681483 11709 net.cpp:150] Setting up relu5_1
I0227 14:27:44.681495 11709 net.cpp:157] Top shape: 8 512 32 32 (4194304)
I0227 14:27:44.681501 11709 net.cpp:165] Memory required for data: 7163947076
I0227 14:27:44.681509 11709 layer_factory.hpp:77] Creating layer conv5_2
I0227 14:27:44.681524 11709 net.cpp:100] Creating Layer conv5_2
I0227 14:27:44.681531 11709 net.cpp:434] conv5_2 <- conv5_1
I0227 14:27:44.681540 11709 net.cpp:408] conv5_2 -> conv5_2
I0227 14:27:44.694180 11709 net.cpp:150] Setting up conv5_2
I0227 14:27:44.694196 11709 net.cpp:157] Top shape: 8 512 32 32 (4194304)
I0227 14:27:44.694200 11709 net.cpp:165] Memory required for data: 7180724292
I0227 14:27:44.694208 11709 layer_factory.hpp:77] Creating layer relu5_2
I0227 14:27:44.694217 11709 net.cpp:100] Creating Layer relu5_2
I0227 14:27:44.694223 11709 net.cpp:434] relu5_2 <- conv5_2
I0227 14:27:44.694231 11709 net.cpp:395] relu5_2 -> conv5_2 (in-place)
I0227 14:27:44.694402 11709 net.cpp:150] Setting up relu5_2
I0227 14:27:44.694412 11709 net.cpp:157] Top shape: 8 512 32 32 (4194304)
I0227 14:27:44.694416 11709 net.cpp:165] Memory required for data: 7197501508
I0227 14:27:44.694419 11709 layer_factory.hpp:77] Creating layer conv5_3
I0227 14:27:44.694432 11709 net.cpp:100] Creating Layer conv5_3
I0227 14:27:44.694437 11709 net.cpp:434] conv5_3 <- conv5_2
I0227 14:27:44.694445 11709 net.cpp:408] conv5_3 -> conv5_3
I0227 14:27:44.707096 11709 net.cpp:150] Setting up conv5_3
I0227 14:27:44.707113 11709 net.cpp:157] Top shape: 8 512 32 32 (4194304)
I0227 14:27:44.707118 11709 net.cpp:165] Memory required for data: 7214278724
I0227 14:27:44.707124 11709 layer_factory.hpp:77] Creating layer relu5_3
I0227 14:27:44.707134 11709 net.cpp:100] Creating Layer relu5_3
I0227 14:27:44.707140 11709 net.cpp:434] relu5_3 <- conv5_3
I0227 14:27:44.707147 11709 net.cpp:395] relu5_3 -> conv5_3 (in-place)
I0227 14:27:44.707303 11709 net.cpp:150] Setting up relu5_3
I0227 14:27:44.707312 11709 net.cpp:157] Top shape: 8 512 32 32 (4194304)
I0227 14:27:44.707317 11709 net.cpp:165] Memory required for data: 7231055940
I0227 14:27:44.707320 11709 layer_factory.hpp:77] Creating layer pool5
I0227 14:27:44.707340 11709 net.cpp:100] Creating Layer pool5
I0227 14:27:44.707346 11709 net.cpp:434] pool5 <- conv5_3
I0227 14:27:44.707352 11709 net.cpp:408] pool5 -> pool5
I0227 14:27:44.707393 11709 net.cpp:150] Setting up pool5
I0227 14:27:44.707417 11709 net.cpp:157] Top shape: 8 512 32 32 (4194304)
I0227 14:27:44.707422 11709 net.cpp:165] Memory required for data: 7247833156
I0227 14:27:44.707425 11709 layer_factory.hpp:77] Creating layer fc6
I0227 14:27:44.707437 11709 net.cpp:100] Creating Layer fc6
I0227 14:27:44.707448 11709 net.cpp:434] fc6 <- pool5
I0227 14:27:44.707456 11709 net.cpp:408] fc6 -> fc6
I0227 14:27:44.733923 11709 net.cpp:150] Setting up fc6
I0227 14:27:44.733949 11709 net.cpp:157] Top shape: 8 1024 32 32 (8388608)
I0227 14:27:44.733953 11709 net.cpp:165] Memory required for data: 7281387588
I0227 14:27:44.733961 11709 layer_factory.hpp:77] Creating layer relu6
I0227 14:27:44.733973 11709 net.cpp:100] Creating Layer relu6
I0227 14:27:44.733981 11709 net.cpp:434] relu6 <- fc6
I0227 14:27:44.733989 11709 net.cpp:395] relu6 -> fc6 (in-place)
I0227 14:27:44.734642 11709 net.cpp:150] Setting up relu6
I0227 14:27:44.734657 11709 net.cpp:157] Top shape: 8 1024 32 32 (8388608)
I0227 14:27:44.734660 11709 net.cpp:165] Memory required for data: 7314942020
I0227 14:27:44.734664 11709 layer_factory.hpp:77] Creating layer fc7
I0227 14:27:44.734678 11709 net.cpp:100] Creating Layer fc7
I0227 14:27:44.734685 11709 net.cpp:434] fc7 <- fc6
I0227 14:27:44.734693 11709 net.cpp:408] fc7 -> fc7_t
I0227 14:27:44.741065 11709 net.cpp:150] Setting up fc7
I0227 14:27:44.741080 11709 net.cpp:157] Top shape: 8 1024 32 32 (8388608)
I0227 14:27:44.741083 11709 net.cpp:165] Memory required for data: 7348496452
I0227 14:27:44.741091 11709 layer_factory.hpp:77] Creating layer relu7
I0227 14:27:44.741101 11709 net.cpp:100] Creating Layer relu7
I0227 14:27:44.741108 11709 net.cpp:434] relu7 <- fc7_t
I0227 14:27:44.741117 11709 net.cpp:395] relu7 -> fc7_t (in-place)
I0227 14:27:44.741268 11709 net.cpp:150] Setting up relu7
I0227 14:27:44.741277 11709 net.cpp:157] Top shape: 8 1024 32 32 (8388608)
I0227 14:27:44.741281 11709 net.cpp:165] Memory required for data: 7382050884
I0227 14:27:44.741284 11709 layer_factory.hpp:77] Creating layer fc7_t_relu7_0_split
I0227 14:27:44.741292 11709 net.cpp:100] Creating Layer fc7_t_relu7_0_split
I0227 14:27:44.741298 11709 net.cpp:434] fc7_t_relu7_0_split <- fc7_t
I0227 14:27:44.741303 11709 net.cpp:408] fc7_t_relu7_0_split -> fc7_t_relu7_0_split_0
I0227 14:27:44.741313 11709 net.cpp:408] fc7_t_relu7_0_split -> fc7_t_relu7_0_split_1
I0227 14:27:44.741350 11709 net.cpp:150] Setting up fc7_t_relu7_0_split
I0227 14:27:44.741358 11709 net.cpp:157] Top shape: 8 1024 32 32 (8388608)
I0227 14:27:44.741363 11709 net.cpp:157] Top shape: 8 1024 32 32 (8388608)
I0227 14:27:44.741366 11709 net.cpp:165] Memory required for data: 7449159748
I0227 14:27:44.741370 11709 layer_factory.hpp:77] Creating layer fc7_s
I0227 14:27:44.741377 11709 net.cpp:100] Creating Layer fc7_s
I0227 14:27:44.741382 11709 net.cpp:434] fc7_s <- fc7_t_relu7_0_split_0
I0227 14:27:44.741390 11709 net.cpp:408] fc7_s -> fc7_s
I0227 14:27:44.741550 11709 net.cpp:150] Setting up fc7_s
I0227 14:27:44.741559 11709 net.cpp:157] Top shape: 8 1024 1 1 (8192)
I0227 14:27:44.741562 11709 net.cpp:165] Memory required for data: 7449192516
I0227 14:27:44.741566 11709 layer_factory.hpp:77] Creating layer fc7_fc1
I0227 14:27:44.741578 11709 net.cpp:100] Creating Layer fc7_fc1
I0227 14:27:44.741586 11709 net.cpp:434] fc7_fc1 <- fc7_s
I0227 14:27:44.741593 11709 net.cpp:408] fc7_fc1 -> fc7_fc1
I0227 14:27:44.744390 11709 net.cpp:150] Setting up fc7_fc1
I0227 14:27:44.744402 11709 net.cpp:157] Top shape: 8 256 1 1 (2048)
I0227 14:27:44.744406 11709 net.cpp:165] Memory required for data: 7449200708
I0227 14:27:44.744413 11709 layer_factory.hpp:77] Creating layer fc7_relu
I0227 14:27:44.744422 11709 net.cpp:100] Creating Layer fc7_relu
I0227 14:27:44.744428 11709 net.cpp:434] fc7_relu <- fc7_fc1
I0227 14:27:44.744433 11709 net.cpp:395] fc7_relu -> fc7_fc1 (in-place)
I0227 14:27:44.744915 11709 net.cpp:150] Setting up fc7_relu
I0227 14:27:44.744927 11709 net.cpp:157] Top shape: 8 256 1 1 (2048)
I0227 14:27:44.744931 11709 net.cpp:165] Memory required for data: 7449208900
I0227 14:27:44.744936 11709 layer_factory.hpp:77] Creating layer fc7_fc2
I0227 14:27:44.744966 11709 net.cpp:100] Creating Layer fc7_fc2
I0227 14:27:44.744974 11709 net.cpp:434] fc7_fc2 <- fc7_fc1
I0227 14:27:44.744983 11709 net.cpp:408] fc7_fc2 -> fc7_fc2
I0227 14:27:44.747033 11709 net.cpp:150] Setting up fc7_fc2
I0227 14:27:44.747047 11709 net.cpp:157] Top shape: 8 1024 1 1 (8192)
I0227 14:27:44.747051 11709 net.cpp:165] Memory required for data: 7449241668
I0227 14:27:44.747057 11709 layer_factory.hpp:77] Creating layer fc7_sig
I0227 14:27:44.747066 11709 net.cpp:100] Creating Layer fc7_sig
I0227 14:27:44.747073 11709 net.cpp:434] fc7_sig <- fc7_fc2
I0227 14:27:44.747081 11709 net.cpp:395] fc7_sig -> fc7_fc2 (in-place)
I0227 14:27:44.747232 11709 net.cpp:150] Setting up fc7_sig
I0227 14:27:44.747241 11709 net.cpp:157] Top shape: 8 1024 1 1 (8192)
I0227 14:27:44.747244 11709 net.cpp:165] Memory required for data: 7449274436
I0227 14:27:44.747248 11709 layer_factory.hpp:77] Creating layer fc7_reshape
I0227 14:27:44.747258 11709 net.cpp:100] Creating Layer fc7_reshape
I0227 14:27:44.747263 11709 net.cpp:434] fc7_reshape <- fc7_fc2
I0227 14:27:44.747270 11709 net.cpp:408] fc7_reshape -> fc7_reshape
I0227 14:27:44.747298 11709 net.cpp:150] Setting up fc7_reshape
I0227 14:27:44.747306 11709 net.cpp:157] Top shape: 8 1024 (8192)
I0227 14:27:44.747309 11709 net.cpp:165] Memory required for data: 7449307204
I0227 14:27:44.747313 11709 layer_factory.hpp:77] Creating layer fc7_scale
I0227 14:27:44.747320 11709 net.cpp:100] Creating Layer fc7_scale
I0227 14:27:44.747323 11709 net.cpp:434] fc7_scale <- fc7_t_relu7_0_split_1
I0227 14:27:44.747328 11709 net.cpp:434] fc7_scale <- fc7_reshape
I0227 14:27:44.747336 11709 net.cpp:408] fc7_scale -> fc7
I0227 14:27:44.747395 11709 net.cpp:150] Setting up fc7_scale
I0227 14:27:44.747403 11709 net.cpp:157] Top shape: 8 1024 32 32 (8388608)
I0227 14:27:44.747407 11709 net.cpp:165] Memory required for data: 7482861636
I0227 14:27:44.747411 11709 layer_factory.hpp:77] Creating layer fc7_fc7_scale_0_split
I0227 14:27:44.747417 11709 net.cpp:100] Creating Layer fc7_fc7_scale_0_split
I0227 14:27:44.747423 11709 net.cpp:434] fc7_fc7_scale_0_split <- fc7
I0227 14:27:44.747431 11709 net.cpp:408] fc7_fc7_scale_0_split -> fc7_fc7_scale_0_split_0
I0227 14:27:44.747437 11709 net.cpp:408] fc7_fc7_scale_0_split -> fc7_fc7_scale_0_split_1
I0227 14:27:44.747443 11709 net.cpp:408] fc7_fc7_scale_0_split -> fc7_fc7_scale_0_split_2
I0227 14:27:44.747452 11709 net.cpp:408] fc7_fc7_scale_0_split -> fc7_fc7_scale_0_split_3
I0227 14:27:44.747508 11709 net.cpp:150] Setting up fc7_fc7_scale_0_split
I0227 14:27:44.747514 11709 net.cpp:157] Top shape: 8 1024 32 32 (8388608)
I0227 14:27:44.747519 11709 net.cpp:157] Top shape: 8 1024 32 32 (8388608)
I0227 14:27:44.747524 11709 net.cpp:157] Top shape: 8 1024 32 32 (8388608)
I0227 14:27:44.747526 11709 net.cpp:157] Top shape: 8 1024 32 32 (8388608)
I0227 14:27:44.747530 11709 net.cpp:165] Memory required for data: 7617079364
I0227 14:27:44.747535 11709 layer_factory.hpp:77] Creating layer conv6_1
I0227 14:27:44.747546 11709 net.cpp:100] Creating Layer conv6_1
I0227 14:27:44.747555 11709 net.cpp:434] conv6_1 <- fc7_fc7_scale_0_split_0
I0227 14:27:44.747565 11709 net.cpp:408] conv6_1 -> conv6_1
I0227 14:27:44.750370 11709 net.cpp:150] Setting up conv6_1
I0227 14:27:44.750385 11709 net.cpp:157] Top shape: 8 256 32 32 (2097152)
I0227 14:27:44.750388 11709 net.cpp:165] Memory required for data: 7625467972
I0227 14:27:44.750394 11709 layer_factory.hpp:77] Creating layer conv6_1_relu
I0227 14:27:44.750401 11709 net.cpp:100] Creating Layer conv6_1_relu
I0227 14:27:44.750406 11709 net.cpp:434] conv6_1_relu <- conv6_1
I0227 14:27:44.750411 11709 net.cpp:395] conv6_1_relu -> conv6_1 (in-place)
I0227 14:27:44.750564 11709 net.cpp:150] Setting up conv6_1_relu
I0227 14:27:44.750576 11709 net.cpp:157] Top shape: 8 256 32 32 (2097152)
I0227 14:27:44.750578 11709 net.cpp:165] Memory required for data: 7633856580
I0227 14:27:44.750582 11709 layer_factory.hpp:77] Creating layer conv6_2
I0227 14:27:44.750591 11709 net.cpp:100] Creating Layer conv6_2
I0227 14:27:44.750607 11709 net.cpp:434] conv6_2 <- conv6_1
I0227 14:27:44.750615 11709 net.cpp:408] conv6_2 -> conv6_2_t
I0227 14:27:44.759076 11709 net.cpp:150] Setting up conv6_2
I0227 14:27:44.759089 11709 net.cpp:157] Top shape: 8 512 16 16 (1048576)
I0227 14:27:44.759093 11709 net.cpp:165] Memory required for data: 7638050884
I0227 14:27:44.759100 11709 layer_factory.hpp:77] Creating layer conv6_2_relu
I0227 14:27:44.759106 11709 net.cpp:100] Creating Layer conv6_2_relu
I0227 14:27:44.759110 11709 net.cpp:434] conv6_2_relu <- conv6_2_t
I0227 14:27:44.759119 11709 net.cpp:395] conv6_2_relu -> conv6_2_t (in-place)
I0227 14:27:44.759268 11709 net.cpp:150] Setting up conv6_2_relu
I0227 14:27:44.759276 11709 net.cpp:157] Top shape: 8 512 16 16 (1048576)
I0227 14:27:44.759279 11709 net.cpp:165] Memory required for data: 7642245188
I0227 14:27:44.759284 11709 layer_factory.hpp:77] Creating layer conv6_2_t_conv6_2_relu_0_split
I0227 14:27:44.759289 11709 net.cpp:100] Creating Layer conv6_2_t_conv6_2_relu_0_split
I0227 14:27:44.759294 11709 net.cpp:434] conv6_2_t_conv6_2_relu_0_split <- conv6_2_t
I0227 14:27:44.759301 11709 net.cpp:408] conv6_2_t_conv6_2_relu_0_split -> conv6_2_t_conv6_2_relu_0_split_0
I0227 14:27:44.759310 11709 net.cpp:408] conv6_2_t_conv6_2_relu_0_split -> conv6_2_t_conv6_2_relu_0_split_1
I0227 14:27:44.759346 11709 net.cpp:150] Setting up conv6_2_t_conv6_2_relu_0_split
I0227 14:27:44.759356 11709 net.cpp:157] Top shape: 8 512 16 16 (1048576)
I0227 14:27:44.759361 11709 net.cpp:157] Top shape: 8 512 16 16 (1048576)
I0227 14:27:44.759366 11709 net.cpp:165] Memory required for data: 7650633796
I0227 14:27:44.759371 11709 layer_factory.hpp:77] Creating layer conv6_2_s
I0227 14:27:44.759377 11709 net.cpp:100] Creating Layer conv6_2_s
I0227 14:27:44.759384 11709 net.cpp:434] conv6_2_s <- conv6_2_t_conv6_2_relu_0_split_0
I0227 14:27:44.759392 11709 net.cpp:408] conv6_2_s -> conv6_2_s
I0227 14:27:44.759891 11709 net.cpp:150] Setting up conv6_2_s
I0227 14:27:44.759902 11709 net.cpp:157] Top shape: 8 512 1 1 (4096)
I0227 14:27:44.759907 11709 net.cpp:165] Memory required for data: 7650650180
I0227 14:27:44.759910 11709 layer_factory.hpp:77] Creating layer conv6_2_fc1
I0227 14:27:44.759920 11709 net.cpp:100] Creating Layer conv6_2_fc1
I0227 14:27:44.759928 11709 net.cpp:434] conv6_2_fc1 <- conv6_2_s
I0227 14:27:44.759937 11709 net.cpp:408] conv6_2_fc1 -> conv6_2_fc1
I0227 14:27:44.761210 11709 net.cpp:150] Setting up conv6_2_fc1
I0227 14:27:44.761224 11709 net.cpp:157] Top shape: 8 128 1 1 (1024)
I0227 14:27:44.761229 11709 net.cpp:165] Memory required for data: 7650654276
I0227 14:27:44.761234 11709 layer_factory.hpp:77] Creating layer conv6_2_relu
I0227 14:27:44.761241 11709 net.cpp:100] Creating Layer conv6_2_relu
I0227 14:27:44.761247 11709 net.cpp:434] conv6_2_relu <- conv6_2_fc1
I0227 14:27:44.761255 11709 net.cpp:395] conv6_2_relu -> conv6_2_fc1 (in-place)
I0227 14:27:44.761412 11709 net.cpp:150] Setting up conv6_2_relu
I0227 14:27:44.761423 11709 net.cpp:157] Top shape: 8 128 1 1 (1024)
I0227 14:27:44.761426 11709 net.cpp:165] Memory required for data: 7650658372
I0227 14:27:44.761430 11709 layer_factory.hpp:77] Creating layer conv6_2_fc2
I0227 14:27:44.761438 11709 net.cpp:100] Creating Layer conv6_2_fc2
I0227 14:27:44.761446 11709 net.cpp:434] conv6_2_fc2 <- conv6_2_fc1
I0227 14:27:44.761456 11709 net.cpp:408] conv6_2_fc2 -> conv6_2_fc2
I0227 14:27:44.762768 11709 net.cpp:150] Setting up conv6_2_fc2
I0227 14:27:44.762781 11709 net.cpp:157] Top shape: 8 512 1 1 (4096)
I0227 14:27:44.762785 11709 net.cpp:165] Memory required for data: 7650674756
I0227 14:27:44.762791 11709 layer_factory.hpp:77] Creating layer conv6_2_sig
I0227 14:27:44.762799 11709 net.cpp:100] Creating Layer conv6_2_sig
I0227 14:27:44.762802 11709 net.cpp:434] conv6_2_sig <- conv6_2_fc2
I0227 14:27:44.762809 11709 net.cpp:395] conv6_2_sig -> conv6_2_fc2 (in-place)
I0227 14:27:44.762959 11709 net.cpp:150] Setting up conv6_2_sig
I0227 14:27:44.762969 11709 net.cpp:157] Top shape: 8 512 1 1 (4096)
I0227 14:27:44.762989 11709 net.cpp:165] Memory required for data: 7650691140
I0227 14:27:44.762996 11709 layer_factory.hpp:77] Creating layer conv6_2_reshape
I0227 14:27:44.763005 11709 net.cpp:100] Creating Layer conv6_2_reshape
I0227 14:27:44.763010 11709 net.cpp:434] conv6_2_reshape <- conv6_2_fc2
I0227 14:27:44.763017 11709 net.cpp:408] conv6_2_reshape -> conv6_2_reshape
I0227 14:27:44.763046 11709 net.cpp:150] Setting up conv6_2_reshape
I0227 14:27:44.763054 11709 net.cpp:157] Top shape: 8 512 (4096)
I0227 14:27:44.763058 11709 net.cpp:165] Memory required for data: 7650707524
I0227 14:27:44.763062 11709 layer_factory.hpp:77] Creating layer conv6_2_scale
I0227 14:27:44.763070 11709 net.cpp:100] Creating Layer conv6_2_scale
I0227 14:27:44.763075 11709 net.cpp:434] conv6_2_scale <- conv6_2_t_conv6_2_relu_0_split_1
I0227 14:27:44.763080 11709 net.cpp:434] conv6_2_scale <- conv6_2_reshape
I0227 14:27:44.763088 11709 net.cpp:408] conv6_2_scale -> conv6_2
I0227 14:27:44.763151 11709 net.cpp:150] Setting up conv6_2_scale
I0227 14:27:44.763159 11709 net.cpp:157] Top shape: 8 512 16 16 (1048576)
I0227 14:27:44.763161 11709 net.cpp:165] Memory required for data: 7654901828
I0227 14:27:44.763165 11709 layer_factory.hpp:77] Creating layer conv6_2_conv6_2_scale_0_split
I0227 14:27:44.763171 11709 net.cpp:100] Creating Layer conv6_2_conv6_2_scale_0_split
I0227 14:27:44.763177 11709 net.cpp:434] conv6_2_conv6_2_scale_0_split <- conv6_2
I0227 14:27:44.763185 11709 net.cpp:408] conv6_2_conv6_2_scale_0_split -> conv6_2_conv6_2_scale_0_split_0
I0227 14:27:44.763192 11709 net.cpp:408] conv6_2_conv6_2_scale_0_split -> conv6_2_conv6_2_scale_0_split_1
I0227 14:27:44.763203 11709 net.cpp:408] conv6_2_conv6_2_scale_0_split -> conv6_2_conv6_2_scale_0_split_2
I0227 14:27:44.763212 11709 net.cpp:408] conv6_2_conv6_2_scale_0_split -> conv6_2_conv6_2_scale_0_split_3
I0227 14:27:44.763264 11709 net.cpp:150] Setting up conv6_2_conv6_2_scale_0_split
I0227 14:27:44.763272 11709 net.cpp:157] Top shape: 8 512 16 16 (1048576)
I0227 14:27:44.763276 11709 net.cpp:157] Top shape: 8 512 16 16 (1048576)
I0227 14:27:44.763283 11709 net.cpp:157] Top shape: 8 512 16 16 (1048576)
I0227 14:27:44.763288 11709 net.cpp:157] Top shape: 8 512 16 16 (1048576)
I0227 14:27:44.763293 11709 net.cpp:165] Memory required for data: 7671679044
I0227 14:27:44.763299 11709 layer_factory.hpp:77] Creating layer conv7_1
I0227 14:27:44.763309 11709 net.cpp:100] Creating Layer conv7_1
I0227 14:27:44.763312 11709 net.cpp:434] conv7_1 <- conv6_2_conv6_2_scale_0_split_0
I0227 14:27:44.763319 11709 net.cpp:408] conv7_1 -> conv7_1
I0227 14:27:44.764577 11709 net.cpp:150] Setting up conv7_1
I0227 14:27:44.764591 11709 net.cpp:157] Top shape: 8 128 16 16 (262144)
I0227 14:27:44.764595 11709 net.cpp:165] Memory required for data: 7672727620
I0227 14:27:44.764601 11709 layer_factory.hpp:77] Creating layer conv7_1_relu
I0227 14:27:44.764608 11709 net.cpp:100] Creating Layer conv7_1_relu
I0227 14:27:44.764612 11709 net.cpp:434] conv7_1_relu <- conv7_1
I0227 14:27:44.764618 11709 net.cpp:395] conv7_1_relu -> conv7_1 (in-place)
I0227 14:27:44.765103 11709 net.cpp:150] Setting up conv7_1_relu
I0227 14:27:44.765115 11709 net.cpp:157] Top shape: 8 128 16 16 (262144)
I0227 14:27:44.765118 11709 net.cpp:165] Memory required for data: 7673776196
I0227 14:27:44.765122 11709 layer_factory.hpp:77] Creating layer conv7_2
I0227 14:27:44.765132 11709 net.cpp:100] Creating Layer conv7_2
I0227 14:27:44.765137 11709 net.cpp:434] conv7_2 <- conv7_1
I0227 14:27:44.765144 11709 net.cpp:408] conv7_2 -> conv7_2_t
I0227 14:27:44.768429 11709 net.cpp:150] Setting up conv7_2
I0227 14:27:44.768441 11709 net.cpp:157] Top shape: 8 256 8 8 (131072)
I0227 14:27:44.768445 11709 net.cpp:165] Memory required for data: 7674300484
I0227 14:27:44.768451 11709 layer_factory.hpp:77] Creating layer conv7_2_relu
I0227 14:27:44.768458 11709 net.cpp:100] Creating Layer conv7_2_relu
I0227 14:27:44.768463 11709 net.cpp:434] conv7_2_relu <- conv7_2_t
I0227 14:27:44.768470 11709 net.cpp:395] conv7_2_relu -> conv7_2_t (in-place)
I0227 14:27:44.768632 11709 net.cpp:150] Setting up conv7_2_relu
I0227 14:27:44.768651 11709 net.cpp:157] Top shape: 8 256 8 8 (131072)
I0227 14:27:44.768656 11709 net.cpp:165] Memory required for data: 7674824772
I0227 14:27:44.768661 11709 layer_factory.hpp:77] Creating layer conv7_2_t_conv7_2_relu_0_split
I0227 14:27:44.768672 11709 net.cpp:100] Creating Layer conv7_2_t_conv7_2_relu_0_split
I0227 14:27:44.768678 11709 net.cpp:434] conv7_2_t_conv7_2_relu_0_split <- conv7_2_t
I0227 14:27:44.768685 11709 net.cpp:408] conv7_2_t_conv7_2_relu_0_split -> conv7_2_t_conv7_2_relu_0_split_0
I0227 14:27:44.768694 11709 net.cpp:408] conv7_2_t_conv7_2_relu_0_split -> conv7_2_t_conv7_2_relu_0_split_1
I0227 14:27:44.768735 11709 net.cpp:150] Setting up conv7_2_t_conv7_2_relu_0_split
I0227 14:27:44.768743 11709 net.cpp:157] Top shape: 8 256 8 8 (131072)
I0227 14:27:44.768748 11709 net.cpp:157] Top shape: 8 256 8 8 (131072)
I0227 14:27:44.768752 11709 net.cpp:165] Memory required for data: 7675873348
I0227 14:27:44.768755 11709 layer_factory.hpp:77] Creating layer conv7_2_s
I0227 14:27:44.768761 11709 net.cpp:100] Creating Layer conv7_2_s
I0227 14:27:44.768769 11709 net.cpp:434] conv7_2_s <- conv7_2_t_conv7_2_relu_0_split_0
I0227 14:27:44.768779 11709 net.cpp:408] conv7_2_s -> conv7_2_s
I0227 14:27:44.768944 11709 net.cpp:150] Setting up conv7_2_s
I0227 14:27:44.768954 11709 net.cpp:157] Top shape: 8 256 1 1 (2048)
I0227 14:27:44.768957 11709 net.cpp:165] Memory required for data: 7675881540
I0227 14:27:44.768961 11709 layer_factory.hpp:77] Creating layer conv7_2_fc1
I0227 14:27:44.768970 11709 net.cpp:100] Creating Layer conv7_2_fc1
I0227 14:27:44.768980 11709 net.cpp:434] conv7_2_fc1 <- conv7_2_s
I0227 14:27:44.768990 11709 net.cpp:408] conv7_2_fc1 -> conv7_2_fc1
I0227 14:27:44.770086 11709 net.cpp:150] Setting up conv7_2_fc1
I0227 14:27:44.770097 11709 net.cpp:157] Top shape: 8 64 1 1 (512)
I0227 14:27:44.770100 11709 net.cpp:165] Memory required for data: 7675883588
I0227 14:27:44.770117 11709 layer_factory.hpp:77] Creating layer conv7_2_relu
I0227 14:27:44.770128 11709 net.cpp:100] Creating Layer conv7_2_relu
I0227 14:27:44.770134 11709 net.cpp:434] conv7_2_relu <- conv7_2_fc1
I0227 14:27:44.770141 11709 net.cpp:395] conv7_2_relu -> conv7_2_fc1 (in-place)
I0227 14:27:44.773025 11709 net.cpp:150] Setting up conv7_2_relu
I0227 14:27:44.773037 11709 net.cpp:157] Top shape: 8 64 1 1 (512)
I0227 14:27:44.773041 11709 net.cpp:165] Memory required for data: 7675885636
I0227 14:27:44.773044 11709 layer_factory.hpp:77] Creating layer conv7_2_fc2
I0227 14:27:44.773053 11709 net.cpp:100] Creating Layer conv7_2_fc2
I0227 14:27:44.773061 11709 net.cpp:434] conv7_2_fc2 <- conv7_2_fc1
I0227 14:27:44.773068 11709 net.cpp:408] conv7_2_fc2 -> conv7_2_fc2
I0227 14:27:44.774500 11709 net.cpp:150] Setting up conv7_2_fc2
I0227 14:27:44.774513 11709 net.cpp:157] Top shape: 8 256 1 1 (2048)
I0227 14:27:44.774518 11709 net.cpp:165] Memory required for data: 7675893828
I0227 14:27:44.774523 11709 layer_factory.hpp:77] Creating layer conv7_2_sig
I0227 14:27:44.774530 11709 net.cpp:100] Creating Layer conv7_2_sig
I0227 14:27:44.774535 11709 net.cpp:434] conv7_2_sig <- conv7_2_fc2
I0227 14:27:44.774541 11709 net.cpp:395] conv7_2_sig -> conv7_2_fc2 (in-place)
I0227 14:27:44.774698 11709 net.cpp:150] Setting up conv7_2_sig
I0227 14:27:44.774708 11709 net.cpp:157] Top shape: 8 256 1 1 (2048)
I0227 14:27:44.774710 11709 net.cpp:165] Memory required for data: 7675902020
I0227 14:27:44.774714 11709 layer_factory.hpp:77] Creating layer conv7_2_reshape
I0227 14:27:44.774721 11709 net.cpp:100] Creating Layer conv7_2_reshape
I0227 14:27:44.774725 11709 net.cpp:434] conv7_2_reshape <- conv7_2_fc2
I0227 14:27:44.774734 11709 net.cpp:408] conv7_2_reshape -> conv7_2_reshape
I0227 14:27:44.774763 11709 net.cpp:150] Setting up conv7_2_reshape
I0227 14:27:44.774772 11709 net.cpp:157] Top shape: 8 256 (2048)
I0227 14:27:44.774776 11709 net.cpp:165] Memory required for data: 7675910212
I0227 14:27:44.774780 11709 layer_factory.hpp:77] Creating layer conv7_2_scale
I0227 14:27:44.774785 11709 net.cpp:100] Creating Layer conv7_2_scale
I0227 14:27:44.774802 11709 net.cpp:434] conv7_2_scale <- conv7_2_t_conv7_2_relu_0_split_1
I0227 14:27:44.774808 11709 net.cpp:434] conv7_2_scale <- conv7_2_reshape
I0227 14:27:44.774816 11709 net.cpp:408] conv7_2_scale -> conv7_2
I0227 14:27:44.774884 11709 net.cpp:150] Setting up conv7_2_scale
I0227 14:27:44.774893 11709 net.cpp:157] Top shape: 8 256 8 8 (131072)
I0227 14:27:44.774896 11709 net.cpp:165] Memory required for data: 7676434500
I0227 14:27:44.774899 11709 layer_factory.hpp:77] Creating layer conv7_2_conv7_2_scale_0_split
I0227 14:27:44.774905 11709 net.cpp:100] Creating Layer conv7_2_conv7_2_scale_0_split
I0227 14:27:44.774909 11709 net.cpp:434] conv7_2_conv7_2_scale_0_split <- conv7_2
I0227 14:27:44.774917 11709 net.cpp:408] conv7_2_conv7_2_scale_0_split -> conv7_2_conv7_2_scale_0_split_0
I0227 14:27:44.774927 11709 net.cpp:408] conv7_2_conv7_2_scale_0_split -> conv7_2_conv7_2_scale_0_split_1
I0227 14:27:44.774940 11709 net.cpp:408] conv7_2_conv7_2_scale_0_split -> conv7_2_conv7_2_scale_0_split_2
I0227 14:27:44.774947 11709 net.cpp:408] conv7_2_conv7_2_scale_0_split -> conv7_2_conv7_2_scale_0_split_3
I0227 14:27:44.775007 11709 net.cpp:150] Setting up conv7_2_conv7_2_scale_0_split
I0227 14:27:44.775015 11709 net.cpp:157] Top shape: 8 256 8 8 (131072)
I0227 14:27:44.775019 11709 net.cpp:157] Top shape: 8 256 8 8 (131072)
I0227 14:27:44.775023 11709 net.cpp:157] Top shape: 8 256 8 8 (131072)
I0227 14:27:44.775028 11709 net.cpp:157] Top shape: 8 256 8 8 (131072)
I0227 14:27:44.775035 11709 net.cpp:165] Memory required for data: 7678531652
I0227 14:27:44.775043 11709 layer_factory.hpp:77] Creating layer conv8_1
I0227 14:27:44.775058 11709 net.cpp:100] Creating Layer conv8_1
I0227 14:27:44.775065 11709 net.cpp:434] conv8_1 <- conv7_2_conv7_2_scale_0_split_0
I0227 14:27:44.775074 11709 net.cpp:408] conv8_1 -> conv8_1
I0227 14:27:44.776993 11709 net.cpp:150] Setting up conv8_1
I0227 14:27:44.777004 11709 net.cpp:157] Top shape: 8 128 8 8 (65536)
I0227 14:27:44.777009 11709 net.cpp:165] Memory required for data: 7678793796
I0227 14:27:44.777015 11709 layer_factory.hpp:77] Creating layer conv8_1_relu
I0227 14:27:44.777024 11709 net.cpp:100] Creating Layer conv8_1_relu
I0227 14:27:44.777030 11709 net.cpp:434] conv8_1_relu <- conv8_1
I0227 14:27:44.777035 11709 net.cpp:395] conv8_1_relu -> conv8_1 (in-place)
I0227 14:27:44.777228 11709 net.cpp:150] Setting up conv8_1_relu
I0227 14:27:44.777245 11709 net.cpp:157] Top shape: 8 128 8 8 (65536)
I0227 14:27:44.777249 11709 net.cpp:165] Memory required for data: 7679055940
I0227 14:27:44.777254 11709 layer_factory.hpp:77] Creating layer conv8_2
I0227 14:27:44.777268 11709 net.cpp:100] Creating Layer conv8_2
I0227 14:27:44.777276 11709 net.cpp:434] conv8_2 <- conv8_1
I0227 14:27:44.777285 11709 net.cpp:408] conv8_2 -> conv8_2_t
I0227 14:27:44.780498 11709 net.cpp:150] Setting up conv8_2
I0227 14:27:44.780511 11709 net.cpp:157] Top shape: 8 256 4 4 (32768)
I0227 14:27:44.780517 11709 net.cpp:165] Memory required for data: 7679187012
I0227 14:27:44.780524 11709 layer_factory.hpp:77] Creating layer conv8_2_relu
I0227 14:27:44.780531 11709 net.cpp:100] Creating Layer conv8_2_relu
I0227 14:27:44.780539 11709 net.cpp:434] conv8_2_relu <- conv8_2_t
I0227 14:27:44.780547 11709 net.cpp:395] conv8_2_relu -> conv8_2_t (in-place)
I0227 14:27:44.780699 11709 net.cpp:150] Setting up conv8_2_relu
I0227 14:27:44.780709 11709 net.cpp:157] Top shape: 8 256 4 4 (32768)
I0227 14:27:44.780712 11709 net.cpp:165] Memory required for data: 7679318084
I0227 14:27:44.780717 11709 layer_factory.hpp:77] Creating layer conv8_2_t_conv8_2_relu_0_split
I0227 14:27:44.780724 11709 net.cpp:100] Creating Layer conv8_2_t_conv8_2_relu_0_split
I0227 14:27:44.780727 11709 net.cpp:434] conv8_2_t_conv8_2_relu_0_split <- conv8_2_t
I0227 14:27:44.780738 11709 net.cpp:408] conv8_2_t_conv8_2_relu_0_split -> conv8_2_t_conv8_2_relu_0_split_0
I0227 14:27:44.780752 11709 net.cpp:408] conv8_2_t_conv8_2_relu_0_split -> conv8_2_t_conv8_2_relu_0_split_1
I0227 14:27:44.780794 11709 net.cpp:150] Setting up conv8_2_t_conv8_2_relu_0_split
I0227 14:27:44.780812 11709 net.cpp:157] Top shape: 8 256 4 4 (32768)
I0227 14:27:44.780817 11709 net.cpp:157] Top shape: 8 256 4 4 (32768)
I0227 14:27:44.780822 11709 net.cpp:165] Memory required for data: 7679580228
I0227 14:27:44.780827 11709 layer_factory.hpp:77] Creating layer conv8_2_s
I0227 14:27:44.780835 11709 net.cpp:100] Creating Layer conv8_2_s
I0227 14:27:44.780844 11709 net.cpp:434] conv8_2_s <- conv8_2_t_conv8_2_relu_0_split_0
I0227 14:27:44.780853 11709 net.cpp:408] conv8_2_s -> conv8_2_s
I0227 14:27:44.781355 11709 net.cpp:150] Setting up conv8_2_s
I0227 14:27:44.781366 11709 net.cpp:157] Top shape: 8 256 1 1 (2048)
I0227 14:27:44.781370 11709 net.cpp:165] Memory required for data: 7679588420
I0227 14:27:44.781375 11709 layer_factory.hpp:77] Creating layer conv8_2_fc1
I0227 14:27:44.781385 11709 net.cpp:100] Creating Layer conv8_2_fc1
I0227 14:27:44.781394 11709 net.cpp:434] conv8_2_fc1 <- conv8_2_s
I0227 14:27:44.781402 11709 net.cpp:408] conv8_2_fc1 -> conv8_2_fc1
I0227 14:27:44.782510 11709 net.cpp:150] Setting up conv8_2_fc1
I0227 14:27:44.782521 11709 net.cpp:157] Top shape: 8 64 1 1 (512)
I0227 14:27:44.782523 11709 net.cpp:165] Memory required for data: 7679590468
I0227 14:27:44.782531 11709 layer_factory.hpp:77] Creating layer conv8_2_relu
I0227 14:27:44.782536 11709 net.cpp:100] Creating Layer conv8_2_relu
I0227 14:27:44.782539 11709 net.cpp:434] conv8_2_relu <- conv8_2_fc1
I0227 14:27:44.782548 11709 net.cpp:395] conv8_2_relu -> conv8_2_fc1 (in-place)
I0227 14:27:44.782706 11709 net.cpp:150] Setting up conv8_2_relu
I0227 14:27:44.782714 11709 net.cpp:157] Top shape: 8 64 1 1 (512)
I0227 14:27:44.782718 11709 net.cpp:165] Memory required for data: 7679592516
I0227 14:27:44.782721 11709 layer_factory.hpp:77] Creating layer conv8_2_fc2
I0227 14:27:44.782730 11709 net.cpp:100] Creating Layer conv8_2_fc2
I0227 14:27:44.782742 11709 net.cpp:434] conv8_2_fc2 <- conv8_2_fc1
I0227 14:27:44.782748 11709 net.cpp:408] conv8_2_fc2 -> conv8_2_fc2
I0227 14:27:44.783834 11709 net.cpp:150] Setting up conv8_2_fc2
I0227 14:27:44.783848 11709 net.cpp:157] Top shape: 8 256 1 1 (2048)
I0227 14:27:44.783851 11709 net.cpp:165] Memory required for data: 7679600708
I0227 14:27:44.783857 11709 layer_factory.hpp:77] Creating layer conv8_2_sig
I0227 14:27:44.783866 11709 net.cpp:100] Creating Layer conv8_2_sig
I0227 14:27:44.783870 11709 net.cpp:434] conv8_2_sig <- conv8_2_fc2
I0227 14:27:44.783879 11709 net.cpp:395] conv8_2_sig -> conv8_2_fc2 (in-place)
I0227 14:27:44.784037 11709 net.cpp:150] Setting up conv8_2_sig
I0227 14:27:44.784046 11709 net.cpp:157] Top shape: 8 256 1 1 (2048)
I0227 14:27:44.784050 11709 net.cpp:165] Memory required for data: 7679608900
I0227 14:27:44.784054 11709 layer_factory.hpp:77] Creating layer conv8_2_reshape
I0227 14:27:44.784063 11709 net.cpp:100] Creating Layer conv8_2_reshape
I0227 14:27:44.784067 11709 net.cpp:434] conv8_2_reshape <- conv8_2_fc2
I0227 14:27:44.784075 11709 net.cpp:408] conv8_2_reshape -> conv8_2_reshape
I0227 14:27:44.784111 11709 net.cpp:150] Setting up conv8_2_reshape
I0227 14:27:44.784119 11709 net.cpp:157] Top shape: 8 256 (2048)
I0227 14:27:44.784124 11709 net.cpp:165] Memory required for data: 7679617092
I0227 14:27:44.784127 11709 layer_factory.hpp:77] Creating layer conv8_2_scale
I0227 14:27:44.784134 11709 net.cpp:100] Creating Layer conv8_2_scale
I0227 14:27:44.784137 11709 net.cpp:434] conv8_2_scale <- conv8_2_t_conv8_2_relu_0_split_1
I0227 14:27:44.784144 11709 net.cpp:434] conv8_2_scale <- conv8_2_reshape
I0227 14:27:44.784153 11709 net.cpp:408] conv8_2_scale -> conv8_2
I0227 14:27:44.784219 11709 net.cpp:150] Setting up conv8_2_scale
I0227 14:27:44.784227 11709 net.cpp:157] Top shape: 8 256 4 4 (32768)
I0227 14:27:44.784232 11709 net.cpp:165] Memory required for data: 7679748164
I0227 14:27:44.784235 11709 layer_factory.hpp:77] Creating layer conv8_2_conv8_2_scale_0_split
I0227 14:27:44.784242 11709 net.cpp:100] Creating Layer conv8_2_conv8_2_scale_0_split
I0227 14:27:44.784251 11709 net.cpp:434] conv8_2_conv8_2_scale_0_split <- conv8_2
I0227 14:27:44.784266 11709 net.cpp:408] conv8_2_conv8_2_scale_0_split -> conv8_2_conv8_2_scale_0_split_0
I0227 14:27:44.784276 11709 net.cpp:408] conv8_2_conv8_2_scale_0_split -> conv8_2_conv8_2_scale_0_split_1
I0227 14:27:44.784286 11709 net.cpp:408] conv8_2_conv8_2_scale_0_split -> conv8_2_conv8_2_scale_0_split_2
I0227 14:27:44.784294 11709 net.cpp:408] conv8_2_conv8_2_scale_0_split -> conv8_2_conv8_2_scale_0_split_3
I0227 14:27:44.784360 11709 net.cpp:150] Setting up conv8_2_conv8_2_scale_0_split
I0227 14:27:44.784368 11709 net.cpp:157] Top shape: 8 256 4 4 (32768)
I0227 14:27:44.784373 11709 net.cpp:157] Top shape: 8 256 4 4 (32768)
I0227 14:27:44.784375 11709 net.cpp:157] Top shape: 8 256 4 4 (32768)
I0227 14:27:44.784379 11709 net.cpp:157] Top shape: 8 256 4 4 (32768)
I0227 14:27:44.784384 11709 net.cpp:165] Memory required for data: 7680272452
I0227 14:27:44.784394 11709 layer_factory.hpp:77] Creating layer conv9_1
I0227 14:27:44.784407 11709 net.cpp:100] Creating Layer conv9_1
I0227 14:27:44.784412 11709 net.cpp:434] conv9_1 <- conv8_2_conv8_2_scale_0_split_0
I0227 14:27:44.784421 11709 net.cpp:408] conv9_1 -> conv9_1
I0227 14:27:44.785575 11709 net.cpp:150] Setting up conv9_1
I0227 14:27:44.785588 11709 net.cpp:157] Top shape: 8 128 4 4 (16384)
I0227 14:27:44.785591 11709 net.cpp:165] Memory required for data: 7680337988
I0227 14:27:44.785598 11709 layer_factory.hpp:77] Creating layer conv9_1_relu
I0227 14:27:44.785605 11709 net.cpp:100] Creating Layer conv9_1_relu
I0227 14:27:44.785614 11709 net.cpp:434] conv9_1_relu <- conv9_1
I0227 14:27:44.785619 11709 net.cpp:395] conv9_1_relu -> conv9_1 (in-place)
I0227 14:27:44.786109 11709 net.cpp:150] Setting up conv9_1_relu
I0227 14:27:44.786121 11709 net.cpp:157] Top shape: 8 128 4 4 (16384)
I0227 14:27:44.786124 11709 net.cpp:165] Memory required for data: 7680403524
I0227 14:27:44.786128 11709 layer_factory.hpp:77] Creating layer conv9_2
I0227 14:27:44.786139 11709 net.cpp:100] Creating Layer conv9_2
I0227 14:27:44.786147 11709 net.cpp:434] conv9_2 <- conv9_1
I0227 14:27:44.786154 11709 net.cpp:408] conv9_2 -> conv9_2_t
I0227 14:27:44.789142 11709 net.cpp:150] Setting up conv9_2
I0227 14:27:44.789155 11709 net.cpp:157] Top shape: 8 256 2 2 (8192)
I0227 14:27:44.789160 11709 net.cpp:165] Memory required for data: 7680436292
I0227 14:27:44.789165 11709 layer_factory.hpp:77] Creating layer conv9_2_relu
I0227 14:27:44.789175 11709 net.cpp:100] Creating Layer conv9_2_relu
I0227 14:27:44.789180 11709 net.cpp:434] conv9_2_relu <- conv9_2_t
I0227 14:27:44.789191 11709 net.cpp:395] conv9_2_relu -> conv9_2_t (in-place)
I0227 14:27:44.789340 11709 net.cpp:150] Setting up conv9_2_relu
I0227 14:27:44.789348 11709 net.cpp:157] Top shape: 8 256 2 2 (8192)
I0227 14:27:44.789352 11709 net.cpp:165] Memory required for data: 7680469060
I0227 14:27:44.789357 11709 layer_factory.hpp:77] Creating layer conv9_2_t_conv9_2_relu_0_split
I0227 14:27:44.789366 11709 net.cpp:100] Creating Layer conv9_2_t_conv9_2_relu_0_split
I0227 14:27:44.789376 11709 net.cpp:434] conv9_2_t_conv9_2_relu_0_split <- conv9_2_t
I0227 14:27:44.789384 11709 net.cpp:408] conv9_2_t_conv9_2_relu_0_split -> conv9_2_t_conv9_2_relu_0_split_0
I0227 14:27:44.789393 11709 net.cpp:408] conv9_2_t_conv9_2_relu_0_split -> conv9_2_t_conv9_2_relu_0_split_1
I0227 14:27:44.789434 11709 net.cpp:150] Setting up conv9_2_t_conv9_2_relu_0_split
I0227 14:27:44.789443 11709 net.cpp:157] Top shape: 8 256 2 2 (8192)
I0227 14:27:44.789446 11709 net.cpp:157] Top shape: 8 256 2 2 (8192)
I0227 14:27:44.789451 11709 net.cpp:165] Memory required for data: 7680534596
I0227 14:27:44.789455 11709 layer_factory.hpp:77] Creating layer conv9_2_s
I0227 14:27:44.789463 11709 net.cpp:100] Creating Layer conv9_2_s
I0227 14:27:44.789469 11709 net.cpp:434] conv9_2_s <- conv9_2_t_conv9_2_relu_0_split_0
I0227 14:27:44.789477 11709 net.cpp:408] conv9_2_s -> conv9_2_s
I0227 14:27:44.789644 11709 net.cpp:150] Setting up conv9_2_s
I0227 14:27:44.789652 11709 net.cpp:157] Top shape: 8 256 1 1 (2048)
I0227 14:27:44.789656 11709 net.cpp:165] Memory required for data: 7680542788
I0227 14:27:44.789675 11709 layer_factory.hpp:77] Creating layer conv9_2_fc1
I0227 14:27:44.789685 11709 net.cpp:100] Creating Layer conv9_2_fc1
I0227 14:27:44.789690 11709 net.cpp:434] conv9_2_fc1 <- conv9_2_s
I0227 14:27:44.789701 11709 net.cpp:408] conv9_2_fc1 -> conv9_2_fc1
I0227 14:27:44.790822 11709 net.cpp:150] Setting up conv9_2_fc1
I0227 14:27:44.790834 11709 net.cpp:157] Top shape: 8 64 1 1 (512)
I0227 14:27:44.790838 11709 net.cpp:165] Memory required for data: 7680544836
I0227 14:27:44.790844 11709 layer_factory.hpp:77] Creating layer conv9_2_relu
I0227 14:27:44.790851 11709 net.cpp:100] Creating Layer conv9_2_relu
I0227 14:27:44.790858 11709 net.cpp:434] conv9_2_relu <- conv9_2_fc1
I0227 14:27:44.790865 11709 net.cpp:395] conv9_2_relu -> conv9_2_fc1 (in-place)
I0227 14:27:44.793292 11709 net.cpp:150] Setting up conv9_2_relu
I0227 14:27:44.793303 11709 net.cpp:157] Top shape: 8 64 1 1 (512)
I0227 14:27:44.793308 11709 net.cpp:165] Memory required for data: 7680546884
I0227 14:27:44.793310 11709 layer_factory.hpp:77] Creating layer conv9_2_fc2
I0227 14:27:44.793319 11709 net.cpp:100] Creating Layer conv9_2_fc2
I0227 14:27:44.793329 11709 net.cpp:434] conv9_2_fc2 <- conv9_2_fc1
I0227 14:27:44.793339 11709 net.cpp:408] conv9_2_fc2 -> conv9_2_fc2
I0227 14:27:44.794453 11709 net.cpp:150] Setting up conv9_2_fc2
I0227 14:27:44.794466 11709 net.cpp:157] Top shape: 8 256 1 1 (2048)
I0227 14:27:44.794471 11709 net.cpp:165] Memory required for data: 7680555076
I0227 14:27:44.794477 11709 layer_factory.hpp:77] Creating layer conv9_2_sig
I0227 14:27:44.794487 11709 net.cpp:100] Creating Layer conv9_2_sig
I0227 14:27:44.794492 11709 net.cpp:434] conv9_2_sig <- conv9_2_fc2
I0227 14:27:44.794498 11709 net.cpp:395] conv9_2_sig -> conv9_2_fc2 (in-place)
I0227 14:27:44.794657 11709 net.cpp:150] Setting up conv9_2_sig
I0227 14:27:44.794667 11709 net.cpp:157] Top shape: 8 256 1 1 (2048)
I0227 14:27:44.794670 11709 net.cpp:165] Memory required for data: 7680563268
I0227 14:27:44.794674 11709 layer_factory.hpp:77] Creating layer conv9_2_reshape
I0227 14:27:44.794682 11709 net.cpp:100] Creating Layer conv9_2_reshape
I0227 14:27:44.794687 11709 net.cpp:434] conv9_2_reshape <- conv9_2_fc2
I0227 14:27:44.794693 11709 net.cpp:408] conv9_2_reshape -> conv9_2_reshape
I0227 14:27:44.794730 11709 net.cpp:150] Setting up conv9_2_reshape
I0227 14:27:44.794739 11709 net.cpp:157] Top shape: 8 256 (2048)
I0227 14:27:44.794742 11709 net.cpp:165] Memory required for data: 7680571460
I0227 14:27:44.794747 11709 layer_factory.hpp:77] Creating layer conv9_2_scale
I0227 14:27:44.794767 11709 net.cpp:100] Creating Layer conv9_2_scale
I0227 14:27:44.794772 11709 net.cpp:434] conv9_2_scale <- conv9_2_t_conv9_2_relu_0_split_1
I0227 14:27:44.794776 11709 net.cpp:434] conv9_2_scale <- conv9_2_reshape
I0227 14:27:44.794781 11709 net.cpp:408] conv9_2_scale -> conv9_2
I0227 14:27:44.794843 11709 net.cpp:150] Setting up conv9_2_scale
I0227 14:27:44.794850 11709 net.cpp:157] Top shape: 8 256 2 2 (8192)
I0227 14:27:44.794853 11709 net.cpp:165] Memory required for data: 7680604228
I0227 14:27:44.794857 11709 layer_factory.hpp:77] Creating layer conv9_2_conv9_2_scale_0_split
I0227 14:27:44.794864 11709 net.cpp:100] Creating Layer conv9_2_conv9_2_scale_0_split
I0227 14:27:44.794868 11709 net.cpp:434] conv9_2_conv9_2_scale_0_split <- conv9_2
I0227 14:27:44.794878 11709 net.cpp:408] conv9_2_conv9_2_scale_0_split -> conv9_2_conv9_2_scale_0_split_0
I0227 14:27:44.794886 11709 net.cpp:408] conv9_2_conv9_2_scale_0_split -> conv9_2_conv9_2_scale_0_split_1
I0227 14:27:44.794895 11709 net.cpp:408] conv9_2_conv9_2_scale_0_split -> conv9_2_conv9_2_scale_0_split_2
I0227 14:27:44.794901 11709 net.cpp:408] conv9_2_conv9_2_scale_0_split -> conv9_2_conv9_2_scale_0_split_3
I0227 14:27:44.794957 11709 net.cpp:150] Setting up conv9_2_conv9_2_scale_0_split
I0227 14:27:44.794965 11709 net.cpp:157] Top shape: 8 256 2 2 (8192)
I0227 14:27:44.794970 11709 net.cpp:157] Top shape: 8 256 2 2 (8192)
I0227 14:27:44.794975 11709 net.cpp:157] Top shape: 8 256 2 2 (8192)
I0227 14:27:44.794993 11709 net.cpp:157] Top shape: 8 256 2 2 (8192)
I0227 14:27:44.794999 11709 net.cpp:165] Memory required for data: 7680735300
I0227 14:27:44.795008 11709 layer_factory.hpp:77] Creating layer conv10_1
I0227 14:27:44.795019 11709 net.cpp:100] Creating Layer conv10_1
I0227 14:27:44.795028 11709 net.cpp:434] conv10_1 <- conv9_2_conv9_2_scale_0_split_0
I0227 14:27:44.795035 11709 net.cpp:408] conv10_1 -> conv10_1
I0227 14:27:44.796207 11709 net.cpp:150] Setting up conv10_1
I0227 14:27:44.796219 11709 net.cpp:157] Top shape: 8 128 2 2 (4096)
I0227 14:27:44.796223 11709 net.cpp:165] Memory required for data: 7680751684
I0227 14:27:44.796229 11709 layer_factory.hpp:77] Creating layer conv10_1_relu
I0227 14:27:44.796237 11709 net.cpp:100] Creating Layer conv10_1_relu
I0227 14:27:44.796244 11709 net.cpp:434] conv10_1_relu <- conv10_1
I0227 14:27:44.796252 11709 net.cpp:395] conv10_1_relu -> conv10_1 (in-place)
I0227 14:27:44.796406 11709 net.cpp:150] Setting up conv10_1_relu
I0227 14:27:44.796414 11709 net.cpp:157] Top shape: 8 128 2 2 (4096)
I0227 14:27:44.796417 11709 net.cpp:165] Memory required for data: 7680768068
I0227 14:27:44.796422 11709 layer_factory.hpp:77] Creating layer conv10_2
I0227 14:27:44.796430 11709 net.cpp:100] Creating Layer conv10_2
I0227 14:27:44.796438 11709 net.cpp:434] conv10_2 <- conv10_1
I0227 14:27:44.796448 11709 net.cpp:408] conv10_2 -> conv10_2_t
I0227 14:27:44.800359 11709 net.cpp:150] Setting up conv10_2
I0227 14:27:44.800371 11709 net.cpp:157] Top shape: 8 256 1 1 (2048)
I0227 14:27:44.800377 11709 net.cpp:165] Memory required for data: 7680776260
I0227 14:27:44.800382 11709 layer_factory.hpp:77] Creating layer conv10_2_relu
I0227 14:27:44.800390 11709 net.cpp:100] Creating Layer conv10_2_relu
I0227 14:27:44.800395 11709 net.cpp:434] conv10_2_relu <- conv10_2_t
I0227 14:27:44.800405 11709 net.cpp:395] conv10_2_relu -> conv10_2_t (in-place)
I0227 14:27:44.800562 11709 net.cpp:150] Setting up conv10_2_relu
I0227 14:27:44.800571 11709 net.cpp:157] Top shape: 8 256 1 1 (2048)
I0227 14:27:44.800575 11709 net.cpp:165] Memory required for data: 7680784452
I0227 14:27:44.800580 11709 layer_factory.hpp:77] Creating layer conv10_2_t_conv10_2_relu_0_split
I0227 14:27:44.800587 11709 net.cpp:100] Creating Layer conv10_2_t_conv10_2_relu_0_split
I0227 14:27:44.800595 11709 net.cpp:434] conv10_2_t_conv10_2_relu_0_split <- conv10_2_t
I0227 14:27:44.800602 11709 net.cpp:408] conv10_2_t_conv10_2_relu_0_split -> conv10_2_t_conv10_2_relu_0_split_0
I0227 14:27:44.800614 11709 net.cpp:408] conv10_2_t_conv10_2_relu_0_split -> conv10_2_t_conv10_2_relu_0_split_1
I0227 14:27:44.800657 11709 net.cpp:150] Setting up conv10_2_t_conv10_2_relu_0_split
I0227 14:27:44.800665 11709 net.cpp:157] Top shape: 8 256 1 1 (2048)
I0227 14:27:44.800668 11709 net.cpp:157] Top shape: 8 256 1 1 (2048)
I0227 14:27:44.800673 11709 net.cpp:165] Memory required for data: 7680800836
I0227 14:27:44.800676 11709 layer_factory.hpp:77] Creating layer conv10_2_s
I0227 14:27:44.800684 11709 net.cpp:100] Creating Layer conv10_2_s
I0227 14:27:44.800693 11709 net.cpp:434] conv10_2_s <- conv10_2_t_conv10_2_relu_0_split_0
I0227 14:27:44.800701 11709 net.cpp:408] conv10_2_s -> conv10_2_s
I0227 14:27:44.801220 11709 net.cpp:150] Setting up conv10_2_s
I0227 14:27:44.801230 11709 net.cpp:157] Top shape: 8 256 1 1 (2048)
I0227 14:27:44.801234 11709 net.cpp:165] Memory required for data: 7680809028
I0227 14:27:44.801239 11709 layer_factory.hpp:77] Creating layer conv10_2_fc1
I0227 14:27:44.801249 11709 net.cpp:100] Creating Layer conv10_2_fc1
I0227 14:27:44.801256 11709 net.cpp:434] conv10_2_fc1 <- conv10_2_s
I0227 14:27:44.801265 11709 net.cpp:408] conv10_2_fc1 -> conv10_2_fc1
I0227 14:27:44.802407 11709 net.cpp:150] Setting up conv10_2_fc1
I0227 14:27:44.802419 11709 net.cpp:157] Top shape: 8 64 1 1 (512)
I0227 14:27:44.802423 11709 net.cpp:165] Memory required for data: 7680811076
I0227 14:27:44.802428 11709 layer_factory.hpp:77] Creating layer conv10_2_relu
I0227 14:27:44.802438 11709 net.cpp:100] Creating Layer conv10_2_relu
I0227 14:27:44.802456 11709 net.cpp:434] conv10_2_relu <- conv10_2_fc1
I0227 14:27:44.802465 11709 net.cpp:395] conv10_2_relu -> conv10_2_fc1 (in-place)
I0227 14:27:44.802633 11709 net.cpp:150] Setting up conv10_2_relu
I0227 14:27:44.802641 11709 net.cpp:157] Top shape: 8 64 1 1 (512)
I0227 14:27:44.802644 11709 net.cpp:165] Memory required for data: 7680813124
I0227 14:27:44.802650 11709 layer_factory.hpp:77] Creating layer conv10_2_fc2
I0227 14:27:44.802665 11709 net.cpp:100] Creating Layer conv10_2_fc2
I0227 14:27:44.802675 11709 net.cpp:434] conv10_2_fc2 <- conv10_2_fc1
I0227 14:27:44.802685 11709 net.cpp:408] conv10_2_fc2 -> conv10_2_fc2
I0227 14:27:44.803804 11709 net.cpp:150] Setting up conv10_2_fc2
I0227 14:27:44.803817 11709 net.cpp:157] Top shape: 8 256 1 1 (2048)
I0227 14:27:44.803822 11709 net.cpp:165] Memory required for data: 7680821316
I0227 14:27:44.803828 11709 layer_factory.hpp:77] Creating layer conv10_2_sig
I0227 14:27:44.803838 11709 net.cpp:100] Creating Layer conv10_2_sig
I0227 14:27:44.803840 11709 net.cpp:434] conv10_2_sig <- conv10_2_fc2
I0227 14:27:44.803846 11709 net.cpp:395] conv10_2_sig -> conv10_2_fc2 (in-place)
I0227 14:27:44.804003 11709 net.cpp:150] Setting up conv10_2_sig
I0227 14:27:44.804010 11709 net.cpp:157] Top shape: 8 256 1 1 (2048)
I0227 14:27:44.804014 11709 net.cpp:165] Memory required for data: 7680829508
I0227 14:27:44.804019 11709 layer_factory.hpp:77] Creating layer conv10_2_reshape
I0227 14:27:44.804029 11709 net.cpp:100] Creating Layer conv10_2_reshape
I0227 14:27:44.804038 11709 net.cpp:434] conv10_2_reshape <- conv10_2_fc2
I0227 14:27:44.804044 11709 net.cpp:408] conv10_2_reshape -> conv10_2_reshape
I0227 14:27:44.804080 11709 net.cpp:150] Setting up conv10_2_reshape
I0227 14:27:44.804088 11709 net.cpp:157] Top shape: 8 256 (2048)
I0227 14:27:44.804092 11709 net.cpp:165] Memory required for data: 7680837700
I0227 14:27:44.804097 11709 layer_factory.hpp:77] Creating layer conv10_2_scale
I0227 14:27:44.804107 11709 net.cpp:100] Creating Layer conv10_2_scale
I0227 14:27:44.804111 11709 net.cpp:434] conv10_2_scale <- conv10_2_t_conv10_2_relu_0_split_1
I0227 14:27:44.804117 11709 net.cpp:434] conv10_2_scale <- conv10_2_reshape
I0227 14:27:44.804122 11709 net.cpp:408] conv10_2_scale -> conv10_2
I0227 14:27:44.804194 11709 net.cpp:150] Setting up conv10_2_scale
I0227 14:27:44.804201 11709 net.cpp:157] Top shape: 8 256 1 1 (2048)
I0227 14:27:44.804205 11709 net.cpp:165] Memory required for data: 7680845892
I0227 14:27:44.804209 11709 layer_factory.hpp:77] Creating layer conv10_2_conv10_2_scale_0_split
I0227 14:27:44.804216 11709 net.cpp:100] Creating Layer conv10_2_conv10_2_scale_0_split
I0227 14:27:44.804222 11709 net.cpp:434] conv10_2_conv10_2_scale_0_split <- conv10_2
I0227 14:27:44.804229 11709 net.cpp:408] conv10_2_conv10_2_scale_0_split -> conv10_2_conv10_2_scale_0_split_0
I0227 14:27:44.804237 11709 net.cpp:408] conv10_2_conv10_2_scale_0_split -> conv10_2_conv10_2_scale_0_split_1
I0227 14:27:44.804246 11709 net.cpp:408] conv10_2_conv10_2_scale_0_split -> conv10_2_conv10_2_scale_0_split_2
I0227 14:27:44.804297 11709 net.cpp:150] Setting up conv10_2_conv10_2_scale_0_split
I0227 14:27:44.804306 11709 net.cpp:157] Top shape: 8 256 1 1 (2048)
I0227 14:27:44.804311 11709 net.cpp:157] Top shape: 8 256 1 1 (2048)
I0227 14:27:44.804317 11709 net.cpp:157] Top shape: 8 256 1 1 (2048)
I0227 14:27:44.804323 11709 net.cpp:165] Memory required for data: 7680870468
I0227 14:27:44.804329 11709 layer_factory.hpp:77] Creating layer conv4_3_norm
I0227 14:27:44.804340 11709 net.cpp:100] Creating Layer conv4_3_norm
I0227 14:27:44.804348 11709 net.cpp:434] conv4_3_norm <- conv4_3_conv4_3_scale_0_split_1
I0227 14:27:44.804358 11709 net.cpp:408] conv4_3_norm -> conv4_3_norm
I0227 14:27:44.804494 11709 net.cpp:150] Setting up conv4_3_norm
I0227 14:27:44.804502 11709 net.cpp:157] Top shape: 8 512 64 64 (16777216)
I0227 14:27:44.804505 11709 net.cpp:165] Memory required for data: 7747979332
I0227 14:27:44.804509 11709 layer_factory.hpp:77] Creating layer conv4_3_norm_conv4_3_norm_0_split
I0227 14:27:44.804527 11709 net.cpp:100] Creating Layer conv4_3_norm_conv4_3_norm_0_split
I0227 14:27:44.804533 11709 net.cpp:434] conv4_3_norm_conv4_3_norm_0_split <- conv4_3_norm
I0227 14:27:44.804541 11709 net.cpp:408] conv4_3_norm_conv4_3_norm_0_split -> conv4_3_norm_conv4_3_norm_0_split_0
I0227 14:27:44.804554 11709 net.cpp:408] conv4_3_norm_conv4_3_norm_0_split -> conv4_3_norm_conv4_3_norm_0_split_1
I0227 14:27:44.804563 11709 net.cpp:408] conv4_3_norm_conv4_3_norm_0_split -> conv4_3_norm_conv4_3_norm_0_split_2
I0227 14:27:44.804607 11709 net.cpp:150] Setting up conv4_3_norm_conv4_3_norm_0_split
I0227 14:27:44.804615 11709 net.cpp:157] Top shape: 8 512 64 64 (16777216)
I0227 14:27:44.804620 11709 net.cpp:157] Top shape: 8 512 64 64 (16777216)
I0227 14:27:44.804625 11709 net.cpp:157] Top shape: 8 512 64 64 (16777216)
I0227 14:27:44.804628 11709 net.cpp:165] Memory required for data: 7949305924
I0227 14:27:44.804632 11709 layer_factory.hpp:77] Creating layer conv4_3_norm_mbox_loc
I0227 14:27:44.804642 11709 net.cpp:100] Creating Layer conv4_3_norm_mbox_loc
I0227 14:27:44.804649 11709 net.cpp:434] conv4_3_norm_mbox_loc <- conv4_3_norm_conv4_3_norm_0_split_0
I0227 14:27:44.804661 11709 net.cpp:408] conv4_3_norm_mbox_loc -> conv4_3_norm_mbox_loc
I0227 14:27:44.806344 11709 net.cpp:150] Setting up conv4_3_norm_mbox_loc
I0227 14:27:44.806356 11709 net.cpp:157] Top shape: 8 16 64 64 (524288)
I0227 14:27:44.806361 11709 net.cpp:165] Memory required for data: 7951403076
I0227 14:27:44.806368 11709 layer_factory.hpp:77] Creating layer conv4_3_norm_mbox_loc_perm
I0227 14:27:44.806380 11709 net.cpp:100] Creating Layer conv4_3_norm_mbox_loc_perm
I0227 14:27:44.806385 11709 net.cpp:434] conv4_3_norm_mbox_loc_perm <- conv4_3_norm_mbox_loc
I0227 14:27:44.806393 11709 net.cpp:408] conv4_3_norm_mbox_loc_perm -> conv4_3_norm_mbox_loc_perm
I0227 14:27:44.806502 11709 net.cpp:150] Setting up conv4_3_norm_mbox_loc_perm
I0227 14:27:44.806510 11709 net.cpp:157] Top shape: 8 64 64 16 (524288)
I0227 14:27:44.806514 11709 net.cpp:165] Memory required for data: 7953500228
I0227 14:27:44.806519 11709 layer_factory.hpp:77] Creating layer conv4_3_norm_mbox_loc_flat
I0227 14:27:44.806524 11709 net.cpp:100] Creating Layer conv4_3_norm_mbox_loc_flat
I0227 14:27:44.806532 11709 net.cpp:434] conv4_3_norm_mbox_loc_flat <- conv4_3_norm_mbox_loc_perm
I0227 14:27:44.806537 11709 net.cpp:408] conv4_3_norm_mbox_loc_flat -> conv4_3_norm_mbox_loc_flat
I0227 14:27:44.806567 11709 net.cpp:150] Setting up conv4_3_norm_mbox_loc_flat
I0227 14:27:44.806577 11709 net.cpp:157] Top shape: 8 65536 (524288)
I0227 14:27:44.806582 11709 net.cpp:165] Memory required for data: 7955597380
I0227 14:27:44.806586 11709 layer_factory.hpp:77] Creating layer conv4_3_norm_mbox_conf
I0227 14:27:44.806596 11709 net.cpp:100] Creating Layer conv4_3_norm_mbox_conf
I0227 14:27:44.806602 11709 net.cpp:434] conv4_3_norm_mbox_conf <- conv4_3_norm_conv4_3_norm_0_split_1
I0227 14:27:44.806612 11709 net.cpp:408] conv4_3_norm_mbox_conf -> conv4_3_norm_mbox_conf
I0227 14:27:44.810791 11709 net.cpp:150] Setting up conv4_3_norm_mbox_conf
I0227 14:27:44.810803 11709 net.cpp:157] Top shape: 8 84 64 64 (2752512)
I0227 14:27:44.810807 11709 net.cpp:165] Memory required for data: 7966607428
I0227 14:27:44.810814 11709 layer_factory.hpp:77] Creating layer conv4_3_norm_mbox_conf_perm
I0227 14:27:44.810822 11709 net.cpp:100] Creating Layer conv4_3_norm_mbox_conf_perm
I0227 14:27:44.810828 11709 net.cpp:434] conv4_3_norm_mbox_conf_perm <- conv4_3_norm_mbox_conf
I0227 14:27:44.810837 11709 net.cpp:408] conv4_3_norm_mbox_conf_perm -> conv4_3_norm_mbox_conf_perm
I0227 14:27:44.810943 11709 net.cpp:150] Setting up conv4_3_norm_mbox_conf_perm
I0227 14:27:44.810953 11709 net.cpp:157] Top shape: 8 64 64 84 (2752512)
I0227 14:27:44.810957 11709 net.cpp:165] Memory required for data: 7977617476
I0227 14:27:44.810962 11709 layer_factory.hpp:77] Creating layer conv4_3_norm_mbox_conf_flat
I0227 14:27:44.810969 11709 net.cpp:100] Creating Layer conv4_3_norm_mbox_conf_flat
I0227 14:27:44.810976 11709 net.cpp:434] conv4_3_norm_mbox_conf_flat <- conv4_3_norm_mbox_conf_perm
I0227 14:27:44.810997 11709 net.cpp:408] conv4_3_norm_mbox_conf_flat -> conv4_3_norm_mbox_conf_flat
I0227 14:27:44.811033 11709 net.cpp:150] Setting up conv4_3_norm_mbox_conf_flat
I0227 14:27:44.811046 11709 net.cpp:157] Top shape: 8 344064 (2752512)
I0227 14:27:44.811049 11709 net.cpp:165] Memory required for data: 7988627524
I0227 14:27:44.811056 11709 layer_factory.hpp:77] Creating layer conv4_3_norm_mbox_priorbox
I0227 14:27:44.811069 11709 net.cpp:100] Creating Layer conv4_3_norm_mbox_priorbox
I0227 14:27:44.811074 11709 net.cpp:434] conv4_3_norm_mbox_priorbox <- conv4_3_norm_conv4_3_norm_0_split_2
I0227 14:27:44.811080 11709 net.cpp:434] conv4_3_norm_mbox_priorbox <- data_data_0_split_1
I0227 14:27:44.811087 11709 net.cpp:408] conv4_3_norm_mbox_priorbox -> conv4_3_norm_mbox_priorbox
I0227 14:27:44.811123 11709 net.cpp:150] Setting up conv4_3_norm_mbox_priorbox
I0227 14:27:44.811134 11709 net.cpp:157] Top shape: 1 2 65536 (131072)
I0227 14:27:44.811141 11709 net.cpp:165] Memory required for data: 7989151812
I0227 14:27:44.811147 11709 layer_factory.hpp:77] Creating layer fc7_mbox_loc
I0227 14:27:44.811157 11709 net.cpp:100] Creating Layer fc7_mbox_loc
I0227 14:27:44.811163 11709 net.cpp:434] fc7_mbox_loc <- fc7_fc7_scale_0_split_1
I0227 14:27:44.811177 11709 net.cpp:408] fc7_mbox_loc -> fc7_mbox_loc
I0227 14:27:44.813891 11709 net.cpp:150] Setting up fc7_mbox_loc
I0227 14:27:44.813904 11709 net.cpp:157] Top shape: 8 24 32 32 (196608)
I0227 14:27:44.813907 11709 net.cpp:165] Memory required for data: 7989938244
I0227 14:27:44.813915 11709 layer_factory.hpp:77] Creating layer fc7_mbox_loc_perm
I0227 14:27:44.813925 11709 net.cpp:100] Creating Layer fc7_mbox_loc_perm
I0227 14:27:44.813930 11709 net.cpp:434] fc7_mbox_loc_perm <- fc7_mbox_loc
I0227 14:27:44.813936 11709 net.cpp:408] fc7_mbox_loc_perm -> fc7_mbox_loc_perm
I0227 14:27:44.814041 11709 net.cpp:150] Setting up fc7_mbox_loc_perm
I0227 14:27:44.814049 11709 net.cpp:157] Top shape: 8 32 32 24 (196608)
I0227 14:27:44.814055 11709 net.cpp:165] Memory required for data: 7990724676
I0227 14:27:44.814061 11709 layer_factory.hpp:77] Creating layer fc7_mbox_loc_flat
I0227 14:27:44.814070 11709 net.cpp:100] Creating Layer fc7_mbox_loc_flat
I0227 14:27:44.814076 11709 net.cpp:434] fc7_mbox_loc_flat <- fc7_mbox_loc_perm
I0227 14:27:44.814081 11709 net.cpp:408] fc7_mbox_loc_flat -> fc7_mbox_loc_flat
I0227 14:27:44.814108 11709 net.cpp:150] Setting up fc7_mbox_loc_flat
I0227 14:27:44.814116 11709 net.cpp:157] Top shape: 8 24576 (196608)
I0227 14:27:44.814121 11709 net.cpp:165] Memory required for data: 7991511108
I0227 14:27:44.814126 11709 layer_factory.hpp:77] Creating layer fc7_mbox_conf
I0227 14:27:44.814141 11709 net.cpp:100] Creating Layer fc7_mbox_conf
I0227 14:27:44.814144 11709 net.cpp:434] fc7_mbox_conf <- fc7_fc7_scale_0_split_2
I0227 14:27:44.814157 11709 net.cpp:408] fc7_mbox_conf -> fc7_mbox_conf
I0227 14:27:44.821795 11709 net.cpp:150] Setting up fc7_mbox_conf
I0227 14:27:44.821811 11709 net.cpp:157] Top shape: 8 126 32 32 (1032192)
I0227 14:27:44.821815 11709 net.cpp:165] Memory required for data: 7995639876
I0227 14:27:44.821821 11709 layer_factory.hpp:77] Creating layer fc7_mbox_conf_perm
I0227 14:27:44.821828 11709 net.cpp:100] Creating Layer fc7_mbox_conf_perm
I0227 14:27:44.821835 11709 net.cpp:434] fc7_mbox_conf_perm <- fc7_mbox_conf
I0227 14:27:44.821841 11709 net.cpp:408] fc7_mbox_conf_perm -> fc7_mbox_conf_perm
I0227 14:27:44.821950 11709 net.cpp:150] Setting up fc7_mbox_conf_perm
I0227 14:27:44.821961 11709 net.cpp:157] Top shape: 8 32 32 126 (1032192)
I0227 14:27:44.821967 11709 net.cpp:165] Memory required for data: 7999768644
I0227 14:27:44.821972 11709 layer_factory.hpp:77] Creating layer fc7_mbox_conf_flat
I0227 14:27:44.821979 11709 net.cpp:100] Creating Layer fc7_mbox_conf_flat
I0227 14:27:44.821983 11709 net.cpp:434] fc7_mbox_conf_flat <- fc7_mbox_conf_perm
I0227 14:27:44.821992 11709 net.cpp:408] fc7_mbox_conf_flat -> fc7_mbox_conf_flat
I0227 14:27:44.822016 11709 net.cpp:150] Setting up fc7_mbox_conf_flat
I0227 14:27:44.822037 11709 net.cpp:157] Top shape: 8 129024 (1032192)
I0227 14:27:44.822041 11709 net.cpp:165] Memory required for data: 8003897412
I0227 14:27:44.822046 11709 layer_factory.hpp:77] Creating layer fc7_mbox_priorbox
I0227 14:27:44.822054 11709 net.cpp:100] Creating Layer fc7_mbox_priorbox
I0227 14:27:44.822062 11709 net.cpp:434] fc7_mbox_priorbox <- fc7_fc7_scale_0_split_3
I0227 14:27:44.822068 11709 net.cpp:434] fc7_mbox_priorbox <- data_data_0_split_2
I0227 14:27:44.822077 11709 net.cpp:408] fc7_mbox_priorbox -> fc7_mbox_priorbox
I0227 14:27:44.822104 11709 net.cpp:150] Setting up fc7_mbox_priorbox
I0227 14:27:44.822113 11709 net.cpp:157] Top shape: 1 2 24576 (49152)
I0227 14:27:44.822115 11709 net.cpp:165] Memory required for data: 8004094020
I0227 14:27:44.822120 11709 layer_factory.hpp:77] Creating layer conv6_2_mbox_loc
I0227 14:27:44.822131 11709 net.cpp:100] Creating Layer conv6_2_mbox_loc
I0227 14:27:44.822139 11709 net.cpp:434] conv6_2_mbox_loc <- conv6_2_conv6_2_scale_0_split_1
I0227 14:27:44.822150 11709 net.cpp:408] conv6_2_mbox_loc -> conv6_2_mbox_loc
I0227 14:27:44.823987 11709 net.cpp:150] Setting up conv6_2_mbox_loc
I0227 14:27:44.823999 11709 net.cpp:157] Top shape: 8 24 16 16 (49152)
I0227 14:27:44.824003 11709 net.cpp:165] Memory required for data: 8004290628
I0227 14:27:44.824009 11709 layer_factory.hpp:77] Creating layer conv6_2_mbox_loc_perm
I0227 14:27:44.824021 11709 net.cpp:100] Creating Layer conv6_2_mbox_loc_perm
I0227 14:27:44.824025 11709 net.cpp:434] conv6_2_mbox_loc_perm <- conv6_2_mbox_loc
I0227 14:27:44.824034 11709 net.cpp:408] conv6_2_mbox_loc_perm -> conv6_2_mbox_loc_perm
I0227 14:27:44.824137 11709 net.cpp:150] Setting up conv6_2_mbox_loc_perm
I0227 14:27:44.824148 11709 net.cpp:157] Top shape: 8 16 16 24 (49152)
I0227 14:27:44.824154 11709 net.cpp:165] Memory required for data: 8004487236
I0227 14:27:44.824159 11709 layer_factory.hpp:77] Creating layer conv6_2_mbox_loc_flat
I0227 14:27:44.824167 11709 net.cpp:100] Creating Layer conv6_2_mbox_loc_flat
I0227 14:27:44.824172 11709 net.cpp:434] conv6_2_mbox_loc_flat <- conv6_2_mbox_loc_perm
I0227 14:27:44.824177 11709 net.cpp:408] conv6_2_mbox_loc_flat -> conv6_2_mbox_loc_flat
I0227 14:27:44.824203 11709 net.cpp:150] Setting up conv6_2_mbox_loc_flat
I0227 14:27:44.824209 11709 net.cpp:157] Top shape: 8 6144 (49152)
I0227 14:27:44.824213 11709 net.cpp:165] Memory required for data: 8004683844
I0227 14:27:44.824223 11709 layer_factory.hpp:77] Creating layer conv6_2_mbox_conf
I0227 14:27:44.824237 11709 net.cpp:100] Creating Layer conv6_2_mbox_conf
I0227 14:27:44.824246 11709 net.cpp:434] conv6_2_mbox_conf <- conv6_2_conv6_2_scale_0_split_2
I0227 14:27:44.824254 11709 net.cpp:408] conv6_2_mbox_conf -> conv6_2_mbox_conf
I0227 14:27:44.828778 11709 net.cpp:150] Setting up conv6_2_mbox_conf
I0227 14:27:44.828790 11709 net.cpp:157] Top shape: 8 126 16 16 (258048)
I0227 14:27:44.828794 11709 net.cpp:165] Memory required for data: 8005716036
I0227 14:27:44.828804 11709 layer_factory.hpp:77] Creating layer conv6_2_mbox_conf_perm
I0227 14:27:44.828811 11709 net.cpp:100] Creating Layer conv6_2_mbox_conf_perm
I0227 14:27:44.828819 11709 net.cpp:434] conv6_2_mbox_conf_perm <- conv6_2_mbox_conf
I0227 14:27:44.828824 11709 net.cpp:408] conv6_2_mbox_conf_perm -> conv6_2_mbox_conf_perm
I0227 14:27:44.828929 11709 net.cpp:150] Setting up conv6_2_mbox_conf_perm
I0227 14:27:44.828939 11709 net.cpp:157] Top shape: 8 16 16 126 (258048)
I0227 14:27:44.828943 11709 net.cpp:165] Memory required for data: 8006748228
I0227 14:27:44.828948 11709 layer_factory.hpp:77] Creating layer conv6_2_mbox_conf_flat
I0227 14:27:44.828958 11709 net.cpp:100] Creating Layer conv6_2_mbox_conf_flat
I0227 14:27:44.828964 11709 net.cpp:434] conv6_2_mbox_conf_flat <- conv6_2_mbox_conf_perm
I0227 14:27:44.828969 11709 net.cpp:408] conv6_2_mbox_conf_flat -> conv6_2_mbox_conf_flat
I0227 14:27:44.828994 11709 net.cpp:150] Setting up conv6_2_mbox_conf_flat
I0227 14:27:44.829004 11709 net.cpp:157] Top shape: 8 32256 (258048)
I0227 14:27:44.829008 11709 net.cpp:165] Memory required for data: 8007780420
I0227 14:27:44.829027 11709 layer_factory.hpp:77] Creating layer conv6_2_mbox_priorbox
I0227 14:27:44.829035 11709 net.cpp:100] Creating Layer conv6_2_mbox_priorbox
I0227 14:27:44.829041 11709 net.cpp:434] conv6_2_mbox_priorbox <- conv6_2_conv6_2_scale_0_split_3
I0227 14:27:44.829046 11709 net.cpp:434] conv6_2_mbox_priorbox <- data_data_0_split_3
I0227 14:27:44.829053 11709 net.cpp:408] conv6_2_mbox_priorbox -> conv6_2_mbox_priorbox
I0227 14:27:44.829084 11709 net.cpp:150] Setting up conv6_2_mbox_priorbox
I0227 14:27:44.829092 11709 net.cpp:157] Top shape: 1 2 6144 (12288)
I0227 14:27:44.829098 11709 net.cpp:165] Memory required for data: 8007829572
I0227 14:27:44.829102 11709 layer_factory.hpp:77] Creating layer conv7_2_mbox_loc
I0227 14:27:44.829115 11709 net.cpp:100] Creating Layer conv7_2_mbox_loc
I0227 14:27:44.829126 11709 net.cpp:434] conv7_2_mbox_loc <- conv7_2_conv7_2_scale_0_split_1
I0227 14:27:44.829133 11709 net.cpp:408] conv7_2_mbox_loc -> conv7_2_mbox_loc
I0227 14:27:44.831189 11709 net.cpp:150] Setting up conv7_2_mbox_loc
I0227 14:27:44.831202 11709 net.cpp:157] Top shape: 8 24 8 8 (12288)
I0227 14:27:44.831208 11709 net.cpp:165] Memory required for data: 8007878724
I0227 14:27:44.831215 11709 layer_factory.hpp:77] Creating layer conv7_2_mbox_loc_perm
I0227 14:27:44.831225 11709 net.cpp:100] Creating Layer conv7_2_mbox_loc_perm
I0227 14:27:44.831230 11709 net.cpp:434] conv7_2_mbox_loc_perm <- conv7_2_mbox_loc
I0227 14:27:44.831238 11709 net.cpp:408] conv7_2_mbox_loc_perm -> conv7_2_mbox_loc_perm
I0227 14:27:44.831347 11709 net.cpp:150] Setting up conv7_2_mbox_loc_perm
I0227 14:27:44.831357 11709 net.cpp:157] Top shape: 8 8 8 24 (12288)
I0227 14:27:44.831360 11709 net.cpp:165] Memory required for data: 8007927876
I0227 14:27:44.831367 11709 layer_factory.hpp:77] Creating layer conv7_2_mbox_loc_flat
I0227 14:27:44.831377 11709 net.cpp:100] Creating Layer conv7_2_mbox_loc_flat
I0227 14:27:44.831382 11709 net.cpp:434] conv7_2_mbox_loc_flat <- conv7_2_mbox_loc_perm
I0227 14:27:44.831389 11709 net.cpp:408] conv7_2_mbox_loc_flat -> conv7_2_mbox_loc_flat
I0227 14:27:44.831416 11709 net.cpp:150] Setting up conv7_2_mbox_loc_flat
I0227 14:27:44.831423 11709 net.cpp:157] Top shape: 8 1536 (12288)
I0227 14:27:44.831426 11709 net.cpp:165] Memory required for data: 8007977028
I0227 14:27:44.831431 11709 layer_factory.hpp:77] Creating layer conv7_2_mbox_conf
I0227 14:27:44.831445 11709 net.cpp:100] Creating Layer conv7_2_mbox_conf
I0227 14:27:44.831454 11709 net.cpp:434] conv7_2_mbox_conf <- conv7_2_conv7_2_scale_0_split_2
I0227 14:27:44.831465 11709 net.cpp:408] conv7_2_mbox_conf -> conv7_2_mbox_conf
I0227 14:27:44.835515 11709 net.cpp:150] Setting up conv7_2_mbox_conf
I0227 14:27:44.835527 11709 net.cpp:157] Top shape: 8 126 8 8 (64512)
I0227 14:27:44.835531 11709 net.cpp:165] Memory required for data: 8008235076
I0227 14:27:44.835538 11709 layer_factory.hpp:77] Creating layer conv7_2_mbox_conf_perm
I0227 14:27:44.835549 11709 net.cpp:100] Creating Layer conv7_2_mbox_conf_perm
I0227 14:27:44.835561 11709 net.cpp:434] conv7_2_mbox_conf_perm <- conv7_2_mbox_conf
I0227 14:27:44.835566 11709 net.cpp:408] conv7_2_mbox_conf_perm -> conv7_2_mbox_conf_perm
I0227 14:27:44.835674 11709 net.cpp:150] Setting up conv7_2_mbox_conf_perm
I0227 14:27:44.835681 11709 net.cpp:157] Top shape: 8 8 8 126 (64512)
I0227 14:27:44.835687 11709 net.cpp:165] Memory required for data: 8008493124
I0227 14:27:44.835692 11709 layer_factory.hpp:77] Creating layer conv7_2_mbox_conf_flat
I0227 14:27:44.835702 11709 net.cpp:100] Creating Layer conv7_2_mbox_conf_flat
I0227 14:27:44.835708 11709 net.cpp:434] conv7_2_mbox_conf_flat <- conv7_2_mbox_conf_perm
I0227 14:27:44.835716 11709 net.cpp:408] conv7_2_mbox_conf_flat -> conv7_2_mbox_conf_flat
I0227 14:27:44.835747 11709 net.cpp:150] Setting up conv7_2_mbox_conf_flat
I0227 14:27:44.835753 11709 net.cpp:157] Top shape: 8 8064 (64512)
I0227 14:27:44.835759 11709 net.cpp:165] Memory required for data: 8008751172
I0227 14:27:44.835767 11709 layer_factory.hpp:77] Creating layer conv7_2_mbox_priorbox
I0227 14:27:44.835788 11709 net.cpp:100] Creating Layer conv7_2_mbox_priorbox
I0227 14:27:44.835794 11709 net.cpp:434] conv7_2_mbox_priorbox <- conv7_2_conv7_2_scale_0_split_3
I0227 14:27:44.835801 11709 net.cpp:434] conv7_2_mbox_priorbox <- data_data_0_split_4
I0227 14:27:44.835809 11709 net.cpp:408] conv7_2_mbox_priorbox -> conv7_2_mbox_priorbox
I0227 14:27:44.835842 11709 net.cpp:150] Setting up conv7_2_mbox_priorbox
I0227 14:27:44.835852 11709 net.cpp:157] Top shape: 1 2 1536 (3072)
I0227 14:27:44.835855 11709 net.cpp:165] Memory required for data: 8008763460
I0227 14:27:44.835862 11709 layer_factory.hpp:77] Creating layer conv8_2_mbox_loc
I0227 14:27:44.835877 11709 net.cpp:100] Creating Layer conv8_2_mbox_loc
I0227 14:27:44.835885 11709 net.cpp:434] conv8_2_mbox_loc <- conv8_2_conv8_2_scale_0_split_1
I0227 14:27:44.835893 11709 net.cpp:408] conv8_2_mbox_loc -> conv8_2_mbox_loc
I0227 14:27:44.837205 11709 net.cpp:150] Setting up conv8_2_mbox_loc
I0227 14:27:44.837218 11709 net.cpp:157] Top shape: 8 24 4 4 (3072)
I0227 14:27:44.837221 11709 net.cpp:165] Memory required for data: 8008775748
I0227 14:27:44.837229 11709 layer_factory.hpp:77] Creating layer conv8_2_mbox_loc_perm
I0227 14:27:44.837239 11709 net.cpp:100] Creating Layer conv8_2_mbox_loc_perm
I0227 14:27:44.837244 11709 net.cpp:434] conv8_2_mbox_loc_perm <- conv8_2_mbox_loc
I0227 14:27:44.837255 11709 net.cpp:408] conv8_2_mbox_loc_perm -> conv8_2_mbox_loc_perm
I0227 14:27:44.837364 11709 net.cpp:150] Setting up conv8_2_mbox_loc_perm
I0227 14:27:44.837373 11709 net.cpp:157] Top shape: 8 4 4 24 (3072)
I0227 14:27:44.837375 11709 net.cpp:165] Memory required for data: 8008788036
I0227 14:27:44.837380 11709 layer_factory.hpp:77] Creating layer conv8_2_mbox_loc_flat
I0227 14:27:44.837385 11709 net.cpp:100] Creating Layer conv8_2_mbox_loc_flat
I0227 14:27:44.837391 11709 net.cpp:434] conv8_2_mbox_loc_flat <- conv8_2_mbox_loc_perm
I0227 14:27:44.837402 11709 net.cpp:408] conv8_2_mbox_loc_flat -> conv8_2_mbox_loc_flat
I0227 14:27:44.837427 11709 net.cpp:150] Setting up conv8_2_mbox_loc_flat
I0227 14:27:44.837440 11709 net.cpp:157] Top shape: 8 384 (3072)
I0227 14:27:44.837450 11709 net.cpp:165] Memory required for data: 8008800324
I0227 14:27:44.837453 11709 layer_factory.hpp:77] Creating layer conv8_2_mbox_conf
I0227 14:27:44.837463 11709 net.cpp:100] Creating Layer conv8_2_mbox_conf
I0227 14:27:44.837467 11709 net.cpp:434] conv8_2_mbox_conf <- conv8_2_conv8_2_scale_0_split_2
I0227 14:27:44.837476 11709 net.cpp:408] conv8_2_mbox_conf -> conv8_2_mbox_conf
I0227 14:27:44.840813 11709 net.cpp:150] Setting up conv8_2_mbox_conf
I0227 14:27:44.840827 11709 net.cpp:157] Top shape: 8 126 4 4 (16128)
I0227 14:27:44.840831 11709 net.cpp:165] Memory required for data: 8008864836
I0227 14:27:44.840837 11709 layer_factory.hpp:77] Creating layer conv8_2_mbox_conf_perm
I0227 14:27:44.840844 11709 net.cpp:100] Creating Layer conv8_2_mbox_conf_perm
I0227 14:27:44.840850 11709 net.cpp:434] conv8_2_mbox_conf_perm <- conv8_2_mbox_conf
I0227 14:27:44.840860 11709 net.cpp:408] conv8_2_mbox_conf_perm -> conv8_2_mbox_conf_perm
I0227 14:27:44.840971 11709 net.cpp:150] Setting up conv8_2_mbox_conf_perm
I0227 14:27:44.840982 11709 net.cpp:157] Top shape: 8 4 4 126 (16128)
I0227 14:27:44.840986 11709 net.cpp:165] Memory required for data: 8008929348
I0227 14:27:44.840991 11709 layer_factory.hpp:77] Creating layer conv8_2_mbox_conf_flat
I0227 14:27:44.840999 11709 net.cpp:100] Creating Layer conv8_2_mbox_conf_flat
I0227 14:27:44.841002 11709 net.cpp:434] conv8_2_mbox_conf_flat <- conv8_2_mbox_conf_perm
I0227 14:27:44.841011 11709 net.cpp:408] conv8_2_mbox_conf_flat -> conv8_2_mbox_conf_flat
I0227 14:27:44.841040 11709 net.cpp:150] Setting up conv8_2_mbox_conf_flat
I0227 14:27:44.841048 11709 net.cpp:157] Top shape: 8 2016 (16128)
I0227 14:27:44.841053 11709 net.cpp:165] Memory required for data: 8008993860
I0227 14:27:44.841058 11709 layer_factory.hpp:77] Creating layer conv8_2_mbox_priorbox
I0227 14:27:44.841063 11709 net.cpp:100] Creating Layer conv8_2_mbox_priorbox
I0227 14:27:44.841079 11709 net.cpp:434] conv8_2_mbox_priorbox <- conv8_2_conv8_2_scale_0_split_3
I0227 14:27:44.841084 11709 net.cpp:434] conv8_2_mbox_priorbox <- data_data_0_split_5
I0227 14:27:44.841092 11709 net.cpp:408] conv8_2_mbox_priorbox -> conv8_2_mbox_priorbox
I0227 14:27:44.841123 11709 net.cpp:150] Setting up conv8_2_mbox_priorbox
I0227 14:27:44.841132 11709 net.cpp:157] Top shape: 1 2 384 (768)
I0227 14:27:44.841137 11709 net.cpp:165] Memory required for data: 8008996932
I0227 14:27:44.841142 11709 layer_factory.hpp:77] Creating layer conv9_2_mbox_loc
I0227 14:27:44.841152 11709 net.cpp:100] Creating Layer conv9_2_mbox_loc
I0227 14:27:44.841158 11709 net.cpp:434] conv9_2_mbox_loc <- conv9_2_conv9_2_scale_0_split_1
I0227 14:27:44.841166 11709 net.cpp:408] conv9_2_mbox_loc -> conv9_2_mbox_loc
I0227 14:27:44.842407 11709 net.cpp:150] Setting up conv9_2_mbox_loc
I0227 14:27:44.842420 11709 net.cpp:157] Top shape: 8 16 2 2 (512)
I0227 14:27:44.842424 11709 net.cpp:165] Memory required for data: 8008998980
I0227 14:27:44.842430 11709 layer_factory.hpp:77] Creating layer conv9_2_mbox_loc_perm
I0227 14:27:44.842440 11709 net.cpp:100] Creating Layer conv9_2_mbox_loc_perm
I0227 14:27:44.842447 11709 net.cpp:434] conv9_2_mbox_loc_perm <- conv9_2_mbox_loc
I0227 14:27:44.842456 11709 net.cpp:408] conv9_2_mbox_loc_perm -> conv9_2_mbox_loc_perm
I0227 14:27:44.842559 11709 net.cpp:150] Setting up conv9_2_mbox_loc_perm
I0227 14:27:44.842568 11709 net.cpp:157] Top shape: 8 2 2 16 (512)
I0227 14:27:44.842574 11709 net.cpp:165] Memory required for data: 8009001028
I0227 14:27:44.842581 11709 layer_factory.hpp:77] Creating layer conv9_2_mbox_loc_flat
I0227 14:27:44.842586 11709 net.cpp:100] Creating Layer conv9_2_mbox_loc_flat
I0227 14:27:44.842591 11709 net.cpp:434] conv9_2_mbox_loc_flat <- conv9_2_mbox_loc_perm
I0227 14:27:44.842597 11709 net.cpp:408] conv9_2_mbox_loc_flat -> conv9_2_mbox_loc_flat
I0227 14:27:44.842628 11709 net.cpp:150] Setting up conv9_2_mbox_loc_flat
I0227 14:27:44.842636 11709 net.cpp:157] Top shape: 8 64 (512)
I0227 14:27:44.842641 11709 net.cpp:165] Memory required for data: 8009003076
I0227 14:27:44.842646 11709 layer_factory.hpp:77] Creating layer conv9_2_mbox_conf
I0227 14:27:44.842656 11709 net.cpp:100] Creating Layer conv9_2_mbox_conf
I0227 14:27:44.842661 11709 net.cpp:434] conv9_2_mbox_conf <- conv9_2_conv9_2_scale_0_split_2
I0227 14:27:44.842669 11709 net.cpp:408] conv9_2_mbox_conf -> conv9_2_mbox_conf
I0227 14:27:44.844889 11709 net.cpp:150] Setting up conv9_2_mbox_conf
I0227 14:27:44.844902 11709 net.cpp:157] Top shape: 8 84 2 2 (2688)
I0227 14:27:44.844907 11709 net.cpp:165] Memory required for data: 8009013828
I0227 14:27:44.844913 11709 layer_factory.hpp:77] Creating layer conv9_2_mbox_conf_perm
I0227 14:27:44.844923 11709 net.cpp:100] Creating Layer conv9_2_mbox_conf_perm
I0227 14:27:44.844928 11709 net.cpp:434] conv9_2_mbox_conf_perm <- conv9_2_mbox_conf
I0227 14:27:44.844936 11709 net.cpp:408] conv9_2_mbox_conf_perm -> conv9_2_mbox_conf_perm
I0227 14:27:44.845046 11709 net.cpp:150] Setting up conv9_2_mbox_conf_perm
I0227 14:27:44.845052 11709 net.cpp:157] Top shape: 8 2 2 84 (2688)
I0227 14:27:44.845058 11709 net.cpp:165] Memory required for data: 8009024580
I0227 14:27:44.845064 11709 layer_factory.hpp:77] Creating layer conv9_2_mbox_conf_flat
I0227 14:27:44.845072 11709 net.cpp:100] Creating Layer conv9_2_mbox_conf_flat
I0227 14:27:44.845077 11709 net.cpp:434] conv9_2_mbox_conf_flat <- conv9_2_mbox_conf_perm
I0227 14:27:44.845085 11709 net.cpp:408] conv9_2_mbox_conf_flat -> conv9_2_mbox_conf_flat
I0227 14:27:44.845113 11709 net.cpp:150] Setting up conv9_2_mbox_conf_flat
I0227 14:27:44.845121 11709 net.cpp:157] Top shape: 8 336 (2688)
I0227 14:27:44.845127 11709 net.cpp:165] Memory required for data: 8009035332
I0227 14:27:44.845131 11709 layer_factory.hpp:77] Creating layer conv9_2_mbox_priorbox
I0227 14:27:44.845141 11709 net.cpp:100] Creating Layer conv9_2_mbox_priorbox
I0227 14:27:44.845149 11709 net.cpp:434] conv9_2_mbox_priorbox <- conv9_2_conv9_2_scale_0_split_3
I0227 14:27:44.845167 11709 net.cpp:434] conv9_2_mbox_priorbox <- data_data_0_split_6
I0227 14:27:44.845178 11709 net.cpp:408] conv9_2_mbox_priorbox -> conv9_2_mbox_priorbox
I0227 14:27:44.845209 11709 net.cpp:150] Setting up conv9_2_mbox_priorbox
I0227 14:27:44.845216 11709 net.cpp:157] Top shape: 1 2 64 (128)
I0227 14:27:44.845223 11709 net.cpp:165] Memory required for data: 8009035844
I0227 14:27:44.845232 11709 layer_factory.hpp:77] Creating layer conv10_2_mbox_loc
I0227 14:27:44.845247 11709 net.cpp:100] Creating Layer conv10_2_mbox_loc
I0227 14:27:44.845255 11709 net.cpp:434] conv10_2_mbox_loc <- conv10_2_conv10_2_scale_0_split_0
I0227 14:27:44.845263 11709 net.cpp:408] conv10_2_mbox_loc -> conv10_2_mbox_loc
I0227 14:27:44.846508 11709 net.cpp:150] Setting up conv10_2_mbox_loc
I0227 14:27:44.846519 11709 net.cpp:157] Top shape: 8 16 1 1 (128)
I0227 14:27:44.846524 11709 net.cpp:165] Memory required for data: 8009036356
I0227 14:27:44.846531 11709 layer_factory.hpp:77] Creating layer conv10_2_mbox_loc_perm
I0227 14:27:44.846540 11709 net.cpp:100] Creating Layer conv10_2_mbox_loc_perm
I0227 14:27:44.846549 11709 net.cpp:434] conv10_2_mbox_loc_perm <- conv10_2_mbox_loc
I0227 14:27:44.846554 11709 net.cpp:408] conv10_2_mbox_loc_perm -> conv10_2_mbox_loc_perm
I0227 14:27:44.846658 11709 net.cpp:150] Setting up conv10_2_mbox_loc_perm
I0227 14:27:44.846668 11709 net.cpp:157] Top shape: 8 1 1 16 (128)
I0227 14:27:44.846671 11709 net.cpp:165] Memory required for data: 8009036868
I0227 14:27:44.846675 11709 layer_factory.hpp:77] Creating layer conv10_2_mbox_loc_flat
I0227 14:27:44.846681 11709 net.cpp:100] Creating Layer conv10_2_mbox_loc_flat
I0227 14:27:44.846690 11709 net.cpp:434] conv10_2_mbox_loc_flat <- conv10_2_mbox_loc_perm
I0227 14:27:44.846696 11709 net.cpp:408] conv10_2_mbox_loc_flat -> conv10_2_mbox_loc_flat
I0227 14:27:44.846721 11709 net.cpp:150] Setting up conv10_2_mbox_loc_flat
I0227 14:27:44.846729 11709 net.cpp:157] Top shape: 8 16 (128)
I0227 14:27:44.846735 11709 net.cpp:165] Memory required for data: 8009037380
I0227 14:27:44.846741 11709 layer_factory.hpp:77] Creating layer conv10_2_mbox_conf
I0227 14:27:44.846752 11709 net.cpp:100] Creating Layer conv10_2_mbox_conf
I0227 14:27:44.846758 11709 net.cpp:434] conv10_2_mbox_conf <- conv10_2_conv10_2_scale_0_split_1
I0227 14:27:44.846765 11709 net.cpp:408] conv10_2_mbox_conf -> conv10_2_mbox_conf
I0227 14:27:44.848935 11709 net.cpp:150] Setting up conv10_2_mbox_conf
I0227 14:27:44.848948 11709 net.cpp:157] Top shape: 8 84 1 1 (672)
I0227 14:27:44.848951 11709 net.cpp:165] Memory required for data: 8009040068
I0227 14:27:44.848961 11709 layer_factory.hpp:77] Creating layer conv10_2_mbox_conf_perm
I0227 14:27:44.848968 11709 net.cpp:100] Creating Layer conv10_2_mbox_conf_perm
I0227 14:27:44.848976 11709 net.cpp:434] conv10_2_mbox_conf_perm <- conv10_2_mbox_conf
I0227 14:27:44.848983 11709 net.cpp:408] conv10_2_mbox_conf_perm -> conv10_2_mbox_conf_perm
I0227 14:27:44.849092 11709 net.cpp:150] Setting up conv10_2_mbox_conf_perm
I0227 14:27:44.849098 11709 net.cpp:157] Top shape: 8 1 1 84 (672)
I0227 14:27:44.849102 11709 net.cpp:165] Memory required for data: 8009042756
I0227 14:27:44.849105 11709 layer_factory.hpp:77] Creating layer conv10_2_mbox_conf_flat
I0227 14:27:44.849117 11709 net.cpp:100] Creating Layer conv10_2_mbox_conf_flat
I0227 14:27:44.849123 11709 net.cpp:434] conv10_2_mbox_conf_flat <- conv10_2_mbox_conf_perm
I0227 14:27:44.849128 11709 net.cpp:408] conv10_2_mbox_conf_flat -> conv10_2_mbox_conf_flat
I0227 14:27:44.849154 11709 net.cpp:150] Setting up conv10_2_mbox_conf_flat
I0227 14:27:44.849161 11709 net.cpp:157] Top shape: 8 84 (672)
I0227 14:27:44.849167 11709 net.cpp:165] Memory required for data: 8009045444
I0227 14:27:44.849172 11709 layer_factory.hpp:77] Creating layer conv10_2_mbox_priorbox
I0227 14:27:44.849182 11709 net.cpp:100] Creating Layer conv10_2_mbox_priorbox
I0227 14:27:44.849187 11709 net.cpp:434] conv10_2_mbox_priorbox <- conv10_2_conv10_2_scale_0_split_2
I0227 14:27:44.849195 11709 net.cpp:434] conv10_2_mbox_priorbox <- data_data_0_split_7
I0227 14:27:44.849217 11709 net.cpp:408] conv10_2_mbox_priorbox -> conv10_2_mbox_priorbox
I0227 14:27:44.849249 11709 net.cpp:150] Setting up conv10_2_mbox_priorbox
I0227 14:27:44.849263 11709 net.cpp:157] Top shape: 1 2 16 (32)
I0227 14:27:44.849268 11709 net.cpp:165] Memory required for data: 8009045572
I0227 14:27:44.849275 11709 layer_factory.hpp:77] Creating layer mbox_loc
I0227 14:27:44.849285 11709 net.cpp:100] Creating Layer mbox_loc
I0227 14:27:44.849290 11709 net.cpp:434] mbox_loc <- conv4_3_norm_mbox_loc_flat
I0227 14:27:44.849299 11709 net.cpp:434] mbox_loc <- fc7_mbox_loc_flat
I0227 14:27:44.849306 11709 net.cpp:434] mbox_loc <- conv6_2_mbox_loc_flat
I0227 14:27:44.849313 11709 net.cpp:434] mbox_loc <- conv7_2_mbox_loc_flat
I0227 14:27:44.849318 11709 net.cpp:434] mbox_loc <- conv8_2_mbox_loc_flat
I0227 14:27:44.849326 11709 net.cpp:434] mbox_loc <- conv9_2_mbox_loc_flat
I0227 14:27:44.849331 11709 net.cpp:434] mbox_loc <- conv10_2_mbox_loc_flat
I0227 14:27:44.849339 11709 net.cpp:408] mbox_loc -> mbox_loc
I0227 14:27:44.849375 11709 net.cpp:150] Setting up mbox_loc
I0227 14:27:44.849385 11709 net.cpp:157] Top shape: 8 98256 (786048)
I0227 14:27:44.849390 11709 net.cpp:165] Memory required for data: 8012189764
I0227 14:27:44.849395 11709 layer_factory.hpp:77] Creating layer mbox_conf
I0227 14:27:44.849408 11709 net.cpp:100] Creating Layer mbox_conf
I0227 14:27:44.849416 11709 net.cpp:434] mbox_conf <- conv4_3_norm_mbox_conf_flat
I0227 14:27:44.849421 11709 net.cpp:434] mbox_conf <- fc7_mbox_conf_flat
I0227 14:27:44.849426 11709 net.cpp:434] mbox_conf <- conv6_2_mbox_conf_flat
I0227 14:27:44.849436 11709 net.cpp:434] mbox_conf <- conv7_2_mbox_conf_flat
I0227 14:27:44.849442 11709 net.cpp:434] mbox_conf <- conv8_2_mbox_conf_flat
I0227 14:27:44.849448 11709 net.cpp:434] mbox_conf <- conv9_2_mbox_conf_flat
I0227 14:27:44.849454 11709 net.cpp:434] mbox_conf <- conv10_2_mbox_conf_flat
I0227 14:27:44.849460 11709 net.cpp:408] mbox_conf -> mbox_conf
I0227 14:27:44.849491 11709 net.cpp:150] Setting up mbox_conf
I0227 14:27:44.849503 11709 net.cpp:157] Top shape: 8 515844 (4126752)
I0227 14:27:44.849510 11709 net.cpp:165] Memory required for data: 8028696772
I0227 14:27:44.849514 11709 layer_factory.hpp:77] Creating layer mbox_priorbox
I0227 14:27:44.849519 11709 net.cpp:100] Creating Layer mbox_priorbox
I0227 14:27:44.849526 11709 net.cpp:434] mbox_priorbox <- conv4_3_norm_mbox_priorbox
I0227 14:27:44.849531 11709 net.cpp:434] mbox_priorbox <- fc7_mbox_priorbox
I0227 14:27:44.849540 11709 net.cpp:434] mbox_priorbox <- conv6_2_mbox_priorbox
I0227 14:27:44.849545 11709 net.cpp:434] mbox_priorbox <- conv7_2_mbox_priorbox
I0227 14:27:44.849548 11709 net.cpp:434] mbox_priorbox <- conv8_2_mbox_priorbox
I0227 14:27:44.849553 11709 net.cpp:434] mbox_priorbox <- conv9_2_mbox_priorbox
I0227 14:27:44.849560 11709 net.cpp:434] mbox_priorbox <- conv10_2_mbox_priorbox
I0227 14:27:44.849567 11709 net.cpp:408] mbox_priorbox -> mbox_priorbox
I0227 14:27:44.849596 11709 net.cpp:150] Setting up mbox_priorbox
I0227 14:27:44.849606 11709 net.cpp:157] Top shape: 1 2 98256 (196512)
I0227 14:27:44.849609 11709 net.cpp:165] Memory required for data: 8029482820
I0227 14:27:44.849615 11709 layer_factory.hpp:77] Creating layer mbox_loss
I0227 14:27:44.849625 11709 net.cpp:100] Creating Layer mbox_loss
I0227 14:27:44.849632 11709 net.cpp:434] mbox_loss <- mbox_loc
I0227 14:27:44.849643 11709 net.cpp:434] mbox_loss <- mbox_conf
I0227 14:27:44.849650 11709 net.cpp:434] mbox_loss <- mbox_priorbox
…
state {
  phase: TEST
}
layer {
  name: "data"
  type: "AnnotatedData"
  top: "data"
  top: "label"
  include {
    phase: TEST
  }
  transform_param {
    mean_value: 104
    mean_value: 117
    mean_value: 123
    resize_param {
      prob: 1
      resize_mode: WARP
      height: 512
      width: 512
      interp_mode: LINEAR
    }
  }
  data_param {
    source: "examples/VOC0712/VOC0712_test_lmdb"
    batch_size: 8
    backend: LMDB
  }
  annotated_data_param {
    batch_sampler {
    }
    label_map_file: "data/VOC0712/labelmap_voc.prototxt"
  }
}
layer {
  name: "conv1_1"
  type: "Convolution"
  bottom: "data"
  top: "conv1_1"
  param {
    lr_mult: 1
    decay_mult: 1
  }
  param {
    lr_mult: 2
    decay_mult: 0
  }
  convolution_param {
    num_output: 64
    pad: 1
    kernel_size: 3
    weight_filler {
      type: "xavier"
    }
    bias_filler {
      type: "constant"
      value: 0
    }
  }
}
layer {
  name: "relu1_1"
  type: "ReLU"
  bottom: "conv1_1"
  top: "conv1_1"
}
layer {
  name: "conv1_2"
  type: "Convolution"
  bottom: "conv1_1"
  top: "conv1_2"
  param {
    lr_mult: 1
    decay_mult: 1
  }
  param {
    lr_mult: 2
    decay_mult: 0
  }
  convolution_param {
    num_output: 64
    pad: 1
    kernel_size: 3
    weight_filler {
      type: "xavier"
    }
    bias_filler {
      type: "constant"
      value: 0
    }
  }
}
layer {
  name: "relu1_2"
  type: "ReLU"
  bottom: "conv1_2"
  top: "conv1_2"
}
layer {
  name: "pool1"
  type: "Pooling"
  bottom: "conv1_2"
  top: "pool1"
  pooling_param {
    pool: MAX
    kernel_size: 2
    stride: 2
  }
}
layer {
  name: "conv2_1"
  type: "Convolution"
  bottom: "pool1"
  top: "conv2_1"
  param {
    lr_mult: 1
    decay_mult: 1
  }
  param {
    lr_mult: 2
    decay_mult: 0
  }
  convolution_param {
    num_output: 128
    pad: 1
    kernel_size: 3
    weight_filler {
      type: "xavier"
    }
    bias_filler {
      type: "constant"
      value: 0
    }
  }
}
layer {
  name: "relu2_1"
  type: "ReLU"
  bottom: "conv2_1"
  top: "conv2_1"
}
layer {
  name: "conv2_2"
  type: "Convolution"
  bottom: "conv2_1"
  top: "conv2_2"
  param {
    lr_mult: 1
    decay_mult: 1
  }
  param {
    lr_mult: 2
    decay_mult: 0
  }
  convolution_param {
    num_output: 128
    pad: 1
    kernel_size: 3
    weight_filler {
      type: "xavier"
    }
    bias_filler {
      type: "constant"
      value: 0
    }
  }
}
layer {
  name: "relu2_2"
  type: "ReLU"
  bottom: "conv2_2"
  top: "conv2_2"
}
layer {
  name: "pool2"
  type: "Pooling"
  bottom: "conv2_2"
  top: "pool2"
  pooling_param {
    pool: MAX
    kernel_size: 2
    stride: 2
  }
}
layer {
  name: "conv3_1"
  type: "Convolution"
  bottom: "pool2"
  top: "conv3_1"
  param {
    lr_mult: 1
    decay_mult: 1
  }
  param {
    lr_mult: 2
    decay_mult: 0
  }
  convolution_param {
    num_output: 256
    pad: 1
    kernel_size: 3
    weight_filler {
      type: "xavier"
    }
    bias_filler {
      type: "constant"
      value: 0
    }
  }
}
layer {
  name: "relu3_1"
  type: "ReLU"
  bottom: "conv3_1"
  top: "conv3_1"
}
layer {
  name: "conv3_2"
  type: "Convolution"
  bottom: "conv3_1"
  top: "conv3_2"
  param {
    lr_mult: 1
    decay_mult: 1
  }
  param {
    lr_mult: 2
    decay_mult: 0
  }
  convolution_param {
    num_output: 256
    pad: 1
    kernel_size: 3
    weight_filler {
      type: "xavier"
    }
    bias_filler {
      type: "constant"
      value: 0
    }
  }
}
layer {
  name: "relu3_2"
  type: "ReLU"
  bottom: "conv3_2"
  top: "conv3_2"
}
layer {
  name: "conv3_3"
  type: "Convolution"
  bottom: "conv3_2"
  top: "conv3_3"
  param {
    lr_mult: 1
    decay_mult: 1
  }
  param {
    lr_mult: 2
    decay_mult: 0
  }
  convolution_param {
    num_output: 256
    pad: 1
    kernel_size: 3
    weight_filler {
      type: "xavier"
    }
    bias_filler {
      type: "constant"
      value: 0
    }
  }
}
layer {
  name: "relu3_3"
  type: "ReLU"
  bottom: "conv3_3"
  top: "conv3_3"
}
layer {
  name: "pool3"
  type: "Pooling"
  bottom: "conv3_3"
  top: "pool3"
  pooling_param {
    pool: MAX
    kernel_size: 2
    stride: 2
  }
}
layer {
  name: "conv4_1"
  type: "Convolution"
  bottom: "pool3"
  top: "conv4_1"
  param {
    lr_mult: 1
    decay_mult: 1
  }
  param {
    lr_mult: 2
    decay_mult: 0
  }
  convolution_param {
    num_output: 512
    pad: 1
    kernel_size: 3
    weight_filler {
      type: "xavier"
    }
    bias_filler {
      type: "constant"
      value: 0
    }
  }
}
layer {
  name: "relu4_1"
  type: "ReLU"
  bottom: "conv4_1"
  top: "conv4_1"
}
layer {
  name: "conv4_2"
  type: "Convolution"
  bottom: "conv4_1"
  top: "conv4_2"
  param {
    lr_mult: 1
    decay_mult: 1
  }
  param {
    lr_mult: 2
    decay_mult: 0
  }
  convolution_param {
    num_output: 512
    pad: 1
    kernel_size: 3
    weight_filler {
      type: "xavier"
    }
    bias_filler {
      type: "constant"
      value: 0
    }
  }
}
layer {
  name: "relu4_2"
  type: "ReLU"
  bottom: "conv4_2"
  top: "conv4_2"
}
layer {
  name: "conv4_3"
  type: "Convolution"
  bottom: "conv4_2"
  top: "conv4_3_ori"
  param {
    lr_mult: 1
    decay_mult: 1
  }
  param {
    lr_mult: 2
    decay_mult: 0
  }
  convolution_param {
    num_output: 512
    pad: 1
    kernel_size: 3
    weight_filler {
      type: "xavier"
    }
    bias_filler {
      type: "constant"
      value: 0
    }
  }
}
layer {
  name: "relu4_3"
  type: "ReLU"
  bottom: "conv4_3_ori"
  top: "conv4_3_ori"
}
layer {
  name: "seg_pool4"
  type: "Pooling"
  bottom: "conv4_3_ori"
  top: "seg_pool4"
  pooling_param {
    pool: MAX
    kernel_size: 3
    stride: 1
    pad: 1
  }
}
layer {
  name: "seg5_1"
  type: "Convolution"
  bottom: "seg_pool4"
  top: "seg5_1"
  param {
    lr_mult: 1
    decay_mult: 1
  }
  param {
    lr_mult: 2
    decay_mult: 0
  }
  convolution_param {
    num_output: 512
    pad: 2
    kernel_size: 3
    weight_filler {
      type: "xavier"
    }
    bias_filler {
      type: "constant"
      value: 0
    }
    dilation: 2
  }
}
layer {
  name: "seg_relu5_1"
  type: "ReLU"
  bottom: "seg5_1"
  top: "seg5_1"
}
layer {
  name: "seg5_2"
  type: "Convolution"
  bottom: "seg5_1"
  top: "seg5_2"
  param {
    lr_mult: 1
    decay_mult: 1
  }
  param {
    lr_mult: 2
    decay_mult: 0
  }
  convolution_param {
    num_output: 512
    pad: 2
    kernel_size: 3
    weight_filler {
      type: "xavier"
    }
    bias_filler {
      type: "constant"
      value: 0
    }
    dilation: 2
  }
}
layer {
  name: "seg_relu5_2"
  type: "ReLU"
  bottom: "seg5_2"
  top: "seg5_2"
}
layer {
  name: "seg5_3"
  type: "Convolution"
  bottom: "seg5_2"
  top: "seg5_3"
  param {
    lr_mult: 1
    decay_mult: 1
  }
  param {
    lr_mult: 2
    decay_mult: 0
  }
  convolution_param {
    num_output: 512
    pad: 2
    kernel_size: 3
    weight_filler {
      type: "xavier"
    }
    bias_filler {
      type: "constant"
      value: 0
    }
    dilation: 2
  }
}
layer {
  name: "seg_relu5_3"
  type: "ReLU"
  bottom: "seg5_3"
  top: "seg5_3"
}
layer {
  name: "seg_pool5"
  type: "Pooling"
  bottom: "seg5_3"
  top: "seg_pool5"
  pooling_param {
    pool: MAX
    kernel_size: 3
    stride: 1
    pad: 1
  }
}
layer {
  name: "seg6"
  type: "Convolution"
  bottom: "seg_pool5"
  top: "seg6"
  param {
    lr_mult: 1
    decay_mult: 1
  }
  param {
    lr_mult: 2
    decay_mult: 0
  }
  convolution_param {
    num_output: 1024
    pad: 4
    kernel_size: 3
    weight_filler {
      type: "xavier"
    }
    bias_filler {
      type: "constant"
      value: 0
    }
    dilation: 4
  }
}
layer {
  name: "seg_relu6"
  type: "ReLU"
  bottom: "seg6"
  top: "seg6"
}
layer {
  name: "seg_drop6"
  type: "Dropout"
  bottom: "seg6"
  top: "seg6"
  dropout_param {
    dropout_ratio: 0.5
  }
}
layer {
  name: "seg7"
  type: "Convolution"
  bottom: "seg6"
  top: "seg7"
  param {
    lr_mult: 1
    decay_mult: 1
  }
  param {
    lr_mult: 2
    decay_mult: 0
  }
  convolution_param {
    num_output: 1024
    kernel_size: 1
    weight_filler {
      type: "xavier"
    }
    bias_filler {
      type: "constant"
      value: 0
    }
  }
}
layer {
  name: "seg_relu7"
  type: "ReLU"
  bottom: "seg7"
  top: "seg7"
}
layer {
  name: "seg_to_det_conv"
  type: "Convolution"
  bottom: "seg7"
  top: "seg_to_det_conv"
  param {
    lr_mult: 1
    decay_mult: 1
  }
  param {
    lr_mult: 2
    decay_mult: 0
  }
  propagate_down: false
  convolution_param {
    num_output: 512
    pad: 0
    kernel_size: 1
    stride: 1
    weight_filler {
      type: "xavier"
    }
    bias_filler {
      type: "constant"
      value: 0
    }
  }
}
layer {
  name: "mult_conv4_3"
  type: "Eltwise"
  bottom: "conv4_3_ori"
  bottom: "seg_to_det_conv"
  top: "conv4_3_t"
  eltwise_param {
    operation: PROD
  }
}
layer {
  name: "conv4_3_s"
  type: "Pooling"
  bottom: "conv4_3_t"
  top: "conv4_3_s"
  pooling_param {
    pool: AVE
    global_pooling: true
  }
}
layer {
  name: "conv4_3_fc1"
  type: "Convolution"
  bottom: "conv4_3_s"
  top: "conv4_3_fc1"
  param {
    lr_mult: 1
    decay_mult: 1
  }
  param {
    lr_mult: 2
    decay_mult: 0
  }
  convolution_param {
    num_output: 128
    kernel_size: 1
    stride: 1
    weight_filler {
      type: "xavier"
    }
    bias_filler {
      type: "constant"
      value: 0
    }
  }
}
layer {
  name: "conv4_3_relu"
  type: "ReLU"
  bottom: "conv4_3_fc1"
  top: "conv4_3_fc1"
}
layer {
  name: "conv4_3_fc2"
  type: "Convolution"
  bottom: "conv4_3_fc1"
  top: "conv4_3_fc2"
  param {
    lr_mult: 1
    decay_mult: 1
  }
  param {
    lr_mult: 2
    decay_mult: 0
  }
  convolution_param {
    num_output: 512
    kernel_size: 1
    stride: 1
    weight_filler {
      type: "xavier"
    }
    bias_filler {
      type: "constant"
      value: 0
    }
  }
}
layer {
  name: "conv4_3_sig"
  type: "Sigmoid"
  bottom: "conv4_3_fc2"
  top: "conv4_3_fc2"
}
layer {
  name: "conv4_3_reshape"
  type: "Reshape"
  bottom: "conv4_3_fc2"
  top: "conv4_3_reshape"
  reshape_param {
    shape {
      dim: 0
      dim: 0
    }
  }
}
layer {
  name: "conv4_3_scale"
  type: "Scale"
  bottom: "conv4_3_t"
  bottom: "conv4_3_reshape"
  top: "conv4_3"
  scale_param {
    axis: 0
    bias_term: false
  }
}
layer {
  name: "pool4"
  type: "Pooling"
  bottom: "conv4_3"
  top: "pool4"
  pooling_param {
    pool: MAX
    kernel_size: 2
    stride: 2
  }
}
layer {
  name: "conv5_1"
  type: "Convolution"
  bottom: "pool4"
  top: "conv5_1"
  param {
…
I0227 14:27:45.178011 11709 layer_factory.hpp:77] Creating layer conv9_1_relu
I0227 14:27:45.178019 11709 net.cpp:100] Creating Layer conv9_1_relu
I0227 14:27:45.178022 11709 net.cpp:434] conv9_1_relu <- conv9_1
I0227 14:27:45.178028 11709 net.cpp:395] conv9_1_relu -> conv9_1 (in-place)
I0227 14:27:45.178201 11709 net.cpp:150] Setting up conv9_1_relu
I0227 14:27:45.178211 11709 net.cpp:157] Top shape: 8 128 4 4 (16384)
I0227 14:27:45.178215 11709 net.cpp:165] Memory required for data: 7269359680
I0227 14:27:45.178220 11709 layer_factory.hpp:77] Creating layer conv9_2
I0227 14:27:45.178231 11709 net.cpp:100] Creating Layer conv9_2
I0227 14:27:45.178238 11709 net.cpp:434] conv9_2 <- conv9_1
I0227 14:27:45.178247 11709 net.cpp:408] conv9_2 -> conv9_2_t
I0227 14:27:45.181510 11709 net.cpp:150] Setting up conv9_2
I0227 14:27:45.181524 11709 net.cpp:157] Top shape: 8 256 2 2 (8192)
I0227 14:27:45.181527 11709 net.cpp:165] Memory required for data: 7269392448
I0227 14:27:45.181533 11709 layer_factory.hpp:77] Creating layer conv9_2_relu
I0227 14:27:45.181540 11709 net.cpp:100] Creating Layer conv9_2_relu
I0227 14:27:45.181545 11709 net.cpp:434] conv9_2_relu <- conv9_2_t
I0227 14:27:45.181553 11709 net.cpp:395] conv9_2_relu -> conv9_2_t (in-place)
I0227 14:27:45.182119 11709 net.cpp:150] Setting up conv9_2_relu
I0227 14:27:45.182132 11709 net.cpp:157] Top shape: 8 256 2 2 (8192)
I0227 14:27:45.182135 11709 net.cpp:165] Memory required for data: 7269425216
I0227 14:27:45.182139 11709 layer_factory.hpp:77] Creating layer conv9_2_t_conv9_2_relu_0_split
I0227 14:27:45.182147 11709 net.cpp:100] Creating Layer conv9_2_t_conv9_2_relu_0_split
I0227 14:27:45.182152 11709 net.cpp:434] conv9_2_t_conv9_2_relu_0_split <- conv9_2_t
I0227 14:27:45.182158 11709 net.cpp:408] conv9_2_t_conv9_2_relu_0_split -> conv9_2_t_conv9_2_relu_0_split_0
I0227 14:27:45.182165 11709 net.cpp:408] conv9_2_t_conv9_2_relu_0_split -> conv9_2_t_conv9_2_relu_0_split_1
I0227 14:27:45.182220 11709 net.cpp:150] Setting up conv9_2_t_conv9_2_relu_0_split
I0227 14:27:45.182227 11709 net.cpp:157] Top shape: 8 256 2 2 (8192)
I0227 14:27:45.182232 11709 net.cpp:157] Top shape: 8 256 2 2 (8192)
I0227 14:27:45.182236 11709 net.cpp:165] Memory required for data: 7269490752
I0227 14:27:45.182241 11709 layer_factory.hpp:77] Creating layer conv9_2_s
I0227 14:27:45.182247 11709 net.cpp:100] Creating Layer conv9_2_s
I0227 14:27:45.182257 11709 net.cpp:434] conv9_2_s <- conv9_2_t_conv9_2_relu_0_split_0
I0227 14:27:45.182263 11709 net.cpp:408] conv9_2_s -> conv9_2_s
I0227 14:27:45.182468 11709 net.cpp:150] Setting up conv9_2_s
I0227 14:27:45.182480 11709 net.cpp:157] Top shape: 8 256 1 1 (2048)
I0227 14:27:45.182484 11709 net.cpp:165] Memory required for data: 7269498944
I0227 14:27:45.182487 11709 layer_factory.hpp:77] Creating layer conv9_2_fc1
I0227 14:27:45.182497 11709 net.cpp:100] Creating Layer conv9_2_fc1
I0227 14:27:45.182512 11709 net.cpp:434] conv9_2_fc1 <- conv9_2_s
I0227 14:27:45.182518 11709 net.cpp:408] conv9_2_fc1 -> conv9_2_fc1
I0227 14:27:45.183825 11709 net.cpp:150] Setting up conv9_2_fc1
I0227 14:27:45.183835 11709 net.cpp:157] Top shape: 8 64 1 1 (512)
I0227 14:27:45.183840 11709 net.cpp:165] Memory required for data: 7269500992
I0227 14:27:45.183858 11709 layer_factory.hpp:77] Creating layer conv9_2_relu
I0227 14:27:45.183867 11709 net.cpp:100] Creating Layer conv9_2_relu
I0227 14:27:45.183874 11709 net.cpp:434] conv9_2_relu <- conv9_2_fc1
I0227 14:27:45.183882 11709 net.cpp:395] conv9_2_relu -> conv9_2_fc1 (in-place)
I0227 14:27:45.184058 11709 net.cpp:150] Setting up conv9_2_relu
I0227 14:27:45.184067 11709 net.cpp:157] Top shape: 8 64 1 1 (512)
I0227 14:27:45.184070 11709 net.cpp:165] Memory required for data: 7269503040
I0227 14:27:45.184073 11709 layer_factory.hpp:77] Creating layer conv9_2_fc2
I0227 14:27:45.184084 11709 net.cpp:100] Creating Layer conv9_2_fc2
I0227 14:27:45.184092 11709 net.cpp:434] conv9_2_fc2 <- conv9_2_fc1
I0227 14:27:45.184098 11709 net.cpp:408] conv9_2_fc2 -> conv9_2_fc2
I0227 14:27:45.185395 11709 net.cpp:150] Setting up conv9_2_fc2
I0227 14:27:45.185407 11709 net.cpp:157] Top shape: 8 256 1 1 (2048)
I0227 14:27:45.185412 11709 net.cpp:165] Memory required for data: 7269511232
I0227 14:27:45.185418 11709 layer_factory.hpp:77] Creating layer conv9_2_sig
I0227 14:27:45.185425 11709 net.cpp:100] Creating Layer conv9_2_sig
I0227 14:27:45.185431 11709 net.cpp:434] conv9_2_sig <- conv9_2_fc2
I0227 14:27:45.185439 11709 net.cpp:395] conv9_2_sig -> conv9_2_fc2 (in-place)
I0227 14:27:45.185991 11709 net.cpp:150] Setting up conv9_2_sig
I0227 14:27:45.186002 11709 net.cpp:157] Top shape: 8 256 1 1 (2048)
I0227 14:27:45.186005 11709 net.cpp:165] Memory required for data: 7269519424
I0227 14:27:45.186010 11709 layer_factory.hpp:77] Creating layer conv9_2_reshape
I0227 14:27:45.186019 11709 net.cpp:100] Creating Layer conv9_2_reshape
I0227 14:27:45.186024 11709 net.cpp:434] conv9_2_reshape <- conv9_2_fc2
I0227 14:27:45.186035 11709 net.cpp:408] conv9_2_reshape -> conv9_2_reshape
I0227 14:27:45.186076 11709 net.cpp:150] Setting up conv9_2_reshape
I0227 14:27:45.186084 11709 net.cpp:157] Top shape: 8 256 (2048)
I0227 14:27:45.186086 11709 net.cpp:165] Memory required for data: 7269527616
I0227 14:27:45.186091 11709 layer_factory.hpp:77] Creating layer conv9_2_scale
I0227 14:27:45.186097 11709 net.cpp:100] Creating Layer conv9_2_scale
I0227 14:27:45.186101 11709 net.cpp:434] conv9_2_scale <- conv9_2_t_conv9_2_relu_0_split_1
I0227 14:27:45.186110 11709 net.cpp:434] conv9_2_scale <- conv9_2_reshape
I0227 14:27:45.186120 11709 net.cpp:408] conv9_2_scale -> conv9_2
I0227 14:27:45.186214 11709 net.cpp:150] Setting up conv9_2_scale
I0227 14:27:45.186223 11709 net.cpp:157] Top shape: 8 256 2 2 (8192)
I0227 14:27:45.186228 11709 net.cpp:165] Memory required for data: 7269560384
I0227 14:27:45.186234 11709 layer_factory.hpp:77] Creating layer conv9_2_conv9_2_scale_0_split
I0227 14:27:45.186244 11709 net.cpp:100] Creating Layer conv9_2_conv9_2_scale_0_split
I0227 14:27:45.186249 11709 net.cpp:434] conv9_2_conv9_2_scale_0_split <- conv9_2
I0227 14:27:45.186260 11709 net.cpp:408] conv9_2_conv9_2_scale_0_split -> conv9_2_conv9_2_scale_0_split_0
I0227 14:27:45.186267 11709 net.cpp:408] conv9_2_conv9_2_scale_0_split -> conv9_2_conv9_2_scale_0_split_1
I0227 14:27:45.186277 11709 net.cpp:408] conv9_2_conv9_2_scale_0_split -> conv9_2_conv9_2_scale_0_split_2
I0227 14:27:45.186286 11709 net.cpp:408] conv9_2_conv9_2_scale_0_split -> conv9_2_conv9_2_scale_0_split_3
I0227 14:27:45.186383 11709 net.cpp:150] Setting up conv9_2_conv9_2_scale_0_split
I0227 14:27:45.186393 11709 net.cpp:157] Top shape: 8 256 2 2 (8192)
I0227 14:27:45.186396 11709 net.cpp:157] Top shape: 8 256 2 2 (8192)
I0227 14:27:45.186399 11709 net.cpp:157] Top shape: 8 256 2 2 (8192)
I0227 14:27:45.186403 11709 net.cpp:157] Top shape: 8 256 2 2 (8192)
I0227 14:27:45.186408 11709 net.cpp:165] Memory required for data: 7269691456
I0227 14:27:45.186415 11709 layer_factory.hpp:77] Creating layer conv10_1
I0227 14:27:45.186426 11709 net.cpp:100] Creating Layer conv10_1
I0227 14:27:45.186430 11709 net.cpp:434] conv10_1 <- conv9_2_conv9_2_scale_0_split_0
I0227 14:27:45.186441 11709 net.cpp:408] conv10_1 -> conv10_1
I0227 14:27:45.187782 11709 net.cpp:150] Setting up conv10_1
I0227 14:27:45.187803 11709 net.cpp:157] Top shape: 8 128 2 2 (4096)
I0227 14:27:45.187808 11709 net.cpp:165] Memory required for data: 7269707840
I0227 14:27:45.187814 11709 layer_factory.hpp:77] Creating layer conv10_1_relu
I0227 14:27:45.187822 11709 net.cpp:100] Creating Layer conv10_1_relu
I0227 14:27:45.187826 11709 net.cpp:434] conv10_1_relu <- conv10_1
I0227 14:27:45.187834 11709 net.cpp:395] conv10_1_relu -> conv10_1 (in-place)
I0227 14:27:45.188395 11709 net.cpp:150] Setting up conv10_1_relu
I0227 14:27:45.188406 11709 net.cpp:157] Top shape: 8 128 2 2 (4096)
I0227 14:27:45.188410 11709 net.cpp:165] Memory required for data: 7269724224
I0227 14:27:45.188416 11709 layer_factory.hpp:77] Creating layer conv10_2
I0227 14:27:45.188426 11709 net.cpp:100] Creating Layer conv10_2
I0227 14:27:45.188431 11709 net.cpp:434] conv10_2 <- conv10_1
I0227 14:27:45.188441 11709 net.cpp:408] conv10_2 -> conv10_2_t
I0227 14:27:45.192631 11709 net.cpp:150] Setting up conv10_2
I0227 14:27:45.192644 11709 net.cpp:157] Top shape: 8 256 1 1 (2048)
I0227 14:27:45.192648 11709 net.cpp:165] Memory required for data: 7269732416
I0227 14:27:45.192654 11709 layer_factory.hpp:77] Creating layer conv10_2_relu
I0227 14:27:45.192661 11709 net.cpp:100] Creating Layer conv10_2_relu
I0227 14:27:45.192667 11709 net.cpp:434] conv10_2_relu <- conv10_2_t
I0227 14:27:45.192674 11709 net.cpp:395] conv10_2_relu -> conv10_2_t (in-place)
I0227 14:27:45.192845 11709 net.cpp:150] Setting up conv10_2_relu
I0227 14:27:45.192855 11709 net.cpp:157] Top shape: 8 256 1 1 (2048)
I0227 14:27:45.192862 11709 net.cpp:165] Memory required for data: 7269740608
I0227 14:27:45.192867 11709 layer_factory.hpp:77] Creating layer conv10_2_t_conv10_2_relu_0_split
I0227 14:27:45.192872 11709 net.cpp:100] Creating Layer conv10_2_t_conv10_2_relu_0_split
I0227 14:27:45.192876 11709 net.cpp:434] conv10_2_t_conv10_2_relu_0_split <- conv10_2_t
I0227 14:27:45.192883 11709 net.cpp:408] conv10_2_t_conv10_2_relu_0_split -> conv10_2_t_conv10_2_relu_0_split_0
I0227 14:27:45.192891 11709 net.cpp:408] conv10_2_t_conv10_2_relu_0_split -> conv10_2_t_conv10_2_relu_0_split_1
I0227 14:27:45.192946 11709 net.cpp:150] Setting up conv10_2_t_conv10_2_relu_0_split
I0227 14:27:45.192953 11709 net.cpp:157] Top shape: 8 256 1 1 (2048)
I0227 14:27:45.192958 11709 net.cpp:157] Top shape: 8 256 1 1 (2048)
I0227 14:27:45.192961 11709 net.cpp:165] Memory required for data: 7269756992
I0227 14:27:45.192965 11709 layer_factory.hpp:77] Creating layer conv10_2_s
I0227 14:27:45.192987 11709 net.cpp:100] Creating Layer conv10_2_s
I0227 14:27:45.192997 11709 net.cpp:434] conv10_2_s <- conv10_2_t_conv10_2_relu_0_split_0
I0227 14:27:45.193006 11709 net.cpp:408] conv10_2_s -> conv10_2_s
I0227 14:27:45.193195 11709 net.cpp:150] Setting up conv10_2_s
I0227 14:27:45.193203 11709 net.cpp:157] Top shape: 8 256 1 1 (2048)
I0227 14:27:45.193207 11709 net.cpp:165] Memory required for data: 7269765184
I0227 14:27:45.193212 11709 layer_factory.hpp:77] Creating layer conv10_2_fc1
I0227 14:27:45.193222 11709 net.cpp:100] Creating Layer conv10_2_fc1
I0227 14:27:45.193225 11709 net.cpp:434] conv10_2_fc1 <- conv10_2_s
I0227 14:27:45.193235 11709 net.cpp:408] conv10_2_fc1 -> conv10_2_fc1
I0227 14:27:45.194569 11709 net.cpp:150] Setting up conv10_2_fc1
I0227 14:27:45.194581 11709 net.cpp:157] Top shape: 8 64 1 1 (512)
I0227 14:27:45.194584 11709 net.cpp:165] Memory required for data: 7269767232
I0227 14:27:45.194591 11709 layer_factory.hpp:77] Creating layer conv10_2_relu
I0227 14:27:45.194600 11709 net.cpp:100] Creating Layer conv10_2_relu
I0227 14:27:45.194605 11709 net.cpp:434] conv10_2_relu <- conv10_2_fc1
I0227 14:27:45.194612 11709 net.cpp:395] conv10_2_relu -> conv10_2_fc1 (in-place)
I0227 14:27:45.195178 11709 net.cpp:150] Setting up conv10_2_relu
I0227 14:27:45.195189 11709 net.cpp:157] Top shape: 8 64 1 1 (512)
I0227 14:27:45.195194 11709 net.cpp:165] Memory required for data: 7269769280
I0227 14:27:45.195196 11709 layer_factory.hpp:77] Creating layer conv10_2_fc2
I0227 14:27:45.195209 11709 net.cpp:100] Creating Layer conv10_2_fc2
I0227 14:27:45.195226 11709 net.cpp:434] conv10_2_fc2 <- conv10_2_fc1
I0227 14:27:45.195237 11709 net.cpp:408] conv10_2_fc2 -> conv10_2_fc2
I0227 14:27:45.196544 11709 net.cpp:150] Setting up conv10_2_fc2
I0227 14:27:45.196557 11709 net.cpp:157] Top shape: 8 256 1 1 (2048)
I0227 14:27:45.196561 11709 net.cpp:165] Memory required for data: 7269777472
I0227 14:27:45.196568 11709 layer_factory.hpp:77] Creating layer conv10_2_sig
I0227 14:27:45.196573 11709 net.cpp:100] Creating Layer conv10_2_sig
I0227 14:27:45.196583 11709 net.cpp:434] conv10_2_sig <- conv10_2_fc2
I0227 14:27:45.196588 11709 net.cpp:395] conv10_2_sig -> conv10_2_fc2 (in-place)
I0227 14:27:45.196758 11709 net.cpp:150] Setting up conv10_2_sig
I0227 14:27:45.196766 11709 net.cpp:157] Top shape: 8 256 1 1 (2048)
I0227 14:27:45.196770 11709 net.cpp:165] Memory required for data: 7269785664
I0227 14:27:45.196774 11709 layer_factory.hpp:77] Creating layer conv10_2_reshape
I0227 14:27:45.196780 11709 net.cpp:100] Creating Layer conv10_2_reshape
I0227 14:27:45.196787 11709 net.cpp:434] conv10_2_reshape <- conv10_2_fc2
I0227 14:27:45.196794 11709 net.cpp:408] conv10_2_reshape -> conv10_2_reshape
I0227 14:27:45.196833 11709 net.cpp:150] Setting up conv10_2_reshape
I0227 14:27:45.196841 11709 net.cpp:157] Top shape: 8 256 (2048)
I0227 14:27:45.196843 11709 net.cpp:165] Memory required for data: 7269793856
I0227 14:27:45.196848 11709 layer_factory.hpp:77] Creating layer conv10_2_scale
I0227 14:27:45.196853 11709 net.cpp:100] Creating Layer conv10_2_scale
I0227 14:27:45.196858 11709 net.cpp:434] conv10_2_scale <- conv10_2_t_conv10_2_relu_0_split_1
I0227 14:27:45.196862 11709 net.cpp:434] conv10_2_scale <- conv10_2_reshape
I0227 14:27:45.196871 11709 net.cpp:408] conv10_2_scale -> conv10_2
I0227 14:27:45.196960 11709 net.cpp:150] Setting up conv10_2_scale
I0227 14:27:45.196969 11709 net.cpp:157] Top shape: 8 256 1 1 (2048)
I0227 14:27:45.196972 11709 net.cpp:165] Memory required for data: 7269802048
I0227 14:27:45.196976 11709 layer_factory.hpp:77] Creating layer conv10_2_conv10_2_scale_0_split
I0227 14:27:45.196983 11709 net.cpp:100] Creating Layer conv10_2_conv10_2_scale_0_split
I0227 14:27:45.196988 11709 net.cpp:434] conv10_2_conv10_2_scale_0_split <- conv10_2
I0227 14:27:45.196996 11709 net.cpp:408] conv10_2_conv10_2_scale_0_split -> conv10_2_conv10_2_scale_0_split_0
I0227 14:27:45.197010 11709 net.cpp:408] conv10_2_conv10_2_scale_0_split -> conv10_2_conv10_2_scale_0_split_1
I0227 14:27:45.197018 11709 net.cpp:408] conv10_2_conv10_2_scale_0_split -> conv10_2_conv10_2_scale_0_split_2
I0227 14:27:45.197082 11709 net.cpp:150] Setting up conv10_2_conv10_2_scale_0_split
I0227 14:27:45.197088 11709 net.cpp:157] Top shape: 8 256 1 1 (2048)
I0227 14:27:45.197093 11709 net.cpp:157] Top shape: 8 256 1 1 (2048)
I0227 14:27:45.197098 11709 net.cpp:157] Top shape: 8 256 1 1 (2048)
I0227 14:27:45.197105 11709 net.cpp:165] Memory required for data: 7269826624
I0227 14:27:45.197110 11709 layer_factory.hpp:77] Creating layer conv4_3_norm
I0227 14:27:45.197126 11709 net.cpp:100] Creating Layer conv4_3_norm
I0227 14:27:45.197136 11709 net.cpp:434] conv4_3_norm <- conv4_3_conv4_3_scale_0_split_1
I0227 14:27:45.197144 11709 net.cpp:408] conv4_3_norm -> conv4_3_norm
I0227 14:27:45.197329 11709 net.cpp:150] Setting up conv4_3_norm
I0227 14:27:45.197335 11709 net.cpp:157] Top shape: 8 512 64 64 (16777216)
I0227 14:27:45.197340 11709 net.cpp:165] Memory required for data: 7336935488
I0227 14:27:45.197343 11709 layer_factory.hpp:77] Creating layer conv4_3_norm_conv4_3_norm_0_split
I0227 14:27:45.197350 11709 net.cpp:100] Creating Layer conv4_3_norm_conv4_3_norm_0_split
I0227 14:27:45.197353 11709 net.cpp:434] conv4_3_norm_conv4_3_norm_0_split <- conv4_3_norm
I0227 14:27:45.197360 11709 net.cpp:408] conv4_3_norm_conv4_3_norm_0_split -> conv4_3_norm_conv4_3_norm_0_split_0
I0227 14:27:45.197365 11709 net.cpp:408] conv4_3_norm_conv4_3_norm_0_split -> conv4_3_norm_conv4_3_norm_0_split_1
I0227 14:27:45.197371 11709 net.cpp:408] conv4_3_norm_conv4_3_norm_0_split -> conv4_3_norm_conv4_3_norm_0_split_2
I0227 14:27:45.197461 11709 net.cpp:150] Setting up conv4_3_norm_conv4_3_norm_0_split
I0227 14:27:45.197473 11709 net.cpp:157] Top shape: 8 512 64 64 (16777216)
I0227 14:27:45.197479 11709 net.cpp:157] Top shape: 8 512 64 64 (16777216)
I0227 14:27:45.197486 11709 net.cpp:157] Top shape: 8 512 64 64 (16777216)
I0227 14:27:45.197491 11709 net.cpp:165] Memory required for data: 7538262080
I0227 14:27:45.197495 11709 layer_factory.hpp:77] Creating layer conv4_3_norm_mbox_loc
I0227 14:27:45.197505 11709 net.cpp:100] Creating Layer conv4_3_norm_mbox_loc
I0227 14:27:45.197511 11709 net.cpp:434] conv4_3_norm_mbox_loc <- conv4_3_norm_conv4_3_norm_0_split_0
I0227 14:27:45.197518 11709 net.cpp:408] conv4_3_norm_mbox_loc -> conv4_3_norm_mbox_loc
I0227 14:27:45.199445 11709 net.cpp:150] Setting up conv4_3_norm_mbox_loc
I0227 14:27:45.199457 11709 net.cpp:157] Top shape: 8 16 64 64 (524288)
I0227 14:27:45.199461 11709 net.cpp:165] Memory required for data: 7540359232
I0227 14:27:45.199468 11709 layer_factory.hpp:77] Creating layer conv4_3_norm_mbox_loc_perm
I0227 14:27:45.199476 11709 net.cpp:100] Creating Layer conv4_3_norm_mbox_loc_perm
I0227 14:27:45.199481 11709 net.cpp:434] conv4_3_norm_mbox_loc_perm <- conv4_3_norm_mbox_loc
I0227 14:27:45.199487 11709 net.cpp:408] conv4_3_norm_mbox_loc_perm -> conv4_3_norm_mbox_loc_perm
I0227 14:27:45.199628 11709 net.cpp:150] Setting up conv4_3_norm_mbox_loc_perm
I0227 14:27:45.199635 11709 net.cpp:157] Top shape: 8 64 64 16 (524288)
I0227 14:27:45.199640 11709 net.cpp:165] Memory required for data: 7542456384
I0227 14:27:45.199643 11709 layer_factory.hpp:77] Creating layer conv4_3_norm_mbox_loc_flat
I0227 14:27:45.199651 11709 net.cpp:100] Creating Layer conv4_3_norm_mbox_loc_flat
I0227 14:27:45.199654 11709 net.cpp:434] conv4_3_norm_mbox_loc_flat <- conv4_3_norm_mbox_loc_perm
I0227 14:27:45.199659 11709 net.cpp:408] conv4_3_norm_mbox_loc_flat -> conv4_3_norm_mbox_loc_flat
I0227 14:27:45.199692 11709 net.cpp:150] Setting up conv4_3_norm_mbox_loc_flat
I0227 14:27:45.199700 11709 net.cpp:157] Top shape: 8 65536 (524288)
I0227 14:27:45.199703 11709 net.cpp:165] Memory required for data: 7544553536
I0227 14:27:45.199707 11709 layer_factory.hpp:77] Creating layer conv4_3_norm_mbox_conf
I0227 14:27:45.199717 11709 net.cpp:100] Creating Layer conv4_3_norm_mbox_conf
I0227 14:27:45.199723 11709 net.cpp:434] conv4_3_norm_mbox_conf <- conv4_3_norm_conv4_3_norm_0_split_1
I0227 14:27:45.199730 11709 net.cpp:408] conv4_3_norm_mbox_conf -> conv4_3_norm_mbox_conf
I0227 14:27:45.203754 11709 net.cpp:150] Setting up conv4_3_norm_mbox_conf
I0227 14:27:45.203766 11709 net.cpp:157] Top shape: 8 84 64 64 (2752512)
I0227 14:27:45.203770 11709 net.cpp:165] Memory required for data: 7555563584
I0227 14:27:45.203778 11709 layer_factory.hpp:77] Creating layer conv4_3_norm_mbox_conf_perm
I0227 14:27:45.203783 11709 net.cpp:100] Creating Layer conv4_3_norm_mbox_conf_perm
I0227 14:27:45.203788 11709 net.cpp:434] conv4_3_norm_mbox_conf_perm <- conv4_3_norm_mbox_conf
I0227 14:27:45.203796 11709 net.cpp:408] conv4_3_norm_mbox_conf_perm -> conv4_3_norm_mbox_conf_perm
I0227 14:27:45.203935 11709 net.cpp:150] Setting up conv4_3_norm_mbox_conf_perm
I0227 14:27:45.203943 11709 net.cpp:157] Top shape: 8 64 64 84 (2752512)
I0227 14:27:45.203946 11709 net.cpp:165] Memory required for data: 7566573632
I0227 14:27:45.203951 11709 layer_factory.hpp:77] Creating layer conv4_3_norm_mbox_conf_flat
I0227 14:27:45.203958 11709 net.cpp:100] Creating Layer conv4_3_norm_mbox_conf_flat
I0227 14:27:45.203963 11709 net.cpp:434] conv4_3_norm_mbox_conf_flat <- conv4_3_norm_mbox_conf_perm
I0227 14:27:45.203969 11709 net.cpp:408] conv4_3_norm_mbox_conf_flat -> conv4_3_norm_mbox_conf_flat
I0227 14:27:45.204005 11709 net.cpp:150] Setting up conv4_3_norm_mbox_conf_flat
I0227 14:27:45.204012 11709 net.cpp:157] Top shape: 8 344064 (2752512)
I0227 14:27:45.204016 11709 net.cpp:165] Memory required for data: 7577583680
I0227 14:27:45.204020 11709 layer_factory.hpp:77] Creating layer conv4_3_norm_mbox_priorbox
I0227 14:27:45.204027 11709 net.cpp:100] Creating Layer conv4_3_norm_mbox_priorbox
I0227 14:27:45.204043 11709 net.cpp:434] conv4_3_norm_mbox_priorbox <- conv4_3_norm_conv4_3_norm_0_split_2
I0227 14:27:45.204051 11709 net.cpp:434] conv4_3_norm_mbox_priorbox <- data_data_0_split_1
I0227 14:27:45.204061 11709 net.cpp:408] conv4_3_norm_mbox_priorbox -> conv4_3_norm_mbox_priorbox
I0227 14:27:45.204105 11709 net.cpp:150] Setting up conv4_3_norm_mbox_priorbox
I0227 14:27:45.204114 11709 net.cpp:157] Top shape: 1 2 65536 (131072)
I0227 14:27:45.204120 11709 net.cpp:165] Memory required for data: 7578107968
I0227 14:27:45.204125 11709 layer_factory.hpp:77] Creating layer fc7_mbox_loc
I0227 14:27:45.204138 11709 net.cpp:100] Creating Layer fc7_mbox_loc
I0227 14:27:45.204144 11709 net.cpp:434] fc7_mbox_loc <- fc7_fc7_scale_0_split_1
I0227 14:27:45.204154 11709 net.cpp:408] fc7_mbox_loc -> fc7_mbox_loc
I0227 14:27:45.206696 11709 net.cpp:150] Setting up fc7_mbox_loc
I0227 14:27:45.206709 11709 net.cpp:157] Top shape: 8 24 32 32 (196608)
I0227 14:27:45.206713 11709 net.cpp:165] Memory required for data: 7578894400
I0227 14:27:45.206719 11709 layer_factory.hpp:77] Creating layer fc7_mbox_loc_perm
I0227 14:27:45.206727 11709 net.cpp:100] Creating Layer fc7_mbox_loc_perm
I0227 14:27:45.206733 11709 net.cpp:434] fc7_mbox_loc_perm <- fc7_mbox_loc
I0227 14:27:45.206742 11709 net.cpp:408] fc7_mbox_loc_perm -> fc7_mbox_loc_perm
I0227 14:27:45.206888 11709 net.cpp:150] Setting up fc7_mbox_loc_perm
I0227 14:27:45.206897 11709 net.cpp:157] Top shape: 8 32 32 24 (196608)
I0227 14:27:45.206900 11709 net.cpp:165] Memory required for data: 7579680832
I0227 14:27:45.206904 11709 layer_factory.hpp:77] Creating layer fc7_mbox_loc_flat
I0227 14:27:45.206909 11709 net.cpp:100] Creating Layer fc7_mbox_loc_flat
I0227 14:27:45.206912 11709 net.cpp:434] fc7_mbox_loc_flat <- fc7_mbox_loc_perm
I0227 14:27:45.206918 11709 net.cpp:408] fc7_mbox_loc_flat -> fc7_mbox_loc_flat
I0227 14:27:45.206950 11709 net.cpp:150] Setting up fc7_mbox_loc_flat
I0227 14:27:45.206959 11709 net.cpp:157] Top shape: 8 24576 (196608)
I0227 14:27:45.206962 11709 net.cpp:165] Memory required for data: 7580467264
I0227 14:27:45.206965 11709 layer_factory.hpp:77] Creating layer fc7_mbox_conf
I0227 14:27:45.206975 11709 net.cpp:100] Creating Layer fc7_mbox_conf
I0227 14:27:45.206981 11709 net.cpp:434] fc7_mbox_conf <- fc7_fc7_scale_0_split_2
I0227 14:27:45.206990 11709 net.cpp:408] fc7_mbox_conf -> fc7_mbox_conf
I0227 14:27:45.217718 11709 net.cpp:150] Setting up fc7_mbox_conf
I0227 14:27:45.217731 11709 net.cpp:157] Top shape: 8 126 32 32 (1032192)
I0227 14:27:45.217736 11709 net.cpp:165] Memory required for data: 7584596032
I0227 14:27:45.217741 11709 layer_factory.hpp:77] Creating layer fc7_mbox_conf_perm
I0227 14:27:45.217749 11709 net.cpp:100] Creating Layer fc7_mbox_conf_perm
I0227 14:27:45.217754 11709 net.cpp:434] fc7_mbox_conf_perm <- fc7_mbox_conf
I0227 14:27:45.217762 11709 net.cpp:408] fc7_mbox_conf_perm -> fc7_mbox_conf_perm
I0227 14:27:45.217906 11709 net.cpp:150] Setting up fc7_mbox_conf_perm
I0227 14:27:45.217914 11709 net.cpp:157] Top shape: 8 32 32 126 (1032192)
I0227 14:27:45.217919 11709 net.cpp:165] Memory required for data: 7588724800
I0227 14:27:45.217922 11709 layer_factory.hpp:77] Creating layer fc7_mbox_conf_flat
I0227 14:27:45.217927 11709 net.cpp:100] Creating Layer fc7_mbox_conf_flat
I0227 14:27:45.217934 11709 net.cpp:434] fc7_mbox_conf_flat <- fc7_mbox_conf_perm
I0227 14:27:45.217939 11709 net.cpp:408] fc7_mbox_conf_flat -> fc7_mbox_conf_flat
I0227 14:27:45.217974 11709 net.cpp:150] Setting up fc7_mbox_conf_flat
I0227 14:27:45.217981 11709 net.cpp:157] Top shape: 8 129024 (1032192)
I0227 14:27:45.217985 11709 net.cpp:165] Memory required for data: 7592853568
I0227 14:27:45.217988 11709 layer_factory.hpp:77] Creating layer fc7_mbox_priorbox
I0227 14:27:45.217995 11709 net.cpp:100] Creating Layer fc7_mbox_priorbox
I0227 14:27:45.218000 11709 net.cpp:434] fc7_mbox_priorbox <- fc7_fc7_scale_0_split_3
I0227 14:27:45.218006 11709 net.cpp:434] fc7_mbox_priorbox <- data_data_0_split_2
I0227 14:27:45.218024 11709 net.cpp:408] fc7_mbox_priorbox -> fc7_mbox_priorbox
I0227 14:27:45.218061 11709 net.cpp:150] Setting up fc7_mbox_priorbox
I0227 14:27:45.218075 11709 net.cpp:157] Top shape: 1 2 24576 (49152)
I0227 14:27:45.218080 11709 net.cpp:165] Memory required for data: 7593050176
I0227 14:27:45.218086 11709 layer_factory.hpp:77] Creating layer conv6_2_mbox_loc
I0227 14:27:45.218094 11709 net.cpp:100] Creating Layer conv6_2_mbox_loc
I0227 14:27:45.218106 11709 net.cpp:434] conv6_2_mbox_loc <- conv6_2_conv6_2_scale_0_split_1
I0227 14:27:45.218113 11709 net.cpp:408] conv6_2_mbox_loc -> conv6_2_mbox_loc
I0227 14:27:45.220214 11709 net.cpp:150] Setting up conv6_2_mbox_loc
I0227 14:27:45.220227 11709 net.cpp:157] Top shape: 8 24 16 16 (49152)
I0227 14:27:45.220230 11709 net.cpp:165] Memory required for data: 7593246784
I0227 14:27:45.220237 11709 layer_factory.hpp:77] Creating layer conv6_2_mbox_loc_perm
I0227 14:27:45.220247 11709 net.cpp:100] Creating Layer conv6_2_mbox_loc_perm
I0227 14:27:45.220252 11709 net.cpp:434] conv6_2_mbox_loc_perm <- conv6_2_mbox_loc
I0227 14:27:45.220259 11709 net.cpp:408] conv6_2_mbox_loc_perm -> conv6_2_mbox_loc_perm
I0227 14:27:45.220396 11709 net.cpp:150] Setting up conv6_2_mbox_loc_perm
I0227 14:27:45.220404 11709 net.cpp:157] Top shape: 8 16 16 24 (49152)
I0227 14:27:45.220407 11709 net.cpp:165] Memory required for data: 7593443392
I0227 14:27:45.220410 11709 layer_factory.hpp:77] Creating layer conv6_2_mbox_loc_flat
I0227 14:27:45.220417 11709 net.cpp:100] Creating Layer conv6_2_mbox_loc_flat
I0227 14:27:45.220422 11709 net.cpp:434] conv6_2_mbox_loc_flat <- conv6_2_mbox_loc_perm
I0227 14:27:45.220428 11709 net.cpp:408] conv6_2_mbox_loc_flat -> conv6_2_mbox_loc_flat
I0227 14:27:45.220458 11709 net.cpp:150] Setting up conv6_2_mbox_loc_flat
I0227 14:27:45.220468 11709 net.cpp:157] Top shape: 8 6144 (49152)
I0227 14:27:45.220471 11709 net.cpp:165] Memory required for data: 7593640000
I0227 14:27:45.220477 11709 layer_factory.hpp:77] Creating layer conv6_2_mbox_conf
I0227 14:27:45.220487 11709 net.cpp:100] Creating Layer conv6_2_mbox_conf
I0227 14:27:45.220495 11709 net.cpp:434] conv6_2_mbox_conf <- conv6_2_conv6_2_scale_0_split_2
I0227 14:27:45.220502 11709 net.cpp:408] conv6_2_mbox_conf -> conv6_2_mbox_conf
I0227 14:27:45.225361 11709 net.cpp:150] Setting up conv6_2_mbox_conf
I0227 14:27:45.225375 11709 net.cpp:157] Top shape: 8 126 16 16 (258048)
I0227 14:27:45.225380 11709 net.cpp:165] Memory required for data: 7594672192
I0227 14:27:45.225388 11709 layer_factory.hpp:77] Creating layer conv6_2_mbox_conf_perm
I0227 14:27:45.225394 11709 net.cpp:100] Creating Layer conv6_2_mbox_conf_perm
I0227 14:27:45.225401 11709 net.cpp:434] conv6_2_mbox_conf_perm <- conv6_2_mbox_conf
I0227 14:27:45.225409 11709 net.cpp:408] conv6_2_mbox_conf_perm -> conv6_2_mbox_conf_perm
I0227 14:27:45.225548 11709 net.cpp:150] Setting up conv6_2_mbox_conf_perm
I0227 14:27:45.225556 11709 net.cpp:157] Top shape: 8 16 16 126 (258048)
I0227 14:27:45.225560 11709 net.cpp:165] Memory required for data: 7595704384
I0227 14:27:45.225564 11709 layer_factory.hpp:77] Creating layer conv6_2_mbox_conf_flat
I0227 14:27:45.225572 11709 net.cpp:100] Creating Layer conv6_2_mbox_conf_flat
I0227 14:27:45.225576 11709 net.cpp:434] conv6_2_mbox_conf_flat <- conv6_2_mbox_conf_perm
I0227 14:27:45.225584 11709 net.cpp:408] conv6_2_mbox_conf_flat -> conv6_2_mbox_conf_flat
I0227 14:27:45.225620 11709 net.cpp:150] Setting up conv6_2_mbox_conf_flat
I0227 14:27:45.225627 11709 net.cpp:157] Top shape: 8 32256 (258048)
I0227 14:27:45.225630 11709 net.cpp:165] Memory required for data: 7596736576
I0227 14:27:45.225636 11709 layer_factory.hpp:77] Creating layer conv6_2_mbox_priorbox
I0227 14:27:45.225643 11709 net.cpp:100] Creating Layer conv6_2_mbox_priorbox
I0227 14:27:45.225651 11709 net.cpp:434] conv6_2_mbox_priorbox <- conv6_2_conv6_2_scale_0_split_3
I0227 14:27:45.225656 11709 net.cpp:434] conv6_2_mbox_priorbox <- data_data_0_split_3
I0227 14:27:45.225663 11709 net.cpp:408] conv6_2_mbox_priorbox -> conv6_2_mbox_priorbox
I0227 14:27:45.225714 11709 net.cpp:150] Setting up conv6_2_mbox_priorbox
I0227 14:27:45.225726 11709 net.cpp:157] Top shape: 1 2 6144 (12288)
I0227 14:27:45.225730 11709 net.cpp:165] Memory required for data: 7596785728
I0227 14:27:45.225734 11709 layer_factory.hpp:77] Creating layer conv7_2_mbox_loc
I0227 14:27:45.225744 11709 net.cpp:100] Creating Layer conv7_2_mbox_loc
I0227 14:27:45.225749 11709 net.cpp:434] conv7_2_mbox_loc <- conv7_2_conv7_2_scale_0_split_1
I0227 14:27:45.225755 11709 net.cpp:408] conv7_2_mbox_loc -> conv7_2_mbox_loc
I0227 14:27:45.227674 11709 net.cpp:150] Setting up conv7_2_mbox_loc
I0227 14:27:45.227686 11709 net.cpp:157] Top shape: 8 24 8 8 (12288)
I0227 14:27:45.227690 11709 net.cpp:165] Memory required for data: 7596834880
I0227 14:27:45.227697 11709 layer_factory.hpp:77] Creating layer conv7_2_mbox_loc_perm
I0227 14:27:45.227705 11709 net.cpp:100] Creating Layer conv7_2_mbox_loc_perm
I0227 14:27:45.227711 11709 net.cpp:434] conv7_2_mbox_loc_perm <- conv7_2_mbox_loc
I0227 14:27:45.227720 11709 net.cpp:408] conv7_2_mbox_loc_perm -> conv7_2_mbox_loc_perm
I0227 14:27:45.227864 11709 net.cpp:150] Setting up conv7_2_mbox_loc_perm
I0227 14:27:45.227871 11709 net.cpp:157] Top shape: 8 8 8 24 (12288)
I0227 14:27:45.227875 11709 net.cpp:165] Memory required for data: 7596884032
I0227 14:27:45.227880 11709 layer_factory.hpp:77] Creating layer conv7_2_mbox_loc_flat
I0227 14:27:45.227885 11709 net.cpp:100] Creating Layer conv7_2_mbox_loc_flat
I0227 14:27:45.227890 11709 net.cpp:434] conv7_2_mbox_loc_flat <- conv7_2_mbox_loc_perm
I0227 14:27:45.227897 11709 net.cpp:408] conv7_2_mbox_loc_flat -> conv7_2_mbox_loc_flat
I0227 14:27:45.227931 11709 net.cpp:150] Setting up conv7_2_mbox_loc_flat
I0227 14:27:45.227938 11709 net.cpp:157] Top shape: 8 1536 (12288)
I0227 14:27:45.227941 11709 net.cpp:165] Memory required for data: 7596933184
I0227 14:27:45.227946 11709 layer_factory.hpp:77] Creating layer conv7_2_mbox_conf
I0227 14:27:45.227954 11709 net.cpp:100] Creating Layer conv7_2_mbox_conf
I0227 14:27:45.227960 11709 net.cpp:434] conv7_2_mbox_conf <- conv7_2_conv7_2_scale_0_split_2
I0227 14:27:45.227967 11709 net.cpp:408] conv7_2_mbox_conf -> conv7_2_mbox_conf
I0227 14:27:45.234398 11709 net.cpp:150] Setting up conv7_2_mbox_conf
I0227 14:27:45.234411 11709 net.cpp:157] Top shape: 8 126 8 8 (64512)
I0227 14:27:45.234414 11709 net.cpp:165] Memory required for data: 7597191232
I0227 14:27:45.234421 11709 layer_factory.hpp:77] Creating layer conv7_2_mbox_conf_perm
I0227 14:27:45.234431 11709 net.cpp:100] Creating Layer conv7_2_mbox_conf_perm
I0227 14:27:45.234434 11709 net.cpp:434] conv7_2_mbox_conf_perm <- conv7_2_mbox_conf
I0227 14:27:45.234441 11709 net.cpp:408] conv7_2_mbox_conf_perm -> conv7_2_mbox_conf_perm
I0227 14:27:45.234588 11709 net.cpp:150] Setting up conv7_2_mbox_conf_perm
I0227 14:27:45.234598 11709 net.cpp:157] Top shape: 8 8 8 126 (64512)
I0227 14:27:45.234601 11709 net.cpp:165] Memory required for data: 7597449280
I0227 14:27:45.234606 11709 layer_factory.hpp:77] Creating layer conv7_2_mbox_conf_flat
I0227 14:27:45.234612 11709 net.cpp:100] Creating Layer conv7_2_mbox_conf_flat
I0227 14:27:45.234622 11709 net.cpp:434] conv7_2_mbox_conf_flat <- conv7_2_mbox_conf_perm
I0227 14:27:45.234629 11709 net.cpp:408] conv7_2_mbox_conf_flat -> conv7_2_mbox_conf_flat
I0227 14:27:45.234665 11709 net.cpp:150] Setting up conv7_2_mbox_conf_flat
I0227 14:27:45.234673 11709 net.cpp:157] Top shape: 8 8064 (64512)
I0227 14:27:45.234676 11709 net.cpp:165] Memory required for data: 7597707328
I0227 14:27:45.234681 11709 layer_factory.hpp:77] Creating layer conv7_2_mbox_priorbox
I0227 14:27:45.234690 11709 net.cpp:100] Creating Layer conv7_2_mbox_priorbox
I0227 14:27:45.234696 11709 net.cpp:434] conv7_2_mbox_priorbox <- conv7_2_conv7_2_scale_0_split_3
I0227 14:27:45.234704 11709 net.cpp:434] conv7_2_mbox_priorbox <- data_data_0_split_4
I0227 14:27:45.234710 11709 net.cpp:408] conv7_2_mbox_priorbox -> conv7_2_mbox_priorbox
I0227 14:27:45.234746 11709 net.cpp:150] Setting up conv7_2_mbox_priorbox
I0227 14:27:45.234752 11709 net.cpp:157] Top shape: 1 2 1536 (3072)
I0227 14:27:45.234771 11709 net.cpp:165] Memory required for data: 7597719616
I0227 14:27:45.234776 11709 layer_factory.hpp:77] Creating layer conv8_2_mbox_loc
I0227 14:27:45.234789 11709 net.cpp:100] Creating Layer conv8_2_mbox_loc
I0227 14:27:45.234798 11709 net.cpp:434] conv8_2_mbox_loc <- conv8_2_conv8_2_scale_0_split_1
I0227 14:27:45.234809 11709 net.cpp:408] conv8_2_mbox_loc -> conv8_2_mbox_loc
I0227 14:27:45.236344 11709 net.cpp:150] Setting up conv8_2_mbox_loc
I0227 14:27:45.236356 11709 net.cpp:157] Top shape: 8 24 4 4 (3072)
I0227 14:27:45.236359 11709 net.cpp:165] Memory required for data: 7597731904
I0227 14:27:45.236368 11709 layer_factory.hpp:77] Creating layer conv8_2_mbox_loc_perm
I0227 14:27:45.236378 11709 net.cpp:100] Creating Layer conv8_2_mbox_loc_perm
I0227 14:27:45.236387 11709 net.cpp:434] conv8_2_mbox_loc_perm <- conv8_2_mbox_loc
I0227 14:27:45.236392 11709 net.cpp:408] conv8_2_mbox_loc_perm -> conv8_2_mbox_loc_perm
I0227 14:27:45.236536 11709 net.cpp:150] Setting up conv8_2_mbox_loc_perm
I0227 14:27:45.236543 11709 net.cpp:157] Top shape: 8 4 4 24 (3072)
I0227 14:27:45.236547 11709 net.cpp:165] Memory required for data: 7597744192
I0227 14:27:45.236551 11709 layer_factory.hpp:77] Creating layer conv8_2_mbox_loc_flat
I0227 14:27:45.236557 11709 net.cpp:100] Creating Layer conv8_2_mbox_loc_flat
I0227 14:27:45.236562 11709 net.cpp:434] conv8_2_mbox_loc_flat <- conv8_2_mbox_loc_perm
I0227 14:27:45.236568 11709 net.cpp:408] conv8_2_mbox_loc_flat -> conv8_2_mbox_loc_flat
I0227 14:27:45.236601 11709 net.cpp:150] Setting up conv8_2_mbox_loc_flat
I0227 14:27:45.236609 11709 net.cpp:157] Top shape: 8 384 (3072)
I0227 14:27:45.236613 11709 net.cpp:165] Memory required for data: 7597756480
I0227 14:27:45.236615 11709 layer_factory.hpp:77] Creating layer conv8_2_mbox_conf
I0227 14:27:45.236624 11709 net.cpp:100] Creating Layer conv8_2_mbox_conf
I0227 14:27:45.236630 11709 net.cpp:434] conv8_2_mbox_conf <- conv8_2_conv8_2_scale_0_split_2
I0227 14:27:45.236637 11709 net.cpp:408] conv8_2_mbox_conf -> conv8_2_mbox_conf
I0227 14:27:45.240303 11709 net.cpp:150] Setting up conv8_2_mbox_conf
I0227 14:27:45.240314 11709 net.cpp:157] Top shape: 8 126 4 4 (16128)
I0227 14:27:45.240319 11709 net.cpp:165] Memory required for data: 7597820992
I0227 14:27:45.240324 11709 layer_factory.hpp:77] Creating layer conv8_2_mbox_conf_perm
I0227 14:27:45.240334 11709 net.cpp:100] Creating Layer conv8_2_mbox_conf_perm
I0227 14:27:45.240339 11709 net.cpp:434] conv8_2_mbox_conf_perm <- conv8_2_mbox_conf
I0227 14:27:45.240346 11709 net.cpp:408] conv8_2_mbox_conf_perm -> conv8_2_mbox_conf_perm
I0227 14:27:45.240494 11709 net.cpp:150] Setting up conv8_2_mbox_conf_perm
I0227 14:27:45.240502 11709 net.cpp:157] Top shape: 8 4 4 126 (16128)
I0227 14:27:45.240505 11709 net.cpp:165] Memory required for data: 7597885504
I0227 14:27:45.240509 11709 layer_factory.hpp:77] Creating layer conv8_2_mbox_conf_flat
I0227 14:27:45.240516 11709 net.cpp:100] Creating Layer conv8_2_mbox_conf_flat
I0227 14:27:45.240523 11709 net.cpp:434] conv8_2_mbox_conf_flat <- conv8_2_mbox_conf_perm
I0227 14:27:45.240528 11709 net.cpp:408] conv8_2_mbox_conf_flat -> conv8_2_mbox_conf_flat
I0227 14:27:45.240564 11709 net.cpp:150] Setting up conv8_2_mbox_conf_flat
I0227 14:27:45.240571 11709 net.cpp:157] Top shape: 8 2016 (16128)
I0227 14:27:45.240573 11709 net.cpp:165] Memory required for data: 7597950016
I0227 14:27:45.240577 11709 layer_factory.hpp:77] Creating layer conv8_2_mbox_priorbox
I0227 14:27:45.240586 11709 net.cpp:100] Creating Layer conv8_2_mbox_priorbox
I0227 14:27:45.240591 11709 net.cpp:434] conv8_2_mbox_priorbox <- conv8_2_conv8_2_scale_0_split_3
I0227 14:27:45.240597 11709 net.cpp:434] conv8_2_mbox_priorbox <- data_data_0_split_5
I0227 14:27:45.240603 11709 net.cpp:408] conv8_2_mbox_priorbox -> conv8_2_mbox_priorbox
I0227 14:27:45.240638 11709 net.cpp:150] Setting up conv8_2_mbox_priorbox
I0227 14:27:45.240646 11709 net.cpp:157] Top shape: 1 2 384 (768)
I0227 14:27:45.240650 11709 net.cpp:165] Memory required for data: 7597953088
I0227 14:27:45.240669 11709 layer_factory.hpp:77] Creating layer conv9_2_mbox_loc
I0227 14:27:45.240684 11709 net.cpp:100] Creating Layer conv9_2_mbox_loc
I0227 14:27:45.240689 11709 net.cpp:434] conv9_2_mbox_loc <- conv9_2_conv9_2_scale_0_split_1
I0227 14:27:45.240696 11709 net.cpp:408] conv9_2_mbox_loc -> conv9_2_mbox_loc
I0227 14:27:45.242208 11709 net.cpp:150] Setting up conv9_2_mbox_loc
I0227 14:27:45.242220 11709 net.cpp:157] Top shape: 8 16 2 2 (512)
I0227 14:27:45.242223 11709 net.cpp:165] Memory required for data: 7597955136
I0227 14:27:45.242229 11709 layer_factory.hpp:77] Creating layer conv9_2_mbox_loc_perm
I0227 14:27:45.242238 11709 net.cpp:100] Creating Layer conv9_2_mbox_loc_perm
I0227 14:27:45.242244 11709 net.cpp:434] conv9_2_mbox_loc_perm <- conv9_2_mbox_loc
I0227 14:27:45.242251 11709 net.cpp:408] conv9_2_mbox_loc_perm -> conv9_2_mbox_loc_perm
I0227 14:27:45.242403 11709 net.cpp:150] Setting up conv9_2_mbox_loc_perm
I0227 14:27:45.242410 11709 net.cpp:157] Top shape: 8 2 2 16 (512)
I0227 14:27:45.242414 11709 net.cpp:165] Memory required for data: 7597957184
I0227 14:27:45.242417 11709 layer_factory.hpp:77] Creating layer conv9_2_mbox_loc_flat
I0227 14:27:45.242424 11709 net.cpp:100] Creating Layer conv9_2_mbox_loc_flat
I0227 14:27:45.242429 11709 net.cpp:434] conv9_2_mbox_loc_flat <- conv9_2_mbox_loc_perm
I0227 14:27:45.242436 11709 net.cpp:408] conv9_2_mbox_loc_flat -> conv9_2_mbox_loc_flat
I0227 14:27:45.242471 11709 net.cpp:150] Setting up conv9_2_mbox_loc_flat
I0227 14:27:45.242480 11709 net.cpp:157] Top shape: 8 64 (512)
I0227 14:27:45.242483 11709 net.cpp:165] Memory required for data: 7597959232
I0227 14:27:45.242487 11709 layer_factory.hpp:77] Creating layer conv9_2_mbox_conf
I0227 14:27:45.242501 11709 net.cpp:100] Creating Layer conv9_2_mbox_conf
I0227 14:27:45.242507 11709 net.cpp:434] conv9_2_mbox_conf <- conv9_2_conv9_2_scale_0_split_2
I0227 14:27:45.242516 11709 net.cpp:408] conv9_2_mbox_conf -> conv9_2_mbox_conf
I0227 14:27:45.244957 11709 net.cpp:150] Setting up conv9_2_mbox_conf
I0227 14:27:45.244969 11709 net.cpp:157] Top shape: 8 84 2 2 (2688)
I0227 14:27:45.244972 11709 net.cpp:165] Memory required for data: 7597969984
I0227 14:27:45.244979 11709 layer_factory.hpp:77] Creating layer conv9_2_mbox_conf_perm
I0227 14:27:45.244987 11709 net.cpp:100] Creating Layer conv9_2_mbox_conf_perm
I0227 14:27:45.244992 11709 net.cpp:434] conv9_2_mbox_conf_perm <- conv9_2_mbox_conf
I0227 14:27:45.244999 11709 net.cpp:408] conv9_2_mbox_conf_perm -> conv9_2_mbox_conf_perm
I0227 14:27:45.245141 11709 net.cpp:150] Setting up conv9_2_mbox_conf_perm
I0227 14:27:45.245151 11709 net.cpp:157] Top shape: 8 2 2 84 (2688)
I0227 14:27:45.245153 11709 net.cpp:165] Memory required for data: 7597980736
I0227 14:27:45.245157 11709 layer_factory.hpp:77] Creating layer conv9_2_mbox_conf_flat
I0227 14:27:45.245162 11709 net.cpp:100] Creating Layer conv9_2_mbox_conf_flat
I0227 14:27:45.245170 11709 net.cpp:434] conv9_2_mbox_conf_flat <- conv9_2_mbox_conf_perm
I0227 14:27:45.245177 11709 net.cpp:408] conv9_2_mbox_conf_flat -> conv9_2_mbox_conf_flat
I0227 14:27:45.245213 11709 net.cpp:150] Setting up conv9_2_mbox_conf_flat
I0227 14:27:45.245220 11709 net.cpp:157] Top shape: 8 336 (2688)
I0227 14:27:45.245225 11709 net.cpp:165] Memory required for data: 7597991488
I0227 14:27:45.245229 11709 layer_factory.hpp:77] Creating layer conv9_2_mbox_priorbox
I0227 14:27:45.245237 11709 net.cpp:100] Creating Layer conv9_2_mbox_priorbox
I0227 14:27:45.245244 11709 net.cpp:434] conv9_2_mbox_priorbox <- conv9_2_conv9_2_scale_0_split_3
I0227 14:27:45.245250 11709 net.cpp:434] conv9_2_mbox_priorbox <- data_data_0_split_6
I0227 14:27:45.245257 11709 net.cpp:408] conv9_2_mbox_priorbox -> conv9_2_mbox_priorbox
I0227 14:27:45.245290 11709 net.cpp:150] Setting up conv9_2_mbox_priorbox
I0227 14:27:45.245298 11709 net.cpp:157] Top shape: 1 2 64 (128)
I0227 14:27:45.245301 11709 net.cpp:165] Memory required for data: 7597992000
I0227 14:27:45.245306 11709 layer_factory.hpp:77] Creating layer conv10_2_mbox_loc
I0227 14:27:45.245313 11709 net.cpp:100] Creating Layer conv10_2_mbox_loc
I0227 14:27:45.245332 11709 net.cpp:434] conv10_2_mbox_loc <- conv10_2_conv10_2_scale_0_split_0
I0227 14:27:45.245343 11709 net.cpp:408] conv10_2_mbox_loc -> conv10_2_mbox_loc
I0227 14:27:45.247648 11709 net.cpp:150] Setting up conv10_2_mbox_loc
I0227 14:27:45.247660 11709 net.cpp:157] Top shape: 8 16 1 1 (128)
I0227 14:27:45.247664 11709 net.cpp:165] Memory required for data: 7597992512
I0227 14:27:45.247671 11709 layer_factory.hpp:77] Creating layer conv10_2_mbox_loc_perm
I0227 14:27:45.247678 11709 net.cpp:100] Creating Layer conv10_2_mbox_loc_perm
I0227 14:27:45.247684 11709 net.cpp:434] conv10_2_mbox_loc_perm <- conv10_2_mbox_loc
I0227 14:27:45.247691 11709 net.cpp:408] conv10_2_mbox_loc_perm -> conv10_2_mbox_loc_perm
I0227 14:27:45.247830 11709 net.cpp:150] Setting up conv10_2_mbox_loc_perm
I0227 14:27:45.247838 11709 net.cpp:157] Top shape: 8 1 1 16 (128)
I0227 14:27:45.247840 11709 net.cpp:165] Memory required for data: 7597993024
I0227 14:27:45.247844 11709 layer_factory.hpp:77] Creating layer conv10_2_mbox_loc_flat
I0227 14:27:45.247850 11709 net.cpp:100] Creating Layer conv10_2_mbox_loc_flat
I0227 14:27:45.247855 11709 net.cpp:434] conv10_2_mbox_loc_flat <- conv10_2_mbox_loc_perm
I0227 14:27:45.247864 11709 net.cpp:408] conv10_2_mbox_loc_flat -> conv10_2_mbox_loc_flat
I0227 14:27:45.247898 11709 net.cpp:150] Setting up conv10_2_mbox_loc_flat
I0227 14:27:45.247905 11709 net.cpp:157] Top shape: 8 16 (128)
I0227 14:27:45.247908 11709 net.cpp:165] Memory required for data: 7597993536
I0227 14:27:45.247913 11709 layer_factory.hpp:77] Creating layer conv10_2_mbox_conf
I0227 14:27:45.247923 11709 net.cpp:100] Creating Layer conv10_2_mbox_conf
I0227 14:27:45.247931 11709 net.cpp:434] conv10_2_mbox_conf <- conv10_2_conv10_2_scale_0_split_1
I0227 14:27:45.247941 11709 net.cpp:408] conv10_2_mbox_conf -> conv10_2_mbox_conf
I0227 14:27:45.250393 11709 net.cpp:150] Setting up conv10_2_mbox_conf
I0227 14:27:45.250404 11709 net.cpp:157] Top shape: 8 84 1 1 (672)
I0227 14:27:45.250408 11709 net.cpp:165] Memory required for data: 7597996224
I0227 14:27:45.250414 11709 layer_factory.hpp:77] Creating layer conv10_2_mbox_conf_perm
I0227 14:27:45.250422 11709 net.cpp:100] Creating Layer conv10_2_mbox_conf_perm
I0227 14:27:45.250427 11709 net.cpp:434] conv10_2_mbox_conf_perm <- conv10_2_mbox_conf
I0227 14:27:45.250434 11709 net.cpp:408] conv10_2_mbox_conf_perm -> conv10_2_mbox_conf_perm
I0227 14:27:45.250581 11709 net.cpp:150] Setting up conv10_2_mbox_conf_perm
I0227 14:27:45.250587 11709 net.cpp:157] Top shape: 8 1 1 84 (672)
I0227 14:27:45.250591 11709 net.cpp:165] Memory required for data: 7597998912
I0227 14:27:45.250596 11709 layer_factory.hpp:77] Creating layer conv10_2_mbox_conf_flat
I0227 14:27:45.250600 11709 net.cpp:100] Creating Layer conv10_2_mbox_conf_flat
I0227 14:27:45.250604 11709 net.cpp:434] conv10_2_mbox_conf_flat <- conv10_2_mbox_conf_perm
I0227 14:27:45.250612 11709 net.cpp:408] conv10_2_mbox_conf_flat -> conv10_2_mbox_conf_flat
I0227 14:27:45.250649 11709 net.cpp:150] Setting up conv10_2_mbox_conf_flat
I0227 14:27:45.250656 11709 net.cpp:157] Top shape: 8 84 (672)
I0227 14:27:45.250660 11709 net.cpp:165] Memory required for data: 7598001600
I0227 14:27:45.250664 11709 layer_factory.hpp:77] Creating layer conv10_2_mbox_priorbox
I0227 14:27:45.250671 11709 net.cpp:100] Creating Layer conv10_2_mbox_priorbox
I0227 14:27:45.250679 11709 net.cpp:434] conv10_2_mbox_priorbox <- conv10_2_conv10_2_scale_0_split_2
I0227 14:27:45.250686 11709 net.cpp:434] conv10_2_mbox_priorbox <- data_data_0_split_7
I0227 14:27:45.250694 11709 net.cpp:408] conv10_2_mbox_priorbox -> conv10_2_mbox_priorbox
I0227 14:27:45.250735 11709 net.cpp:150] Setting up conv10_2_mbox_priorbox
I0227 14:27:45.250741 11709 net.cpp:157] Top shape: 1 2 16 (32)
I0227 14:27:45.250748 11709 net.cpp:165] Memory required for data: 7598001728
I0227 14:27:45.250752 11709 layer_factory.hpp:77] Creating layer mbox_loc
I0227 14:27:45.250762 11709 net.cpp:100] Creating Layer mbox_loc
I0227 14:27:45.250768 11709 net.cpp:434] mbox_loc <- conv4_3_norm_mbox_loc_flat
I0227 14:27:45.250785 11709 net.cpp:434] mbox_loc <- fc7_mbox_loc_flat
I0227 14:27:45.250792 11709 net.cpp:434] mbox_loc <- conv6_2_mbox_loc_flat
I0227 14:27:45.250800 11709 net.cpp:434] mbox_loc <- conv7_2_mbox_loc_flat
I0227 14:27:45.250804 11709 net.cpp:434] mbox_loc <- conv8_2_mbox_loc_flat
I0227 14:27:45.250808 11709 net.cpp:434] mbox_loc <- conv9_2_mbox_loc_flat
I0227 14:27:45.250815 11709 net.cpp:434] mbox_loc <- conv10_2_mbox_loc_flat
I0227 14:27:45.250821 11709 net.cpp:408] mbox_loc -> mbox_loc
I0227 14:27:45.250864 11709 net.cpp:150] Setting up mbox_loc
I0227 14:27:45.250874 11709 net.cpp:157] Top shape: 8 98256 (786048)
I0227 14:27:45.250879 11709 net.cpp:165] Memory required for data: 7601145920
I0227 14:27:45.250882 11709 layer_factory.hpp:77] Creating layer mbox_conf
I0227 14:27:45.250887 11709 net.cpp:100] Creating Layer mbox_conf
I0227 14:27:45.250891 11709 net.cpp:434] mbox_conf <- conv4_3_norm_mbox_conf_flat
I0227 14:27:45.250897 11709 net.cpp:434] mbox_conf <- fc7_mbox_conf_flat
I0227 14:27:45.250902 11709 net.cpp:434] mbox_conf <- conv6_2_mbox_conf_flat
I0227 14:27:45.250906 11709 net.cpp:434] mbox_conf <- conv7_2_mbox_conf_flat
I0227 14:27:45.250910 11709 net.cpp:434] mbox_conf <- conv8_2_mbox_conf_flat
I0227 14:27:45.250916 11709 net.cpp:434] mbox_conf <- conv9_2_mbox_conf_flat
I0227 14:27:45.250923 11709 net.cpp:434] mbox_conf <- conv10_2_mbox_conf_flat
I0227 14:27:45.250929 11709 net.cpp:408] mbox_conf -> mbox_conf
I0227 14:27:45.250963 11709 net.cpp:150] Setting up mbox_conf
I0227 14:27:45.250972 11709 net.cpp:157] Top shape: 8 515844 (4126752)
I0227 14:27:45.250978 11709 net.cpp:165] Memory required for data: 7617652928
I0227 14:27:45.250982 11709 layer_factory.hpp:77] Creating layer mbox_priorbox
I0227 14:27:45.250993 11709 net.cpp:100] Creating Layer mbox_priorbox
I0227 14:27:45.250996 11709 net.cpp:434] mbox_priorbox <- conv4_3_norm_mbox_priorbox
I0227 14:27:45.251008 11709 net.cpp:434] mbox_priorbox <- fc7_mbox_priorbox
I0227 14:27:45.251010 11709 net.cpp:434] mbox_priorbox <- conv6_2_mbox_priorbox
I0227 14:27:45.251016 11709 net.cpp:434] mbox_priorbox <- conv7_2_mbox_priorbox
I0227 14:27:45.251020 11709 net.cpp:434] mbox_priorbox <- conv8_2_mbox_priorbox
I0227 14:27:45.251026 11709 net.cpp:434] mbox_priorbox <- conv9_2_mbox_priorbox
I0227 14:27:45.251031 11709 net.cpp:434] mbox_priorbox <- conv10_2_mbox_priorbox
I0227 14:27:45.251039 11709 net.cpp:408] mbox_priorbox -> mbox_priorbox
I0227 14:27:45.251070 11709 net.cpp:150] Setting up mbox_priorbox
I0227 14:27:45.251081 11709 net.cpp:157] Top shape: 1 2 98256 (196512)
I0227 14:27:45.251087 11709 net.cpp:165] Memory required for data: 7618438976
I0227 14:27:45.251091 11709 layer_factory.hpp:77] Creating layer mbox_conf_reshape
I0227 14:27:45.251102 11709 net.cpp:100] Creating Layer mbox_conf_reshape
I0227 14:27:45.251111 11709 net.cpp:434] mbox_conf_reshape <- mbox_conf
I0227 14:27:45.251121 11709 net.cpp:408] mbox_conf_reshape -> mbox_conf_reshape
I0227 14:27:45.251157 11709 net.cpp:150] Setting up mbox_conf_reshape
I0227 14:27:45.251163 11709 net.cpp:157] Top shape: 8 24564 21 (4126752)
I0227 14:27:45.251168 11709 net.cpp:165] Memory required for data: 7634945984
I0227 14:27:45.251171 11709 layer_factory.hpp:77] Creating layer mbox_conf_softmax
I0227 14:27:45.251178 11709 net.cpp:100] Creating Layer mbox_conf_softmax
I0227 14:27:45.251186 11709 net.cpp:434] mbox_conf_softmax <- mbox_conf_reshape
I0227 14:27:45.251195 11709 net.cpp:408] mbox_conf_softmax -> mbox_conf_softmax
I0227 14:27:45.251523 11709 net.cpp:150] Setting up mbox_conf_softmax
I0227 14:27:45.251534 11709 net.cpp:157] Top shape: 8 24564 21 (4126752)
I0227 14:27:45.251539 11709 net.cpp:165] Memory required for data: 7651452992
I0227 14:27:45.251547 11709 layer_factory.hpp:77] Creating layer mbox_conf_flatten
I0227 14:27:45.251559 11709 net.cpp:100] Creating Layer mbox_conf_flatten
I0227 14:27:45.251564 11709 net.cpp:434] mbox_conf_flatten <- mbox_conf_softmax
I0227 14:27:45.251574 11709 net.cpp:408] mbox_conf_flatten -> mbox_conf_flatten
I0227 14:27:45.251634 11709 net.cpp:150] Setting up mbox_conf_flatten
I0227 14:27:45.251643 11709 net.cpp:157] Top shape: 8 515844 (4126752)
I0227 14:27:45.251647 11709 net.cpp:165] Memory required for data: 7667960000
I0227 14:27:45.251652 11709 layer_factory.hpp:77] Creating layer detection_out
I0227 14:27:45.251670 11709 net.cpp:100] Creating Layer detection_out
I0227 14:27:45.251678 11709 net.cpp:434] detection_out <- mbox_loc
I0227 14:27:45.251684 11709 net.cpp:434] detection_out <- mbox_conf_flatten
I0227 14:27:45.251690 11709 net.cpp:434] detection_out <- mbox_priorbox
I0227 14:27:45.251703 11709 net.cpp:408] detection_out -> detection_out
I0227 14:27:45.252970 11709 net.cpp:150] Setting up detection_out
I0227 14:27:45.252979 11709 net.cpp:157] Top shape: 1 1 1 7 (7)
I0227 14:27:45.252984 11709 net.cpp:165] Memory required for data: 7667960028
I0227 14:27:45.252988 11709 layer_factory.hpp:77] Creating layer detection_eval
I0227 14:27:45.252997 11709 net.cpp:100] Creating Layer detection_eval
I0227 14:27:45.253005 11709 net.cpp:434] detection_eval <- detection_out
I0227 14:27:45.253010 11709 net.cpp:434] detection_eval <- label
I0227 14:27:45.253016 11709 net.cpp:408] detection_eval -> detection_eval
I0227 14:27:45.253803 11709 net.cpp:150] Setting up detection_eval
I0227 14:27:45.253810 11709 net.cpp:157] Top shape: 1 1 21 5 (105)
I0227 14:27:45.253813 11709 net.cpp:165] Memory required for data: 7667960448
I0227 14:27:45.253818 11709 net.cpp:228] detection_eval does not need backward computation.
I0227 14:27:45.253823 11709 net.cpp:228] detection_out does not need backward computation.
I0227 14:27:45.253826 11709 net.cpp:228] mbox_conf_flatten does not need backward computation.
I0227 14:27:45.253830 11709 net.cpp:228] mbox_conf_softmax does not need backward computation.
…
