…
      sampler {
        min_scale: 0.3
        max_scale: 1
        min_aspect_ratio: 0.5
        max_aspect_ratio: 2
      }
      sample_constraint {
        min_jaccard_overlap: 0.9
      }
      max_sample: 1
      max_trials: 50
    }
    batch_sampler {
      sampler {
        min_scale: 0.3
        max_scale: 1
        min_aspect_ratio: 0.5
        max_aspect_ratio: 2
      }
      sample_constraint {
        max_jaccard_overlap: 1
      }
      max_sample: 1
      max_trials: 50
    }
    label_map_file: "data/VOC0712/labelmap_voc.prototxt"
  }
}
layer {
  name: "conv1_1"
  type: "Convolution"
  bottom: "data"
  top: "conv1_1"
  param {
    lr_mult: 1
    decay_mult: 1
  }
  param {
    lr_mult: 2
    decay_mult: 0
  }
  convolution_param {
    num_output: 64
    pad: 1
    kernel_size: 3
    weight_filler {
      type: "xavier"
    }
    bias_filler {
      type: "constant"
      value: 0
    }
  }
}
layer {
  name: "relu1_1"
  type: "ReLU"
  bottom: "conv1_1"
  top: "conv1_1"
}
layer {
  name: "conv1_2"
  type: "Convolution"
  bottom: "conv1_1"
  top: "conv1_2"
  param {
    lr_mult: 1
    decay_mult: 1
  }
  param {
    lr_mult: 2
    decay_mult: 0
  }
  convolution_param {
    num_output: 64
    pad: 1
    kernel_size: 3
    weight_filler {
      type: "xavier"
    }
    bias_filler {
      type: "constant"
      value: 0
    }
  }
}
layer {
  name: "relu1_2"
  type: "ReLU"
  bottom: "conv1_2"
  top: "conv1_2"
}
layer {
  name: "pool1"
  type: "Pooling"
  bottom: "conv1_2"
  top: "pool1"
  pooling_param {
    pool: MAX
    kernel_size: 2
    stride: 2
  }
}
layer {
  name: "conv2_1"
  type: "Convolution"
  bottom: "pool1"
  top: "conv2_1"
  param {
    lr_mult: 1
    decay_mult: 1
  }
  param {
    lr_mult: 2
    decay_mult: 0
  }
  convolution_param {
    num_output: 128
    pad: 1
    kernel_size: 3
    weight_filler {
      type: "xavier"
    }
    bias_filler {
      type: "constant"
      value: 0
    }
  }
}
layer {
  name: "relu2_1"
  type: "ReLU"
  bottom: "conv2_1"
  top: "conv2_1"
}
layer {
  name: "conv2_2"
  type: "Convolution"
  bottom: "conv2_1"
  top: "conv2_2"
  param {
    lr_mult: 1
    decay_mult: 1
  }
  param {
    lr_mult: 2
    decay_mult: 0
  }
  convolution_param {
    num_output: 128
    pad: 1
    kernel_size: 3
    weight_filler {
      type: "xavier"
    }
    bias_filler {
      type: "constant"
      value: 0
    }
  }
}
layer {
  name: "relu2_2"
  type: "ReLU"
  bottom: "conv2_2"
  top: "conv2_2"
}
layer {
  name: "pool2"
  type: "Pooling"
  bottom: "conv2_2"
  top: "pool2"
  pooling_param {
    pool: MAX
    kernel_size: 2
    stride: 2
  }
}
layer {
  name: "conv3_1"
  type: "Convolution"
  bottom: "pool2"
  top: "conv3_1"
  param {
    lr_mult: 1
    decay_mult: 1
  }
  param {
    lr_mult: 2
    decay_mult: 0
  }
  convolution_param {
    num_output: 256
    pad: 1
    kernel_size: 3
    weight_filler {
      type: "xavier"
    }
    bias_filler {
      type: "constant"
      value: 0
    }
  }
}
layer {
  name: "relu3_1"
  type: "ReLU"
  bottom: "conv3_1"
  top: "conv3_1"
}
layer {
  name: "conv3_2"
  type: "Convolution"
  bottom: "conv3_1"
  top: "conv3_2"
  param {
    lr_mult: 1
    decay_mult: 1
  }
  param {
    lr_mult: 2
    decay_mult: 0
  }
  convolution_param {
    num_output: 256
    pad: 1
    kernel_size: 3
    weight_filler {
      type: "xavier"
    }
    bias_filler {
      type: "constant"
      value: 0
    }
  }
}
layer {
  name: "relu3_2"
  type: "ReLU"
  bottom: "conv3_2"
  top: "conv3_2"
}
layer {
  name: "conv3_3"
  type: "Convolution"
  bottom: "conv3_2"
  top: "conv3_3"
  param {
    lr_mult: 1
    decay_mult: 1
  }
  param {
    lr_mult: 2
    decay_mult: 0
  }
  convolution_param {
    num_output: 256
    pad: 1
    kernel_size: 3
    weight_filler {
      type: "xavier"
    }
    bias_filler {
      type: "constant"
      value: 0
    }
  }
}
layer {
  name: "relu3_3"
  type: "ReLU"
  bottom: "conv3_3"
  top: "conv3_3"
}
layer {
  name: "pool3"
  type: "Pooling"
  bottom: "conv3_3"
  top: "pool3"
  pooling_param {
    pool: MAX
    kernel_size: 2
    stride: 2
  }
}
layer {
  name: "conv4_1"
  type: "Convolution"
  bottom: "pool3"
  top: "conv4_1"
  param {
    lr_mult: 1
    decay_mult: 1
  }
  param {
    lr_mult: 2
    decay_mult: 0
  }
  convolution_param {
    num_output: 512
    pad: 1
    kernel_size: 3
    weight_filler {
      type: "xavier"
    }
    bias_filler {
      type: "constant"
      value: 0
    }
  }
}
layer {
  name: "relu4_1"
  type: "ReLU"
  bottom: "conv4_1"
  top: "conv4_1"
}
layer {
  name: "conv4_2"
  type: "Convolution"
  bottom: "conv4_1"
  top: "conv4_2"
  param {
    lr_mult: 1
    decay_mult: 1
  }
  param {
    lr_mult: 2
    decay_mult: 0
  }
  convolution_param {
    num_output: 512
    pad: 1
    kernel_size: 3
    weight_filler {
      type: "xavier"
    }
    bias_filler {
      type: "constant"
      value: 0
    }
  }
}
layer {
  name: "relu4_2"
  type: "ReLU"
  bottom: "conv4_2"
  top: "conv4_2"
}
layer {
  name: "conv4_3"
  type: "Convolution"
  bottom: "conv4_2"
  top: "conv4_3_ori"
  param {
    lr_mult: 1
    decay_mult: 1
  }
  param {
    lr_mult: 2
    decay_mult: 0
  }
  convolution_param {
    num_output: 512
    pad: 1
    kernel_size: 3
    weight_filler {
      type: "xavier"
    }
    bias_filler {
      type: "constant"
      value: 0
    }
  }
}
layer {
  name: "relu4_3"
  type: "ReLU"
  bottom: "conv4_3_ori"
  top: "conv4_3_ori"
}
layer {
  name: "seg_pool4"
  type: "Pooling"
  bottom: "conv4_3_ori"
  top: "seg_pool4"
  pooling_param {
    pool: MAX
    kernel_size: 3
    stride: 1
    pad: 1
  }
}
layer {
  name: "seg5_1"
  type: "Convolution"
  bottom: "seg_pool4"
  top: "seg5_1"
  param {
    lr_mult: 1
    decay_mult: 1
  }
  param {
    lr_mult: 2
    decay_mult: 0
  }
  convolution_param {
    num_output: 512
    pad: 2
    kernel_size: 3
    weight_filler {
      type: "xavier"
    }
    bias_filler {
      type: "constant"
      value: 0
    }
    dilation: 2
  }
}
layer {
  name: "seg_relu5_1"
  type: "ReLU"
  bottom: "seg5_1"
  top: "seg5_1"
}
layer {
  name: "seg5_2"
  type: "Convolution"
  bottom: "seg5_1"
  top: "seg5_2"
  param {
    lr_mult: 1
    decay_mult: 1
  }
  param {
    lr_mult: 2
    decay_mult: 0
  }
  convolution_param {
    num_output: 512
    pad: 2
    kernel_size: 3
    weight_filler {
      type: "xavier"
    }
    bias_filler {
      type: "constant"
      value: 0
    }
    dilation: 2
  }
}
layer {
  name: "seg_relu5_2"
  type: "ReLU"
  bottom: "seg5_2"
  top: "seg5_2"
}
layer {
  name: "seg5_3"
  type: "Convolution"
  bottom: "seg5_2"
  top: "seg5_3"
  param {
    lr_mult: 1
    decay_mult: 1
  }
  param {
    lr_mult: 2
    decay_mult: 0
  }
  convolution_param {
    num_output: 512
    pad: 2
    kernel_size: 3
    weight_filler {
      type: "xavier"
    }
    bias_filler {
      type: "constant"
      value: 0
    }
    dilation: 2
  }
}
layer {
  name: "seg_relu5_3"
  type: "ReLU"
  bottom: "seg5_3"
  top: "seg5_3"
}
layer {
  name: "seg_pool5"
  type: "Pooling"
  bottom: "seg5_3"
  top: "seg_pool5"
  pooling_param {
    pool: MAX
    kernel_size: 3
    stride: 1
    pad: 1
  }
}
layer {
  name: "seg6"
  type: "Convolution"
  bottom: "seg_pool5"
  top: "seg6"
  param {
    lr_mult: 1
    decay_mult: 1
  }
  param {
    lr_mult: 2
    decay_mult: 0
  }
  convolution_param {
    num_output: 1024
    pad: 4
    kernel_size: 3
    weight_filler {
      type: "xavier"
    }
    bias_filler {
      type: "constant"
      value: 0
    }
    dilation: 4
  }
}
layer {
  name: "seg_relu6"
  type: "ReLU"
  bottom: "seg6"
  top: "seg6"
}
layer {
  name: "seg_drop6"
  type: "Dropout"
  bottom: "seg6"
  top: "seg6"
  dropout_param {
    dropout_ratio: 0.5
  }
}
layer {
  name: "seg7"
  type: "Convolution"
  bottom: "seg6"
  top: "seg7"
  param {
    lr_mult: 1
    decay_mult: 1
  }
  param {
    lr_mult: 2
    decay_mult: 0
  }
  convolution_param {
    num_output: 1024
    kernel_size: 1
    weight_filler {
      type: "xavier"
    }
    bias_filler {
      type: "constant"
      value: 0
    }
  }
}
layer {
  name: "seg_relu7"
  type: "ReLU"
  bottom: "seg7"
  top: "seg7"
}
layer {
  name: "seg_drop7"
  type: "Dropout"
  bottom: "seg7"
  top: "seg7d"
  dropout_param {
    dropout_ratio: 0.5
  }
}
layer {
  name: "seg_new"
  type: "Convolution"
  bottom: "seg7d"
  top: "seg"
  param {
    lr_mult: 10
    decay_mult: 1
  }
  param {
    lr_mult: 20
    decay_mult: 0
  }
  convolution_param {
    num_output: 21
    kernel_size: 1
    weight_filler {
      type: "gaussian"
      std: 0.01
    }
    bias_filler {
      type: "constant"
      value: 0
    }
  }
}
layer {
  name: "seg_gt"
  type: "SegGt"
  bottom: "label"
  bottom: "seg"
  top: "seg_gt"
  seggt_param {
    background_label_id: 0
    use_difficult_gt: true
  }
}
layer {
  name: "seg_loss"
  type: "SoftmaxWithLoss"
  bottom: "seg"
  bottom: "seg_gt"
  top: "seg_loss"
  loss_weight: 0.1
  propagate_down: true
  propagate_down: false
  softmax_param {
    axis: 1
  }
}
layer {
  name: "seg_to_det_conv"
  type: "Convolution"
  bottom: "seg7"
  top: "seg_to_det_conv"
  param {
    lr_mult: 1
    decay_mult: 1
  }
  param {
    lr_mult: 2
    decay_mult: 0
  }
  convolution_param {
    num_output: 512
    pad: 0
    kernel_size: 1
    stride: 1
    weight_filler {
      type: "xavier"
    }
    bias_filler {
      type: "constant"
      value: 0
    }
  }
}
layer {
  name: "mult_conv4_3"
  type: "Eltwise"
  bottom: "conv4_3_ori"
  bottom: "seg_to_det_conv"
  top: "conv4_3_t"
  eltwise_param {
    operation: PROD
  }
}
layer {
  name: "conv4_3_s"
  type: "Pooling"
  bottom: "conv4_3_t"
  top: "conv4_3_s"
  pooling_param {
    pool: AVE
    global_pooling: true
  }
}
layer {
  name: "conv4_3_fc1"
  type: "Convolution"
  bottom: "conv4_3_s"
  top: "conv4_3_fc1"
  param {
    lr_mult: 1
    decay_mult: 1
  }
  param {
    lr_mult: 2
    decay_mult: 0
  }
  convolution_param {
    num_output: 128
    kernel_size: 1
    stride: 1
    weight_filler {
      type: "xavier"
    }
    bias_filler {
      type: "constant"
      value: 0
    }
  }
}
layer {
  name: "conv4_3_relu"
  type: "ReLU"
  bottom: "conv4_3_fc1"
  top: "conv4_3_fc1"
}
layer {
  name: "conv4_3_fc2"
  type: "Convolution"
  bottom: "conv4_3_fc1"
  top: "conv4_3_fc2"
  param {
    lr_mult: 1
    decay_mult: 1
  }
  param {
    lr_mult: 2
    decay_mult: 0
  }
  convolution_param {
    num_output: 512
    kernel_size: 1
    stride: 1
    weight_filler {
      type: "xavier"
    }
    bias_filler {
      type: "constant"
      value: 0
    }
  }
}
layer {
  name: "conv4_3_sig"
  type: "Sigmoid"
  bottom: "conv4_3_fc2"
  top: "conv4_3_fc2"
}
layer {
  name: "conv4_3_reshape"
  type: "Reshape"
  bottom: "conv4_3_fc2"
  top: "conv4_3_reshape"
  reshape_param {
    shape {
      dim: 0
      dim: 0
    }
  }
}
layer {
  name: "conv4_3_scale"
  type: "Scale"
  bottom: "conv4_3_t"
  bottom: "conv4_3_reshape"
  top: "conv4_3"
  scale_param {
    axis: 0
    bias_term: false
  }
}
layer {
  name: "pool4"
  type: "Pooling"
  bottom: "conv4_3"
  top: "pool4"
  pooling_param {
    pool: MAX
    kernel_size: 2
    stride: 2
  }
}
layer {
  name: "conv5_1"
  type: "Convolution"
  bottom: "pool4"
  top: "conv5_1"
  param {
    lr_mult: 1
    decay_mult: 1
  }
  param {
    lr_mult: 2
    decay_mult: 0
  }
  convolution_param {
    num_output: 512
    pad: 1
    kernel_size: 3
    weight_filler {
      type: "xavier"
    }
    bias_filler {
      type: "constant"
      value: 0
    }
    dilation: 1
  }
}
layer {
  name: "relu5_1"
  type: "ReLU"
  bottom: "conv5_1"
  top: "conv5_1"
}
layer {
  name: "conv5_2"
  type: "Convolution"
  bottom: "conv5_1"
  top: "conv5_2"
  param {
    lr_mult: 1
    decay_mult: 1
  }
  param {
    lr_mult: 2
    decay_mult: 0
  }
  convolution_param {
    num_output: 512
    pad: 1
    kernel_size: 3
    weight_filler {
      type: "xavier"
    }
    bias_filler {
      type: "constant"
      value: 0
    }
    dilation: 1
  }
}
layer {
  name: "relu5_2"
  type: "ReLU"
  bottom: "conv5_2"
  top: "conv5_2"
}
layer {
  name: "conv5_3"
  type: "Convolution"
  bottom: "conv5_2"
  top: "conv5_3"
  param {
    lr_mult: 1
    decay_mult: 1
  }
  param {
    lr_mult: 2
    decay_mult: 0
  }
  convolution_param {
    num_output: 512
    pad: 1
    kernel_size: 3
    weight_filler {
      type: "xavier"
    }
    bias_filler {
      type: "constant"
      value: 0
    }
    dilation: 1
  }
}
layer {
  name: "relu5_3"
  type: "ReLU"
  bottom: "conv5_3"
  top: "conv5_3"
}
layer {
  name: "pool5"
  type: "Pooling"
  bottom: "conv5_3"
  top: "pool5"
  pooling_param {
    pool: MAX
    kernel_size: 3
    stride: 1
    pad: 1
  }
}
layer {
  name: "fc6"
  type: "Convolution"
  bottom: "pool5"
  top: "fc6"
  param {
    lr_mult: 1
    decay_mult: 1
  }
  param {
    lr_mult: 2
    decay_mult: 0
  }
  convolution_param {
    num_output: 1024
    pad: 6
    kernel_size: 3
    weight_filler {
      type: "xavier"
    }
    bias_filler {
      type: "constant"
      value: 0
    }
    dilation: 6
  }
}
layer {
  name: "relu6"
  type: "ReLU"
  bottom: "fc6"
  top: "fc6"
}
layer {
  name: "fc7"
  type: "Convolution"
  bottom: "fc6"
  top: "fc7_t"
  param {
    lr_mult: 1
    decay_mult: 1
  }
  param {
    lr_mult: 2
    decay_mult: 0
  }
  convolution_param {
    num_output: 1024
    kernel_size: 1
    weight_filler {
      type: "xavier"
    }
    bias_filler {
      type: "constant"
      value: 0
    }
  }
}
layer {
  name: "relu7"
  type: "ReLU"
  bottom: "fc7_t"
  top: "fc7_t"
}
layer {
  name: "fc7_s"
  type: "Pooling"
  bottom: "fc7_t"
  top: "fc7_s"
  pooling_param {
    pool: AVE
    global_pooling: true
  }
}
layer {
  name: "fc7_fc1"
  type: "Convolution"
  bottom: "fc7_s"
  top: "fc7_fc1"
  param {
    lr_mult: 1
    decay_mult: 1
  }
  param {
    lr_mult: 2
    decay_mult: 0
  }
  convolution_param {
    num_output: 256
    kernel_size: 1
    stride: 1
    weight_filler {
      type: "xavier"
    }
    bias_filler {
      type: "constant"
      value: 0
    }
  }
}
layer {
  name: "fc7_relu"
  type: "ReLU"
  bottom: "fc7_fc1"
  top: "fc7_fc1"
}
layer {
  name: "fc7_fc2"
  type: "Convolution"
  bottom: "fc7_fc1"
  top: "fc7_fc2"
  param {
    lr_mult: 1
    decay_mult: 1
  }
  param {
    lr_mult: 2
    decay_mult: 0
  }
  convolution_param {
    num_output: 1024
    kernel_size: 1
    stride: 1
    weight_filler {
      type: "xavier"
    }
    bias_filler {
      type: "constant"
      value: 0
    }
  }
}
layer {
  name: "fc7_sig"
  type: "Sigmoid"
  bottom: "fc7_fc2"
  top: "fc7_fc2"
}
layer {
  name: "fc7_reshape"
  type: "Reshape"
  bottom: "fc7_fc2"
  top: "fc7_reshape"
  reshape_param {
    shape {
      dim: 0
      dim: 0
    }
  }
}
layer {
  name: "fc7_scale"
  type: "Scale"
  bottom: "fc7_t"
  bottom: "fc7_reshape"
  top: "fc7"
  scale_param {
    axis: 0
    bias_term: false
  }
}
layer {
  name: "conv6_1"
  type: "Convolution"
  bottom: "fc7"
  top: "conv6_1"
  param {
    lr_mult: 1
    decay_mult: 1
  }
  param {
    lr_mult: 2
    decay_mult: 0
  }
  convolution_param {
    num_output: 256
    pad: 0
    kernel_size: 1
    stride: 1
    weight_filler {
      type: "xavier"
    }
    bias_filler {
      type: "constant"
      value: 0
    }
  }
}
layer {
  name: "conv6_1_relu"
  type: "ReLU"
  bottom: "conv6_1"
  top: "conv6_1"
}
layer {
  name: "conv6_2"
  type: "Convolution"
  bottom: "conv6_1"
  top: "conv6_2_t"
  param {
    lr_mult: 1
    decay_mult: 1
  }
  param {
    lr_mult: 2
    decay_mult: 0
  }
  convolution_param {
    num_output: 512
    pad: 1
    kernel_size: 3
    stride: 2
    weight_filler {
      type: "xavier"
    }
    bias_filler {
      type: "constant"
      value: 0
    }
  }
}
layer {
  name: "conv6_2_relu"
  type: "ReLU"
  bottom: "conv6_2_t"
  top: "conv6_2_t"
}
layer {
  name: "conv6_2_s"
  type: "Pooling"
  bottom: "conv6_2_t"
  top: "conv6_2_s"
  pooling_param {
    pool: AVE
    global_pooling: true
  }
}
layer {
  name: "conv6_2_fc1"
  type: "Convolution"
  bottom: "conv6_2_s"
  top: "conv6_2_fc1"
  param {
    lr_mult: 1
    decay_mult: 1
  }
  param {
    lr_mult: 2
    decay_mult: 0
  }
  convolution_param {
    num_output: 128
    kernel_size: 1
    stride: 1
    weight_filler {
      type: "xavier"
    }
    bias_filler {
      type: "constant"
      value: 0
    }
  }
}
layer {
  name: "conv6_2_relu"
  type: "ReLU"
  bottom: "conv6_2_fc1"
  top: "conv6_2_fc1"
}
layer {
  name: "conv6_2_fc2"
  type: "Convolution"
  bottom: "conv6_2_fc1"
  top: "conv6_2_fc2"
  param {
    lr_mult: 1
    decay_mult: 1
  }
  param {
    lr_mult: 2
    decay_mult: 0
  }
  convolution_param {
    num_output: 512
    kernel_size: 1
    stride: 1
    weight_filler {
      type: "xavier"
    }
    bias_filler {
      type: "constant"
      value: 0
    }
  }
}
layer {
  name: "conv6_2_sig"
  type: "Sigmoid"
  bottom: "conv6_2_fc2"
  top: "conv6_2_fc2"
}
layer {
  name: "conv6_2_reshape"
  type: "Reshape"
  bottom: "conv6_2_fc2"
  top: "conv6_2_reshape"
  reshape_param {
    shape {
      dim: 0
      dim: 0
    }
  }
}
layer {
  name: "conv6_2_scale"
  type: "Scale"
  bottom: "conv6_2_t"
  bottom: "conv6_2_reshape"
  top: "conv6_2"
  scale_param {
    axis: 0
    bias_term: false
  }
}
layer {
  name: "conv7_1"
  type: "Convolution"
  bottom: "conv6_2"
  top: "conv7_1"
  param {
    lr_mult: 1
    decay_mult: 1
  }
  param {
    lr_mult: 2
    decay_mult: 0
  }
  convolution_param {
    num_output: 128
    pad: 0
    kernel_size: 1
    stride: 1
    weight_filler {
      type: "xavier"
    }
    bias_filler {
      type: "constant"
      value: 0
    }
  }
}
layer {
  name: "conv7_1_relu"
  type: "ReLU"
  bottom: "conv7_1"
  top: "conv7_1"
}
layer {
  name: "conv7_2"
  type: "Convolution"
  bottom: "conv7_1"
  top: "conv7_2_t"
  param {
    lr_mult: 1
    decay_mult: 1
  }
  param {
    lr_mult: 2
    decay_mult: 0
  }
  convolution_param {
    num_output: 256
    pad: 1
    kernel_size: 3
    stride: 2
    weight_filler {
      type: "xavier"
    }
    bias_filler {
      type: "constant"
      value: 0
    }
  }
}
layer {
  name: "conv7_2_relu"
  type: "ReLU"
  bottom: "conv7_2_t"
  top: "conv7_2_t"
}
layer {
  name: "conv7_2_s"
  type: "Pooling"
  bottom: "conv7_2_t"
  top: "conv7_2_s"
  pooling_param {
    pool: AVE
    global_pooling: true
  }
}
layer {
  name: "conv7_2_fc1"
  type: "Convolution"
  bottom: "conv7_2_s"
  top: "conv7_2_fc1"
  param {
    lr_mult: 1
    decay_mult: 1
  }
  param {
    lr_mult: 2
    decay_mult: 0
  }
  convolution_param {
    num_output: 64
    kernel_size: 1
    stride: 1
    weight_filler {
      type: "xavier"
    }
    bias_filler {
      type: "constant"
      value: 0
    }
  }
}
layer {
  name: "conv7_2_relu"
  type: "ReLU"
  bottom: "conv7_2_fc1"
  top: "conv7_2_fc1"
}
layer {
  name: "conv7_2_fc2"
  type: "Convolution"
  bottom: "conv7_2_fc1"
  top: "conv7_2_fc2"
  param {
    lr_mult: 1
    decay_mult: 1
  }
  param {
    lr_mult: 2
    decay_mult: 0
  }
  convolution_param {
    num_output: 256
    kernel_size: 1
    stride: 1
    weight_filler {
      type: "xavier"
    }
    bias_filler {
      type: "constant"
      value: 0
    }
  }
}
layer {
  name: "conv7_2_sig"
  type: "Sigmoid"
  bottom: "conv7_2_fc2"
  top: "conv7_2_fc2"
}
layer {
  name: "conv7_2_reshape"
  type: "Reshape"
  bottom: "conv7_2_fc2"
  top: "conv7_2_reshape"
  reshape_param {
    shape {
      dim: 0
      dim: 0
    }
  }
}
layer {
  name: "conv7_2_scale"
  type: "Scale"
  bottom: "conv7_2_t"
  bottom: "conv7_2_reshape"
  top: "conv7_2"
  scale_param {
    axis: 0
    bias_term: false
  }
}
layer {
  name: "conv8_1"
  type: "Convolution"
  bottom: "conv7_2"
  top: "conv8_1"
  param {
    lr_mult: 1
    decay_mult: 1
  }
  param {
    lr_mult: 2
    decay_mult: 0
  }
  convolution_param {
    num_output: 128
    pad: 0
    kernel_size: 1
    stride: 1
    weight_filler {
      type: "xavier"
    }
    bias_filler {
      type: "constant"
      value: 0
    }
  }
}
layer {
  name: "conv8_1_relu"
  type: "ReLU"
  bottom: "conv8_1"
  top: "conv8_1"
}
layer {
  name: "conv8_2"
  type: "Convolution"
  bottom: "conv8_1"
  top: "conv8_2_t"
  param {
    lr_mult: 1
    decay_mult: 1
  }
  param {
    lr_mult: 2
    decay_mult: 0
  }
  convolution_param {
    num_output: 256
    pad: 1
    kernel_size: 3
    stride: 2
    weight_filler {
      type: "xavier"
    }
    bias_filler {
      type: "constant"
      value: 0
    }
  }
}
layer {
  name: "conv8_2_relu"
  type: "ReLU"
  bottom: "conv8_2_t"
  top: "conv8_2_t"
}
layer {
  name: "conv8_2_s"
  type: "Pooling"
  bottom: "conv8_2_t"
  top: "conv8_2_s"
  pooling_param {
    pool: AVE
    global_pooling: true
  }
}
layer {
  name: "conv8_2_fc1"
  type: "Convolution"
  bottom: "conv8_2_s"
  top: "conv8_2_fc1"
  param {
    lr_mult: 1
    decay_mult: 1
  }
  param {
    lr_mult: 2
    decay_mult: 0
  }
  convolution_param {
    num_output: 64
    kernel_size: 1
    stride: 1
    weight_filler {
      type: "xavier"
    }
    bias_filler {
      type: "constant"
      value: 0
    }
  }
}
layer {
  name: "conv8_2_relu"
  type: "ReLU"
  bottom: "conv8_2_fc1"
  top: "conv8_2_fc1"
}
layer {
  name: "conv8_2_fc2"
  type: "Convolution"
  bottom: "conv8_2_fc1"
  top: "conv8_2_fc2"
  param {
    lr_mult: 1
    decay_mult: 1
  }
  param {
    lr_mult: 2
    decay_mult: 0
  }
  convolution_param {
    num_output: 256
    kernel_size: 1
    stride: 1
    weight_filler {
      type: "xavier"
    }
    bias_filler {
      type: "constant"
      value: 0
    }
  }
}
layer {
  name: "conv8_2_sig"
  type: "Sigmoid"
  bottom: "conv8_2_fc2"
  top: "conv8_2_fc2"
}
layer {
  name: "conv8_2_reshape"
  type: "Reshape"
  bottom: "conv8_2_fc2"
  top: "conv8_2_reshape"
  reshape_param {
    shape {
      dim: 0
      dim: 0
    }
  }
}
layer {
  name: "conv8_2_scale"
  type: "Scale"
  bottom: "conv8_2_t"
  bottom: "conv8_2_reshape"
  top: "conv8_2"
  scale_param {
    axis: 0
    bias_term: false
  }
}
layer {
  name: "conv9_1"
  type: "Convolution"
  bottom: "conv8_2"
  top: "conv9_1"
  param {
    lr_mult: 1
    decay_mult: 1
  }
  param {
    lr_mult: 2
    decay_mult: 0
  }
  convolution_param {
    num_output: 128
    pad: 0
    kernel_size: 1
    stride: 1
    weight_filler {
      type: "xavier"
    }
    bias_filler {
      type: "constant"
      value: 0
    }
  }
}
layer {
  name: "conv9_1_relu"
  type: "ReLU"
  bottom: "conv9_1"
  top: "conv9_1"
}
layer {
  name: "conv9_2"
  type: "Convolution"
  bottom: "conv9_1"
  top: "conv9_2_t"
  param {
    lr_mult: 1
    decay_mult: 1
  }
  param {
    lr_mult: 2
    decay_mult: 0
  }
  convolution_param {
    num_output: 256
    pad: 1
    kernel_size: 3
    stride: 2
    weight_filler {
      type: "xavier"
    }
    bias_filler {
      type: "constant"
      value: 0
    }
  }
}
layer {
  name: "conv9_2_relu"
  type: "ReLU"
  bottom: "conv9_2_t"
  top: "conv9_2_t"
}
layer {
  name: "conv9_2_s"
  type: "Pooling"
  bottom: "conv9_2_t"
  top: "conv9_2_s"
  pooling_param {
    pool: AVE
    global_pooling: true
  }
}
layer {
  name: "conv9_2_fc1"
  type: "Convolution"
  bottom: "conv9_2_s"
  top: "conv9_2_fc1"
  param {
    lr_mult: 1
    decay_mult: 1
  }
  param {
    lr_mult: 2
    decay_mult: 0
  }
  convolution_param {
    num_output: 64
    kernel_size: 1
    stride: 1
    weight_filler {
      type: "xavier"
    }
    bias_filler {
      type: "constant"
      value: 0
    }
  }
}
layer {
  name: "conv9_2_relu"
  type: "ReLU"
  bottom: "conv9_2_fc1"
  top: "conv9_2_fc1"
}
layer {
  name: "conv9_2_fc2"
  type: "Convolution"
  bottom: "conv9_2_fc1"
  top: "conv9_2_fc2"
  param {
    lr_mult: 1
    decay_mult: 1
  }
  param {
    lr_mult: 2
    decay_mult: 0
  }
  convolution_param {
    num_output: 256
    kernel_size: 1
    stride: 1
    weight_filler {
      type: "xavier"
    }
    bias_filler {
      type: "constant"
      value: 0
    }
  }
}
layer {
  name: "conv9_2_sig"
  type: "Sigmoid"
  bottom: "conv9_2_fc2"
  top: "conv9_2_fc2"
}
layer {
  name: "conv9_2_reshape"
  type: "Reshape"
  bottom: "conv9_2_fc2"
  top: "conv9_2_reshape"
  reshape_param {
    shape {
      dim: 0
      dim: 0
    }
  }
}
layer {
  name: "conv9_2_scale"
  type: "Scale"
  bottom: "conv9_2_t"
  bottom: "conv9_2_reshape"
  top: "conv9_2"
  scale_param {
    axis: 0
    bias_term: false
  }
}
layer {
  name: "conv10_1"
  type: "Convolution"
  bottom: "conv9_2"
  top: "conv10_1"
  param {
    lr_mult: 1
    decay_mult: 1
  }
  param {
    lr_mult: 2
    decay_mult: 0
  }
  convolution_param {
    num_output: 128
    pad: 0
    kernel_size: 1
    stride: 1
    weight_filler {
      type: "xavier"
    }
    bias_filler {
      type: "constant"
      value: 0
    }
  }
}
layer {
  name: "conv10_1_relu"
  type: "ReLU"
  bottom: "conv10_1"
  top: "conv10_1"
}
layer {
  name: "conv10_2"
  type: "Convolution"
  bottom: "conv10_1"
  top: "conv10_2_t"
  param {
    lr_mult: 1
    decay_mult: 1
  }
  param {
    lr_mult: 2
    decay_mult: 0
  }
  convolution_param {
    num_output: 256
    pad: 1
    kernel_size: 4
    stride: 1
    weight_filler {
      type: "xavier"
    }
    bias_filler {
      type: "constant"
      value: 0
    }
  }
}
layer {
  name: "conv10_2_relu"
  type: "ReLU"
  bottom: "conv10_2_t"
  top: "conv10_2_t"
}
layer {
  name: "conv10_2_s"
  type: "Pooling"
  bottom: "conv10_2_t"
  top: "conv10_2_s"
  pooling_param {
    pool: AVE
    global_pooling: true
  }
}
layer {
  name: "conv10_2_fc1"
  type: "Convolution"
  bottom: "conv10_2_s"
  top: "conv10_2_fc1"
  param {
    lr_mult: 1
    decay_mult: 1
  }
  param {
    lr_mult: 2
    decay_mult: 0
  }
  convolution_param {
    num_output: 64
    kernel_size: 1
    stride: 1
    weight_filler {
      type: "xavier"
    }
    bias_filler {
      type: "constant"
      value: 0
    }
  }
}
layer {
  name: "conv10_2_relu"
  type: "ReLU"
  bottom: "conv10_2_fc1"
  top: "conv10_2_fc1"
}
layer {
  name: "conv10_2_fc2"
  type: "Convolution"
  bottom: "conv10_2_fc1"
  top: "conv10_2_fc2"
  param {
    lr_mult: 1
    decay_mult: 1
  }
  param {
    lr_mult: 2
    decay_mult: 0
  }
  convolution_param {
    num_output: 256
    kernel_size: 1
    stride: 1
    weight_filler {
      type: "xavier"
    }
    bias_filler {
      type: "constant"
      value: 0
    }
  }
}
layer {
  name: "conv10_2_sig"
  type: "Sigmoid"
  bottom: "conv10_2_fc2"
  top: "conv10_2_fc2"
}
layer {
  name: "conv10_2_reshape"
  type: "Reshape"
  bottom: "conv10_2_fc2"
  top: "conv10_2_reshape"
  reshape_param {
    shape {
      dim: 0
      dim: 0
    }
  }
}
layer {
  name: "conv10_2_scale"
  type: "Scale"
  bottom: "conv10_2_t"
  bottom: "conv10_2_reshape"
  top: "conv10_2"
  scale_param {
    axis: 0
    bias_term: false
  }
}
layer {
  name: "conv4_3_norm"
  type: "Normalize"
  bottom: "conv4_3"
  top: "conv4_3_norm"
  norm_param {
    across_spatial: false
    scale_filler {
      type: "constant"
      value: 20
    }
    channel_shared: false
  }
}
layer {
  name: "conv4_3_norm_mbox_loc"
  type: "Convolution"
  bottom: "conv4_3_norm"
  top: "conv4_3_norm_mbox_loc"
  param {
    lr_mult: 1
    decay_mult: 1
  }
  param {
    lr_mult: 2
    decay_mult: 0
  }
  convolution_param {
    num_output: 16
    pad: 1
    kernel_size: 3
    stride: 1
    weight_filler {
      type: "xavier"
    }
    bias_filler {
      type: "constant"
      value: 0
    }
  }
}
layer {
  name: "conv4_3_norm_mbox_loc_perm"
  type: "Permute"
  bottom: "conv4_3_norm_mbox_loc"
  top: "conv4_3_norm_mbox_loc_perm"
  permute_param {
    order: 0
    order: 2
    order: 3
    order: 1
  }
}
layer {
  na
I0305 20:46:33.529156  6165 layer_factory.hpp:77] Creating layer data
I0305 20:46:33.529974  6165 net.cpp:100] Creating Layer data
I0305 20:46:33.530005  6165 net.cpp:408] data -> data
I0305 20:46:33.530071  6165 net.cpp:408] data -> label
I0305 20:46:33.531499  6171 db_lmdb.cpp:35] Opened lmdb examples/VOC0712/VOC0712_trainvaltest_lmdb
I0305 20:46:33.555403  6165 annotated_data_layer.cpp:62] output data size: 8,3,512,512
I0305 20:46:33.602389  6165 net.cpp:150] Setting up data
I0305 20:46:33.602421  6165 net.cpp:157] Top shape: 8 3 512 512 (6291456)
I0305 20:46:33.602430  6165 net.cpp:157] Top shape: 1 1 2 8 (16)
I0305 20:46:33.602437  6165 net.cpp:165] Memory required for data: 25165888
I0305 20:46:33.602449  6165 layer_factory.hpp:77] Creating layer data_data_0_split
I0305 20:46:33.602473  6165 net.cpp:100] Creating Layer data_data_0_split
I0305 20:46:33.602483  6165 net.cpp:434] data_data_0_split <- data
I0305 20:46:33.602506  6165 net.cpp:408] data_data_0_split -> data_data_0_split_0
I0305 20:46:33.602529  6165 net.cpp:408] data_data_0_split -> data_data_0_split_1
I0305 20:46:33.602540  6165 net.cpp:408] data_data_0_split -> data_data_0_split_2
I0305 20:46:33.602551  6165 net.cpp:408] data_data_0_split -> data_data_0_split_3
I0305 20:46:33.602563  6165 net.cpp:408] data_data_0_split -> data_data_0_split_4
I0305 20:46:33.602574  6165 net.cpp:408] data_data_0_split -> data_data_0_split_5
I0305 20:46:33.602591  6165 net.cpp:408] data_data_0_split -> data_data_0_split_6
I0305 20:46:33.602607  6165 net.cpp:408] data_data_0_split -> data_data_0_split_7
I0305 20:46:33.602722  6165 net.cpp:150] Setting up data_data_0_split
I0305 20:46:33.602736  6165 net.cpp:157] Top shape: 8 3 512 512 (6291456)
I0305 20:46:33.602751  6165 net.cpp:157] Top shape: 8 3 512 512 (6291456)
I0305 20:46:33.602790  6165 net.cpp:157] Top shape: 8 3 512 512 (6291456)
I0305 20:46:33.602799  6165 net.cpp:157] Top shape: 8 3 512 512 (6291456)
I0305 20:46:33.602808  6165 net.cpp:157] Top shape: 8 3 512 512 (6291456)
I0305 20:46:33.602820  6165 net.cpp:157] Top shape: 8 3 512 512 (6291456)
I0305 20:46:33.602835  6165 net.cpp:157] Top shape: 8 3 512 512 (6291456)
I0305 20:46:33.602843  6165 net.cpp:157] Top shape: 8 3 512 512 (6291456)
I0305 20:46:33.602847  6165 net.cpp:165] Memory required for data: 226492480
I0305 20:46:33.602854  6165 layer_factory.hpp:77] Creating layer label_data_1_split
I0305 20:46:33.602864  6165 net.cpp:100] Creating Layer label_data_1_split
I0305 20:46:33.602871  6165 net.cpp:434] label_data_1_split <- label
I0305 20:46:33.602883  6165 net.cpp:408] label_data_1_split -> label_data_1_split_0
I0305 20:46:33.602892  6165 net.cpp:408] label_data_1_split -> label_data_1_split_1
I0305 20:46:33.602942  6165 net.cpp:150] Setting up label_data_1_split
I0305 20:46:33.602957  6165 net.cpp:157] Top shape: 1 1 2 8 (16)
I0305 20:46:33.602962  6165 net.cpp:157] Top shape: 1 1 2 8 (16)
I0305 20:46:33.602968  6165 net.cpp:165] Memory required for data: 226492608
I0305 20:46:33.602975  6165 layer_factory.hpp:77] Creating layer conv1_1
I0305 20:46:33.603005  6165 net.cpp:100] Creating Layer conv1_1
I0305 20:46:33.603014  6165 net.cpp:434] conv1_1 <- data_data_0_split_0
I0305 20:46:33.603025  6165 net.cpp:408] conv1_1 -> conv1_1
I0305 20:46:33.639139  6172 blocking_queue.cpp:50] Waiting for data
I0305 20:46:34.099265  6165 net.cpp:150] Setting up conv1_1
I0305 20:46:34.099292  6165 net.cpp:157] Top shape: 8 64 512 512 (134217728)
I0305 20:46:34.099295  6165 net.cpp:165] Memory required for data: 763363520
I0305 20:46:34.099315  6165 layer_factory.hpp:77] Creating layer relu1_1
I0305 20:46:34.099328  6165 net.cpp:100] Creating Layer relu1_1
I0305 20:46:34.099335  6165 net.cpp:434] relu1_1 <- conv1_1
I0305 20:46:34.099342  6165 net.cpp:395] relu1_1 -> conv1_1 (in-place)
I0305 20:46:34.099493  6165 net.cpp:150] Setting up relu1_1
I0305 20:46:34.099503  6165 net.cpp:157] Top shape: 8 64 512 512 (134217728)
I0305 20:46:34.099510  6165 net.cpp:165] Memory required for data: 1300234432
I0305 20:46:34.099515  6165 layer_factory.hpp:77] Creating layer conv1_2
I0305 20:46:34.099529  6165 net.cpp:100] Creating Layer conv1_2
I0305 20:46:34.099539  6165 net.cpp:434] conv1_2 <- conv1_1
I0305 20:46:34.099545  6165 net.cpp:408] conv1_2 -> conv1_2
I0305 20:46:34.102499  6165 net.cpp:150] Setting up conv1_2
I0305 20:46:34.102511  6165 net.cpp:157] Top shape: 8 64 512 512 (134217728)
I0305 20:46:34.102515  6165 net.cpp:165] Memory required for data: 1837105344
I0305 20:46:34.102524  6165 layer_factory.hpp:77] Creating layer relu1_2
I0305 20:46:34.102531  6165 net.cpp:100] Creating Layer relu1_2
I0305 20:46:34.102537  6165 net.cpp:434] relu1_2 <- conv1_2
I0305 20:46:34.102547  6165 net.cpp:395] relu1_2 -> conv1_2 (in-place)
I0305 20:46:34.102684  6165 net.cpp:150] Setting up relu1_2
I0305 20:46:34.102692  6165 net.cpp:157] Top shape: 8 64 512 512 (134217728)
I0305 20:46:34.102696  6165 net.cpp:165] Memory required for data: 2373976256
I0305 20:46:34.102700  6165 layer_factory.hpp:77] Creating layer pool1
I0305 20:46:34.102706  6165 net.cpp:100] Creating Layer pool1
I0305 20:46:34.102711  6165 net.cpp:434] pool1 <- conv1_2
I0305 20:46:34.102718  6165 net.cpp:408] pool1 -> pool1
I0305 20:46:34.102761  6165 net.cpp:150] Setting up pool1
I0305 20:46:34.102767  6165 net.cpp:157] Top shape: 8 64 256 256 (33554432)
I0305 20:46:34.102771  6165 net.cpp:165] Memory required for data: 2508193984
I0305 20:46:34.102775  6165 layer_factory.hpp:77] Creating layer conv2_1
I0305 20:46:34.102784  6165 net.cpp:100] Creating Layer conv2_1
I0305 20:46:34.102792  6165 net.cpp:434] conv2_1 <- pool1
I0305 20:46:34.102799  6165 net.cpp:408] conv2_1 -> conv2_1
I0305 20:46:34.105001  6165 net.cpp:150] Setting up conv2_1
I0305 20:46:34.105015  6165 net.cpp:157] Top shape: 8 128 256 256 (67108864)
I0305 20:46:34.105018  6165 net.cpp:165] Memory required for data: 2776629440
I0305 20:46:34.105047  6165 layer_factory.hpp:77] Creating layer relu2_1
I0305 20:46:34.105056  6165 net.cpp:100] Creating Layer relu2_1
I0305 20:46:34.105062  6165 net.cpp:434] relu2_1 <- conv2_1
I0305 20:46:34.105067  6165 net.cpp:395] relu2_1 -> conv2_1 (in-place)
I0305 20:46:34.106125  6165 net.cpp:150] Setting up relu2_1
I0305 20:46:34.106137  6165 net.cpp:157] Top shape: 8 128 256 256 (67108864)
I0305 20:46:34.106140  6165 net.cpp:165] Memory required for data: 3045064896
I0305 20:46:34.106145  6165 layer_factory.hpp:77] Creating layer conv2_2
I0305 20:46:34.106155  6165 net.cpp:100] Creating Layer conv2_2
I0305 20:46:34.106161  6165 net.cpp:434] conv2_2 <- conv2_1
I0305 20:46:34.106168  6165 net.cpp:408] conv2_2 -> conv2_2
I0305 20:46:34.107967  6165 net.cpp:150] Setting up conv2_2
I0305 20:46:34.107980  6165 net.cpp:157] Top shape: 8 128 256 256 (67108864)
I0305 20:46:34.107985  6165 net.cpp:165] Memory required for data: 3313500352
I0305 20:46:34.107992  6165 layer_factory.hpp:77] Creating layer relu2_2
I0305 20:46:34.108000  6165 net.cpp:100] Creating Layer relu2_2
I0305 20:46:34.108006  6165 net.cpp:434] relu2_2 <- conv2_2
I0305 20:46:34.108014  6165 net.cpp:395] relu2_2 -> conv2_2 (in-place)
I0305 20:46:34.108166  6165 net.cpp:150] Setting up relu2_2
I0305 20:46:34.108176  6165 net.cpp:157] Top shape: 8 128 256 256 (67108864)
I0305 20:46:34.108180  6165 net.cpp:165] Memory required for data: 3581935808
I0305 20:46:34.108184  6165 layer_factory.hpp:77] Creating layer pool2
I0305 20:46:34.108191  6165 net.cpp:100] Creating Layer pool2
I0305 20:46:34.108194  6165 net.cpp:434] pool2 <- conv2_2
I0305 20:46:34.108202  6165 net.cpp:408] pool2 -> pool2
I0305 20:46:34.108237  6165 net.cpp:150] Setting up pool2
I0305 20:46:34.108243  6165 net.cpp:157] Top shape: 8 128 128 128 (16777216)
I0305 20:46:34.108247  6165 net.cpp:165] Memory required for data: 3649044672
I0305 20:46:34.108252  6165 layer_factory.hpp:77] Creating layer conv3_1
I0305 20:46:34.108263  6165 net.cpp:100] Creating Layer conv3_1
I0305 20:46:34.108268  6165 net.cpp:434] conv3_1 <- pool2
I0305 20:46:34.108278  6165 net.cpp:408] conv3_1 -> conv3_1
I0305 20:46:34.111459  6165 net.cpp:150] Setting up conv3_1
I0305 20:46:34.111471  6165 net.cpp:157] Top shape: 8 256 128 128 (33554432)
I0305 20:46:34.111475  6165 net.cpp:165] Memory required for data: 3783262400
I0305 20:46:34.111486  6165 layer_factory.hpp:77] Creating layer relu3_1
I0305 20:46:34.111495  6165 net.cpp:100] Creating Layer relu3_1
I0305 20:46:34.111500  6165 net.cpp:434] relu3_1 <- conv3_1
I0305 20:46:34.111505  6165 net.cpp:395] relu3_1 -> conv3_1 (in-place)
I0305 20:46:34.111670  6165 net.cpp:150] Setting up relu3_1
I0305 20:46:34.111680  6165 net.cpp:157] Top shape: 8 256 128 128 (33554432)
I0305 20:46:34.111683  6165 net.cpp:165] Memory required for data: 3917480128
I0305 20:46:34.111688  6165 layer_factory.hpp:77] Creating layer conv3_2
I0305 20:46:34.111696  6165 net.cpp:100] Creating Layer conv3_2
I0305 20:46:34.111702  6165 net.cpp:434] conv3_2 <- conv3_1
I0305 20:46:34.111711  6165 net.cpp:408] conv3_2 -> conv3_2
I0305 20:46:34.120213  6165 net.cpp:150] Setting up conv3_2
I0305 20:46:34.120224  6165 net.cpp:157] Top shape: 8 256 128 128 (33554432)
I0305 20:46:34.120229  6165 net.cpp:165] Memory required for data: 4051697856
I0305 20:46:34.120235  6165 layer_factory.hpp:77] Creating layer relu3_2
I0305 20:46:34.120245  6165 net.cpp:100] Creating Layer relu3_2
I0305 20:46:34.120251  6165 net.cpp:434] relu3_2 <- conv3_2
I0305 20:46:34.120260  6165 net.cpp:395] relu3_2 -> conv3_2 (in-place)
I0305 20:46:34.120695  6165 net.cpp:150] Setting up relu3_2
I0305 20:46:34.120707  6165 net.cpp:157] Top shape: 8 256 128 128 (33554432)
I0305 20:46:34.120712  6165 net.cpp:165] Memory required for data: 4185915584
I0305 20:46:34.120719  6165 layer_factory.hpp:77] Creating layer conv3_3
I0305 20:46:34.120733  6165 net.cpp:100] Creating Layer conv3_3
I0305 20:46:34.120738  6165 net.cpp:434] conv3_3 <- conv3_2
I0305 20:46:34.120746  6165 net.cpp:408] conv3_3 -> conv3_3
I0305 20:46:34.126309  6165 net.cpp:150] Setting up conv3_3
I0305 20:46:34.126344  6165 net.cpp:157] Top shape: 8 256 128 128 (33554432)
I0305 20:46:34.126348  6165 net.cpp:165] Memory required for data: 4320133312
I0305 20:46:34.126355  6165 layer_factory.hpp:77] Creating layer relu3_3
I0305 20:46:34.126363  6165 net.cpp:100] Creating Layer relu3_3
I0305 20:46:34.126369  6165 net.cpp:434] relu3_3 <- conv3_3
I0305 20:46:34.126376  6165 net.cpp:395] relu3_3 -> conv3_3 (in-place)
I0305 20:46:34.126535  6165 net.cpp:150] Setting up relu3_3
I0305 20:46:34.126543  6165 net.cpp:157] Top shape: 8 256 128 128 (33554432)
I0305 20:46:34.126546  6165 net.cpp:165] Memory required for data: 4454351040
I0305 20:46:34.126550  6165 layer_factory.hpp:77] Creating layer pool3
I0305 20:46:34.126557  6165 net.cpp:100] Creating Layer pool3
I0305 20:46:34.126564  6165 net.cpp:434] pool3 <- conv3_3
I0305 20:46:34.126574  6165 net.cpp:408] pool3 -> pool3
I0305 20:46:34.126612  6165 net.cpp:150] Setting up pool3
I0305 20:46:34.126618  6165 net.cpp:157] Top shape: 8 256 64 64 (8388608)
I0305 20:46:34.126622  6165 net.cpp:165] Memory required for data: 4487905472
I0305 20:46:34.126626  6165 layer_factory.hpp:77] Creating layer conv4_1
I0305 20:46:34.126634  6165 net.cpp:100] Creating Layer conv4_1
I0305 20:46:34.126641  6165 net.cpp:434] conv4_1 <- pool3
I0305 20:46:34.126648  6165 net.cpp:408] conv4_1 -> conv4_1
I0305 20:46:34.135257  6165 net.cpp:150] Setting up conv4_1
I0305 20:46:34.135272  6165 net.cpp:157] Top shape: 8 512 64 64 (16777216)
I0305 20:46:34.135277  6165 net.cpp:165] Memory required for data: 4555014336
I0305 20:46:34.135287  6165 layer_factory.hpp:77] Creating layer relu4_1
I0305 20:46:34.135294  6165 net.cpp:100] Creating Layer relu4_1
I0305 20:46:34.135299  6165 net.cpp:434] relu4_1 <- conv4_1
I0305 20:46:34.135308  6165 net.cpp:395] relu4_1 -> conv4_1 (in-place)
I0305 20:46:34.135464  6165 net.cpp:150] Setting up relu4_1
I0305 20:46:34.135473  6165 net.cpp:157] Top shape: 8 512 64 64 (16777216)
I0305 20:46:34.135476  6165 net.cpp:165] Memory required for data: 4622123200
I0305 20:46:34.135480  6165 layer_factory.hpp:77] Creating layer conv4_2
I0305 20:46:34.135495  6165 net.cpp:100] Creating Layer conv4_2
I0305 20:46:34.135500  6165 net.cpp:434] conv4_2 <- conv4_1
I0305 20:46:34.135510  6165 net.cpp:408] conv4_2 -> conv4_2
I0305 20:46:34.148370  6165 net.cpp:150] Setting up conv4_2
I0305 20:46:34.148388  6165 net.cpp:157] Top shape: 8 512 64 64 (16777216)
I0305 20:46:34.148393  6165 net.cpp:165] Memory required for data: 4689232064
I0305 20:46:34.148409  6165 layer_factory.hpp:77] Creating layer relu4_2
I0305 20:46:34.148418  6165 net.cpp:100] Creating Layer relu4_2
I0305 20:46:34.148423  6165 net.cpp:434] relu4_2 <- conv4_2
I0305 20:46:34.148432  6165 net.cpp:395] relu4_2 -> conv4_2 (in-place)
I0305 20:46:34.148586  6165 net.cpp:150] Setting up relu4_2
I0305 20:46:34.148593  6165 net.cpp:157] Top shape: 8 512 64 64 (16777216)
I0305 20:46:34.148598  6165 net.cpp:165] Memory required for data: 4756340928
I0305 20:46:34.148603  6165 layer_factory.hpp:77] Creating layer conv4_3
I0305 20:46:34.148615  6165 net.cpp:100] Creating Layer conv4_3
I0305 20:46:34.148620  6165 net.cpp:434] conv4_3 <- conv4_2
I0305 20:46:34.148627  6165 net.cpp:408] conv4_3 -> conv4_3_ori
I0305 20:46:34.161239  6165 net.cpp:150] Setting up conv4_3
I0305 20:46:34.161257  6165 net.cpp:157] Top shape: 8 512 64 64 (16777216)
I0305 20:46:34.161262  6165 net.cpp:165] Memory required for data: 4823449792
I0305 20:46:34.161272  6165 layer_factory.hpp:77] Creating layer relu4_3
I0305 20:46:34.161279  6165 net.cpp:100] Creating Layer relu4_3
I0305 20:46:34.161284  6165 net.cpp:434] relu4_3 <- conv4_3_ori
I0305 20:46:34.161294  6165 net.cpp:395] relu4_3 -> conv4_3_ori (in-place)
I0305 20:46:34.161751  6165 net.cpp:150] Setting up relu4_3
I0305 20:46:34.161762  6165 net.cpp:157] Top shape: 8 512 64 64 (16777216)
I0305 20:46:34.161767  6165 net.cpp:165] Memory required for data: 4890558656
I0305 20:46:34.161770  6165 layer_factory.hpp:77] Creating layer conv4_3_ori_relu4_3_0_split
I0305 20:46:34.161798  6165 net.cpp:100] Creating Layer conv4_3_ori_relu4_3_0_split
I0305 20:46:34.161803  6165 net.cpp:434] conv4_3_ori_relu4_3_0_split <- conv4_3_ori
I0305 20:46:34.161809  6165 net.cpp:408] conv4_3_ori_relu4_3_0_split -> conv4_3_ori_relu4_3_0_split_0
I0305 20:46:34.161818  6165 net.cpp:408] conv4_3_ori_relu4_3_0_split -> conv4_3_ori_relu4_3_0_split_1
I0305 20:46:34.161857  6165 net.cpp:150] Setting up conv4_3_ori_relu4_3_0_split
I0305 20:46:34.161865  6165 net.cpp:157] Top shape: 8 512 64 64 (16777216)
I0305 20:46:34.161871  6165 net.cpp:157] Top shape: 8 512 64 64 (16777216)
I0305 20:46:34.161875  6165 net.cpp:165] Memory required for data: 5024776384
I0305 20:46:34.161880  6165 layer_factory.hpp:77] Creating layer seg_pool4
I0305 20:46:34.161886  6165 net.cpp:100] Creating Layer seg_pool4
I0305 20:46:34.161892  6165 net.cpp:434] seg_pool4 <- conv4_3_ori_relu4_3_0_split_0
I0305 20:46:34.161900  6165 net.cpp:408] seg_pool4 -> seg_pool4
I0305 20:46:34.161931  6165 net.cpp:150] Setting up seg_pool4
I0305 20:46:34.161942  6165 net.cpp:157] Top shape: 8 512 64 64 (16777216)
I0305 20:46:34.161945  6165 net.cpp:165] Memory required for data: 5091885248
I0305 20:46:34.161948  6165 layer_factory.hpp:77] Creating layer seg5_1
I0305 20:46:34.161959  6165 net.cpp:100] Creating Layer seg5_1
I0305 20:46:34.161967  6165 net.cpp:434] seg5_1 <- seg_pool4
I0305 20:46:34.161973  6165 net.cpp:408] seg5_1 -> seg5_1
I0305 20:46:34.173733  6165 net.cpp:150] Setting up seg5_1
I0305 20:46:34.173750  6165 net.cpp:157] Top shape: 8 512 64 64 (16777216)
I0305 20:46:34.173755  6165 net.cpp:165] Memory required for data: 5158994112
I0305 20:46:34.173761  6165 layer_factory.hpp:77] Creating layer seg_relu5_1
I0305 20:46:34.173770  6165 net.cpp:100] Creating Layer seg_relu5_1
I0305 20:46:34.173776  6165 net.cpp:434] seg_relu5_1 <- seg5_1
I0305 20:46:34.173784  6165 net.cpp:395] seg_relu5_1 -> seg5_1 (in-place)
I0305 20:46:34.173964  6165 net.cpp:150] Setting up seg_relu5_1
I0305 20:46:34.173972  6165 net.cpp:157] Top shape: 8 512 64 64 (16777216)
I0305 20:46:34.173975  6165 net.cpp:165] Memory required for data: 5226102976
I0305 20:46:34.173979  6165 layer_factory.hpp:77] Creating layer seg5_2
I0305 20:46:34.173991  6165 net.cpp:100] Creating Layer seg5_2
I0305 20:46:34.174000  6165 net.cpp:434] seg5_2 <- seg5_1
I0305 20:46:34.174007  6165 net.cpp:408] seg5_2 -> seg5_2
I0305 20:46:34.185802  6165 net.cpp:150] Setting up seg5_2
I0305 20:46:34.185819  6165 net.cpp:157] Top shape: 8 512 64 64 (16777216)
I0305 20:46:34.185823  6165 net.cpp:165] Memory required for data: 5293211840
I0305 20:46:34.185832  6165 layer_factory.hpp:77] Creating layer seg_relu5_2
I0305 20:46:34.185838  6165 net.cpp:100] Creating Layer seg_relu5_2
I0305 20:46:34.185843  6165 net.cpp:434] seg_relu5_2 <- seg5_2
I0305 20:46:34.185849  6165 net.cpp:395] seg_relu5_2 -> seg5_2 (in-place)
I0305 20:46:34.186033  6165 net.cpp:150] Setting up seg_relu5_2
I0305 20:46:34.186044  6165 net.cpp:157] Top shape: 8 512 64 64 (16777216)
I0305 20:46:34.186048  6165 net.cpp:165] Memory required for data: 5360320704
I0305 20:46:34.186051  6165 layer_factory.hpp:77] Creating layer seg5_3
I0305 20:46:34.186066  6165 net.cpp:100] Creating Layer seg5_3
I0305 20:46:34.186072  6165 net.cpp:434] seg5_3 <- seg5_2
I0305 20:46:34.186080  6165 net.cpp:408] seg5_3 -> seg5_3
I0305 20:46:34.197860  6165 net.cpp:150] Setting up seg5_3
I0305 20:46:34.197877  6165 net.cpp:157] Top shape: 8 512 64 64 (16777216)
I0305 20:46:34.197881  6165 net.cpp:165] Memory required for data: 5427429568
I0305 20:46:34.197890  6165 layer_factory.hpp:77] Creating layer seg_relu5_3
I0305 20:46:34.197898  6165 net.cpp:100] Creating Layer seg_relu5_3
I0305 20:46:34.197906  6165 net.cpp:434] seg_relu5_3 <- seg5_3
I0305 20:46:34.197914  6165 net.cpp:395] seg_relu5_3 -> seg5_3 (in-place)
I0305 20:46:34.198462  6165 net.cpp:150] Setting up seg_relu5_3
I0305 20:46:34.198475  6165 net.cpp:157] Top shape: 8 512 64 64 (16777216)
I0305 20:46:34.198480  6165 net.cpp:165] Memory required for data: 5494538432
I0305 20:46:34.198484  6165 layer_factory.hpp:77] Creating layer seg_pool5
I0305 20:46:34.198513  6165 net.cpp:100] Creating Layer seg_pool5
I0305 20:46:34.198518  6165 net.cpp:434] seg_pool5 <- seg5_3
I0305 20:46:34.198526  6165 net.cpp:408] seg_pool5 -> seg_pool5
I0305 20:46:34.198566  6165 net.cpp:150] Setting up seg_pool5
I0305 20:46:34.198575  6165 net.cpp:157] Top shape: 8 512 64 64 (16777216)
I0305 20:46:34.198578  6165 net.cpp:165] Memory required for data: 5561647296
I0305 20:46:34.198583  6165 layer_factory.hpp:77] Creating layer seg6
I0305 20:46:34.198595  6165 net.cpp:100] Creating Layer seg6
I0305 20:46:34.198598  6165 net.cpp:434] seg6 <- seg_pool5
I0305 20:46:34.198604  6165 net.cpp:408] seg6 -> seg6
I0305 20:46:34.222228  6165 net.cpp:150] Setting up seg6
I0305 20:46:34.222255  6165 net.cpp:157] Top shape: 8 1024 64 64 (33554432)
I0305 20:46:34.222259  6165 net.cpp:165] Memory required for data: 5695865024
I0305 20:46:34.222271  6165 layer_factory.hpp:77] Creating layer seg_relu6
I0305 20:46:34.222285  6165 net.cpp:100] Creating Layer seg_relu6
I0305 20:46:34.222295  6165 net.cpp:434] seg_relu6 <- seg6
I0305 20:46:34.222340  6165 net.cpp:395] seg_relu6 -> seg6 (in-place)
I0305 20:46:34.222571  6165 net.cpp:150] Setting up seg_relu6
I0305 20:46:34.222581  6165 net.cpp:157] Top shape: 8 1024 64 64 (33554432)
I0305 20:46:34.222585  6165 net.cpp:165] Memory required for data: 5830082752
I0305 20:46:34.222589  6165 layer_factory.hpp:77] Creating layer seg_drop6
I0305 20:46:34.222595  6165 net.cpp:100] Creating Layer seg_drop6
I0305 20:46:34.222605  6165 net.cpp:434] seg_drop6 <- seg6
I0305 20:46:34.222616  6165 net.cpp:395] seg_drop6 -> seg6 (in-place)
I0305 20:46:34.222648  6165 net.cpp:150] Setting up seg_drop6
I0305 20:46:34.222657  6165 net.cpp:157] Top shape: 8 1024 64 64 (33554432)
I0305 20:46:34.222662  6165 net.cpp:165] Memory required for data: 5964300480
I0305 20:46:34.222666  6165 layer_factory.hpp:77] Creating layer seg7
I0305 20:46:34.222682  6165 net.cpp:100] Creating Layer seg7
I0305 20:46:34.222693  6165 net.cpp:434] seg7 <- seg6
I0305 20:46:34.222705  6165 net.cpp:408] seg7 -> seg7
I0305 20:46:34.232712  6165 net.cpp:150] Setting up seg7
I0305 20:46:34.232725  6165 net.cpp:157] Top shape: 8 1024 64 64 (33554432)
I0305 20:46:34.232730  6165 net.cpp:165] Memory required for data: 6098518208
I0305 20:46:34.232738  6165 layer_factory.hpp:77] Creating layer seg_relu7
I0305 20:46:34.232744  6165 net.cpp:100] Creating Layer seg_relu7
I0305 20:46:34.232749  6165 net.cpp:434] seg_relu7 <- seg7
I0305 20:46:34.232755  6165 net.cpp:395] seg_relu7 -> seg7 (in-place)
I0305 20:46:34.232931  6165 net.cpp:150] Setting up seg_relu7
I0305 20:46:34.232941  6165 net.cpp:157] Top shape: 8 1024 64 64 (33554432)
I0305 20:46:34.232945  6165 net.cpp:165] Memory required for data: 6232735936
I0305 20:46:34.232950  6165 layer_factory.hpp:77] Creating layer seg7_seg_relu7_0_split
I0305 20:46:34.232960  6165 net.cpp:100] Creating Layer seg7_seg_relu7_0_split
I0305 20:46:34.232969  6165 net.cpp:434] seg7_seg_relu7_0_split <- seg7
I0305 20:46:34.232976  6165 net.cpp:408] seg7_seg_relu7_0_split -> seg7_seg_relu7_0_split_0
I0305 20:46:34.232985  6165 net.cpp:408] seg7_seg_relu7_0_split -> seg7_seg_relu7_0_split_1
I0305 20:46:34.233028  6165 net.cpp:150] Setting up seg7_seg_relu7_0_split
I0305 20:46:34.233036  6165 net.cpp:157] Top shape: 8 1024 64 64 (33554432)
I0305 20:46:34.233041  6165 net.cpp:157] Top shape: 8 1024 64 64 (33554432)
I0305 20:46:34.233044  6165 net.cpp:165] Memory required for data: 6501171392
I0305 20:46:34.233048  6165 layer_factory.hpp:77] Creating layer seg_drop7
I0305 20:46:34.233057  6165 net.cpp:100] Creating Layer seg_drop7
I0305 20:46:34.233070  6165 net.cpp:434] seg_drop7 <- seg7_seg_relu7_0_split_0
I0305 20:46:34.233080  6165 net.cpp:408] seg_drop7 -> seg7d
I0305 20:46:34.233120  6165 net.cpp:150] Setting up seg_drop7
I0305 20:46:34.233127  6165 net.cpp:157] Top shape: 8 1024 64 64 (33554432)
I0305 20:46:34.233131  6165 net.cpp:165] Memory required for data: 6635389120
I0305 20:46:34.233134  6165 layer_factory.hpp:77] Creating layer seg_new
I0305 20:46:34.233161  6165 net.cpp:100] Creating Layer seg_new
I0305 20:46:34.233165  6165 net.cpp:434] seg_new <- seg7d
I0305 20:46:34.233173  6165 net.cpp:408] seg_new -> seg
I0305 20:46:34.234339  6165 net.cpp:150] Setting up seg_new
I0305 20:46:34.234352  6165 net.cpp:157] Top shape: 8 21 64 64 (688128)
I0305 20:46:34.234356  6165 net.cpp:165] Memory required for data: 6638141632
I0305 20:46:34.234366  6165 layer_factory.hpp:77] Creating layer seg_seg_new_0_split
I0305 20:46:34.234380  6165 net.cpp:100] Creating Layer seg_seg_new_0_split
I0305 20:46:34.234386  6165 net.cpp:434] seg_seg_new_0_split <- seg
I0305 20:46:34.234396  6165 net.cpp:408] seg_seg_new_0_split -> seg_seg_new_0_split_0
I0305 20:46:34.234413  6165 net.cpp:408] seg_seg_new_0_split -> seg_seg_new_0_split_1
I0305 20:46:34.234457  6165 net.cpp:150] Setting up seg_seg_new_0_split
I0305 20:46:34.234467  6165 net.cpp:157] Top shape: 8 21 64 64 (688128)
I0305 20:46:34.234472  6165 net.cpp:157] Top shape: 8 21 64 64 (688128)
I0305 20:46:34.234473  6165 net.cpp:165] Memory required for data: 6643646656
I0305 20:46:34.234483  6165 layer_factory.hpp:77] Creating layer seg_gt
I0305 20:46:34.234499  6165 net.cpp:100] Creating Layer seg_gt
I0305 20:46:34.234504  6165 net.cpp:434] seg_gt <- label_data_1_split_0
I0305 20:46:34.234510  6165 net.cpp:434] seg_gt <- seg_seg_new_0_split_0
I0305 20:46:34.234519  6165 net.cpp:408] seg_gt -> seg_gt
I0305 20:46:34.234556  6165 net.cpp:150] Setting up seg_gt
I0305 20:46:34.234565  6165 net.cpp:157] Top shape: 8 1 64 64 (32768)
I0305 20:46:34.234571  6165 net.cpp:165] Memory required for data: 6643777728
I0305 20:46:34.234576  6165 layer_factory.hpp:77] Creating layer seg_loss
I0305 20:46:34.234591  6165 net.cpp:100] Creating Layer seg_loss
I0305 20:46:34.234603  6165 net.cpp:434] seg_loss <- seg_seg_new_0_split_1
I0305 20:46:34.234608  6165 net.cpp:434] seg_loss <- seg_gt
I0305 20:46:34.234614  6165 net.cpp:408] seg_loss -> seg_loss
I0305 20:46:34.234627  6165 layer_factory.hpp:77] Creating layer seg_loss
I0305 20:46:34.236352  6165 net.cpp:150] Setting up seg_loss
I0305 20:46:34.236366  6165 net.cpp:157] Top shape: (1)
I0305 20:46:34.236369  6165 net.cpp:160]     with loss weight 0.1
I0305 20:46:34.236392  6165 net.cpp:165] Memory required for data: 6643777732
I0305 20:46:34.236397  6165 layer_factory.hpp:77] Creating layer seg_to_det_conv
I0305 20:46:34.236413  6165 net.cpp:100] Creating Layer seg_to_det_conv
I0305 20:46:34.236420  6165 net.cpp:434] seg_to_det_conv <- seg7_seg_relu7_0_split_1
I0305 20:46:34.236431  6165 net.cpp:408] seg_to_det_conv -> seg_to_det_conv
I0305 20:46:34.241212  6165 net.cpp:150] Setting up seg_to_det_conv
I0305 20:46:34.241225  6165 net.cpp:157] Top shape: 8 512 64 64 (16777216)
I0305 20:46:34.241230  6165 net.cpp:165] Memory required for data: 6710886596
I0305 20:46:34.241250  6165 layer_factory.hpp:77] Creating layer mult_conv4_3
I0305 20:46:34.241262  6165 net.cpp:100] Creating Layer mult_conv4_3
I0305 20:46:34.241267  6165 net.cpp:434] mult_conv4_3 <- conv4_3_ori_relu4_3_0_split_1
I0305 20:46:34.241276  6165 net.cpp:434] mult_conv4_3 <- seg_to_det_conv
I0305 20:46:34.241293  6165 net.cpp:408] mult_conv4_3 -> conv4_3_t
I0305 20:46:34.241330  6165 net.cpp:150] Setting up mult_conv4_3
I0305 20:46:34.241339  6165 net.cpp:157] Top shape: 8 512 64 64 (16777216)
I0305 20:46:34.241346  6165 net.cpp:165] Memory required for data: 6777995460
I0305 20:46:34.241353  6165 layer_factory.hpp:77] Creating layer conv4_3_t_mult_conv4_3_0_split
I0305 20:46:34.241365  6165 net.cpp:100] Creating Layer conv4_3_t_mult_conv4_3_0_split
I0305 20:46:34.241377  6165 net.cpp:434] conv4_3_t_mult_conv4_3_0_split <- conv4_3_t
I0305 20:46:34.241386  6165 net.cpp:408] conv4_3_t_mult_conv4_3_0_split -> conv4_3_t_mult_conv4_3_0_split_0
I0305 20:46:34.241395  6165 net.cpp:408] conv4_3_t_mult_conv4_3_0_split -> conv4_3_t_mult_conv4_3_0_split_1
I0305 20:46:34.241436  6165 net.cpp:150] Setting up conv4_3_t_mult_conv4_3_0_split
I0305 20:46:34.241443  6165 net.cpp:157] Top shape: 8 512 64 64 (16777216)
I0305 20:46:34.241467  6165 net.cpp:157] Top shape: 8 512 64 64 (16777216)
I0305 20:46:34.241475  6165 net.cpp:165] Memory required for data: 6912213188
I0305 20:46:34.241482  6165 layer_factory.hpp:77] Creating layer conv4_3_s
I0305 20:46:34.241494  6165 net.cpp:100] Creating Layer conv4_3_s
I0305 20:46:34.241503  6165 net.cpp:434] conv4_3_s <- conv4_3_t_mult_conv4_3_0_split_0
I0305 20:46:34.241513  6165 net.cpp:408] conv4_3_s -> conv4_3_s
I0305 20:46:34.241695  6165 net.cpp:150] Setting up conv4_3_s
I0305 20:46:34.241704  6165 net.cpp:157] Top shape: 8 512 1 1 (4096)
I0305 20:46:34.241708  6165 net.cpp:165] Memory required for data: 6912229572
I0305 20:46:34.241715  6165 layer_factory.hpp:77] Creating layer conv4_3_fc1
I0305 20:46:34.241731  6165 net.cpp:100] Creating Layer conv4_3_fc1
I0305 20:46:34.241741  6165 net.cpp:434] conv4_3_fc1 <- conv4_3_s
I0305 20:46:34.241746  6165 net.cpp:408] conv4_3_fc1 -> conv4_3_fc1
I0305 20:46:34.246265  6165 net.cpp:150] Setting up conv4_3_fc1
I0305 20:46:34.246278  6165 net.cpp:157] Top shape: 8 128 1 1 (1024)
I0305 20:46:34.246281  6165 net.cpp:165] Memory required for data: 6912233668
I0305 20:46:34.246289  6165 layer_factory.hpp:77] Creating layer conv4_3_relu
I0305 20:46:34.246294  6165 net.cpp:100] Creating Layer conv4_3_relu
I0305 20:46:34.246301  6165 net.cpp:434] conv4_3_relu <- conv4_3_fc1
I0305 20:46:34.246307  6165 net.cpp:395] conv4_3_relu -> conv4_3_fc1 (in-place)
I0305 20:46:34.246518  6165 net.cpp:150] Setting up conv4_3_relu
I0305 20:46:34.246528  6165 net.cpp:157] Top shape: 8 128 1 1 (1024)
I0305 20:46:34.246532  6165 net.cpp:165] Memory required for data: 6912237764
I0305 20:46:34.246537  6165 layer_factory.hpp:77] Creating layer conv4_3_fc2
I0305 20:46:34.246551  6165 net.cpp:100] Creating Layer conv4_3_fc2
I0305 20:46:34.246562  6165 net.cpp:434] conv4_3_fc2 <- conv4_3_fc1
I0305 20:46:34.246572  6165 net.cpp:408] conv4_3_fc2 -> conv4_3_fc2
I0305 20:46:34.248147  6165 net.cpp:150] Setting up conv4_3_fc2
I0305 20:46:34.248160  6165 net.cpp:157] Top shape: 8 512 1 1 (4096)
I0305 20:46:34.248167  6165 net.cpp:165] Memory required for data: 6912254148
I0305 20:46:34.248175  6165 layer_factory.hpp:77] Creating layer conv4_3_sig
I0305 20:46:34.248190  6165 net.cpp:100] Creating Layer conv4_3_sig
I0305 20:46:34.248194  6165 net.cpp:434] conv4_3_sig <- conv4_3_fc2
I0305 20:46:34.248201  6165 net.cpp:395] conv4_3_sig -> conv4_3_fc2 (in-place)
I0305 20:46:34.248360  6165 net.cpp:150] Setting up conv4_3_sig
I0305 20:46:34.248373  6165 net.cpp:157] Top shape: 8 512 1 1 (4096)
I0305 20:46:34.248375  6165 net.cpp:165] Memory required for data: 6912270532
I0305 20:46:34.248380  6165 layer_factory.hpp:77] Creating layer conv4_3_reshape
I0305 20:46:34.248390  6165 net.cpp:100] Creating Layer conv4_3_reshape
I0305 20:46:34.248397  6165 net.cpp:434] conv4_3_reshape <- conv4_3_fc2
I0305 20:46:34.248405  6165 net.cpp:408] conv4_3_reshape -> conv4_3_reshape
I0305 20:46:34.248440  6165 net.cpp:150] Setting up conv4_3_reshape
I0305 20:46:34.248447  6165 net.cpp:157] Top shape: 8 512 (4096)
I0305 20:46:34.248451  6165 net.cpp:165] Memory required for data: 6912286916
I0305 20:46:34.248456  6165 layer_factory.hpp:77] Creating layer conv4_3_scale
I0305 20:46:34.248463  6165 net.cpp:100] Creating Layer conv4_3_scale
I0305 20:46:34.248472  6165 net.cpp:434] conv4_3_scale <- conv4_3_t_mult_conv4_3_0_split_1
I0305 20:46:34.248483  6165 net.cpp:434] conv4_3_scale <- conv4_3_reshape
I0305 20:46:34.248491  6165 net.cpp:408] conv4_3_scale -> conv4_3
I0305 20:46:34.248561  6165 net.cpp:150] Setting up conv4_3_scale
I0305 20:46:34.248569  6165 net.cpp:157] Top shape: 8 512 64 64 (16777216)
I0305 20:46:34.248571  6165 net.cpp:165] Memory required for data: 6979395780
I0305 20:46:34.248575  6165 layer_factory.hpp:77] Creating layer conv4_3_conv4_3_scale_0_split
I0305 20:46:34.248585  6165 net.cpp:100] Creating Layer conv4_3_conv4_3_scale_0_split
I0305 20:46:34.248600  6165 net.cpp:434] conv4_3_conv4_3_scale_0_split <- conv4_3
I0305 20:46:34.248612  6165 net.cpp:408] conv4_3_conv4_3_scale_0_split -> conv4_3_conv4_3_scale_0_split_0
I0305 20:46:34.248646  6165 net.cpp:408] conv4_3_conv4_3_scale_0_split -> conv4_3_conv4_3_scale_0_split_1
I0305 20:46:34.248693  6165 net.cpp:150] Setting up conv4_3_conv4_3_scale_0_split
I0305 20:46:34.248703  6165 net.cpp:157] Top shape: 8 512 64 64 (16777216)
I0305 20:46:34.248708  6165 net.cpp:157] Top shape: 8 512 64 64 (16777216)
I0305 20:46:34.248718  6165 net.cpp:165] Memory required for data: 7113613508
I0305 20:46:34.248724  6165 layer_factory.hpp:77] Creating layer pool4
I0305 20:46:34.248740  6165 net.cpp:100] Creating Layer pool4
I0305 20:46:34.248750  6165 net.cpp:434] pool4 <- conv4_3_conv4_3_scale_0_split_0
I0305 20:46:34.248762  6165 net.cpp:408] pool4 -> pool4
I0305 20:46:34.248800  6165 net.cpp:150] Setting up pool4
I0305 20:46:34.248808  6165 net.cpp:157] Top shape: 8 512 32 32 (4194304)
I0305 20:46:34.248811  6165 net.cpp:165] Memory required for data: 7130390724
I0305 20:46:34.248818  6165 layer_factory.hpp:77] Creating layer conv5_1
I0305 20:46:34.248834  6165 net.cpp:100] Creating Layer conv5_1
I0305 20:46:34.248849  6165 net.cpp:434] conv5_1 <- pool4
I0305 20:46:34.248859  6165 net.cpp:408] conv5_1 -> conv5_1
I0305 20:46:34.262338  6165 net.cpp:150] Setting up conv5_1
I0305 20:46:34.262356  6165 net.cpp:157] Top shape: 8 512 32 32 (4194304)
I0305 20:46:34.262361  6165 net.cpp:165] Memory required for data: 7147167940
I0305 20:46:34.262370  6165 layer_factory.hpp:77] Creating layer relu5_1
I0305 20:46:34.262382  6165 net.cpp:100] Creating Layer relu5_1
I0305 20:46:34.262395  6165 net.cpp:434] relu5_1 <- conv5_1
I0305 20:46:34.262404  6165 net.cpp:395] relu5_1 -> conv5_1 (in-place)
I0305 20:46:34.262894  6165 net.cpp:150] Setting up relu5_1
I0305 20:46:34.262907  6165 net.cpp:157] Top shape: 8 512 32 32 (4194304)
I0305 20:46:34.262910  6165 net.cpp:165] Memory required for data: 7163945156
I0305 20:46:34.262917  6165 layer_factory.hpp:77] Creating layer conv5_2
I0305 20:46:34.262933  6165 net.cpp:100] Creating Layer conv5_2
I0305 20:46:34.262943  6165 net.cpp:434] conv5_2 <- conv5_1
I0305 20:46:34.262956  6165 net.cpp:408] conv5_2 -> conv5_2
I0305 20:46:34.276743  6165 net.cpp:150] Setting up conv5_2
I0305 20:46:34.276762  6165 net.cpp:157] Top shape: 8 512 32 32 (4194304)
I0305 20:46:34.276765  6165 net.cpp:165] Memory required for data: 7180722372
I0305 20:46:34.276775  6165 layer_factory.hpp:77] Creating layer relu5_2
I0305 20:46:34.276787  6165 net.cpp:100] Creating Layer relu5_2
I0305 20:46:34.276794  6165 net.cpp:434] relu5_2 <- conv5_2
I0305 20:46:34.276803  6165 net.cpp:395] relu5_2 -> conv5_2 (in-place)
I0305 20:46:34.276967  6165 net.cpp:150] Setting up relu5_2
I0305 20:46:34.276975  6165 net.cpp:157] Top shape: 8 512 32 32 (4194304)
I0305 20:46:34.276979  6165 net.cpp:165] Memory required for data: 7197499588
I0305 20:46:34.276983  6165 layer_factory.hpp:77] Creating layer conv5_3
I0305 20:46:34.276995  6165 net.cpp:100] Creating Layer conv5_3
I0305 20:46:34.277007  6165 net.cpp:434] conv5_3 <- conv5_2
I0305 20:46:34.277019  6165 net.cpp:408] conv5_3 -> conv5_3
I0305 20:46:34.289607  6165 net.cpp:150] Setting up conv5_3
I0305 20:46:34.289625  6165 net.cpp:157] Top shape: 8 512 32 32 (4194304)
I0305 20:46:34.289629  6165 net.cpp:165] Memory required for data: 7214276804
I0305 20:46:34.289640  6165 layer_factory.hpp:77] Creating layer relu5_3
I0305 20:46:34.289651  6165 net.cpp:100] Creating Layer relu5_3
I0305 20:46:34.289662  6165 net.cpp:434] relu5_3 <- conv5_3
I0305 20:46:34.289674  6165 net.cpp:395] relu5_3 -> conv5_3 (in-place)
I0305 20:46:34.289827  6165 net.cpp:150] Setting up relu5_3
I0305 20:46:34.289835  6165 net.cpp:157] Top shape: 8 512 32 32 (4194304)
I0305 20:46:34.289841  6165 net.cpp:165] Memory required for data: 7231054020
I0305 20:46:34.289845  6165 layer_factory.hpp:77] Creating layer pool5
I0305 20:46:34.289865  6165 net.cpp:100] Creating Layer pool5
I0305 20:46:34.289875  6165 net.cpp:434] pool5 <- conv5_3
I0305 20:46:34.289882  6165 net.cpp:408] pool5 -> pool5
I0305 20:46:34.289932  6165 net.cpp:150] Setting up pool5
I0305 20:46:34.289939  6165 net.cpp:157] Top shape: 8 512 32 32 (4194304)
I0305 20:46:34.289970  6165 net.cpp:165] Memory required for data: 7247831236
I0305 20:46:34.289979  6165 layer_factory.hpp:77] Creating layer fc6
I0305 20:46:34.290011  6165 net.cpp:100] Creating Layer fc6
I0305 20:46:34.290019  6165 net.cpp:434] fc6 <- pool5
I0305 20:46:34.290031  6165 net.cpp:408] fc6 -> fc6
I0305 20:46:34.313678  6165 net.cpp:150] Setting up fc6
I0305 20:46:34.313704  6165 net.cpp:157] Top shape: 8 1024 32 32 (8388608)
I0305 20:46:34.313709  6165 net.cpp:165] Memory required for data: 7281385668
I0305 20:46:34.313719  6165 layer_factory.hpp:77] Creating layer relu6
I0305 20:46:34.313732  6165 net.cpp:100] Creating Layer relu6
I0305 20:46:34.313745  6165 net.cpp:434] relu6 <- fc6
I0305 20:46:34.313755  6165 net.cpp:395] relu6 -> fc6 (in-place)
I0305 20:46:34.314436  6165 net.cpp:150] Setting up relu6
I0305 20:46:34.314450  6165 net.cpp:157] Top shape: 8 1024 32 32 (8388608)
I0305 20:46:34.314455  6165 net.cpp:165] Memory required for data: 7314940100
I0305 20:46:34.314460  6165 layer_factory.hpp:77] Creating layer fc7
I0305 20:46:34.314482  6165 net.cpp:100] Creating Layer fc7
I0305 20:46:34.314494  6165 net.cpp:434] fc7 <- fc6
I0305 20:46:34.314507  6165 net.cpp:408] fc7 -> fc7_t
I0305 20:46:34.321921  6165 net.cpp:150] Setting up fc7
I0305 20:46:34.321933  6165 net.cpp:157] Top shape: 8 1024 32 32 (8388608)
I0305 20:46:34.321938  6165 net.cpp:165] Memory required for data: 7348494532
I0305 20:46:34.321949  6165 layer_factory.hpp:77] Creating layer relu7
I0305 20:46:34.321960  6165 net.cpp:100] Creating Layer relu7
I0305 20:46:34.321965  6165 net.cpp:434] relu7 <- fc7_t
I0305 20:46:34.321979  6165 net.cpp:395] relu7 -> fc7_t (in-place)
I0305 20:46:34.322137  6165 net.cpp:150] Setting up relu7
I0305 20:46:34.322147  6165 net.cpp:157] Top shape: 8 1024 32 32 (8388608)
I0305 20:46:34.322150  6165 net.cpp:165] Memory required for data: 7382048964
I0305 20:46:34.322155  6165 layer_factory.hpp:77] Creating layer fc7_t_relu7_0_split
I0305 20:46:34.322162  6165 net.cpp:100] Creating Layer fc7_t_relu7_0_split
I0305 20:46:34.322171  6165 net.cpp:434] fc7_t_relu7_0_split <- fc7_t
I0305 20:46:34.322183  6165 net.cpp:408] fc7_t_relu7_0_split -> fc7_t_relu7_0_split_0
I0305 20:46:34.322192  6165 net.cpp:408] fc7_t_relu7_0_split -> fc7_t_relu7_0_split_1
I0305 20:46:34.322238  6165 net.cpp:150] Setting up fc7_t_relu7_0_split
I0305 20:46:34.322247  6165 net.cpp:157] Top shape: 8 1024 32 32 (8388608)
I0305 20:46:34.322252  6165 net.cpp:157] Top shape: 8 1024 32 32 (8388608)
I0305 20:46:34.322258  6165 net.cpp:165] Memory required for data: 7449157828
I0305 20:46:34.322266  6165 layer_factory.hpp:77] Creating layer fc7_s
I0305 20:46:34.322280  6165 net.cpp:100] Creating Layer fc7_s
I0305 20:46:34.322293  6165 net.cpp:434] fc7_s <- fc7_t_relu7_0_split_0
I0305 20:46:34.322306  6165 net.cpp:408] fc7_s -> fc7_s
I0305 20:46:34.322490  6165 net.cpp:150] Setting up fc7_s
I0305 20:46:34.322499  6165 net.cpp:157] Top shape: 8 1024 1 1 (8192)
I0305 20:46:34.322502  6165 net.cpp:165] Memory required for data: 7449190596
I0305 20:46:34.322509  6165 layer_factory.hpp:77] Creating layer fc7_fc1
I0305 20:46:34.322521  6165 net.cpp:100] Creating Layer fc7_fc1
I0305 20:46:34.322527  6165 net.cpp:434] fc7_fc1 <- fc7_s
I0305 20:46:34.322535  6165 net.cpp:408] fc7_fc1 -> fc7_fc1
I0305 20:46:34.325332  6165 net.cpp:150] Setting up fc7_fc1
I0305 20:46:34.325345  6165 net.cpp:157] Top shape: 8 256 1 1 (2048)
I0305 20:46:34.325350  6165 net.cpp:165] Memory required for data: 7449198788
I0305 20:46:34.325357  6165 layer_factory.hpp:77] Creating layer fc7_relu
I0305 20:46:34.325373  6165 net.cpp:100] Creating Layer fc7_relu
I0305 20:46:34.325377  6165 net.cpp:434] fc7_relu <- fc7_fc1
I0305 20:46:34.325384  6165 net.cpp:395] fc7_relu -> fc7_fc1 (in-place)
I0305 20:46:34.325884  6165 net.cpp:150] Setting up fc7_relu
I0305 20:46:34.325897  6165 net.cpp:157] Top shape: 8 256 1 1 (2048)
I0305 20:46:34.325901  6165 net.cpp:165] Memory required for data: 7449206980
I0305 20:46:34.325908  6165 layer_factory.hpp:77] Creating layer fc7_fc2
I0305 20:46:34.325943  6165 net.cpp:100] Creating Layer fc7_fc2
I0305 20:46:34.325948  6165 net.cpp:434] fc7_fc2 <- fc7_fc1
I0305 20:46:34.325960  6165 net.cpp:408] fc7_fc2 -> fc7_fc2
I0305 20:46:34.328805  6165 net.cpp:150] Setting up fc7_fc2
I0305 20:46:34.328819  6165 net.cpp:157] Top shape: 8 1024 1 1 (8192)
I0305 20:46:34.328824  6165 net.cpp:165] Memory required for data: 7449239748
I0305 20:46:34.328830  6165 layer_factory.hpp:77] Creating layer fc7_sig
I0305 20:46:34.328845  6165 net.cpp:100] Creating Layer fc7_sig
I0305 20:46:34.328850  6165 net.cpp:434] fc7_sig <- fc7_fc2
I0305 20:46:34.328860  6165 net.cpp:395] fc7_sig -> fc7_fc2 (in-place)
I0305 20:46:34.329025  6165 net.cpp:150] Setting up fc7_sig
I0305 20:46:34.329035  6165 net.cpp:157] Top shape: 8 1024 1 1 (8192)
I0305 20:46:34.329037  6165 net.cpp:165] Memory required for data: 7449272516
I0305 20:46:34.329042  6165 layer_factory.hpp:77] Creating layer fc7_reshape
I0305 20:46:34.329051  6165 net.cpp:100] Creating Layer fc7_reshape
I0305 20:46:34.329057  6165 net.cpp:434] fc7_reshape <- fc7_fc2
I0305 20:46:34.329064  6165 net.cpp:408] fc7_reshape -> fc7_reshape
I0305 20:46:34.329097  6165 net.cpp:150] Setting up fc7_reshape
I0305 20:46:34.329103  6165 net.cpp:157] Top shape: 8 1024 (8192)
I0305 20:46:34.329108  6165 net.cpp:165] Memory required for data: 7449305284
I0305 20:46:34.329111  6165 layer_factory.hpp:77] Creating layer fc7_scale
I0305 20:46:34.329123  6165 net.cpp:100] Creating Layer fc7_scale
I0305 20:46:34.329129  6165 net.cpp:434] fc7_scale <- fc7_t_relu7_0_split_1
I0305 20:46:34.329138  6165 net.cpp:434] fc7_scale <- fc7_reshape
I0305 20:46:34.329155  6165 net.cpp:408] fc7_scale -> fc7
I0305 20:46:34.329226  6165 net.cpp:150] Setting up fc7_scale
I0305 20:46:34.329236  6165 net.cpp:157] Top shape: 8 1024 32 32 (8388608)
I0305 20:46:34.329241  6165 net.cpp:165] Memory required for data: 7482859716
I0305 20:46:34.329246  6165 layer_factory.hpp:77] Creating layer fc7_fc7_scale_0_split
I0305 20:46:34.329257  6165 net.cpp:100] Creating Layer fc7_fc7_scale_0_split
I0305 20:46:34.329268  6165 net.cpp:434] fc7_fc7_scale_0_split <- fc7
I0305 20:46:34.329282  6165 net.cpp:408] fc7_fc7_scale_0_split -> fc7_fc7_scale_0_split_0
I0305 20:46:34.329295  6165 net.cpp:408] fc7_fc7_scale_0_split -> fc7_fc7_scale_0_split_1
I0305 20:46:34.329303  6165 net.cpp:408] fc7_fc7_scale_0_split -> fc7_fc7_scale_0_split_2
I0305 20:46:34.329313  6165 net.cpp:408] fc7_fc7_scale_0_split -> fc7_fc7_scale_0_split_3
I0305 20:46:34.329366  6165 net.cpp:150] Setting up fc7_fc7_scale_0_split
I0305 20:46:34.329373  6165 net.cpp:157] Top shape: 8 1024 32 32 (8388608)
I0305 20:46:34.329380  6165 net.cpp:157] Top shape: 8 1024 32 32 (8388608)
I0305 20:46:34.329390  6165 net.cpp:157] Top shape: 8 1024 32 32 (8388608)
I0305 20:46:34.329399  6165 net.cpp:157] Top shape: 8 1024 32 32 (8388608)
I0305 20:46:34.329404  6165 net.cpp:165] Memory required for data: 7617077444
I0305 20:46:34.329409  6165 layer_factory.hpp:77] Creating layer conv6_1
I0305 20:46:34.329424  6165 net.cpp:100] Creating Layer conv6_1
I0305 20:46:34.329432  6165 net.cpp:434] conv6_1 <- fc7_fc7_scale_0_split_0
I0305 20:46:34.329439  6165 net.cpp:408] conv6_1 -> conv6_1
I0305 20:46:34.332237  6165 net.cpp:150] Setting up conv6_1
I0305 20:46:34.332250  6165 net.cpp:157] Top shape: 8 256 32 32 (2097152)
I0305 20:46:34.332254  6165 net.cpp:165] Memory required for data: 7625466052
I0305 20:46:34.332262  6165 layer_factory.hpp:77] Creating layer conv6_1_relu
I0305 20:46:34.332273  6165 net.cpp:100] Creating Layer conv6_1_relu
I0305 20:46:34.332280  6165 net.cpp:434] conv6_1_relu <- conv6_1
I0305 20:46:34.332286  6165 net.cpp:395] conv6_1_relu -> conv6_1 (in-place)
I0305 20:46:34.332443  6165 net.cpp:150] Setting up conv6_1_relu
I0305 20:46:34.332453  6165 net.cpp:157] Top shape: 8 256 32 32 (2097152)
I0305 20:46:34.332456  6165 net.cpp:165] Memory required for data: 7633854660
I0305 20:46:34.332460  6165 layer_factory.hpp:77] Creating layer conv6_2
I0305 20:46:34.332471  6165 net.cpp:100] Creating Layer conv6_2
I0305 20:46:34.332492  6165 net.cpp:434] conv6_2 <- conv6_1
I0305 20:46:34.332500  6165 net.cpp:408] conv6_2 -> conv6_2_t
I0305 20:46:34.339442  6165 net.cpp:150] Setting up conv6_2
I0305 20:46:34.339457  6165 net.cpp:157] Top shape: 8 512 16 16 (1048576)
I0305 20:46:34.339460  6165 net.cpp:165] Memory required for data: 7638048964
I0305 20:46:34.339468  6165 layer_factory.hpp:77] Creating layer conv6_2_relu
I0305 20:46:34.339478  6165 net.cpp:100] Creating Layer conv6_2_relu
I0305 20:46:34.339486  6165 net.cpp:434] conv6_2_relu <- conv6_2_t
I0305 20:46:34.339495  6165 net.cpp:395] conv6_2_relu -> conv6_2_t (in-place)
I0305 20:46:34.339665  6165 net.cpp:150] Setting up conv6_2_relu
I0305 20:46:34.339675  6165 net.cpp:157] Top shape: 8 512 16 16 (1048576)
I0305 20:46:34.339680  6165 net.cpp:165] Memory required for data: 7642243268
I0305 20:46:34.339686  6165 layer_factory.hpp:77] Creating layer conv6_2_t_conv6_2_relu_0_split
I0305 20:46:34.339695  6165 net.cpp:100] Creating Layer conv6_2_t_conv6_2_relu_0_split
I0305 20:46:34.339704  6165 net.cpp:434] conv6_2_t_conv6_2_relu_0_split <- conv6_2_t
I0305 20:46:34.339716  6165 net.cpp:408] conv6_2_t_conv6_2_relu_0_split -> conv6_2_t_conv6_2_relu_0_split_0
I0305 20:46:34.339727  6165 net.cpp:408] conv6_2_t_conv6_2_relu_0_split -> conv6_2_t_conv6_2_relu_0_split_1
I0305 20:46:34.339773  6165 net.cpp:150] Setting up conv6_2_t_conv6_2_relu_0_split
I0305 20:46:34.339782  6165 net.cpp:157] Top shape: 8 512 16 16 (1048576)
I0305 20:46:34.339787  6165 net.cpp:157] Top shape: 8 512 16 16 (1048576)
I0305 20:46:34.339792  6165 net.cpp:165] Memory required for data: 7650631876
I0305 20:46:34.339799  6165 layer_factory.hpp:77] Creating layer conv6_2_s
I0305 20:46:34.339809  6165 net.cpp:100] Creating Layer conv6_2_s
I0305 20:46:34.339824  6165 net.cpp:434] conv6_2_s <- conv6_2_t_conv6_2_relu_0_split_0
I0305 20:46:34.339835  6165 net.cpp:408] conv6_2_s -> conv6_2_s
I0305 20:46:34.340353  6165 net.cpp:150] Setting up conv6_2_s
I0305 20:46:34.340364  6165 net.cpp:157] Top shape: 8 512 1 1 (4096)
I0305 20:46:34.340368  6165 net.cpp:165] Memory required for data: 7650648260
I0305 20:46:34.340375  6165 layer_factory.hpp:77] Creating layer conv6_2_fc1
I0305 20:46:34.340387  6165 net.cpp:100] Creating Layer conv6_2_fc1
I0305 20:46:34.340396  6165 net.cpp:434] conv6_2_fc1 <- conv6_2_s
I0305 20:46:34.340407  6165 net.cpp:408] conv6_2_fc1 -> conv6_2_fc1
I0305 20:46:34.341694  6165 net.cpp:150] Setting up conv6_2_fc1
I0305 20:46:34.341707  6165 net.cpp:157] Top shape: 8 128 1 1 (1024)
I0305 20:46:34.341712  6165 net.cpp:165] Memory required for data: 7650652356
I0305 20:46:34.341722  6165 layer_factory.hpp:77] Creating layer conv6_2_relu
I0305 20:46:34.341733  6165 net.cpp:100] Creating Layer conv6_2_relu
I0305 20:46:34.341738  6165 net.cpp:434] conv6_2_relu <- conv6_2_fc1
I0305 20:46:34.341744  6165 net.cpp:395] conv6_2_relu -> conv6_2_fc1 (in-place)
I0305 20:46:34.341894  6165 net.cpp:150] Setting up conv6_2_relu
I0305 20:46:34.341904  6165 net.cpp:157] Top shape: 8 128 1 1 (1024)
I0305 20:46:34.341907  6165 net.cpp:165] Memory required for data: 7650656452
I0305 20:46:34.341912  6165 layer_factory.hpp:77] Creating layer conv6_2_fc2
I0305 20:46:34.341923  6165 net.cpp:100] Creating Layer conv6_2_fc2
I0305 20:46:34.341936  6165 net.cpp:434] conv6_2_fc2 <- conv6_2_fc1
I0305 20:46:34.341944  6165 net.cpp:408] conv6_2_fc2 -> conv6_2_fc2
I0305 20:46:34.343256  6165 net.cpp:150] Setting up conv6_2_fc2
I0305 20:46:34.343269  6165 net.cpp:157] Top shape: 8 512 1 1 (4096)
I0305 20:46:34.343274  6165 net.cpp:165] Memory required for data: 7650672836
I0305 20:46:34.343283  6165 layer_factory.hpp:77] Creating layer conv6_2_sig
I0305 20:46:34.343297  6165 net.cpp:100] Creating Layer conv6_2_sig
I0305 20:46:34.343302  6165 net.cpp:434] conv6_2_sig <- conv6_2_fc2
I0305 20:46:34.343314  6165 net.cpp:395] conv6_2_sig -> conv6_2_fc2 (in-place)
I0305 20:46:34.343477  6165 net.cpp:150] Setting up conv6_2_sig
I0305 20:46:34.343487  6165 net.cpp:157] Top shape: 8 512 1 1 (4096)
I0305 20:46:34.343490  6165 net.cpp:165] Memory required for data: 7650689220
I0305 20:46:34.343513  6165 layer_factory.hpp:77] Creating layer conv6_2_reshape
I0305 20:46:34.343523  6165 net.cpp:100] Creating Layer conv6_2_reshape
I0305 20:46:34.343528  6165 net.cpp:434] conv6_2_reshape <- conv6_2_fc2
I0305 20:46:34.343536  6165 net.cpp:408] conv6_2_reshape -> conv6_2_reshape
I0305 20:46:34.343575  6165 net.cpp:150] Setting up conv6_2_reshape
I0305 20:46:34.343581  6165 net.cpp:157] Top shape: 8 512 (4096)
I0305 20:46:34.343585  6165 net.cpp:165] Memory required for data: 7650705604
I0305 20:46:34.343588  6165 layer_factory.hpp:77] Creating layer conv6_2_scale
I0305 20:46:34.343598  6165 net.cpp:100] Creating Layer conv6_2_scale
I0305 20:46:34.343606  6165 net.cpp:434] conv6_2_scale <- conv6_2_t_conv6_2_relu_0_split_1
I0305 20:46:34.343616  6165 net.cpp:434] conv6_2_scale <- conv6_2_reshape
I0305 20:46:34.343626  6165 net.cpp:408] conv6_2_scale -> conv6_2
I0305 20:46:34.343698  6165 net.cpp:150] Setting up conv6_2_scale
I0305 20:46:34.343705  6165 net.cpp:157] Top shape: 8 512 16 16 (1048576)
I0305 20:46:34.343709  6165 net.cpp:165] Memory required for data: 7654899908
I0305 20:46:34.343715  6165 layer_factory.hpp:77] Creating layer conv6_2_conv6_2_scale_0_split
I0305 20:46:34.343725  6165 net.cpp:100] Creating Layer conv6_2_conv6_2_scale_0_split
I0305 20:46:34.343739  6165 net.cpp:434] conv6_2_conv6_2_scale_0_split <- conv6_2
I0305 20:46:34.343752  6165 net.cpp:408] conv6_2_conv6_2_scale_0_split -> conv6_2_conv6_2_scale_0_split_0
I0305 20:46:34.343775  6165 net.cpp:408] conv6_2_conv6_2_scale_0_split -> conv6_2_conv6_2_scale_0_split_1
I0305 20:46:34.343788  6165 net.cpp:408] conv6_2_conv6_2_scale_0_split -> conv6_2_conv6_2_scale_0_split_2
I0305 20:46:34.343803  6165 net.cpp:408] conv6_2_conv6_2_scale_0_split -> conv6_2_conv6_2_scale_0_split_3
I0305 20:46:34.343858  6165 net.cpp:150] Setting up conv6_2_conv6_2_scale_0_split
I0305 20:46:34.343866  6165 net.cpp:157] Top shape: 8 512 16 16 (1048576)
I0305 20:46:34.343871  6165 net.cpp:157] Top shape: 8 512 16 16 (1048576)
I0305 20:46:34.343878  6165 net.cpp:157] Top shape: 8 512 16 16 (1048576)
I0305 20:46:34.343885  6165 net.cpp:157] Top shape: 8 512 16 16 (1048576)
I0305 20:46:34.343895  6165 net.cpp:165] Memory required for data: 7671677124
I0305 20:46:34.343906  6165 layer_factory.hpp:77] Creating layer conv7_1
I0305 20:46:34.343916  6165 net.cpp:100] Creating Layer conv7_1
I0305 20:46:34.343921  6165 net.cpp:434] conv7_1 <- conv6_2_conv6_2_scale_0_split_0
I0305 20:46:34.343931  6165 net.cpp:408] conv7_1 -> conv7_1
I0305 20:46:34.345207  6165 net.cpp:150] Setting up conv7_1
I0305 20:46:34.345221  6165 net.cpp:157] Top shape: 8 128 16 16 (262144)
I0305 20:46:34.345224  6165 net.cpp:165] Memory required for data: 7672725700
I0305 20:46:34.345232  6165 layer_factory.hpp:77] Creating layer conv7_1_relu
I0305 20:46:34.345242  6165 net.cpp:100] Creating Layer conv7_1_relu
I0305 20:46:34.345254  6165 net.cpp:434] conv7_1_relu <- conv7_1
I0305 20:46:34.345261  6165 net.cpp:395] conv7_1_relu -> conv7_1 (in-place)
I0305 20:46:34.346426  6165 net.cpp:150] Setting up conv7_1_relu
I0305 20:46:34.346437  6165 net.cpp:157] Top shape: 8 128 16 16 (262144)
I0305 20:46:34.346441  6165 net.cpp:165] Memory required for data: 7673774276
I0305 20:46:34.346446  6165 layer_factory.hpp:77] Creating layer conv7_2
I0305 20:46:34.346460  6165 net.cpp:100] Creating Layer conv7_2
I0305 20:46:34.346467  6165 net.cpp:434] conv7_2 <- conv7_1
I0305 20:46:34.346475  6165 net.cpp:408] conv7_2 -> conv7_2_t
I0305 20:46:34.349741  6165 net.cpp:150] Setting up conv7_2
I0305 20:46:34.349755  6165 net.cpp:157] Top shape: 8 256 8 8 (131072)
I0305 20:46:34.349759  6165 net.cpp:165] Memory required for data: 7674298564
I0305 20:46:34.349766  6165 layer_factory.hpp:77] Creating layer conv7_2_relu
I0305 20:46:34.349773  6165 net.cpp:100] Creating Layer conv7_2_relu
I0305 20:46:34.349778  6165 net.cpp:434] conv7_2_relu <- conv7_2_t
I0305 20:46:34.349784  6165 net.cpp:395] conv7_2_relu -> conv7_2_t (in-place)
I0305 20:46:34.349951  6165 net.cpp:150] Setting up conv7_2_relu
I0305 20:46:34.349969  6165 net.cpp:157] Top shape: 8 256 8 8 (131072)
I0305 20:46:34.349973  6165 net.cpp:165] Memory required for data: 7674822852
I0305 20:46:34.349977  6165 layer_factory.hpp:77] Creating layer conv7_2_t_conv7_2_relu_0_split
I0305 20:46:34.349984  6165 net.cpp:100] Creating Layer conv7_2_t_conv7_2_relu_0_split
I0305 20:46:34.349990  6165 net.cpp:434] conv7_2_t_conv7_2_relu_0_split <- conv7_2_t
I0305 20:46:34.349998  6165 net.cpp:408] conv7_2_t_conv7_2_relu_0_split -> conv7_2_t_conv7_2_relu_0_split_0
I0305 20:46:34.350013  6165 net.cpp:408] conv7_2_t_conv7_2_relu_0_split -> conv7_2_t_conv7_2_relu_0_split_1
I0305 20:46:34.350062  6165 net.cpp:150] Setting up conv7_2_t_conv7_2_relu_0_split
I0305 20:46:34.350069  6165 net.cpp:157] Top shape: 8 256 8 8 (131072)
I0305 20:46:34.350073  6165 net.cpp:157] Top shape: 8 256 8 8 (131072)
I0305 20:46:34.350080  6165 net.cpp:165] Memory required for data: 7675871428
I0305 20:46:34.350086  6165 layer_factory.hpp:77] Creating layer conv7_2_s
I0305 20:46:34.350098  6165 net.cpp:100] Creating Layer conv7_2_s
I0305 20:46:34.350107  6165 net.cpp:434] conv7_2_s <- conv7_2_t_conv7_2_relu_0_split_0
I0305 20:46:34.350121  6165 net.cpp:408] conv7_2_s -> conv7_2_s
I0305 20:46:34.350301  6165 net.cpp:150] Setting up conv7_2_s
I0305 20:46:34.350309  6165 net.cpp:157] Top shape: 8 256 1 1 (2048)
I0305 20:46:34.350313  6165 net.cpp:165] Memory required for data: 7675879620
I0305 20:46:34.350319  6165 layer_factory.hpp:77] Creating layer conv7_2_fc1
I0305 20:46:34.350365  6165 net.cpp:100] Creating Layer conv7_2_fc1
I0305 20:46:34.350374  6165 net.cpp:434] conv7_2_fc1 <- conv7_2_s
I0305 20:46:34.350385  6165 net.cpp:408] conv7_2_fc1 -> conv7_2_fc1
I0305 20:46:34.351501  6165 net.cpp:150] Setting up conv7_2_fc1
I0305 20:46:34.351513  6165 net.cpp:157] Top shape: 8 64 1 1 (512)
I0305 20:46:34.351518  6165 net.cpp:165] Memory required for data: 7675881668
I0305 20:46:34.351541  6165 layer_factory.hpp:77] Creating layer conv7_2_relu
I0305 20:46:34.351549  6165 net.cpp:100] Creating Layer conv7_2_relu
I0305 20:46:34.351557  6165 net.cpp:434] conv7_2_relu <- conv7_2_fc1
I0305 20:46:34.351568  6165 net.cpp:395] conv7_2_relu -> conv7_2_fc1 (in-place)
I0305 20:46:34.352063  6165 net.cpp:150] Setting up conv7_2_relu
I0305 20:46:34.352074  6165 net.cpp:157] Top shape: 8 64 1 1 (512)
I0305 20:46:34.352079  6165 net.cpp:165] Memory required for data: 7675883716
I0305 20:46:34.352088  6165 layer_factory.hpp:77] Creating layer conv7_2_fc2
I0305 20:46:34.352108  6165 net.cpp:100] Creating Layer conv7_2_fc2
I0305 20:46:34.352115  6165 net.cpp:434] conv7_2_fc2 <- conv7_2_fc1
I0305 20:46:34.352125  6165 net.cpp:408] conv7_2_fc2 -> conv7_2_fc2
I0305 20:46:34.353535  6165 net.cpp:150] Setting up conv7_2_fc2
I0305 20:46:34.353548  6165 net.cpp:157] Top shape: 8 256 1 1 (2048)
I0305 20:46:34.353551  6165 net.cpp:165] Memory required for data: 7675891908
I0305 20:46:34.353559  6165 layer_factory.hpp:77] Creating layer conv7_2_sig
I0305 20:46:34.353567  6165 net.cpp:100] Creating Layer conv7_2_sig
I0305 20:46:34.353574  6165 net.cpp:434] conv7_2_sig <- conv7_2_fc2
I0305 20:46:34.353579  6165 net.cpp:395] conv7_2_sig -> conv7_2_fc2 (in-place)
I0305 20:46:34.353734  6165 net.cpp:150] Setting up conv7_2_sig
I0305 20:46:34.353741  6165 net.cpp:157] Top shape: 8 256 1 1 (2048)
I0305 20:46:34.353745  6165 net.cpp:165] Memory required for data: 7675900100
I0305 20:46:34.353749  6165 layer_factory.hpp:77] Creating layer conv7_2_reshape
I0305 20:46:34.353756  6165 net.cpp:100] Creating Layer conv7_2_reshape
I0305 20:46:34.353763  6165 net.cpp:434] conv7_2_reshape <- conv7_2_fc2
I0305 20:46:34.353777  6165 net.cpp:408] conv7_2_reshape -> conv7_2_reshape
I0305 20:46:34.353808  6165 net.cpp:150] Setting up conv7_2_reshape
I0305 20:46:34.353816  6165 net.cpp:157] Top shape: 8 256 (2048)
I0305 20:46:34.353819  6165 net.cpp:165] Memory required for data: 7675908292
I0305 20:46:34.353823  6165 layer_factory.hpp:77] Creating layer conv7_2_scale
I0305 20:46:34.353834  6165 net.cpp:100] Creating Layer conv7_2_scale
I0305 20:46:34.353852  6165 net.cpp:434] conv7_2_scale <- conv7_2_t_conv7_2_relu_0_split_1
I0305 20:46:34.353858  6165 net.cpp:434] conv7_2_scale <- conv7_2_reshape
I0305 20:46:34.353869  6165 net.cpp:408] conv7_2_scale -> conv7_2
I0305 20:46:34.353950  6165 net.cpp:150] Setting up conv7_2_scale
I0305 20:46:34.353957  6165 net.cpp:157] Top shape: 8 256 8 8 (131072)
I0305 20:46:34.353961  6165 net.cpp:165] Memory required for data: 7676432580
I0305 20:46:34.353967  6165 layer_factory.hpp:77] Creating layer conv7_2_conv7_2_scale_0_split
I0305 20:46:34.353981  6165 net.cpp:100] Creating Layer conv7_2_conv7_2_scale_0_split
I0305 20:46:34.353989  6165 net.cpp:434] conv7_2_conv7_2_scale_0_split <- conv7_2
I0305 20:46:34.354002  6165 net.cpp:408] conv7_2_conv7_2_scale_0_split -> conv7_2_conv7_2_scale_0_split_0
I0305 20:46:34.354012  6165 net.cpp:408] conv7_2_conv7_2_scale_0_split -> conv7_2_conv7_2_scale_0_split_1
I0305 20:46:34.354029  6165 net.cpp:408] conv7_2_conv7_2_scale_0_split -> conv7_2_conv7_2_scale_0_split_2
I0305 20:46:34.354041  6165 net.cpp:408] conv7_2_conv7_2_scale_0_split -> conv7_2_conv7_2_scale_0_split_3
I0305 20:46:34.354106  6165 net.cpp:150] Setting up conv7_2_conv7_2_scale_0_split
I0305 20:46:34.354113  6165 net.cpp:157] Top shape: 8 256 8 8 (131072)
I0305 20:46:34.354120  6165 net.cpp:157] Top shape: 8 256 8 8 (131072)
I0305 20:46:34.354122  6165 net.cpp:157] Top shape: 8 256 8 8 (131072)
I0305 20:46:34.354126  6165 net.cpp:157] Top shape: 8 256 8 8 (131072)
I0305 20:46:34.354130  6165 net.cpp:165] Memory required for data: 7678529732
I0305 20:46:34.354135  6165 layer_factory.hpp:77] Creating layer conv8_1
I0305 20:46:34.354143  6165 net.cpp:100] Creating Layer conv8_1
I0305 20:46:34.354148  6165 net.cpp:434] conv8_1 <- conv7_2_conv7_2_scale_0_split_0
I0305 20:46:34.354161  6165 net.cpp:408] conv8_1 -> conv8_1
I0305 20:46:34.356096  6165 net.cpp:150] Setting up conv8_1
I0305 20:46:34.356107  6165 net.cpp:157] Top shape: 8 128 8 8 (65536)
I0305 20:46:34.356112  6165 net.cpp:165] Memory required for data: 7678791876
I0305 20:46:34.356120  6165 layer_factory.hpp:77] Creating layer conv8_1_relu
I0305 20:46:34.356133  6165 net.cpp:100] Creating Layer conv8_1_relu
I0305 20:46:34.356139  6165 net.cpp:434] conv8_1_relu <- conv8_1
I0305 20:46:34.356148  6165 net.cpp:395] conv8_1_relu -> conv8_1 (in-place)
I0305 20:46:34.356312  6165 net.cpp:150] Setting up conv8_1_relu
I0305 20:46:34.356322  6165 net.cpp:157] Top shape: 8 128 8 8 (65536)
I0305 20:46:34.356326  6165 net.cpp:165] Memory required for data: 7679054020
I0305 20:46:34.356331  6165 layer_factory.hpp:77] Creating layer conv8_2
I0305 20:46:34.356346  6165 net.cpp:100] Creating Layer conv8_2
I0305 20:46:34.356353  6165 net.cpp:434] conv8_2 <- conv8_1
I0305 20:46:34.356359  6165 net.cpp:408] conv8_2 -> conv8_2_t
I0305 20:46:34.359781  6165 net.cpp:150] Setting up conv8_2
I0305 20:46:34.359794  6165 net.cpp:157] Top shape: 8 256 4 4 (32768)
I0305 20:46:34.359798  6165 net.cpp:165] Memory required for data: 7679185092
I0305 20:46:34.359804  6165 layer_factory.hpp:77] Creating layer conv8_2_relu
I0305 20:46:34.359812  6165 net.cpp:100] Creating Layer conv8_2_relu
I0305 20:46:34.359817  6165 net.cpp:434] conv8_2_relu <- conv8_2_t
I0305 20:46:34.359823  6165 net.cpp:395] conv8_2_relu -> conv8_2_t (in-place)
I0305 20:46:34.359985  6165 net.cpp:150] Setting up conv8_2_relu
I0305 20:46:34.359993  6165 net.cpp:157] Top shape: 8 256 4 4 (32768)
I0305 20:46:34.359997  6165 net.cpp:165] Memory required for data: 7679316164
I0305 20:46:34.360002  6165 layer_factory.hpp:77] Creating layer conv8_2_t_conv8_2_relu_0_split
I0305 20:46:34.360013  6165 net.cpp:100] Creating Layer conv8_2_t_conv8_2_relu_0_split
I0305 20:46:34.360024  6165 net.cpp:434] conv8_2_t_conv8_2_relu_0_split <- conv8_2_t
I0305 20:46:34.360031  6165 net.cpp:408] conv8_2_t_conv8_2_relu_0_split -> conv8_2_t_conv8_2_relu_0_split_0
I0305 20:46:34.360040  6165 net.cpp:408] conv8_2_t_conv8_2_relu_0_split -> conv8_2_t_conv8_2_relu_0_split_1
I0305 20:46:34.360087  6165 net.cpp:150] Setting up conv8_2_t_conv8_2_relu_0_split
I0305 20:46:34.360106  6165 net.cpp:157] Top shape: 8 256 4 4 (32768)
I0305 20:46:34.360110  6165 net.cpp:157] Top shape: 8 256 4 4 (32768)
I0305 20:46:34.360114  6165 net.cpp:165] Memory required for data: 7679578308
I0305 20:46:34.360118  6165 layer_factory.hpp:77] Creating layer conv8_2_s
I0305 20:46:34.360131  6165 net.cpp:100] Creating Layer conv8_2_s
I0305 20:46:34.360139  6165 net.cpp:434] conv8_2_s <- conv8_2_t_conv8_2_relu_0_split_0
I0305 20:46:34.360158  6165 net.cpp:408] conv8_2_s -> conv8_2_s
I0305 20:46:34.360677  6165 net.cpp:150] Setting up conv8_2_s
I0305 20:46:34.360687  6165 net.cpp:157] Top shape: 8 256 1 1 (2048)
I0305 20:46:34.360692  6165 net.cpp:165] Memory required for data: 7679586500
I0305 20:46:34.360698  6165 layer_factory.hpp:77] Creating layer conv8_2_fc1
I0305 20:46:34.360710  6165 net.cpp:100] Creating Layer conv8_2_fc1
I0305 20:46:34.360718  6165 net.cpp:434] conv8_2_fc1 <- conv8_2_s
I0305 20:46:34.360726  6165 net.cpp:408] conv8_2_fc1 -> conv8_2_fc1
I0305 20:46:34.361826  6165 net.cpp:150] Setting up conv8_2_fc1
I0305 20:46:34.361838  6165 net.cpp:157] Top shape: 8 64 1 1 (512)
I0305 20:46:34.361842  6165 net.cpp:165] Memory required for data: 7679588548
I0305 20:46:34.361848  6165 layer_factory.hpp:77] Creating layer conv8_2_relu
I0305 20:46:34.361857  6165 net.cpp:100] Creating Layer conv8_2_relu
I0305 20:46:34.361863  6165 net.cpp:434] conv8_2_relu <- conv8_2_fc1
I0305 20:46:34.361873  6165 net.cpp:395] conv8_2_relu -> conv8_2_fc1 (in-place)
I0305 20:46:34.362040  6165 net.cpp:150] Setting up conv8_2_relu
I0305 20:46:34.362049  6165 net.cpp:157] Top shape: 8 64 1 1 (512)
I0305 20:46:34.362052  6165 net.cpp:165] Memory required for data: 7679590596
I0305 20:46:34.362056  6165 layer_factory.hpp:77] Creating layer conv8_2_fc2
I0305 20:46:34.362071  6165 net.cpp:100] Creating Layer conv8_2_fc2
I0305 20:46:34.362078  6165 net.cpp:434] conv8_2_fc2 <- conv8_2_fc1
I0305 20:46:34.362085  6165 net.cpp:408] conv8_2_fc2 -> conv8_2_fc2
I0305 20:46:34.363193  6165 net.cpp:150] Setting up conv8_2_fc2
I0305 20:46:34.363205  6165 net.cpp:157] Top shape: 8 256 1 1 (2048)
I0305 20:46:34.363209  6165 net.cpp:165] Memory required for data: 7679598788
I0305 20:46:34.363220  6165 layer_factory.hpp:77] Creating layer conv8_2_sig
I0305 20:46:34.363230  6165 net.cpp:100] Creating Layer conv8_2_sig
I0305 20:46:34.363236  6165 net.cpp:434] conv8_2_sig <- conv8_2_fc2
I0305 20:46:34.363243  6165 net.cpp:395] conv8_2_sig -> conv8_2_fc2 (in-place)
I0305 20:46:34.363412  6165 net.cpp:150] Setting up conv8_2_sig
I0305 20:46:34.363421  6165 net.cpp:157] Top shape: 8 256 1 1 (2048)
I0305 20:46:34.363425  6165 net.cpp:165] Memory required for data: 7679606980
I0305 20:46:34.363430  6165 layer_factory.hpp:77] Creating layer conv8_2_reshape
I0305 20:46:34.363440  6165 net.cpp:100] Creating Layer conv8_2_reshape
I0305 20:46:34.363451  6165 net.cpp:434] conv8_2_reshape <- conv8_2_fc2
I0305 20:46:34.363461  6165 net.cpp:408] conv8_2_reshape -> conv8_2_reshape
I0305 20:46:34.363500  6165 net.cpp:150] Setting up conv8_2_reshape
I0305 20:46:34.363508  6165 net.cpp:157] Top shape: 8 256 (2048)
I0305 20:46:34.363513  6165 net.cpp:165] Memory required for data: 7679615172
I0305 20:46:34.363517  6165 layer_factory.hpp:77] Creating layer conv8_2_scale
I0305 20:46:34.363523  6165 net.cpp:100] Creating Layer conv8_2_scale
I0305 20:46:34.363531  6165 net.cpp:434] conv8_2_scale <- conv8_2_t_conv8_2_relu_0_split_1
I0305 20:46:34.363544  6165 net.cpp:434] conv8_2_scale <- conv8_2_reshape
I0305 20:46:34.363556  6165 net.cpp:408] conv8_2_scale -> conv8_2
I0305 20:46:34.363628  6165 net.cpp:150] Setting up conv8_2_scale
I0305 20:46:34.363636  6165 net.cpp:157] Top shape: 8 256 4 4 (32768)
I0305 20:46:34.363641  6165 net.cpp:165] Memory required for data: 7679746244
I0305 20:46:34.363647  6165 layer_factory.hpp:77] Creating layer conv8_2_conv8_2_scale_0_split
I0305 20:46:34.363657  6165 net.cpp:100] Creating Layer conv8_2_conv8_2_scale_0_split
I0305 20:46:34.363665  6165 net.cpp:434] conv8_2_conv8_2_scale_0_split <- conv8_2
I0305 20:46:34.363683  6165 net.cpp:408] conv8_2_conv8_2_scale_0_split -> conv8_2_conv8_2_scale_0_split_0
I0305 20:46:34.363692  6165 net.cpp:408] conv8_2_conv8_2_scale_0_split -> conv8_2_conv8_2_scale_0_split_1
I0305 20:46:34.363701  6165 net.cpp:408] conv8_2_conv8_2_scale_0_split -> conv8_2_conv8_2_scale_0_split_2
I0305 20:46:34.363708  6165 net.cpp:408] conv8_2_conv8_2_scale_0_split -> conv8_2_conv8_2_scale_0_split_3
I0305 20:46:34.363766  6165 net.cpp:150] Setting up conv8_2_conv8_2_scale_0_split
I0305 20:46:34.363775  6165 net.cpp:157] Top shape: 8 256 4 4 (32768)
I0305 20:46:34.363782  6165 net.cpp:157] Top shape: 8 256 4 4 (32768)
I0305 20:46:34.363788  6165 net.cpp:157] Top shape: 8 256 4 4 (32768)
I0305 20:46:34.363800  6165 net.cpp:157] Top shape: 8 256 4 4 (32768)
I0305 20:46:34.363804  6165 net.cpp:165] Memory required for data: 7680270532
I0305 20:46:34.363814  6165 layer_factory.hpp:77] Creating layer conv9_1
I0305 20:46:34.363833  6165 net.cpp:100] Creating Layer conv9_1
I0305 20:46:34.363838  6165 net.cpp:434] conv9_1 <- conv8_2_conv8_2_scale_0_split_0
I0305 20:46:34.363849  6165 net.cpp:408] conv9_1 -> conv9_1
I0305 20:46:34.365010  6165 net.cpp:150] Setting up conv9_1
I0305 20:46:34.365021  6165 net.cpp:157] Top shape: 8 128 4 4 (16384)
I0305 20:46:34.365025  6165 net.cpp:165] Memory required for data: 7680336068
I0305 20:46:34.365034  6165 layer_factory.hpp:77] Creating layer conv9_1_relu
I0305 20:46:34.365048  6165 net.cpp:100] Creating Layer conv9_1_relu
I0305 20:46:34.365053  6165 net.cpp:434] conv9_1_relu <- conv9_1
I0305 20:46:34.365059  6165 net.cpp:395] conv9_1_relu -> conv9_1 (in-place)
I0305 20:46:34.366642  6165 net.cpp:150] Setting up conv9_1_relu
I0305 20:46:34.366654  6165 net.cpp:157] Top shape: 8 128 4 4 (16384)
I0305 20:46:34.366658  6165 net.cpp:165] Memory required for data: 7680401604
I0305 20:46:34.366662  6165 layer_factory.hpp:77] Creating layer conv9_2
I0305 20:46:34.366673  6165 net.cpp:100] Creating Layer conv9_2
I0305 20:46:34.366679  6165 net.cpp:434] conv9_2 <- conv9_1
I0305 20:46:34.366686  6165 net.cpp:408] conv9_2 -> conv9_2_t
I0305 20:46:34.369920  6165 net.cpp:150] Setting up conv9_2
I0305 20:46:34.369931  6165 net.cpp:157] Top shape: 8 256 2 2 (8192)
I0305 20:46:34.369935  6165 net.cpp:165] Memory required for data: 7680434372
I0305 20:46:34.369945  6165 layer_factory.hpp:77] Creating layer conv9_2_relu
I0305 20:46:34.369954  6165 net.cpp:100] Creating Layer conv9_2_relu
I0305 20:46:34.369958  6165 net.cpp:434] conv9_2_relu <- conv9_2_t
I0305 20:46:34.369966  6165 net.cpp:395] conv9_2_relu -> conv9_2_t (in-place)
I0305 20:46:34.370136  6165 net.cpp:150] Setting up conv9_2_relu
I0305 20:46:34.370144  6165 net.cpp:157] Top shape: 8 256 2 2 (8192)
I0305 20:46:34.370147  6165 net.cpp:165] Memory required for data: 7680467140
I0305 20:46:34.370153  6165 layer_factory.hpp:77] Creating layer conv9_2_t_conv9_2_relu_0_split
I0305 20:46:34.370163  6165 net.cpp:100] Creating Layer conv9_2_t_conv9_2_relu_0_split
I0305 20:46:34.370168  6165 net.cpp:434] conv9_2_t_conv9_2_relu_0_split <- conv9_2_t
I0305 20:46:34.370177  6165 net.cpp:408] conv9_2_t_conv9_2_relu_0_split -> conv9_2_t_conv9_2_relu_0_split_0
I0305 20:46:34.370188  6165 net.cpp:408] conv9_2_t_conv9_2_relu_0_split -> conv9_2_t_conv9_2_relu_0_split_1
I0305 20:46:34.370234  6165 net.cpp:150] Setting up conv9_2_t_conv9_2_relu_0_split
I0305 20:46:34.370241  6165 net.cpp:157] Top shape: 8 256 2 2 (8192)
I0305 20:46:34.370246  6165 net.cpp:157] Top shape: 8 256 2 2 (8192)
I0305 20:46:34.370250  6165 net.cpp:165] Memory required for data: 7680532676
I0305 20:46:34.370254  6165 layer_factory.hpp:77] Creating layer conv9_2_s
I0305 20:46:34.370265  6165 net.cpp:100] Creating Layer conv9_2_s
I0305 20:46:34.370272  6165 net.cpp:434] conv9_2_s <- conv9_2_t_conv9_2_relu_0_split_0
I0305 20:46:34.370285  6165 net.cpp:408] conv9_2_s -> conv9_2_s
I0305 20:46:34.370478  6165 net.cpp:150] Setting up conv9_2_s
I0305 20:46:34.370487  6165 net.cpp:157] Top shape: 8 256 1 1 (2048)
I0305 20:46:34.370491  6165 net.cpp:165] Memory required for data: 7680540868
I0305 20:46:34.370506  6165 layer_factory.hpp:77] Creating layer conv9_2_fc1
I0305 20:46:34.370515  6165 net.cpp:100] Creating Layer conv9_2_fc1
I0305 20:46:34.370519  6165 net.cpp:434] conv9_2_fc1 <- conv9_2_s
I0305 20:46:34.370532  6165 net.cpp:408] conv9_2_fc1 -> conv9_2_fc1
I0305 20:46:34.371649  6165 net.cpp:150] Setting up conv9_2_fc1
I0305 20:46:34.371660  6165 net.cpp:157] Top shape: 8 64 1 1 (512)
I0305 20:46:34.371665  6165 net.cpp:165] Memory required for data: 7680542916
I0305 20:46:34.371671  6165 layer_factory.hpp:77] Creating layer conv9_2_relu
I0305 20:46:34.371688  6165 net.cpp:100] Creating Layer conv9_2_relu
I0305 20:46:34.371701  6165 net.cpp:434] conv9_2_relu <- conv9_2_fc1
I0305 20:46:34.371716  6165 net.cpp:395] conv9_2_relu -> conv9_2_fc1 (in-place)
I0305 20:46:34.372225  6165 net.cpp:150] Setting up conv9_2_relu
I0305 20:46:34.372236  6165 net.cpp:157] Top shape: 8 64 1 1 (512)
I0305 20:46:34.372239  6165 net.cpp:165] Memory required for data: 7680544964
I0305 20:46:34.372246  6165 layer_factory.hpp:77] Creating layer conv9_2_fc2
I0305 20:46:34.372257  6165 net.cpp:100] Creating Layer conv9_2_fc2
I0305 20:46:34.372270  6165 net.cpp:434] conv9_2_fc2 <- conv9_2_fc1
I0305 20:46:34.372282  6165 net.cpp:408] conv9_2_fc2 -> conv9_2_fc2
I0305 20:46:34.373409  6165 net.cpp:150] Setting up conv9_2_fc2
I0305 20:46:34.373422  6165 net.cpp:157] Top shape: 8 256 1 1 (2048)
I0305 20:46:34.373427  6165 net.cpp:165] Memory required for data: 7680553156
I0305 20:46:34.373437  6165 layer_factory.hpp:77] Creating layer conv9_2_sig
I0305 20:46:34.373450  6165 net.cpp:100] Creating Layer conv9_2_sig
I0305 20:46:34.373456  6165 net.cpp:434] conv9_2_sig <- conv9_2_fc2
I0305 20:46:34.373466  6165 net.cpp:395] conv9_2_sig -> conv9_2_fc2 (in-place)
I0305 20:46:34.373627  6165 net.cpp:150] Setting up conv9_2_sig
I0305 20:46:34.373636  6165 net.cpp:157] Top shape: 8 256 1 1 (2048)
I0305 20:46:34.373639  6165 net.cpp:165] Memory required for data: 7680561348
I0305 20:46:34.373643  6165 layer_factory.hpp:77] Creating layer conv9_2_reshape
I0305 20:46:34.373651  6165 net.cpp:100] Creating Layer conv9_2_reshape
I0305 20:46:34.373658  6165 net.cpp:434] conv9_2_reshape <- conv9_2_fc2
I0305 20:46:34.373667  6165 net.cpp:408] conv9_2_reshape -> conv9_2_reshape
I0305 20:46:34.373703  6165 net.cpp:150] Setting up conv9_2_reshape
I0305 20:46:34.373708  6165 net.cpp:157] Top shape: 8 256 (2048)
I0305 20:46:34.373711  6165 net.cpp:165] Memory required for data: 7680569540
I0305 20:46:34.373715  6165 layer_factory.hpp:77] Creating layer conv9_2_scale
I0305 20:46:34.373737  6165 net.cpp:100] Creating Layer conv9_2_scale
I0305 20:46:34.373742  6165 net.cpp:434] conv9_2_scale <- conv9_2_t_conv9_2_relu_0_split_1
I0305 20:46:34.373747  6165 net.cpp:434] conv9_2_scale <- conv9_2_reshape
I0305 20:46:34.373752  6165 net.cpp:408] conv9_2_scale -> conv9_2
I0305 20:46:34.373817  6165 net.cpp:150] Setting up conv9_2_scale
I0305 20:46:34.373824  6165 net.cpp:157] Top shape: 8 256 2 2 (8192)
I0305 20:46:34.373827  6165 net.cpp:165] Memory required for data: 7680602308
I0305 20:46:34.373831  6165 layer_factory.hpp:77] Creating layer conv9_2_conv9_2_scale_0_split
I0305 20:46:34.373837  6165 net.cpp:100] Creating Layer conv9_2_conv9_2_scale_0_split
I0305 20:46:34.373847  6165 net.cpp:434] conv9_2_conv9_2_scale_0_split <- conv9_2
I0305 20:46:34.373862  6165 net.cpp:408] conv9_2_conv9_2_scale_0_split -> conv9_2_conv9_2_scale_0_split_0
I0305 20:46:34.373875  6165 net.cpp:408] conv9_2_conv9_2_scale_0_split -> conv9_2_conv9_2_scale_0_split_1
I0305 20:46:34.373888  6165 net.cpp:408] conv9_2_conv9_2_scale_0_split -> conv9_2_conv9_2_scale_0_split_2
I0305 20:46:34.373895  6165 net.cpp:408] conv9_2_conv9_2_scale_0_split -> conv9_2_conv9_2_scale_0_split_3
I0305 20:46:34.373960  6165 net.cpp:150] Setting up conv9_2_conv9_2_scale_0_split
I0305 20:46:34.373968  6165 net.cpp:157] Top shape: 8 256 2 2 (8192)
I0305 20:46:34.373973  6165 net.cpp:157] Top shape: 8 256 2 2 (8192)
I0305 20:46:34.373980  6165 net.cpp:157] Top shape: 8 256 2 2 (8192)
I0305 20:46:34.374004  6165 net.cpp:157] Top shape: 8 256 2 2 (8192)
I0305 20:46:34.374008  6165 net.cpp:165] Memory required for data: 7680733380
I0305 20:46:34.374012  6165 layer_factory.hpp:77] Creating layer conv10_1
I0305 20:46:34.374027  6165 net.cpp:100] Creating Layer conv10_1
I0305 20:46:34.374034  6165 net.cpp:434] conv10_1 <- conv9_2_conv9_2_scale_0_split_0
I0305 20:46:34.374043  6165 net.cpp:408] conv10_1 -> conv10_1
I0305 20:46:34.375223  6165 net.cpp:150] Setting up conv10_1
I0305 20:46:34.375236  6165 net.cpp:157] Top shape: 8 128 2 2 (4096)
I0305 20:46:34.375239  6165 net.cpp:165] Memory required for data: 7680749764
I0305 20:46:34.375249  6165 layer_factory.hpp:77] Creating layer conv10_1_relu
I0305 20:46:34.375259  6165 net.cpp:100] Creating Layer conv10_1_relu
I0305 20:46:34.375267  6165 net.cpp:434] conv10_1_relu <- conv10_1
I0305 20:46:34.375278  6165 net.cpp:395] conv10_1_relu -> conv10_1 (in-place)
I0305 20:46:34.375438  6165 net.cpp:150] Setting up conv10_1_relu
I0305 20:46:34.375447  6165 net.cpp:157] Top shape: 8 128 2 2 (4096)
I0305 20:46:34.375450  6165 net.cpp:165] Memory required for data: 7680766148
I0305 20:46:34.375458  6165 layer_factory.hpp:77] Creating layer conv10_2
I0305 20:46:34.375473  6165 net.cpp:100] Creating Layer conv10_2
I0305 20:46:34.375478  6165 net.cpp:434] conv10_2 <- conv10_1
I0305 20:46:34.375485  6165 net.cpp:408] conv10_2 -> conv10_2_t
I0305 20:46:34.379804  6165 net.cpp:150] Setting up conv10_2
I0305 20:46:34.379817  6165 net.cpp:157] Top shape: 8 256 1 1 (2048)
I0305 20:46:34.379822  6165 net.cpp:165] Memory required for data: 7680774340
I0305 20:46:34.379833  6165 layer_factory.hpp:77] Creating layer conv10_2_relu
I0305 20:46:34.379843  6165 net.cpp:100] Creating Layer conv10_2_relu
I0305 20:46:34.379848  6165 net.cpp:434] conv10_2_relu <- conv10_2_t
I0305 20:46:34.379863  6165 net.cpp:395] conv10_2_relu -> conv10_2_t (in-place)
I0305 20:46:34.380031  6165 net.cpp:150] Setting up conv10_2_relu
I0305 20:46:34.380039  6165 net.cpp:157] Top shape: 8 256 1 1 (2048)
I0305 20:46:34.380043  6165 net.cpp:165] Memory required for data: 7680782532
I0305 20:46:34.380051  6165 layer_factory.hpp:77] Creating layer conv10_2_t_conv10_2_relu_0_split
I0305 20:46:34.380064  6165 net.cpp:100] Creating Layer conv10_2_t_conv10_2_relu_0_split
I0305 20:46:34.380071  6165 net.cpp:434] conv10_2_t_conv10_2_relu_0_split <- conv10_2_t
I0305 20:46:34.380081  6165 net.cpp:408] conv10_2_t_conv10_2_relu_0_split -> conv10_2_t_conv10_2_relu_0_split_0
I0305 20:46:34.380095  6165 net.cpp:408] conv10_2_t_conv10_2_relu_0_split -> conv10_2_t_conv10_2_relu_0_split_1
I0305 20:46:34.380141  6165 net.cpp:150] Setting up conv10_2_t_conv10_2_relu_0_split
I0305 20:46:34.380147  6165 net.cpp:157] Top shape: 8 256 1 1 (2048)
I0305 20:46:34.380152  6165 net.cpp:157] Top shape: 8 256 1 1 (2048)
I0305 20:46:34.380163  6165 net.cpp:165] Memory required for data: 7680798916
I0305 20:46:34.380169  6165 layer_factory.hpp:77] Creating layer conv10_2_s
I0305 20:46:34.380184  6165 net.cpp:100] Creating Layer conv10_2_s
I0305 20:46:34.380194  6165 net.cpp:434] conv10_2_s <- conv10_2_t_conv10_2_relu_0_split_0
I0305 20:46:34.380214  6165 net.cpp:408] conv10_2_s -> conv10_2_s
I0305 20:46:34.380743  6165 net.cpp:150] Setting up conv10_2_s
I0305 20:46:34.380755  6165 net.cpp:157] Top shape: 8 256 1 1 (2048)
I0305 20:46:34.380760  6165 net.cpp:165] Memory required for data: 7680807108
I0305 20:46:34.380769  6165 layer_factory.hpp:77] Creating layer conv10_2_fc1
I0305 20:46:34.380784  6165 net.cpp:100] Creating Layer conv10_2_fc1
I0305 20:46:34.380790  6165 net.cpp:434] conv10_2_fc1 <- conv10_2_s
I0305 20:46:34.380803  6165 net.cpp:408] conv10_2_fc1 -> conv10_2_fc1
I0305 20:46:34.381948  6165 net.cpp:150] Setting up conv10_2_fc1
I0305 20:46:34.381961  6165 net.cpp:157] Top shape: 8 64 1 1 (512)
I0305 20:46:34.381966  6165 net.cpp:165] Memory required for data: 7680809156
I0305 20:46:34.381976  6165 layer_factory.hpp:77] Creating layer conv10_2_relu
I0305 20:46:34.381989  6165 net.cpp:100] Creating Layer conv10_2_relu
I0305 20:46:34.382010  6165 net.cpp:434] conv10_2_relu <- conv10_2_fc1
I0305 20:46:34.382019  6165 net.cpp:395] conv10_2_relu -> conv10_2_fc1 (in-place)
I0305 20:46:34.382181  6165 net.cpp:150] Setting up conv10_2_relu
I0305 20:46:34.382191  6165 net.cpp:157] Top shape: 8 64 1 1 (512)
I0305 20:46:34.382194  6165 net.cpp:165] Memory required for data: 7680811204
I0305 20:46:34.382197  6165 layer_factory.hpp:77] Creating layer conv10_2_fc2
I0305 20:46:34.382207  6165 net.cpp:100] Creating Layer conv10_2_fc2
I0305 20:46:34.382215  6165 net.cpp:434] conv10_2_fc2 <- conv10_2_fc1
I0305 20:46:34.382225  6165 net.cpp:408] conv10_2_fc2 -> conv10_2_fc2
I0305 20:46:34.383394  6165 net.cpp:150] Setting up conv10_2_fc2
I0305 20:46:34.383405  6165 net.cpp:157] Top shape: 8 256 1 1 (2048)
I0305 20:46:34.383411  6165 net.cpp:165] Memory required for data: 7680819396
I0305 20:46:34.383424  6165 layer_factory.hpp:77] Creating layer conv10_2_sig
I0305 20:46:34.383438  6165 net.cpp:100] Creating Layer conv10_2_sig
I0305 20:46:34.383446  6165 net.cpp:434] conv10_2_sig <- conv10_2_fc2
I0305 20:46:34.383460  6165 net.cpp:395] conv10_2_sig -> conv10_2_fc2 (in-place)
I0305 20:46:34.383627  6165 net.cpp:150] Setting up conv10_2_sig
I0305 20:46:34.383636  6165 net.cpp:157] Top shape: 8 256 1 1 (2048)
I0305 20:46:34.383641  6165 net.cpp:165] Memory required for data: 7680827588
I0305 20:46:34.383651  6165 layer_factory.hpp:77] Creating layer conv10_2_reshape
I0305 20:46:34.383661  6165 net.cpp:100] Creating Layer conv10_2_reshape
I0305 20:46:34.383671  6165 net.cpp:434] conv10_2_reshape <- conv10_2_fc2
I0305 20:46:34.383683  6165 net.cpp:408] conv10_2_reshape -> conv10_2_reshape
I0305 20:46:34.383723  6165 net.cpp:150] Setting up conv10_2_reshape
I0305 20:46:34.383729  6165 net.cpp:157] Top shape: 8 256 (2048)
I0305 20:46:34.383733  6165 net.cpp:165] Memory required for data: 7680835780
I0305 20:46:34.383744  6165 layer_factory.hpp:77] Creating layer conv10_2_scale
I0305 20:46:34.383759  6165 net.cpp:100] Creating Layer conv10_2_scale
I0305 20:46:34.383771  6165 net.cpp:434] conv10_2_scale <- conv10_2_t_conv10_2_relu_0_split_1
I0305 20:46:34.383783  6165 net.cpp:434] conv10_2_scale <- conv10_2_reshape
I0305 20:46:34.383800  6165 net.cpp:408] conv10_2_scale -> conv10_2
I0305 20:46:34.383867  6165 net.cpp:150] Setting up conv10_2_scale
I0305 20:46:34.383875  6165 net.cpp:157] Top shape: 8 256 1 1 (2048)
I0305 20:46:34.383882  6165 net.cpp:165] Memory required for data: 7680843972
I0305 20:46:34.383886  6165 layer_factory.hpp:77] Creating layer conv10_2_conv10_2_scale_0_split
I0305 20:46:34.383895  6165 net.cpp:100] Creating Layer conv10_2_conv10_2_scale_0_split
I0305 20:46:34.383906  6165 net.cpp:434] conv10_2_conv10_2_scale_0_split <- conv10_2
I0305 20:46:34.383913  6165 net.cpp:408] conv10_2_conv10_2_scale_0_split -> conv10_2_conv10_2_scale_0_split_0
I0305 20:46:34.383924  6165 net.cpp:408] conv10_2_conv10_2_scale_0_split -> conv10_2_conv10_2_scale_0_split_1
I0305 20:46:34.383931  6165 net.cpp:408] conv10_2_conv10_2_scale_0_split -> conv10_2_conv10_2_scale_0_split_2
I0305 20:46:34.383981  6165 net.cpp:150] Setting up conv10_2_conv10_2_scale_0_split
I0305 20:46:34.383991  6165 net.cpp:157] Top shape: 8 256 1 1 (2048)
I0305 20:46:34.383996  6165 net.cpp:157] Top shape: 8 256 1 1 (2048)
I0305 20:46:34.384003  6165 net.cpp:157] Top shape: 8 256 1 1 (2048)
I0305 20:46:34.384007  6165 net.cpp:165] Memory required for data: 7680868548
I0305 20:46:34.384013  6165 layer_factory.hpp:77] Creating layer conv4_3_norm
I0305 20:46:34.384023  6165 net.cpp:100] Creating Layer conv4_3_norm
I0305 20:46:34.384027  6165 net.cpp:434] conv4_3_norm <- conv4_3_conv4_3_scale_0_split_1
I0305 20:46:34.384037  6165 net.cpp:408] conv4_3_norm -> conv4_3_norm
I0305 20:46:34.384194  6165 net.cpp:150] Setting up conv4_3_norm
I0305 20:46:34.384202  6165 net.cpp:157] Top shape: 8 512 64 64 (16777216)
I0305 20:46:34.384207  6165 net.cpp:165] Memory required for data: 7747977412
I0305 20:46:34.384213  6165 layer_factory.hpp:77] Creating layer conv4_3_norm_conv4_3_norm_0_split
I0305 20:46:34.384225  6165 net.cpp:100] Creating Layer conv4_3_norm_conv4_3_norm_0_split
I0305 20:46:34.384244  6165 net.cpp:434] conv4_3_norm_conv4_3_norm_0_split <- conv4_3_norm
I0305 20:46:34.384253  6165 net.cpp:408] conv4_3_norm_conv4_3_norm_0_split -> conv4_3_norm_conv4_3_norm_0_split_0
I0305 20:46:34.384259  6165 net.cpp:408] conv4_3_norm_conv4_3_norm_0_split -> conv4_3_norm_conv4_3_norm_0_split_1
I0305 20:46:34.384268  6165 net.cpp:408] conv4_3_norm_conv4_3_norm_0_split -> conv4_3_norm_conv4_3_norm_0_split_2
I0305 20:46:34.384316  6165 net.cpp:150] Setting up conv4_3_norm_conv4_3_norm_0_split
I0305 20:46:34.384325  6165 net.cpp:157] Top shape: 8 512 64 64 (16777216)
I0305 20:46:34.384328  6165 net.cpp:157] Top shape: 8 512 64 64 (16777216)
I0305 20:46:34.384333  6165 net.cpp:157] Top shape: 8 512 64 64 (16777216)
I0305 20:46:34.384342  6165 net.cpp:165] Memory required for data: 7949304004
I0305 20:46:34.384353  6165 layer_factory.hpp:77] Creating layer conv4_3_norm_mbox_loc
I0305 20:46:34.384369  6165 net.cpp:100] Creating Layer conv4_3_norm_mbox_loc
I0305 20:46:34.384379  6165 net.cpp:434] conv4_3_norm_mbox_loc <- conv4_3_norm_conv4_3_norm_0_split_0
I0305 20:46:34.384392  6165 net.cpp:408] conv4_3_norm_mbox_loc -> conv4_3_norm_mbox_loc
I0305 20:46:34.387306  6165 net.cpp:150] Setting up conv4_3_norm_mbox_loc
I0305 20:46:34.387320  6165 net.cpp:157] Top shape: 8 16 64 64 (524288)
I0305 20:46:34.387329  6165 net.cpp:165] Memory required for data: 7951401156
I0305 20:46:34.387341  6165 layer_factory.hpp:77] Creating layer conv4_3_norm_mbox_loc_perm
I0305 20:46:34.387351  6165 net.cpp:100] Creating Layer conv4_3_norm_mbox_loc_perm
I0305 20:46:34.387357  6165 net.cpp:434] conv4_3_norm_mbox_loc_perm <- conv4_3_norm_mbox_loc
I0305 20:46:34.387372  6165 net.cpp:408] conv4_3_norm_mbox_loc_perm -> conv4_3_norm_mbox_loc_perm
I0305 20:46:34.387490  6165 net.cpp:150] Setting up conv4_3_norm_mbox_loc_perm
I0305 20:46:34.387500  6165 net.cpp:157] Top shape: 8 64 64 16 (524288)
I0305 20:46:34.387504  6165 net.cpp:165] Memory required for data: 7953498308
I0305 20:46:34.387513  6165 layer_factory.hpp:77] Creating layer conv4_3_norm_mbox_loc_flat
I0305 20:46:34.387523  6165 net.cpp:100] Creating Layer conv4_3_norm_mbox_loc_flat
I0305 20:46:34.387537  6165 net.cpp:434] conv4_3_norm_mbox_loc_flat <- conv4_3_norm_mbox_loc_perm
I0305 20:46:34.387547  6165 net.cpp:408] conv4_3_norm_mbox_loc_flat -> conv4_3_norm_mbox_loc_flat
I0305 20:46:34.387579  6165 net.cpp:150] Setting up conv4_3_norm_mbox_loc_flat
I0305 20:46:34.387586  6165 net.cpp:157] Top shape: 8 65536 (524288)
I0305 20:46:34.387591  6165 net.cpp:165] Memory required for data: 7955595460
I0305 20:46:34.387601  6165 layer_factory.hpp:77] Creating layer conv4_3_norm_mbox_conf
I0305 20:46:34.387620  6165 net.cpp:100] Creating Layer conv4_3_norm_mbox_conf
I0305 20:46:34.387627  6165 net.cpp:434] conv4_3_norm_mbox_conf <- conv4_3_norm_conv4_3_norm_0_split_1
I0305 20:46:34.387636  6165 net.cpp:408] conv4_3_norm_mbox_conf -> conv4_3_norm_mbox_conf
I0305 20:46:34.391335  6165 net.cpp:150] Setting up conv4_3_norm_mbox_conf
I0305 20:46:34.391350  6165 net.cpp:157] Top shape: 8 84 64 64 (2752512)
I0305 20:46:34.391357  6165 net.cpp:165] Memory required for data: 7966605508
I0305 20:46:34.391367  6165 layer_factory.hpp:77] Creating layer conv4_3_norm_mbox_conf_perm
I0305 20:46:34.391377  6165 net.cpp:100] Creating Layer conv4_3_norm_mbox_conf_perm
I0305 20:46:34.391382  6165 net.cpp:434] conv4_3_norm_mbox_conf_perm <- conv4_3_norm_mbox_conf
I0305 20:46:34.391400  6165 net.cpp:408] conv4_3_norm_mbox_conf_perm -> conv4_3_norm_mbox_conf_perm
I0305 20:46:34.391518  6165 net.cpp:150] Setting up conv4_3_norm_mbox_conf_perm
I0305 20:46:34.391526  6165 net.cpp:157] Top shape: 8 64 64 84 (2752512)
I0305 20:46:34.391531  6165 net.cpp:165] Memory required for data: 7977615556
I0305 20:46:34.391539  6165 layer_factory.hpp:77] Creating layer conv4_3_norm_mbox_conf_flat
I0305 20:46:34.391549  6165 net.cpp:100] Creating Layer conv4_3_norm_mbox_conf_flat
I0305 20:46:34.391559  6165 net.cpp:434] conv4_3_norm_mbox_conf_flat <- conv4_3_norm_mbox_conf_perm
I0305 20:46:34.391587  6165 net.cpp:408] conv4_3_norm_mbox_conf_flat -> conv4_3_norm_mbox_conf_flat
I0305 20:46:34.391618  6165 net.cpp:150] Setting up conv4_3_norm_mbox_conf_flat
I0305 20:46:34.391625  6165 net.cpp:157] Top shape: 8 344064 (2752512)
I0305 20:46:34.391628  6165 net.cpp:165] Memory required for data: 7988625604
I0305 20:46:34.391636  6165 layer_factory.hpp:77] Creating layer conv4_3_norm_mbox_priorbox
I0305 20:46:34.391649  6165 net.cpp:100] Creating Layer conv4_3_norm_mbox_priorbox
I0305 20:46:34.391655  6165 net.cpp:434] conv4_3_norm_mbox_priorbox <- conv4_3_norm_conv4_3_norm_0_split_2
I0305 20:46:34.391666  6165 net.cpp:434] conv4_3_norm_mbox_priorbox <- data_data_0_split_1
I0305 20:46:34.391679  6165 net.cpp:408] conv4_3_norm_mbox_priorbox -> conv4_3_norm_mbox_priorbox
I0305 20:46:34.391721  6165 net.cpp:150] Setting up conv4_3_norm_mbox_priorbox
I0305 20:46:34.391728  6165 net.cpp:157] Top shape: 1 2 65536 (131072)
I0305 20:46:34.391731  6165 net.cpp:165] Memory required for data: 7989149892
I0305 20:46:34.391739  6165 layer_factory.hpp:77] Creating layer fc7_mbox_loc
I0305 20:46:34.391754  6165 net.cpp:100] Creating Layer fc7_mbox_loc
I0305 20:46:34.391765  6165 net.cpp:434] fc7_mbox_loc <- fc7_fc7_scale_0_split_1
I0305 20:46:34.391775  6165 net.cpp:408] fc7_mbox_loc -> fc7_mbox_loc
I0305 20:46:34.394067  6165 net.cpp:150] Setting up fc7_mbox_loc
I0305 20:46:34.394078  6165 net.cpp:157] Top shape: 8 24 32 32 (196608)
I0305 20:46:34.394088  6165 net.cpp:165] Memory required for data: 7989936324
I0305 20:46:34.394098  6165 layer_factory.hpp:77] Creating layer fc7_mbox_loc_perm
I0305 20:46:34.394109  6165 net.cpp:100] Creating Layer fc7_mbox_loc_perm
I0305 20:46:34.394115  6165 net.cpp:434] fc7_mbox_loc_perm <- fc7_mbox_loc
I0305 20:46:34.394126  6165 net.cpp:408] fc7_mbox_loc_perm -> fc7_mbox_loc_perm
I0305 20:46:34.394244  6165 net.cpp:150] Setting up fc7_mbox_loc_perm
I0305 20:46:34.394251  6165 net.cpp:157] Top shape: 8 32 32 24 (196608)
I0305 20:46:34.394255  6165 net.cpp:165] Memory required for data: 7990722756
I0305 20:46:34.394264  6165 layer_factory.hpp:77] Creating layer fc7_mbox_loc_flat
I0305 20:46:34.394274  6165 net.cpp:100] Creating Layer fc7_mbox_loc_flat
I0305 20:46:34.394281  6165 net.cpp:434] fc7_mbox_loc_flat <- fc7_mbox_loc_perm
I0305 20:46:34.394289  6165 net.cpp:408] fc7_mbox_loc_flat -> fc7_mbox_loc_flat
I0305 20:46:34.394320  6165 net.cpp:150] Setting up fc7_mbox_loc_flat
I0305 20:46:34.394341  6165 net.cpp:157] Top shape: 8 24576 (196608)
I0305 20:46:34.394349  6165 net.cpp:165] Memory required for data: 7991509188
I0305 20:46:34.394358  6165 layer_factory.hpp:77] Creating layer fc7_mbox_conf
I0305 20:46:34.394378  6165 net.cpp:100] Creating Layer fc7_mbox_conf
I0305 20:46:34.394387  6165 net.cpp:434] fc7_mbox_conf <- fc7_fc7_scale_0_split_2
I0305 20:46:34.394398  6165 net.cpp:408] fc7_mbox_conf -> fc7_mbox_conf
I0305 20:46:34.402024  6165 net.cpp:150] Setting up fc7_mbox_conf
I0305 20:46:34.402037  6165 net.cpp:157] Top shape: 8 126 32 32 (1032192)
I0305 20:46:34.402043  6165 net.cpp:165] Memory required for data: 7995637956
I0305 20:46:34.402053  6165 layer_factory.hpp:77] Creating layer fc7_mbox_conf_perm
I0305 20:46:34.402065  6165 net.cpp:100] Creating Layer fc7_mbox_conf_perm
I0305 20:46:34.402072  6165 net.cpp:434] fc7_mbox_conf_perm <- fc7_mbox_conf
I0305 20:46:34.402084  6165 net.cpp:408] fc7_mbox_conf_perm -> fc7_mbox_conf_perm
I0305 20:46:34.402197  6165 net.cpp:150] Setting up fc7_mbox_conf_perm
I0305 20:46:34.402206  6165 net.cpp:157] Top shape: 8 32 32 126 (1032192)
I0305 20:46:34.402211  6165 net.cpp:165] Memory required for data: 7999766724
I0305 20:46:34.402220  6165 layer_factory.hpp:77] Creating layer fc7_mbox_conf_flat
I0305 20:46:34.402228  6165 net.cpp:100] Creating Layer fc7_mbox_conf_flat
I0305 20:46:34.402237  6165 net.cpp:434] fc7_mbox_conf_flat <- fc7_mbox_conf_perm
I0305 20:46:34.402247  6165 net.cpp:408] fc7_mbox_conf_flat -> fc7_mbox_conf_flat
I0305 20:46:34.402281  6165 net.cpp:150] Setting up fc7_mbox_conf_flat
I0305 20:46:34.402298  6165 net.cpp:157] Top shape: 8 129024 (1032192)
I0305 20:46:34.402302  6165 net.cpp:165] Memory required for data: 8003895492
I0305 20:46:34.402308  6165 layer_factory.hpp:77] Creating layer fc7_mbox_priorbox
I0305 20:46:34.402319  6165 net.cpp:100] Creating Layer fc7_mbox_priorbox
I0305 20:46:34.402338  6165 net.cpp:434] fc7_mbox_priorbox <- fc7_fc7_scale_0_split_3
I0305 20:46:34.402343  6165 net.cpp:434] fc7_mbox_priorbox <- data_data_0_split_2
I0305 20:46:34.402351  6165 net.cpp:408] fc7_mbox_priorbox -> fc7_mbox_priorbox
I0305 20:46:34.402384  6165 net.cpp:150] Setting up fc7_mbox_priorbox
I0305 20:46:34.402392  6165 net.cpp:157] Top shape: 1 2 24576 (49152)
I0305 20:46:34.402398  6165 net.cpp:165] Memory required for data: 8004092100
I0305 20:46:34.402406  6165 layer_factory.hpp:77] Creating layer conv6_2_mbox_loc
I0305 20:46:34.402417  6165 net.cpp:100] Creating Layer conv6_2_mbox_loc
I0305 20:46:34.402424  6165 net.cpp:434] conv6_2_mbox_loc <- conv6_2_conv6_2_scale_0_split_1
I0305 20:46:34.402432  6165 net.cpp:408] conv6_2_mbox_loc -> conv6_2_mbox_loc
I0305 20:46:34.404271  6165 net.cpp:150] Setting up conv6_2_mbox_loc
I0305 20:46:34.404284  6165 net.cpp:157] Top shape: 8 24 16 16 (49152)
I0305 20:46:34.404289  6165 net.cpp:165] Memory required for data: 8004288708
I0305 20:46:34.404295  6165 layer_factory.hpp:77] Creating layer conv6_2_mbox_loc_perm
I0305 20:46:34.404306  6165 net.cpp:100] Creating Layer conv6_2_mbox_loc_perm
I0305 20:46:34.404312  6165 net.cpp:434] conv6_2_mbox_loc_perm <- conv6_2_mbox_loc
I0305 20:46:34.404332  6165 net.cpp:408] conv6_2_mbox_loc_perm -> conv6_2_mbox_loc_perm
I0305 20:46:34.404446  6165 net.cpp:150] Setting up conv6_2_mbox_loc_perm
I0305 20:46:34.404454  6165 net.cpp:157] Top shape: 8 16 16 24 (49152)
I0305 20:46:34.404458  6165 net.cpp:165] Memory required for data: 8004485316
I0305 20:46:34.404464  6165 layer_factory.hpp:77] Creating layer conv6_2_mbox_loc_flat
I0305 20:46:34.404474  6165 net.cpp:100] Creating Layer conv6_2_mbox_loc_flat
I0305 20:46:34.404482  6165 net.cpp:434] conv6_2_mbox_loc_flat <- conv6_2_mbox_loc_perm
I0305 20:46:34.404497  6165 net.cpp:408] conv6_2_mbox_loc_flat -> conv6_2_mbox_loc_flat
I0305 20:46:34.404532  6165 net.cpp:150] Setting up conv6_2_mbox_loc_flat
I0305 20:46:34.404541  6165 net.cpp:157] Top shape: 8 6144 (49152)
I0305 20:46:34.404546  6165 net.cpp:165] Memory required for data: 8004681924
I0305 20:46:34.404551  6165 layer_factory.hpp:77] Creating layer conv6_2_mbox_conf
I0305 20:46:34.404566  6165 net.cpp:100] Creating Layer conv6_2_mbox_conf
I0305 20:46:34.404574  6165 net.cpp:434] conv6_2_mbox_conf <- conv6_2_conv6_2_scale_0_split_2
I0305 20:46:34.404582  6165 net.cpp:408] conv6_2_mbox_conf -> conv6_2_mbox_conf
I0305 20:46:34.411978  6165 net.cpp:150] Setting up conv6_2_mbox_conf
I0305 20:46:34.411990  6165 net.cpp:157] Top shape: 8 126 16 16 (258048)
I0305 20:46:34.411994  6165 net.cpp:165] Memory required for data: 8005714116
I0305 20:46:34.412001  6165 layer_factory.hpp:77] Creating layer conv6_2_mbox_conf_perm
I0305 20:46:34.412012  6165 net.cpp:100] Creating Layer conv6_2_mbox_conf_perm
I0305 20:46:34.412024  6165 net.cpp:434] conv6_2_mbox_conf_perm <- conv6_2_mbox_conf
I0305 20:46:34.412032  6165 net.cpp:408] conv6_2_mbox_conf_perm -> conv6_2_mbox_conf_perm
I0305 20:46:34.412148  6165 net.cpp:150] Setting up conv6_2_mbox_conf_perm
I0305 20:46:34.412158  6165 net.cpp:157] Top shape: 8 16 16 126 (258048)
I0305 20:46:34.412161  6165 net.cpp:165] Memory required for data: 8006746308
I0305 20:46:34.412168  6165 layer_factory.hpp:77] Creating layer conv6_2_mbox_conf_flat
I0305 20:46:34.412181  6165 net.cpp:100] Creating Layer conv6_2_mbox_conf_flat
I0305 20:46:34.412185  6165 net.cpp:434] conv6_2_mbox_conf_flat <- conv6_2_mbox_conf_perm
I0305 20:46:34.412194  6165 net.cpp:408] conv6_2_mbox_conf_flat -> conv6_2_mbox_conf_flat
I0305 20:46:34.412226  6165 net.cpp:150] Setting up conv6_2_mbox_conf_flat
I0305 20:46:34.412233  6165 net.cpp:157] Top shape: 8 32256 (258048)
I0305 20:46:34.412238  6165 net.cpp:165] Memory required for data: 8007778500
I0305 20:46:34.412256  6165 layer_factory.hpp:77] Creating layer conv6_2_mbox_priorbox
I0305 20:46:34.412266  6165 net.cpp:100] Creating Layer conv6_2_mbox_priorbox
I0305 20:46:34.412274  6165 net.cpp:434] conv6_2_mbox_priorbox <- conv6_2_conv6_2_scale_0_split_3
I0305 20:46:34.412281  6165 net.cpp:434] conv6_2_mbox_priorbox <- data_data_0_split_3
I0305 20:46:34.412289  6165 net.cpp:408] conv6_2_mbox_priorbox -> conv6_2_mbox_priorbox
I0305 20:46:34.412326  6165 net.cpp:150] Setting up conv6_2_mbox_priorbox
I0305 20:46:34.412335  6165 net.cpp:157] Top shape: 1 2 6144 (12288)
I0305 20:46:34.412339  6165 net.cpp:165] Memory required for data: 8007827652
I0305 20:46:34.412346  6165 layer_factory.hpp:77] Creating layer conv7_2_mbox_loc
I0305 20:46:34.412360  6165 net.cpp:100] Creating Layer conv7_2_mbox_loc
I0305 20:46:34.412369  6165 net.cpp:434] conv7_2_mbox_loc <- conv7_2_conv7_2_scale_0_split_1
I0305 20:46:34.412379  6165 net.cpp:408] conv7_2_mbox_loc -> conv7_2_mbox_loc
I0305 20:46:34.414041  6165 net.cpp:150] Setting up conv7_2_mbox_loc
I0305 20:46:34.414052  6165 net.cpp:157] Top shape: 8 24 8 8 (12288)
I0305 20:46:34.414057  6165 net.cpp:165] Memory required for data: 8007876804
I0305 20:46:34.414069  6165 layer_factory.hpp:77] Creating layer conv7_2_mbox_loc_perm
I0305 20:46:34.414082  6165 net.cpp:100] Creating Layer conv7_2_mbox_loc_perm
I0305 20:46:34.414090  6165 net.cpp:434] conv7_2_mbox_loc_perm <- conv7_2_mbox_loc
I0305 20:46:34.414103  6165 net.cpp:408] conv7_2_mbox_loc_perm -> conv7_2_mbox_loc_perm
I0305 20:46:34.414227  6165 net.cpp:150] Setting up conv7_2_mbox_loc_perm
I0305 20:46:34.414234  6165 net.cpp:157] Top shape: 8 8 8 24 (12288)
I0305 20:46:34.414237  6165 net.cpp:165] Memory required for data: 8007925956
I0305 20:46:34.414243  6165 layer_factory.hpp:77] Creating layer conv7_2_mbox_loc_flat
I0305 20:46:34.414252  6165 net.cpp:100] Creating Layer conv7_2_mbox_loc_flat
I0305 20:46:34.414261  6165 net.cpp:434] conv7_2_mbox_loc_flat <- conv7_2_mbox_loc_perm
I0305 20:46:34.414275  6165 net.cpp:408] conv7_2_mbox_loc_flat -> conv7_2_mbox_loc_flat
I0305 20:46:34.414305  6165 net.cpp:150] Setting up conv7_2_mbox_loc_flat
I0305 20:46:34.414311  6165 net.cpp:157] Top shape: 8 1536 (12288)
I0305 20:46:34.414316  6165 net.cpp:165] Memory required for data: 8007975108
I0305 20:46:34.414320  6165 layer_factory.hpp:77] Creating layer conv7_2_mbox_conf
I0305 20:46:34.414361  6165 net.cpp:100] Creating Layer conv7_2_mbox_conf
I0305 20:46:34.414371  6165 net.cpp:434] conv7_2_mbox_conf <- conv7_2_conv7_2_scale_0_split_2
I0305 20:46:34.414386  6165 net.cpp:408] conv7_2_mbox_conf -> conv7_2_mbox_conf
I0305 20:46:34.418036  6165 net.cpp:150] Setting up conv7_2_mbox_conf
I0305 20:46:34.418049  6165 net.cpp:157] Top shape: 8 126 8 8 (64512)
I0305 20:46:34.418054  6165 net.cpp:165] Memory required for data: 8008233156
I0305 20:46:34.418067  6165 layer_factory.hpp:77] Creating layer conv7_2_mbox_conf_perm
I0305 20:46:34.418081  6165 net.cpp:100] Creating Layer conv7_2_mbox_conf_perm
I0305 20:46:34.418092  6165 net.cpp:434] conv7_2_mbox_conf_perm <- conv7_2_mbox_conf
I0305 20:46:34.418102  6165 net.cpp:408] conv7_2_mbox_conf_perm -> conv7_2_mbox_conf_perm
I0305 20:46:34.418218  6165 net.cpp:150] Setting up conv7_2_mbox_conf_perm
I0305 20:46:34.418226  6165 net.cpp:157] Top shape: 8 8 8 126 (64512)
I0305 20:46:34.418232  6165 net.cpp:165] Memory required for data: 8008491204
I0305 20:46:34.418241  6165 layer_factory.hpp:77] Creating layer conv7_2_mbox_conf_flat
I0305 20:46:34.418252  6165 net.cpp:100] Creating Layer conv7_2_mbox_conf_flat
I0305 20:46:34.418262  6165 net.cpp:434] conv7_2_mbox_conf_flat <- conv7_2_mbox_conf_perm
I0305 20:46:34.418272  6165 net.cpp:408] conv7_2_mbox_conf_flat -> conv7_2_mbox_conf_flat
I0305 20:46:34.418303  6165 net.cpp:150] Setting up conv7_2_mbox_conf_flat
I0305 20:46:34.418308  6165 net.cpp:157] Top shape: 8 8064 (64512)
I0305 20:46:34.418313  6165 net.cpp:165] Memory required for data: 8008749252
I0305 20:46:34.418320  6165 layer_factory.hpp:77] Creating layer conv7_2_mbox_priorbox
I0305 20:46:34.418380  6165 net.cpp:100] Creating Layer conv7_2_mbox_priorbox
I0305 20:46:34.418391  6165 net.cpp:434] conv7_2_mbox_priorbox <- conv7_2_conv7_2_scale_0_split_3
I0305 20:46:34.418404  6165 net.cpp:434] conv7_2_mbox_priorbox <- data_data_0_split_4
I0305 20:46:34.418413  6165 net.cpp:408] conv7_2_mbox_priorbox -> conv7_2_mbox_priorbox
I0305 20:46:34.418447  6165 net.cpp:150] Setting up conv7_2_mbox_priorbox
I0305 20:46:34.418459  6165 net.cpp:157] Top shape: 1 2 1536 (3072)
I0305 20:46:34.418462  6165 net.cpp:165] Memory required for data: 8008761540
I0305 20:46:34.418467  6165 layer_factory.hpp:77] Creating layer conv8_2_mbox_loc
I0305 20:46:34.418476  6165 net.cpp:100] Creating Layer conv8_2_mbox_loc
I0305 20:46:34.418483  6165 net.cpp:434] conv8_2_mbox_loc <- conv8_2_conv8_2_scale_0_split_1
I0305 20:46:34.418496  6165 net.cpp:408] conv8_2_mbox_loc -> conv8_2_mbox_loc
I0305 20:46:34.419807  6165 net.cpp:150] Setting up conv8_2_mbox_loc
I0305 20:46:34.419819  6165 net.cpp:157] Top shape: 8 24 4 4 (3072)
I0305 20:46:34.419823  6165 net.cpp:165] Memory required for data: 8008773828
I0305 20:46:34.419831  6165 layer_factory.hpp:77] Creating layer conv8_2_mbox_loc_perm
I0305 20:46:34.419840  6165 net.cpp:100] Creating Layer conv8_2_mbox_loc_perm
I0305 20:46:34.419847  6165 net.cpp:434] conv8_2_mbox_loc_perm <- conv8_2_mbox_loc
I0305 20:46:34.419860  6165 net.cpp:408] conv8_2_mbox_loc_perm -> conv8_2_mbox_loc_perm
I0305 20:46:34.419981  6165 net.cpp:150] Setting up conv8_2_mbox_loc_perm
I0305 20:46:34.419987  6165 net.cpp:157] Top shape: 8 4 4 24 (3072)
I0305 20:46:34.419991  6165 net.cpp:165] Memory required for data: 8008786116
I0305 20:46:34.419994  6165 layer_factory.hpp:77] Creating layer conv8_2_mbox_loc_flat
I0305 20:46:34.420004  6165 net.cpp:100] Creating Layer conv8_2_mbox_loc_flat
I0305 20:46:34.420013  6165 net.cpp:434] conv8_2_mbox_loc_flat <- conv8_2_mbox_loc_perm
I0305 20:46:34.420022  6165 net.cpp:408] conv8_2_mbox_loc_flat -> conv8_2_mbox_loc_flat
I0305 20:46:34.420053  6165 net.cpp:150] Setting up conv8_2_mbox_loc_flat
I0305 20:46:34.420059  6165 net.cpp:157] Top shape: 8 384 (3072)
I0305 20:46:34.420063  6165 net.cpp:165] Memory required for data: 8008798404
I0305 20:46:34.420069  6165 layer_factory.hpp:77] Creating layer conv8_2_mbox_conf
I0305 20:46:34.420083  6165 net.cpp:100] Creating Layer conv8_2_mbox_conf
I0305 20:46:34.420090  6165 net.cpp:434] conv8_2_mbox_conf <- conv8_2_conv8_2_scale_0_split_2
I0305 20:46:34.420100  6165 net.cpp:408] conv8_2_mbox_conf -> conv8_2_mbox_conf
I0305 20:46:34.423455  6165 net.cpp:150] Setting up conv8_2_mbox_conf
I0305 20:46:34.423468  6165 net.cpp:157] Top shape: 8 126 4 4 (16128)
I0305 20:46:34.423472  6165 net.cpp:165] Memory required for data: 8008862916
I0305 20:46:34.423483  6165 layer_factory.hpp:77] Creating layer conv8_2_mbox_conf_perm
I0305 20:46:34.423496  6165 net.cpp:100] Creating Layer conv8_2_mbox_conf_perm
I0305 20:46:34.423501  6165 net.cpp:434] conv8_2_mbox_conf_perm <- conv8_2_mbox_conf
I0305 20:46:34.423511  6165 net.cpp:408] conv8_2_mbox_conf_perm -> conv8_2_mbox_conf_perm
I0305 20:46:34.423630  6165 net.cpp:150] Setting up conv8_2_mbox_conf_perm
I0305 20:46:34.423638  6165 net.cpp:157] Top shape: 8 4 4 126 (16128)
I0305 20:46:34.423641  6165 net.cpp:165] Memory required for data: 8008927428
I0305 20:46:34.423645  6165 layer_factory.hpp:77] Creating layer conv8_2_mbox_conf_flat
I0305 20:46:34.423651  6165 net.cpp:100] Creating Layer conv8_2_mbox_conf_flat
I0305 20:46:34.423660  6165 net.cpp:434] conv8_2_mbox_conf_flat <- conv8_2_mbox_conf_perm
I0305 20:46:34.423672  6165 net.cpp:408] conv8_2_mbox_conf_flat -> conv8_2_mbox_conf_flat
I0305 20:46:34.423708  6165 net.cpp:150] Setting up conv8_2_mbox_conf_flat
I0305 20:46:34.423717  6165 net.cpp:157] Top shape: 8 2016 (16128)
I0305 20:46:34.423720  6165 net.cpp:165] Memory required for data: 8008991940
I0305 20:46:34.423723  6165 layer_factory.hpp:77] Creating layer conv8_2_mbox_priorbox
I0305 20:46:34.423729  6165 net.cpp:100] Creating Layer conv8_2_mbox_priorbox
I0305 20:46:34.423744  6165 net.cpp:434] conv8_2_mbox_priorbox <- conv8_2_conv8_2_scale_0_split_3
I0305 20:46:34.423751  6165 net.cpp:434] conv8_2_mbox_priorbox <- data_data_0_split_5
I0305 20:46:34.423758  6165 net.cpp:408] conv8_2_mbox_priorbox -> conv8_2_mbox_priorbox
I0305 20:46:34.423797  6165 net.cpp:150] Setting up conv8_2_mbox_priorbox
I0305 20:46:34.423807  6165 net.cpp:157] Top shape: 1 2 384 (768)
I0305 20:46:34.423811  6165 net.cpp:165] Memory required for data: 8008995012
I0305 20:46:34.423815  6165 layer_factory.hpp:77] Creating layer conv9_2_mbox_loc
I0305 20:46:34.423830  6165 net.cpp:100] Creating Layer conv9_2_mbox_loc
I0305 20:46:34.423842  6165 net.cpp:434] conv9_2_mbox_loc <- conv9_2_conv9_2_scale_0_split_1
I0305 20:46:34.423848  6165 net.cpp:408] conv9_2_mbox_loc -> conv9_2_mbox_loc
I0305 20:46:34.425093  6165 net.cpp:150] Setting up conv9_2_mbox_loc
I0305 20:46:34.425106  6165 net.cpp:157] Top shape: 8 16 2 2 (512)
I0305 20:46:34.425109  6165 net.cpp:165] Memory required for data: 8008997060
I0305 20:46:34.425119  6165 layer_factory.hpp:77] Creating layer conv9_2_mbox_loc_perm
I0305 20:46:34.425133  6165 net.cpp:100] Creating Layer conv9_2_mbox_loc_perm
I0305 20:46:34.425139  6165 net.cpp:434] conv9_2_mbox_loc_perm <- conv9_2_mbox_loc
I0305 20:46:34.425154  6165 net.cpp:408] conv9_2_mbox_loc_perm -> conv9_2_mbox_loc_perm
I0305 20:46:34.425271  6165 net.cpp:150] Setting up conv9_2_mbox_loc_perm
I0305 20:46:34.425278  6165 net.cpp:157] Top shape: 8 2 2 16 (512)
I0305 20:46:34.425283  6165 net.cpp:165] Memory required for data: 8008999108
I0305 20:46:34.425288  6165 layer_factory.hpp:77] Creating layer conv9_2_mbox_loc_flat
I0305 20:46:34.425299  6165 net.cpp:100] Creating Layer conv9_2_mbox_loc_flat
I0305 20:46:34.425303  6165 net.cpp:434] conv9_2_mbox_loc_flat <- conv9_2_mbox_loc_perm
I0305 20:46:34.425312  6165 net.cpp:408] conv9_2_mbox_loc_flat -> conv9_2_mbox_loc_flat
I0305 20:46:34.425343  6165 net.cpp:150] Setting up conv9_2_mbox_loc_flat
I0305 20:46:34.425348  6165 net.cpp:157] Top shape: 8 64 (512)
I0305 20:46:34.425354  6165 net.cpp:165] Memory required for data: 8009001156
I0305 20:46:34.425356  6165 layer_factory.hpp:77] Creating layer conv9_2_mbox_conf
I0305 20:46:34.425374  6165 net.cpp:100] Creating Layer conv9_2_mbox_conf
I0305 20:46:34.425384  6165 net.cpp:434] conv9_2_mbox_conf <- conv9_2_conv9_2_scale_0_split_2
I0305 20:46:34.425392  6165 net.cpp:408] conv9_2_mbox_conf -> conv9_2_mbox_conf
I0305 20:46:34.430336  6165 net.cpp:150] Setting up conv9_2_mbox_conf
I0305 20:46:34.430349  6165 net.cpp:157] Top shape: 8 84 2 2 (2688)
I0305 20:46:34.430353  6165 net.cpp:165] Memory required for data: 8009011908
I0305 20:46:34.430361  6165 layer_factory.hpp:77] Creating layer conv9_2_mbox_conf_perm
I0305 20:46:34.430372  6165 net.cpp:100] Creating Layer conv9_2_mbox_conf_perm
I0305 20:46:34.430382  6165 net.cpp:434] conv9_2_mbox_conf_perm <- conv9_2_mbox_conf
I0305 20:46:34.430394  6165 net.cpp:408] conv9_2_mbox_conf_perm -> conv9_2_mbox_conf_perm
I0305 20:46:34.430502  6165 net.cpp:150] Setting up conv9_2_mbox_conf_perm
I0305 20:46:34.430512  6165 net.cpp:157] Top shape: 8 2 2 84 (2688)
I0305 20:46:34.430516  6165 net.cpp:165] Memory required for data: 8009022660
I0305 20:46:34.430521  6165 layer_factory.hpp:77] Creating layer conv9_2_mbox_conf_flat
I0305 20:46:34.430531  6165 net.cpp:100] Creating Layer conv9_2_mbox_conf_flat
I0305 20:46:34.430537  6165 net.cpp:434] conv9_2_mbox_conf_flat <- conv9_2_mbox_conf_perm
I0305 20:46:34.430547  6165 net.cpp:408] conv9_2_mbox_conf_flat -> conv9_2_mbox_conf_flat
I0305 20:46:34.430578  6165 net.cpp:150] Setting up conv9_2_mbox_conf_flat
I0305 20:46:34.430586  6165 net.cpp:157] Top shape: 8 336 (2688)
I0305 20:46:34.430591  6165 net.cpp:165] Memory required for data: 8009033412
I0305 20:46:34.430595  6165 layer_factory.hpp:77] Creating layer conv9_2_mbox_priorbox
I0305 20:46:34.430601  6165 net.cpp:100] Creating Layer conv9_2_mbox_priorbox
I0305 20:46:34.430606  6165 net.cpp:434] conv9_2_mbox_priorbox <- conv9_2_conv9_2_scale_0_split_3
I0305 20:46:34.430611  6165 net.cpp:434] conv9_2_mbox_priorbox <- data_data_0_split_6
I0305 20:46:34.430631  6165 net.cpp:408] conv9_2_mbox_priorbox -> conv9_2_mbox_priorbox
I0305 20:46:34.430673  6165 net.cpp:150] Setting up conv9_2_mbox_priorbox
I0305 20:46:34.430682  6165 net.cpp:157] Top shape: 1 2 64 (128)
I0305 20:46:34.430688  6165 net.cpp:165] Memory required for data: 8009033924
I0305 20:46:34.430696  6165 layer_factory.hpp:77] Creating layer conv10_2_mbox_loc
I0305 20:46:34.430708  6165 net.cpp:100] Creating Layer conv10_2_mbox_loc
I0305 20:46:34.430716  6165 net.cpp:434] conv10_2_mbox_loc <- conv10_2_conv10_2_scale_0_split_0
I0305 20:46:34.430721  6165 net.cpp:408] conv10_2_mbox_loc -> conv10_2_mbox_loc
I0305 20:46:34.431954  6165 net.cpp:150] Setting up conv10_2_mbox_loc
I0305 20:46:34.431967  6165 net.cpp:157] Top shape: 8 16 1 1 (128)
I0305 20:46:34.431970  6165 net.cpp:165] Memory required for data: 8009034436
I0305 20:46:34.431977  6165 layer_factory.hpp:77] Creating layer conv10_2_mbox_loc_perm
I0305 20:46:34.431990  6165 net.cpp:100] Creating Layer conv10_2_mbox_loc_perm
I0305 20:46:34.431998  6165 net.cpp:434] conv10_2_mbox_loc_perm <- conv10_2_mbox_loc
I0305 20:46:34.432008  6165 net.cpp:408] conv10_2_mbox_loc_perm -> conv10_2_mbox_loc_perm
I0305 20:46:34.432112  6165 net.cpp:150] Setting up conv10_2_mbox_loc_perm
I0305 20:46:34.432121  6165 net.cpp:157] Top shape: 8 1 1 16 (128)
I0305 20:46:34.432124  6165 net.cpp:165] Memory required for data: 8009034948
I0305 20:46:34.432128  6165 layer_factory.hpp:77] Creating layer conv10_2_mbox_loc_flat
I0305 20:46:34.432134  6165 net.cpp:100] Creating Layer conv10_2_mbox_loc_flat
I0305 20:46:34.432143  6165 net.cpp:434] conv10_2_mbox_loc_flat <- conv10_2_mbox_loc_perm
I0305 20:46:34.432152  6165 net.cpp:408] conv10_2_mbox_loc_flat -> conv10_2_mbox_loc_flat
I0305 20:46:34.432186  6165 net.cpp:150] Setting up conv10_2_mbox_loc_flat
I0305 20:46:34.432193  6165 net.cpp:157] Top shape: 8 16 (128)
I0305 20:46:34.432198  6165 net.cpp:165] Memory required for data: 8009035460
I0305 20:46:34.432202  6165 layer_factory.hpp:77] Creating layer conv10_2_mbox_conf
I0305 20:46:34.432217  6165 net.cpp:100] Creating Layer conv10_2_mbox_conf
I0305 20:46:34.432225  6165 net.cpp:434] conv10_2_mbox_conf <- conv10_2_conv10_2_scale_0_split_1
I0305 20:46:34.432234  6165 net.cpp:408] conv10_2_mbox_conf -> conv10_2_mbox_conf
I0305 20:46:34.434437  6165 net.cpp:150] Setting up conv10_2_mbox_conf
I0305 20:46:34.434449  6165 net.cpp:157] Top shape: 8 84 1 1 (672)
I0305 20:46:34.434453  6165 net.cpp:165] Memory required for data: 8009038148
I0305 20:46:34.434460  6165 layer_factory.hpp:77] Creating layer conv10_2_mbox_conf_perm
I0305 20:46:34.434468  6165 net.cpp:100] Creating Layer conv10_2_mbox_conf_perm
I0305 20:46:34.434473  6165 net.cpp:434] conv10_2_mbox_conf_perm <- conv10_2_mbox_conf
I0305 20:46:34.434479  6165 net.cpp:408] conv10_2_mbox_conf_perm -> conv10_2_mbox_conf_perm
I0305 20:46:34.434594  6165 net.cpp:150] Setting up conv10_2_mbox_conf_perm
I0305 20:46:34.434603  6165 net.cpp:157] Top shape: 8 1 1 84 (672)
I0305 20:46:34.434607  6165 net.cpp:165] Memory required for data: 8009040836
I0305 20:46:34.434610  6165 layer_factory.hpp:77] Creating layer conv10_2_mbox_conf_flat
I0305 20:46:34.434624  6165 net.cpp:100] Creating Layer conv10_2_mbox_conf_flat
I0305 20:46:34.434630  6165 net.cpp:434] conv10_2_mbox_conf_flat <- conv10_2_mbox_conf_perm
I0305 20:46:34.434640  6165 net.cpp:408] conv10_2_mbox_conf_flat -> conv10_2_mbox_conf_flat
I0305 20:46:34.434677  6165 net.cpp:150] Setting up conv10_2_mbox_conf_flat
I0305 20:46:34.434685  6165 net.cpp:157] Top shape: 8 84 (672)
I0305 20:46:34.434690  6165 net.cpp:165] Memory required for data: 8009043524
I0305 20:46:34.434693  6165 layer_factory.hpp:77] Creating layer conv10_2_mbox_priorbox
I0305 20:46:34.434706  6165 net.cpp:100] Creating Layer conv10_2_mbox_priorbox
I0305 20:46:34.434715  6165 net.cpp:434] conv10_2_mbox_priorbox <- conv10_2_conv10_2_scale_0_split_2
I0305 20:46:34.434723  6165 net.cpp:434] conv10_2_mbox_priorbox <- data_data_0_split_7
I0305 20:46:34.434751  6165 net.cpp:408] conv10_2_mbox_priorbox -> conv10_2_mbox_priorbox
I0305 20:46:34.434790  6165 net.cpp:150] Setting up conv10_2_mbox_priorbox
I0305 20:46:34.434799  6165 net.cpp:157] Top shape: 1 2 16 (32)
I0305 20:46:34.434803  6165 net.cpp:165] Memory required for data: 8009043652
I0305 20:46:34.434808  6165 layer_factory.hpp:77] Creating layer mbox_loc
I0305 20:46:34.434823  6165 net.cpp:100] Creating Layer mbox_loc
I0305 20:46:34.434831  6165 net.cpp:434] mbox_loc <- conv4_3_norm_mbox_loc_flat
I0305 20:46:34.434839  6165 net.cpp:434] mbox_loc <- fc7_mbox_loc_flat
I0305 20:46:34.434847  6165 net.cpp:434] mbox_loc <- conv6_2_mbox_loc_flat
I0305 20:46:34.434852  6165 net.cpp:434] mbox_loc <- conv7_2_mbox_loc_flat
I0305 20:46:34.434859  6165 net.cpp:434] mbox_loc <- conv8_2_mbox_loc_flat
I0305 20:46:34.434864  6165 net.cpp:434] mbox_loc <- conv9_2_mbox_loc_flat
I0305 20:46:34.434870  6165 net.cpp:434] mbox_loc <- conv10_2_mbox_loc_flat
I0305 20:46:34.434876  6165 net.cpp:408] mbox_loc -> mbox_loc
I0305 20:46:34.434911  6165 net.cpp:150] Setting up mbox_loc
I0305 20:46:34.434919  6165 net.cpp:157] Top shape: 8 98256 (786048)
I0305 20:46:34.434926  6165 net.cpp:165] Memory required for data: 8012187844
I0305 20:46:34.434929  6165 layer_factory.hpp:77] Creating layer mbox_conf
I0305 20:46:34.434939  6165 net.cpp:100] Creating Layer mbox_conf
I0305 20:46:34.434947  6165 net.cpp:434] mbox_conf <- conv4_3_norm_mbox_conf_flat
I0305 20:46:34.434953  6165 net.cpp:434] mbox_conf <- fc7_mbox_conf_flat
I0305 20:46:34.434958  6165 net.cpp:434] mbox_conf <- conv6_2_mbox_conf_flat
I0305 20:46:34.434965  6165 net.cpp:434] mbox_conf <- conv7_2_mbox_conf_flat
I0305 20:46:34.434972  6165 net.cpp:434] mbox_conf <- conv8_2_mbox_conf_flat
I0305 20:46:34.434989  6165 net.cpp:434] mbox_conf <- conv9_2_mbox_conf_flat
I0305 20:46:34.434994  6165 net.cpp:434] mbox_conf <- conv10_2_mbox_conf_flat
I0305 20:46:34.435004  6165 net.cpp:408] mbox_conf -> mbox_conf
I0305 20:46:34.435034  6165 net.cpp:150] Setting up mbox_conf
I0305 20:46:34.435041  6165 net.cpp:157] Top shape: 8 515844 (4126752)
I0305 20:46:34.435045  6165 net.cpp:165] Memory required for data: 8028694852
I0305 20:46:34.435050  6165 layer_factory.hpp:77] Creating layer mbox_priorbox
I0305 20:46:34.435056  6165 net.cpp:100] Creating Layer mbox_priorbox
I0305 20:46:34.435065  6165 net.cpp:434] mbox_priorbox <- conv4_3_norm_mbox_priorbox
I0305 20:46:34.435071  6165 net.cpp:434] mbox_priorbox <- fc7_mbox_priorbox
I0305 20:46:34.435078  6165 net.cpp:434] mbox_priorbox <- conv6_2_mbox_priorbox
I0305 20:46:34.435084  6165 net.cpp:434] mbox_priorbox <- conv7_2_mbox_priorbox
I0305 20:46:34.435089  6165 net.cpp:434] mbox_priorbox <- conv8_2_mbox_priorbox
I0305 20:46:34.435101  6165 net.cpp:434] mbox_priorbox <- conv9_2_mbox_priorbox
I0305 20:46:34.435108  6165 net.cpp:434] mbox_priorbox <- conv10_2_mbox_priorbox
I0305 20:46:34.435117  6165 net.cpp:408] mbox_priorbox -> mbox_priorbox
I0305 20:46:34.435144  6165 net.cpp:150] Setting up mbox_priorbox
I0305 20:46:34.435151  6165 net.cpp:157] Top shape: 1 2 98256 (196512)
I0305 20:46:34.435156  6165 net.cpp:165] Memory required for data: 8029480900
I0305 20:46:34.435161  6165 layer_factory.hpp:77] Creating layer mbox_loss
I0305 20:46:34.435170  6165 net.cpp:100] Creating Layer mbox_loss
I0305 20:46:34.435175  6165 net.cpp:434] mbox_loss <- mbox_loc
I0305 20:46:34.435184  6165 net.cpp:434] mbox_loss <- mbox_conf
I0305 20:46:34.435194  6165 net.cpp:434] mbox_loss <- mbox_priorbox
…
I0305 20:46:34.439054  6165 solver.cpp:196] Creating test net (#0) specified by test_net file: models/VGGNet/VOC0712/DES512x512_12/test12.prototxt
I0305 20:46:34.439988  6165 net.cpp:58] Initializing net from parameters: 
name: "VGG_VOC0712_SSD_512x512_test"
state {
  phase: TEST
}
layer {
  name: "data"
  type: "Data"
  top: "data"
  include {
    phase: TEST
  }
  transform_param {
    mean_value: 104
    mean_value: 117
    mean_value: 123
    resize_param {
      prob: 1
      resize_mode: WARP
      height: 512
      width: 512
      interp_mode: LINEAR
    }
  }
  data_param {
    source: "examples/VOC0712/VOC2012_test_lmdb"
    batch_size: 1
    backend: LMDB
  }
}
layer {
  name: "conv1_1"
  type: "Convolution"
  bottom: "data"
  top: "conv1_1"
  param {
    lr_mult: 1
    decay_mult: 1
  }
  param {
    lr_mult: 2
    decay_mult: 0
  }
  convolution_param {
    num_output: 64
    pad: 1
    kernel_size: 3
    weight_filler {
      type: "xavier"
    }
    bias_filler {
      type: "constant"
      value: 0
    }
  }
}
layer {
  name: "relu1_1"
  type: "ReLU"
  bottom: "conv1_1"
  top: "conv1_1"
}
layer {
  name: "conv1_2"
  type: "Convolution"
  bottom: "conv1_1"
  top: "conv1_2"
  param {
    lr_mult: 1
    decay_mult: 1
  }
  param {
    lr_mult: 2
    decay_mult: 0
  }
  convolution_param {
    num_output: 64
    pad: 1
    kernel_size: 3
    weight_filler {
      type: "xavier"
    }
    bias_filler {
      type: "constant"
      value: 0
    }
  }
}
layer {
  name: "relu1_2"
  type: "ReLU"
  bottom: "conv1_2"
  top: "conv1_2"
}
layer {
  name: "pool1"
  type: "Pooling"
  bottom: "conv1_2"
  top: "pool1"
  pooling_param {
    pool: MAX
    kernel_size: 2
    stride: 2
  }
}
layer {
  name: "conv2_1"
  type: "Convolution"
  bottom: "pool1"
  top: "conv2_1"
  param {
    lr_mult: 1
    decay_mult: 1
  }
  param {
    lr_mult: 2
    decay_mult: 0
  }
  convolution_param {
    num_output: 128
    pad: 1
    kernel_size: 3
    weight_filler {
      type: "xavier"
    }
    bias_filler {
      type: "constant"
      value: 0
    }
  }
}
layer {
  name: "relu2_1"
  type: "ReLU"
  bottom: "conv2_1"
  top: "conv2_1"
}
layer {
  name: "conv2_2"
  type: "Convolution"
  bottom: "conv2_1"
  top: "conv2_2"
  param {
    lr_mult: 1
    decay_mult: 1
  }
  param {
    lr_mult: 2
    decay_mult: 0
  }
  convolution_param {
    num_output: 128
    pad: 1
    kernel_size: 3
    weight_filler {
      type: "xavier"
    }
    bias_filler {
      type: "constant"
      value: 0
    }
  }
}
layer {
  name: "relu2_2"
  type: "ReLU"
  bottom: "conv2_2"
  top: "conv2_2"
}
layer {
  name: "pool2"
  type: "Pooling"
  bottom: "conv2_2"
  top: "pool2"
  pooling_param {
    pool: MAX
    kernel_size: 2
    stride: 2
  }
}
layer {
  name: "conv3_1"
  type: "Convolution"
  bottom: "pool2"
  top: "conv3_1"
  param {
    lr_mult: 1
    decay_mult: 1
  }
  param {
    lr_mult: 2
    decay_mult: 0
  }
  convolution_param {
    num_output: 256
    pad: 1
    kernel_size: 3
    weight_filler {
      type: "xavier"
    }
    bias_filler {
      type: "constant"
      value: 0
    }
  }
}
layer {
  name: "relu3_1"
  type: "ReLU"
  bottom: "conv3_1"
  top: "conv3_1"
}
layer {
  name: "conv3_2"
  type: "Convolution"
  bottom: "conv3_1"
  top: "conv3_2"
  param {
    lr_mult: 1
    decay_mult: 1
  }
  param {
    lr_mult: 2
    decay_mult: 0
  }
  convolution_param {
    num_output: 256
    pad: 1
    kernel_size: 3
    weight_filler {
      type: "xavier"
    }
    bias_filler {
      type: "constant"
      value: 0
    }
  }
}
layer {
  name: "relu3_2"
  type: "ReLU"
  bottom: "conv3_2"
  top: "conv3_2"
}
layer {
  name: "conv3_3"
  type: "Convolution"
  bottom: "conv3_2"
  top: "conv3_3"
  param {
    lr_mult: 1
    decay_mult: 1
  }
  param {
    lr_mult: 2
    decay_mult: 0
  }
  convolution_param {
    num_output: 256
    pad: 1
    kernel_size: 3
    weight_filler {
      type: "xavier"
    }
    bias_filler {
      type: "constant"
      value: 0
    }
  }
}
layer {
  name: "relu3_3"
  type: "ReLU"
  bottom: "conv3_3"
  top: "conv3_3"
}
layer {
  name: "pool3"
  type: "Pooling"
  bottom: "conv3_3"
  top: "pool3"
  pooling_param {
    pool: MAX
    kernel_size: 2
    stride: 2
  }
}
layer {
  name: "conv4_1"
  type: "Convolution"
  bottom: "pool3"
  top: "conv4_1"
  param {
    lr_mult: 1
    decay_mult: 1
  }
  param {
    lr_mult: 2
    decay_mult: 0
  }
  convolution_param {
    num_output: 512
    pad: 1
    kernel_size: 3
    weight_filler {
      type: "xavier"
    }
    bias_filler {
      type: "constant"
      value: 0
    }
  }
}
layer {
  name: "relu4_1"
  type: "ReLU"
  bottom: "conv4_1"
  top: "conv4_1"
}
layer {
  name: "conv4_2"
  type: "Convolution"
  bottom: "conv4_1"
  top: "conv4_2"
  param {
    lr_mult: 1
    decay_mult: 1
  }
  param {
    lr_mult: 2
    decay_mult: 0
  }
  convolution_param {
    num_output: 512
    pad: 1
    kernel_size: 3
    weight_filler {
      type: "xavier"
    }
    bias_filler {
      type: "constant"
      value: 0
    }
  }
}
layer {
  name: "relu4_2"
  type: "ReLU"
  bottom: "conv4_2"
  top: "conv4_2"
}
layer {
  name: "conv4_3"
  type: "Convolution"
  bottom: "conv4_2"
  top: "conv4_3_ori"
  param {
    lr_mult: 1
    decay_mult: 1
  }
  param {
    lr_mult: 2
    decay_mult: 0
  }
  convolution_param {
    num_output: 512
    pad: 1
    kernel_size: 3
    weight_filler {
      type: "xavier"
    }
    bias_filler {
      type: "constant"
      value: 0
    }
  }
}
layer {
  name: "relu4_3"
  type: "ReLU"
  bottom: "conv4_3_ori"
  top: "conv4_3_ori"
}
layer {
  name: "seg_pool4"
  type: "Pooling"
  bottom: "conv4_3_ori"
  top: "seg_pool4"
  pooling_param {
    pool: MAX
    kernel_size: 3
    stride: 1
    pad: 1
  }
}
layer {
  name: "seg5_1"
  type: "Convolution"
  bottom: "seg_pool4"
  top: "seg5_1"
  param {
    lr_mult: 1
    decay_mult: 1
  }
  param {
    lr_mult: 2
    decay_mult: 0
  }
  convolution_param {
    num_output: 512
    pad: 2
    kernel_size: 3
    weight_filler {
      type: "xavier"
    }
    bias_filler {
      type: "constant"
      value: 0
    }
    dilation: 2
  }
}
layer {
  name: "seg_relu5_1"
  type: "ReLU"
  bottom: "seg5_1"
  top: "seg5_1"
}
layer {
  name: "seg5_2"
  type: "Convolution"
  bottom: "seg5_1"
  top: "seg5_2"
  param {
    lr_mult: 1
    decay_mult: 1
  }
  param {
    lr_mult: 2
    decay_mult: 0
  }
  convolution_param {
    num_output: 512
    pad: 2
    kernel_size: 3
    weight_filler {
      type: "xavier"
    }
    bias_filler {
      type: "constant"
      value: 0
    }
    dilation: 2
  }
}
layer {
  name: "seg_relu5_2"
  type: "ReLU"
  bottom: "seg5_2"
  top: "seg5_2"
}
layer {
  name: "seg5_3"
  type: "Convolution"
  bottom: "seg5_2"
  top: "seg5_3"
  param {
    lr_mult: 1
    decay_mult: 1
  }
  param {
    lr_mult: 2
    decay_mult: 0
  }
  convolution_param {
    num_output: 512
    pad: 2
    kernel_size: 3
    weight_filler {
      type: "xavier"
    }
    bias_filler {
      type: "constant"
      value: 0
    }
    dilation: 2
  }
}
layer {
  name: "seg_relu5_3"
  type: "ReLU"
  bottom: "seg5_3"
  top: "seg5_3"
}
layer {
  name: "seg_pool5"
  type: "Pooling"
  bottom: "seg5_3"
  top: "seg_pool5"
  pooling_param {
    pool: MAX
    kernel_size: 3
    stride: 1
    pad: 1
  }
}
layer {
  name: "seg6"
  type: "Convolution"
  bottom: "seg_pool5"
  top: "seg6"
  param {
    lr_mult: 1
    decay_mult: 1
  }
  param {
    lr_mult: 2
    decay_mult: 0
  }
  convolution_param {
    num_output: 1024
    pad: 4
    kernel_size: 3
    weight_filler {
      type: "xavier"
    }
    bias_filler {
      type: "constant"
      value: 0
    }
    dilation: 4
  }
}
layer {
  name: "seg_relu6"
  type: "ReLU"
  bottom: "seg6"
  top: "seg6"
}
layer {
  name: "seg_drop6"
  type: "Dropout"
  bottom: "seg6"
  top: "seg6"
  dropout_param {
    dropout_ratio: 0.5
  }
}
layer {
  name: "seg7"
  type: "Convolution"
  bottom: "seg6"
  top: "seg7"
  param {
    lr_mult: 1
    decay_mult: 1
  }
  param {
    lr_mult: 2
    decay_mult: 0
  }
  convolution_param {
    num_output: 1024
    kernel_size: 1
    weight_filler {
      type: "xavier"
    }
    bias_filler {
      type: "constant"
      value: 0
    }
  }
}
layer {
  name: "seg_relu7"
  type: "ReLU"
  bottom: "seg7"
  top: "seg7"
}
layer {
  name: "seg_to_det_conv"
  type: "Convolution"
  bottom: "seg7"
  top: "seg_to_det_conv"
  param {
    lr_mult: 1
    decay_mult: 1
  }
  param {
    lr_mult: 2
    decay_mult: 0
  }
  propagate_down: false
  convolution_param {
    num_output: 512
    pad: 0
    kernel_size: 1
    stride: 1
    weight_filler {
      type: "xavier"
    }
    bias_filler {
      type: "constant"
      value: 0
    }
  }
}
layer {
  name: "mult_conv4_3"
  type: "Eltwise"
  bottom: "conv4_3_ori"
  bottom: "seg_to_det_conv"
  top: "conv4_3_t"
  eltwise_param {
    operation: PROD
  }
}
layer {
  name: "conv4_3_s"
  type: "Pooling"
  bottom: "conv4_3_t"
  top: "conv4_3_s"
  pooling_param {
    pool: AVE
    global_pooling: true
  }
}
layer {
  name: "conv4_3_fc1"
  type: "Convolution"
  bottom: "conv4_3_s"
  top: "conv4_3_fc1"
  param {
    lr_mult: 1
    decay_mult: 1
  }
  param {
    lr_mult: 2
    decay_mult: 0
  }
  convolution_param {
    num_output: 128
    kernel_size: 1
    stride: 1
    weight_filler {
      type: "xavier"
    }
    bias_filler {
      type: "constant"
      value: 0
    }
  }
}
layer {
  name: "conv4_3_relu"
  type: "ReLU"
  bottom: "conv4_3_fc1"
  top: "conv4_3_fc1"
}
layer {
  name: "conv4_3_fc2"
  type: "Convolution"
  bottom: "conv4_3_fc1"
  top: "conv4_3_fc2"
  param {
    lr_mult: 1
    decay_mult: 1
  }
  param {
    lr_mult: 2
    decay_mult: 0
  }
  convolution_param {
    num_output: 512
    kernel_size: 1
    stride: 1
    weight_filler {
      type: "xavier"
    }
    bias_filler {
      type: "constant"
      value: 0
    }
  }
}
layer {
  name: "conv4_3_sig"
  type: "Sigmoid"
  bottom: "conv4_3_fc2"
  top: "conv4_3_fc2"
}
layer {
  name: "conv4_3_reshape"
  type: "Reshape"
  bottom: "conv4_3_fc2"
  top: "conv4_3_reshape"
  reshape_param {
    shape {
      dim: 0
      dim: 0
    }
  }
}
layer {
  name: "conv4_3_scale"
  type: "Scale"
  bottom: "conv4_3_t"
  bottom: "conv4_3_reshape"
  top: "conv4_3"
  scale_param {
    axis: 0
    bias_term: false
  }
}
layer {
  name: "pool4"
  type: "Pooling"
  bottom: "conv4_3"
  top: "pool4"
  pooling_param {
    pool: MAX
    kernel_size: 2
…
I0305 20:46:34.752619  6165 net.cpp:157] Top shape: 1 256 4 4 (4096)
I0305 20:46:34.752627  6165 net.cpp:157] Top shape: 1 256 4 4 (4096)
I0305 20:46:34.752635  6165 net.cpp:165] Memory required for data: 908653568
I0305 20:46:34.752657  6165 layer_factory.hpp:77] Creating layer conv9_1
I0305 20:46:34.752668  6165 net.cpp:100] Creating Layer conv9_1
I0305 20:46:34.752676  6165 net.cpp:434] conv9_1 <- conv8_2_conv8_2_scale_0_split_0
I0305 20:46:34.752686  6165 net.cpp:408] conv9_1 -> conv9_1
I0305 20:46:34.754078  6165 net.cpp:150] Setting up conv9_1
I0305 20:46:34.754091  6165 net.cpp:157] Top shape: 1 128 4 4 (2048)
I0305 20:46:34.754096  6165 net.cpp:165] Memory required for data: 908661760
I0305 20:46:34.754103  6165 layer_factory.hpp:77] Creating layer conv9_1_relu
I0305 20:46:34.754109  6165 net.cpp:100] Creating Layer conv9_1_relu
I0305 20:46:34.754117  6165 net.cpp:434] conv9_1_relu <- conv9_1
I0305 20:46:34.754127  6165 net.cpp:395] conv9_1_relu -> conv9_1 (in-place)
I0305 20:46:34.754310  6165 net.cpp:150] Setting up conv9_1_relu
I0305 20:46:34.754321  6165 net.cpp:157] Top shape: 1 128 4 4 (2048)
I0305 20:46:34.754343  6165 net.cpp:165] Memory required for data: 908669952
I0305 20:46:34.754349  6165 layer_factory.hpp:77] Creating layer conv9_2
I0305 20:46:34.754360  6165 net.cpp:100] Creating Layer conv9_2
I0305 20:46:34.754366  6165 net.cpp:434] conv9_2 <- conv9_1
I0305 20:46:34.754379  6165 net.cpp:408] conv9_2 -> conv9_2_t
I0305 20:46:34.757592  6165 net.cpp:150] Setting up conv9_2
I0305 20:46:34.757606  6165 net.cpp:157] Top shape: 1 256 2 2 (1024)
I0305 20:46:34.757609  6165 net.cpp:165] Memory required for data: 908674048
I0305 20:46:34.757619  6165 layer_factory.hpp:77] Creating layer conv9_2_relu
I0305 20:46:34.757627  6165 net.cpp:100] Creating Layer conv9_2_relu
I0305 20:46:34.757632  6165 net.cpp:434] conv9_2_relu <- conv9_2_t
I0305 20:46:34.757640  6165 net.cpp:395] conv9_2_relu -> conv9_2_t (in-place)
I0305 20:46:34.758221  6165 net.cpp:150] Setting up conv9_2_relu
I0305 20:46:34.758234  6165 net.cpp:157] Top shape: 1 256 2 2 (1024)
I0305 20:46:34.758237  6165 net.cpp:165] Memory required for data: 908678144
I0305 20:46:34.758241  6165 layer_factory.hpp:77] Creating layer conv9_2_t_conv9_2_relu_0_split
I0305 20:46:34.758250  6165 net.cpp:100] Creating Layer conv9_2_t_conv9_2_relu_0_split
I0305 20:46:34.758256  6165 net.cpp:434] conv9_2_t_conv9_2_relu_0_split <- conv9_2_t
I0305 20:46:34.758262  6165 net.cpp:408] conv9_2_t_conv9_2_relu_0_split -> conv9_2_t_conv9_2_relu_0_split_0
I0305 20:46:34.758272  6165 net.cpp:408] conv9_2_t_conv9_2_relu_0_split -> conv9_2_t_conv9_2_relu_0_split_1
I0305 20:46:34.758342  6165 net.cpp:150] Setting up conv9_2_t_conv9_2_relu_0_split
I0305 20:46:34.758354  6165 net.cpp:157] Top shape: 1 256 2 2 (1024)
I0305 20:46:34.758361  6165 net.cpp:157] Top shape: 1 256 2 2 (1024)
I0305 20:46:34.758368  6165 net.cpp:165] Memory required for data: 908686336
I0305 20:46:34.758380  6165 layer_factory.hpp:77] Creating layer conv9_2_s
I0305 20:46:34.758393  6165 net.cpp:100] Creating Layer conv9_2_s
I0305 20:46:34.758396  6165 net.cpp:434] conv9_2_s <- conv9_2_t_conv9_2_relu_0_split_0
I0305 20:46:34.758409  6165 net.cpp:408] conv9_2_s -> conv9_2_s
I0305 20:46:34.758611  6165 net.cpp:150] Setting up conv9_2_s
I0305 20:46:34.758620  6165 net.cpp:157] Top shape: 1 256 1 1 (256)
I0305 20:46:34.758625  6165 net.cpp:165] Memory required for data: 908687360
I0305 20:46:34.758628  6165 layer_factory.hpp:77] Creating layer conv9_2_fc1
I0305 20:46:34.758641  6165 net.cpp:100] Creating Layer conv9_2_fc1
I0305 20:46:34.758644  6165 net.cpp:434] conv9_2_fc1 <- conv9_2_s
I0305 20:46:34.758653  6165 net.cpp:408] conv9_2_fc1 -> conv9_2_fc1
I0305 20:46:34.759999  6165 net.cpp:150] Setting up conv9_2_fc1
I0305 20:46:34.760012  6165 net.cpp:157] Top shape: 1 64 1 1 (64)
I0305 20:46:34.760015  6165 net.cpp:165] Memory required for data: 908687616
I0305 20:46:34.760025  6165 layer_factory.hpp:77] Creating layer conv9_2_relu
I0305 20:46:34.760033  6165 net.cpp:100] Creating Layer conv9_2_relu
I0305 20:46:34.760040  6165 net.cpp:434] conv9_2_relu <- conv9_2_fc1
I0305 20:46:34.760046  6165 net.cpp:395] conv9_2_relu -> conv9_2_fc1 (in-place)
I0305 20:46:34.760236  6165 net.cpp:150] Setting up conv9_2_relu
I0305 20:46:34.760255  6165 net.cpp:157] Top shape: 1 64 1 1 (64)
I0305 20:46:34.760260  6165 net.cpp:165] Memory required for data: 908687872
I0305 20:46:34.760264  6165 layer_factory.hpp:77] Creating layer conv9_2_fc2
I0305 20:46:34.760277  6165 net.cpp:100] Creating Layer conv9_2_fc2
I0305 20:46:34.760283  6165 net.cpp:434] conv9_2_fc2 <- conv9_2_fc1
I0305 20:46:34.760293  6165 net.cpp:408] conv9_2_fc2 -> conv9_2_fc2
I0305 20:46:34.762035  6165 net.cpp:150] Setting up conv9_2_fc2
I0305 20:46:34.762048  6165 net.cpp:157] Top shape: 1 256 1 1 (256)
I0305 20:46:34.762050  6165 net.cpp:165] Memory required for data: 908688896
I0305 20:46:34.762058  6165 layer_factory.hpp:77] Creating layer conv9_2_sig
I0305 20:46:34.762064  6165 net.cpp:100] Creating Layer conv9_2_sig
I0305 20:46:34.762069  6165 net.cpp:434] conv9_2_sig <- conv9_2_fc2
I0305 20:46:34.762073  6165 net.cpp:395] conv9_2_sig -> conv9_2_fc2 (in-place)
I0305 20:46:34.762280  6165 net.cpp:150] Setting up conv9_2_sig
I0305 20:46:34.762290  6165 net.cpp:157] Top shape: 1 256 1 1 (256)
I0305 20:46:34.762292  6165 net.cpp:165] Memory required for data: 908689920
I0305 20:46:34.762297  6165 layer_factory.hpp:77] Creating layer conv9_2_reshape
I0305 20:46:34.762308  6165 net.cpp:100] Creating Layer conv9_2_reshape
I0305 20:46:34.762313  6165 net.cpp:434] conv9_2_reshape <- conv9_2_fc2
I0305 20:46:34.762322  6165 net.cpp:408] conv9_2_reshape -> conv9_2_reshape
I0305 20:46:34.762389  6165 net.cpp:150] Setting up conv9_2_reshape
I0305 20:46:34.762398  6165 net.cpp:157] Top shape: 1 256 (256)
I0305 20:46:34.762400  6165 net.cpp:165] Memory required for data: 908690944
I0305 20:46:34.762404  6165 layer_factory.hpp:77] Creating layer conv9_2_scale
I0305 20:46:34.762413  6165 net.cpp:100] Creating Layer conv9_2_scale
I0305 20:46:34.762423  6165 net.cpp:434] conv9_2_scale <- conv9_2_t_conv9_2_relu_0_split_1
I0305 20:46:34.762430  6165 net.cpp:434] conv9_2_scale <- conv9_2_reshape
I0305 20:46:34.762437  6165 net.cpp:408] conv9_2_scale -> conv9_2
I0305 20:46:34.762529  6165 net.cpp:150] Setting up conv9_2_scale
I0305 20:46:34.762538  6165 net.cpp:157] Top shape: 1 256 2 2 (1024)
I0305 20:46:34.762542  6165 net.cpp:165] Memory required for data: 908695040
I0305 20:46:34.762547  6165 layer_factory.hpp:77] Creating layer conv9_2_conv9_2_scale_0_split
I0305 20:46:34.762557  6165 net.cpp:100] Creating Layer conv9_2_conv9_2_scale_0_split
I0305 20:46:34.762565  6165 net.cpp:434] conv9_2_conv9_2_scale_0_split <- conv9_2
I0305 20:46:34.762578  6165 net.cpp:408] conv9_2_conv9_2_scale_0_split -> conv9_2_conv9_2_scale_0_split_0
I0305 20:46:34.762588  6165 net.cpp:408] conv9_2_conv9_2_scale_0_split -> conv9_2_conv9_2_scale_0_split_1
I0305 20:46:34.762595  6165 net.cpp:408] conv9_2_conv9_2_scale_0_split -> conv9_2_conv9_2_scale_0_split_2
I0305 20:46:34.762605  6165 net.cpp:408] conv9_2_conv9_2_scale_0_split -> conv9_2_conv9_2_scale_0_split_3
I0305 20:46:34.762681  6165 net.cpp:150] Setting up conv9_2_conv9_2_scale_0_split
I0305 20:46:34.762688  6165 net.cpp:157] Top shape: 1 256 2 2 (1024)
I0305 20:46:34.762694  6165 net.cpp:157] Top shape: 1 256 2 2 (1024)
I0305 20:46:34.762701  6165 net.cpp:157] Top shape: 1 256 2 2 (1024)
I0305 20:46:34.762708  6165 net.cpp:157] Top shape: 1 256 2 2 (1024)
I0305 20:46:34.762712  6165 net.cpp:165] Memory required for data: 908711424
I0305 20:46:34.762717  6165 layer_factory.hpp:77] Creating layer conv10_1
I0305 20:46:34.762732  6165 net.cpp:100] Creating Layer conv10_1
I0305 20:46:34.762742  6165 net.cpp:434] conv10_1 <- conv9_2_conv9_2_scale_0_split_0
I0305 20:46:34.762753  6165 net.cpp:408] conv10_1 -> conv10_1
I0305 20:46:34.764148  6165 net.cpp:150] Setting up conv10_1
I0305 20:46:34.764163  6165 net.cpp:157] Top shape: 1 128 2 2 (512)
I0305 20:46:34.764168  6165 net.cpp:165] Memory required for data: 908713472
I0305 20:46:34.764178  6165 layer_factory.hpp:77] Creating layer conv10_1_relu
I0305 20:46:34.764190  6165 net.cpp:100] Creating Layer conv10_1_relu
I0305 20:46:34.764197  6165 net.cpp:434] conv10_1_relu <- conv10_1
I0305 20:46:34.764225  6165 net.cpp:395] conv10_1_relu -> conv10_1 (in-place)
I0305 20:46:34.764813  6165 net.cpp:150] Setting up conv10_1_relu
I0305 20:46:34.764827  6165 net.cpp:157] Top shape: 1 128 2 2 (512)
I0305 20:46:34.764832  6165 net.cpp:165] Memory required for data: 908715520
I0305 20:46:34.764838  6165 layer_factory.hpp:77] Creating layer conv10_2
I0305 20:46:34.764855  6165 net.cpp:100] Creating Layer conv10_2
I0305 20:46:34.764868  6165 net.cpp:434] conv10_2 <- conv10_1
I0305 20:46:34.764881  6165 net.cpp:408] conv10_2 -> conv10_2_t
I0305 20:46:34.769219  6165 net.cpp:150] Setting up conv10_2
I0305 20:46:34.769233  6165 net.cpp:157] Top shape: 1 256 1 1 (256)
I0305 20:46:34.769239  6165 net.cpp:165] Memory required for data: 908716544
I0305 20:46:34.769250  6165 layer_factory.hpp:77] Creating layer conv10_2_relu
I0305 20:46:34.769268  6165 net.cpp:100] Creating Layer conv10_2_relu
I0305 20:46:34.769276  6165 net.cpp:434] conv10_2_relu <- conv10_2_t
I0305 20:46:34.769289  6165 net.cpp:395] conv10_2_relu -> conv10_2_t (in-place)
I0305 20:46:34.769472  6165 net.cpp:150] Setting up conv10_2_relu
I0305 20:46:34.769490  6165 net.cpp:157] Top shape: 1 256 1 1 (256)
I0305 20:46:34.769495  6165 net.cpp:165] Memory required for data: 908717568
I0305 20:46:34.769500  6165 layer_factory.hpp:77] Creating layer conv10_2_t_conv10_2_relu_0_split
I0305 20:46:34.769510  6165 net.cpp:100] Creating Layer conv10_2_t_conv10_2_relu_0_split
I0305 20:46:34.769515  6165 net.cpp:434] conv10_2_t_conv10_2_relu_0_split <- conv10_2_t
I0305 20:46:34.769524  6165 net.cpp:408] conv10_2_t_conv10_2_relu_0_split -> conv10_2_t_conv10_2_relu_0_split_0
I0305 20:46:34.769534  6165 net.cpp:408] conv10_2_t_conv10_2_relu_0_split -> conv10_2_t_conv10_2_relu_0_split_1
I0305 20:46:34.769595  6165 net.cpp:150] Setting up conv10_2_t_conv10_2_relu_0_split
I0305 20:46:34.769604  6165 net.cpp:157] Top shape: 1 256 1 1 (256)
I0305 20:46:34.769610  6165 net.cpp:157] Top shape: 1 256 1 1 (256)
I0305 20:46:34.769614  6165 net.cpp:165] Memory required for data: 908719616
I0305 20:46:34.769620  6165 layer_factory.hpp:77] Creating layer conv10_2_s
I0305 20:46:34.769645  6165 net.cpp:100] Creating Layer conv10_2_s
I0305 20:46:34.769652  6165 net.cpp:434] conv10_2_s <- conv10_2_t_conv10_2_relu_0_split_0
I0305 20:46:34.769661  6165 net.cpp:408] conv10_2_s -> conv10_2_s
I0305 20:46:34.769870  6165 net.cpp:150] Setting up conv10_2_s
I0305 20:46:34.769881  6165 net.cpp:157] Top shape: 1 256 1 1 (256)
I0305 20:46:34.769884  6165 net.cpp:165] Memory required for data: 908720640
I0305 20:46:34.769891  6165 layer_factory.hpp:77] Creating layer conv10_2_fc1
I0305 20:46:34.769903  6165 net.cpp:100] Creating Layer conv10_2_fc1
I0305 20:46:34.769909  6165 net.cpp:434] conv10_2_fc1 <- conv10_2_s
I0305 20:46:34.769919  6165 net.cpp:408] conv10_2_fc1 -> conv10_2_fc1
I0305 20:46:34.772749  6165 net.cpp:150] Setting up conv10_2_fc1
I0305 20:46:34.772764  6165 net.cpp:157] Top shape: 1 64 1 1 (64)
I0305 20:46:34.772769  6165 net.cpp:165] Memory required for data: 908720896
I0305 20:46:34.772780  6165 layer_factory.hpp:77] Creating layer conv10_2_relu
I0305 20:46:34.772791  6165 net.cpp:100] Creating Layer conv10_2_relu
I0305 20:46:34.772797  6165 net.cpp:434] conv10_2_relu <- conv10_2_fc1
I0305 20:46:34.772809  6165 net.cpp:395] conv10_2_relu -> conv10_2_fc1 (in-place)
I0305 20:46:34.773460  6165 net.cpp:150] Setting up conv10_2_relu
I0305 20:46:34.773475  6165 net.cpp:157] Top shape: 1 64 1 1 (64)
I0305 20:46:34.773483  6165 net.cpp:165] Memory required for data: 908721152
I0305 20:46:34.773488  6165 layer_factory.hpp:77] Creating layer conv10_2_fc2
I0305 20:46:34.773504  6165 net.cpp:100] Creating Layer conv10_2_fc2
I0305 20:46:34.773511  6165 net.cpp:434] conv10_2_fc2 <- conv10_2_fc1
I0305 20:46:34.773524  6165 net.cpp:408] conv10_2_fc2 -> conv10_2_fc2
I0305 20:46:34.774927  6165 net.cpp:150] Setting up conv10_2_fc2
I0305 20:46:34.774943  6165 net.cpp:157] Top shape: 1 256 1 1 (256)
I0305 20:46:34.774948  6165 net.cpp:165] Memory required for data: 908722176
I0305 20:46:34.774960  6165 layer_factory.hpp:77] Creating layer conv10_2_sig
I0305 20:46:34.774979  6165 net.cpp:100] Creating Layer conv10_2_sig
I0305 20:46:34.774986  6165 net.cpp:434] conv10_2_sig <- conv10_2_fc2
I0305 20:46:34.774999  6165 net.cpp:395] conv10_2_sig -> conv10_2_fc2 (in-place)
I0305 20:46:34.775190  6165 net.cpp:150] Setting up conv10_2_sig
I0305 20:46:34.775202  6165 net.cpp:157] Top shape: 1 256 1 1 (256)
I0305 20:46:34.775205  6165 net.cpp:165] Memory required for data: 908723200
I0305 20:46:34.775209  6165 layer_factory.hpp:77] Creating layer conv10_2_reshape
I0305 20:46:34.775218  6165 net.cpp:100] Creating Layer conv10_2_reshape
I0305 20:46:34.775224  6165 net.cpp:434] conv10_2_reshape <- conv10_2_fc2
I0305 20:46:34.775230  6165 net.cpp:408] conv10_2_reshape -> conv10_2_reshape
I0305 20:46:34.775275  6165 net.cpp:150] Setting up conv10_2_reshape
I0305 20:46:34.775291  6165 net.cpp:157] Top shape: 1 256 (256)
I0305 20:46:34.775297  6165 net.cpp:165] Memory required for data: 908724224
I0305 20:46:34.775303  6165 layer_factory.hpp:77] Creating layer conv10_2_scale
I0305 20:46:34.775321  6165 net.cpp:100] Creating Layer conv10_2_scale
I0305 20:46:34.775334  6165 net.cpp:434] conv10_2_scale <- conv10_2_t_conv10_2_relu_0_split_1
I0305 20:46:34.775342  6165 net.cpp:434] conv10_2_scale <- conv10_2_reshape
I0305 20:46:34.775357  6165 net.cpp:408] conv10_2_scale -> conv10_2
I0305 20:46:34.775462  6165 net.cpp:150] Setting up conv10_2_scale
I0305 20:46:34.775471  6165 net.cpp:157] Top shape: 1 256 1 1 (256)
I0305 20:46:34.775476  6165 net.cpp:165] Memory required for data: 908725248
I0305 20:46:34.775482  6165 layer_factory.hpp:77] Creating layer conv10_2_conv10_2_scale_0_split
I0305 20:46:34.775493  6165 net.cpp:100] Creating Layer conv10_2_conv10_2_scale_0_split
I0305 20:46:34.775504  6165 net.cpp:434] conv10_2_conv10_2_scale_0_split <- conv10_2
I0305 20:46:34.775519  6165 net.cpp:408] conv10_2_conv10_2_scale_0_split -> conv10_2_conv10_2_scale_0_split_0
I0305 20:46:34.775529  6165 net.cpp:408] conv10_2_conv10_2_scale_0_split -> conv10_2_conv10_2_scale_0_split_1
I0305 20:46:34.775540  6165 net.cpp:408] conv10_2_conv10_2_scale_0_split -> conv10_2_conv10_2_scale_0_split_2
I0305 20:46:34.775619  6165 net.cpp:150] Setting up conv10_2_conv10_2_scale_0_split
I0305 20:46:34.775624  6165 net.cpp:157] Top shape: 1 256 1 1 (256)
I0305 20:46:34.775629  6165 net.cpp:157] Top shape: 1 256 1 1 (256)
I0305 20:46:34.775632  6165 net.cpp:157] Top shape: 1 256 1 1 (256)
I0305 20:46:34.775638  6165 net.cpp:165] Memory required for data: 908728320
I0305 20:46:34.775642  6165 layer_factory.hpp:77] Creating layer conv4_3_norm
I0305 20:46:34.775653  6165 net.cpp:100] Creating Layer conv4_3_norm
I0305 20:46:34.775657  6165 net.cpp:434] conv4_3_norm <- conv4_3_conv4_3_scale_0_split_1
I0305 20:46:34.775666  6165 net.cpp:408] conv4_3_norm -> conv4_3_norm
I0305 20:46:34.775851  6165 net.cpp:150] Setting up conv4_3_norm
I0305 20:46:34.775858  6165 net.cpp:157] Top shape: 1 512 64 64 (2097152)
I0305 20:46:34.775862  6165 net.cpp:165] Memory required for data: 917116928
I0305 20:46:34.775869  6165 layer_factory.hpp:77] Creating layer conv4_3_norm_conv4_3_norm_0_split
I0305 20:46:34.775876  6165 net.cpp:100] Creating Layer conv4_3_norm_conv4_3_norm_0_split
I0305 20:46:34.775880  6165 net.cpp:434] conv4_3_norm_conv4_3_norm_0_split <- conv4_3_norm
I0305 20:46:34.775884  6165 net.cpp:408] conv4_3_norm_conv4_3_norm_0_split -> conv4_3_norm_conv4_3_norm_0_split_0
I0305 20:46:34.775892  6165 net.cpp:408] conv4_3_norm_conv4_3_norm_0_split -> conv4_3_norm_conv4_3_norm_0_split_1
I0305 20:46:34.775898  6165 net.cpp:408] conv4_3_norm_conv4_3_norm_0_split -> conv4_3_norm_conv4_3_norm_0_split_2
I0305 20:46:34.775959  6165 net.cpp:150] Setting up conv4_3_norm_conv4_3_norm_0_split
I0305 20:46:34.775965  6165 net.cpp:157] Top shape: 1 512 64 64 (2097152)
I0305 20:46:34.775972  6165 net.cpp:157] Top shape: 1 512 64 64 (2097152)
I0305 20:46:34.775976  6165 net.cpp:157] Top shape: 1 512 64 64 (2097152)
I0305 20:46:34.775979  6165 net.cpp:165] Memory required for data: 942282752
I0305 20:46:34.775992  6165 layer_factory.hpp:77] Creating layer conv4_3_norm_mbox_loc
I0305 20:46:34.776000  6165 net.cpp:100] Creating Layer conv4_3_norm_mbox_loc
I0305 20:46:34.776005  6165 net.cpp:434] conv4_3_norm_mbox_loc <- conv4_3_norm_conv4_3_norm_0_split_0
I0305 20:46:34.776011  6165 net.cpp:408] conv4_3_norm_mbox_loc -> conv4_3_norm_mbox_loc
I0305 20:46:34.777978  6165 net.cpp:150] Setting up conv4_3_norm_mbox_loc
I0305 20:46:34.777997  6165 net.cpp:157] Top shape: 1 16 64 64 (65536)
I0305 20:46:34.778002  6165 net.cpp:165] Memory required for data: 942544896
I0305 20:46:34.778013  6165 layer_factory.hpp:77] Creating layer conv4_3_norm_mbox_loc_perm
I0305 20:46:34.778023  6165 net.cpp:100] Creating Layer conv4_3_norm_mbox_loc_perm
I0305 20:46:34.778034  6165 net.cpp:434] conv4_3_norm_mbox_loc_perm <- conv4_3_norm_mbox_loc
I0305 20:46:34.778048  6165 net.cpp:408] conv4_3_norm_mbox_loc_perm -> conv4_3_norm_mbox_loc_perm
I0305 20:46:34.778203  6165 net.cpp:150] Setting up conv4_3_norm_mbox_loc_perm
I0305 20:46:34.778213  6165 net.cpp:157] Top shape: 1 64 64 16 (65536)
I0305 20:46:34.778220  6165 net.cpp:165] Memory required for data: 942807040
I0305 20:46:34.778228  6165 layer_factory.hpp:77] Creating layer conv4_3_norm_mbox_loc_flat
I0305 20:46:34.778239  6165 net.cpp:100] Creating Layer conv4_3_norm_mbox_loc_flat
I0305 20:46:34.778247  6165 net.cpp:434] conv4_3_norm_mbox_loc_flat <- conv4_3_norm_mbox_loc_perm
I0305 20:46:34.778259  6165 net.cpp:408] conv4_3_norm_mbox_loc_flat -> conv4_3_norm_mbox_loc_flat
I0305 20:46:34.778301  6165 net.cpp:150] Setting up conv4_3_norm_mbox_loc_flat
I0305 20:46:34.778311  6165 net.cpp:157] Top shape: 1 65536 (65536)
I0305 20:46:34.778316  6165 net.cpp:165] Memory required for data: 943069184
I0305 20:46:34.778362  6165 layer_factory.hpp:77] Creating layer conv4_3_norm_mbox_conf
I0305 20:46:34.778374  6165 net.cpp:100] Creating Layer conv4_3_norm_mbox_conf
I0305 20:46:34.778383  6165 net.cpp:434] conv4_3_norm_mbox_conf <- conv4_3_norm_conv4_3_norm_0_split_1
I0305 20:46:34.778391  6165 net.cpp:408] conv4_3_norm_mbox_conf -> conv4_3_norm_mbox_conf
I0305 20:46:34.782470  6165 net.cpp:150] Setting up conv4_3_norm_mbox_conf
I0305 20:46:34.782485  6165 net.cpp:157] Top shape: 1 84 64 64 (344064)
I0305 20:46:34.782491  6165 net.cpp:165] Memory required for data: 944445440
I0305 20:46:34.782505  6165 layer_factory.hpp:77] Creating layer conv4_3_norm_mbox_conf_perm
I0305 20:46:34.782517  6165 net.cpp:100] Creating Layer conv4_3_norm_mbox_conf_perm
I0305 20:46:34.782526  6165 net.cpp:434] conv4_3_norm_mbox_conf_perm <- conv4_3_norm_mbox_conf
I0305 20:46:34.782534  6165 net.cpp:408] conv4_3_norm_mbox_conf_perm -> conv4_3_norm_mbox_conf_perm
I0305 20:46:34.782686  6165 net.cpp:150] Setting up conv4_3_norm_mbox_conf_perm
I0305 20:46:34.782694  6165 net.cpp:157] Top shape: 1 64 64 84 (344064)
I0305 20:46:34.782698  6165 net.cpp:165] Memory required for data: 945821696
I0305 20:46:34.782703  6165 layer_factory.hpp:77] Creating layer conv4_3_norm_mbox_conf_flat
I0305 20:46:34.782709  6165 net.cpp:100] Creating Layer conv4_3_norm_mbox_conf_flat
I0305 20:46:34.782714  6165 net.cpp:434] conv4_3_norm_mbox_conf_flat <- conv4_3_norm_mbox_conf_perm
I0305 20:46:34.782719  6165 net.cpp:408] conv4_3_norm_mbox_conf_flat -> conv4_3_norm_mbox_conf_flat
I0305 20:46:34.782753  6165 net.cpp:150] Setting up conv4_3_norm_mbox_conf_flat
I0305 20:46:34.782759  6165 net.cpp:157] Top shape: 1 344064 (344064)
I0305 20:46:34.782763  6165 net.cpp:165] Memory required for data: 947197952
I0305 20:46:34.782766  6165 layer_factory.hpp:77] Creating layer conv4_3_norm_mbox_priorbox
I0305 20:46:34.782774  6165 net.cpp:100] Creating Layer conv4_3_norm_mbox_priorbox
I0305 20:46:34.782778  6165 net.cpp:434] conv4_3_norm_mbox_priorbox <- conv4_3_norm_conv4_3_norm_0_split_2
I0305 20:46:34.782784  6165 net.cpp:434] conv4_3_norm_mbox_priorbox <- data_data_0_split_1
I0305 20:46:34.782789  6165 net.cpp:408] conv4_3_norm_mbox_priorbox -> conv4_3_norm_mbox_priorbox
I0305 20:46:34.782824  6165 net.cpp:150] Setting up conv4_3_norm_mbox_priorbox
I0305 20:46:34.782840  6165 net.cpp:157] Top shape: 1 2 65536 (131072)
I0305 20:46:34.782845  6165 net.cpp:165] Memory required for data: 947722240
I0305 20:46:34.782848  6165 layer_factory.hpp:77] Creating layer fc7_mbox_loc
I0305 20:46:34.782860  6165 net.cpp:100] Creating Layer fc7_mbox_loc
I0305 20:46:34.782865  6165 net.cpp:434] fc7_mbox_loc <- fc7_fc7_scale_0_split_1
I0305 20:46:34.782873  6165 net.cpp:408] fc7_mbox_loc -> fc7_mbox_loc
I0305 20:46:34.786536  6165 net.cpp:150] Setting up fc7_mbox_loc
I0305 20:46:34.786551  6165 net.cpp:157] Top shape: 1 24 32 32 (24576)
I0305 20:46:34.786557  6165 net.cpp:165] Memory required for data: 947820544
I0305 20:46:34.786569  6165 layer_factory.hpp:77] Creating layer fc7_mbox_loc_perm
I0305 20:46:34.786579  6165 net.cpp:100] Creating Layer fc7_mbox_loc_perm
I0305 20:46:34.786586  6165 net.cpp:434] fc7_mbox_loc_perm <- fc7_mbox_loc
I0305 20:46:34.786598  6165 net.cpp:408] fc7_mbox_loc_perm -> fc7_mbox_loc_perm
I0305 20:46:34.786752  6165 net.cpp:150] Setting up fc7_mbox_loc_perm
I0305 20:46:34.786762  6165 net.cpp:157] Top shape: 1 32 32 24 (24576)
I0305 20:46:34.786767  6165 net.cpp:165] Memory required for data: 947918848
I0305 20:46:34.786772  6165 layer_factory.hpp:77] Creating layer fc7_mbox_loc_flat
I0305 20:46:34.786784  6165 net.cpp:100] Creating Layer fc7_mbox_loc_flat
I0305 20:46:34.786792  6165 net.cpp:434] fc7_mbox_loc_flat <- fc7_mbox_loc_perm
I0305 20:46:34.786804  6165 net.cpp:408] fc7_mbox_loc_flat -> fc7_mbox_loc_flat
I0305 20:46:34.786841  6165 net.cpp:150] Setting up fc7_mbox_loc_flat
I0305 20:46:34.786850  6165 net.cpp:157] Top shape: 1 24576 (24576)
I0305 20:46:34.786855  6165 net.cpp:165] Memory required for data: 948017152
I0305 20:46:34.786864  6165 layer_factory.hpp:77] Creating layer fc7_mbox_conf
I0305 20:46:34.786880  6165 net.cpp:100] Creating Layer fc7_mbox_conf
I0305 20:46:34.786890  6165 net.cpp:434] fc7_mbox_conf <- fc7_fc7_scale_0_split_2
I0305 20:46:34.786901  6165 net.cpp:408] fc7_mbox_conf -> fc7_mbox_conf
I0305 20:46:34.794991  6165 net.cpp:150] Setting up fc7_mbox_conf
I0305 20:46:34.795008  6165 net.cpp:157] Top shape: 1 126 32 32 (129024)
I0305 20:46:34.795013  6165 net.cpp:165] Memory required for data: 948533248
I0305 20:46:34.795022  6165 layer_factory.hpp:77] Creating layer fc7_mbox_conf_perm
I0305 20:46:34.795033  6165 net.cpp:100] Creating Layer fc7_mbox_conf_perm
I0305 20:46:34.795038  6165 net.cpp:434] fc7_mbox_conf_perm <- fc7_mbox_conf
I0305 20:46:34.795045  6165 net.cpp:408] fc7_mbox_conf_perm -> fc7_mbox_conf_perm
I0305 20:46:34.795202  6165 net.cpp:150] Setting up fc7_mbox_conf_perm
I0305 20:46:34.795212  6165 net.cpp:157] Top shape: 1 32 32 126 (129024)
I0305 20:46:34.795215  6165 net.cpp:165] Memory required for data: 949049344
I0305 20:46:34.795228  6165 layer_factory.hpp:77] Creating layer fc7_mbox_conf_flat
I0305 20:46:34.795241  6165 net.cpp:100] Creating Layer fc7_mbox_conf_flat
I0305 20:46:34.795255  6165 net.cpp:434] fc7_mbox_conf_flat <- fc7_mbox_conf_perm
I0305 20:46:34.795262  6165 net.cpp:408] fc7_mbox_conf_flat -> fc7_mbox_conf_flat
I0305 20:46:34.795307  6165 net.cpp:150] Setting up fc7_mbox_conf_flat
I0305 20:46:34.795320  6165 net.cpp:157] Top shape: 1 129024 (129024)
I0305 20:46:34.795325  6165 net.cpp:165] Memory required for data: 949565440
I0305 20:46:34.795331  6165 layer_factory.hpp:77] Creating layer fc7_mbox_priorbox
I0305 20:46:34.795351  6165 net.cpp:100] Creating Layer fc7_mbox_priorbox
I0305 20:46:34.795359  6165 net.cpp:434] fc7_mbox_priorbox <- fc7_fc7_scale_0_split_3
I0305 20:46:34.795372  6165 net.cpp:434] fc7_mbox_priorbox <- data_data_0_split_2
I0305 20:46:34.795380  6165 net.cpp:408] fc7_mbox_priorbox -> fc7_mbox_priorbox
I0305 20:46:34.795428  6165 net.cpp:150] Setting up fc7_mbox_priorbox
I0305 20:46:34.795437  6165 net.cpp:157] Top shape: 1 2 24576 (49152)
I0305 20:46:34.795444  6165 net.cpp:165] Memory required for data: 949762048
I0305 20:46:34.795450  6165 layer_factory.hpp:77] Creating layer conv6_2_mbox_loc
I0305 20:46:34.795470  6165 net.cpp:100] Creating Layer conv6_2_mbox_loc
I0305 20:46:34.795492  6165 net.cpp:434] conv6_2_mbox_loc <- conv6_2_conv6_2_scale_0_split_1
I0305 20:46:34.795505  6165 net.cpp:408] conv6_2_mbox_loc -> conv6_2_mbox_loc
I0305 20:46:34.797951  6165 net.cpp:150] Setting up conv6_2_mbox_loc
I0305 20:46:34.797966  6165 net.cpp:157] Top shape: 1 24 16 16 (6144)
I0305 20:46:34.797971  6165 net.cpp:165] Memory required for data: 949786624
I0305 20:46:34.797982  6165 layer_factory.hpp:77] Creating layer conv6_2_mbox_loc_perm
I0305 20:46:34.797994  6165 net.cpp:100] Creating Layer conv6_2_mbox_loc_perm
I0305 20:46:34.798003  6165 net.cpp:434] conv6_2_mbox_loc_perm <- conv6_2_mbox_loc
I0305 20:46:34.798012  6165 net.cpp:408] conv6_2_mbox_loc_perm -> conv6_2_mbox_loc_perm
I0305 20:46:34.798156  6165 net.cpp:150] Setting up conv6_2_mbox_loc_perm
I0305 20:46:34.798167  6165 net.cpp:157] Top shape: 1 16 16 24 (6144)
I0305 20:46:34.798177  6165 net.cpp:165] Memory required for data: 949811200
I0305 20:46:34.798187  6165 layer_factory.hpp:77] Creating layer conv6_2_mbox_loc_flat
I0305 20:46:34.798197  6165 net.cpp:100] Creating Layer conv6_2_mbox_loc_flat
I0305 20:46:34.798208  6165 net.cpp:434] conv6_2_mbox_loc_flat <- conv6_2_mbox_loc_perm
I0305 20:46:34.798220  6165 net.cpp:408] conv6_2_mbox_loc_flat -> conv6_2_mbox_loc_flat
I0305 20:46:34.798262  6165 net.cpp:150] Setting up conv6_2_mbox_loc_flat
I0305 20:46:34.798270  6165 net.cpp:157] Top shape: 1 6144 (6144)
I0305 20:46:34.798275  6165 net.cpp:165] Memory required for data: 949835776
I0305 20:46:34.798287  6165 layer_factory.hpp:77] Creating layer conv6_2_mbox_conf
I0305 20:46:34.798305  6165 net.cpp:100] Creating Layer conv6_2_mbox_conf
I0305 20:46:34.798313  6165 net.cpp:434] conv6_2_mbox_conf <- conv6_2_conv6_2_scale_0_split_2
I0305 20:46:34.798359  6165 net.cpp:408] conv6_2_mbox_conf -> conv6_2_mbox_conf
I0305 20:46:34.803469  6165 net.cpp:150] Setting up conv6_2_mbox_conf
I0305 20:46:34.803486  6165 net.cpp:157] Top shape: 1 126 16 16 (32256)
I0305 20:46:34.803491  6165 net.cpp:165] Memory required for data: 949964800
I0305 20:46:34.803503  6165 layer_factory.hpp:77] Creating layer conv6_2_mbox_conf_perm
I0305 20:46:34.803515  6165 net.cpp:100] Creating Layer conv6_2_mbox_conf_perm
I0305 20:46:34.803524  6165 net.cpp:434] conv6_2_mbox_conf_perm <- conv6_2_mbox_conf
I0305 20:46:34.803535  6165 net.cpp:408] conv6_2_mbox_conf_perm -> conv6_2_mbox_conf_perm
I0305 20:46:34.803681  6165 net.cpp:150] Setting up conv6_2_mbox_conf_perm
I0305 20:46:34.803692  6165 net.cpp:157] Top shape: 1 16 16 126 (32256)
I0305 20:46:34.803699  6165 net.cpp:165] Memory required for data: 950093824
I0305 20:46:34.803704  6165 layer_factory.hpp:77] Creating layer conv6_2_mbox_conf_flat
I0305 20:46:34.803711  6165 net.cpp:100] Creating Layer conv6_2_mbox_conf_flat
I0305 20:46:34.803719  6165 net.cpp:434] conv6_2_mbox_conf_flat <- conv6_2_mbox_conf_perm
I0305 20:46:34.803737  6165 net.cpp:408] conv6_2_mbox_conf_flat -> conv6_2_mbox_conf_flat
I0305 20:46:34.803781  6165 net.cpp:150] Setting up conv6_2_mbox_conf_flat
I0305 20:46:34.803793  6165 net.cpp:157] Top shape: 1 32256 (32256)
I0305 20:46:34.803802  6165 net.cpp:165] Memory required for data: 950222848
I0305 20:46:34.803807  6165 layer_factory.hpp:77] Creating layer conv6_2_mbox_priorbox
I0305 20:46:34.803817  6165 net.cpp:100] Creating Layer conv6_2_mbox_priorbox
I0305 20:46:34.803830  6165 net.cpp:434] conv6_2_mbox_priorbox <- conv6_2_conv6_2_scale_0_split_3
I0305 20:46:34.803841  6165 net.cpp:434] conv6_2_mbox_priorbox <- data_data_0_split_3
I0305 20:46:34.803854  6165 net.cpp:408] conv6_2_mbox_priorbox -> conv6_2_mbox_priorbox
I0305 20:46:34.803900  6165 net.cpp:150] Setting up conv6_2_mbox_priorbox
I0305 20:46:34.803910  6165 net.cpp:157] Top shape: 1 2 6144 (12288)
I0305 20:46:34.803916  6165 net.cpp:165] Memory required for data: 950272000
I0305 20:46:34.803923  6165 layer_factory.hpp:77] Creating layer conv7_2_mbox_loc
I0305 20:46:34.803943  6165 net.cpp:100] Creating Layer conv7_2_mbox_loc
I0305 20:46:34.803954  6165 net.cpp:434] conv7_2_mbox_loc <- conv7_2_conv7_2_scale_0_split_1
I0305 20:46:34.803982  6165 net.cpp:408] conv7_2_mbox_loc -> conv7_2_mbox_loc
I0305 20:46:34.805928  6165 net.cpp:150] Setting up conv7_2_mbox_loc
I0305 20:46:34.805943  6165 net.cpp:157] Top shape: 1 24 8 8 (1536)
I0305 20:46:34.805949  6165 net.cpp:165] Memory required for data: 950278144
I0305 20:46:34.805961  6165 layer_factory.hpp:77] Creating layer conv7_2_mbox_loc_perm
I0305 20:46:34.805975  6165 net.cpp:100] Creating Layer conv7_2_mbox_loc_perm
I0305 20:46:34.805986  6165 net.cpp:434] conv7_2_mbox_loc_perm <- conv7_2_mbox_loc
I0305 20:46:34.805999  6165 net.cpp:408] conv7_2_mbox_loc_perm -> conv7_2_mbox_loc_perm
I0305 20:46:34.806151  6165 net.cpp:150] Setting up conv7_2_mbox_loc_perm
I0305 20:46:34.806160  6165 net.cpp:157] Top shape: 1 8 8 24 (1536)
I0305 20:46:34.806166  6165 net.cpp:165] Memory required for data: 950284288
I0305 20:46:34.806171  6165 layer_factory.hpp:77] Creating layer conv7_2_mbox_loc_flat
I0305 20:46:34.806185  6165 net.cpp:100] Creating Layer conv7_2_mbox_loc_flat
I0305 20:46:34.806196  6165 net.cpp:434] conv7_2_mbox_loc_flat <- conv7_2_mbox_loc_perm
I0305 20:46:34.806208  6165 net.cpp:408] conv7_2_mbox_loc_flat -> conv7_2_mbox_loc_flat
I0305 20:46:34.806251  6165 net.cpp:150] Setting up conv7_2_mbox_loc_flat
I0305 20:46:34.806259  6165 net.cpp:157] Top shape: 1 1536 (1536)
I0305 20:46:34.806265  6165 net.cpp:165] Memory required for data: 950290432
I0305 20:46:34.806272  6165 layer_factory.hpp:77] Creating layer conv7_2_mbox_conf
I0305 20:46:34.806290  6165 net.cpp:100] Creating Layer conv7_2_mbox_conf
I0305 20:46:34.806298  6165 net.cpp:434] conv7_2_mbox_conf <- conv7_2_conv7_2_scale_0_split_2
I0305 20:46:34.806308  6165 net.cpp:408] conv7_2_mbox_conf -> conv7_2_mbox_conf
I0305 20:46:34.810111  6165 net.cpp:150] Setting up conv7_2_mbox_conf
I0305 20:46:34.810134  6165 net.cpp:157] Top shape: 1 126 8 8 (8064)
I0305 20:46:34.810140  6165 net.cpp:165] Memory required for data: 950322688
I0305 20:46:34.810156  6165 layer_factory.hpp:77] Creating layer conv7_2_mbox_conf_perm
I0305 20:46:34.810173  6165 net.cpp:100] Creating Layer conv7_2_mbox_conf_perm
I0305 20:46:34.810184  6165 net.cpp:434] conv7_2_mbox_conf_perm <- conv7_2_mbox_conf
I0305 20:46:34.810199  6165 net.cpp:408] conv7_2_mbox_conf_perm -> conv7_2_mbox_conf_perm
I0305 20:46:34.810395  6165 net.cpp:150] Setting up conv7_2_mbox_conf_perm
I0305 20:46:34.810408  6165 net.cpp:157] Top shape: 1 8 8 126 (8064)
I0305 20:46:34.810413  6165 net.cpp:165] Memory required for data: 950354944
I0305 20:46:34.810420  6165 layer_factory.hpp:77] Creating layer conv7_2_mbox_conf_flat
I0305 20:46:34.810434  6165 net.cpp:100] Creating Layer conv7_2_mbox_conf_flat
I0305 20:46:34.810447  6165 net.cpp:434] conv7_2_mbox_conf_flat <- conv7_2_mbox_conf_perm
I0305 20:46:34.810465  6165 net.cpp:408] conv7_2_mbox_conf_flat -> conv7_2_mbox_conf_flat
I0305 20:46:34.810510  6165 net.cpp:150] Setting up conv7_2_mbox_conf_flat
I0305 20:46:34.810523  6165 net.cpp:157] Top shape: 1 8064 (8064)
I0305 20:46:34.810529  6165 net.cpp:165] Memory required for data: 950387200
I0305 20:46:34.810537  6165 layer_factory.hpp:77] Creating layer conv7_2_mbox_priorbox
I0305 20:46:34.810554  6165 net.cpp:100] Creating Layer conv7_2_mbox_priorbox
I0305 20:46:34.810564  6165 net.cpp:434] conv7_2_mbox_priorbox <- conv7_2_conv7_2_scale_0_split_3
I0305 20:46:34.810576  6165 net.cpp:434] conv7_2_mbox_priorbox <- data_data_0_split_4
I0305 20:46:34.810591  6165 net.cpp:408] conv7_2_mbox_priorbox -> conv7_2_mbox_priorbox
I0305 20:46:34.810642  6165 net.cpp:150] Setting up conv7_2_mbox_priorbox
I0305 20:46:34.810657  6165 net.cpp:157] Top shape: 1 2 1536 (3072)
I0305 20:46:34.810664  6165 net.cpp:165] Memory required for data: 950399488
I0305 20:46:34.810670  6165 layer_factory.hpp:77] Creating layer conv8_2_mbox_loc
I0305 20:46:34.810686  6165 net.cpp:100] Creating Layer conv8_2_mbox_loc
I0305 20:46:34.810694  6165 net.cpp:434] conv8_2_mbox_loc <- conv8_2_conv8_2_scale_0_split_1
I0305 20:46:34.810706  6165 net.cpp:408] conv8_2_mbox_loc -> conv8_2_mbox_loc
I0305 20:46:34.812315  6165 net.cpp:150] Setting up conv8_2_mbox_loc
I0305 20:46:34.812347  6165 net.cpp:157] Top shape: 1 24 4 4 (384)
I0305 20:46:34.812352  6165 net.cpp:165] Memory required for data: 950401024
I0305 20:46:34.812363  6165 layer_factory.hpp:77] Creating layer conv8_2_mbox_loc_perm
I0305 20:46:34.812378  6165 net.cpp:100] Creating Layer conv8_2_mbox_loc_perm
I0305 20:46:34.812391  6165 net.cpp:434] conv8_2_mbox_loc_perm <- conv8_2_mbox_loc
I0305 20:46:34.812400  6165 net.cpp:408] conv8_2_mbox_loc_perm -> conv8_2_mbox_loc_perm
I0305 20:46:34.812556  6165 net.cpp:150] Setting up conv8_2_mbox_loc_perm
I0305 20:46:34.812568  6165 net.cpp:157] Top shape: 1 4 4 24 (384)
I0305 20:46:34.812574  6165 net.cpp:165] Memory required for data: 950402560
I0305 20:46:34.812580  6165 layer_factory.hpp:77] Creating layer conv8_2_mbox_loc_flat
I0305 20:46:34.812588  6165 net.cpp:100] Creating Layer conv8_2_mbox_loc_flat
I0305 20:46:34.812597  6165 net.cpp:434] conv8_2_mbox_loc_flat <- conv8_2_mbox_loc_perm
I0305 20:46:34.812609  6165 net.cpp:408] conv8_2_mbox_loc_flat -> conv8_2_mbox_loc_flat
I0305 20:46:34.812652  6165 net.cpp:150] Setting up conv8_2_mbox_loc_flat
I0305 20:46:34.812661  6165 net.cpp:157] Top shape: 1 384 (384)
I0305 20:46:34.812667  6165 net.cpp:165] Memory required for data: 950404096
I0305 20:46:34.812675  6165 layer_factory.hpp:77] Creating layer conv8_2_mbox_conf
I0305 20:46:34.812690  6165 net.cpp:100] Creating Layer conv8_2_mbox_conf
I0305 20:46:34.812697  6165 net.cpp:434] conv8_2_mbox_conf <- conv8_2_conv8_2_scale_0_split_2
I0305 20:46:34.812708  6165 net.cpp:408] conv8_2_mbox_conf -> conv8_2_mbox_conf
I0305 20:46:34.816553  6165 net.cpp:150] Setting up conv8_2_mbox_conf
I0305 20:46:34.816570  6165 net.cpp:157] Top shape: 1 126 4 4 (2016)
I0305 20:46:34.816575  6165 net.cpp:165] Memory required for data: 950412160
I0305 20:46:34.816584  6165 layer_factory.hpp:77] Creating layer conv8_2_mbox_conf_perm
I0305 20:46:34.816601  6165 net.cpp:100] Creating Layer conv8_2_mbox_conf_perm
I0305 20:46:34.816612  6165 net.cpp:434] conv8_2_mbox_conf_perm <- conv8_2_mbox_conf
I0305 20:46:34.816620  6165 net.cpp:408] conv8_2_mbox_conf_perm -> conv8_2_mbox_conf_perm
I0305 20:46:34.816777  6165 net.cpp:150] Setting up conv8_2_mbox_conf_perm
I0305 20:46:34.816788  6165 net.cpp:157] Top shape: 1 4 4 126 (2016)
I0305 20:46:34.816797  6165 net.cpp:165] Memory required for data: 950420224
I0305 20:46:34.816803  6165 layer_factory.hpp:77] Creating layer conv8_2_mbox_conf_flat
I0305 20:46:34.816817  6165 net.cpp:100] Creating Layer conv8_2_mbox_conf_flat
I0305 20:46:34.816828  6165 net.cpp:434] conv8_2_mbox_conf_flat <- conv8_2_mbox_conf_perm
I0305 20:46:34.816838  6165 net.cpp:408] conv8_2_mbox_conf_flat -> conv8_2_mbox_conf_flat
I0305 20:46:34.816886  6165 net.cpp:150] Setting up conv8_2_mbox_conf_flat
I0305 20:46:34.816895  6165 net.cpp:157] Top shape: 1 2016 (2016)
I0305 20:46:34.816901  6165 net.cpp:165] Memory required for data: 950428288
I0305 20:46:34.816907  6165 layer_factory.hpp:77] Creating layer conv8_2_mbox_priorbox
I0305 20:46:34.816927  6165 net.cpp:100] Creating Layer conv8_2_mbox_priorbox
I0305 20:46:34.816938  6165 net.cpp:434] conv8_2_mbox_priorbox <- conv8_2_conv8_2_scale_0_split_3
I0305 20:46:34.816949  6165 net.cpp:434] conv8_2_mbox_priorbox <- data_data_0_split_5
I0305 20:46:34.816962  6165 net.cpp:408] conv8_2_mbox_priorbox -> conv8_2_mbox_priorbox
I0305 20:46:34.817009  6165 net.cpp:150] Setting up conv8_2_mbox_priorbox
I0305 20:46:34.817023  6165 net.cpp:157] Top shape: 1 2 384 (768)
I0305 20:46:34.817030  6165 net.cpp:165] Memory required for data: 950431360
I0305 20:46:34.817036  6165 layer_factory.hpp:77] Creating layer conv9_2_mbox_loc
I0305 20:46:34.817054  6165 net.cpp:100] Creating Layer conv9_2_mbox_loc
I0305 20:46:34.817068  6165 net.cpp:434] conv9_2_mbox_loc <- conv9_2_conv9_2_scale_0_split_1
I0305 20:46:34.817083  6165 net.cpp:408] conv9_2_mbox_loc -> conv9_2_mbox_loc
I0305 20:46:34.818683  6165 net.cpp:150] Setting up conv9_2_mbox_loc
I0305 20:46:34.818698  6165 net.cpp:157] Top shape: 1 16 2 2 (64)
I0305 20:46:34.818703  6165 net.cpp:165] Memory required for data: 950431616
I0305 20:46:34.818737  6165 layer_factory.hpp:77] Creating layer conv9_2_mbox_loc_perm
I0305 20:46:34.818755  6165 net.cpp:100] Creating Layer conv9_2_mbox_loc_perm
I0305 20:46:34.818763  6165 net.cpp:434] conv9_2_mbox_loc_perm <- conv9_2_mbox_loc
I0305 20:46:34.818779  6165 net.cpp:408] conv9_2_mbox_loc_perm -> conv9_2_mbox_loc_perm
I0305 20:46:34.818933  6165 net.cpp:150] Setting up conv9_2_mbox_loc_perm
I0305 20:46:34.818945  6165 net.cpp:157] Top shape: 1 2 2 16 (64)
I0305 20:46:34.818950  6165 net.cpp:165] Memory required for data: 950431872
I0305 20:46:34.818955  6165 layer_factory.hpp:77] Creating layer conv9_2_mbox_loc_flat
I0305 20:46:34.818971  6165 net.cpp:100] Creating Layer conv9_2_mbox_loc_flat
I0305 20:46:34.818979  6165 net.cpp:434] conv9_2_mbox_loc_flat <- conv9_2_mbox_loc_perm
I0305 20:46:34.818992  6165 net.cpp:408] conv9_2_mbox_loc_flat -> conv9_2_mbox_loc_flat
I0305 20:46:34.819041  6165 net.cpp:150] Setting up conv9_2_mbox_loc_flat
I0305 20:46:34.819054  6165 net.cpp:157] Top shape: 1 64 (64)
I0305 20:46:34.819059  6165 net.cpp:165] Memory required for data: 950432128
I0305 20:46:34.819064  6165 layer_factory.hpp:77] Creating layer conv9_2_mbox_conf
I0305 20:46:34.819080  6165 net.cpp:100] Creating Layer conv9_2_mbox_conf
I0305 20:46:34.819090  6165 net.cpp:434] conv9_2_mbox_conf <- conv9_2_conv9_2_scale_0_split_2
I0305 20:46:34.819103  6165 net.cpp:408] conv9_2_mbox_conf -> conv9_2_mbox_conf
I0305 20:46:34.821882  6165 net.cpp:150] Setting up conv9_2_mbox_conf
I0305 20:46:34.821902  6165 net.cpp:157] Top shape: 1 84 2 2 (336)
I0305 20:46:34.821908  6165 net.cpp:165] Memory required for data: 950433472
I0305 20:46:34.821921  6165 layer_factory.hpp:77] Creating layer conv9_2_mbox_conf_perm
I0305 20:46:34.821933  6165 net.cpp:100] Creating Layer conv9_2_mbox_conf_perm
I0305 20:46:34.821943  6165 net.cpp:434] conv9_2_mbox_conf_perm <- conv9_2_mbox_conf
I0305 20:46:34.821956  6165 net.cpp:408] conv9_2_mbox_conf_perm -> conv9_2_mbox_conf_perm
I0305 20:46:34.822113  6165 net.cpp:150] Setting up conv9_2_mbox_conf_perm
I0305 20:46:34.822125  6165 net.cpp:157] Top shape: 1 2 2 84 (336)
I0305 20:46:34.822132  6165 net.cpp:165] Memory required for data: 950434816
I0305 20:46:34.822144  6165 layer_factory.hpp:77] Creating layer conv9_2_mbox_conf_flat
I0305 20:46:34.822157  6165 net.cpp:100] Creating Layer conv9_2_mbox_conf_flat
I0305 20:46:34.822166  6165 net.cpp:434] conv9_2_mbox_conf_flat <- conv9_2_mbox_conf_perm
I0305 20:46:34.822178  6165 net.cpp:408] conv9_2_mbox_conf_flat -> conv9_2_mbox_conf_flat
I0305 20:46:34.822229  6165 net.cpp:150] Setting up conv9_2_mbox_conf_flat
I0305 20:46:34.822238  6165 net.cpp:157] Top shape: 1 336 (336)
I0305 20:46:34.822245  6165 net.cpp:165] Memory required for data: 950436160
I0305 20:46:34.822252  6165 layer_factory.hpp:77] Creating layer conv9_2_mbox_priorbox
I0305 20:46:34.822263  6165 net.cpp:100] Creating Layer conv9_2_mbox_priorbox
I0305 20:46:34.822275  6165 net.cpp:434] conv9_2_mbox_priorbox <- conv9_2_conv9_2_scale_0_split_3
I0305 20:46:34.822283  6165 net.cpp:434] conv9_2_mbox_priorbox <- data_data_0_split_6
I0305 20:46:34.822301  6165 net.cpp:408] conv9_2_mbox_priorbox -> conv9_2_mbox_priorbox
I0305 20:46:34.822376  6165 net.cpp:150] Setting up conv9_2_mbox_priorbox
I0305 20:46:34.822386  6165 net.cpp:157] Top shape: 1 2 64 (128)
I0305 20:46:34.822391  6165 net.cpp:165] Memory required for data: 950436672
I0305 20:46:34.822397  6165 layer_factory.hpp:77] Creating layer conv10_2_mbox_loc
I0305 20:46:34.822414  6165 net.cpp:100] Creating Layer conv10_2_mbox_loc
I0305 20:46:34.822423  6165 net.cpp:434] conv10_2_mbox_loc <- conv10_2_conv10_2_scale_0_split_0
I0305 20:46:34.822432  6165 net.cpp:408] conv10_2_mbox_loc -> conv10_2_mbox_loc
I0305 20:46:34.824877  6165 net.cpp:150] Setting up conv10_2_mbox_loc
I0305 20:46:34.824893  6165 net.cpp:157] Top shape: 1 16 1 1 (16)
I0305 20:46:34.824898  6165 net.cpp:165] Memory required for data: 950436736
I0305 20:46:34.824908  6165 layer_factory.hpp:77] Creating layer conv10_2_mbox_loc_perm
I0305 20:46:34.824939  6165 net.cpp:100] Creating Layer conv10_2_mbox_loc_perm
I0305 20:46:34.824951  6165 net.cpp:434] conv10_2_mbox_loc_perm <- conv10_2_mbox_loc
I0305 20:46:34.824962  6165 net.cpp:408] conv10_2_mbox_loc_perm -> conv10_2_mbox_loc_perm
I0305 20:46:34.825112  6165 net.cpp:150] Setting up conv10_2_mbox_loc_perm
I0305 20:46:34.825125  6165 net.cpp:157] Top shape: 1 1 1 16 (16)
I0305 20:46:34.825132  6165 net.cpp:165] Memory required for data: 950436800
I0305 20:46:34.825139  6165 layer_factory.hpp:77] Creating layer conv10_2_mbox_loc_flat
I0305 20:46:34.825146  6165 net.cpp:100] Creating Layer conv10_2_mbox_loc_flat
I0305 20:46:34.825158  6165 net.cpp:434] conv10_2_mbox_loc_flat <- conv10_2_mbox_loc_perm
I0305 20:46:34.825172  6165 net.cpp:408] conv10_2_mbox_loc_flat -> conv10_2_mbox_loc_flat
I0305 20:46:34.825215  6165 net.cpp:150] Setting up conv10_2_mbox_loc_flat
I0305 20:46:34.825223  6165 net.cpp:157] Top shape: 1 16 (16)
I0305 20:46:34.825228  6165 net.cpp:165] Memory required for data: 950436864
I0305 20:46:34.825235  6165 layer_factory.hpp:77] Creating layer conv10_2_mbox_conf
I0305 20:46:34.825250  6165 net.cpp:100] Creating Layer conv10_2_mbox_conf
I0305 20:46:34.825258  6165 net.cpp:434] conv10_2_mbox_conf <- conv10_2_conv10_2_scale_0_split_1
I0305 20:46:34.825271  6165 net.cpp:408] conv10_2_mbox_conf -> conv10_2_mbox_conf
I0305 20:46:34.828050  6165 net.cpp:150] Setting up conv10_2_mbox_conf
I0305 20:46:34.828065  6165 net.cpp:157] Top shape: 1 84 1 1 (84)
I0305 20:46:34.828069  6165 net.cpp:165] Memory required for data: 950437200
I0305 20:46:34.828080  6165 layer_factory.hpp:77] Creating layer conv10_2_mbox_conf_perm
I0305 20:46:34.828091  6165 net.cpp:100] Creating Layer conv10_2_mbox_conf_perm
I0305 20:46:34.828099  6165 net.cpp:434] conv10_2_mbox_conf_perm <- conv10_2_mbox_conf
I0305 20:46:34.828109  6165 net.cpp:408] conv10_2_mbox_conf_perm -> conv10_2_mbox_conf_perm
I0305 20:46:34.828263  6165 net.cpp:150] Setting up conv10_2_mbox_conf_perm
I0305 20:46:34.828272  6165 net.cpp:157] Top shape: 1 1 1 84 (84)
I0305 20:46:34.828279  6165 net.cpp:165] Memory required for data: 950437536
I0305 20:46:34.828282  6165 layer_factory.hpp:77] Creating layer conv10_2_mbox_conf_flat
I0305 20:46:34.828292  6165 net.cpp:100] Creating Layer conv10_2_mbox_conf_flat
I0305 20:46:34.828301  6165 net.cpp:434] conv10_2_mbox_conf_flat <- conv10_2_mbox_conf_perm
I0305 20:46:34.828312  6165 net.cpp:408] conv10_2_mbox_conf_flat -> conv10_2_mbox_conf_flat
I0305 20:46:34.828353  6165 net.cpp:150] Setting up conv10_2_mbox_conf_flat
I0305 20:46:34.828361  6165 net.cpp:157] Top shape: 1 84 (84)
I0305 20:46:34.828366  6165 net.cpp:165] Memory required for data: 950437872
I0305 20:46:34.828372  6165 layer_factory.hpp:77] Creating layer conv10_2_mbox_priorbox
I0305 20:46:34.828380  6165 net.cpp:100] Creating Layer conv10_2_mbox_priorbox
I0305 20:46:34.828388  6165 net.cpp:434] conv10_2_mbox_priorbox <- conv10_2_conv10_2_scale_0_split_2
I0305 20:46:34.828395  6165 net.cpp:434] conv10_2_mbox_priorbox <- data_data_0_split_7
I0305 20:46:34.828408  6165 net.cpp:408] conv10_2_mbox_priorbox -> conv10_2_mbox_priorbox
I0305 20:46:34.828451  6165 net.cpp:150] Setting up conv10_2_mbox_priorbox
I0305 20:46:34.828461  6165 net.cpp:157] Top shape: 1 2 16 (32)
I0305 20:46:34.828467  6165 net.cpp:165] Memory required for data: 950438000
I0305 20:46:34.828472  6165 layer_factory.hpp:77] Creating layer mbox_loc
I0305 20:46:34.828482  6165 net.cpp:100] Creating Layer mbox_loc
I0305 20:46:34.828493  6165 net.cpp:434] mbox_loc <- conv4_3_norm_mbox_loc_flat
I0305 20:46:34.828502  6165 net.cpp:434] mbox_loc <- fc7_mbox_loc_flat
I0305 20:46:34.828511  6165 net.cpp:434] mbox_loc <- conv6_2_mbox_loc_flat
I0305 20:46:34.828521  6165 net.cpp:434] mbox_loc <- conv7_2_mbox_loc_flat
I0305 20:46:34.828528  6165 net.cpp:434] mbox_loc <- conv8_2_mbox_loc_flat
I0305 20:46:34.828541  6165 net.cpp:434] mbox_loc <- conv9_2_mbox_loc_flat
I0305 20:46:34.828547  6165 net.cpp:434] mbox_loc <- conv10_2_mbox_loc_flat
I0305 20:46:34.828555  6165 net.cpp:408] mbox_loc -> mbox_loc
I0305 20:46:34.828610  6165 net.cpp:150] Setting up mbox_loc
I0305 20:46:34.828620  6165 net.cpp:157] Top shape: 1 98256 (98256)
I0305 20:46:34.828627  6165 net.cpp:165] Memory required for data: 950831024
I0305 20:46:34.828632  6165 layer_factory.hpp:77] Creating layer mbox_conf
I0305 20:46:34.828642  6165 net.cpp:100] Creating Layer mbox_conf
I0305 20:46:34.828653  6165 net.cpp:434] mbox_conf <- conv4_3_norm_mbox_conf_flat
I0305 20:46:34.828665  6165 net.cpp:434] mbox_conf <- fc7_mbox_conf_flat
I0305 20:46:34.828681  6165 net.cpp:434] mbox_conf <- conv6_2_mbox_conf_flat
I0305 20:46:34.828691  6165 net.cpp:434] mbox_conf <- conv7_2_mbox_conf_flat
I0305 20:46:34.828702  6165 net.cpp:434] mbox_conf <- conv8_2_mbox_conf_flat
I0305 20:46:34.828708  6165 net.cpp:434] mbox_conf <- conv9_2_mbox_conf_flat
I0305 20:46:34.828717  6165 net.cpp:434] mbox_conf <- conv10_2_mbox_conf_flat
I0305 20:46:34.828729  6165 net.cpp:408] mbox_conf -> mbox_conf
I0305 20:46:34.828771  6165 net.cpp:150] Setting up mbox_conf
I0305 20:46:34.828784  6165 net.cpp:157] Top shape: 1 515844 (515844)
I0305 20:46:34.828788  6165 net.cpp:165] Memory required for data: 952894400
I0305 20:46:34.828794  6165 layer_factory.hpp:77] Creating layer mbox_priorbox
I0305 20:46:34.828810  6165 net.cpp:100] Creating Layer mbox_priorbox
I0305 20:46:34.828819  6165 net.cpp:434] mbox_priorbox <- conv4_3_norm_mbox_priorbox
I0305 20:46:34.828835  6165 net.cpp:434] mbox_priorbox <- fc7_mbox_priorbox
I0305 20:46:34.828842  6165 net.cpp:434] mbox_priorbox <- conv6_2_mbox_priorbox
I0305 20:46:34.828855  6165 net.cpp:434] mbox_priorbox <- conv7_2_mbox_priorbox
I0305 20:46:34.828864  6165 net.cpp:434] mbox_priorbox <- conv8_2_mbox_priorbox
I0305 20:46:34.828871  6165 net.cpp:434] mbox_priorbox <- conv9_2_mbox_priorbox
I0305 20:46:34.828881  6165 net.cpp:434] mbox_priorbox <- conv10_2_mbox_priorbox
I0305 20:46:34.828891  6165 net.cpp:408] mbox_priorbox -> mbox_priorbox
I0305 20:46:34.828934  6165 net.cpp:150] Setting up mbox_priorbox
I0305 20:46:34.828945  6165 net.cpp:157] Top shape: 1 2 98256 (196512)
I0305 20:46:34.828953  6165 net.cpp:165] Memory required for data: 953680448
I0305 20:46:34.828959  6165 layer_factory.hpp:77] Creating layer mbox_conf_reshape
I0305 20:46:34.828969  6165 net.cpp:100] Creating Layer mbox_conf_reshape
I0305 20:46:34.828981  6165 net.cpp:434] mbox_conf_reshape <- mbox_conf
I0305 20:46:34.828992  6165 net.cpp:408] mbox_conf_reshape -> mbox_conf_reshape
I0305 20:46:34.829041  6165 net.cpp:150] Setting up mbox_conf_reshape
I0305 20:46:34.829051  6165 net.cpp:157] Top shape: 1 24564 21 (515844)
I0305 20:46:34.829057  6165 net.cpp:165] Memory required for data: 955743824
I0305 20:46:34.829063  6165 layer_factory.hpp:77] Creating layer mbox_conf_softmax
I0305 20:46:34.829075  6165 net.cpp:100] Creating Layer mbox_conf_softmax
I0305 20:46:34.829082  6165 net.cpp:434] mbox_conf_softmax <- mbox_conf_reshape
I0305 20:46:34.829092  6165 net.cpp:408] mbox_conf_softmax -> mbox_conf_softmax
I0305 20:46:34.829383  6165 net.cpp:150] Setting up mbox_conf_softmax
I0305 20:46:34.829397  6165 net.cpp:157] Top shape: 1 24564 21 (515844)
I0305 20:46:34.829404  6165 net.cpp:165] Memory required for data: 957807200
I0305 20:46:34.829411  6165 layer_factory.hpp:77] Creating layer mbox_conf_flatten
I0305 20:46:34.829423  6165 net.cpp:100] Creating Layer mbox_conf_flatten
I0305 20:46:34.829432  6165 net.cpp:434] mbox_conf_flatten <- mbox_conf_softmax
I0305 20:46:34.829445  6165 net.cpp:408] mbox_conf_flatten -> mbox_conf_flatten
I0305 20:46:34.829488  6165 net.cpp:150] Setting up mbox_conf_flatten
I0305 20:46:34.829501  6165 net.cpp:157] Top shape: 1 515844 (515844)
I0305 20:46:34.829507  6165 net.cpp:165] Memory required for data: 959870576
I0305 20:46:34.829514  6165 layer_factory.hpp:77] Creating layer detection_out
I0305 20:46:34.829533  6165 net.cpp:100] Creating Layer detection_out
I0305 20:46:34.829541  6165 net.cpp:434] detection_out <- mbox_loc
I0305 20:46:34.829553  6165 net.cpp:434] detection_out <- mbox_conf_flatten
I0305 20:46:34.829562  6165 net.cpp:434] detection_out <- mbox_priorbox
I0305 20:46:34.829588  6165 net.cpp:408] detection_out -> detection_out
I0305 20:46:34.832293  6165 net.cpp:150] Setting up detection_out
I0305 20:46:34.832309  6165 net.cpp:157] Top shape: 1 1 1 7 (7)
I0305 20:46:34.832314  6165 net.cpp:165] Memory required for data: 959870604
I0305 20:46:34.832322  6165 layer_factory.hpp:77] Creating layer slience
I0305 20:46:34.832330  6165 net.cpp:100] Creating Layer slience
I0305 20:46:34.832337  6165 net.cpp:434] slience <- detection_out
I0305 20:46:34.832345  6165 net.cpp:150] Setting up slience
I0305 20:46:34.832350  6165 net.cpp:165] Memory required for data: 959870604
…
