…
      sampler {
        min_scale: 0.3
        max_scale: 1
        min_aspect_ratio: 0.5
        max_aspect_ratio: 2
      }
      sample_constraint {
        min_jaccard_overlap: 0.9
      }
      max_sample: 1
      max_trials: 50
    }
    batch_sampler {
      sampler {
        min_scale: 0.3
        max_scale: 1
        min_aspect_ratio: 0.5
        max_aspect_ratio: 2
      }
      sample_constraint {
        max_jaccard_overlap: 1
      }
      max_sample: 1
      max_trials: 50
    }
    label_map_file: "data/VOC0712/labelmap_voc.prototxt"
  }
}
layer {
  name: "conv1_1"
  type: "Convolution"
  bottom: "data"
  top: "conv1_1"
  param {
    lr_mult: 1
    decay_mult: 1
  }
  param {
    lr_mult: 2
    decay_mult: 0
  }
  convolution_param {
    num_output: 64
    pad: 1
    kernel_size: 3
    weight_filler {
      type: "xavier"
    }
    bias_filler {
      type: "constant"
      value: 0
    }
  }
}
layer {
  name: "relu1_1"
  type: "ReLU"
  bottom: "conv1_1"
  top: "conv1_1"
}
layer {
  name: "conv1_2"
  type: "Convolution"
  bottom: "conv1_1"
  top: "conv1_2"
  param {
    lr_mult: 1
    decay_mult: 1
  }
  param {
    lr_mult: 2
    decay_mult: 0
  }
  convolution_param {
    num_output: 64
    pad: 1
    kernel_size: 3
    weight_filler {
      type: "xavier"
    }
    bias_filler {
      type: "constant"
      value: 0
    }
  }
}
layer {
  name: "relu1_2"
  type: "ReLU"
  bottom: "conv1_2"
  top: "conv1_2"
}
layer {
  name: "pool1"
  type: "Pooling"
  bottom: "conv1_2"
  top: "pool1"
  pooling_param {
    pool: MAX
    kernel_size: 2
    stride: 2
  }
}
layer {
  name: "conv2_1"
  type: "Convolution"
  bottom: "pool1"
  top: "conv2_1"
  param {
    lr_mult: 1
    decay_mult: 1
  }
  param {
    lr_mult: 2
    decay_mult: 0
  }
  convolution_param {
    num_output: 128
    pad: 1
    kernel_size: 3
    weight_filler {
      type: "xavier"
    }
    bias_filler {
      type: "constant"
      value: 0
    }
  }
}
layer {
  name: "relu2_1"
  type: "ReLU"
  bottom: "conv2_1"
  top: "conv2_1"
}
layer {
  name: "conv2_2"
  type: "Convolution"
  bottom: "conv2_1"
  top: "conv2_2"
  param {
    lr_mult: 1
    decay_mult: 1
  }
  param {
    lr_mult: 2
    decay_mult: 0
  }
  convolution_param {
    num_output: 128
    pad: 1
    kernel_size: 3
    weight_filler {
      type: "xavier"
    }
    bias_filler {
      type: "constant"
      value: 0
    }
  }
}
layer {
  name: "relu2_2"
  type: "ReLU"
  bottom: "conv2_2"
  top: "conv2_2"
}
layer {
  name: "pool2"
  type: "Pooling"
  bottom: "conv2_2"
  top: "pool2"
  pooling_param {
    pool: MAX
    kernel_size: 2
    stride: 2
  }
}
layer {
  name: "conv3_1"
  type: "Convolution"
  bottom: "pool2"
  top: "conv3_1"
  param {
    lr_mult: 1
    decay_mult: 1
  }
  param {
    lr_mult: 2
    decay_mult: 0
  }
  convolution_param {
    num_output: 256
    pad: 1
    kernel_size: 3
    weight_filler {
      type: "xavier"
    }
    bias_filler {
      type: "constant"
      value: 0
    }
  }
}
layer {
  name: "relu3_1"
  type: "ReLU"
  bottom: "conv3_1"
  top: "conv3_1"
}
layer {
  name: "conv3_2"
  type: "Convolution"
  bottom: "conv3_1"
  top: "conv3_2"
  param {
    lr_mult: 1
    decay_mult: 1
  }
  param {
    lr_mult: 2
    decay_mult: 0
  }
  convolution_param {
    num_output: 256
    pad: 1
    kernel_size: 3
    weight_filler {
      type: "xavier"
    }
    bias_filler {
      type: "constant"
      value: 0
    }
  }
}
layer {
  name: "relu3_2"
  type: "ReLU"
  bottom: "conv3_2"
  top: "conv3_2"
}
layer {
  name: "conv3_3"
  type: "Convolution"
  bottom: "conv3_2"
  top: "conv3_3"
  param {
    lr_mult: 1
    decay_mult: 1
  }
  param {
    lr_mult: 2
    decay_mult: 0
  }
  convolution_param {
    num_output: 256
    pad: 1
    kernel_size: 3
    weight_filler {
      type: "xavier"
    }
    bias_filler {
      type: "constant"
      value: 0
    }
  }
}
layer {
  name: "relu3_3"
  type: "ReLU"
  bottom: "conv3_3"
  top: "conv3_3"
}
layer {
  name: "pool3"
  type: "Pooling"
  bottom: "conv3_3"
  top: "pool3"
  pooling_param {
    pool: MAX
    kernel_size: 2
    stride: 2
  }
}
layer {
  name: "conv4_1"
  type: "Convolution"
  bottom: "pool3"
  top: "conv4_1"
  param {
    lr_mult: 1
    decay_mult: 1
  }
  param {
    lr_mult: 2
    decay_mult: 0
  }
  convolution_param {
    num_output: 512
    pad: 1
    kernel_size: 3
    weight_filler {
      type: "xavier"
    }
    bias_filler {
      type: "constant"
      value: 0
    }
  }
}
layer {
  name: "relu4_1"
  type: "ReLU"
  bottom: "conv4_1"
  top: "conv4_1"
}
layer {
  name: "conv4_2"
  type: "Convolution"
  bottom: "conv4_1"
  top: "conv4_2"
  param {
    lr_mult: 1
    decay_mult: 1
  }
  param {
    lr_mult: 2
    decay_mult: 0
  }
  convolution_param {
    num_output: 512
    pad: 1
    kernel_size: 3
    weight_filler {
      type: "xavier"
    }
    bias_filler {
      type: "constant"
      value: 0
    }
  }
}
layer {
  name: "relu4_2"
  type: "ReLU"
  bottom: "conv4_2"
  top: "conv4_2"
}
layer {
  name: "conv4_3"
  type: "Convolution"
  bottom: "conv4_2"
  top: "conv4_3_ori"
  param {
    lr_mult: 1
    decay_mult: 1
  }
  param {
    lr_mult: 2
    decay_mult: 0
  }
  convolution_param {
    num_output: 512
    pad: 1
    kernel_size: 3
    weight_filler {
      type: "xavier"
    }
    bias_filler {
      type: "constant"
      value: 0
    }
  }
}
layer {
  name: "relu4_3"
  type: "ReLU"
  bottom: "conv4_3_ori"
  top: "conv4_3_ori"
}
layer {
  name: "seg_pool4"
  type: "Pooling"
  bottom: "conv4_3_ori"
  top: "seg_pool4"
  pooling_param {
    pool: MAX
    kernel_size: 3
    stride: 1
    pad: 1
  }
}
layer {
  name: "seg5_1"
  type: "Convolution"
  bottom: "seg_pool4"
  top: "seg5_1"
  param {
    lr_mult: 1
    decay_mult: 1
  }
  param {
    lr_mult: 2
    decay_mult: 0
  }
  convolution_param {
    num_output: 512
    pad: 2
    kernel_size: 3
    weight_filler {
      type: "xavier"
    }
    bias_filler {
      type: "constant"
      value: 0
    }
    dilation: 2
  }
}
layer {
  name: "seg_relu5_1"
  type: "ReLU"
  bottom: "seg5_1"
  top: "seg5_1"
}
layer {
  name: "seg5_2"
  type: "Convolution"
  bottom: "seg5_1"
  top: "seg5_2"
  param {
    lr_mult: 1
    decay_mult: 1
  }
  param {
    lr_mult: 2
    decay_mult: 0
  }
  convolution_param {
    num_output: 512
    pad: 2
    kernel_size: 3
    weight_filler {
      type: "xavier"
    }
    bias_filler {
      type: "constant"
      value: 0
    }
    dilation: 2
  }
}
layer {
  name: "seg_relu5_2"
  type: "ReLU"
  bottom: "seg5_2"
  top: "seg5_2"
}
layer {
  name: "seg5_3"
  type: "Convolution"
  bottom: "seg5_2"
  top: "seg5_3"
  param {
    lr_mult: 1
    decay_mult: 1
  }
  param {
    lr_mult: 2
    decay_mult: 0
  }
  convolution_param {
    num_output: 512
    pad: 2
    kernel_size: 3
    weight_filler {
      type: "xavier"
    }
    bias_filler {
      type: "constant"
      value: 0
    }
    dilation: 2
  }
}
layer {
  name: "seg_relu5_3"
  type: "ReLU"
  bottom: "seg5_3"
  top: "seg5_3"
}
layer {
  name: "seg_pool5"
  type: "Pooling"
  bottom: "seg5_3"
  top: "seg_pool5"
  pooling_param {
    pool: MAX
    kernel_size: 3
    stride: 1
    pad: 1
  }
}
layer {
  name: "seg6"
  type: "Convolution"
  bottom: "seg_pool5"
  top: "seg6"
  param {
    lr_mult: 1
    decay_mult: 1
  }
  param {
    lr_mult: 2
    decay_mult: 0
  }
  convolution_param {
    num_output: 1024
    pad: 4
    kernel_size: 3
    weight_filler {
      type: "xavier"
    }
    bias_filler {
      type: "constant"
      value: 0
    }
    dilation: 4
  }
}
layer {
  name: "seg_relu6"
  type: "ReLU"
  bottom: "seg6"
  top: "seg6"
}
layer {
  name: "seg_drop6"
  type: "Dropout"
  bottom: "seg6"
  top: "seg6"
  dropout_param {
    dropout_ratio: 0.5
  }
}
layer {
  name: "seg7"
  type: "Convolution"
  bottom: "seg6"
  top: "seg7"
  param {
    lr_mult: 1
    decay_mult: 1
  }
  param {
    lr_mult: 2
    decay_mult: 0
  }
  convolution_param {
    num_output: 1024
    kernel_size: 1
    weight_filler {
      type: "xavier"
    }
    bias_filler {
      type: "constant"
      value: 0
    }
  }
}
layer {
  name: "seg_relu7"
  type: "ReLU"
  bottom: "seg7"
  top: "seg7"
}
layer {
  name: "seg_drop7"
  type: "Dropout"
  bottom: "seg7"
  top: "seg7d"
  dropout_param {
    dropout_ratio: 0.5
  }
}
layer {
  name: "seg"
  type: "Convolution"
  bottom: "seg7d"
  top: "seg"
  param {
    lr_mult: 10
    decay_mult: 1
  }
  param {
    lr_mult: 20
    decay_mult: 0
  }
  convolution_param {
    num_output: 21
    kernel_size: 1
    weight_filler {
      type: "gaussian"
      std: 0.01
    }
    bias_filler {
      type: "constant"
      value: 0
    }
  }
}
layer {
  name: "seg_gt"
  type: "SegGt"
  bottom: "label"
  bottom: "seg"
  top: "seg_gt"
  seggt_param {
    background_label_id: 0
    use_difficult_gt: true
  }
}
layer {
  name: "seg_loss"
  type: "SoftmaxWithLoss"
  bottom: "seg"
  bottom: "seg_gt"
  top: "seg_loss"
  loss_weight: 0.1
  propagate_down: true
  propagate_down: false
  softmax_param {
    axis: 1
  }
}
layer {
  name: "seg_to_det_conv"
  type: "Convolution"
  bottom: "seg7"
  top: "seg_to_det_conv"
  param {
    lr_mult: 1
    decay_mult: 1
  }
  param {
    lr_mult: 2
    decay_mult: 0
  }
  convolution_param {
    num_output: 512
    pad: 0
    kernel_size: 1
    stride: 1
    weight_filler {
      type: "xavier"
    }
    bias_filler {
      type: "constant"
      value: 0
    }
  }
}
layer {
  name: "mult_conv4_3"
  type: "Eltwise"
  bottom: "conv4_3_ori"
  bottom: "seg_to_det_conv"
  top: "conv4_3_t"
  eltwise_param {
    operation: PROD
  }
}
layer {
  name: "conv4_3_s"
  type: "Pooling"
  bottom: "conv4_3_t"
  top: "conv4_3_s"
  pooling_param {
    pool: AVE
    global_pooling: true
  }
}
layer {
  name: "conv4_3_fc1"
  type: "Convolution"
  bottom: "conv4_3_s"
  top: "conv4_3_fc1"
  param {
    lr_mult: 1
    decay_mult: 1
  }
  param {
    lr_mult: 2
    decay_mult: 0
  }
  convolution_param {
    num_output: 128
    kernel_size: 1
    stride: 1
    weight_filler {
      type: "xavier"
    }
    bias_filler {
      type: "constant"
      value: 0
    }
  }
}
layer {
  name: "conv4_3_relu"
  type: "ReLU"
  bottom: "conv4_3_fc1"
  top: "conv4_3_fc1"
}
layer {
  name: "conv4_3_fc2"
  type: "Convolution"
  bottom: "conv4_3_fc1"
  top: "conv4_3_fc2"
  param {
    lr_mult: 1
    decay_mult: 1
  }
  param {
    lr_mult: 2
    decay_mult: 0
  }
  convolution_param {
    num_output: 512
    kernel_size: 1
    stride: 1
    weight_filler {
      type: "xavier"
    }
    bias_filler {
      type: "constant"
      value: 0
    }
  }
}
layer {
  name: "conv4_3_sig"
  type: "Sigmoid"
  bottom: "conv4_3_fc2"
  top: "conv4_3_fc2"
}
layer {
  name: "conv4_3_reshape"
  type: "Reshape"
  bottom: "conv4_3_fc2"
  top: "conv4_3_reshape"
  reshape_param {
    shape {
      dim: 0
      dim: 0
    }
  }
}
layer {
  name: "conv4_3_scale"
  type: "Scale"
  bottom: "conv4_3_t"
  bottom: "conv4_3_reshape"
  top: "conv4_3"
  scale_param {
    axis: 0
    bias_term: false
  }
}
layer {
  name: "pool4"
  type: "Pooling"
  bottom: "conv4_3"
  top: "pool4"
  pooling_param {
    pool: MAX
    kernel_size: 2
    stride: 2
  }
}
layer {
  name: "conv5_1"
  type: "Convolution"
  bottom: "pool4"
  top: "conv5_1"
  param {
    lr_mult: 1
    decay_mult: 1
  }
  param {
    lr_mult: 2
    decay_mult: 0
  }
  convolution_param {
    num_output: 512
    pad: 1
    kernel_size: 3
    weight_filler {
      type: "xavier"
    }
    bias_filler {
      type: "constant"
      value: 0
    }
    dilation: 1
  }
}
layer {
  name: "relu5_1"
  type: "ReLU"
  bottom: "conv5_1"
  top: "conv5_1"
}
layer {
  name: "conv5_2"
  type: "Convolution"
  bottom: "conv5_1"
  top: "conv5_2"
  param {
    lr_mult: 1
    decay_mult: 1
  }
  param {
    lr_mult: 2
    decay_mult: 0
  }
  convolution_param {
    num_output: 512
    pad: 1
    kernel_size: 3
    weight_filler {
      type: "xavier"
    }
    bias_filler {
      type: "constant"
      value: 0
    }
    dilation: 1
  }
}
layer {
  name: "relu5_2"
  type: "ReLU"
  bottom: "conv5_2"
  top: "conv5_2"
}
layer {
  name: "conv5_3"
  type: "Convolution"
  bottom: "conv5_2"
  top: "conv5_3"
  param {
    lr_mult: 1
    decay_mult: 1
  }
  param {
    lr_mult: 2
    decay_mult: 0
  }
  convolution_param {
    num_output: 512
    pad: 1
    kernel_size: 3
    weight_filler {
      type: "xavier"
    }
    bias_filler {
      type: "constant"
      value: 0
    }
    dilation: 1
  }
}
layer {
  name: "relu5_3"
  type: "ReLU"
  bottom: "conv5_3"
  top: "conv5_3"
}
layer {
  name: "pool5"
  type: "Pooling"
  bottom: "conv5_3"
  top: "pool5"
  pooling_param {
    pool: MAX
    kernel_size: 3
    stride: 1
    pad: 1
  }
}
layer {
  name: "fc6"
  type: "Convolution"
  bottom: "pool5"
  top: "fc6"
  param {
    lr_mult: 1
    decay_mult: 1
  }
  param {
    lr_mult: 2
    decay_mult: 0
  }
  convolution_param {
    num_output: 1024
    pad: 6
    kernel_size: 3
    weight_filler {
      type: "xavier"
    }
    bias_filler {
      type: "constant"
      value: 0
    }
    dilation: 6
  }
}
layer {
  name: "relu6"
  type: "ReLU"
  bottom: "fc6"
  top: "fc6"
}
layer {
  name: "fc7"
  type: "Convolution"
  bottom: "fc6"
  top: "fc7_t"
  param {
    lr_mult: 1
    decay_mult: 1
  }
  param {
    lr_mult: 2
    decay_mult: 0
  }
  convolution_param {
    num_output: 1024
    kernel_size: 1
    weight_filler {
      type: "xavier"
    }
    bias_filler {
      type: "constant"
      value: 0
    }
  }
}
layer {
  name: "relu7"
  type: "ReLU"
  bottom: "fc7_t"
  top: "fc7_t"
}
layer {
  name: "fc7_s"
  type: "Pooling"
  bottom: "fc7_t"
  top: "fc7_s"
  pooling_param {
    pool: AVE
    global_pooling: true
  }
}
layer {
  name: "fc7_fc1"
  type: "Convolution"
  bottom: "fc7_s"
  top: "fc7_fc1"
  param {
    lr_mult: 1
    decay_mult: 1
  }
  param {
    lr_mult: 2
    decay_mult: 0
  }
  convolution_param {
    num_output: 256
    kernel_size: 1
    stride: 1
    weight_filler {
      type: "xavier"
    }
    bias_filler {
      type: "constant"
      value: 0
    }
  }
}
layer {
  name: "fc7_relu"
  type: "ReLU"
  bottom: "fc7_fc1"
  top: "fc7_fc1"
}
layer {
  name: "fc7_fc2"
  type: "Convolution"
  bottom: "fc7_fc1"
  top: "fc7_fc2"
  param {
    lr_mult: 1
    decay_mult: 1
  }
  param {
    lr_mult: 2
    decay_mult: 0
  }
  convolution_param {
    num_output: 1024
    kernel_size: 1
    stride: 1
    weight_filler {
      type: "xavier"
    }
    bias_filler {
      type: "constant"
      value: 0
    }
  }
}
layer {
  name: "fc7_sig"
  type: "Sigmoid"
  bottom: "fc7_fc2"
  top: "fc7_fc2"
}
layer {
  name: "fc7_reshape"
  type: "Reshape"
  bottom: "fc7_fc2"
  top: "fc7_reshape"
  reshape_param {
    shape {
      dim: 0
      dim: 0
    }
  }
}
layer {
  name: "fc7_scale"
  type: "Scale"
  bottom: "fc7_t"
  bottom: "fc7_reshape"
  top: "fc7"
  scale_param {
    axis: 0
    bias_term: false
  }
}
layer {
  name: "conv6_1"
  type: "Convolution"
  bottom: "fc7"
  top: "conv6_1"
  param {
    lr_mult: 1
    decay_mult: 1
  }
  param {
    lr_mult: 2
    decay_mult: 0
  }
  convolution_param {
    num_output: 256
    pad: 0
    kernel_size: 1
    stride: 1
    weight_filler {
      type: "xavier"
    }
    bias_filler {
      type: "constant"
      value: 0
    }
  }
}
layer {
  name: "conv6_1_relu"
  type: "ReLU"
  bottom: "conv6_1"
  top: "conv6_1"
}
layer {
  name: "conv6_2"
  type: "Convolution"
  bottom: "conv6_1"
  top: "conv6_2_t"
  param {
    lr_mult: 1
    decay_mult: 1
  }
  param {
    lr_mult: 2
    decay_mult: 0
  }
  convolution_param {
    num_output: 512
    pad: 1
    kernel_size: 3
    stride: 2
    weight_filler {
      type: "xavier"
    }
    bias_filler {
      type: "constant"
      value: 0
    }
  }
}
layer {
  name: "conv6_2_relu"
  type: "ReLU"
  bottom: "conv6_2_t"
  top: "conv6_2_t"
}
layer {
  name: "conv6_2_s"
  type: "Pooling"
  bottom: "conv6_2_t"
  top: "conv6_2_s"
  pooling_param {
    pool: AVE
    global_pooling: true
  }
}
layer {
  name: "conv6_2_fc1"
  type: "Convolution"
  bottom: "conv6_2_s"
  top: "conv6_2_fc1"
  param {
    lr_mult: 1
    decay_mult: 1
  }
  param {
    lr_mult: 2
    decay_mult: 0
  }
  convolution_param {
    num_output: 128
    kernel_size: 1
    stride: 1
    weight_filler {
      type: "xavier"
    }
    bias_filler {
      type: "constant"
      value: 0
    }
  }
}
layer {
  name: "conv6_2_relu"
  type: "ReLU"
  bottom: "conv6_2_fc1"
  top: "conv6_2_fc1"
}
layer {
  name: "conv6_2_fc2"
  type: "Convolution"
  bottom: "conv6_2_fc1"
  top: "conv6_2_fc2"
  param {
    lr_mult: 1
    decay_mult: 1
  }
  param {
    lr_mult: 2
    decay_mult: 0
  }
  convolution_param {
    num_output: 512
    kernel_size: 1
    stride: 1
    weight_filler {
      type: "xavier"
    }
    bias_filler {
      type: "constant"
      value: 0
    }
  }
}
layer {
  name: "conv6_2_sig"
  type: "Sigmoid"
  bottom: "conv6_2_fc2"
  top: "conv6_2_fc2"
}
layer {
  name: "conv6_2_reshape"
  type: "Reshape"
  bottom: "conv6_2_fc2"
  top: "conv6_2_reshape"
  reshape_param {
    shape {
      dim: 0
      dim: 0
    }
  }
}
layer {
  name: "conv6_2_scale"
  type: "Scale"
  bottom: "conv6_2_t"
  bottom: "conv6_2_reshape"
  top: "conv6_2"
  scale_param {
    axis: 0
    bias_term: false
  }
}
layer {
  name: "conv7_1"
  type: "Convolution"
  bottom: "conv6_2"
  top: "conv7_1"
  param {
    lr_mult: 1
    decay_mult: 1
  }
  param {
    lr_mult: 2
    decay_mult: 0
  }
  convolution_param {
    num_output: 128
    pad: 0
    kernel_size: 1
    stride: 1
    weight_filler {
      type: "xavier"
    }
    bias_filler {
      type: "constant"
      value: 0
    }
  }
}
layer {
  name: "conv7_1_relu"
  type: "ReLU"
  bottom: "conv7_1"
  top: "conv7_1"
}
layer {
  name: "conv7_2"
  type: "Convolution"
  bottom: "conv7_1"
  top: "conv7_2_t"
  param {
    lr_mult: 1
    decay_mult: 1
  }
  param {
    lr_mult: 2
    decay_mult: 0
  }
  convolution_param {
    num_output: 256
    pad: 1
    kernel_size: 3
    stride: 2
    weight_filler {
      type: "xavier"
    }
    bias_filler {
      type: "constant"
      value: 0
    }
  }
}
layer {
  name: "conv7_2_relu"
  type: "ReLU"
  bottom: "conv7_2_t"
  top: "conv7_2_t"
}
layer {
  name: "conv7_2_s"
  type: "Pooling"
  bottom: "conv7_2_t"
  top: "conv7_2_s"
  pooling_param {
    pool: AVE
    global_pooling: true
  }
}
layer {
  name: "conv7_2_fc1"
  type: "Convolution"
  bottom: "conv7_2_s"
  top: "conv7_2_fc1"
  param {
    lr_mult: 1
    decay_mult: 1
  }
  param {
    lr_mult: 2
    decay_mult: 0
  }
  convolution_param {
    num_output: 64
    kernel_size: 1
    stride: 1
    weight_filler {
      type: "xavier"
    }
    bias_filler {
      type: "constant"
      value: 0
    }
  }
}
layer {
  name: "conv7_2_relu"
  type: "ReLU"
  bottom: "conv7_2_fc1"
  top: "conv7_2_fc1"
}
layer {
  name: "conv7_2_fc2"
  type: "Convolution"
  bottom: "conv7_2_fc1"
  top: "conv7_2_fc2"
  param {
    lr_mult: 1
    decay_mult: 1
  }
  param {
    lr_mult: 2
    decay_mult: 0
  }
  convolution_param {
    num_output: 256
    kernel_size: 1
    stride: 1
    weight_filler {
      type: "xavier"
    }
    bias_filler {
      type: "constant"
      value: 0
    }
  }
}
layer {
  name: "conv7_2_sig"
  type: "Sigmoid"
  bottom: "conv7_2_fc2"
  top: "conv7_2_fc2"
}
layer {
  name: "conv7_2_reshape"
  type: "Reshape"
  bottom: "conv7_2_fc2"
  top: "conv7_2_reshape"
  reshape_param {
    shape {
      dim: 0
      dim: 0
    }
  }
}
layer {
  name: "conv7_2_scale"
  type: "Scale"
  bottom: "conv7_2_t"
  bottom: "conv7_2_reshape"
  top: "conv7_2"
  scale_param {
    axis: 0
    bias_term: false
  }
}
layer {
  name: "conv8_1"
  type: "Convolution"
  bottom: "conv7_2"
  top: "conv8_1"
  param {
    lr_mult: 1
    decay_mult: 1
  }
  param {
    lr_mult: 2
    decay_mult: 0
  }
  convolution_param {
    num_output: 128
    pad: 0
    kernel_size: 1
    stride: 1
    weight_filler {
      type: "xavier"
    }
    bias_filler {
      type: "constant"
      value: 0
    }
  }
}
layer {
  name: "conv8_1_relu"
  type: "ReLU"
  bottom: "conv8_1"
  top: "conv8_1"
}
layer {
  name: "conv8_2"
  type: "Convolution"
  bottom: "conv8_1"
  top: "conv8_2_t"
  param {
    lr_mult: 1
    decay_mult: 1
  }
  param {
    lr_mult: 2
    decay_mult: 0
  }
  convolution_param {
    num_output: 256
    pad: 0
    kernel_size: 3
    stride: 1
    weight_filler {
      type: "xavier"
    }
    bias_filler {
      type: "constant"
      value: 0
    }
  }
}
layer {
  name: "conv8_2_relu"
  type: "ReLU"
  bottom: "conv8_2_t"
  top: "conv8_2_t"
}
layer {
  name: "conv8_2_s"
  type: "Pooling"
  bottom: "conv8_2_t"
  top: "conv8_2_s"
  pooling_param {
    pool: AVE
    global_pooling: true
  }
}
layer {
  name: "conv8_2_fc1"
  type: "Convolution"
  bottom: "conv8_2_s"
  top: "conv8_2_fc1"
  param {
    lr_mult: 1
    decay_mult: 1
  }
  param {
    lr_mult: 2
    decay_mult: 0
  }
  convolution_param {
    num_output: 64
    kernel_size: 1
    stride: 1
    weight_filler {
      type: "xavier"
    }
    bias_filler {
      type: "constant"
      value: 0
    }
  }
}
layer {
  name: "conv8_2_relu"
  type: "ReLU"
  bottom: "conv8_2_fc1"
  top: "conv8_2_fc1"
}
layer {
  name: "conv8_2_fc2"
  type: "Convolution"
  bottom: "conv8_2_fc1"
  top: "conv8_2_fc2"
  param {
    lr_mult: 1
    decay_mult: 1
  }
  param {
    lr_mult: 2
    decay_mult: 0
  }
  convolution_param {
    num_output: 256
    kernel_size: 1
    stride: 1
    weight_filler {
      type: "xavier"
    }
    bias_filler {
      type: "constant"
      value: 0
    }
  }
}
layer {
  name: "conv8_2_sig"
  type: "Sigmoid"
  bottom: "conv8_2_fc2"
  top: "conv8_2_fc2"
}
layer {
  name: "conv8_2_reshape"
  type: "Reshape"
  bottom: "conv8_2_fc2"
  top: "conv8_2_reshape"
  reshape_param {
    shape {
      dim: 0
      dim: 0
    }
  }
}
layer {
  name: "conv8_2_scale"
  type: "Scale"
  bottom: "conv8_2_t"
  bottom: "conv8_2_reshape"
  top: "conv8_2"
  scale_param {
    axis: 0
    bias_term: false
  }
}
layer {
  name: "conv9_1"
  type: "Convolution"
  bottom: "conv8_2"
  top: "conv9_1"
  param {
    lr_mult: 1
    decay_mult: 1
  }
  param {
    lr_mult: 2
    decay_mult: 0
  }
  convolution_param {
    num_output: 128
    pad: 0
    kernel_size: 1
    stride: 1
    weight_filler {
      type: "xavier"
    }
    bias_filler {
      type: "constant"
      value: 0
    }
  }
}
layer {
  name: "conv9_1_relu"
  type: "ReLU"
  bottom: "conv9_1"
  top: "conv9_1"
}
layer {
  name: "conv9_2"
  type: "Convolution"
  bottom: "conv9_1"
  top: "conv9_2_t"
  param {
    lr_mult: 1
    decay_mult: 1
  }
  param {
    lr_mult: 2
    decay_mult: 0
  }
  convolution_param {
    num_output: 256
    pad: 0
    kernel_size: 3
    stride: 1
    weight_filler {
      type: "xavier"
    }
    bias_filler {
      type: "constant"
      value: 0
    }
  }
}
layer {
  name: "conv9_2_relu"
  type: "ReLU"
  bottom: "conv9_2_t"
  top: "conv9_2_t"
}
layer {
  name: "conv9_2_s"
  type: "Pooling"
  bottom: "conv9_2_t"
  top: "conv9_2_s"
  pooling_param {
    pool: AVE
    global_pooling: true
  }
}
layer {
  name: "conv9_2_fc1"
  type: "Convolution"
  bottom: "conv9_2_s"
  top: "conv9_2_fc1"
  param {
    lr_mult: 1
    decay_mult: 1
  }
  param {
    lr_mult: 2
    decay_mult: 0
  }
  convolution_param {
    num_output: 64
    kernel_size: 1
    stride: 1
    weight_filler {
      type: "xavier"
    }
    bias_filler {
      type: "constant"
      value: 0
    }
  }
}
layer {
  name: "conv9_2_relu"
  type: "ReLU"
  bottom: "conv9_2_fc1"
  top: "conv9_2_fc1"
}
layer {
  name: "conv9_2_fc2"
  type: "Convolution"
  bottom: "conv9_2_fc1"
  top: "conv9_2_fc2"
  param {
    lr_mult: 1
    decay_mult: 1
  }
  param {
    lr_mult: 2
    decay_mult: 0
  }
  convolution_param {
    num_output: 256
    kernel_size: 1
    stride: 1
    weight_filler {
      type: "xavier"
    }
    bias_filler {
      type: "constant"
      value: 0
    }
  }
}
layer {
  name: "conv9_2_sig"
  type: "Sigmoid"
  bottom: "conv9_2_fc2"
  top: "conv9_2_fc2"
}
layer {
  name: "conv9_2_reshape"
  type: "Reshape"
  bottom: "conv9_2_fc2"
  top: "conv9_2_reshape"
  reshape_param {
    shape {
      dim: 0
      dim: 0
    }
  }
}
layer {
  name: "conv9_2_scale"
  type: "Scale"
  bottom: "conv9_2_t"
  bottom: "conv9_2_reshape"
  top: "conv9_2"
  scale_param {
    axis: 0
    bias_term: false
  }
}
layer {
  name: "conv4_3_norm"
  type: "Normalize"
  bottom: "conv4_3"
  top: "conv4_3_norm"
  norm_param {
    across_spatial: false
    scale_filler {
      type: "constant"
      value: 20
    }
    channel_shared: false
  }
}
layer {
  name: "conv4_3_norm_mbox_loc"
  type: "Convolution"
  bottom: "conv4_3_norm"
  top: "conv4_3_norm_mbox_loc"
  param {
    lr_mult: 1
    decay_mult: 1
  }
  param {
    lr_mult: 2
    decay_mult: 0
  }
  convolution_param {
    num_output: 16
    pad: 1
    kernel_size: 3
    stride: 1
    weight_filler {
      type: "xavier"
    }
    bias_filler {
      type: "constant"
      value: 0
    }
  }
}
layer {
  name: "conv4_3_norm_mbox_loc_perm"
  type: "Permute"
  bottom: "conv4_3_norm_mbox_loc"
  top: "conv4_3_norm_mbox_loc_perm"
  permute_param {
    order: 0
    order: 2
    order: 3
    order: 1
  }
}
layer {
  name: "conv4_3_norm_mbox_loc_flat"
  type: "Flatten"
  bottom: "conv4_3_norm_mbox_loc_perm"
  top: "conv4_3_norm_mbox_loc_flat"
  flatten_param {
    axis: 1
  }
}
layer {
  name: "conv4_3_norm_mbox_conf"
  type: "Convolution"
  bottom: "conv4_3_norm"
  top: "conv4_3_norm_mbox_conf"
  param {
    lr_mult: 1
    decay_mult: 1
  }
  param {
    lr_mult: 2
    decay_mult: 0
  }
  convolution_param {
    num_output: 84
    pad: 1
    kernel_size: 3
    stride: 1
    weight_filler {
      type: "xavier"
    }
    bias_filler {
      type: "constant"
      value: 0
    }
  }
}
layer {
  name: "conv4_3_norm_mbox_conf_perm"
  type: "Permute"
  bottom: "conv4_3_norm_mbox_conf"
  top: "conv4_3_norm_mbox_conf_perm"
  permute_param {
    order: 0
    order: 2
    order: 3
    order: 1
  }
}
layer {
  name: "conv4_3_norm_mbox_conf_flat"
  type: "Flatten"
  bottom: "conv4_3_norm_mbox_conf_perm"
  top: "conv4_3_norm_mbox_conf_flat"
  flatten_param {
    axis: 1
  }
}
layer {
  name: "conv4_3_norm_mbox_priorbox"
  type: "PriorBox"
  bottom: "conv4_3_norm"
  bottom: "data"
  top: "conv4_3_norm_mbox_priorbox"
  prior_box_param {
    min_size: 21
    max_size: 45
    aspect_ratio: 2
    flip: true
    clip: false
    variance: 0.1
    variance: 0.1
    variance: 0.2
    variance: 0.2
    step: 8
    offset: 0.5
  }
}
layer {
  name: "fc7_mbox_loc"
  type: "Convolution"
  bottom: "fc7"
  top: "fc7_mbox_loc"
  param {
    lr_mult: 1
    decay_mult: 1
  }
  param {
    lr_mult: 2
    decay_mult: 0
  }
  convolution_param {
    num_output: 24
    pad: 1
    kernel_size: 3
    stride: 1
    weight_filler {
      type: "xavier"
    }
    bias_filler {
      type: "constant"
      value: 0
    }
  }
}
layer {
  name: "fc7_mbox_loc_perm"
  type: "Permute"
  bottom: "fc7_mbox_loc"
  top: "fc7_mbox_loc_perm"
  permute_param {
    order: 0
    order: 2
    order: 3
    order: 1
  }
}
layer {
  name: "fc7_mbox_loc_flat"
  type: "Flatten"
  bottom: "fc7_mbox_loc_perm"
  top: "fc7_mbox_loc_flat"
  flatten_param {
    axis: 1
  }
}
layer {
  name: "fc7_mbox_conf"
  type: "Convolution"
  bottom: "fc7"
  top: "fc7_mbox_conf"
  param {
    lr_mult: 1
    decay_mult: 1
  }
  param {
    lr_mult: 2
    decay_mult: 0
  }
  convolution_param {
    num_output: 126
    pad: 1
    kernel_size: 3
    stride: 1
    weight_filler {
      type: "xavier"
    }
    bias_filler {
      type: "constant"
      value: 
I0307 02:25:06.105857 11441 layer_factory.hpp:77] Creating layer data
I0307 02:25:06.106241 11441 net.cpp:100] Creating Layer data
I0307 02:25:06.106257 11441 net.cpp:408] data -> data
I0307 02:25:06.106292 11441 net.cpp:408] data -> label
I0307 02:25:06.108146 11447 db_lmdb.cpp:35] Opened lmdb examples/VOC0712/VOC0712_trainvaltest_lmdb
I0307 02:25:06.118382 11441 annotated_data_layer.cpp:62] output data size: 8,3,300,300
I0307 02:25:06.129107 11441 net.cpp:150] Setting up data
I0307 02:25:06.129132 11441 net.cpp:157] Top shape: 8 3 300 300 (2160000)
I0307 02:25:06.129139 11441 net.cpp:157] Top shape: 1 1 2 8 (16)
I0307 02:25:06.129142 11441 net.cpp:165] Memory required for data: 8640064
I0307 02:25:06.129153 11441 layer_factory.hpp:77] Creating layer data_data_0_split
I0307 02:25:06.129170 11441 net.cpp:100] Creating Layer data_data_0_split
I0307 02:25:06.129180 11441 net.cpp:434] data_data_0_split <- data
I0307 02:25:06.129202 11441 net.cpp:408] data_data_0_split -> data_data_0_split_0
I0307 02:25:06.129217 11441 net.cpp:408] data_data_0_split -> data_data_0_split_1
I0307 02:25:06.129227 11441 net.cpp:408] data_data_0_split -> data_data_0_split_2
I0307 02:25:06.129237 11441 net.cpp:408] data_data_0_split -> data_data_0_split_3
I0307 02:25:06.129247 11441 net.cpp:408] data_data_0_split -> data_data_0_split_4
I0307 02:25:06.129262 11441 net.cpp:408] data_data_0_split -> data_data_0_split_5
I0307 02:25:06.129272 11441 net.cpp:408] data_data_0_split -> data_data_0_split_6
I0307 02:25:06.129372 11441 net.cpp:150] Setting up data_data_0_split
I0307 02:25:06.129380 11441 net.cpp:157] Top shape: 8 3 300 300 (2160000)
I0307 02:25:06.129385 11441 net.cpp:157] Top shape: 8 3 300 300 (2160000)
I0307 02:25:06.129392 11441 net.cpp:157] Top shape: 8 3 300 300 (2160000)
I0307 02:25:06.129427 11441 net.cpp:157] Top shape: 8 3 300 300 (2160000)
I0307 02:25:06.129441 11441 net.cpp:157] Top shape: 8 3 300 300 (2160000)
I0307 02:25:06.129451 11441 net.cpp:157] Top shape: 8 3 300 300 (2160000)
I0307 02:25:06.129458 11441 net.cpp:157] Top shape: 8 3 300 300 (2160000)
I0307 02:25:06.129473 11441 net.cpp:165] Memory required for data: 69120064
I0307 02:25:06.129482 11441 layer_factory.hpp:77] Creating layer label_data_1_split
I0307 02:25:06.129496 11441 net.cpp:100] Creating Layer label_data_1_split
I0307 02:25:06.129503 11441 net.cpp:434] label_data_1_split <- label
I0307 02:25:06.129513 11441 net.cpp:408] label_data_1_split -> label_data_1_split_0
I0307 02:25:06.129523 11441 net.cpp:408] label_data_1_split -> label_data_1_split_1
I0307 02:25:06.129564 11441 net.cpp:150] Setting up label_data_1_split
I0307 02:25:06.129575 11441 net.cpp:157] Top shape: 1 1 2 8 (16)
I0307 02:25:06.129585 11441 net.cpp:157] Top shape: 1 1 2 8 (16)
I0307 02:25:06.129590 11441 net.cpp:165] Memory required for data: 69120192
I0307 02:25:06.129597 11441 layer_factory.hpp:77] Creating layer conv1_1
I0307 02:25:06.129617 11441 net.cpp:100] Creating Layer conv1_1
I0307 02:25:06.129631 11441 net.cpp:434] conv1_1 <- data_data_0_split_0
I0307 02:25:06.129642 11441 net.cpp:408] conv1_1 -> conv1_1
I0307 02:25:06.166414 11448 blocking_queue.cpp:50] Waiting for data
I0307 02:25:06.536005 11441 net.cpp:150] Setting up conv1_1
I0307 02:25:06.536036 11441 net.cpp:157] Top shape: 8 64 300 300 (46080000)
I0307 02:25:06.536042 11441 net.cpp:165] Memory required for data: 253440192
I0307 02:25:06.536065 11441 layer_factory.hpp:77] Creating layer relu1_1
I0307 02:25:06.536082 11441 net.cpp:100] Creating Layer relu1_1
I0307 02:25:06.536092 11441 net.cpp:434] relu1_1 <- conv1_1
I0307 02:25:06.536100 11441 net.cpp:395] relu1_1 -> conv1_1 (in-place)
I0307 02:25:06.536314 11441 net.cpp:150] Setting up relu1_1
I0307 02:25:06.536327 11441 net.cpp:157] Top shape: 8 64 300 300 (46080000)
I0307 02:25:06.536332 11441 net.cpp:165] Memory required for data: 437760192
I0307 02:25:06.536339 11441 layer_factory.hpp:77] Creating layer conv1_2
I0307 02:25:06.536353 11441 net.cpp:100] Creating Layer conv1_2
I0307 02:25:06.536361 11441 net.cpp:434] conv1_2 <- conv1_1
I0307 02:25:06.536371 11441 net.cpp:408] conv1_2 -> conv1_2
I0307 02:25:06.540632 11441 net.cpp:150] Setting up conv1_2
I0307 02:25:06.540648 11441 net.cpp:157] Top shape: 8 64 300 300 (46080000)
I0307 02:25:06.540655 11441 net.cpp:165] Memory required for data: 622080192
I0307 02:25:06.540668 11441 layer_factory.hpp:77] Creating layer relu1_2
I0307 02:25:06.540678 11441 net.cpp:100] Creating Layer relu1_2
I0307 02:25:06.540683 11441 net.cpp:434] relu1_2 <- conv1_2
I0307 02:25:06.540691 11441 net.cpp:395] relu1_2 -> conv1_2 (in-place)
I0307 02:25:06.540874 11441 net.cpp:150] Setting up relu1_2
I0307 02:25:06.540886 11441 net.cpp:157] Top shape: 8 64 300 300 (46080000)
I0307 02:25:06.540891 11441 net.cpp:165] Memory required for data: 806400192
I0307 02:25:06.540897 11441 layer_factory.hpp:77] Creating layer pool1
I0307 02:25:06.540908 11441 net.cpp:100] Creating Layer pool1
I0307 02:25:06.540917 11441 net.cpp:434] pool1 <- conv1_2
I0307 02:25:06.540926 11441 net.cpp:408] pool1 -> pool1
I0307 02:25:06.540982 11441 net.cpp:150] Setting up pool1
I0307 02:25:06.540995 11441 net.cpp:157] Top shape: 8 64 150 150 (11520000)
I0307 02:25:06.541000 11441 net.cpp:165] Memory required for data: 852480192
I0307 02:25:06.541004 11441 layer_factory.hpp:77] Creating layer conv2_1
I0307 02:25:06.541019 11441 net.cpp:100] Creating Layer conv2_1
I0307 02:25:06.541028 11441 net.cpp:434] conv2_1 <- pool1
I0307 02:25:06.541039 11441 net.cpp:408] conv2_1 -> conv2_1
I0307 02:25:06.543067 11441 net.cpp:150] Setting up conv2_1
I0307 02:25:06.543085 11441 net.cpp:157] Top shape: 8 128 150 150 (23040000)
I0307 02:25:06.543089 11441 net.cpp:165] Memory required for data: 944640192
I0307 02:25:06.543102 11441 layer_factory.hpp:77] Creating layer relu2_1
I0307 02:25:06.543112 11441 net.cpp:100] Creating Layer relu2_1
I0307 02:25:06.543143 11441 net.cpp:434] relu2_1 <- conv2_1
I0307 02:25:06.543151 11441 net.cpp:395] relu2_1 -> conv2_1 (in-place)
I0307 02:25:06.543754 11441 net.cpp:150] Setting up relu2_1
I0307 02:25:06.543769 11441 net.cpp:157] Top shape: 8 128 150 150 (23040000)
I0307 02:25:06.543776 11441 net.cpp:165] Memory required for data: 1036800192
I0307 02:25:06.543781 11441 layer_factory.hpp:77] Creating layer conv2_2
I0307 02:25:06.543793 11441 net.cpp:100] Creating Layer conv2_2
I0307 02:25:06.543802 11441 net.cpp:434] conv2_2 <- conv2_1
I0307 02:25:06.543812 11441 net.cpp:408] conv2_2 -> conv2_2
I0307 02:25:06.548032 11441 net.cpp:150] Setting up conv2_2
I0307 02:25:06.548048 11441 net.cpp:157] Top shape: 8 128 150 150 (23040000)
I0307 02:25:06.548054 11441 net.cpp:165] Memory required for data: 1128960192
I0307 02:25:06.548065 11441 layer_factory.hpp:77] Creating layer relu2_2
I0307 02:25:06.548074 11441 net.cpp:100] Creating Layer relu2_2
I0307 02:25:06.548079 11441 net.cpp:434] relu2_2 <- conv2_2
I0307 02:25:06.548086 11441 net.cpp:395] relu2_2 -> conv2_2 (in-place)
I0307 02:25:06.548301 11441 net.cpp:150] Setting up relu2_2
I0307 02:25:06.548315 11441 net.cpp:157] Top shape: 8 128 150 150 (23040000)
I0307 02:25:06.548319 11441 net.cpp:165] Memory required for data: 1221120192
I0307 02:25:06.548324 11441 layer_factory.hpp:77] Creating layer pool2
I0307 02:25:06.548333 11441 net.cpp:100] Creating Layer pool2
I0307 02:25:06.548341 11441 net.cpp:434] pool2 <- conv2_2
I0307 02:25:06.548352 11441 net.cpp:408] pool2 -> pool2
I0307 02:25:06.548403 11441 net.cpp:150] Setting up pool2
I0307 02:25:06.548415 11441 net.cpp:157] Top shape: 8 128 75 75 (5760000)
I0307 02:25:06.548420 11441 net.cpp:165] Memory required for data: 1244160192
I0307 02:25:06.548426 11441 layer_factory.hpp:77] Creating layer conv3_1
I0307 02:25:06.548440 11441 net.cpp:100] Creating Layer conv3_1
I0307 02:25:06.548450 11441 net.cpp:434] conv3_1 <- pool2
I0307 02:25:06.548460 11441 net.cpp:408] conv3_1 -> conv3_1
I0307 02:25:06.555804 11441 net.cpp:150] Setting up conv3_1
I0307 02:25:06.555830 11441 net.cpp:157] Top shape: 8 256 75 75 (11520000)
I0307 02:25:06.555837 11441 net.cpp:165] Memory required for data: 1290240192
I0307 02:25:06.555853 11441 layer_factory.hpp:77] Creating layer relu3_1
I0307 02:25:06.555865 11441 net.cpp:100] Creating Layer relu3_1
I0307 02:25:06.555874 11441 net.cpp:434] relu3_1 <- conv3_1
I0307 02:25:06.555883 11441 net.cpp:395] relu3_1 -> conv3_1 (in-place)
I0307 02:25:06.556107 11441 net.cpp:150] Setting up relu3_1
I0307 02:25:06.556118 11441 net.cpp:157] Top shape: 8 256 75 75 (11520000)
I0307 02:25:06.556124 11441 net.cpp:165] Memory required for data: 1336320192
I0307 02:25:06.556131 11441 layer_factory.hpp:77] Creating layer conv3_2
I0307 02:25:06.556149 11441 net.cpp:100] Creating Layer conv3_2
I0307 02:25:06.556157 11441 net.cpp:434] conv3_2 <- conv3_1
I0307 02:25:06.556167 11441 net.cpp:408] conv3_2 -> conv3_2
I0307 02:25:06.563750 11441 net.cpp:150] Setting up conv3_2
I0307 02:25:06.563766 11441 net.cpp:157] Top shape: 8 256 75 75 (11520000)
I0307 02:25:06.563771 11441 net.cpp:165] Memory required for data: 1382400192
I0307 02:25:06.563779 11441 layer_factory.hpp:77] Creating layer relu3_2
I0307 02:25:06.563794 11441 net.cpp:100] Creating Layer relu3_2
I0307 02:25:06.563799 11441 net.cpp:434] relu3_2 <- conv3_2
I0307 02:25:06.563805 11441 net.cpp:395] relu3_2 -> conv3_2 (in-place)
I0307 02:25:06.564419 11441 net.cpp:150] Setting up relu3_2
I0307 02:25:06.564435 11441 net.cpp:157] Top shape: 8 256 75 75 (11520000)
I0307 02:25:06.564440 11441 net.cpp:165] Memory required for data: 1428480192
I0307 02:25:06.564445 11441 layer_factory.hpp:77] Creating layer conv3_3
I0307 02:25:06.564458 11441 net.cpp:100] Creating Layer conv3_3
I0307 02:25:06.564471 11441 net.cpp:434] conv3_3 <- conv3_2
I0307 02:25:06.564481 11441 net.cpp:408] conv3_3 -> conv3_3
I0307 02:25:06.575837 11441 net.cpp:150] Setting up conv3_3
I0307 02:25:06.575860 11441 net.cpp:157] Top shape: 8 256 75 75 (11520000)
I0307 02:25:06.575866 11441 net.cpp:165] Memory required for data: 1474560192
I0307 02:25:06.575904 11441 layer_factory.hpp:77] Creating layer relu3_3
I0307 02:25:06.575917 11441 net.cpp:100] Creating Layer relu3_3
I0307 02:25:06.575927 11441 net.cpp:434] relu3_3 <- conv3_3
I0307 02:25:06.575939 11441 net.cpp:395] relu3_3 -> conv3_3 (in-place)
I0307 02:25:06.576164 11441 net.cpp:150] Setting up relu3_3
I0307 02:25:06.576175 11441 net.cpp:157] Top shape: 8 256 75 75 (11520000)
I0307 02:25:06.576181 11441 net.cpp:165] Memory required for data: 1520640192
I0307 02:25:06.576187 11441 layer_factory.hpp:77] Creating layer pool3
I0307 02:25:06.576198 11441 net.cpp:100] Creating Layer pool3
I0307 02:25:06.576205 11441 net.cpp:434] pool3 <- conv3_3
I0307 02:25:06.576211 11441 net.cpp:408] pool3 -> pool3
I0307 02:25:06.576264 11441 net.cpp:150] Setting up pool3
I0307 02:25:06.576274 11441 net.cpp:157] Top shape: 8 256 38 38 (2957312)
I0307 02:25:06.576280 11441 net.cpp:165] Memory required for data: 1532469440
I0307 02:25:06.576284 11441 layer_factory.hpp:77] Creating layer conv4_1
I0307 02:25:06.576299 11441 net.cpp:100] Creating Layer conv4_1
I0307 02:25:06.576310 11441 net.cpp:434] conv4_1 <- pool3
I0307 02:25:06.576320 11441 net.cpp:408] conv4_1 -> conv4_1
I0307 02:25:06.591164 11441 net.cpp:150] Setting up conv4_1
I0307 02:25:06.591190 11441 net.cpp:157] Top shape: 8 512 38 38 (5914624)
I0307 02:25:06.591195 11441 net.cpp:165] Memory required for data: 1556127936
I0307 02:25:06.591208 11441 layer_factory.hpp:77] Creating layer relu4_1
I0307 02:25:06.591218 11441 net.cpp:100] Creating Layer relu4_1
I0307 02:25:06.591225 11441 net.cpp:434] relu4_1 <- conv4_1
I0307 02:25:06.591235 11441 net.cpp:395] relu4_1 -> conv4_1 (in-place)
I0307 02:25:06.591462 11441 net.cpp:150] Setting up relu4_1
I0307 02:25:06.591478 11441 net.cpp:157] Top shape: 8 512 38 38 (5914624)
I0307 02:25:06.591485 11441 net.cpp:165] Memory required for data: 1579786432
I0307 02:25:06.591492 11441 layer_factory.hpp:77] Creating layer conv4_2
I0307 02:25:06.591516 11441 net.cpp:100] Creating Layer conv4_2
I0307 02:25:06.591522 11441 net.cpp:434] conv4_2 <- conv4_1
I0307 02:25:06.591534 11441 net.cpp:408] conv4_2 -> conv4_2
I0307 02:25:06.618494 11441 net.cpp:150] Setting up conv4_2
I0307 02:25:06.618523 11441 net.cpp:157] Top shape: 8 512 38 38 (5914624)
I0307 02:25:06.618530 11441 net.cpp:165] Memory required for data: 1603444928
I0307 02:25:06.618549 11441 layer_factory.hpp:77] Creating layer relu4_2
I0307 02:25:06.618563 11441 net.cpp:100] Creating Layer relu4_2
I0307 02:25:06.618574 11441 net.cpp:434] relu4_2 <- conv4_2
I0307 02:25:06.618584 11441 net.cpp:395] relu4_2 -> conv4_2 (in-place)
I0307 02:25:06.618800 11441 net.cpp:150] Setting up relu4_2
I0307 02:25:06.618815 11441 net.cpp:157] Top shape: 8 512 38 38 (5914624)
I0307 02:25:06.618821 11441 net.cpp:165] Memory required for data: 1627103424
I0307 02:25:06.618826 11441 layer_factory.hpp:77] Creating layer conv4_3
I0307 02:25:06.618840 11441 net.cpp:100] Creating Layer conv4_3
I0307 02:25:06.618849 11441 net.cpp:434] conv4_3 <- conv4_2
I0307 02:25:06.618862 11441 net.cpp:408] conv4_3 -> conv4_3_ori
I0307 02:25:06.647438 11441 net.cpp:150] Setting up conv4_3
I0307 02:25:06.647467 11441 net.cpp:157] Top shape: 8 512 38 38 (5914624)
I0307 02:25:06.647473 11441 net.cpp:165] Memory required for data: 1650761920
I0307 02:25:06.647485 11441 layer_factory.hpp:77] Creating layer relu4_3
I0307 02:25:06.647500 11441 net.cpp:100] Creating Layer relu4_3
I0307 02:25:06.647514 11441 net.cpp:434] relu4_3 <- conv4_3_ori
I0307 02:25:06.647526 11441 net.cpp:395] relu4_3 -> conv4_3_ori (in-place)
I0307 02:25:06.648248 11441 net.cpp:150] Setting up relu4_3
I0307 02:25:06.648264 11441 net.cpp:157] Top shape: 8 512 38 38 (5914624)
I0307 02:25:06.648269 11441 net.cpp:165] Memory required for data: 1674420416
I0307 02:25:06.648278 11441 layer_factory.hpp:77] Creating layer conv4_3_ori_relu4_3_0_split
I0307 02:25:06.648286 11441 net.cpp:100] Creating Layer conv4_3_ori_relu4_3_0_split
I0307 02:25:06.648299 11441 net.cpp:434] conv4_3_ori_relu4_3_0_split <- conv4_3_ori
I0307 02:25:06.648334 11441 net.cpp:408] conv4_3_ori_relu4_3_0_split -> conv4_3_ori_relu4_3_0_split_0
I0307 02:25:06.648344 11441 net.cpp:408] conv4_3_ori_relu4_3_0_split -> conv4_3_ori_relu4_3_0_split_1
I0307 02:25:06.648391 11441 net.cpp:150] Setting up conv4_3_ori_relu4_3_0_split
I0307 02:25:06.648402 11441 net.cpp:157] Top shape: 8 512 38 38 (5914624)
I0307 02:25:06.648409 11441 net.cpp:157] Top shape: 8 512 38 38 (5914624)
I0307 02:25:06.648414 11441 net.cpp:165] Memory required for data: 1721737408
I0307 02:25:06.648421 11441 layer_factory.hpp:77] Creating layer seg_pool4
I0307 02:25:06.648430 11441 net.cpp:100] Creating Layer seg_pool4
I0307 02:25:06.648435 11441 net.cpp:434] seg_pool4 <- conv4_3_ori_relu4_3_0_split_0
I0307 02:25:06.648442 11441 net.cpp:408] seg_pool4 -> seg_pool4
I0307 02:25:06.648485 11441 net.cpp:150] Setting up seg_pool4
I0307 02:25:06.648496 11441 net.cpp:157] Top shape: 8 512 38 38 (5914624)
I0307 02:25:06.648504 11441 net.cpp:165] Memory required for data: 1745395904
I0307 02:25:06.648511 11441 layer_factory.hpp:77] Creating layer seg5_1
I0307 02:25:06.648524 11441 net.cpp:100] Creating Layer seg5_1
I0307 02:25:06.648533 11441 net.cpp:434] seg5_1 <- seg_pool4
I0307 02:25:06.648543 11441 net.cpp:408] seg5_1 -> seg5_1
I0307 02:25:06.671339 11441 net.cpp:150] Setting up seg5_1
I0307 02:25:06.671370 11441 net.cpp:157] Top shape: 8 512 38 38 (5914624)
I0307 02:25:06.671377 11441 net.cpp:165] Memory required for data: 1769054400
I0307 02:25:06.671391 11441 layer_factory.hpp:77] Creating layer seg_relu5_1
I0307 02:25:06.671403 11441 net.cpp:100] Creating Layer seg_relu5_1
I0307 02:25:06.671413 11441 net.cpp:434] seg_relu5_1 <- seg5_1
I0307 02:25:06.671425 11441 net.cpp:395] seg_relu5_1 -> seg5_1 (in-place)
I0307 02:25:06.671710 11441 net.cpp:150] Setting up seg_relu5_1
I0307 02:25:06.671723 11441 net.cpp:157] Top shape: 8 512 38 38 (5914624)
I0307 02:25:06.671730 11441 net.cpp:165] Memory required for data: 1792712896
I0307 02:25:06.671737 11441 layer_factory.hpp:77] Creating layer seg5_2
I0307 02:25:06.671756 11441 net.cpp:100] Creating Layer seg5_2
I0307 02:25:06.671766 11441 net.cpp:434] seg5_2 <- seg5_1
I0307 02:25:06.671775 11441 net.cpp:408] seg5_2 -> seg5_2
I0307 02:25:06.695611 11441 net.cpp:150] Setting up seg5_2
I0307 02:25:06.695642 11441 net.cpp:157] Top shape: 8 512 38 38 (5914624)
I0307 02:25:06.695648 11441 net.cpp:165] Memory required for data: 1816371392
I0307 02:25:06.695659 11441 layer_factory.hpp:77] Creating layer seg_relu5_2
I0307 02:25:06.695672 11441 net.cpp:100] Creating Layer seg_relu5_2
I0307 02:25:06.695683 11441 net.cpp:434] seg_relu5_2 <- seg5_2
I0307 02:25:06.695695 11441 net.cpp:395] seg_relu5_2 -> seg5_2 (in-place)
I0307 02:25:06.695977 11441 net.cpp:150] Setting up seg_relu5_2
I0307 02:25:06.695989 11441 net.cpp:157] Top shape: 8 512 38 38 (5914624)
I0307 02:25:06.695996 11441 net.cpp:165] Memory required for data: 1840029888
I0307 02:25:06.696000 11441 layer_factory.hpp:77] Creating layer seg5_3
I0307 02:25:06.696022 11441 net.cpp:100] Creating Layer seg5_3
I0307 02:25:06.696028 11441 net.cpp:434] seg5_3 <- seg5_2
I0307 02:25:06.696038 11441 net.cpp:408] seg5_3 -> seg5_3
I0307 02:25:06.719204 11441 net.cpp:150] Setting up seg5_3
I0307 02:25:06.719236 11441 net.cpp:157] Top shape: 8 512 38 38 (5914624)
I0307 02:25:06.719241 11441 net.cpp:165] Memory required for data: 1863688384
I0307 02:25:06.719255 11441 layer_factory.hpp:77] Creating layer seg_relu5_3
I0307 02:25:06.719267 11441 net.cpp:100] Creating Layer seg_relu5_3
I0307 02:25:06.719278 11441 net.cpp:434] seg_relu5_3 <- seg5_3
I0307 02:25:06.719290 11441 net.cpp:395] seg_relu5_3 -> seg5_3 (in-place)
I0307 02:25:06.720175 11441 net.cpp:150] Setting up seg_relu5_3
I0307 02:25:06.720191 11441 net.cpp:157] Top shape: 8 512 38 38 (5914624)
I0307 02:25:06.720199 11441 net.cpp:165] Memory required for data: 1887346880
I0307 02:25:06.720207 11441 layer_factory.hpp:77] Creating layer seg_pool5
I0307 02:25:06.720221 11441 net.cpp:100] Creating Layer seg_pool5
I0307 02:25:06.720229 11441 net.cpp:434] seg_pool5 <- seg5_3
I0307 02:25:06.720263 11441 net.cpp:408] seg_pool5 -> seg_pool5
I0307 02:25:06.720317 11441 net.cpp:150] Setting up seg_pool5
I0307 02:25:06.720330 11441 net.cpp:157] Top shape: 8 512 38 38 (5914624)
I0307 02:25:06.720337 11441 net.cpp:165] Memory required for data: 1911005376
I0307 02:25:06.720345 11441 layer_factory.hpp:77] Creating layer seg6
I0307 02:25:06.720360 11441 net.cpp:100] Creating Layer seg6
I0307 02:25:06.720368 11441 net.cpp:434] seg6 <- seg_pool5
I0307 02:25:06.720377 11441 net.cpp:408] seg6 -> seg6
I0307 02:25:06.765239 11441 net.cpp:150] Setting up seg6
I0307 02:25:06.765275 11441 net.cpp:157] Top shape: 8 1024 38 38 (11829248)
I0307 02:25:06.765280 11441 net.cpp:165] Memory required for data: 1958322368
I0307 02:25:06.765291 11441 layer_factory.hpp:77] Creating layer seg_relu6
I0307 02:25:06.765303 11441 net.cpp:100] Creating Layer seg_relu6
I0307 02:25:06.765310 11441 net.cpp:434] seg_relu6 <- seg6
I0307 02:25:06.765321 11441 net.cpp:395] seg_relu6 -> seg6 (in-place)
I0307 02:25:06.765599 11441 net.cpp:150] Setting up seg_relu6
I0307 02:25:06.765609 11441 net.cpp:157] Top shape: 8 1024 38 38 (11829248)
I0307 02:25:06.765614 11441 net.cpp:165] Memory required for data: 2005639360
I0307 02:25:06.765619 11441 layer_factory.hpp:77] Creating layer seg_drop6
I0307 02:25:06.765628 11441 net.cpp:100] Creating Layer seg_drop6
I0307 02:25:06.765635 11441 net.cpp:434] seg_drop6 <- seg6
I0307 02:25:06.765645 11441 net.cpp:395] seg_drop6 -> seg6 (in-place)
I0307 02:25:06.765679 11441 net.cpp:150] Setting up seg_drop6
I0307 02:25:06.765688 11441 net.cpp:157] Top shape: 8 1024 38 38 (11829248)
I0307 02:25:06.765693 11441 net.cpp:165] Memory required for data: 2052956352
I0307 02:25:06.765697 11441 layer_factory.hpp:77] Creating layer seg7
I0307 02:25:06.765713 11441 net.cpp:100] Creating Layer seg7
I0307 02:25:06.765717 11441 net.cpp:434] seg7 <- seg6
I0307 02:25:06.765724 11441 net.cpp:408] seg7 -> seg7
I0307 02:25:06.777809 11441 net.cpp:150] Setting up seg7
I0307 02:25:06.777839 11441 net.cpp:157] Top shape: 8 1024 38 38 (11829248)
I0307 02:25:06.777844 11441 net.cpp:165] Memory required for data: 2100273344
I0307 02:25:06.777854 11441 layer_factory.hpp:77] Creating layer seg_relu7
I0307 02:25:06.777868 11441 net.cpp:100] Creating Layer seg_relu7
I0307 02:25:06.777875 11441 net.cpp:434] seg_relu7 <- seg7
I0307 02:25:06.777882 11441 net.cpp:395] seg_relu7 -> seg7 (in-place)
I0307 02:25:06.778110 11441 net.cpp:150] Setting up seg_relu7
I0307 02:25:06.778121 11441 net.cpp:157] Top shape: 8 1024 38 38 (11829248)
I0307 02:25:06.778127 11441 net.cpp:165] Memory required for data: 2147590336
I0307 02:25:06.778131 11441 layer_factory.hpp:77] Creating layer seg7_seg_relu7_0_split
I0307 02:25:06.778139 11441 net.cpp:100] Creating Layer seg7_seg_relu7_0_split
I0307 02:25:06.778146 11441 net.cpp:434] seg7_seg_relu7_0_split <- seg7
I0307 02:25:06.778158 11441 net.cpp:408] seg7_seg_relu7_0_split -> seg7_seg_relu7_0_split_0
I0307 02:25:06.778170 11441 net.cpp:408] seg7_seg_relu7_0_split -> seg7_seg_relu7_0_split_1
I0307 02:25:06.778218 11441 net.cpp:150] Setting up seg7_seg_relu7_0_split
I0307 02:25:06.778228 11441 net.cpp:157] Top shape: 8 1024 38 38 (11829248)
I0307 02:25:06.778235 11441 net.cpp:157] Top shape: 8 1024 38 38 (11829248)
I0307 02:25:06.778241 11441 net.cpp:165] Memory required for data: 2242224320
I0307 02:25:06.778245 11441 layer_factory.hpp:77] Creating layer seg_drop7
I0307 02:25:06.778255 11441 net.cpp:100] Creating Layer seg_drop7
I0307 02:25:06.778264 11441 net.cpp:434] seg_drop7 <- seg7_seg_relu7_0_split_0
I0307 02:25:06.778271 11441 net.cpp:408] seg_drop7 -> seg7d
I0307 02:25:06.778313 11441 net.cpp:150] Setting up seg_drop7
I0307 02:25:06.778369 11441 net.cpp:157] Top shape: 8 1024 38 38 (11829248)
I0307 02:25:06.778378 11441 net.cpp:165] Memory required for data: 2289541312
I0307 02:25:06.778383 11441 layer_factory.hpp:77] Creating layer seg
I0307 02:25:06.778396 11441 net.cpp:100] Creating Layer seg
I0307 02:25:06.778424 11441 net.cpp:434] seg <- seg7d
I0307 02:25:06.778435 11441 net.cpp:408] seg -> seg
I0307 02:25:06.780252 11441 net.cpp:150] Setting up seg
I0307 02:25:06.780272 11441 net.cpp:157] Top shape: 8 21 38 38 (242592)
I0307 02:25:06.780278 11441 net.cpp:165] Memory required for data: 2290511680
I0307 02:25:06.780289 11441 layer_factory.hpp:77] Creating layer seg_seg_0_split
I0307 02:25:06.780298 11441 net.cpp:100] Creating Layer seg_seg_0_split
I0307 02:25:06.780305 11441 net.cpp:434] seg_seg_0_split <- seg
I0307 02:25:06.780325 11441 net.cpp:408] seg_seg_0_split -> seg_seg_0_split_0
I0307 02:25:06.780335 11441 net.cpp:408] seg_seg_0_split -> seg_seg_0_split_1
I0307 02:25:06.780381 11441 net.cpp:150] Setting up seg_seg_0_split
I0307 02:25:06.780391 11441 net.cpp:157] Top shape: 8 21 38 38 (242592)
I0307 02:25:06.780400 11441 net.cpp:157] Top shape: 8 21 38 38 (242592)
I0307 02:25:06.780405 11441 net.cpp:165] Memory required for data: 2292452416
I0307 02:25:06.780411 11441 layer_factory.hpp:77] Creating layer seg_gt
I0307 02:25:06.780419 11441 net.cpp:100] Creating Layer seg_gt
I0307 02:25:06.780427 11441 net.cpp:434] seg_gt <- label_data_1_split_0
I0307 02:25:06.780441 11441 net.cpp:434] seg_gt <- seg_seg_0_split_0
I0307 02:25:06.780450 11441 net.cpp:408] seg_gt -> seg_gt
I0307 02:25:06.780495 11441 net.cpp:150] Setting up seg_gt
I0307 02:25:06.780505 11441 net.cpp:157] Top shape: 8 1 38 38 (11552)
I0307 02:25:06.780511 11441 net.cpp:165] Memory required for data: 2292498624
I0307 02:25:06.780519 11441 layer_factory.hpp:77] Creating layer seg_loss
I0307 02:25:06.780531 11441 net.cpp:100] Creating Layer seg_loss
I0307 02:25:06.780542 11441 net.cpp:434] seg_loss <- seg_seg_0_split_1
I0307 02:25:06.780550 11441 net.cpp:434] seg_loss <- seg_gt
I0307 02:25:06.780560 11441 net.cpp:408] seg_loss -> seg_loss
I0307 02:25:06.780573 11441 layer_factory.hpp:77] Creating layer seg_loss
I0307 02:25:06.783501 11441 net.cpp:150] Setting up seg_loss
I0307 02:25:06.783558 11441 net.cpp:157] Top shape: (1)
I0307 02:25:06.783582 11441 net.cpp:160]     with loss weight 0.1
I0307 02:25:06.783623 11441 net.cpp:165] Memory required for data: 2292498628
I0307 02:25:06.783645 11441 layer_factory.hpp:77] Creating layer seg_to_det_conv
I0307 02:25:06.783680 11441 net.cpp:100] Creating Layer seg_to_det_conv
I0307 02:25:06.783701 11441 net.cpp:434] seg_to_det_conv <- seg7_seg_relu7_0_split_1
I0307 02:25:06.783728 11441 net.cpp:408] seg_to_det_conv -> seg_to_det_conv
I0307 02:25:06.789736 11441 net.cpp:150] Setting up seg_to_det_conv
I0307 02:25:06.789759 11441 net.cpp:157] Top shape: 8 512 38 38 (5914624)
I0307 02:25:06.789762 11441 net.cpp:165] Memory required for data: 2316157124
I0307 02:25:06.789777 11441 layer_factory.hpp:77] Creating layer mult_conv4_3
I0307 02:25:06.789793 11441 net.cpp:100] Creating Layer mult_conv4_3
I0307 02:25:06.789803 11441 net.cpp:434] mult_conv4_3 <- conv4_3_ori_relu4_3_0_split_1
I0307 02:25:06.789809 11441 net.cpp:434] mult_conv4_3 <- seg_to_det_conv
I0307 02:25:06.789814 11441 net.cpp:408] mult_conv4_3 -> conv4_3_t
I0307 02:25:06.789845 11441 net.cpp:150] Setting up mult_conv4_3
I0307 02:25:06.789854 11441 net.cpp:157] Top shape: 8 512 38 38 (5914624)
I0307 02:25:06.789856 11441 net.cpp:165] Memory required for data: 2339815620
I0307 02:25:06.789860 11441 layer_factory.hpp:77] Creating layer conv4_3_t_mult_conv4_3_0_split
I0307 02:25:06.789865 11441 net.cpp:100] Creating Layer conv4_3_t_mult_conv4_3_0_split
I0307 02:25:06.789873 11441 net.cpp:434] conv4_3_t_mult_conv4_3_0_split <- conv4_3_t
I0307 02:25:06.789881 11441 net.cpp:408] conv4_3_t_mult_conv4_3_0_split -> conv4_3_t_mult_conv4_3_0_split_0
I0307 02:25:06.789889 11441 net.cpp:408] conv4_3_t_mult_conv4_3_0_split -> conv4_3_t_mult_conv4_3_0_split_1
I0307 02:25:06.789919 11441 net.cpp:150] Setting up conv4_3_t_mult_conv4_3_0_split
I0307 02:25:06.789927 11441 net.cpp:157] Top shape: 8 512 38 38 (5914624)
I0307 02:25:06.789930 11441 net.cpp:157] Top shape: 8 512 38 38 (5914624)
I0307 02:25:06.789933 11441 net.cpp:165] Memory required for data: 2387132612
I0307 02:25:06.789938 11441 layer_factory.hpp:77] Creating layer conv4_3_s
I0307 02:25:06.789948 11441 net.cpp:100] Creating Layer conv4_3_s
I0307 02:25:06.789969 11441 net.cpp:434] conv4_3_s <- conv4_3_t_mult_conv4_3_0_split_0
I0307 02:25:06.789974 11441 net.cpp:408] conv4_3_s -> conv4_3_s
I0307 02:25:06.790160 11441 net.cpp:150] Setting up conv4_3_s
I0307 02:25:06.790169 11441 net.cpp:157] Top shape: 8 512 1 1 (4096)
I0307 02:25:06.790172 11441 net.cpp:165] Memory required for data: 2387148996
I0307 02:25:06.790175 11441 layer_factory.hpp:77] Creating layer conv4_3_fc1
I0307 02:25:06.790187 11441 net.cpp:100] Creating Layer conv4_3_fc1
I0307 02:25:06.790194 11441 net.cpp:434] conv4_3_fc1 <- conv4_3_s
I0307 02:25:06.790199 11441 net.cpp:408] conv4_3_fc1 -> conv4_3_fc1
I0307 02:25:06.792670 11441 net.cpp:150] Setting up conv4_3_fc1
I0307 02:25:06.792680 11441 net.cpp:157] Top shape: 8 128 1 1 (1024)
I0307 02:25:06.792685 11441 net.cpp:165] Memory required for data: 2387153092
I0307 02:25:06.792691 11441 layer_factory.hpp:77] Creating layer conv4_3_relu
I0307 02:25:06.792699 11441 net.cpp:100] Creating Layer conv4_3_relu
I0307 02:25:06.792706 11441 net.cpp:434] conv4_3_relu <- conv4_3_fc1
I0307 02:25:06.792711 11441 net.cpp:395] conv4_3_relu -> conv4_3_fc1 (in-place)
I0307 02:25:06.792873 11441 net.cpp:150] Setting up conv4_3_relu
I0307 02:25:06.792882 11441 net.cpp:157] Top shape: 8 128 1 1 (1024)
I0307 02:25:06.792886 11441 net.cpp:165] Memory required for data: 2387157188
I0307 02:25:06.792892 11441 layer_factory.hpp:77] Creating layer conv4_3_fc2
I0307 02:25:06.792901 11441 net.cpp:100] Creating Layer conv4_3_fc2
I0307 02:25:06.792906 11441 net.cpp:434] conv4_3_fc2 <- conv4_3_fc1
I0307 02:25:06.792912 11441 net.cpp:408] conv4_3_fc2 -> conv4_3_fc2
I0307 02:25:06.794165 11441 net.cpp:150] Setting up conv4_3_fc2
I0307 02:25:06.794176 11441 net.cpp:157] Top shape: 8 512 1 1 (4096)
I0307 02:25:06.794179 11441 net.cpp:165] Memory required for data: 2387173572
I0307 02:25:06.794186 11441 layer_factory.hpp:77] Creating layer conv4_3_sig
I0307 02:25:06.794195 11441 net.cpp:100] Creating Layer conv4_3_sig
I0307 02:25:06.794199 11441 net.cpp:434] conv4_3_sig <- conv4_3_fc2
I0307 02:25:06.794206 11441 net.cpp:395] conv4_3_sig -> conv4_3_fc2 (in-place)
I0307 02:25:06.794369 11441 net.cpp:150] Setting up conv4_3_sig
I0307 02:25:06.794378 11441 net.cpp:157] Top shape: 8 512 1 1 (4096)
I0307 02:25:06.794381 11441 net.cpp:165] Memory required for data: 2387189956
I0307 02:25:06.794386 11441 layer_factory.hpp:77] Creating layer conv4_3_reshape
I0307 02:25:06.794394 11441 net.cpp:100] Creating Layer conv4_3_reshape
I0307 02:25:06.794401 11441 net.cpp:434] conv4_3_reshape <- conv4_3_fc2
I0307 02:25:06.794414 11441 net.cpp:408] conv4_3_reshape -> conv4_3_reshape
I0307 02:25:06.794446 11441 net.cpp:150] Setting up conv4_3_reshape
I0307 02:25:06.794452 11441 net.cpp:157] Top shape: 8 512 (4096)
I0307 02:25:06.794456 11441 net.cpp:165] Memory required for data: 2387206340
I0307 02:25:06.794459 11441 layer_factory.hpp:77] Creating layer conv4_3_scale
I0307 02:25:06.794466 11441 net.cpp:100] Creating Layer conv4_3_scale
I0307 02:25:06.794471 11441 net.cpp:434] conv4_3_scale <- conv4_3_t_mult_conv4_3_0_split_1
I0307 02:25:06.794478 11441 net.cpp:434] conv4_3_scale <- conv4_3_reshape
I0307 02:25:06.794486 11441 net.cpp:408] conv4_3_scale -> conv4_3
I0307 02:25:06.794550 11441 net.cpp:150] Setting up conv4_3_scale
I0307 02:25:06.794556 11441 net.cpp:157] Top shape: 8 512 38 38 (5914624)
I0307 02:25:06.794560 11441 net.cpp:165] Memory required for data: 2410864836
I0307 02:25:06.794564 11441 layer_factory.hpp:77] Creating layer conv4_3_conv4_3_scale_0_split
I0307 02:25:06.794570 11441 net.cpp:100] Creating Layer conv4_3_conv4_3_scale_0_split
I0307 02:25:06.794577 11441 net.cpp:434] conv4_3_conv4_3_scale_0_split <- conv4_3
I0307 02:25:06.794582 11441 net.cpp:408] conv4_3_conv4_3_scale_0_split -> conv4_3_conv4_3_scale_0_split_0
I0307 02:25:06.794590 11441 net.cpp:408] conv4_3_conv4_3_scale_0_split -> conv4_3_conv4_3_scale_0_split_1
I0307 02:25:06.794621 11441 net.cpp:150] Setting up conv4_3_conv4_3_scale_0_split
I0307 02:25:06.794632 11441 net.cpp:157] Top shape: 8 512 38 38 (5914624)
I0307 02:25:06.794654 11441 net.cpp:157] Top shape: 8 512 38 38 (5914624)
I0307 02:25:06.794670 11441 net.cpp:165] Memory required for data: 2458181828
I0307 02:25:06.794674 11441 layer_factory.hpp:77] Creating layer pool4
I0307 02:25:06.794684 11441 net.cpp:100] Creating Layer pool4
I0307 02:25:06.794690 11441 net.cpp:434] pool4 <- conv4_3_conv4_3_scale_0_split_0
I0307 02:25:06.794698 11441 net.cpp:408] pool4 -> pool4
I0307 02:25:06.794745 11441 net.cpp:150] Setting up pool4
I0307 02:25:06.794752 11441 net.cpp:157] Top shape: 8 512 19 19 (1478656)
I0307 02:25:06.794757 11441 net.cpp:165] Memory required for data: 2464096452
I0307 02:25:06.794764 11441 layer_factory.hpp:77] Creating layer conv5_1
I0307 02:25:06.794776 11441 net.cpp:100] Creating Layer conv5_1
I0307 02:25:06.794783 11441 net.cpp:434] conv5_1 <- pool4
I0307 02:25:06.794792 11441 net.cpp:408] conv5_1 -> conv5_1
I0307 02:25:06.807860 11441 net.cpp:150] Setting up conv5_1
I0307 02:25:06.807885 11441 net.cpp:157] Top shape: 8 512 19 19 (1478656)
I0307 02:25:06.807890 11441 net.cpp:165] Memory required for data: 2470011076
I0307 02:25:06.807901 11441 layer_factory.hpp:77] Creating layer relu5_1
I0307 02:25:06.807914 11441 net.cpp:100] Creating Layer relu5_1
I0307 02:25:06.807922 11441 net.cpp:434] relu5_1 <- conv5_1
I0307 02:25:06.807931 11441 net.cpp:395] relu5_1 -> conv5_1 (in-place)
I0307 02:25:06.808439 11441 net.cpp:150] Setting up relu5_1
I0307 02:25:06.808450 11441 net.cpp:157] Top shape: 8 512 19 19 (1478656)
I0307 02:25:06.808455 11441 net.cpp:165] Memory required for data: 2475925700
I0307 02:25:06.808460 11441 layer_factory.hpp:77] Creating layer conv5_2
I0307 02:25:06.808478 11441 net.cpp:100] Creating Layer conv5_2
I0307 02:25:06.808486 11441 net.cpp:434] conv5_2 <- conv5_1
I0307 02:25:06.808497 11441 net.cpp:408] conv5_2 -> conv5_2
I0307 02:25:06.823568 11441 net.cpp:150] Setting up conv5_2
I0307 02:25:06.823592 11441 net.cpp:157] Top shape: 8 512 19 19 (1478656)
I0307 02:25:06.823597 11441 net.cpp:165] Memory required for data: 2481840324
I0307 02:25:06.823608 11441 layer_factory.hpp:77] Creating layer relu5_2
I0307 02:25:06.823618 11441 net.cpp:100] Creating Layer relu5_2
I0307 02:25:06.823626 11441 net.cpp:434] relu5_2 <- conv5_2
I0307 02:25:06.823639 11441 net.cpp:395] relu5_2 -> conv5_2 (in-place)
I0307 02:25:06.823797 11441 net.cpp:150] Setting up relu5_2
I0307 02:25:06.823807 11441 net.cpp:157] Top shape: 8 512 19 19 (1478656)
I0307 02:25:06.823813 11441 net.cpp:165] Memory required for data: 2487754948
I0307 02:25:06.823817 11441 layer_factory.hpp:77] Creating layer conv5_3
I0307 02:25:06.823834 11441 net.cpp:100] Creating Layer conv5_3
I0307 02:25:06.823843 11441 net.cpp:434] conv5_3 <- conv5_2
I0307 02:25:06.823854 11441 net.cpp:408] conv5_3 -> conv5_3
I0307 02:25:06.836961 11441 net.cpp:150] Setting up conv5_3
I0307 02:25:06.836987 11441 net.cpp:157] Top shape: 8 512 19 19 (1478656)
I0307 02:25:06.836990 11441 net.cpp:165] Memory required for data: 2493669572
I0307 02:25:06.837003 11441 layer_factory.hpp:77] Creating layer relu5_3
I0307 02:25:06.837014 11441 net.cpp:100] Creating Layer relu5_3
I0307 02:25:06.837023 11441 net.cpp:434] relu5_3 <- conv5_3
I0307 02:25:06.837034 11441 net.cpp:395] relu5_3 -> conv5_3 (in-place)
I0307 02:25:06.837195 11441 net.cpp:150] Setting up relu5_3
I0307 02:25:06.837208 11441 net.cpp:157] Top shape: 8 512 19 19 (1478656)
I0307 02:25:06.837211 11441 net.cpp:165] Memory required for data: 2499584196
I0307 02:25:06.837216 11441 layer_factory.hpp:77] Creating layer pool5
I0307 02:25:06.837244 11441 net.cpp:100] Creating Layer pool5
I0307 02:25:06.837252 11441 net.cpp:434] pool5 <- conv5_3
I0307 02:25:06.837267 11441 net.cpp:408] pool5 -> pool5
I0307 02:25:06.837313 11441 net.cpp:150] Setting up pool5
I0307 02:25:06.837326 11441 net.cpp:157] Top shape: 8 512 19 19 (1478656)
I0307 02:25:06.837330 11441 net.cpp:165] Memory required for data: 2505498820
I0307 02:25:06.837337 11441 layer_factory.hpp:77] Creating layer fc6
I0307 02:25:06.837353 11441 net.cpp:100] Creating Layer fc6
I0307 02:25:06.837383 11441 net.cpp:434] fc6 <- pool5
I0307 02:25:06.837393 11441 net.cpp:408] fc6 -> fc6
I0307 02:25:06.861788 11441 net.cpp:150] Setting up fc6
I0307 02:25:06.861816 11441 net.cpp:157] Top shape: 8 1024 19 19 (2957312)
I0307 02:25:06.861822 11441 net.cpp:165] Memory required for data: 2517328068
I0307 02:25:06.861835 11441 layer_factory.hpp:77] Creating layer relu6
I0307 02:25:06.861848 11441 net.cpp:100] Creating Layer relu6
I0307 02:25:06.861858 11441 net.cpp:434] relu6 <- fc6
I0307 02:25:06.861872 11441 net.cpp:395] relu6 -> fc6 (in-place)
I0307 02:25:06.862566 11441 net.cpp:150] Setting up relu6
I0307 02:25:06.862584 11441 net.cpp:157] Top shape: 8 1024 19 19 (2957312)
I0307 02:25:06.862591 11441 net.cpp:165] Memory required for data: 2529157316
I0307 02:25:06.862599 11441 layer_factory.hpp:77] Creating layer fc7
I0307 02:25:06.862620 11441 net.cpp:100] Creating Layer fc7
I0307 02:25:06.862634 11441 net.cpp:434] fc7 <- fc6
I0307 02:25:06.862651 11441 net.cpp:408] fc7 -> fc7_t
I0307 02:25:06.869669 11441 net.cpp:150] Setting up fc7
I0307 02:25:06.869684 11441 net.cpp:157] Top shape: 8 1024 19 19 (2957312)
I0307 02:25:06.869690 11441 net.cpp:165] Memory required for data: 2540986564
I0307 02:25:06.869701 11441 layer_factory.hpp:77] Creating layer relu7
I0307 02:25:06.869710 11441 net.cpp:100] Creating Layer relu7
I0307 02:25:06.869716 11441 net.cpp:434] relu7 <- fc7_t
I0307 02:25:06.869730 11441 net.cpp:395] relu7 -> fc7_t (in-place)
I0307 02:25:06.869897 11441 net.cpp:150] Setting up relu7
I0307 02:25:06.869911 11441 net.cpp:157] Top shape: 8 1024 19 19 (2957312)
I0307 02:25:06.869918 11441 net.cpp:165] Memory required for data: 2552815812
I0307 02:25:06.869925 11441 layer_factory.hpp:77] Creating layer fc7_t_relu7_0_split
I0307 02:25:06.869936 11441 net.cpp:100] Creating Layer fc7_t_relu7_0_split
I0307 02:25:06.869952 11441 net.cpp:434] fc7_t_relu7_0_split <- fc7_t
I0307 02:25:06.869966 11441 net.cpp:408] fc7_t_relu7_0_split -> fc7_t_relu7_0_split_0
I0307 02:25:06.869990 11441 net.cpp:408] fc7_t_relu7_0_split -> fc7_t_relu7_0_split_1
I0307 02:25:06.870035 11441 net.cpp:150] Setting up fc7_t_relu7_0_split
I0307 02:25:06.870044 11441 net.cpp:157] Top shape: 8 1024 19 19 (2957312)
I0307 02:25:06.870057 11441 net.cpp:157] Top shape: 8 1024 19 19 (2957312)
I0307 02:25:06.870062 11441 net.cpp:165] Memory required for data: 2576474308
I0307 02:25:06.870076 11441 layer_factory.hpp:77] Creating layer fc7_s
I0307 02:25:06.870095 11441 net.cpp:100] Creating Layer fc7_s
I0307 02:25:06.870105 11441 net.cpp:434] fc7_s <- fc7_t_relu7_0_split_0
I0307 02:25:06.870121 11441 net.cpp:408] fc7_s -> fc7_s
I0307 02:25:06.870296 11441 net.cpp:150] Setting up fc7_s
I0307 02:25:06.870309 11441 net.cpp:157] Top shape: 8 1024 1 1 (8192)
I0307 02:25:06.870314 11441 net.cpp:165] Memory required for data: 2576507076
I0307 02:25:06.870321 11441 layer_factory.hpp:77] Creating layer fc7_fc1
I0307 02:25:06.870359 11441 net.cpp:100] Creating Layer fc7_fc1
I0307 02:25:06.870373 11441 net.cpp:434] fc7_fc1 <- fc7_s
I0307 02:25:06.870388 11441 net.cpp:408] fc7_fc1 -> fc7_fc1
I0307 02:25:06.872470 11441 net.cpp:150] Setting up fc7_fc1
I0307 02:25:06.872488 11441 net.cpp:157] Top shape: 8 256 1 1 (2048)
I0307 02:25:06.872494 11441 net.cpp:165] Memory required for data: 2576515268
I0307 02:25:06.872503 11441 layer_factory.hpp:77] Creating layer fc7_relu
I0307 02:25:06.872519 11441 net.cpp:100] Creating Layer fc7_relu
I0307 02:25:06.872527 11441 net.cpp:434] fc7_relu <- fc7_fc1
I0307 02:25:06.872539 11441 net.cpp:395] fc7_relu -> fc7_fc1 (in-place)
I0307 02:25:06.873044 11441 net.cpp:150] Setting up fc7_relu
I0307 02:25:06.873057 11441 net.cpp:157] Top shape: 8 256 1 1 (2048)
I0307 02:25:06.873062 11441 net.cpp:165] Memory required for data: 2576523460
I0307 02:25:06.873069 11441 layer_factory.hpp:77] Creating layer fc7_fc2
I0307 02:25:06.873086 11441 net.cpp:100] Creating Layer fc7_fc2
I0307 02:25:06.873093 11441 net.cpp:434] fc7_fc2 <- fc7_fc1
I0307 02:25:06.873108 11441 net.cpp:408] fc7_fc2 -> fc7_fc2
I0307 02:25:06.875963 11441 net.cpp:150] Setting up fc7_fc2
I0307 02:25:06.875996 11441 net.cpp:157] Top shape: 8 1024 1 1 (8192)
I0307 02:25:06.876001 11441 net.cpp:165] Memory required for data: 2576556228
I0307 02:25:06.876011 11441 layer_factory.hpp:77] Creating layer fc7_sig
I0307 02:25:06.876024 11441 net.cpp:100] Creating Layer fc7_sig
I0307 02:25:06.876032 11441 net.cpp:434] fc7_sig <- fc7_fc2
I0307 02:25:06.876042 11441 net.cpp:395] fc7_sig -> fc7_fc2 (in-place)
I0307 02:25:06.876211 11441 net.cpp:150] Setting up fc7_sig
I0307 02:25:06.876225 11441 net.cpp:157] Top shape: 8 1024 1 1 (8192)
I0307 02:25:06.876233 11441 net.cpp:165] Memory required for data: 2576588996
I0307 02:25:06.876238 11441 layer_factory.hpp:77] Creating layer fc7_reshape
I0307 02:25:06.876250 11441 net.cpp:100] Creating Layer fc7_reshape
I0307 02:25:06.876266 11441 net.cpp:434] fc7_reshape <- fc7_fc2
I0307 02:25:06.876281 11441 net.cpp:408] fc7_reshape -> fc7_reshape
I0307 02:25:06.876328 11441 net.cpp:150] Setting up fc7_reshape
I0307 02:25:06.876344 11441 net.cpp:157] Top shape: 8 1024 (8192)
I0307 02:25:06.876351 11441 net.cpp:165] Memory required for data: 2576621764
I0307 02:25:06.876356 11441 layer_factory.hpp:77] Creating layer fc7_scale
I0307 02:25:06.876371 11441 net.cpp:100] Creating Layer fc7_scale
I0307 02:25:06.876382 11441 net.cpp:434] fc7_scale <- fc7_t_relu7_0_split_1
I0307 02:25:06.876400 11441 net.cpp:434] fc7_scale <- fc7_reshape
I0307 02:25:06.876416 11441 net.cpp:408] fc7_scale -> fc7
I0307 02:25:06.876490 11441 net.cpp:150] Setting up fc7_scale
I0307 02:25:06.876504 11441 net.cpp:157] Top shape: 8 1024 19 19 (2957312)
I0307 02:25:06.876513 11441 net.cpp:165] Memory required for data: 2588451012
I0307 02:25:06.876523 11441 layer_factory.hpp:77] Creating layer fc7_fc7_scale_0_split
I0307 02:25:06.876540 11441 net.cpp:100] Creating Layer fc7_fc7_scale_0_split
I0307 02:25:06.876549 11441 net.cpp:434] fc7_fc7_scale_0_split <- fc7
I0307 02:25:06.876566 11441 net.cpp:408] fc7_fc7_scale_0_split -> fc7_fc7_scale_0_split_0
I0307 02:25:06.876582 11441 net.cpp:408] fc7_fc7_scale_0_split -> fc7_fc7_scale_0_split_1
I0307 02:25:06.876595 11441 net.cpp:408] fc7_fc7_scale_0_split -> fc7_fc7_scale_0_split_2
I0307 02:25:06.876610 11441 net.cpp:408] fc7_fc7_scale_0_split -> fc7_fc7_scale_0_split_3
I0307 02:25:06.876687 11441 net.cpp:150] Setting up fc7_fc7_scale_0_split
I0307 02:25:06.876699 11441 net.cpp:157] Top shape: 8 1024 19 19 (2957312)
I0307 02:25:06.876709 11441 net.cpp:157] Top shape: 8 1024 19 19 (2957312)
I0307 02:25:06.876719 11441 net.cpp:157] Top shape: 8 1024 19 19 (2957312)
I0307 02:25:06.876739 11441 net.cpp:157] Top shape: 8 1024 19 19 (2957312)
I0307 02:25:06.876745 11441 net.cpp:165] Memory required for data: 2635768004
I0307 02:25:06.876760 11441 layer_factory.hpp:77] Creating layer conv6_1
I0307 02:25:06.876783 11441 net.cpp:100] Creating Layer conv6_1
I0307 02:25:06.876796 11441 net.cpp:434] conv6_1 <- fc7_fc7_scale_0_split_0
I0307 02:25:06.876809 11441 net.cpp:408] conv6_1 -> conv6_1
I0307 02:25:06.878895 11441 net.cpp:150] Setting up conv6_1
I0307 02:25:06.878911 11441 net.cpp:157] Top shape: 8 256 19 19 (739328)
I0307 02:25:06.878917 11441 net.cpp:165] Memory required for data: 2638725316
I0307 02:25:06.878926 11441 layer_factory.hpp:77] Creating layer conv6_1_relu
I0307 02:25:06.878939 11441 net.cpp:100] Creating Layer conv6_1_relu
I0307 02:25:06.878947 11441 net.cpp:434] conv6_1_relu <- conv6_1
I0307 02:25:06.878958 11441 net.cpp:395] conv6_1_relu -> conv6_1 (in-place)
I0307 02:25:06.879125 11441 net.cpp:150] Setting up conv6_1_relu
I0307 02:25:06.879138 11441 net.cpp:157] Top shape: 8 256 19 19 (739328)
I0307 02:25:06.879144 11441 net.cpp:165] Memory required for data: 2641682628
I0307 02:25:06.879151 11441 layer_factory.hpp:77] Creating layer conv6_2
I0307 02:25:06.879168 11441 net.cpp:100] Creating Layer conv6_2
I0307 02:25:06.879179 11441 net.cpp:434] conv6_2 <- conv6_1
I0307 02:25:06.879190 11441 net.cpp:408] conv6_2 -> conv6_2_t
I0307 02:25:06.886523 11441 net.cpp:150] Setting up conv6_2
I0307 02:25:06.886538 11441 net.cpp:157] Top shape: 8 512 10 10 (409600)
I0307 02:25:06.886564 11441 net.cpp:165] Memory required for data: 2643321028
I0307 02:25:06.886574 11441 layer_factory.hpp:77] Creating layer conv6_2_relu
I0307 02:25:06.886591 11441 net.cpp:100] Creating Layer conv6_2_relu
I0307 02:25:06.886600 11441 net.cpp:434] conv6_2_relu <- conv6_2_t
I0307 02:25:06.886608 11441 net.cpp:395] conv6_2_relu -> conv6_2_t (in-place)
I0307 02:25:06.886788 11441 net.cpp:150] Setting up conv6_2_relu
I0307 02:25:06.886802 11441 net.cpp:157] Top shape: 8 512 10 10 (409600)
I0307 02:25:06.886808 11441 net.cpp:165] Memory required for data: 2644959428
I0307 02:25:06.886814 11441 layer_factory.hpp:77] Creating layer conv6_2_t_conv6_2_relu_0_split
I0307 02:25:06.886823 11441 net.cpp:100] Creating Layer conv6_2_t_conv6_2_relu_0_split
I0307 02:25:06.886838 11441 net.cpp:434] conv6_2_t_conv6_2_relu_0_split <- conv6_2_t
I0307 02:25:06.886855 11441 net.cpp:408] conv6_2_t_conv6_2_relu_0_split -> conv6_2_t_conv6_2_relu_0_split_0
I0307 02:25:06.886878 11441 net.cpp:408] conv6_2_t_conv6_2_relu_0_split -> conv6_2_t_conv6_2_relu_0_split_1
I0307 02:25:06.886926 11441 net.cpp:150] Setting up conv6_2_t_conv6_2_relu_0_split
I0307 02:25:06.886939 11441 net.cpp:157] Top shape: 8 512 10 10 (409600)
I0307 02:25:06.886948 11441 net.cpp:157] Top shape: 8 512 10 10 (409600)
I0307 02:25:06.886956 11441 net.cpp:165] Memory required for data: 2648236228
I0307 02:25:06.886968 11441 layer_factory.hpp:77] Creating layer conv6_2_s
I0307 02:25:06.886991 11441 net.cpp:100] Creating Layer conv6_2_s
I0307 02:25:06.887003 11441 net.cpp:434] conv6_2_s <- conv6_2_t_conv6_2_relu_0_split_0
I0307 02:25:06.887018 11441 net.cpp:408] conv6_2_s -> conv6_2_s
I0307 02:25:06.887552 11441 net.cpp:150] Setting up conv6_2_s
I0307 02:25:06.887567 11441 net.cpp:157] Top shape: 8 512 1 1 (4096)
I0307 02:25:06.887573 11441 net.cpp:165] Memory required for data: 2648252612
I0307 02:25:06.887581 11441 layer_factory.hpp:77] Creating layer conv6_2_fc1
I0307 02:25:06.887598 11441 net.cpp:100] Creating Layer conv6_2_fc1
I0307 02:25:06.887609 11441 net.cpp:434] conv6_2_fc1 <- conv6_2_s
I0307 02:25:06.887625 11441 net.cpp:408] conv6_2_fc1 -> conv6_2_fc1
I0307 02:25:06.888928 11441 net.cpp:150] Setting up conv6_2_fc1
I0307 02:25:06.888944 11441 net.cpp:157] Top shape: 8 128 1 1 (1024)
I0307 02:25:06.888952 11441 net.cpp:165] Memory required for data: 2648256708
I0307 02:25:06.888962 11441 layer_factory.hpp:77] Creating layer conv6_2_relu
I0307 02:25:06.888976 11441 net.cpp:100] Creating Layer conv6_2_relu
I0307 02:25:06.888986 11441 net.cpp:434] conv6_2_relu <- conv6_2_fc1
I0307 02:25:06.889004 11441 net.cpp:395] conv6_2_relu -> conv6_2_fc1 (in-place)
I0307 02:25:06.889176 11441 net.cpp:150] Setting up conv6_2_relu
I0307 02:25:06.889191 11441 net.cpp:157] Top shape: 8 128 1 1 (1024)
I0307 02:25:06.889197 11441 net.cpp:165] Memory required for data: 2648260804
I0307 02:25:06.889209 11441 layer_factory.hpp:77] Creating layer conv6_2_fc2
I0307 02:25:06.889226 11441 net.cpp:100] Creating Layer conv6_2_fc2
I0307 02:25:06.889240 11441 net.cpp:434] conv6_2_fc2 <- conv6_2_fc1
I0307 02:25:06.889256 11441 net.cpp:408] conv6_2_fc2 -> conv6_2_fc2
I0307 02:25:06.890601 11441 net.cpp:150] Setting up conv6_2_fc2
I0307 02:25:06.890616 11441 net.cpp:157] Top shape: 8 512 1 1 (4096)
I0307 02:25:06.890622 11441 net.cpp:165] Memory required for data: 2648277188
I0307 02:25:06.890632 11441 layer_factory.hpp:77] Creating layer conv6_2_sig
I0307 02:25:06.890648 11441 net.cpp:100] Creating Layer conv6_2_sig
I0307 02:25:06.890661 11441 net.cpp:434] conv6_2_sig <- conv6_2_fc2
I0307 02:25:06.890669 11441 net.cpp:395] conv6_2_sig -> conv6_2_fc2 (in-place)
I0307 02:25:06.890841 11441 net.cpp:150] Setting up conv6_2_sig
I0307 02:25:06.890858 11441 net.cpp:157] Top shape: 8 512 1 1 (4096)
I0307 02:25:06.890866 11441 net.cpp:165] Memory required for data: 2648293572
I0307 02:25:06.890872 11441 layer_factory.hpp:77] Creating layer conv6_2_reshape
I0307 02:25:06.890883 11441 net.cpp:100] Creating Layer conv6_2_reshape
I0307 02:25:06.890895 11441 net.cpp:434] conv6_2_reshape <- conv6_2_fc2
I0307 02:25:06.890926 11441 net.cpp:408] conv6_2_reshape -> conv6_2_reshape
I0307 02:25:06.890969 11441 net.cpp:150] Setting up conv6_2_reshape
I0307 02:25:06.890980 11441 net.cpp:157] Top shape: 8 512 (4096)
I0307 02:25:06.890988 11441 net.cpp:165] Memory required for data: 2648309956
I0307 02:25:06.890997 11441 layer_factory.hpp:77] Creating layer conv6_2_scale
I0307 02:25:06.891016 11441 net.cpp:100] Creating Layer conv6_2_scale
I0307 02:25:06.891026 11441 net.cpp:434] conv6_2_scale <- conv6_2_t_conv6_2_relu_0_split_1
I0307 02:25:06.891037 11441 net.cpp:434] conv6_2_scale <- conv6_2_reshape
I0307 02:25:06.891052 11441 net.cpp:408] conv6_2_scale -> conv6_2
I0307 02:25:06.891131 11441 net.cpp:150] Setting up conv6_2_scale
I0307 02:25:06.891147 11441 net.cpp:157] Top shape: 8 512 10 10 (409600)
I0307 02:25:06.891157 11441 net.cpp:165] Memory required for data: 2649948356
I0307 02:25:06.891162 11441 layer_factory.hpp:77] Creating layer conv6_2_conv6_2_scale_0_split
I0307 02:25:06.891172 11441 net.cpp:100] Creating Layer conv6_2_conv6_2_scale_0_split
I0307 02:25:06.891185 11441 net.cpp:434] conv6_2_conv6_2_scale_0_split <- conv6_2
I0307 02:25:06.891197 11441 net.cpp:408] conv6_2_conv6_2_scale_0_split -> conv6_2_conv6_2_scale_0_split_0
I0307 02:25:06.891212 11441 net.cpp:408] conv6_2_conv6_2_scale_0_split -> conv6_2_conv6_2_scale_0_split_1
I0307 02:25:06.891225 11441 net.cpp:408] conv6_2_conv6_2_scale_0_split -> conv6_2_conv6_2_scale_0_split_2
I0307 02:25:06.891243 11441 net.cpp:408] conv6_2_conv6_2_scale_0_split -> conv6_2_conv6_2_scale_0_split_3
I0307 02:25:06.891309 11441 net.cpp:150] Setting up conv6_2_conv6_2_scale_0_split
I0307 02:25:06.891322 11441 net.cpp:157] Top shape: 8 512 10 10 (409600)
I0307 02:25:06.891335 11441 net.cpp:157] Top shape: 8 512 10 10 (409600)
I0307 02:25:06.891343 11441 net.cpp:157] Top shape: 8 512 10 10 (409600)
I0307 02:25:06.891358 11441 net.cpp:157] Top shape: 8 512 10 10 (409600)
I0307 02:25:06.891371 11441 net.cpp:165] Memory required for data: 2656501956
I0307 02:25:06.891381 11441 layer_factory.hpp:77] Creating layer conv7_1
I0307 02:25:06.891407 11441 net.cpp:100] Creating Layer conv7_1
I0307 02:25:06.891414 11441 net.cpp:434] conv7_1 <- conv6_2_conv6_2_scale_0_split_0
I0307 02:25:06.891434 11441 net.cpp:408] conv7_1 -> conv7_1
I0307 02:25:06.892724 11441 net.cpp:150] Setting up conv7_1
I0307 02:25:06.892740 11441 net.cpp:157] Top shape: 8 128 10 10 (102400)
I0307 02:25:06.892745 11441 net.cpp:165] Memory required for data: 2656911556
I0307 02:25:06.892755 11441 layer_factory.hpp:77] Creating layer conv7_1_relu
I0307 02:25:06.892766 11441 net.cpp:100] Creating Layer conv7_1_relu
I0307 02:25:06.892777 11441 net.cpp:434] conv7_1_relu <- conv7_1
I0307 02:25:06.892796 11441 net.cpp:395] conv7_1_relu -> conv7_1 (in-place)
I0307 02:25:06.893306 11441 net.cpp:150] Setting up conv7_1_relu
I0307 02:25:06.893319 11441 net.cpp:157] Top shape: 8 128 10 10 (102400)
I0307 02:25:06.893324 11441 net.cpp:165] Memory required for data: 2657321156
I0307 02:25:06.893332 11441 layer_factory.hpp:77] Creating layer conv7_2
I0307 02:25:06.893352 11441 net.cpp:100] Creating Layer conv7_2
I0307 02:25:06.893364 11441 net.cpp:434] conv7_2 <- conv7_1
I0307 02:25:06.893379 11441 net.cpp:408] conv7_2 -> conv7_2_t
I0307 02:25:06.896391 11441 net.cpp:150] Setting up conv7_2
I0307 02:25:06.896406 11441 net.cpp:157] Top shape: 8 256 5 5 (51200)
I0307 02:25:06.896411 11441 net.cpp:165] Memory required for data: 2657525956
I0307 02:25:06.896422 11441 layer_factory.hpp:77] Creating layer conv7_2_relu
I0307 02:25:06.896432 11441 net.cpp:100] Creating Layer conv7_2_relu
I0307 02:25:06.896446 11441 net.cpp:434] conv7_2_relu <- conv7_2_t
I0307 02:25:06.896462 11441 net.cpp:395] conv7_2_relu -> conv7_2_t (in-place)
I0307 02:25:06.896628 11441 net.cpp:150] Setting up conv7_2_relu
I0307 02:25:06.896642 11441 net.cpp:157] Top shape: 8 256 5 5 (51200)
I0307 02:25:06.896648 11441 net.cpp:165] Memory required for data: 2657730756
I0307 02:25:06.896656 11441 layer_factory.hpp:77] Creating layer conv7_2_t_conv7_2_relu_0_split
I0307 02:25:06.896678 11441 net.cpp:100] Creating Layer conv7_2_t_conv7_2_relu_0_split
I0307 02:25:06.896687 11441 net.cpp:434] conv7_2_t_conv7_2_relu_0_split <- conv7_2_t
I0307 02:25:06.896699 11441 net.cpp:408] conv7_2_t_conv7_2_relu_0_split -> conv7_2_t_conv7_2_relu_0_split_0
I0307 02:25:06.896720 11441 net.cpp:408] conv7_2_t_conv7_2_relu_0_split -> conv7_2_t_conv7_2_relu_0_split_1
I0307 02:25:06.896775 11441 net.cpp:150] Setting up conv7_2_t_conv7_2_relu_0_split
I0307 02:25:06.896788 11441 net.cpp:157] Top shape: 8 256 5 5 (51200)
I0307 02:25:06.896800 11441 net.cpp:157] Top shape: 8 256 5 5 (51200)
I0307 02:25:06.896807 11441 net.cpp:165] Memory required for data: 2658140356
I0307 02:25:06.896818 11441 layer_factory.hpp:77] Creating layer conv7_2_s
I0307 02:25:06.896836 11441 net.cpp:100] Creating Layer conv7_2_s
I0307 02:25:06.896848 11441 net.cpp:434] conv7_2_s <- conv7_2_t_conv7_2_relu_0_split_0
I0307 02:25:06.896862 11441 net.cpp:408] conv7_2_s -> conv7_2_s
I0307 02:25:06.897050 11441 net.cpp:150] Setting up conv7_2_s
I0307 02:25:06.897063 11441 net.cpp:157] Top shape: 8 256 1 1 (2048)
I0307 02:25:06.897069 11441 net.cpp:165] Memory required for data: 2658148548
I0307 02:25:06.897075 11441 layer_factory.hpp:77] Creating layer conv7_2_fc1
I0307 02:25:06.897094 11441 net.cpp:100] Creating Layer conv7_2_fc1
I0307 02:25:06.897106 11441 net.cpp:434] conv7_2_fc1 <- conv7_2_s
I0307 02:25:06.897121 11441 net.cpp:408] conv7_2_fc1 -> conv7_2_fc1
I0307 02:25:06.898247 11441 net.cpp:150] Setting up conv7_2_fc1
I0307 02:25:06.898262 11441 net.cpp:157] Top shape: 8 64 1 1 (512)
I0307 02:25:06.898267 11441 net.cpp:165] Memory required for data: 2658150596
I0307 02:25:06.898291 11441 layer_factory.hpp:77] Creating layer conv7_2_relu
I0307 02:25:06.898303 11441 net.cpp:100] Creating Layer conv7_2_relu
I0307 02:25:06.898313 11441 net.cpp:434] conv7_2_relu <- conv7_2_fc1
I0307 02:25:06.898353 11441 net.cpp:395] conv7_2_relu -> conv7_2_fc1 (in-place)
I0307 02:25:06.898870 11441 net.cpp:150] Setting up conv7_2_relu
I0307 02:25:06.898883 11441 net.cpp:157] Top shape: 8 64 1 1 (512)
I0307 02:25:06.898891 11441 net.cpp:165] Memory required for data: 2658152644
I0307 02:25:06.898900 11441 layer_factory.hpp:77] Creating layer conv7_2_fc2
I0307 02:25:06.898913 11441 net.cpp:100] Creating Layer conv7_2_fc2
I0307 02:25:06.898926 11441 net.cpp:434] conv7_2_fc2 <- conv7_2_fc1
I0307 02:25:06.898938 11441 net.cpp:408] conv7_2_fc2 -> conv7_2_fc2
I0307 02:25:06.901193 11441 net.cpp:150] Setting up conv7_2_fc2
I0307 02:25:06.901209 11441 net.cpp:157] Top shape: 8 256 1 1 (2048)
I0307 02:25:06.901216 11441 net.cpp:165] Memory required for data: 2658160836
I0307 02:25:06.901223 11441 layer_factory.hpp:77] Creating layer conv7_2_sig
I0307 02:25:06.901238 11441 net.cpp:100] Creating Layer conv7_2_sig
I0307 02:25:06.901249 11441 net.cpp:434] conv7_2_sig <- conv7_2_fc2
I0307 02:25:06.901264 11441 net.cpp:395] conv7_2_sig -> conv7_2_fc2 (in-place)
I0307 02:25:06.901435 11441 net.cpp:150] Setting up conv7_2_sig
I0307 02:25:06.901453 11441 net.cpp:157] Top shape: 8 256 1 1 (2048)
I0307 02:25:06.901459 11441 net.cpp:165] Memory required for data: 2658169028
I0307 02:25:06.901464 11441 layer_factory.hpp:77] Creating layer conv7_2_reshape
I0307 02:25:06.901479 11441 net.cpp:100] Creating Layer conv7_2_reshape
I0307 02:25:06.901492 11441 net.cpp:434] conv7_2_reshape <- conv7_2_fc2
I0307 02:25:06.901501 11441 net.cpp:408] conv7_2_reshape -> conv7_2_reshape
I0307 02:25:06.901546 11441 net.cpp:150] Setting up conv7_2_reshape
I0307 02:25:06.901554 11441 net.cpp:157] Top shape: 8 256 (2048)
I0307 02:25:06.901566 11441 net.cpp:165] Memory required for data: 2658177220
I0307 02:25:06.901572 11441 layer_factory.hpp:77] Creating layer conv7_2_scale
I0307 02:25:06.901588 11441 net.cpp:100] Creating Layer conv7_2_scale
I0307 02:25:06.901600 11441 net.cpp:434] conv7_2_scale <- conv7_2_t_conv7_2_relu_0_split_1
I0307 02:25:06.901615 11441 net.cpp:434] conv7_2_scale <- conv7_2_reshape
I0307 02:25:06.901636 11441 net.cpp:408] conv7_2_scale -> conv7_2
I0307 02:25:06.901732 11441 net.cpp:150] Setting up conv7_2_scale
I0307 02:25:06.901747 11441 net.cpp:157] Top shape: 8 256 5 5 (51200)
I0307 02:25:06.901753 11441 net.cpp:165] Memory required for data: 2658382020
I0307 02:25:06.901759 11441 layer_factory.hpp:77] Creating layer conv7_2_conv7_2_scale_0_split
I0307 02:25:06.901772 11441 net.cpp:100] Creating Layer conv7_2_conv7_2_scale_0_split
I0307 02:25:06.901782 11441 net.cpp:434] conv7_2_conv7_2_scale_0_split <- conv7_2
I0307 02:25:06.901800 11441 net.cpp:408] conv7_2_conv7_2_scale_0_split -> conv7_2_conv7_2_scale_0_split_0
I0307 02:25:06.901821 11441 net.cpp:408] conv7_2_conv7_2_scale_0_split -> conv7_2_conv7_2_scale_0_split_1
I0307 02:25:06.901839 11441 net.cpp:408] conv7_2_conv7_2_scale_0_split -> conv7_2_conv7_2_scale_0_split_2
I0307 02:25:06.901855 11441 net.cpp:408] conv7_2_conv7_2_scale_0_split -> conv7_2_conv7_2_scale_0_split_3
I0307 02:25:06.901932 11441 net.cpp:150] Setting up conv7_2_conv7_2_scale_0_split
I0307 02:25:06.901947 11441 net.cpp:157] Top shape: 8 256 5 5 (51200)
I0307 02:25:06.901955 11441 net.cpp:157] Top shape: 8 256 5 5 (51200)
I0307 02:25:06.901960 11441 net.cpp:157] Top shape: 8 256 5 5 (51200)
I0307 02:25:06.901978 11441 net.cpp:157] Top shape: 8 256 5 5 (51200)
I0307 02:25:06.901985 11441 net.cpp:165] Memory required for data: 2659201220
I0307 02:25:06.901993 11441 layer_factory.hpp:77] Creating layer conv8_1
I0307 02:25:06.902011 11441 net.cpp:100] Creating Layer conv8_1
I0307 02:25:06.902034 11441 net.cpp:434] conv8_1 <- conv7_2_conv7_2_scale_0_split_0
I0307 02:25:06.902051 11441 net.cpp:408] conv8_1 -> conv8_1
I0307 02:25:06.903250 11441 net.cpp:150] Setting up conv8_1
I0307 02:25:06.903266 11441 net.cpp:157] Top shape: 8 128 5 5 (25600)
I0307 02:25:06.903272 11441 net.cpp:165] Memory required for data: 2659303620
I0307 02:25:06.903282 11441 layer_factory.hpp:77] Creating layer conv8_1_relu
I0307 02:25:06.903297 11441 net.cpp:100] Creating Layer conv8_1_relu
I0307 02:25:06.903304 11441 net.cpp:434] conv8_1_relu <- conv8_1
I0307 02:25:06.903316 11441 net.cpp:395] conv8_1_relu -> conv8_1 (in-place)
I0307 02:25:06.903486 11441 net.cpp:150] Setting up conv8_1_relu
I0307 02:25:06.903501 11441 net.cpp:157] Top shape: 8 128 5 5 (25600)
I0307 02:25:06.903506 11441 net.cpp:165] Memory required for data: 2659406020
I0307 02:25:06.903515 11441 layer_factory.hpp:77] Creating layer conv8_2
I0307 02:25:06.903533 11441 net.cpp:100] Creating Layer conv8_2
I0307 02:25:06.903545 11441 net.cpp:434] conv8_2 <- conv8_1
I0307 02:25:06.903558 11441 net.cpp:408] conv8_2 -> conv8_2_t
I0307 02:25:06.910693 11441 net.cpp:150] Setting up conv8_2
I0307 02:25:06.910709 11441 net.cpp:157] Top shape: 8 256 3 3 (18432)
I0307 02:25:06.910714 11441 net.cpp:165] Memory required for data: 2659479748
I0307 02:25:06.910727 11441 layer_factory.hpp:77] Creating layer conv8_2_relu
I0307 02:25:06.910743 11441 net.cpp:100] Creating Layer conv8_2_relu
I0307 02:25:06.910753 11441 net.cpp:434] conv8_2_relu <- conv8_2_t
I0307 02:25:06.910764 11441 net.cpp:395] conv8_2_relu -> conv8_2_t (in-place)
I0307 02:25:06.910941 11441 net.cpp:150] Setting up conv8_2_relu
I0307 02:25:06.910956 11441 net.cpp:157] Top shape: 8 256 3 3 (18432)
I0307 02:25:06.910962 11441 net.cpp:165] Memory required for data: 2659553476
I0307 02:25:06.910969 11441 layer_factory.hpp:77] Creating layer conv8_2_t_conv8_2_relu_0_split
I0307 02:25:06.910984 11441 net.cpp:100] Creating Layer conv8_2_t_conv8_2_relu_0_split
I0307 02:25:06.911000 11441 net.cpp:434] conv8_2_t_conv8_2_relu_0_split <- conv8_2_t
I0307 02:25:06.911012 11441 net.cpp:408] conv8_2_t_conv8_2_relu_0_split -> conv8_2_t_conv8_2_relu_0_split_0
I0307 02:25:06.911025 11441 net.cpp:408] conv8_2_t_conv8_2_relu_0_split -> conv8_2_t_conv8_2_relu_0_split_1
I0307 02:25:06.911073 11441 net.cpp:150] Setting up conv8_2_t_conv8_2_relu_0_split
I0307 02:25:06.911087 11441 net.cpp:157] Top shape: 8 256 3 3 (18432)
I0307 02:25:06.911095 11441 net.cpp:157] Top shape: 8 256 3 3 (18432)
I0307 02:25:06.911108 11441 net.cpp:165] Memory required for data: 2659700932
I0307 02:25:06.911121 11441 layer_factory.hpp:77] Creating layer conv8_2_s
I0307 02:25:06.911152 11441 net.cpp:100] Creating Layer conv8_2_s
I0307 02:25:06.911159 11441 net.cpp:434] conv8_2_s <- conv8_2_t_conv8_2_relu_0_split_0
I0307 02:25:06.911171 11441 net.cpp:408] conv8_2_s -> conv8_2_s
I0307 02:25:06.911696 11441 net.cpp:150] Setting up conv8_2_s
I0307 02:25:06.911710 11441 net.cpp:157] Top shape: 8 256 1 1 (2048)
I0307 02:25:06.911715 11441 net.cpp:165] Memory required for data: 2659709124
I0307 02:25:06.911721 11441 layer_factory.hpp:77] Creating layer conv8_2_fc1
I0307 02:25:06.911737 11441 net.cpp:100] Creating Layer conv8_2_fc1
I0307 02:25:06.911746 11441 net.cpp:434] conv8_2_fc1 <- conv8_2_s
I0307 02:25:06.911761 11441 net.cpp:408] conv8_2_fc1 -> conv8_2_fc1
I0307 02:25:06.912878 11441 net.cpp:150] Setting up conv8_2_fc1
I0307 02:25:06.912891 11441 net.cpp:157] Top shape: 8 64 1 1 (512)
I0307 02:25:06.912897 11441 net.cpp:165] Memory required for data: 2659711172
I0307 02:25:06.912909 11441 layer_factory.hpp:77] Creating layer conv8_2_relu
I0307 02:25:06.912921 11441 net.cpp:100] Creating Layer conv8_2_relu
I0307 02:25:06.912931 11441 net.cpp:434] conv8_2_relu <- conv8_2_fc1
I0307 02:25:06.912947 11441 net.cpp:395] conv8_2_relu -> conv8_2_fc1 (in-place)
I0307 02:25:06.913115 11441 net.cpp:150] Setting up conv8_2_relu
I0307 02:25:06.913128 11441 net.cpp:157] Top shape: 8 64 1 1 (512)
I0307 02:25:06.913136 11441 net.cpp:165] Memory required for data: 2659713220
I0307 02:25:06.913146 11441 layer_factory.hpp:77] Creating layer conv8_2_fc2
I0307 02:25:06.913163 11441 net.cpp:100] Creating Layer conv8_2_fc2
I0307 02:25:06.913172 11441 net.cpp:434] conv8_2_fc2 <- conv8_2_fc1
I0307 02:25:06.913184 11441 net.cpp:408] conv8_2_fc2 -> conv8_2_fc2
I0307 02:25:06.914305 11441 net.cpp:150] Setting up conv8_2_fc2
I0307 02:25:06.914320 11441 net.cpp:157] Top shape: 8 256 1 1 (2048)
I0307 02:25:06.914351 11441 net.cpp:165] Memory required for data: 2659721412
I0307 02:25:06.914361 11441 layer_factory.hpp:77] Creating layer conv8_2_sig
I0307 02:25:06.914373 11441 net.cpp:100] Creating Layer conv8_2_sig
I0307 02:25:06.914382 11441 net.cpp:434] conv8_2_sig <- conv8_2_fc2
I0307 02:25:06.914391 11441 net.cpp:395] conv8_2_sig -> conv8_2_fc2 (in-place)
I0307 02:25:06.914561 11441 net.cpp:150] Setting up conv8_2_sig
I0307 02:25:06.914577 11441 net.cpp:157] Top shape: 8 256 1 1 (2048)
I0307 02:25:06.914584 11441 net.cpp:165] Memory required for data: 2659729604
I0307 02:25:06.914592 11441 layer_factory.hpp:77] Creating layer conv8_2_reshape
I0307 02:25:06.914603 11441 net.cpp:100] Creating Layer conv8_2_reshape
I0307 02:25:06.914615 11441 net.cpp:434] conv8_2_reshape <- conv8_2_fc2
I0307 02:25:06.914633 11441 net.cpp:408] conv8_2_reshape -> conv8_2_reshape
I0307 02:25:06.914672 11441 net.cpp:150] Setting up conv8_2_reshape
I0307 02:25:06.914685 11441 net.cpp:157] Top shape: 8 256 (2048)
I0307 02:25:06.914690 11441 net.cpp:165] Memory required for data: 2659737796
I0307 02:25:06.914700 11441 layer_factory.hpp:77] Creating layer conv8_2_scale
I0307 02:25:06.914707 11441 net.cpp:100] Creating Layer conv8_2_scale
I0307 02:25:06.914714 11441 net.cpp:434] conv8_2_scale <- conv8_2_t_conv8_2_relu_0_split_1
I0307 02:25:06.914732 11441 net.cpp:434] conv8_2_scale <- conv8_2_reshape
I0307 02:25:06.914748 11441 net.cpp:408] conv8_2_scale -> conv8_2
I0307 02:25:06.914829 11441 net.cpp:150] Setting up conv8_2_scale
I0307 02:25:06.914840 11441 net.cpp:157] Top shape: 8 256 3 3 (18432)
I0307 02:25:06.914852 11441 net.cpp:165] Memory required for data: 2659811524
I0307 02:25:06.914860 11441 layer_factory.hpp:77] Creating layer conv8_2_conv8_2_scale_0_split
I0307 02:25:06.914882 11441 net.cpp:100] Creating Layer conv8_2_conv8_2_scale_0_split
I0307 02:25:06.914892 11441 net.cpp:434] conv8_2_conv8_2_scale_0_split <- conv8_2
I0307 02:25:06.914901 11441 net.cpp:408] conv8_2_conv8_2_scale_0_split -> conv8_2_conv8_2_scale_0_split_0
I0307 02:25:06.914919 11441 net.cpp:408] conv8_2_conv8_2_scale_0_split -> conv8_2_conv8_2_scale_0_split_1
I0307 02:25:06.914930 11441 net.cpp:408] conv8_2_conv8_2_scale_0_split -> conv8_2_conv8_2_scale_0_split_2
I0307 02:25:06.914958 11441 net.cpp:408] conv8_2_conv8_2_scale_0_split -> conv8_2_conv8_2_scale_0_split_3
I0307 02:25:06.915031 11441 net.cpp:150] Setting up conv8_2_conv8_2_scale_0_split
I0307 02:25:06.915043 11441 net.cpp:157] Top shape: 8 256 3 3 (18432)
I0307 02:25:06.915051 11441 net.cpp:157] Top shape: 8 256 3 3 (18432)
I0307 02:25:06.915060 11441 net.cpp:157] Top shape: 8 256 3 3 (18432)
I0307 02:25:06.915069 11441 net.cpp:157] Top shape: 8 256 3 3 (18432)
I0307 02:25:06.915077 11441 net.cpp:165] Memory required for data: 2660106436
I0307 02:25:06.915086 11441 layer_factory.hpp:77] Creating layer conv9_1
I0307 02:25:06.915102 11441 net.cpp:100] Creating Layer conv9_1
I0307 02:25:06.915115 11441 net.cpp:434] conv9_1 <- conv8_2_conv8_2_scale_0_split_0
I0307 02:25:06.915130 11441 net.cpp:408] conv9_1 -> conv9_1
I0307 02:25:06.916313 11441 net.cpp:150] Setting up conv9_1
I0307 02:25:06.916328 11441 net.cpp:157] Top shape: 8 128 3 3 (9216)
I0307 02:25:06.916334 11441 net.cpp:165] Memory required for data: 2660143300
I0307 02:25:06.916347 11441 layer_factory.hpp:77] Creating layer conv9_1_relu
I0307 02:25:06.916358 11441 net.cpp:100] Creating Layer conv9_1_relu
I0307 02:25:06.916368 11441 net.cpp:434] conv9_1_relu <- conv9_1
I0307 02:25:06.916384 11441 net.cpp:395] conv9_1_relu -> conv9_1 (in-place)
I0307 02:25:06.916893 11441 net.cpp:150] Setting up conv9_1_relu
I0307 02:25:06.916908 11441 net.cpp:157] Top shape: 8 128 3 3 (9216)
I0307 02:25:06.916913 11441 net.cpp:165] Memory required for data: 2660180164
I0307 02:25:06.916919 11441 layer_factory.hpp:77] Creating layer conv9_2
I0307 02:25:06.916937 11441 net.cpp:100] Creating Layer conv9_2
I0307 02:25:06.916945 11441 net.cpp:434] conv9_2 <- conv9_1
I0307 02:25:06.916960 11441 net.cpp:408] conv9_2 -> conv9_2_t
I0307 02:25:06.921494 11441 net.cpp:150] Setting up conv9_2
I0307 02:25:06.921511 11441 net.cpp:157] Top shape: 8 256 1 1 (2048)
I0307 02:25:06.921516 11441 net.cpp:165] Memory required for data: 2660188356
I0307 02:25:06.921526 11441 layer_factory.hpp:77] Creating layer conv9_2_relu
I0307 02:25:06.921541 11441 net.cpp:100] Creating Layer conv9_2_relu
I0307 02:25:06.921551 11441 net.cpp:434] conv9_2_relu <- conv9_2_t
I0307 02:25:06.921566 11441 net.cpp:395] conv9_2_relu -> conv9_2_t (in-place)
I0307 02:25:06.921747 11441 net.cpp:150] Setting up conv9_2_relu
I0307 02:25:06.921761 11441 net.cpp:157] Top shape: 8 256 1 1 (2048)
I0307 02:25:06.921768 11441 net.cpp:165] Memory required for data: 2660196548
I0307 02:25:06.921777 11441 layer_factory.hpp:77] Creating layer conv9_2_t_conv9_2_relu_0_split
I0307 02:25:06.921792 11441 net.cpp:100] Creating Layer conv9_2_t_conv9_2_relu_0_split
I0307 02:25:06.921805 11441 net.cpp:434] conv9_2_t_conv9_2_relu_0_split <- conv9_2_t
I0307 02:25:06.921819 11441 net.cpp:408] conv9_2_t_conv9_2_relu_0_split -> conv9_2_t_conv9_2_relu_0_split_0
I0307 02:25:06.921838 11441 net.cpp:408] conv9_2_t_conv9_2_relu_0_split -> conv9_2_t_conv9_2_relu_0_split_1
I0307 02:25:06.921890 11441 net.cpp:150] Setting up conv9_2_t_conv9_2_relu_0_split
I0307 02:25:06.921905 11441 net.cpp:157] Top shape: 8 256 1 1 (2048)
I0307 02:25:06.921914 11441 net.cpp:157] Top shape: 8 256 1 1 (2048)
I0307 02:25:06.921923 11441 net.cpp:165] Memory required for data: 2660212932
I0307 02:25:06.921933 11441 layer_factory.hpp:77] Creating layer conv9_2_s
I0307 02:25:06.921947 11441 net.cpp:100] Creating Layer conv9_2_s
I0307 02:25:06.921955 11441 net.cpp:434] conv9_2_s <- conv9_2_t_conv9_2_relu_0_split_0
I0307 02:25:06.921970 11441 net.cpp:408] conv9_2_s -> conv9_2_s
I0307 02:25:06.922163 11441 net.cpp:150] Setting up conv9_2_s
I0307 02:25:06.922178 11441 net.cpp:157] Top shape: 8 256 1 1 (2048)
I0307 02:25:06.922183 11441 net.cpp:165] Memory required for data: 2660221124
I0307 02:25:06.922190 11441 layer_factory.hpp:77] Creating layer conv9_2_fc1
I0307 02:25:06.922206 11441 net.cpp:100] Creating Layer conv9_2_fc1
I0307 02:25:06.922216 11441 net.cpp:434] conv9_2_fc1 <- conv9_2_s
I0307 02:25:06.922227 11441 net.cpp:408] conv9_2_fc1 -> conv9_2_fc1
I0307 02:25:06.923408 11441 net.cpp:150] Setting up conv9_2_fc1
I0307 02:25:06.923424 11441 net.cpp:157] Top shape: 8 64 1 1 (512)
I0307 02:25:06.923429 11441 net.cpp:165] Memory required for data: 2660223172
I0307 02:25:06.923440 11441 layer_factory.hpp:77] Creating layer conv9_2_relu
I0307 02:25:06.923454 11441 net.cpp:100] Creating Layer conv9_2_relu
I0307 02:25:06.923461 11441 net.cpp:434] conv9_2_relu <- conv9_2_fc1
I0307 02:25:06.923470 11441 net.cpp:395] conv9_2_relu -> conv9_2_fc1 (in-place)
I0307 02:25:06.923982 11441 net.cpp:150] Setting up conv9_2_relu
I0307 02:25:06.923995 11441 net.cpp:157] Top shape: 8 64 1 1 (512)
I0307 02:25:06.924001 11441 net.cpp:165] Memory required for data: 2660225220
I0307 02:25:06.924007 11441 layer_factory.hpp:77] Creating layer conv9_2_fc2
I0307 02:25:06.924024 11441 net.cpp:100] Creating Layer conv9_2_fc2
I0307 02:25:06.924034 11441 net.cpp:434] conv9_2_fc2 <- conv9_2_fc1
I0307 02:25:06.924046 11441 net.cpp:408] conv9_2_fc2 -> conv9_2_fc2
I0307 02:25:06.925174 11441 net.cpp:150] Setting up conv9_2_fc2
I0307 02:25:06.925189 11441 net.cpp:157] Top shape: 8 256 1 1 (2048)
I0307 02:25:06.925195 11441 net.cpp:165] Memory required for data: 2660233412
I0307 02:25:06.925205 11441 layer_factory.hpp:77] Creating layer conv9_2_sig
I0307 02:25:06.925220 11441 net.cpp:100] Creating Layer conv9_2_sig
I0307 02:25:06.925235 11441 net.cpp:434] conv9_2_sig <- conv9_2_fc2
I0307 02:25:06.925249 11441 net.cpp:395] conv9_2_sig -> conv9_2_fc2 (in-place)
I0307 02:25:06.925420 11441 net.cpp:150] Setting up conv9_2_sig
I0307 02:25:06.925436 11441 net.cpp:157] Top shape: 8 256 1 1 (2048)
I0307 02:25:06.925444 11441 net.cpp:165] Memory required for data: 2660241604
I0307 02:25:06.925452 11441 layer_factory.hpp:77] Creating layer conv9_2_reshape
I0307 02:25:06.925464 11441 net.cpp:100] Creating Layer conv9_2_reshape
I0307 02:25:06.925480 11441 net.cpp:434] conv9_2_reshape <- conv9_2_fc2
I0307 02:25:06.925494 11441 net.cpp:408] conv9_2_reshape -> conv9_2_reshape
I0307 02:25:06.925539 11441 net.cpp:150] Setting up conv9_2_reshape
I0307 02:25:06.925550 11441 net.cpp:157] Top shape: 8 256 (2048)
I0307 02:25:06.925557 11441 net.cpp:165] Memory required for data: 2660249796
I0307 02:25:06.925565 11441 layer_factory.hpp:77] Creating layer conv9_2_scale
I0307 02:25:06.925598 11441 net.cpp:100] Creating Layer conv9_2_scale
I0307 02:25:06.925607 11441 net.cpp:434] conv9_2_scale <- conv9_2_t_conv9_2_relu_0_split_1
I0307 02:25:06.925621 11441 net.cpp:434] conv9_2_scale <- conv9_2_reshape
I0307 02:25:06.925631 11441 net.cpp:408] conv9_2_scale -> conv9_2
I0307 02:25:06.925706 11441 net.cpp:150] Setting up conv9_2_scale
I0307 02:25:06.925721 11441 net.cpp:157] Top shape: 8 256 1 1 (2048)
I0307 02:25:06.925729 11441 net.cpp:165] Memory required for data: 2660257988
I0307 02:25:06.925742 11441 layer_factory.hpp:77] Creating layer conv9_2_conv9_2_scale_0_split
I0307 02:25:06.925758 11441 net.cpp:100] Creating Layer conv9_2_conv9_2_scale_0_split
I0307 02:25:06.925771 11441 net.cpp:434] conv9_2_conv9_2_scale_0_split <- conv9_2
I0307 02:25:06.925786 11441 net.cpp:408] conv9_2_conv9_2_scale_0_split -> conv9_2_conv9_2_scale_0_split_0
I0307 02:25:06.925803 11441 net.cpp:408] conv9_2_conv9_2_scale_0_split -> conv9_2_conv9_2_scale_0_split_1
I0307 02:25:06.925814 11441 net.cpp:408] conv9_2_conv9_2_scale_0_split -> conv9_2_conv9_2_scale_0_split_2
I0307 02:25:06.925879 11441 net.cpp:150] Setting up conv9_2_conv9_2_scale_0_split
I0307 02:25:06.925891 11441 net.cpp:157] Top shape: 8 256 1 1 (2048)
I0307 02:25:06.925902 11441 net.cpp:157] Top shape: 8 256 1 1 (2048)
I0307 02:25:06.925911 11441 net.cpp:157] Top shape: 8 256 1 1 (2048)
I0307 02:25:06.925925 11441 net.cpp:165] Memory required for data: 2660282564
I0307 02:25:06.925936 11441 layer_factory.hpp:77] Creating layer conv4_3_norm
I0307 02:25:06.925954 11441 net.cpp:100] Creating Layer conv4_3_norm
I0307 02:25:06.925962 11441 net.cpp:434] conv4_3_norm <- conv4_3_conv4_3_scale_0_split_1
I0307 02:25:06.925976 11441 net.cpp:408] conv4_3_norm -> conv4_3_norm
I0307 02:25:06.926157 11441 net.cpp:150] Setting up conv4_3_norm
I0307 02:25:06.926169 11441 net.cpp:157] Top shape: 8 512 38 38 (5914624)
I0307 02:25:06.926175 11441 net.cpp:165] Memory required for data: 2683941060
I0307 02:25:06.926182 11441 layer_factory.hpp:77] Creating layer conv4_3_norm_conv4_3_norm_0_split
I0307 02:25:06.926196 11441 net.cpp:100] Creating Layer conv4_3_norm_conv4_3_norm_0_split
I0307 02:25:06.926204 11441 net.cpp:434] conv4_3_norm_conv4_3_norm_0_split <- conv4_3_norm
I0307 02:25:06.926213 11441 net.cpp:408] conv4_3_norm_conv4_3_norm_0_split -> conv4_3_norm_conv4_3_norm_0_split_0
I0307 02:25:06.926234 11441 net.cpp:408] conv4_3_norm_conv4_3_norm_0_split -> conv4_3_norm_conv4_3_norm_0_split_1
I0307 02:25:06.926244 11441 net.cpp:408] conv4_3_norm_conv4_3_norm_0_split -> conv4_3_norm_conv4_3_norm_0_split_2
I0307 02:25:06.926301 11441 net.cpp:150] Setting up conv4_3_norm_conv4_3_norm_0_split
I0307 02:25:06.926312 11441 net.cpp:157] Top shape: 8 512 38 38 (5914624)
I0307 02:25:06.926353 11441 net.cpp:157] Top shape: 8 512 38 38 (5914624)
I0307 02:25:06.926362 11441 net.cpp:157] Top shape: 8 512 38 38 (5914624)
I0307 02:25:06.926368 11441 net.cpp:165] Memory required for data: 2754916548
I0307 02:25:06.926381 11441 layer_factory.hpp:77] Creating layer conv4_3_norm_mbox_loc
I0307 02:25:06.926399 11441 net.cpp:100] Creating Layer conv4_3_norm_mbox_loc
I0307 02:25:06.926412 11441 net.cpp:434] conv4_3_norm_mbox_loc <- conv4_3_norm_conv4_3_norm_0_split_0
I0307 02:25:06.926431 11441 net.cpp:408] conv4_3_norm_mbox_loc -> conv4_3_norm_mbox_loc
I0307 02:25:06.928136 11441 net.cpp:150] Setting up conv4_3_norm_mbox_loc
I0307 02:25:06.928153 11441 net.cpp:157] Top shape: 8 16 38 38 (184832)
I0307 02:25:06.928158 11441 net.cpp:165] Memory required for data: 2755655876
I0307 02:25:06.928170 11441 layer_factory.hpp:77] Creating layer conv4_3_norm_mbox_loc_perm
I0307 02:25:06.928185 11441 net.cpp:100] Creating Layer conv4_3_norm_mbox_loc_perm
I0307 02:25:06.928200 11441 net.cpp:434] conv4_3_norm_mbox_loc_perm <- conv4_3_norm_mbox_loc
I0307 02:25:06.928216 11441 net.cpp:408] conv4_3_norm_mbox_loc_perm -> conv4_3_norm_mbox_loc_perm
I0307 02:25:06.928339 11441 net.cpp:150] Setting up conv4_3_norm_mbox_loc_perm
I0307 02:25:06.928350 11441 net.cpp:157] Top shape: 8 38 38 16 (184832)
I0307 02:25:06.928355 11441 net.cpp:165] Memory required for data: 2756395204
I0307 02:25:06.928365 11441 layer_factory.hpp:77] Creating layer conv4_3_norm_mbox_loc_flat
I0307 02:25:06.928376 11441 net.cpp:100] Creating Layer conv4_3_norm_mbox_loc_flat
I0307 02:25:06.928386 11441 net.cpp:434] conv4_3_norm_mbox_loc_flat <- conv4_3_norm_mbox_loc_perm
I0307 02:25:06.928405 11441 net.cpp:408] conv4_3_norm_mbox_loc_flat -> conv4_3_norm_mbox_loc_flat
I0307 02:25:06.928447 11441 net.cpp:150] Setting up conv4_3_norm_mbox_loc_flat
I0307 02:25:06.928457 11441 net.cpp:157] Top shape: 8 23104 (184832)
I0307 02:25:06.928467 11441 net.cpp:165] Memory required for data: 2757134532
I0307 02:25:06.928474 11441 layer_factory.hpp:77] Creating layer conv4_3_norm_mbox_conf
I0307 02:25:06.928503 11441 net.cpp:100] Creating Layer conv4_3_norm_mbox_conf
I0307 02:25:06.928513 11441 net.cpp:434] conv4_3_norm_mbox_conf <- conv4_3_norm_conv4_3_norm_0_split_1
I0307 02:25:06.928530 11441 net.cpp:408] conv4_3_norm_mbox_conf -> conv4_3_norm_mbox_conf
I0307 02:25:06.937961 11441 net.cpp:150] Setting up conv4_3_norm_mbox_conf
I0307 02:25:06.937978 11441 net.cpp:157] Top shape: 8 84 38 38 (970368)
I0307 02:25:06.937983 11441 net.cpp:165] Memory required for data: 2761016004
I0307 02:25:06.937993 11441 layer_factory.hpp:77] Creating layer conv4_3_norm_mbox_conf_perm
I0307 02:25:06.938006 11441 net.cpp:100] Creating Layer conv4_3_norm_mbox_conf_perm
I0307 02:25:06.938017 11441 net.cpp:434] conv4_3_norm_mbox_conf_perm <- conv4_3_norm_mbox_conf
I0307 02:25:06.938026 11441 net.cpp:408] conv4_3_norm_mbox_conf_perm -> conv4_3_norm_mbox_conf_perm
I0307 02:25:06.938143 11441 net.cpp:150] Setting up conv4_3_norm_mbox_conf_perm
I0307 02:25:06.938160 11441 net.cpp:157] Top shape: 8 38 38 84 (970368)
I0307 02:25:06.938185 11441 net.cpp:165] Memory required for data: 2764897476
I0307 02:25:06.938199 11441 layer_factory.hpp:77] Creating layer conv4_3_norm_mbox_conf_flat
I0307 02:25:06.938210 11441 net.cpp:100] Creating Layer conv4_3_norm_mbox_conf_flat
I0307 02:25:06.938221 11441 net.cpp:434] conv4_3_norm_mbox_conf_flat <- conv4_3_norm_mbox_conf_perm
I0307 02:25:06.938235 11441 net.cpp:408] conv4_3_norm_mbox_conf_flat -> conv4_3_norm_mbox_conf_flat
I0307 02:25:06.938287 11441 net.cpp:150] Setting up conv4_3_norm_mbox_conf_flat
I0307 02:25:06.938302 11441 net.cpp:157] Top shape: 8 121296 (970368)
I0307 02:25:06.938307 11441 net.cpp:165] Memory required for data: 2768778948
I0307 02:25:06.938314 11441 layer_factory.hpp:77] Creating layer conv4_3_norm_mbox_priorbox
I0307 02:25:06.938359 11441 net.cpp:100] Creating Layer conv4_3_norm_mbox_priorbox
I0307 02:25:06.938367 11441 net.cpp:434] conv4_3_norm_mbox_priorbox <- conv4_3_norm_conv4_3_norm_0_split_2
I0307 02:25:06.938380 11441 net.cpp:434] conv4_3_norm_mbox_priorbox <- data_data_0_split_1
I0307 02:25:06.938396 11441 net.cpp:408] conv4_3_norm_mbox_priorbox -> conv4_3_norm_mbox_priorbox
I0307 02:25:06.938442 11441 net.cpp:150] Setting up conv4_3_norm_mbox_priorbox
I0307 02:25:06.938455 11441 net.cpp:157] Top shape: 1 2 23104 (46208)
I0307 02:25:06.938462 11441 net.cpp:165] Memory required for data: 2768963780
I0307 02:25:06.938472 11441 layer_factory.hpp:77] Creating layer fc7_mbox_loc
I0307 02:25:06.938493 11441 net.cpp:100] Creating Layer fc7_mbox_loc
I0307 02:25:06.938509 11441 net.cpp:434] fc7_mbox_loc <- fc7_fc7_scale_0_split_1
I0307 02:25:06.938526 11441 net.cpp:408] fc7_mbox_loc -> fc7_mbox_loc
I0307 02:25:06.940840 11441 net.cpp:150] Setting up fc7_mbox_loc
I0307 02:25:06.940853 11441 net.cpp:157] Top shape: 8 24 19 19 (69312)
I0307 02:25:06.940860 11441 net.cpp:165] Memory required for data: 2769241028
I0307 02:25:06.940872 11441 layer_factory.hpp:77] Creating layer fc7_mbox_loc_perm
I0307 02:25:06.940889 11441 net.cpp:100] Creating Layer fc7_mbox_loc_perm
I0307 02:25:06.940897 11441 net.cpp:434] fc7_mbox_loc_perm <- fc7_mbox_loc
I0307 02:25:06.940912 11441 net.cpp:408] fc7_mbox_loc_perm -> fc7_mbox_loc_perm
I0307 02:25:06.941027 11441 net.cpp:150] Setting up fc7_mbox_loc_perm
I0307 02:25:06.941045 11441 net.cpp:157] Top shape: 8 19 19 24 (69312)
I0307 02:25:06.941051 11441 net.cpp:165] Memory required for data: 2769518276
I0307 02:25:06.941057 11441 layer_factory.hpp:77] Creating layer fc7_mbox_loc_flat
I0307 02:25:06.941068 11441 net.cpp:100] Creating Layer fc7_mbox_loc_flat
I0307 02:25:06.941076 11441 net.cpp:434] fc7_mbox_loc_flat <- fc7_mbox_loc_perm
I0307 02:25:06.941087 11441 net.cpp:408] fc7_mbox_loc_flat -> fc7_mbox_loc_flat
I0307 02:25:06.941133 11441 net.cpp:150] Setting up fc7_mbox_loc_flat
I0307 02:25:06.941144 11441 net.cpp:157] Top shape: 8 8664 (69312)
I0307 02:25:06.941150 11441 net.cpp:165] Memory required for data: 2769795524
I0307 02:25:06.941156 11441 layer_factory.hpp:77] Creating layer fc7_mbox_conf
I0307 02:25:06.941172 11441 net.cpp:100] Creating Layer fc7_mbox_conf
I0307 02:25:06.941180 11441 net.cpp:434] fc7_mbox_conf <- fc7_fc7_scale_0_split_2
I0307 02:25:06.941205 11441 net.cpp:408] fc7_mbox_conf -> fc7_mbox_conf
I0307 02:25:06.949615 11441 net.cpp:150] Setting up fc7_mbox_conf
I0307 02:25:06.949631 11441 net.cpp:157] Top shape: 8 126 19 19 (363888)
I0307 02:25:06.949636 11441 net.cpp:165] Memory required for data: 2771251076
I0307 02:25:06.949650 11441 layer_factory.hpp:77] Creating layer fc7_mbox_conf_perm
I0307 02:25:06.949663 11441 net.cpp:100] Creating Layer fc7_mbox_conf_perm
I0307 02:25:06.949672 11441 net.cpp:434] fc7_mbox_conf_perm <- fc7_mbox_conf
I0307 02:25:06.949685 11441 net.cpp:408] fc7_mbox_conf_perm -> fc7_mbox_conf_perm
I0307 02:25:06.949803 11441 net.cpp:150] Setting up fc7_mbox_conf_perm
I0307 02:25:06.949818 11441 net.cpp:157] Top shape: 8 19 19 126 (363888)
I0307 02:25:06.949825 11441 net.cpp:165] Memory required for data: 2772706628
I0307 02:25:06.949836 11441 layer_factory.hpp:77] Creating layer fc7_mbox_conf_flat
I0307 02:25:06.949865 11441 net.cpp:100] Creating Layer fc7_mbox_conf_flat
I0307 02:25:06.949877 11441 net.cpp:434] fc7_mbox_conf_flat <- fc7_mbox_conf_perm
I0307 02:25:06.949894 11441 net.cpp:408] fc7_mbox_conf_flat -> fc7_mbox_conf_flat
I0307 02:25:06.949937 11441 net.cpp:150] Setting up fc7_mbox_conf_flat
I0307 02:25:06.949951 11441 net.cpp:157] Top shape: 8 45486 (363888)
I0307 02:25:06.949956 11441 net.cpp:165] Memory required for data: 2774162180
I0307 02:25:06.949961 11441 layer_factory.hpp:77] Creating layer fc7_mbox_priorbox
I0307 02:25:06.949977 11441 net.cpp:100] Creating Layer fc7_mbox_priorbox
I0307 02:25:06.949996 11441 net.cpp:434] fc7_mbox_priorbox <- fc7_fc7_scale_0_split_3
I0307 02:25:06.950014 11441 net.cpp:434] fc7_mbox_priorbox <- data_data_0_split_2
I0307 02:25:06.950036 11441 net.cpp:408] fc7_mbox_priorbox -> fc7_mbox_priorbox
I0307 02:25:06.950072 11441 net.cpp:150] Setting up fc7_mbox_priorbox
I0307 02:25:06.950085 11441 net.cpp:157] Top shape: 1 2 8664 (17328)
I0307 02:25:06.950093 11441 net.cpp:165] Memory required for data: 2774231492
I0307 02:25:06.950098 11441 layer_factory.hpp:77] Creating layer conv6_2_mbox_loc
I0307 02:25:06.950120 11441 net.cpp:100] Creating Layer conv6_2_mbox_loc
I0307 02:25:06.950131 11441 net.cpp:434] conv6_2_mbox_loc <- conv6_2_conv6_2_scale_0_split_1
I0307 02:25:06.950146 11441 net.cpp:408] conv6_2_mbox_loc -> conv6_2_mbox_loc
I0307 02:25:06.952047 11441 net.cpp:150] Setting up conv6_2_mbox_loc
I0307 02:25:06.952064 11441 net.cpp:157] Top shape: 8 24 10 10 (19200)
I0307 02:25:06.952069 11441 net.cpp:165] Memory required for data: 2774308292
I0307 02:25:06.952080 11441 layer_factory.hpp:77] Creating layer conv6_2_mbox_loc_perm
I0307 02:25:06.952092 11441 net.cpp:100] Creating Layer conv6_2_mbox_loc_perm
I0307 02:25:06.952105 11441 net.cpp:434] conv6_2_mbox_loc_perm <- conv6_2_mbox_loc
I0307 02:25:06.952118 11441 net.cpp:408] conv6_2_mbox_loc_perm -> conv6_2_mbox_loc_perm
I0307 02:25:06.952241 11441 net.cpp:150] Setting up conv6_2_mbox_loc_perm
I0307 02:25:06.952257 11441 net.cpp:157] Top shape: 8 10 10 24 (19200)
I0307 02:25:06.952263 11441 net.cpp:165] Memory required for data: 2774385092
I0307 02:25:06.952271 11441 layer_factory.hpp:77] Creating layer conv6_2_mbox_loc_flat
I0307 02:25:06.952286 11441 net.cpp:100] Creating Layer conv6_2_mbox_loc_flat
I0307 02:25:06.952292 11441 net.cpp:434] conv6_2_mbox_loc_flat <- conv6_2_mbox_loc_perm
I0307 02:25:06.952311 11441 net.cpp:408] conv6_2_mbox_loc_flat -> conv6_2_mbox_loc_flat
I0307 02:25:06.952347 11441 net.cpp:150] Setting up conv6_2_mbox_loc_flat
I0307 02:25:06.952359 11441 net.cpp:157] Top shape: 8 2400 (19200)
I0307 02:25:06.952365 11441 net.cpp:165] Memory required for data: 2774461892
I0307 02:25:06.952369 11441 layer_factory.hpp:77] Creating layer conv6_2_mbox_conf
I0307 02:25:06.952389 11441 net.cpp:100] Creating Layer conv6_2_mbox_conf
I0307 02:25:06.952405 11441 net.cpp:434] conv6_2_mbox_conf <- conv6_2_conv6_2_scale_0_split_2
I0307 02:25:06.952419 11441 net.cpp:408] conv6_2_mbox_conf -> conv6_2_mbox_conf
I0307 02:25:06.957000 11441 net.cpp:150] Setting up conv6_2_mbox_conf
I0307 02:25:06.957017 11441 net.cpp:157] Top shape: 8 126 10 10 (100800)
I0307 02:25:06.957023 11441 net.cpp:165] Memory required for data: 2774865092
I0307 02:25:06.957036 11441 layer_factory.hpp:77] Creating layer conv6_2_mbox_conf_perm
I0307 02:25:06.957047 11441 net.cpp:100] Creating Layer conv6_2_mbox_conf_perm
I0307 02:25:06.957060 11441 net.cpp:434] conv6_2_mbox_conf_perm <- conv6_2_mbox_conf
I0307 02:25:06.957074 11441 net.cpp:408] conv6_2_mbox_conf_perm -> conv6_2_mbox_conf_perm
I0307 02:25:06.957196 11441 net.cpp:150] Setting up conv6_2_mbox_conf_perm
I0307 02:25:06.957209 11441 net.cpp:157] Top shape: 8 10 10 126 (100800)
I0307 02:25:06.957214 11441 net.cpp:165] Memory required for data: 2775268292
I0307 02:25:06.957222 11441 layer_factory.hpp:77] Creating layer conv6_2_mbox_conf_flat
I0307 02:25:06.957237 11441 net.cpp:100] Creating Layer conv6_2_mbox_conf_flat
I0307 02:25:06.957249 11441 net.cpp:434] conv6_2_mbox_conf_flat <- conv6_2_mbox_conf_perm
I0307 02:25:06.957278 11441 net.cpp:408] conv6_2_mbox_conf_flat -> conv6_2_mbox_conf_flat
I0307 02:25:06.957311 11441 net.cpp:150] Setting up conv6_2_mbox_conf_flat
I0307 02:25:06.957324 11441 net.cpp:157] Top shape: 8 12600 (100800)
I0307 02:25:06.957329 11441 net.cpp:165] Memory required for data: 2775671492
I0307 02:25:06.957336 11441 layer_factory.hpp:77] Creating layer conv6_2_mbox_priorbox
I0307 02:25:06.957351 11441 net.cpp:100] Creating Layer conv6_2_mbox_priorbox
I0307 02:25:06.957360 11441 net.cpp:434] conv6_2_mbox_priorbox <- conv6_2_conv6_2_scale_0_split_3
I0307 02:25:06.957370 11441 net.cpp:434] conv6_2_mbox_priorbox <- data_data_0_split_3
I0307 02:25:06.957386 11441 net.cpp:408] conv6_2_mbox_priorbox -> conv6_2_mbox_priorbox
I0307 02:25:06.957432 11441 net.cpp:150] Setting up conv6_2_mbox_priorbox
I0307 02:25:06.957442 11441 net.cpp:157] Top shape: 1 2 2400 (4800)
I0307 02:25:06.957448 11441 net.cpp:165] Memory required for data: 2775690692
I0307 02:25:06.957455 11441 layer_factory.hpp:77] Creating layer conv7_2_mbox_loc
I0307 02:25:06.957473 11441 net.cpp:100] Creating Layer conv7_2_mbox_loc
I0307 02:25:06.957485 11441 net.cpp:434] conv7_2_mbox_loc <- conv7_2_conv7_2_scale_0_split_1
I0307 02:25:06.957496 11441 net.cpp:408] conv7_2_mbox_loc -> conv7_2_mbox_loc
I0307 02:25:06.959970 11441 net.cpp:150] Setting up conv7_2_mbox_loc
I0307 02:25:06.959985 11441 net.cpp:157] Top shape: 8 24 5 5 (4800)
I0307 02:25:06.959990 11441 net.cpp:165] Memory required for data: 2775709892
I0307 02:25:06.960000 11441 layer_factory.hpp:77] Creating layer conv7_2_mbox_loc_perm
I0307 02:25:06.960016 11441 net.cpp:100] Creating Layer conv7_2_mbox_loc_perm
I0307 02:25:06.960031 11441 net.cpp:434] conv7_2_mbox_loc_perm <- conv7_2_mbox_loc
I0307 02:25:06.960043 11441 net.cpp:408] conv7_2_mbox_loc_perm -> conv7_2_mbox_loc_perm
I0307 02:25:06.960167 11441 net.cpp:150] Setting up conv7_2_mbox_loc_perm
I0307 02:25:06.960178 11441 net.cpp:157] Top shape: 8 5 5 24 (4800)
I0307 02:25:06.960186 11441 net.cpp:165] Memory required for data: 2775729092
I0307 02:25:06.960191 11441 layer_factory.hpp:77] Creating layer conv7_2_mbox_loc_flat
I0307 02:25:06.960201 11441 net.cpp:100] Creating Layer conv7_2_mbox_loc_flat
I0307 02:25:06.960222 11441 net.cpp:434] conv7_2_mbox_loc_flat <- conv7_2_mbox_loc_perm
I0307 02:25:06.960240 11441 net.cpp:408] conv7_2_mbox_loc_flat -> conv7_2_mbox_loc_flat
I0307 02:25:06.960283 11441 net.cpp:150] Setting up conv7_2_mbox_loc_flat
I0307 02:25:06.960294 11441 net.cpp:157] Top shape: 8 600 (4800)
I0307 02:25:06.960304 11441 net.cpp:165] Memory required for data: 2775748292
I0307 02:25:06.960310 11441 layer_factory.hpp:77] Creating layer conv7_2_mbox_conf
I0307 02:25:06.960327 11441 net.cpp:100] Creating Layer conv7_2_mbox_conf
I0307 02:25:06.960337 11441 net.cpp:434] conv7_2_mbox_conf <- conv7_2_conv7_2_scale_0_split_2
I0307 02:25:06.960355 11441 net.cpp:408] conv7_2_mbox_conf -> conv7_2_mbox_conf
I0307 02:25:06.963779 11441 net.cpp:150] Setting up conv7_2_mbox_conf
I0307 02:25:06.963794 11441 net.cpp:157] Top shape: 8 126 5 5 (25200)
I0307 02:25:06.963800 11441 net.cpp:165] Memory required for data: 2775849092
I0307 02:25:06.963810 11441 layer_factory.hpp:77] Creating layer conv7_2_mbox_conf_perm
I0307 02:25:06.963824 11441 net.cpp:100] Creating Layer conv7_2_mbox_conf_perm
I0307 02:25:06.963837 11441 net.cpp:434] conv7_2_mbox_conf_perm <- conv7_2_mbox_conf
I0307 02:25:06.963848 11441 net.cpp:408] conv7_2_mbox_conf_perm -> conv7_2_mbox_conf_perm
I0307 02:25:06.963971 11441 net.cpp:150] Setting up conv7_2_mbox_conf_perm
I0307 02:25:06.963982 11441 net.cpp:157] Top shape: 8 5 5 126 (25200)
I0307 02:25:06.963989 11441 net.cpp:165] Memory required for data: 2775949892
I0307 02:25:06.963995 11441 layer_factory.hpp:77] Creating layer conv7_2_mbox_conf_flat
I0307 02:25:06.964010 11441 net.cpp:100] Creating Layer conv7_2_mbox_conf_flat
I0307 02:25:06.964018 11441 net.cpp:434] conv7_2_mbox_conf_flat <- conv7_2_mbox_conf_perm
I0307 02:25:06.964035 11441 net.cpp:408] conv7_2_mbox_conf_flat -> conv7_2_mbox_conf_flat
I0307 02:25:06.964088 11441 net.cpp:150] Setting up conv7_2_mbox_conf_flat
I0307 02:25:06.964100 11441 net.cpp:157] Top shape: 8 3150 (25200)
I0307 02:25:06.964108 11441 net.cpp:165] Memory required for data: 2776050692
I0307 02:25:06.964113 11441 layer_factory.hpp:77] Creating layer conv7_2_mbox_priorbox
I0307 02:25:06.964126 11441 net.cpp:100] Creating Layer conv7_2_mbox_priorbox
I0307 02:25:06.964140 11441 net.cpp:434] conv7_2_mbox_priorbox <- conv7_2_conv7_2_scale_0_split_3
I0307 02:25:06.964149 11441 net.cpp:434] conv7_2_mbox_priorbox <- data_data_0_split_4
I0307 02:25:06.964162 11441 net.cpp:408] conv7_2_mbox_priorbox -> conv7_2_mbox_priorbox
I0307 02:25:06.964210 11441 net.cpp:150] Setting up conv7_2_mbox_priorbox
I0307 02:25:06.964220 11441 net.cpp:157] Top shape: 1 2 600 (1200)
I0307 02:25:06.964226 11441 net.cpp:165] Memory required for data: 2776055492
I0307 02:25:06.964231 11441 layer_factory.hpp:77] Creating layer conv8_2_mbox_loc
I0307 02:25:06.964259 11441 net.cpp:100] Creating Layer conv8_2_mbox_loc
I0307 02:25:06.964272 11441 net.cpp:434] conv8_2_mbox_loc <- conv8_2_conv8_2_scale_0_split_1
I0307 02:25:06.964285 11441 net.cpp:408] conv8_2_mbox_loc -> conv8_2_mbox_loc
I0307 02:25:06.965904 11441 net.cpp:150] Setting up conv8_2_mbox_loc
I0307 02:25:06.965919 11441 net.cpp:157] Top shape: 8 16 3 3 (1152)
I0307 02:25:06.965924 11441 net.cpp:165] Memory required for data: 2776060100
I0307 02:25:06.965932 11441 layer_factory.hpp:77] Creating layer conv8_2_mbox_loc_perm
I0307 02:25:06.965951 11441 net.cpp:100] Creating Layer conv8_2_mbox_loc_perm
I0307 02:25:06.965960 11441 net.cpp:434] conv8_2_mbox_loc_perm <- conv8_2_mbox_loc
I0307 02:25:06.965972 11441 net.cpp:408] conv8_2_mbox_loc_perm -> conv8_2_mbox_loc_perm
I0307 02:25:06.966089 11441 net.cpp:150] Setting up conv8_2_mbox_loc_perm
I0307 02:25:06.966096 11441 net.cpp:157] Top shape: 8 3 3 16 (1152)
I0307 02:25:06.966104 11441 net.cpp:165] Memory required for data: 2776064708
I0307 02:25:06.966110 11441 layer_factory.hpp:77] Creating layer conv8_2_mbox_loc_flat
I0307 02:25:06.966125 11441 net.cpp:100] Creating Layer conv8_2_mbox_loc_flat
I0307 02:25:06.966136 11441 net.cpp:434] conv8_2_mbox_loc_flat <- conv8_2_mbox_loc_perm
I0307 02:25:06.966154 11441 net.cpp:408] conv8_2_mbox_loc_flat -> conv8_2_mbox_loc_flat
I0307 02:25:06.966197 11441 net.cpp:150] Setting up conv8_2_mbox_loc_flat
I0307 02:25:06.966207 11441 net.cpp:157] Top shape: 8 144 (1152)
I0307 02:25:06.966214 11441 net.cpp:165] Memory required for data: 2776069316
I0307 02:25:06.966220 11441 layer_factory.hpp:77] Creating layer conv8_2_mbox_conf
I0307 02:25:06.966246 11441 net.cpp:100] Creating Layer conv8_2_mbox_conf
I0307 02:25:06.966260 11441 net.cpp:434] conv8_2_mbox_conf <- conv8_2_conv8_2_scale_0_split_2
I0307 02:25:06.966274 11441 net.cpp:408] conv8_2_mbox_conf -> conv8_2_mbox_conf
I0307 02:25:06.968618 11441 net.cpp:150] Setting up conv8_2_mbox_conf
I0307 02:25:06.968633 11441 net.cpp:157] Top shape: 8 84 3 3 (6048)
I0307 02:25:06.968641 11441 net.cpp:165] Memory required for data: 2776093508
I0307 02:25:06.968650 11441 layer_factory.hpp:77] Creating layer conv8_2_mbox_conf_perm
I0307 02:25:06.968664 11441 net.cpp:100] Creating Layer conv8_2_mbox_conf_perm
I0307 02:25:06.968675 11441 net.cpp:434] conv8_2_mbox_conf_perm <- conv8_2_mbox_conf
I0307 02:25:06.968693 11441 net.cpp:408] conv8_2_mbox_conf_perm -> conv8_2_mbox_conf_perm
I0307 02:25:06.968813 11441 net.cpp:150] Setting up conv8_2_mbox_conf_perm
I0307 02:25:06.968824 11441 net.cpp:157] Top shape: 8 3 3 84 (6048)
I0307 02:25:06.968832 11441 net.cpp:165] Memory required for data: 2776117700
I0307 02:25:06.968837 11441 layer_factory.hpp:77] Creating layer conv8_2_mbox_conf_flat
I0307 02:25:06.968852 11441 net.cpp:100] Creating Layer conv8_2_mbox_conf_flat
I0307 02:25:06.968860 11441 net.cpp:434] conv8_2_mbox_conf_flat <- conv8_2_mbox_conf_perm
I0307 02:25:06.968875 11441 net.cpp:408] conv8_2_mbox_conf_flat -> conv8_2_mbox_conf_flat
I0307 02:25:06.968919 11441 net.cpp:150] Setting up conv8_2_mbox_conf_flat
I0307 02:25:06.968938 11441 net.cpp:157] Top shape: 8 756 (6048)
I0307 02:25:06.968945 11441 net.cpp:165] Memory required for data: 2776141892
I0307 02:25:06.968952 11441 layer_factory.hpp:77] Creating layer conv8_2_mbox_priorbox
I0307 02:25:06.968966 11441 net.cpp:100] Creating Layer conv8_2_mbox_priorbox
I0307 02:25:06.968976 11441 net.cpp:434] conv8_2_mbox_priorbox <- conv8_2_conv8_2_scale_0_split_3
I0307 02:25:06.968986 11441 net.cpp:434] conv8_2_mbox_priorbox <- data_data_0_split_5
I0307 02:25:06.969007 11441 net.cpp:408] conv8_2_mbox_priorbox -> conv8_2_mbox_priorbox
I0307 02:25:06.969043 11441 net.cpp:150] Setting up conv8_2_mbox_priorbox
I0307 02:25:06.969054 11441 net.cpp:157] Top shape: 1 2 144 (288)
I0307 02:25:06.969063 11441 net.cpp:165] Memory required for data: 2776143044
I0307 02:25:06.969077 11441 layer_factory.hpp:77] Creating layer conv9_2_mbox_loc
I0307 02:25:06.969097 11441 net.cpp:100] Creating Layer conv9_2_mbox_loc
I0307 02:25:06.969110 11441 net.cpp:434] conv9_2_mbox_loc <- conv9_2_conv9_2_scale_0_split_0
I0307 02:25:06.969125 11441 net.cpp:408] conv9_2_mbox_loc -> conv9_2_mbox_loc
I0307 02:25:06.970425 11441 net.cpp:150] Setting up conv9_2_mbox_loc
I0307 02:25:06.970443 11441 net.cpp:157] Top shape: 8 16 1 1 (128)
I0307 02:25:06.970448 11441 net.cpp:165] Memory required for data: 2776143556
I0307 02:25:06.970458 11441 layer_factory.hpp:77] Creating layer conv9_2_mbox_loc_perm
I0307 02:25:06.970475 11441 net.cpp:100] Creating Layer conv9_2_mbox_loc_perm
I0307 02:25:06.970486 11441 net.cpp:434] conv9_2_mbox_loc_perm <- conv9_2_mbox_loc
I0307 02:25:06.970502 11441 net.cpp:408] conv9_2_mbox_loc_perm -> conv9_2_mbox_loc_perm
I0307 02:25:06.970616 11441 net.cpp:150] Setting up conv9_2_mbox_loc_perm
I0307 02:25:06.970628 11441 net.cpp:157] Top shape: 8 1 1 16 (128)
I0307 02:25:06.970635 11441 net.cpp:165] Memory required for data: 2776144068
I0307 02:25:06.970640 11441 layer_factory.hpp:77] Creating layer conv9_2_mbox_loc_flat
I0307 02:25:06.970651 11441 net.cpp:100] Creating Layer conv9_2_mbox_loc_flat
I0307 02:25:06.970662 11441 net.cpp:434] conv9_2_mbox_loc_flat <- conv9_2_mbox_loc_perm
I0307 02:25:06.970671 11441 net.cpp:408] conv9_2_mbox_loc_flat -> conv9_2_mbox_loc_flat
I0307 02:25:06.970710 11441 net.cpp:150] Setting up conv9_2_mbox_loc_flat
I0307 02:25:06.970721 11441 net.cpp:157] Top shape: 8 16 (128)
I0307 02:25:06.970728 11441 net.cpp:165] Memory required for data: 2776144580
I0307 02:25:06.970736 11441 layer_factory.hpp:77] Creating layer conv9_2_mbox_conf
I0307 02:25:06.970753 11441 net.cpp:100] Creating Layer conv9_2_mbox_conf
I0307 02:25:06.970765 11441 net.cpp:434] conv9_2_mbox_conf <- conv9_2_conv9_2_scale_0_split_1
I0307 02:25:06.970777 11441 net.cpp:408] conv9_2_mbox_conf -> conv9_2_mbox_conf
I0307 02:25:06.973007 11441 net.cpp:150] Setting up conv9_2_mbox_conf
I0307 02:25:06.973024 11441 net.cpp:157] Top shape: 8 84 1 1 (672)
I0307 02:25:06.973031 11441 net.cpp:165] Memory required for data: 2776147268
I0307 02:25:06.973043 11441 layer_factory.hpp:77] Creating layer conv9_2_mbox_conf_perm
I0307 02:25:06.973062 11441 net.cpp:100] Creating Layer conv9_2_mbox_conf_perm
I0307 02:25:06.973067 11441 net.cpp:434] conv9_2_mbox_conf_perm <- conv9_2_mbox_conf
I0307 02:25:06.973088 11441 net.cpp:408] conv9_2_mbox_conf_perm -> conv9_2_mbox_conf_perm
I0307 02:25:06.973206 11441 net.cpp:150] Setting up conv9_2_mbox_conf_perm
I0307 02:25:06.973215 11441 net.cpp:157] Top shape: 8 1 1 84 (672)
I0307 02:25:06.973222 11441 net.cpp:165] Memory required for data: 2776149956
I0307 02:25:06.973227 11441 layer_factory.hpp:77] Creating layer conv9_2_mbox_conf_flat
I0307 02:25:06.973240 11441 net.cpp:100] Creating Layer conv9_2_mbox_conf_flat
I0307 02:25:06.973258 11441 net.cpp:434] conv9_2_mbox_conf_flat <- conv9_2_mbox_conf_perm
I0307 02:25:06.973271 11441 net.cpp:408] conv9_2_mbox_conf_flat -> conv9_2_mbox_conf_flat
I0307 02:25:06.973315 11441 net.cpp:150] Setting up conv9_2_mbox_conf_flat
I0307 02:25:06.973325 11441 net.cpp:157] Top shape: 8 84 (672)
I0307 02:25:06.973335 11441 net.cpp:165] Memory required for data: 2776152644
I0307 02:25:06.973357 11441 layer_factory.hpp:77] Creating layer conv9_2_mbox_priorbox
I0307 02:25:06.973373 11441 net.cpp:100] Creating Layer conv9_2_mbox_priorbox
I0307 02:25:06.973387 11441 net.cpp:434] conv9_2_mbox_priorbox <- conv9_2_conv9_2_scale_0_split_2
I0307 02:25:06.973405 11441 net.cpp:434] conv9_2_mbox_priorbox <- data_data_0_split_6
I0307 02:25:06.973421 11441 net.cpp:408] conv9_2_mbox_priorbox -> conv9_2_mbox_priorbox
I0307 02:25:06.973464 11441 net.cpp:150] Setting up conv9_2_mbox_priorbox
I0307 02:25:06.973472 11441 net.cpp:157] Top shape: 1 2 16 (32)
I0307 02:25:06.973480 11441 net.cpp:165] Memory required for data: 2776152772
I0307 02:25:06.973487 11441 layer_factory.hpp:77] Creating layer mbox_loc
I0307 02:25:06.973510 11441 net.cpp:100] Creating Layer mbox_loc
I0307 02:25:06.973522 11441 net.cpp:434] mbox_loc <- conv4_3_norm_mbox_loc_flat
I0307 02:25:06.973537 11441 net.cpp:434] mbox_loc <- fc7_mbox_loc_flat
I0307 02:25:06.973548 11441 net.cpp:434] mbox_loc <- conv6_2_mbox_loc_flat
I0307 02:25:06.973563 11441 net.cpp:434] mbox_loc <- conv7_2_mbox_loc_flat
I0307 02:25:06.973574 11441 net.cpp:434] mbox_loc <- conv8_2_mbox_loc_flat
I0307 02:25:06.973585 11441 net.cpp:434] mbox_loc <- conv9_2_mbox_loc_flat
I0307 02:25:06.973593 11441 net.cpp:408] mbox_loc -> mbox_loc
I0307 02:25:06.973646 11441 net.cpp:150] Setting up mbox_loc
I0307 02:25:06.973662 11441 net.cpp:157] Top shape: 8 34928 (279424)
I0307 02:25:06.973667 11441 net.cpp:165] Memory required for data: 2777270468
I0307 02:25:06.973673 11441 layer_factory.hpp:77] Creating layer mbox_conf
I0307 02:25:06.973690 11441 net.cpp:100] Creating Layer mbox_conf
I0307 02:25:06.973703 11441 net.cpp:434] mbox_conf <- conv4_3_norm_mbox_conf_flat
I0307 02:25:06.973714 11441 net.cpp:434] mbox_conf <- fc7_mbox_conf_flat
I0307 02:25:06.973731 11441 net.cpp:434] mbox_conf <- conv6_2_mbox_conf_flat
I0307 02:25:06.973742 11441 net.cpp:434] mbox_conf <- conv7_2_mbox_conf_flat
I0307 02:25:06.973757 11441 net.cpp:434] mbox_conf <- conv8_2_mbox_conf_flat
I0307 02:25:06.973762 11441 net.cpp:434] mbox_conf <- conv9_2_mbox_conf_flat
I0307 02:25:06.973779 11441 net.cpp:408] mbox_conf -> mbox_conf
I0307 02:25:06.973817 11441 net.cpp:150] Setting up mbox_conf
I0307 02:25:06.973832 11441 net.cpp:157] Top shape: 8 183372 (1466976)
I0307 02:25:06.973840 11441 net.cpp:165] Memory required for data: 2783138372
I0307 02:25:06.973850 11441 layer_factory.hpp:77] Creating layer mbox_priorbox
I0307 02:25:06.973860 11441 net.cpp:100] Creating Layer mbox_priorbox
I0307 02:25:06.973875 11441 net.cpp:434] mbox_priorbox <- conv4_3_norm_mbox_priorbox
I0307 02:25:06.973886 11441 net.cpp:434] mbox_priorbox <- fc7_mbox_priorbox
I0307 02:25:06.973896 11441 net.cpp:434] mbox_priorbox <- conv6_2_mbox_priorbox
I0307 02:25:06.973909 11441 net.cpp:434] mbox_priorbox <- conv7_2_mbox_priorbox
I0307 02:25:06.973920 11441 net.cpp:434] mbox_priorbox <- conv8_2_mbox_priorbox
I0307 02:25:06.973930 11441 net.cpp:434] mbox_priorbox <- conv9_2_mbox_priorbox
I0307 02:25:06.973942 11441 net.cpp:408] mbox_priorbox -> mbox_priorbox
I0307 02:25:06.973979 11441 net.cpp:150] Setting up mbox_priorbox
I0307 02:25:06.973994 11441 net.cpp:157] Top shape: 1 2 34928 (69856)
I0307 02:25:06.974000 11441 net.cpp:165] Memory required for data: 2783417796
I0307 02:25:06.974007 11441 layer_factory.hpp:77] Creating layer mbox_loss
I0307 02:25:06.974026 11441 net.cpp:100] Creating Layer mbox_loss
I0307 02:25:06.974035 11441 net.cpp:434] mbox_loss <- mbox_loc
I0307 02:25:06.974045 11441 net.cpp:434] mbox_loss <- mbox_conf
I0307 02:25:06.974061 11441 net.cpp:434] mbox_loss <- mbox_priorbox
…
I0307 02:25:06.977699 11441 solver.cpp:196] Creating test net (#0) specified by test_net file: models/VGGNet/VOC0712/DES300x300withCOCO_12/test12.prototxt
I0307 02:25:06.978473 11441 net.cpp:58] Initializing net from parameters: 
name: "VGG_VOC0712_SSD_300x300_ft_test"
state {
  phase: TEST
}
layer {
  name: "data"
  type: "Data"
  top: "data"
  include {
    phase: TEST
  }
  transform_param {
    mean_value: 104
    mean_value: 117
    mean_value: 123
    resize_param {
      prob: 1
      resize_mode: WARP
      height: 300
      width: 300
      interp_mode: LINEAR
    }
  }
  data_param {
    source: "examples/VOC0712/VOC2012_test_lmdb"
    batch_size: 1
    backend: LMDB
  }
}
layer {
  name: "conv1_1"
  type: "Convolution"
  bottom: "data"
  top: "conv1_1"
  param {
    lr_mult: 1
    decay_mult: 1
  }
  param {
    lr_mult: 2
    decay_mult: 0
  }
  convolution_param {
    num_output: 64
    pad: 1
    kernel_size: 3
    weight_filler {
      type: "xavier"
    }
    bias_filler {
      type: "constant"
      value: 0
    }
  }
}
layer {
  name: "relu1_1"
  type: "ReLU"
  bottom: "conv1_1"
  top: "conv1_1"
}
layer {
  name: "conv1_2"
  type: "Convolution"
  bottom: "conv1_1"
  top: "conv1_2"
  param {
    lr_mult: 1
    decay_mult: 1
  }
  param {
    lr_mult: 2
    decay_mult: 0
  }
  convolution_param {
    num_output: 64
    pad: 1
    kernel_size: 3
    weight_filler {
      type: "xavier"
    }
    bias_filler {
      type: "constant"
      value: 0
    }
  }
}
layer {
  name: "relu1_2"
  type: "ReLU"
  bottom: "conv1_2"
  top: "conv1_2"
}
layer {
  name: "pool1"
  type: "Pooling"
  bottom: "conv1_2"
  top: "pool1"
  pooling_param {
    pool: MAX
    kernel_size: 2
    stride: 2
  }
}
layer {
  name: "conv2_1"
  type: "Convolution"
  bottom: "pool1"
  top: "conv2_1"
  param {
    lr_mult: 1
    decay_mult: 1
  }
  param {
    lr_mult: 2
    decay_mult: 0
  }
  convolution_param {
    num_output: 128
    pad: 1
    kernel_size: 3
    weight_filler {
      type: "xavier"
    }
    bias_filler {
      type: "constant"
      value: 0
    }
  }
}
layer {
  name: "relu2_1"
  type: "ReLU"
  bottom: "conv2_1"
  top: "conv2_1"
}
layer {
  name: "conv2_2"
  type: "Convolution"
  bottom: "conv2_1"
  top: "conv2_2"
  param {
    lr_mult: 1
    decay_mult: 1
  }
  param {
    lr_mult: 2
    decay_mult: 0
  }
  convolution_param {
    num_output: 128
    pad: 1
    kernel_size: 3
    weight_filler {
      type: "xavier"
    }
    bias_filler {
      type: "constant"
      value: 0
    }
  }
}
layer {
  name: "relu2_2"
  type: "ReLU"
  bottom: "conv2_2"
  top: "conv2_2"
}
layer {
  name: "pool2"
  type: "Pooling"
  bottom: "conv2_2"
  top: "pool2"
  pooling_param {
    pool: MAX
    kernel_size: 2
    stride: 2
  }
}
layer {
  name: "conv3_1"
  type: "Convolution"
  bottom: "pool2"
  top: "conv3_1"
  param {
    lr_mult: 1
    decay_mult: 1
  }
  param {
    lr_mult: 2
    decay_mult: 0
  }
  convolution_param {
    num_output: 256
    pad: 1
    kernel_size: 3
    weight_filler {
      type: "xavier"
    }
    bias_filler {
      type: "constant"
      value: 0
    }
  }
}
layer {
  name: "relu3_1"
  type: "ReLU"
  bottom: "conv3_1"
  top: "conv3_1"
}
layer {
  name: "conv3_2"
  type: "Convolution"
  bottom: "conv3_1"
  top: "conv3_2"
  param {
    lr_mult: 1
    decay_mult: 1
  }
  param {
    lr_mult: 2
    decay_mult: 0
  }
  convolution_param {
    num_output: 256
    pad: 1
    kernel_size: 3
    weight_filler {
      type: "xavier"
    }
    bias_filler {
      type: "constant"
      value: 0
    }
  }
}
layer {
  name: "relu3_2"
  type: "ReLU"
  bottom: "conv3_2"
  top: "conv3_2"
}
layer {
  name: "conv3_3"
  type: "Convolution"
  bottom: "conv3_2"
  top: "conv3_3"
  param {
    lr_mult: 1
    decay_mult: 1
  }
  param {
    lr_mult: 2
    decay_mult: 0
  }
  convolution_param {
    num_output: 256
    pad: 1
    kernel_size: 3
    weight_filler {
      type: "xavier"
    }
    bias_filler {
      type: "constant"
      value: 0
    }
  }
}
layer {
  name: "relu3_3"
  type: "ReLU"
  bottom: "conv3_3"
  top: "conv3_3"
}
layer {
  name: "pool3"
  type: "Pooling"
  bottom: "conv3_3"
  top: "pool3"
  pooling_param {
    pool: MAX
    kernel_size: 2
    stride: 2
  }
}
layer {
  name: "conv4_1"
  type: "Convolution"
  bottom: "pool3"
  top: "conv4_1"
  param {
    lr_mult: 1
    decay_mult: 1
  }
  param {
    lr_mult: 2
    decay_mult: 0
  }
  convolution_param {
    num_output: 512
    pad: 1
    kernel_size: 3
    weight_filler {
      type: "xavier"
    }
    bias_filler {
      type: "constant"
      value: 0
    }
  }
}
layer {
  name: "relu4_1"
  type: "ReLU"
  bottom: "conv4_1"
  top: "conv4_1"
}
layer {
  name: "conv4_2"
  type: "Convolution"
  bottom: "conv4_1"
  top: "conv4_2"
  param {
    lr_mult: 1
    decay_mult: 1
  }
  param {
    lr_mult: 2
    decay_mult: 0
  }
  convolution_param {
    num_output: 512
    pad: 1
    kernel_size: 3
    weight_filler {
      type: "xavier"
    }
    bias_filler {
      type: "constant"
      value: 0
    }
  }
}
layer {
  name: "relu4_2"
  type: "ReLU"
  bottom: "conv4_2"
  top: "conv4_2"
}
layer {
  name: "conv4_3"
  type: "Convolution"
  bottom: "conv4_2"
  top: "conv4_3_ori"
  param {
    lr_mult: 1
    decay_mult: 1
  }
  param {
    lr_mult: 2
    decay_mult: 0
  }
  convolution_param {
    num_output: 512
    pad: 1
    kernel_size: 3
    weight_filler {
      type: "xavier"
    }
    bias_filler {
      type: "constant"
      value: 0
    }
  }
}
layer {
  name: "relu4_3"
  type: "ReLU"
  bottom: "conv4_3_ori"
  top: "conv4_3_ori"
}
layer {
  name: "seg_pool4"
  type: "Pooling"
  bottom: "conv4_3_ori"
  top: "seg_pool4"
  pooling_param {
    pool: MAX
    kernel_size: 3
    stride: 1
    pad: 1
  }
}
layer {
  name: "seg5_1"
  type: "Convolution"
  bottom: "seg_pool4"
  top: "seg5_1"
  param {
    lr_mult: 1
    decay_mult: 1
  }
  param {
    lr_mult: 2
    decay_mult: 0
  }
  convolution_param {
    num_output: 512
    pad: 2
    kernel_size: 3
    weight_filler {
      type: "xavier"
    }
    bias_filler {
      type: "constant"
      value: 0
    }
    dilation: 2
  }
}
layer {
  name: "seg_relu5_1"
  type: "ReLU"
  bottom: "seg5_1"
  top: "seg5_1"
}
layer {
  name: "seg5_2"
  type: "Convolution"
  bottom: "seg5_1"
  top: "seg5_2"
  param {
    lr_mult: 1
    decay_mult: 1
  }
  param {
    lr_mult: 2
    decay_mult: 0
  }
  convolution_param {
    num_output: 512
    pad: 2
    kernel_size: 3
    weight_filler {
      type: "xavier"
    }
    bias_filler {
      type: "constant"
      value: 0
    }
    dilation: 2
  }
}
layer {
  name: "seg_relu5_2"
  type: "ReLU"
  bottom: "seg5_2"
  top: "seg5_2"
}
layer {
  name: "seg5_3"
  type: "Convolution"
  bottom: "seg5_2"
  top: "seg5_3"
  param {
    lr_mult: 1
    decay_mult: 1
  }
  param {
    lr_mult: 2
    decay_mult: 0
  }
  convolution_param {
    num_output: 512
    pad: 2
    kernel_size: 3
    weight_filler {
      type: "xavier"
    }
    bias_filler {
      type: "constant"
      value: 0
    }
    dilation: 2
  }
}
layer {
  name: "seg_relu5_3"
  type: "ReLU"
  bottom: "seg5_3"
  top: "seg5_3"
}
layer {
  name: "seg_pool5"
  type: "Pooling"
  bottom: "seg5_3"
  top: "seg_pool5"
  pooling_param {
    pool: MAX
    kernel_size: 3
    stride: 1
    pad: 1
  }
}
layer {
  name: "seg6"
  type: "Convolution"
  bottom: "seg_pool5"
  top: "seg6"
  param {
    lr_mult: 1
    decay_mult: 1
  }
  param {
    lr_mult: 2
    decay_mult: 0
  }
  convolution_param {
    num_output: 1024
    pad: 4
    kernel_size: 3
    weight_filler {
      type: "xavier"
    }
    bias_filler {
      type: "constant"
      value: 0
    }
    dilation: 4
  }
}
layer {
  name: "seg_relu6"
  type: "ReLU"
  bottom: "seg6"
  top: "seg6"
}
layer {
  name: "seg_drop6"
  type: "Dropout"
  bottom: "seg6"
  top: "seg6"
  dropout_param {
    dropout_ratio: 0.5
  }
}
layer {
  name: "seg7"
  type: "Convolution"
  bottom: "seg6"
  top: "seg7"
  param {
    lr_mult: 1
    decay_mult: 1
  }
  param {
    lr_mult: 2
    decay_mult: 0
  }
  convolution_param {
    num_output: 1024
    kernel_size: 1
    weight_filler {
      type: "xavier"
    }
    bias_filler {
      type: "constant"
      value: 0
    }
  }
}
layer {
  name: "seg_relu7"
  type: "ReLU"
  bottom: "seg7"
  top: "seg7"
}
layer {
  name: "seg_to_det_conv"
  type: "Convolution"
  bottom: "seg7"
  top: "seg_to_det_conv"
  param {
    lr_mult: 1
    decay_mult: 1
  }
  param {
    lr_mult: 2
    decay_mult: 0
  }
  convolution_param {
    num_output: 512
    pad: 0
    kernel_size: 1
    stride: 1
    weight_filler {
      type: "xavier"
    }
    bias_filler {
      type: "constant"
      value: 0
    }
  }
}
layer {
  name: "mult_conv4_3"
  type: "Eltwise"
  bottom: "conv4_3_ori"
  bottom: "seg_to_det_conv"
  top: "conv4_3_t"
  eltwise_param {
    operation: PROD
  }
}
layer {
  name: "conv4_3_s"
  type: "Pooling"
  bottom: "conv4_3_t"
  top: "conv4_3_s"
  pooling_param {
    pool: AVE
    global_pooling: true
  }
}
layer {
  name: "conv4_3_fc1"
  type: "Convolution"
  bottom: "conv4_3_s"
  top: "conv4_3_fc1"
  param {
    lr_mult: 1
    decay_mult: 1
  }
  param {
    lr_mult: 2
    decay_mult: 0
  }
  convolution_param {
    num_output: 128
    kernel_size: 1
    stride: 1
    weight_filler {
      type: "xavier"
    }
    bias_filler {
      type: "constant"
      value: 0
    }
  }
}
layer {
  name: "conv4_3_relu"
  type: "ReLU"
  bottom: "conv4_3_fc1"
  top: "conv4_3_fc1"
}
layer {
  name: "conv4_3_fc2"
  type: "Convolution"
  bottom: "conv4_3_fc1"
  top: "conv4_3_fc2"
  param {
    lr_mult: 1
    decay_mult: 1
  }
  param {
    lr_mult: 2
    decay_mult: 0
  }
  convolution_param {
    num_output: 512
    kernel_size: 1
    stride: 1
    weight_filler {
      type: "xavier"
    }
    bias_filler {
      type: "constant"
      value: 0
    }
  }
}
layer {
  name: "conv4_3_sig"
  type: "Sigmoid"
  bottom: "conv4_3_fc2"
  top: "conv4_3_fc2"
}
layer {
  name: "conv4_3_reshape"
  type: "Reshape"
  bottom: "conv4_3_fc2"
  top: "conv4_3_reshape"
  reshape_param {
    shape {
      dim: 0
      dim: 0
    }
  }
}
layer {
  name: "conv4_3_scale"
  type: "Scale"
  bottom: "conv4_3_t"
  bottom: "conv4_3_reshape"
  top: "conv4_3"
  scale_param {
    axis: 0
    bias_term: false
  }
}
layer {
  name: "pool4"
  type: "Pooling"
  bottom: "conv4_3"
  top: "pool4"
  pooling_param {
    pool: MAX
    kernel_size: 2
    stride: 2
  }
}
layer {
  name: "conv5_1"
  type: "Convolution"
  bottom: "pool4"
  top: "conv5_1"
  param {
    lr_mult: 1
    decay_mult: 1
  }
  param {
    lr_mult: 2
    decay_mult: 0
  }
  convolution_param {
    num_output: 512
    pad: 1
    kernel_size: 3
    weight_filler {
      type: "xavier"
    }
    bias_filler {
      type: "constant"
      value: 0
    }
    dilation: 1
  }
}
layer {
  name: "relu5_1"
  type: "ReLU"
  bottom: "conv5_1"
  top: "conv5_1"
}
layer {
  name: "conv5_2"
  type: "Convolution"
  bottom: "conv5_1"
  top: "conv5_2"
  param {
    lr_mult: 1
    decay_mult: 1
  }
  param {
    lr_mult: 2
    decay_mult: 0
  }
  convolution_param {
    num_output: 512
    pad: 1
    kernel_size: 3
    weight_filler {
      type: "xavier"
    }
    bias_filler {
      type: "constant"
      value: 0
    }
    dilation: 1
  }
}
layer {
  name: "relu5_2"
  type: "ReLU"
  bottom: "conv5_2"
  top: "conv5_2"
}
layer {
  name: "conv5_3"
  type: "Convolution"
  bottom: "conv5_2"
  top: "conv5_3"
  param {
    lr_mult: 1
    decay_mult: 1
  }
  param {
    lr_mult: 2
    decay_mult: 0
  }
  convolution_param {
    num_output: 512
    pad: 1
    kernel_size: 3
    weight_filler {
      type: "xavier"
    }
    bias_filler {
      type: "constant"
      value: 0
    }
    dilation: 1
  }
}
layer {
  name: "relu5_3"
  type: "ReLU"
  bottom: "conv5_3"
  top: "conv5_3"
}
layer {
  name: "pool5"
  type: "Pooling"
  bottom: "conv5_3"
  top: "pool5"
  pooling_param {
    pool: MAX
    kernel_size: 3
    stride: 1
    pad: 1
  }
}
layer {
  name: "fc6"
  type: "Convolution"
  bottom: "pool5"
  top: "fc6"
  param {
    lr_mult: 1
    decay_mult: 1
  }
  param {
    lr_mult: 2
    decay_mult: 0
  }
  convolution_param {
    num_output: 1024
    pad: 6
    kernel_size: 3
    weight_filler {
      type: "xavier"
    }
    bias_filler {
      type: "constant"
      value: 0
    }
    dilation: 6
  }
}
layer {
  name: "relu6"
  type: "ReLU"
  bottom: "fc6"
  top: "fc6"
}
layer {
  name: "fc7"
  type: "Convolution"
  bottom: "fc6"
  top: "fc7_t"
  param {
    lr_mult: 1
    decay_mult: 1
  }
  param {
    lr_mult: 2
    decay_mult: 0
  }
  convolution_param {
    num_output: 1024
    kernel_size: 1
    weight_filler {
      type: "xavier"
    }
    bias_filler {
      type: "constant"
      value: 0
    }
  }
}
layer {
  name: "relu7"
  type: "ReLU"
  bottom: "fc7_t"
  top: "fc7_t"
}
layer {
  name: "fc7_s"
  type: "Pooling"
  bottom: "fc7_t"
  top: "fc7_s"
  pooling_param {
    pool: AVE
    global_pooling: true
  }
}
layer {
  name: "fc7_fc1"
  type: "Convolution"
  bottom: "fc7_s"
  top: "fc7_fc1"
  param {
    lr_mult: 1
    decay_mult: 1
  }
  param {
    lr_mult: 2
    decay_mult: 0
  }
  convolution_param {
    num_output: 256
    kernel_size: 1
    stride: 1
    weight_filler {
      type: "xavier"
    }
    bias_filler {
      type: "constant"
      value: 0
    }
  }
}
layer {
  name: "fc7_relu"
  type: "ReLU"
  bottom: "fc7_fc1"
  top: "fc7_fc1"
}
layer {
  name: "fc7_fc2"
  type: "Convolution"
  bottom: "fc7_fc1"
  top: "fc7_fc2"
  param {
    lr_mult: 1
    decay_mult: 1
  }
  param {
    lr_mult: 2
    decay_mult: 0
  }
  convolution_param {
    num_output: 1024
    kernel_size: 1
    stride: 1
    weight_filler {
      type: "xavier"
    }
    bias_filler {
      type: "constant"
      value: 0
    }
  }
}
layer {
  name: "fc7_sig"
  type: "Sigmoid"
  bottom: "fc7_fc2"
  top: "fc7_fc2"
}
layer {
  name: "fc7_reshape"
  type: "Reshape"
  bottom: "fc7_fc2"
  top: "fc7_reshape"
  reshape_param {
    shape {
      dim: 0
      dim: 0
    }
  }
}
layer {
  name: "fc7_scale"
  type: "Scale"
  bottom: "fc7_t"
  bottom: "fc7_reshape"
  top: "fc7"
  scale_param {
    axis: 0
    bias_term: false
  }
}
layer {
  name: "conv6_1"
  type: "Convolution"
  bottom: "fc7"
  top: "conv6_1"
  param {
    lr_mult: 1
    decay_mult: 1
  }
  param {
    lr_mult: 2
    decay_mult: 0
  }
  convolution_param {
    num_output: 256
    pad: 0
    kernel_size: 1
    stride: 1
    weight_filler {
      type: "xavier"
    }
    bias_filler {
      type: "constant"
      value: 0
    }
  }
}
layer {
  name: "conv6_1_relu"
  type: "ReLU"
  bottom: "conv6_1"
  top: "conv6_1"
}
layer {
  name: "conv6_2"
  type: "Convolution"
  bottom: "conv6_1"
  top: "conv6_2_t"
  param {
    lr_mult: 1
    decay_mult: 1
  }
  param {
    lr_mult: 2
    decay_mult: 0
  }
  convolution_param {
    num_output: 512
    pad: 1
    kernel_size: 3
    stride: 2
    weight_filler {
      type: "xavier"
    }
    bias_filler {
      type: "constant"
      value: 0
    }
  }
}
layer {
  name: "conv6_2_relu"
  type: "ReLU"
  bottom: "conv6_2_t"
  top: "conv6_2_t"
}
layer {
  name: "conv6_2_s"
  type: "Pooling"
  bottom: "conv6_2_t"
  top: "conv6_2_s"
  pooling_param {
    pool: AVE
    global_pooling: true
  }
}
layer {
  name: "conv6_2_fc1"
  type: "Convolution"
  bottom: "conv6_2_s"
  top: "conv6_2_fc1"
  param {
    lr_mult: 1
    decay_mult: 1
  }
  param {
    lr_mult: 2
    decay_mult: 0
  }
  convolution_param {
    num_output: 128
    kernel_size: 1
    stride: 1
    weight_filler {
      type: "xavier"
    }
    bias_filler {
      type: "constant"
      value: 0
    }
  }
}
layer {
  name: "conv6_2_relu"
  type: "ReLU"
  bottom: "conv6_2_fc1"
  top: "conv6_2_fc1"
}
layer {
  name: "conv6_2_fc2"
  type: "Convolution"
  bottom: "conv6_2_fc1"
  top: "conv6_2_fc2"
  param {
    lr_mult: 1
    decay_mult: 1
  }
  param {
    lr_mult: 2
    decay_mult: 0
  }
  convolution_param {
    num_output: 512
    kernel_size: 1
    stride: 1
    weight_filler {
      type: "xavier"
    }
    bias_filler {
      type: "constant"
      value: 0
    }
  }
}
layer {
  name: "conv6_2_sig"
  type: "Sigmoid"
  bottom: "conv6_2_fc2"
  top: "conv6_2_fc2"
}
layer {
  name: "conv6_2_reshape"
  type: "Reshape"
  bottom: "conv6_2_fc2"
  top: "conv6_2_reshape"
  reshape_param {
    shape {
      dim: 0
      dim: 0
    }
  }
}
layer {
  name: "conv6_2_scale"
  type: "Scale"
  bottom: "conv6_2_t"
  bottom: "conv6_2_reshape"
  top: "conv6_2"
  scale_param {
    axis: 0
    bias_term: false
  }
}
layer {
  name: "conv7_1"
  type: "Convolution"
  bottom: "conv6_2"
  top: "conv7_1"
  param {
    lr_mult: 1
    decay_mult: 1
  }
  param {
    lr_mult: 2
    decay_mult: 0
  }
  convolution_param {
    num_output: 128
    pad: 0
    kernel_size: 1
    stride: 1
    weight_filler {
      type: "xavier"
    }
    bias_filler {
      type: "constant"
      value: 0
    }
  }
}
layer {
  name: "conv7_1_relu"
  type: "ReLU"
  bottom: "conv7_1"
  top: "conv7_1"
}
layer {
  name: "conv7_2"
  type: "Convolution"
  bottom: "conv7_1"
  top: "conv7_2_t"
  param {
    lr_mult: 1
    decay_mult: 1
  }
  param {
    lr_mult: 2
    decay_mult: 0
  }
  convolution_param {
    num_output: 256
    pad: 1
    kernel_size: 3
    stride: 2
    weight_filler {
      type: "xavier"
    }
    bias_filler {
      type: "constant"
      value: 0
    }
  }
}
layer {
  name: "conv7_2_relu"
  type: "ReLU"
  bottom: "conv7_2_t"
  top: "conv7_2_t"
}
layer {
  name: "conv7_2_s"
  type: "Pooling"
  bottom: "conv7_2_t"
  top: "conv7_2_s"
  pooling_param {
    pool: AVE
    global_pooling: true
  }
}
layer {
  name: "conv7_2_fc1"
  type: "Convolution"
  bottom: "conv7_2_s"
  top: "conv7_2_fc1"
  param {
    lr_mult: 1
    decay_mult: 1
  }
  param {
    lr_mult: 2
    decay_mult: 0
  }
  convolution_param {
    num_output: 64
    kernel_size: 1
    stride: 1
    weight_filler {
      type: "xavier"
    }
    bias_filler {
      type: "constant"
      value: 0
    }
  }
}
layer {
  name: "conv7_2_relu"
  type: "ReLU"
  bottom: "conv7_2_fc1"
  top: "conv7_2_fc1"
}
layer {
  name: "conv7_2_fc2"
  type: "Convolution"
  bottom: "conv7_2_fc1"
  top: "conv7_2_fc2"
  param {
    lr_mult: 1
    decay_mult: 1
  }
  param {
    lr_mult: 2
    decay_mult: 0
  }
  convolution_param {
    num_output: 256
    kernel_size: 1
    stride: 1
    weight_filler {
      type: "xavier"
    }
    bias_filler {
      type: "constant"
      value: 0
    }
  }
}
layer {
  name: "conv7_2_sig"
  type: "Sigmoid"
  bottom: "conv7_2_fc2"
  top: "conv7_2_fc2"
}
layer {
  name: "conv7_2_reshape"
  type: "Reshape"
  bottom: "conv7_2_fc2"
  top: "conv7_2_reshape"
  reshape_param {
    shape {
      dim: 0
      dim: 0
    }
  }
}
layer {
  name: "conv7_2_scale"
  type: "Scale"
  bottom: "conv7_2_t"
  bottom: "conv7_2_reshape"
  top: "conv7_2"
  scale_param {
    axis: 0
    bias_term: false
  }
}
layer {
  name: "conv8_1"
  type: "Convolution"
  bottom: "conv7_2"
  top: "conv8_1"
  param {
    lr_mult: 1
    decay_mult: 1
  }
  param {
    lr_mult: 2
    decay_mult: 0
  }
  convolution_param {
    num_output: 128
    pad: 0
    kernel_size: 1
    stride: 1
    weight_filler {
      type: "xavier"
    }
    bias_filler {
      type: "constant"
      value: 0
    }
  }
}
layer {
  name: "conv8_1_relu"
  type: "ReLU"
  bottom: "conv8_1"
  top: "conv8_1"
}
layer {
  name: "conv8_2"
  type: "Convolution"
  bottom: "conv8_1"
  top: "conv8_2_t"
  param {
    lr_mult: 1
    decay_mult: 1
  }
  param {
    lr_mult: 2
    decay_mult: 0
  }
  convolution_param {
    num_output: 256
    pad: 0
    kernel_size: 3
    stride: 1
    weight_filler {
      type: "xavier"
    }
    bias_filler {
      type: "constant"
      value: 0
    }
  }
}
layer {
  name: "conv8_2_relu"
  type: "ReLU"
  bottom: "conv8_2_t"
  top: "conv8_2_t"
}
layer {
  name: "conv8_2_s"
  type: "Pooling"
  bottom: "conv8_2_t"
  top: "conv8_2_s"
  pooling_param {
    pool: AVE
    global_pooling: true
  }
}
layer {
  name: "conv8_2_fc1"
  type: "Convolution"
  bottom: "conv8_2_s"
  top: "conv8_2_fc1"
  param {
    lr_mult: 1
    decay_mult: 1
  }
  param {
    lr_mult: 2
    decay_mult: 0
  }
  convolution_param {
    num_output: 64
    kernel_size: 1
    stride: 1
    weight_filler {
      type: "xavier"
    }
    bias_filler {
      type: "constant"
      value: 0
    }
  }
}
layer {
  name: "conv8_2_relu"
  type: "ReLU"
  bottom: "conv8_2_fc1"
  top: "conv8_2_fc1"
}
layer {
  name: "conv8_2_fc2"
  type: "Convolution"
  bottom: "conv8_2_fc1"
  top: "conv8_2_fc2"
  param {
    lr_mult: 1
    decay_mult: 1
  }
  param {
    lr_mult: 2
    decay_mult: 0
  }
  convolution_param {
    num_output: 256
    kernel_size: 1
    stride: 1
    weight_filler {
      type: "xavier"
    }
    bias_filler {
      type: "constant"
      value: 0
    }
  }
}
layer {
  name: "conv8_2_sig"
  type: "Sigmoid"
  bottom: "conv8_2_fc2"
  top: "conv8_2_fc2"
}
layer {
  name: "conv8_2_reshape"
  type: "Reshape"
  bottom: "conv8_2_fc2"
  top: "conv8_2_reshape"
  reshape_param {
    shape {
      dim: 0
      dim: 0
    }
  }
}
layer {
  name: "conv8_2_scale"
  type: "Scale"
  bottom: "conv8_2_t"
  bottom: "conv8_2_reshape"
  top: "conv8_2"
  scale_param {
    axis: 0
    bias_term: false
  }
}
layer {
  name: "conv9_1"
  type: "Convolution"
  bottom: "conv8_2"
  top: "conv9_1"
  param {
    lr_mult: 1
    decay_mult: 1
  }
  param {
    lr_mult: 2
    decay_mult: 0
  }
  convolution_param {
    num_output: 128
    pad: 0
    kernel_size: 1
    stride: 1
    weight_filler {
      type: "xavier"
    }
    bias_filler {
      type: "constant"
      value: 0
    }
  }
}
layer {
  name: "conv9_1_relu"
  type: "ReLU"
  bottom: "conv9_1"
  top: "conv9_1"
}
layer {
  name: "conv9_2"
  type: "Convolution"
  bottom: "conv9_1"
  top: "conv9_2_t"
  param {
    lr_mult: 1
    decay_mult: 1
  }
  param {
    lr_mult: 2
    decay_mult: 0
  }
  convolution_param {
    num_output: 256
    pad: 0
    kernel_size: 3
    stride: 1
    weight_filler {
      type: "xavier"
    }
    bias_filler {
      type: "constant"
      value: 0
    }
  }
}
layer {
  name: "conv9_2_relu"
  type: "ReLU"
  bottom: "conv9_2_t"
  top: "conv9_2_t"
}
layer {
  name: "conv9_2_s"
  type: "Pooling"
  bottom: "conv9_2_t"
  top: "conv9_2_s"
  pooling_param {
    pool: AVE
    global_pooling: true
  }
}
layer {
  name: "conv9_2_fc1"
  type: "Convolution"
  bottom: "conv9_2_s"
  top: "conv9_2_fc1"
  param {
    lr_mult: 1
    decay_mult: 1
  }
  param {
    lr_mult: 2
    decay_mult: 0
  }
  convolution_param {
…
I0307 02:25:07.252178 11441 net.cpp:100] Creating Layer conv7_2_s
I0307 02:25:07.252187 11441 net.cpp:434] conv7_2_s <- conv7_2_t_conv7_2_relu_0_split_0
I0307 02:25:07.252202 11441 net.cpp:408] conv7_2_s -> conv7_2_s
I0307 02:25:07.252794 11441 net.cpp:150] Setting up conv7_2_s
I0307 02:25:07.252807 11441 net.cpp:157] Top shape: 1 256 1 1 (256)
I0307 02:25:07.252815 11441 net.cpp:165] Memory required for data: 314155008
I0307 02:25:07.252822 11441 layer_factory.hpp:77] Creating layer conv7_2_fc1
I0307 02:25:07.252840 11441 net.cpp:100] Creating Layer conv7_2_fc1
I0307 02:25:07.252851 11441 net.cpp:434] conv7_2_fc1 <- conv7_2_s
I0307 02:25:07.252864 11441 net.cpp:408] conv7_2_fc1 -> conv7_2_fc1
I0307 02:25:07.254184 11441 net.cpp:150] Setting up conv7_2_fc1
I0307 02:25:07.254197 11441 net.cpp:157] Top shape: 1 64 1 1 (64)
I0307 02:25:07.254204 11441 net.cpp:165] Memory required for data: 314155264
I0307 02:25:07.254214 11441 layer_factory.hpp:77] Creating layer conv7_2_relu
I0307 02:25:07.254228 11441 net.cpp:100] Creating Layer conv7_2_relu
I0307 02:25:07.254236 11441 net.cpp:434] conv7_2_relu <- conv7_2_fc1
I0307 02:25:07.254250 11441 net.cpp:395] conv7_2_relu -> conv7_2_fc1 (in-place)
I0307 02:25:07.254837 11441 net.cpp:150] Setting up conv7_2_relu
I0307 02:25:07.254851 11441 net.cpp:157] Top shape: 1 64 1 1 (64)
I0307 02:25:07.254856 11441 net.cpp:165] Memory required for data: 314155520
I0307 02:25:07.254863 11441 layer_factory.hpp:77] Creating layer conv7_2_fc2
I0307 02:25:07.254879 11441 net.cpp:100] Creating Layer conv7_2_fc2
I0307 02:25:07.254887 11441 net.cpp:434] conv7_2_fc2 <- conv7_2_fc1
I0307 02:25:07.254923 11441 net.cpp:408] conv7_2_fc2 -> conv7_2_fc2
I0307 02:25:07.256904 11441 net.cpp:150] Setting up conv7_2_fc2
I0307 02:25:07.256918 11441 net.cpp:157] Top shape: 1 256 1 1 (256)
I0307 02:25:07.256925 11441 net.cpp:165] Memory required for data: 314156544
I0307 02:25:07.256947 11441 layer_factory.hpp:77] Creating layer conv7_2_sig
I0307 02:25:07.256960 11441 net.cpp:100] Creating Layer conv7_2_sig
I0307 02:25:07.256973 11441 net.cpp:434] conv7_2_sig <- conv7_2_fc2
I0307 02:25:07.256984 11441 net.cpp:395] conv7_2_sig -> conv7_2_fc2 (in-place)
I0307 02:25:07.257165 11441 net.cpp:150] Setting up conv7_2_sig
I0307 02:25:07.257179 11441 net.cpp:157] Top shape: 1 256 1 1 (256)
I0307 02:25:07.257189 11441 net.cpp:165] Memory required for data: 314157568
I0307 02:25:07.257195 11441 layer_factory.hpp:77] Creating layer conv7_2_reshape
I0307 02:25:07.257210 11441 net.cpp:100] Creating Layer conv7_2_reshape
I0307 02:25:07.257217 11441 net.cpp:434] conv7_2_reshape <- conv7_2_fc2
I0307 02:25:07.257225 11441 net.cpp:408] conv7_2_reshape -> conv7_2_reshape
I0307 02:25:07.257280 11441 net.cpp:150] Setting up conv7_2_reshape
I0307 02:25:07.257293 11441 net.cpp:157] Top shape: 1 256 (256)
I0307 02:25:07.257306 11441 net.cpp:165] Memory required for data: 314158592
I0307 02:25:07.257313 11441 layer_factory.hpp:77] Creating layer conv7_2_scale
I0307 02:25:07.257330 11441 net.cpp:100] Creating Layer conv7_2_scale
I0307 02:25:07.257339 11441 net.cpp:434] conv7_2_scale <- conv7_2_t_conv7_2_relu_0_split_1
I0307 02:25:07.257355 11441 net.cpp:434] conv7_2_scale <- conv7_2_reshape
I0307 02:25:07.257366 11441 net.cpp:408] conv7_2_scale -> conv7_2
I0307 02:25:07.257458 11441 net.cpp:150] Setting up conv7_2_scale
I0307 02:25:07.257472 11441 net.cpp:157] Top shape: 1 256 5 5 (6400)
I0307 02:25:07.257477 11441 net.cpp:165] Memory required for data: 314184192
I0307 02:25:07.257483 11441 layer_factory.hpp:77] Creating layer conv7_2_conv7_2_scale_0_split
I0307 02:25:07.257496 11441 net.cpp:100] Creating Layer conv7_2_conv7_2_scale_0_split
I0307 02:25:07.257508 11441 net.cpp:434] conv7_2_conv7_2_scale_0_split <- conv7_2
I0307 02:25:07.257534 11441 net.cpp:408] conv7_2_conv7_2_scale_0_split -> conv7_2_conv7_2_scale_0_split_0
I0307 02:25:07.257549 11441 net.cpp:408] conv7_2_conv7_2_scale_0_split -> conv7_2_conv7_2_scale_0_split_1
I0307 02:25:07.257568 11441 net.cpp:408] conv7_2_conv7_2_scale_0_split -> conv7_2_conv7_2_scale_0_split_2
I0307 02:25:07.257580 11441 net.cpp:408] conv7_2_conv7_2_scale_0_split -> conv7_2_conv7_2_scale_0_split_3
I0307 02:25:07.257674 11441 net.cpp:150] Setting up conv7_2_conv7_2_scale_0_split
I0307 02:25:07.257688 11441 net.cpp:157] Top shape: 1 256 5 5 (6400)
I0307 02:25:07.257694 11441 net.cpp:157] Top shape: 1 256 5 5 (6400)
I0307 02:25:07.257709 11441 net.cpp:157] Top shape: 1 256 5 5 (6400)
I0307 02:25:07.257726 11441 net.cpp:157] Top shape: 1 256 5 5 (6400)
I0307 02:25:07.257740 11441 net.cpp:165] Memory required for data: 314286592
I0307 02:25:07.257745 11441 layer_factory.hpp:77] Creating layer conv8_1
I0307 02:25:07.257766 11441 net.cpp:100] Creating Layer conv8_1
I0307 02:25:07.257776 11441 net.cpp:434] conv8_1 <- conv7_2_conv7_2_scale_0_split_0
I0307 02:25:07.257791 11441 net.cpp:408] conv8_1 -> conv8_1
I0307 02:25:07.259161 11441 net.cpp:150] Setting up conv8_1
I0307 02:25:07.259179 11441 net.cpp:157] Top shape: 1 128 5 5 (3200)
I0307 02:25:07.259186 11441 net.cpp:165] Memory required for data: 314299392
I0307 02:25:07.259197 11441 layer_factory.hpp:77] Creating layer conv8_1_relu
I0307 02:25:07.259213 11441 net.cpp:100] Creating Layer conv8_1_relu
I0307 02:25:07.259222 11441 net.cpp:434] conv8_1_relu <- conv8_1
I0307 02:25:07.259233 11441 net.cpp:395] conv8_1_relu -> conv8_1 (in-place)
I0307 02:25:07.259419 11441 net.cpp:150] Setting up conv8_1_relu
I0307 02:25:07.259429 11441 net.cpp:157] Top shape: 1 128 5 5 (3200)
I0307 02:25:07.259435 11441 net.cpp:165] Memory required for data: 314312192
I0307 02:25:07.259440 11441 layer_factory.hpp:77] Creating layer conv8_2
I0307 02:25:07.259469 11441 net.cpp:100] Creating Layer conv8_2
I0307 02:25:07.259480 11441 net.cpp:434] conv8_2 <- conv8_1
I0307 02:25:07.259492 11441 net.cpp:408] conv8_2 -> conv8_2_t
I0307 02:25:07.263072 11441 net.cpp:150] Setting up conv8_2
I0307 02:25:07.263090 11441 net.cpp:157] Top shape: 1 256 3 3 (2304)
I0307 02:25:07.263098 11441 net.cpp:165] Memory required for data: 314321408
I0307 02:25:07.263106 11441 layer_factory.hpp:77] Creating layer conv8_2_relu
I0307 02:25:07.263128 11441 net.cpp:100] Creating Layer conv8_2_relu
I0307 02:25:07.263139 11441 net.cpp:434] conv8_2_relu <- conv8_2_t
I0307 02:25:07.263154 11441 net.cpp:395] conv8_2_relu -> conv8_2_t (in-place)
I0307 02:25:07.263736 11441 net.cpp:150] Setting up conv8_2_relu
I0307 02:25:07.263751 11441 net.cpp:157] Top shape: 1 256 3 3 (2304)
I0307 02:25:07.263757 11441 net.cpp:165] Memory required for data: 314330624
I0307 02:25:07.263763 11441 layer_factory.hpp:77] Creating layer conv8_2_t_conv8_2_relu_0_split
I0307 02:25:07.263773 11441 net.cpp:100] Creating Layer conv8_2_t_conv8_2_relu_0_split
I0307 02:25:07.263787 11441 net.cpp:434] conv8_2_t_conv8_2_relu_0_split <- conv8_2_t
I0307 02:25:07.263800 11441 net.cpp:408] conv8_2_t_conv8_2_relu_0_split -> conv8_2_t_conv8_2_relu_0_split_0
I0307 02:25:07.263818 11441 net.cpp:408] conv8_2_t_conv8_2_relu_0_split -> conv8_2_t_conv8_2_relu_0_split_1
I0307 02:25:07.263895 11441 net.cpp:150] Setting up conv8_2_t_conv8_2_relu_0_split
I0307 02:25:07.263911 11441 net.cpp:157] Top shape: 1 256 3 3 (2304)
I0307 02:25:07.263917 11441 net.cpp:157] Top shape: 1 256 3 3 (2304)
I0307 02:25:07.263928 11441 net.cpp:165] Memory required for data: 314349056
I0307 02:25:07.263934 11441 layer_factory.hpp:77] Creating layer conv8_2_s
I0307 02:25:07.263949 11441 net.cpp:100] Creating Layer conv8_2_s
I0307 02:25:07.263963 11441 net.cpp:434] conv8_2_s <- conv8_2_t_conv8_2_relu_0_split_0
I0307 02:25:07.263978 11441 net.cpp:408] conv8_2_s -> conv8_2_s
I0307 02:25:07.264179 11441 net.cpp:150] Setting up conv8_2_s
I0307 02:25:07.264191 11441 net.cpp:157] Top shape: 1 256 1 1 (256)
I0307 02:25:07.264196 11441 net.cpp:165] Memory required for data: 314350080
I0307 02:25:07.264202 11441 layer_factory.hpp:77] Creating layer conv8_2_fc1
I0307 02:25:07.264219 11441 net.cpp:100] Creating Layer conv8_2_fc1
I0307 02:25:07.264228 11441 net.cpp:434] conv8_2_fc1 <- conv8_2_s
I0307 02:25:07.264245 11441 net.cpp:408] conv8_2_fc1 -> conv8_2_fc1
I0307 02:25:07.265560 11441 net.cpp:150] Setting up conv8_2_fc1
I0307 02:25:07.265575 11441 net.cpp:157] Top shape: 1 64 1 1 (64)
I0307 02:25:07.265581 11441 net.cpp:165] Memory required for data: 314350336
I0307 02:25:07.265589 11441 layer_factory.hpp:77] Creating layer conv8_2_relu
I0307 02:25:07.265600 11441 net.cpp:100] Creating Layer conv8_2_relu
I0307 02:25:07.265606 11441 net.cpp:434] conv8_2_relu <- conv8_2_fc1
I0307 02:25:07.265624 11441 net.cpp:395] conv8_2_relu -> conv8_2_fc1 (in-place)
I0307 02:25:07.265801 11441 net.cpp:150] Setting up conv8_2_relu
I0307 02:25:07.265815 11441 net.cpp:157] Top shape: 1 64 1 1 (64)
I0307 02:25:07.265825 11441 net.cpp:165] Memory required for data: 314350592
I0307 02:25:07.265831 11441 layer_factory.hpp:77] Creating layer conv8_2_fc2
I0307 02:25:07.265846 11441 net.cpp:100] Creating Layer conv8_2_fc2
I0307 02:25:07.265856 11441 net.cpp:434] conv8_2_fc2 <- conv8_2_fc1
I0307 02:25:07.265873 11441 net.cpp:408] conv8_2_fc2 -> conv8_2_fc2
I0307 02:25:07.267185 11441 net.cpp:150] Setting up conv8_2_fc2
I0307 02:25:07.267199 11441 net.cpp:157] Top shape: 1 256 1 1 (256)
I0307 02:25:07.267205 11441 net.cpp:165] Memory required for data: 314351616
I0307 02:25:07.267215 11441 layer_factory.hpp:77] Creating layer conv8_2_sig
I0307 02:25:07.267222 11441 net.cpp:100] Creating Layer conv8_2_sig
I0307 02:25:07.267235 11441 net.cpp:434] conv8_2_sig <- conv8_2_fc2
I0307 02:25:07.267249 11441 net.cpp:395] conv8_2_sig -> conv8_2_fc2 (in-place)
I0307 02:25:07.267431 11441 net.cpp:150] Setting up conv8_2_sig
I0307 02:25:07.267444 11441 net.cpp:157] Top shape: 1 256 1 1 (256)
I0307 02:25:07.267453 11441 net.cpp:165] Memory required for data: 314352640
I0307 02:25:07.267477 11441 layer_factory.hpp:77] Creating layer conv8_2_reshape
I0307 02:25:07.267489 11441 net.cpp:100] Creating Layer conv8_2_reshape
I0307 02:25:07.267503 11441 net.cpp:434] conv8_2_reshape <- conv8_2_fc2
I0307 02:25:07.267516 11441 net.cpp:408] conv8_2_reshape -> conv8_2_reshape
I0307 02:25:07.267570 11441 net.cpp:150] Setting up conv8_2_reshape
I0307 02:25:07.267585 11441 net.cpp:157] Top shape: 1 256 (256)
I0307 02:25:07.267590 11441 net.cpp:165] Memory required for data: 314353664
I0307 02:25:07.267598 11441 layer_factory.hpp:77] Creating layer conv8_2_scale
I0307 02:25:07.267614 11441 net.cpp:100] Creating Layer conv8_2_scale
I0307 02:25:07.267627 11441 net.cpp:434] conv8_2_scale <- conv8_2_t_conv8_2_relu_0_split_1
I0307 02:25:07.267642 11441 net.cpp:434] conv8_2_scale <- conv8_2_reshape
I0307 02:25:07.267657 11441 net.cpp:408] conv8_2_scale -> conv8_2
I0307 02:25:07.267757 11441 net.cpp:150] Setting up conv8_2_scale
I0307 02:25:07.267771 11441 net.cpp:157] Top shape: 1 256 3 3 (2304)
I0307 02:25:07.267776 11441 net.cpp:165] Memory required for data: 314362880
I0307 02:25:07.267782 11441 layer_factory.hpp:77] Creating layer conv8_2_conv8_2_scale_0_split
I0307 02:25:07.267791 11441 net.cpp:100] Creating Layer conv8_2_conv8_2_scale_0_split
I0307 02:25:07.267804 11441 net.cpp:434] conv8_2_conv8_2_scale_0_split <- conv8_2
I0307 02:25:07.267817 11441 net.cpp:408] conv8_2_conv8_2_scale_0_split -> conv8_2_conv8_2_scale_0_split_0
I0307 02:25:07.267832 11441 net.cpp:408] conv8_2_conv8_2_scale_0_split -> conv8_2_conv8_2_scale_0_split_1
I0307 02:25:07.267844 11441 net.cpp:408] conv8_2_conv8_2_scale_0_split -> conv8_2_conv8_2_scale_0_split_2
I0307 02:25:07.267860 11441 net.cpp:408] conv8_2_conv8_2_scale_0_split -> conv8_2_conv8_2_scale_0_split_3
I0307 02:25:07.267952 11441 net.cpp:150] Setting up conv8_2_conv8_2_scale_0_split
I0307 02:25:07.267963 11441 net.cpp:157] Top shape: 1 256 3 3 (2304)
I0307 02:25:07.267972 11441 net.cpp:157] Top shape: 1 256 3 3 (2304)
I0307 02:25:07.267978 11441 net.cpp:157] Top shape: 1 256 3 3 (2304)
I0307 02:25:07.267992 11441 net.cpp:157] Top shape: 1 256 3 3 (2304)
I0307 02:25:07.268005 11441 net.cpp:165] Memory required for data: 314399744
I0307 02:25:07.268019 11441 layer_factory.hpp:77] Creating layer conv9_1
I0307 02:25:07.268039 11441 net.cpp:100] Creating Layer conv9_1
I0307 02:25:07.268049 11441 net.cpp:434] conv9_1 <- conv8_2_conv8_2_scale_0_split_0
I0307 02:25:07.268065 11441 net.cpp:408] conv9_1 -> conv9_1
I0307 02:25:07.269417 11441 net.cpp:150] Setting up conv9_1
I0307 02:25:07.269431 11441 net.cpp:157] Top shape: 1 128 3 3 (1152)
I0307 02:25:07.269438 11441 net.cpp:165] Memory required for data: 314404352
I0307 02:25:07.269446 11441 layer_factory.hpp:77] Creating layer conv9_1_relu
I0307 02:25:07.269461 11441 net.cpp:100] Creating Layer conv9_1_relu
I0307 02:25:07.269470 11441 net.cpp:434] conv9_1_relu <- conv9_1
I0307 02:25:07.269481 11441 net.cpp:395] conv9_1_relu -> conv9_1 (in-place)
I0307 02:25:07.270064 11441 net.cpp:150] Setting up conv9_1_relu
I0307 02:25:07.270081 11441 net.cpp:157] Top shape: 1 128 3 3 (1152)
I0307 02:25:07.270087 11441 net.cpp:165] Memory required for data: 314408960
I0307 02:25:07.270093 11441 layer_factory.hpp:77] Creating layer conv9_2
I0307 02:25:07.270110 11441 net.cpp:100] Creating Layer conv9_2
I0307 02:25:07.270120 11441 net.cpp:434] conv9_2 <- conv9_1
I0307 02:25:07.270133 11441 net.cpp:408] conv9_2 -> conv9_2_t
I0307 02:25:07.273761 11441 net.cpp:150] Setting up conv9_2
I0307 02:25:07.273778 11441 net.cpp:157] Top shape: 1 256 1 1 (256)
I0307 02:25:07.273784 11441 net.cpp:165] Memory required for data: 314409984
I0307 02:25:07.273794 11441 layer_factory.hpp:77] Creating layer conv9_2_relu
I0307 02:25:07.273813 11441 net.cpp:100] Creating Layer conv9_2_relu
I0307 02:25:07.273820 11441 net.cpp:434] conv9_2_relu <- conv9_2_t
I0307 02:25:07.273828 11441 net.cpp:395] conv9_2_relu -> conv9_2_t (in-place)
I0307 02:25:07.274036 11441 net.cpp:150] Setting up conv9_2_relu
I0307 02:25:07.274060 11441 net.cpp:157] Top shape: 1 256 1 1 (256)
I0307 02:25:07.274065 11441 net.cpp:165] Memory required for data: 314411008
I0307 02:25:07.274072 11441 layer_factory.hpp:77] Creating layer conv9_2_t_conv9_2_relu_0_split
I0307 02:25:07.274083 11441 net.cpp:100] Creating Layer conv9_2_t_conv9_2_relu_0_split
I0307 02:25:07.274093 11441 net.cpp:434] conv9_2_t_conv9_2_relu_0_split <- conv9_2_t
I0307 02:25:07.274111 11441 net.cpp:408] conv9_2_t_conv9_2_relu_0_split -> conv9_2_t_conv9_2_relu_0_split_0
I0307 02:25:07.274124 11441 net.cpp:408] conv9_2_t_conv9_2_relu_0_split -> conv9_2_t_conv9_2_relu_0_split_1
I0307 02:25:07.274194 11441 net.cpp:150] Setting up conv9_2_t_conv9_2_relu_0_split
I0307 02:25:07.274209 11441 net.cpp:157] Top shape: 1 256 1 1 (256)
I0307 02:25:07.274217 11441 net.cpp:157] Top shape: 1 256 1 1 (256)
I0307 02:25:07.274225 11441 net.cpp:165] Memory required for data: 314413056
I0307 02:25:07.274233 11441 layer_factory.hpp:77] Creating layer conv9_2_s
I0307 02:25:07.274255 11441 net.cpp:100] Creating Layer conv9_2_s
I0307 02:25:07.274263 11441 net.cpp:434] conv9_2_s <- conv9_2_t_conv9_2_relu_0_split_0
I0307 02:25:07.274284 11441 net.cpp:408] conv9_2_s -> conv9_2_s
I0307 02:25:07.274514 11441 net.cpp:150] Setting up conv9_2_s
I0307 02:25:07.274526 11441 net.cpp:157] Top shape: 1 256 1 1 (256)
I0307 02:25:07.274533 11441 net.cpp:165] Memory required for data: 314414080
I0307 02:25:07.274540 11441 layer_factory.hpp:77] Creating layer conv9_2_fc1
I0307 02:25:07.274555 11441 net.cpp:100] Creating Layer conv9_2_fc1
I0307 02:25:07.274562 11441 net.cpp:434] conv9_2_fc1 <- conv9_2_s
I0307 02:25:07.274580 11441 net.cpp:408] conv9_2_fc1 -> conv9_2_fc1
I0307 02:25:07.275907 11441 net.cpp:150] Setting up conv9_2_fc1
I0307 02:25:07.275920 11441 net.cpp:157] Top shape: 1 64 1 1 (64)
I0307 02:25:07.275926 11441 net.cpp:165] Memory required for data: 314414336
I0307 02:25:07.275938 11441 layer_factory.hpp:77] Creating layer conv9_2_relu
I0307 02:25:07.275957 11441 net.cpp:100] Creating Layer conv9_2_relu
I0307 02:25:07.275966 11441 net.cpp:434] conv9_2_relu <- conv9_2_fc1
I0307 02:25:07.275976 11441 net.cpp:395] conv9_2_relu -> conv9_2_fc1 (in-place)
I0307 02:25:07.277947 11441 net.cpp:150] Setting up conv9_2_relu
I0307 02:25:07.277959 11441 net.cpp:157] Top shape: 1 64 1 1 (64)
I0307 02:25:07.277966 11441 net.cpp:165] Memory required for data: 314414592
I0307 02:25:07.277972 11441 layer_factory.hpp:77] Creating layer conv9_2_fc2
I0307 02:25:07.277990 11441 net.cpp:100] Creating Layer conv9_2_fc2
I0307 02:25:07.278000 11441 net.cpp:434] conv9_2_fc2 <- conv9_2_fc1
I0307 02:25:07.278017 11441 net.cpp:408] conv9_2_fc2 -> conv9_2_fc2
I0307 02:25:07.279361 11441 net.cpp:150] Setting up conv9_2_fc2
I0307 02:25:07.279379 11441 net.cpp:157] Top shape: 1 256 1 1 (256)
I0307 02:25:07.279384 11441 net.cpp:165] Memory required for data: 314415616
I0307 02:25:07.279394 11441 layer_factory.hpp:77] Creating layer conv9_2_sig
I0307 02:25:07.279410 11441 net.cpp:100] Creating Layer conv9_2_sig
I0307 02:25:07.279422 11441 net.cpp:434] conv9_2_sig <- conv9_2_fc2
I0307 02:25:07.279431 11441 net.cpp:395] conv9_2_sig -> conv9_2_fc2 (in-place)
I0307 02:25:07.279629 11441 net.cpp:150] Setting up conv9_2_sig
I0307 02:25:07.279641 11441 net.cpp:157] Top shape: 1 256 1 1 (256)
I0307 02:25:07.279646 11441 net.cpp:165] Memory required for data: 314416640
I0307 02:25:07.279651 11441 layer_factory.hpp:77] Creating layer conv9_2_reshape
I0307 02:25:07.279659 11441 net.cpp:100] Creating Layer conv9_2_reshape
I0307 02:25:07.279672 11441 net.cpp:434] conv9_2_reshape <- conv9_2_fc2
I0307 02:25:07.279686 11441 net.cpp:408] conv9_2_reshape -> conv9_2_reshape
I0307 02:25:07.279737 11441 net.cpp:150] Setting up conv9_2_reshape
I0307 02:25:07.279748 11441 net.cpp:157] Top shape: 1 256 (256)
I0307 02:25:07.279755 11441 net.cpp:165] Memory required for data: 314417664
I0307 02:25:07.279760 11441 layer_factory.hpp:77] Creating layer conv9_2_scale
I0307 02:25:07.279774 11441 net.cpp:100] Creating Layer conv9_2_scale
I0307 02:25:07.279786 11441 net.cpp:434] conv9_2_scale <- conv9_2_t_conv9_2_relu_0_split_1
I0307 02:25:07.279811 11441 net.cpp:434] conv9_2_scale <- conv9_2_reshape
I0307 02:25:07.279826 11441 net.cpp:408] conv9_2_scale -> conv9_2
I0307 02:25:07.279925 11441 net.cpp:150] Setting up conv9_2_scale
I0307 02:25:07.279937 11441 net.cpp:157] Top shape: 1 256 1 1 (256)
I0307 02:25:07.279947 11441 net.cpp:165] Memory required for data: 314418688
I0307 02:25:07.279953 11441 layer_factory.hpp:77] Creating layer conv9_2_conv9_2_scale_0_split
I0307 02:25:07.279961 11441 net.cpp:100] Creating Layer conv9_2_conv9_2_scale_0_split
I0307 02:25:07.279976 11441 net.cpp:434] conv9_2_conv9_2_scale_0_split <- conv9_2
I0307 02:25:07.279992 11441 net.cpp:408] conv9_2_conv9_2_scale_0_split -> conv9_2_conv9_2_scale_0_split_0
I0307 02:25:07.280004 11441 net.cpp:408] conv9_2_conv9_2_scale_0_split -> conv9_2_conv9_2_scale_0_split_1
I0307 02:25:07.280019 11441 net.cpp:408] conv9_2_conv9_2_scale_0_split -> conv9_2_conv9_2_scale_0_split_2
I0307 02:25:07.280091 11441 net.cpp:150] Setting up conv9_2_conv9_2_scale_0_split
I0307 02:25:07.280103 11441 net.cpp:157] Top shape: 1 256 1 1 (256)
I0307 02:25:07.280114 11441 net.cpp:157] Top shape: 1 256 1 1 (256)
I0307 02:25:07.280122 11441 net.cpp:157] Top shape: 1 256 1 1 (256)
I0307 02:25:07.280129 11441 net.cpp:165] Memory required for data: 314421760
I0307 02:25:07.280140 11441 layer_factory.hpp:77] Creating layer conv4_3_norm
I0307 02:25:07.280153 11441 net.cpp:100] Creating Layer conv4_3_norm
I0307 02:25:07.280169 11441 net.cpp:434] conv4_3_norm <- conv4_3_conv4_3_scale_0_split_1
I0307 02:25:07.280182 11441 net.cpp:408] conv4_3_norm -> conv4_3_norm
I0307 02:25:07.280405 11441 net.cpp:150] Setting up conv4_3_norm
I0307 02:25:07.280416 11441 net.cpp:157] Top shape: 1 512 38 38 (739328)
I0307 02:25:07.280421 11441 net.cpp:165] Memory required for data: 317379072
I0307 02:25:07.280429 11441 layer_factory.hpp:77] Creating layer conv4_3_norm_conv4_3_norm_0_split
I0307 02:25:07.280445 11441 net.cpp:100] Creating Layer conv4_3_norm_conv4_3_norm_0_split
I0307 02:25:07.280453 11441 net.cpp:434] conv4_3_norm_conv4_3_norm_0_split <- conv4_3_norm
I0307 02:25:07.280465 11441 net.cpp:408] conv4_3_norm_conv4_3_norm_0_split -> conv4_3_norm_conv4_3_norm_0_split_0
I0307 02:25:07.280483 11441 net.cpp:408] conv4_3_norm_conv4_3_norm_0_split -> conv4_3_norm_conv4_3_norm_0_split_1
I0307 02:25:07.280494 11441 net.cpp:408] conv4_3_norm_conv4_3_norm_0_split -> conv4_3_norm_conv4_3_norm_0_split_2
I0307 02:25:07.280573 11441 net.cpp:150] Setting up conv4_3_norm_conv4_3_norm_0_split
I0307 02:25:07.280589 11441 net.cpp:157] Top shape: 1 512 38 38 (739328)
I0307 02:25:07.280596 11441 net.cpp:157] Top shape: 1 512 38 38 (739328)
I0307 02:25:07.280612 11441 net.cpp:157] Top shape: 1 512 38 38 (739328)
I0307 02:25:07.280622 11441 net.cpp:165] Memory required for data: 326251008
I0307 02:25:07.280627 11441 layer_factory.hpp:77] Creating layer conv4_3_norm_mbox_loc
I0307 02:25:07.280645 11441 net.cpp:100] Creating Layer conv4_3_norm_mbox_loc
I0307 02:25:07.280663 11441 net.cpp:434] conv4_3_norm_mbox_loc <- conv4_3_norm_conv4_3_norm_0_split_0
I0307 02:25:07.280675 11441 net.cpp:408] conv4_3_norm_mbox_loc -> conv4_3_norm_mbox_loc
I0307 02:25:07.282631 11441 net.cpp:150] Setting up conv4_3_norm_mbox_loc
I0307 02:25:07.282647 11441 net.cpp:157] Top shape: 1 16 38 38 (23104)
I0307 02:25:07.282654 11441 net.cpp:165] Memory required for data: 326343424
I0307 02:25:07.282663 11441 layer_factory.hpp:77] Creating layer conv4_3_norm_mbox_loc_perm
I0307 02:25:07.282680 11441 net.cpp:100] Creating Layer conv4_3_norm_mbox_loc_perm
I0307 02:25:07.282692 11441 net.cpp:434] conv4_3_norm_mbox_loc_perm <- conv4_3_norm_mbox_loc
I0307 02:25:07.282709 11441 net.cpp:408] conv4_3_norm_mbox_loc_perm -> conv4_3_norm_mbox_loc_perm
I0307 02:25:07.282857 11441 net.cpp:150] Setting up conv4_3_norm_mbox_loc_perm
I0307 02:25:07.282872 11441 net.cpp:157] Top shape: 1 38 38 16 (23104)
I0307 02:25:07.282881 11441 net.cpp:165] Memory required for data: 326435840
I0307 02:25:07.282887 11441 layer_factory.hpp:77] Creating layer conv4_3_norm_mbox_loc_flat
I0307 02:25:07.282913 11441 net.cpp:100] Creating Layer conv4_3_norm_mbox_loc_flat
I0307 02:25:07.282922 11441 net.cpp:434] conv4_3_norm_mbox_loc_flat <- conv4_3_norm_mbox_loc_perm
I0307 02:25:07.282937 11441 net.cpp:408] conv4_3_norm_mbox_loc_flat -> conv4_3_norm_mbox_loc_flat
I0307 02:25:07.282979 11441 net.cpp:150] Setting up conv4_3_norm_mbox_loc_flat
I0307 02:25:07.282989 11441 net.cpp:157] Top shape: 1 23104 (23104)
I0307 02:25:07.282997 11441 net.cpp:165] Memory required for data: 326528256
I0307 02:25:07.283001 11441 layer_factory.hpp:77] Creating layer conv4_3_norm_mbox_conf
I0307 02:25:07.283037 11441 net.cpp:100] Creating Layer conv4_3_norm_mbox_conf
I0307 02:25:07.283049 11441 net.cpp:434] conv4_3_norm_mbox_conf <- conv4_3_norm_conv4_3_norm_0_split_1
I0307 02:25:07.283066 11441 net.cpp:408] conv4_3_norm_mbox_conf -> conv4_3_norm_mbox_conf
I0307 02:25:07.287111 11441 net.cpp:150] Setting up conv4_3_norm_mbox_conf
I0307 02:25:07.287129 11441 net.cpp:157] Top shape: 1 84 38 38 (121296)
I0307 02:25:07.287135 11441 net.cpp:165] Memory required for data: 327013440
I0307 02:25:07.287147 11441 layer_factory.hpp:77] Creating layer conv4_3_norm_mbox_conf_perm
I0307 02:25:07.287168 11441 net.cpp:100] Creating Layer conv4_3_norm_mbox_conf_perm
I0307 02:25:07.287181 11441 net.cpp:434] conv4_3_norm_mbox_conf_perm <- conv4_3_norm_mbox_conf
I0307 02:25:07.287192 11441 net.cpp:408] conv4_3_norm_mbox_conf_perm -> conv4_3_norm_mbox_conf_perm
I0307 02:25:07.287345 11441 net.cpp:150] Setting up conv4_3_norm_mbox_conf_perm
I0307 02:25:07.287358 11441 net.cpp:157] Top shape: 1 38 38 84 (121296)
I0307 02:25:07.287365 11441 net.cpp:165] Memory required for data: 327498624
I0307 02:25:07.287370 11441 layer_factory.hpp:77] Creating layer conv4_3_norm_mbox_conf_flat
I0307 02:25:07.287384 11441 net.cpp:100] Creating Layer conv4_3_norm_mbox_conf_flat
I0307 02:25:07.287395 11441 net.cpp:434] conv4_3_norm_mbox_conf_flat <- conv4_3_norm_mbox_conf_perm
I0307 02:25:07.287405 11441 net.cpp:408] conv4_3_norm_mbox_conf_flat -> conv4_3_norm_mbox_conf_flat
I0307 02:25:07.287448 11441 net.cpp:150] Setting up conv4_3_norm_mbox_conf_flat
I0307 02:25:07.287461 11441 net.cpp:157] Top shape: 1 121296 (121296)
I0307 02:25:07.287464 11441 net.cpp:165] Memory required for data: 327983808
I0307 02:25:07.287472 11441 layer_factory.hpp:77] Creating layer conv4_3_norm_mbox_priorbox
I0307 02:25:07.287483 11441 net.cpp:100] Creating Layer conv4_3_norm_mbox_priorbox
I0307 02:25:07.287492 11441 net.cpp:434] conv4_3_norm_mbox_priorbox <- conv4_3_norm_conv4_3_norm_0_split_2
I0307 02:25:07.287505 11441 net.cpp:434] conv4_3_norm_mbox_priorbox <- data_data_0_split_1
I0307 02:25:07.287526 11441 net.cpp:408] conv4_3_norm_mbox_priorbox -> conv4_3_norm_mbox_priorbox
I0307 02:25:07.287571 11441 net.cpp:150] Setting up conv4_3_norm_mbox_priorbox
I0307 02:25:07.287585 11441 net.cpp:157] Top shape: 1 2 23104 (46208)
I0307 02:25:07.287591 11441 net.cpp:165] Memory required for data: 328168640
I0307 02:25:07.287598 11441 layer_factory.hpp:77] Creating layer fc7_mbox_loc
I0307 02:25:07.287616 11441 net.cpp:100] Creating Layer fc7_mbox_loc
I0307 02:25:07.287631 11441 net.cpp:434] fc7_mbox_loc <- fc7_fc7_scale_0_split_1
I0307 02:25:07.287643 11441 net.cpp:408] fc7_mbox_loc -> fc7_mbox_loc
I0307 02:25:07.290199 11441 net.cpp:150] Setting up fc7_mbox_loc
I0307 02:25:07.290215 11441 net.cpp:157] Top shape: 1 24 19 19 (8664)
I0307 02:25:07.290222 11441 net.cpp:165] Memory required for data: 328203296
I0307 02:25:07.290231 11441 layer_factory.hpp:77] Creating layer fc7_mbox_loc_perm
I0307 02:25:07.290249 11441 net.cpp:100] Creating Layer fc7_mbox_loc_perm
I0307 02:25:07.290258 11441 net.cpp:434] fc7_mbox_loc_perm <- fc7_mbox_loc
I0307 02:25:07.290275 11441 net.cpp:408] fc7_mbox_loc_perm -> fc7_mbox_loc_perm
I0307 02:25:07.290451 11441 net.cpp:150] Setting up fc7_mbox_loc_perm
I0307 02:25:07.290465 11441 net.cpp:157] Top shape: 1 19 19 24 (8664)
I0307 02:25:07.290474 11441 net.cpp:165] Memory required for data: 328237952
I0307 02:25:07.290482 11441 layer_factory.hpp:77] Creating layer fc7_mbox_loc_flat
I0307 02:25:07.290508 11441 net.cpp:100] Creating Layer fc7_mbox_loc_flat
I0307 02:25:07.290518 11441 net.cpp:434] fc7_mbox_loc_flat <- fc7_mbox_loc_perm
I0307 02:25:07.290534 11441 net.cpp:408] fc7_mbox_loc_flat -> fc7_mbox_loc_flat
I0307 02:25:07.290575 11441 net.cpp:150] Setting up fc7_mbox_loc_flat
I0307 02:25:07.290586 11441 net.cpp:157] Top shape: 1 8664 (8664)
I0307 02:25:07.290596 11441 net.cpp:165] Memory required for data: 328272608
I0307 02:25:07.290601 11441 layer_factory.hpp:77] Creating layer fc7_mbox_conf
I0307 02:25:07.290622 11441 net.cpp:100] Creating Layer fc7_mbox_conf
I0307 02:25:07.290630 11441 net.cpp:434] fc7_mbox_conf <- fc7_fc7_scale_0_split_2
I0307 02:25:07.290647 11441 net.cpp:408] fc7_mbox_conf -> fc7_mbox_conf
I0307 02:25:07.298549 11441 net.cpp:150] Setting up fc7_mbox_conf
I0307 02:25:07.298565 11441 net.cpp:157] Top shape: 1 126 19 19 (45486)
I0307 02:25:07.298571 11441 net.cpp:165] Memory required for data: 328454552
I0307 02:25:07.298584 11441 layer_factory.hpp:77] Creating layer fc7_mbox_conf_perm
I0307 02:25:07.298602 11441 net.cpp:100] Creating Layer fc7_mbox_conf_perm
I0307 02:25:07.298610 11441 net.cpp:434] fc7_mbox_conf_perm <- fc7_mbox_conf
I0307 02:25:07.298626 11441 net.cpp:408] fc7_mbox_conf_perm -> fc7_mbox_conf_perm
I0307 02:25:07.298791 11441 net.cpp:150] Setting up fc7_mbox_conf_perm
I0307 02:25:07.298805 11441 net.cpp:157] Top shape: 1 19 19 126 (45486)
I0307 02:25:07.298812 11441 net.cpp:165] Memory required for data: 328636496
I0307 02:25:07.298820 11441 layer_factory.hpp:77] Creating layer fc7_mbox_conf_flat
I0307 02:25:07.298835 11441 net.cpp:100] Creating Layer fc7_mbox_conf_flat
I0307 02:25:07.298848 11441 net.cpp:434] fc7_mbox_conf_flat <- fc7_mbox_conf_perm
I0307 02:25:07.298862 11441 net.cpp:408] fc7_mbox_conf_flat -> fc7_mbox_conf_flat
I0307 02:25:07.298908 11441 net.cpp:150] Setting up fc7_mbox_conf_flat
I0307 02:25:07.298918 11441 net.cpp:157] Top shape: 1 45486 (45486)
I0307 02:25:07.298924 11441 net.cpp:165] Memory required for data: 328818440
I0307 02:25:07.298929 11441 layer_factory.hpp:77] Creating layer fc7_mbox_priorbox
I0307 02:25:07.298945 11441 net.cpp:100] Creating Layer fc7_mbox_priorbox
I0307 02:25:07.298956 11441 net.cpp:434] fc7_mbox_priorbox <- fc7_fc7_scale_0_split_3
I0307 02:25:07.298969 11441 net.cpp:434] fc7_mbox_priorbox <- data_data_0_split_2
I0307 02:25:07.298991 11441 net.cpp:408] fc7_mbox_priorbox -> fc7_mbox_priorbox
I0307 02:25:07.299038 11441 net.cpp:150] Setting up fc7_mbox_priorbox
I0307 02:25:07.299052 11441 net.cpp:157] Top shape: 1 2 8664 (17328)
I0307 02:25:07.299059 11441 net.cpp:165] Memory required for data: 328887752
I0307 02:25:07.299067 11441 layer_factory.hpp:77] Creating layer conv6_2_mbox_loc
I0307 02:25:07.299093 11441 net.cpp:100] Creating Layer conv6_2_mbox_loc
I0307 02:25:07.299103 11441 net.cpp:434] conv6_2_mbox_loc <- conv6_2_conv6_2_scale_0_split_1
I0307 02:25:07.299121 11441 net.cpp:408] conv6_2_mbox_loc -> conv6_2_mbox_loc
I0307 02:25:07.301255 11441 net.cpp:150] Setting up conv6_2_mbox_loc
I0307 02:25:07.301272 11441 net.cpp:157] Top shape: 1 24 10 10 (2400)
I0307 02:25:07.301280 11441 net.cpp:165] Memory required for data: 328897352
I0307 02:25:07.301292 11441 layer_factory.hpp:77] Creating layer conv6_2_mbox_loc_perm
I0307 02:25:07.301311 11441 net.cpp:100] Creating Layer conv6_2_mbox_loc_perm
I0307 02:25:07.301321 11441 net.cpp:434] conv6_2_mbox_loc_perm <- conv6_2_mbox_loc
I0307 02:25:07.301340 11441 net.cpp:408] conv6_2_mbox_loc_perm -> conv6_2_mbox_loc_perm
I0307 02:25:07.301491 11441 net.cpp:150] Setting up conv6_2_mbox_loc_perm
I0307 02:25:07.301504 11441 net.cpp:157] Top shape: 1 10 10 24 (2400)
I0307 02:25:07.301509 11441 net.cpp:165] Memory required for data: 328906952
I0307 02:25:07.301517 11441 layer_factory.hpp:77] Creating layer conv6_2_mbox_loc_flat
I0307 02:25:07.301527 11441 net.cpp:100] Creating Layer conv6_2_mbox_loc_flat
I0307 02:25:07.301542 11441 net.cpp:434] conv6_2_mbox_loc_flat <- conv6_2_mbox_loc_perm
I0307 02:25:07.301553 11441 net.cpp:408] conv6_2_mbox_loc_flat -> conv6_2_mbox_loc_flat
I0307 02:25:07.301614 11441 net.cpp:150] Setting up conv6_2_mbox_loc_flat
I0307 02:25:07.301623 11441 net.cpp:157] Top shape: 1 2400 (2400)
I0307 02:25:07.301631 11441 net.cpp:165] Memory required for data: 328916552
I0307 02:25:07.301638 11441 layer_factory.hpp:77] Creating layer conv6_2_mbox_conf
I0307 02:25:07.301659 11441 net.cpp:100] Creating Layer conv6_2_mbox_conf
I0307 02:25:07.301668 11441 net.cpp:434] conv6_2_mbox_conf <- conv6_2_conv6_2_scale_0_split_2
I0307 02:25:07.301681 11441 net.cpp:408] conv6_2_mbox_conf -> conv6_2_mbox_conf
I0307 02:25:07.306535 11441 net.cpp:150] Setting up conv6_2_mbox_conf
I0307 02:25:07.306552 11441 net.cpp:157] Top shape: 1 126 10 10 (12600)
I0307 02:25:07.306558 11441 net.cpp:165] Memory required for data: 328966952
I0307 02:25:07.306568 11441 layer_factory.hpp:77] Creating layer conv6_2_mbox_conf_perm
I0307 02:25:07.306581 11441 net.cpp:100] Creating Layer conv6_2_mbox_conf_perm
I0307 02:25:07.306587 11441 net.cpp:434] conv6_2_mbox_conf_perm <- conv6_2_mbox_conf
I0307 02:25:07.306602 11441 net.cpp:408] conv6_2_mbox_conf_perm -> conv6_2_mbox_conf_perm
I0307 02:25:07.306754 11441 net.cpp:150] Setting up conv6_2_mbox_conf_perm
I0307 02:25:07.306766 11441 net.cpp:157] Top shape: 1 10 10 126 (12600)
I0307 02:25:07.306771 11441 net.cpp:165] Memory required for data: 329017352
I0307 02:25:07.306777 11441 layer_factory.hpp:77] Creating layer conv6_2_mbox_conf_flat
I0307 02:25:07.306785 11441 net.cpp:100] Creating Layer conv6_2_mbox_conf_flat
I0307 02:25:07.306795 11441 net.cpp:434] conv6_2_mbox_conf_flat <- conv6_2_mbox_conf_perm
I0307 02:25:07.306813 11441 net.cpp:408] conv6_2_mbox_conf_flat -> conv6_2_mbox_conf_flat
I0307 02:25:07.306862 11441 net.cpp:150] Setting up conv6_2_mbox_conf_flat
I0307 02:25:07.306872 11441 net.cpp:157] Top shape: 1 12600 (12600)
I0307 02:25:07.306879 11441 net.cpp:165] Memory required for data: 329067752
I0307 02:25:07.306887 11441 layer_factory.hpp:77] Creating layer conv6_2_mbox_priorbox
I0307 02:25:07.306898 11441 net.cpp:100] Creating Layer conv6_2_mbox_priorbox
I0307 02:25:07.306907 11441 net.cpp:434] conv6_2_mbox_priorbox <- conv6_2_conv6_2_scale_0_split_3
I0307 02:25:07.306919 11441 net.cpp:434] conv6_2_mbox_priorbox <- data_data_0_split_3
I0307 02:25:07.306942 11441 net.cpp:408] conv6_2_mbox_priorbox -> conv6_2_mbox_priorbox
I0307 02:25:07.306993 11441 net.cpp:150] Setting up conv6_2_mbox_priorbox
I0307 02:25:07.307005 11441 net.cpp:157] Top shape: 1 2 2400 (4800)
I0307 02:25:07.307013 11441 net.cpp:165] Memory required for data: 329086952
I0307 02:25:07.307024 11441 layer_factory.hpp:77] Creating layer conv7_2_mbox_loc
I0307 02:25:07.307042 11441 net.cpp:100] Creating Layer conv7_2_mbox_loc
I0307 02:25:07.307056 11441 net.cpp:434] conv7_2_mbox_loc <- conv7_2_conv7_2_scale_0_split_1
I0307 02:25:07.307072 11441 net.cpp:408] conv7_2_mbox_loc -> conv7_2_mbox_loc
I0307 02:25:07.308975 11441 net.cpp:150] Setting up conv7_2_mbox_loc
I0307 02:25:07.308992 11441 net.cpp:157] Top shape: 1 24 5 5 (600)
I0307 02:25:07.308997 11441 net.cpp:165] Memory required for data: 329089352
I0307 02:25:07.309006 11441 layer_factory.hpp:77] Creating layer conv7_2_mbox_loc_perm
I0307 02:25:07.309026 11441 net.cpp:100] Creating Layer conv7_2_mbox_loc_perm
I0307 02:25:07.309033 11441 net.cpp:434] conv7_2_mbox_loc_perm <- conv7_2_mbox_loc
I0307 02:25:07.309047 11441 net.cpp:408] conv7_2_mbox_loc_perm -> conv7_2_mbox_loc_perm
I0307 02:25:07.309200 11441 net.cpp:150] Setting up conv7_2_mbox_loc_perm
I0307 02:25:07.309211 11441 net.cpp:157] Top shape: 1 5 5 24 (600)
I0307 02:25:07.309217 11441 net.cpp:165] Memory required for data: 329091752
I0307 02:25:07.309223 11441 layer_factory.hpp:77] Creating layer conv7_2_mbox_loc_flat
I0307 02:25:07.309237 11441 net.cpp:100] Creating Layer conv7_2_mbox_loc_flat
I0307 02:25:07.309249 11441 net.cpp:434] conv7_2_mbox_loc_flat <- conv7_2_mbox_loc_perm
I0307 02:25:07.309263 11441 net.cpp:408] conv7_2_mbox_loc_flat -> conv7_2_mbox_loc_flat
I0307 02:25:07.309315 11441 net.cpp:150] Setting up conv7_2_mbox_loc_flat
I0307 02:25:07.309337 11441 net.cpp:157] Top shape: 1 600 (600)
I0307 02:25:07.309350 11441 net.cpp:165] Memory required for data: 329094152
I0307 02:25:07.309356 11441 layer_factory.hpp:77] Creating layer conv7_2_mbox_conf
I0307 02:25:07.309377 11441 net.cpp:100] Creating Layer conv7_2_mbox_conf
I0307 02:25:07.309388 11441 net.cpp:434] conv7_2_mbox_conf <- conv7_2_conv7_2_scale_0_split_2
I0307 02:25:07.309406 11441 net.cpp:408] conv7_2_mbox_conf -> conv7_2_mbox_conf
I0307 02:25:07.318531 11441 net.cpp:150] Setting up conv7_2_mbox_conf
I0307 02:25:07.318548 11441 net.cpp:157] Top shape: 1 126 5 5 (3150)
I0307 02:25:07.318553 11441 net.cpp:165] Memory required for data: 329106752
I0307 02:25:07.318562 11441 layer_factory.hpp:77] Creating layer conv7_2_mbox_conf_perm
I0307 02:25:07.318574 11441 net.cpp:100] Creating Layer conv7_2_mbox_conf_perm
I0307 02:25:07.318583 11441 net.cpp:434] conv7_2_mbox_conf_perm <- conv7_2_mbox_conf
I0307 02:25:07.318596 11441 net.cpp:408] conv7_2_mbox_conf_perm -> conv7_2_mbox_conf_perm
I0307 02:25:07.318749 11441 net.cpp:150] Setting up conv7_2_mbox_conf_perm
I0307 02:25:07.318770 11441 net.cpp:157] Top shape: 1 5 5 126 (3150)
I0307 02:25:07.318775 11441 net.cpp:165] Memory required for data: 329119352
I0307 02:25:07.318783 11441 layer_factory.hpp:77] Creating layer conv7_2_mbox_conf_flat
I0307 02:25:07.318804 11441 net.cpp:100] Creating Layer conv7_2_mbox_conf_flat
I0307 02:25:07.318812 11441 net.cpp:434] conv7_2_mbox_conf_flat <- conv7_2_mbox_conf_perm
I0307 02:25:07.318830 11441 net.cpp:408] conv7_2_mbox_conf_flat -> conv7_2_mbox_conf_flat
I0307 02:25:07.318872 11441 net.cpp:150] Setting up conv7_2_mbox_conf_flat
I0307 02:25:07.318881 11441 net.cpp:157] Top shape: 1 3150 (3150)
I0307 02:25:07.318889 11441 net.cpp:165] Memory required for data: 329131952
I0307 02:25:07.318895 11441 layer_factory.hpp:77] Creating layer conv7_2_mbox_priorbox
I0307 02:25:07.318907 11441 net.cpp:100] Creating Layer conv7_2_mbox_priorbox
I0307 02:25:07.318918 11441 net.cpp:434] conv7_2_mbox_priorbox <- conv7_2_conv7_2_scale_0_split_3
I0307 02:25:07.318930 11441 net.cpp:434] conv7_2_mbox_priorbox <- data_data_0_split_4
I0307 02:25:07.318944 11441 net.cpp:408] conv7_2_mbox_priorbox -> conv7_2_mbox_priorbox
I0307 02:25:07.318985 11441 net.cpp:150] Setting up conv7_2_mbox_priorbox
I0307 02:25:07.318998 11441 net.cpp:157] Top shape: 1 2 600 (1200)
I0307 02:25:07.319005 11441 net.cpp:165] Memory required for data: 329136752
I0307 02:25:07.319012 11441 layer_factory.hpp:77] Creating layer conv8_2_mbox_loc
I0307 02:25:07.319031 11441 net.cpp:100] Creating Layer conv8_2_mbox_loc
I0307 02:25:07.319043 11441 net.cpp:434] conv8_2_mbox_loc <- conv8_2_conv8_2_scale_0_split_1
I0307 02:25:07.319062 11441 net.cpp:408] conv8_2_mbox_loc -> conv8_2_mbox_loc
I0307 02:25:07.326392 11441 net.cpp:150] Setting up conv8_2_mbox_loc
I0307 02:25:07.326407 11441 net.cpp:157] Top shape: 1 16 3 3 (144)
I0307 02:25:07.326413 11441 net.cpp:165] Memory required for data: 329137328
I0307 02:25:07.326422 11441 layer_factory.hpp:77] Creating layer conv8_2_mbox_loc_perm
I0307 02:25:07.326437 11441 net.cpp:100] Creating Layer conv8_2_mbox_loc_perm
I0307 02:25:07.326443 11441 net.cpp:434] conv8_2_mbox_loc_perm <- conv8_2_mbox_loc
I0307 02:25:07.326457 11441 net.cpp:408] conv8_2_mbox_loc_perm -> conv8_2_mbox_loc_perm
I0307 02:25:07.326607 11441 net.cpp:150] Setting up conv8_2_mbox_loc_perm
I0307 02:25:07.326618 11441 net.cpp:157] Top shape: 1 3 3 16 (144)
I0307 02:25:07.326625 11441 net.cpp:165] Memory required for data: 329137904
I0307 02:25:07.326634 11441 layer_factory.hpp:77] Creating layer conv8_2_mbox_loc_flat
I0307 02:25:07.326653 11441 net.cpp:100] Creating Layer conv8_2_mbox_loc_flat
I0307 02:25:07.326661 11441 net.cpp:434] conv8_2_mbox_loc_flat <- conv8_2_mbox_loc_perm
I0307 02:25:07.326673 11441 net.cpp:408] conv8_2_mbox_loc_flat -> conv8_2_mbox_loc_flat
I0307 02:25:07.326722 11441 net.cpp:150] Setting up conv8_2_mbox_loc_flat
I0307 02:25:07.326733 11441 net.cpp:157] Top shape: 1 144 (144)
I0307 02:25:07.326742 11441 net.cpp:165] Memory required for data: 329138480
I0307 02:25:07.326769 11441 layer_factory.hpp:77] Creating layer conv8_2_mbox_conf
I0307 02:25:07.326795 11441 net.cpp:100] Creating Layer conv8_2_mbox_conf
I0307 02:25:07.326805 11441 net.cpp:434] conv8_2_mbox_conf <- conv8_2_conv8_2_scale_0_split_2
I0307 02:25:07.326823 11441 net.cpp:408] conv8_2_mbox_conf -> conv8_2_mbox_conf
I0307 02:25:07.329255 11441 net.cpp:150] Setting up conv8_2_mbox_conf
I0307 02:25:07.329270 11441 net.cpp:157] Top shape: 1 84 3 3 (756)
I0307 02:25:07.329277 11441 net.cpp:165] Memory required for data: 329141504
I0307 02:25:07.329286 11441 layer_factory.hpp:77] Creating layer conv8_2_mbox_conf_perm
I0307 02:25:07.329304 11441 net.cpp:100] Creating Layer conv8_2_mbox_conf_perm
I0307 02:25:07.329319 11441 net.cpp:434] conv8_2_mbox_conf_perm <- conv8_2_mbox_conf
I0307 02:25:07.329335 11441 net.cpp:408] conv8_2_mbox_conf_perm -> conv8_2_mbox_conf_perm
I0307 02:25:07.329491 11441 net.cpp:150] Setting up conv8_2_mbox_conf_perm
I0307 02:25:07.329509 11441 net.cpp:157] Top shape: 1 3 3 84 (756)
I0307 02:25:07.329519 11441 net.cpp:165] Memory required for data: 329144528
I0307 02:25:07.329532 11441 layer_factory.hpp:77] Creating layer conv8_2_mbox_conf_flat
I0307 02:25:07.329541 11441 net.cpp:100] Creating Layer conv8_2_mbox_conf_flat
I0307 02:25:07.329548 11441 net.cpp:434] conv8_2_mbox_conf_flat <- conv8_2_mbox_conf_perm
I0307 02:25:07.329562 11441 net.cpp:408] conv8_2_mbox_conf_flat -> conv8_2_mbox_conf_flat
I0307 02:25:07.329610 11441 net.cpp:150] Setting up conv8_2_mbox_conf_flat
I0307 02:25:07.329627 11441 net.cpp:157] Top shape: 1 756 (756)
I0307 02:25:07.329634 11441 net.cpp:165] Memory required for data: 329147552
I0307 02:25:07.329649 11441 layer_factory.hpp:77] Creating layer conv8_2_mbox_priorbox
I0307 02:25:07.329665 11441 net.cpp:100] Creating Layer conv8_2_mbox_priorbox
I0307 02:25:07.329679 11441 net.cpp:434] conv8_2_mbox_priorbox <- conv8_2_conv8_2_scale_0_split_3
I0307 02:25:07.329694 11441 net.cpp:434] conv8_2_mbox_priorbox <- data_data_0_split_5
I0307 02:25:07.329713 11441 net.cpp:408] conv8_2_mbox_priorbox -> conv8_2_mbox_priorbox
I0307 02:25:07.329756 11441 net.cpp:150] Setting up conv8_2_mbox_priorbox
I0307 02:25:07.329767 11441 net.cpp:157] Top shape: 1 2 144 (288)
I0307 02:25:07.329778 11441 net.cpp:165] Memory required for data: 329148704
I0307 02:25:07.329788 11441 layer_factory.hpp:77] Creating layer conv9_2_mbox_loc
I0307 02:25:07.329808 11441 net.cpp:100] Creating Layer conv9_2_mbox_loc
I0307 02:25:07.329826 11441 net.cpp:434] conv9_2_mbox_loc <- conv9_2_conv9_2_scale_0_split_0
I0307 02:25:07.329838 11441 net.cpp:408] conv9_2_mbox_loc -> conv9_2_mbox_loc
I0307 02:25:07.331310 11441 net.cpp:150] Setting up conv9_2_mbox_loc
I0307 02:25:07.331326 11441 net.cpp:157] Top shape: 1 16 1 1 (16)
I0307 02:25:07.331331 11441 net.cpp:165] Memory required for data: 329148768
I0307 02:25:07.331342 11441 layer_factory.hpp:77] Creating layer conv9_2_mbox_loc_perm
I0307 02:25:07.331360 11441 net.cpp:100] Creating Layer conv9_2_mbox_loc_perm
I0307 02:25:07.331367 11441 net.cpp:434] conv9_2_mbox_loc_perm <- conv9_2_mbox_loc
I0307 02:25:07.331378 11441 net.cpp:408] conv9_2_mbox_loc_perm -> conv9_2_mbox_loc_perm
I0307 02:25:07.331521 11441 net.cpp:150] Setting up conv9_2_mbox_loc_perm
I0307 02:25:07.331533 11441 net.cpp:157] Top shape: 1 1 1 16 (16)
I0307 02:25:07.331538 11441 net.cpp:165] Memory required for data: 329148832
I0307 02:25:07.331544 11441 layer_factory.hpp:77] Creating layer conv9_2_mbox_loc_flat
I0307 02:25:07.331552 11441 net.cpp:100] Creating Layer conv9_2_mbox_loc_flat
I0307 02:25:07.331564 11441 net.cpp:434] conv9_2_mbox_loc_flat <- conv9_2_mbox_loc_perm
I0307 02:25:07.331578 11441 net.cpp:408] conv9_2_mbox_loc_flat -> conv9_2_mbox_loc_flat
I0307 02:25:07.331624 11441 net.cpp:150] Setting up conv9_2_mbox_loc_flat
I0307 02:25:07.331634 11441 net.cpp:157] Top shape: 1 16 (16)
I0307 02:25:07.331641 11441 net.cpp:165] Memory required for data: 329148896
I0307 02:25:07.331650 11441 layer_factory.hpp:77] Creating layer conv9_2_mbox_conf
I0307 02:25:07.331677 11441 net.cpp:100] Creating Layer conv9_2_mbox_conf
I0307 02:25:07.331688 11441 net.cpp:434] conv9_2_mbox_conf <- conv9_2_conv9_2_scale_0_split_1
I0307 02:25:07.331703 11441 net.cpp:408] conv9_2_mbox_conf -> conv9_2_mbox_conf
I0307 02:25:07.334146 11441 net.cpp:150] Setting up conv9_2_mbox_conf
I0307 02:25:07.334161 11441 net.cpp:157] Top shape: 1 84 1 1 (84)
I0307 02:25:07.334167 11441 net.cpp:165] Memory required for data: 329149232
I0307 02:25:07.334177 11441 layer_factory.hpp:77] Creating layer conv9_2_mbox_conf_perm
I0307 02:25:07.334192 11441 net.cpp:100] Creating Layer conv9_2_mbox_conf_perm
I0307 02:25:07.334209 11441 net.cpp:434] conv9_2_mbox_conf_perm <- conv9_2_mbox_conf
I0307 02:25:07.334223 11441 net.cpp:408] conv9_2_mbox_conf_perm -> conv9_2_mbox_conf_perm
I0307 02:25:07.334401 11441 net.cpp:150] Setting up conv9_2_mbox_conf_perm
I0307 02:25:07.334412 11441 net.cpp:157] Top shape: 1 1 1 84 (84)
I0307 02:25:07.334419 11441 net.cpp:165] Memory required for data: 329149568
I0307 02:25:07.334425 11441 layer_factory.hpp:77] Creating layer conv9_2_mbox_conf_flat
I0307 02:25:07.334439 11441 net.cpp:100] Creating Layer conv9_2_mbox_conf_flat
I0307 02:25:07.334451 11441 net.cpp:434] conv9_2_mbox_conf_flat <- conv9_2_mbox_conf_perm
I0307 02:25:07.334467 11441 net.cpp:408] conv9_2_mbox_conf_flat -> conv9_2_mbox_conf_flat
I0307 02:25:07.334513 11441 net.cpp:150] Setting up conv9_2_mbox_conf_flat
I0307 02:25:07.334523 11441 net.cpp:157] Top shape: 1 84 (84)
I0307 02:25:07.334529 11441 net.cpp:165] Memory required for data: 329149904
I0307 02:25:07.334535 11441 layer_factory.hpp:77] Creating layer conv9_2_mbox_priorbox
I0307 02:25:07.334549 11441 net.cpp:100] Creating Layer conv9_2_mbox_priorbox
I0307 02:25:07.334563 11441 net.cpp:434] conv9_2_mbox_priorbox <- conv9_2_conv9_2_scale_0_split_2
I0307 02:25:07.334574 11441 net.cpp:434] conv9_2_mbox_priorbox <- data_data_0_split_6
I0307 02:25:07.334592 11441 net.cpp:408] conv9_2_mbox_priorbox -> conv9_2_mbox_priorbox
I0307 02:25:07.334643 11441 net.cpp:150] Setting up conv9_2_mbox_priorbox
I0307 02:25:07.334655 11441 net.cpp:157] Top shape: 1 2 16 (32)
I0307 02:25:07.334661 11441 net.cpp:165] Memory required for data: 329150032
I0307 02:25:07.334671 11441 layer_factory.hpp:77] Creating layer mbox_loc
I0307 02:25:07.334687 11441 net.cpp:100] Creating Layer mbox_loc
I0307 02:25:07.334697 11441 net.cpp:434] mbox_loc <- conv4_3_norm_mbox_loc_flat
I0307 02:25:07.334718 11441 net.cpp:434] mbox_loc <- fc7_mbox_loc_flat
I0307 02:25:07.334729 11441 net.cpp:434] mbox_loc <- conv6_2_mbox_loc_flat
I0307 02:25:07.334743 11441 net.cpp:434] mbox_loc <- conv7_2_mbox_loc_flat
I0307 02:25:07.334756 11441 net.cpp:434] mbox_loc <- conv8_2_mbox_loc_flat
I0307 02:25:07.334763 11441 net.cpp:434] mbox_loc <- conv9_2_mbox_loc_flat
I0307 02:25:07.334780 11441 net.cpp:408] mbox_loc -> mbox_loc
I0307 02:25:07.334836 11441 net.cpp:150] Setting up mbox_loc
I0307 02:25:07.334846 11441 net.cpp:157] Top shape: 1 34928 (34928)
I0307 02:25:07.334854 11441 net.cpp:165] Memory required for data: 329289744
I0307 02:25:07.334861 11441 layer_factory.hpp:77] Creating layer mbox_conf
I0307 02:25:07.334877 11441 net.cpp:100] Creating Layer mbox_conf
I0307 02:25:07.334889 11441 net.cpp:434] mbox_conf <- conv4_3_norm_mbox_conf_flat
I0307 02:25:07.334900 11441 net.cpp:434] mbox_conf <- fc7_mbox_conf_flat
I0307 02:25:07.334914 11441 net.cpp:434] mbox_conf <- conv6_2_mbox_conf_flat
I0307 02:25:07.334924 11441 net.cpp:434] mbox_conf <- conv7_2_mbox_conf_flat
I0307 02:25:07.334933 11441 net.cpp:434] mbox_conf <- conv8_2_mbox_conf_flat
I0307 02:25:07.334949 11441 net.cpp:434] mbox_conf <- conv9_2_mbox_conf_flat
I0307 02:25:07.334961 11441 net.cpp:408] mbox_conf -> mbox_conf
I0307 02:25:07.335005 11441 net.cpp:150] Setting up mbox_conf
I0307 02:25:07.335021 11441 net.cpp:157] Top shape: 1 183372 (183372)
I0307 02:25:07.335029 11441 net.cpp:165] Memory required for data: 330023232
I0307 02:25:07.335036 11441 layer_factory.hpp:77] Creating layer mbox_priorbox
I0307 02:25:07.335044 11441 net.cpp:100] Creating Layer mbox_priorbox
I0307 02:25:07.335069 11441 net.cpp:434] mbox_priorbox <- conv4_3_norm_mbox_priorbox
I0307 02:25:07.335080 11441 net.cpp:434] mbox_priorbox <- fc7_mbox_priorbox
I0307 02:25:07.335093 11441 net.cpp:434] mbox_priorbox <- conv6_2_mbox_priorbox
I0307 02:25:07.335103 11441 net.cpp:434] mbox_priorbox <- conv7_2_mbox_priorbox
I0307 02:25:07.335114 11441 net.cpp:434] mbox_priorbox <- conv8_2_mbox_priorbox
I0307 02:25:07.335130 11441 net.cpp:434] mbox_priorbox <- conv9_2_mbox_priorbox
I0307 02:25:07.335144 11441 net.cpp:408] mbox_priorbox -> mbox_priorbox
I0307 02:25:07.335196 11441 net.cpp:150] Setting up mbox_priorbox
I0307 02:25:07.335208 11441 net.cpp:157] Top shape: 1 2 34928 (69856)
I0307 02:25:07.335217 11441 net.cpp:165] Memory required for data: 330302656
I0307 02:25:07.335223 11441 layer_factory.hpp:77] Creating layer mbox_conf_reshape
I0307 02:25:07.335239 11441 net.cpp:100] Creating Layer mbox_conf_reshape
I0307 02:25:07.335255 11441 net.cpp:434] mbox_conf_reshape <- mbox_conf
I0307 02:25:07.335269 11441 net.cpp:408] mbox_conf_reshape -> mbox_conf_reshape
I0307 02:25:07.335320 11441 net.cpp:150] Setting up mbox_conf_reshape
I0307 02:25:07.335331 11441 net.cpp:157] Top shape: 1 8732 21 (183372)
I0307 02:25:07.335338 11441 net.cpp:165] Memory required for data: 331036144
I0307 02:25:07.335345 11441 layer_factory.hpp:77] Creating layer mbox_conf_softmax
I0307 02:25:07.335357 11441 net.cpp:100] Creating Layer mbox_conf_softmax
I0307 02:25:07.335371 11441 net.cpp:434] mbox_conf_softmax <- mbox_conf_reshape
I0307 02:25:07.335382 11441 net.cpp:408] mbox_conf_softmax -> mbox_conf_softmax
I0307 02:25:07.335667 11441 net.cpp:150] Setting up mbox_conf_softmax
I0307 02:25:07.335681 11441 net.cpp:157] Top shape: 1 8732 21 (183372)
I0307 02:25:07.335686 11441 net.cpp:165] Memory required for data: 331769632
I0307 02:25:07.335692 11441 layer_factory.hpp:77] Creating layer mbox_conf_flatten
I0307 02:25:07.335707 11441 net.cpp:100] Creating Layer mbox_conf_flatten
I0307 02:25:07.335716 11441 net.cpp:434] mbox_conf_flatten <- mbox_conf_softmax
I0307 02:25:07.335731 11441 net.cpp:408] mbox_conf_flatten -> mbox_conf_flatten
I0307 02:25:07.335777 11441 net.cpp:150] Setting up mbox_conf_flatten
I0307 02:25:07.335793 11441 net.cpp:157] Top shape: 1 183372 (183372)
I0307 02:25:07.335800 11441 net.cpp:165] Memory required for data: 332503120
I0307 02:25:07.335814 11441 layer_factory.hpp:77] Creating layer detection_out
I0307 02:25:07.335841 11441 net.cpp:100] Creating Layer detection_out
I0307 02:25:07.335851 11441 net.cpp:434] detection_out <- mbox_loc
I0307 02:25:07.335865 11441 net.cpp:434] detection_out <- mbox_conf_flatten
I0307 02:25:07.335878 11441 net.cpp:434] detection_out <- mbox_priorbox
I0307 02:25:07.335894 11441 net.cpp:408] detection_out -> detection_out
I0307 02:25:07.338893 11441 net.cpp:150] Setting up detection_out
I0307 02:25:07.338908 11441 net.cpp:157] Top shape: 1 1 1 7 (7)
I0307 02:25:07.338914 11441 net.cpp:165] Memory required for data: 332503148
I0307 02:25:07.338922 11441 layer_factory.hpp:77] Creating layer slience
I0307 02:25:07.338932 11441 net.cpp:100] Creating Layer slience
I0307 02:25:07.338943 11441 net.cpp:434] slience <- detection_out
I0307 02:25:07.338954 11441 net.cpp:150] Setting up slience
I0307 02:25:07.338964 11441 net.cpp:165] Memory required for data: 332503148
…
