…
      sampler {
        min_scale: 0.3
        max_scale: 1
        min_aspect_ratio: 0.5
        max_aspect_ratio: 2
      }
      sample_constraint {
        min_jaccard_overlap: 0.9
      }
      max_sample: 1
      max_trials: 50
    }
    batch_sampler {
      sampler {
        min_scale: 0.3
        max_scale: 1
        min_aspect_ratio: 0.5
        max_aspect_ratio: 2
      }
      sample_constraint {
        max_jaccard_overlap: 1
      }
      max_sample: 1
      max_trials: 50
    }
    label_map_file: "data/VOC0712/labelmap_voc.prototxt"
  }
}
layer {
  name: "conv1_1"
  type: "Convolution"
  bottom: "data"
  top: "conv1_1"
  param {
    lr_mult: 1
    decay_mult: 1
  }
  param {
    lr_mult: 2
    decay_mult: 0
  }
  convolution_param {
    num_output: 64
    pad: 1
    kernel_size: 3
    weight_filler {
      type: "xavier"
    }
    bias_filler {
      type: "constant"
      value: 0
    }
  }
}
layer {
  name: "relu1_1"
  type: "ReLU"
  bottom: "conv1_1"
  top: "conv1_1"
}
layer {
  name: "conv1_2"
  type: "Convolution"
  bottom: "conv1_1"
  top: "conv1_2"
  param {
    lr_mult: 1
    decay_mult: 1
  }
  param {
    lr_mult: 2
    decay_mult: 0
  }
  convolution_param {
    num_output: 64
    pad: 1
    kernel_size: 3
    weight_filler {
      type: "xavier"
    }
    bias_filler {
      type: "constant"
      value: 0
    }
  }
}
layer {
  name: "relu1_2"
  type: "ReLU"
  bottom: "conv1_2"
  top: "conv1_2"
}
layer {
  name: "pool1"
  type: "Pooling"
  bottom: "conv1_2"
  top: "pool1"
  pooling_param {
    pool: MAX
    kernel_size: 2
    stride: 2
  }
}
layer {
  name: "conv2_1"
  type: "Convolution"
  bottom: "pool1"
  top: "conv2_1"
  param {
    lr_mult: 1
    decay_mult: 1
  }
  param {
    lr_mult: 2
    decay_mult: 0
  }
  convolution_param {
    num_output: 128
    pad: 1
    kernel_size: 3
    weight_filler {
      type: "xavier"
    }
    bias_filler {
      type: "constant"
      value: 0
    }
  }
}
layer {
  name: "relu2_1"
  type: "ReLU"
  bottom: "conv2_1"
  top: "conv2_1"
}
layer {
  name: "conv2_2"
  type: "Convolution"
  bottom: "conv2_1"
  top: "conv2_2"
  param {
    lr_mult: 1
    decay_mult: 1
  }
  param {
    lr_mult: 2
    decay_mult: 0
  }
  convolution_param {
    num_output: 128
    pad: 1
    kernel_size: 3
    weight_filler {
      type: "xavier"
    }
    bias_filler {
      type: "constant"
      value: 0
    }
  }
}
layer {
  name: "relu2_2"
  type: "ReLU"
  bottom: "conv2_2"
  top: "conv2_2"
}
layer {
  name: "pool2"
  type: "Pooling"
  bottom: "conv2_2"
  top: "pool2"
  pooling_param {
    pool: MAX
    kernel_size: 2
    stride: 2
  }
}
layer {
  name: "conv3_1"
  type: "Convolution"
  bottom: "pool2"
  top: "conv3_1"
  param {
    lr_mult: 1
    decay_mult: 1
  }
  param {
    lr_mult: 2
    decay_mult: 0
  }
  convolution_param {
    num_output: 256
    pad: 1
    kernel_size: 3
    weight_filler {
      type: "xavier"
    }
    bias_filler {
      type: "constant"
      value: 0
    }
  }
}
layer {
  name: "relu3_1"
  type: "ReLU"
  bottom: "conv3_1"
  top: "conv3_1"
}
layer {
  name: "conv3_2"
  type: "Convolution"
  bottom: "conv3_1"
  top: "conv3_2"
  param {
    lr_mult: 1
    decay_mult: 1
  }
  param {
    lr_mult: 2
    decay_mult: 0
  }
  convolution_param {
    num_output: 256
    pad: 1
    kernel_size: 3
    weight_filler {
      type: "xavier"
    }
    bias_filler {
      type: "constant"
      value: 0
    }
  }
}
layer {
  name: "relu3_2"
  type: "ReLU"
  bottom: "conv3_2"
  top: "conv3_2"
}
layer {
  name: "conv3_3"
  type: "Convolution"
  bottom: "conv3_2"
  top: "conv3_3"
  param {
    lr_mult: 1
    decay_mult: 1
  }
  param {
    lr_mult: 2
    decay_mult: 0
  }
  convolution_param {
    num_output: 256
    pad: 1
    kernel_size: 3
    weight_filler {
      type: "xavier"
    }
    bias_filler {
      type: "constant"
      value: 0
    }
  }
}
layer {
  name: "relu3_3"
  type: "ReLU"
  bottom: "conv3_3"
  top: "conv3_3"
}
layer {
  name: "pool3"
  type: "Pooling"
  bottom: "conv3_3"
  top: "pool3"
  pooling_param {
    pool: MAX
    kernel_size: 2
    stride: 2
  }
}
layer {
  name: "conv4_1"
  type: "Convolution"
  bottom: "pool3"
  top: "conv4_1"
  param {
    lr_mult: 1
    decay_mult: 1
  }
  param {
    lr_mult: 2
    decay_mult: 0
  }
  convolution_param {
    num_output: 512
    pad: 1
    kernel_size: 3
    weight_filler {
      type: "xavier"
    }
    bias_filler {
      type: "constant"
      value: 0
    }
  }
}
layer {
  name: "relu4_1"
  type: "ReLU"
  bottom: "conv4_1"
  top: "conv4_1"
}
layer {
  name: "conv4_2"
  type: "Convolution"
  bottom: "conv4_1"
  top: "conv4_2"
  param {
    lr_mult: 1
    decay_mult: 1
  }
  param {
    lr_mult: 2
    decay_mult: 0
  }
  convolution_param {
    num_output: 512
    pad: 1
    kernel_size: 3
    weight_filler {
      type: "xavier"
    }
    bias_filler {
      type: "constant"
      value: 0
    }
  }
}
layer {
  name: "relu4_2"
  type: "ReLU"
  bottom: "conv4_2"
  top: "conv4_2"
}
layer {
  name: "conv4_3"
  type: "Convolution"
  bottom: "conv4_2"
  top: "conv4_3_ori"
  param {
    lr_mult: 1
    decay_mult: 1
  }
  param {
    lr_mult: 2
    decay_mult: 0
  }
  convolution_param {
    num_output: 512
    pad: 1
    kernel_size: 3
    weight_filler {
      type: "xavier"
    }
    bias_filler {
      type: "constant"
      value: 0
    }
  }
}
layer {
  name: "relu4_3"
  type: "ReLU"
  bottom: "conv4_3_ori"
  top: "conv4_3_ori"
}
layer {
  name: "seg_pool4"
  type: "Pooling"
  bottom: "conv4_3_ori"
  top: "seg_pool4"
  pooling_param {
    pool: MAX
    kernel_size: 3
    stride: 1
    pad: 1
  }
}
layer {
  name: "seg5_1"
  type: "Convolution"
  bottom: "seg_pool4"
  top: "seg5_1"
  param {
    lr_mult: 1
    decay_mult: 1
  }
  param {
    lr_mult: 2
    decay_mult: 0
  }
  convolution_param {
    num_output: 512
    pad: 2
    kernel_size: 3
    weight_filler {
      type: "xavier"
    }
    bias_filler {
      type: "constant"
      value: 0
    }
    dilation: 2
  }
}
layer {
  name: "seg_relu5_1"
  type: "ReLU"
  bottom: "seg5_1"
  top: "seg5_1"
}
layer {
  name: "seg5_2"
  type: "Convolution"
  bottom: "seg5_1"
  top: "seg5_2"
  param {
    lr_mult: 1
    decay_mult: 1
  }
  param {
    lr_mult: 2
    decay_mult: 0
  }
  convolution_param {
    num_output: 512
    pad: 2
    kernel_size: 3
    weight_filler {
      type: "xavier"
    }
    bias_filler {
      type: "constant"
      value: 0
    }
    dilation: 2
  }
}
layer {
  name: "seg_relu5_2"
  type: "ReLU"
  bottom: "seg5_2"
  top: "seg5_2"
}
layer {
  name: "seg5_3"
  type: "Convolution"
  bottom: "seg5_2"
  top: "seg5_3"
  param {
    lr_mult: 1
    decay_mult: 1
  }
  param {
    lr_mult: 2
    decay_mult: 0
  }
  convolution_param {
    num_output: 512
    pad: 2
    kernel_size: 3
    weight_filler {
      type: "xavier"
    }
    bias_filler {
      type: "constant"
      value: 0
    }
    dilation: 2
  }
}
layer {
  name: "seg_relu5_3"
  type: "ReLU"
  bottom: "seg5_3"
  top: "seg5_3"
}
layer {
  name: "seg_pool5"
  type: "Pooling"
  bottom: "seg5_3"
  top: "seg_pool5"
  pooling_param {
    pool: MAX
    kernel_size: 3
    stride: 1
    pad: 1
  }
}
layer {
  name: "seg6"
  type: "Convolution"
  bottom: "seg_pool5"
  top: "seg6"
  param {
    lr_mult: 1
    decay_mult: 1
  }
  param {
    lr_mult: 2
    decay_mult: 0
  }
  convolution_param {
    num_output: 1024
    pad: 4
    kernel_size: 3
    weight_filler {
      type: "xavier"
    }
    bias_filler {
      type: "constant"
      value: 0
    }
    dilation: 4
  }
}
layer {
  name: "seg_relu6"
  type: "ReLU"
  bottom: "seg6"
  top: "seg6"
}
layer {
  name: "seg_drop6"
  type: "Dropout"
  bottom: "seg6"
  top: "seg6"
  dropout_param {
    dropout_ratio: 0.5
  }
}
layer {
  name: "seg7"
  type: "Convolution"
  bottom: "seg6"
  top: "seg7"
  param {
    lr_mult: 1
    decay_mult: 1
  }
  param {
    lr_mult: 2
    decay_mult: 0
  }
  convolution_param {
    num_output: 1024
    kernel_size: 1
    weight_filler {
      type: "xavier"
    }
    bias_filler {
      type: "constant"
      value: 0
    }
  }
}
layer {
  name: "seg_relu7"
  type: "ReLU"
  bottom: "seg7"
  top: "seg7"
}
layer {
  name: "seg_drop7"
  type: "Dropout"
  bottom: "seg7"
  top: "seg7d"
  dropout_param {
    dropout_ratio: 0.5
  }
}
layer {
  name: "seg"
  type: "Convolution"
  bottom: "seg7d"
  top: "seg"
  param {
    lr_mult: 10
    decay_mult: 1
  }
  param {
    lr_mult: 20
    decay_mult: 0
  }
  convolution_param {
    num_output: 21
    kernel_size: 1
    weight_filler {
      type: "gaussian"
      std: 0.01
    }
    bias_filler {
      type: "constant"
      value: 0
    }
  }
}
layer {
  name: "seg_gt"
  type: "SegGt"
  bottom: "label"
  bottom: "seg"
  top: "seg_gt"
  seggt_param {
    background_label_id: 0
    use_difficult_gt: true
  }
}
layer {
  name: "seg_loss"
  type: "SoftmaxWithLoss"
  bottom: "seg"
  bottom: "seg_gt"
  top: "seg_loss"
  loss_weight: 0.1
  propagate_down: true
  propagate_down: false
  softmax_param {
    axis: 1
  }
}
layer {
  name: "seg_to_det_conv"
  type: "Convolution"
  bottom: "seg7"
  top: "seg_to_det_conv"
  param {
    lr_mult: 1
    decay_mult: 1
  }
  param {
    lr_mult: 2
    decay_mult: 0
  }
  convolution_param {
    num_output: 512
    pad: 0
    kernel_size: 1
    stride: 1
    weight_filler {
      type: "xavier"
    }
    bias_filler {
      type: "constant"
      value: 0
    }
  }
}
layer {
  name: "mult_conv4_3"
  type: "Eltwise"
  bottom: "conv4_3_ori"
  bottom: "seg_to_det_conv"
  top: "conv4_3_t"
  eltwise_param {
    operation: PROD
  }
}
layer {
  name: "conv4_3_s"
  type: "Pooling"
  bottom: "conv4_3_t"
  top: "conv4_3_s"
  pooling_param {
    pool: AVE
    global_pooling: true
  }
}
layer {
  name: "conv4_3_fc1"
  type: "Convolution"
  bottom: "conv4_3_s"
  top: "conv4_3_fc1"
  param {
    lr_mult: 1
    decay_mult: 1
  }
  param {
    lr_mult: 2
    decay_mult: 0
  }
  convolution_param {
    num_output: 128
    kernel_size: 1
    stride: 1
    weight_filler {
      type: "xavier"
    }
    bias_filler {
      type: "constant"
      value: 0
    }
  }
}
layer {
  name: "conv4_3_relu"
  type: "ReLU"
  bottom: "conv4_3_fc1"
  top: "conv4_3_fc1"
}
layer {
  name: "conv4_3_fc2"
  type: "Convolution"
  bottom: "conv4_3_fc1"
  top: "conv4_3_fc2"
  param {
    lr_mult: 1
    decay_mult: 1
  }
  param {
    lr_mult: 2
    decay_mult: 0
  }
  convolution_param {
    num_output: 512
    kernel_size: 1
    stride: 1
    weight_filler {
      type: "xavier"
    }
    bias_filler {
      type: "constant"
      value: 0
    }
  }
}
layer {
  name: "conv4_3_sig"
  type: "Sigmoid"
  bottom: "conv4_3_fc2"
  top: "conv4_3_fc2"
}
layer {
  name: "conv4_3_reshape"
  type: "Reshape"
  bottom: "conv4_3_fc2"
  top: "conv4_3_reshape"
  reshape_param {
    shape {
      dim: 0
      dim: 0
    }
  }
}
layer {
  name: "conv4_3_scale"
  type: "Scale"
  bottom: "conv4_3_t"
  bottom: "conv4_3_reshape"
  top: "conv4_3"
  scale_param {
    axis: 0
    bias_term: false
  }
}
layer {
  name: "pool4"
  type: "Pooling"
  bottom: "conv4_3"
  top: "pool4"
  pooling_param {
    pool: MAX
    kernel_size: 2
    stride: 2
  }
}
layer {
  name: "conv5_1"
  type: "Convolution"
  bottom: "pool4"
  top: "conv5_1"
  param {
    lr_mult: 1
    decay_mult: 1
  }
  param {
    lr_mult: 2
    decay_mult: 0
  }
  convolution_param {
    num_output: 512
    pad: 1
    kernel_size: 3
    weight_filler {
      type: "xavier"
    }
    bias_filler {
      type: "constant"
      value: 0
    }
    dilation: 1
  }
}
layer {
  name: "relu5_1"
  type: "ReLU"
  bottom: "conv5_1"
  top: "conv5_1"
}
layer {
  name: "conv5_2"
  type: "Convolution"
  bottom: "conv5_1"
  top: "conv5_2"
  param {
    lr_mult: 1
    decay_mult: 1
  }
  param {
    lr_mult: 2
    decay_mult: 0
  }
  convolution_param {
    num_output: 512
    pad: 1
    kernel_size: 3
    weight_filler {
      type: "xavier"
    }
    bias_filler {
      type: "constant"
      value: 0
    }
    dilation: 1
  }
}
layer {
  name: "relu5_2"
  type: "ReLU"
  bottom: "conv5_2"
  top: "conv5_2"
}
layer {
  name: "conv5_3"
  type: "Convolution"
  bottom: "conv5_2"
  top: "conv5_3"
  param {
    lr_mult: 1
    decay_mult: 1
  }
  param {
    lr_mult: 2
    decay_mult: 0
  }
  convolution_param {
    num_output: 512
    pad: 1
    kernel_size: 3
    weight_filler {
      type: "xavier"
    }
    bias_filler {
      type: "constant"
      value: 0
    }
    dilation: 1
  }
}
layer {
  name: "relu5_3"
  type: "ReLU"
  bottom: "conv5_3"
  top: "conv5_3"
}
layer {
  name: "pool5"
  type: "Pooling"
  bottom: "conv5_3"
  top: "pool5"
  pooling_param {
    pool: MAX
    kernel_size: 3
    stride: 1
    pad: 1
  }
}
layer {
  name: "fc6"
  type: "Convolution"
  bottom: "pool5"
  top: "fc6"
  param {
    lr_mult: 1
    decay_mult: 1
  }
  param {
    lr_mult: 2
    decay_mult: 0
  }
  convolution_param {
    num_output: 1024
    pad: 6
    kernel_size: 3
    weight_filler {
      type: "xavier"
    }
    bias_filler {
      type: "constant"
      value: 0
    }
    dilation: 6
  }
}
layer {
  name: "relu6"
  type: "ReLU"
  bottom: "fc6"
  top: "fc6"
}
layer {
  name: "fc7"
  type: "Convolution"
  bottom: "fc6"
  top: "fc7_t"
  param {
    lr_mult: 1
    decay_mult: 1
  }
  param {
    lr_mult: 2
    decay_mult: 0
  }
  convolution_param {
    num_output: 1024
    kernel_size: 1
    weight_filler {
      type: "xavier"
    }
    bias_filler {
      type: "constant"
      value: 0
    }
  }
}
layer {
  name: "relu7"
  type: "ReLU"
  bottom: "fc7_t"
  top: "fc7_t"
}
layer {
  name: "fc7_s"
  type: "Pooling"
  bottom: "fc7_t"
  top: "fc7_s"
  pooling_param {
    pool: AVE
    global_pooling: true
  }
}
layer {
  name: "fc7_fc1"
  type: "Convolution"
  bottom: "fc7_s"
  top: "fc7_fc1"
  param {
    lr_mult: 1
    decay_mult: 1
  }
  param {
    lr_mult: 2
    decay_mult: 0
  }
  convolution_param {
    num_output: 256
    kernel_size: 1
    stride: 1
    weight_filler {
      type: "xavier"
    }
    bias_filler {
      type: "constant"
      value: 0
    }
  }
}
layer {
  name: "fc7_relu"
  type: "ReLU"
  bottom: "fc7_fc1"
  top: "fc7_fc1"
}
layer {
  name: "fc7_fc2"
  type: "Convolution"
  bottom: "fc7_fc1"
  top: "fc7_fc2"
  param {
    lr_mult: 1
    decay_mult: 1
  }
  param {
    lr_mult: 2
    decay_mult: 0
  }
  convolution_param {
    num_output: 1024
    kernel_size: 1
    stride: 1
    weight_filler {
      type: "xavier"
    }
    bias_filler {
      type: "constant"
      value: 0
    }
  }
}
layer {
  name: "fc7_sig"
  type: "Sigmoid"
  bottom: "fc7_fc2"
  top: "fc7_fc2"
}
layer {
  name: "fc7_reshape"
  type: "Reshape"
  bottom: "fc7_fc2"
  top: "fc7_reshape"
  reshape_param {
    shape {
      dim: 0
      dim: 0
    }
  }
}
layer {
  name: "fc7_scale"
  type: "Scale"
  bottom: "fc7_t"
  bottom: "fc7_reshape"
  top: "fc7"
  scale_param {
    axis: 0
    bias_term: false
  }
}
layer {
  name: "conv6_1"
  type: "Convolution"
  bottom: "fc7"
  top: "conv6_1"
  param {
    lr_mult: 1
    decay_mult: 1
  }
  param {
    lr_mult: 2
    decay_mult: 0
  }
  convolution_param {
    num_output: 256
    pad: 0
    kernel_size: 1
    stride: 1
    weight_filler {
      type: "xavier"
    }
    bias_filler {
      type: "constant"
      value: 0
    }
  }
}
layer {
  name: "conv6_1_relu"
  type: "ReLU"
  bottom: "conv6_1"
  top: "conv6_1"
}
layer {
  name: "conv6_2"
  type: "Convolution"
  bottom: "conv6_1"
  top: "conv6_2_t"
  param {
    lr_mult: 1
    decay_mult: 1
  }
  param {
    lr_mult: 2
    decay_mult: 0
  }
  convolution_param {
    num_output: 512
    pad: 1
    kernel_size: 3
    stride: 2
    weight_filler {
      type: "xavier"
    }
    bias_filler {
      type: "constant"
      value: 0
    }
  }
}
layer {
  name: "conv6_2_relu"
  type: "ReLU"
  bottom: "conv6_2_t"
  top: "conv6_2_t"
}
layer {
  name: "conv6_2_s"
  type: "Pooling"
  bottom: "conv6_2_t"
  top: "conv6_2_s"
  pooling_param {
    pool: AVE
    global_pooling: true
  }
}
layer {
  name: "conv6_2_fc1"
  type: "Convolution"
  bottom: "conv6_2_s"
  top: "conv6_2_fc1"
  param {
    lr_mult: 1
    decay_mult: 1
  }
  param {
    lr_mult: 2
    decay_mult: 0
  }
  convolution_param {
    num_output: 128
    kernel_size: 1
    stride: 1
    weight_filler {
      type: "xavier"
    }
    bias_filler {
      type: "constant"
      value: 0
    }
  }
}
layer {
  name: "conv6_2_relu"
  type: "ReLU"
  bottom: "conv6_2_fc1"
  top: "conv6_2_fc1"
}
layer {
  name: "conv6_2_fc2"
  type: "Convolution"
  bottom: "conv6_2_fc1"
  top: "conv6_2_fc2"
  param {
    lr_mult: 1
    decay_mult: 1
  }
  param {
    lr_mult: 2
    decay_mult: 0
  }
  convolution_param {
    num_output: 512
    kernel_size: 1
    stride: 1
    weight_filler {
      type: "xavier"
    }
    bias_filler {
      type: "constant"
      value: 0
    }
  }
}
layer {
  name: "conv6_2_sig"
  type: "Sigmoid"
  bottom: "conv6_2_fc2"
  top: "conv6_2_fc2"
}
layer {
  name: "conv6_2_reshape"
  type: "Reshape"
  bottom: "conv6_2_fc2"
  top: "conv6_2_reshape"
  reshape_param {
    shape {
      dim: 0
      dim: 0
    }
  }
}
layer {
  name: "conv6_2_scale"
  type: "Scale"
  bottom: "conv6_2_t"
  bottom: "conv6_2_reshape"
  top: "conv6_2"
  scale_param {
    axis: 0
    bias_term: false
  }
}
layer {
  name: "conv7_1"
  type: "Convolution"
  bottom: "conv6_2"
  top: "conv7_1"
  param {
    lr_mult: 1
    decay_mult: 1
  }
  param {
    lr_mult: 2
    decay_mult: 0
  }
  convolution_param {
    num_output: 128
    pad: 0
    kernel_size: 1
    stride: 1
    weight_filler {
      type: "xavier"
    }
    bias_filler {
      type: "constant"
      value: 0
    }
  }
}
layer {
  name: "conv7_1_relu"
  type: "ReLU"
  bottom: "conv7_1"
  top: "conv7_1"
}
layer {
  name: "conv7_2"
  type: "Convolution"
  bottom: "conv7_1"
  top: "conv7_2_t"
  param {
    lr_mult: 1
    decay_mult: 1
  }
  param {
    lr_mult: 2
    decay_mult: 0
  }
  convolution_param {
    num_output: 256
    pad: 1
    kernel_size: 3
    stride: 2
    weight_filler {
      type: "xavier"
    }
    bias_filler {
      type: "constant"
      value: 0
    }
  }
}
layer {
  name: "conv7_2_relu"
  type: "ReLU"
  bottom: "conv7_2_t"
  top: "conv7_2_t"
}
layer {
  name: "conv7_2_s"
  type: "Pooling"
  bottom: "conv7_2_t"
  top: "conv7_2_s"
  pooling_param {
    pool: AVE
    global_pooling: true
  }
}
layer {
  name: "conv7_2_fc1"
  type: "Convolution"
  bottom: "conv7_2_s"
  top: "conv7_2_fc1"
  param {
    lr_mult: 1
    decay_mult: 1
  }
  param {
    lr_mult: 2
    decay_mult: 0
  }
  convolution_param {
    num_output: 64
    kernel_size: 1
    stride: 1
    weight_filler {
      type: "xavier"
    }
    bias_filler {
      type: "constant"
      value: 0
    }
  }
}
layer {
  name: "conv7_2_relu"
  type: "ReLU"
  bottom: "conv7_2_fc1"
  top: "conv7_2_fc1"
}
layer {
  name: "conv7_2_fc2"
  type: "Convolution"
  bottom: "conv7_2_fc1"
  top: "conv7_2_fc2"
  param {
    lr_mult: 1
    decay_mult: 1
  }
  param {
    lr_mult: 2
    decay_mult: 0
  }
  convolution_param {
    num_output: 256
    kernel_size: 1
    stride: 1
    weight_filler {
      type: "xavier"
    }
    bias_filler {
      type: "constant"
      value: 0
    }
  }
}
layer {
  name: "conv7_2_sig"
  type: "Sigmoid"
  bottom: "conv7_2_fc2"
  top: "conv7_2_fc2"
}
layer {
  name: "conv7_2_reshape"
  type: "Reshape"
  bottom: "conv7_2_fc2"
  top: "conv7_2_reshape"
  reshape_param {
    shape {
      dim: 0
      dim: 0
    }
  }
}
layer {
  name: "conv7_2_scale"
  type: "Scale"
  bottom: "conv7_2_t"
  bottom: "conv7_2_reshape"
  top: "conv7_2"
  scale_param {
    axis: 0
    bias_term: false
  }
}
layer {
  name: "conv8_1"
  type: "Convolution"
  bottom: "conv7_2"
  top: "conv8_1"
  param {
    lr_mult: 1
    decay_mult: 1
  }
  param {
    lr_mult: 2
    decay_mult: 0
  }
  convolution_param {
    num_output: 128
    pad: 0
    kernel_size: 1
    stride: 1
    weight_filler {
      type: "xavier"
    }
    bias_filler {
      type: "constant"
      value: 0
    }
  }
}
layer {
  name: "conv8_1_relu"
  type: "ReLU"
  bottom: "conv8_1"
  top: "conv8_1"
}
layer {
  name: "conv8_2"
  type: "Convolution"
  bottom: "conv8_1"
  top: "conv8_2_t"
  param {
    lr_mult: 1
    decay_mult: 1
  }
  param {
    lr_mult: 2
    decay_mult: 0
  }
  convolution_param {
    num_output: 256
    pad: 0
    kernel_size: 3
    stride: 1
    weight_filler {
      type: "xavier"
    }
    bias_filler {
      type: "constant"
      value: 0
    }
  }
}
layer {
  name: "conv8_2_relu"
  type: "ReLU"
  bottom: "conv8_2_t"
  top: "conv8_2_t"
}
layer {
  name: "conv8_2_s"
  type: "Pooling"
  bottom: "conv8_2_t"
  top: "conv8_2_s"
  pooling_param {
    pool: AVE
    global_pooling: true
  }
}
layer {
  name: "conv8_2_fc1"
  type: "Convolution"
  bottom: "conv8_2_s"
  top: "conv8_2_fc1"
  param {
    lr_mult: 1
    decay_mult: 1
  }
  param {
    lr_mult: 2
    decay_mult: 0
  }
  convolution_param {
    num_output: 64
    kernel_size: 1
    stride: 1
    weight_filler {
      type: "xavier"
    }
    bias_filler {
      type: "constant"
      value: 0
    }
  }
}
layer {
  name: "conv8_2_relu"
  type: "ReLU"
  bottom: "conv8_2_fc1"
  top: "conv8_2_fc1"
}
layer {
  name: "conv8_2_fc2"
  type: "Convolution"
  bottom: "conv8_2_fc1"
  top: "conv8_2_fc2"
  param {
    lr_mult: 1
    decay_mult: 1
  }
  param {
    lr_mult: 2
    decay_mult: 0
  }
  convolution_param {
    num_output: 256
    kernel_size: 1
    stride: 1
    weight_filler {
      type: "xavier"
    }
    bias_filler {
      type: "constant"
      value: 0
    }
  }
}
layer {
  name: "conv8_2_sig"
  type: "Sigmoid"
  bottom: "conv8_2_fc2"
  top: "conv8_2_fc2"
}
layer {
  name: "conv8_2_reshape"
  type: "Reshape"
  bottom: "conv8_2_fc2"
  top: "conv8_2_reshape"
  reshape_param {
    shape {
      dim: 0
      dim: 0
    }
  }
}
layer {
  name: "conv8_2_scale"
  type: "Scale"
  bottom: "conv8_2_t"
  bottom: "conv8_2_reshape"
  top: "conv8_2"
  scale_param {
    axis: 0
    bias_term: false
  }
}
layer {
  name: "conv9_1"
  type: "Convolution"
  bottom: "conv8_2"
  top: "conv9_1"
  param {
    lr_mult: 1
    decay_mult: 1
  }
  param {
    lr_mult: 2
    decay_mult: 0
  }
  convolution_param {
    num_output: 128
    pad: 0
    kernel_size: 1
    stride: 1
    weight_filler {
      type: "xavier"
    }
    bias_filler {
      type: "constant"
      value: 0
    }
  }
}
layer {
  name: "conv9_1_relu"
  type: "ReLU"
  bottom: "conv9_1"
  top: "conv9_1"
}
layer {
  name: "conv9_2"
  type: "Convolution"
  bottom: "conv9_1"
  top: "conv9_2_t"
  param {
    lr_mult: 1
    decay_mult: 1
  }
  param {
    lr_mult: 2
    decay_mult: 0
  }
  convolution_param {
    num_output: 256
    pad: 0
    kernel_size: 3
    stride: 1
    weight_filler {
      type: "xavier"
    }
    bias_filler {
      type: "constant"
      value: 0
    }
  }
}
layer {
  name: "conv9_2_relu"
  type: "ReLU"
  bottom: "conv9_2_t"
  top: "conv9_2_t"
}
layer {
  name: "conv9_2_s"
  type: "Pooling"
  bottom: "conv9_2_t"
  top: "conv9_2_s"
  pooling_param {
    pool: AVE
    global_pooling: true
  }
}
layer {
  name: "conv9_2_fc1"
  type: "Convolution"
  bottom: "conv9_2_s"
  top: "conv9_2_fc1"
  param {
    lr_mult: 1
    decay_mult: 1
  }
  param {
    lr_mult: 2
    decay_mult: 0
  }
  convolution_param {
    num_output: 64
    kernel_size: 1
    stride: 1
    weight_filler {
      type: "xavier"
    }
    bias_filler {
      type: "constant"
      value: 0
    }
  }
}
layer {
  name: "conv9_2_relu"
  type: "ReLU"
  bottom: "conv9_2_fc1"
  top: "conv9_2_fc1"
}
layer {
  name: "conv9_2_fc2"
  type: "Convolution"
  bottom: "conv9_2_fc1"
  top: "conv9_2_fc2"
  param {
    lr_mult: 1
    decay_mult: 1
  }
  param {
    lr_mult: 2
    decay_mult: 0
  }
  convolution_param {
    num_output: 256
    kernel_size: 1
    stride: 1
    weight_filler {
      type: "xavier"
    }
    bias_filler {
      type: "constant"
      value: 0
    }
  }
}
layer {
  name: "conv9_2_sig"
  type: "Sigmoid"
  bottom: "conv9_2_fc2"
  top: "conv9_2_fc2"
}
layer {
  name: "conv9_2_reshape"
  type: "Reshape"
  bottom: "conv9_2_fc2"
  top: "conv9_2_reshape"
  reshape_param {
    shape {
      dim: 0
      dim: 0
    }
  }
}
layer {
  name: "conv9_2_scale"
  type: "Scale"
  bottom: "conv9_2_t"
  bottom: "conv9_2_reshape"
  top: "conv9_2"
  scale_param {
    axis: 0
    bias_term: false
  }
}
layer {
  name: "conv4_3_norm"
  type: "Normalize"
  bottom: "conv4_3"
  top: "conv4_3_norm"
  norm_param {
    across_spatial: false
    scale_filler {
      type: "constant"
      value: 20
    }
    channel_shared: false
  }
}
layer {
  name: "conv4_3_norm_mbox_loc"
  type: "Convolution"
  bottom: "conv4_3_norm"
  top: "conv4_3_norm_mbox_loc"
  param {
    lr_mult: 1
    decay_mult: 1
  }
  param {
    lr_mult: 2
    decay_mult: 0
  }
  convolution_param {
    num_output: 16
    pad: 1
    kernel_size: 3
    stride: 1
    weight_filler {
      type: "xavier"
    }
    bias_filler {
      type: "constant"
      value: 0
    }
  }
}
layer {
  name: "conv4_3_norm_mbox_loc_perm"
  type: "Permute"
  bottom: "conv4_3_norm_mbox_loc"
  top: "conv4_3_norm_mbox_loc_perm"
  permute_param {
    order: 0
    order: 2
    order: 3
    order: 1
  }
}
layer {
  name: "conv4_3_norm_mbox_loc_flat"
  type: "Flatten"
  bottom: "conv4_3_norm_mbox_loc_perm"
  top: "conv4_3_norm_mbox_loc_flat"
  flatten_param {
    axis: 1
  }
}
layer {
  name: "conv4_3_norm_mbox_conf"
  type: "Convolution"
  bottom: "conv4_3_norm"
  top: "conv4_3_norm_mbox_conf"
  param {
    lr_mult: 1
    decay_mult: 1
  }
  param {
    lr_mult: 2
    decay_mult: 0
  }
  convolution_param {
    num_output: 84
    pad: 1
    kernel_size: 3
    stride: 1
    weight_filler {
      type: "xavier"
    }
    bias_filler {
      type: "constant"
      value: 0
    }
  }
}
layer {
  name: "conv4_3_norm_mbox_conf_perm"
  type: "Permute"
  bottom: "conv4_3_norm_mbox_conf"
  top: "conv4_3_norm_mbox_conf_perm"
  permute_param {
    order: 0
    order: 2
    order: 3
    order: 1
  }
}
layer {
  name: "conv4_3_norm_mbox_conf_flat"
  type: "Flatten"
  bottom: "conv4_3_norm_mbox_conf_perm"
  top: "conv4_3_norm_mbox_conf_flat"
  flatten_param {
    axis: 1
  }
}
layer {
  name: "conv4_3_norm_mbox_priorbox"
  type: "PriorBox"
  bottom: "conv4_3_norm"
  bottom: "data"
  top: "conv4_3_norm_mbox_priorbox"
  prior_box_param {
    min_size: 30
    max_size: 60
    aspect_ratio: 2
    flip: true
    clip: false
    variance: 0.1
    variance: 0.1
    variance: 0.2
    variance: 0.2
    step: 8
    offset: 0.5
  }
}
layer {
  name: "fc7_mbox_loc"
  type: "Convolution"
  bottom: "fc7"
  top: "fc7_mbox_loc"
  param {
    lr_mult: 1
    decay_mult: 1
  }
  param {
    lr_mult: 2
    decay_mult: 0
  }
  convolution_param {
    num_output: 24
    pad: 1
    kernel_size: 3
    stride: 1
    weight_filler {
      type: "xavier"
    }
    bias_filler {
      type: "constant"
      value: 0
    }
  }
}
layer {
  name: "fc7_mbox_loc_perm"
  type: "Permute"
  bottom: "fc7_mbox_loc"
  top: "fc7_mbox_loc_perm"
  permute_param {
    order: 0
    order: 2
    order: 3
    order: 1
  }
}
layer {
  name: "fc7_mbox_loc_flat"
  type: "Flatten"
  bottom: "fc7_mbox_loc_perm"
  top: "fc7_mbox_loc_flat"
  flatten_param {
    axis: 1
  }
}
layer {
  name: "fc7_mbox_conf"
  type: "Convolution"
  bottom: "fc7"
  top: "fc7_mbox_conf"
  param {
    lr_mult: 1
    decay_mult: 1
  }
  param {
    lr_mult: 2
    decay_mult: 0
  }
  convolution_param {
    num_output: 126
    pad: 1
    kernel_size: 3
    stride: 1
    weight_filler {
      type: "xavier"
    }
    bias_filler {
      type: "constant"
      value: 0
 
I0305 20:34:31.980051  5371 layer_factory.hpp:77] Creating layer data
I0305 20:34:31.980409  5371 net.cpp:100] Creating Layer data
I0305 20:34:31.980427  5371 net.cpp:408] data -> data
I0305 20:34:31.980461  5371 net.cpp:408] data -> label
I0305 20:34:31.981479  5377 db_lmdb.cpp:35] Opened lmdb examples/VOC0712/VOC0712_trainvaltest_lmdb
I0305 20:34:31.991606  5371 annotated_data_layer.cpp:62] output data size: 8,3,300,300
I0305 20:34:32.005307  5371 net.cpp:150] Setting up data
I0305 20:34:32.005332  5371 net.cpp:157] Top shape: 8 3 300 300 (2160000)
I0305 20:34:32.005337  5371 net.cpp:157] Top shape: 1 1 2 8 (16)
I0305 20:34:32.005340  5371 net.cpp:165] Memory required for data: 8640064
I0305 20:34:32.005350  5371 layer_factory.hpp:77] Creating layer data_data_0_split
I0305 20:34:32.005363  5371 net.cpp:100] Creating Layer data_data_0_split
I0305 20:34:32.005370  5371 net.cpp:434] data_data_0_split <- data
I0305 20:34:32.005388  5371 net.cpp:408] data_data_0_split -> data_data_0_split_0
I0305 20:34:32.005399  5371 net.cpp:408] data_data_0_split -> data_data_0_split_1
I0305 20:34:32.005406  5371 net.cpp:408] data_data_0_split -> data_data_0_split_2
I0305 20:34:32.005412  5371 net.cpp:408] data_data_0_split -> data_data_0_split_3
I0305 20:34:32.005420  5371 net.cpp:408] data_data_0_split -> data_data_0_split_4
I0305 20:34:32.005425  5371 net.cpp:408] data_data_0_split -> data_data_0_split_5
I0305 20:34:32.005431  5371 net.cpp:408] data_data_0_split -> data_data_0_split_6
I0305 20:34:32.005506  5371 net.cpp:150] Setting up data_data_0_split
I0305 20:34:32.005513  5371 net.cpp:157] Top shape: 8 3 300 300 (2160000)
I0305 20:34:32.005518  5371 net.cpp:157] Top shape: 8 3 300 300 (2160000)
I0305 20:34:32.005524  5371 net.cpp:157] Top shape: 8 3 300 300 (2160000)
I0305 20:34:32.005549  5371 net.cpp:157] Top shape: 8 3 300 300 (2160000)
I0305 20:34:32.005558  5371 net.cpp:157] Top shape: 8 3 300 300 (2160000)
I0305 20:34:32.005563  5371 net.cpp:157] Top shape: 8 3 300 300 (2160000)
I0305 20:34:32.005569  5371 net.cpp:157] Top shape: 8 3 300 300 (2160000)
I0305 20:34:32.005578  5371 net.cpp:165] Memory required for data: 69120064
I0305 20:34:32.005580  5371 layer_factory.hpp:77] Creating layer label_data_1_split
I0305 20:34:32.005586  5371 net.cpp:100] Creating Layer label_data_1_split
I0305 20:34:32.005591  5371 net.cpp:434] label_data_1_split <- label
I0305 20:34:32.005599  5371 net.cpp:408] label_data_1_split -> label_data_1_split_0
I0305 20:34:32.005606  5371 net.cpp:408] label_data_1_split -> label_data_1_split_1
I0305 20:34:32.005630  5371 net.cpp:150] Setting up label_data_1_split
I0305 20:34:32.005637  5371 net.cpp:157] Top shape: 1 1 2 8 (16)
I0305 20:34:32.005640  5371 net.cpp:157] Top shape: 1 1 2 8 (16)
I0305 20:34:32.005643  5371 net.cpp:165] Memory required for data: 69120192
I0305 20:34:32.005646  5371 layer_factory.hpp:77] Creating layer conv1_1
I0305 20:34:32.005663  5371 net.cpp:100] Creating Layer conv1_1
I0305 20:34:32.005668  5371 net.cpp:434] conv1_1 <- data_data_0_split_0
I0305 20:34:32.005674  5371 net.cpp:408] conv1_1 -> conv1_1
I0305 20:34:32.028092  5378 blocking_queue.cpp:50] Waiting for data
I0305 20:34:32.419688  5371 net.cpp:150] Setting up conv1_1
I0305 20:34:32.419711  5371 net.cpp:157] Top shape: 8 64 300 300 (46080000)
I0305 20:34:32.419715  5371 net.cpp:165] Memory required for data: 253440192
I0305 20:34:32.419733  5371 layer_factory.hpp:77] Creating layer relu1_1
I0305 20:34:32.419746  5371 net.cpp:100] Creating Layer relu1_1
I0305 20:34:32.419754  5371 net.cpp:434] relu1_1 <- conv1_1
I0305 20:34:32.419762  5371 net.cpp:395] relu1_1 -> conv1_1 (in-place)
I0305 20:34:32.419915  5371 net.cpp:150] Setting up relu1_1
I0305 20:34:32.419929  5371 net.cpp:157] Top shape: 8 64 300 300 (46080000)
I0305 20:34:32.419935  5371 net.cpp:165] Memory required for data: 437760192
I0305 20:34:32.419941  5371 layer_factory.hpp:77] Creating layer conv1_2
I0305 20:34:32.419960  5371 net.cpp:100] Creating Layer conv1_2
I0305 20:34:32.419972  5371 net.cpp:434] conv1_2 <- conv1_1
I0305 20:34:32.419982  5371 net.cpp:408] conv1_2 -> conv1_2
I0305 20:34:32.422699  5371 net.cpp:150] Setting up conv1_2
I0305 20:34:32.422722  5371 net.cpp:157] Top shape: 8 64 300 300 (46080000)
I0305 20:34:32.422730  5371 net.cpp:165] Memory required for data: 622080192
I0305 20:34:32.422744  5371 layer_factory.hpp:77] Creating layer relu1_2
I0305 20:34:32.422757  5371 net.cpp:100] Creating Layer relu1_2
I0305 20:34:32.422771  5371 net.cpp:434] relu1_2 <- conv1_2
I0305 20:34:32.422787  5371 net.cpp:395] relu1_2 -> conv1_2 (in-place)
I0305 20:34:32.422955  5371 net.cpp:150] Setting up relu1_2
I0305 20:34:32.422966  5371 net.cpp:157] Top shape: 8 64 300 300 (46080000)
I0305 20:34:32.422971  5371 net.cpp:165] Memory required for data: 806400192
I0305 20:34:32.422978  5371 layer_factory.hpp:77] Creating layer pool1
I0305 20:34:32.422991  5371 net.cpp:100] Creating Layer pool1
I0305 20:34:32.422996  5371 net.cpp:434] pool1 <- conv1_2
I0305 20:34:32.423005  5371 net.cpp:408] pool1 -> pool1
I0305 20:34:32.423069  5371 net.cpp:150] Setting up pool1
I0305 20:34:32.423080  5371 net.cpp:157] Top shape: 8 64 150 150 (11520000)
I0305 20:34:32.423087  5371 net.cpp:165] Memory required for data: 852480192
I0305 20:34:32.423092  5371 layer_factory.hpp:77] Creating layer conv2_1
I0305 20:34:32.423110  5371 net.cpp:100] Creating Layer conv2_1
I0305 20:34:32.423115  5371 net.cpp:434] conv2_1 <- pool1
I0305 20:34:32.423123  5371 net.cpp:408] conv2_1 -> conv2_1
I0305 20:34:32.428802  5371 net.cpp:150] Setting up conv2_1
I0305 20:34:32.428827  5371 net.cpp:157] Top shape: 8 128 150 150 (23040000)
I0305 20:34:32.428829  5371 net.cpp:165] Memory required for data: 944640192
I0305 20:34:32.428844  5371 layer_factory.hpp:77] Creating layer relu2_1
I0305 20:34:32.428860  5371 net.cpp:100] Creating Layer relu2_1
I0305 20:34:32.428870  5371 net.cpp:434] relu2_1 <- conv2_1
I0305 20:34:32.428907  5371 net.cpp:395] relu2_1 -> conv2_1 (in-place)
I0305 20:34:32.429440  5371 net.cpp:150] Setting up relu2_1
I0305 20:34:32.429452  5371 net.cpp:157] Top shape: 8 128 150 150 (23040000)
I0305 20:34:32.429460  5371 net.cpp:165] Memory required for data: 1036800192
I0305 20:34:32.429467  5371 layer_factory.hpp:77] Creating layer conv2_2
I0305 20:34:32.429491  5371 net.cpp:100] Creating Layer conv2_2
I0305 20:34:32.429502  5371 net.cpp:434] conv2_2 <- conv2_1
I0305 20:34:32.429520  5371 net.cpp:408] conv2_2 -> conv2_2
I0305 20:34:32.431382  5371 net.cpp:150] Setting up conv2_2
I0305 20:34:32.431403  5371 net.cpp:157] Top shape: 8 128 150 150 (23040000)
I0305 20:34:32.431411  5371 net.cpp:165] Memory required for data: 1128960192
I0305 20:34:32.431423  5371 layer_factory.hpp:77] Creating layer relu2_2
I0305 20:34:32.431437  5371 net.cpp:100] Creating Layer relu2_2
I0305 20:34:32.431447  5371 net.cpp:434] relu2_2 <- conv2_2
I0305 20:34:32.431457  5371 net.cpp:395] relu2_2 -> conv2_2 (in-place)
I0305 20:34:32.431612  5371 net.cpp:150] Setting up relu2_2
I0305 20:34:32.431622  5371 net.cpp:157] Top shape: 8 128 150 150 (23040000)
I0305 20:34:32.431628  5371 net.cpp:165] Memory required for data: 1221120192
I0305 20:34:32.431635  5371 layer_factory.hpp:77] Creating layer pool2
I0305 20:34:32.431653  5371 net.cpp:100] Creating Layer pool2
I0305 20:34:32.431659  5371 net.cpp:434] pool2 <- conv2_2
I0305 20:34:32.431674  5371 net.cpp:408] pool2 -> pool2
I0305 20:34:32.431716  5371 net.cpp:150] Setting up pool2
I0305 20:34:32.431725  5371 net.cpp:157] Top shape: 8 128 75 75 (5760000)
I0305 20:34:32.431730  5371 net.cpp:165] Memory required for data: 1244160192
I0305 20:34:32.431749  5371 layer_factory.hpp:77] Creating layer conv3_1
I0305 20:34:32.431766  5371 net.cpp:100] Creating Layer conv3_1
I0305 20:34:32.431776  5371 net.cpp:434] conv3_1 <- pool2
I0305 20:34:32.431787  5371 net.cpp:408] conv3_1 -> conv3_1
I0305 20:34:32.435791  5371 net.cpp:150] Setting up conv3_1
I0305 20:34:32.435812  5371 net.cpp:157] Top shape: 8 256 75 75 (11520000)
I0305 20:34:32.435818  5371 net.cpp:165] Memory required for data: 1290240192
I0305 20:34:32.435838  5371 layer_factory.hpp:77] Creating layer relu3_1
I0305 20:34:32.435850  5371 net.cpp:100] Creating Layer relu3_1
I0305 20:34:32.435858  5371 net.cpp:434] relu3_1 <- conv3_1
I0305 20:34:32.435873  5371 net.cpp:395] relu3_1 -> conv3_1 (in-place)
I0305 20:34:32.436041  5371 net.cpp:150] Setting up relu3_1
I0305 20:34:32.436055  5371 net.cpp:157] Top shape: 8 256 75 75 (11520000)
I0305 20:34:32.436061  5371 net.cpp:165] Memory required for data: 1336320192
I0305 20:34:32.436074  5371 layer_factory.hpp:77] Creating layer conv3_2
I0305 20:34:32.436094  5371 net.cpp:100] Creating Layer conv3_2
I0305 20:34:32.436103  5371 net.cpp:434] conv3_2 <- conv3_1
I0305 20:34:32.436115  5371 net.cpp:408] conv3_2 -> conv3_2
I0305 20:34:32.440723  5371 net.cpp:150] Setting up conv3_2
I0305 20:34:32.440739  5371 net.cpp:157] Top shape: 8 256 75 75 (11520000)
I0305 20:34:32.440744  5371 net.cpp:165] Memory required for data: 1382400192
I0305 20:34:32.440757  5371 layer_factory.hpp:77] Creating layer relu3_2
I0305 20:34:32.440778  5371 net.cpp:100] Creating Layer relu3_2
I0305 20:34:32.440790  5371 net.cpp:434] relu3_2 <- conv3_2
I0305 20:34:32.440798  5371 net.cpp:395] relu3_2 -> conv3_2 (in-place)
I0305 20:34:32.441267  5371 net.cpp:150] Setting up relu3_2
I0305 20:34:32.441280  5371 net.cpp:157] Top shape: 8 256 75 75 (11520000)
I0305 20:34:32.441285  5371 net.cpp:165] Memory required for data: 1428480192
I0305 20:34:32.441293  5371 layer_factory.hpp:77] Creating layer conv3_3
I0305 20:34:32.441310  5371 net.cpp:100] Creating Layer conv3_3
I0305 20:34:32.441320  5371 net.cpp:434] conv3_3 <- conv3_2
I0305 20:34:32.441334  5371 net.cpp:408] conv3_3 -> conv3_3
I0305 20:34:32.445955  5371 net.cpp:150] Setting up conv3_3
I0305 20:34:32.445982  5371 net.cpp:157] Top shape: 8 256 75 75 (11520000)
I0305 20:34:32.445988  5371 net.cpp:165] Memory required for data: 1474560192
I0305 20:34:32.446032  5371 layer_factory.hpp:77] Creating layer relu3_3
I0305 20:34:32.446048  5371 net.cpp:100] Creating Layer relu3_3
I0305 20:34:32.446060  5371 net.cpp:434] relu3_3 <- conv3_3
I0305 20:34:32.446074  5371 net.cpp:395] relu3_3 -> conv3_3 (in-place)
I0305 20:34:32.446243  5371 net.cpp:150] Setting up relu3_3
I0305 20:34:32.446252  5371 net.cpp:157] Top shape: 8 256 75 75 (11520000)
I0305 20:34:32.446257  5371 net.cpp:165] Memory required for data: 1520640192
I0305 20:34:32.446262  5371 layer_factory.hpp:77] Creating layer pool3
I0305 20:34:32.446275  5371 net.cpp:100] Creating Layer pool3
I0305 20:34:32.446290  5371 net.cpp:434] pool3 <- conv3_3
I0305 20:34:32.446296  5371 net.cpp:408] pool3 -> pool3
I0305 20:34:32.446375  5371 net.cpp:150] Setting up pool3
I0305 20:34:32.446386  5371 net.cpp:157] Top shape: 8 256 38 38 (2957312)
I0305 20:34:32.446393  5371 net.cpp:165] Memory required for data: 1532469440
I0305 20:34:32.446401  5371 layer_factory.hpp:77] Creating layer conv4_1
I0305 20:34:32.446419  5371 net.cpp:100] Creating Layer conv4_1
I0305 20:34:32.446427  5371 net.cpp:434] conv4_1 <- pool3
I0305 20:34:32.446439  5371 net.cpp:408] conv4_1 -> conv4_1
I0305 20:34:32.455991  5371 net.cpp:150] Setting up conv4_1
I0305 20:34:32.456017  5371 net.cpp:157] Top shape: 8 512 38 38 (5914624)
I0305 20:34:32.456022  5371 net.cpp:165] Memory required for data: 1556127936
I0305 20:34:32.456034  5371 layer_factory.hpp:77] Creating layer relu4_1
I0305 20:34:32.456048  5371 net.cpp:100] Creating Layer relu4_1
I0305 20:34:32.456061  5371 net.cpp:434] relu4_1 <- conv4_1
I0305 20:34:32.456073  5371 net.cpp:395] relu4_1 -> conv4_1 (in-place)
I0305 20:34:32.456254  5371 net.cpp:150] Setting up relu4_1
I0305 20:34:32.456269  5371 net.cpp:157] Top shape: 8 512 38 38 (5914624)
I0305 20:34:32.456276  5371 net.cpp:165] Memory required for data: 1579786432
I0305 20:34:32.456284  5371 layer_factory.hpp:77] Creating layer conv4_2
I0305 20:34:32.456307  5371 net.cpp:100] Creating Layer conv4_2
I0305 20:34:32.456318  5371 net.cpp:434] conv4_2 <- conv4_1
I0305 20:34:32.456336  5371 net.cpp:408] conv4_2 -> conv4_2
I0305 20:34:32.475915  5371 net.cpp:150] Setting up conv4_2
I0305 20:34:32.475941  5371 net.cpp:157] Top shape: 8 512 38 38 (5914624)
I0305 20:34:32.475945  5371 net.cpp:165] Memory required for data: 1603444928
I0305 20:34:32.475963  5371 layer_factory.hpp:77] Creating layer relu4_2
I0305 20:34:32.475978  5371 net.cpp:100] Creating Layer relu4_2
I0305 20:34:32.475988  5371 net.cpp:434] relu4_2 <- conv4_2
I0305 20:34:32.475997  5371 net.cpp:395] relu4_2 -> conv4_2 (in-place)
I0305 20:34:32.476171  5371 net.cpp:150] Setting up relu4_2
I0305 20:34:32.476182  5371 net.cpp:157] Top shape: 8 512 38 38 (5914624)
I0305 20:34:32.476186  5371 net.cpp:165] Memory required for data: 1627103424
I0305 20:34:32.476193  5371 layer_factory.hpp:77] Creating layer conv4_3
I0305 20:34:32.476212  5371 net.cpp:100] Creating Layer conv4_3
I0305 20:34:32.476217  5371 net.cpp:434] conv4_3 <- conv4_2
I0305 20:34:32.476228  5371 net.cpp:408] conv4_3 -> conv4_3_ori
I0305 20:34:32.489892  5371 net.cpp:150] Setting up conv4_3
I0305 20:34:32.489919  5371 net.cpp:157] Top shape: 8 512 38 38 (5914624)
I0305 20:34:32.489924  5371 net.cpp:165] Memory required for data: 1650761920
I0305 20:34:32.489938  5371 layer_factory.hpp:77] Creating layer relu4_3
I0305 20:34:32.489950  5371 net.cpp:100] Creating Layer relu4_3
I0305 20:34:32.489960  5371 net.cpp:434] relu4_3 <- conv4_3_ori
I0305 20:34:32.489972  5371 net.cpp:395] relu4_3 -> conv4_3_ori (in-place)
I0305 20:34:32.490499  5371 net.cpp:150] Setting up relu4_3
I0305 20:34:32.490512  5371 net.cpp:157] Top shape: 8 512 38 38 (5914624)
I0305 20:34:32.490519  5371 net.cpp:165] Memory required for data: 1674420416
I0305 20:34:32.490525  5371 layer_factory.hpp:77] Creating layer conv4_3_ori_relu4_3_0_split
I0305 20:34:32.490535  5371 net.cpp:100] Creating Layer conv4_3_ori_relu4_3_0_split
I0305 20:34:32.490542  5371 net.cpp:434] conv4_3_ori_relu4_3_0_split <- conv4_3_ori
I0305 20:34:32.490559  5371 net.cpp:408] conv4_3_ori_relu4_3_0_split -> conv4_3_ori_relu4_3_0_split_0
I0305 20:34:32.490591  5371 net.cpp:408] conv4_3_ori_relu4_3_0_split -> conv4_3_ori_relu4_3_0_split_1
I0305 20:34:32.490639  5371 net.cpp:150] Setting up conv4_3_ori_relu4_3_0_split
I0305 20:34:32.490650  5371 net.cpp:157] Top shape: 8 512 38 38 (5914624)
I0305 20:34:32.490661  5371 net.cpp:157] Top shape: 8 512 38 38 (5914624)
I0305 20:34:32.490679  5371 net.cpp:165] Memory required for data: 1721737408
I0305 20:34:32.490685  5371 layer_factory.hpp:77] Creating layer seg_pool4
I0305 20:34:32.490700  5371 net.cpp:100] Creating Layer seg_pool4
I0305 20:34:32.490710  5371 net.cpp:434] seg_pool4 <- conv4_3_ori_relu4_3_0_split_0
I0305 20:34:32.490723  5371 net.cpp:408] seg_pool4 -> seg_pool4
I0305 20:34:32.490777  5371 net.cpp:150] Setting up seg_pool4
I0305 20:34:32.490789  5371 net.cpp:157] Top shape: 8 512 38 38 (5914624)
I0305 20:34:32.490803  5371 net.cpp:165] Memory required for data: 1745395904
I0305 20:34:32.490813  5371 layer_factory.hpp:77] Creating layer seg5_1
I0305 20:34:32.490834  5371 net.cpp:100] Creating Layer seg5_1
I0305 20:34:32.490844  5371 net.cpp:434] seg5_1 <- seg_pool4
I0305 20:34:32.490859  5371 net.cpp:408] seg5_1 -> seg5_1
I0305 20:34:32.502903  5371 net.cpp:150] Setting up seg5_1
I0305 20:34:32.502930  5371 net.cpp:157] Top shape: 8 512 38 38 (5914624)
I0305 20:34:32.502934  5371 net.cpp:165] Memory required for data: 1769054400
I0305 20:34:32.502948  5371 layer_factory.hpp:77] Creating layer seg_relu5_1
I0305 20:34:32.502962  5371 net.cpp:100] Creating Layer seg_relu5_1
I0305 20:34:32.502971  5371 net.cpp:434] seg_relu5_1 <- seg5_1
I0305 20:34:32.502984  5371 net.cpp:395] seg_relu5_1 -> seg5_1 (in-place)
I0305 20:34:32.503204  5371 net.cpp:150] Setting up seg_relu5_1
I0305 20:34:32.503224  5371 net.cpp:157] Top shape: 8 512 38 38 (5914624)
I0305 20:34:32.503237  5371 net.cpp:165] Memory required for data: 1792712896
I0305 20:34:32.503247  5371 layer_factory.hpp:77] Creating layer seg5_2
I0305 20:34:32.503268  5371 net.cpp:100] Creating Layer seg5_2
I0305 20:34:32.503280  5371 net.cpp:434] seg5_2 <- seg5_1
I0305 20:34:32.503291  5371 net.cpp:408] seg5_2 -> seg5_2
I0305 20:34:32.516021  5371 net.cpp:150] Setting up seg5_2
I0305 20:34:32.516049  5371 net.cpp:157] Top shape: 8 512 38 38 (5914624)
I0305 20:34:32.516055  5371 net.cpp:165] Memory required for data: 1816371392
I0305 20:34:32.516067  5371 layer_factory.hpp:77] Creating layer seg_relu5_2
I0305 20:34:32.516084  5371 net.cpp:100] Creating Layer seg_relu5_2
I0305 20:34:32.516095  5371 net.cpp:434] seg_relu5_2 <- seg5_2
I0305 20:34:32.516103  5371 net.cpp:395] seg_relu5_2 -> seg5_2 (in-place)
I0305 20:34:32.516322  5371 net.cpp:150] Setting up seg_relu5_2
I0305 20:34:32.516333  5371 net.cpp:157] Top shape: 8 512 38 38 (5914624)
I0305 20:34:32.516351  5371 net.cpp:165] Memory required for data: 1840029888
I0305 20:34:32.516363  5371 layer_factory.hpp:77] Creating layer seg5_3
I0305 20:34:32.516392  5371 net.cpp:100] Creating Layer seg5_3
I0305 20:34:32.516399  5371 net.cpp:434] seg5_3 <- seg5_2
I0305 20:34:32.516412  5371 net.cpp:408] seg5_3 -> seg5_3
I0305 20:34:32.529126  5371 net.cpp:150] Setting up seg5_3
I0305 20:34:32.529153  5371 net.cpp:157] Top shape: 8 512 38 38 (5914624)
I0305 20:34:32.529160  5371 net.cpp:165] Memory required for data: 1863688384
I0305 20:34:32.529171  5371 layer_factory.hpp:77] Creating layer seg_relu5_3
I0305 20:34:32.529186  5371 net.cpp:100] Creating Layer seg_relu5_3
I0305 20:34:32.529198  5371 net.cpp:434] seg_relu5_3 <- seg5_3
I0305 20:34:32.529209  5371 net.cpp:395] seg_relu5_3 -> seg5_3 (in-place)
I0305 20:34:32.529922  5371 net.cpp:150] Setting up seg_relu5_3
I0305 20:34:32.529934  5371 net.cpp:157] Top shape: 8 512 38 38 (5914624)
I0305 20:34:32.529939  5371 net.cpp:165] Memory required for data: 1887346880
I0305 20:34:32.529945  5371 layer_factory.hpp:77] Creating layer seg_pool5
I0305 20:34:32.529959  5371 net.cpp:100] Creating Layer seg_pool5
I0305 20:34:32.529968  5371 net.cpp:434] seg_pool5 <- seg5_3
I0305 20:34:32.529976  5371 net.cpp:408] seg_pool5 -> seg_pool5
I0305 20:34:32.530042  5371 net.cpp:150] Setting up seg_pool5
I0305 20:34:32.530053  5371 net.cpp:157] Top shape: 8 512 38 38 (5914624)
I0305 20:34:32.530062  5371 net.cpp:165] Memory required for data: 1911005376
I0305 20:34:32.530067  5371 layer_factory.hpp:77] Creating layer seg6
I0305 20:34:32.530086  5371 net.cpp:100] Creating Layer seg6
I0305 20:34:32.530095  5371 net.cpp:434] seg6 <- seg_pool5
I0305 20:34:32.530107  5371 net.cpp:408] seg6 -> seg6
I0305 20:34:32.555088  5371 net.cpp:150] Setting up seg6
I0305 20:34:32.555116  5371 net.cpp:157] Top shape: 8 1024 38 38 (11829248)
I0305 20:34:32.555122  5371 net.cpp:165] Memory required for data: 1958322368
I0305 20:34:32.555132  5371 layer_factory.hpp:77] Creating layer seg_relu6
I0305 20:34:32.555143  5371 net.cpp:100] Creating Layer seg_relu6
I0305 20:34:32.555150  5371 net.cpp:434] seg_relu6 <- seg6
I0305 20:34:32.555161  5371 net.cpp:395] seg_relu6 -> seg6 (in-place)
I0305 20:34:32.555383  5371 net.cpp:150] Setting up seg_relu6
I0305 20:34:32.555392  5371 net.cpp:157] Top shape: 8 1024 38 38 (11829248)
I0305 20:34:32.555408  5371 net.cpp:165] Memory required for data: 2005639360
I0305 20:34:32.555414  5371 layer_factory.hpp:77] Creating layer seg_drop6
I0305 20:34:32.555428  5371 net.cpp:100] Creating Layer seg_drop6
I0305 20:34:32.555438  5371 net.cpp:434] seg_drop6 <- seg6
I0305 20:34:32.555447  5371 net.cpp:395] seg_drop6 -> seg6 (in-place)
I0305 20:34:32.555486  5371 net.cpp:150] Setting up seg_drop6
I0305 20:34:32.555493  5371 net.cpp:157] Top shape: 8 1024 38 38 (11829248)
I0305 20:34:32.555497  5371 net.cpp:165] Memory required for data: 2052956352
I0305 20:34:32.555503  5371 layer_factory.hpp:77] Creating layer seg7
I0305 20:34:32.555521  5371 net.cpp:100] Creating Layer seg7
I0305 20:34:32.555536  5371 net.cpp:434] seg7 <- seg6
I0305 20:34:32.555544  5371 net.cpp:408] seg7 -> seg7
I0305 20:34:32.562281  5371 net.cpp:150] Setting up seg7
I0305 20:34:32.562307  5371 net.cpp:157] Top shape: 8 1024 38 38 (11829248)
I0305 20:34:32.562311  5371 net.cpp:165] Memory required for data: 2100273344
I0305 20:34:32.562324  5371 layer_factory.hpp:77] Creating layer seg_relu7
I0305 20:34:32.562360  5371 net.cpp:100] Creating Layer seg_relu7
I0305 20:34:32.562376  5371 net.cpp:434] seg_relu7 <- seg7
I0305 20:34:32.562386  5371 net.cpp:395] seg_relu7 -> seg7 (in-place)
I0305 20:34:32.562579  5371 net.cpp:150] Setting up seg_relu7
I0305 20:34:32.562592  5371 net.cpp:157] Top shape: 8 1024 38 38 (11829248)
I0305 20:34:32.562597  5371 net.cpp:165] Memory required for data: 2147590336
I0305 20:34:32.562600  5371 layer_factory.hpp:77] Creating layer seg7_seg_relu7_0_split
I0305 20:34:32.562610  5371 net.cpp:100] Creating Layer seg7_seg_relu7_0_split
I0305 20:34:32.562615  5371 net.cpp:434] seg7_seg_relu7_0_split <- seg7
I0305 20:34:32.562623  5371 net.cpp:408] seg7_seg_relu7_0_split -> seg7_seg_relu7_0_split_0
I0305 20:34:32.562639  5371 net.cpp:408] seg7_seg_relu7_0_split -> seg7_seg_relu7_0_split_1
I0305 20:34:32.562691  5371 net.cpp:150] Setting up seg7_seg_relu7_0_split
I0305 20:34:32.562700  5371 net.cpp:157] Top shape: 8 1024 38 38 (11829248)
I0305 20:34:32.562706  5371 net.cpp:157] Top shape: 8 1024 38 38 (11829248)
I0305 20:34:32.562711  5371 net.cpp:165] Memory required for data: 2242224320
I0305 20:34:32.562716  5371 layer_factory.hpp:77] Creating layer seg_drop7
I0305 20:34:32.562723  5371 net.cpp:100] Creating Layer seg_drop7
I0305 20:34:32.562731  5371 net.cpp:434] seg_drop7 <- seg7_seg_relu7_0_split_0
I0305 20:34:32.562736  5371 net.cpp:408] seg_drop7 -> seg7d
I0305 20:34:32.562772  5371 net.cpp:150] Setting up seg_drop7
I0305 20:34:32.562779  5371 net.cpp:157] Top shape: 8 1024 38 38 (11829248)
I0305 20:34:32.562784  5371 net.cpp:165] Memory required for data: 2289541312
I0305 20:34:32.562788  5371 layer_factory.hpp:77] Creating layer seg
I0305 20:34:32.562809  5371 net.cpp:100] Creating Layer seg
I0305 20:34:32.562814  5371 net.cpp:434] seg <- seg7d
I0305 20:34:32.562822  5371 net.cpp:408] seg -> seg
I0305 20:34:32.564083  5371 net.cpp:150] Setting up seg
I0305 20:34:32.564110  5371 net.cpp:157] Top shape: 8 21 38 38 (242592)
I0305 20:34:32.564115  5371 net.cpp:165] Memory required for data: 2290511680
I0305 20:34:32.564126  5371 layer_factory.hpp:77] Creating layer seg_seg_0_split
I0305 20:34:32.564134  5371 net.cpp:100] Creating Layer seg_seg_0_split
I0305 20:34:32.564139  5371 net.cpp:434] seg_seg_0_split <- seg
I0305 20:34:32.564149  5371 net.cpp:408] seg_seg_0_split -> seg_seg_0_split_0
I0305 20:34:32.564162  5371 net.cpp:408] seg_seg_0_split -> seg_seg_0_split_1
I0305 20:34:32.564203  5371 net.cpp:150] Setting up seg_seg_0_split
I0305 20:34:32.564209  5371 net.cpp:157] Top shape: 8 21 38 38 (242592)
I0305 20:34:32.564216  5371 net.cpp:157] Top shape: 8 21 38 38 (242592)
I0305 20:34:32.564222  5371 net.cpp:165] Memory required for data: 2292452416
I0305 20:34:32.564229  5371 layer_factory.hpp:77] Creating layer seg_gt
I0305 20:34:32.564242  5371 net.cpp:100] Creating Layer seg_gt
I0305 20:34:32.564250  5371 net.cpp:434] seg_gt <- label_data_1_split_0
I0305 20:34:32.564258  5371 net.cpp:434] seg_gt <- seg_seg_0_split_0
I0305 20:34:32.564267  5371 net.cpp:408] seg_gt -> seg_gt
I0305 20:34:32.564303  5371 net.cpp:150] Setting up seg_gt
I0305 20:34:32.564316  5371 net.cpp:157] Top shape: 8 1 38 38 (11552)
I0305 20:34:32.564321  5371 net.cpp:165] Memory required for data: 2292498624
I0305 20:34:32.564327  5371 layer_factory.hpp:77] Creating layer seg_loss
I0305 20:34:32.564338  5371 net.cpp:100] Creating Layer seg_loss
I0305 20:34:32.564343  5371 net.cpp:434] seg_loss <- seg_seg_0_split_1
I0305 20:34:32.564353  5371 net.cpp:434] seg_loss <- seg_gt
I0305 20:34:32.564362  5371 net.cpp:408] seg_loss -> seg_loss
I0305 20:34:32.564375  5371 layer_factory.hpp:77] Creating layer seg_loss
I0305 20:34:32.565953  5371 net.cpp:150] Setting up seg_loss
I0305 20:34:32.565968  5371 net.cpp:157] Top shape: (1)
I0305 20:34:32.565973  5371 net.cpp:160]     with loss weight 0.1
I0305 20:34:32.565996  5371 net.cpp:165] Memory required for data: 2292498628
I0305 20:34:32.566004  5371 layer_factory.hpp:77] Creating layer seg_to_det_conv
I0305 20:34:32.566025  5371 net.cpp:100] Creating Layer seg_to_det_conv
I0305 20:34:32.566033  5371 net.cpp:434] seg_to_det_conv <- seg7_seg_relu7_0_split_1
I0305 20:34:32.566043  5371 net.cpp:408] seg_to_det_conv -> seg_to_det_conv
I0305 20:34:32.572942  5371 net.cpp:150] Setting up seg_to_det_conv
I0305 20:34:32.572966  5371 net.cpp:157] Top shape: 8 512 38 38 (5914624)
I0305 20:34:32.572970  5371 net.cpp:165] Memory required for data: 2316157124
I0305 20:34:32.572989  5371 layer_factory.hpp:77] Creating layer mult_conv4_3
I0305 20:34:32.573004  5371 net.cpp:100] Creating Layer mult_conv4_3
I0305 20:34:32.573012  5371 net.cpp:434] mult_conv4_3 <- conv4_3_ori_relu4_3_0_split_1
I0305 20:34:32.573021  5371 net.cpp:434] mult_conv4_3 <- seg_to_det_conv
I0305 20:34:32.573035  5371 net.cpp:408] mult_conv4_3 -> conv4_3_t
I0305 20:34:32.573073  5371 net.cpp:150] Setting up mult_conv4_3
I0305 20:34:32.573081  5371 net.cpp:157] Top shape: 8 512 38 38 (5914624)
I0305 20:34:32.573086  5371 net.cpp:165] Memory required for data: 2339815620
I0305 20:34:32.573089  5371 layer_factory.hpp:77] Creating layer conv4_3_t_mult_conv4_3_0_split
I0305 20:34:32.573099  5371 net.cpp:100] Creating Layer conv4_3_t_mult_conv4_3_0_split
I0305 20:34:32.573122  5371 net.cpp:434] conv4_3_t_mult_conv4_3_0_split <- conv4_3_t
I0305 20:34:32.573129  5371 net.cpp:408] conv4_3_t_mult_conv4_3_0_split -> conv4_3_t_mult_conv4_3_0_split_0
I0305 20:34:32.573141  5371 net.cpp:408] conv4_3_t_mult_conv4_3_0_split -> conv4_3_t_mult_conv4_3_0_split_1
I0305 20:34:32.573181  5371 net.cpp:150] Setting up conv4_3_t_mult_conv4_3_0_split
I0305 20:34:32.573190  5371 net.cpp:157] Top shape: 8 512 38 38 (5914624)
I0305 20:34:32.573195  5371 net.cpp:157] Top shape: 8 512 38 38 (5914624)
I0305 20:34:32.573200  5371 net.cpp:165] Memory required for data: 2387132612
I0305 20:34:32.573207  5371 layer_factory.hpp:77] Creating layer conv4_3_s
I0305 20:34:32.573225  5371 net.cpp:100] Creating Layer conv4_3_s
I0305 20:34:32.573248  5371 net.cpp:434] conv4_3_s <- conv4_3_t_mult_conv4_3_0_split_0
I0305 20:34:32.573256  5371 net.cpp:408] conv4_3_s -> conv4_3_s
I0305 20:34:32.573453  5371 net.cpp:150] Setting up conv4_3_s
I0305 20:34:32.573462  5371 net.cpp:157] Top shape: 8 512 1 1 (4096)
I0305 20:34:32.573467  5371 net.cpp:165] Memory required for data: 2387148996
I0305 20:34:32.573472  5371 layer_factory.hpp:77] Creating layer conv4_3_fc1
I0305 20:34:32.573485  5371 net.cpp:100] Creating Layer conv4_3_fc1
I0305 20:34:32.573492  5371 net.cpp:434] conv4_3_fc1 <- conv4_3_s
I0305 20:34:32.573500  5371 net.cpp:408] conv4_3_fc1 -> conv4_3_fc1
I0305 20:34:32.576407  5371 net.cpp:150] Setting up conv4_3_fc1
I0305 20:34:32.576422  5371 net.cpp:157] Top shape: 8 128 1 1 (1024)
I0305 20:34:32.576427  5371 net.cpp:165] Memory required for data: 2387153092
I0305 20:34:32.576436  5371 layer_factory.hpp:77] Creating layer conv4_3_relu
I0305 20:34:32.576447  5371 net.cpp:100] Creating Layer conv4_3_relu
I0305 20:34:32.576452  5371 net.cpp:434] conv4_3_relu <- conv4_3_fc1
I0305 20:34:32.576467  5371 net.cpp:395] conv4_3_relu -> conv4_3_fc1 (in-place)
I0305 20:34:32.576637  5371 net.cpp:150] Setting up conv4_3_relu
I0305 20:34:32.576654  5371 net.cpp:157] Top shape: 8 128 1 1 (1024)
I0305 20:34:32.576660  5371 net.cpp:165] Memory required for data: 2387157188
I0305 20:34:32.576673  5371 layer_factory.hpp:77] Creating layer conv4_3_fc2
I0305 20:34:32.576694  5371 net.cpp:100] Creating Layer conv4_3_fc2
I0305 20:34:32.576700  5371 net.cpp:434] conv4_3_fc2 <- conv4_3_fc1
I0305 20:34:32.576712  5371 net.cpp:408] conv4_3_fc2 -> conv4_3_fc2
I0305 20:34:32.577970  5371 net.cpp:150] Setting up conv4_3_fc2
I0305 20:34:32.577982  5371 net.cpp:157] Top shape: 8 512 1 1 (4096)
I0305 20:34:32.577987  5371 net.cpp:165] Memory required for data: 2387173572
I0305 20:34:32.577996  5371 layer_factory.hpp:77] Creating layer conv4_3_sig
I0305 20:34:32.578009  5371 net.cpp:100] Creating Layer conv4_3_sig
I0305 20:34:32.578022  5371 net.cpp:434] conv4_3_sig <- conv4_3_fc2
I0305 20:34:32.578032  5371 net.cpp:395] conv4_3_sig -> conv4_3_fc2 (in-place)
I0305 20:34:32.578194  5371 net.cpp:150] Setting up conv4_3_sig
I0305 20:34:32.578204  5371 net.cpp:157] Top shape: 8 512 1 1 (4096)
I0305 20:34:32.578207  5371 net.cpp:165] Memory required for data: 2387189956
I0305 20:34:32.578212  5371 layer_factory.hpp:77] Creating layer conv4_3_reshape
I0305 20:34:32.578225  5371 net.cpp:100] Creating Layer conv4_3_reshape
I0305 20:34:32.578234  5371 net.cpp:434] conv4_3_reshape <- conv4_3_fc2
I0305 20:34:32.578243  5371 net.cpp:408] conv4_3_reshape -> conv4_3_reshape
I0305 20:34:32.578279  5371 net.cpp:150] Setting up conv4_3_reshape
I0305 20:34:32.578286  5371 net.cpp:157] Top shape: 8 512 (4096)
I0305 20:34:32.578290  5371 net.cpp:165] Memory required for data: 2387206340
I0305 20:34:32.578295  5371 layer_factory.hpp:77] Creating layer conv4_3_scale
I0305 20:34:32.578308  5371 net.cpp:100] Creating Layer conv4_3_scale
I0305 20:34:32.578316  5371 net.cpp:434] conv4_3_scale <- conv4_3_t_mult_conv4_3_0_split_1
I0305 20:34:32.578322  5371 net.cpp:434] conv4_3_scale <- conv4_3_reshape
I0305 20:34:32.578366  5371 net.cpp:408] conv4_3_scale -> conv4_3
I0305 20:34:32.578440  5371 net.cpp:150] Setting up conv4_3_scale
I0305 20:34:32.578461  5371 net.cpp:157] Top shape: 8 512 38 38 (5914624)
I0305 20:34:32.578466  5371 net.cpp:165] Memory required for data: 2410864836
I0305 20:34:32.578480  5371 layer_factory.hpp:77] Creating layer conv4_3_conv4_3_scale_0_split
I0305 20:34:32.578490  5371 net.cpp:100] Creating Layer conv4_3_conv4_3_scale_0_split
I0305 20:34:32.578505  5371 net.cpp:434] conv4_3_conv4_3_scale_0_split <- conv4_3
I0305 20:34:32.578514  5371 net.cpp:408] conv4_3_conv4_3_scale_0_split -> conv4_3_conv4_3_scale_0_split_0
I0305 20:34:32.578523  5371 net.cpp:408] conv4_3_conv4_3_scale_0_split -> conv4_3_conv4_3_scale_0_split_1
I0305 20:34:32.578563  5371 net.cpp:150] Setting up conv4_3_conv4_3_scale_0_split
I0305 20:34:32.578572  5371 net.cpp:157] Top shape: 8 512 38 38 (5914624)
I0305 20:34:32.578590  5371 net.cpp:157] Top shape: 8 512 38 38 (5914624)
I0305 20:34:32.578594  5371 net.cpp:165] Memory required for data: 2458181828
I0305 20:34:32.578599  5371 layer_factory.hpp:77] Creating layer pool4
I0305 20:34:32.578608  5371 net.cpp:100] Creating Layer pool4
I0305 20:34:32.578620  5371 net.cpp:434] pool4 <- conv4_3_conv4_3_scale_0_split_0
I0305 20:34:32.578629  5371 net.cpp:408] pool4 -> pool4
I0305 20:34:32.578668  5371 net.cpp:150] Setting up pool4
I0305 20:34:32.578677  5371 net.cpp:157] Top shape: 8 512 19 19 (1478656)
I0305 20:34:32.578692  5371 net.cpp:165] Memory required for data: 2464096452
I0305 20:34:32.578697  5371 layer_factory.hpp:77] Creating layer conv5_1
I0305 20:34:32.578713  5371 net.cpp:100] Creating Layer conv5_1
I0305 20:34:32.578721  5371 net.cpp:434] conv5_1 <- pool4
I0305 20:34:32.578729  5371 net.cpp:408] conv5_1 -> conv5_1
I0305 20:34:32.596022  5371 net.cpp:150] Setting up conv5_1
I0305 20:34:32.596046  5371 net.cpp:157] Top shape: 8 512 19 19 (1478656)
I0305 20:34:32.596050  5371 net.cpp:165] Memory required for data: 2470011076
I0305 20:34:32.596062  5371 layer_factory.hpp:77] Creating layer relu5_1
I0305 20:34:32.596074  5371 net.cpp:100] Creating Layer relu5_1
I0305 20:34:32.596082  5371 net.cpp:434] relu5_1 <- conv5_1
I0305 20:34:32.596093  5371 net.cpp:395] relu5_1 -> conv5_1 (in-place)
I0305 20:34:32.596601  5371 net.cpp:150] Setting up relu5_1
I0305 20:34:32.596611  5371 net.cpp:157] Top shape: 8 512 19 19 (1478656)
I0305 20:34:32.596616  5371 net.cpp:165] Memory required for data: 2475925700
I0305 20:34:32.596621  5371 layer_factory.hpp:77] Creating layer conv5_2
I0305 20:34:32.596637  5371 net.cpp:100] Creating Layer conv5_2
I0305 20:34:32.596644  5371 net.cpp:434] conv5_2 <- conv5_1
I0305 20:34:32.596657  5371 net.cpp:408] conv5_2 -> conv5_2
I0305 20:34:32.610486  5371 net.cpp:150] Setting up conv5_2
I0305 20:34:32.610512  5371 net.cpp:157] Top shape: 8 512 19 19 (1478656)
I0305 20:34:32.610517  5371 net.cpp:165] Memory required for data: 2481840324
I0305 20:34:32.610527  5371 layer_factory.hpp:77] Creating layer relu5_2
I0305 20:34:32.610538  5371 net.cpp:100] Creating Layer relu5_2
I0305 20:34:32.610548  5371 net.cpp:434] relu5_2 <- conv5_2
I0305 20:34:32.610558  5371 net.cpp:395] relu5_2 -> conv5_2 (in-place)
I0305 20:34:32.610719  5371 net.cpp:150] Setting up relu5_2
I0305 20:34:32.610728  5371 net.cpp:157] Top shape: 8 512 19 19 (1478656)
I0305 20:34:32.610733  5371 net.cpp:165] Memory required for data: 2487754948
I0305 20:34:32.610738  5371 layer_factory.hpp:77] Creating layer conv5_3
I0305 20:34:32.610754  5371 net.cpp:100] Creating Layer conv5_3
I0305 20:34:32.610759  5371 net.cpp:434] conv5_3 <- conv5_2
I0305 20:34:32.610770  5371 net.cpp:408] conv5_3 -> conv5_3
I0305 20:34:32.623800  5371 net.cpp:150] Setting up conv5_3
I0305 20:34:32.623822  5371 net.cpp:157] Top shape: 8 512 19 19 (1478656)
I0305 20:34:32.623827  5371 net.cpp:165] Memory required for data: 2493669572
I0305 20:34:32.623838  5371 layer_factory.hpp:77] Creating layer relu5_3
I0305 20:34:32.623850  5371 net.cpp:100] Creating Layer relu5_3
I0305 20:34:32.623857  5371 net.cpp:434] relu5_3 <- conv5_3
I0305 20:34:32.623867  5371 net.cpp:395] relu5_3 -> conv5_3 (in-place)
I0305 20:34:32.624025  5371 net.cpp:150] Setting up relu5_3
I0305 20:34:32.624035  5371 net.cpp:157] Top shape: 8 512 19 19 (1478656)
I0305 20:34:32.624038  5371 net.cpp:165] Memory required for data: 2499584196
I0305 20:34:32.624043  5371 layer_factory.hpp:77] Creating layer pool5
I0305 20:34:32.624073  5371 net.cpp:100] Creating Layer pool5
I0305 20:34:32.624079  5371 net.cpp:434] pool5 <- conv5_3
I0305 20:34:32.624088  5371 net.cpp:408] pool5 -> pool5
I0305 20:34:32.624135  5371 net.cpp:150] Setting up pool5
I0305 20:34:32.624146  5371 net.cpp:157] Top shape: 8 512 19 19 (1478656)
I0305 20:34:32.624151  5371 net.cpp:165] Memory required for data: 2505498820
I0305 20:34:32.624162  5371 layer_factory.hpp:77] Creating layer fc6
I0305 20:34:32.624179  5371 net.cpp:100] Creating Layer fc6
I0305 20:34:32.624202  5371 net.cpp:434] fc6 <- pool5
I0305 20:34:32.624212  5371 net.cpp:408] fc6 -> fc6
I0305 20:34:32.648998  5371 net.cpp:150] Setting up fc6
I0305 20:34:32.649027  5371 net.cpp:157] Top shape: 8 1024 19 19 (2957312)
I0305 20:34:32.649032  5371 net.cpp:165] Memory required for data: 2517328068
I0305 20:34:32.649044  5371 layer_factory.hpp:77] Creating layer relu6
I0305 20:34:32.649055  5371 net.cpp:100] Creating Layer relu6
I0305 20:34:32.649062  5371 net.cpp:434] relu6 <- fc6
I0305 20:34:32.649073  5371 net.cpp:395] relu6 -> fc6 (in-place)
I0305 20:34:32.649752  5371 net.cpp:150] Setting up relu6
I0305 20:34:32.649765  5371 net.cpp:157] Top shape: 8 1024 19 19 (2957312)
I0305 20:34:32.649770  5371 net.cpp:165] Memory required for data: 2529157316
I0305 20:34:32.649776  5371 layer_factory.hpp:77] Creating layer fc7
I0305 20:34:32.649796  5371 net.cpp:100] Creating Layer fc7
I0305 20:34:32.649806  5371 net.cpp:434] fc7 <- fc6
I0305 20:34:32.649813  5371 net.cpp:408] fc7 -> fc7_t
I0305 20:34:32.656357  5371 net.cpp:150] Setting up fc7
I0305 20:34:32.656373  5371 net.cpp:157] Top shape: 8 1024 19 19 (2957312)
I0305 20:34:32.656378  5371 net.cpp:165] Memory required for data: 2540986564
I0305 20:34:32.656388  5371 layer_factory.hpp:77] Creating layer relu7
I0305 20:34:32.656397  5371 net.cpp:100] Creating Layer relu7
I0305 20:34:32.656406  5371 net.cpp:434] relu7 <- fc7_t
I0305 20:34:32.656419  5371 net.cpp:395] relu7 -> fc7_t (in-place)
I0305 20:34:32.656576  5371 net.cpp:150] Setting up relu7
I0305 20:34:32.656585  5371 net.cpp:157] Top shape: 8 1024 19 19 (2957312)
I0305 20:34:32.656599  5371 net.cpp:165] Memory required for data: 2552815812
I0305 20:34:32.656603  5371 layer_factory.hpp:77] Creating layer fc7_t_relu7_0_split
I0305 20:34:32.656620  5371 net.cpp:100] Creating Layer fc7_t_relu7_0_split
I0305 20:34:32.656627  5371 net.cpp:434] fc7_t_relu7_0_split <- fc7_t
I0305 20:34:32.656635  5371 net.cpp:408] fc7_t_relu7_0_split -> fc7_t_relu7_0_split_0
I0305 20:34:32.656643  5371 net.cpp:408] fc7_t_relu7_0_split -> fc7_t_relu7_0_split_1
I0305 20:34:32.656688  5371 net.cpp:150] Setting up fc7_t_relu7_0_split
I0305 20:34:32.656697  5371 net.cpp:157] Top shape: 8 1024 19 19 (2957312)
I0305 20:34:32.656702  5371 net.cpp:157] Top shape: 8 1024 19 19 (2957312)
I0305 20:34:32.656705  5371 net.cpp:165] Memory required for data: 2576474308
I0305 20:34:32.656714  5371 layer_factory.hpp:77] Creating layer fc7_s
I0305 20:34:32.656731  5371 net.cpp:100] Creating Layer fc7_s
I0305 20:34:32.656739  5371 net.cpp:434] fc7_s <- fc7_t_relu7_0_split_0
I0305 20:34:32.656750  5371 net.cpp:408] fc7_s -> fc7_s
I0305 20:34:32.656929  5371 net.cpp:150] Setting up fc7_s
I0305 20:34:32.656939  5371 net.cpp:157] Top shape: 8 1024 1 1 (8192)
I0305 20:34:32.656942  5371 net.cpp:165] Memory required for data: 2576507076
I0305 20:34:32.656949  5371 layer_factory.hpp:77] Creating layer fc7_fc1
I0305 20:34:32.656965  5371 net.cpp:100] Creating Layer fc7_fc1
I0305 20:34:32.656972  5371 net.cpp:434] fc7_fc1 <- fc7_s
I0305 20:34:32.656982  5371 net.cpp:408] fc7_fc1 -> fc7_fc1
I0305 20:34:32.659134  5371 net.cpp:150] Setting up fc7_fc1
I0305 20:34:32.659148  5371 net.cpp:157] Top shape: 8 256 1 1 (2048)
I0305 20:34:32.659154  5371 net.cpp:165] Memory required for data: 2576515268
I0305 20:34:32.659162  5371 layer_factory.hpp:77] Creating layer fc7_relu
I0305 20:34:32.659173  5371 net.cpp:100] Creating Layer fc7_relu
I0305 20:34:32.659178  5371 net.cpp:434] fc7_relu <- fc7_fc1
I0305 20:34:32.659189  5371 net.cpp:395] fc7_relu -> fc7_fc1 (in-place)
I0305 20:34:32.659688  5371 net.cpp:150] Setting up fc7_relu
I0305 20:34:32.659703  5371 net.cpp:157] Top shape: 8 256 1 1 (2048)
I0305 20:34:32.659706  5371 net.cpp:165] Memory required for data: 2576523460
I0305 20:34:32.659713  5371 layer_factory.hpp:77] Creating layer fc7_fc2
I0305 20:34:32.659729  5371 net.cpp:100] Creating Layer fc7_fc2
I0305 20:34:32.659734  5371 net.cpp:434] fc7_fc2 <- fc7_fc1
I0305 20:34:32.659744  5371 net.cpp:408] fc7_fc2 -> fc7_fc2
I0305 20:34:32.662708  5371 net.cpp:150] Setting up fc7_fc2
I0305 20:34:32.662745  5371 net.cpp:157] Top shape: 8 1024 1 1 (8192)
I0305 20:34:32.662750  5371 net.cpp:165] Memory required for data: 2576556228
I0305 20:34:32.662760  5371 layer_factory.hpp:77] Creating layer fc7_sig
I0305 20:34:32.662770  5371 net.cpp:100] Creating Layer fc7_sig
I0305 20:34:32.662780  5371 net.cpp:434] fc7_sig <- fc7_fc2
I0305 20:34:32.662788  5371 net.cpp:395] fc7_sig -> fc7_fc2 (in-place)
I0305 20:34:32.662951  5371 net.cpp:150] Setting up fc7_sig
I0305 20:34:32.662961  5371 net.cpp:157] Top shape: 8 1024 1 1 (8192)
I0305 20:34:32.662964  5371 net.cpp:165] Memory required for data: 2576588996
I0305 20:34:32.662976  5371 layer_factory.hpp:77] Creating layer fc7_reshape
I0305 20:34:32.662986  5371 net.cpp:100] Creating Layer fc7_reshape
I0305 20:34:32.662995  5371 net.cpp:434] fc7_reshape <- fc7_fc2
I0305 20:34:32.663003  5371 net.cpp:408] fc7_reshape -> fc7_reshape
I0305 20:34:32.663045  5371 net.cpp:150] Setting up fc7_reshape
I0305 20:34:32.663053  5371 net.cpp:157] Top shape: 8 1024 (8192)
I0305 20:34:32.663058  5371 net.cpp:165] Memory required for data: 2576621764
I0305 20:34:32.663064  5371 layer_factory.hpp:77] Creating layer fc7_scale
I0305 20:34:32.663074  5371 net.cpp:100] Creating Layer fc7_scale
I0305 20:34:32.663084  5371 net.cpp:434] fc7_scale <- fc7_t_relu7_0_split_1
I0305 20:34:32.663095  5371 net.cpp:434] fc7_scale <- fc7_reshape
I0305 20:34:32.663106  5371 net.cpp:408] fc7_scale -> fc7
I0305 20:34:32.663177  5371 net.cpp:150] Setting up fc7_scale
I0305 20:34:32.663187  5371 net.cpp:157] Top shape: 8 1024 19 19 (2957312)
I0305 20:34:32.663192  5371 net.cpp:165] Memory required for data: 2588451012
I0305 20:34:32.663197  5371 layer_factory.hpp:77] Creating layer fc7_fc7_scale_0_split
I0305 20:34:32.663208  5371 net.cpp:100] Creating Layer fc7_fc7_scale_0_split
I0305 20:34:32.663213  5371 net.cpp:434] fc7_fc7_scale_0_split <- fc7
I0305 20:34:32.663224  5371 net.cpp:408] fc7_fc7_scale_0_split -> fc7_fc7_scale_0_split_0
I0305 20:34:32.663239  5371 net.cpp:408] fc7_fc7_scale_0_split -> fc7_fc7_scale_0_split_1
I0305 20:34:32.663249  5371 net.cpp:408] fc7_fc7_scale_0_split -> fc7_fc7_scale_0_split_2
I0305 20:34:32.663259  5371 net.cpp:408] fc7_fc7_scale_0_split -> fc7_fc7_scale_0_split_3
I0305 20:34:32.663321  5371 net.cpp:150] Setting up fc7_fc7_scale_0_split
I0305 20:34:32.663327  5371 net.cpp:157] Top shape: 8 1024 19 19 (2957312)
I0305 20:34:32.663333  5371 net.cpp:157] Top shape: 8 1024 19 19 (2957312)
I0305 20:34:32.663341  5371 net.cpp:157] Top shape: 8 1024 19 19 (2957312)
I0305 20:34:32.663352  5371 net.cpp:157] Top shape: 8 1024 19 19 (2957312)
I0305 20:34:32.663357  5371 net.cpp:165] Memory required for data: 2635768004
I0305 20:34:32.663367  5371 layer_factory.hpp:77] Creating layer conv6_1
I0305 20:34:32.663383  5371 net.cpp:100] Creating Layer conv6_1
I0305 20:34:32.663390  5371 net.cpp:434] conv6_1 <- fc7_fc7_scale_0_split_0
I0305 20:34:32.663398  5371 net.cpp:408] conv6_1 -> conv6_1
I0305 20:34:32.665575  5371 net.cpp:150] Setting up conv6_1
I0305 20:34:32.665590  5371 net.cpp:157] Top shape: 8 256 19 19 (739328)
I0305 20:34:32.665594  5371 net.cpp:165] Memory required for data: 2638725316
I0305 20:34:32.665603  5371 layer_factory.hpp:77] Creating layer conv6_1_relu
I0305 20:34:32.665616  5371 net.cpp:100] Creating Layer conv6_1_relu
I0305 20:34:32.665622  5371 net.cpp:434] conv6_1_relu <- conv6_1
I0305 20:34:32.665632  5371 net.cpp:395] conv6_1_relu -> conv6_1 (in-place)
I0305 20:34:32.665793  5371 net.cpp:150] Setting up conv6_1_relu
I0305 20:34:32.665802  5371 net.cpp:157] Top shape: 8 256 19 19 (739328)
I0305 20:34:32.665807  5371 net.cpp:165] Memory required for data: 2641682628
I0305 20:34:32.665812  5371 layer_factory.hpp:77] Creating layer conv6_2
I0305 20:34:32.665828  5371 net.cpp:100] Creating Layer conv6_2
I0305 20:34:32.665834  5371 net.cpp:434] conv6_2 <- conv6_1
I0305 20:34:32.665843  5371 net.cpp:408] conv6_2 -> conv6_2_t
I0305 20:34:32.673828  5371 net.cpp:150] Setting up conv6_2
I0305 20:34:32.673854  5371 net.cpp:157] Top shape: 8 512 10 10 (409600)
I0305 20:34:32.673887  5371 net.cpp:165] Memory required for data: 2643321028
I0305 20:34:32.673903  5371 layer_factory.hpp:77] Creating layer conv6_2_relu
I0305 20:34:32.673915  5371 net.cpp:100] Creating Layer conv6_2_relu
I0305 20:34:32.673923  5371 net.cpp:434] conv6_2_relu <- conv6_2_t
I0305 20:34:32.673931  5371 net.cpp:395] conv6_2_relu -> conv6_2_t (in-place)
I0305 20:34:32.674116  5371 net.cpp:150] Setting up conv6_2_relu
I0305 20:34:32.674126  5371 net.cpp:157] Top shape: 8 512 10 10 (409600)
I0305 20:34:32.674130  5371 net.cpp:165] Memory required for data: 2644959428
I0305 20:34:32.674135  5371 layer_factory.hpp:77] Creating layer conv6_2_t_conv6_2_relu_0_split
I0305 20:34:32.674145  5371 net.cpp:100] Creating Layer conv6_2_t_conv6_2_relu_0_split
I0305 20:34:32.674154  5371 net.cpp:434] conv6_2_t_conv6_2_relu_0_split <- conv6_2_t
I0305 20:34:32.674163  5371 net.cpp:408] conv6_2_t_conv6_2_relu_0_split -> conv6_2_t_conv6_2_relu_0_split_0
I0305 20:34:32.674178  5371 net.cpp:408] conv6_2_t_conv6_2_relu_0_split -> conv6_2_t_conv6_2_relu_0_split_1
I0305 20:34:32.674232  5371 net.cpp:150] Setting up conv6_2_t_conv6_2_relu_0_split
I0305 20:34:32.674239  5371 net.cpp:157] Top shape: 8 512 10 10 (409600)
I0305 20:34:32.674247  5371 net.cpp:157] Top shape: 8 512 10 10 (409600)
I0305 20:34:32.674255  5371 net.cpp:165] Memory required for data: 2648236228
I0305 20:34:32.674262  5371 layer_factory.hpp:77] Creating layer conv6_2_s
I0305 20:34:32.674273  5371 net.cpp:100] Creating Layer conv6_2_s
I0305 20:34:32.674283  5371 net.cpp:434] conv6_2_s <- conv6_2_t_conv6_2_relu_0_split_0
I0305 20:34:32.674293  5371 net.cpp:408] conv6_2_s -> conv6_2_s
I0305 20:34:32.676558  5371 net.cpp:150] Setting up conv6_2_s
I0305 20:34:32.676571  5371 net.cpp:157] Top shape: 8 512 1 1 (4096)
I0305 20:34:32.676575  5371 net.cpp:165] Memory required for data: 2648252612
I0305 20:34:32.676580  5371 layer_factory.hpp:77] Creating layer conv6_2_fc1
I0305 20:34:32.676595  5371 net.cpp:100] Creating Layer conv6_2_fc1
I0305 20:34:32.676602  5371 net.cpp:434] conv6_2_fc1 <- conv6_2_s
I0305 20:34:32.676612  5371 net.cpp:408] conv6_2_fc1 -> conv6_2_fc1
I0305 20:34:32.677922  5371 net.cpp:150] Setting up conv6_2_fc1
I0305 20:34:32.677934  5371 net.cpp:157] Top shape: 8 128 1 1 (1024)
I0305 20:34:32.677939  5371 net.cpp:165] Memory required for data: 2648256708
I0305 20:34:32.677948  5371 layer_factory.hpp:77] Creating layer conv6_2_relu
I0305 20:34:32.677958  5371 net.cpp:100] Creating Layer conv6_2_relu
I0305 20:34:32.677961  5371 net.cpp:434] conv6_2_relu <- conv6_2_fc1
I0305 20:34:32.677973  5371 net.cpp:395] conv6_2_relu -> conv6_2_fc1 (in-place)
I0305 20:34:32.678139  5371 net.cpp:150] Setting up conv6_2_relu
I0305 20:34:32.678148  5371 net.cpp:157] Top shape: 8 128 1 1 (1024)
I0305 20:34:32.678153  5371 net.cpp:165] Memory required for data: 2648260804
I0305 20:34:32.678158  5371 layer_factory.hpp:77] Creating layer conv6_2_fc2
I0305 20:34:32.678171  5371 net.cpp:100] Creating Layer conv6_2_fc2
I0305 20:34:32.678177  5371 net.cpp:434] conv6_2_fc2 <- conv6_2_fc1
I0305 20:34:32.678186  5371 net.cpp:408] conv6_2_fc2 -> conv6_2_fc2
I0305 20:34:32.679543  5371 net.cpp:150] Setting up conv6_2_fc2
I0305 20:34:32.679558  5371 net.cpp:157] Top shape: 8 512 1 1 (4096)
I0305 20:34:32.679563  5371 net.cpp:165] Memory required for data: 2648277188
I0305 20:34:32.679571  5371 layer_factory.hpp:77] Creating layer conv6_2_sig
I0305 20:34:32.679581  5371 net.cpp:100] Creating Layer conv6_2_sig
I0305 20:34:32.679590  5371 net.cpp:434] conv6_2_sig <- conv6_2_fc2
I0305 20:34:32.679599  5371 net.cpp:395] conv6_2_sig -> conv6_2_fc2 (in-place)
I0305 20:34:32.679764  5371 net.cpp:150] Setting up conv6_2_sig
I0305 20:34:32.679774  5371 net.cpp:157] Top shape: 8 512 1 1 (4096)
I0305 20:34:32.679777  5371 net.cpp:165] Memory required for data: 2648293572
I0305 20:34:32.679783  5371 layer_factory.hpp:77] Creating layer conv6_2_reshape
I0305 20:34:32.679793  5371 net.cpp:100] Creating Layer conv6_2_reshape
I0305 20:34:32.679802  5371 net.cpp:434] conv6_2_reshape <- conv6_2_fc2
I0305 20:34:32.679826  5371 net.cpp:408] conv6_2_reshape -> conv6_2_reshape
I0305 20:34:32.679862  5371 net.cpp:150] Setting up conv6_2_reshape
I0305 20:34:32.679869  5371 net.cpp:157] Top shape: 8 512 (4096)
I0305 20:34:32.679877  5371 net.cpp:165] Memory required for data: 2648309956
I0305 20:34:32.679886  5371 layer_factory.hpp:77] Creating layer conv6_2_scale
I0305 20:34:32.679898  5371 net.cpp:100] Creating Layer conv6_2_scale
I0305 20:34:32.679905  5371 net.cpp:434] conv6_2_scale <- conv6_2_t_conv6_2_relu_0_split_1
I0305 20:34:32.679913  5371 net.cpp:434] conv6_2_scale <- conv6_2_reshape
I0305 20:34:32.679925  5371 net.cpp:408] conv6_2_scale -> conv6_2
I0305 20:34:32.680009  5371 net.cpp:150] Setting up conv6_2_scale
I0305 20:34:32.680017  5371 net.cpp:157] Top shape: 8 512 10 10 (409600)
I0305 20:34:32.680022  5371 net.cpp:165] Memory required for data: 2649948356
I0305 20:34:32.680027  5371 layer_factory.hpp:77] Creating layer conv6_2_conv6_2_scale_0_split
I0305 20:34:32.680037  5371 net.cpp:100] Creating Layer conv6_2_conv6_2_scale_0_split
I0305 20:34:32.680044  5371 net.cpp:434] conv6_2_conv6_2_scale_0_split <- conv6_2
I0305 20:34:32.680052  5371 net.cpp:408] conv6_2_conv6_2_scale_0_split -> conv6_2_conv6_2_scale_0_split_0
I0305 20:34:32.680069  5371 net.cpp:408] conv6_2_conv6_2_scale_0_split -> conv6_2_conv6_2_scale_0_split_1
I0305 20:34:32.680080  5371 net.cpp:408] conv6_2_conv6_2_scale_0_split -> conv6_2_conv6_2_scale_0_split_2
I0305 20:34:32.680090  5371 net.cpp:408] conv6_2_conv6_2_scale_0_split -> conv6_2_conv6_2_scale_0_split_3
I0305 20:34:32.680152  5371 net.cpp:150] Setting up conv6_2_conv6_2_scale_0_split
I0305 20:34:32.680160  5371 net.cpp:157] Top shape: 8 512 10 10 (409600)
I0305 20:34:32.680164  5371 net.cpp:157] Top shape: 8 512 10 10 (409600)
I0305 20:34:32.680169  5371 net.cpp:157] Top shape: 8 512 10 10 (409600)
I0305 20:34:32.680181  5371 net.cpp:157] Top shape: 8 512 10 10 (409600)
I0305 20:34:32.680186  5371 net.cpp:165] Memory required for data: 2656501956
I0305 20:34:32.680196  5371 layer_factory.hpp:77] Creating layer conv7_1
I0305 20:34:32.680222  5371 net.cpp:100] Creating Layer conv7_1
I0305 20:34:32.680230  5371 net.cpp:434] conv7_1 <- conv6_2_conv6_2_scale_0_split_0
I0305 20:34:32.680241  5371 net.cpp:408] conv7_1 -> conv7_1
I0305 20:34:32.681576  5371 net.cpp:150] Setting up conv7_1
I0305 20:34:32.681591  5371 net.cpp:157] Top shape: 8 128 10 10 (102400)
I0305 20:34:32.681596  5371 net.cpp:165] Memory required for data: 2656911556
I0305 20:34:32.681604  5371 layer_factory.hpp:77] Creating layer conv7_1_relu
I0305 20:34:32.681617  5371 net.cpp:100] Creating Layer conv7_1_relu
I0305 20:34:32.681627  5371 net.cpp:434] conv7_1_relu <- conv7_1
I0305 20:34:32.681637  5371 net.cpp:395] conv7_1_relu -> conv7_1 (in-place)
I0305 20:34:32.682401  5371 net.cpp:150] Setting up conv7_1_relu
I0305 20:34:32.682415  5371 net.cpp:157] Top shape: 8 128 10 10 (102400)
I0305 20:34:32.682420  5371 net.cpp:165] Memory required for data: 2657321156
I0305 20:34:32.682431  5371 layer_factory.hpp:77] Creating layer conv7_2
I0305 20:34:32.682447  5371 net.cpp:100] Creating Layer conv7_2
I0305 20:34:32.682456  5371 net.cpp:434] conv7_2 <- conv7_1
I0305 20:34:32.682466  5371 net.cpp:408] conv7_2 -> conv7_2_t
I0305 20:34:32.688277  5371 net.cpp:150] Setting up conv7_2
I0305 20:34:32.688293  5371 net.cpp:157] Top shape: 8 256 5 5 (51200)
I0305 20:34:32.688298  5371 net.cpp:165] Memory required for data: 2657525956
I0305 20:34:32.688315  5371 layer_factory.hpp:77] Creating layer conv7_2_relu
I0305 20:34:32.688326  5371 net.cpp:100] Creating Layer conv7_2_relu
I0305 20:34:32.688335  5371 net.cpp:434] conv7_2_relu <- conv7_2_t
I0305 20:34:32.688346  5371 net.cpp:395] conv7_2_relu -> conv7_2_t (in-place)
I0305 20:34:32.688567  5371 net.cpp:150] Setting up conv7_2_relu
I0305 20:34:32.688581  5371 net.cpp:157] Top shape: 8 256 5 5 (51200)
I0305 20:34:32.688585  5371 net.cpp:165] Memory required for data: 2657730756
I0305 20:34:32.688591  5371 layer_factory.hpp:77] Creating layer conv7_2_t_conv7_2_relu_0_split
I0305 20:34:32.688617  5371 net.cpp:100] Creating Layer conv7_2_t_conv7_2_relu_0_split
I0305 20:34:32.688624  5371 net.cpp:434] conv7_2_t_conv7_2_relu_0_split <- conv7_2_t
I0305 20:34:32.688635  5371 net.cpp:408] conv7_2_t_conv7_2_relu_0_split -> conv7_2_t_conv7_2_relu_0_split_0
I0305 20:34:32.688647  5371 net.cpp:408] conv7_2_t_conv7_2_relu_0_split -> conv7_2_t_conv7_2_relu_0_split_1
I0305 20:34:32.688699  5371 net.cpp:150] Setting up conv7_2_t_conv7_2_relu_0_split
I0305 20:34:32.688726  5371 net.cpp:157] Top shape: 8 256 5 5 (51200)
I0305 20:34:32.688745  5371 net.cpp:157] Top shape: 8 256 5 5 (51200)
I0305 20:34:32.688758  5371 net.cpp:165] Memory required for data: 2658140356
I0305 20:34:32.688791  5371 layer_factory.hpp:77] Creating layer conv7_2_s
I0305 20:34:32.688802  5371 net.cpp:100] Creating Layer conv7_2_s
I0305 20:34:32.688808  5371 net.cpp:434] conv7_2_s <- conv7_2_t_conv7_2_relu_0_split_0
I0305 20:34:32.688817  5371 net.cpp:408] conv7_2_s -> conv7_2_s
I0305 20:34:32.689055  5371 net.cpp:150] Setting up conv7_2_s
I0305 20:34:32.689066  5371 net.cpp:157] Top shape: 8 256 1 1 (2048)
I0305 20:34:32.689070  5371 net.cpp:165] Memory required for data: 2658148548
I0305 20:34:32.689076  5371 layer_factory.hpp:77] Creating layer conv7_2_fc1
I0305 20:34:32.689090  5371 net.cpp:100] Creating Layer conv7_2_fc1
I0305 20:34:32.689100  5371 net.cpp:434] conv7_2_fc1 <- conv7_2_s
I0305 20:34:32.689111  5371 net.cpp:408] conv7_2_fc1 -> conv7_2_fc1
I0305 20:34:32.691889  5371 net.cpp:150] Setting up conv7_2_fc1
I0305 20:34:32.691902  5371 net.cpp:157] Top shape: 8 64 1 1 (512)
I0305 20:34:32.691908  5371 net.cpp:165] Memory required for data: 2658150596
I0305 20:34:32.691928  5371 layer_factory.hpp:77] Creating layer conv7_2_relu
I0305 20:34:32.691946  5371 net.cpp:100] Creating Layer conv7_2_relu
I0305 20:34:32.691975  5371 net.cpp:434] conv7_2_relu <- conv7_2_fc1
I0305 20:34:32.692024  5371 net.cpp:395] conv7_2_relu -> conv7_2_fc1 (in-place)
I0305 20:34:32.695544  5371 net.cpp:150] Setting up conv7_2_relu
I0305 20:34:32.695559  5371 net.cpp:157] Top shape: 8 64 1 1 (512)
I0305 20:34:32.695566  5371 net.cpp:165] Memory required for data: 2658152644
I0305 20:34:32.695572  5371 layer_factory.hpp:77] Creating layer conv7_2_fc2
I0305 20:34:32.695585  5371 net.cpp:100] Creating Layer conv7_2_fc2
I0305 20:34:32.695593  5371 net.cpp:434] conv7_2_fc2 <- conv7_2_fc1
I0305 20:34:32.695601  5371 net.cpp:408] conv7_2_fc2 -> conv7_2_fc2
I0305 20:34:32.698525  5371 net.cpp:150] Setting up conv7_2_fc2
I0305 20:34:32.698540  5371 net.cpp:157] Top shape: 8 256 1 1 (2048)
I0305 20:34:32.698545  5371 net.cpp:165] Memory required for data: 2658160836
I0305 20:34:32.698554  5371 layer_factory.hpp:77] Creating layer conv7_2_sig
I0305 20:34:32.698565  5371 net.cpp:100] Creating Layer conv7_2_sig
I0305 20:34:32.698573  5371 net.cpp:434] conv7_2_sig <- conv7_2_fc2
I0305 20:34:32.698580  5371 net.cpp:395] conv7_2_sig -> conv7_2_fc2 (in-place)
I0305 20:34:32.698807  5371 net.cpp:150] Setting up conv7_2_sig
I0305 20:34:32.698819  5371 net.cpp:157] Top shape: 8 256 1 1 (2048)
I0305 20:34:32.698825  5371 net.cpp:165] Memory required for data: 2658169028
I0305 20:34:32.698832  5371 layer_factory.hpp:77] Creating layer conv7_2_reshape
I0305 20:34:32.698842  5371 net.cpp:100] Creating Layer conv7_2_reshape
I0305 20:34:32.698848  5371 net.cpp:434] conv7_2_reshape <- conv7_2_fc2
I0305 20:34:32.698854  5371 net.cpp:408] conv7_2_reshape -> conv7_2_reshape
I0305 20:34:32.698896  5371 net.cpp:150] Setting up conv7_2_reshape
I0305 20:34:32.698918  5371 net.cpp:157] Top shape: 8 256 (2048)
I0305 20:34:32.698925  5371 net.cpp:165] Memory required for data: 2658177220
I0305 20:34:32.698931  5371 layer_factory.hpp:77] Creating layer conv7_2_scale
I0305 20:34:32.698945  5371 net.cpp:100] Creating Layer conv7_2_scale
I0305 20:34:32.698954  5371 net.cpp:434] conv7_2_scale <- conv7_2_t_conv7_2_relu_0_split_1
I0305 20:34:32.698961  5371 net.cpp:434] conv7_2_scale <- conv7_2_reshape
I0305 20:34:32.698968  5371 net.cpp:408] conv7_2_scale -> conv7_2
I0305 20:34:32.699072  5371 net.cpp:150] Setting up conv7_2_scale
I0305 20:34:32.699103  5371 net.cpp:157] Top shape: 8 256 5 5 (51200)
I0305 20:34:32.699111  5371 net.cpp:165] Memory required for data: 2658382020
I0305 20:34:32.699115  5371 layer_factory.hpp:77] Creating layer conv7_2_conv7_2_scale_0_split
I0305 20:34:32.699123  5371 net.cpp:100] Creating Layer conv7_2_conv7_2_scale_0_split
I0305 20:34:32.699131  5371 net.cpp:434] conv7_2_conv7_2_scale_0_split <- conv7_2
I0305 20:34:32.699141  5371 net.cpp:408] conv7_2_conv7_2_scale_0_split -> conv7_2_conv7_2_scale_0_split_0
I0305 20:34:32.699152  5371 net.cpp:408] conv7_2_conv7_2_scale_0_split -> conv7_2_conv7_2_scale_0_split_1
I0305 20:34:32.699163  5371 net.cpp:408] conv7_2_conv7_2_scale_0_split -> conv7_2_conv7_2_scale_0_split_2
I0305 20:34:32.699172  5371 net.cpp:408] conv7_2_conv7_2_scale_0_split -> conv7_2_conv7_2_scale_0_split_3
I0305 20:34:32.699252  5371 net.cpp:150] Setting up conv7_2_conv7_2_scale_0_split
I0305 20:34:32.699259  5371 net.cpp:157] Top shape: 8 256 5 5 (51200)
I0305 20:34:32.699264  5371 net.cpp:157] Top shape: 8 256 5 5 (51200)
I0305 20:34:32.699268  5371 net.cpp:157] Top shape: 8 256 5 5 (51200)
I0305 20:34:32.699273  5371 net.cpp:157] Top shape: 8 256 5 5 (51200)
I0305 20:34:32.699278  5371 net.cpp:165] Memory required for data: 2659201220
I0305 20:34:32.699285  5371 layer_factory.hpp:77] Creating layer conv8_1
I0305 20:34:32.699292  5371 net.cpp:100] Creating Layer conv8_1
I0305 20:34:32.699299  5371 net.cpp:434] conv8_1 <- conv7_2_conv7_2_scale_0_split_0
I0305 20:34:32.699307  5371 net.cpp:408] conv8_1 -> conv8_1
I0305 20:34:32.703861  5371 net.cpp:150] Setting up conv8_1
I0305 20:34:32.703881  5371 net.cpp:157] Top shape: 8 128 5 5 (25600)
I0305 20:34:32.703888  5371 net.cpp:165] Memory required for data: 2659303620
I0305 20:34:32.703902  5371 layer_factory.hpp:77] Creating layer conv8_1_relu
I0305 20:34:32.703912  5371 net.cpp:100] Creating Layer conv8_1_relu
I0305 20:34:32.703918  5371 net.cpp:434] conv8_1_relu <- conv8_1
I0305 20:34:32.703930  5371 net.cpp:395] conv8_1_relu -> conv8_1 (in-place)
I0305 20:34:32.704143  5371 net.cpp:150] Setting up conv8_1_relu
I0305 20:34:32.704154  5371 net.cpp:157] Top shape: 8 128 5 5 (25600)
I0305 20:34:32.704160  5371 net.cpp:165] Memory required for data: 2659406020
I0305 20:34:32.704166  5371 layer_factory.hpp:77] Creating layer conv8_2
I0305 20:34:32.704186  5371 net.cpp:100] Creating Layer conv8_2
I0305 20:34:32.704195  5371 net.cpp:434] conv8_2 <- conv8_1
I0305 20:34:32.704206  5371 net.cpp:408] conv8_2 -> conv8_2_t
I0305 20:34:32.717969  5371 net.cpp:150] Setting up conv8_2
I0305 20:34:32.717988  5371 net.cpp:157] Top shape: 8 256 3 3 (18432)
I0305 20:34:32.717991  5371 net.cpp:165] Memory required for data: 2659479748
I0305 20:34:32.718000  5371 layer_factory.hpp:77] Creating layer conv8_2_relu
I0305 20:34:32.718010  5371 net.cpp:100] Creating Layer conv8_2_relu
I0305 20:34:32.718015  5371 net.cpp:434] conv8_2_relu <- conv8_2_t
I0305 20:34:32.718025  5371 net.cpp:395] conv8_2_relu -> conv8_2_t (in-place)
I0305 20:34:32.718191  5371 net.cpp:150] Setting up conv8_2_relu
I0305 20:34:32.718206  5371 net.cpp:157] Top shape: 8 256 3 3 (18432)
I0305 20:34:32.718210  5371 net.cpp:165] Memory required for data: 2659553476
I0305 20:34:32.718216  5371 layer_factory.hpp:77] Creating layer conv8_2_t_conv8_2_relu_0_split
I0305 20:34:32.718221  5371 net.cpp:100] Creating Layer conv8_2_t_conv8_2_relu_0_split
I0305 20:34:32.718230  5371 net.cpp:434] conv8_2_t_conv8_2_relu_0_split <- conv8_2_t
I0305 20:34:32.718238  5371 net.cpp:408] conv8_2_t_conv8_2_relu_0_split -> conv8_2_t_conv8_2_relu_0_split_0
I0305 20:34:32.718248  5371 net.cpp:408] conv8_2_t_conv8_2_relu_0_split -> conv8_2_t_conv8_2_relu_0_split_1
I0305 20:34:32.718293  5371 net.cpp:150] Setting up conv8_2_t_conv8_2_relu_0_split
I0305 20:34:32.718302  5371 net.cpp:157] Top shape: 8 256 3 3 (18432)
I0305 20:34:32.718307  5371 net.cpp:157] Top shape: 8 256 3 3 (18432)
I0305 20:34:32.718312  5371 net.cpp:165] Memory required for data: 2659700932
I0305 20:34:32.718315  5371 layer_factory.hpp:77] Creating layer conv8_2_s
I0305 20:34:32.718371  5371 net.cpp:100] Creating Layer conv8_2_s
I0305 20:34:32.718377  5371 net.cpp:434] conv8_2_s <- conv8_2_t_conv8_2_relu_0_split_0
I0305 20:34:32.718385  5371 net.cpp:408] conv8_2_s -> conv8_2_s
I0305 20:34:32.718902  5371 net.cpp:150] Setting up conv8_2_s
I0305 20:34:32.718914  5371 net.cpp:157] Top shape: 8 256 1 1 (2048)
I0305 20:34:32.718917  5371 net.cpp:165] Memory required for data: 2659709124
I0305 20:34:32.718921  5371 layer_factory.hpp:77] Creating layer conv8_2_fc1
I0305 20:34:32.718932  5371 net.cpp:100] Creating Layer conv8_2_fc1
I0305 20:34:32.718940  5371 net.cpp:434] conv8_2_fc1 <- conv8_2_s
I0305 20:34:32.718946  5371 net.cpp:408] conv8_2_fc1 -> conv8_2_fc1
I0305 20:34:32.720077  5371 net.cpp:150] Setting up conv8_2_fc1
I0305 20:34:32.720088  5371 net.cpp:157] Top shape: 8 64 1 1 (512)
I0305 20:34:32.720093  5371 net.cpp:165] Memory required for data: 2659711172
I0305 20:34:32.720101  5371 layer_factory.hpp:77] Creating layer conv8_2_relu
I0305 20:34:32.720109  5371 net.cpp:100] Creating Layer conv8_2_relu
I0305 20:34:32.720115  5371 net.cpp:434] conv8_2_relu <- conv8_2_fc1
I0305 20:34:32.720122  5371 net.cpp:395] conv8_2_relu -> conv8_2_fc1 (in-place)
I0305 20:34:32.720304  5371 net.cpp:150] Setting up conv8_2_relu
I0305 20:34:32.720312  5371 net.cpp:157] Top shape: 8 64 1 1 (512)
I0305 20:34:32.720315  5371 net.cpp:165] Memory required for data: 2659713220
I0305 20:34:32.720320  5371 layer_factory.hpp:77] Creating layer conv8_2_fc2
I0305 20:34:32.720330  5371 net.cpp:100] Creating Layer conv8_2_fc2
I0305 20:34:32.720335  5371 net.cpp:434] conv8_2_fc2 <- conv8_2_fc1
I0305 20:34:32.720343  5371 net.cpp:408] conv8_2_fc2 -> conv8_2_fc2
I0305 20:34:32.721477  5371 net.cpp:150] Setting up conv8_2_fc2
I0305 20:34:32.721488  5371 net.cpp:157] Top shape: 8 256 1 1 (2048)
I0305 20:34:32.721493  5371 net.cpp:165] Memory required for data: 2659721412
I0305 20:34:32.721503  5371 layer_factory.hpp:77] Creating layer conv8_2_sig
I0305 20:34:32.721508  5371 net.cpp:100] Creating Layer conv8_2_sig
I0305 20:34:32.721516  5371 net.cpp:434] conv8_2_sig <- conv8_2_fc2
I0305 20:34:32.721524  5371 net.cpp:395] conv8_2_sig -> conv8_2_fc2 (in-place)
I0305 20:34:32.721684  5371 net.cpp:150] Setting up conv8_2_sig
I0305 20:34:32.721694  5371 net.cpp:157] Top shape: 8 256 1 1 (2048)
I0305 20:34:32.721698  5371 net.cpp:165] Memory required for data: 2659729604
I0305 20:34:32.721701  5371 layer_factory.hpp:77] Creating layer conv8_2_reshape
I0305 20:34:32.721710  5371 net.cpp:100] Creating Layer conv8_2_reshape
I0305 20:34:32.721714  5371 net.cpp:434] conv8_2_reshape <- conv8_2_fc2
I0305 20:34:32.721720  5371 net.cpp:408] conv8_2_reshape -> conv8_2_reshape
I0305 20:34:32.721753  5371 net.cpp:150] Setting up conv8_2_reshape
I0305 20:34:32.721761  5371 net.cpp:157] Top shape: 8 256 (2048)
I0305 20:34:32.721765  5371 net.cpp:165] Memory required for data: 2659737796
I0305 20:34:32.721768  5371 layer_factory.hpp:77] Creating layer conv8_2_scale
I0305 20:34:32.721774  5371 net.cpp:100] Creating Layer conv8_2_scale
I0305 20:34:32.721783  5371 net.cpp:434] conv8_2_scale <- conv8_2_t_conv8_2_relu_0_split_1
I0305 20:34:32.721791  5371 net.cpp:434] conv8_2_scale <- conv8_2_reshape
I0305 20:34:32.721797  5371 net.cpp:408] conv8_2_scale -> conv8_2
I0305 20:34:32.721868  5371 net.cpp:150] Setting up conv8_2_scale
I0305 20:34:32.721874  5371 net.cpp:157] Top shape: 8 256 3 3 (18432)
I0305 20:34:32.721879  5371 net.cpp:165] Memory required for data: 2659811524
I0305 20:34:32.721881  5371 layer_factory.hpp:77] Creating layer conv8_2_conv8_2_scale_0_split
I0305 20:34:32.721889  5371 net.cpp:100] Creating Layer conv8_2_conv8_2_scale_0_split
I0305 20:34:32.721894  5371 net.cpp:434] conv8_2_conv8_2_scale_0_split <- conv8_2
I0305 20:34:32.721904  5371 net.cpp:408] conv8_2_conv8_2_scale_0_split -> conv8_2_conv8_2_scale_0_split_0
I0305 20:34:32.721917  5371 net.cpp:408] conv8_2_conv8_2_scale_0_split -> conv8_2_conv8_2_scale_0_split_1
I0305 20:34:32.721928  5371 net.cpp:408] conv8_2_conv8_2_scale_0_split -> conv8_2_conv8_2_scale_0_split_2
I0305 20:34:32.721948  5371 net.cpp:408] conv8_2_conv8_2_scale_0_split -> conv8_2_conv8_2_scale_0_split_3
I0305 20:34:32.722008  5371 net.cpp:150] Setting up conv8_2_conv8_2_scale_0_split
I0305 20:34:32.722019  5371 net.cpp:157] Top shape: 8 256 3 3 (18432)
I0305 20:34:32.722025  5371 net.cpp:157] Top shape: 8 256 3 3 (18432)
I0305 20:34:32.722033  5371 net.cpp:157] Top shape: 8 256 3 3 (18432)
I0305 20:34:32.722039  5371 net.cpp:157] Top shape: 8 256 3 3 (18432)
I0305 20:34:32.722043  5371 net.cpp:165] Memory required for data: 2660106436
I0305 20:34:32.722048  5371 layer_factory.hpp:77] Creating layer conv9_1
I0305 20:34:32.722059  5371 net.cpp:100] Creating Layer conv9_1
I0305 20:34:32.722070  5371 net.cpp:434] conv9_1 <- conv8_2_conv8_2_scale_0_split_0
I0305 20:34:32.722080  5371 net.cpp:408] conv9_1 -> conv9_1
I0305 20:34:32.723285  5371 net.cpp:150] Setting up conv9_1
I0305 20:34:32.723297  5371 net.cpp:157] Top shape: 8 128 3 3 (9216)
I0305 20:34:32.723301  5371 net.cpp:165] Memory required for data: 2660143300
I0305 20:34:32.723309  5371 layer_factory.hpp:77] Creating layer conv9_1_relu
I0305 20:34:32.723320  5371 net.cpp:100] Creating Layer conv9_1_relu
I0305 20:34:32.723325  5371 net.cpp:434] conv9_1_relu <- conv9_1
I0305 20:34:32.723335  5371 net.cpp:395] conv9_1_relu -> conv9_1 (in-place)
I0305 20:34:32.723848  5371 net.cpp:150] Setting up conv9_1_relu
I0305 20:34:32.723860  5371 net.cpp:157] Top shape: 8 128 3 3 (9216)
I0305 20:34:32.723863  5371 net.cpp:165] Memory required for data: 2660180164
I0305 20:34:32.723870  5371 layer_factory.hpp:77] Creating layer conv9_2
I0305 20:34:32.723883  5371 net.cpp:100] Creating Layer conv9_2
I0305 20:34:32.723889  5371 net.cpp:434] conv9_2 <- conv9_1
I0305 20:34:32.723899  5371 net.cpp:408] conv9_2 -> conv9_2_t
I0305 20:34:32.727797  5371 net.cpp:150] Setting up conv9_2
I0305 20:34:32.727810  5371 net.cpp:157] Top shape: 8 256 1 1 (2048)
I0305 20:34:32.727813  5371 net.cpp:165] Memory required for data: 2660188356
I0305 20:34:32.727821  5371 layer_factory.hpp:77] Creating layer conv9_2_relu
I0305 20:34:32.727831  5371 net.cpp:100] Creating Layer conv9_2_relu
I0305 20:34:32.727838  5371 net.cpp:434] conv9_2_relu <- conv9_2_t
I0305 20:34:32.727843  5371 net.cpp:395] conv9_2_relu -> conv9_2_t (in-place)
I0305 20:34:32.728016  5371 net.cpp:150] Setting up conv9_2_relu
I0305 20:34:32.728026  5371 net.cpp:157] Top shape: 8 256 1 1 (2048)
I0305 20:34:32.728029  5371 net.cpp:165] Memory required for data: 2660196548
I0305 20:34:32.728034  5371 layer_factory.hpp:77] Creating layer conv9_2_t_conv9_2_relu_0_split
I0305 20:34:32.728040  5371 net.cpp:100] Creating Layer conv9_2_t_conv9_2_relu_0_split
I0305 20:34:32.728049  5371 net.cpp:434] conv9_2_t_conv9_2_relu_0_split <- conv9_2_t
I0305 20:34:32.728055  5371 net.cpp:408] conv9_2_t_conv9_2_relu_0_split -> conv9_2_t_conv9_2_relu_0_split_0
I0305 20:34:32.728065  5371 net.cpp:408] conv9_2_t_conv9_2_relu_0_split -> conv9_2_t_conv9_2_relu_0_split_1
I0305 20:34:32.728108  5371 net.cpp:150] Setting up conv9_2_t_conv9_2_relu_0_split
I0305 20:34:32.728117  5371 net.cpp:157] Top shape: 8 256 1 1 (2048)
I0305 20:34:32.728121  5371 net.cpp:157] Top shape: 8 256 1 1 (2048)
I0305 20:34:32.728124  5371 net.cpp:165] Memory required for data: 2660212932
I0305 20:34:32.728129  5371 layer_factory.hpp:77] Creating layer conv9_2_s
I0305 20:34:32.728138  5371 net.cpp:100] Creating Layer conv9_2_s
I0305 20:34:32.728145  5371 net.cpp:434] conv9_2_s <- conv9_2_t_conv9_2_relu_0_split_0
I0305 20:34:32.728152  5371 net.cpp:408] conv9_2_s -> conv9_2_s
I0305 20:34:32.728337  5371 net.cpp:150] Setting up conv9_2_s
I0305 20:34:32.728348  5371 net.cpp:157] Top shape: 8 256 1 1 (2048)
I0305 20:34:32.728351  5371 net.cpp:165] Memory required for data: 2660221124
I0305 20:34:32.728356  5371 layer_factory.hpp:77] Creating layer conv9_2_fc1
I0305 20:34:32.728368  5371 net.cpp:100] Creating Layer conv9_2_fc1
I0305 20:34:32.728374  5371 net.cpp:434] conv9_2_fc1 <- conv9_2_s
I0305 20:34:32.728382  5371 net.cpp:408] conv9_2_fc1 -> conv9_2_fc1
I0305 20:34:32.729514  5371 net.cpp:150] Setting up conv9_2_fc1
I0305 20:34:32.729526  5371 net.cpp:157] Top shape: 8 64 1 1 (512)
I0305 20:34:32.729529  5371 net.cpp:165] Memory required for data: 2660223172
I0305 20:34:32.729539  5371 layer_factory.hpp:77] Creating layer conv9_2_relu
I0305 20:34:32.729544  5371 net.cpp:100] Creating Layer conv9_2_relu
I0305 20:34:32.729552  5371 net.cpp:434] conv9_2_relu <- conv9_2_fc1
I0305 20:34:32.729560  5371 net.cpp:395] conv9_2_relu -> conv9_2_fc1 (in-place)
I0305 20:34:32.730067  5371 net.cpp:150] Setting up conv9_2_relu
I0305 20:34:32.730078  5371 net.cpp:157] Top shape: 8 64 1 1 (512)
I0305 20:34:32.730082  5371 net.cpp:165] Memory required for data: 2660225220
I0305 20:34:32.730090  5371 layer_factory.hpp:77] Creating layer conv9_2_fc2
I0305 20:34:32.730103  5371 net.cpp:100] Creating Layer conv9_2_fc2
I0305 20:34:32.730111  5371 net.cpp:434] conv9_2_fc2 <- conv9_2_fc1
I0305 20:34:32.730118  5371 net.cpp:408] conv9_2_fc2 -> conv9_2_fc2
I0305 20:34:32.731259  5371 net.cpp:150] Setting up conv9_2_fc2
I0305 20:34:32.731271  5371 net.cpp:157] Top shape: 8 256 1 1 (2048)
I0305 20:34:32.731274  5371 net.cpp:165] Memory required for data: 2660233412
I0305 20:34:32.731284  5371 layer_factory.hpp:77] Creating layer conv9_2_sig
I0305 20:34:32.731292  5371 net.cpp:100] Creating Layer conv9_2_sig
I0305 20:34:32.731299  5371 net.cpp:434] conv9_2_sig <- conv9_2_fc2
I0305 20:34:32.731307  5371 net.cpp:395] conv9_2_sig -> conv9_2_fc2 (in-place)
I0305 20:34:32.731472  5371 net.cpp:150] Setting up conv9_2_sig
I0305 20:34:32.731480  5371 net.cpp:157] Top shape: 8 256 1 1 (2048)
I0305 20:34:32.731483  5371 net.cpp:165] Memory required for data: 2660241604
I0305 20:34:32.731487  5371 layer_factory.hpp:77] Creating layer conv9_2_reshape
I0305 20:34:32.731497  5371 net.cpp:100] Creating Layer conv9_2_reshape
I0305 20:34:32.731501  5371 net.cpp:434] conv9_2_reshape <- conv9_2_fc2
I0305 20:34:32.731509  5371 net.cpp:408] conv9_2_reshape -> conv9_2_reshape
I0305 20:34:32.731544  5371 net.cpp:150] Setting up conv9_2_reshape
I0305 20:34:32.731551  5371 net.cpp:157] Top shape: 8 256 (2048)
I0305 20:34:32.731554  5371 net.cpp:165] Memory required for data: 2660249796
I0305 20:34:32.731557  5371 layer_factory.hpp:77] Creating layer conv9_2_scale
I0305 20:34:32.731576  5371 net.cpp:100] Creating Layer conv9_2_scale
I0305 20:34:32.731582  5371 net.cpp:434] conv9_2_scale <- conv9_2_t_conv9_2_relu_0_split_1
I0305 20:34:32.731590  5371 net.cpp:434] conv9_2_scale <- conv9_2_reshape
I0305 20:34:32.731597  5371 net.cpp:408] conv9_2_scale -> conv9_2
I0305 20:34:32.731662  5371 net.cpp:150] Setting up conv9_2_scale
I0305 20:34:32.731669  5371 net.cpp:157] Top shape: 8 256 1 1 (2048)
I0305 20:34:32.731673  5371 net.cpp:165] Memory required for data: 2660257988
I0305 20:34:32.731681  5371 layer_factory.hpp:77] Creating layer conv9_2_conv9_2_scale_0_split
I0305 20:34:32.731693  5371 net.cpp:100] Creating Layer conv9_2_conv9_2_scale_0_split
I0305 20:34:32.731701  5371 net.cpp:434] conv9_2_conv9_2_scale_0_split <- conv9_2
I0305 20:34:32.731709  5371 net.cpp:408] conv9_2_conv9_2_scale_0_split -> conv9_2_conv9_2_scale_0_split_0
I0305 20:34:32.731715  5371 net.cpp:408] conv9_2_conv9_2_scale_0_split -> conv9_2_conv9_2_scale_0_split_1
I0305 20:34:32.731724  5371 net.cpp:408] conv9_2_conv9_2_scale_0_split -> conv9_2_conv9_2_scale_0_split_2
I0305 20:34:32.731772  5371 net.cpp:150] Setting up conv9_2_conv9_2_scale_0_split
I0305 20:34:32.731779  5371 net.cpp:157] Top shape: 8 256 1 1 (2048)
I0305 20:34:32.731782  5371 net.cpp:157] Top shape: 8 256 1 1 (2048)
I0305 20:34:32.731786  5371 net.cpp:157] Top shape: 8 256 1 1 (2048)
I0305 20:34:32.731793  5371 net.cpp:165] Memory required for data: 2660282564
I0305 20:34:32.731799  5371 layer_factory.hpp:77] Creating layer conv4_3_norm
I0305 20:34:32.731811  5371 net.cpp:100] Creating Layer conv4_3_norm
I0305 20:34:32.731823  5371 net.cpp:434] conv4_3_norm <- conv4_3_conv4_3_scale_0_split_1
I0305 20:34:32.731830  5371 net.cpp:408] conv4_3_norm -> conv4_3_norm
I0305 20:34:32.732002  5371 net.cpp:150] Setting up conv4_3_norm
I0305 20:34:32.732009  5371 net.cpp:157] Top shape: 8 512 38 38 (5914624)
I0305 20:34:32.732012  5371 net.cpp:165] Memory required for data: 2683941060
I0305 20:34:32.732018  5371 layer_factory.hpp:77] Creating layer conv4_3_norm_conv4_3_norm_0_split
I0305 20:34:32.732030  5371 net.cpp:100] Creating Layer conv4_3_norm_conv4_3_norm_0_split
I0305 20:34:32.732035  5371 net.cpp:434] conv4_3_norm_conv4_3_norm_0_split <- conv4_3_norm
I0305 20:34:32.732043  5371 net.cpp:408] conv4_3_norm_conv4_3_norm_0_split -> conv4_3_norm_conv4_3_norm_0_split_0
I0305 20:34:32.732050  5371 net.cpp:408] conv4_3_norm_conv4_3_norm_0_split -> conv4_3_norm_conv4_3_norm_0_split_1
I0305 20:34:32.732058  5371 net.cpp:408] conv4_3_norm_conv4_3_norm_0_split -> conv4_3_norm_conv4_3_norm_0_split_2
I0305 20:34:32.732115  5371 net.cpp:150] Setting up conv4_3_norm_conv4_3_norm_0_split
I0305 20:34:32.732125  5371 net.cpp:157] Top shape: 8 512 38 38 (5914624)
I0305 20:34:32.732131  5371 net.cpp:157] Top shape: 8 512 38 38 (5914624)
I0305 20:34:32.732137  5371 net.cpp:157] Top shape: 8 512 38 38 (5914624)
I0305 20:34:32.732141  5371 net.cpp:165] Memory required for data: 2754916548
I0305 20:34:32.732146  5371 layer_factory.hpp:77] Creating layer conv4_3_norm_mbox_loc
I0305 20:34:32.732158  5371 net.cpp:100] Creating Layer conv4_3_norm_mbox_loc
I0305 20:34:32.732167  5371 net.cpp:434] conv4_3_norm_mbox_loc <- conv4_3_norm_conv4_3_norm_0_split_0
I0305 20:34:32.732175  5371 net.cpp:408] conv4_3_norm_mbox_loc -> conv4_3_norm_mbox_loc
I0305 20:34:32.733875  5371 net.cpp:150] Setting up conv4_3_norm_mbox_loc
I0305 20:34:32.733886  5371 net.cpp:157] Top shape: 8 16 38 38 (184832)
I0305 20:34:32.733891  5371 net.cpp:165] Memory required for data: 2755655876
I0305 20:34:32.733897  5371 layer_factory.hpp:77] Creating layer conv4_3_norm_mbox_loc_perm
I0305 20:34:32.733906  5371 net.cpp:100] Creating Layer conv4_3_norm_mbox_loc_perm
I0305 20:34:32.733912  5371 net.cpp:434] conv4_3_norm_mbox_loc_perm <- conv4_3_norm_mbox_loc
I0305 20:34:32.733920  5371 net.cpp:408] conv4_3_norm_mbox_loc_perm -> conv4_3_norm_mbox_loc_perm
I0305 20:34:32.734025  5371 net.cpp:150] Setting up conv4_3_norm_mbox_loc_perm
I0305 20:34:32.734032  5371 net.cpp:157] Top shape: 8 38 38 16 (184832)
I0305 20:34:32.734036  5371 net.cpp:165] Memory required for data: 2756395204
I0305 20:34:32.734043  5371 layer_factory.hpp:77] Creating layer conv4_3_norm_mbox_loc_flat
I0305 20:34:32.734052  5371 net.cpp:100] Creating Layer conv4_3_norm_mbox_loc_flat
I0305 20:34:32.734060  5371 net.cpp:434] conv4_3_norm_mbox_loc_flat <- conv4_3_norm_mbox_loc_perm
I0305 20:34:32.734086  5371 net.cpp:408] conv4_3_norm_mbox_loc_flat -> conv4_3_norm_mbox_loc_flat
I0305 20:34:32.734118  5371 net.cpp:150] Setting up conv4_3_norm_mbox_loc_flat
I0305 20:34:32.734125  5371 net.cpp:157] Top shape: 8 23104 (184832)
I0305 20:34:32.734130  5371 net.cpp:165] Memory required for data: 2757134532
I0305 20:34:32.734133  5371 layer_factory.hpp:77] Creating layer conv4_3_norm_mbox_conf
I0305 20:34:32.734146  5371 net.cpp:100] Creating Layer conv4_3_norm_mbox_conf
I0305 20:34:32.734150  5371 net.cpp:434] conv4_3_norm_mbox_conf <- conv4_3_norm_conv4_3_norm_0_split_1
I0305 20:34:32.734158  5371 net.cpp:408] conv4_3_norm_mbox_conf -> conv4_3_norm_mbox_conf
I0305 20:34:32.741070  5371 net.cpp:150] Setting up conv4_3_norm_mbox_conf
I0305 20:34:32.741091  5371 net.cpp:157] Top shape: 8 84 38 38 (970368)
I0305 20:34:32.741094  5371 net.cpp:165] Memory required for data: 2761016004
I0305 20:34:32.741101  5371 layer_factory.hpp:77] Creating layer conv4_3_norm_mbox_conf_perm
I0305 20:34:32.741109  5371 net.cpp:100] Creating Layer conv4_3_norm_mbox_conf_perm
I0305 20:34:32.741117  5371 net.cpp:434] conv4_3_norm_mbox_conf_perm <- conv4_3_norm_mbox_conf
I0305 20:34:32.741124  5371 net.cpp:408] conv4_3_norm_mbox_conf_perm -> conv4_3_norm_mbox_conf_perm
I0305 20:34:32.741227  5371 net.cpp:150] Setting up conv4_3_norm_mbox_conf_perm
I0305 20:34:32.741236  5371 net.cpp:157] Top shape: 8 38 38 84 (970368)
I0305 20:34:32.741256  5371 net.cpp:165] Memory required for data: 2764897476
I0305 20:34:32.741262  5371 layer_factory.hpp:77] Creating layer conv4_3_norm_mbox_conf_flat
I0305 20:34:32.741268  5371 net.cpp:100] Creating Layer conv4_3_norm_mbox_conf_flat
I0305 20:34:32.741276  5371 net.cpp:434] conv4_3_norm_mbox_conf_flat <- conv4_3_norm_mbox_conf_perm
I0305 20:34:32.741282  5371 net.cpp:408] conv4_3_norm_mbox_conf_flat -> conv4_3_norm_mbox_conf_flat
I0305 20:34:32.741317  5371 net.cpp:150] Setting up conv4_3_norm_mbox_conf_flat
I0305 20:34:32.741323  5371 net.cpp:157] Top shape: 8 121296 (970368)
I0305 20:34:32.741327  5371 net.cpp:165] Memory required for data: 2768778948
I0305 20:34:32.741330  5371 layer_factory.hpp:77] Creating layer conv4_3_norm_mbox_priorbox
I0305 20:34:32.741340  5371 net.cpp:100] Creating Layer conv4_3_norm_mbox_priorbox
I0305 20:34:32.741344  5371 net.cpp:434] conv4_3_norm_mbox_priorbox <- conv4_3_norm_conv4_3_norm_0_split_2
I0305 20:34:32.741353  5371 net.cpp:434] conv4_3_norm_mbox_priorbox <- data_data_0_split_1
I0305 20:34:32.741364  5371 net.cpp:408] conv4_3_norm_mbox_priorbox -> conv4_3_norm_mbox_priorbox
I0305 20:34:32.741399  5371 net.cpp:150] Setting up conv4_3_norm_mbox_priorbox
I0305 20:34:32.741407  5371 net.cpp:157] Top shape: 1 2 23104 (46208)
I0305 20:34:32.741411  5371 net.cpp:165] Memory required for data: 2768963780
I0305 20:34:32.741415  5371 layer_factory.hpp:77] Creating layer fc7_mbox_loc
I0305 20:34:32.741428  5371 net.cpp:100] Creating Layer fc7_mbox_loc
I0305 20:34:32.741434  5371 net.cpp:434] fc7_mbox_loc <- fc7_fc7_scale_0_split_1
I0305 20:34:32.741442  5371 net.cpp:408] fc7_mbox_loc -> fc7_mbox_loc
I0305 20:34:32.743767  5371 net.cpp:150] Setting up fc7_mbox_loc
I0305 20:34:32.743779  5371 net.cpp:157] Top shape: 8 24 19 19 (69312)
I0305 20:34:32.743785  5371 net.cpp:165] Memory required for data: 2769241028
I0305 20:34:32.743791  5371 layer_factory.hpp:77] Creating layer fc7_mbox_loc_perm
I0305 20:34:32.743801  5371 net.cpp:100] Creating Layer fc7_mbox_loc_perm
I0305 20:34:32.743806  5371 net.cpp:434] fc7_mbox_loc_perm <- fc7_mbox_loc
I0305 20:34:32.743815  5371 net.cpp:408] fc7_mbox_loc_perm -> fc7_mbox_loc_perm
I0305 20:34:32.743916  5371 net.cpp:150] Setting up fc7_mbox_loc_perm
I0305 20:34:32.743924  5371 net.cpp:157] Top shape: 8 19 19 24 (69312)
I0305 20:34:32.743927  5371 net.cpp:165] Memory required for data: 2769518276
I0305 20:34:32.743935  5371 layer_factory.hpp:77] Creating layer fc7_mbox_loc_flat
I0305 20:34:32.743942  5371 net.cpp:100] Creating Layer fc7_mbox_loc_flat
I0305 20:34:32.743948  5371 net.cpp:434] fc7_mbox_loc_flat <- fc7_mbox_loc_perm
I0305 20:34:32.743954  5371 net.cpp:408] fc7_mbox_loc_flat -> fc7_mbox_loc_flat
I0305 20:34:32.743988  5371 net.cpp:150] Setting up fc7_mbox_loc_flat
I0305 20:34:32.743996  5371 net.cpp:157] Top shape: 8 8664 (69312)
I0305 20:34:32.744002  5371 net.cpp:165] Memory required for data: 2769795524
I0305 20:34:32.744006  5371 layer_factory.hpp:77] Creating layer fc7_mbox_conf
I0305 20:34:32.744021  5371 net.cpp:100] Creating Layer fc7_mbox_conf
I0305 20:34:32.744031  5371 net.cpp:434] fc7_mbox_conf <- fc7_fc7_scale_0_split_2
I0305 20:34:32.744041  5371 net.cpp:408] fc7_mbox_conf -> fc7_mbox_conf
I0305 20:34:32.751996  5371 net.cpp:150] Setting up fc7_mbox_conf
I0305 20:34:32.752010  5371 net.cpp:157] Top shape: 8 126 19 19 (363888)
I0305 20:34:32.752014  5371 net.cpp:165] Memory required for data: 2771251076
I0305 20:34:32.752022  5371 layer_factory.hpp:77] Creating layer fc7_mbox_conf_perm
I0305 20:34:32.752032  5371 net.cpp:100] Creating Layer fc7_mbox_conf_perm
I0305 20:34:32.752040  5371 net.cpp:434] fc7_mbox_conf_perm <- fc7_mbox_conf
I0305 20:34:32.752049  5371 net.cpp:408] fc7_mbox_conf_perm -> fc7_mbox_conf_perm
I0305 20:34:32.752157  5371 net.cpp:150] Setting up fc7_mbox_conf_perm
I0305 20:34:32.752166  5371 net.cpp:157] Top shape: 8 19 19 126 (363888)
I0305 20:34:32.752168  5371 net.cpp:165] Memory required for data: 2772706628
I0305 20:34:32.752172  5371 layer_factory.hpp:77] Creating layer fc7_mbox_conf_flat
I0305 20:34:32.752193  5371 net.cpp:100] Creating Layer fc7_mbox_conf_flat
I0305 20:34:32.752200  5371 net.cpp:434] fc7_mbox_conf_flat <- fc7_mbox_conf_perm
I0305 20:34:32.752205  5371 net.cpp:408] fc7_mbox_conf_flat -> fc7_mbox_conf_flat
I0305 20:34:32.752238  5371 net.cpp:150] Setting up fc7_mbox_conf_flat
I0305 20:34:32.752246  5371 net.cpp:157] Top shape: 8 45486 (363888)
I0305 20:34:32.752249  5371 net.cpp:165] Memory required for data: 2774162180
I0305 20:34:32.752252  5371 layer_factory.hpp:77] Creating layer fc7_mbox_priorbox
I0305 20:34:32.752261  5371 net.cpp:100] Creating Layer fc7_mbox_priorbox
I0305 20:34:32.752270  5371 net.cpp:434] fc7_mbox_priorbox <- fc7_fc7_scale_0_split_3
I0305 20:34:32.752276  5371 net.cpp:434] fc7_mbox_priorbox <- data_data_0_split_2
I0305 20:34:32.752282  5371 net.cpp:408] fc7_mbox_priorbox -> fc7_mbox_priorbox
I0305 20:34:32.752315  5371 net.cpp:150] Setting up fc7_mbox_priorbox
I0305 20:34:32.752324  5371 net.cpp:157] Top shape: 1 2 8664 (17328)
I0305 20:34:32.752328  5371 net.cpp:165] Memory required for data: 2774231492
I0305 20:34:32.752332  5371 layer_factory.hpp:77] Creating layer conv6_2_mbox_loc
I0305 20:34:32.752342  5371 net.cpp:100] Creating Layer conv6_2_mbox_loc
I0305 20:34:32.752351  5371 net.cpp:434] conv6_2_mbox_loc <- conv6_2_conv6_2_scale_0_split_1
I0305 20:34:32.752359  5371 net.cpp:408] conv6_2_mbox_loc -> conv6_2_mbox_loc
I0305 20:34:32.754243  5371 net.cpp:150] Setting up conv6_2_mbox_loc
I0305 20:34:32.754256  5371 net.cpp:157] Top shape: 8 24 10 10 (19200)
I0305 20:34:32.754263  5371 net.cpp:165] Memory required for data: 2774308292
I0305 20:34:32.754269  5371 layer_factory.hpp:77] Creating layer conv6_2_mbox_loc_perm
I0305 20:34:32.754276  5371 net.cpp:100] Creating Layer conv6_2_mbox_loc_perm
I0305 20:34:32.754281  5371 net.cpp:434] conv6_2_mbox_loc_perm <- conv6_2_mbox_loc
I0305 20:34:32.754292  5371 net.cpp:408] conv6_2_mbox_loc_perm -> conv6_2_mbox_loc_perm
I0305 20:34:32.754415  5371 net.cpp:150] Setting up conv6_2_mbox_loc_perm
I0305 20:34:32.754423  5371 net.cpp:157] Top shape: 8 10 10 24 (19200)
I0305 20:34:32.754426  5371 net.cpp:165] Memory required for data: 2774385092
I0305 20:34:32.754431  5371 layer_factory.hpp:77] Creating layer conv6_2_mbox_loc_flat
I0305 20:34:32.754437  5371 net.cpp:100] Creating Layer conv6_2_mbox_loc_flat
I0305 20:34:32.754446  5371 net.cpp:434] conv6_2_mbox_loc_flat <- conv6_2_mbox_loc_perm
I0305 20:34:32.754454  5371 net.cpp:408] conv6_2_mbox_loc_flat -> conv6_2_mbox_loc_flat
I0305 20:34:32.754484  5371 net.cpp:150] Setting up conv6_2_mbox_loc_flat
I0305 20:34:32.754492  5371 net.cpp:157] Top shape: 8 2400 (19200)
I0305 20:34:32.754494  5371 net.cpp:165] Memory required for data: 2774461892
I0305 20:34:32.754498  5371 layer_factory.hpp:77] Creating layer conv6_2_mbox_conf
I0305 20:34:32.754508  5371 net.cpp:100] Creating Layer conv6_2_mbox_conf
I0305 20:34:32.754513  5371 net.cpp:434] conv6_2_mbox_conf <- conv6_2_conv6_2_scale_0_split_2
I0305 20:34:32.754519  5371 net.cpp:408] conv6_2_mbox_conf -> conv6_2_mbox_conf
I0305 20:34:32.761983  5371 net.cpp:150] Setting up conv6_2_mbox_conf
I0305 20:34:32.761996  5371 net.cpp:157] Top shape: 8 126 10 10 (100800)
I0305 20:34:32.762001  5371 net.cpp:165] Memory required for data: 2774865092
I0305 20:34:32.762006  5371 layer_factory.hpp:77] Creating layer conv6_2_mbox_conf_perm
I0305 20:34:32.762023  5371 net.cpp:100] Creating Layer conv6_2_mbox_conf_perm
I0305 20:34:32.762029  5371 net.cpp:434] conv6_2_mbox_conf_perm <- conv6_2_mbox_conf
I0305 20:34:32.762039  5371 net.cpp:408] conv6_2_mbox_conf_perm -> conv6_2_mbox_conf_perm
I0305 20:34:32.762148  5371 net.cpp:150] Setting up conv6_2_mbox_conf_perm
I0305 20:34:32.762156  5371 net.cpp:157] Top shape: 8 10 10 126 (100800)
I0305 20:34:32.762161  5371 net.cpp:165] Memory required for data: 2775268292
I0305 20:34:32.762163  5371 layer_factory.hpp:77] Creating layer conv6_2_mbox_conf_flat
I0305 20:34:32.762171  5371 net.cpp:100] Creating Layer conv6_2_mbox_conf_flat
I0305 20:34:32.762176  5371 net.cpp:434] conv6_2_mbox_conf_flat <- conv6_2_mbox_conf_perm
I0305 20:34:32.762202  5371 net.cpp:408] conv6_2_mbox_conf_flat -> conv6_2_mbox_conf_flat
I0305 20:34:32.762233  5371 net.cpp:150] Setting up conv6_2_mbox_conf_flat
I0305 20:34:32.762239  5371 net.cpp:157] Top shape: 8 12600 (100800)
I0305 20:34:32.762243  5371 net.cpp:165] Memory required for data: 2775671492
I0305 20:34:32.762246  5371 layer_factory.hpp:77] Creating layer conv6_2_mbox_priorbox
I0305 20:34:32.762254  5371 net.cpp:100] Creating Layer conv6_2_mbox_priorbox
I0305 20:34:32.762262  5371 net.cpp:434] conv6_2_mbox_priorbox <- conv6_2_conv6_2_scale_0_split_3
I0305 20:34:32.762269  5371 net.cpp:434] conv6_2_mbox_priorbox <- data_data_0_split_3
I0305 20:34:32.762279  5371 net.cpp:408] conv6_2_mbox_priorbox -> conv6_2_mbox_priorbox
I0305 20:34:32.762315  5371 net.cpp:150] Setting up conv6_2_mbox_priorbox
I0305 20:34:32.762343  5371 net.cpp:157] Top shape: 1 2 2400 (4800)
I0305 20:34:32.762352  5371 net.cpp:165] Memory required for data: 2775690692
I0305 20:34:32.762362  5371 layer_factory.hpp:77] Creating layer conv7_2_mbox_loc
I0305 20:34:32.762372  5371 net.cpp:100] Creating Layer conv7_2_mbox_loc
I0305 20:34:32.762377  5371 net.cpp:434] conv7_2_mbox_loc <- conv7_2_conv7_2_scale_0_split_1
I0305 20:34:32.762388  5371 net.cpp:408] conv7_2_mbox_loc -> conv7_2_mbox_loc
I0305 20:34:32.764824  5371 net.cpp:150] Setting up conv7_2_mbox_loc
I0305 20:34:32.764837  5371 net.cpp:157] Top shape: 8 24 5 5 (4800)
I0305 20:34:32.764840  5371 net.cpp:165] Memory required for data: 2775709892
I0305 20:34:32.764847  5371 layer_factory.hpp:77] Creating layer conv7_2_mbox_loc_perm
I0305 20:34:32.764868  5371 net.cpp:100] Creating Layer conv7_2_mbox_loc_perm
I0305 20:34:32.764878  5371 net.cpp:434] conv7_2_mbox_loc_perm <- conv7_2_mbox_loc
I0305 20:34:32.764883  5371 net.cpp:408] conv7_2_mbox_loc_perm -> conv7_2_mbox_loc_perm
I0305 20:34:32.764986  5371 net.cpp:150] Setting up conv7_2_mbox_loc_perm
I0305 20:34:32.764994  5371 net.cpp:157] Top shape: 8 5 5 24 (4800)
I0305 20:34:32.764997  5371 net.cpp:165] Memory required for data: 2775729092
I0305 20:34:32.765003  5371 layer_factory.hpp:77] Creating layer conv7_2_mbox_loc_flat
I0305 20:34:32.765010  5371 net.cpp:100] Creating Layer conv7_2_mbox_loc_flat
I0305 20:34:32.765017  5371 net.cpp:434] conv7_2_mbox_loc_flat <- conv7_2_mbox_loc_perm
I0305 20:34:32.765025  5371 net.cpp:408] conv7_2_mbox_loc_flat -> conv7_2_mbox_loc_flat
I0305 20:34:32.765061  5371 net.cpp:150] Setting up conv7_2_mbox_loc_flat
I0305 20:34:32.765067  5371 net.cpp:157] Top shape: 8 600 (4800)
I0305 20:34:32.765071  5371 net.cpp:165] Memory required for data: 2775748292
I0305 20:34:32.765076  5371 layer_factory.hpp:77] Creating layer conv7_2_mbox_conf
I0305 20:34:32.765086  5371 net.cpp:100] Creating Layer conv7_2_mbox_conf
I0305 20:34:32.765094  5371 net.cpp:434] conv7_2_mbox_conf <- conv7_2_conv7_2_scale_0_split_2
I0305 20:34:32.765102  5371 net.cpp:408] conv7_2_mbox_conf -> conv7_2_mbox_conf
I0305 20:34:32.769017  5371 net.cpp:150] Setting up conv7_2_mbox_conf
I0305 20:34:32.769031  5371 net.cpp:157] Top shape: 8 126 5 5 (25200)
I0305 20:34:32.769034  5371 net.cpp:165] Memory required for data: 2775849092
I0305 20:34:32.769042  5371 layer_factory.hpp:77] Creating layer conv7_2_mbox_conf_perm
I0305 20:34:32.769055  5371 net.cpp:100] Creating Layer conv7_2_mbox_conf_perm
I0305 20:34:32.769062  5371 net.cpp:434] conv7_2_mbox_conf_perm <- conv7_2_mbox_conf
I0305 20:34:32.769068  5371 net.cpp:408] conv7_2_mbox_conf_perm -> conv7_2_mbox_conf_perm
I0305 20:34:32.769174  5371 net.cpp:150] Setting up conv7_2_mbox_conf_perm
I0305 20:34:32.769181  5371 net.cpp:157] Top shape: 8 5 5 126 (25200)
I0305 20:34:32.769186  5371 net.cpp:165] Memory required for data: 2775949892
I0305 20:34:32.769191  5371 layer_factory.hpp:77] Creating layer conv7_2_mbox_conf_flat
I0305 20:34:32.769201  5371 net.cpp:100] Creating Layer conv7_2_mbox_conf_flat
I0305 20:34:32.769206  5371 net.cpp:434] conv7_2_mbox_conf_flat <- conv7_2_mbox_conf_perm
I0305 20:34:32.769210  5371 net.cpp:408] conv7_2_mbox_conf_flat -> conv7_2_mbox_conf_flat
I0305 20:34:32.769258  5371 net.cpp:150] Setting up conv7_2_mbox_conf_flat
I0305 20:34:32.769265  5371 net.cpp:157] Top shape: 8 3150 (25200)
I0305 20:34:32.769268  5371 net.cpp:165] Memory required for data: 2776050692
I0305 20:34:32.769273  5371 layer_factory.hpp:77] Creating layer conv7_2_mbox_priorbox
I0305 20:34:32.769280  5371 net.cpp:100] Creating Layer conv7_2_mbox_priorbox
I0305 20:34:32.769287  5371 net.cpp:434] conv7_2_mbox_priorbox <- conv7_2_conv7_2_scale_0_split_3
I0305 20:34:32.769294  5371 net.cpp:434] conv7_2_mbox_priorbox <- data_data_0_split_4
I0305 20:34:32.769300  5371 net.cpp:408] conv7_2_mbox_priorbox -> conv7_2_mbox_priorbox
I0305 20:34:32.769335  5371 net.cpp:150] Setting up conv7_2_mbox_priorbox
I0305 20:34:32.769342  5371 net.cpp:157] Top shape: 1 2 600 (1200)
I0305 20:34:32.769345  5371 net.cpp:165] Memory required for data: 2776055492
I0305 20:34:32.769348  5371 layer_factory.hpp:77] Creating layer conv8_2_mbox_loc
I0305 20:34:32.769359  5371 net.cpp:100] Creating Layer conv8_2_mbox_loc
I0305 20:34:32.769367  5371 net.cpp:434] conv8_2_mbox_loc <- conv8_2_conv8_2_scale_0_split_1
I0305 20:34:32.769373  5371 net.cpp:408] conv8_2_mbox_loc -> conv8_2_mbox_loc
I0305 20:34:32.770967  5371 net.cpp:150] Setting up conv8_2_mbox_loc
I0305 20:34:32.770980  5371 net.cpp:157] Top shape: 8 16 3 3 (1152)
I0305 20:34:32.770984  5371 net.cpp:165] Memory required for data: 2776060100
I0305 20:34:32.770992  5371 layer_factory.hpp:77] Creating layer conv8_2_mbox_loc_perm
I0305 20:34:32.771001  5371 net.cpp:100] Creating Layer conv8_2_mbox_loc_perm
I0305 20:34:32.771008  5371 net.cpp:434] conv8_2_mbox_loc_perm <- conv8_2_mbox_loc
I0305 20:34:32.771015  5371 net.cpp:408] conv8_2_mbox_loc_perm -> conv8_2_mbox_loc_perm
I0305 20:34:32.771136  5371 net.cpp:150] Setting up conv8_2_mbox_loc_perm
I0305 20:34:32.771143  5371 net.cpp:157] Top shape: 8 3 3 16 (1152)
I0305 20:34:32.771147  5371 net.cpp:165] Memory required for data: 2776064708
I0305 20:34:32.771152  5371 layer_factory.hpp:77] Creating layer conv8_2_mbox_loc_flat
I0305 20:34:32.771158  5371 net.cpp:100] Creating Layer conv8_2_mbox_loc_flat
I0305 20:34:32.771162  5371 net.cpp:434] conv8_2_mbox_loc_flat <- conv8_2_mbox_loc_perm
I0305 20:34:32.771178  5371 net.cpp:408] conv8_2_mbox_loc_flat -> conv8_2_mbox_loc_flat
I0305 20:34:32.771204  5371 net.cpp:150] Setting up conv8_2_mbox_loc_flat
I0305 20:34:32.771210  5371 net.cpp:157] Top shape: 8 144 (1152)
I0305 20:34:32.771214  5371 net.cpp:165] Memory required for data: 2776069316
I0305 20:34:32.771219  5371 layer_factory.hpp:77] Creating layer conv8_2_mbox_conf
I0305 20:34:32.771229  5371 net.cpp:100] Creating Layer conv8_2_mbox_conf
I0305 20:34:32.771235  5371 net.cpp:434] conv8_2_mbox_conf <- conv8_2_conv8_2_scale_0_split_2
I0305 20:34:32.771241  5371 net.cpp:408] conv8_2_mbox_conf -> conv8_2_mbox_conf
I0305 20:34:32.773463  5371 net.cpp:150] Setting up conv8_2_mbox_conf
I0305 20:34:32.773475  5371 net.cpp:157] Top shape: 8 84 3 3 (6048)
I0305 20:34:32.773478  5371 net.cpp:165] Memory required for data: 2776093508
I0305 20:34:32.773488  5371 layer_factory.hpp:77] Creating layer conv8_2_mbox_conf_perm
I0305 20:34:32.773499  5371 net.cpp:100] Creating Layer conv8_2_mbox_conf_perm
I0305 20:34:32.773506  5371 net.cpp:434] conv8_2_mbox_conf_perm <- conv8_2_mbox_conf
I0305 20:34:32.773514  5371 net.cpp:408] conv8_2_mbox_conf_perm -> conv8_2_mbox_conf_perm
I0305 20:34:32.773622  5371 net.cpp:150] Setting up conv8_2_mbox_conf_perm
I0305 20:34:32.773628  5371 net.cpp:157] Top shape: 8 3 3 84 (6048)
I0305 20:34:32.773633  5371 net.cpp:165] Memory required for data: 2776117700
I0305 20:34:32.773636  5371 layer_factory.hpp:77] Creating layer conv8_2_mbox_conf_flat
I0305 20:34:32.773643  5371 net.cpp:100] Creating Layer conv8_2_mbox_conf_flat
I0305 20:34:32.773648  5371 net.cpp:434] conv8_2_mbox_conf_flat <- conv8_2_mbox_conf_perm
I0305 20:34:32.773656  5371 net.cpp:408] conv8_2_mbox_conf_flat -> conv8_2_mbox_conf_flat
I0305 20:34:32.773692  5371 net.cpp:150] Setting up conv8_2_mbox_conf_flat
I0305 20:34:32.773699  5371 net.cpp:157] Top shape: 8 756 (6048)
I0305 20:34:32.773713  5371 net.cpp:165] Memory required for data: 2776141892
I0305 20:34:32.773718  5371 layer_factory.hpp:77] Creating layer conv8_2_mbox_priorbox
I0305 20:34:32.773727  5371 net.cpp:100] Creating Layer conv8_2_mbox_priorbox
I0305 20:34:32.773735  5371 net.cpp:434] conv8_2_mbox_priorbox <- conv8_2_conv8_2_scale_0_split_3
I0305 20:34:32.773742  5371 net.cpp:434] conv8_2_mbox_priorbox <- data_data_0_split_5
I0305 20:34:32.773756  5371 net.cpp:408] conv8_2_mbox_priorbox -> conv8_2_mbox_priorbox
I0305 20:34:32.773787  5371 net.cpp:150] Setting up conv8_2_mbox_priorbox
I0305 20:34:32.773794  5371 net.cpp:157] Top shape: 1 2 144 (288)
I0305 20:34:32.773798  5371 net.cpp:165] Memory required for data: 2776143044
I0305 20:34:32.773802  5371 layer_factory.hpp:77] Creating layer conv9_2_mbox_loc
I0305 20:34:32.773813  5371 net.cpp:100] Creating Layer conv9_2_mbox_loc
I0305 20:34:32.773819  5371 net.cpp:434] conv9_2_mbox_loc <- conv9_2_conv9_2_scale_0_split_0
I0305 20:34:32.773830  5371 net.cpp:408] conv9_2_mbox_loc -> conv9_2_mbox_loc
I0305 20:34:32.775132  5371 net.cpp:150] Setting up conv9_2_mbox_loc
I0305 20:34:32.775144  5371 net.cpp:157] Top shape: 8 16 1 1 (128)
I0305 20:34:32.775148  5371 net.cpp:165] Memory required for data: 2776143556
I0305 20:34:32.775156  5371 layer_factory.hpp:77] Creating layer conv9_2_mbox_loc_perm
I0305 20:34:32.775168  5371 net.cpp:100] Creating Layer conv9_2_mbox_loc_perm
I0305 20:34:32.775177  5371 net.cpp:434] conv9_2_mbox_loc_perm <- conv9_2_mbox_loc
I0305 20:34:32.775185  5371 net.cpp:408] conv9_2_mbox_loc_perm -> conv9_2_mbox_loc_perm
I0305 20:34:32.775295  5371 net.cpp:150] Setting up conv9_2_mbox_loc_perm
I0305 20:34:32.775305  5371 net.cpp:157] Top shape: 8 1 1 16 (128)
I0305 20:34:32.775307  5371 net.cpp:165] Memory required for data: 2776144068
I0305 20:34:32.775312  5371 layer_factory.hpp:77] Creating layer conv9_2_mbox_loc_flat
I0305 20:34:32.775319  5371 net.cpp:100] Creating Layer conv9_2_mbox_loc_flat
I0305 20:34:32.775332  5371 net.cpp:434] conv9_2_mbox_loc_flat <- conv9_2_mbox_loc_perm
I0305 20:34:32.775352  5371 net.cpp:408] conv9_2_mbox_loc_flat -> conv9_2_mbox_loc_flat
I0305 20:34:32.775390  5371 net.cpp:150] Setting up conv9_2_mbox_loc_flat
I0305 20:34:32.775399  5371 net.cpp:157] Top shape: 8 16 (128)
I0305 20:34:32.775404  5371 net.cpp:165] Memory required for data: 2776144580
I0305 20:34:32.775409  5371 layer_factory.hpp:77] Creating layer conv9_2_mbox_conf
I0305 20:34:32.775424  5371 net.cpp:100] Creating Layer conv9_2_mbox_conf
I0305 20:34:32.775432  5371 net.cpp:434] conv9_2_mbox_conf <- conv9_2_conv9_2_scale_0_split_1
I0305 20:34:32.775457  5371 net.cpp:408] conv9_2_mbox_conf -> conv9_2_mbox_conf
I0305 20:34:32.777686  5371 net.cpp:150] Setting up conv9_2_mbox_conf
I0305 20:34:32.777714  5371 net.cpp:157] Top shape: 8 84 1 1 (672)
I0305 20:34:32.777719  5371 net.cpp:165] Memory required for data: 2776147268
I0305 20:34:32.777730  5371 layer_factory.hpp:77] Creating layer conv9_2_mbox_conf_perm
I0305 20:34:32.777750  5371 net.cpp:100] Creating Layer conv9_2_mbox_conf_perm
I0305 20:34:32.777761  5371 net.cpp:434] conv9_2_mbox_conf_perm <- conv9_2_mbox_conf
I0305 20:34:32.777773  5371 net.cpp:408] conv9_2_mbox_conf_perm -> conv9_2_mbox_conf_perm
I0305 20:34:32.777890  5371 net.cpp:150] Setting up conv9_2_mbox_conf_perm
I0305 20:34:32.777899  5371 net.cpp:157] Top shape: 8 1 1 84 (672)
I0305 20:34:32.777901  5371 net.cpp:165] Memory required for data: 2776149956
I0305 20:34:32.777915  5371 layer_factory.hpp:77] Creating layer conv9_2_mbox_conf_flat
I0305 20:34:32.777928  5371 net.cpp:100] Creating Layer conv9_2_mbox_conf_flat
I0305 20:34:32.777936  5371 net.cpp:434] conv9_2_mbox_conf_flat <- conv9_2_mbox_conf_perm
I0305 20:34:32.777947  5371 net.cpp:408] conv9_2_mbox_conf_flat -> conv9_2_mbox_conf_flat
I0305 20:34:32.777989  5371 net.cpp:150] Setting up conv9_2_mbox_conf_flat
I0305 20:34:32.777998  5371 net.cpp:157] Top shape: 8 84 (672)
I0305 20:34:32.778002  5371 net.cpp:165] Memory required for data: 2776152644
I0305 20:34:32.778023  5371 layer_factory.hpp:77] Creating layer conv9_2_mbox_priorbox
I0305 20:34:32.778038  5371 net.cpp:100] Creating Layer conv9_2_mbox_priorbox
I0305 20:34:32.778044  5371 net.cpp:434] conv9_2_mbox_priorbox <- conv9_2_conv9_2_scale_0_split_2
I0305 20:34:32.778055  5371 net.cpp:434] conv9_2_mbox_priorbox <- data_data_0_split_6
I0305 20:34:32.778069  5371 net.cpp:408] conv9_2_mbox_priorbox -> conv9_2_mbox_priorbox
I0305 20:34:32.778115  5371 net.cpp:150] Setting up conv9_2_mbox_priorbox
I0305 20:34:32.778126  5371 net.cpp:157] Top shape: 1 2 16 (32)
I0305 20:34:32.778131  5371 net.cpp:165] Memory required for data: 2776152772
I0305 20:34:32.778134  5371 layer_factory.hpp:77] Creating layer mbox_loc
I0305 20:34:32.778148  5371 net.cpp:100] Creating Layer mbox_loc
I0305 20:34:32.778158  5371 net.cpp:434] mbox_loc <- conv4_3_norm_mbox_loc_flat
I0305 20:34:32.778177  5371 net.cpp:434] mbox_loc <- fc7_mbox_loc_flat
I0305 20:34:32.778188  5371 net.cpp:434] mbox_loc <- conv6_2_mbox_loc_flat
I0305 20:34:32.778200  5371 net.cpp:434] mbox_loc <- conv7_2_mbox_loc_flat
I0305 20:34:32.778210  5371 net.cpp:434] mbox_loc <- conv8_2_mbox_loc_flat
I0305 20:34:32.778218  5371 net.cpp:434] mbox_loc <- conv9_2_mbox_loc_flat
I0305 20:34:32.778228  5371 net.cpp:408] mbox_loc -> mbox_loc
I0305 20:34:32.778270  5371 net.cpp:150] Setting up mbox_loc
I0305 20:34:32.778282  5371 net.cpp:157] Top shape: 8 34928 (279424)
I0305 20:34:32.778293  5371 net.cpp:165] Memory required for data: 2777270468
I0305 20:34:32.778301  5371 layer_factory.hpp:77] Creating layer mbox_conf
I0305 20:34:32.778314  5371 net.cpp:100] Creating Layer mbox_conf
I0305 20:34:32.778357  5371 net.cpp:434] mbox_conf <- conv4_3_norm_mbox_conf_flat
I0305 20:34:32.778365  5371 net.cpp:434] mbox_conf <- fc7_mbox_conf_flat
I0305 20:34:32.778374  5371 net.cpp:434] mbox_conf <- conv6_2_mbox_conf_flat
I0305 20:34:32.778383  5371 net.cpp:434] mbox_conf <- conv7_2_mbox_conf_flat
I0305 20:34:32.778398  5371 net.cpp:434] mbox_conf <- conv8_2_mbox_conf_flat
I0305 20:34:32.778419  5371 net.cpp:434] mbox_conf <- conv9_2_mbox_conf_flat
I0305 20:34:32.778429  5371 net.cpp:408] mbox_conf -> mbox_conf
I0305 20:34:32.778465  5371 net.cpp:150] Setting up mbox_conf
I0305 20:34:32.778471  5371 net.cpp:157] Top shape: 8 183372 (1466976)
I0305 20:34:32.778475  5371 net.cpp:165] Memory required for data: 2783138372
I0305 20:34:32.778484  5371 layer_factory.hpp:77] Creating layer mbox_priorbox
I0305 20:34:32.778502  5371 net.cpp:100] Creating Layer mbox_priorbox
I0305 20:34:32.778512  5371 net.cpp:434] mbox_priorbox <- conv4_3_norm_mbox_priorbox
I0305 20:34:32.778525  5371 net.cpp:434] mbox_priorbox <- fc7_mbox_priorbox
I0305 20:34:32.778542  5371 net.cpp:434] mbox_priorbox <- conv6_2_mbox_priorbox
I0305 20:34:32.778551  5371 net.cpp:434] mbox_priorbox <- conv7_2_mbox_priorbox
I0305 20:34:32.778559  5371 net.cpp:434] mbox_priorbox <- conv8_2_mbox_priorbox
I0305 20:34:32.778565  5371 net.cpp:434] mbox_priorbox <- conv9_2_mbox_priorbox
I0305 20:34:32.778574  5371 net.cpp:408] mbox_priorbox -> mbox_priorbox
I0305 20:34:32.778612  5371 net.cpp:150] Setting up mbox_priorbox
I0305 20:34:32.778625  5371 net.cpp:157] Top shape: 1 2 34928 (69856)
I0305 20:34:32.778635  5371 net.cpp:165] Memory required for data: 2783417796
I0305 20:34:32.778638  5371 layer_factory.hpp:77] Creating layer mbox_loss
I0305 20:34:32.778654  5371 net.cpp:100] Creating Layer mbox_loss
I0305 20:34:32.778666  5371 net.cpp:434] mbox_loss <- mbox_loc
I0305 20:34:32.778671  5371 net.cpp:434] mbox_loss <- mbox_conf
I0305 20:34:32.778679  5371 net.cpp:434] mbox_loss <- mbox_priorbox
…
I0305 20:34:32.781915  5371 solver.cpp:196] Creating test net (#0) specified by test_net file: models/VGGNet/VOC0712/DES300x300_12/test12.prototxt
I0305 20:34:32.782722  5371 net.cpp:58] Initializing net from parameters: 
name: "VGG_VOC0712_SSD_300x300_test"
state {
  phase: TEST
}
layer {
  name: "data"
  type: "Data"
  top: "data"
  include {
    phase: TEST
  }
  transform_param {
    mean_value: 104
    mean_value: 117
    mean_value: 123
    resize_param {
      prob: 1
      resize_mode: WARP
      height: 300
      width: 300
      interp_mode: LINEAR
    }
  }
  data_param {
    source: "examples/VOC0712/VOC2012_test_lmdb"
    batch_size: 1
    backend: LMDB
  }
}
layer {
  name: "conv1_1"
  type: "Convolution"
  bottom: "data"
  top: "conv1_1"
  param {
    lr_mult: 1
    decay_mult: 1
  }
  param {
    lr_mult: 2
    decay_mult: 0
  }
  convolution_param {
    num_output: 64
    pad: 1
    kernel_size: 3
    weight_filler {
      type: "xavier"
    }
    bias_filler {
      type: "constant"
      value: 0
    }
  }
}
layer {
  name: "relu1_1"
  type: "ReLU"
  bottom: "conv1_1"
  top: "conv1_1"
}
layer {
  name: "conv1_2"
  type: "Convolution"
  bottom: "conv1_1"
  top: "conv1_2"
  param {
    lr_mult: 1
    decay_mult: 1
  }
  param {
    lr_mult: 2
    decay_mult: 0
  }
  convolution_param {
    num_output: 64
    pad: 1
    kernel_size: 3
    weight_filler {
      type: "xavier"
    }
    bias_filler {
      type: "constant"
      value: 0
    }
  }
}
layer {
  name: "relu1_2"
  type: "ReLU"
  bottom: "conv1_2"
  top: "conv1_2"
}
layer {
  name: "pool1"
  type: "Pooling"
  bottom: "conv1_2"
  top: "pool1"
  pooling_param {
    pool: MAX
    kernel_size: 2
    stride: 2
  }
}
layer {
  name: "conv2_1"
  type: "Convolution"
  bottom: "pool1"
  top: "conv2_1"
  param {
    lr_mult: 1
    decay_mult: 1
  }
  param {
    lr_mult: 2
    decay_mult: 0
  }
  convolution_param {
    num_output: 128
    pad: 1
    kernel_size: 3
    weight_filler {
      type: "xavier"
    }
    bias_filler {
      type: "constant"
      value: 0
    }
  }
}
layer {
  name: "relu2_1"
  type: "ReLU"
  bottom: "conv2_1"
  top: "conv2_1"
}
layer {
  name: "conv2_2"
  type: "Convolution"
  bottom: "conv2_1"
  top: "conv2_2"
  param {
    lr_mult: 1
    decay_mult: 1
  }
  param {
    lr_mult: 2
    decay_mult: 0
  }
  convolution_param {
    num_output: 128
    pad: 1
    kernel_size: 3
    weight_filler {
      type: "xavier"
    }
    bias_filler {
      type: "constant"
      value: 0
    }
  }
}
layer {
  name: "relu2_2"
  type: "ReLU"
  bottom: "conv2_2"
  top: "conv2_2"
}
layer {
  name: "pool2"
  type: "Pooling"
  bottom: "conv2_2"
  top: "pool2"
  pooling_param {
    pool: MAX
    kernel_size: 2
    stride: 2
  }
}
layer {
  name: "conv3_1"
  type: "Convolution"
  bottom: "pool2"
  top: "conv3_1"
  param {
    lr_mult: 1
    decay_mult: 1
  }
  param {
    lr_mult: 2
    decay_mult: 0
  }
  convolution_param {
    num_output: 256
    pad: 1
    kernel_size: 3
    weight_filler {
      type: "xavier"
    }
    bias_filler {
      type: "constant"
      value: 0
    }
  }
}
layer {
  name: "relu3_1"
  type: "ReLU"
  bottom: "conv3_1"
  top: "conv3_1"
}
layer {
  name: "conv3_2"
  type: "Convolution"
  bottom: "conv3_1"
  top: "conv3_2"
  param {
    lr_mult: 1
    decay_mult: 1
  }
  param {
    lr_mult: 2
    decay_mult: 0
  }
  convolution_param {
    num_output: 256
    pad: 1
    kernel_size: 3
    weight_filler {
      type: "xavier"
    }
    bias_filler {
      type: "constant"
      value: 0
    }
  }
}
layer {
  name: "relu3_2"
  type: "ReLU"
  bottom: "conv3_2"
  top: "conv3_2"
}
layer {
  name: "conv3_3"
  type: "Convolution"
  bottom: "conv3_2"
  top: "conv3_3"
  param {
    lr_mult: 1
    decay_mult: 1
  }
  param {
    lr_mult: 2
    decay_mult: 0
  }
  convolution_param {
    num_output: 256
    pad: 1
    kernel_size: 3
    weight_filler {
      type: "xavier"
    }
    bias_filler {
      type: "constant"
      value: 0
    }
  }
}
layer {
  name: "relu3_3"
  type: "ReLU"
  bottom: "conv3_3"
  top: "conv3_3"
}
layer {
  name: "pool3"
  type: "Pooling"
  bottom: "conv3_3"
  top: "pool3"
  pooling_param {
    pool: MAX
    kernel_size: 2
    stride: 2
  }
}
layer {
  name: "conv4_1"
  type: "Convolution"
  bottom: "pool3"
  top: "conv4_1"
  param {
    lr_mult: 1
    decay_mult: 1
  }
  param {
    lr_mult: 2
    decay_mult: 0
  }
  convolution_param {
    num_output: 512
    pad: 1
    kernel_size: 3
    weight_filler {
      type: "xavier"
    }
    bias_filler {
      type: "constant"
      value: 0
    }
  }
}
layer {
  name: "relu4_1"
  type: "ReLU"
  bottom: "conv4_1"
  top: "conv4_1"
}
layer {
  name: "conv4_2"
  type: "Convolution"
  bottom: "conv4_1"
  top: "conv4_2"
  param {
    lr_mult: 1
    decay_mult: 1
  }
  param {
    lr_mult: 2
    decay_mult: 0
  }
  convolution_param {
    num_output: 512
    pad: 1
    kernel_size: 3
    weight_filler {
      type: "xavier"
    }
    bias_filler {
      type: "constant"
      value: 0
    }
  }
}
layer {
  name: "relu4_2"
  type: "ReLU"
  bottom: "conv4_2"
  top: "conv4_2"
}
layer {
  name: "conv4_3"
  type: "Convolution"
  bottom: "conv4_2"
  top: "conv4_3_ori"
  param {
    lr_mult: 1
    decay_mult: 1
  }
  param {
    lr_mult: 2
    decay_mult: 0
  }
  convolution_param {
    num_output: 512
    pad: 1
    kernel_size: 3
    weight_filler {
      type: "xavier"
    }
    bias_filler {
      type: "constant"
      value: 0
    }
  }
}
layer {
  name: "relu4_3"
  type: "ReLU"
  bottom: "conv4_3_ori"
  top: "conv4_3_ori"
}
layer {
  name: "seg_pool4"
  type: "Pooling"
  bottom: "conv4_3_ori"
  top: "seg_pool4"
  pooling_param {
    pool: MAX
    kernel_size: 3
    stride: 1
    pad: 1
  }
}
layer {
  name: "seg5_1"
  type: "Convolution"
  bottom: "seg_pool4"
  top: "seg5_1"
  param {
    lr_mult: 1
    decay_mult: 1
  }
  param {
    lr_mult: 2
    decay_mult: 0
  }
  convolution_param {
    num_output: 512
    pad: 2
    kernel_size: 3
    weight_filler {
      type: "xavier"
    }
    bias_filler {
      type: "constant"
      value: 0
    }
    dilation: 2
  }
}
layer {
  name: "seg_relu5_1"
  type: "ReLU"
  bottom: "seg5_1"
  top: "seg5_1"
}
layer {
  name: "seg5_2"
  type: "Convolution"
  bottom: "seg5_1"
  top: "seg5_2"
  param {
    lr_mult: 1
    decay_mult: 1
  }
  param {
    lr_mult: 2
    decay_mult: 0
  }
  convolution_param {
    num_output: 512
    pad: 2
    kernel_size: 3
    weight_filler {
      type: "xavier"
    }
    bias_filler {
      type: "constant"
      value: 0
    }
    dilation: 2
  }
}
layer {
  name: "seg_relu5_2"
  type: "ReLU"
  bottom: "seg5_2"
  top: "seg5_2"
}
layer {
  name: "seg5_3"
  type: "Convolution"
  bottom: "seg5_2"
  top: "seg5_3"
  param {
    lr_mult: 1
    decay_mult: 1
  }
  param {
    lr_mult: 2
    decay_mult: 0
  }
  convolution_param {
    num_output: 512
    pad: 2
    kernel_size: 3
    weight_filler {
      type: "xavier"
    }
    bias_filler {
      type: "constant"
      value: 0
    }
    dilation: 2
  }
}
layer {
  name: "seg_relu5_3"
  type: "ReLU"
  bottom: "seg5_3"
  top: "seg5_3"
}
layer {
  name: "seg_pool5"
  type: "Pooling"
  bottom: "seg5_3"
  top: "seg_pool5"
  pooling_param {
    pool: MAX
    kernel_size: 3
    stride: 1
    pad: 1
  }
}
layer {
  name: "seg6"
  type: "Convolution"
  bottom: "seg_pool5"
  top: "seg6"
  param {
    lr_mult: 1
    decay_mult: 1
  }
  param {
    lr_mult: 2
    decay_mult: 0
  }
  convolution_param {
    num_output: 1024
    pad: 4
    kernel_size: 3
    weight_filler {
      type: "xavier"
    }
    bias_filler {
      type: "constant"
      value: 0
    }
    dilation: 4
  }
}
layer {
  name: "seg_relu6"
  type: "ReLU"
  bottom: "seg6"
  top: "seg6"
}
layer {
  name: "seg_drop6"
  type: "Dropout"
  bottom: "seg6"
  top: "seg6"
  dropout_param {
    dropout_ratio: 0.5
  }
}
layer {
  name: "seg7"
  type: "Convolution"
  bottom: "seg6"
  top: "seg7"
  param {
    lr_mult: 1
    decay_mult: 1
  }
  param {
    lr_mult: 2
    decay_mult: 0
  }
  convolution_param {
    num_output: 1024
    kernel_size: 1
    weight_filler {
      type: "xavier"
    }
    bias_filler {
      type: "constant"
      value: 0
    }
  }
}
layer {
  name: "seg_relu7"
  type: "ReLU"
  bottom: "seg7"
  top: "seg7"
}
layer {
  name: "seg_to_det_conv"
  type: "Convolution"
  bottom: "seg7"
  top: "seg_to_det_conv"
  param {
    lr_mult: 1
    decay_mult: 1
  }
  param {
    lr_mult: 2
    decay_mult: 0
  }
  propagate_down: false
  convolution_param {
    num_output: 512
    pad: 0
    kernel_size: 1
    stride: 1
    weight_filler {
      type: "xavier"
    }
    bias_filler {
      type: "constant"
      value: 0
    }
  }
}
layer {
  name: "mult_conv4_3"
  type: "Eltwise"
  bottom: "conv4_3_ori"
  bottom: "seg_to_det_conv"
  top: "conv4_3_t"
  eltwise_param {
    operation: PROD
  }
}
layer {
  name: "conv4_3_s"
  type: "Pooling"
  bottom: "conv4_3_t"
  top: "conv4_3_s"
  pooling_param {
    pool: AVE
    global_pooling: true
  }
}
layer {
  name: "conv4_3_fc1"
  type: "Convolution"
  bottom: "conv4_3_s"
  top: "conv4_3_fc1"
  param {
    lr_mult: 1
    decay_mult: 1
  }
  param {
    lr_mult: 2
    decay_mult: 0
  }
  convolution_param {
    num_output: 128
    kernel_size: 1
    stride: 1
    weight_filler {
      type: "xavier"
    }
    bias_filler {
      type: "constant"
      value: 0
    }
  }
}
layer {
  name: "conv4_3_relu"
  type: "ReLU"
  bottom: "conv4_3_fc1"
  top: "conv4_3_fc1"
}
layer {
  name: "conv4_3_fc2"
  type: "Convolution"
  bottom: "conv4_3_fc1"
  top: "conv4_3_fc2"
  param {
    lr_mult: 1
    decay_mult: 1
  }
  param {
    lr_mult: 2
    decay_mult: 0
  }
  convolution_param {
    num_output: 512
    kernel_size: 1
    stride: 1
    weight_filler {
      type: "xavier"
    }
    bias_filler {
      type: "constant"
      value: 0
    }
  }
}
layer {
  name: "conv4_3_sig"
  type: "Sigmoid"
  bottom: "conv4_3_fc2"
  top: "conv4_3_fc2"
}
layer {
  name: "conv4_3_reshape"
  type: "Reshape"
  bottom: "conv4_3_fc2"
  top: "conv4_3_reshape"
  reshape_param {
    shape {
      dim: 0
      dim: 0
    }
  }
}
layer {
  name: "conv4_3_scale"
  type: "Scale"
  bottom: "conv4_3_t"
  bottom: "conv4_3_reshape"
  top: "conv4_3"
  scale_param {
    axis: 0
    bias_term: false
  }
}
layer {
  name: "pool4"
  type: "Pooling"
  bottom: "conv4_3"
  top: "pool4"
  pooling_param {
    pool: MAX
    kernel_size: 2
    stride: 2
  }
}
layer {
  name: "conv5_1"
  type: "Convolution"
  bottom: "pool4"
  top: "conv5_1"
  param {
    lr_mult: 1
    decay_mult: 1
  }
  param {
    lr_mult: 2
    decay_mult: 0
  }
  convolution_param {
    num_output: 512
    pad: 1
    kernel_size: 3
    weight_filler {
      type: "xavier"
    }
    bias_filler {
      type: "constant"
      value: 0
    }
    dilation: 1
  }
}
layer {
  name: "relu5_1"
  type: "ReLU"
  bottom: "conv5_1"
  top: "conv5_1"
}
layer {
  name: "conv5_2"
  type: "Convolution"
  bottom: "conv5_1"
  top: "conv5_2"
  param {
    lr_mult: 1
    decay_mult: 1
  }
  param {
    lr_mult: 2
    decay_mult: 0
  }
  convolution_param {
    num_output: 512
    pad: 1
    kernel_size: 3
    weight_filler {
      type: "xavier"
    }
    bias_filler {
      type: "constant"
      value: 0
    }
    dilation: 1
  }
}
layer {
  name: "relu5_2"
  type: "ReLU"
  bottom: "conv5_2"
  top: "conv5_2"
}
layer {
  name: "conv5_3"
  type: "Convolution"
  bottom: "conv5_2"
  top: "conv5_3"
  param {
    lr_mult: 1
    decay_mult: 1
  }
  param {
    lr_mult: 2
    decay_mult: 0
  }
  convolution_param {
    num_output: 512
    pad: 1
    kernel_size: 3
    weight_filler {
      type: "xavier"
    }
    bias_filler {
      type: "constant"
      value: 0
    }
    dilation: 1
  }
}
layer {
  name: "relu5_3"
  type: "ReLU"
  bottom: "conv5_3"
  top: "conv5_3"
}
layer {
  name: "pool5"
  type: "Pooling"
  bottom: "conv5_3"
  top: "pool5"
  pooling_param {
    pool: MAX
    kernel_size: 3
    stride: 1
    pad: 1
  }
}
layer {
  name: "fc6"
  type: "Convolution"
  bottom: "pool5"
  top: "fc6"
  param {
    lr_mult: 1
    decay_mult: 1
  }
  param {
    lr_mult: 2
    decay_mult: 0
  }
  convolution_param {
    num_output: 1024
    pad: 6
    kernel_size: 3
    weight_filler {
      type: "xavier"
    }
    bias_filler {
      type: "constant"
      value: 0
    }
    dilation: 6
  }
}
layer {
  name: "relu6"
  type: "ReLU"
  bottom: "fc6"
  top: "fc6"
}
layer {
  name: "fc7"
  type: "Convolution"
  bottom: "fc6"
  top: "fc7_t"
  param {
    lr_mult: 1
    decay_mult: 1
  }
  param {
    lr_mult: 2
    decay_mult: 0
  }
  convolution_param {
    num_output: 1024
    kernel_size: 1
    weight_filler {
      type: "xavier"
    }
    bias_filler {
      type: "constant"
      value: 0
    }
  }
}
layer {
  name: "relu7"
  type: "ReLU"
  bottom: "fc7_t"
  top: "fc7_t"
}
layer {
  name: "fc7_s"
  type: "Pooling"
  bottom: "fc7_t"
  top: "fc7_s"
  pooling_param {
    pool: AVE
    global_pooling: true
  }
}
layer {
  name: "fc7_fc1"
  type: "Convolution"
  bottom: "fc7_s"
  top: "fc7_fc1"
  param {
    lr_mult: 1
    decay_mult: 1
  }
  param {
    lr_mult: 2
    decay_mult: 0
  }
  convolution_param {
    num_output: 256
    kernel_size: 1
    stride: 1
    weight_filler {
      type: "xavier"
    }
    bias_filler {
      type: "constant"
      value: 0
    }
  }
}
layer {
  name: "fc7_relu"
  type: "ReLU"
  bottom: "fc7_fc1"
  top: "fc7_fc1"
}
layer {
  name: "fc7_fc2"
  type: "Convolution"
  bottom: "fc7_fc1"
  top: "fc7_fc2"
  param {
    lr_mult: 1
    decay_mult: 1
  }
  param {
    lr_mult: 2
    decay_mult: 0
  }
  convolution_param {
    num_output: 1024
    kernel_size: 1
    stride: 1
    weight_filler {
      type: "xavier"
    }
    bias_filler {
      type: "constant"
      value: 0
    }
  }
}
layer {
  name: "fc7_sig"
  type: "Sigmoid"
  bottom: "fc7_fc2"
  top: "fc7_fc2"
}
layer {
  name: "fc7_reshape"
  type: "Reshape"
  bottom: "fc7_fc2"
  top: "fc7_reshape"
  reshape_param {
    shape {
      dim: 0
      dim: 0
    }
  }
}
layer {
  name: "fc7_scale"
  type: "Scale"
  bottom: "fc7_t"
  bottom: "fc7_reshape"
  top: "fc7"
  scale_param {
    axis: 0
    bias_term: false
  }
}
layer {
  name: "conv6_1"
  type: "Convolution"
  bottom: "fc7"
  top: "conv6_1"
  param {
    lr_mult: 1
    decay_mult: 1
  }
  param {
    lr_mult: 2
    decay_mult: 0
  }
  convolution_param {
    num_output: 256
    pad: 0
    kernel_size: 1
    stride: 1
    weight_filler {
      type: "xavier"
    }
    bias_filler {
      type: "constant"
      value: 0
    }
  }
}
layer {
  name: "conv6_1_relu"
  type: "ReLU"
  bottom: "conv6_1"
  top: "conv6_1"
}
layer {
  name: "conv6_2"
  type: "Convolution"
  bottom: "conv6_1"
  top: "conv6_2_t"
  param {
    lr_mult: 1
    decay_mult: 1
  }
  param {
    lr_mult: 2
    decay_mult: 0
  }
  convolution_param {
    num_output: 512
    pad: 1
    kernel_size: 3
    stride: 2
    weight_filler {
      type: "xavier"
    }
    bias_filler {
      type: "constant"
      value: 0
    }
  }
}
layer {
  name: "conv6_2_relu"
  type: "ReLU"
  bottom: "conv6_2_t"
  top: "conv6_2_t"
}
layer {
  name: "conv6_2_s"
  type: "Pooling"
  bottom: "conv6_2_t"
  top: "conv6_2_s"
  pooling_param {
    pool: AVE
    global_pooling: true
  }
}
layer {
  name: "conv6_2_fc1"
  type: "Convolution"
  bottom: "conv6_2_s"
  top: "conv6_2_fc1"
  param {
    lr_mult: 1
    decay_mult: 1
  }
  param {
    lr_mult: 2
    decay_mult: 0
  }
  convolution_param {
    num_output: 128
    kernel_size: 1
    stride: 1
    weight_filler {
      type: "xavier"
    }
    bias_filler {
      type: "constant"
      value: 0
    }
  }
}
layer {
  name: "conv6_2_relu"
  type: "ReLU"
  bottom: "conv6_2_fc1"
  top: "conv6_2_fc1"
}
layer {
  name: "conv6_2_fc2"
  type: "Convolution"
  bottom: "conv6_2_fc1"
  top: "conv6_2_fc2"
  param {
    lr_mult: 1
    decay_mult: 1
  }
  param {
    lr_mult: 2
    decay_mult: 0
  }
  convolution_param {
    num_output: 512
    kernel_size: 1
    stride: 1
    weight_filler {
      type: "xavier"
    }
    bias_filler {
      type: "constant"
      value: 0
    }
  }
}
layer {
  name: "conv6_2_sig"
  type: "Sigmoid"
  bottom: "conv6_2_fc2"
  top: "conv6_2_fc2"
}
layer {
  name: "conv6_2_reshape"
  type: "Reshape"
  bottom: "conv6_2_fc2"
  top: "conv6_2_reshape"
  reshape_param {
    shape {
      dim: 0
      dim: 0
    }
  }
}
layer {
  name: "conv6_2_scale"
  type: "Scale"
  bottom: "conv6_2_t"
  bottom: "conv6_2_reshape"
  top: "conv6_2"
  scale_param {
    axis: 0
    bias_term: false
  }
}
layer {
  name: "conv7_1"
  type: "Convolution"
  bottom: "conv6_2"
  top: "conv7_1"
  param {
    lr_mult: 1
    decay_mult: 1
  }
  param {
    lr_mult: 2
    decay_mult: 0
  }
  convolution_param {
    num_output: 128
    pad: 0
    kernel_size: 1
    stride: 1
    weight_filler {
      type: "xavier"
    }
    bias_filler {
      type: "constant"
      value: 0
    }
  }
}
layer {
  name: "conv7_1_relu"
  type: "ReLU"
  bottom: "conv7_1"
  top: "conv7_1"
}
layer {
  name: "conv7_2"
  type: "Convolution"
  bottom: "conv7_1"
  top: "conv7_2_t"
  param {
    lr_mult: 1
    decay_mult: 1
  }
  param {
    lr_mult: 2
    decay_mult: 0
  }
  convolution_param {
    num_output: 256
    pad: 1
    kernel_size: 3
    stride: 2
    weight_filler {
      type: "xavier"
    }
    bias_filler {
      type: "constant"
      value: 0
    }
  }
}
layer {
  name: "conv7_2_relu"
  type: "ReLU"
  bottom: "conv7_2_t"
  top: "conv7_2_t"
}
layer {
  name: "conv7_2_s"
  type: "Pooling"
  bottom: "conv7_2_t"
  top: "conv7_2_s"
  pooling_param {
    pool: AVE
    global_pooling: true
  }
}
layer {
  name: "conv7_2_fc1"
  type: "Convolution"
  bottom: "conv7_2_s"
  top: "conv7_2_fc1"
  param {
    lr_mult: 1
    decay_mult: 1
  }
  param {
    lr_mult: 2
    decay_mult: 0
  }
  convolution_param {
    num_output: 64
    kernel_size: 1
    stride: 1
    weight_filler {
      type: "xavier"
    }
    bias_filler {
      type: "constant"
      value: 0
    }
  }
}
layer {
  name: "conv7_2_relu"
  type: "ReLU"
  bottom: "conv7_2_fc1"
  top: "conv7_2_fc1"
}
layer {
  name: "conv7_2_fc2"
  type: "Convolution"
  bottom: "conv7_2_fc1"
  top: "conv7_2_fc2"
  param {
    lr_mult: 1
    decay_mult: 1
  }
  param {
    lr_mult: 2
    decay_mult: 0
  }
  convolution_param {
    num_output: 256
    kernel_size: 1
    stride: 1
    weight_filler {
      type: "xavier"
    }
    bias_filler {
      type: "constant"
      value: 0
    }
  }
}
layer {
  name: "conv7_2_sig"
  type: "Sigmoid"
  bottom: "conv7_2_fc2"
  top: "conv7_2_fc2"
}
layer {
  name: "conv7_2_reshape"
  type: "Reshape"
  bottom: "conv7_2_fc2"
  top: "conv7_2_reshape"
  reshape_param {
    shape {
      dim: 0
      dim: 0
    }
  }
}
layer {
  name: "conv7_2_scale"
  type: "Scale"
  bottom: "conv7_2_t"
  bottom: "conv7_2_reshape"
  top: "conv7_2"
  scale_param {
    axis: 0
    bias_term: false
  }
}
layer {
  name: "conv8_1"
  type: "Convolution"
  bottom: "conv7_2"
  top: "conv8_1"
  param {
    lr_mult: 1
    decay_mult: 1
  }
  param {
    lr_mult: 2
    decay_mult: 0
  }
  convolution_param {
    num_output: 128
    pad: 0
    kernel_size: 1
    stride: 1
    weight_filler {
      type: "xavier"
    }
    bias_filler {
      type: "constant"
      value: 0
    }
  }
}
layer {
  name: "conv8_1_relu"
  type: "ReLU"
  bottom: "conv8_1"
  top: "conv8_1"
}
layer {
  name: "conv8_2"
  type: "Convolution"
  bottom: "conv8_1"
  top: "conv8_2_t"
  param {
    lr_mult: 1
    decay_mult: 1
  }
  param {
    lr_mult: 2
    decay_mult: 0
  }
  convolution_param {
    num_output: 256
    pad: 0
    kernel_size: 3
    stride: 1
    weight_filler {
      type: "xavier"
    }
    bias_filler {
      type: "constant"
      value: 0
    }
  }
}
layer {
  name: "conv8_2_relu"
  type: "ReLU"
  bottom: "conv8_2_t"
  top: "conv8_2_t"
}
layer {
  name: "conv8_2_s"
  type: "Pooling"
  bottom: "conv8_2_t"
  top: "conv8_2_s"
  pooling_param {
    pool: AVE
    global_pooling: true
  }
}
layer {
  name: "conv8_2_fc1"
  type: "Convolution"
  bottom: "conv8_2_s"
  top: "conv8_2_fc1"
  param {
    lr_mult: 1
    decay_mult: 1
  }
  param {
    lr_mult: 2
    decay_mult: 0
  }
  convolution_param {
    num_output: 64
    kernel_size: 1
    stride: 1
    weight_filler {
      type: "xavier"
    }
    bias_filler {
      type: "constant"
      value: 0
    }
  }
}
layer {
  name: "conv8_2_relu"
  type: "ReLU"
  bottom: "conv8_2_fc1"
  top: "conv8_2_fc1"
}
layer {
  name: "conv8_2_fc2"
  type: "Convolution"
  bottom: "conv8_2_fc1"
  top: "conv8_2_fc2"
  param {
    lr_mult: 1
    decay_mult: 1
  }
  param {
    lr_mult: 2
    decay_mult: 0
  }
  convolution_param {
    num_output: 256
    kernel_size: 1
    stride: 1
    weight_filler {
      type: "xavier"
    }
    bias_filler {
      type: "constant"
      value: 0
    }
  }
}
layer {
  name: "conv8_2_sig"
  type: "Sigmoid"
  bottom: "conv8_2_fc2"
  top: "conv8_2_fc2"
}
layer {
  name: "conv8_2_reshape"
  type: "Reshape"
  bottom: "conv8_2_fc2"
  top: "conv8_2_reshape"
  reshape_param {
    shape {
      dim: 0
      dim: 0
    }
  }
}
layer {
  name: "conv8_2_scale"
  type: "Scale"
  bottom: "conv8_2_t"
  bottom: "conv8_2_reshape"
  top: "conv8_2"
  scale_param {
    axis: 0
    bias_term: false
  }
}
layer {
  name: "conv9_1"
  type: "Convolution"
  bottom: "conv8_2"
  top: "conv9_1"
  param {
    lr_mult: 1
    decay_mult: 1
  }
  param {
    lr_mult: 2
    decay_mult: 0
  }
  convolution_param {
    num_output: 128
    pad: 0
    kernel_size: 1
    stride: 1
    weight_filler {
      type: "xavier"
    }
    bias_filler {
      type: "constant"
      value: 0
    }
  }
}
layer {
  name: "conv9_1_relu"
  type: "ReLU"
  bottom: "conv9_1"
  top: "conv9_1"
}
layer {
  name: "conv9_2"
  type: "Convolution"
  bottom: "conv9_1"
  top: "conv9_2_t"
  param {
    lr_mult: 1
    decay_mult: 1
  }
  param {
    lr_mult: 2
    decay_mult: 0
  }
  convolution_param {
    num_output: 256
    pad: 0
    kernel_size: 3
    stride: 1
    weight_filler {
      type: "xavier"
    }
    bias_filler {
      type: "constant"
      value: 0
    }
  }
}
layer {
  name: "conv9_2_relu"
  type: "ReLU"
  bottom: "conv9_2_t"
  top: "conv9_2_t"
}
layer {
  name: "conv9_2_s"
  type: "Pooling"
  bottom: "conv9_2_t"
  top: "conv9_2_s"
  pooling_param {
    pool: AVE
    global_pooling: true
  }
}
layer {
  name: "conv9_2_fc1"
  type: "Convolution"
  bottom: "conv9_2_s"
  top: "conv9_2_fc1"
  param {
    lr_mult: 1
    decay_mult: 1
  }
  param {
    lr_mult: 2
    decay_mult: 0
  }
…
I0305 20:34:33.041926  5371 net.cpp:100] Creating Layer conv7_2_s
I0305 20:34:33.041930  5371 net.cpp:434] conv7_2_s <- conv7_2_t_conv7_2_relu_0_split_0
I0305 20:34:33.041936  5371 net.cpp:408] conv7_2_s -> conv7_2_s
I0305 20:34:33.042516  5371 net.cpp:150] Setting up conv7_2_s
I0305 20:34:33.042529  5371 net.cpp:157] Top shape: 1 256 1 1 (256)
I0305 20:34:33.042532  5371 net.cpp:165] Memory required for data: 314155008
I0305 20:34:33.042536  5371 layer_factory.hpp:77] Creating layer conv7_2_fc1
I0305 20:34:33.042546  5371 net.cpp:100] Creating Layer conv7_2_fc1
I0305 20:34:33.042551  5371 net.cpp:434] conv7_2_fc1 <- conv7_2_s
I0305 20:34:33.042559  5371 net.cpp:408] conv7_2_fc1 -> conv7_2_fc1
I0305 20:34:33.043853  5371 net.cpp:150] Setting up conv7_2_fc1
I0305 20:34:33.043864  5371 net.cpp:157] Top shape: 1 64 1 1 (64)
I0305 20:34:33.043869  5371 net.cpp:165] Memory required for data: 314155264
I0305 20:34:33.043874  5371 layer_factory.hpp:77] Creating layer conv7_2_relu
I0305 20:34:33.043881  5371 net.cpp:100] Creating Layer conv7_2_relu
I0305 20:34:33.043886  5371 net.cpp:434] conv7_2_relu <- conv7_2_fc1
I0305 20:34:33.043893  5371 net.cpp:395] conv7_2_relu -> conv7_2_fc1 (in-place)
I0305 20:34:33.048072  5371 net.cpp:150] Setting up conv7_2_relu
I0305 20:34:33.048084  5371 net.cpp:157] Top shape: 1 64 1 1 (64)
I0305 20:34:33.048087  5371 net.cpp:165] Memory required for data: 314155520
I0305 20:34:33.048092  5371 layer_factory.hpp:77] Creating layer conv7_2_fc2
I0305 20:34:33.048105  5371 net.cpp:100] Creating Layer conv7_2_fc2
I0305 20:34:33.048110  5371 net.cpp:434] conv7_2_fc2 <- conv7_2_fc1
I0305 20:34:33.048130  5371 net.cpp:408] conv7_2_fc2 -> conv7_2_fc2
I0305 20:34:33.049450  5371 net.cpp:150] Setting up conv7_2_fc2
I0305 20:34:33.049464  5371 net.cpp:157] Top shape: 1 256 1 1 (256)
I0305 20:34:33.049471  5371 net.cpp:165] Memory required for data: 314156544
I0305 20:34:33.049495  5371 layer_factory.hpp:77] Creating layer conv7_2_sig
I0305 20:34:33.049512  5371 net.cpp:100] Creating Layer conv7_2_sig
I0305 20:34:33.049520  5371 net.cpp:434] conv7_2_sig <- conv7_2_fc2
I0305 20:34:33.049532  5371 net.cpp:395] conv7_2_sig -> conv7_2_fc2 (in-place)
I0305 20:34:33.049762  5371 net.cpp:150] Setting up conv7_2_sig
I0305 20:34:33.049773  5371 net.cpp:157] Top shape: 1 256 1 1 (256)
I0305 20:34:33.049782  5371 net.cpp:165] Memory required for data: 314157568
I0305 20:34:33.049793  5371 layer_factory.hpp:77] Creating layer conv7_2_reshape
I0305 20:34:33.049804  5371 net.cpp:100] Creating Layer conv7_2_reshape
I0305 20:34:33.049818  5371 net.cpp:434] conv7_2_reshape <- conv7_2_fc2
I0305 20:34:33.049830  5371 net.cpp:408] conv7_2_reshape -> conv7_2_reshape
I0305 20:34:33.049875  5371 net.cpp:150] Setting up conv7_2_reshape
I0305 20:34:33.049885  5371 net.cpp:157] Top shape: 1 256 (256)
I0305 20:34:33.049890  5371 net.cpp:165] Memory required for data: 314158592
I0305 20:34:33.049895  5371 layer_factory.hpp:77] Creating layer conv7_2_scale
I0305 20:34:33.049912  5371 net.cpp:100] Creating Layer conv7_2_scale
I0305 20:34:33.049932  5371 net.cpp:434] conv7_2_scale <- conv7_2_t_conv7_2_relu_0_split_1
I0305 20:34:33.049957  5371 net.cpp:434] conv7_2_scale <- conv7_2_reshape
I0305 20:34:33.050014  5371 net.cpp:408] conv7_2_scale -> conv7_2
I0305 20:34:33.050142  5371 net.cpp:150] Setting up conv7_2_scale
I0305 20:34:33.050155  5371 net.cpp:157] Top shape: 1 256 5 5 (6400)
I0305 20:34:33.050160  5371 net.cpp:165] Memory required for data: 314184192
I0305 20:34:33.050168  5371 layer_factory.hpp:77] Creating layer conv7_2_conv7_2_scale_0_split
I0305 20:34:33.050180  5371 net.cpp:100] Creating Layer conv7_2_conv7_2_scale_0_split
I0305 20:34:33.050186  5371 net.cpp:434] conv7_2_conv7_2_scale_0_split <- conv7_2
I0305 20:34:33.050197  5371 net.cpp:408] conv7_2_conv7_2_scale_0_split -> conv7_2_conv7_2_scale_0_split_0
I0305 20:34:33.050225  5371 net.cpp:408] conv7_2_conv7_2_scale_0_split -> conv7_2_conv7_2_scale_0_split_1
I0305 20:34:33.050236  5371 net.cpp:408] conv7_2_conv7_2_scale_0_split -> conv7_2_conv7_2_scale_0_split_2
I0305 20:34:33.050245  5371 net.cpp:408] conv7_2_conv7_2_scale_0_split -> conv7_2_conv7_2_scale_0_split_3
I0305 20:34:33.050385  5371 net.cpp:150] Setting up conv7_2_conv7_2_scale_0_split
I0305 20:34:33.050398  5371 net.cpp:157] Top shape: 1 256 5 5 (6400)
I0305 20:34:33.050412  5371 net.cpp:157] Top shape: 1 256 5 5 (6400)
I0305 20:34:33.050423  5371 net.cpp:157] Top shape: 1 256 5 5 (6400)
I0305 20:34:33.050436  5371 net.cpp:157] Top shape: 1 256 5 5 (6400)
I0305 20:34:33.050442  5371 net.cpp:165] Memory required for data: 314286592
I0305 20:34:33.050451  5371 layer_factory.hpp:77] Creating layer conv8_1
I0305 20:34:33.050467  5371 net.cpp:100] Creating Layer conv8_1
I0305 20:34:33.050477  5371 net.cpp:434] conv8_1 <- conv7_2_conv7_2_scale_0_split_0
I0305 20:34:33.050487  5371 net.cpp:408] conv8_1 -> conv8_1
I0305 20:34:33.070864  5371 net.cpp:150] Setting up conv8_1
I0305 20:34:33.070876  5371 net.cpp:157] Top shape: 1 128 5 5 (3200)
I0305 20:34:33.070880  5371 net.cpp:165] Memory required for data: 314299392
I0305 20:34:33.070888  5371 layer_factory.hpp:77] Creating layer conv8_1_relu
I0305 20:34:33.070894  5371 net.cpp:100] Creating Layer conv8_1_relu
I0305 20:34:33.070899  5371 net.cpp:434] conv8_1_relu <- conv8_1
I0305 20:34:33.070906  5371 net.cpp:395] conv8_1_relu -> conv8_1 (in-place)
I0305 20:34:33.071079  5371 net.cpp:150] Setting up conv8_1_relu
I0305 20:34:33.071091  5371 net.cpp:157] Top shape: 1 128 5 5 (3200)
I0305 20:34:33.071095  5371 net.cpp:165] Memory required for data: 314312192
I0305 20:34:33.071099  5371 layer_factory.hpp:77] Creating layer conv8_2
I0305 20:34:33.071108  5371 net.cpp:100] Creating Layer conv8_2
I0305 20:34:33.071128  5371 net.cpp:434] conv8_2 <- conv8_1
I0305 20:34:33.071138  5371 net.cpp:408] conv8_2 -> conv8_2_t
I0305 20:34:33.089829  5371 net.cpp:150] Setting up conv8_2
I0305 20:34:33.089840  5371 net.cpp:157] Top shape: 1 256 3 3 (2304)
I0305 20:34:33.089843  5371 net.cpp:165] Memory required for data: 314321408
I0305 20:34:33.089849  5371 layer_factory.hpp:77] Creating layer conv8_2_relu
I0305 20:34:33.089859  5371 net.cpp:100] Creating Layer conv8_2_relu
I0305 20:34:33.089862  5371 net.cpp:434] conv8_2_relu <- conv8_2_t
I0305 20:34:33.089871  5371 net.cpp:395] conv8_2_relu -> conv8_2_t (in-place)
I0305 20:34:33.092555  5371 net.cpp:150] Setting up conv8_2_relu
I0305 20:34:33.092567  5371 net.cpp:157] Top shape: 1 256 3 3 (2304)
I0305 20:34:33.092571  5371 net.cpp:165] Memory required for data: 314330624
I0305 20:34:33.092574  5371 layer_factory.hpp:77] Creating layer conv8_2_t_conv8_2_relu_0_split
I0305 20:34:33.092582  5371 net.cpp:100] Creating Layer conv8_2_t_conv8_2_relu_0_split
I0305 20:34:33.092588  5371 net.cpp:434] conv8_2_t_conv8_2_relu_0_split <- conv8_2_t
I0305 20:34:33.092600  5371 net.cpp:408] conv8_2_t_conv8_2_relu_0_split -> conv8_2_t_conv8_2_relu_0_split_0
I0305 20:34:33.092612  5371 net.cpp:408] conv8_2_t_conv8_2_relu_0_split -> conv8_2_t_conv8_2_relu_0_split_1
I0305 20:34:33.092671  5371 net.cpp:150] Setting up conv8_2_t_conv8_2_relu_0_split
I0305 20:34:33.092679  5371 net.cpp:157] Top shape: 1 256 3 3 (2304)
I0305 20:34:33.092684  5371 net.cpp:157] Top shape: 1 256 3 3 (2304)
I0305 20:34:33.092690  5371 net.cpp:165] Memory required for data: 314349056
I0305 20:34:33.092694  5371 layer_factory.hpp:77] Creating layer conv8_2_s
I0305 20:34:33.092705  5371 net.cpp:100] Creating Layer conv8_2_s
I0305 20:34:33.092712  5371 net.cpp:434] conv8_2_s <- conv8_2_t_conv8_2_relu_0_split_0
I0305 20:34:33.092722  5371 net.cpp:408] conv8_2_s -> conv8_2_s
I0305 20:34:33.092926  5371 net.cpp:150] Setting up conv8_2_s
I0305 20:34:33.092936  5371 net.cpp:157] Top shape: 1 256 1 1 (256)
I0305 20:34:33.092938  5371 net.cpp:165] Memory required for data: 314350080
I0305 20:34:33.092942  5371 layer_factory.hpp:77] Creating layer conv8_2_fc1
I0305 20:34:33.092953  5371 net.cpp:100] Creating Layer conv8_2_fc1
I0305 20:34:33.092962  5371 net.cpp:434] conv8_2_fc1 <- conv8_2_s
I0305 20:34:33.092968  5371 net.cpp:408] conv8_2_fc1 -> conv8_2_fc1
I0305 20:34:33.094638  5371 net.cpp:150] Setting up conv8_2_fc1
I0305 20:34:33.094658  5371 net.cpp:157] Top shape: 1 64 1 1 (64)
I0305 20:34:33.094662  5371 net.cpp:165] Memory required for data: 314350336
I0305 20:34:33.094671  5371 layer_factory.hpp:77] Creating layer conv8_2_relu
I0305 20:34:33.094682  5371 net.cpp:100] Creating Layer conv8_2_relu
I0305 20:34:33.094687  5371 net.cpp:434] conv8_2_relu <- conv8_2_fc1
I0305 20:34:33.094693  5371 net.cpp:395] conv8_2_relu -> conv8_2_fc1 (in-place)
I0305 20:34:33.094863  5371 net.cpp:150] Setting up conv8_2_relu
I0305 20:34:33.094875  5371 net.cpp:157] Top shape: 1 64 1 1 (64)
I0305 20:34:33.094878  5371 net.cpp:165] Memory required for data: 314350592
I0305 20:34:33.094882  5371 layer_factory.hpp:77] Creating layer conv8_2_fc2
I0305 20:34:33.094892  5371 net.cpp:100] Creating Layer conv8_2_fc2
I0305 20:34:33.094900  5371 net.cpp:434] conv8_2_fc2 <- conv8_2_fc1
I0305 20:34:33.094908  5371 net.cpp:408] conv8_2_fc2 -> conv8_2_fc2
I0305 20:34:33.097036  5371 net.cpp:150] Setting up conv8_2_fc2
I0305 20:34:33.097048  5371 net.cpp:157] Top shape: 1 256 1 1 (256)
I0305 20:34:33.097050  5371 net.cpp:165] Memory required for data: 314351616
I0305 20:34:33.097057  5371 layer_factory.hpp:77] Creating layer conv8_2_sig
I0305 20:34:33.097066  5371 net.cpp:100] Creating Layer conv8_2_sig
I0305 20:34:33.097070  5371 net.cpp:434] conv8_2_sig <- conv8_2_fc2
I0305 20:34:33.097075  5371 net.cpp:395] conv8_2_sig -> conv8_2_fc2 (in-place)
I0305 20:34:33.097245  5371 net.cpp:150] Setting up conv8_2_sig
I0305 20:34:33.097254  5371 net.cpp:157] Top shape: 1 256 1 1 (256)
I0305 20:34:33.097256  5371 net.cpp:165] Memory required for data: 314352640
I0305 20:34:33.097278  5371 layer_factory.hpp:77] Creating layer conv8_2_reshape
I0305 20:34:33.097287  5371 net.cpp:100] Creating Layer conv8_2_reshape
I0305 20:34:33.097295  5371 net.cpp:434] conv8_2_reshape <- conv8_2_fc2
I0305 20:34:33.097301  5371 net.cpp:408] conv8_2_reshape -> conv8_2_reshape
I0305 20:34:33.097340  5371 net.cpp:150] Setting up conv8_2_reshape
I0305 20:34:33.097347  5371 net.cpp:157] Top shape: 1 256 (256)
I0305 20:34:33.097350  5371 net.cpp:165] Memory required for data: 314353664
I0305 20:34:33.097355  5371 layer_factory.hpp:77] Creating layer conv8_2_scale
I0305 20:34:33.097363  5371 net.cpp:100] Creating Layer conv8_2_scale
I0305 20:34:33.097370  5371 net.cpp:434] conv8_2_scale <- conv8_2_t_conv8_2_relu_0_split_1
I0305 20:34:33.097379  5371 net.cpp:434] conv8_2_scale <- conv8_2_reshape
I0305 20:34:33.097388  5371 net.cpp:408] conv8_2_scale -> conv8_2
I0305 20:34:33.097470  5371 net.cpp:150] Setting up conv8_2_scale
I0305 20:34:33.097487  5371 net.cpp:157] Top shape: 1 256 3 3 (2304)
I0305 20:34:33.097492  5371 net.cpp:165] Memory required for data: 314362880
I0305 20:34:33.097497  5371 layer_factory.hpp:77] Creating layer conv8_2_conv8_2_scale_0_split
I0305 20:34:33.097504  5371 net.cpp:100] Creating Layer conv8_2_conv8_2_scale_0_split
I0305 20:34:33.097508  5371 net.cpp:434] conv8_2_conv8_2_scale_0_split <- conv8_2
I0305 20:34:33.097517  5371 net.cpp:408] conv8_2_conv8_2_scale_0_split -> conv8_2_conv8_2_scale_0_split_0
I0305 20:34:33.097527  5371 net.cpp:408] conv8_2_conv8_2_scale_0_split -> conv8_2_conv8_2_scale_0_split_1
I0305 20:34:33.097532  5371 net.cpp:408] conv8_2_conv8_2_scale_0_split -> conv8_2_conv8_2_scale_0_split_2
I0305 20:34:33.097543  5371 net.cpp:408] conv8_2_conv8_2_scale_0_split -> conv8_2_conv8_2_scale_0_split_3
I0305 20:34:33.097625  5371 net.cpp:150] Setting up conv8_2_conv8_2_scale_0_split
I0305 20:34:33.097632  5371 net.cpp:157] Top shape: 1 256 3 3 (2304)
I0305 20:34:33.097636  5371 net.cpp:157] Top shape: 1 256 3 3 (2304)
I0305 20:34:33.097640  5371 net.cpp:157] Top shape: 1 256 3 3 (2304)
I0305 20:34:33.097645  5371 net.cpp:157] Top shape: 1 256 3 3 (2304)
I0305 20:34:33.097648  5371 net.cpp:165] Memory required for data: 314399744
I0305 20:34:33.097652  5371 layer_factory.hpp:77] Creating layer conv9_1
I0305 20:34:33.097661  5371 net.cpp:100] Creating Layer conv9_1
I0305 20:34:33.097666  5371 net.cpp:434] conv9_1 <- conv8_2_conv8_2_scale_0_split_0
I0305 20:34:33.097676  5371 net.cpp:408] conv9_1 -> conv9_1
I0305 20:34:33.114965  5371 net.cpp:150] Setting up conv9_1
I0305 20:34:33.114979  5371 net.cpp:157] Top shape: 1 128 3 3 (1152)
I0305 20:34:33.114984  5371 net.cpp:165] Memory required for data: 314404352
I0305 20:34:33.114989  5371 layer_factory.hpp:77] Creating layer conv9_1_relu
I0305 20:34:33.114995  5371 net.cpp:100] Creating Layer conv9_1_relu
I0305 20:34:33.115000  5371 net.cpp:434] conv9_1_relu <- conv9_1
I0305 20:34:33.115005  5371 net.cpp:395] conv9_1_relu -> conv9_1 (in-place)
I0305 20:34:33.119022  5371 net.cpp:150] Setting up conv9_1_relu
I0305 20:34:33.119035  5371 net.cpp:157] Top shape: 1 128 3 3 (1152)
I0305 20:34:33.119038  5371 net.cpp:165] Memory required for data: 314408960
I0305 20:34:33.119042  5371 layer_factory.hpp:77] Creating layer conv9_2
I0305 20:34:33.119052  5371 net.cpp:100] Creating Layer conv9_2
I0305 20:34:33.119056  5371 net.cpp:434] conv9_2 <- conv9_1
I0305 20:34:33.119066  5371 net.cpp:408] conv9_2 -> conv9_2_t
I0305 20:34:33.123035  5371 net.cpp:150] Setting up conv9_2
I0305 20:34:33.123050  5371 net.cpp:157] Top shape: 1 256 1 1 (256)
I0305 20:34:33.123054  5371 net.cpp:165] Memory required for data: 314409984
I0305 20:34:33.123061  5371 layer_factory.hpp:77] Creating layer conv9_2_relu
I0305 20:34:33.123069  5371 net.cpp:100] Creating Layer conv9_2_relu
I0305 20:34:33.123075  5371 net.cpp:434] conv9_2_relu <- conv9_2_t
I0305 20:34:33.123080  5371 net.cpp:395] conv9_2_relu -> conv9_2_t (in-place)
I0305 20:34:33.123275  5371 net.cpp:150] Setting up conv9_2_relu
I0305 20:34:33.123284  5371 net.cpp:157] Top shape: 1 256 1 1 (256)
I0305 20:34:33.123304  5371 net.cpp:165] Memory required for data: 314411008
I0305 20:34:33.123309  5371 layer_factory.hpp:77] Creating layer conv9_2_t_conv9_2_relu_0_split
I0305 20:34:33.123316  5371 net.cpp:100] Creating Layer conv9_2_t_conv9_2_relu_0_split
I0305 20:34:33.123320  5371 net.cpp:434] conv9_2_t_conv9_2_relu_0_split <- conv9_2_t
I0305 20:34:33.123327  5371 net.cpp:408] conv9_2_t_conv9_2_relu_0_split -> conv9_2_t_conv9_2_relu_0_split_0
I0305 20:34:33.123333  5371 net.cpp:408] conv9_2_t_conv9_2_relu_0_split -> conv9_2_t_conv9_2_relu_0_split_1
I0305 20:34:33.123386  5371 net.cpp:150] Setting up conv9_2_t_conv9_2_relu_0_split
I0305 20:34:33.123394  5371 net.cpp:157] Top shape: 1 256 1 1 (256)
I0305 20:34:33.123399  5371 net.cpp:157] Top shape: 1 256 1 1 (256)
I0305 20:34:33.123402  5371 net.cpp:165] Memory required for data: 314413056
I0305 20:34:33.123407  5371 layer_factory.hpp:77] Creating layer conv9_2_s
I0305 20:34:33.123416  5371 net.cpp:100] Creating Layer conv9_2_s
I0305 20:34:33.123421  5371 net.cpp:434] conv9_2_s <- conv9_2_t_conv9_2_relu_0_split_0
I0305 20:34:33.123427  5371 net.cpp:408] conv9_2_s -> conv9_2_s
I0305 20:34:33.123637  5371 net.cpp:150] Setting up conv9_2_s
I0305 20:34:33.123646  5371 net.cpp:157] Top shape: 1 256 1 1 (256)
I0305 20:34:33.123649  5371 net.cpp:165] Memory required for data: 314414080
I0305 20:34:33.123652  5371 layer_factory.hpp:77] Creating layer conv9_2_fc1
I0305 20:34:33.123662  5371 net.cpp:100] Creating Layer conv9_2_fc1
I0305 20:34:33.123669  5371 net.cpp:434] conv9_2_fc1 <- conv9_2_s
I0305 20:34:33.123675  5371 net.cpp:408] conv9_2_fc1 -> conv9_2_fc1
I0305 20:34:33.125025  5371 net.cpp:150] Setting up conv9_2_fc1
I0305 20:34:33.125036  5371 net.cpp:157] Top shape: 1 64 1 1 (64)
I0305 20:34:33.125039  5371 net.cpp:165] Memory required for data: 314414336
I0305 20:34:33.125046  5371 layer_factory.hpp:77] Creating layer conv9_2_relu
I0305 20:34:33.125051  5371 net.cpp:100] Creating Layer conv9_2_relu
I0305 20:34:33.125057  5371 net.cpp:434] conv9_2_relu <- conv9_2_fc1
I0305 20:34:33.125066  5371 net.cpp:395] conv9_2_relu -> conv9_2_fc1 (in-place)
I0305 20:34:33.125633  5371 net.cpp:150] Setting up conv9_2_relu
I0305 20:34:33.125656  5371 net.cpp:157] Top shape: 1 64 1 1 (64)
I0305 20:34:33.125660  5371 net.cpp:165] Memory required for data: 314414592
I0305 20:34:33.125664  5371 layer_factory.hpp:77] Creating layer conv9_2_fc2
I0305 20:34:33.125674  5371 net.cpp:100] Creating Layer conv9_2_fc2
I0305 20:34:33.125679  5371 net.cpp:434] conv9_2_fc2 <- conv9_2_fc1
I0305 20:34:33.125687  5371 net.cpp:408] conv9_2_fc2 -> conv9_2_fc2
I0305 20:34:33.129901  5371 net.cpp:150] Setting up conv9_2_fc2
I0305 20:34:33.129914  5371 net.cpp:157] Top shape: 1 256 1 1 (256)
I0305 20:34:33.129917  5371 net.cpp:165] Memory required for data: 314415616
I0305 20:34:33.129923  5371 layer_factory.hpp:77] Creating layer conv9_2_sig
I0305 20:34:33.129931  5371 net.cpp:100] Creating Layer conv9_2_sig
I0305 20:34:33.129936  5371 net.cpp:434] conv9_2_sig <- conv9_2_fc2
I0305 20:34:33.129941  5371 net.cpp:395] conv9_2_sig -> conv9_2_fc2 (in-place)
I0305 20:34:33.130115  5371 net.cpp:150] Setting up conv9_2_sig
I0305 20:34:33.130125  5371 net.cpp:157] Top shape: 1 256 1 1 (256)
I0305 20:34:33.130127  5371 net.cpp:165] Memory required for data: 314416640
I0305 20:34:33.130132  5371 layer_factory.hpp:77] Creating layer conv9_2_reshape
I0305 20:34:33.130139  5371 net.cpp:100] Creating Layer conv9_2_reshape
I0305 20:34:33.130144  5371 net.cpp:434] conv9_2_reshape <- conv9_2_fc2
I0305 20:34:33.130152  5371 net.cpp:408] conv9_2_reshape -> conv9_2_reshape
I0305 20:34:33.130194  5371 net.cpp:150] Setting up conv9_2_reshape
I0305 20:34:33.130201  5371 net.cpp:157] Top shape: 1 256 (256)
I0305 20:34:33.130204  5371 net.cpp:165] Memory required for data: 314417664
I0305 20:34:33.130208  5371 layer_factory.hpp:77] Creating layer conv9_2_scale
I0305 20:34:33.130214  5371 net.cpp:100] Creating Layer conv9_2_scale
I0305 20:34:33.130218  5371 net.cpp:434] conv9_2_scale <- conv9_2_t_conv9_2_relu_0_split_1
I0305 20:34:33.130235  5371 net.cpp:434] conv9_2_scale <- conv9_2_reshape
I0305 20:34:33.130242  5371 net.cpp:408] conv9_2_scale -> conv9_2
I0305 20:34:33.130373  5371 net.cpp:150] Setting up conv9_2_scale
I0305 20:34:33.130381  5371 net.cpp:157] Top shape: 1 256 1 1 (256)
I0305 20:34:33.130385  5371 net.cpp:165] Memory required for data: 314418688
I0305 20:34:33.130390  5371 layer_factory.hpp:77] Creating layer conv9_2_conv9_2_scale_0_split
I0305 20:34:33.130398  5371 net.cpp:100] Creating Layer conv9_2_conv9_2_scale_0_split
I0305 20:34:33.130403  5371 net.cpp:434] conv9_2_conv9_2_scale_0_split <- conv9_2
I0305 20:34:33.130408  5371 net.cpp:408] conv9_2_conv9_2_scale_0_split -> conv9_2_conv9_2_scale_0_split_0
I0305 20:34:33.130414  5371 net.cpp:408] conv9_2_conv9_2_scale_0_split -> conv9_2_conv9_2_scale_0_split_1
I0305 20:34:33.130421  5371 net.cpp:408] conv9_2_conv9_2_scale_0_split -> conv9_2_conv9_2_scale_0_split_2
I0305 20:34:33.130487  5371 net.cpp:150] Setting up conv9_2_conv9_2_scale_0_split
I0305 20:34:33.130496  5371 net.cpp:157] Top shape: 1 256 1 1 (256)
I0305 20:34:33.130501  5371 net.cpp:157] Top shape: 1 256 1 1 (256)
I0305 20:34:33.130504  5371 net.cpp:157] Top shape: 1 256 1 1 (256)
I0305 20:34:33.130507  5371 net.cpp:165] Memory required for data: 314421760
I0305 20:34:33.130512  5371 layer_factory.hpp:77] Creating layer conv4_3_norm
I0305 20:34:33.130523  5371 net.cpp:100] Creating Layer conv4_3_norm
I0305 20:34:33.130532  5371 net.cpp:434] conv4_3_norm <- conv4_3_conv4_3_scale_0_split_1
I0305 20:34:33.130538  5371 net.cpp:408] conv4_3_norm -> conv4_3_norm
I0305 20:34:33.130734  5371 net.cpp:150] Setting up conv4_3_norm
I0305 20:34:33.130743  5371 net.cpp:157] Top shape: 1 512 38 38 (739328)
I0305 20:34:33.130744  5371 net.cpp:165] Memory required for data: 317379072
I0305 20:34:33.130749  5371 layer_factory.hpp:77] Creating layer conv4_3_norm_conv4_3_norm_0_split
I0305 20:34:33.130759  5371 net.cpp:100] Creating Layer conv4_3_norm_conv4_3_norm_0_split
I0305 20:34:33.130764  5371 net.cpp:434] conv4_3_norm_conv4_3_norm_0_split <- conv4_3_norm
I0305 20:34:33.130771  5371 net.cpp:408] conv4_3_norm_conv4_3_norm_0_split -> conv4_3_norm_conv4_3_norm_0_split_0
I0305 20:34:33.130777  5371 net.cpp:408] conv4_3_norm_conv4_3_norm_0_split -> conv4_3_norm_conv4_3_norm_0_split_1
I0305 20:34:33.130784  5371 net.cpp:408] conv4_3_norm_conv4_3_norm_0_split -> conv4_3_norm_conv4_3_norm_0_split_2
I0305 20:34:33.130841  5371 net.cpp:150] Setting up conv4_3_norm_conv4_3_norm_0_split
I0305 20:34:33.130848  5371 net.cpp:157] Top shape: 1 512 38 38 (739328)
I0305 20:34:33.130852  5371 net.cpp:157] Top shape: 1 512 38 38 (739328)
I0305 20:34:33.130856  5371 net.cpp:157] Top shape: 1 512 38 38 (739328)
I0305 20:34:33.130865  5371 net.cpp:165] Memory required for data: 326251008
I0305 20:34:33.130869  5371 layer_factory.hpp:77] Creating layer conv4_3_norm_mbox_loc
I0305 20:34:33.130878  5371 net.cpp:100] Creating Layer conv4_3_norm_mbox_loc
I0305 20:34:33.130883  5371 net.cpp:434] conv4_3_norm_mbox_loc <- conv4_3_norm_conv4_3_norm_0_split_0
I0305 20:34:33.130892  5371 net.cpp:408] conv4_3_norm_mbox_loc -> conv4_3_norm_mbox_loc
I0305 20:34:33.132853  5371 net.cpp:150] Setting up conv4_3_norm_mbox_loc
I0305 20:34:33.132864  5371 net.cpp:157] Top shape: 1 16 38 38 (23104)
I0305 20:34:33.132869  5371 net.cpp:165] Memory required for data: 326343424
I0305 20:34:33.132875  5371 layer_factory.hpp:77] Creating layer conv4_3_norm_mbox_loc_perm
I0305 20:34:33.132884  5371 net.cpp:100] Creating Layer conv4_3_norm_mbox_loc_perm
I0305 20:34:33.132889  5371 net.cpp:434] conv4_3_norm_mbox_loc_perm <- conv4_3_norm_mbox_loc
I0305 20:34:33.132900  5371 net.cpp:408] conv4_3_norm_mbox_loc_perm -> conv4_3_norm_mbox_loc_perm
I0305 20:34:33.133056  5371 net.cpp:150] Setting up conv4_3_norm_mbox_loc_perm
I0305 20:34:33.133064  5371 net.cpp:157] Top shape: 1 38 38 16 (23104)
I0305 20:34:33.133066  5371 net.cpp:165] Memory required for data: 326435840
I0305 20:34:33.133070  5371 layer_factory.hpp:77] Creating layer conv4_3_norm_mbox_loc_flat
I0305 20:34:33.133091  5371 net.cpp:100] Creating Layer conv4_3_norm_mbox_loc_flat
I0305 20:34:33.133095  5371 net.cpp:434] conv4_3_norm_mbox_loc_flat <- conv4_3_norm_mbox_loc_perm
I0305 20:34:33.133100  5371 net.cpp:408] conv4_3_norm_mbox_loc_flat -> conv4_3_norm_mbox_loc_flat
I0305 20:34:33.133134  5371 net.cpp:150] Setting up conv4_3_norm_mbox_loc_flat
I0305 20:34:33.133141  5371 net.cpp:157] Top shape: 1 23104 (23104)
I0305 20:34:33.133146  5371 net.cpp:165] Memory required for data: 326528256
I0305 20:34:33.133148  5371 layer_factory.hpp:77] Creating layer conv4_3_norm_mbox_conf
I0305 20:34:33.133169  5371 net.cpp:100] Creating Layer conv4_3_norm_mbox_conf
I0305 20:34:33.133177  5371 net.cpp:434] conv4_3_norm_mbox_conf <- conv4_3_norm_conv4_3_norm_0_split_1
I0305 20:34:33.133184  5371 net.cpp:408] conv4_3_norm_mbox_conf -> conv4_3_norm_mbox_conf
I0305 20:34:33.137364  5371 net.cpp:150] Setting up conv4_3_norm_mbox_conf
I0305 20:34:33.137377  5371 net.cpp:157] Top shape: 1 84 38 38 (121296)
I0305 20:34:33.137382  5371 net.cpp:165] Memory required for data: 327013440
I0305 20:34:33.137387  5371 layer_factory.hpp:77] Creating layer conv4_3_norm_mbox_conf_perm
I0305 20:34:33.137395  5371 net.cpp:100] Creating Layer conv4_3_norm_mbox_conf_perm
I0305 20:34:33.137403  5371 net.cpp:434] conv4_3_norm_mbox_conf_perm <- conv4_3_norm_mbox_conf
I0305 20:34:33.137408  5371 net.cpp:408] conv4_3_norm_mbox_conf_perm -> conv4_3_norm_mbox_conf_perm
I0305 20:34:33.137542  5371 net.cpp:150] Setting up conv4_3_norm_mbox_conf_perm
I0305 20:34:33.137549  5371 net.cpp:157] Top shape: 1 38 38 84 (121296)
I0305 20:34:33.137552  5371 net.cpp:165] Memory required for data: 327498624
I0305 20:34:33.137555  5371 layer_factory.hpp:77] Creating layer conv4_3_norm_mbox_conf_flat
I0305 20:34:33.137562  5371 net.cpp:100] Creating Layer conv4_3_norm_mbox_conf_flat
I0305 20:34:33.137567  5371 net.cpp:434] conv4_3_norm_mbox_conf_flat <- conv4_3_norm_mbox_conf_perm
I0305 20:34:33.137578  5371 net.cpp:408] conv4_3_norm_mbox_conf_flat -> conv4_3_norm_mbox_conf_flat
I0305 20:34:33.137610  5371 net.cpp:150] Setting up conv4_3_norm_mbox_conf_flat
I0305 20:34:33.137619  5371 net.cpp:157] Top shape: 1 121296 (121296)
I0305 20:34:33.137620  5371 net.cpp:165] Memory required for data: 327983808
I0305 20:34:33.137625  5371 layer_factory.hpp:77] Creating layer conv4_3_norm_mbox_priorbox
I0305 20:34:33.137635  5371 net.cpp:100] Creating Layer conv4_3_norm_mbox_priorbox
I0305 20:34:33.137642  5371 net.cpp:434] conv4_3_norm_mbox_priorbox <- conv4_3_norm_conv4_3_norm_0_split_2
I0305 20:34:33.137646  5371 net.cpp:434] conv4_3_norm_mbox_priorbox <- data_data_0_split_1
I0305 20:34:33.137653  5371 net.cpp:408] conv4_3_norm_mbox_priorbox -> conv4_3_norm_mbox_priorbox
I0305 20:34:33.137691  5371 net.cpp:150] Setting up conv4_3_norm_mbox_priorbox
I0305 20:34:33.137699  5371 net.cpp:157] Top shape: 1 2 23104 (46208)
I0305 20:34:33.137704  5371 net.cpp:165] Memory required for data: 328168640
I0305 20:34:33.137707  5371 layer_factory.hpp:77] Creating layer fc7_mbox_loc
I0305 20:34:33.137720  5371 net.cpp:100] Creating Layer fc7_mbox_loc
I0305 20:34:33.137727  5371 net.cpp:434] fc7_mbox_loc <- fc7_fc7_scale_0_split_1
I0305 20:34:33.137733  5371 net.cpp:408] fc7_mbox_loc -> fc7_mbox_loc
I0305 20:34:33.140346  5371 net.cpp:150] Setting up fc7_mbox_loc
I0305 20:34:33.140358  5371 net.cpp:157] Top shape: 1 24 19 19 (8664)
I0305 20:34:33.140362  5371 net.cpp:165] Memory required for data: 328203296
I0305 20:34:33.140367  5371 layer_factory.hpp:77] Creating layer fc7_mbox_loc_perm
I0305 20:34:33.140377  5371 net.cpp:100] Creating Layer fc7_mbox_loc_perm
I0305 20:34:33.140380  5371 net.cpp:434] fc7_mbox_loc_perm <- fc7_mbox_loc
I0305 20:34:33.140388  5371 net.cpp:408] fc7_mbox_loc_perm -> fc7_mbox_loc_perm
I0305 20:34:33.140529  5371 net.cpp:150] Setting up fc7_mbox_loc_perm
I0305 20:34:33.140537  5371 net.cpp:157] Top shape: 1 19 19 24 (8664)
I0305 20:34:33.140539  5371 net.cpp:165] Memory required for data: 328237952
I0305 20:34:33.140547  5371 layer_factory.hpp:77] Creating layer fc7_mbox_loc_flat
I0305 20:34:33.140565  5371 net.cpp:100] Creating Layer fc7_mbox_loc_flat
I0305 20:34:33.140575  5371 net.cpp:434] fc7_mbox_loc_flat <- fc7_mbox_loc_perm
I0305 20:34:33.140583  5371 net.cpp:408] fc7_mbox_loc_flat -> fc7_mbox_loc_flat
I0305 20:34:33.140620  5371 net.cpp:150] Setting up fc7_mbox_loc_flat
I0305 20:34:33.140627  5371 net.cpp:157] Top shape: 1 8664 (8664)
I0305 20:34:33.140630  5371 net.cpp:165] Memory required for data: 328272608
I0305 20:34:33.140635  5371 layer_factory.hpp:77] Creating layer fc7_mbox_conf
I0305 20:34:33.140645  5371 net.cpp:100] Creating Layer fc7_mbox_conf
I0305 20:34:33.140652  5371 net.cpp:434] fc7_mbox_conf <- fc7_fc7_scale_0_split_2
I0305 20:34:33.140660  5371 net.cpp:408] fc7_mbox_conf -> fc7_mbox_conf
I0305 20:34:33.151891  5371 net.cpp:150] Setting up fc7_mbox_conf
I0305 20:34:33.151906  5371 net.cpp:157] Top shape: 1 126 19 19 (45486)
I0305 20:34:33.151909  5371 net.cpp:165] Memory required for data: 328454552
I0305 20:34:33.151916  5371 layer_factory.hpp:77] Creating layer fc7_mbox_conf_perm
I0305 20:34:33.151923  5371 net.cpp:100] Creating Layer fc7_mbox_conf_perm
I0305 20:34:33.151927  5371 net.cpp:434] fc7_mbox_conf_perm <- fc7_mbox_conf
I0305 20:34:33.151935  5371 net.cpp:408] fc7_mbox_conf_perm -> fc7_mbox_conf_perm
I0305 20:34:33.152072  5371 net.cpp:150] Setting up fc7_mbox_conf_perm
I0305 20:34:33.152081  5371 net.cpp:157] Top shape: 1 19 19 126 (45486)
I0305 20:34:33.152083  5371 net.cpp:165] Memory required for data: 328636496
I0305 20:34:33.152086  5371 layer_factory.hpp:77] Creating layer fc7_mbox_conf_flat
I0305 20:34:33.152092  5371 net.cpp:100] Creating Layer fc7_mbox_conf_flat
I0305 20:34:33.152097  5371 net.cpp:434] fc7_mbox_conf_flat <- fc7_mbox_conf_perm
I0305 20:34:33.152102  5371 net.cpp:408] fc7_mbox_conf_flat -> fc7_mbox_conf_flat
I0305 20:34:33.152143  5371 net.cpp:150] Setting up fc7_mbox_conf_flat
I0305 20:34:33.152149  5371 net.cpp:157] Top shape: 1 45486 (45486)
I0305 20:34:33.152153  5371 net.cpp:165] Memory required for data: 328818440
I0305 20:34:33.152156  5371 layer_factory.hpp:77] Creating layer fc7_mbox_priorbox
I0305 20:34:33.152163  5371 net.cpp:100] Creating Layer fc7_mbox_priorbox
I0305 20:34:33.152166  5371 net.cpp:434] fc7_mbox_priorbox <- fc7_fc7_scale_0_split_3
I0305 20:34:33.152173  5371 net.cpp:434] fc7_mbox_priorbox <- data_data_0_split_2
I0305 20:34:33.152181  5371 net.cpp:408] fc7_mbox_priorbox -> fc7_mbox_priorbox
I0305 20:34:33.152216  5371 net.cpp:150] Setting up fc7_mbox_priorbox
I0305 20:34:33.152226  5371 net.cpp:157] Top shape: 1 2 8664 (17328)
I0305 20:34:33.152232  5371 net.cpp:165] Memory required for data: 328887752
I0305 20:34:33.152236  5371 layer_factory.hpp:77] Creating layer conv6_2_mbox_loc
I0305 20:34:33.152245  5371 net.cpp:100] Creating Layer conv6_2_mbox_loc
I0305 20:34:33.152251  5371 net.cpp:434] conv6_2_mbox_loc <- conv6_2_conv6_2_scale_0_split_1
I0305 20:34:33.152264  5371 net.cpp:408] conv6_2_mbox_loc -> conv6_2_mbox_loc
I0305 20:34:33.154418  5371 net.cpp:150] Setting up conv6_2_mbox_loc
I0305 20:34:33.154433  5371 net.cpp:157] Top shape: 1 24 10 10 (2400)
I0305 20:34:33.154436  5371 net.cpp:165] Memory required for data: 328897352
I0305 20:34:33.154446  5371 layer_factory.hpp:77] Creating layer conv6_2_mbox_loc_perm
I0305 20:34:33.154453  5371 net.cpp:100] Creating Layer conv6_2_mbox_loc_perm
I0305 20:34:33.154460  5371 net.cpp:434] conv6_2_mbox_loc_perm <- conv6_2_mbox_loc
I0305 20:34:33.154470  5371 net.cpp:408] conv6_2_mbox_loc_perm -> conv6_2_mbox_loc_perm
I0305 20:34:33.154629  5371 net.cpp:150] Setting up conv6_2_mbox_loc_perm
I0305 20:34:33.154636  5371 net.cpp:157] Top shape: 1 10 10 24 (2400)
I0305 20:34:33.154640  5371 net.cpp:165] Memory required for data: 328906952
I0305 20:34:33.154644  5371 layer_factory.hpp:77] Creating layer conv6_2_mbox_loc_flat
I0305 20:34:33.154651  5371 net.cpp:100] Creating Layer conv6_2_mbox_loc_flat
I0305 20:34:33.154659  5371 net.cpp:434] conv6_2_mbox_loc_flat <- conv6_2_mbox_loc_perm
I0305 20:34:33.154664  5371 net.cpp:408] conv6_2_mbox_loc_flat -> conv6_2_mbox_loc_flat
I0305 20:34:33.154711  5371 net.cpp:150] Setting up conv6_2_mbox_loc_flat
I0305 20:34:33.154717  5371 net.cpp:157] Top shape: 1 2400 (2400)
I0305 20:34:33.154721  5371 net.cpp:165] Memory required for data: 328916552
I0305 20:34:33.154724  5371 layer_factory.hpp:77] Creating layer conv6_2_mbox_conf
I0305 20:34:33.154734  5371 net.cpp:100] Creating Layer conv6_2_mbox_conf
I0305 20:34:33.154739  5371 net.cpp:434] conv6_2_mbox_conf <- conv6_2_conv6_2_scale_0_split_2
I0305 20:34:33.154749  5371 net.cpp:408] conv6_2_mbox_conf -> conv6_2_mbox_conf
I0305 20:34:33.159618  5371 net.cpp:150] Setting up conv6_2_mbox_conf
I0305 20:34:33.159631  5371 net.cpp:157] Top shape: 1 126 10 10 (12600)
I0305 20:34:33.159636  5371 net.cpp:165] Memory required for data: 328966952
I0305 20:34:33.159646  5371 layer_factory.hpp:77] Creating layer conv6_2_mbox_conf_perm
I0305 20:34:33.159656  5371 net.cpp:100] Creating Layer conv6_2_mbox_conf_perm
I0305 20:34:33.159664  5371 net.cpp:434] conv6_2_mbox_conf_perm <- conv6_2_mbox_conf
I0305 20:34:33.159672  5371 net.cpp:408] conv6_2_mbox_conf_perm -> conv6_2_mbox_conf_perm
I0305 20:34:33.159808  5371 net.cpp:150] Setting up conv6_2_mbox_conf_perm
I0305 20:34:33.159819  5371 net.cpp:157] Top shape: 1 10 10 126 (12600)
I0305 20:34:33.159823  5371 net.cpp:165] Memory required for data: 329017352
I0305 20:34:33.159827  5371 layer_factory.hpp:77] Creating layer conv6_2_mbox_conf_flat
I0305 20:34:33.159834  5371 net.cpp:100] Creating Layer conv6_2_mbox_conf_flat
I0305 20:34:33.159840  5371 net.cpp:434] conv6_2_mbox_conf_flat <- conv6_2_mbox_conf_perm
I0305 20:34:33.159847  5371 net.cpp:408] conv6_2_mbox_conf_flat -> conv6_2_mbox_conf_flat
I0305 20:34:33.159880  5371 net.cpp:150] Setting up conv6_2_mbox_conf_flat
I0305 20:34:33.159888  5371 net.cpp:157] Top shape: 1 12600 (12600)
I0305 20:34:33.159890  5371 net.cpp:165] Memory required for data: 329067752
I0305 20:34:33.159894  5371 layer_factory.hpp:77] Creating layer conv6_2_mbox_priorbox
I0305 20:34:33.159904  5371 net.cpp:100] Creating Layer conv6_2_mbox_priorbox
I0305 20:34:33.159909  5371 net.cpp:434] conv6_2_mbox_priorbox <- conv6_2_conv6_2_scale_0_split_3
I0305 20:34:33.159916  5371 net.cpp:434] conv6_2_mbox_priorbox <- data_data_0_split_3
I0305 20:34:33.159924  5371 net.cpp:408] conv6_2_mbox_priorbox -> conv6_2_mbox_priorbox
I0305 20:34:33.159960  5371 net.cpp:150] Setting up conv6_2_mbox_priorbox
I0305 20:34:33.159967  5371 net.cpp:157] Top shape: 1 2 2400 (4800)
I0305 20:34:33.159972  5371 net.cpp:165] Memory required for data: 329086952
I0305 20:34:33.159977  5371 layer_factory.hpp:77] Creating layer conv7_2_mbox_loc
I0305 20:34:33.159989  5371 net.cpp:100] Creating Layer conv7_2_mbox_loc
I0305 20:34:33.159996  5371 net.cpp:434] conv7_2_mbox_loc <- conv7_2_conv7_2_scale_0_split_1
I0305 20:34:33.160002  5371 net.cpp:408] conv7_2_mbox_loc -> conv7_2_mbox_loc
I0305 20:34:33.162052  5371 net.cpp:150] Setting up conv7_2_mbox_loc
I0305 20:34:33.162065  5371 net.cpp:157] Top shape: 1 24 5 5 (600)
I0305 20:34:33.162067  5371 net.cpp:165] Memory required for data: 329089352
I0305 20:34:33.162073  5371 layer_factory.hpp:77] Creating layer conv7_2_mbox_loc_perm
I0305 20:34:33.162081  5371 net.cpp:100] Creating Layer conv7_2_mbox_loc_perm
I0305 20:34:33.162087  5371 net.cpp:434] conv7_2_mbox_loc_perm <- conv7_2_mbox_loc
I0305 20:34:33.162094  5371 net.cpp:408] conv7_2_mbox_loc_perm -> conv7_2_mbox_loc_perm
I0305 20:34:33.162231  5371 net.cpp:150] Setting up conv7_2_mbox_loc_perm
I0305 20:34:33.162238  5371 net.cpp:157] Top shape: 1 5 5 24 (600)
I0305 20:34:33.162242  5371 net.cpp:165] Memory required for data: 329091752
I0305 20:34:33.162245  5371 layer_factory.hpp:77] Creating layer conv7_2_mbox_loc_flat
I0305 20:34:33.162250  5371 net.cpp:100] Creating Layer conv7_2_mbox_loc_flat
I0305 20:34:33.162262  5371 net.cpp:434] conv7_2_mbox_loc_flat <- conv7_2_mbox_loc_perm
I0305 20:34:33.162271  5371 net.cpp:408] conv7_2_mbox_loc_flat -> conv7_2_mbox_loc_flat
I0305 20:34:33.162303  5371 net.cpp:150] Setting up conv7_2_mbox_loc_flat
I0305 20:34:33.162379  5371 net.cpp:157] Top shape: 1 600 (600)
I0305 20:34:33.162386  5371 net.cpp:165] Memory required for data: 329094152
I0305 20:34:33.162390  5371 layer_factory.hpp:77] Creating layer conv7_2_mbox_conf
I0305 20:34:33.162402  5371 net.cpp:100] Creating Layer conv7_2_mbox_conf
I0305 20:34:33.162410  5371 net.cpp:434] conv7_2_mbox_conf <- conv7_2_conv7_2_scale_0_split_2
I0305 20:34:33.162420  5371 net.cpp:408] conv7_2_mbox_conf -> conv7_2_mbox_conf
I0305 20:34:33.166719  5371 net.cpp:150] Setting up conv7_2_mbox_conf
I0305 20:34:33.166733  5371 net.cpp:157] Top shape: 1 126 5 5 (3150)
I0305 20:34:33.166736  5371 net.cpp:165] Memory required for data: 329106752
I0305 20:34:33.166743  5371 layer_factory.hpp:77] Creating layer conv7_2_mbox_conf_perm
I0305 20:34:33.166754  5371 net.cpp:100] Creating Layer conv7_2_mbox_conf_perm
I0305 20:34:33.166757  5371 net.cpp:434] conv7_2_mbox_conf_perm <- conv7_2_mbox_conf
I0305 20:34:33.166762  5371 net.cpp:408] conv7_2_mbox_conf_perm -> conv7_2_mbox_conf_perm
I0305 20:34:33.166916  5371 net.cpp:150] Setting up conv7_2_mbox_conf_perm
I0305 20:34:33.166924  5371 net.cpp:157] Top shape: 1 5 5 126 (3150)
I0305 20:34:33.166927  5371 net.cpp:165] Memory required for data: 329119352
I0305 20:34:33.166931  5371 layer_factory.hpp:77] Creating layer conv7_2_mbox_conf_flat
I0305 20:34:33.166940  5371 net.cpp:100] Creating Layer conv7_2_mbox_conf_flat
I0305 20:34:33.166944  5371 net.cpp:434] conv7_2_mbox_conf_flat <- conv7_2_mbox_conf_perm
I0305 20:34:33.166950  5371 net.cpp:408] conv7_2_mbox_conf_flat -> conv7_2_mbox_conf_flat
I0305 20:34:33.166988  5371 net.cpp:150] Setting up conv7_2_mbox_conf_flat
I0305 20:34:33.166996  5371 net.cpp:157] Top shape: 1 3150 (3150)
I0305 20:34:33.166999  5371 net.cpp:165] Memory required for data: 329131952
I0305 20:34:33.167003  5371 layer_factory.hpp:77] Creating layer conv7_2_mbox_priorbox
I0305 20:34:33.167011  5371 net.cpp:100] Creating Layer conv7_2_mbox_priorbox
I0305 20:34:33.167016  5371 net.cpp:434] conv7_2_mbox_priorbox <- conv7_2_conv7_2_scale_0_split_3
I0305 20:34:33.167023  5371 net.cpp:434] conv7_2_mbox_priorbox <- data_data_0_split_4
I0305 20:34:33.167031  5371 net.cpp:408] conv7_2_mbox_priorbox -> conv7_2_mbox_priorbox
I0305 20:34:33.167064  5371 net.cpp:150] Setting up conv7_2_mbox_priorbox
I0305 20:34:33.167073  5371 net.cpp:157] Top shape: 1 2 600 (1200)
I0305 20:34:33.167078  5371 net.cpp:165] Memory required for data: 329136752
I0305 20:34:33.167081  5371 layer_factory.hpp:77] Creating layer conv8_2_mbox_loc
I0305 20:34:33.167093  5371 net.cpp:100] Creating Layer conv8_2_mbox_loc
I0305 20:34:33.167098  5371 net.cpp:434] conv8_2_mbox_loc <- conv8_2_conv8_2_scale_0_split_1
I0305 20:34:33.167105  5371 net.cpp:408] conv8_2_mbox_loc -> conv8_2_mbox_loc
I0305 20:34:33.168555  5371 net.cpp:150] Setting up conv8_2_mbox_loc
I0305 20:34:33.168566  5371 net.cpp:157] Top shape: 1 16 3 3 (144)
I0305 20:34:33.168570  5371 net.cpp:165] Memory required for data: 329137328
I0305 20:34:33.168576  5371 layer_factory.hpp:77] Creating layer conv8_2_mbox_loc_perm
I0305 20:34:33.168586  5371 net.cpp:100] Creating Layer conv8_2_mbox_loc_perm
I0305 20:34:33.168591  5371 net.cpp:434] conv8_2_mbox_loc_perm <- conv8_2_mbox_loc
I0305 20:34:33.168597  5371 net.cpp:408] conv8_2_mbox_loc_perm -> conv8_2_mbox_loc_perm
I0305 20:34:33.168737  5371 net.cpp:150] Setting up conv8_2_mbox_loc_perm
I0305 20:34:33.168745  5371 net.cpp:157] Top shape: 1 3 3 16 (144)
I0305 20:34:33.168754  5371 net.cpp:165] Memory required for data: 329137904
I0305 20:34:33.168761  5371 layer_factory.hpp:77] Creating layer conv8_2_mbox_loc_flat
I0305 20:34:33.168768  5371 net.cpp:100] Creating Layer conv8_2_mbox_loc_flat
I0305 20:34:33.168776  5371 net.cpp:434] conv8_2_mbox_loc_flat <- conv8_2_mbox_loc_perm
I0305 20:34:33.168781  5371 net.cpp:408] conv8_2_mbox_loc_flat -> conv8_2_mbox_loc_flat
I0305 20:34:33.168812  5371 net.cpp:150] Setting up conv8_2_mbox_loc_flat
I0305 20:34:33.168820  5371 net.cpp:157] Top shape: 1 144 (144)
I0305 20:34:33.168823  5371 net.cpp:165] Memory required for data: 329138480
I0305 20:34:33.168839  5371 layer_factory.hpp:77] Creating layer conv8_2_mbox_conf
I0305 20:34:33.168851  5371 net.cpp:100] Creating Layer conv8_2_mbox_conf
I0305 20:34:33.168859  5371 net.cpp:434] conv8_2_mbox_conf <- conv8_2_conv8_2_scale_0_split_2
I0305 20:34:33.168867  5371 net.cpp:408] conv8_2_mbox_conf -> conv8_2_mbox_conf
I0305 20:34:33.171344  5371 net.cpp:150] Setting up conv8_2_mbox_conf
I0305 20:34:33.171357  5371 net.cpp:157] Top shape: 1 84 3 3 (756)
I0305 20:34:33.171361  5371 net.cpp:165] Memory required for data: 329141504
I0305 20:34:33.171367  5371 layer_factory.hpp:77] Creating layer conv8_2_mbox_conf_perm
I0305 20:34:33.171375  5371 net.cpp:100] Creating Layer conv8_2_mbox_conf_perm
I0305 20:34:33.171381  5371 net.cpp:434] conv8_2_mbox_conf_perm <- conv8_2_mbox_conf
I0305 20:34:33.171389  5371 net.cpp:408] conv8_2_mbox_conf_perm -> conv8_2_mbox_conf_perm
I0305 20:34:33.171550  5371 net.cpp:150] Setting up conv8_2_mbox_conf_perm
I0305 20:34:33.171558  5371 net.cpp:157] Top shape: 1 3 3 84 (756)
I0305 20:34:33.171562  5371 net.cpp:165] Memory required for data: 329144528
I0305 20:34:33.171566  5371 layer_factory.hpp:77] Creating layer conv8_2_mbox_conf_flat
I0305 20:34:33.171571  5371 net.cpp:100] Creating Layer conv8_2_mbox_conf_flat
I0305 20:34:33.171576  5371 net.cpp:434] conv8_2_mbox_conf_flat <- conv8_2_mbox_conf_perm
I0305 20:34:33.171583  5371 net.cpp:408] conv8_2_mbox_conf_flat -> conv8_2_mbox_conf_flat
I0305 20:34:33.171618  5371 net.cpp:150] Setting up conv8_2_mbox_conf_flat
I0305 20:34:33.171625  5371 net.cpp:157] Top shape: 1 756 (756)
I0305 20:34:33.171628  5371 net.cpp:165] Memory required for data: 329147552
I0305 20:34:33.171633  5371 layer_factory.hpp:77] Creating layer conv8_2_mbox_priorbox
I0305 20:34:33.171639  5371 net.cpp:100] Creating Layer conv8_2_mbox_priorbox
I0305 20:34:33.171644  5371 net.cpp:434] conv8_2_mbox_priorbox <- conv8_2_conv8_2_scale_0_split_3
I0305 20:34:33.171650  5371 net.cpp:434] conv8_2_mbox_priorbox <- data_data_0_split_5
I0305 20:34:33.171663  5371 net.cpp:408] conv8_2_mbox_priorbox -> conv8_2_mbox_priorbox
I0305 20:34:33.171699  5371 net.cpp:150] Setting up conv8_2_mbox_priorbox
I0305 20:34:33.171706  5371 net.cpp:157] Top shape: 1 2 144 (288)
I0305 20:34:33.171710  5371 net.cpp:165] Memory required for data: 329148704
I0305 20:34:33.171713  5371 layer_factory.hpp:77] Creating layer conv9_2_mbox_loc
I0305 20:34:33.171725  5371 net.cpp:100] Creating Layer conv9_2_mbox_loc
I0305 20:34:33.171731  5371 net.cpp:434] conv9_2_mbox_loc <- conv9_2_conv9_2_scale_0_split_0
I0305 20:34:33.171738  5371 net.cpp:408] conv9_2_mbox_loc -> conv9_2_mbox_loc
I0305 20:34:33.173167  5371 net.cpp:150] Setting up conv9_2_mbox_loc
I0305 20:34:33.173180  5371 net.cpp:157] Top shape: 1 16 1 1 (16)
I0305 20:34:33.173183  5371 net.cpp:165] Memory required for data: 329148768
I0305 20:34:33.173189  5371 layer_factory.hpp:77] Creating layer conv9_2_mbox_loc_perm
I0305 20:34:33.173199  5371 net.cpp:100] Creating Layer conv9_2_mbox_loc_perm
I0305 20:34:33.173205  5371 net.cpp:434] conv9_2_mbox_loc_perm <- conv9_2_mbox_loc
I0305 20:34:33.173218  5371 net.cpp:408] conv9_2_mbox_loc_perm -> conv9_2_mbox_loc_perm
I0305 20:34:33.173357  5371 net.cpp:150] Setting up conv9_2_mbox_loc_perm
I0305 20:34:33.173367  5371 net.cpp:157] Top shape: 1 1 1 16 (16)
I0305 20:34:33.173369  5371 net.cpp:165] Memory required for data: 329148832
I0305 20:34:33.173372  5371 layer_factory.hpp:77] Creating layer conv9_2_mbox_loc_flat
I0305 20:34:33.173377  5371 net.cpp:100] Creating Layer conv9_2_mbox_loc_flat
I0305 20:34:33.173383  5371 net.cpp:434] conv9_2_mbox_loc_flat <- conv9_2_mbox_loc_perm
I0305 20:34:33.173391  5371 net.cpp:408] conv9_2_mbox_loc_flat -> conv9_2_mbox_loc_flat
I0305 20:34:33.173425  5371 net.cpp:150] Setting up conv9_2_mbox_loc_flat
I0305 20:34:33.173431  5371 net.cpp:157] Top shape: 1 16 (16)
I0305 20:34:33.173435  5371 net.cpp:165] Memory required for data: 329148896
I0305 20:34:33.173439  5371 layer_factory.hpp:77] Creating layer conv9_2_mbox_conf
I0305 20:34:33.173449  5371 net.cpp:100] Creating Layer conv9_2_mbox_conf
I0305 20:34:33.173468  5371 net.cpp:434] conv9_2_mbox_conf <- conv9_2_conv9_2_scale_0_split_1
I0305 20:34:33.173478  5371 net.cpp:408] conv9_2_mbox_conf -> conv9_2_mbox_conf
I0305 20:34:33.175984  5371 net.cpp:150] Setting up conv9_2_mbox_conf
I0305 20:34:33.175997  5371 net.cpp:157] Top shape: 1 84 1 1 (84)
I0305 20:34:33.176000  5371 net.cpp:165] Memory required for data: 329149232
I0305 20:34:33.176008  5371 layer_factory.hpp:77] Creating layer conv9_2_mbox_conf_perm
I0305 20:34:33.176028  5371 net.cpp:100] Creating Layer conv9_2_mbox_conf_perm
I0305 20:34:33.176035  5371 net.cpp:434] conv9_2_mbox_conf_perm <- conv9_2_mbox_conf
I0305 20:34:33.176043  5371 net.cpp:408] conv9_2_mbox_conf_perm -> conv9_2_mbox_conf_perm
I0305 20:34:33.176192  5371 net.cpp:150] Setting up conv9_2_mbox_conf_perm
I0305 20:34:33.176200  5371 net.cpp:157] Top shape: 1 1 1 84 (84)
I0305 20:34:33.176203  5371 net.cpp:165] Memory required for data: 329149568
I0305 20:34:33.176206  5371 layer_factory.hpp:77] Creating layer conv9_2_mbox_conf_flat
I0305 20:34:33.176213  5371 net.cpp:100] Creating Layer conv9_2_mbox_conf_flat
I0305 20:34:33.176219  5371 net.cpp:434] conv9_2_mbox_conf_flat <- conv9_2_mbox_conf_perm
I0305 20:34:33.176225  5371 net.cpp:408] conv9_2_mbox_conf_flat -> conv9_2_mbox_conf_flat
I0305 20:34:33.176257  5371 net.cpp:150] Setting up conv9_2_mbox_conf_flat
I0305 20:34:33.176265  5371 net.cpp:157] Top shape: 1 84 (84)
I0305 20:34:33.176268  5371 net.cpp:165] Memory required for data: 329149904
I0305 20:34:33.176271  5371 layer_factory.hpp:77] Creating layer conv9_2_mbox_priorbox
I0305 20:34:33.176280  5371 net.cpp:100] Creating Layer conv9_2_mbox_priorbox
I0305 20:34:33.176286  5371 net.cpp:434] conv9_2_mbox_priorbox <- conv9_2_conv9_2_scale_0_split_2
I0305 20:34:33.176292  5371 net.cpp:434] conv9_2_mbox_priorbox <- data_data_0_split_6
I0305 20:34:33.176301  5371 net.cpp:408] conv9_2_mbox_priorbox -> conv9_2_mbox_priorbox
I0305 20:34:33.176337  5371 net.cpp:150] Setting up conv9_2_mbox_priorbox
I0305 20:34:33.176344  5371 net.cpp:157] Top shape: 1 2 16 (32)
I0305 20:34:33.176348  5371 net.cpp:165] Memory required for data: 329150032
I0305 20:34:33.176352  5371 layer_factory.hpp:77] Creating layer mbox_loc
I0305 20:34:33.176358  5371 net.cpp:100] Creating Layer mbox_loc
I0305 20:34:33.176365  5371 net.cpp:434] mbox_loc <- conv4_3_norm_mbox_loc_flat
I0305 20:34:33.176373  5371 net.cpp:434] mbox_loc <- fc7_mbox_loc_flat
I0305 20:34:33.176379  5371 net.cpp:434] mbox_loc <- conv6_2_mbox_loc_flat
I0305 20:34:33.176384  5371 net.cpp:434] mbox_loc <- conv7_2_mbox_loc_flat
I0305 20:34:33.176393  5371 net.cpp:434] mbox_loc <- conv8_2_mbox_loc_flat
I0305 20:34:33.176403  5371 net.cpp:434] mbox_loc <- conv9_2_mbox_loc_flat
I0305 20:34:33.176414  5371 net.cpp:408] mbox_loc -> mbox_loc
I0305 20:34:33.176450  5371 net.cpp:150] Setting up mbox_loc
I0305 20:34:33.176458  5371 net.cpp:157] Top shape: 1 34928 (34928)
I0305 20:34:33.176462  5371 net.cpp:165] Memory required for data: 329289744
I0305 20:34:33.176468  5371 layer_factory.hpp:77] Creating layer mbox_conf
I0305 20:34:33.176475  5371 net.cpp:100] Creating Layer mbox_conf
I0305 20:34:33.176482  5371 net.cpp:434] mbox_conf <- conv4_3_norm_mbox_conf_flat
I0305 20:34:33.176489  5371 net.cpp:434] mbox_conf <- fc7_mbox_conf_flat
I0305 20:34:33.176494  5371 net.cpp:434] mbox_conf <- conv6_2_mbox_conf_flat
I0305 20:34:33.176501  5371 net.cpp:434] mbox_conf <- conv7_2_mbox_conf_flat
I0305 20:34:33.176507  5371 net.cpp:434] mbox_conf <- conv8_2_mbox_conf_flat
I0305 20:34:33.176520  5371 net.cpp:434] mbox_conf <- conv9_2_mbox_conf_flat
I0305 20:34:33.176532  5371 net.cpp:408] mbox_conf -> mbox_conf
I0305 20:34:33.176565  5371 net.cpp:150] Setting up mbox_conf
I0305 20:34:33.176571  5371 net.cpp:157] Top shape: 1 183372 (183372)
I0305 20:34:33.176574  5371 net.cpp:165] Memory required for data: 330023232
I0305 20:34:33.176578  5371 layer_factory.hpp:77] Creating layer mbox_priorbox
I0305 20:34:33.176586  5371 net.cpp:100] Creating Layer mbox_priorbox
I0305 20:34:33.176604  5371 net.cpp:434] mbox_priorbox <- conv4_3_norm_mbox_priorbox
I0305 20:34:33.176610  5371 net.cpp:434] mbox_priorbox <- fc7_mbox_priorbox
I0305 20:34:33.176620  5371 net.cpp:434] mbox_priorbox <- conv6_2_mbox_priorbox
I0305 20:34:33.176625  5371 net.cpp:434] mbox_priorbox <- conv7_2_mbox_priorbox
I0305 20:34:33.176632  5371 net.cpp:434] mbox_priorbox <- conv8_2_mbox_priorbox
I0305 20:34:33.176640  5371 net.cpp:434] mbox_priorbox <- conv9_2_mbox_priorbox
I0305 20:34:33.176656  5371 net.cpp:408] mbox_priorbox -> mbox_priorbox
I0305 20:34:33.176690  5371 net.cpp:150] Setting up mbox_priorbox
I0305 20:34:33.176697  5371 net.cpp:157] Top shape: 1 2 34928 (69856)
I0305 20:34:33.176702  5371 net.cpp:165] Memory required for data: 330302656
I0305 20:34:33.176705  5371 layer_factory.hpp:77] Creating layer mbox_conf_reshape
I0305 20:34:33.176713  5371 net.cpp:100] Creating Layer mbox_conf_reshape
I0305 20:34:33.176722  5371 net.cpp:434] mbox_conf_reshape <- mbox_conf
I0305 20:34:33.176734  5371 net.cpp:408] mbox_conf_reshape -> mbox_conf_reshape
I0305 20:34:33.176775  5371 net.cpp:150] Setting up mbox_conf_reshape
I0305 20:34:33.176786  5371 net.cpp:157] Top shape: 1 8732 21 (183372)
I0305 20:34:33.176789  5371 net.cpp:165] Memory required for data: 331036144
I0305 20:34:33.176795  5371 layer_factory.hpp:77] Creating layer mbox_conf_softmax
I0305 20:34:33.176802  5371 net.cpp:100] Creating Layer mbox_conf_softmax
I0305 20:34:33.176806  5371 net.cpp:434] mbox_conf_softmax <- mbox_conf_reshape
I0305 20:34:33.176816  5371 net.cpp:408] mbox_conf_softmax -> mbox_conf_softmax
I0305 20:34:33.177091  5371 net.cpp:150] Setting up mbox_conf_softmax
I0305 20:34:33.177099  5371 net.cpp:157] Top shape: 1 8732 21 (183372)
I0305 20:34:33.177103  5371 net.cpp:165] Memory required for data: 331769632
I0305 20:34:33.177108  5371 layer_factory.hpp:77] Creating layer mbox_conf_flatten
I0305 20:34:33.177115  5371 net.cpp:100] Creating Layer mbox_conf_flatten
I0305 20:34:33.177120  5371 net.cpp:434] mbox_conf_flatten <- mbox_conf_softmax
I0305 20:34:33.177129  5371 net.cpp:408] mbox_conf_flatten -> mbox_conf_flatten
I0305 20:34:33.177166  5371 net.cpp:150] Setting up mbox_conf_flatten
I0305 20:34:33.177173  5371 net.cpp:157] Top shape: 1 183372 (183372)
I0305 20:34:33.177176  5371 net.cpp:165] Memory required for data: 332503120
I0305 20:34:33.177182  5371 layer_factory.hpp:77] Creating layer detection_out
I0305 20:34:33.177199  5371 net.cpp:100] Creating Layer detection_out
I0305 20:34:33.177206  5371 net.cpp:434] detection_out <- mbox_loc
I0305 20:34:33.177211  5371 net.cpp:434] detection_out <- mbox_conf_flatten
I0305 20:34:33.177215  5371 net.cpp:434] detection_out <- mbox_priorbox
I0305 20:34:33.177223  5371 net.cpp:408] detection_out -> detection_out
I0305 20:34:33.180316  5371 net.cpp:150] Setting up detection_out
I0305 20:34:33.180327  5371 net.cpp:157] Top shape: 1 1 1 7 (7)
I0305 20:34:33.180330  5371 net.cpp:165] Memory required for data: 332503148
I0305 20:34:33.180335  5371 layer_factory.hpp:77] Creating layer slience
I0305 20:34:33.180343  5371 net.cpp:100] Creating Layer slience
I0305 20:34:33.180347  5371 net.cpp:434] slience <- detection_out
I0305 20:34:33.180356  5371 net.cpp:150] Setting up slience
I0305 20:34:33.180361  5371 net.cpp:165] Memory required for data: 332503148
…
